node {
  name: "tensor_4_odule/model/22/placeholder/0"
  op: "Placeholder"
  attr {
    key: "dtype"
    value {
      type: DT_INT32
    }
  }
  attr {
    key: "shape"
    value {
      shape {
        dim {
          size: 32
        }
        dim {
          size: 1
        }
        dim {
          size: 1
        }
        dim {
          size: 1
        }
        dim {
          size: 1
        }
      }
    }
  }
  attr {
    key: "synDataType"
    value {
      s: "int32"
    }
  }
}
node {
  name: "module/model/22/expand_dims/10915"
  op: "ExpandDims"
  input: "tensor_4_odule/model/22/placeholder/0"
  attr {
    key: "Bundle_idx"
    value {
      s: "N/A"
    }
  }
  attr {
    key: "Exec_idx"
    value {
      s: "0"
    }
  }
  attr {
    key: "Op_idx"
    value {
      s: "N/A"
    }
  }
  attr {
    key: "inputTensor:0"
    value {
      s: "tensor_4_odule/model/22/placeholder/0  |  Sizes = [32]  |  int32  |  expBias = 0, scale = 1  |    |  ModelParam = 0  |  strides = [128, 4]  |  data = 0, sizeInBytes = 128  |  isPersistent  |  location = in DRAM  |  dramOffset = 0x50000000000  |  userMemorySection(type=Persistent, id=5)  |  "
    }
  }
  attr {
    key: "outputTensor:0"
    value {
      s: "tensor_5_id_112930_module/model/22/aten__unsqueeze/1  |  Sizes = [1,32]  |  int32  |  expBias = 0, scale = 1  |    |  ModelParam = 0  |  strides = [128, 128, 4]  |  data = 0, sizeInBytes = 128  |  isAliased = tensor_4_odule/model/22/placeholder/0, type = alias, offset: 0  |  location = in DRAM  |  "
    }
  }
}
node {
  name: "tensor_6_odule/model/22/rotary_emb/placeholder/0"
  op: "Placeholder"
  attr {
    key: "dtype"
    value {
      type: DT_BFLOAT16
    }
  }
  attr {
    key: "shape"
    value {
      shape {
        dim {
          size: 128
        }
        dim {
          size: 131072
        }
        dim {
          size: 1
        }
        dim {
          size: 1
        }
        dim {
          size: 1
        }
      }
    }
  }
  attr {
    key: "synDataType"
    value {
      s: "bf16"
    }
  }
}
node {
  name: "module/model/22/rotary_emb/slice/10916"
  op: "Slice"
  input: "tensor_6_odule/model/22/rotary_emb/placeholder/0"
  attr {
    key: "Bundle_idx"
    value {
      s: "N/A"
    }
  }
  attr {
    key: "Exec_idx"
    value {
      s: "1"
    }
  }
  attr {
    key: "Op_idx"
    value {
      s: "N/A"
    }
  }
  attr {
    key: "inputTensor:0"
    value {
      s: "tensor_6_odule/model/22/rotary_emb/placeholder/0  |  Sizes = [131072,128]  |  bf16  |  expBias = 0, scale = 1  |    |  ModelParam = 0  |  strides = [33554432, 256, 2]  |  data = 0, sizeInBytes = 33554432  |  isPersistent  |  location = in DRAM  |  dramOffset = 0x60000000000  |  userMemorySection(type=Persistent, id=6)  |  "
    }
  }
  attr {
    key: "outputTensor:0"
    value {
      s: "tensor_7_id_112993_module/model/22/rotary_emb/aten__slice  |  Sizes = [32,128]  |  bf16  |  expBias = 0, scale = 1  |    |  ModelParam = 0  |  strides = [33554432, 256, 2]  |  data = 0, sizeInBytes = 8192  |  isAliased = tensor_6_odule/model/22/rotary_emb/placeholder/0, type = slice, offset: 0  |  location = in DRAM  |  "
    }
  }
}
node {
  name: "tensor_8_odule/model/22/rotary_emb/placeholder/1"
  op: "Placeholder"
  attr {
    key: "dtype"
    value {
      type: DT_FLOAT
    }
  }
  attr {
    key: "shape"
    value {
      shape {
        dim {
          size: 1
        }
        dim {
          size: 1
        }
        dim {
          size: 1
        }
        dim {
          size: 1
        }
        dim {
          size: 1
        }
      }
    }
  }
  attr {
    key: "synDataType"
    value {
      s: "float32"
    }
  }
}
node {
  name: "module/model/22/rotary_emb/cast_f32_to_bf16/10917"
  op: "cast_f32_to_bf16"
  input: "tensor_8_odule/model/22/rotary_emb/placeholder/1"
  attr {
    key: "Bundle_idx"
    value {
      s: "N/A"
    }
  }
  attr {
    key: "Exec_idx"
    value {
      s: "2"
    }
  }
  attr {
    key: "Op_idx"
    value {
      s: "N/A"
    }
  }
  attr {
    key: "inputTensor:0"
    value {
      s: "tensor_8_odule/model/22/rotary_emb/placeholder/1  |  Sizes = [1]  |  float32  |  expBias = 0, scale = 1  |    |  ModelParam = 0  |  strides = [4, 4]  |  data = 0, sizeInBytes = 4  |  isPersistent  |  location = in DRAM  |  dramOffset = 0x70000000000  |  userMemorySection(type=Persistent, id=7)  |  "
    }
  }
  attr {
    key: "outputTensor:0"
    value {
      s: "tensor_10  |  Sizes = [1]  |  bf16  |  expBias = 0, scale = 1  |    |  ModelParam = 0  |  strides = [2, 2]  |  data = 0, sizeInBytes = 2  |  location = in DRAM  |  dramOffset = 0x40000000000  |  "
    }
  }
}
node {
  name: "module/model/22/rotary_emb/mult_fwd_bf16/10918_complex/mult_fwd_bf16_0"
  op: "mult_fwd_bf16"
  input: "module/model/22/rotary_emb/slice/10916"
  input: "module/model/22/rotary_emb/cast_f32_to_bf16/10917"
  attr {
    key: "Bundle_idx"
    value {
      s: "N/A"
    }
  }
  attr {
    key: "Exec_idx"
    value {
      s: "3"
    }
  }
  attr {
    key: "Op_idx"
    value {
      s: "N/A"
    }
  }
  attr {
    key: "inputTensor:0"
    value {
      s: "tensor_7_id_112993_module/model/22/rotary_emb/aten__slice  |  Sizes = [32,128]  |  bf16  |  expBias = 0, scale = 1  |    |  ModelParam = 0  |  strides = [33554432, 256, 2]  |  data = 0, sizeInBytes = 8192  |  isAliased = tensor_6_odule/model/22/rotary_emb/placeholder/0, type = slice, offset: 0  |  location = in DRAM  |  "
    }
  }
  attr {
    key: "inputTensor:1"
    value {
      s: "tensor_10  |  Sizes = [1]  |  bf16  |  expBias = 0, scale = 1  |    |  ModelParam = 0  |  strides = [2, 2]  |  data = 0, sizeInBytes = 2  |  location = in DRAM  |  dramOffset = 0x40000000000  |  "
    }
  }
  attr {
    key: "outputTensor:0"
    value {
      s: "tensor_9_id_112995_module/model/22/rotary_emb/aten__mul  |  Sizes = [32,128]  |  bf16  |  expBias = 0, scale = 1  |    |  ModelParam = 0  |  strides = [8192, 256, 2]  |  data = 0, sizeInBytes = 8192  |  location = in DRAM  |  dramOffset = 0x40000000080  |  "
    }
  }
}
node {
  name: "tensor_14_odule/model/22/rotary_emb/placeholder/0"
  op: "Placeholder"
  attr {
    key: "dtype"
    value {
      type: DT_BFLOAT16
    }
  }
  attr {
    key: "shape"
    value {
      shape {
        dim {
          size: 128
        }
        dim {
          size: 131072
        }
        dim {
          size: 1
        }
        dim {
          size: 1
        }
        dim {
          size: 1
        }
      }
    }
  }
  attr {
    key: "synDataType"
    value {
      s: "bf16"
    }
  }
}
node {
  name: "module/model/22/rotary_emb/slice/10922"
  op: "Slice"
  input: "tensor_14_odule/model/22/rotary_emb/placeholder/0"
  attr {
    key: "Bundle_idx"
    value {
      s: "N/A"
    }
  }
  attr {
    key: "Exec_idx"
    value {
      s: "4"
    }
  }
  attr {
    key: "Op_idx"
    value {
      s: "N/A"
    }
  }
  attr {
    key: "inputTensor:0"
    value {
      s: "tensor_14_odule/model/22/rotary_emb/placeholder/0  |  Sizes = [131072,128]  |  bf16  |  expBias = 0, scale = 1  |    |  ModelParam = 0  |  strides = [33554432, 256, 2]  |  data = 0, sizeInBytes = 33554432  |  isPersistent  |  location = in DRAM  |  dramOffset = 0x80000000000  |  userMemorySection(type=Persistent, id=8)  |  "
    }
  }
  attr {
    key: "outputTensor:0"
    value {
      s: "tensor_15_id_112997_module/model/22/rotary_emb/aten__slice  |  Sizes = [32,128]  |  bf16  |  expBias = 0, scale = 1  |    |  ModelParam = 0  |  strides = [33554432, 256, 2]  |  data = 0, sizeInBytes = 8192  |  isAliased = tensor_14_odule/model/22/rotary_emb/placeholder/0, type = slice, offset: 0  |  location = in DRAM  |  "
    }
  }
}
node {
  name: "module/model/22/rotary_emb/mult_fwd_bf16/10924_complex/mult_fwd_bf16_0"
  op: "mult_fwd_bf16"
  input: "module/model/22/rotary_emb/slice/10922"
  input: "module/model/22/rotary_emb/cast_f32_to_bf16/10917"
  attr {
    key: "Bundle_idx"
    value {
      s: "N/A"
    }
  }
  attr {
    key: "Exec_idx"
    value {
      s: "5"
    }
  }
  attr {
    key: "Op_idx"
    value {
      s: "N/A"
    }
  }
  attr {
    key: "inputTensor:0"
    value {
      s: "tensor_15_id_112997_module/model/22/rotary_emb/aten__slice  |  Sizes = [32,128]  |  bf16  |  expBias = 0, scale = 1  |    |  ModelParam = 0  |  strides = [33554432, 256, 2]  |  data = 0, sizeInBytes = 8192  |  isAliased = tensor_14_odule/model/22/rotary_emb/placeholder/0, type = slice, offset: 0  |  location = in DRAM  |  "
    }
  }
  attr {
    key: "inputTensor:1"
    value {
      s: "tensor_10  |  Sizes = [1]  |  bf16  |  expBias = 0, scale = 1  |    |  ModelParam = 0  |  strides = [2, 2]  |  data = 0, sizeInBytes = 2  |  location = in DRAM  |  dramOffset = 0x40000000000  |  "
    }
  }
  attr {
    key: "outputTensor:0"
    value {
      s: "tensor_16_id_112999_module/model/22/rotary_emb/aten__mul  |  Sizes = [32,128]  |  bf16  |  expBias = 0, scale = 1  |    |  ModelParam = 0  |  strides = [8192, 256, 2]  |  data = 0, sizeInBytes = 8192  |  location = in DRAM  |  dramOffset = 0x40000002080  |  "
    }
  }
}
node {
  name: "tensor_21_odule/model/22/input_layernorm/placeholder/0"
  op: "Placeholder"
  attr {
    key: "dtype"
    value {
      type: DT_BFLOAT16
    }
  }
  attr {
    key: "shape"
    value {
      shape {
        dim {
          size: 4096
        }
        dim {
          size: 32
        }
        dim {
          size: 1
        }
        dim {
          size: 1
        }
        dim {
          size: 1
        }
      }
    }
  }
  attr {
    key: "synDataType"
    value {
      s: "bf16"
    }
  }
}
node {
  name: "module/model/22/input_layernorm/rms_norm_ex_fwd_bf16/10928_complex/rms_norm_ex_fwd_bf16_609/reshape_4"
  op: "Reshape"
  input: "tensor_21_odule/model/22/input_layernorm/placeholder/0"
  attr {
    key: "Bundle_idx"
    value {
      s: "N/A"
    }
  }
  attr {
    key: "Exec_idx"
    value {
      s: "6"
    }
  }
  attr {
    key: "Op_idx"
    value {
      s: "N/A"
    }
  }
  attr {
    key: "inputTensor:0"
    value {
      s: "tensor_21_odule/model/22/input_layernorm/placeholder/0  |  Sizes = [1,32,4096]  |  bf16  |  expBias = 0, scale = 1  |    |  ModelParam = 0  |  strides = [262144, 262144, 8192, 2]  |  data = 0, sizeInBytes = 262144  |  isPersistent  |  location = in DRAM  |  dramOffset = 0x90000000000  |  userMemorySection(type=Persistent, id=9)  |  "
    }
  }
  attr {
    key: "outputTensor:0"
    value {
      s: "bf16-5_142302  |  Sizes = [32,4096]  |  bf16  |  expBias = 0, scale = 1  |    |  ModelParam = 0  |  strides = [262144, 8192, 2]  |  data = 0, sizeInBytes = 262144  |  isAliased = tensor_21_odule/model/22/input_layernorm/placeholder/0, type = alias, offset: 0  |  location = in DRAM  |  "
    }
  }
}
node {
  name: "tensor_31_odule/model/22/k_proj/placeholder/1"
  op: "Placeholder"
  attr {
    key: "dtype"
    value {
      type: DT_INVALID
    }
  }
  attr {
    key: "shape"
    value {
      shape {
        dim {
          size: 1024
        }
        dim {
          size: 4096
        }
        dim {
          size: 1
        }
        dim {
          size: 1
        }
        dim {
          size: 1
        }
      }
    }
  }
  attr {
    key: "synDataType"
    value {
      s: "hfloat8"
    }
  }
}
node {
  name: "module/model/22/k_proj/fp8_gemm_bf16/10930_complex/fp8_gemm_bf16_2409/expand_dims_6"
  op: "ExpandDims"
  input: "tensor_31_odule/model/22/k_proj/placeholder/1"
  attr {
    key: "Bundle_idx"
    value {
      s: "N/A"
    }
  }
  attr {
    key: "Exec_idx"
    value {
      s: "7"
    }
  }
  attr {
    key: "Op_idx"
    value {
      s: "N/A"
    }
  }
  attr {
    key: "inputTensor:0"
    value {
      s: "tensor_31_odule/model/22/k_proj/placeholder/1  |  Sizes = [4096,1024]  |  hfloat8  |  expBias = 7, scale = 1  |    |  ModelParam = 0  |  strides = [4194304, 1024, 1]  |  data = 0, sizeInBytes = 4194304  |  isPersistent  |  location = in DRAM  |  dramOffset = 0xc0000000000  |  userMemorySection(type=Persistent, id=12)  |  "
    }
  }
  attr {
    key: "outputTensor:0"
    value {
      s: "hf8-7_142309  |  Sizes = [1,4096,1024]  |  hfloat8  |  expBias = 7, scale = 1  |    |  ModelParam = 0  |  strides = [4194304, 4194304, 1024, 1]  |  data = 0, sizeInBytes = 4194304  |  isAliased = tensor_31_odule/model/22/k_proj/placeholder/1, type = alias, offset: 0  |  location = in DRAM  |  "
    }
  }
}
node {
  name: "module/model/22/rotary_pos_embedding_fwd_bf16/10933_complex/rotary_pos_embedding_fwd_bf16_300/gather_nd_mxnet_fwd_bf16_8"
  op: "gather_nd_mxnet_fwd_bf16"
  input: "module/model/22/rotary_emb/mult_fwd_bf16/10924_complex/mult_fwd_bf16_0"
  input: "module/model/22/expand_dims/10915"
  attr {
    key: "Bundle_idx"
    value {
      s: "N/A"
    }
  }
  attr {
    key: "Exec_idx"
    value {
      s: "8"
    }
  }
  attr {
    key: "Op_idx"
    value {
      s: "N/A"
    }
  }
  attr {
    key: "inputTensor:0"
    value {
      s: "tensor_16_id_112999_module/model/22/rotary_emb/aten__mul  |  Sizes = [32,128]  |  bf16  |  expBias = 0, scale = 1  |    |  ModelParam = 0  |  strides = [8192, 256, 2]  |  data = 0, sizeInBytes = 8192  |  location = in DRAM  |  dramOffset = 0x40000002080  |  "
    }
  }
  attr {
    key: "inputTensor:1"
    value {
      s: "tensor_5_id_112930_module/model/22/aten__unsqueeze/1  |  Sizes = [1,32]  |  int32  |  expBias = 0, scale = 1  |    |  ModelParam = 0  |  strides = [128, 128, 4]  |  data = 0, sizeInBytes = 128  |  isAliased = tensor_4_odule/model/22/placeholder/0, type = alias, offset: 0  |  location = in DRAM  |  "
    }
  }
  attr {
    key: "outputTensor:0"
    value {
      s: "bf16-9_142314  |  Sizes = [32,128]  |  bf16  |  expBias = 0, scale = 1  |    |  ModelParam = 0  |  strides = [8192, 256, 2]  |  data = 0, sizeInBytes = 8192  |  isAliased = bf16-13_142316, type = alias, offset: 0  |  location = in DRAM  |  "
    }
  }
}
node {
  name: "module/model/22/rotary_pos_embedding_fwd_bf16/10933_complex/rotary_pos_embedding_fwd_bf16_300/gather_nd_mxnet_fwd_bf16_10"
  op: "gather_nd_mxnet_fwd_bf16"
  input: "module/model/22/rotary_emb/mult_fwd_bf16/10918_complex/mult_fwd_bf16_0"
  input: "module/model/22/expand_dims/10915"
  attr {
    key: "Bundle_idx"
    value {
      s: "N/A"
    }
  }
  attr {
    key: "Exec_idx"
    value {
      s: "9"
    }
  }
  attr {
    key: "Op_idx"
    value {
      s: "N/A"
    }
  }
  attr {
    key: "inputTensor:0"
    value {
      s: "tensor_9_id_112995_module/model/22/rotary_emb/aten__mul  |  Sizes = [32,128]  |  bf16  |  expBias = 0, scale = 1  |    |  ModelParam = 0  |  strides = [8192, 256, 2]  |  data = 0, sizeInBytes = 8192  |  location = in DRAM  |  dramOffset = 0x40000000080  |  "
    }
  }
  attr {
    key: "inputTensor:1"
    value {
      s: "tensor_5_id_112930_module/model/22/aten__unsqueeze/1  |  Sizes = [1,32]  |  int32  |  expBias = 0, scale = 1  |    |  ModelParam = 0  |  strides = [128, 128, 4]  |  data = 0, sizeInBytes = 128  |  isAliased = tensor_4_odule/model/22/placeholder/0, type = alias, offset: 0  |  location = in DRAM  |  "
    }
  }
  attr {
    key: "outputTensor:0"
    value {
      s: "bf16-11_142315  |  Sizes = [32,128]  |  bf16  |  expBias = 0, scale = 1  |    |  ModelParam = 0  |  strides = [8192, 256, 2]  |  data = 0, sizeInBytes = 8192  |  isAliased = bf16-15_142317, type = alias, offset: 0  |  location = in DRAM  |  "
    }
  }
}
node {
  name: "module/model/22/rotary_pos_embedding_fwd_bf16/10933_complex/rotary_pos_embedding_fwd_bf16_300/expand_dims_12"
  op: "ExpandDims"
  input: "module/model/22/rotary_pos_embedding_fwd_bf16/10933_complex/rotary_pos_embedding_fwd_bf16_300/gather_nd_mxnet_fwd_bf16_8"
  attr {
    key: "Bundle_idx"
    value {
      s: "N/A"
    }
  }
  attr {
    key: "Exec_idx"
    value {
      s: "10"
    }
  }
  attr {
    key: "Op_idx"
    value {
      s: "N/A"
    }
  }
  attr {
    key: "inputTensor:0"
    value {
      s: "bf16-9_142314  |  Sizes = [32,128]  |  bf16  |  expBias = 0, scale = 1  |    |  ModelParam = 0  |  strides = [8192, 256, 2]  |  data = 0, sizeInBytes = 8192  |  isAliased = bf16-13_142316, type = alias, offset: 0  |  location = in DRAM  |  "
    }
  }
  attr {
    key: "outputTensor:0"
    value {
      s: "bf16-13_142316  |  Sizes = [1,32,128]  |  bf16  |  expBias = 0, scale = 1  |    |  ModelParam = 0  |  strides = [8192, 8192, 256, 2]  |  data = 0, sizeInBytes = 8192  |  location = in DRAM  |  dramOffset = 0x40000004080  |  "
    }
  }
}
node {
  name: "module/model/22/rotary_pos_embedding_fwd_bf16/10933_complex/rotary_pos_embedding_fwd_bf16_300/expand_dims_14"
  op: "ExpandDims"
  input: "module/model/22/rotary_pos_embedding_fwd_bf16/10933_complex/rotary_pos_embedding_fwd_bf16_300/gather_nd_mxnet_fwd_bf16_10"
  attr {
    key: "Bundle_idx"
    value {
      s: "N/A"
    }
  }
  attr {
    key: "Exec_idx"
    value {
      s: "11"
    }
  }
  attr {
    key: "Op_idx"
    value {
      s: "N/A"
    }
  }
  attr {
    key: "inputTensor:0"
    value {
      s: "bf16-11_142315  |  Sizes = [32,128]  |  bf16  |  expBias = 0, scale = 1  |    |  ModelParam = 0  |  strides = [8192, 256, 2]  |  data = 0, sizeInBytes = 8192  |  isAliased = bf16-15_142317, type = alias, offset: 0  |  location = in DRAM  |  "
    }
  }
  attr {
    key: "outputTensor:0"
    value {
      s: "bf16-15_142317  |  Sizes = [1,32,128]  |  bf16  |  expBias = 0, scale = 1  |    |  ModelParam = 0  |  strides = [8192, 8192, 256, 2]  |  data = 0, sizeInBytes = 8192  |  location = in DRAM  |  dramOffset = 0x120000000000  |  "
    }
  }
}
node {
  name: "tensor_56_odule/model/22/v_proj/placeholder/1"
  op: "Placeholder"
  attr {
    key: "dtype"
    value {
      type: DT_INVALID
    }
  }
  attr {
    key: "shape"
    value {
      shape {
        dim {
          size: 1024
        }
        dim {
          size: 4096
        }
        dim {
          size: 1
        }
        dim {
          size: 1
        }
        dim {
          size: 1
        }
      }
    }
  }
  attr {
    key: "synDataType"
    value {
      s: "hfloat8"
    }
  }
}
node {
  name: "module/model/22/v_proj/fp8_gemm_bf16/10939_complex/fp8_gemm_hf8_2411/expand_dims_8"
  op: "ExpandDims"
  input: "tensor_56_odule/model/22/v_proj/placeholder/1"
  attr {
    key: "Bundle_idx"
    value {
      s: "N/A"
    }
  }
  attr {
    key: "Exec_idx"
    value {
      s: "12"
    }
  }
  attr {
    key: "Op_idx"
    value {
      s: "N/A"
    }
  }
  attr {
    key: "inputTensor:0"
    value {
      s: "tensor_56_odule/model/22/v_proj/placeholder/1  |  Sizes = [4096,1024]  |  hfloat8  |  expBias = 7, scale = 1  |    |  ModelParam = 0  |  strides = [4194304, 1024, 1]  |  data = 0, sizeInBytes = 4194304  |  isPersistent  |  location = in DRAM  |  dramOffset = 0x150000000000  |  userMemorySection(type=Persistent, id=21)  |  "
    }
  }
  attr {
    key: "outputTensor:0"
    value {
      s: "hf8-9_142322  |  Sizes = [1,4096,1024]  |  hfloat8  |  expBias = 7, scale = 1  |    |  ModelParam = 0  |  strides = [4194304, 4194304, 1024, 1]  |  data = 0, sizeInBytes = 4194304  |  isAliased = tensor_56_odule/model/22/v_proj/placeholder/1, type = alias, offset: 0  |  location = in DRAM  |  "
    }
  }
}
node {
  name: "tensor_71_odule/model/22/fused_scaled_dot_product_attention/placeholder/0"
  op: "Placeholder"
  attr {
    key: "dtype"
    value {
      type: DT_BFLOAT16
    }
  }
  attr {
    key: "shape"
    value {
      shape {
        dim {
          size: 32
        }
        dim {
          size: 32
        }
        dim {
          size: 1
        }
        dim {
          size: 1
        }
        dim {
          size: 1
        }
      }
    }
  }
  attr {
    key: "synDataType"
    value {
      s: "bf16"
    }
  }
}
node {
  name: "module/model/22/fused_scaled_dot_product_attention/expand_dims/10950"
  op: "Reshape"
  input: "tensor_71_odule/model/22/fused_scaled_dot_product_attention/placeholder/0"
  attr {
    key: "Bundle_idx"
    value {
      s: "N/A"
    }
  }
  attr {
    key: "Exec_idx"
    value {
      s: "13"
    }
  }
  attr {
    key: "Op_idx"
    value {
      s: "N/A"
    }
  }
  attr {
    key: "inputTensor:0"
    value {
      s: "tensor_71_odule/model/22/fused_scaled_dot_product_attention/placeholder/0  |  Sizes = [32,32]  |  bf16  |  expBias = 0, scale = 1  |    |  ModelParam = 0  |  strides = [2048, 64, 2]  |  data = 0, sizeInBytes = 2048  |  isPersistent  |  location = in DRAM  |  dramOffset = 0x1c0000000000  |  userMemorySection(type=Persistent, id=28)  |  "
    }
  }
  attr {
    key: "outputTensor:0"
    value {
      s: "tensor_77_id_113102_module/model/22/fused_scaled_dot_product_attention/aten__unsqueeze  |  Sizes = [1,1,1,32,32]  |  bf16  |  expBias = 0, scale = 1  |    |  ModelParam = 0  |  strides = [2048, 2048, 2048, 2048, 64, 2]  |  data = 0, sizeInBytes = 2048  |  isAliased = tensor_71_odule/model/22/fused_scaled_dot_product_attention/placeholder/0, type = alias, offset: 0  |  location = in DRAM  |  "
    }
  }
}
node {
  name: "tensor_93_odule/model/22/q_proj/placeholder/1"
  op: "Placeholder"
  attr {
    key: "dtype"
    value {
      type: DT_INVALID
    }
  }
  attr {
    key: "shape"
    value {
      shape {
        dim {
          size: 4096
        }
        dim {
          size: 4096
        }
        dim {
          size: 1
        }
        dim {
          size: 1
        }
        dim {
          size: 1
        }
      }
    }
  }
  attr {
    key: "synDataType"
    value {
      s: "hfloat8"
    }
  }
}
node {
  name: "module/model/22/q_proj/fp8_gemm_bf16/10957_complex/fp8_gemm_bf16_2413/expand_dims_6"
  op: "ExpandDims"
  input: "tensor_93_odule/model/22/q_proj/placeholder/1"
  attr {
    key: "Bundle_idx"
    value {
      s: "N/A"
    }
  }
  attr {
    key: "Exec_idx"
    value {
      s: "14"
    }
  }
  attr {
    key: "Op_idx"
    value {
      s: "N/A"
    }
  }
  attr {
    key: "inputTensor:0"
    value {
      s: "tensor_93_odule/model/22/q_proj/placeholder/1  |  Sizes = [4096,4096]  |  hfloat8  |  expBias = 7, scale = 1  |    |  ModelParam = 0  |  strides = [16777216, 4096, 1]  |  data = 0, sizeInBytes = 16777216  |  isPersistent  |  location = in DRAM  |  dramOffset = 0x200000000000  |  userMemorySection(type=Persistent, id=32)  |  "
    }
  }
  attr {
    key: "outputTensor:0"
    value {
      s: "hf8-7_142326  |  Sizes = [1,4096,4096]  |  hfloat8  |  expBias = 7, scale = 1  |    |  ModelParam = 0  |  strides = [16777216, 16777216, 4096, 1]  |  data = 0, sizeInBytes = 16777216  |  isAliased = tensor_93_odule/model/22/q_proj/placeholder/1, type = alias, offset: 0  |  location = in DRAM  |  "
    }
  }
}
node {
  name: "tensor_22_odule/model/22/input_layernorm/placeholder/1"
  op: "Placeholder"
  attr {
    key: "dtype"
    value {
      type: DT_BFLOAT16
    }
  }
  attr {
    key: "shape"
    value {
      shape {
        dim {
          size: 4096
        }
        dim {
          size: 1
        }
        dim {
          size: 1
        }
        dim {
          size: 1
        }
        dim {
          size: 1
        }
      }
    }
  }
  attr {
    key: "synDataType"
    value {
      s: "bf16"
    }
  }
}
node {
  name: "module/model/22/input_layernorm/rms_norm_ex_fwd_bf16/10928_complex/rms_norm_ex_fwd_bf16_609/rms_norm_fwd_bf16_6_bundle_904/op_0"
  op: "rms_norm_fwd_bf16"
  input: "module/model/22/input_layernorm/rms_norm_ex_fwd_bf16/10928_complex/rms_norm_ex_fwd_bf16_609/reshape_4"
  input: "tensor_22_odule/model/22/input_layernorm/placeholder/1"
  attr {
    key: "Bundle_idx"
    value {
      s: "904"
    }
  }
  attr {
    key: "Exec_idx"
    value {
      s: "15"
    }
  }
  attr {
    key: "Op_idx"
    value {
      s: "0"
    }
  }
  attr {
    key: "inputTensor:0"
    value {
      s: "bf16-5_142302  |  Sizes = [32,4096]  |  bf16  |  expBias = 0, scale = 1  |    |  ModelParam = 0  |  strides = [262144, 8192, 2]  |  data = 0, sizeInBytes = 262144  |  isAliased = tensor_21_odule/model/22/input_layernorm/placeholder/0, type = alias, offset: 0  |  location = in DRAM  |  "
    }
  }
  attr {
    key: "inputTensor:1"
    value {
      s: "tensor_22_odule/model/22/input_layernorm/placeholder/1  |  Sizes = [4096]  |  bf16  |  expBias = 0, scale = 1  |    |  ModelParam = 0  |  strides = [8192, 2]  |  data = 0, sizeInBytes = 8192  |  isPersistent  |  location = in DRAM  |  dramOffset = 0xa0000000000  |  userMemorySection(type=Persistent, id=10)  |  "
    }
  }
  attr {
    key: "outputTensor:0"
    value {
      s: "bf16-7_142303_slice_0_0_0_0_0__0__bundle_904_142943  |  Sizes = [32,4096]  |  bf16  |  expBias = 0, scale = 1  |    |  ModelParam = 0  |  strides = [262144, 8192, 2]  |  data = 0, sizeInBytes = 262144  |  isAliased = tensor-142543_slice_0_0_0_0_0__0__bundle_904_142945, type = alias, offset: 0  |  location = in SRAM  |  sramOffset = 0x1000fffffd050000  |  "
    }
  }
  attr {
    key: "outputTensor:1"
    value {
      s: "f32-8_142304  |  Sizes = [32,1]  |  float32  |  expBias = 0, scale = 1  |    |  ModelParam = 0  |  strides = [128, 4, 4]  |  data = 0, sizeInBytes = 128  |  location = in DRAM  |  dramOffset = 0x40000006080  |  "
    }
  }
}
node {
  name: "f32-8_142304"
  op: "OutputTensor"
  input: "module/model/22/input_layernorm/rms_norm_ex_fwd_bf16/10928_complex/rms_norm_ex_fwd_bf16_609/rms_norm_fwd_bf16_6_bundle_904/op_0"
  attr {
    key: "dtype"
    value {
      type: DT_FLOAT
    }
  }
  attr {
    key: "shape"
    value {
      shape {
        dim {
          size: 1
        }
        dim {
          size: 32
        }
        dim {
          size: 1
        }
        dim {
          size: 1
        }
        dim {
          size: 1
        }
      }
    }
  }
  attr {
    key: "synDataType"
    value {
      s: "float32"
    }
  }
}
node {
  name: "reshape_0_0_bundle_904/op_1"
  op: "Reshape"
  input: "module/model/22/input_layernorm/rms_norm_ex_fwd_bf16/10928_complex/rms_norm_ex_fwd_bf16_609/rms_norm_fwd_bf16_6_bundle_904/op_0"
  attr {
    key: "Bundle_idx"
    value {
      s: "904"
    }
  }
  attr {
    key: "Exec_idx"
    value {
      s: "16"
    }
  }
  attr {
    key: "Op_idx"
    value {
      s: "1"
    }
  }
  attr {
    key: "inputTensor:0"
    value {
      s: "bf16-7_142303_slice_0_0_0_0_0__0__bundle_904_142943  |  Sizes = [32,4096]  |  bf16  |  expBias = 0, scale = 1  |    |  ModelParam = 0  |  strides = [262144, 8192, 2]  |  data = 0, sizeInBytes = 262144  |  isAliased = tensor-142543_slice_0_0_0_0_0__0__bundle_904_142945, type = alias, offset: 0  |  location = in SRAM  |  sramOffset = 0x1000fffffd050000  |  "
    }
  }
  attr {
    key: "outputTensor:0"
    value {
      s: "tensor-142543_slice_0_0_0_0_0__0__bundle_904_142945  |  Sizes = [1,32,4096]  |  bf16  |  expBias = 0, scale = 1  |    |  ModelParam = 0  |  strides = [262144, 262144, 8192, 2]  |  data = 0, sizeInBytes = 262144  |  location = in SRAM  |  sramOffset = 0x1000fffffd050000  |  "
    }
  }
}
node {
  name: "fusedTPCNode_175_0_bundle_904/op_2"
  op: "fused_kernel_0x35C5D2AD_30D_hf8"
  input: "reshape_0_0_bundle_904/op_1"
  attr {
    key: "Bundle_idx"
    value {
      s: "904"
    }
  }
  attr {
    key: "Exec_idx"
    value {
      s: "17"
    }
  }
  attr {
    key: "Op_idx"
    value {
      s: "2"
    }
  }
  attr {
    key: "inputTensor:0"
    value {
      s: "tensor-142543_slice_0_0_0_0_0__0__bundle_904_142945  |  Sizes = [1,32,4096]  |  bf16  |  expBias = 0, scale = 1  |    |  ModelParam = 0  |  strides = [262144, 262144, 8192, 2]  |  data = 0, sizeInBytes = 262144  |  location = in SRAM  |  sramOffset = 0x1000fffffd050000  |  "
    }
  }
  attr {
    key: "outputTensor:0"
    value {
      s: "tensor_30_slice_0_0_0_0_0__0__bundle_904_142946  |  Sizes = [1,32,4096]  |  hfloat8  |  expBias = 7, scale = 1  |    |  ModelParam = 0  |  strides = [131072, 131072, 4096, 1]  |  data = 0, sizeInBytes = 131072  |  location = in SRAM  |  sramOffset = 0x1000fffffd090000  |  "
    }
  }
}
node {
  name: "module/model/22/k_proj/fp8_gemm_bf16/10930_complex/fp8_gemm_bf16_2409/batch_gemm_8_bundle_904/op_3_gemm"
  op: "GEMM"
  input: "fusedTPCNode_175_0_bundle_904/op_2"
  input: "module/model/22/k_proj/fp8_gemm_bf16/10930_complex/fp8_gemm_bf16_2409/expand_dims_6"
  attr {
    key: "Bundle_idx"
    value {
      s: "904"
    }
  }
  attr {
    key: "Exec_idx"
    value {
      s: "18"
    }
  }
  attr {
    key: "Op_idx"
    value {
      s: "3"
    }
  }
  attr {
    key: "Parameters"
    value {
      s: "transpose_a=false, transpose_b=false"
    }
  }
  attr {
    key: "fp8BiasIn"
    value {
      s: "7"
    }
  }
  attr {
    key: "fp8BiasIn2"
    value {
      s: "15"
    }
  }
  attr {
    key: "fp8BiasOut"
    value {
      s: "0"
    }
  }
  attr {
    key: "inputTensor:0"
    value {
      s: "tensor_30_slice_0_0_0_0_0__0__bundle_904_142946  |  Sizes = [1,32,4096]  |  hfloat8  |  expBias = 7, scale = 1  |    |  ModelParam = 0  |  strides = [131072, 131072, 4096, 1]  |  data = 0, sizeInBytes = 131072  |  location = in SRAM  |  sramOffset = 0x1000fffffd090000  |  "
    }
  }
  attr {
    key: "inputTensor:1"
    value {
      s: "hf8-7_142309  |  Sizes = [1,4096,1024]  |  hfloat8  |  expBias = 7, scale = 1  |    |  ModelParam = 0  |  strides = [4194304, 4194304, 1024, 1]  |  data = 0, sizeInBytes = 4194304  |  isAliased = tensor_31_odule/model/22/k_proj/placeholder/1, type = alias, offset: 0  |  location = in DRAM  |  "
    }
  }
  attr {
    key: "outputTensor:0"
    value {
      s: "tensor_35  |  Sizes = [1,32,1024]  |  bf16  |  expBias = 0, scale = 1  |    |  ModelParam = 0  |  strides = [65536, 65536, 2048, 2]  |  data = 0, sizeInBytes = 65536  |  isAliased = tensor_36_id_112985_module/model/22/aten__view, type = alias, offset: 0  |  location = in DRAM  |  "
    }
  }
}
node {
  name: "module/model/22/v_proj/fp8_gemm_bf16/10939_complex/fp8_gemm_hf8_2411/batch_gemm_10_bundle_904/op_4_gemm"
  op: "GEMM"
  input: "fusedTPCNode_175_0_bundle_904/op_2"
  input: "module/model/22/v_proj/fp8_gemm_bf16/10939_complex/fp8_gemm_hf8_2411/expand_dims_8"
  attr {
    key: "Bundle_idx"
    value {
      s: "904"
    }
  }
  attr {
    key: "Exec_idx"
    value {
      s: "19"
    }
  }
  attr {
    key: "Op_idx"
    value {
      s: "4"
    }
  }
  attr {
    key: "Parameters"
    value {
      s: "transpose_a=false, transpose_b=false"
    }
  }
  attr {
    key: "fp8BiasIn"
    value {
      s: "7"
    }
  }
  attr {
    key: "fp8BiasIn2"
    value {
      s: "15"
    }
  }
  attr {
    key: "fp8BiasOut"
    value {
      s: "7"
    }
  }
  attr {
    key: "inputTensor:0"
    value {
      s: "tensor_30_slice_0_0_0_0_0__0__bundle_904_142946  |  Sizes = [1,32,4096]  |  hfloat8  |  expBias = 7, scale = 1  |    |  ModelParam = 0  |  strides = [131072, 131072, 4096, 1]  |  data = 0, sizeInBytes = 131072  |  location = in SRAM  |  sramOffset = 0x1000fffffd090000  |  "
    }
  }
  attr {
    key: "inputTensor:1"
    value {
      s: "hf8-9_142322  |  Sizes = [1,4096,1024]  |  hfloat8  |  expBias = 7, scale = 1  |    |  ModelParam = 0  |  strides = [4194304, 4194304, 1024, 1]  |  data = 0, sizeInBytes = 4194304  |  isAliased = tensor_56_odule/model/22/v_proj/placeholder/1, type = alias, offset: 0  |  location = in DRAM  |  "
    }
  }
  attr {
    key: "outputTensor:0"
    value {
      s: "tensor_60_c142260  |  Sizes = [1,32,1024]  |  hfloat8  |  expBias = 7, scale = 1  |    |  ModelParam = 0  |  strides = [32768, 32768, 1024, 1]  |  data = 0, sizeInBytes = 32768  |  isAliased = tensor_61_id_112989_module/model/22/quant_input_0/aten__view_memcpy_143009, type = alias, offset: 0  |  location = in DRAM  |  "
    }
  }
}
node {
  name: "module/model/22/q_proj/fp8_gemm_bf16/10957_complex/fp8_gemm_bf16_2413/batch_gemm_8_bundle_904/op_5_gemm"
  op: "GEMM"
  input: "fusedTPCNode_175_0_bundle_904/op_2"
  input: "module/model/22/q_proj/fp8_gemm_bf16/10957_complex/fp8_gemm_bf16_2413/expand_dims_6"
  attr {
    key: "Bundle_idx"
    value {
      s: "904"
    }
  }
  attr {
    key: "Exec_idx"
    value {
      s: "20"
    }
  }
  attr {
    key: "Op_idx"
    value {
      s: "5"
    }
  }
  attr {
    key: "Parameters"
    value {
      s: "transpose_a=false, transpose_b=false"
    }
  }
  attr {
    key: "fp8BiasIn"
    value {
      s: "7"
    }
  }
  attr {
    key: "fp8BiasIn2"
    value {
      s: "15"
    }
  }
  attr {
    key: "fp8BiasOut"
    value {
      s: "0"
    }
  }
  attr {
    key: "inputTensor:0"
    value {
      s: "tensor_30_slice_0_0_0_0_0__0__bundle_904_142946  |  Sizes = [1,32,4096]  |  hfloat8  |  expBias = 7, scale = 1  |    |  ModelParam = 0  |  strides = [131072, 131072, 4096, 1]  |  data = 0, sizeInBytes = 131072  |  location = in SRAM  |  sramOffset = 0x1000fffffd090000  |  "
    }
  }
  attr {
    key: "inputTensor:1"
    value {
      s: "hf8-7_142326  |  Sizes = [1,4096,4096]  |  hfloat8  |  expBias = 7, scale = 1  |    |  ModelParam = 0  |  strides = [16777216, 16777216, 4096, 1]  |  data = 0, sizeInBytes = 16777216  |  isAliased = tensor_93_odule/model/22/q_proj/placeholder/1, type = alias, offset: 0  |  location = in DRAM  |  "
    }
  }
  attr {
    key: "outputTensor:0"
    value {
      s: "tensor_97  |  Sizes = [1,32,4096]  |  bf16  |  expBias = 0, scale = 1  |    |  ModelParam = 0  |  strides = [262144, 262144, 8192, 2]  |  data = 0, sizeInBytes = 262144  |  isAliased = tensor_98_id_112981_module/model/22/aten__view, type = alias, offset: 0  |  location = in DRAM  |  "
    }
  }
}
node {
  name: "module/model/22/reshape/10931"
  op: "Reshape"
  input: "module/model/22/k_proj/fp8_gemm_bf16/10930_complex/fp8_gemm_bf16_2409/batch_gemm_8_bundle_904/op_3_gemm"
  attr {
    key: "Bundle_idx"
    value {
      s: "N/A"
    }
  }
  attr {
    key: "Exec_idx"
    value {
      s: "21"
    }
  }
  attr {
    key: "Op_idx"
    value {
      s: "N/A"
    }
  }
  attr {
    key: "inputTensor:0"
    value {
      s: "tensor_35  |  Sizes = [1,32,1024]  |  bf16  |  expBias = 0, scale = 1  |    |  ModelParam = 0  |  strides = [65536, 65536, 2048, 2]  |  data = 0, sizeInBytes = 65536  |  isAliased = tensor_36_id_112985_module/model/22/aten__view, type = alias, offset: 0  |  location = in DRAM  |  "
    }
  }
  attr {
    key: "outputTensor:0"
    value {
      s: "tensor_36_id_112985_module/model/22/aten__view  |  Sizes = [1,32,8,128]  |  bf16  |  expBias = 0, scale = 1  |    |  ModelParam = 0  |  strides = [65536, 65536, 2048, 256, 2]  |  data = 0, sizeInBytes = 65536  |  location = in DRAM  |  dramOffset = 0x1b0000000000  |  "
    }
  }
}
node {
  name: "module/model/22/transpose/10932_transpose_via_logical"
  op: "LogicalTranspose"
  input: "module/model/22/reshape/10931"
  attr {
    key: "Bundle_idx"
    value {
      s: "N/A"
    }
  }
  attr {
    key: "Exec_idx"
    value {
      s: "22"
    }
  }
  attr {
    key: "Op_idx"
    value {
      s: "N/A"
    }
  }
  attr {
    key: "Parameters"
    value {
      s: "permutation: (0,2,1,3)"
    }
  }
  attr {
    key: "inputTensor:0"
    value {
      s: "tensor_36_id_112985_module/model/22/aten__view  |  Sizes = [1,32,8,128]  |  bf16  |  expBias = 0, scale = 1  |    |  ModelParam = 0  |  strides = [65536, 65536, 2048, 256, 2]  |  data = 0, sizeInBytes = 65536  |  location = in DRAM  |  dramOffset = 0x1b0000000000  |  "
    }
  }
  attr {
    key: "outputTensor:0"
    value {
      s: "tensor_37_id_112987_module/model/22/aten__transpose  |  Sizes = [1,8,32,128]  |  bf16  |  expBias = 0, scale = 1  |    |  ModelParam = 0  |  strides = [65536, 65536, 256, 2048, 2]  |  data = 0, sizeInBytes = 65536  |  isAliased = tensor_36_id_112985_module/model/22/aten__view, type = alias, offset: 0  |  location = in DRAM  |  isSparseLayout  |  "
    }
  }
}
node {
  name: "module/model/22/quant_input_0/reshape/10940"
  op: "Reshape"
  input: "module/model/22/v_proj/fp8_gemm_bf16/10939_complex/fp8_gemm_hf8_2411/batch_gemm_10_bundle_904/op_4_gemm"
  attr {
    key: "Bundle_idx"
    value {
      s: "N/A"
    }
  }
  attr {
    key: "Exec_idx"
    value {
      s: "23"
    }
  }
  attr {
    key: "Op_idx"
    value {
      s: "N/A"
    }
  }
  attr {
    key: "inputTensor:0"
    value {
      s: "tensor_60_c142260  |  Sizes = [1,32,1024]  |  hfloat8  |  expBias = 7, scale = 1  |    |  ModelParam = 0  |  strides = [32768, 32768, 1024, 1]  |  data = 0, sizeInBytes = 32768  |  isAliased = tensor_61_id_112989_module/model/22/quant_input_0/aten__view_memcpy_143009, type = alias, offset: 0  |  location = in DRAM  |  "
    }
  }
  attr {
    key: "outputTensor:0"
    value {
      s: "tensor_61_id_112989_module/model/22/quant_input_0/aten__view_memcpy_143009  |  Sizes = [1,32,8,128]  |  hfloat8  |  expBias = 7, scale = 1  |    |  ModelParam = 0  |  strides = [32768, 32768, 1024, 128, 1]  |  data = 0, sizeInBytes = 32768  |  location = in DRAM  |  dramOffset = 0x120000002000  |  "
    }
  }
}
node {
  name: "tensor_61_id_112989_module/model/22/quant_input_0/aten__view_memcpy_143009_internal"
  op: "DmaMemcpy"
  input: "module/model/22/quant_input_0/reshape/10940"
  attr {
    key: "Bundle_idx"
    value {
      s: "N/A"
    }
  }
  attr {
    key: "Exec_idx"
    value {
      s: "24"
    }
  }
  attr {
    key: "Op_idx"
    value {
      s: "N/A"
    }
  }
  attr {
    key: "inputTensor:0"
    value {
      s: "tensor_61_id_112989_module/model/22/quant_input_0/aten__view_memcpy_143009  |  Sizes = [1,32,8,128]  |  hfloat8  |  expBias = 7, scale = 1  |    |  ModelParam = 0  |  strides = [32768, 32768, 1024, 128, 1]  |  data = 0, sizeInBytes = 32768  |  location = in DRAM  |  dramOffset = 0x120000002000  |  "
    }
  }
  attr {
    key: "outputTensor:0"
    value {
      s: "tensor_61_id_112989_module/model/22/quant_input_0/aten__view  |  Sizes = [1,32,8,128]  |  hfloat8  |  expBias = 7, scale = 1  |    |  ModelParam = 0  |  strides = [32768, 32768, 128, 4096, 1]  |  data = 0, sizeInBytes = 32768  |  isAliased = tensor_67, type = alias, offset: 0  |  location = in DRAM  |  isSparseLayout  |  "
    }
  }
}
node {
  name: "module/model/22/quant_input_0/transpose/10941_transpose_via_logical"
  op: "LogicalTranspose"
  input: "tensor_61_id_112989_module/model/22/quant_input_0/aten__view_memcpy_143009_internal"
  attr {
    key: "Bundle_idx"
    value {
      s: "N/A"
    }
  }
  attr {
    key: "Exec_idx"
    value {
      s: "25"
    }
  }
  attr {
    key: "Op_idx"
    value {
      s: "N/A"
    }
  }
  attr {
    key: "Parameters"
    value {
      s: "permutation: (0,2,1,3)"
    }
  }
  attr {
    key: "inputTensor:0"
    value {
      s: "tensor_61_id_112989_module/model/22/quant_input_0/aten__view  |  Sizes = [1,32,8,128]  |  hfloat8  |  expBias = 7, scale = 1  |    |  ModelParam = 0  |  strides = [32768, 32768, 128, 4096, 1]  |  data = 0, sizeInBytes = 32768  |  isAliased = tensor_67, type = alias, offset: 0  |  location = in DRAM  |  isSparseLayout  |  "
    }
  }
  attr {
    key: "outputTensor:0"
    value {
      s: "tensor_67  |  Sizes = [1,8,32,128]  |  hfloat8  |  expBias = 7, scale = 1  |    |  ModelParam = 0  |  strides = [32768, 32768, 4096, 128, 1]  |  data = 0, sizeInBytes = 32768  |  isPersistent  |  location = in DRAM  |  dramOffset = 0x130000000000  |  userMemorySection(type=Persistent, id=19)  |  "
    }
  }
}
node {
  name: "module/model/22/reshape/10958"
  op: "Reshape"
  input: "module/model/22/q_proj/fp8_gemm_bf16/10957_complex/fp8_gemm_bf16_2413/batch_gemm_8_bundle_904/op_5_gemm"
  attr {
    key: "Bundle_idx"
    value {
      s: "N/A"
    }
  }
  attr {
    key: "Exec_idx"
    value {
      s: "26"
    }
  }
  attr {
    key: "Op_idx"
    value {
      s: "N/A"
    }
  }
  attr {
    key: "inputTensor:0"
    value {
      s: "tensor_97  |  Sizes = [1,32,4096]  |  bf16  |  expBias = 0, scale = 1  |    |  ModelParam = 0  |  strides = [262144, 262144, 8192, 2]  |  data = 0, sizeInBytes = 262144  |  isAliased = tensor_98_id_112981_module/model/22/aten__view, type = alias, offset: 0  |  location = in DRAM  |  "
    }
  }
  attr {
    key: "outputTensor:0"
    value {
      s: "tensor_98_id_112981_module/model/22/aten__view  |  Sizes = [1,32,32,128]  |  bf16  |  expBias = 0, scale = 1  |    |  ModelParam = 0  |  strides = [262144, 262144, 8192, 256, 2]  |  data = 0, sizeInBytes = 262144  |  location = in DRAM  |  dramOffset = 0x0  |  "
    }
  }
}
node {
  name: "module/model/22/transpose/10959_transpose_via_logical"
  op: "LogicalTranspose"
  input: "module/model/22/reshape/10958"
  attr {
    key: "Bundle_idx"
    value {
      s: "N/A"
    }
  }
  attr {
    key: "Exec_idx"
    value {
      s: "27"
    }
  }
  attr {
    key: "Op_idx"
    value {
      s: "N/A"
    }
  }
  attr {
    key: "Parameters"
    value {
      s: "permutation: (0,2,1,3)"
    }
  }
  attr {
    key: "inputTensor:0"
    value {
      s: "tensor_98_id_112981_module/model/22/aten__view  |  Sizes = [1,32,32,128]  |  bf16  |  expBias = 0, scale = 1  |    |  ModelParam = 0  |  strides = [262144, 262144, 8192, 256, 2]  |  data = 0, sizeInBytes = 262144  |  location = in DRAM  |  dramOffset = 0x0  |  "
    }
  }
  attr {
    key: "outputTensor:0"
    value {
      s: "tensor_99_id_112983_module/model/22/aten__transpose  |  Sizes = [1,32,32,128]  |  bf16  |  expBias = 0, scale = 1  |    |  ModelParam = 0  |  strides = [262144, 262144, 256, 8192, 2]  |  data = 0, sizeInBytes = 262144  |  isAliased = tensor_98_id_112981_module/model/22/aten__view, type = alias, offset: 0  |  location = in DRAM  |  isSparseLayout  |  "
    }
  }
}
node {
  name: "module/model/22/rotary_pos_embedding_fwd_bf16/10960_complex/rotary_pos_embedding_fwd_bf16_301/gather_nd_mxnet_fwd_bf16_8"
  op: "gather_nd_mxnet_fwd_bf16"
  input: "module/model/22/rotary_emb/mult_fwd_bf16/10924_complex/mult_fwd_bf16_0"
  input: "module/model/22/expand_dims/10915"
  attr {
    key: "Bundle_idx"
    value {
      s: "N/A"
    }
  }
  attr {
    key: "Exec_idx"
    value {
      s: "28"
    }
  }
  attr {
    key: "Op_idx"
    value {
      s: "N/A"
    }
  }
  attr {
    key: "inputTensor:0"
    value {
      s: "tensor_16_id_112999_module/model/22/rotary_emb/aten__mul  |  Sizes = [32,128]  |  bf16  |  expBias = 0, scale = 1  |    |  ModelParam = 0  |  strides = [8192, 256, 2]  |  data = 0, sizeInBytes = 8192  |  location = in DRAM  |  dramOffset = 0x40000002080  |  "
    }
  }
  attr {
    key: "inputTensor:1"
    value {
      s: "tensor_5_id_112930_module/model/22/aten__unsqueeze/1  |  Sizes = [1,32]  |  int32  |  expBias = 0, scale = 1  |    |  ModelParam = 0  |  strides = [128, 128, 4]  |  data = 0, sizeInBytes = 128  |  isAliased = tensor_4_odule/model/22/placeholder/0, type = alias, offset: 0  |  location = in DRAM  |  "
    }
  }
  attr {
    key: "outputTensor:0"
    value {
      s: "bf16-9_142331  |  Sizes = [32,128]  |  bf16  |  expBias = 0, scale = 1  |    |  ModelParam = 0  |  strides = [8192, 256, 2]  |  data = 0, sizeInBytes = 8192  |  isAliased = bf16-13_142333, type = alias, offset: 0  |  location = in DRAM  |  "
    }
  }
}
node {
  name: "module/model/22/rotary_pos_embedding_fwd_bf16/10960_complex/rotary_pos_embedding_fwd_bf16_301/gather_nd_mxnet_fwd_bf16_10"
  op: "gather_nd_mxnet_fwd_bf16"
  input: "module/model/22/rotary_emb/mult_fwd_bf16/10918_complex/mult_fwd_bf16_0"
  input: "module/model/22/expand_dims/10915"
  attr {
    key: "Bundle_idx"
    value {
      s: "N/A"
    }
  }
  attr {
    key: "Exec_idx"
    value {
      s: "29"
    }
  }
  attr {
    key: "Op_idx"
    value {
      s: "N/A"
    }
  }
  attr {
    key: "inputTensor:0"
    value {
      s: "tensor_9_id_112995_module/model/22/rotary_emb/aten__mul  |  Sizes = [32,128]  |  bf16  |  expBias = 0, scale = 1  |    |  ModelParam = 0  |  strides = [8192, 256, 2]  |  data = 0, sizeInBytes = 8192  |  location = in DRAM  |  dramOffset = 0x40000000080  |  "
    }
  }
  attr {
    key: "inputTensor:1"
    value {
      s: "tensor_5_id_112930_module/model/22/aten__unsqueeze/1  |  Sizes = [1,32]  |  int32  |  expBias = 0, scale = 1  |    |  ModelParam = 0  |  strides = [128, 128, 4]  |  data = 0, sizeInBytes = 128  |  isAliased = tensor_4_odule/model/22/placeholder/0, type = alias, offset: 0  |  location = in DRAM  |  "
    }
  }
  attr {
    key: "outputTensor:0"
    value {
      s: "bf16-11_142332  |  Sizes = [32,128]  |  bf16  |  expBias = 0, scale = 1  |    |  ModelParam = 0  |  strides = [8192, 256, 2]  |  data = 0, sizeInBytes = 8192  |  isAliased = bf16-15_142334, type = alias, offset: 0  |  location = in DRAM  |  "
    }
  }
}
node {
  name: "module/model/22/rotary_pos_embedding_fwd_bf16/10960_complex/rotary_pos_embedding_fwd_bf16_301/expand_dims_12"
  op: "ExpandDims"
  input: "module/model/22/rotary_pos_embedding_fwd_bf16/10960_complex/rotary_pos_embedding_fwd_bf16_301/gather_nd_mxnet_fwd_bf16_8"
  attr {
    key: "Bundle_idx"
    value {
      s: "N/A"
    }
  }
  attr {
    key: "Exec_idx"
    value {
      s: "30"
    }
  }
  attr {
    key: "Op_idx"
    value {
      s: "N/A"
    }
  }
  attr {
    key: "inputTensor:0"
    value {
      s: "bf16-9_142331  |  Sizes = [32,128]  |  bf16  |  expBias = 0, scale = 1  |    |  ModelParam = 0  |  strides = [8192, 256, 2]  |  data = 0, sizeInBytes = 8192  |  isAliased = bf16-13_142333, type = alias, offset: 0  |  location = in DRAM  |  "
    }
  }
  attr {
    key: "outputTensor:0"
    value {
      s: "bf16-13_142333  |  Sizes = [1,32,128]  |  bf16  |  expBias = 0, scale = 1  |    |  ModelParam = 0  |  strides = [8192, 8192, 256, 2]  |  data = 0, sizeInBytes = 8192  |  location = in DRAM  |  dramOffset = 0x12000000a000  |  "
    }
  }
}
node {
  name: "module/model/22/rotary_pos_embedding_fwd_bf16/10960_complex/rotary_pos_embedding_fwd_bf16_301/expand_dims_14"
  op: "ExpandDims"
  input: "module/model/22/rotary_pos_embedding_fwd_bf16/10960_complex/rotary_pos_embedding_fwd_bf16_301/gather_nd_mxnet_fwd_bf16_10"
  attr {
    key: "Bundle_idx"
    value {
      s: "N/A"
    }
  }
  attr {
    key: "Exec_idx"
    value {
      s: "31"
    }
  }
  attr {
    key: "Op_idx"
    value {
      s: "N/A"
    }
  }
  attr {
    key: "inputTensor:0"
    value {
      s: "bf16-11_142332  |  Sizes = [32,128]  |  bf16  |  expBias = 0, scale = 1  |    |  ModelParam = 0  |  strides = [8192, 256, 2]  |  data = 0, sizeInBytes = 8192  |  isAliased = bf16-15_142334, type = alias, offset: 0  |  location = in DRAM  |  "
    }
  }
  attr {
    key: "outputTensor:0"
    value {
      s: "bf16-15_142334  |  Sizes = [1,32,128]  |  bf16  |  expBias = 0, scale = 1  |    |  ModelParam = 0  |  strides = [8192, 8192, 256, 2]  |  data = 0, sizeInBytes = 8192  |  location = in DRAM  |  dramOffset = 0x12000000c000  |  "
    }
  }
}
node {
  name: "module/model/22/rotary_pos_embedding_fwd_bf16/10933_complex/rotary_pos_embedding_fwd_bf16_300/rope_st2_fwd_bf16_16_bundle_906/op_0"
  op: "rope_st2_fwd_bf16"
  input: "module/model/22/transpose/10932_transpose_via_logical"
  input: "module/model/22/rotary_pos_embedding_fwd_bf16/10933_complex/rotary_pos_embedding_fwd_bf16_300/expand_dims_12"
  input: "module/model/22/rotary_pos_embedding_fwd_bf16/10933_complex/rotary_pos_embedding_fwd_bf16_300/expand_dims_14"
  attr {
    key: "Bundle_idx"
    value {
      s: "906"
    }
  }
  attr {
    key: "Exec_idx"
    value {
      s: "32"
    }
  }
  attr {
    key: "Op_idx"
    value {
      s: "0"
    }
  }
  attr {
    key: "inputTensor:0"
    value {
      s: "tensor_37_id_112987_module/model/22/aten__transpose  |  Sizes = [1,8,32,128]  |  bf16  |  expBias = 0, scale = 1  |    |  ModelParam = 0  |  strides = [65536, 65536, 256, 2048, 2]  |  data = 0, sizeInBytes = 65536  |  isAliased = tensor_36_id_112985_module/model/22/aten__view, type = alias, offset: 0  |  location = in DRAM  |  isSparseLayout  |  "
    }
  }
  attr {
    key: "inputTensor:1"
    value {
      s: "bf16-13_142316  |  Sizes = [1,32,128]  |  bf16  |  expBias = 0, scale = 1  |    |  ModelParam = 0  |  strides = [8192, 8192, 256, 2]  |  data = 0, sizeInBytes = 8192  |  location = in DRAM  |  dramOffset = 0x40000004080  |  "
    }
  }
  attr {
    key: "inputTensor:2"
    value {
      s: "bf16-15_142317  |  Sizes = [1,32,128]  |  bf16  |  expBias = 0, scale = 1  |    |  ModelParam = 0  |  strides = [8192, 8192, 256, 2]  |  data = 0, sizeInBytes = 8192  |  location = in DRAM  |  dramOffset = 0x120000000000  |  "
    }
  }
  attr {
    key: "outputTensor:0"
    value {
      s: "tensor_39  |  Sizes = [1,8,32,128]  |  bf16  |  expBias = 0, scale = 1  |    |  ModelParam = 0  |  strides = [65536, 65536, 8192, 256, 2]  |  data = 0, sizeInBytes = 65536  |  location = in DRAM  |  dramOffset = 0x40000  |  "
    }
  }
}
node {
  name: "module/model/22/rotary_pos_embedding_fwd_bf16/10960_complex/rotary_pos_embedding_fwd_bf16_301/rope_st2_fwd_bf16_16_bundle_906/op_3"
  op: "rope_st2_fwd_bf16"
  input: "module/model/22/transpose/10959_transpose_via_logical"
  input: "module/model/22/rotary_pos_embedding_fwd_bf16/10960_complex/rotary_pos_embedding_fwd_bf16_301/expand_dims_12"
  input: "module/model/22/rotary_pos_embedding_fwd_bf16/10960_complex/rotary_pos_embedding_fwd_bf16_301/expand_dims_14"
  attr {
    key: "Bundle_idx"
    value {
      s: "906"
    }
  }
  attr {
    key: "Exec_idx"
    value {
      s: "33"
    }
  }
  attr {
    key: "Op_idx"
    value {
      s: "1"
    }
  }
  attr {
    key: "inputTensor:0"
    value {
      s: "tensor_99_id_112983_module/model/22/aten__transpose  |  Sizes = [1,32,32,128]  |  bf16  |  expBias = 0, scale = 1  |    |  ModelParam = 0  |  strides = [262144, 262144, 256, 8192, 2]  |  data = 0, sizeInBytes = 262144  |  isAliased = tensor_98_id_112981_module/model/22/aten__view, type = alias, offset: 0  |  location = in DRAM  |  isSparseLayout  |  "
    }
  }
  attr {
    key: "inputTensor:1"
    value {
      s: "bf16-13_142333  |  Sizes = [1,32,128]  |  bf16  |  expBias = 0, scale = 1  |    |  ModelParam = 0  |  strides = [8192, 8192, 256, 2]  |  data = 0, sizeInBytes = 8192  |  location = in DRAM  |  dramOffset = 0x12000000a000  |  "
    }
  }
  attr {
    key: "inputTensor:2"
    value {
      s: "bf16-15_142334  |  Sizes = [1,32,128]  |  bf16  |  expBias = 0, scale = 1  |    |  ModelParam = 0  |  strides = [8192, 8192, 256, 2]  |  data = 0, sizeInBytes = 8192  |  location = in DRAM  |  dramOffset = 0x12000000c000  |  "
    }
  }
  attr {
    key: "outputTensor:0"
    value {
      s: "tensor_101_slice_0_0_0_0_0__0__bundle_906_142982  |  Sizes = [1,32,32,128]  |  bf16  |  expBias = 0, scale = 1  |    |  ModelParam = 0  |  strides = [262144, 262144, 8192, 256, 2]  |  data = 0, sizeInBytes = 262144  |  location = in SRAM  |  sramOffset = 0x1000fffffd0b0000  |  "
    }
  }
}
node {
  name: "fusedTPCNode_175_1_bundle_906/op_1"
  op: "fused_kernel_0x6F4CFE31_30E_bf16"
  input: "module/model/22/rotary_pos_embedding_fwd_bf16/10933_complex/rotary_pos_embedding_fwd_bf16_300/rope_st2_fwd_bf16_16_bundle_906/op_0"
  attr {
    key: "Bundle_idx"
    value {
      s: "906"
    }
  }
  attr {
    key: "Exec_idx"
    value {
      s: "34"
    }
  }
  attr {
    key: "Op_idx"
    value {
      s: "2"
    }
  }
  attr {
    key: "inputTensor:0"
    value {
      s: "tensor_39  |  Sizes = [1,8,32,128]  |  bf16  |  expBias = 0, scale = 1  |    |  ModelParam = 0  |  strides = [65536, 65536, 8192, 256, 2]  |  data = 0, sizeInBytes = 65536  |  location = in DRAM  |  dramOffset = 0x40000  |  "
    }
  }
  attr {
    key: "outputTensor:0"
    value {
      s: "tensor_44  |  Sizes = [1,8,32,128]  |  hfloat8  |  expBias = 7, scale = 1  |    |  ModelParam = 0  |  strides = [32768, 32768, 4096, 128, 1]  |  data = 0, sizeInBytes = 32768  |  isPersistent  |  location = in DRAM  |  dramOffset = 0x40000000000  |  userMemorySection(type=Persistent, id=4)  |  "
    }
  }
  attr {
    key: "outputTensor:1"
    value {
      s: "tensor_47  |  Sizes = [1,8,32,128]  |  bf16  |  expBias = 0, scale = 1  |    |  ModelParam = 0  |  strides = [65536, 65536, 8192, 256, 2]  |  data = 0, sizeInBytes = 65536  |  isPersistent  |  location = in DRAM  |  dramOffset = 0x120000000000  |  userMemorySection(type=Persistent, id=18)  |  "
    }
  }
  attr {
    key: "outputTensor:2"
    value {
      s: "tensor-142544_slice_0_0_0_0_0__0__bundle_906_142977  |  Sizes = [1,8,32,128]  |  hfloat8  |  expBias = 7, scale = 1  |    |  ModelParam = 0  |  strides = [32768, 32768, 4096, 128, 1]  |  data = 0, sizeInBytes = 32768  |  isAliased = tensor_87_id_113098_module/model/22/fused_scaled_dot_product_attention/aten__view_slice_0_0_0_0_0__0__bundle_906_142978, type = alias, offset: 0  |  location = in SRAM  |  sramOffset = 0x1000fffffd0f0000  |  "
    }
  }
}
node {
  name: "tensor_44"
  op: "OutputTensor"
  input: "fusedTPCNode_175_1_bundle_906/op_1"
  attr {
    key: "dtype"
    value {
      type: DT_INVALID
    }
  }
  attr {
    key: "shape"
    value {
      shape {
        dim {
          size: 128
        }
        dim {
          size: 32
        }
        dim {
          size: 8
        }
        dim {
          size: 1
        }
        dim {
          size: 1
        }
      }
    }
  }
  attr {
    key: "synDataType"
    value {
      s: "hfloat8"
    }
  }
}
node {
  name: "tensor_47"
  op: "OutputTensor"
  input: "fusedTPCNode_175_1_bundle_906/op_1"
  attr {
    key: "dtype"
    value {
      type: DT_BFLOAT16
    }
  }
  attr {
    key: "shape"
    value {
      shape {
        dim {
          size: 128
        }
        dim {
          size: 32
        }
        dim {
          size: 8
        }
        dim {
          size: 1
        }
        dim {
          size: 1
        }
      }
    }
  }
  attr {
    key: "synDataType"
    value {
      s: "bf16"
    }
  }
}
node {
  name: "reshape_5_5_bundle_906/op_2"
  op: "Reshape"
  input: "fusedTPCNode_175_1_bundle_906/op_1"
  attr {
    key: "Bundle_idx"
    value {
      s: "906"
    }
  }
  attr {
    key: "Exec_idx"
    value {
      s: "35"
    }
  }
  attr {
    key: "Op_idx"
    value {
      s: "3"
    }
  }
  attr {
    key: "inputTensor:0"
    value {
      s: "tensor-142544_slice_0_0_0_0_0__0__bundle_906_142977  |  Sizes = [1,8,32,128]  |  hfloat8  |  expBias = 7, scale = 1  |    |  ModelParam = 0  |  strides = [32768, 32768, 4096, 128, 1]  |  data = 0, sizeInBytes = 32768  |  isAliased = tensor_87_id_113098_module/model/22/fused_scaled_dot_product_attention/aten__view_slice_0_0_0_0_0__0__bundle_906_142978, type = alias, offset: 0  |  location = in SRAM  |  sramOffset = 0x1000fffffd0f0000  |  "
    }
  }
  attr {
    key: "outputTensor:0"
    value {
      s: "tensor_87_id_113098_module/model/22/fused_scaled_dot_product_attention/aten__view_slice_0_0_0_0_0__0__bundle_906_142978  |  Sizes = [1,8,1,32,128]  |  hfloat8  |  expBias = 7, scale = 1  |    |  ModelParam = 0  |  strides = [32768, 32768, 4096, 4096, 128, 1]  |  data = 0, sizeInBytes = 32768  |  location = in SRAM  |  sramOffset = 0x1000fffffd0f0000  |  "
    }
  }
}
node {
  name: "fusedTPCNode_175_3_bundle_906/op_4"
  op: "fused_kernel_0x69CFEA17_310_hf8"
  input: "module/model/22/rotary_pos_embedding_fwd_bf16/10960_complex/rotary_pos_embedding_fwd_bf16_301/rope_st2_fwd_bf16_16_bundle_906/op_3"
  attr {
    key: "Bundle_idx"
    value {
      s: "906"
    }
  }
  attr {
    key: "Exec_idx"
    value {
      s: "36"
    }
  }
  attr {
    key: "Op_idx"
    value {
      s: "4"
    }
  }
  attr {
    key: "inputTensor:0"
    value {
      s: "tensor_101_slice_0_0_0_0_0__0__bundle_906_142982  |  Sizes = [1,32,32,128]  |  bf16  |  expBias = 0, scale = 1  |    |  ModelParam = 0  |  strides = [262144, 262144, 8192, 256, 2]  |  data = 0, sizeInBytes = 262144  |  location = in SRAM  |  sramOffset = 0x1000fffffd0b0000  |  "
    }
  }
  attr {
    key: "outputTensor:0"
    value {
      s: "tensor-142546_slice_0_0_0_0_0__0__bundle_906_142983  |  Sizes = [1,32,32,128]  |  hfloat8  |  expBias = 7, scale = 1  |    |  ModelParam = 0  |  strides = [131072, 131072, 4096, 128, 1]  |  data = 0, sizeInBytes = 131072  |  isAliased = tensor_106_id_113096_module/model/22/fused_scaled_dot_product_attention/aten__view_slice_0_0_0_0_0__0__bundle_906_142984, type = alias, offset: 0  |  location = in SRAM  |  sramOffset = 0x1000fffffd0f8000  |  "
    }
  }
}
node {
  name: "reshape_11_11_bundle_906/op_5"
  op: "Reshape"
  input: "fusedTPCNode_175_3_bundle_906/op_4"
  attr {
    key: "Bundle_idx"
    value {
      s: "906"
    }
  }
  attr {
    key: "Exec_idx"
    value {
      s: "37"
    }
  }
  attr {
    key: "Op_idx"
    value {
      s: "5"
    }
  }
  attr {
    key: "inputTensor:0"
    value {
      s: "tensor-142546_slice_0_0_0_0_0__0__bundle_906_142983  |  Sizes = [1,32,32,128]  |  hfloat8  |  expBias = 7, scale = 1  |    |  ModelParam = 0  |  strides = [131072, 131072, 4096, 128, 1]  |  data = 0, sizeInBytes = 131072  |  isAliased = tensor_106_id_113096_module/model/22/fused_scaled_dot_product_attention/aten__view_slice_0_0_0_0_0__0__bundle_906_142984, type = alias, offset: 0  |  location = in SRAM  |  sramOffset = 0x1000fffffd0f8000  |  "
    }
  }
  attr {
    key: "outputTensor:0"
    value {
      s: "tensor_106_id_113096_module/model/22/fused_scaled_dot_product_attention/aten__view_slice_0_0_0_0_0__0__bundle_906_142984  |  Sizes = [1,8,4,32,128]  |  hfloat8  |  expBias = 7, scale = 1  |    |  ModelParam = 0  |  strides = [131072, 131072, 16384, 4096, 128, 1]  |  data = 0, sizeInBytes = 131072  |  location = in SRAM  |  sramOffset = 0x1000fffffd0f8000  |  "
    }
  }
}
node {
  name: "module/model/22/fused_scaled_dot_product_attention/sdpa_recomp_fwd_hf8/10963_complex/sdpa_recomp_fwd_hf8_301/sdpa_recomp_core_fwd_hf8_150/fp8_gemm_hf8_2414/batch_gemm_16_bundle_906/op_6"
  op: "BatchGemm"
  input: "reshape_11_11_bundle_906/op_5"
  input: "reshape_5_5_bundle_906/op_2"
  attr {
    key: "Bundle_idx"
    value {
      s: "906"
    }
  }
  attr {
    key: "Exec_idx"
    value {
      s: "38"
    }
  }
  attr {
    key: "Op_idx"
    value {
      s: "6"
    }
  }
  attr {
    key: "Parameters"
    value {
      s: "transpose_a=false, transpose_b=true"
    }
  }
  attr {
    key: "fp8BiasIn"
    value {
      s: "7"
    }
  }
  attr {
    key: "fp8BiasIn2"
    value {
      s: "7"
    }
  }
  attr {
    key: "fp8BiasOut"
    value {
      s: "0"
    }
  }
  attr {
    key: "inputTensor:0"
    value {
      s: "tensor_106_id_113096_module/model/22/fused_scaled_dot_product_attention/aten__view_slice_0_0_0_0_0__0__bundle_906_142984  |  Sizes = [1,8,4,32,128]  |  hfloat8  |  expBias = 7, scale = 1  |    |  ModelParam = 0  |  strides = [131072, 131072, 16384, 4096, 128, 1]  |  data = 0, sizeInBytes = 131072  |  location = in SRAM  |  sramOffset = 0x1000fffffd0f8000  |  "
    }
  }
  attr {
    key: "inputTensor:1"
    value {
      s: "tensor_87_id_113098_module/model/22/fused_scaled_dot_product_attention/aten__view_slice_0_0_0_0_0__0__bundle_906_142978  |  Sizes = [1,8,1,32,128]  |  hfloat8  |  expBias = 7, scale = 1  |    |  ModelParam = 0  |  strides = [32768, 32768, 4096, 4096, 128, 1]  |  data = 0, sizeInBytes = 32768  |  location = in SRAM  |  sramOffset = 0x1000fffffd0f0000  |  "
    }
  }
  attr {
    key: "outputTensor:0"
    value {
      s: "bf16-17_142343  |  Sizes = [1,8,4,32,32]  |  bf16  |  expBias = 0, scale = 1  |    |  ModelParam = 0  |  strides = [65536, 65536, 8192, 2048, 64, 2]  |  data = 0, sizeInBytes = 65536  |  location = in DRAM  |  dramOffset = 0x50000  |  "
    }
  }
}
node {
  name: "module/model/22/fused_scaled_dot_product_attention/sdpa_recomp_fwd_hf8/10963_complex/sdpa_recomp_fwd_hf8_301/sdpa_recomp_core_fwd_hf8_150/constant_f32_18"
  op: "constant_f32"
  attr {
    key: "Bundle_idx"
    value {
      s: "N/A"
    }
  }
  attr {
    key: "Exec_idx"
    value {
      s: "39"
    }
  }
  attr {
    key: "Op_idx"
    value {
      s: "N/A"
    }
  }
  attr {
    key: "outputTensor:0"
    value {
      s: "f32-19_142344  |  Sizes = [1]  |  float32  |  expBias = 0, scale = 1  |    |  ModelParam = 0  |  strides = [4, 4]  |  data = 0, sizeInBytes = 4  |  location = in DRAM  |  dramOffset = 0x60000  |  "
    }
  }
}
node {
  name: "module/model/22/fused_scaled_dot_product_attention/sdpa_recomp_fwd_hf8/10963_complex/sdpa_recomp_fwd_hf8_301/sdpa_recomp_core_fwd_hf8_150/constant_f32_20"
  op: "constant_f32"
  attr {
    key: "Bundle_idx"
    value {
      s: "N/A"
    }
  }
  attr {
    key: "Exec_idx"
    value {
      s: "40"
    }
  }
  attr {
    key: "Op_idx"
    value {
      s: "N/A"
    }
  }
  attr {
    key: "outputTensor:0"
    value {
      s: "f32-21_142345  |  Sizes = [1]  |  float32  |  expBias = 0, scale = 1  |    |  ModelParam = 0  |  strides = [4, 4]  |  data = 0, sizeInBytes = 4  |  location = in DRAM  |  dramOffset = 0x60080  |  "
    }
  }
}
node {
  name: "fusedTPCNode_175_2_bundle_907/op_0"
  op: "fused_kernel_0x7BDFBAAE_30F_bf16"
  input: "module/model/22/quant_input_0/transpose/10941_transpose_via_logical"
  attr {
    key: "Bundle_idx"
    value {
      s: "907"
    }
  }
  attr {
    key: "Exec_idx"
    value {
      s: "41"
    }
  }
  attr {
    key: "Op_idx"
    value {
      s: "0"
    }
  }
  attr {
    key: "inputTensor:0"
    value {
      s: "tensor_67  |  Sizes = [1,8,32,128]  |  hfloat8  |  expBias = 7, scale = 1  |    |  ModelParam = 0  |  strides = [32768, 32768, 4096, 128, 1]  |  data = 0, sizeInBytes = 32768  |  isPersistent  |  location = in DRAM  |  dramOffset = 0x130000000000  |  userMemorySection(type=Persistent, id=19)  |  "
    }
  }
  attr {
    key: "outputTensor:0"
    value {
      s: "tensor_70  |  Sizes = [1,8,32,128]  |  bf16  |  expBias = 0, scale = 1  |    |  ModelParam = 0  |  strides = [65536, 65536, 8192, 256, 2]  |  data = 0, sizeInBytes = 65536  |  isPersistent  |  location = in DRAM  |  dramOffset = 0x1b0000000000  |  userMemorySection(type=Persistent, id=27)  |  "
    }
  }
  attr {
    key: "outputTensor:1"
    value {
      s: "tensor-142545_slice_0_0_0_0_0__0__bundle_907_142988  |  Sizes = [1,8,32,128]  |  hfloat8  |  expBias = 7, scale = 1  |    |  ModelParam = 0  |  strides = [32768, 32768, 4096, 128, 1]  |  data = 0, sizeInBytes = 32768  |  isAliased = tensor_82_id_113100_module/model/22/fused_scaled_dot_product_attention/aten__view_slice_0_0_0_0_0__0__bundle_907_142989, type = alias, offset: 0  |  location = in SRAM  |  sramOffset = 0x1000fffffd118000  |  "
    }
  }
}
node {
  name: "tensor_70"
  op: "OutputTensor"
  input: "fusedTPCNode_175_2_bundle_907/op_0"
  attr {
    key: "dtype"
    value {
      type: DT_BFLOAT16
    }
  }
  attr {
    key: "shape"
    value {
      shape {
        dim {
          size: 128
        }
        dim {
          size: 32
        }
        dim {
          size: 8
        }
        dim {
          size: 1
        }
        dim {
          size: 1
        }
      }
    }
  }
  attr {
    key: "synDataType"
    value {
      s: "bf16"
    }
  }
}
node {
  name: "reshape_8_8_bundle_907/op_1"
  op: "Reshape"
  input: "fusedTPCNode_175_2_bundle_907/op_0"
  attr {
    key: "Bundle_idx"
    value {
      s: "907"
    }
  }
  attr {
    key: "Exec_idx"
    value {
      s: "42"
    }
  }
  attr {
    key: "Op_idx"
    value {
      s: "1"
    }
  }
  attr {
    key: "inputTensor:0"
    value {
      s: "tensor-142545_slice_0_0_0_0_0__0__bundle_907_142988  |  Sizes = [1,8,32,128]  |  hfloat8  |  expBias = 7, scale = 1  |    |  ModelParam = 0  |  strides = [32768, 32768, 4096, 128, 1]  |  data = 0, sizeInBytes = 32768  |  isAliased = tensor_82_id_113100_module/model/22/fused_scaled_dot_product_attention/aten__view_slice_0_0_0_0_0__0__bundle_907_142989, type = alias, offset: 0  |  location = in SRAM  |  sramOffset = 0x1000fffffd118000  |  "
    }
  }
  attr {
    key: "outputTensor:0"
    value {
      s: "tensor_82_id_113100_module/model/22/fused_scaled_dot_product_attention/aten__view_slice_0_0_0_0_0__0__bundle_907_142989  |  Sizes = [1,8,1,32,128]  |  hfloat8  |  expBias = 7, scale = 1  |    |  ModelParam = 0  |  strides = [32768, 32768, 4096, 4096, 128, 1]  |  data = 0, sizeInBytes = 32768  |  location = in SRAM  |  sramOffset = 0x1000fffffd118000  |  "
    }
  }
}
node {
  name: "tensor_110_odule/model/22/fused_scaled_dot_product_attention/placeholder/7"
  op: "Placeholder"
  attr {
    key: "dtype"
    value {
      type: DT_FLOAT
    }
  }
  attr {
    key: "shape"
    value {
      shape {
        dim {
          size: 1
        }
        dim {
          size: 1
        }
        dim {
          size: 1
        }
        dim {
          size: 1
        }
        dim {
          size: 1
        }
      }
    }
  }
  attr {
    key: "synDataType"
    value {
      s: "float32"
    }
  }
}
node {
  name: "module/model/22/fused_scaled_dot_product_attention/sdpa_recomp_fwd_hf8/10963_complex/sdpa_recomp_fwd_hf8_301/sdpa_recomp_core_fwd_hf8_150/softmax_fwd_hf8_22_bundle_907/op_2"
  op: "softmax_fwd_hf8"
  input: "module/model/22/fused_scaled_dot_product_attention/sdpa_recomp_fwd_hf8/10963_complex/sdpa_recomp_fwd_hf8_301/sdpa_recomp_core_fwd_hf8_150/fp8_gemm_hf8_2414/batch_gemm_16_bundle_906/op_6"
  input: "module/model/22/fused_scaled_dot_product_attention/sdpa_recomp_fwd_hf8/10963_complex/sdpa_recomp_fwd_hf8_301/sdpa_recomp_core_fwd_hf8_150/constant_f32_18"
  input: "module/model/22/fused_scaled_dot_product_attention/sdpa_recomp_fwd_hf8/10963_complex/sdpa_recomp_fwd_hf8_301/sdpa_recomp_core_fwd_hf8_150/constant_f32_20"
  input: "tensor_110_odule/model/22/fused_scaled_dot_product_attention/placeholder/7"
  input: "module/model/22/fused_scaled_dot_product_attention/expand_dims/10950"
  attr {
    key: "Bundle_idx"
    value {
      s: "907"
    }
  }
  attr {
    key: "Exec_idx"
    value {
      s: "43"
    }
  }
  attr {
    key: "Op_idx"
    value {
      s: "2"
    }
  }
  attr {
    key: "inputTensor:0"
    value {
      s: "bf16-17_142343  |  Sizes = [1,8,4,32,32]  |  bf16  |  expBias = 0, scale = 1  |    |  ModelParam = 0  |  strides = [65536, 65536, 8192, 2048, 64, 2]  |  data = 0, sizeInBytes = 65536  |  location = in DRAM  |  dramOffset = 0x50000  |  "
    }
  }
  attr {
    key: "inputTensor:1"
    value {
      s: "f32-19_142344  |  Sizes = [1]  |  float32  |  expBias = 0, scale = 1  |    |  ModelParam = 0  |  strides = [4, 4]  |  data = 0, sizeInBytes = 4  |  location = in DRAM  |  dramOffset = 0x60000  |  "
    }
  }
  attr {
    key: "inputTensor:2"
    value {
      s: "f32-21_142345  |  Sizes = [1]  |  float32  |  expBias = 0, scale = 1  |    |  ModelParam = 0  |  strides = [4, 4]  |  data = 0, sizeInBytes = 4  |  location = in DRAM  |  dramOffset = 0x60080  |  "
    }
  }
  attr {
    key: "inputTensor:3"
    value {
      s: "tensor_110_odule/model/22/fused_scaled_dot_product_attention/placeholder/7  |  Sizes = [1]  |  float32  |  expBias = 0, scale = 1  |    |  ModelParam = 0  |  strides = [4, 4]  |  data = 0x56473541dda8, sizeInBytes = 4  |  buffer = 16  |  isPersistent  |  location = in DRAM  |  dramOffset = 0x270000000000  |  userMemorySection(type=Persistent, id=39)  |  isStaticParam  |  bufferDtype=float32  |  "
    }
  }
  attr {
    key: "inputTensor:4"
    value {
      s: "tensor_77_id_113102_module/model/22/fused_scaled_dot_product_attention/aten__unsqueeze  |  Sizes = [1,1,1,32,32]  |  bf16  |  expBias = 0, scale = 1  |    |  ModelParam = 0  |  strides = [2048, 2048, 2048, 2048, 64, 2]  |  data = 0, sizeInBytes = 2048  |  isAliased = tensor_71_odule/model/22/fused_scaled_dot_product_attention/placeholder/0, type = alias, offset: 0  |  location = in DRAM  |  "
    }
  }
  attr {
    key: "outputTensor:0"
    value {
      s: "hf8-23_142346_slice_0_0_0_0_0__0__bundle_907_142995  |  Sizes = [1,8,4,32,32]  |  hfloat8  |  expBias = 7, scale = 1  |    |  ModelParam = 0  |  strides = [32768, 32768, 4096, 1024, 32, 1]  |  data = 0, sizeInBytes = 32768  |  location = in SRAM  |  sramOffset = 0x1000fffffd120000  |  "
    }
  }
}
node {
  name: "module/model/22/fused_scaled_dot_product_attention/sdpa_recomp_fwd_hf8/10963_complex/sdpa_recomp_fwd_hf8_301/sdpa_recomp_core_fwd_hf8_150/fp8_gemm_hf8_2415/batch_gemm_24_bundle_907/op_3"
  op: "BatchGemm"
  input: "module/model/22/fused_scaled_dot_product_attention/sdpa_recomp_fwd_hf8/10963_complex/sdpa_recomp_fwd_hf8_301/sdpa_recomp_core_fwd_hf8_150/softmax_fwd_hf8_22_bundle_907/op_2"
  input: "reshape_8_8_bundle_907/op_1"
  attr {
    key: "Bundle_idx"
    value {
      s: "907"
    }
  }
  attr {
    key: "Exec_idx"
    value {
      s: "44"
    }
  }
  attr {
    key: "Op_idx"
    value {
      s: "3"
    }
  }
  attr {
    key: "Parameters"
    value {
      s: "transpose_a=false, transpose_b=false"
    }
  }
  attr {
    key: "fp8BiasIn"
    value {
      s: "11"
    }
  }
  attr {
    key: "fp8BiasIn2"
    value {
      s: "7"
    }
  }
  attr {
    key: "fp8BiasOut"
    value {
      s: "7"
    }
  }
  attr {
    key: "inputTensor:0"
    value {
      s: "hf8-23_142346_slice_0_0_0_0_0__0__bundle_907_142995  |  Sizes = [1,8,4,32,32]  |  hfloat8  |  expBias = 7, scale = 1  |    |  ModelParam = 0  |  strides = [32768, 32768, 4096, 1024, 32, 1]  |  data = 0, sizeInBytes = 32768  |  location = in SRAM  |  sramOffset = 0x1000fffffd120000  |  "
    }
  }
  attr {
    key: "inputTensor:1"
    value {
      s: "tensor_82_id_113100_module/model/22/fused_scaled_dot_product_attention/aten__view_slice_0_0_0_0_0__0__bundle_907_142989  |  Sizes = [1,8,1,32,128]  |  hfloat8  |  expBias = 7, scale = 1  |    |  ModelParam = 0  |  strides = [32768, 32768, 4096, 4096, 128, 1]  |  data = 0, sizeInBytes = 32768  |  location = in SRAM  |  sramOffset = 0x1000fffffd118000  |  "
    }
  }
  attr {
    key: "outputTensor:0"
    value {
      s: "tensor_118  |  Sizes = [1,8,4,32,128]  |  hfloat8  |  expBias = 7, scale = 1  |    |  ModelParam = 0  |  strides = [131072, 131072, 16384, 4096, 128, 1]  |  data = 0, sizeInBytes = 131072  |  isAliased = tensor_119_id_113121_module/model/22/fused_scaled_dot_product_attention/dequant_output/aten__view, type = alias, offset: 0  |  location = in DRAM  |  "
    }
  }
}
node {
  name: "module/model/22/fused_scaled_dot_product_attention/dequant_output/reshape/10964"
  op: "Reshape"
  input: "module/model/22/fused_scaled_dot_product_attention/sdpa_recomp_fwd_hf8/10963_complex/sdpa_recomp_fwd_hf8_301/sdpa_recomp_core_fwd_hf8_150/fp8_gemm_hf8_2415/batch_gemm_24_bundle_907/op_3"
  attr {
    key: "Bundle_idx"
    value {
      s: "N/A"
    }
  }
  attr {
    key: "Exec_idx"
    value {
      s: "45"
    }
  }
  attr {
    key: "Op_idx"
    value {
      s: "N/A"
    }
  }
  attr {
    key: "inputTensor:0"
    value {
      s: "tensor_118  |  Sizes = [1,8,4,32,128]  |  hfloat8  |  expBias = 7, scale = 1  |    |  ModelParam = 0  |  strides = [131072, 131072, 16384, 4096, 128, 1]  |  data = 0, sizeInBytes = 131072  |  isAliased = tensor_119_id_113121_module/model/22/fused_scaled_dot_product_attention/dequant_output/aten__view, type = alias, offset: 0  |  location = in DRAM  |  "
    }
  }
  attr {
    key: "outputTensor:0"
    value {
      s: "tensor_119_id_113121_module/model/22/fused_scaled_dot_product_attention/dequant_output/aten__view  |  Sizes = [1,32,32,128]  |  hfloat8  |  expBias = 7, scale = 1  |    |  ModelParam = 0  |  strides = [131072, 131072, 4096, 128, 1]  |  data = 0, sizeInBytes = 131072  |  location = in DRAM  |  dramOffset = 0x0  |  "
    }
  }
}
node {
  name: "module/model/22/transpose/10966_transpose_via_logical"
  op: "LogicalTranspose"
  input: "module/model/22/fused_scaled_dot_product_attention/dequant_output/reshape/10964"
  attr {
    key: "Bundle_idx"
    value {
      s: "N/A"
    }
  }
  attr {
    key: "Exec_idx"
    value {
      s: "46"
    }
  }
  attr {
    key: "Op_idx"
    value {
      s: "N/A"
    }
  }
  attr {
    key: "Parameters"
    value {
      s: "permutation: (0,2,1,3)"
    }
  }
  attr {
    key: "inputTensor:0"
    value {
      s: "tensor_119_id_113121_module/model/22/fused_scaled_dot_product_attention/dequant_output/aten__view  |  Sizes = [1,32,32,128]  |  hfloat8  |  expBias = 7, scale = 1  |    |  ModelParam = 0  |  strides = [131072, 131072, 4096, 128, 1]  |  data = 0, sizeInBytes = 131072  |  location = in DRAM  |  dramOffset = 0x0  |  "
    }
  }
  attr {
    key: "outputTensor:0"
    value {
      s: "tensor_123_id_113126_module/model/22/aten__transpose  |  Sizes = [1,32,32,128]  |  hfloat8  |  expBias = 7, scale = 1  |    |  ModelParam = 0  |  strides = [131072, 131072, 128, 4096, 1]  |  data = 0, sizeInBytes = 131072  |  isAliased = tensor_119_id_113121_module/model/22/fused_scaled_dot_product_attention/dequant_output/aten__view, type = alias, offset: 0  |  location = in DRAM  |  isSparseLayout  |  "
    }
  }
}
node {
  name: "tensor_123_id_113126_module/model/22/aten__transpose_memcpy_143010_internal"
  op: "DmaMemcpy"
  input: "module/model/22/transpose/10966_transpose_via_logical"
  attr {
    key: "Bundle_idx"
    value {
      s: "N/A"
    }
  }
  attr {
    key: "Exec_idx"
    value {
      s: "47"
    }
  }
  attr {
    key: "Op_idx"
    value {
      s: "N/A"
    }
  }
  attr {
    key: "inputTensor:0"
    value {
      s: "tensor_123_id_113126_module/model/22/aten__transpose  |  Sizes = [1,32,32,128]  |  hfloat8  |  expBias = 7, scale = 1  |    |  ModelParam = 0  |  strides = [131072, 131072, 128, 4096, 1]  |  data = 0, sizeInBytes = 131072  |  isAliased = tensor_119_id_113121_module/model/22/fused_scaled_dot_product_attention/dequant_output/aten__view, type = alias, offset: 0  |  location = in DRAM  |  isSparseLayout  |  "
    }
  }
  attr {
    key: "outputTensor:0"
    value {
      s: "tensor_123_id_113126_module/model/22/aten__transpose_memcpy_143010  |  Sizes = [1,32,32,128]  |  hfloat8  |  expBias = 7, scale = 1  |    |  ModelParam = 0  |  strides = [131072, 131072, 4096, 128, 1]  |  data = 0, sizeInBytes = 131072  |  location = in DRAM  |  dramOffset = 0x20000  |  "
    }
  }
}
node {
  name: "module/model/22/o_proj/quant_input_0/reshape/10968"
  op: "Reshape"
  input: "tensor_123_id_113126_module/model/22/aten__transpose_memcpy_143010_internal"
  attr {
    key: "Bundle_idx"
    value {
      s: "N/A"
    }
  }
  attr {
    key: "Exec_idx"
    value {
      s: "48"
    }
  }
  attr {
    key: "Op_idx"
    value {
      s: "N/A"
    }
  }
  attr {
    key: "inputTensor:0"
    value {
      s: "tensor_123_id_113126_module/model/22/aten__transpose_memcpy_143010  |  Sizes = [1,32,32,128]  |  hfloat8  |  expBias = 7, scale = 1  |    |  ModelParam = 0  |  strides = [131072, 131072, 4096, 128, 1]  |  data = 0, sizeInBytes = 131072  |  location = in DRAM  |  dramOffset = 0x20000  |  "
    }
  }
  attr {
    key: "outputTensor:0"
    value {
      s: "tensor_129_c142261  |  Sizes = [1,32,4096]  |  hfloat8  |  expBias = 7, scale = 1  |    |  ModelParam = 0  |  strides = [131072, 131072, 4096, 1]  |  data = 0, sizeInBytes = 131072  |  isAliased = tensor_123_id_113126_module/model/22/aten__transpose_memcpy_143010, type = alias, offset: 0  |  location = in DRAM  |  "
    }
  }
}
node {
  name: "tensor_130_odule/model/22/o_proj/placeholder/1"
  op: "Placeholder"
  attr {
    key: "dtype"
    value {
      type: DT_INVALID
    }
  }
  attr {
    key: "shape"
    value {
      shape {
        dim {
          size: 4096
        }
        dim {
          size: 4096
        }
        dim {
          size: 1
        }
        dim {
          size: 1
        }
        dim {
          size: 1
        }
      }
    }
  }
  attr {
    key: "synDataType"
    value {
      s: "hfloat8"
    }
  }
}
node {
  name: "module/model/22/o_proj/fp8_gemm_bf16/10970_complex/fp8_gemm_bf16_2417/expand_dims_6"
  op: "ExpandDims"
  input: "tensor_130_odule/model/22/o_proj/placeholder/1"
  attr {
    key: "Bundle_idx"
    value {
      s: "N/A"
    }
  }
  attr {
    key: "Exec_idx"
    value {
      s: "49"
    }
  }
  attr {
    key: "Op_idx"
    value {
      s: "N/A"
    }
  }
  attr {
    key: "inputTensor:0"
    value {
      s: "tensor_130_odule/model/22/o_proj/placeholder/1  |  Sizes = [4096,4096]  |  hfloat8  |  expBias = 7, scale = 1  |    |  ModelParam = 0  |  strides = [16777216, 4096, 1]  |  data = 0, sizeInBytes = 16777216  |  isPersistent  |  location = in DRAM  |  dramOffset = 0x2c0000000000  |  userMemorySection(type=Persistent, id=44)  |  "
    }
  }
  attr {
    key: "outputTensor:0"
    value {
      s: "hf8-7_142350  |  Sizes = [1,4096,4096]  |  hfloat8  |  expBias = 7, scale = 1  |    |  ModelParam = 0  |  strides = [16777216, 16777216, 4096, 1]  |  data = 0, sizeInBytes = 16777216  |  isAliased = tensor_130_odule/model/22/o_proj/placeholder/1, type = alias, offset: 0  |  location = in DRAM  |  "
    }
  }
}
node {
  name: "module/model/22/o_proj/fp8_gemm_bf16/10970_complex/fp8_gemm_bf16_2417/batch_gemm_8_bundle_908/op_0_gemm"
  op: "GEMM"
  input: "module/model/22/o_proj/quant_input_0/reshape/10968"
  input: "module/model/22/o_proj/fp8_gemm_bf16/10970_complex/fp8_gemm_bf16_2417/expand_dims_6"
  attr {
    key: "Bundle_idx"
    value {
      s: "908"
    }
  }
  attr {
    key: "Exec_idx"
    value {
      s: "50"
    }
  }
  attr {
    key: "Op_idx"
    value {
      s: "0"
    }
  }
  attr {
    key: "Parameters"
    value {
      s: "transpose_a=false, transpose_b=false"
    }
  }
  attr {
    key: "fp8BiasIn"
    value {
      s: "7"
    }
  }
  attr {
    key: "fp8BiasIn2"
    value {
      s: "15"
    }
  }
  attr {
    key: "fp8BiasOut"
    value {
      s: "0"
    }
  }
  attr {
    key: "inputTensor:0"
    value {
      s: "tensor_129_c142261  |  Sizes = [1,32,4096]  |  hfloat8  |  expBias = 7, scale = 1  |    |  ModelParam = 0  |  strides = [131072, 131072, 4096, 1]  |  data = 0, sizeInBytes = 131072  |  isAliased = tensor_123_id_113126_module/model/22/aten__transpose_memcpy_143010, type = alias, offset: 0  |  location = in DRAM  |  "
    }
  }
  attr {
    key: "inputTensor:1"
    value {
      s: "hf8-7_142350  |  Sizes = [1,4096,4096]  |  hfloat8  |  expBias = 7, scale = 1  |    |  ModelParam = 0  |  strides = [16777216, 16777216, 4096, 1]  |  data = 0, sizeInBytes = 16777216  |  isAliased = tensor_130_odule/model/22/o_proj/placeholder/1, type = alias, offset: 0  |  location = in DRAM  |  "
    }
  }
  attr {
    key: "outputTensor:0"
    value {
      s: "tensor_134  |  Sizes = [1,32,4096]  |  bf16  |  expBias = 0, scale = 1  |    |  ModelParam = 0  |  strides = [262144, 262144, 8192, 2]  |  data = 0, sizeInBytes = 262144  |  location = in DRAM  |  dramOffset = 0x60100  |  "
    }
  }
}
node {
  name: "tensor_145_odule/model/22/up_proj/placeholder/1"
  op: "Placeholder"
  attr {
    key: "dtype"
    value {
      type: DT_INVALID
    }
  }
  attr {
    key: "shape"
    value {
      shape {
        dim {
          size: 14336
        }
        dim {
          size: 4096
        }
        dim {
          size: 1
        }
        dim {
          size: 1
        }
        dim {
          size: 1
        }
      }
    }
  }
  attr {
    key: "synDataType"
    value {
      s: "hfloat8"
    }
  }
}
node {
  name: "module/model/22/up_proj/fp8_gemm_bf16/10974_complex/fp8_gemm_bf16_2419/expand_dims_6"
  op: "ExpandDims"
  input: "tensor_145_odule/model/22/up_proj/placeholder/1"
  attr {
    key: "Bundle_idx"
    value {
      s: "N/A"
    }
  }
  attr {
    key: "Exec_idx"
    value {
      s: "51"
    }
  }
  attr {
    key: "Op_idx"
    value {
      s: "N/A"
    }
  }
  attr {
    key: "inputTensor:0"
    value {
      s: "tensor_145_odule/model/22/up_proj/placeholder/1  |  Sizes = [4096,14336]  |  hfloat8  |  expBias = 7, scale = 1  |    |  ModelParam = 0  |  strides = [58720256, 14336, 1]  |  data = 0, sizeInBytes = 58720256  |  isPersistent  |  location = in DRAM  |  dramOffset = 0x310000000000  |  userMemorySection(type=Persistent, id=49)  |  "
    }
  }
  attr {
    key: "outputTensor:0"
    value {
      s: "hf8-7_142358  |  Sizes = [1,4096,14336]  |  hfloat8  |  expBias = 7, scale = 1  |    |  ModelParam = 0  |  strides = [58720256, 58720256, 14336, 1]  |  data = 0, sizeInBytes = 58720256  |  isAliased = tensor_145_odule/model/22/up_proj/placeholder/1, type = alias, offset: 0  |  location = in DRAM  |  "
    }
  }
}
node {
  name: "tensor_154_odule/model/22/gate_proj/placeholder/1"
  op: "Placeholder"
  attr {
    key: "dtype"
    value {
      type: DT_INVALID
    }
  }
  attr {
    key: "shape"
    value {
      shape {
        dim {
          size: 14336
        }
        dim {
          size: 4096
        }
        dim {
          size: 1
        }
        dim {
          size: 1
        }
        dim {
          size: 1
        }
      }
    }
  }
  attr {
    key: "synDataType"
    value {
      s: "hfloat8"
    }
  }
}
node {
  name: "module/model/22/gate_proj/fp8_gemm_bf16/10976_complex/fp8_gemm_bf16_2421/expand_dims_6"
  op: "ExpandDims"
  input: "tensor_154_odule/model/22/gate_proj/placeholder/1"
  attr {
    key: "Bundle_idx"
    value {
      s: "N/A"
    }
  }
  attr {
    key: "Exec_idx"
    value {
      s: "52"
    }
  }
  attr {
    key: "Op_idx"
    value {
      s: "N/A"
    }
  }
  attr {
    key: "inputTensor:0"
    value {
      s: "tensor_154_odule/model/22/gate_proj/placeholder/1  |  Sizes = [4096,14336]  |  hfloat8  |  expBias = 7, scale = 1  |    |  ModelParam = 0  |  strides = [58720256, 14336, 1]  |  data = 0, sizeInBytes = 58720256  |  isPersistent  |  location = in DRAM  |  dramOffset = 0x350000000000  |  userMemorySection(type=Persistent, id=53)  |  "
    }
  }
  attr {
    key: "outputTensor:0"
    value {
      s: "hf8-7_142362  |  Sizes = [1,4096,14336]  |  hfloat8  |  expBias = 7, scale = 1  |    |  ModelParam = 0  |  strides = [58720256, 58720256, 14336, 1]  |  data = 0, sizeInBytes = 58720256  |  isAliased = tensor_154_odule/model/22/gate_proj/placeholder/1, type = alias, offset: 0  |  location = in DRAM  |  "
    }
  }
}
node {
  name: "module/model/22/add_fwd_bf16/10971_complex/add_fwd_bf16_0_bundle_905/op_0"
  op: "add_fwd_bf16"
  input: "tensor_21_odule/model/22/input_layernorm/placeholder/0"
  input: "module/model/22/o_proj/fp8_gemm_bf16/10970_complex/fp8_gemm_bf16_2417/batch_gemm_8_bundle_908/op_0_gemm"
  attr {
    key: "Bundle_idx"
    value {
      s: "905"
    }
  }
  attr {
    key: "Exec_idx"
    value {
      s: "53"
    }
  }
  attr {
    key: "Op_idx"
    value {
      s: "0"
    }
  }
  attr {
    key: "inputTensor:0"
    value {
      s: "tensor_21_odule/model/22/input_layernorm/placeholder/0  |  Sizes = [1,32,4096]  |  bf16  |  expBias = 0, scale = 1  |    |  ModelParam = 0  |  strides = [262144, 262144, 8192, 2]  |  data = 0, sizeInBytes = 262144  |  isPersistent  |  location = in DRAM  |  dramOffset = 0x90000000000  |  userMemorySection(type=Persistent, id=9)  |  "
    }
  }
  attr {
    key: "inputTensor:1"
    value {
      s: "tensor_134  |  Sizes = [1,32,4096]  |  bf16  |  expBias = 0, scale = 1  |    |  ModelParam = 0  |  strides = [262144, 262144, 8192, 2]  |  data = 0, sizeInBytes = 262144  |  location = in DRAM  |  dramOffset = 0x60100  |  "
    }
  }
  attr {
    key: "outputTensor:0"
    value {
      s: "tensor_135_replaced_142287_slice_0_0_0_0_0__0__bundle_905_142955  |  Sizes = [1,32,4096]  |  bf16  |  expBias = 0, scale = 1  |    |  ModelParam = 0  |  strides = [262144, 262144, 8192, 2]  |  data = 0, sizeInBytes = 262144  |  location = in SRAM  |  sramOffset = 0x1000fffffd128000  |  "
    }
  }
}
node {
  name: "module/model/22/post_attention_layernorm/rms_norm_ex_fwd_bf16/10972_complex/rms_norm_ex_fwd_bf16_611/reshape_2_bundle_905/op_1"
  op: "Reshape"
  input: "module/model/22/add_fwd_bf16/10971_complex/add_fwd_bf16_0_bundle_905/op_0"
  attr {
    key: "Bundle_idx"
    value {
      s: "905"
    }
  }
  attr {
    key: "Exec_idx"
    value {
      s: "54"
    }
  }
  attr {
    key: "Op_idx"
    value {
      s: "1"
    }
  }
  attr {
    key: "inputTensor:0"
    value {
      s: "tensor_135_replaced_142287_slice_0_0_0_0_0__0__bundle_905_142955  |  Sizes = [1,32,4096]  |  bf16  |  expBias = 0, scale = 1  |    |  ModelParam = 0  |  strides = [262144, 262144, 8192, 2]  |  data = 0, sizeInBytes = 262144  |  location = in SRAM  |  sramOffset = 0x1000fffffd128000  |  "
    }
  }
  attr {
    key: "outputTensor:0"
    value {
      s: "bf16-3_142352_slice_0_0_0_0_0__0__bundle_905_142956  |  Sizes = [32,4096]  |  bf16  |  expBias = 0, scale = 1  |    |  ModelParam = 0  |  strides = [262144, 8192, 2]  |  data = 0, sizeInBytes = 262144  |  isAliased = tensor_135_replaced_142287_slice_0_0_0_0_0__0__bundle_905_142955, type = alias, offset: 0  |  location = in SRAM  |  sramOffset = 0x1000fffffd128000  |  "
    }
  }
}
node {
  name: "tensor_136_odule/model/22/post_attention_layernorm/placeholder/1"
  op: "Placeholder"
  attr {
    key: "dtype"
    value {
      type: DT_BFLOAT16
    }
  }
  attr {
    key: "shape"
    value {
      shape {
        dim {
          size: 4096
        }
        dim {
          size: 1
        }
        dim {
          size: 1
        }
        dim {
          size: 1
        }
        dim {
          size: 1
        }
      }
    }
  }
  attr {
    key: "synDataType"
    value {
      s: "bf16"
    }
  }
}
node {
  name: "module/model/22/post_attention_layernorm/rms_norm_ex_fwd_bf16/10972_complex/rms_norm_ex_fwd_bf16_611/rms_norm_fwd_bf16_4_bundle_905/op_2"
  op: "rms_norm_fwd_bf16"
  input: "module/model/22/post_attention_layernorm/rms_norm_ex_fwd_bf16/10972_complex/rms_norm_ex_fwd_bf16_611/reshape_2_bundle_905/op_1"
  input: "tensor_136_odule/model/22/post_attention_layernorm/placeholder/1"
  attr {
    key: "Bundle_idx"
    value {
      s: "905"
    }
  }
  attr {
    key: "Exec_idx"
    value {
      s: "55"
    }
  }
  attr {
    key: "Op_idx"
    value {
      s: "2"
    }
  }
  attr {
    key: "inputTensor:0"
    value {
      s: "bf16-3_142352_slice_0_0_0_0_0__0__bundle_905_142956  |  Sizes = [32,4096]  |  bf16  |  expBias = 0, scale = 1  |    |  ModelParam = 0  |  strides = [262144, 8192, 2]  |  data = 0, sizeInBytes = 262144  |  isAliased = tensor_135_replaced_142287_slice_0_0_0_0_0__0__bundle_905_142955, type = alias, offset: 0  |  location = in SRAM  |  sramOffset = 0x1000fffffd128000  |  "
    }
  }
  attr {
    key: "inputTensor:1"
    value {
      s: "tensor_136_odule/model/22/post_attention_layernorm/placeholder/1  |  Sizes = [4096]  |  bf16  |  expBias = 0, scale = 1  |    |  ModelParam = 0  |  strides = [8192, 2]  |  data = 0, sizeInBytes = 8192  |  isPersistent  |  location = in DRAM  |  dramOffset = 0x2f0000000000  |  userMemorySection(type=Persistent, id=47)  |  "
    }
  }
  attr {
    key: "outputTensor:0"
    value {
      s: "bf16-5_142353_slice_0_0_0_0_0__0__bundle_905_142958  |  Sizes = [32,4096]  |  bf16  |  expBias = 0, scale = 1  |    |  ModelParam = 0  |  strides = [262144, 8192, 2]  |  data = 0, sizeInBytes = 262144  |  isAliased = tensor-142547_slice_0_0_0_0_0__0__bundle_905_142960, type = alias, offset: 0  |  location = in SRAM  |  sramOffset = 0x1000fffffd168000  |  "
    }
  }
  attr {
    key: "outputTensor:1"
    value {
      s: "f32-6_142354  |  Sizes = [32,1]  |  float32  |  expBias = 0, scale = 1  |    |  ModelParam = 0  |  strides = [128, 4, 4]  |  data = 0, sizeInBytes = 128  |  location = in DRAM  |  dramOffset = 0x40000  |  "
    }
  }
}
node {
  name: "f32-6_142354"
  op: "OutputTensor"
  input: "module/model/22/post_attention_layernorm/rms_norm_ex_fwd_bf16/10972_complex/rms_norm_ex_fwd_bf16_611/rms_norm_fwd_bf16_4_bundle_905/op_2"
  attr {
    key: "dtype"
    value {
      type: DT_FLOAT
    }
  }
  attr {
    key: "shape"
    value {
      shape {
        dim {
          size: 1
        }
        dim {
          size: 32
        }
        dim {
          size: 1
        }
        dim {
          size: 1
        }
        dim {
          size: 1
        }
      }
    }
  }
  attr {
    key: "synDataType"
    value {
      s: "float32"
    }
  }
}
node {
  name: "reshape_12_12_bundle_905/op_3"
  op: "Reshape"
  input: "module/model/22/post_attention_layernorm/rms_norm_ex_fwd_bf16/10972_complex/rms_norm_ex_fwd_bf16_611/rms_norm_fwd_bf16_4_bundle_905/op_2"
  attr {
    key: "Bundle_idx"
    value {
      s: "905"
    }
  }
  attr {
    key: "Exec_idx"
    value {
      s: "56"
    }
  }
  attr {
    key: "Op_idx"
    value {
      s: "3"
    }
  }
  attr {
    key: "inputTensor:0"
    value {
      s: "bf16-5_142353_slice_0_0_0_0_0__0__bundle_905_142958  |  Sizes = [32,4096]  |  bf16  |  expBias = 0, scale = 1  |    |  ModelParam = 0  |  strides = [262144, 8192, 2]  |  data = 0, sizeInBytes = 262144  |  isAliased = tensor-142547_slice_0_0_0_0_0__0__bundle_905_142960, type = alias, offset: 0  |  location = in SRAM  |  sramOffset = 0x1000fffffd168000  |  "
    }
  }
  attr {
    key: "outputTensor:0"
    value {
      s: "tensor-142547_slice_0_0_0_0_0__0__bundle_905_142960  |  Sizes = [1,32,4096]  |  bf16  |  expBias = 0, scale = 1  |    |  ModelParam = 0  |  strides = [262144, 262144, 8192, 2]  |  data = 0, sizeInBytes = 262144  |  location = in SRAM  |  sramOffset = 0x1000fffffd168000  |  "
    }
  }
}
node {
  name: "fusedTPCNode_175_4_bundle_905/op_4"
  op: "fused_kernel_0x35C5D2AD_30D_hf8"
  input: "reshape_12_12_bundle_905/op_3"
  attr {
    key: "Bundle_idx"
    value {
      s: "905"
    }
  }
  attr {
    key: "Exec_idx"
    value {
      s: "57"
    }
  }
  attr {
    key: "Op_idx"
    value {
      s: "4"
    }
  }
  attr {
    key: "inputTensor:0"
    value {
      s: "tensor-142547_slice_0_0_0_0_0__0__bundle_905_142960  |  Sizes = [1,32,4096]  |  bf16  |  expBias = 0, scale = 1  |    |  ModelParam = 0  |  strides = [262144, 262144, 8192, 2]  |  data = 0, sizeInBytes = 262144  |  location = in SRAM  |  sramOffset = 0x1000fffffd168000  |  "
    }
  }
  attr {
    key: "outputTensor:0"
    value {
      s: "tensor_144_slice_0_0_0_0_0__0__bundle_905_142961  |  Sizes = [1,32,4096]  |  hfloat8  |  expBias = 7, scale = 1  |    |  ModelParam = 0  |  strides = [131072, 131072, 4096, 1]  |  data = 0, sizeInBytes = 131072  |  location = in SRAM  |  sramOffset = 0x1000fffffd1a8000  |  "
    }
  }
}
node {
  name: "module/model/22/up_proj/fp8_gemm_bf16/10974_complex/fp8_gemm_bf16_2419/batch_gemm_8_bundle_905/op_5_gemm"
  op: "GEMM"
  input: "fusedTPCNode_175_4_bundle_905/op_4"
  input: "module/model/22/up_proj/fp8_gemm_bf16/10974_complex/fp8_gemm_bf16_2419/expand_dims_6"
  attr {
    key: "Bundle_idx"
    value {
      s: "905"
    }
  }
  attr {
    key: "Exec_idx"
    value {
      s: "58"
    }
  }
  attr {
    key: "Op_idx"
    value {
      s: "5"
    }
  }
  attr {
    key: "Parameters"
    value {
      s: "transpose_a=false, transpose_b=false"
    }
  }
  attr {
    key: "fp8BiasIn"
    value {
      s: "7"
    }
  }
  attr {
    key: "fp8BiasIn2"
    value {
      s: "15"
    }
  }
  attr {
    key: "fp8BiasOut"
    value {
      s: "0"
    }
  }
  attr {
    key: "inputTensor:0"
    value {
      s: "tensor_144_slice_0_0_0_0_0__0__bundle_905_142961  |  Sizes = [1,32,4096]  |  hfloat8  |  expBias = 7, scale = 1  |    |  ModelParam = 0  |  strides = [131072, 131072, 4096, 1]  |  data = 0, sizeInBytes = 131072  |  location = in SRAM  |  sramOffset = 0x1000fffffd1a8000  |  "
    }
  }
  attr {
    key: "inputTensor:1"
    value {
      s: "hf8-7_142358  |  Sizes = [1,4096,14336]  |  hfloat8  |  expBias = 7, scale = 1  |    |  ModelParam = 0  |  strides = [58720256, 58720256, 14336, 1]  |  data = 0, sizeInBytes = 58720256  |  isAliased = tensor_145_odule/model/22/up_proj/placeholder/1, type = alias, offset: 0  |  location = in DRAM  |  "
    }
  }
  attr {
    key: "outputTensor:0"
    value {
      s: "tensor_149  |  Sizes = [1,32,14336]  |  bf16  |  expBias = 0, scale = 1  |    |  ModelParam = 0  |  strides = [917504, 917504, 28672, 2]  |  data = 0, sizeInBytes = 917504  |  location = in DRAM  |  dramOffset = 0xa0100  |  "
    }
  }
}
node {
  name: "module/model/22/gate_proj/fp8_gemm_bf16/10976_complex/fp8_gemm_bf16_2421/batch_gemm_8_bundle_905/op_6_gemm"
  op: "GEMM"
  input: "fusedTPCNode_175_4_bundle_905/op_4"
  input: "module/model/22/gate_proj/fp8_gemm_bf16/10976_complex/fp8_gemm_bf16_2421/expand_dims_6"
  attr {
    key: "Bundle_idx"
    value {
      s: "905"
    }
  }
  attr {
    key: "Exec_idx"
    value {
      s: "59"
    }
  }
  attr {
    key: "Op_idx"
    value {
      s: "6"
    }
  }
  attr {
    key: "Parameters"
    value {
      s: "transpose_a=false, transpose_b=false"
    }
  }
  attr {
    key: "fp8BiasIn"
    value {
      s: "7"
    }
  }
  attr {
    key: "fp8BiasIn2"
    value {
      s: "15"
    }
  }
  attr {
    key: "fp8BiasOut"
    value {
      s: "0"
    }
  }
  attr {
    key: "inputTensor:0"
    value {
      s: "tensor_144_slice_0_0_0_0_0__0__bundle_905_142961  |  Sizes = [1,32,4096]  |  hfloat8  |  expBias = 7, scale = 1  |    |  ModelParam = 0  |  strides = [131072, 131072, 4096, 1]  |  data = 0, sizeInBytes = 131072  |  location = in SRAM  |  sramOffset = 0x1000fffffd1a8000  |  "
    }
  }
  attr {
    key: "inputTensor:1"
    value {
      s: "hf8-7_142362  |  Sizes = [1,4096,14336]  |  hfloat8  |  expBias = 7, scale = 1  |    |  ModelParam = 0  |  strides = [58720256, 58720256, 14336, 1]  |  data = 0, sizeInBytes = 58720256  |  isAliased = tensor_154_odule/model/22/gate_proj/placeholder/1, type = alias, offset: 0  |  location = in DRAM  |  "
    }
  }
  attr {
    key: "outputTensor:0"
    value {
      s: "tensor_158  |  Sizes = [1,32,14336]  |  bf16  |  expBias = 0, scale = 1  |    |  ModelParam = 0  |  strides = [917504, 917504, 28672, 2]  |  data = 0, sizeInBytes = 917504  |  location = in DRAM  |  dramOffset = 0x180100  |  "
    }
  }
}
node {
  name: "tensor_135_replaced_142287_bundle_905/memcpy/0"
  op: "DmaMemcpy"
  input: "module/model/22/add_fwd_bf16/10971_complex/add_fwd_bf16_0_bundle_905/op_0"
  attr {
    key: "Bundle_idx"
    value {
      s: "905"
    }
  }
  attr {
    key: "Exec_idx"
    value {
      s: "60"
    }
  }
  attr {
    key: "Op_idx"
    value {
      s: "7"
    }
  }
  attr {
    key: "inputTensor:0"
    value {
      s: "tensor_135_replaced_142287_slice_0_0_0_0_0__0__bundle_905_142955  |  Sizes = [1,32,4096]  |  bf16  |  expBias = 0, scale = 1  |    |  ModelParam = 0  |  strides = [262144, 262144, 8192, 2]  |  data = 0, sizeInBytes = 262144  |  location = in SRAM  |  sramOffset = 0x1000fffffd128000  |  "
    }
  }
  attr {
    key: "outputTensor:0"
    value {
      s: "tensor_135_replaced_142287  |  Sizes = [1,32,4096]  |  bf16  |  expBias = 0, scale = 1  |    |  ModelParam = 0  |  strides = [262144, 262144, 8192, 2]  |  data = 0, sizeInBytes = 262144  |  location = in DRAM  |  dramOffset = 0x260100  |  "
    }
  }
}
node {
  name: "tensor_165_odule/model/22/down_proj/placeholder/1"
  op: "Placeholder"
  attr {
    key: "dtype"
    value {
      type: DT_INVALID
    }
  }
  attr {
    key: "shape"
    value {
      shape {
        dim {
          size: 4096
        }
        dim {
          size: 14336
        }
        dim {
          size: 1
        }
        dim {
          size: 1
        }
        dim {
          size: 1
        }
      }
    }
  }
  attr {
    key: "synDataType"
    value {
      s: "hfloat8"
    }
  }
}
node {
  name: "module/model/22/down_proj/fp8_gemm_bf16/10980_complex/fp8_gemm_bf16_2423/expand_dims_6"
  op: "ExpandDims"
  input: "tensor_165_odule/model/22/down_proj/placeholder/1"
  attr {
    key: "Bundle_idx"
    value {
      s: "N/A"
    }
  }
  attr {
    key: "Exec_idx"
    value {
      s: "61"
    }
  }
  attr {
    key: "Op_idx"
    value {
      s: "N/A"
    }
  }
  attr {
    key: "inputTensor:0"
    value {
      s: "tensor_165_odule/model/22/down_proj/placeholder/1  |  Sizes = [14336,4096]  |  hfloat8  |  expBias = 7, scale = 1  |    |  ModelParam = 0  |  strides = [58720256, 4096, 1]  |  data = 0, sizeInBytes = 58720256  |  isPersistent  |  location = in DRAM  |  dramOffset = 0x390000000000  |  userMemorySection(type=Persistent, id=57)  |  "
    }
  }
  attr {
    key: "outputTensor:0"
    value {
      s: "hf8-7_142370  |  Sizes = [1,14336,4096]  |  hfloat8  |  expBias = 7, scale = 1  |    |  ModelParam = 0  |  strides = [58720256, 58720256, 4096, 1]  |  data = 0, sizeInBytes = 58720256  |  isAliased = tensor_165_odule/model/22/down_proj/placeholder/1, type = alias, offset: 0  |  location = in DRAM  |  "
    }
  }
}
node {
  name: "fusedTPCNode_175_5_bundle_909/op_0"
  op: "fused_kernel_0x21A3B6C3_311_bf16"
  input: "module/model/22/gate_proj/fp8_gemm_bf16/10976_complex/fp8_gemm_bf16_2421/batch_gemm_8_bundle_905/op_6_gemm"
  input: "module/model/22/up_proj/fp8_gemm_bf16/10974_complex/fp8_gemm_bf16_2419/batch_gemm_8_bundle_905/op_5_gemm"
  attr {
    key: "Bundle_idx"
    value {
      s: "909"
    }
  }
  attr {
    key: "Exec_idx"
    value {
      s: "62"
    }
  }
  attr {
    key: "Op_idx"
    value {
      s: "0"
    }
  }
  attr {
    key: "inputTensor:0"
    value {
      s: "tensor_158  |  Sizes = [1,32,14336]  |  bf16  |  expBias = 0, scale = 1  |    |  ModelParam = 0  |  strides = [917504, 917504, 28672, 2]  |  data = 0, sizeInBytes = 917504  |  location = in DRAM  |  dramOffset = 0x180100  |  "
    }
  }
  attr {
    key: "inputTensor:1"
    value {
      s: "tensor_149  |  Sizes = [1,32,14336]  |  bf16  |  expBias = 0, scale = 1  |    |  ModelParam = 0  |  strides = [917504, 917504, 28672, 2]  |  data = 0, sizeInBytes = 917504  |  location = in DRAM  |  dramOffset = 0xa0100  |  "
    }
  }
  attr {
    key: "outputTensor:0"
    value {
      s: "tensor_164_slice_0_0_0_0_0__0__bundle_909_143002  |  Sizes = [1,32,14336]  |  hfloat8  |  expBias = 7, scale = 1  |    |  ModelParam = 0  |  strides = [458752, 458752, 14336, 1]  |  data = 0, sizeInBytes = 458752  |  location = in SRAM  |  sramOffset = 0x1000fffffd1c8000  |  "
    }
  }
}
node {
  name: "module/model/22/down_proj/fp8_gemm_bf16/10980_complex/fp8_gemm_bf16_2423/batch_gemm_8_bundle_909/op_1_gemm"
  op: "GEMM"
  input: "fusedTPCNode_175_5_bundle_909/op_0"
  input: "module/model/22/down_proj/fp8_gemm_bf16/10980_complex/fp8_gemm_bf16_2423/expand_dims_6"
  attr {
    key: "Bundle_idx"
    value {
      s: "909"
    }
  }
  attr {
    key: "Exec_idx"
    value {
      s: "63"
    }
  }
  attr {
    key: "Op_idx"
    value {
      s: "1"
    }
  }
  attr {
    key: "Parameters"
    value {
      s: "transpose_a=false, transpose_b=false"
    }
  }
  attr {
    key: "fp8BiasIn"
    value {
      s: "7"
    }
  }
  attr {
    key: "fp8BiasIn2"
    value {
      s: "11"
    }
  }
  attr {
    key: "fp8BiasOut"
    value {
      s: "0"
    }
  }
  attr {
    key: "inputTensor:0"
    value {
      s: "tensor_164_slice_0_0_0_0_0__0__bundle_909_143002  |  Sizes = [1,32,14336]  |  hfloat8  |  expBias = 7, scale = 1  |    |  ModelParam = 0  |  strides = [458752, 458752, 14336, 1]  |  data = 0, sizeInBytes = 458752  |  location = in SRAM  |  sramOffset = 0x1000fffffd1c8000  |  "
    }
  }
  attr {
    key: "inputTensor:1"
    value {
      s: "hf8-7_142370  |  Sizes = [1,14336,4096]  |  hfloat8  |  expBias = 7, scale = 1  |    |  ModelParam = 0  |  strides = [58720256, 58720256, 4096, 1]  |  data = 0, sizeInBytes = 58720256  |  isAliased = tensor_165_odule/model/22/down_proj/placeholder/1, type = alias, offset: 0  |  location = in DRAM  |  "
    }
  }
  attr {
    key: "outputTensor:0"
    value {
      s: "tensor_169_slice_0_0_0_0_0__0__bundle_909_143004  |  Sizes = [1,32,4096]  |  bf16  |  expBias = 0, scale = 1  |    |  ModelParam = 0  |  strides = [262144, 262144, 8192, 2]  |  data = 0, sizeInBytes = 262144  |  location = in SRAM  |  sramOffset = 0x1000fffffd238000  |  "
    }
  }
}
node {
  name: "module/model/22/add_fwd_bf16/10981_complex/add_fwd_bf16_0_bundle_909/op_2"
  op: "add_fwd_bf16"
  input: "tensor_135_replaced_142287_bundle_905/memcpy/0"
  input: "module/model/22/down_proj/fp8_gemm_bf16/10980_complex/fp8_gemm_bf16_2423/batch_gemm_8_bundle_909/op_1_gemm"
  input: "^module/model/22/input_layernorm/rms_norm_ex_fwd_bf16/10928_complex/rms_norm_ex_fwd_bf16_609/reshape_4"
  input: "^module/model/22/add_fwd_bf16/10971_complex/add_fwd_bf16_0_bundle_905/op_0"
  attr {
    key: "Bundle_idx"
    value {
      s: "909"
    }
  }
  attr {
    key: "Exec_idx"
    value {
      s: "64"
    }
  }
  attr {
    key: "Op_idx"
    value {
      s: "2"
    }
  }
  attr {
    key: "inputTensor:0"
    value {
      s: "tensor_135_replaced_142287  |  Sizes = [1,32,4096]  |  bf16  |  expBias = 0, scale = 1  |    |  ModelParam = 0  |  strides = [262144, 262144, 8192, 2]  |  data = 0, sizeInBytes = 262144  |  location = in DRAM  |  dramOffset = 0x260100  |  "
    }
  }
  attr {
    key: "inputTensor:1"
    value {
      s: "tensor_169_slice_0_0_0_0_0__0__bundle_909_143004  |  Sizes = [1,32,4096]  |  bf16  |  expBias = 0, scale = 1  |    |  ModelParam = 0  |  strides = [262144, 262144, 8192, 2]  |  data = 0, sizeInBytes = 262144  |  location = in SRAM  |  sramOffset = 0x1000fffffd238000  |  "
    }
  }
  attr {
    key: "outputTensor:0"
    value {
      s: "tensor_170  |  Sizes = [1,32,4096]  |  bf16  |  expBias = 0, scale = 1  |    |  ModelParam = 0  |  strides = [262144, 262144, 8192, 2]  |  data = 0, sizeInBytes = 262144  |  isPersistent  |  location = in DRAM  |  dramOffset = 0x90000000000  |  userMemorySection(type=Persistent, id=9)  |  "
    }
  }
}
node {
  name: "tensor_170"
  op: "OutputTensor"
  input: "module/model/22/add_fwd_bf16/10981_complex/add_fwd_bf16_0_bundle_909/op_2"
  attr {
    key: "dtype"
    value {
      type: DT_BFLOAT16
    }
  }
  attr {
    key: "shape"
    value {
      shape {
        dim {
          size: 4096
        }
        dim {
          size: 32
        }
        dim {
          size: 1
        }
        dim {
          size: 1
        }
        dim {
          size: 1
        }
      }
    }
  }
  attr {
    key: "synDataType"
    value {
      s: "bf16"
    }
  }
}
