node {
  name: "tensor_7_odule/model/29/placeholder/0"
  op: "Placeholder"
  attr {
    key: "dtype"
    value {
      type: DT_INT32
    }
  }
  attr {
    key: "shape"
    value {
      shape {
        dim {
          size: 32
        }
        dim {
          size: 1
        }
        dim {
          size: 1
        }
        dim {
          size: 1
        }
        dim {
          size: 1
        }
      }
    }
  }
  attr {
    key: "synDataType"
    value {
      s: "int32"
    }
  }
}
node {
  name: "module/model/29/expand_dims/24503"
  op: "ExpandDims"
  input: "tensor_7_odule/model/29/placeholder/0"
  attr {
    key: "Bundle_idx"
    value {
      s: "N/A"
    }
  }
  attr {
    key: "Exec_idx"
    value {
      s: "0"
    }
  }
  attr {
    key: "Op_idx"
    value {
      s: "N/A"
    }
  }
  attr {
    key: "inputTensor:0"
    value {
      s: "tensor_7_odule/model/29/placeholder/0  |  Sizes = [32]  |  int32  |  expBias = 0, scale = 1  |    |  ModelParam = 0  |  strides = [128, 4]  |  data = 0, sizeInBytes = 128  |  isPersistent  |  location = in DRAM  |  dramOffset = 0x70000000000  |  userMemorySection(type=Persistent, id=7)  |  "
    }
  }
  attr {
    key: "outputTensor:0"
    value {
      s: "tensor_8_id_277143_module/model/29/aten__unsqueeze/1  |  Sizes = [1,32]  |  int32  |  expBias = 0, scale = 1  |    |  ModelParam = 0  |  strides = [128, 128, 4]  |  data = 0, sizeInBytes = 128  |  isAliased = tensor_7_odule/model/29/placeholder/0, type = alias, offset: 0  |  location = in DRAM  |  "
    }
  }
}
node {
  name: "tensor_9_odule/model/29/rotary_emb/placeholder/0"
  op: "Placeholder"
  attr {
    key: "dtype"
    value {
      type: DT_BFLOAT16
    }
  }
  attr {
    key: "shape"
    value {
      shape {
        dim {
          size: 128
        }
        dim {
          size: 131072
        }
        dim {
          size: 1
        }
        dim {
          size: 1
        }
        dim {
          size: 1
        }
      }
    }
  }
  attr {
    key: "synDataType"
    value {
      s: "bf16"
    }
  }
}
node {
  name: "module/model/29/rotary_emb/slice/24504"
  op: "Slice"
  input: "tensor_9_odule/model/29/rotary_emb/placeholder/0"
  attr {
    key: "Bundle_idx"
    value {
      s: "N/A"
    }
  }
  attr {
    key: "Exec_idx"
    value {
      s: "1"
    }
  }
  attr {
    key: "Op_idx"
    value {
      s: "N/A"
    }
  }
  attr {
    key: "inputTensor:0"
    value {
      s: "tensor_9_odule/model/29/rotary_emb/placeholder/0  |  Sizes = [131072,128]  |  bf16  |  expBias = 0, scale = 1  |    |  ModelParam = 0  |  strides = [33554432, 256, 2]  |  data = 0, sizeInBytes = 33554432  |  isPersistent  |  location = in DRAM  |  dramOffset = 0x80000000000  |  userMemorySection(type=Persistent, id=8)  |  "
    }
  }
  attr {
    key: "outputTensor:0"
    value {
      s: "tensor_10_id_277261_module/model/29/rotary_emb/aten__slice  |  Sizes = [32,128]  |  bf16  |  expBias = 0, scale = 1  |    |  ModelParam = 0  |  strides = [33554432, 256, 2]  |  data = 0, sizeInBytes = 8192  |  isAliased = tensor_9_odule/model/29/rotary_emb/placeholder/0, type = slice, offset: 0  |  location = in DRAM  |  "
    }
  }
}
node {
  name: "tensor_11_odule/model/29/rotary_emb/placeholder/1"
  op: "Placeholder"
  attr {
    key: "dtype"
    value {
      type: DT_FLOAT
    }
  }
  attr {
    key: "shape"
    value {
      shape {
        dim {
          size: 1
        }
        dim {
          size: 1
        }
        dim {
          size: 1
        }
        dim {
          size: 1
        }
        dim {
          size: 1
        }
      }
    }
  }
  attr {
    key: "synDataType"
    value {
      s: "float32"
    }
  }
}
node {
  name: "module/model/29/rotary_emb/cast_f32_to_bf16/24505"
  op: "cast_f32_to_bf16"
  input: "tensor_11_odule/model/29/rotary_emb/placeholder/1"
  attr {
    key: "Bundle_idx"
    value {
      s: "N/A"
    }
  }
  attr {
    key: "Exec_idx"
    value {
      s: "2"
    }
  }
  attr {
    key: "Op_idx"
    value {
      s: "N/A"
    }
  }
  attr {
    key: "inputTensor:0"
    value {
      s: "tensor_11_odule/model/29/rotary_emb/placeholder/1  |  Sizes = [1]  |  float32  |  expBias = 0, scale = 1  |    |  ModelParam = 0  |  strides = [4, 4]  |  data = 0, sizeInBytes = 4  |  isPersistent  |  location = in DRAM  |  dramOffset = 0x90000000000  |  userMemorySection(type=Persistent, id=9)  |  "
    }
  }
  attr {
    key: "outputTensor:0"
    value {
      s: "tensor_13  |  Sizes = [1]  |  bf16  |  expBias = 0, scale = 1  |    |  ModelParam = 0  |  strides = [2, 2]  |  data = 0, sizeInBytes = 2  |  location = in DRAM  |  dramOffset = 0x60000000000  |  "
    }
  }
}
node {
  name: "module/model/29/rotary_emb/mult_fwd_bf16/24506_complex/mult_fwd_bf16_0"
  op: "mult_fwd_bf16"
  input: "module/model/29/rotary_emb/slice/24504"
  input: "module/model/29/rotary_emb/cast_f32_to_bf16/24505"
  attr {
    key: "Bundle_idx"
    value {
      s: "N/A"
    }
  }
  attr {
    key: "Exec_idx"
    value {
      s: "3"
    }
  }
  attr {
    key: "Op_idx"
    value {
      s: "N/A"
    }
  }
  attr {
    key: "inputTensor:0"
    value {
      s: "tensor_10_id_277261_module/model/29/rotary_emb/aten__slice  |  Sizes = [32,128]  |  bf16  |  expBias = 0, scale = 1  |    |  ModelParam = 0  |  strides = [33554432, 256, 2]  |  data = 0, sizeInBytes = 8192  |  isAliased = tensor_9_odule/model/29/rotary_emb/placeholder/0, type = slice, offset: 0  |  location = in DRAM  |  "
    }
  }
  attr {
    key: "inputTensor:1"
    value {
      s: "tensor_13  |  Sizes = [1]  |  bf16  |  expBias = 0, scale = 1  |    |  ModelParam = 0  |  strides = [2, 2]  |  data = 0, sizeInBytes = 2  |  location = in DRAM  |  dramOffset = 0x60000000000  |  "
    }
  }
  attr {
    key: "outputTensor:0"
    value {
      s: "tensor_12_id_277263_module/model/29/rotary_emb/aten__mul  |  Sizes = [32,128]  |  bf16  |  expBias = 0, scale = 1  |    |  ModelParam = 0  |  strides = [8192, 256, 2]  |  data = 0, sizeInBytes = 8192  |  location = in DRAM  |  dramOffset = 0x130000000000  |  "
    }
  }
}
node {
  name: "tensor_17_odule/model/29/rotary_emb/placeholder/0"
  op: "Placeholder"
  attr {
    key: "dtype"
    value {
      type: DT_BFLOAT16
    }
  }
  attr {
    key: "shape"
    value {
      shape {
        dim {
          size: 128
        }
        dim {
          size: 131072
        }
        dim {
          size: 1
        }
        dim {
          size: 1
        }
        dim {
          size: 1
        }
      }
    }
  }
  attr {
    key: "synDataType"
    value {
      s: "bf16"
    }
  }
}
node {
  name: "module/model/29/rotary_emb/slice/24510"
  op: "Slice"
  input: "tensor_17_odule/model/29/rotary_emb/placeholder/0"
  attr {
    key: "Bundle_idx"
    value {
      s: "N/A"
    }
  }
  attr {
    key: "Exec_idx"
    value {
      s: "4"
    }
  }
  attr {
    key: "Op_idx"
    value {
      s: "N/A"
    }
  }
  attr {
    key: "inputTensor:0"
    value {
      s: "tensor_17_odule/model/29/rotary_emb/placeholder/0  |  Sizes = [131072,128]  |  bf16  |  expBias = 0, scale = 1  |    |  ModelParam = 0  |  strides = [33554432, 256, 2]  |  data = 0, sizeInBytes = 33554432  |  isPersistent  |  location = in DRAM  |  dramOffset = 0xa0000000000  |  userMemorySection(type=Persistent, id=10)  |  "
    }
  }
  attr {
    key: "outputTensor:0"
    value {
      s: "tensor_18_id_277265_module/model/29/rotary_emb/aten__slice  |  Sizes = [32,128]  |  bf16  |  expBias = 0, scale = 1  |    |  ModelParam = 0  |  strides = [33554432, 256, 2]  |  data = 0, sizeInBytes = 8192  |  isAliased = tensor_17_odule/model/29/rotary_emb/placeholder/0, type = slice, offset: 0  |  location = in DRAM  |  "
    }
  }
}
node {
  name: "module/model/29/rotary_emb/mult_fwd_bf16/24512_complex/mult_fwd_bf16_0"
  op: "mult_fwd_bf16"
  input: "module/model/29/rotary_emb/slice/24510"
  input: "module/model/29/rotary_emb/cast_f32_to_bf16/24505"
  attr {
    key: "Bundle_idx"
    value {
      s: "N/A"
    }
  }
  attr {
    key: "Exec_idx"
    value {
      s: "5"
    }
  }
  attr {
    key: "Op_idx"
    value {
      s: "N/A"
    }
  }
  attr {
    key: "inputTensor:0"
    value {
      s: "tensor_18_id_277265_module/model/29/rotary_emb/aten__slice  |  Sizes = [32,128]  |  bf16  |  expBias = 0, scale = 1  |    |  ModelParam = 0  |  strides = [33554432, 256, 2]  |  data = 0, sizeInBytes = 8192  |  isAliased = tensor_17_odule/model/29/rotary_emb/placeholder/0, type = slice, offset: 0  |  location = in DRAM  |  "
    }
  }
  attr {
    key: "inputTensor:1"
    value {
      s: "tensor_13  |  Sizes = [1]  |  bf16  |  expBias = 0, scale = 1  |    |  ModelParam = 0  |  strides = [2, 2]  |  data = 0, sizeInBytes = 2  |  location = in DRAM  |  dramOffset = 0x60000000000  |  "
    }
  }
  attr {
    key: "outputTensor:0"
    value {
      s: "tensor_19_id_277267_module/model/29/rotary_emb/aten__mul  |  Sizes = [32,128]  |  bf16  |  expBias = 0, scale = 1  |    |  ModelParam = 0  |  strides = [8192, 256, 2]  |  data = 0, sizeInBytes = 8192  |  location = in DRAM  |  dramOffset = 0x130000002000  |  "
    }
  }
}
node {
  name: "tensor_33_odule/model/29/k_proj/placeholder/1"
  op: "Placeholder"
  attr {
    key: "dtype"
    value {
      type: DT_INVALID
    }
  }
  attr {
    key: "shape"
    value {
      shape {
        dim {
          size: 256
        }
        dim {
          size: 8192
        }
        dim {
          size: 1
        }
        dim {
          size: 1
        }
        dim {
          size: 1
        }
      }
    }
  }
  attr {
    key: "synDataType"
    value {
      s: "hfloat8"
    }
  }
}
node {
  name: "module/model/29/k_proj/fp8_gemm_bf16/24518_complex/fp8_gemm_bf16_5593/expand_dims_6"
  op: "ExpandDims"
  input: "tensor_33_odule/model/29/k_proj/placeholder/1"
  attr {
    key: "Bundle_idx"
    value {
      s: "N/A"
    }
  }
  attr {
    key: "Exec_idx"
    value {
      s: "6"
    }
  }
  attr {
    key: "Op_idx"
    value {
      s: "N/A"
    }
  }
  attr {
    key: "inputTensor:0"
    value {
      s: "tensor_33_odule/model/29/k_proj/placeholder/1  |  Sizes = [8192,256]  |  hfloat8  |  expBias = 7, scale = 1  |    |  ModelParam = 0  |  strides = [2097152, 256, 1]  |  data = 0, sizeInBytes = 2097152  |  isPersistent  |  location = in DRAM  |  dramOffset = 0xd0000000000  |  userMemorySection(type=Persistent, id=13)  |  "
    }
  }
  attr {
    key: "outputTensor:0"
    value {
      s: "hf8-7_380600  |  Sizes = [1,8192,256]  |  hfloat8  |  expBias = 7, scale = 1  |    |  ModelParam = 0  |  strides = [2097152, 2097152, 256, 1]  |  data = 0, sizeInBytes = 2097152  |  isAliased = tensor_33_odule/model/29/k_proj/placeholder/1, type = alias, offset: 0  |  location = in DRAM  |  "
    }
  }
}
node {
  name: "module/model/29/rotary_pos_embedding_fwd_bf16/24521_complex/rotary_pos_embedding_fwd_bf16_698/gather_nd_mxnet_fwd_bf16_8"
  op: "gather_nd_mxnet_fwd_bf16"
  input: "module/model/29/rotary_emb/mult_fwd_bf16/24512_complex/mult_fwd_bf16_0"
  input: "module/model/29/expand_dims/24503"
  attr {
    key: "Bundle_idx"
    value {
      s: "N/A"
    }
  }
  attr {
    key: "Exec_idx"
    value {
      s: "7"
    }
  }
  attr {
    key: "Op_idx"
    value {
      s: "N/A"
    }
  }
  attr {
    key: "inputTensor:0"
    value {
      s: "tensor_19_id_277267_module/model/29/rotary_emb/aten__mul  |  Sizes = [32,128]  |  bf16  |  expBias = 0, scale = 1  |    |  ModelParam = 0  |  strides = [8192, 256, 2]  |  data = 0, sizeInBytes = 8192  |  location = in DRAM  |  dramOffset = 0x130000002000  |  "
    }
  }
  attr {
    key: "inputTensor:1"
    value {
      s: "tensor_8_id_277143_module/model/29/aten__unsqueeze/1  |  Sizes = [1,32]  |  int32  |  expBias = 0, scale = 1  |    |  ModelParam = 0  |  strides = [128, 128, 4]  |  data = 0, sizeInBytes = 128  |  isAliased = tensor_7_odule/model/29/placeholder/0, type = alias, offset: 0  |  location = in DRAM  |  "
    }
  }
  attr {
    key: "outputTensor:0"
    value {
      s: "bf16-9_380605  |  Sizes = [32,128]  |  bf16  |  expBias = 0, scale = 1  |    |  ModelParam = 0  |  strides = [8192, 256, 2]  |  data = 0, sizeInBytes = 8192  |  isAliased = bf16-13_380607, type = alias, offset: 0  |  location = in DRAM  |  "
    }
  }
}
node {
  name: "module/model/29/rotary_pos_embedding_fwd_bf16/24521_complex/rotary_pos_embedding_fwd_bf16_698/gather_nd_mxnet_fwd_bf16_10"
  op: "gather_nd_mxnet_fwd_bf16"
  input: "module/model/29/rotary_emb/mult_fwd_bf16/24506_complex/mult_fwd_bf16_0"
  input: "module/model/29/expand_dims/24503"
  attr {
    key: "Bundle_idx"
    value {
      s: "N/A"
    }
  }
  attr {
    key: "Exec_idx"
    value {
      s: "8"
    }
  }
  attr {
    key: "Op_idx"
    value {
      s: "N/A"
    }
  }
  attr {
    key: "inputTensor:0"
    value {
      s: "tensor_12_id_277263_module/model/29/rotary_emb/aten__mul  |  Sizes = [32,128]  |  bf16  |  expBias = 0, scale = 1  |    |  ModelParam = 0  |  strides = [8192, 256, 2]  |  data = 0, sizeInBytes = 8192  |  location = in DRAM  |  dramOffset = 0x130000000000  |  "
    }
  }
  attr {
    key: "inputTensor:1"
    value {
      s: "tensor_8_id_277143_module/model/29/aten__unsqueeze/1  |  Sizes = [1,32]  |  int32  |  expBias = 0, scale = 1  |    |  ModelParam = 0  |  strides = [128, 128, 4]  |  data = 0, sizeInBytes = 128  |  isAliased = tensor_7_odule/model/29/placeholder/0, type = alias, offset: 0  |  location = in DRAM  |  "
    }
  }
  attr {
    key: "outputTensor:0"
    value {
      s: "bf16-11_380606  |  Sizes = [32,128]  |  bf16  |  expBias = 0, scale = 1  |    |  ModelParam = 0  |  strides = [8192, 256, 2]  |  data = 0, sizeInBytes = 8192  |  isAliased = bf16-15_380608, type = alias, offset: 0  |  location = in DRAM  |  "
    }
  }
}
node {
  name: "module/model/29/rotary_pos_embedding_fwd_bf16/24521_complex/rotary_pos_embedding_fwd_bf16_698/expand_dims_12"
  op: "ExpandDims"
  input: "module/model/29/rotary_pos_embedding_fwd_bf16/24521_complex/rotary_pos_embedding_fwd_bf16_698/gather_nd_mxnet_fwd_bf16_8"
  attr {
    key: "Bundle_idx"
    value {
      s: "N/A"
    }
  }
  attr {
    key: "Exec_idx"
    value {
      s: "9"
    }
  }
  attr {
    key: "Op_idx"
    value {
      s: "N/A"
    }
  }
  attr {
    key: "inputTensor:0"
    value {
      s: "bf16-9_380605  |  Sizes = [32,128]  |  bf16  |  expBias = 0, scale = 1  |    |  ModelParam = 0  |  strides = [8192, 256, 2]  |  data = 0, sizeInBytes = 8192  |  isAliased = bf16-13_380607, type = alias, offset: 0  |  location = in DRAM  |  "
    }
  }
  attr {
    key: "outputTensor:0"
    value {
      s: "bf16-13_380607  |  Sizes = [1,32,128]  |  bf16  |  expBias = 0, scale = 1  |    |  ModelParam = 0  |  strides = [8192, 8192, 256, 2]  |  data = 0, sizeInBytes = 8192  |  location = in DRAM  |  dramOffset = 0x140000000000  |  "
    }
  }
}
node {
  name: "module/model/29/rotary_pos_embedding_fwd_bf16/24521_complex/rotary_pos_embedding_fwd_bf16_698/expand_dims_14"
  op: "ExpandDims"
  input: "module/model/29/rotary_pos_embedding_fwd_bf16/24521_complex/rotary_pos_embedding_fwd_bf16_698/gather_nd_mxnet_fwd_bf16_10"
  attr {
    key: "Bundle_idx"
    value {
      s: "N/A"
    }
  }
  attr {
    key: "Exec_idx"
    value {
      s: "10"
    }
  }
  attr {
    key: "Op_idx"
    value {
      s: "N/A"
    }
  }
  attr {
    key: "inputTensor:0"
    value {
      s: "bf16-11_380606  |  Sizes = [32,128]  |  bf16  |  expBias = 0, scale = 1  |    |  ModelParam = 0  |  strides = [8192, 256, 2]  |  data = 0, sizeInBytes = 8192  |  isAliased = bf16-15_380608, type = alias, offset: 0  |  location = in DRAM  |  "
    }
  }
  attr {
    key: "outputTensor:0"
    value {
      s: "bf16-15_380608  |  Sizes = [1,32,128]  |  bf16  |  expBias = 0, scale = 1  |    |  ModelParam = 0  |  strides = [8192, 8192, 256, 2]  |  data = 0, sizeInBytes = 8192  |  location = in DRAM  |  dramOffset = 0x1c0000000000  |  "
    }
  }
}
node {
  name: "tensor_58_odule/model/29/v_proj/placeholder/1"
  op: "Placeholder"
  attr {
    key: "dtype"
    value {
      type: DT_INVALID
    }
  }
  attr {
    key: "shape"
    value {
      shape {
        dim {
          size: 256
        }
        dim {
          size: 8192
        }
        dim {
          size: 1
        }
        dim {
          size: 1
        }
        dim {
          size: 1
        }
      }
    }
  }
  attr {
    key: "synDataType"
    value {
      s: "hfloat8"
    }
  }
}
node {
  name: "module/model/29/v_proj/fp8_gemm_bf16/24527_complex/fp8_gemm_hf8_5595/expand_dims_8"
  op: "ExpandDims"
  input: "tensor_58_odule/model/29/v_proj/placeholder/1"
  attr {
    key: "Bundle_idx"
    value {
      s: "N/A"
    }
  }
  attr {
    key: "Exec_idx"
    value {
      s: "11"
    }
  }
  attr {
    key: "Op_idx"
    value {
      s: "N/A"
    }
  }
  attr {
    key: "inputTensor:0"
    value {
      s: "tensor_58_odule/model/29/v_proj/placeholder/1  |  Sizes = [8192,256]  |  hfloat8  |  expBias = 7, scale = 1  |    |  ModelParam = 0  |  strides = [2097152, 256, 1]  |  data = 0, sizeInBytes = 2097152  |  isPersistent  |  location = in DRAM  |  dramOffset = 0x160000000000  |  userMemorySection(type=Persistent, id=22)  |  "
    }
  }
  attr {
    key: "outputTensor:0"
    value {
      s: "hf8-9_380613  |  Sizes = [1,8192,256]  |  hfloat8  |  expBias = 7, scale = 1  |    |  ModelParam = 0  |  strides = [2097152, 2097152, 256, 1]  |  data = 0, sizeInBytes = 2097152  |  isAliased = tensor_58_odule/model/29/v_proj/placeholder/1, type = alias, offset: 0  |  location = in DRAM  |  "
    }
  }
}
node {
  name: "tensor_73_odule/model/29/fused_scaled_dot_product_attention/placeholder/0"
  op: "Placeholder"
  attr {
    key: "dtype"
    value {
      type: DT_BFLOAT16
    }
  }
  attr {
    key: "shape"
    value {
      shape {
        dim {
          size: 32
        }
        dim {
          size: 32
        }
        dim {
          size: 1
        }
        dim {
          size: 1
        }
        dim {
          size: 1
        }
      }
    }
  }
  attr {
    key: "synDataType"
    value {
      s: "bf16"
    }
  }
}
node {
  name: "module/model/29/fused_scaled_dot_product_attention/expand_dims/24538"
  op: "Reshape"
  input: "tensor_73_odule/model/29/fused_scaled_dot_product_attention/placeholder/0"
  attr {
    key: "Bundle_idx"
    value {
      s: "N/A"
    }
  }
  attr {
    key: "Exec_idx"
    value {
      s: "12"
    }
  }
  attr {
    key: "Op_idx"
    value {
      s: "N/A"
    }
  }
  attr {
    key: "inputTensor:0"
    value {
      s: "tensor_73_odule/model/29/fused_scaled_dot_product_attention/placeholder/0  |  Sizes = [32,32]  |  bf16  |  expBias = 0, scale = 1  |    |  ModelParam = 0  |  strides = [2048, 64, 2]  |  data = 0, sizeInBytes = 2048  |  isPersistent  |  location = in DRAM  |  dramOffset = 0x1d0000000000  |  userMemorySection(type=Persistent, id=29)  |  "
    }
  }
  attr {
    key: "outputTensor:0"
    value {
      s: "tensor_79_id_277370_module/model/29/fused_scaled_dot_product_attention/aten__unsqueeze  |  Sizes = [1,1,1,32,32]  |  bf16  |  expBias = 0, scale = 1  |    |  ModelParam = 0  |  strides = [2048, 2048, 2048, 2048, 64, 2]  |  data = 0, sizeInBytes = 2048  |  isAliased = tensor_73_odule/model/29/fused_scaled_dot_product_attention/placeholder/0, type = alias, offset: 0  |  location = in DRAM  |  "
    }
  }
}
node {
  name: "tensor_95_odule/model/29/q_proj/placeholder/1"
  op: "Placeholder"
  attr {
    key: "dtype"
    value {
      type: DT_INVALID
    }
  }
  attr {
    key: "shape"
    value {
      shape {
        dim {
          size: 2048
        }
        dim {
          size: 8192
        }
        dim {
          size: 1
        }
        dim {
          size: 1
        }
        dim {
          size: 1
        }
      }
    }
  }
  attr {
    key: "synDataType"
    value {
      s: "hfloat8"
    }
  }
}
node {
  name: "module/model/29/q_proj/fp8_gemm_bf16/24545_complex/fp8_gemm_bf16_5597/expand_dims_6"
  op: "ExpandDims"
  input: "tensor_95_odule/model/29/q_proj/placeholder/1"
  attr {
    key: "Bundle_idx"
    value {
      s: "N/A"
    }
  }
  attr {
    key: "Exec_idx"
    value {
      s: "13"
    }
  }
  attr {
    key: "Op_idx"
    value {
      s: "N/A"
    }
  }
  attr {
    key: "inputTensor:0"
    value {
      s: "tensor_95_odule/model/29/q_proj/placeholder/1  |  Sizes = [8192,2048]  |  hfloat8  |  expBias = 7, scale = 1  |    |  ModelParam = 0  |  strides = [16777216, 2048, 1]  |  data = 0, sizeInBytes = 16777216  |  isPersistent  |  location = in DRAM  |  dramOffset = 0x210000000000  |  userMemorySection(type=Persistent, id=33)  |  "
    }
  }
  attr {
    key: "outputTensor:0"
    value {
      s: "hf8-7_380617  |  Sizes = [1,8192,2048]  |  hfloat8  |  expBias = 7, scale = 1  |    |  ModelParam = 0  |  strides = [16777216, 16777216, 2048, 1]  |  data = 0, sizeInBytes = 16777216  |  isAliased = tensor_95_odule/model/29/q_proj/placeholder/1, type = alias, offset: 0  |  location = in DRAM  |  "
    }
  }
}
node {
  name: "tensor_0_odule/model/28/placeholder/0"
  op: "Placeholder"
  attr {
    key: "dtype"
    value {
      type: DT_BFLOAT16
    }
  }
  attr {
    key: "shape"
    value {
      shape {
        dim {
          size: 8192
        }
        dim {
          size: 32
        }
        dim {
          size: 1
        }
        dim {
          size: 1
        }
        dim {
          size: 1
        }
      }
    }
  }
  attr {
    key: "synDataType"
    value {
      s: "bf16"
    }
  }
}
node {
  name: "tensor_1_odule/model/28/placeholder/1"
  op: "Placeholder"
  attr {
    key: "dtype"
    value {
      type: DT_BFLOAT16
    }
  }
  attr {
    key: "shape"
    value {
      shape {
        dim {
          size: 8192
        }
        dim {
          size: 32
        }
        dim {
          size: 1
        }
        dim {
          size: 1
        }
        dim {
          size: 1
        }
      }
    }
  }
  attr {
    key: "synDataType"
    value {
      s: "bf16"
    }
  }
}
node {
  name: "module/model/28/add_fwd_bf16/24501_complex/add_fwd_bf16_0_bundle_2098/op_0"
  op: "add_fwd_bf16"
  input: "tensor_0_odule/model/28/placeholder/0"
  input: "tensor_1_odule/model/28/placeholder/1"
  attr {
    key: "Bundle_idx"
    value {
      s: "2098"
    }
  }
  attr {
    key: "Exec_idx"
    value {
      s: "14"
    }
  }
  attr {
    key: "Op_idx"
    value {
      s: "0"
    }
  }
  attr {
    key: "inputTensor:0"
    value {
      s: "tensor_0_odule/model/28/placeholder/0  |  Sizes = [1,32,8192]  |  bf16  |  expBias = 0, scale = 1  |    |  ModelParam = 0  |  strides = [524288, 524288, 16384, 2]  |  data = 0, sizeInBytes = 524288  |  isPersistent  |  location = in DRAM  |  dramOffset = 0x40000000000  |  userMemorySection(type=Persistent, id=4)  |  "
    }
  }
  attr {
    key: "inputTensor:1"
    value {
      s: "tensor_1_odule/model/28/placeholder/1  |  Sizes = [1,32,8192]  |  bf16  |  expBias = 0, scale = 1  |    |  ModelParam = 0  |  strides = [524288, 524288, 16384, 2]  |  data = 0, sizeInBytes = 524288  |  isPersistent  |  location = in DRAM  |  dramOffset = 0x50000000000  |  userMemorySection(type=Persistent, id=5)  |  "
    }
  }
  attr {
    key: "outputTensor:0"
    value {
      s: "tensor_2_slice_0_0_0_0_0__0__bundle_2098_381163  |  Sizes = [1,32,8192]  |  bf16  |  expBias = 0, scale = 1  |    |  ModelParam = 0  |  strides = [524288, 524288, 16384, 2]  |  data = 0, sizeInBytes = 524288  |  location = in SRAM  |  sramOffset = 0x1000fffffd050000  |  "
    }
  }
}
node {
  name: "module/model/29/input_layernorm/rms_norm_ex_fwd_bf16/24516_complex/rms_norm_ex_fwd_bf16_1405/reshape_4_bundle_2098/op_1"
  op: "Reshape"
  input: "module/model/28/add_fwd_bf16/24501_complex/add_fwd_bf16_0_bundle_2098/op_0"
  attr {
    key: "Bundle_idx"
    value {
      s: "2098"
    }
  }
  attr {
    key: "Exec_idx"
    value {
      s: "15"
    }
  }
  attr {
    key: "Op_idx"
    value {
      s: "1"
    }
  }
  attr {
    key: "inputTensor:0"
    value {
      s: "tensor_2_slice_0_0_0_0_0__0__bundle_2098_381163  |  Sizes = [1,32,8192]  |  bf16  |  expBias = 0, scale = 1  |    |  ModelParam = 0  |  strides = [524288, 524288, 16384, 2]  |  data = 0, sizeInBytes = 524288  |  location = in SRAM  |  sramOffset = 0x1000fffffd050000  |  "
    }
  }
  attr {
    key: "outputTensor:0"
    value {
      s: "bf16-5_380594_slice_0_0_0_0_0__0__bundle_2098_381164  |  Sizes = [32,8192]  |  bf16  |  expBias = 0, scale = 1  |    |  ModelParam = 0  |  strides = [524288, 16384, 2]  |  data = 0, sizeInBytes = 524288  |  isAliased = tensor_2_slice_0_0_0_0_0__0__bundle_2098_381163, type = alias, offset: 0  |  location = in SRAM  |  sramOffset = 0x1000fffffd050000  |  "
    }
  }
}
node {
  name: "tensor_24_odule/model/29/input_layernorm/placeholder/1"
  op: "Placeholder"
  attr {
    key: "dtype"
    value {
      type: DT_BFLOAT16
    }
  }
  attr {
    key: "shape"
    value {
      shape {
        dim {
          size: 8192
        }
        dim {
          size: 1
        }
        dim {
          size: 1
        }
        dim {
          size: 1
        }
        dim {
          size: 1
        }
      }
    }
  }
  attr {
    key: "synDataType"
    value {
      s: "bf16"
    }
  }
}
node {
  name: "module/model/29/input_layernorm/rms_norm_ex_fwd_bf16/24516_complex/rms_norm_ex_fwd_bf16_1405/rms_norm_fwd_bf16_6_bundle_2098/op_2"
  op: "rms_norm_fwd_bf16"
  input: "module/model/29/input_layernorm/rms_norm_ex_fwd_bf16/24516_complex/rms_norm_ex_fwd_bf16_1405/reshape_4_bundle_2098/op_1"
  input: "tensor_24_odule/model/29/input_layernorm/placeholder/1"
  attr {
    key: "Bundle_idx"
    value {
      s: "2098"
    }
  }
  attr {
    key: "Exec_idx"
    value {
      s: "16"
    }
  }
  attr {
    key: "Op_idx"
    value {
      s: "2"
    }
  }
  attr {
    key: "inputTensor:0"
    value {
      s: "bf16-5_380594_slice_0_0_0_0_0__0__bundle_2098_381164  |  Sizes = [32,8192]  |  bf16  |  expBias = 0, scale = 1  |    |  ModelParam = 0  |  strides = [524288, 16384, 2]  |  data = 0, sizeInBytes = 524288  |  isAliased = tensor_2_slice_0_0_0_0_0__0__bundle_2098_381163, type = alias, offset: 0  |  location = in SRAM  |  sramOffset = 0x1000fffffd050000  |  "
    }
  }
  attr {
    key: "inputTensor:1"
    value {
      s: "tensor_24_odule/model/29/input_layernorm/placeholder/1  |  Sizes = [8192]  |  bf16  |  expBias = 0, scale = 1  |    |  ModelParam = 0  |  strides = [16384, 2]  |  data = 0, sizeInBytes = 16384  |  isPersistent  |  location = in DRAM  |  dramOffset = 0xb0000000000  |  userMemorySection(type=Persistent, id=11)  |  "
    }
  }
  attr {
    key: "outputTensor:0"
    value {
      s: "bf16-7_380595_slice_0_0_0_0_0__0__bundle_2098_381166  |  Sizes = [32,8192]  |  bf16  |  expBias = 0, scale = 1  |    |  ModelParam = 0  |  strides = [524288, 16384, 2]  |  data = 0, sizeInBytes = 524288  |  isAliased = tensor-380813_slice_0_0_0_0_0__0__bundle_2098_381168, type = alias, offset: 0  |  location = in SRAM  |  sramOffset = 0x1000fffffd0d0000  |  "
    }
  }
  attr {
    key: "outputTensor:1"
    value {
      s: "f32-8_380596  |  Sizes = [32,1]  |  float32  |  expBias = 0, scale = 1  |    |  ModelParam = 0  |  strides = [128, 4, 4]  |  data = 0, sizeInBytes = 128  |  location = in DRAM  |  dramOffset = 0x60000000080  |  "
    }
  }
}
node {
  name: "f32-8_380596"
  op: "OutputTensor"
  input: "module/model/29/input_layernorm/rms_norm_ex_fwd_bf16/24516_complex/rms_norm_ex_fwd_bf16_1405/rms_norm_fwd_bf16_6_bundle_2098/op_2"
  attr {
    key: "dtype"
    value {
      type: DT_FLOAT
    }
  }
  attr {
    key: "shape"
    value {
      shape {
        dim {
          size: 1
        }
        dim {
          size: 32
        }
        dim {
          size: 1
        }
        dim {
          size: 1
        }
        dim {
          size: 1
        }
      }
    }
  }
  attr {
    key: "synDataType"
    value {
      s: "float32"
    }
  }
}
node {
  name: "reshape_0_0_bundle_2098/op_3"
  op: "Reshape"
  input: "module/model/29/input_layernorm/rms_norm_ex_fwd_bf16/24516_complex/rms_norm_ex_fwd_bf16_1405/rms_norm_fwd_bf16_6_bundle_2098/op_2"
  attr {
    key: "Bundle_idx"
    value {
      s: "2098"
    }
  }
  attr {
    key: "Exec_idx"
    value {
      s: "17"
    }
  }
  attr {
    key: "Op_idx"
    value {
      s: "3"
    }
  }
  attr {
    key: "inputTensor:0"
    value {
      s: "bf16-7_380595_slice_0_0_0_0_0__0__bundle_2098_381166  |  Sizes = [32,8192]  |  bf16  |  expBias = 0, scale = 1  |    |  ModelParam = 0  |  strides = [524288, 16384, 2]  |  data = 0, sizeInBytes = 524288  |  isAliased = tensor-380813_slice_0_0_0_0_0__0__bundle_2098_381168, type = alias, offset: 0  |  location = in SRAM  |  sramOffset = 0x1000fffffd0d0000  |  "
    }
  }
  attr {
    key: "outputTensor:0"
    value {
      s: "tensor-380813_slice_0_0_0_0_0__0__bundle_2098_381168  |  Sizes = [1,32,8192]  |  bf16  |  expBias = 0, scale = 1  |    |  ModelParam = 0  |  strides = [524288, 524288, 16384, 2]  |  data = 0, sizeInBytes = 524288  |  location = in SRAM  |  sramOffset = 0x1000fffffd0d0000  |  "
    }
  }
}
node {
  name: "fusedTPCNode_728_0_bundle_2098/op_4"
  op: "fused_kernel_0x2F314CB5_84D_hf8"
  input: "reshape_0_0_bundle_2098/op_3"
  attr {
    key: "Bundle_idx"
    value {
      s: "2098"
    }
  }
  attr {
    key: "Exec_idx"
    value {
      s: "18"
    }
  }
  attr {
    key: "Op_idx"
    value {
      s: "4"
    }
  }
  attr {
    key: "inputTensor:0"
    value {
      s: "tensor-380813_slice_0_0_0_0_0__0__bundle_2098_381168  |  Sizes = [1,32,8192]  |  bf16  |  expBias = 0, scale = 1  |    |  ModelParam = 0  |  strides = [524288, 524288, 16384, 2]  |  data = 0, sizeInBytes = 524288  |  location = in SRAM  |  sramOffset = 0x1000fffffd0d0000  |  "
    }
  }
  attr {
    key: "outputTensor:0"
    value {
      s: "tensor_32_slice_0_0_0_0_0__0__bundle_2098_381169  |  Sizes = [1,32,8192]  |  hfloat8  |  expBias = 7, scale = 1  |    |  ModelParam = 0  |  strides = [262144, 262144, 8192, 1]  |  data = 0, sizeInBytes = 262144  |  location = in SRAM  |  sramOffset = 0x1000fffffd150000  |  "
    }
  }
}
node {
  name: "module/model/29/k_proj/fp8_gemm_bf16/24518_complex/fp8_gemm_bf16_5593/batch_gemm_8_bundle_2098/op_5_gemm"
  op: "GEMM"
  input: "fusedTPCNode_728_0_bundle_2098/op_4"
  input: "module/model/29/k_proj/fp8_gemm_bf16/24518_complex/fp8_gemm_bf16_5593/expand_dims_6"
  attr {
    key: "Bundle_idx"
    value {
      s: "2098"
    }
  }
  attr {
    key: "Exec_idx"
    value {
      s: "19"
    }
  }
  attr {
    key: "Op_idx"
    value {
      s: "5"
    }
  }
  attr {
    key: "Parameters"
    value {
      s: "transpose_a=false, transpose_b=false"
    }
  }
  attr {
    key: "fp8BiasIn"
    value {
      s: "7"
    }
  }
  attr {
    key: "fp8BiasIn2"
    value {
      s: "15"
    }
  }
  attr {
    key: "fp8BiasOut"
    value {
      s: "0"
    }
  }
  attr {
    key: "inputTensor:0"
    value {
      s: "tensor_32_slice_0_0_0_0_0__0__bundle_2098_381169  |  Sizes = [1,32,8192]  |  hfloat8  |  expBias = 7, scale = 1  |    |  ModelParam = 0  |  strides = [262144, 262144, 8192, 1]  |  data = 0, sizeInBytes = 262144  |  location = in SRAM  |  sramOffset = 0x1000fffffd150000  |  "
    }
  }
  attr {
    key: "inputTensor:1"
    value {
      s: "hf8-7_380600  |  Sizes = [1,8192,256]  |  hfloat8  |  expBias = 7, scale = 1  |    |  ModelParam = 0  |  strides = [2097152, 2097152, 256, 1]  |  data = 0, sizeInBytes = 2097152  |  isAliased = tensor_33_odule/model/29/k_proj/placeholder/1, type = alias, offset: 0  |  location = in DRAM  |  "
    }
  }
  attr {
    key: "outputTensor:0"
    value {
      s: "tensor_37  |  Sizes = [1,32,256]  |  bf16  |  expBias = 0, scale = 1  |    |  ModelParam = 0  |  strides = [16384, 16384, 512, 2]  |  data = 0, sizeInBytes = 16384  |  isAliased = tensor_38_id_277253_module/model/29/aten__view, type = alias, offset: 0  |  location = in DRAM  |  "
    }
  }
}
node {
  name: "module/model/29/v_proj/fp8_gemm_bf16/24527_complex/fp8_gemm_hf8_5595/batch_gemm_10_bundle_2098/op_6_gemm"
  op: "GEMM"
  input: "fusedTPCNode_728_0_bundle_2098/op_4"
  input: "module/model/29/v_proj/fp8_gemm_bf16/24527_complex/fp8_gemm_hf8_5595/expand_dims_8"
  attr {
    key: "Bundle_idx"
    value {
      s: "2098"
    }
  }
  attr {
    key: "Exec_idx"
    value {
      s: "20"
    }
  }
  attr {
    key: "Op_idx"
    value {
      s: "6"
    }
  }
  attr {
    key: "Parameters"
    value {
      s: "transpose_a=false, transpose_b=false"
    }
  }
  attr {
    key: "fp8BiasIn"
    value {
      s: "7"
    }
  }
  attr {
    key: "fp8BiasIn2"
    value {
      s: "15"
    }
  }
  attr {
    key: "fp8BiasOut"
    value {
      s: "7"
    }
  }
  attr {
    key: "inputTensor:0"
    value {
      s: "tensor_32_slice_0_0_0_0_0__0__bundle_2098_381169  |  Sizes = [1,32,8192]  |  hfloat8  |  expBias = 7, scale = 1  |    |  ModelParam = 0  |  strides = [262144, 262144, 8192, 1]  |  data = 0, sizeInBytes = 262144  |  location = in SRAM  |  sramOffset = 0x1000fffffd150000  |  "
    }
  }
  attr {
    key: "inputTensor:1"
    value {
      s: "hf8-9_380613  |  Sizes = [1,8192,256]  |  hfloat8  |  expBias = 7, scale = 1  |    |  ModelParam = 0  |  strides = [2097152, 2097152, 256, 1]  |  data = 0, sizeInBytes = 2097152  |  isAliased = tensor_58_odule/model/29/v_proj/placeholder/1, type = alias, offset: 0  |  location = in DRAM  |  "
    }
  }
  attr {
    key: "outputTensor:0"
    value {
      s: "tensor_62_c380561  |  Sizes = [1,32,256]  |  hfloat8  |  expBias = 7, scale = 1  |    |  ModelParam = 0  |  strides = [8192, 8192, 256, 1]  |  data = 0, sizeInBytes = 8192  |  isAliased = tensor_63_id_277257_module/model/29/quant_input_0/aten__view_memcpy_381222, type = alias, offset: 0  |  location = in DRAM  |  "
    }
  }
}
node {
  name: "module/model/29/q_proj/fp8_gemm_bf16/24545_complex/fp8_gemm_bf16_5597/batch_gemm_8_bundle_2098/op_7_gemm"
  op: "GEMM"
  input: "fusedTPCNode_728_0_bundle_2098/op_4"
  input: "module/model/29/q_proj/fp8_gemm_bf16/24545_complex/fp8_gemm_bf16_5597/expand_dims_6"
  attr {
    key: "Bundle_idx"
    value {
      s: "2098"
    }
  }
  attr {
    key: "Exec_idx"
    value {
      s: "21"
    }
  }
  attr {
    key: "Op_idx"
    value {
      s: "7"
    }
  }
  attr {
    key: "Parameters"
    value {
      s: "transpose_a=false, transpose_b=false"
    }
  }
  attr {
    key: "fp8BiasIn"
    value {
      s: "7"
    }
  }
  attr {
    key: "fp8BiasIn2"
    value {
      s: "15"
    }
  }
  attr {
    key: "fp8BiasOut"
    value {
      s: "0"
    }
  }
  attr {
    key: "inputTensor:0"
    value {
      s: "tensor_32_slice_0_0_0_0_0__0__bundle_2098_381169  |  Sizes = [1,32,8192]  |  hfloat8  |  expBias = 7, scale = 1  |    |  ModelParam = 0  |  strides = [262144, 262144, 8192, 1]  |  data = 0, sizeInBytes = 262144  |  location = in SRAM  |  sramOffset = 0x1000fffffd150000  |  "
    }
  }
  attr {
    key: "inputTensor:1"
    value {
      s: "hf8-7_380617  |  Sizes = [1,8192,2048]  |  hfloat8  |  expBias = 7, scale = 1  |    |  ModelParam = 0  |  strides = [16777216, 16777216, 2048, 1]  |  data = 0, sizeInBytes = 16777216  |  isAliased = tensor_95_odule/model/29/q_proj/placeholder/1, type = alias, offset: 0  |  location = in DRAM  |  "
    }
  }
  attr {
    key: "outputTensor:0"
    value {
      s: "tensor_99  |  Sizes = [1,32,2048]  |  bf16  |  expBias = 0, scale = 1  |    |  ModelParam = 0  |  strides = [131072, 131072, 4096, 2]  |  data = 0, sizeInBytes = 131072  |  isAliased = tensor_100_id_277249_module/model/29/aten__view, type = alias, offset: 0  |  location = in DRAM  |  "
    }
  }
}
node {
  name: "tensor_2_bundle_2098/memcpy/0"
  op: "DmaMemcpy"
  input: "module/model/28/add_fwd_bf16/24501_complex/add_fwd_bf16_0_bundle_2098/op_0"
  input: "^module/model/28/add_fwd_bf16/24501_complex/add_fwd_bf16_0_bundle_2098/op_0"
  attr {
    key: "Bundle_idx"
    value {
      s: "2098"
    }
  }
  attr {
    key: "Exec_idx"
    value {
      s: "22"
    }
  }
  attr {
    key: "Op_idx"
    value {
      s: "8"
    }
  }
  attr {
    key: "inputTensor:0"
    value {
      s: "tensor_2_slice_0_0_0_0_0__0__bundle_2098_381163  |  Sizes = [1,32,8192]  |  bf16  |  expBias = 0, scale = 1  |    |  ModelParam = 0  |  strides = [524288, 524288, 16384, 2]  |  data = 0, sizeInBytes = 524288  |  location = in SRAM  |  sramOffset = 0x1000fffffd050000  |  "
    }
  }
  attr {
    key: "outputTensor:0"
    value {
      s: "tensor_2  |  Sizes = [1,32,8192]  |  bf16  |  expBias = 0, scale = 1  |    |  ModelParam = 0  |  strides = [524288, 524288, 16384, 2]  |  data = 0, sizeInBytes = 524288  |  isPersistent  |  location = in DRAM  |  dramOffset = 0x40000000000  |  userMemorySection(type=Persistent, id=4)  |  "
    }
  }
}
node {
  name: "tensor_2"
  op: "OutputTensor"
  input: "tensor_2_bundle_2098/memcpy/0"
  attr {
    key: "dtype"
    value {
      type: DT_BFLOAT16
    }
  }
  attr {
    key: "shape"
    value {
      shape {
        dim {
          size: 8192
        }
        dim {
          size: 32
        }
        dim {
          size: 1
        }
        dim {
          size: 1
        }
        dim {
          size: 1
        }
      }
    }
  }
  attr {
    key: "synDataType"
    value {
      s: "bf16"
    }
  }
}
node {
  name: "module/model/29/reshape/24519"
  op: "Reshape"
  input: "module/model/29/k_proj/fp8_gemm_bf16/24518_complex/fp8_gemm_bf16_5593/batch_gemm_8_bundle_2098/op_5_gemm"
  attr {
    key: "Bundle_idx"
    value {
      s: "N/A"
    }
  }
  attr {
    key: "Exec_idx"
    value {
      s: "23"
    }
  }
  attr {
    key: "Op_idx"
    value {
      s: "N/A"
    }
  }
  attr {
    key: "inputTensor:0"
    value {
      s: "tensor_37  |  Sizes = [1,32,256]  |  bf16  |  expBias = 0, scale = 1  |    |  ModelParam = 0  |  strides = [16384, 16384, 512, 2]  |  data = 0, sizeInBytes = 16384  |  isAliased = tensor_38_id_277253_module/model/29/aten__view, type = alias, offset: 0  |  location = in DRAM  |  "
    }
  }
  attr {
    key: "outputTensor:0"
    value {
      s: "tensor_38_id_277253_module/model/29/aten__view  |  Sizes = [1,32,2,128]  |  bf16  |  expBias = 0, scale = 1  |    |  ModelParam = 0  |  strides = [16384, 16384, 512, 256, 2]  |  data = 0, sizeInBytes = 16384  |  location = in DRAM  |  dramOffset = 0x310000000000  |  "
    }
  }
}
node {
  name: "module/model/29/transpose/24520_transpose_via_logical"
  op: "LogicalTranspose"
  input: "module/model/29/reshape/24519"
  attr {
    key: "Bundle_idx"
    value {
      s: "N/A"
    }
  }
  attr {
    key: "Exec_idx"
    value {
      s: "24"
    }
  }
  attr {
    key: "Op_idx"
    value {
      s: "N/A"
    }
  }
  attr {
    key: "Parameters"
    value {
      s: "permutation: (0,2,1,3)"
    }
  }
  attr {
    key: "inputTensor:0"
    value {
      s: "tensor_38_id_277253_module/model/29/aten__view  |  Sizes = [1,32,2,128]  |  bf16  |  expBias = 0, scale = 1  |    |  ModelParam = 0  |  strides = [16384, 16384, 512, 256, 2]  |  data = 0, sizeInBytes = 16384  |  location = in DRAM  |  dramOffset = 0x310000000000  |  "
    }
  }
  attr {
    key: "outputTensor:0"
    value {
      s: "tensor_39_id_277255_module/model/29/aten__transpose  |  Sizes = [1,2,32,128]  |  bf16  |  expBias = 0, scale = 1  |    |  ModelParam = 0  |  strides = [16384, 16384, 256, 512, 2]  |  data = 0, sizeInBytes = 16384  |  isAliased = tensor_38_id_277253_module/model/29/aten__view, type = alias, offset: 0  |  location = in DRAM  |  isSparseLayout  |  "
    }
  }
}
node {
  name: "module/model/29/rotary_pos_embedding_fwd_bf16/24521_complex/rotary_pos_embedding_fwd_bf16_698/rope_st2_fwd_bf16_16"
  op: "rope_st2_fwd_bf16"
  input: "module/model/29/transpose/24520_transpose_via_logical"
  input: "module/model/29/rotary_pos_embedding_fwd_bf16/24521_complex/rotary_pos_embedding_fwd_bf16_698/expand_dims_12"
  input: "module/model/29/rotary_pos_embedding_fwd_bf16/24521_complex/rotary_pos_embedding_fwd_bf16_698/expand_dims_14"
  attr {
    key: "Bundle_idx"
    value {
      s: "N/A"
    }
  }
  attr {
    key: "Exec_idx"
    value {
      s: "25"
    }
  }
  attr {
    key: "Op_idx"
    value {
      s: "N/A"
    }
  }
  attr {
    key: "inputTensor:0"
    value {
      s: "tensor_39_id_277255_module/model/29/aten__transpose  |  Sizes = [1,2,32,128]  |  bf16  |  expBias = 0, scale = 1  |    |  ModelParam = 0  |  strides = [16384, 16384, 256, 512, 2]  |  data = 0, sizeInBytes = 16384  |  isAliased = tensor_38_id_277253_module/model/29/aten__view, type = alias, offset: 0  |  location = in DRAM  |  isSparseLayout  |  "
    }
  }
  attr {
    key: "inputTensor:1"
    value {
      s: "bf16-13_380607  |  Sizes = [1,32,128]  |  bf16  |  expBias = 0, scale = 1  |    |  ModelParam = 0  |  strides = [8192, 8192, 256, 2]  |  data = 0, sizeInBytes = 8192  |  location = in DRAM  |  dramOffset = 0x140000000000  |  "
    }
  }
  attr {
    key: "inputTensor:2"
    value {
      s: "bf16-15_380608  |  Sizes = [1,32,128]  |  bf16  |  expBias = 0, scale = 1  |    |  ModelParam = 0  |  strides = [8192, 8192, 256, 2]  |  data = 0, sizeInBytes = 8192  |  location = in DRAM  |  dramOffset = 0x1c0000000000  |  "
    }
  }
  attr {
    key: "outputTensor:0"
    value {
      s: "tensor_41  |  Sizes = [1,2,32,128]  |  bf16  |  expBias = 0, scale = 1  |    |  ModelParam = 0  |  strides = [16384, 16384, 8192, 256, 2]  |  data = 0, sizeInBytes = 16384  |  location = in DRAM  |  dramOffset = 0x310000024000  |  "
    }
  }
}
node {
  name: "module/model/29/quant_input_0/reshape/24528"
  op: "Reshape"
  input: "module/model/29/v_proj/fp8_gemm_bf16/24527_complex/fp8_gemm_hf8_5595/batch_gemm_10_bundle_2098/op_6_gemm"
  attr {
    key: "Bundle_idx"
    value {
      s: "N/A"
    }
  }
  attr {
    key: "Exec_idx"
    value {
      s: "26"
    }
  }
  attr {
    key: "Op_idx"
    value {
      s: "N/A"
    }
  }
  attr {
    key: "inputTensor:0"
    value {
      s: "tensor_62_c380561  |  Sizes = [1,32,256]  |  hfloat8  |  expBias = 7, scale = 1  |    |  ModelParam = 0  |  strides = [8192, 8192, 256, 1]  |  data = 0, sizeInBytes = 8192  |  isAliased = tensor_63_id_277257_module/model/29/quant_input_0/aten__view_memcpy_381222, type = alias, offset: 0  |  location = in DRAM  |  "
    }
  }
  attr {
    key: "outputTensor:0"
    value {
      s: "tensor_63_id_277257_module/model/29/quant_input_0/aten__view_memcpy_381222  |  Sizes = [1,32,2,128]  |  hfloat8  |  expBias = 7, scale = 1  |    |  ModelParam = 0  |  strides = [8192, 8192, 256, 128, 1]  |  data = 0, sizeInBytes = 8192  |  location = in DRAM  |  dramOffset = 0x1c0000002000  |  "
    }
  }
}
node {
  name: "tensor_63_id_277257_module/model/29/quant_input_0/aten__view_memcpy_381222_internal"
  op: "DmaMemcpy"
  input: "module/model/29/quant_input_0/reshape/24528"
  attr {
    key: "Bundle_idx"
    value {
      s: "N/A"
    }
  }
  attr {
    key: "Exec_idx"
    value {
      s: "27"
    }
  }
  attr {
    key: "Op_idx"
    value {
      s: "N/A"
    }
  }
  attr {
    key: "inputTensor:0"
    value {
      s: "tensor_63_id_277257_module/model/29/quant_input_0/aten__view_memcpy_381222  |  Sizes = [1,32,2,128]  |  hfloat8  |  expBias = 7, scale = 1  |    |  ModelParam = 0  |  strides = [8192, 8192, 256, 128, 1]  |  data = 0, sizeInBytes = 8192  |  location = in DRAM  |  dramOffset = 0x1c0000002000  |  "
    }
  }
  attr {
    key: "outputTensor:0"
    value {
      s: "tensor_63_id_277257_module/model/29/quant_input_0/aten__view  |  Sizes = [1,32,2,128]  |  hfloat8  |  expBias = 7, scale = 1  |    |  ModelParam = 0  |  strides = [8192, 8192, 128, 4096, 1]  |  data = 0, sizeInBytes = 8192  |  isAliased = tensor_69, type = alias, offset: 0  |  location = in DRAM  |  isSparseLayout  |  "
    }
  }
}
node {
  name: "module/model/29/quant_input_0/transpose/24529_transpose_via_logical"
  op: "LogicalTranspose"
  input: "tensor_63_id_277257_module/model/29/quant_input_0/aten__view_memcpy_381222_internal"
  attr {
    key: "Bundle_idx"
    value {
      s: "N/A"
    }
  }
  attr {
    key: "Exec_idx"
    value {
      s: "28"
    }
  }
  attr {
    key: "Op_idx"
    value {
      s: "N/A"
    }
  }
  attr {
    key: "Parameters"
    value {
      s: "permutation: (0,2,1,3)"
    }
  }
  attr {
    key: "inputTensor:0"
    value {
      s: "tensor_63_id_277257_module/model/29/quant_input_0/aten__view  |  Sizes = [1,32,2,128]  |  hfloat8  |  expBias = 7, scale = 1  |    |  ModelParam = 0  |  strides = [8192, 8192, 128, 4096, 1]  |  data = 0, sizeInBytes = 8192  |  isAliased = tensor_69, type = alias, offset: 0  |  location = in DRAM  |  isSparseLayout  |  "
    }
  }
  attr {
    key: "outputTensor:0"
    value {
      s: "tensor_69  |  Sizes = [1,2,32,128]  |  hfloat8  |  expBias = 7, scale = 1  |    |  ModelParam = 0  |  strides = [8192, 8192, 4096, 128, 1]  |  data = 0, sizeInBytes = 8192  |  isPersistent  |  location = in DRAM  |  dramOffset = 0x140000000000  |  userMemorySection(type=Persistent, id=20)  |  "
    }
  }
}
node {
  name: "module/model/29/reshape/24546"
  op: "Reshape"
  input: "module/model/29/q_proj/fp8_gemm_bf16/24545_complex/fp8_gemm_bf16_5597/batch_gemm_8_bundle_2098/op_7_gemm"
  attr {
    key: "Bundle_idx"
    value {
      s: "N/A"
    }
  }
  attr {
    key: "Exec_idx"
    value {
      s: "29"
    }
  }
  attr {
    key: "Op_idx"
    value {
      s: "N/A"
    }
  }
  attr {
    key: "inputTensor:0"
    value {
      s: "tensor_99  |  Sizes = [1,32,2048]  |  bf16  |  expBias = 0, scale = 1  |    |  ModelParam = 0  |  strides = [131072, 131072, 4096, 2]  |  data = 0, sizeInBytes = 131072  |  isAliased = tensor_100_id_277249_module/model/29/aten__view, type = alias, offset: 0  |  location = in DRAM  |  "
    }
  }
  attr {
    key: "outputTensor:0"
    value {
      s: "tensor_100_id_277249_module/model/29/aten__view  |  Sizes = [1,32,16,128]  |  bf16  |  expBias = 0, scale = 1  |    |  ModelParam = 0  |  strides = [131072, 131072, 4096, 256, 2]  |  data = 0, sizeInBytes = 131072  |  location = in DRAM  |  dramOffset = 0x310000004000  |  "
    }
  }
}
node {
  name: "module/model/29/transpose/24547_transpose_via_logical"
  op: "LogicalTranspose"
  input: "module/model/29/reshape/24546"
  attr {
    key: "Bundle_idx"
    value {
      s: "N/A"
    }
  }
  attr {
    key: "Exec_idx"
    value {
      s: "30"
    }
  }
  attr {
    key: "Op_idx"
    value {
      s: "N/A"
    }
  }
  attr {
    key: "Parameters"
    value {
      s: "permutation: (0,2,1,3)"
    }
  }
  attr {
    key: "inputTensor:0"
    value {
      s: "tensor_100_id_277249_module/model/29/aten__view  |  Sizes = [1,32,16,128]  |  bf16  |  expBias = 0, scale = 1  |    |  ModelParam = 0  |  strides = [131072, 131072, 4096, 256, 2]  |  data = 0, sizeInBytes = 131072  |  location = in DRAM  |  dramOffset = 0x310000004000  |  "
    }
  }
  attr {
    key: "outputTensor:0"
    value {
      s: "tensor_101_id_277251_module/model/29/aten__transpose  |  Sizes = [1,16,32,128]  |  bf16  |  expBias = 0, scale = 1  |    |  ModelParam = 0  |  strides = [131072, 131072, 256, 4096, 2]  |  data = 0, sizeInBytes = 131072  |  isAliased = tensor_100_id_277249_module/model/29/aten__view, type = alias, offset: 0  |  location = in DRAM  |  isSparseLayout  |  "
    }
  }
}
node {
  name: "module/model/29/rotary_pos_embedding_fwd_bf16/24548_complex/rotary_pos_embedding_fwd_bf16_699/gather_nd_mxnet_fwd_bf16_8"
  op: "gather_nd_mxnet_fwd_bf16"
  input: "module/model/29/rotary_emb/mult_fwd_bf16/24512_complex/mult_fwd_bf16_0"
  input: "module/model/29/expand_dims/24503"
  attr {
    key: "Bundle_idx"
    value {
      s: "N/A"
    }
  }
  attr {
    key: "Exec_idx"
    value {
      s: "31"
    }
  }
  attr {
    key: "Op_idx"
    value {
      s: "N/A"
    }
  }
  attr {
    key: "inputTensor:0"
    value {
      s: "tensor_19_id_277267_module/model/29/rotary_emb/aten__mul  |  Sizes = [32,128]  |  bf16  |  expBias = 0, scale = 1  |    |  ModelParam = 0  |  strides = [8192, 256, 2]  |  data = 0, sizeInBytes = 8192  |  location = in DRAM  |  dramOffset = 0x130000002000  |  "
    }
  }
  attr {
    key: "inputTensor:1"
    value {
      s: "tensor_8_id_277143_module/model/29/aten__unsqueeze/1  |  Sizes = [1,32]  |  int32  |  expBias = 0, scale = 1  |    |  ModelParam = 0  |  strides = [128, 128, 4]  |  data = 0, sizeInBytes = 128  |  isAliased = tensor_7_odule/model/29/placeholder/0, type = alias, offset: 0  |  location = in DRAM  |  "
    }
  }
  attr {
    key: "outputTensor:0"
    value {
      s: "bf16-9_380622  |  Sizes = [32,128]  |  bf16  |  expBias = 0, scale = 1  |    |  ModelParam = 0  |  strides = [8192, 256, 2]  |  data = 0, sizeInBytes = 8192  |  isAliased = bf16-13_380624, type = alias, offset: 0  |  location = in DRAM  |  "
    }
  }
}
node {
  name: "module/model/29/rotary_pos_embedding_fwd_bf16/24548_complex/rotary_pos_embedding_fwd_bf16_699/gather_nd_mxnet_fwd_bf16_10"
  op: "gather_nd_mxnet_fwd_bf16"
  input: "module/model/29/rotary_emb/mult_fwd_bf16/24506_complex/mult_fwd_bf16_0"
  input: "module/model/29/expand_dims/24503"
  attr {
    key: "Bundle_idx"
    value {
      s: "N/A"
    }
  }
  attr {
    key: "Exec_idx"
    value {
      s: "32"
    }
  }
  attr {
    key: "Op_idx"
    value {
      s: "N/A"
    }
  }
  attr {
    key: "inputTensor:0"
    value {
      s: "tensor_12_id_277263_module/model/29/rotary_emb/aten__mul  |  Sizes = [32,128]  |  bf16  |  expBias = 0, scale = 1  |    |  ModelParam = 0  |  strides = [8192, 256, 2]  |  data = 0, sizeInBytes = 8192  |  location = in DRAM  |  dramOffset = 0x130000000000  |  "
    }
  }
  attr {
    key: "inputTensor:1"
    value {
      s: "tensor_8_id_277143_module/model/29/aten__unsqueeze/1  |  Sizes = [1,32]  |  int32  |  expBias = 0, scale = 1  |    |  ModelParam = 0  |  strides = [128, 128, 4]  |  data = 0, sizeInBytes = 128  |  isAliased = tensor_7_odule/model/29/placeholder/0, type = alias, offset: 0  |  location = in DRAM  |  "
    }
  }
  attr {
    key: "outputTensor:0"
    value {
      s: "bf16-11_380623  |  Sizes = [32,128]  |  bf16  |  expBias = 0, scale = 1  |    |  ModelParam = 0  |  strides = [8192, 256, 2]  |  data = 0, sizeInBytes = 8192  |  isAliased = bf16-15_380625, type = alias, offset: 0  |  location = in DRAM  |  "
    }
  }
}
node {
  name: "module/model/29/rotary_pos_embedding_fwd_bf16/24548_complex/rotary_pos_embedding_fwd_bf16_699/expand_dims_12"
  op: "ExpandDims"
  input: "module/model/29/rotary_pos_embedding_fwd_bf16/24548_complex/rotary_pos_embedding_fwd_bf16_699/gather_nd_mxnet_fwd_bf16_8"
  attr {
    key: "Bundle_idx"
    value {
      s: "N/A"
    }
  }
  attr {
    key: "Exec_idx"
    value {
      s: "33"
    }
  }
  attr {
    key: "Op_idx"
    value {
      s: "N/A"
    }
  }
  attr {
    key: "inputTensor:0"
    value {
      s: "bf16-9_380622  |  Sizes = [32,128]  |  bf16  |  expBias = 0, scale = 1  |    |  ModelParam = 0  |  strides = [8192, 256, 2]  |  data = 0, sizeInBytes = 8192  |  isAliased = bf16-13_380624, type = alias, offset: 0  |  location = in DRAM  |  "
    }
  }
  attr {
    key: "outputTensor:0"
    value {
      s: "bf16-13_380624  |  Sizes = [1,32,128]  |  bf16  |  expBias = 0, scale = 1  |    |  ModelParam = 0  |  strides = [8192, 8192, 256, 2]  |  data = 0, sizeInBytes = 8192  |  location = in DRAM  |  dramOffset = 0x310000028000  |  "
    }
  }
}
node {
  name: "module/model/29/rotary_pos_embedding_fwd_bf16/24548_complex/rotary_pos_embedding_fwd_bf16_699/expand_dims_14"
  op: "ExpandDims"
  input: "module/model/29/rotary_pos_embedding_fwd_bf16/24548_complex/rotary_pos_embedding_fwd_bf16_699/gather_nd_mxnet_fwd_bf16_10"
  attr {
    key: "Bundle_idx"
    value {
      s: "N/A"
    }
  }
  attr {
    key: "Exec_idx"
    value {
      s: "34"
    }
  }
  attr {
    key: "Op_idx"
    value {
      s: "N/A"
    }
  }
  attr {
    key: "inputTensor:0"
    value {
      s: "bf16-11_380623  |  Sizes = [32,128]  |  bf16  |  expBias = 0, scale = 1  |    |  ModelParam = 0  |  strides = [8192, 256, 2]  |  data = 0, sizeInBytes = 8192  |  isAliased = bf16-15_380625, type = alias, offset: 0  |  location = in DRAM  |  "
    }
  }
  attr {
    key: "outputTensor:0"
    value {
      s: "bf16-15_380625  |  Sizes = [1,32,128]  |  bf16  |  expBias = 0, scale = 1  |    |  ModelParam = 0  |  strides = [8192, 8192, 256, 2]  |  data = 0, sizeInBytes = 8192  |  location = in DRAM  |  dramOffset = 0x60000000000  |  "
    }
  }
}
node {
  name: "tensor_101_id_277251_module/model/29/aten__transpose_bundle_2099/split_internal/0"
  op: "Split"
  input: "module/model/29/transpose/24547_transpose_via_logical"
  attr {
    key: "Bundle_idx"
    value {
      s: "2099"
    }
  }
  attr {
    key: "Exec_idx"
    value {
      s: "35"
    }
  }
  attr {
    key: "Op_idx"
    value {
      s: "0"
    }
  }
  attr {
    key: "inputTensor:0"
    value {
      s: "tensor_101_id_277251_module/model/29/aten__transpose  |  Sizes = [1,16,32,128]  |  bf16  |  expBias = 0, scale = 1  |    |  ModelParam = 0  |  strides = [131072, 131072, 256, 4096, 2]  |  data = 0, sizeInBytes = 131072  |  isAliased = tensor_100_id_277249_module/model/29/aten__view, type = alias, offset: 0  |  location = in DRAM  |  isSparseLayout  |  "
    }
  }
  attr {
    key: "outputTensor:0"
    value {
      s: "tensor_101_id_277251_module/model/29/aten__transpose_slice_0_0_0_0_0__0__bundle_2099_381184  |  Sizes = [1,8,32,128]  |  bf16  |  expBias = 0, scale = 1  |    |  ModelParam = 0  |  strides = [131072, 131072, 256, 4096, 2]  |  data = 0, sizeInBytes = 65536  |  isAliased = tensor_101_id_277251_module/model/29/aten__transpose, type = concat, offset: 0  |  location = in DRAM  |  isSparseLayout  |  "
    }
  }
  attr {
    key: "outputTensor:1"
    value {
      s: "tensor_101_id_277251_module/model/29/aten__transpose_slice_0_0_1_0_0__0__bundle_2099_381195  |  Sizes = [1,8,32,128]  |  bf16  |  expBias = 0, scale = 1  |    |  ModelParam = 0  |  strides = [131072, 131072, 256, 4096, 2]  |  data = 0, sizeInBytes = 65536  |  isAliased = tensor_101_id_277251_module/model/29/aten__transpose, type = concat, offset: 2048  |  location = in DRAM  |  isSparseLayout  |  "
    }
  }
}
node {
  name: "tensor_41_bundle_2099/split_internal/0"
  op: "Split"
  input: "module/model/29/rotary_pos_embedding_fwd_bf16/24521_complex/rotary_pos_embedding_fwd_bf16_698/rope_st2_fwd_bf16_16"
  attr {
    key: "Bundle_idx"
    value {
      s: "2099"
    }
  }
  attr {
    key: "Exec_idx"
    value {
      s: "36"
    }
  }
  attr {
    key: "Op_idx"
    value {
      s: "1"
    }
  }
  attr {
    key: "inputTensor:0"
    value {
      s: "tensor_41  |  Sizes = [1,2,32,128]  |  bf16  |  expBias = 0, scale = 1  |    |  ModelParam = 0  |  strides = [16384, 16384, 8192, 256, 2]  |  data = 0, sizeInBytes = 16384  |  location = in DRAM  |  dramOffset = 0x310000024000  |  "
    }
  }
  attr {
    key: "outputTensor:0"
    value {
      s: "tensor_41_slice_0_0_0_0_0__0__bundle_2099_381179  |  Sizes = [1,1,32,128]  |  bf16  |  expBias = 0, scale = 1  |    |  ModelParam = 0  |  strides = [16384, 16384, 8192, 256, 2]  |  data = 0, sizeInBytes = 8192  |  isAliased = tensor_41, type = concat, offset: 0  |  location = in DRAM  |  "
    }
  }
  attr {
    key: "outputTensor:1"
    value {
      s: "tensor_41_slice_0_0_1_0_0__0__bundle_2099_381190  |  Sizes = [1,1,32,128]  |  bf16  |  expBias = 0, scale = 1  |    |  ModelParam = 0  |  strides = [16384, 16384, 8192, 256, 2]  |  data = 0, sizeInBytes = 8192  |  isAliased = tensor_41, type = concat, offset: 8192  |  location = in DRAM  |  "
    }
  }
}
node {
  name: "module/model/29/rotary_pos_embedding_fwd_bf16/24548_complex/rotary_pos_embedding_fwd_bf16_699/rope_st2_fwd_bf16_16_bundle_2099/op_2"
  op: "rope_st2_fwd_bf16"
  input: "tensor_101_id_277251_module/model/29/aten__transpose_bundle_2099/split_internal/0"
  input: "module/model/29/rotary_pos_embedding_fwd_bf16/24548_complex/rotary_pos_embedding_fwd_bf16_699/expand_dims_12"
  input: "module/model/29/rotary_pos_embedding_fwd_bf16/24548_complex/rotary_pos_embedding_fwd_bf16_699/expand_dims_14"
  attr {
    key: "Bundle_idx"
    value {
      s: "2099"
    }
  }
  attr {
    key: "Exec_idx"
    value {
      s: "37"
    }
  }
  attr {
    key: "Op_idx"
    value {
      s: "2"
    }
  }
  attr {
    key: "inputTensor:0"
    value {
      s: "tensor_101_id_277251_module/model/29/aten__transpose_slice_0_0_0_0_0__0__bundle_2099_381184  |  Sizes = [1,8,32,128]  |  bf16  |  expBias = 0, scale = 1  |    |  ModelParam = 0  |  strides = [131072, 131072, 256, 4096, 2]  |  data = 0, sizeInBytes = 65536  |  isAliased = tensor_101_id_277251_module/model/29/aten__transpose, type = concat, offset: 0  |  location = in DRAM  |  isSparseLayout  |  "
    }
  }
  attr {
    key: "inputTensor:1"
    value {
      s: "bf16-13_380624  |  Sizes = [1,32,128]  |  bf16  |  expBias = 0, scale = 1  |    |  ModelParam = 0  |  strides = [8192, 8192, 256, 2]  |  data = 0, sizeInBytes = 8192  |  location = in DRAM  |  dramOffset = 0x310000028000  |  "
    }
  }
  attr {
    key: "inputTensor:2"
    value {
      s: "bf16-15_380625  |  Sizes = [1,32,128]  |  bf16  |  expBias = 0, scale = 1  |    |  ModelParam = 0  |  strides = [8192, 8192, 256, 2]  |  data = 0, sizeInBytes = 8192  |  location = in DRAM  |  dramOffset = 0x60000000000  |  "
    }
  }
  attr {
    key: "outputTensor:0"
    value {
      s: "tensor_103_slice_0_0_0_0_0__0__bundle_2099_381187  |  Sizes = [1,8,32,128]  |  bf16  |  expBias = 0, scale = 1  |    |  ModelParam = 0  |  strides = [65536, 65536, 8192, 256, 2]  |  data = 0, sizeInBytes = 65536  |  location = in SRAM  |  sramOffset = 0x1000fffffd190000  |  "
    }
  }
}
node {
  name: "module/model/29/rotary_pos_embedding_fwd_bf16/24548_complex/rotary_pos_embedding_fwd_bf16_699/rope_st2_fwd_bf16_16_bundle_2099/op_7"
  op: "rope_st2_fwd_bf16"
  input: "tensor_101_id_277251_module/model/29/aten__transpose_bundle_2099/split_internal/0"
  input: "module/model/29/rotary_pos_embedding_fwd_bf16/24548_complex/rotary_pos_embedding_fwd_bf16_699/expand_dims_12"
  input: "module/model/29/rotary_pos_embedding_fwd_bf16/24548_complex/rotary_pos_embedding_fwd_bf16_699/expand_dims_14"
  attr {
    key: "Bundle_idx"
    value {
      s: "2099"
    }
  }
  attr {
    key: "Exec_idx"
    value {
      s: "38"
    }
  }
  attr {
    key: "Op_idx"
    value {
      s: "3"
    }
  }
  attr {
    key: "inputTensor:0"
    value {
      s: "tensor_101_id_277251_module/model/29/aten__transpose_slice_0_0_1_0_0__0__bundle_2099_381195  |  Sizes = [1,8,32,128]  |  bf16  |  expBias = 0, scale = 1  |    |  ModelParam = 0  |  strides = [131072, 131072, 256, 4096, 2]  |  data = 0, sizeInBytes = 65536  |  isAliased = tensor_101_id_277251_module/model/29/aten__transpose, type = concat, offset: 2048  |  location = in DRAM  |  isSparseLayout  |  "
    }
  }
  attr {
    key: "inputTensor:1"
    value {
      s: "bf16-13_380624  |  Sizes = [1,32,128]  |  bf16  |  expBias = 0, scale = 1  |    |  ModelParam = 0  |  strides = [8192, 8192, 256, 2]  |  data = 0, sizeInBytes = 8192  |  location = in DRAM  |  dramOffset = 0x310000028000  |  "
    }
  }
  attr {
    key: "inputTensor:2"
    value {
      s: "bf16-15_380625  |  Sizes = [1,32,128]  |  bf16  |  expBias = 0, scale = 1  |    |  ModelParam = 0  |  strides = [8192, 8192, 256, 2]  |  data = 0, sizeInBytes = 8192  |  location = in DRAM  |  dramOffset = 0x60000000000  |  "
    }
  }
  attr {
    key: "outputTensor:0"
    value {
      s: "tensor_103_slice_0_0_1_0_0__0__bundle_2099_381196  |  Sizes = [1,8,32,128]  |  bf16  |  expBias = 0, scale = 1  |    |  ModelParam = 0  |  strides = [65536, 65536, 8192, 256, 2]  |  data = 0, sizeInBytes = 65536  |  location = in SRAM  |  sramOffset = 0x1000fffffd1a0000  |  "
    }
  }
}
node {
  name: "fusedTPCNode_728_1_bundle_2099/op_0"
  op: "fused_kernel_0xAD5554ED_84E_bf16"
  input: "tensor_41_bundle_2099/split_internal/0"
  attr {
    key: "Bundle_idx"
    value {
      s: "2099"
    }
  }
  attr {
    key: "Exec_idx"
    value {
      s: "39"
    }
  }
  attr {
    key: "Op_idx"
    value {
      s: "4"
    }
  }
  attr {
    key: "inputTensor:0"
    value {
      s: "tensor_41_slice_0_0_0_0_0__0__bundle_2099_381179  |  Sizes = [1,1,32,128]  |  bf16  |  expBias = 0, scale = 1  |    |  ModelParam = 0  |  strides = [16384, 16384, 8192, 256, 2]  |  data = 0, sizeInBytes = 8192  |  isAliased = tensor_41, type = concat, offset: 0  |  location = in DRAM  |  "
    }
  }
  attr {
    key: "outputTensor:0"
    value {
      s: "tensor_46_slice_0_0_0_0_0__0__bundle_2099_381180  |  Sizes = [1,1,32,128]  |  hfloat8  |  expBias = 7, scale = 1  |    |  ModelParam = 0  |  strides = [8192, 8192, 4096, 128, 1]  |  data = 0, sizeInBytes = 4096  |  isAliased = tensor_46, type = concat, offset: 0  |  location = in DRAM  |  "
    }
  }
  attr {
    key: "outputTensor:1"
    value {
      s: "tensor_49_slice_0_0_0_0_0__0__bundle_2099_381181  |  Sizes = [1,1,32,128]  |  bf16  |  expBias = 0, scale = 1  |    |  ModelParam = 0  |  strides = [16384, 16384, 8192, 256, 2]  |  data = 0, sizeInBytes = 8192  |  isAliased = tensor_49, type = concat, offset: 0  |  location = in DRAM  |  "
    }
  }
  attr {
    key: "outputTensor:2"
    value {
      s: "tensor-380814_slice_0_0_0_0_0__0__bundle_2099_381182  |  Sizes = [1,1,32,128]  |  hfloat8  |  expBias = 7, scale = 1  |    |  ModelParam = 0  |  strides = [4096, 4096, 4096, 128, 1]  |  data = 0, sizeInBytes = 4096  |  isAliased = tensor_89_id_277366_module/model/29/fused_scaled_dot_product_attention/aten__view_slice_0_0_0_0_0__0__bundle_2099_381183, type = alias, offset: 0  |  location = in SRAM  |  sramOffset = 0x1000fffffd1b0000  |  "
    }
  }
}
node {
  name: "reshape_5_5_bundle_2099/op_1"
  op: "Reshape"
  input: "fusedTPCNode_728_1_bundle_2099/op_0"
  attr {
    key: "Bundle_idx"
    value {
      s: "2099"
    }
  }
  attr {
    key: "Exec_idx"
    value {
      s: "40"
    }
  }
  attr {
    key: "Op_idx"
    value {
      s: "5"
    }
  }
  attr {
    key: "inputTensor:0"
    value {
      s: "tensor-380814_slice_0_0_0_0_0__0__bundle_2099_381182  |  Sizes = [1,1,32,128]  |  hfloat8  |  expBias = 7, scale = 1  |    |  ModelParam = 0  |  strides = [4096, 4096, 4096, 128, 1]  |  data = 0, sizeInBytes = 4096  |  isAliased = tensor_89_id_277366_module/model/29/fused_scaled_dot_product_attention/aten__view_slice_0_0_0_0_0__0__bundle_2099_381183, type = alias, offset: 0  |  location = in SRAM  |  sramOffset = 0x1000fffffd1b0000  |  "
    }
  }
  attr {
    key: "outputTensor:0"
    value {
      s: "tensor_89_id_277366_module/model/29/fused_scaled_dot_product_attention/aten__view_slice_0_0_0_0_0__0__bundle_2099_381183  |  Sizes = [1,1,1,32,128]  |  hfloat8  |  expBias = 7, scale = 1  |    |  ModelParam = 0  |  strides = [4096, 4096, 4096, 4096, 128, 1]  |  data = 0, sizeInBytes = 4096  |  location = in SRAM  |  sramOffset = 0x1000fffffd1b0000  |  "
    }
  }
}
node {
  name: "fusedTPCNode_728_3_bundle_2099/op_3"
  op: "fused_kernel_0xE6B5970B_850_hf8"
  input: "module/model/29/rotary_pos_embedding_fwd_bf16/24548_complex/rotary_pos_embedding_fwd_bf16_699/rope_st2_fwd_bf16_16_bundle_2099/op_2"
  attr {
    key: "Bundle_idx"
    value {
      s: "2099"
    }
  }
  attr {
    key: "Exec_idx"
    value {
      s: "41"
    }
  }
  attr {
    key: "Op_idx"
    value {
      s: "6"
    }
  }
  attr {
    key: "inputTensor:0"
    value {
      s: "tensor_103_slice_0_0_0_0_0__0__bundle_2099_381187  |  Sizes = [1,8,32,128]  |  bf16  |  expBias = 0, scale = 1  |    |  ModelParam = 0  |  strides = [65536, 65536, 8192, 256, 2]  |  data = 0, sizeInBytes = 65536  |  location = in SRAM  |  sramOffset = 0x1000fffffd190000  |  "
    }
  }
  attr {
    key: "outputTensor:0"
    value {
      s: "tensor-380816_slice_0_0_0_0_0__0__bundle_2099_381188  |  Sizes = [1,8,32,128]  |  hfloat8  |  expBias = 7, scale = 1  |    |  ModelParam = 0  |  strides = [32768, 32768, 4096, 128, 1]  |  data = 0, sizeInBytes = 32768  |  isAliased = tensor_108_id_277364_module/model/29/fused_scaled_dot_product_attention/aten__view_slice_0_0_0_0_0__0__bundle_2099_381189, type = alias, offset: 0  |  location = in SRAM  |  sramOffset = 0x1000fffffd1b2000  |  "
    }
  }
}
node {
  name: "reshape_11_11_bundle_2099/op_4"
  op: "Reshape"
  input: "fusedTPCNode_728_3_bundle_2099/op_3"
  attr {
    key: "Bundle_idx"
    value {
      s: "2099"
    }
  }
  attr {
    key: "Exec_idx"
    value {
      s: "42"
    }
  }
  attr {
    key: "Op_idx"
    value {
      s: "7"
    }
  }
  attr {
    key: "inputTensor:0"
    value {
      s: "tensor-380816_slice_0_0_0_0_0__0__bundle_2099_381188  |  Sizes = [1,8,32,128]  |  hfloat8  |  expBias = 7, scale = 1  |    |  ModelParam = 0  |  strides = [32768, 32768, 4096, 128, 1]  |  data = 0, sizeInBytes = 32768  |  isAliased = tensor_108_id_277364_module/model/29/fused_scaled_dot_product_attention/aten__view_slice_0_0_0_0_0__0__bundle_2099_381189, type = alias, offset: 0  |  location = in SRAM  |  sramOffset = 0x1000fffffd1b2000  |  "
    }
  }
  attr {
    key: "outputTensor:0"
    value {
      s: "tensor_108_id_277364_module/model/29/fused_scaled_dot_product_attention/aten__view_slice_0_0_0_0_0__0__bundle_2099_381189  |  Sizes = [1,1,8,32,128]  |  hfloat8  |  expBias = 7, scale = 1  |    |  ModelParam = 0  |  strides = [32768, 32768, 32768, 4096, 128, 1]  |  data = 0, sizeInBytes = 32768  |  location = in SRAM  |  sramOffset = 0x1000fffffd1b2000  |  "
    }
  }
}
node {
  name: "fusedTPCNode_728_1_bundle_2099/op_5"
  op: "fused_kernel_0xAD5554ED_84E_bf16"
  input: "tensor_41_bundle_2099/split_internal/0"
  attr {
    key: "Bundle_idx"
    value {
      s: "2099"
    }
  }
  attr {
    key: "Exec_idx"
    value {
      s: "43"
    }
  }
  attr {
    key: "Op_idx"
    value {
      s: "8"
    }
  }
  attr {
    key: "inputTensor:0"
    value {
      s: "tensor_41_slice_0_0_1_0_0__0__bundle_2099_381190  |  Sizes = [1,1,32,128]  |  bf16  |  expBias = 0, scale = 1  |    |  ModelParam = 0  |  strides = [16384, 16384, 8192, 256, 2]  |  data = 0, sizeInBytes = 8192  |  isAliased = tensor_41, type = concat, offset: 8192  |  location = in DRAM  |  "
    }
  }
  attr {
    key: "outputTensor:0"
    value {
      s: "tensor_46_slice_0_0_1_0_0__0__bundle_2099_381191  |  Sizes = [1,1,32,128]  |  hfloat8  |  expBias = 7, scale = 1  |    |  ModelParam = 0  |  strides = [8192, 8192, 4096, 128, 1]  |  data = 0, sizeInBytes = 4096  |  isAliased = tensor_46, type = concat, offset: 4096  |  location = in DRAM  |  "
    }
  }
  attr {
    key: "outputTensor:1"
    value {
      s: "tensor_49_slice_0_0_1_0_0__0__bundle_2099_381192  |  Sizes = [1,1,32,128]  |  bf16  |  expBias = 0, scale = 1  |    |  ModelParam = 0  |  strides = [16384, 16384, 8192, 256, 2]  |  data = 0, sizeInBytes = 8192  |  isAliased = tensor_49, type = concat, offset: 8192  |  location = in DRAM  |  "
    }
  }
  attr {
    key: "outputTensor:2"
    value {
      s: "tensor-380814_slice_0_0_1_0_0__0__bundle_2099_381193  |  Sizes = [1,1,32,128]  |  hfloat8  |  expBias = 7, scale = 1  |    |  ModelParam = 0  |  strides = [4096, 4096, 4096, 128, 1]  |  data = 0, sizeInBytes = 4096  |  isAliased = tensor_89_id_277366_module/model/29/fused_scaled_dot_product_attention/aten__view_slice_0_0_0_1_0__0__bundle_2099_381194, type = alias, offset: 0  |  location = in SRAM  |  sramOffset = 0x1000fffffd1b1000  |  "
    }
  }
}
node {
  name: "reshape_5_5_bundle_2099/op_6"
  op: "Reshape"
  input: "fusedTPCNode_728_1_bundle_2099/op_5"
  attr {
    key: "Bundle_idx"
    value {
      s: "2099"
    }
  }
  attr {
    key: "Exec_idx"
    value {
      s: "44"
    }
  }
  attr {
    key: "Op_idx"
    value {
      s: "9"
    }
  }
  attr {
    key: "inputTensor:0"
    value {
      s: "tensor-380814_slice_0_0_1_0_0__0__bundle_2099_381193  |  Sizes = [1,1,32,128]  |  hfloat8  |  expBias = 7, scale = 1  |    |  ModelParam = 0  |  strides = [4096, 4096, 4096, 128, 1]  |  data = 0, sizeInBytes = 4096  |  isAliased = tensor_89_id_277366_module/model/29/fused_scaled_dot_product_attention/aten__view_slice_0_0_0_1_0__0__bundle_2099_381194, type = alias, offset: 0  |  location = in SRAM  |  sramOffset = 0x1000fffffd1b1000  |  "
    }
  }
  attr {
    key: "outputTensor:0"
    value {
      s: "tensor_89_id_277366_module/model/29/fused_scaled_dot_product_attention/aten__view_slice_0_0_0_1_0__0__bundle_2099_381194  |  Sizes = [1,1,1,32,128]  |  hfloat8  |  expBias = 7, scale = 1  |    |  ModelParam = 0  |  strides = [4096, 4096, 4096, 4096, 128, 1]  |  data = 0, sizeInBytes = 4096  |  location = in SRAM  |  sramOffset = 0x1000fffffd1b1000  |  "
    }
  }
}
node {
  name: "tensor_46_bundle_2099/concat_logical_internal/0"
  op: "Concatenate"
  input: "fusedTPCNode_728_1_bundle_2099/op_0"
  input: "fusedTPCNode_728_1_bundle_2099/op_5"
  attr {
    key: "Bundle_idx"
    value {
      s: "2099"
    }
  }
  attr {
    key: "Exec_idx"
    value {
      s: "45"
    }
  }
  attr {
    key: "Op_idx"
    value {
      s: "10"
    }
  }
  attr {
    key: "inputTensor:0"
    value {
      s: "tensor_46_slice_0_0_0_0_0__0__bundle_2099_381180  |  Sizes = [1,1,32,128]  |  hfloat8  |  expBias = 7, scale = 1  |    |  ModelParam = 0  |  strides = [8192, 8192, 4096, 128, 1]  |  data = 0, sizeInBytes = 4096  |  isAliased = tensor_46, type = concat, offset: 0  |  location = in DRAM  |  "
    }
  }
  attr {
    key: "inputTensor:1"
    value {
      s: "tensor_46_slice_0_0_1_0_0__0__bundle_2099_381191  |  Sizes = [1,1,32,128]  |  hfloat8  |  expBias = 7, scale = 1  |    |  ModelParam = 0  |  strides = [8192, 8192, 4096, 128, 1]  |  data = 0, sizeInBytes = 4096  |  isAliased = tensor_46, type = concat, offset: 4096  |  location = in DRAM  |  "
    }
  }
  attr {
    key: "outputTensor:0"
    value {
      s: "tensor_46  |  Sizes = [1,2,32,128]  |  hfloat8  |  expBias = 7, scale = 1  |    |  ModelParam = 0  |  strides = [8192, 8192, 4096, 128, 1]  |  data = 0, sizeInBytes = 8192  |  isPersistent  |  location = in DRAM  |  dramOffset = 0x60000000000  |  userMemorySection(type=Persistent, id=6)  |  "
    }
  }
}
node {
  name: "tensor_46"
  op: "OutputTensor"
  input: "tensor_46_bundle_2099/concat_logical_internal/0"
  attr {
    key: "dtype"
    value {
      type: DT_INVALID
    }
  }
  attr {
    key: "shape"
    value {
      shape {
        dim {
          size: 128
        }
        dim {
          size: 32
        }
        dim {
          size: 2
        }
        dim {
          size: 1
        }
        dim {
          size: 1
        }
      }
    }
  }
  attr {
    key: "synDataType"
    value {
      s: "hfloat8"
    }
  }
}
node {
  name: "tensor_49_bundle_2099/concat_logical_internal/0"
  op: "Concatenate"
  input: "fusedTPCNode_728_1_bundle_2099/op_0"
  input: "fusedTPCNode_728_1_bundle_2099/op_5"
  attr {
    key: "Bundle_idx"
    value {
      s: "2099"
    }
  }
  attr {
    key: "Exec_idx"
    value {
      s: "46"
    }
  }
  attr {
    key: "Op_idx"
    value {
      s: "11"
    }
  }
  attr {
    key: "inputTensor:0"
    value {
      s: "tensor_49_slice_0_0_0_0_0__0__bundle_2099_381181  |  Sizes = [1,1,32,128]  |  bf16  |  expBias = 0, scale = 1  |    |  ModelParam = 0  |  strides = [16384, 16384, 8192, 256, 2]  |  data = 0, sizeInBytes = 8192  |  isAliased = tensor_49, type = concat, offset: 0  |  location = in DRAM  |  "
    }
  }
  attr {
    key: "inputTensor:1"
    value {
      s: "tensor_49_slice_0_0_1_0_0__0__bundle_2099_381192  |  Sizes = [1,1,32,128]  |  bf16  |  expBias = 0, scale = 1  |    |  ModelParam = 0  |  strides = [16384, 16384, 8192, 256, 2]  |  data = 0, sizeInBytes = 8192  |  isAliased = tensor_49, type = concat, offset: 8192  |  location = in DRAM  |  "
    }
  }
  attr {
    key: "outputTensor:0"
    value {
      s: "tensor_49  |  Sizes = [1,2,32,128]  |  bf16  |  expBias = 0, scale = 1  |    |  ModelParam = 0  |  strides = [16384, 16384, 8192, 256, 2]  |  data = 0, sizeInBytes = 16384  |  isPersistent  |  location = in DRAM  |  dramOffset = 0x130000000000  |  userMemorySection(type=Persistent, id=19)  |  "
    }
  }
}
node {
  name: "tensor_49"
  op: "OutputTensor"
  input: "tensor_49_bundle_2099/concat_logical_internal/0"
  attr {
    key: "dtype"
    value {
      type: DT_BFLOAT16
    }
  }
  attr {
    key: "shape"
    value {
      shape {
        dim {
          size: 128
        }
        dim {
          size: 32
        }
        dim {
          size: 2
        }
        dim {
          size: 1
        }
        dim {
          size: 1
        }
      }
    }
  }
  attr {
    key: "synDataType"
    value {
      s: "bf16"
    }
  }
}
node {
  name: "fusedTPCNode_728_3_bundle_2099/op_8"
  op: "fused_kernel_0xE6B5970B_850_hf8"
  input: "module/model/29/rotary_pos_embedding_fwd_bf16/24548_complex/rotary_pos_embedding_fwd_bf16_699/rope_st2_fwd_bf16_16_bundle_2099/op_7"
  attr {
    key: "Bundle_idx"
    value {
      s: "2099"
    }
  }
  attr {
    key: "Exec_idx"
    value {
      s: "47"
    }
  }
  attr {
    key: "Op_idx"
    value {
      s: "12"
    }
  }
  attr {
    key: "inputTensor:0"
    value {
      s: "tensor_103_slice_0_0_1_0_0__0__bundle_2099_381196  |  Sizes = [1,8,32,128]  |  bf16  |  expBias = 0, scale = 1  |    |  ModelParam = 0  |  strides = [65536, 65536, 8192, 256, 2]  |  data = 0, sizeInBytes = 65536  |  location = in SRAM  |  sramOffset = 0x1000fffffd1a0000  |  "
    }
  }
  attr {
    key: "outputTensor:0"
    value {
      s: "tensor-380816_slice_0_0_1_0_0__0__bundle_2099_381197  |  Sizes = [1,8,32,128]  |  hfloat8  |  expBias = 7, scale = 1  |    |  ModelParam = 0  |  strides = [32768, 32768, 4096, 128, 1]  |  data = 0, sizeInBytes = 32768  |  isAliased = tensor_108_id_277364_module/model/29/fused_scaled_dot_product_attention/aten__view_slice_0_0_0_1_0__0__bundle_2099_381198, type = alias, offset: 0  |  location = in SRAM  |  sramOffset = 0x1000fffffd1ba000  |  "
    }
  }
}
node {
  name: "reshape_11_11_bundle_2099/op_9"
  op: "Reshape"
  input: "fusedTPCNode_728_3_bundle_2099/op_8"
  attr {
    key: "Bundle_idx"
    value {
      s: "2099"
    }
  }
  attr {
    key: "Exec_idx"
    value {
      s: "48"
    }
  }
  attr {
    key: "Op_idx"
    value {
      s: "13"
    }
  }
  attr {
    key: "inputTensor:0"
    value {
      s: "tensor-380816_slice_0_0_1_0_0__0__bundle_2099_381197  |  Sizes = [1,8,32,128]  |  hfloat8  |  expBias = 7, scale = 1  |    |  ModelParam = 0  |  strides = [32768, 32768, 4096, 128, 1]  |  data = 0, sizeInBytes = 32768  |  isAliased = tensor_108_id_277364_module/model/29/fused_scaled_dot_product_attention/aten__view_slice_0_0_0_1_0__0__bundle_2099_381198, type = alias, offset: 0  |  location = in SRAM  |  sramOffset = 0x1000fffffd1ba000  |  "
    }
  }
  attr {
    key: "outputTensor:0"
    value {
      s: "tensor_108_id_277364_module/model/29/fused_scaled_dot_product_attention/aten__view_slice_0_0_0_1_0__0__bundle_2099_381198  |  Sizes = [1,1,8,32,128]  |  hfloat8  |  expBias = 7, scale = 1  |    |  ModelParam = 0  |  strides = [32768, 32768, 32768, 4096, 128, 1]  |  data = 0, sizeInBytes = 32768  |  location = in SRAM  |  sramOffset = 0x1000fffffd1ba000  |  "
    }
  }
}
node {
  name: "module/model/29/fused_scaled_dot_product_attention/sdpa_recomp_fwd_hf8/24551_complex/sdpa_recomp_fwd_hf8_699/sdpa_recomp_core_fwd_hf8_349/fp8_gemm_hf8_5598/batch_gemm_16_bundle_2099/op_10"
  op: "BatchGemm"
  input: "reshape_11_11_bundle_2099/op_4"
  input: "reshape_5_5_bundle_2099/op_1"
  attr {
    key: "Bundle_idx"
    value {
      s: "2099"
    }
  }
  attr {
    key: "Exec_idx"
    value {
      s: "49"
    }
  }
  attr {
    key: "Op_idx"
    value {
      s: "14"
    }
  }
  attr {
    key: "Parameters"
    value {
      s: "transpose_a=false, transpose_b=true"
    }
  }
  attr {
    key: "fp8BiasIn"
    value {
      s: "7"
    }
  }
  attr {
    key: "fp8BiasIn2"
    value {
      s: "7"
    }
  }
  attr {
    key: "fp8BiasOut"
    value {
      s: "0"
    }
  }
  attr {
    key: "inputTensor:0"
    value {
      s: "tensor_108_id_277364_module/model/29/fused_scaled_dot_product_attention/aten__view_slice_0_0_0_0_0__0__bundle_2099_381189  |  Sizes = [1,1,8,32,128]  |  hfloat8  |  expBias = 7, scale = 1  |    |  ModelParam = 0  |  strides = [32768, 32768, 32768, 4096, 128, 1]  |  data = 0, sizeInBytes = 32768  |  location = in SRAM  |  sramOffset = 0x1000fffffd1b2000  |  "
    }
  }
  attr {
    key: "inputTensor:1"
    value {
      s: "tensor_89_id_277366_module/model/29/fused_scaled_dot_product_attention/aten__view_slice_0_0_0_0_0__0__bundle_2099_381183  |  Sizes = [1,1,1,32,128]  |  hfloat8  |  expBias = 7, scale = 1  |    |  ModelParam = 0  |  strides = [4096, 4096, 4096, 4096, 128, 1]  |  data = 0, sizeInBytes = 4096  |  location = in SRAM  |  sramOffset = 0x1000fffffd1b0000  |  "
    }
  }
  attr {
    key: "outputTensor:0"
    value {
      s: "bf16-17_380634_slice_0_0_0_0_0__0__bundle_2099_381199  |  Sizes = [1,1,8,32,32]  |  bf16  |  expBias = 0, scale = 1  |    |  ModelParam = 0  |  strides = [32768, 32768, 16384, 2048, 64, 2]  |  data = 0, sizeInBytes = 16384  |  isAliased = bf16-17_380634, type = concat, offset: 0  |  location = in DRAM  |  "
    }
  }
}
node {
  name: "module/model/29/fused_scaled_dot_product_attention/sdpa_recomp_fwd_hf8/24551_complex/sdpa_recomp_fwd_hf8_699/sdpa_recomp_core_fwd_hf8_349/fp8_gemm_hf8_5598/batch_gemm_16_bundle_2099/op_11"
  op: "BatchGemm"
  input: "reshape_11_11_bundle_2099/op_9"
  input: "reshape_5_5_bundle_2099/op_6"
  attr {
    key: "Bundle_idx"
    value {
      s: "2099"
    }
  }
  attr {
    key: "Exec_idx"
    value {
      s: "50"
    }
  }
  attr {
    key: "Op_idx"
    value {
      s: "15"
    }
  }
  attr {
    key: "Parameters"
    value {
      s: "transpose_a=false, transpose_b=true"
    }
  }
  attr {
    key: "fp8BiasIn"
    value {
      s: "7"
    }
  }
  attr {
    key: "fp8BiasIn2"
    value {
      s: "7"
    }
  }
  attr {
    key: "fp8BiasOut"
    value {
      s: "0"
    }
  }
  attr {
    key: "inputTensor:0"
    value {
      s: "tensor_108_id_277364_module/model/29/fused_scaled_dot_product_attention/aten__view_slice_0_0_0_1_0__0__bundle_2099_381198  |  Sizes = [1,1,8,32,128]  |  hfloat8  |  expBias = 7, scale = 1  |    |  ModelParam = 0  |  strides = [32768, 32768, 32768, 4096, 128, 1]  |  data = 0, sizeInBytes = 32768  |  location = in SRAM  |  sramOffset = 0x1000fffffd1ba000  |  "
    }
  }
  attr {
    key: "inputTensor:1"
    value {
      s: "tensor_89_id_277366_module/model/29/fused_scaled_dot_product_attention/aten__view_slice_0_0_0_1_0__0__bundle_2099_381194  |  Sizes = [1,1,1,32,128]  |  hfloat8  |  expBias = 7, scale = 1  |    |  ModelParam = 0  |  strides = [4096, 4096, 4096, 4096, 128, 1]  |  data = 0, sizeInBytes = 4096  |  location = in SRAM  |  sramOffset = 0x1000fffffd1b1000  |  "
    }
  }
  attr {
    key: "outputTensor:0"
    value {
      s: "bf16-17_380634_slice_0_0_0_1_0__0__bundle_2099_381200  |  Sizes = [1,1,8,32,32]  |  bf16  |  expBias = 0, scale = 1  |    |  ModelParam = 0  |  strides = [32768, 32768, 16384, 2048, 64, 2]  |  data = 0, sizeInBytes = 16384  |  isAliased = bf16-17_380634, type = concat, offset: 16384  |  location = in DRAM  |  "
    }
  }
}
node {
  name: "bf16-17_380634_bundle_2099/concat_logical_internal/0"
  op: "Concatenate"
  input: "module/model/29/fused_scaled_dot_product_attention/sdpa_recomp_fwd_hf8/24551_complex/sdpa_recomp_fwd_hf8_699/sdpa_recomp_core_fwd_hf8_349/fp8_gemm_hf8_5598/batch_gemm_16_bundle_2099/op_10"
  input: "module/model/29/fused_scaled_dot_product_attention/sdpa_recomp_fwd_hf8/24551_complex/sdpa_recomp_fwd_hf8_699/sdpa_recomp_core_fwd_hf8_349/fp8_gemm_hf8_5598/batch_gemm_16_bundle_2099/op_11"
  attr {
    key: "Bundle_idx"
    value {
      s: "2099"
    }
  }
  attr {
    key: "Exec_idx"
    value {
      s: "51"
    }
  }
  attr {
    key: "Op_idx"
    value {
      s: "16"
    }
  }
  attr {
    key: "inputTensor:0"
    value {
      s: "bf16-17_380634_slice_0_0_0_0_0__0__bundle_2099_381199  |  Sizes = [1,1,8,32,32]  |  bf16  |  expBias = 0, scale = 1  |    |  ModelParam = 0  |  strides = [32768, 32768, 16384, 2048, 64, 2]  |  data = 0, sizeInBytes = 16384  |  isAliased = bf16-17_380634, type = concat, offset: 0  |  location = in DRAM  |  "
    }
  }
  attr {
    key: "inputTensor:1"
    value {
      s: "bf16-17_380634_slice_0_0_0_1_0__0__bundle_2099_381200  |  Sizes = [1,1,8,32,32]  |  bf16  |  expBias = 0, scale = 1  |    |  ModelParam = 0  |  strides = [32768, 32768, 16384, 2048, 64, 2]  |  data = 0, sizeInBytes = 16384  |  isAliased = bf16-17_380634, type = concat, offset: 16384  |  location = in DRAM  |  "
    }
  }
  attr {
    key: "outputTensor:0"
    value {
      s: "bf16-17_380634  |  Sizes = [1,2,8,32,32]  |  bf16  |  expBias = 0, scale = 1  |    |  ModelParam = 0  |  strides = [32768, 32768, 16384, 2048, 64, 2]  |  data = 0, sizeInBytes = 32768  |  location = in DRAM  |  dramOffset = 0x31000002a000  |  "
    }
  }
}
node {
  name: "module/model/29/fused_scaled_dot_product_attention/sdpa_recomp_fwd_hf8/24551_complex/sdpa_recomp_fwd_hf8_699/sdpa_recomp_core_fwd_hf8_349/constant_f32_18"
  op: "constant_f32"
  attr {
    key: "Bundle_idx"
    value {
      s: "N/A"
    }
  }
  attr {
    key: "Exec_idx"
    value {
      s: "52"
    }
  }
  attr {
    key: "Op_idx"
    value {
      s: "N/A"
    }
  }
  attr {
    key: "outputTensor:0"
    value {
      s: "f32-19_380635  |  Sizes = [1]  |  float32  |  expBias = 0, scale = 1  |    |  ModelParam = 0  |  strides = [4, 4]  |  data = 0, sizeInBytes = 4  |  location = in DRAM  |  dramOffset = 0x310000000000  |  "
    }
  }
}
node {
  name: "module/model/29/fused_scaled_dot_product_attention/sdpa_recomp_fwd_hf8/24551_complex/sdpa_recomp_fwd_hf8_699/sdpa_recomp_core_fwd_hf8_349/constant_f32_20"
  op: "constant_f32"
  attr {
    key: "Bundle_idx"
    value {
      s: "N/A"
    }
  }
  attr {
    key: "Exec_idx"
    value {
      s: "53"
    }
  }
  attr {
    key: "Op_idx"
    value {
      s: "N/A"
    }
  }
  attr {
    key: "outputTensor:0"
    value {
      s: "f32-21_380636  |  Sizes = [1]  |  float32  |  expBias = 0, scale = 1  |    |  ModelParam = 0  |  strides = [4, 4]  |  data = 0, sizeInBytes = 4  |  location = in DRAM  |  dramOffset = 0x310000000080  |  "
    }
  }
}
node {
  name: "tensor_69_bundle_2100/split_internal/0"
  op: "Split"
  input: "module/model/29/quant_input_0/transpose/24529_transpose_via_logical"
  attr {
    key: "Bundle_idx"
    value {
      s: "2100"
    }
  }
  attr {
    key: "Exec_idx"
    value {
      s: "54"
    }
  }
  attr {
    key: "Op_idx"
    value {
      s: "0"
    }
  }
  attr {
    key: "inputTensor:0"
    value {
      s: "tensor_69  |  Sizes = [1,2,32,128]  |  hfloat8  |  expBias = 7, scale = 1  |    |  ModelParam = 0  |  strides = [8192, 8192, 4096, 128, 1]  |  data = 0, sizeInBytes = 8192  |  isPersistent  |  location = in DRAM  |  dramOffset = 0x140000000000  |  userMemorySection(type=Persistent, id=20)  |  "
    }
  }
  attr {
    key: "outputTensor:0"
    value {
      s: "tensor_69_slice_0_0_0_0_0__0__bundle_2100_381201  |  Sizes = [1,1,32,128]  |  hfloat8  |  expBias = 7, scale = 1  |    |  ModelParam = 0  |  strides = [8192, 8192, 4096, 128, 1]  |  data = 0, sizeInBytes = 4096  |  isAliased = tensor_69, type = concat, offset: 0  |  location = in DRAM  |  "
    }
  }
  attr {
    key: "outputTensor:1"
    value {
      s: "tensor_69_slice_0_0_1_0_0__0__bundle_2100_381211  |  Sizes = [1,1,32,128]  |  hfloat8  |  expBias = 7, scale = 1  |    |  ModelParam = 0  |  strides = [8192, 8192, 4096, 128, 1]  |  data = 0, sizeInBytes = 4096  |  isAliased = tensor_69, type = concat, offset: 4096  |  location = in DRAM  |  "
    }
  }
}
node {
  name: "bf16-17_380634_bundle_2100/split_internal/0"
  op: "Split"
  input: "bf16-17_380634_bundle_2099/concat_logical_internal/0"
  attr {
    key: "Bundle_idx"
    value {
      s: "2100"
    }
  }
  attr {
    key: "Exec_idx"
    value {
      s: "55"
    }
  }
  attr {
    key: "Op_idx"
    value {
      s: "1"
    }
  }
  attr {
    key: "inputTensor:0"
    value {
      s: "bf16-17_380634  |  Sizes = [1,2,8,32,32]  |  bf16  |  expBias = 0, scale = 1  |    |  ModelParam = 0  |  strides = [32768, 32768, 16384, 2048, 64, 2]  |  data = 0, sizeInBytes = 32768  |  location = in DRAM  |  dramOffset = 0x31000002a000  |  "
    }
  }
  attr {
    key: "outputTensor:0"
    value {
      s: "bf16-17_380634_slice_0_0_0_0_0__0__bundle_2100_381205  |  Sizes = [1,1,8,32,32]  |  bf16  |  expBias = 0, scale = 1  |    |  ModelParam = 0  |  strides = [32768, 32768, 16384, 2048, 64, 2]  |  data = 0, sizeInBytes = 16384  |  isAliased = bf16-17_380634, type = concat, offset: 0  |  location = in DRAM  |  "
    }
  }
  attr {
    key: "outputTensor:1"
    value {
      s: "bf16-17_380634_slice_0_0_0_1_0__0__bundle_2100_381215  |  Sizes = [1,1,8,32,32]  |  bf16  |  expBias = 0, scale = 1  |    |  ModelParam = 0  |  strides = [32768, 32768, 16384, 2048, 64, 2]  |  data = 0, sizeInBytes = 16384  |  isAliased = bf16-17_380634, type = concat, offset: 16384  |  location = in DRAM  |  "
    }
  }
}
node {
  name: "fusedTPCNode_728_2_bundle_2100/op_0"
  op: "fused_kernel_0xB6FB4A57_84F_bf16"
  input: "tensor_69_bundle_2100/split_internal/0"
  attr {
    key: "Bundle_idx"
    value {
      s: "2100"
    }
  }
  attr {
    key: "Exec_idx"
    value {
      s: "56"
    }
  }
  attr {
    key: "Op_idx"
    value {
      s: "2"
    }
  }
  attr {
    key: "inputTensor:0"
    value {
      s: "tensor_69_slice_0_0_0_0_0__0__bundle_2100_381201  |  Sizes = [1,1,32,128]  |  hfloat8  |  expBias = 7, scale = 1  |    |  ModelParam = 0  |  strides = [8192, 8192, 4096, 128, 1]  |  data = 0, sizeInBytes = 4096  |  isAliased = tensor_69, type = concat, offset: 0  |  location = in DRAM  |  "
    }
  }
  attr {
    key: "outputTensor:0"
    value {
      s: "tensor_72_slice_0_0_0_0_0__0__bundle_2100_381202  |  Sizes = [1,1,32,128]  |  bf16  |  expBias = 0, scale = 1  |    |  ModelParam = 0  |  strides = [16384, 16384, 8192, 256, 2]  |  data = 0, sizeInBytes = 8192  |  isAliased = tensor_72, type = concat, offset: 0  |  location = in DRAM  |  "
    }
  }
  attr {
    key: "outputTensor:1"
    value {
      s: "tensor-380815_slice_0_0_0_0_0__0__bundle_2100_381203  |  Sizes = [1,1,32,128]  |  hfloat8  |  expBias = 7, scale = 1  |    |  ModelParam = 0  |  strides = [4096, 4096, 4096, 128, 1]  |  data = 0, sizeInBytes = 4096  |  isAliased = tensor_84_id_277368_module/model/29/fused_scaled_dot_product_attention/aten__view_slice_0_0_0_0_0__0__bundle_2100_381204, type = alias, offset: 0  |  location = in SRAM  |  sramOffset = 0x1000fffffd1c2000  |  "
    }
  }
}
node {
  name: "reshape_8_8_bundle_2100/op_1"
  op: "Reshape"
  input: "fusedTPCNode_728_2_bundle_2100/op_0"
  attr {
    key: "Bundle_idx"
    value {
      s: "2100"
    }
  }
  attr {
    key: "Exec_idx"
    value {
      s: "57"
    }
  }
  attr {
    key: "Op_idx"
    value {
      s: "3"
    }
  }
  attr {
    key: "inputTensor:0"
    value {
      s: "tensor-380815_slice_0_0_0_0_0__0__bundle_2100_381203  |  Sizes = [1,1,32,128]  |  hfloat8  |  expBias = 7, scale = 1  |    |  ModelParam = 0  |  strides = [4096, 4096, 4096, 128, 1]  |  data = 0, sizeInBytes = 4096  |  isAliased = tensor_84_id_277368_module/model/29/fused_scaled_dot_product_attention/aten__view_slice_0_0_0_0_0__0__bundle_2100_381204, type = alias, offset: 0  |  location = in SRAM  |  sramOffset = 0x1000fffffd1c2000  |  "
    }
  }
  attr {
    key: "outputTensor:0"
    value {
      s: "tensor_84_id_277368_module/model/29/fused_scaled_dot_product_attention/aten__view_slice_0_0_0_0_0__0__bundle_2100_381204  |  Sizes = [1,1,1,32,128]  |  hfloat8  |  expBias = 7, scale = 1  |    |  ModelParam = 0  |  strides = [4096, 4096, 4096, 4096, 128, 1]  |  data = 0, sizeInBytes = 4096  |  location = in SRAM  |  sramOffset = 0x1000fffffd1c2000  |  "
    }
  }
}
node {
  name: "tensor_112_odule/model/29/fused_scaled_dot_product_attention/placeholder/7"
  op: "Placeholder"
  attr {
    key: "dtype"
    value {
      type: DT_FLOAT
    }
  }
  attr {
    key: "shape"
    value {
      shape {
        dim {
          size: 1
        }
        dim {
          size: 1
        }
        dim {
          size: 1
        }
        dim {
          size: 1
        }
        dim {
          size: 1
        }
      }
    }
  }
  attr {
    key: "synDataType"
    value {
      s: "float32"
    }
  }
}
node {
  name: "module/model/29/fused_scaled_dot_product_attention/sdpa_recomp_fwd_hf8/24551_complex/sdpa_recomp_fwd_hf8_699/sdpa_recomp_core_fwd_hf8_349/softmax_fwd_hf8_22_bundle_2100/op_2"
  op: "softmax_fwd_hf8"
  input: "bf16-17_380634_bundle_2100/split_internal/0"
  input: "module/model/29/fused_scaled_dot_product_attention/sdpa_recomp_fwd_hf8/24551_complex/sdpa_recomp_fwd_hf8_699/sdpa_recomp_core_fwd_hf8_349/constant_f32_18"
  input: "module/model/29/fused_scaled_dot_product_attention/sdpa_recomp_fwd_hf8/24551_complex/sdpa_recomp_fwd_hf8_699/sdpa_recomp_core_fwd_hf8_349/constant_f32_20"
  input: "tensor_112_odule/model/29/fused_scaled_dot_product_attention/placeholder/7"
  input: "module/model/29/fused_scaled_dot_product_attention/expand_dims/24538"
  attr {
    key: "Bundle_idx"
    value {
      s: "2100"
    }
  }
  attr {
    key: "Exec_idx"
    value {
      s: "58"
    }
  }
  attr {
    key: "Op_idx"
    value {
      s: "4"
    }
  }
  attr {
    key: "inputTensor:0"
    value {
      s: "bf16-17_380634_slice_0_0_0_0_0__0__bundle_2100_381205  |  Sizes = [1,1,8,32,32]  |  bf16  |  expBias = 0, scale = 1  |    |  ModelParam = 0  |  strides = [32768, 32768, 16384, 2048, 64, 2]  |  data = 0, sizeInBytes = 16384  |  isAliased = bf16-17_380634, type = concat, offset: 0  |  location = in DRAM  |  "
    }
  }
  attr {
    key: "inputTensor:1"
    value {
      s: "f32-19_380635  |  Sizes = [1]  |  float32  |  expBias = 0, scale = 1  |    |  ModelParam = 0  |  strides = [4, 4]  |  data = 0, sizeInBytes = 4  |  location = in DRAM  |  dramOffset = 0x310000000000  |  "
    }
  }
  attr {
    key: "inputTensor:2"
    value {
      s: "f32-21_380636  |  Sizes = [1]  |  float32  |  expBias = 0, scale = 1  |    |  ModelParam = 0  |  strides = [4, 4]  |  data = 0, sizeInBytes = 4  |  location = in DRAM  |  dramOffset = 0x310000000080  |  "
    }
  }
  attr {
    key: "inputTensor:3"
    value {
      s: "tensor_112_odule/model/29/fused_scaled_dot_product_attention/placeholder/7  |  Sizes = [1]  |  float32  |  expBias = 0, scale = 1  |    |  ModelParam = 0  |  strides = [4, 4]  |  data = 0x55afdfd9fc10, sizeInBytes = 4  |  buffer = 16  |  isPersistent  |  location = in DRAM  |  dramOffset = 0x280000000000  |  userMemorySection(type=Persistent, id=40)  |  isStaticParam  |  bufferDtype=float32  |  "
    }
  }
  attr {
    key: "inputTensor:4"
    value {
      s: "tensor_79_id_277370_module/model/29/fused_scaled_dot_product_attention/aten__unsqueeze  |  Sizes = [1,1,1,32,32]  |  bf16  |  expBias = 0, scale = 1  |    |  ModelParam = 0  |  strides = [2048, 2048, 2048, 2048, 64, 2]  |  data = 0, sizeInBytes = 2048  |  isAliased = tensor_73_odule/model/29/fused_scaled_dot_product_attention/placeholder/0, type = alias, offset: 0  |  location = in DRAM  |  "
    }
  }
  attr {
    key: "outputTensor:0"
    value {
      s: "hf8-23_380637_slice_0_0_0_0_0__0__bundle_2100_381210  |  Sizes = [1,1,8,32,32]  |  hfloat8  |  expBias = 7, scale = 1  |    |  ModelParam = 0  |  strides = [8192, 8192, 8192, 1024, 32, 1]  |  data = 0, sizeInBytes = 8192  |  location = in SRAM  |  sramOffset = 0x1000fffffd1c4000  |  "
    }
  }
}
node {
  name: "fusedTPCNode_728_2_bundle_2100/op_3"
  op: "fused_kernel_0xB6FB4A57_84F_bf16"
  input: "tensor_69_bundle_2100/split_internal/0"
  attr {
    key: "Bundle_idx"
    value {
      s: "2100"
    }
  }
  attr {
    key: "Exec_idx"
    value {
      s: "59"
    }
  }
  attr {
    key: "Op_idx"
    value {
      s: "5"
    }
  }
  attr {
    key: "inputTensor:0"
    value {
      s: "tensor_69_slice_0_0_1_0_0__0__bundle_2100_381211  |  Sizes = [1,1,32,128]  |  hfloat8  |  expBias = 7, scale = 1  |    |  ModelParam = 0  |  strides = [8192, 8192, 4096, 128, 1]  |  data = 0, sizeInBytes = 4096  |  isAliased = tensor_69, type = concat, offset: 4096  |  location = in DRAM  |  "
    }
  }
  attr {
    key: "outputTensor:0"
    value {
      s: "tensor_72_slice_0_0_1_0_0__0__bundle_2100_381212  |  Sizes = [1,1,32,128]  |  bf16  |  expBias = 0, scale = 1  |    |  ModelParam = 0  |  strides = [16384, 16384, 8192, 256, 2]  |  data = 0, sizeInBytes = 8192  |  isAliased = tensor_72, type = concat, offset: 8192  |  location = in DRAM  |  "
    }
  }
  attr {
    key: "outputTensor:1"
    value {
      s: "tensor-380815_slice_0_0_1_0_0__0__bundle_2100_381213  |  Sizes = [1,1,32,128]  |  hfloat8  |  expBias = 7, scale = 1  |    |  ModelParam = 0  |  strides = [4096, 4096, 4096, 128, 1]  |  data = 0, sizeInBytes = 4096  |  isAliased = tensor_84_id_277368_module/model/29/fused_scaled_dot_product_attention/aten__view_slice_0_0_0_1_0__0__bundle_2100_381214, type = alias, offset: 0  |  location = in SRAM  |  sramOffset = 0x1000fffffd1c3000  |  "
    }
  }
}
node {
  name: "reshape_8_8_bundle_2100/op_4"
  op: "Reshape"
  input: "fusedTPCNode_728_2_bundle_2100/op_3"
  attr {
    key: "Bundle_idx"
    value {
      s: "2100"
    }
  }
  attr {
    key: "Exec_idx"
    value {
      s: "60"
    }
  }
  attr {
    key: "Op_idx"
    value {
      s: "6"
    }
  }
  attr {
    key: "inputTensor:0"
    value {
      s: "tensor-380815_slice_0_0_1_0_0__0__bundle_2100_381213  |  Sizes = [1,1,32,128]  |  hfloat8  |  expBias = 7, scale = 1  |    |  ModelParam = 0  |  strides = [4096, 4096, 4096, 128, 1]  |  data = 0, sizeInBytes = 4096  |  isAliased = tensor_84_id_277368_module/model/29/fused_scaled_dot_product_attention/aten__view_slice_0_0_0_1_0__0__bundle_2100_381214, type = alias, offset: 0  |  location = in SRAM  |  sramOffset = 0x1000fffffd1c3000  |  "
    }
  }
  attr {
    key: "outputTensor:0"
    value {
      s: "tensor_84_id_277368_module/model/29/fused_scaled_dot_product_attention/aten__view_slice_0_0_0_1_0__0__bundle_2100_381214  |  Sizes = [1,1,1,32,128]  |  hfloat8  |  expBias = 7, scale = 1  |    |  ModelParam = 0  |  strides = [4096, 4096, 4096, 4096, 128, 1]  |  data = 0, sizeInBytes = 4096  |  location = in SRAM  |  sramOffset = 0x1000fffffd1c3000  |  "
    }
  }
}
node {
  name: "tensor_72_bundle_2100/concat_logical_internal/0"
  op: "Concatenate"
  input: "fusedTPCNode_728_2_bundle_2100/op_0"
  input: "fusedTPCNode_728_2_bundle_2100/op_3"
  attr {
    key: "Bundle_idx"
    value {
      s: "2100"
    }
  }
  attr {
    key: "Exec_idx"
    value {
      s: "61"
    }
  }
  attr {
    key: "Op_idx"
    value {
      s: "7"
    }
  }
  attr {
    key: "inputTensor:0"
    value {
      s: "tensor_72_slice_0_0_0_0_0__0__bundle_2100_381202  |  Sizes = [1,1,32,128]  |  bf16  |  expBias = 0, scale = 1  |    |  ModelParam = 0  |  strides = [16384, 16384, 8192, 256, 2]  |  data = 0, sizeInBytes = 8192  |  isAliased = tensor_72, type = concat, offset: 0  |  location = in DRAM  |  "
    }
  }
  attr {
    key: "inputTensor:1"
    value {
      s: "tensor_72_slice_0_0_1_0_0__0__bundle_2100_381212  |  Sizes = [1,1,32,128]  |  bf16  |  expBias = 0, scale = 1  |    |  ModelParam = 0  |  strides = [16384, 16384, 8192, 256, 2]  |  data = 0, sizeInBytes = 8192  |  isAliased = tensor_72, type = concat, offset: 8192  |  location = in DRAM  |  "
    }
  }
  attr {
    key: "outputTensor:0"
    value {
      s: "tensor_72  |  Sizes = [1,2,32,128]  |  bf16  |  expBias = 0, scale = 1  |    |  ModelParam = 0  |  strides = [16384, 16384, 8192, 256, 2]  |  data = 0, sizeInBytes = 16384  |  isPersistent  |  location = in DRAM  |  dramOffset = 0x1c0000000000  |  userMemorySection(type=Persistent, id=28)  |  "
    }
  }
}
node {
  name: "tensor_72"
  op: "OutputTensor"
  input: "tensor_72_bundle_2100/concat_logical_internal/0"
  attr {
    key: "dtype"
    value {
      type: DT_BFLOAT16
    }
  }
  attr {
    key: "shape"
    value {
      shape {
        dim {
          size: 128
        }
        dim {
          size: 32
        }
        dim {
          size: 2
        }
        dim {
          size: 1
        }
        dim {
          size: 1
        }
      }
    }
  }
  attr {
    key: "synDataType"
    value {
      s: "bf16"
    }
  }
}
node {
  name: "module/model/29/fused_scaled_dot_product_attention/sdpa_recomp_fwd_hf8/24551_complex/sdpa_recomp_fwd_hf8_699/sdpa_recomp_core_fwd_hf8_349/softmax_fwd_hf8_22_bundle_2100/op_5"
  op: "softmax_fwd_hf8"
  input: "bf16-17_380634_bundle_2100/split_internal/0"
  input: "module/model/29/fused_scaled_dot_product_attention/sdpa_recomp_fwd_hf8/24551_complex/sdpa_recomp_fwd_hf8_699/sdpa_recomp_core_fwd_hf8_349/constant_f32_18"
  input: "module/model/29/fused_scaled_dot_product_attention/sdpa_recomp_fwd_hf8/24551_complex/sdpa_recomp_fwd_hf8_699/sdpa_recomp_core_fwd_hf8_349/constant_f32_20"
  input: "tensor_112_odule/model/29/fused_scaled_dot_product_attention/placeholder/7"
  input: "module/model/29/fused_scaled_dot_product_attention/expand_dims/24538"
  attr {
    key: "Bundle_idx"
    value {
      s: "2100"
    }
  }
  attr {
    key: "Exec_idx"
    value {
      s: "62"
    }
  }
  attr {
    key: "Op_idx"
    value {
      s: "8"
    }
  }
  attr {
    key: "inputTensor:0"
    value {
      s: "bf16-17_380634_slice_0_0_0_1_0__0__bundle_2100_381215  |  Sizes = [1,1,8,32,32]  |  bf16  |  expBias = 0, scale = 1  |    |  ModelParam = 0  |  strides = [32768, 32768, 16384, 2048, 64, 2]  |  data = 0, sizeInBytes = 16384  |  isAliased = bf16-17_380634, type = concat, offset: 16384  |  location = in DRAM  |  "
    }
  }
  attr {
    key: "inputTensor:1"
    value {
      s: "f32-19_380635  |  Sizes = [1]  |  float32  |  expBias = 0, scale = 1  |    |  ModelParam = 0  |  strides = [4, 4]  |  data = 0, sizeInBytes = 4  |  location = in DRAM  |  dramOffset = 0x310000000000  |  "
    }
  }
  attr {
    key: "inputTensor:2"
    value {
      s: "f32-21_380636  |  Sizes = [1]  |  float32  |  expBias = 0, scale = 1  |    |  ModelParam = 0  |  strides = [4, 4]  |  data = 0, sizeInBytes = 4  |  location = in DRAM  |  dramOffset = 0x310000000080  |  "
    }
  }
  attr {
    key: "inputTensor:3"
    value {
      s: "tensor_112_odule/model/29/fused_scaled_dot_product_attention/placeholder/7  |  Sizes = [1]  |  float32  |  expBias = 0, scale = 1  |    |  ModelParam = 0  |  strides = [4, 4]  |  data = 0x55afdfd9fc10, sizeInBytes = 4  |  buffer = 16  |  isPersistent  |  location = in DRAM  |  dramOffset = 0x280000000000  |  userMemorySection(type=Persistent, id=40)  |  isStaticParam  |  bufferDtype=float32  |  "
    }
  }
  attr {
    key: "inputTensor:4"
    value {
      s: "tensor_79_id_277370_module/model/29/fused_scaled_dot_product_attention/aten__unsqueeze  |  Sizes = [1,1,1,32,32]  |  bf16  |  expBias = 0, scale = 1  |    |  ModelParam = 0  |  strides = [2048, 2048, 2048, 2048, 64, 2]  |  data = 0, sizeInBytes = 2048  |  isAliased = tensor_73_odule/model/29/fused_scaled_dot_product_attention/placeholder/0, type = alias, offset: 0  |  location = in DRAM  |  "
    }
  }
  attr {
    key: "outputTensor:0"
    value {
      s: "hf8-23_380637_slice_0_0_0_1_0__0__bundle_2100_381216  |  Sizes = [1,1,8,32,32]  |  hfloat8  |  expBias = 7, scale = 1  |    |  ModelParam = 0  |  strides = [8192, 8192, 8192, 1024, 32, 1]  |  data = 0, sizeInBytes = 8192  |  location = in SRAM  |  sramOffset = 0x1000fffffd1c6000  |  "
    }
  }
}
node {
  name: "module/model/29/fused_scaled_dot_product_attention/sdpa_recomp_fwd_hf8/24551_complex/sdpa_recomp_fwd_hf8_699/sdpa_recomp_core_fwd_hf8_349/fp8_gemm_hf8_5599/batch_gemm_24_bundle_2100/op_6"
  op: "BatchGemm"
  input: "module/model/29/fused_scaled_dot_product_attention/sdpa_recomp_fwd_hf8/24551_complex/sdpa_recomp_fwd_hf8_699/sdpa_recomp_core_fwd_hf8_349/softmax_fwd_hf8_22_bundle_2100/op_2"
  input: "reshape_8_8_bundle_2100/op_1"
  attr {
    key: "Bundle_idx"
    value {
      s: "2100"
    }
  }
  attr {
    key: "Exec_idx"
    value {
      s: "63"
    }
  }
  attr {
    key: "Op_idx"
    value {
      s: "9"
    }
  }
  attr {
    key: "Parameters"
    value {
      s: "transpose_a=false, transpose_b=false"
    }
  }
  attr {
    key: "fp8BiasIn"
    value {
      s: "11"
    }
  }
  attr {
    key: "fp8BiasIn2"
    value {
      s: "7"
    }
  }
  attr {
    key: "fp8BiasOut"
    value {
      s: "7"
    }
  }
  attr {
    key: "inputTensor:0"
    value {
      s: "hf8-23_380637_slice_0_0_0_0_0__0__bundle_2100_381210  |  Sizes = [1,1,8,32,32]  |  hfloat8  |  expBias = 7, scale = 1  |    |  ModelParam = 0  |  strides = [8192, 8192, 8192, 1024, 32, 1]  |  data = 0, sizeInBytes = 8192  |  location = in SRAM  |  sramOffset = 0x1000fffffd1c4000  |  "
    }
  }
  attr {
    key: "inputTensor:1"
    value {
      s: "tensor_84_id_277368_module/model/29/fused_scaled_dot_product_attention/aten__view_slice_0_0_0_0_0__0__bundle_2100_381204  |  Sizes = [1,1,1,32,128]  |  hfloat8  |  expBias = 7, scale = 1  |    |  ModelParam = 0  |  strides = [4096, 4096, 4096, 4096, 128, 1]  |  data = 0, sizeInBytes = 4096  |  location = in SRAM  |  sramOffset = 0x1000fffffd1c2000  |  "
    }
  }
  attr {
    key: "outputTensor:0"
    value {
      s: "tensor_120_slice_0_0_0_0_0__0__bundle_2100_381217  |  Sizes = [1,1,8,32,128]  |  hfloat8  |  expBias = 7, scale = 1  |    |  ModelParam = 0  |  strides = [65536, 65536, 32768, 4096, 128, 1]  |  data = 0, sizeInBytes = 32768  |  isAliased = tensor_120, type = concat, offset: 0  |  location = in DRAM  |  "
    }
  }
}
node {
  name: "module/model/29/fused_scaled_dot_product_attention/sdpa_recomp_fwd_hf8/24551_complex/sdpa_recomp_fwd_hf8_699/sdpa_recomp_core_fwd_hf8_349/fp8_gemm_hf8_5599/batch_gemm_24_bundle_2100/op_7"
  op: "BatchGemm"
  input: "module/model/29/fused_scaled_dot_product_attention/sdpa_recomp_fwd_hf8/24551_complex/sdpa_recomp_fwd_hf8_699/sdpa_recomp_core_fwd_hf8_349/softmax_fwd_hf8_22_bundle_2100/op_5"
  input: "reshape_8_8_bundle_2100/op_4"
  attr {
    key: "Bundle_idx"
    value {
      s: "2100"
    }
  }
  attr {
    key: "Exec_idx"
    value {
      s: "64"
    }
  }
  attr {
    key: "Op_idx"
    value {
      s: "10"
    }
  }
  attr {
    key: "Parameters"
    value {
      s: "transpose_a=false, transpose_b=false"
    }
  }
  attr {
    key: "fp8BiasIn"
    value {
      s: "11"
    }
  }
  attr {
    key: "fp8BiasIn2"
    value {
      s: "7"
    }
  }
  attr {
    key: "fp8BiasOut"
    value {
      s: "7"
    }
  }
  attr {
    key: "inputTensor:0"
    value {
      s: "hf8-23_380637_slice_0_0_0_1_0__0__bundle_2100_381216  |  Sizes = [1,1,8,32,32]  |  hfloat8  |  expBias = 7, scale = 1  |    |  ModelParam = 0  |  strides = [8192, 8192, 8192, 1024, 32, 1]  |  data = 0, sizeInBytes = 8192  |  location = in SRAM  |  sramOffset = 0x1000fffffd1c6000  |  "
    }
  }
  attr {
    key: "inputTensor:1"
    value {
      s: "tensor_84_id_277368_module/model/29/fused_scaled_dot_product_attention/aten__view_slice_0_0_0_1_0__0__bundle_2100_381214  |  Sizes = [1,1,1,32,128]  |  hfloat8  |  expBias = 7, scale = 1  |    |  ModelParam = 0  |  strides = [4096, 4096, 4096, 4096, 128, 1]  |  data = 0, sizeInBytes = 4096  |  location = in SRAM  |  sramOffset = 0x1000fffffd1c3000  |  "
    }
  }
  attr {
    key: "outputTensor:0"
    value {
      s: "tensor_120_slice_0_0_0_1_0__0__bundle_2100_381218  |  Sizes = [1,1,8,32,128]  |  hfloat8  |  expBias = 7, scale = 1  |    |  ModelParam = 0  |  strides = [65536, 65536, 32768, 4096, 128, 1]  |  data = 0, sizeInBytes = 32768  |  isAliased = tensor_120, type = concat, offset: 32768  |  location = in DRAM  |  "
    }
  }
}
node {
  name: "tensor_120_bundle_2100/concat_logical_internal/0"
  op: "Concatenate"
  input: "module/model/29/fused_scaled_dot_product_attention/sdpa_recomp_fwd_hf8/24551_complex/sdpa_recomp_fwd_hf8_699/sdpa_recomp_core_fwd_hf8_349/fp8_gemm_hf8_5599/batch_gemm_24_bundle_2100/op_6"
  input: "module/model/29/fused_scaled_dot_product_attention/sdpa_recomp_fwd_hf8/24551_complex/sdpa_recomp_fwd_hf8_699/sdpa_recomp_core_fwd_hf8_349/fp8_gemm_hf8_5599/batch_gemm_24_bundle_2100/op_7"
  attr {
    key: "Bundle_idx"
    value {
      s: "2100"
    }
  }
  attr {
    key: "Exec_idx"
    value {
      s: "65"
    }
  }
  attr {
    key: "Op_idx"
    value {
      s: "11"
    }
  }
  attr {
    key: "inputTensor:0"
    value {
      s: "tensor_120_slice_0_0_0_0_0__0__bundle_2100_381217  |  Sizes = [1,1,8,32,128]  |  hfloat8  |  expBias = 7, scale = 1  |    |  ModelParam = 0  |  strides = [65536, 65536, 32768, 4096, 128, 1]  |  data = 0, sizeInBytes = 32768  |  isAliased = tensor_120, type = concat, offset: 0  |  location = in DRAM  |  "
    }
  }
  attr {
    key: "inputTensor:1"
    value {
      s: "tensor_120_slice_0_0_0_1_0__0__bundle_2100_381218  |  Sizes = [1,1,8,32,128]  |  hfloat8  |  expBias = 7, scale = 1  |    |  ModelParam = 0  |  strides = [65536, 65536, 32768, 4096, 128, 1]  |  data = 0, sizeInBytes = 32768  |  isAliased = tensor_120, type = concat, offset: 32768  |  location = in DRAM  |  "
    }
  }
  attr {
    key: "outputTensor:0"
    value {
      s: "tensor_120  |  Sizes = [1,2,8,32,128]  |  hfloat8  |  expBias = 7, scale = 1  |    |  ModelParam = 0  |  strides = [65536, 65536, 32768, 4096, 128, 1]  |  data = 0, sizeInBytes = 65536  |  isAliased = tensor_121_id_277389_module/model/29/fused_scaled_dot_product_attention/dequant_output/aten__view, type = alias, offset: 0  |  location = in DRAM  |  "
    }
  }
}
node {
  name: "module/model/29/fused_scaled_dot_product_attention/dequant_output/reshape/24552"
  op: "Reshape"
  input: "tensor_120_bundle_2100/concat_logical_internal/0"
  attr {
    key: "Bundle_idx"
    value {
      s: "N/A"
    }
  }
  attr {
    key: "Exec_idx"
    value {
      s: "66"
    }
  }
  attr {
    key: "Op_idx"
    value {
      s: "N/A"
    }
  }
  attr {
    key: "inputTensor:0"
    value {
      s: "tensor_120  |  Sizes = [1,2,8,32,128]  |  hfloat8  |  expBias = 7, scale = 1  |    |  ModelParam = 0  |  strides = [65536, 65536, 32768, 4096, 128, 1]  |  data = 0, sizeInBytes = 65536  |  isAliased = tensor_121_id_277389_module/model/29/fused_scaled_dot_product_attention/dequant_output/aten__view, type = alias, offset: 0  |  location = in DRAM  |  "
    }
  }
  attr {
    key: "outputTensor:0"
    value {
      s: "tensor_121_id_277389_module/model/29/fused_scaled_dot_product_attention/dequant_output/aten__view  |  Sizes = [1,16,32,128]  |  hfloat8  |  expBias = 7, scale = 1  |    |  ModelParam = 0  |  strides = [65536, 65536, 4096, 128, 1]  |  data = 0, sizeInBytes = 65536  |  location = in DRAM  |  dramOffset = 0x310000000100  |  "
    }
  }
}
node {
  name: "module/model/29/transpose/24554_transpose_via_logical"
  op: "LogicalTranspose"
  input: "module/model/29/fused_scaled_dot_product_attention/dequant_output/reshape/24552"
  attr {
    key: "Bundle_idx"
    value {
      s: "N/A"
    }
  }
  attr {
    key: "Exec_idx"
    value {
      s: "67"
    }
  }
  attr {
    key: "Op_idx"
    value {
      s: "N/A"
    }
  }
  attr {
    key: "Parameters"
    value {
      s: "permutation: (0,2,1,3)"
    }
  }
  attr {
    key: "inputTensor:0"
    value {
      s: "tensor_121_id_277389_module/model/29/fused_scaled_dot_product_attention/dequant_output/aten__view  |  Sizes = [1,16,32,128]  |  hfloat8  |  expBias = 7, scale = 1  |    |  ModelParam = 0  |  strides = [65536, 65536, 4096, 128, 1]  |  data = 0, sizeInBytes = 65536  |  location = in DRAM  |  dramOffset = 0x310000000100  |  "
    }
  }
  attr {
    key: "outputTensor:0"
    value {
      s: "tensor_125_id_277394_module/model/29/aten__transpose  |  Sizes = [1,32,16,128]  |  hfloat8  |  expBias = 7, scale = 1  |    |  ModelParam = 0  |  strides = [65536, 65536, 128, 4096, 1]  |  data = 0, sizeInBytes = 65536  |  isAliased = tensor_121_id_277389_module/model/29/fused_scaled_dot_product_attention/dequant_output/aten__view, type = alias, offset: 0  |  location = in DRAM  |  isSparseLayout  |  "
    }
  }
}
node {
  name: "tensor_125_id_277394_module/model/29/aten__transpose_memcpy_381223_internal"
  op: "DmaMemcpy"
  input: "module/model/29/transpose/24554_transpose_via_logical"
  attr {
    key: "Bundle_idx"
    value {
      s: "N/A"
    }
  }
  attr {
    key: "Exec_idx"
    value {
      s: "68"
    }
  }
  attr {
    key: "Op_idx"
    value {
      s: "N/A"
    }
  }
  attr {
    key: "inputTensor:0"
    value {
      s: "tensor_125_id_277394_module/model/29/aten__transpose  |  Sizes = [1,32,16,128]  |  hfloat8  |  expBias = 7, scale = 1  |    |  ModelParam = 0  |  strides = [65536, 65536, 128, 4096, 1]  |  data = 0, sizeInBytes = 65536  |  isAliased = tensor_121_id_277389_module/model/29/fused_scaled_dot_product_attention/dequant_output/aten__view, type = alias, offset: 0  |  location = in DRAM  |  isSparseLayout  |  "
    }
  }
  attr {
    key: "outputTensor:0"
    value {
      s: "tensor_125_id_277394_module/model/29/aten__transpose_memcpy_381223  |  Sizes = [1,32,16,128]  |  hfloat8  |  expBias = 7, scale = 1  |    |  ModelParam = 0  |  strides = [65536, 65536, 2048, 128, 1]  |  data = 0, sizeInBytes = 65536  |  location = in DRAM  |  dramOffset = 0x0  |  "
    }
  }
}
node {
  name: "module/model/29/o_proj/quant_input_0/reshape/24556"
  op: "Reshape"
  input: "tensor_125_id_277394_module/model/29/aten__transpose_memcpy_381223_internal"
  attr {
    key: "Bundle_idx"
    value {
      s: "N/A"
    }
  }
  attr {
    key: "Exec_idx"
    value {
      s: "69"
    }
  }
  attr {
    key: "Op_idx"
    value {
      s: "N/A"
    }
  }
  attr {
    key: "inputTensor:0"
    value {
      s: "tensor_125_id_277394_module/model/29/aten__transpose_memcpy_381223  |  Sizes = [1,32,16,128]  |  hfloat8  |  expBias = 7, scale = 1  |    |  ModelParam = 0  |  strides = [65536, 65536, 2048, 128, 1]  |  data = 0, sizeInBytes = 65536  |  location = in DRAM  |  dramOffset = 0x0  |  "
    }
  }
  attr {
    key: "outputTensor:0"
    value {
      s: "tensor_131_c380562  |  Sizes = [1,32,2048]  |  hfloat8  |  expBias = 7, scale = 1  |    |  ModelParam = 0  |  strides = [65536, 65536, 2048, 1]  |  data = 0, sizeInBytes = 65536  |  isAliased = tensor_125_id_277394_module/model/29/aten__transpose_memcpy_381223, type = alias, offset: 0  |  location = in DRAM  |  "
    }
  }
}
node {
  name: "tensor_132_odule/model/29/o_proj/placeholder/1"
  op: "Placeholder"
  attr {
    key: "dtype"
    value {
      type: DT_INVALID
    }
  }
  attr {
    key: "shape"
    value {
      shape {
        dim {
          size: 8192
        }
        dim {
          size: 2048
        }
        dim {
          size: 1
        }
        dim {
          size: 1
        }
        dim {
          size: 1
        }
      }
    }
  }
  attr {
    key: "synDataType"
    value {
      s: "hfloat8"
    }
  }
}
node {
  name: "module/model/29/o_proj/fp8_gemm_bf16/24558_complex/fp8_gemm_bf16_5601/expand_dims_6"
  op: "ExpandDims"
  input: "tensor_132_odule/model/29/o_proj/placeholder/1"
  attr {
    key: "Bundle_idx"
    value {
      s: "N/A"
    }
  }
  attr {
    key: "Exec_idx"
    value {
      s: "70"
    }
  }
  attr {
    key: "Op_idx"
    value {
      s: "N/A"
    }
  }
  attr {
    key: "inputTensor:0"
    value {
      s: "tensor_132_odule/model/29/o_proj/placeholder/1  |  Sizes = [2048,8192]  |  hfloat8  |  expBias = 7, scale = 1  |    |  ModelParam = 0  |  strides = [16777216, 8192, 1]  |  data = 0, sizeInBytes = 16777216  |  isPersistent  |  location = in DRAM  |  dramOffset = 0x2d0000000000  |  userMemorySection(type=Persistent, id=45)  |  "
    }
  }
  attr {
    key: "outputTensor:0"
    value {
      s: "hf8-7_380641  |  Sizes = [1,2048,8192]  |  hfloat8  |  expBias = 7, scale = 1  |    |  ModelParam = 0  |  strides = [16777216, 16777216, 8192, 1]  |  data = 0, sizeInBytes = 16777216  |  isAliased = tensor_132_odule/model/29/o_proj/placeholder/1, type = alias, offset: 0  |  location = in DRAM  |  "
    }
  }
}
node {
  name: "module/model/29/o_proj/fp8_gemm_bf16/24558_complex/fp8_gemm_bf16_5601/batch_gemm_8_bundle_2101/op_0_gemm"
  op: "GEMM"
  input: "module/model/29/o_proj/quant_input_0/reshape/24556"
  input: "module/model/29/o_proj/fp8_gemm_bf16/24558_complex/fp8_gemm_bf16_5601/expand_dims_6"
  attr {
    key: "Bundle_idx"
    value {
      s: "2101"
    }
  }
  attr {
    key: "Exec_idx"
    value {
      s: "71"
    }
  }
  attr {
    key: "Op_idx"
    value {
      s: "0"
    }
  }
  attr {
    key: "Parameters"
    value {
      s: "transpose_a=false, transpose_b=false"
    }
  }
  attr {
    key: "fp8BiasIn"
    value {
      s: "7"
    }
  }
  attr {
    key: "fp8BiasIn2"
    value {
      s: "11"
    }
  }
  attr {
    key: "fp8BiasOut"
    value {
      s: "0"
    }
  }
  attr {
    key: "inputTensor:0"
    value {
      s: "tensor_131_c380562  |  Sizes = [1,32,2048]  |  hfloat8  |  expBias = 7, scale = 1  |    |  ModelParam = 0  |  strides = [65536, 65536, 2048, 1]  |  data = 0, sizeInBytes = 65536  |  isAliased = tensor_125_id_277394_module/model/29/aten__transpose_memcpy_381223, type = alias, offset: 0  |  location = in DRAM  |  "
    }
  }
  attr {
    key: "inputTensor:1"
    value {
      s: "hf8-7_380641  |  Sizes = [1,2048,8192]  |  hfloat8  |  expBias = 7, scale = 1  |    |  ModelParam = 0  |  strides = [16777216, 16777216, 8192, 1]  |  data = 0, sizeInBytes = 16777216  |  isAliased = tensor_132_odule/model/29/o_proj/placeholder/1, type = alias, offset: 0  |  location = in DRAM  |  "
    }
  }
  attr {
    key: "outputTensor:0"
    value {
      s: "tensor_136  |  Sizes = [1,32,8192]  |  bf16  |  expBias = 0, scale = 1  |    |  ModelParam = 0  |  strides = [524288, 524288, 16384, 2]  |  data = 0, sizeInBytes = 524288  |  isPersistent  |  location = in DRAM  |  dramOffset = 0x310000000000  |  userMemorySection(type=Persistent, id=49)  |  "
    }
  }
}
node {
  name: "tensor_136"
  op: "OutputTensor"
  input: "module/model/29/o_proj/fp8_gemm_bf16/24558_complex/fp8_gemm_bf16_5601/batch_gemm_8_bundle_2101/op_0_gemm"
  attr {
    key: "dtype"
    value {
      type: DT_BFLOAT16
    }
  }
  attr {
    key: "shape"
    value {
      shape {
        dim {
          size: 8192
        }
        dim {
          size: 32
        }
        dim {
          size: 1
        }
        dim {
          size: 1
        }
        dim {
          size: 1
        }
      }
    }
  }
  attr {
    key: "synDataType"
    value {
      s: "bf16"
    }
  }
}
