node {
  name: "tensor_0_odule/model/54/placeholder/0"
  op: "Placeholder"
  attr {
    key: "dtype"
    value {
      type: DT_BFLOAT16
    }
  }
  attr {
    key: "shape"
    value {
      shape {
        dim {
          size: 8192
        }
        dim {
          size: 128
        }
        dim {
          size: 1
        }
        dim {
          size: 1
        }
        dim {
          size: 1
        }
      }
    }
  }
  attr {
    key: "synDataType"
    value {
      s: "bf16"
    }
  }
}
node {
  name: "tensor_1_odule/model/54/placeholder/1"
  op: "Placeholder"
  attr {
    key: "dtype"
    value {
      type: DT_BFLOAT16
    }
  }
  attr {
    key: "shape"
    value {
      shape {
        dim {
          size: 8192
        }
        dim {
          size: 128
        }
        dim {
          size: 1
        }
        dim {
          size: 1
        }
        dim {
          size: 1
        }
      }
    }
  }
  attr {
    key: "synDataType"
    value {
      s: "bf16"
    }
  }
}
node {
  name: "module/model/54/add_fwd_bf16/20466"
  op: "add_fwd_bf16"
  input: "tensor_0_odule/model/54/placeholder/0"
  input: "tensor_1_odule/model/54/placeholder/1"
  attr {
    key: "Bundle_idx"
    value {
      s: "N/A"
    }
  }
  attr {
    key: "Exec_idx"
    value {
      s: "0"
    }
  }
  attr {
    key: "Op_idx"
    value {
      s: "N/A"
    }
  }
  attr {
    key: "inputTensor:0"
    value {
      s: "tensor_0_odule/model/54/placeholder/0  |  Sizes = [1,128,8192]  |  bf16  |  expBias = 0, scale = 1  |    |  ModelParam = 0  |  strides = [2097152, 2097152, 16384, 2]  |  data = 0, sizeInBytes = 2097152  |  isPersistent  |  userMemorySection(type=Persistent, id=4)  |  "
    }
  }
  attr {
    key: "inputTensor:1"
    value {
      s: "tensor_1_odule/model/54/placeholder/1  |  Sizes = [1,128,8192]  |  bf16  |  expBias = 0, scale = 1  |    |  ModelParam = 0  |  strides = [2097152, 2097152, 16384, 2]  |  data = 0, sizeInBytes = 2097152  |  isPersistent  |  userMemorySection(type=Persistent, id=5)  |  "
    }
  }
  attr {
    key: "outputTensor:0"
    value {
      s: "tensor_2  |  Sizes = [1,128,8192]  |  bf16  |  expBias = 0, scale = 1  |    |  ModelParam = 0  |  strides = [2097152, 2097152, 16384, 2]  |  data = 0, sizeInBytes = 2097152  |  isPersistent  |  userMemorySection(type=Persistent, id=4)  |  "
    }
  }
}
node {
  name: "tensor_3_odule/model/54/post_attention_layernorm/placeholder/1"
  op: "Placeholder"
  attr {
    key: "dtype"
    value {
      type: DT_BFLOAT16
    }
  }
  attr {
    key: "shape"
    value {
      shape {
        dim {
          size: 8192
        }
        dim {
          size: 1
        }
        dim {
          size: 1
        }
        dim {
          size: 1
        }
        dim {
          size: 1
        }
      }
    }
  }
  attr {
    key: "synDataType"
    value {
      s: "bf16"
    }
  }
}
node {
  name: "module/model/54/post_attention_layernorm/rms_norm_ex_fwd_bf16/20467"
  op: "rms_norm_ex_fwd_bf16"
  input: "module/model/54/add_fwd_bf16/20466"
  input: "tensor_3_odule/model/54/post_attention_layernorm/placeholder/1"
  attr {
    key: "Bundle_idx"
    value {
      s: "N/A"
    }
  }
  attr {
    key: "Exec_idx"
    value {
      s: "1"
    }
  }
  attr {
    key: "Op_idx"
    value {
      s: "N/A"
    }
  }
  attr {
    key: "inputTensor:0"
    value {
      s: "tensor_2  |  Sizes = [1,128,8192]  |  bf16  |  expBias = 0, scale = 1  |    |  ModelParam = 0  |  strides = [2097152, 2097152, 16384, 2]  |  data = 0, sizeInBytes = 2097152  |  isPersistent  |  userMemorySection(type=Persistent, id=4)  |  "
    }
  }
  attr {
    key: "inputTensor:1"
    value {
      s: "tensor_3_odule/model/54/post_attention_layernorm/placeholder/1  |  Sizes = [8192]  |  bf16  |  expBias = 0, scale = 1  |    |  ModelParam = 0  |  strides = [16384, 2]  |  data = 0, sizeInBytes = 16384  |  isPersistent  |  userMemorySection(type=Persistent, id=6)  |  "
    }
  }
  attr {
    key: "outputTensor:0"
    value {
      s: "tensor_6  |  Sizes = [1,128,8192]  |  bf16  |  expBias = 0, scale = 1  |    |  ModelParam = 0  |  strides = [2097152, 2097152, 16384, 2]  |  data = 0, sizeInBytes = 2097152  |  "
    }
  }
  attr {
    key: "outputTensor:1"
    value {
      s: "tensor_7  |  Sizes = [1,128,1]  |  float32  |  expBias = 0, scale = 1  |    |  ModelParam = 0  |  strides = [512, 512, 4, 4]  |  data = 0, sizeInBytes = 512  |  "
    }
  }
}
node {
  name: "tensor_7"
  op: "OutputTensor"
  input: "module/model/54/post_attention_layernorm/rms_norm_ex_fwd_bf16/20467"
  attr {
    key: "dtype"
    value {
      type: DT_FLOAT
    }
  }
  attr {
    key: "shape"
    value {
      shape {
        dim {
          size: 1
        }
        dim {
          size: 128
        }
        dim {
          size: 1
        }
        dim {
          size: 1
        }
        dim {
          size: 1
        }
      }
    }
  }
  attr {
    key: "synDataType"
    value {
      s: "float32"
    }
  }
}
node {
  name: "tensor_17_odule/model/54/gate_proj/quant_input_0/placeholder/1"
  op: "Placeholder"
  attr {
    key: "dtype"
    value {
      type: DT_BFLOAT16
    }
  }
  attr {
    key: "shape"
    value {
      shape {
        dim {
          size: 1
        }
        dim {
          size: 1
        }
        dim {
          size: 1
        }
        dim {
          size: 1
        }
        dim {
          size: 1
        }
      }
    }
  }
  attr {
    key: "synDataType"
    value {
      s: "bf16"
    }
  }
}
node {
  name: "module/model/54/gate_proj/quant_input_0/convert_to_fp8_bf16/20470"
  op: "convert_to_fp8_bf16"
  input: "module/model/54/post_attention_layernorm/rms_norm_ex_fwd_bf16/20467"
  input: "tensor_17_odule/model/54/gate_proj/quant_input_0/placeholder/1"
  attr {
    key: "Bundle_idx"
    value {
      s: "N/A"
    }
  }
  attr {
    key: "Exec_idx"
    value {
      s: "2"
    }
  }
  attr {
    key: "Op_idx"
    value {
      s: "N/A"
    }
  }
  attr {
    key: "inputTensor:0"
    value {
      s: "tensor_6  |  Sizes = [1,128,8192]  |  bf16  |  expBias = 0, scale = 1  |    |  ModelParam = 0  |  strides = [2097152, 2097152, 16384, 2]  |  data = 0, sizeInBytes = 2097152  |  "
    }
  }
  attr {
    key: "inputTensor:1"
    value {
      s: "tensor_17_odule/model/54/gate_proj/quant_input_0/placeholder/1  |  Sizes = [1]  |  bf16  |  expBias = 0, scale = 1  |    |  ModelParam = 0  |  strides = [2, 2]  |  data = 0x55db770f5ac8, sizeInBytes = 2  |  buffer = 1  |  isPersistent  |  userMemorySection(type=Persistent, id=11)  |  isStaticParam  |  bufferDtype=bf16  |  "
    }
  }
  attr {
    key: "outputTensor:0"
    value {
      s: "tensor_20  |  Sizes = [1,128,8192]  |  hfloat8  |  expBias = 7, scale = 1  |    |  ModelParam = 0  |  strides = [1048576, 1048576, 8192, 1]  |  data = 0, sizeInBytes = 1048576  |  "
    }
  }
}
node {
  name: "tensor_8_odule/model/54/up_proj/quant_input_0/placeholder/1"
  op: "Placeholder"
  attr {
    key: "dtype"
    value {
      type: DT_BFLOAT16
    }
  }
  attr {
    key: "shape"
    value {
      shape {
        dim {
          size: 1
        }
        dim {
          size: 1
        }
        dim {
          size: 1
        }
        dim {
          size: 1
        }
        dim {
          size: 1
        }
      }
    }
  }
  attr {
    key: "synDataType"
    value {
      s: "bf16"
    }
  }
}
node {
  name: "module/model/54/up_proj/quant_input_0/convert_to_fp8_bf16/20468"
  op: "convert_to_fp8_bf16"
  input: "module/model/54/post_attention_layernorm/rms_norm_ex_fwd_bf16/20467"
  input: "tensor_8_odule/model/54/up_proj/quant_input_0/placeholder/1"
  attr {
    key: "Bundle_idx"
    value {
      s: "N/A"
    }
  }
  attr {
    key: "Exec_idx"
    value {
      s: "3"
    }
  }
  attr {
    key: "Op_idx"
    value {
      s: "N/A"
    }
  }
  attr {
    key: "inputTensor:0"
    value {
      s: "tensor_6  |  Sizes = [1,128,8192]  |  bf16  |  expBias = 0, scale = 1  |    |  ModelParam = 0  |  strides = [2097152, 2097152, 16384, 2]  |  data = 0, sizeInBytes = 2097152  |  "
    }
  }
  attr {
    key: "inputTensor:1"
    value {
      s: "tensor_8_odule/model/54/up_proj/quant_input_0/placeholder/1  |  Sizes = [1]  |  bf16  |  expBias = 0, scale = 1  |    |  ModelParam = 0  |  strides = [2, 2]  |  data = 0x55db794f4f18, sizeInBytes = 2  |  buffer = 1  |  isPersistent  |  userMemorySection(type=Persistent, id=7)  |  isStaticParam  |  bufferDtype=bf16  |  "
    }
  }
  attr {
    key: "outputTensor:0"
    value {
      s: "tensor_11  |  Sizes = [1,128,8192]  |  hfloat8  |  expBias = 7, scale = 1  |    |  ModelParam = 0  |  strides = [1048576, 1048576, 8192, 1]  |  data = 0, sizeInBytes = 1048576  |  "
    }
  }
}
node {
  name: "tensor_21_odule/model/54/gate_proj/placeholder/1"
  op: "Placeholder"
  attr {
    key: "dtype"
    value {
      type: DT_INVALID
    }
  }
  attr {
    key: "shape"
    value {
      shape {
        dim {
          size: 7168
        }
        dim {
          size: 8192
        }
        dim {
          size: 1
        }
        dim {
          size: 1
        }
        dim {
          size: 1
        }
      }
    }
  }
  attr {
    key: "synDataType"
    value {
      s: "hfloat8"
    }
  }
}
node {
  name: "tensor_22_odule/model/54/gate_proj/placeholder/2"
  op: "Placeholder"
  attr {
    key: "dtype"
    value {
      type: DT_BFLOAT16
    }
  }
  attr {
    key: "shape"
    value {
      shape {
        dim {
          size: 1
        }
        dim {
          size: 1
        }
        dim {
          size: 1
        }
        dim {
          size: 1
        }
        dim {
          size: 1
        }
      }
    }
  }
  attr {
    key: "synDataType"
    value {
      s: "bf16"
    }
  }
}
node {
  name: "tensor_23_odule/model/54/gate_proj/placeholder/3"
  op: "Placeholder"
  attr {
    key: "dtype"
    value {
      type: DT_BFLOAT16
    }
  }
  attr {
    key: "shape"
    value {
      shape {
        dim {
          size: 1
        }
        dim {
          size: 1
        }
        dim {
          size: 1
        }
        dim {
          size: 1
        }
        dim {
          size: 1
        }
      }
    }
  }
  attr {
    key: "synDataType"
    value {
      s: "bf16"
    }
  }
}
node {
  name: "module/model/54/gate_proj/fp8_gemm_bf16/20471"
  op: "fp8_gemm_bf16"
  input: "module/model/54/gate_proj/quant_input_0/convert_to_fp8_bf16/20470"
  input: "tensor_21_odule/model/54/gate_proj/placeholder/1"
  input: "tensor_22_odule/model/54/gate_proj/placeholder/2"
  input: "tensor_23_odule/model/54/gate_proj/placeholder/3"
  input: "unused_port"
  input: "unused_port"
  input: "unused_port"
  attr {
    key: "Bundle_idx"
    value {
      s: "N/A"
    }
  }
  attr {
    key: "Exec_idx"
    value {
      s: "4"
    }
  }
  attr {
    key: "Op_idx"
    value {
      s: "N/A"
    }
  }
  attr {
    key: "inputTensor:0"
    value {
      s: "tensor_20  |  Sizes = [1,128,8192]  |  hfloat8  |  expBias = 7, scale = 1  |    |  ModelParam = 0  |  strides = [1048576, 1048576, 8192, 1]  |  data = 0, sizeInBytes = 1048576  |  "
    }
  }
  attr {
    key: "inputTensor:1"
    value {
      s: "tensor_21_odule/model/54/gate_proj/placeholder/1  |  Sizes = [8192,7168]  |  hfloat8  |  expBias = 7, scale = 1  |    |  ModelParam = 0  |  strides = [58720256, 7168, 1]  |  data = 0, sizeInBytes = 58720256  |  isPersistent  |  userMemorySection(type=Persistent, id=12)  |  "
    }
  }
  attr {
    key: "inputTensor:2"
    value {
      s: "tensor_22_odule/model/54/gate_proj/placeholder/2  |  Sizes = [1]  |  bf16  |  expBias = 0, scale = 1  |    |  ModelParam = 0  |  strides = [2, 2]  |  data = 0x55db694f66f8, sizeInBytes = 2  |  buffer = 1  |  isPersistent  |  userMemorySection(type=Persistent, id=13)  |  isStaticParam  |  bufferDtype=bf16  |  "
    }
  }
  attr {
    key: "inputTensor:3"
    value {
      s: "tensor_23_odule/model/54/gate_proj/placeholder/3  |  Sizes = [1]  |  bf16  |  expBias = 0, scale = 1  |    |  ModelParam = 0  |  strides = [2, 2]  |  data = 0x55db67922e08, sizeInBytes = 2  |  buffer = 0.00390625  |  isPersistent  |  userMemorySection(type=Persistent, id=14)  |  isStaticParam  |  bufferDtype=bf16  |  "
    }
  }
  attr {
    key: "outputTensor:0"
    value {
      s: "tensor_25  |  Sizes = [1,128,7168]  |  bf16  |  expBias = 0, scale = 1  |    |  ModelParam = 0  |  strides = [1835008, 1835008, 14336, 2]  |  data = 0, sizeInBytes = 1835008  |  "
    }
  }
}
node {
  name: "tensor_12_odule/model/54/up_proj/placeholder/1"
  op: "Placeholder"
  attr {
    key: "dtype"
    value {
      type: DT_INVALID
    }
  }
  attr {
    key: "shape"
    value {
      shape {
        dim {
          size: 7168
        }
        dim {
          size: 8192
        }
        dim {
          size: 1
        }
        dim {
          size: 1
        }
        dim {
          size: 1
        }
      }
    }
  }
  attr {
    key: "synDataType"
    value {
      s: "hfloat8"
    }
  }
}
node {
  name: "tensor_13_odule/model/54/up_proj/placeholder/2"
  op: "Placeholder"
  attr {
    key: "dtype"
    value {
      type: DT_BFLOAT16
    }
  }
  attr {
    key: "shape"
    value {
      shape {
        dim {
          size: 1
        }
        dim {
          size: 1
        }
        dim {
          size: 1
        }
        dim {
          size: 1
        }
        dim {
          size: 1
        }
      }
    }
  }
  attr {
    key: "synDataType"
    value {
      s: "bf16"
    }
  }
}
node {
  name: "tensor_14_odule/model/54/up_proj/placeholder/3"
  op: "Placeholder"
  attr {
    key: "dtype"
    value {
      type: DT_BFLOAT16
    }
  }
  attr {
    key: "shape"
    value {
      shape {
        dim {
          size: 1
        }
        dim {
          size: 1
        }
        dim {
          size: 1
        }
        dim {
          size: 1
        }
        dim {
          size: 1
        }
      }
    }
  }
  attr {
    key: "synDataType"
    value {
      s: "bf16"
    }
  }
}
node {
  name: "module/model/54/up_proj/fp8_gemm_bf16/20469"
  op: "fp8_gemm_bf16"
  input: "module/model/54/up_proj/quant_input_0/convert_to_fp8_bf16/20468"
  input: "tensor_12_odule/model/54/up_proj/placeholder/1"
  input: "tensor_13_odule/model/54/up_proj/placeholder/2"
  input: "tensor_14_odule/model/54/up_proj/placeholder/3"
  input: "unused_port"
  input: "unused_port"
  input: "unused_port"
  attr {
    key: "Bundle_idx"
    value {
      s: "N/A"
    }
  }
  attr {
    key: "Exec_idx"
    value {
      s: "5"
    }
  }
  attr {
    key: "Op_idx"
    value {
      s: "N/A"
    }
  }
  attr {
    key: "inputTensor:0"
    value {
      s: "tensor_11  |  Sizes = [1,128,8192]  |  hfloat8  |  expBias = 7, scale = 1  |    |  ModelParam = 0  |  strides = [1048576, 1048576, 8192, 1]  |  data = 0, sizeInBytes = 1048576  |  "
    }
  }
  attr {
    key: "inputTensor:1"
    value {
      s: "tensor_12_odule/model/54/up_proj/placeholder/1  |  Sizes = [8192,7168]  |  hfloat8  |  expBias = 7, scale = 1  |    |  ModelParam = 0  |  strides = [58720256, 7168, 1]  |  data = 0, sizeInBytes = 58720256  |  isPersistent  |  userMemorySection(type=Persistent, id=8)  |  "
    }
  }
  attr {
    key: "inputTensor:2"
    value {
      s: "tensor_13_odule/model/54/up_proj/placeholder/2  |  Sizes = [1]  |  bf16  |  expBias = 0, scale = 1  |    |  ModelParam = 0  |  strides = [2, 2]  |  data = 0x55db63eddf20, sizeInBytes = 2  |  buffer = 1  |  isPersistent  |  userMemorySection(type=Persistent, id=9)  |  isStaticParam  |  bufferDtype=bf16  |  "
    }
  }
  attr {
    key: "inputTensor:3"
    value {
      s: "tensor_14_odule/model/54/up_proj/placeholder/3  |  Sizes = [1]  |  bf16  |  expBias = 0, scale = 1  |    |  ModelParam = 0  |  strides = [2, 2]  |  data = 0x55db72037388, sizeInBytes = 2  |  buffer = 0.00390625  |  isPersistent  |  userMemorySection(type=Persistent, id=10)  |  isStaticParam  |  bufferDtype=bf16  |  "
    }
  }
  attr {
    key: "outputTensor:0"
    value {
      s: "tensor_16  |  Sizes = [1,128,7168]  |  bf16  |  expBias = 0, scale = 1  |    |  ModelParam = 0  |  strides = [1835008, 1835008, 14336, 2]  |  data = 0, sizeInBytes = 1835008  |  "
    }
  }
}
node {
  name: "module/model/54/act_fn/silu_fwd_bf16/20472"
  op: "silu_fwd_bf16"
  input: "module/model/54/gate_proj/fp8_gemm_bf16/20471"
  attr {
    key: "Bundle_idx"
    value {
      s: "N/A"
    }
  }
  attr {
    key: "Exec_idx"
    value {
      s: "6"
    }
  }
  attr {
    key: "Op_idx"
    value {
      s: "N/A"
    }
  }
  attr {
    key: "inputTensor:0"
    value {
      s: "tensor_25  |  Sizes = [1,128,7168]  |  bf16  |  expBias = 0, scale = 1  |    |  ModelParam = 0  |  strides = [1835008, 1835008, 14336, 2]  |  data = 0, sizeInBytes = 1835008  |  "
    }
  }
  attr {
    key: "outputTensor:0"
    value {
      s: "tensor_26_id_112418_module/model/54/act_fn/aten__silu  |  Sizes = [1,128,7168]  |  bf16  |  expBias = 0, scale = 1  |    |  ModelParam = 0  |  strides = [1835008, 1835008, 14336, 2]  |  data = 0, sizeInBytes = 1835008  |  "
    }
  }
}
node {
  name: "module/model/54/mult_fwd_bf16/20473"
  op: "mult_fwd_bf16"
  input: "module/model/54/act_fn/silu_fwd_bf16/20472"
  input: "module/model/54/up_proj/fp8_gemm_bf16/20469"
  attr {
    key: "Bundle_idx"
    value {
      s: "N/A"
    }
  }
  attr {
    key: "Exec_idx"
    value {
      s: "7"
    }
  }
  attr {
    key: "Op_idx"
    value {
      s: "N/A"
    }
  }
  attr {
    key: "inputTensor:0"
    value {
      s: "tensor_26_id_112418_module/model/54/act_fn/aten__silu  |  Sizes = [1,128,7168]  |  bf16  |  expBias = 0, scale = 1  |    |  ModelParam = 0  |  strides = [1835008, 1835008, 14336, 2]  |  data = 0, sizeInBytes = 1835008  |  "
    }
  }
  attr {
    key: "inputTensor:1"
    value {
      s: "tensor_16  |  Sizes = [1,128,7168]  |  bf16  |  expBias = 0, scale = 1  |    |  ModelParam = 0  |  strides = [1835008, 1835008, 14336, 2]  |  data = 0, sizeInBytes = 1835008  |  "
    }
  }
  attr {
    key: "outputTensor:0"
    value {
      s: "tensor_27_id_112433_module/model/54/aten__mul  |  Sizes = [1,128,7168]  |  bf16  |  expBias = 0, scale = 1  |    |  ModelParam = 0  |  strides = [1835008, 1835008, 14336, 2]  |  data = 0, sizeInBytes = 1835008  |  "
    }
  }
}
node {
  name: "tensor_28_odule/model/54/down_proj/quant_input_0/placeholder/1"
  op: "Placeholder"
  attr {
    key: "dtype"
    value {
      type: DT_BFLOAT16
    }
  }
  attr {
    key: "shape"
    value {
      shape {
        dim {
          size: 1
        }
        dim {
          size: 1
        }
        dim {
          size: 1
        }
        dim {
          size: 1
        }
        dim {
          size: 1
        }
      }
    }
  }
  attr {
    key: "synDataType"
    value {
      s: "bf16"
    }
  }
}
node {
  name: "module/model/54/down_proj/quant_input_0/convert_to_fp8_bf16/20474"
  op: "convert_to_fp8_bf16"
  input: "module/model/54/mult_fwd_bf16/20473"
  input: "tensor_28_odule/model/54/down_proj/quant_input_0/placeholder/1"
  attr {
    key: "Bundle_idx"
    value {
      s: "N/A"
    }
  }
  attr {
    key: "Exec_idx"
    value {
      s: "8"
    }
  }
  attr {
    key: "Op_idx"
    value {
      s: "N/A"
    }
  }
  attr {
    key: "inputTensor:0"
    value {
      s: "tensor_27_id_112433_module/model/54/aten__mul  |  Sizes = [1,128,7168]  |  bf16  |  expBias = 0, scale = 1  |    |  ModelParam = 0  |  strides = [1835008, 1835008, 14336, 2]  |  data = 0, sizeInBytes = 1835008  |  "
    }
  }
  attr {
    key: "inputTensor:1"
    value {
      s: "tensor_28_odule/model/54/down_proj/quant_input_0/placeholder/1  |  Sizes = [1]  |  bf16  |  expBias = 0, scale = 1  |    |  ModelParam = 0  |  strides = [2, 2]  |  data = 0x55db770f5468, sizeInBytes = 2  |  buffer = 1  |  isPersistent  |  userMemorySection(type=Persistent, id=15)  |  isStaticParam  |  bufferDtype=bf16  |  "
    }
  }
  attr {
    key: "outputTensor:0"
    value {
      s: "tensor_31  |  Sizes = [1,128,7168]  |  hfloat8  |  expBias = 7, scale = 1  |    |  ModelParam = 0  |  strides = [917504, 917504, 7168, 1]  |  data = 0, sizeInBytes = 917504  |  "
    }
  }
}
node {
  name: "tensor_32_odule/model/54/down_proj/placeholder/1"
  op: "Placeholder"
  attr {
    key: "dtype"
    value {
      type: DT_INVALID
    }
  }
  attr {
    key: "shape"
    value {
      shape {
        dim {
          size: 8192
        }
        dim {
          size: 7168
        }
        dim {
          size: 1
        }
        dim {
          size: 1
        }
        dim {
          size: 1
        }
      }
    }
  }
  attr {
    key: "synDataType"
    value {
      s: "hfloat8"
    }
  }
}
node {
  name: "tensor_33_odule/model/54/down_proj/placeholder/2"
  op: "Placeholder"
  attr {
    key: "dtype"
    value {
      type: DT_BFLOAT16
    }
  }
  attr {
    key: "shape"
    value {
      shape {
        dim {
          size: 1
        }
        dim {
          size: 1
        }
        dim {
          size: 1
        }
        dim {
          size: 1
        }
        dim {
          size: 1
        }
      }
    }
  }
  attr {
    key: "synDataType"
    value {
      s: "bf16"
    }
  }
}
node {
  name: "tensor_34_odule/model/54/down_proj/placeholder/3"
  op: "Placeholder"
  attr {
    key: "dtype"
    value {
      type: DT_BFLOAT16
    }
  }
  attr {
    key: "shape"
    value {
      shape {
        dim {
          size: 1
        }
        dim {
          size: 1
        }
        dim {
          size: 1
        }
        dim {
          size: 1
        }
        dim {
          size: 1
        }
      }
    }
  }
  attr {
    key: "synDataType"
    value {
      s: "bf16"
    }
  }
}
node {
  name: "module/model/54/down_proj/fp8_gemm_bf16/20475"
  op: "fp8_gemm_bf16"
  input: "module/model/54/down_proj/quant_input_0/convert_to_fp8_bf16/20474"
  input: "tensor_32_odule/model/54/down_proj/placeholder/1"
  input: "tensor_33_odule/model/54/down_proj/placeholder/2"
  input: "tensor_34_odule/model/54/down_proj/placeholder/3"
  input: "unused_port"
  input: "unused_port"
  input: "unused_port"
  attr {
    key: "Bundle_idx"
    value {
      s: "N/A"
    }
  }
  attr {
    key: "Exec_idx"
    value {
      s: "9"
    }
  }
  attr {
    key: "Op_idx"
    value {
      s: "N/A"
    }
  }
  attr {
    key: "inputTensor:0"
    value {
      s: "tensor_31  |  Sizes = [1,128,7168]  |  hfloat8  |  expBias = 7, scale = 1  |    |  ModelParam = 0  |  strides = [917504, 917504, 7168, 1]  |  data = 0, sizeInBytes = 917504  |  "
    }
  }
  attr {
    key: "inputTensor:1"
    value {
      s: "tensor_32_odule/model/54/down_proj/placeholder/1  |  Sizes = [7168,8192]  |  hfloat8  |  expBias = 7, scale = 1  |    |  ModelParam = 0  |  strides = [58720256, 8192, 1]  |  data = 0, sizeInBytes = 58720256  |  isPersistent  |  userMemorySection(type=Persistent, id=16)  |  "
    }
  }
  attr {
    key: "inputTensor:2"
    value {
      s: "tensor_33_odule/model/54/down_proj/placeholder/2  |  Sizes = [1]  |  bf16  |  expBias = 0, scale = 1  |    |  ModelParam = 0  |  strides = [2, 2]  |  data = 0x55db770f5410, sizeInBytes = 2  |  buffer = 1  |  isPersistent  |  userMemorySection(type=Persistent, id=17)  |  isStaticParam  |  bufferDtype=bf16  |  "
    }
  }
  attr {
    key: "inputTensor:3"
    value {
      s: "tensor_34_odule/model/54/down_proj/placeholder/3  |  Sizes = [1]  |  bf16  |  expBias = 0, scale = 1  |    |  ModelParam = 0  |  strides = [2, 2]  |  data = 0x55db770f5718, sizeInBytes = 2  |  buffer = 0.00390625  |  isPersistent  |  userMemorySection(type=Persistent, id=18)  |  isStaticParam  |  bufferDtype=bf16  |  "
    }
  }
  attr {
    key: "outputTensor:0"
    value {
      s: "tensor_36  |  Sizes = [1,128,8192]  |  bf16  |  expBias = 0, scale = 1  |    |  ModelParam = 0  |  strides = [2097152, 2097152, 16384, 2]  |  data = 0, sizeInBytes = 2097152  |  isPersistent  |  userMemorySection(type=Persistent, id=20)  |  "
    }
  }
}
node {
  name: "tensor_36"
  op: "OutputTensor"
  input: "module/model/54/down_proj/fp8_gemm_bf16/20475"
  attr {
    key: "dtype"
    value {
      type: DT_BFLOAT16
    }
  }
  attr {
    key: "shape"
    value {
      shape {
        dim {
          size: 8192
        }
        dim {
          size: 128
        }
        dim {
          size: 1
        }
        dim {
          size: 1
        }
        dim {
          size: 1
        }
      }
    }
  }
  attr {
    key: "synDataType"
    value {
      s: "bf16"
    }
  }
}
