node {
  name: "tensor_4_odule/model/31/placeholder/0"
  op: "Placeholder"
  attr {
    key: "dtype"
    value {
      type: DT_INT32
    }
  }
  attr {
    key: "shape"
    value {
      shape {
        dim {
          size: 284
        }
        dim {
          size: 1
        }
        dim {
          size: 1
        }
        dim {
          size: 1
        }
        dim {
          size: 1
        }
      }
    }
  }
  attr {
    key: "synDataType"
    value {
      s: "int32"
    }
  }
}
node {
  name: "module/model/31/expand_dims/2747"
  op: "ExpandDims"
  input: "tensor_4_odule/model/31/placeholder/0"
  attr {
    key: "Bundle_idx"
    value {
      s: "N/A"
    }
  }
  attr {
    key: "Exec_idx"
    value {
      s: "0"
    }
  }
  attr {
    key: "Op_idx"
    value {
      s: "N/A"
    }
  }
  attr {
    key: "inputTensor:0"
    value {
      s: "tensor_4_odule/model/31/placeholder/0  |  Sizes = [284]  |  int32  |  expBias = 0, scale = 1  |    |  ModelParam = 0  |  strides = [1136, 4]  |  data = 0, sizeInBytes = 1136  |  isPersistent  |  location = in DRAM  |  dramOffset = 0x50000000000  |  userMemorySection(type=Persistent, id=5)  |  "
    }
  }
  attr {
    key: "outputTensor:0"
    value {
      s: "tensor_5_id_80357_module/model/31/aten__unsqueeze/1  |  Sizes = [1,284]  |  int32  |  expBias = 0, scale = 1  |    |  ModelParam = 0  |  strides = [1136, 1136, 4]  |  data = 0, sizeInBytes = 1136  |  isAliased = tensor_4_odule/model/31/placeholder/0, type = alias, offset: 0  |  location = in DRAM  |  "
    }
  }
}
node {
  name: "tensor_6_odule/model/31/rotary_emb/placeholder/0"
  op: "Placeholder"
  attr {
    key: "dtype"
    value {
      type: DT_BFLOAT16
    }
  }
  attr {
    key: "shape"
    value {
      shape {
        dim {
          size: 128
        }
        dim {
          size: 131072
        }
        dim {
          size: 1
        }
        dim {
          size: 1
        }
        dim {
          size: 1
        }
      }
    }
  }
  attr {
    key: "synDataType"
    value {
      s: "bf16"
    }
  }
}
node {
  name: "module/model/31/rotary_emb/slice/2748"
  op: "Slice"
  input: "tensor_6_odule/model/31/rotary_emb/placeholder/0"
  attr {
    key: "Bundle_idx"
    value {
      s: "N/A"
    }
  }
  attr {
    key: "Exec_idx"
    value {
      s: "1"
    }
  }
  attr {
    key: "Op_idx"
    value {
      s: "N/A"
    }
  }
  attr {
    key: "inputTensor:0"
    value {
      s: "tensor_6_odule/model/31/rotary_emb/placeholder/0  |  Sizes = [131072,128]  |  bf16  |  expBias = 0, scale = 1  |    |  ModelParam = 0  |  strides = [33554432, 256, 2]  |  data = 0, sizeInBytes = 33554432  |  isPersistent  |  location = in DRAM  |  dramOffset = 0x60000000000  |  userMemorySection(type=Persistent, id=6)  |  "
    }
  }
  attr {
    key: "outputTensor:0"
    value {
      s: "tensor_7_id_80420_module/model/31/rotary_emb/aten__slice  |  Sizes = [284,128]  |  bf16  |  expBias = 0, scale = 1  |    |  ModelParam = 0  |  strides = [33554432, 256, 2]  |  data = 0, sizeInBytes = 72704  |  isAliased = tensor_6_odule/model/31/rotary_emb/placeholder/0, type = slice, offset: 0  |  location = in DRAM  |  "
    }
  }
}
node {
  name: "tensor_8_odule/model/31/rotary_emb/placeholder/1"
  op: "Placeholder"
  attr {
    key: "dtype"
    value {
      type: DT_FLOAT
    }
  }
  attr {
    key: "shape"
    value {
      shape {
        dim {
          size: 1
        }
        dim {
          size: 1
        }
        dim {
          size: 1
        }
        dim {
          size: 1
        }
        dim {
          size: 1
        }
      }
    }
  }
  attr {
    key: "synDataType"
    value {
      s: "float32"
    }
  }
}
node {
  name: "module/model/31/rotary_emb/cast_f32_to_bf16/2749"
  op: "cast_f32_to_bf16"
  input: "tensor_8_odule/model/31/rotary_emb/placeholder/1"
  attr {
    key: "Bundle_idx"
    value {
      s: "N/A"
    }
  }
  attr {
    key: "Exec_idx"
    value {
      s: "2"
    }
  }
  attr {
    key: "Op_idx"
    value {
      s: "N/A"
    }
  }
  attr {
    key: "inputTensor:0"
    value {
      s: "tensor_8_odule/model/31/rotary_emb/placeholder/1  |  Sizes = [1]  |  float32  |  expBias = 0, scale = 1  |    |  ModelParam = 0  |  strides = [4, 4]  |  data = 0, sizeInBytes = 4  |  isPersistent  |  location = in DRAM  |  dramOffset = 0x70000000000  |  userMemorySection(type=Persistent, id=7)  |  "
    }
  }
  attr {
    key: "outputTensor:0"
    value {
      s: "tensor_10  |  Sizes = [1]  |  bf16  |  expBias = 0, scale = 1  |    |  ModelParam = 0  |  strides = [2, 2]  |  data = 0, sizeInBytes = 2  |  location = in DRAM  |  dramOffset = 0x40000000000  |  "
    }
  }
}
node {
  name: "module/model/31/rotary_emb/mult_fwd_bf16/2750_complex/mult_fwd_bf16_0"
  op: "mult_fwd_bf16"
  input: "module/model/31/rotary_emb/slice/2748"
  input: "module/model/31/rotary_emb/cast_f32_to_bf16/2749"
  attr {
    key: "Bundle_idx"
    value {
      s: "N/A"
    }
  }
  attr {
    key: "Exec_idx"
    value {
      s: "3"
    }
  }
  attr {
    key: "Op_idx"
    value {
      s: "N/A"
    }
  }
  attr {
    key: "inputTensor:0"
    value {
      s: "tensor_7_id_80420_module/model/31/rotary_emb/aten__slice  |  Sizes = [284,128]  |  bf16  |  expBias = 0, scale = 1  |    |  ModelParam = 0  |  strides = [33554432, 256, 2]  |  data = 0, sizeInBytes = 72704  |  isAliased = tensor_6_odule/model/31/rotary_emb/placeholder/0, type = slice, offset: 0  |  location = in DRAM  |  "
    }
  }
  attr {
    key: "inputTensor:1"
    value {
      s: "tensor_10  |  Sizes = [1]  |  bf16  |  expBias = 0, scale = 1  |    |  ModelParam = 0  |  strides = [2, 2]  |  data = 0, sizeInBytes = 2  |  location = in DRAM  |  dramOffset = 0x40000000000  |  "
    }
  }
  attr {
    key: "outputTensor:0"
    value {
      s: "tensor_9_id_80422_module/model/31/rotary_emb/aten__mul  |  Sizes = [284,128]  |  bf16  |  expBias = 0, scale = 1  |    |  ModelParam = 0  |  strides = [72704, 256, 2]  |  data = 0, sizeInBytes = 72704  |  location = in DRAM  |  dramOffset = 0x40000000080  |  "
    }
  }
}
node {
  name: "tensor_14_odule/model/31/rotary_emb/placeholder/0"
  op: "Placeholder"
  attr {
    key: "dtype"
    value {
      type: DT_BFLOAT16
    }
  }
  attr {
    key: "shape"
    value {
      shape {
        dim {
          size: 128
        }
        dim {
          size: 131072
        }
        dim {
          size: 1
        }
        dim {
          size: 1
        }
        dim {
          size: 1
        }
      }
    }
  }
  attr {
    key: "synDataType"
    value {
      s: "bf16"
    }
  }
}
node {
  name: "module/model/31/rotary_emb/slice/2754"
  op: "Slice"
  input: "tensor_14_odule/model/31/rotary_emb/placeholder/0"
  attr {
    key: "Bundle_idx"
    value {
      s: "N/A"
    }
  }
  attr {
    key: "Exec_idx"
    value {
      s: "4"
    }
  }
  attr {
    key: "Op_idx"
    value {
      s: "N/A"
    }
  }
  attr {
    key: "inputTensor:0"
    value {
      s: "tensor_14_odule/model/31/rotary_emb/placeholder/0  |  Sizes = [131072,128]  |  bf16  |  expBias = 0, scale = 1  |    |  ModelParam = 0  |  strides = [33554432, 256, 2]  |  data = 0, sizeInBytes = 33554432  |  isPersistent  |  location = in DRAM  |  dramOffset = 0x80000000000  |  userMemorySection(type=Persistent, id=8)  |  "
    }
  }
  attr {
    key: "outputTensor:0"
    value {
      s: "tensor_15_id_80424_module/model/31/rotary_emb/aten__slice  |  Sizes = [284,128]  |  bf16  |  expBias = 0, scale = 1  |    |  ModelParam = 0  |  strides = [33554432, 256, 2]  |  data = 0, sizeInBytes = 72704  |  isAliased = tensor_14_odule/model/31/rotary_emb/placeholder/0, type = slice, offset: 0  |  location = in DRAM  |  "
    }
  }
}
node {
  name: "module/model/31/rotary_emb/mult_fwd_bf16/2756_complex/mult_fwd_bf16_0"
  op: "mult_fwd_bf16"
  input: "module/model/31/rotary_emb/slice/2754"
  input: "module/model/31/rotary_emb/cast_f32_to_bf16/2749"
  attr {
    key: "Bundle_idx"
    value {
      s: "N/A"
    }
  }
  attr {
    key: "Exec_idx"
    value {
      s: "5"
    }
  }
  attr {
    key: "Op_idx"
    value {
      s: "N/A"
    }
  }
  attr {
    key: "inputTensor:0"
    value {
      s: "tensor_15_id_80424_module/model/31/rotary_emb/aten__slice  |  Sizes = [284,128]  |  bf16  |  expBias = 0, scale = 1  |    |  ModelParam = 0  |  strides = [33554432, 256, 2]  |  data = 0, sizeInBytes = 72704  |  isAliased = tensor_14_odule/model/31/rotary_emb/placeholder/0, type = slice, offset: 0  |  location = in DRAM  |  "
    }
  }
  attr {
    key: "inputTensor:1"
    value {
      s: "tensor_10  |  Sizes = [1]  |  bf16  |  expBias = 0, scale = 1  |    |  ModelParam = 0  |  strides = [2, 2]  |  data = 0, sizeInBytes = 2  |  location = in DRAM  |  dramOffset = 0x40000000000  |  "
    }
  }
  attr {
    key: "outputTensor:0"
    value {
      s: "tensor_16_id_80426_module/model/31/rotary_emb/aten__mul  |  Sizes = [284,128]  |  bf16  |  expBias = 0, scale = 1  |    |  ModelParam = 0  |  strides = [72704, 256, 2]  |  data = 0, sizeInBytes = 72704  |  location = in DRAM  |  dramOffset = 0x40000011c80  |  "
    }
  }
}
node {
  name: "tensor_21_odule/model/31/input_layernorm/placeholder/0"
  op: "Placeholder"
  attr {
    key: "dtype"
    value {
      type: DT_BFLOAT16
    }
  }
  attr {
    key: "shape"
    value {
      shape {
        dim {
          size: 4096
        }
        dim {
          size: 284
        }
        dim {
          size: 1
        }
        dim {
          size: 1
        }
        dim {
          size: 1
        }
      }
    }
  }
  attr {
    key: "synDataType"
    value {
      s: "bf16"
    }
  }
}
node {
  name: "module/model/31/input_layernorm/rms_norm_ex_fwd_bf16/2760_complex/rms_norm_ex_fwd_bf16_125/reshape_4"
  op: "Reshape"
  input: "tensor_21_odule/model/31/input_layernorm/placeholder/0"
  attr {
    key: "Bundle_idx"
    value {
      s: "N/A"
    }
  }
  attr {
    key: "Exec_idx"
    value {
      s: "6"
    }
  }
  attr {
    key: "Op_idx"
    value {
      s: "N/A"
    }
  }
  attr {
    key: "inputTensor:0"
    value {
      s: "tensor_21_odule/model/31/input_layernorm/placeholder/0  |  Sizes = [1,284,4096]  |  bf16  |  expBias = 0, scale = 1  |    |  ModelParam = 0  |  strides = [2326528, 2326528, 8192, 2]  |  data = 0, sizeInBytes = 2326528  |  isPersistent  |  location = in DRAM  |  dramOffset = 0x90000000000  |  userMemorySection(type=Persistent, id=9)  |  "
    }
  }
  attr {
    key: "outputTensor:0"
    value {
      s: "bf16-5_33717  |  Sizes = [284,4096]  |  bf16  |  expBias = 0, scale = 1  |    |  ModelParam = 0  |  strides = [2326528, 8192, 2]  |  data = 0, sizeInBytes = 2326528  |  isAliased = tensor_21_odule/model/31/input_layernorm/placeholder/0, type = alias, offset: 0  |  location = in DRAM  |  "
    }
  }
}
node {
  name: "tensor_31_odule/model/31/k_proj/placeholder/1"
  op: "Placeholder"
  attr {
    key: "dtype"
    value {
      type: DT_INVALID
    }
  }
  attr {
    key: "shape"
    value {
      shape {
        dim {
          size: 1024
        }
        dim {
          size: 4096
        }
        dim {
          size: 1
        }
        dim {
          size: 1
        }
        dim {
          size: 1
        }
      }
    }
  }
  attr {
    key: "synDataType"
    value {
      s: "hfloat8"
    }
  }
}
node {
  name: "module/model/31/k_proj/fp8_gemm_bf16/2762_complex/fp8_gemm_bf16_497/expand_dims_6"
  op: "ExpandDims"
  input: "tensor_31_odule/model/31/k_proj/placeholder/1"
  attr {
    key: "Bundle_idx"
    value {
      s: "N/A"
    }
  }
  attr {
    key: "Exec_idx"
    value {
      s: "7"
    }
  }
  attr {
    key: "Op_idx"
    value {
      s: "N/A"
    }
  }
  attr {
    key: "inputTensor:0"
    value {
      s: "tensor_31_odule/model/31/k_proj/placeholder/1  |  Sizes = [4096,1024]  |  hfloat8  |  expBias = 7, scale = 1  |    |  ModelParam = 0  |  strides = [4194304, 1024, 1]  |  data = 0, sizeInBytes = 4194304  |  isPersistent  |  location = in DRAM  |  dramOffset = 0xc0000000000  |  userMemorySection(type=Persistent, id=12)  |  "
    }
  }
  attr {
    key: "outputTensor:0"
    value {
      s: "hf8-7_33724  |  Sizes = [1,4096,1024]  |  hfloat8  |  expBias = 7, scale = 1  |    |  ModelParam = 0  |  strides = [4194304, 4194304, 1024, 1]  |  data = 0, sizeInBytes = 4194304  |  isAliased = tensor_31_odule/model/31/k_proj/placeholder/1, type = alias, offset: 0  |  location = in DRAM  |  "
    }
  }
}
node {
  name: "module/model/31/rotary_pos_embedding_fwd_bf16/2765_complex/rotary_pos_embedding_fwd_bf16_62/gather_nd_mxnet_fwd_bf16_8"
  op: "gather_nd_mxnet_fwd_bf16"
  input: "module/model/31/rotary_emb/mult_fwd_bf16/2756_complex/mult_fwd_bf16_0"
  input: "module/model/31/expand_dims/2747"
  attr {
    key: "Bundle_idx"
    value {
      s: "N/A"
    }
  }
  attr {
    key: "Exec_idx"
    value {
      s: "8"
    }
  }
  attr {
    key: "Op_idx"
    value {
      s: "N/A"
    }
  }
  attr {
    key: "inputTensor:0"
    value {
      s: "tensor_16_id_80426_module/model/31/rotary_emb/aten__mul  |  Sizes = [284,128]  |  bf16  |  expBias = 0, scale = 1  |    |  ModelParam = 0  |  strides = [72704, 256, 2]  |  data = 0, sizeInBytes = 72704  |  location = in DRAM  |  dramOffset = 0x40000011c80  |  "
    }
  }
  attr {
    key: "inputTensor:1"
    value {
      s: "tensor_5_id_80357_module/model/31/aten__unsqueeze/1  |  Sizes = [1,284]  |  int32  |  expBias = 0, scale = 1  |    |  ModelParam = 0  |  strides = [1136, 1136, 4]  |  data = 0, sizeInBytes = 1136  |  isAliased = tensor_4_odule/model/31/placeholder/0, type = alias, offset: 0  |  location = in DRAM  |  "
    }
  }
  attr {
    key: "outputTensor:0"
    value {
      s: "bf16-9_33729  |  Sizes = [284,128]  |  bf16  |  expBias = 0, scale = 1  |    |  ModelParam = 0  |  strides = [72704, 256, 2]  |  data = 0, sizeInBytes = 72704  |  isAliased = bf16-13_33731, type = alias, offset: 0  |  location = in DRAM  |  "
    }
  }
}
node {
  name: "module/model/31/rotary_pos_embedding_fwd_bf16/2765_complex/rotary_pos_embedding_fwd_bf16_62/gather_nd_mxnet_fwd_bf16_10"
  op: "gather_nd_mxnet_fwd_bf16"
  input: "module/model/31/rotary_emb/mult_fwd_bf16/2750_complex/mult_fwd_bf16_0"
  input: "module/model/31/expand_dims/2747"
  attr {
    key: "Bundle_idx"
    value {
      s: "N/A"
    }
  }
  attr {
    key: "Exec_idx"
    value {
      s: "9"
    }
  }
  attr {
    key: "Op_idx"
    value {
      s: "N/A"
    }
  }
  attr {
    key: "inputTensor:0"
    value {
      s: "tensor_9_id_80422_module/model/31/rotary_emb/aten__mul  |  Sizes = [284,128]  |  bf16  |  expBias = 0, scale = 1  |    |  ModelParam = 0  |  strides = [72704, 256, 2]  |  data = 0, sizeInBytes = 72704  |  location = in DRAM  |  dramOffset = 0x40000000080  |  "
    }
  }
  attr {
    key: "inputTensor:1"
    value {
      s: "tensor_5_id_80357_module/model/31/aten__unsqueeze/1  |  Sizes = [1,284]  |  int32  |  expBias = 0, scale = 1  |    |  ModelParam = 0  |  strides = [1136, 1136, 4]  |  data = 0, sizeInBytes = 1136  |  isAliased = tensor_4_odule/model/31/placeholder/0, type = alias, offset: 0  |  location = in DRAM  |  "
    }
  }
  attr {
    key: "outputTensor:0"
    value {
      s: "bf16-11_33730  |  Sizes = [284,128]  |  bf16  |  expBias = 0, scale = 1  |    |  ModelParam = 0  |  strides = [72704, 256, 2]  |  data = 0, sizeInBytes = 72704  |  isAliased = bf16-15_33732, type = alias, offset: 0  |  location = in DRAM  |  "
    }
  }
}
node {
  name: "module/model/31/rotary_pos_embedding_fwd_bf16/2765_complex/rotary_pos_embedding_fwd_bf16_62/expand_dims_12"
  op: "ExpandDims"
  input: "module/model/31/rotary_pos_embedding_fwd_bf16/2765_complex/rotary_pos_embedding_fwd_bf16_62/gather_nd_mxnet_fwd_bf16_8"
  attr {
    key: "Bundle_idx"
    value {
      s: "N/A"
    }
  }
  attr {
    key: "Exec_idx"
    value {
      s: "10"
    }
  }
  attr {
    key: "Op_idx"
    value {
      s: "N/A"
    }
  }
  attr {
    key: "inputTensor:0"
    value {
      s: "bf16-9_33729  |  Sizes = [284,128]  |  bf16  |  expBias = 0, scale = 1  |    |  ModelParam = 0  |  strides = [72704, 256, 2]  |  data = 0, sizeInBytes = 72704  |  isAliased = bf16-13_33731, type = alias, offset: 0  |  location = in DRAM  |  "
    }
  }
  attr {
    key: "outputTensor:0"
    value {
      s: "bf16-13_33731  |  Sizes = [1,284,128]  |  bf16  |  expBias = 0, scale = 1  |    |  ModelParam = 0  |  strides = [72704, 72704, 256, 2]  |  data = 0, sizeInBytes = 72704  |  location = in DRAM  |  dramOffset = 0x40000023880  |  "
    }
  }
}
node {
  name: "module/model/31/rotary_pos_embedding_fwd_bf16/2765_complex/rotary_pos_embedding_fwd_bf16_62/expand_dims_14"
  op: "ExpandDims"
  input: "module/model/31/rotary_pos_embedding_fwd_bf16/2765_complex/rotary_pos_embedding_fwd_bf16_62/gather_nd_mxnet_fwd_bf16_10"
  attr {
    key: "Bundle_idx"
    value {
      s: "N/A"
    }
  }
  attr {
    key: "Exec_idx"
    value {
      s: "11"
    }
  }
  attr {
    key: "Op_idx"
    value {
      s: "N/A"
    }
  }
  attr {
    key: "inputTensor:0"
    value {
      s: "bf16-11_33730  |  Sizes = [284,128]  |  bf16  |  expBias = 0, scale = 1  |    |  ModelParam = 0  |  strides = [72704, 256, 2]  |  data = 0, sizeInBytes = 72704  |  isAliased = bf16-15_33732, type = alias, offset: 0  |  location = in DRAM  |  "
    }
  }
  attr {
    key: "outputTensor:0"
    value {
      s: "bf16-15_33732  |  Sizes = [1,284,128]  |  bf16  |  expBias = 0, scale = 1  |    |  ModelParam = 0  |  strides = [72704, 72704, 256, 2]  |  data = 0, sizeInBytes = 72704  |  location = in DRAM  |  dramOffset = 0x120000000000  |  "
    }
  }
}
node {
  name: "tensor_56_odule/model/31/v_proj/placeholder/1"
  op: "Placeholder"
  attr {
    key: "dtype"
    value {
      type: DT_INVALID
    }
  }
  attr {
    key: "shape"
    value {
      shape {
        dim {
          size: 1024
        }
        dim {
          size: 4096
        }
        dim {
          size: 1
        }
        dim {
          size: 1
        }
        dim {
          size: 1
        }
      }
    }
  }
  attr {
    key: "synDataType"
    value {
      s: "hfloat8"
    }
  }
}
node {
  name: "module/model/31/v_proj/fp8_gemm_bf16/2771_complex/fp8_gemm_hf8_499/expand_dims_8"
  op: "ExpandDims"
  input: "tensor_56_odule/model/31/v_proj/placeholder/1"
  attr {
    key: "Bundle_idx"
    value {
      s: "N/A"
    }
  }
  attr {
    key: "Exec_idx"
    value {
      s: "12"
    }
  }
  attr {
    key: "Op_idx"
    value {
      s: "N/A"
    }
  }
  attr {
    key: "inputTensor:0"
    value {
      s: "tensor_56_odule/model/31/v_proj/placeholder/1  |  Sizes = [4096,1024]  |  hfloat8  |  expBias = 7, scale = 1  |    |  ModelParam = 0  |  strides = [4194304, 1024, 1]  |  data = 0, sizeInBytes = 4194304  |  isPersistent  |  location = in DRAM  |  dramOffset = 0x150000000000  |  userMemorySection(type=Persistent, id=21)  |  "
    }
  }
  attr {
    key: "outputTensor:0"
    value {
      s: "hf8-9_33737  |  Sizes = [1,4096,1024]  |  hfloat8  |  expBias = 7, scale = 1  |    |  ModelParam = 0  |  strides = [4194304, 4194304, 1024, 1]  |  data = 0, sizeInBytes = 4194304  |  isAliased = tensor_56_odule/model/31/v_proj/placeholder/1, type = alias, offset: 0  |  location = in DRAM  |  "
    }
  }
}
node {
  name: "tensor_71_odule/model/31/fused_scaled_dot_product_attention/placeholder/0"
  op: "Placeholder"
  attr {
    key: "dtype"
    value {
      type: DT_BFLOAT16
    }
  }
  attr {
    key: "shape"
    value {
      shape {
        dim {
          size: 284
        }
        dim {
          size: 284
        }
        dim {
          size: 1
        }
        dim {
          size: 1
        }
        dim {
          size: 1
        }
      }
    }
  }
  attr {
    key: "synDataType"
    value {
      s: "bf16"
    }
  }
}
node {
  name: "module/model/31/fused_scaled_dot_product_attention/expand_dims/2782"
  op: "Reshape"
  input: "tensor_71_odule/model/31/fused_scaled_dot_product_attention/placeholder/0"
  attr {
    key: "Bundle_idx"
    value {
      s: "N/A"
    }
  }
  attr {
    key: "Exec_idx"
    value {
      s: "13"
    }
  }
  attr {
    key: "Op_idx"
    value {
      s: "N/A"
    }
  }
  attr {
    key: "inputTensor:0"
    value {
      s: "tensor_71_odule/model/31/fused_scaled_dot_product_attention/placeholder/0  |  Sizes = [284,284]  |  bf16  |  expBias = 0, scale = 1  |    |  ModelParam = 0  |  strides = [161312, 568, 2]  |  data = 0, sizeInBytes = 161312  |  isPersistent  |  location = in DRAM  |  dramOffset = 0x1c0000000000  |  userMemorySection(type=Persistent, id=28)  |  "
    }
  }
  attr {
    key: "outputTensor:0"
    value {
      s: "tensor_77_id_80529_module/model/31/fused_scaled_dot_product_attention/aten__unsqueeze  |  Sizes = [1,1,1,284,284]  |  bf16  |  expBias = 0, scale = 1  |    |  ModelParam = 0  |  strides = [161312, 161312, 161312, 161312, 568, 2]  |  data = 0, sizeInBytes = 161312  |  isAliased = tensor_71_odule/model/31/fused_scaled_dot_product_attention/placeholder/0, type = alias, offset: 0  |  location = in DRAM  |  "
    }
  }
}
node {
  name: "tensor_93_odule/model/31/q_proj/placeholder/1"
  op: "Placeholder"
  attr {
    key: "dtype"
    value {
      type: DT_INVALID
    }
  }
  attr {
    key: "shape"
    value {
      shape {
        dim {
          size: 4096
        }
        dim {
          size: 4096
        }
        dim {
          size: 1
        }
        dim {
          size: 1
        }
        dim {
          size: 1
        }
      }
    }
  }
  attr {
    key: "synDataType"
    value {
      s: "hfloat8"
    }
  }
}
node {
  name: "module/model/31/q_proj/fp8_gemm_bf16/2789_complex/fp8_gemm_bf16_501/expand_dims_6"
  op: "ExpandDims"
  input: "tensor_93_odule/model/31/q_proj/placeholder/1"
  attr {
    key: "Bundle_idx"
    value {
      s: "N/A"
    }
  }
  attr {
    key: "Exec_idx"
    value {
      s: "14"
    }
  }
  attr {
    key: "Op_idx"
    value {
      s: "N/A"
    }
  }
  attr {
    key: "inputTensor:0"
    value {
      s: "tensor_93_odule/model/31/q_proj/placeholder/1  |  Sizes = [4096,4096]  |  hfloat8  |  expBias = 7, scale = 1  |    |  ModelParam = 0  |  strides = [16777216, 4096, 1]  |  data = 0, sizeInBytes = 16777216  |  isPersistent  |  location = in DRAM  |  dramOffset = 0x200000000000  |  userMemorySection(type=Persistent, id=32)  |  "
    }
  }
  attr {
    key: "outputTensor:0"
    value {
      s: "hf8-7_33741  |  Sizes = [1,4096,4096]  |  hfloat8  |  expBias = 7, scale = 1  |    |  ModelParam = 0  |  strides = [16777216, 16777216, 4096, 1]  |  data = 0, sizeInBytes = 16777216  |  isAliased = tensor_93_odule/model/31/q_proj/placeholder/1, type = alias, offset: 0  |  location = in DRAM  |  "
    }
  }
}
node {
  name: "tensor_22_odule/model/31/input_layernorm/placeholder/1"
  op: "Placeholder"
  attr {
    key: "dtype"
    value {
      type: DT_BFLOAT16
    }
  }
  attr {
    key: "shape"
    value {
      shape {
        dim {
          size: 4096
        }
        dim {
          size: 1
        }
        dim {
          size: 1
        }
        dim {
          size: 1
        }
        dim {
          size: 1
        }
      }
    }
  }
  attr {
    key: "synDataType"
    value {
      s: "bf16"
    }
  }
}
node {
  name: "module/model/31/input_layernorm/rms_norm_ex_fwd_bf16/2760_complex/rms_norm_ex_fwd_bf16_125/rms_norm_fwd_bf16_6_bundle_186/op_0"
  op: "rms_norm_fwd_bf16"
  input: "module/model/31/input_layernorm/rms_norm_ex_fwd_bf16/2760_complex/rms_norm_ex_fwd_bf16_125/reshape_4"
  input: "tensor_22_odule/model/31/input_layernorm/placeholder/1"
  attr {
    key: "Bundle_idx"
    value {
      s: "186"
    }
  }
  attr {
    key: "Exec_idx"
    value {
      s: "15"
    }
  }
  attr {
    key: "Op_idx"
    value {
      s: "0"
    }
  }
  attr {
    key: "inputTensor:0"
    value {
      s: "bf16-5_33717  |  Sizes = [284,4096]  |  bf16  |  expBias = 0, scale = 1  |    |  ModelParam = 0  |  strides = [2326528, 8192, 2]  |  data = 0, sizeInBytes = 2326528  |  isAliased = tensor_21_odule/model/31/input_layernorm/placeholder/0, type = alias, offset: 0  |  location = in DRAM  |  "
    }
  }
  attr {
    key: "inputTensor:1"
    value {
      s: "tensor_22_odule/model/31/input_layernorm/placeholder/1  |  Sizes = [4096]  |  bf16  |  expBias = 0, scale = 1  |    |  ModelParam = 0  |  strides = [8192, 2]  |  data = 0, sizeInBytes = 8192  |  isPersistent  |  location = in DRAM  |  dramOffset = 0xa0000000000  |  userMemorySection(type=Persistent, id=10)  |  "
    }
  }
  attr {
    key: "outputTensor:0"
    value {
      s: "bf16-7_33718_slice_0_0_0_0_0__0__bundle_186_34307  |  Sizes = [284,4096]  |  bf16  |  expBias = 0, scale = 1  |    |  ModelParam = 0  |  strides = [2326528, 8192, 2]  |  data = 0, sizeInBytes = 2326528  |  isAliased = tensor-33968_slice_0_0_0_0_0__0__bundle_186_34309, type = alias, offset: 0  |  location = in SRAM  |  sramOffset = 0x1000fffffd050000  |  "
    }
  }
  attr {
    key: "outputTensor:1"
    value {
      s: "f32-8_33719  |  Sizes = [284,1]  |  float32  |  expBias = 0, scale = 1  |    |  ModelParam = 0  |  strides = [1136, 4, 4]  |  data = 0, sizeInBytes = 1136  |  location = in DRAM  |  dramOffset = 0x40000035480  |  "
    }
  }
}
node {
  name: "f32-8_33719"
  op: "OutputTensor"
  input: "module/model/31/input_layernorm/rms_norm_ex_fwd_bf16/2760_complex/rms_norm_ex_fwd_bf16_125/rms_norm_fwd_bf16_6_bundle_186/op_0"
  attr {
    key: "dtype"
    value {
      type: DT_FLOAT
    }
  }
  attr {
    key: "shape"
    value {
      shape {
        dim {
          size: 1
        }
        dim {
          size: 284
        }
        dim {
          size: 1
        }
        dim {
          size: 1
        }
        dim {
          size: 1
        }
      }
    }
  }
  attr {
    key: "synDataType"
    value {
      s: "float32"
    }
  }
}
node {
  name: "reshape_0_0_bundle_186/op_1"
  op: "Reshape"
  input: "module/model/31/input_layernorm/rms_norm_ex_fwd_bf16/2760_complex/rms_norm_ex_fwd_bf16_125/rms_norm_fwd_bf16_6_bundle_186/op_0"
  attr {
    key: "Bundle_idx"
    value {
      s: "186"
    }
  }
  attr {
    key: "Exec_idx"
    value {
      s: "16"
    }
  }
  attr {
    key: "Op_idx"
    value {
      s: "1"
    }
  }
  attr {
    key: "inputTensor:0"
    value {
      s: "bf16-7_33718_slice_0_0_0_0_0__0__bundle_186_34307  |  Sizes = [284,4096]  |  bf16  |  expBias = 0, scale = 1  |    |  ModelParam = 0  |  strides = [2326528, 8192, 2]  |  data = 0, sizeInBytes = 2326528  |  isAliased = tensor-33968_slice_0_0_0_0_0__0__bundle_186_34309, type = alias, offset: 0  |  location = in SRAM  |  sramOffset = 0x1000fffffd050000  |  "
    }
  }
  attr {
    key: "outputTensor:0"
    value {
      s: "tensor-33968_slice_0_0_0_0_0__0__bundle_186_34309  |  Sizes = [1,284,4096]  |  bf16  |  expBias = 0, scale = 1  |    |  ModelParam = 0  |  strides = [2326528, 2326528, 8192, 2]  |  data = 0, sizeInBytes = 2326528  |  location = in SRAM  |  sramOffset = 0x1000fffffd050000  |  "
    }
  }
}
node {
  name: "fusedTPCNode_52_0_bundle_186/op_2"
  op: "fused_kernel_0xA38212B5_AF_hf8"
  input: "reshape_0_0_bundle_186/op_1"
  attr {
    key: "Bundle_idx"
    value {
      s: "186"
    }
  }
  attr {
    key: "Exec_idx"
    value {
      s: "17"
    }
  }
  attr {
    key: "Op_idx"
    value {
      s: "2"
    }
  }
  attr {
    key: "inputTensor:0"
    value {
      s: "tensor-33968_slice_0_0_0_0_0__0__bundle_186_34309  |  Sizes = [1,284,4096]  |  bf16  |  expBias = 0, scale = 1  |    |  ModelParam = 0  |  strides = [2326528, 2326528, 8192, 2]  |  data = 0, sizeInBytes = 2326528  |  location = in SRAM  |  sramOffset = 0x1000fffffd050000  |  "
    }
  }
  attr {
    key: "outputTensor:0"
    value {
      s: "tensor_30_slice_0_0_0_0_0__0__bundle_186_34310  |  Sizes = [1,284,4096]  |  hfloat8  |  expBias = 7, scale = 1  |    |  ModelParam = 0  |  strides = [1163264, 1163264, 4096, 1]  |  data = 0, sizeInBytes = 1163264  |  location = in SRAM  |  sramOffset = 0x1000fffffd288000  |  "
    }
  }
}
node {
  name: "module/model/31/k_proj/fp8_gemm_bf16/2762_complex/fp8_gemm_bf16_497/batch_gemm_8_bundle_186/op_3_gemm"
  op: "GEMM"
  input: "fusedTPCNode_52_0_bundle_186/op_2"
  input: "module/model/31/k_proj/fp8_gemm_bf16/2762_complex/fp8_gemm_bf16_497/expand_dims_6"
  attr {
    key: "Bundle_idx"
    value {
      s: "186"
    }
  }
  attr {
    key: "Exec_idx"
    value {
      s: "18"
    }
  }
  attr {
    key: "Op_idx"
    value {
      s: "3"
    }
  }
  attr {
    key: "Parameters"
    value {
      s: "transpose_a=false, transpose_b=false"
    }
  }
  attr {
    key: "fp8BiasIn"
    value {
      s: "7"
    }
  }
  attr {
    key: "fp8BiasIn2"
    value {
      s: "11"
    }
  }
  attr {
    key: "fp8BiasOut"
    value {
      s: "0"
    }
  }
  attr {
    key: "inputTensor:0"
    value {
      s: "tensor_30_slice_0_0_0_0_0__0__bundle_186_34310  |  Sizes = [1,284,4096]  |  hfloat8  |  expBias = 7, scale = 1  |    |  ModelParam = 0  |  strides = [1163264, 1163264, 4096, 1]  |  data = 0, sizeInBytes = 1163264  |  location = in SRAM  |  sramOffset = 0x1000fffffd288000  |  "
    }
  }
  attr {
    key: "inputTensor:1"
    value {
      s: "hf8-7_33724  |  Sizes = [1,4096,1024]  |  hfloat8  |  expBias = 7, scale = 1  |    |  ModelParam = 0  |  strides = [4194304, 4194304, 1024, 1]  |  data = 0, sizeInBytes = 4194304  |  isAliased = tensor_31_odule/model/31/k_proj/placeholder/1, type = alias, offset: 0  |  location = in DRAM  |  "
    }
  }
  attr {
    key: "outputTensor:0"
    value {
      s: "tensor_35  |  Sizes = [1,284,1024]  |  bf16  |  expBias = 0, scale = 1  |    |  ModelParam = 0  |  strides = [581632, 581632, 2048, 2]  |  data = 0, sizeInBytes = 581632  |  isAliased = tensor_36_id_80412_module/model/31/aten__view, type = alias, offset: 0  |  location = in DRAM  |  "
    }
  }
}
node {
  name: "module/model/31/v_proj/fp8_gemm_bf16/2771_complex/fp8_gemm_hf8_499/batch_gemm_10_bundle_186/op_4_gemm"
  op: "GEMM"
  input: "fusedTPCNode_52_0_bundle_186/op_2"
  input: "module/model/31/v_proj/fp8_gemm_bf16/2771_complex/fp8_gemm_hf8_499/expand_dims_8"
  attr {
    key: "Bundle_idx"
    value {
      s: "186"
    }
  }
  attr {
    key: "Exec_idx"
    value {
      s: "19"
    }
  }
  attr {
    key: "Op_idx"
    value {
      s: "4"
    }
  }
  attr {
    key: "Parameters"
    value {
      s: "transpose_a=false, transpose_b=false"
    }
  }
  attr {
    key: "fp8BiasIn"
    value {
      s: "7"
    }
  }
  attr {
    key: "fp8BiasIn2"
    value {
      s: "15"
    }
  }
  attr {
    key: "fp8BiasOut"
    value {
      s: "7"
    }
  }
  attr {
    key: "inputTensor:0"
    value {
      s: "tensor_30_slice_0_0_0_0_0__0__bundle_186_34310  |  Sizes = [1,284,4096]  |  hfloat8  |  expBias = 7, scale = 1  |    |  ModelParam = 0  |  strides = [1163264, 1163264, 4096, 1]  |  data = 0, sizeInBytes = 1163264  |  location = in SRAM  |  sramOffset = 0x1000fffffd288000  |  "
    }
  }
  attr {
    key: "inputTensor:1"
    value {
      s: "hf8-9_33737  |  Sizes = [1,4096,1024]  |  hfloat8  |  expBias = 7, scale = 1  |    |  ModelParam = 0  |  strides = [4194304, 4194304, 1024, 1]  |  data = 0, sizeInBytes = 4194304  |  isAliased = tensor_56_odule/model/31/v_proj/placeholder/1, type = alias, offset: 0  |  location = in DRAM  |  "
    }
  }
  attr {
    key: "outputTensor:0"
    value {
      s: "tensor_60_c33675  |  Sizes = [1,284,1024]  |  hfloat8  |  expBias = 7, scale = 1  |    |  ModelParam = 0  |  strides = [290816, 290816, 1024, 1]  |  data = 0, sizeInBytes = 290816  |  isAliased = tensor_61_id_80416_module/model/31/quant_input_0/aten__view_memcpy_34414, type = alias, offset: 0  |  location = in DRAM  |  "
    }
  }
}
node {
  name: "module/model/31/q_proj/fp8_gemm_bf16/2789_complex/fp8_gemm_bf16_501/batch_gemm_8_bundle_186/op_5_gemm"
  op: "GEMM"
  input: "fusedTPCNode_52_0_bundle_186/op_2"
  input: "module/model/31/q_proj/fp8_gemm_bf16/2789_complex/fp8_gemm_bf16_501/expand_dims_6"
  attr {
    key: "Bundle_idx"
    value {
      s: "186"
    }
  }
  attr {
    key: "Exec_idx"
    value {
      s: "20"
    }
  }
  attr {
    key: "Op_idx"
    value {
      s: "5"
    }
  }
  attr {
    key: "Parameters"
    value {
      s: "transpose_a=false, transpose_b=false"
    }
  }
  attr {
    key: "fp8BiasIn"
    value {
      s: "7"
    }
  }
  attr {
    key: "fp8BiasIn2"
    value {
      s: "15"
    }
  }
  attr {
    key: "fp8BiasOut"
    value {
      s: "0"
    }
  }
  attr {
    key: "inputTensor:0"
    value {
      s: "tensor_30_slice_0_0_0_0_0__0__bundle_186_34310  |  Sizes = [1,284,4096]  |  hfloat8  |  expBias = 7, scale = 1  |    |  ModelParam = 0  |  strides = [1163264, 1163264, 4096, 1]  |  data = 0, sizeInBytes = 1163264  |  location = in SRAM  |  sramOffset = 0x1000fffffd288000  |  "
    }
  }
  attr {
    key: "inputTensor:1"
    value {
      s: "hf8-7_33741  |  Sizes = [1,4096,4096]  |  hfloat8  |  expBias = 7, scale = 1  |    |  ModelParam = 0  |  strides = [16777216, 16777216, 4096, 1]  |  data = 0, sizeInBytes = 16777216  |  isAliased = tensor_93_odule/model/31/q_proj/placeholder/1, type = alias, offset: 0  |  location = in DRAM  |  "
    }
  }
  attr {
    key: "outputTensor:0"
    value {
      s: "tensor_97  |  Sizes = [1,284,4096]  |  bf16  |  expBias = 0, scale = 1  |    |  ModelParam = 0  |  strides = [2326528, 2326528, 8192, 2]  |  data = 0, sizeInBytes = 2326528  |  isAliased = tensor_98_id_80408_module/model/31/aten__view, type = alias, offset: 0  |  location = in DRAM  |  "
    }
  }
}
node {
  name: "module/model/31/reshape/2763"
  op: "Reshape"
  input: "module/model/31/k_proj/fp8_gemm_bf16/2762_complex/fp8_gemm_bf16_497/batch_gemm_8_bundle_186/op_3_gemm"
  attr {
    key: "Bundle_idx"
    value {
      s: "N/A"
    }
  }
  attr {
    key: "Exec_idx"
    value {
      s: "21"
    }
  }
  attr {
    key: "Op_idx"
    value {
      s: "N/A"
    }
  }
  attr {
    key: "inputTensor:0"
    value {
      s: "tensor_35  |  Sizes = [1,284,1024]  |  bf16  |  expBias = 0, scale = 1  |    |  ModelParam = 0  |  strides = [581632, 581632, 2048, 2]  |  data = 0, sizeInBytes = 581632  |  isAliased = tensor_36_id_80412_module/model/31/aten__view, type = alias, offset: 0  |  location = in DRAM  |  "
    }
  }
  attr {
    key: "outputTensor:0"
    value {
      s: "tensor_36_id_80412_module/model/31/aten__view  |  Sizes = [1,284,8,128]  |  bf16  |  expBias = 0, scale = 1  |    |  ModelParam = 0  |  strides = [581632, 581632, 2048, 256, 2]  |  data = 0, sizeInBytes = 581632  |  location = in DRAM  |  dramOffset = 0x1b0000000000  |  "
    }
  }
}
node {
  name: "module/model/31/transpose/2764_transpose_via_logical"
  op: "LogicalTranspose"
  input: "module/model/31/reshape/2763"
  attr {
    key: "Bundle_idx"
    value {
      s: "N/A"
    }
  }
  attr {
    key: "Exec_idx"
    value {
      s: "22"
    }
  }
  attr {
    key: "Op_idx"
    value {
      s: "N/A"
    }
  }
  attr {
    key: "Parameters"
    value {
      s: "permutation: (0,2,1,3)"
    }
  }
  attr {
    key: "inputTensor:0"
    value {
      s: "tensor_36_id_80412_module/model/31/aten__view  |  Sizes = [1,284,8,128]  |  bf16  |  expBias = 0, scale = 1  |    |  ModelParam = 0  |  strides = [581632, 581632, 2048, 256, 2]  |  data = 0, sizeInBytes = 581632  |  location = in DRAM  |  dramOffset = 0x1b0000000000  |  "
    }
  }
  attr {
    key: "outputTensor:0"
    value {
      s: "tensor_37_id_80414_module/model/31/aten__transpose  |  Sizes = [1,8,284,128]  |  bf16  |  expBias = 0, scale = 1  |    |  ModelParam = 0  |  strides = [581632, 581632, 256, 2048, 2]  |  data = 0, sizeInBytes = 581632  |  isAliased = tensor_36_id_80412_module/model/31/aten__view, type = alias, offset: 0  |  location = in DRAM  |  isSparseLayout  |  "
    }
  }
}
node {
  name: "module/model/31/quant_input_0/reshape/2772"
  op: "Reshape"
  input: "module/model/31/v_proj/fp8_gemm_bf16/2771_complex/fp8_gemm_hf8_499/batch_gemm_10_bundle_186/op_4_gemm"
  attr {
    key: "Bundle_idx"
    value {
      s: "N/A"
    }
  }
  attr {
    key: "Exec_idx"
    value {
      s: "23"
    }
  }
  attr {
    key: "Op_idx"
    value {
      s: "N/A"
    }
  }
  attr {
    key: "inputTensor:0"
    value {
      s: "tensor_60_c33675  |  Sizes = [1,284,1024]  |  hfloat8  |  expBias = 7, scale = 1  |    |  ModelParam = 0  |  strides = [290816, 290816, 1024, 1]  |  data = 0, sizeInBytes = 290816  |  isAliased = tensor_61_id_80416_module/model/31/quant_input_0/aten__view_memcpy_34414, type = alias, offset: 0  |  location = in DRAM  |  "
    }
  }
  attr {
    key: "outputTensor:0"
    value {
      s: "tensor_61_id_80416_module/model/31/quant_input_0/aten__view_memcpy_34414  |  Sizes = [1,284,8,128]  |  hfloat8  |  expBias = 7, scale = 1  |    |  ModelParam = 0  |  strides = [290816, 290816, 1024, 128, 1]  |  data = 0, sizeInBytes = 290816  |  location = in DRAM  |  dramOffset = 0x120000011c00  |  "
    }
  }
}
node {
  name: "tensor_61_id_80416_module/model/31/quant_input_0/aten__view_memcpy_34414_internal"
  op: "DmaMemcpy"
  input: "module/model/31/quant_input_0/reshape/2772"
  attr {
    key: "Bundle_idx"
    value {
      s: "N/A"
    }
  }
  attr {
    key: "Exec_idx"
    value {
      s: "24"
    }
  }
  attr {
    key: "Op_idx"
    value {
      s: "N/A"
    }
  }
  attr {
    key: "inputTensor:0"
    value {
      s: "tensor_61_id_80416_module/model/31/quant_input_0/aten__view_memcpy_34414  |  Sizes = [1,284,8,128]  |  hfloat8  |  expBias = 7, scale = 1  |    |  ModelParam = 0  |  strides = [290816, 290816, 1024, 128, 1]  |  data = 0, sizeInBytes = 290816  |  location = in DRAM  |  dramOffset = 0x120000011c00  |  "
    }
  }
  attr {
    key: "outputTensor:0"
    value {
      s: "tensor_61_id_80416_module/model/31/quant_input_0/aten__view  |  Sizes = [1,284,8,128]  |  hfloat8  |  expBias = 7, scale = 1  |    |  ModelParam = 0  |  strides = [290816, 290816, 128, 36352, 1]  |  data = 0, sizeInBytes = 290816  |  isAliased = tensor_67, type = alias, offset: 0  |  location = in DRAM  |  isSparseLayout  |  "
    }
  }
}
node {
  name: "module/model/31/quant_input_0/transpose/2773_transpose_via_logical"
  op: "LogicalTranspose"
  input: "tensor_61_id_80416_module/model/31/quant_input_0/aten__view_memcpy_34414_internal"
  attr {
    key: "Bundle_idx"
    value {
      s: "N/A"
    }
  }
  attr {
    key: "Exec_idx"
    value {
      s: "25"
    }
  }
  attr {
    key: "Op_idx"
    value {
      s: "N/A"
    }
  }
  attr {
    key: "Parameters"
    value {
      s: "permutation: (0,2,1,3)"
    }
  }
  attr {
    key: "inputTensor:0"
    value {
      s: "tensor_61_id_80416_module/model/31/quant_input_0/aten__view  |  Sizes = [1,284,8,128]  |  hfloat8  |  expBias = 7, scale = 1  |    |  ModelParam = 0  |  strides = [290816, 290816, 128, 36352, 1]  |  data = 0, sizeInBytes = 290816  |  isAliased = tensor_67, type = alias, offset: 0  |  location = in DRAM  |  isSparseLayout  |  "
    }
  }
  attr {
    key: "outputTensor:0"
    value {
      s: "tensor_67  |  Sizes = [1,8,284,128]  |  hfloat8  |  expBias = 7, scale = 1  |    |  ModelParam = 0  |  strides = [290816, 290816, 36352, 128, 1]  |  data = 0, sizeInBytes = 290816  |  isPersistent  |  location = in DRAM  |  dramOffset = 0x130000000000  |  userMemorySection(type=Persistent, id=19)  |  "
    }
  }
}
node {
  name: "module/model/31/reshape/2790"
  op: "Reshape"
  input: "module/model/31/q_proj/fp8_gemm_bf16/2789_complex/fp8_gemm_bf16_501/batch_gemm_8_bundle_186/op_5_gemm"
  attr {
    key: "Bundle_idx"
    value {
      s: "N/A"
    }
  }
  attr {
    key: "Exec_idx"
    value {
      s: "26"
    }
  }
  attr {
    key: "Op_idx"
    value {
      s: "N/A"
    }
  }
  attr {
    key: "inputTensor:0"
    value {
      s: "tensor_97  |  Sizes = [1,284,4096]  |  bf16  |  expBias = 0, scale = 1  |    |  ModelParam = 0  |  strides = [2326528, 2326528, 8192, 2]  |  data = 0, sizeInBytes = 2326528  |  isAliased = tensor_98_id_80408_module/model/31/aten__view, type = alias, offset: 0  |  location = in DRAM  |  "
    }
  }
  attr {
    key: "outputTensor:0"
    value {
      s: "tensor_98_id_80408_module/model/31/aten__view  |  Sizes = [1,284,32,128]  |  bf16  |  expBias = 0, scale = 1  |    |  ModelParam = 0  |  strides = [2326528, 2326528, 8192, 256, 2]  |  data = 0, sizeInBytes = 2326528  |  location = in DRAM  |  dramOffset = 0x420000000000  |  "
    }
  }
}
node {
  name: "module/model/31/transpose/2791_transpose_via_logical"
  op: "LogicalTranspose"
  input: "module/model/31/reshape/2790"
  attr {
    key: "Bundle_idx"
    value {
      s: "N/A"
    }
  }
  attr {
    key: "Exec_idx"
    value {
      s: "27"
    }
  }
  attr {
    key: "Op_idx"
    value {
      s: "N/A"
    }
  }
  attr {
    key: "Parameters"
    value {
      s: "permutation: (0,2,1,3)"
    }
  }
  attr {
    key: "inputTensor:0"
    value {
      s: "tensor_98_id_80408_module/model/31/aten__view  |  Sizes = [1,284,32,128]  |  bf16  |  expBias = 0, scale = 1  |    |  ModelParam = 0  |  strides = [2326528, 2326528, 8192, 256, 2]  |  data = 0, sizeInBytes = 2326528  |  location = in DRAM  |  dramOffset = 0x420000000000  |  "
    }
  }
  attr {
    key: "outputTensor:0"
    value {
      s: "tensor_99_id_80410_module/model/31/aten__transpose  |  Sizes = [1,32,284,128]  |  bf16  |  expBias = 0, scale = 1  |    |  ModelParam = 0  |  strides = [2326528, 2326528, 256, 8192, 2]  |  data = 0, sizeInBytes = 2326528  |  isAliased = tensor_98_id_80408_module/model/31/aten__view, type = alias, offset: 0  |  location = in DRAM  |  isSparseLayout  |  "
    }
  }
}
node {
  name: "module/model/31/rotary_pos_embedding_fwd_bf16/2792_complex/rotary_pos_embedding_fwd_bf16_63/gather_nd_mxnet_fwd_bf16_8"
  op: "gather_nd_mxnet_fwd_bf16"
  input: "module/model/31/rotary_emb/mult_fwd_bf16/2756_complex/mult_fwd_bf16_0"
  input: "module/model/31/expand_dims/2747"
  attr {
    key: "Bundle_idx"
    value {
      s: "N/A"
    }
  }
  attr {
    key: "Exec_idx"
    value {
      s: "28"
    }
  }
  attr {
    key: "Op_idx"
    value {
      s: "N/A"
    }
  }
  attr {
    key: "inputTensor:0"
    value {
      s: "tensor_16_id_80426_module/model/31/rotary_emb/aten__mul  |  Sizes = [284,128]  |  bf16  |  expBias = 0, scale = 1  |    |  ModelParam = 0  |  strides = [72704, 256, 2]  |  data = 0, sizeInBytes = 72704  |  location = in DRAM  |  dramOffset = 0x40000011c80  |  "
    }
  }
  attr {
    key: "inputTensor:1"
    value {
      s: "tensor_5_id_80357_module/model/31/aten__unsqueeze/1  |  Sizes = [1,284]  |  int32  |  expBias = 0, scale = 1  |    |  ModelParam = 0  |  strides = [1136, 1136, 4]  |  data = 0, sizeInBytes = 1136  |  isAliased = tensor_4_odule/model/31/placeholder/0, type = alias, offset: 0  |  location = in DRAM  |  "
    }
  }
  attr {
    key: "outputTensor:0"
    value {
      s: "bf16-9_33746  |  Sizes = [284,128]  |  bf16  |  expBias = 0, scale = 1  |    |  ModelParam = 0  |  strides = [72704, 256, 2]  |  data = 0, sizeInBytes = 72704  |  isAliased = bf16-13_33748, type = alias, offset: 0  |  location = in DRAM  |  "
    }
  }
}
node {
  name: "module/model/31/rotary_pos_embedding_fwd_bf16/2792_complex/rotary_pos_embedding_fwd_bf16_63/gather_nd_mxnet_fwd_bf16_10"
  op: "gather_nd_mxnet_fwd_bf16"
  input: "module/model/31/rotary_emb/mult_fwd_bf16/2750_complex/mult_fwd_bf16_0"
  input: "module/model/31/expand_dims/2747"
  attr {
    key: "Bundle_idx"
    value {
      s: "N/A"
    }
  }
  attr {
    key: "Exec_idx"
    value {
      s: "29"
    }
  }
  attr {
    key: "Op_idx"
    value {
      s: "N/A"
    }
  }
  attr {
    key: "inputTensor:0"
    value {
      s: "tensor_9_id_80422_module/model/31/rotary_emb/aten__mul  |  Sizes = [284,128]  |  bf16  |  expBias = 0, scale = 1  |    |  ModelParam = 0  |  strides = [72704, 256, 2]  |  data = 0, sizeInBytes = 72704  |  location = in DRAM  |  dramOffset = 0x40000000080  |  "
    }
  }
  attr {
    key: "inputTensor:1"
    value {
      s: "tensor_5_id_80357_module/model/31/aten__unsqueeze/1  |  Sizes = [1,284]  |  int32  |  expBias = 0, scale = 1  |    |  ModelParam = 0  |  strides = [1136, 1136, 4]  |  data = 0, sizeInBytes = 1136  |  isAliased = tensor_4_odule/model/31/placeholder/0, type = alias, offset: 0  |  location = in DRAM  |  "
    }
  }
  attr {
    key: "outputTensor:0"
    value {
      s: "bf16-11_33747  |  Sizes = [284,128]  |  bf16  |  expBias = 0, scale = 1  |    |  ModelParam = 0  |  strides = [72704, 256, 2]  |  data = 0, sizeInBytes = 72704  |  isAliased = bf16-15_33749, type = alias, offset: 0  |  location = in DRAM  |  "
    }
  }
}
node {
  name: "module/model/31/rotary_pos_embedding_fwd_bf16/2792_complex/rotary_pos_embedding_fwd_bf16_63/expand_dims_12"
  op: "ExpandDims"
  input: "module/model/31/rotary_pos_embedding_fwd_bf16/2792_complex/rotary_pos_embedding_fwd_bf16_63/gather_nd_mxnet_fwd_bf16_8"
  attr {
    key: "Bundle_idx"
    value {
      s: "N/A"
    }
  }
  attr {
    key: "Exec_idx"
    value {
      s: "30"
    }
  }
  attr {
    key: "Op_idx"
    value {
      s: "N/A"
    }
  }
  attr {
    key: "inputTensor:0"
    value {
      s: "bf16-9_33746  |  Sizes = [284,128]  |  bf16  |  expBias = 0, scale = 1  |    |  ModelParam = 0  |  strides = [72704, 256, 2]  |  data = 0, sizeInBytes = 72704  |  isAliased = bf16-13_33748, type = alias, offset: 0  |  location = in DRAM  |  "
    }
  }
  attr {
    key: "outputTensor:0"
    value {
      s: "bf16-13_33748  |  Sizes = [1,284,128]  |  bf16  |  expBias = 0, scale = 1  |    |  ModelParam = 0  |  strides = [72704, 72704, 256, 2]  |  data = 0, sizeInBytes = 72704  |  location = in DRAM  |  dramOffset = 0x120000058c00  |  "
    }
  }
}
node {
  name: "module/model/31/rotary_pos_embedding_fwd_bf16/2792_complex/rotary_pos_embedding_fwd_bf16_63/expand_dims_14"
  op: "ExpandDims"
  input: "module/model/31/rotary_pos_embedding_fwd_bf16/2792_complex/rotary_pos_embedding_fwd_bf16_63/gather_nd_mxnet_fwd_bf16_10"
  attr {
    key: "Bundle_idx"
    value {
      s: "N/A"
    }
  }
  attr {
    key: "Exec_idx"
    value {
      s: "31"
    }
  }
  attr {
    key: "Op_idx"
    value {
      s: "N/A"
    }
  }
  attr {
    key: "inputTensor:0"
    value {
      s: "bf16-11_33747  |  Sizes = [284,128]  |  bf16  |  expBias = 0, scale = 1  |    |  ModelParam = 0  |  strides = [72704, 256, 2]  |  data = 0, sizeInBytes = 72704  |  isAliased = bf16-15_33749, type = alias, offset: 0  |  location = in DRAM  |  "
    }
  }
  attr {
    key: "outputTensor:0"
    value {
      s: "bf16-15_33749  |  Sizes = [1,284,128]  |  bf16  |  expBias = 0, scale = 1  |    |  ModelParam = 0  |  strides = [72704, 72704, 256, 2]  |  data = 0, sizeInBytes = 72704  |  location = in DRAM  |  dramOffset = 0x12000006a800  |  "
    }
  }
}
node {
  name: "tensor_37_id_80414_module/model/31/aten__transpose_bundle_188/split_internal/0"
  op: "Split"
  input: "module/model/31/transpose/2764_transpose_via_logical"
  attr {
    key: "Bundle_idx"
    value {
      s: "188"
    }
  }
  attr {
    key: "Exec_idx"
    value {
      s: "32"
    }
  }
  attr {
    key: "Op_idx"
    value {
      s: "0"
    }
  }
  attr {
    key: "inputTensor:0"
    value {
      s: "tensor_37_id_80414_module/model/31/aten__transpose  |  Sizes = [1,8,284,128]  |  bf16  |  expBias = 0, scale = 1  |    |  ModelParam = 0  |  strides = [581632, 581632, 256, 2048, 2]  |  data = 0, sizeInBytes = 581632  |  isAliased = tensor_36_id_80412_module/model/31/aten__view, type = alias, offset: 0  |  location = in DRAM  |  isSparseLayout  |  "
    }
  }
  attr {
    key: "outputTensor:0"
    value {
      s: "tensor_37_id_80414_module/model/31/aten__transpose_slice_0_0_0_0_0__0__bundle_188_34335  |  Sizes = [1,4,284,128]  |  bf16  |  expBias = 0, scale = 1  |    |  ModelParam = 0  |  strides = [581632, 581632, 256, 2048, 2]  |  data = 0, sizeInBytes = 290816  |  isAliased = tensor_37_id_80414_module/model/31/aten__transpose, type = concat, offset: 0  |  location = in DRAM  |  isSparseLayout  |  "
    }
  }
  attr {
    key: "outputTensor:1"
    value {
      s: "tensor_37_id_80414_module/model/31/aten__transpose_slice_0_0_1_0_0__0__bundle_188_34349  |  Sizes = [1,4,284,128]  |  bf16  |  expBias = 0, scale = 1  |    |  ModelParam = 0  |  strides = [581632, 581632, 256, 2048, 2]  |  data = 0, sizeInBytes = 290816  |  isAliased = tensor_37_id_80414_module/model/31/aten__transpose, type = concat, offset: 1024  |  location = in DRAM  |  isSparseLayout  |  "
    }
  }
}
node {
  name: "tensor_99_id_80410_module/model/31/aten__transpose_bundle_188/split_internal/0"
  op: "Split"
  input: "module/model/31/transpose/2791_transpose_via_logical"
  attr {
    key: "Bundle_idx"
    value {
      s: "188"
    }
  }
  attr {
    key: "Exec_idx"
    value {
      s: "33"
    }
  }
  attr {
    key: "Op_idx"
    value {
      s: "1"
    }
  }
  attr {
    key: "inputTensor:0"
    value {
      s: "tensor_99_id_80410_module/model/31/aten__transpose  |  Sizes = [1,32,284,128]  |  bf16  |  expBias = 0, scale = 1  |    |  ModelParam = 0  |  strides = [2326528, 2326528, 256, 8192, 2]  |  data = 0, sizeInBytes = 2326528  |  isAliased = tensor_98_id_80408_module/model/31/aten__view, type = alias, offset: 0  |  location = in DRAM  |  isSparseLayout  |  "
    }
  }
  attr {
    key: "outputTensor:0"
    value {
      s: "tensor_99_id_80410_module/model/31/aten__transpose_slice_0_0_0_0_0__0__bundle_188_34343  |  Sizes = [1,16,284,128]  |  bf16  |  expBias = 0, scale = 1  |    |  ModelParam = 0  |  strides = [2326528, 2326528, 256, 8192, 2]  |  data = 0, sizeInBytes = 1163264  |  isAliased = tensor_99_id_80410_module/model/31/aten__transpose, type = concat, offset: 0  |  location = in DRAM  |  isSparseLayout  |  "
    }
  }
  attr {
    key: "outputTensor:1"
    value {
      s: "tensor_99_id_80410_module/model/31/aten__transpose_slice_0_0_1_0_0__0__bundle_188_34355  |  Sizes = [1,16,284,128]  |  bf16  |  expBias = 0, scale = 1  |    |  ModelParam = 0  |  strides = [2326528, 2326528, 256, 8192, 2]  |  data = 0, sizeInBytes = 1163264  |  isAliased = tensor_99_id_80410_module/model/31/aten__transpose, type = concat, offset: 4096  |  location = in DRAM  |  isSparseLayout  |  "
    }
  }
}
node {
  name: "module/model/31/rotary_pos_embedding_fwd_bf16/2765_complex/rotary_pos_embedding_fwd_bf16_62/rope_st2_fwd_bf16_16_bundle_188/op_0"
  op: "rope_st2_fwd_bf16"
  input: "tensor_37_id_80414_module/model/31/aten__transpose_bundle_188/split_internal/0"
  input: "module/model/31/rotary_pos_embedding_fwd_bf16/2765_complex/rotary_pos_embedding_fwd_bf16_62/expand_dims_12"
  input: "module/model/31/rotary_pos_embedding_fwd_bf16/2765_complex/rotary_pos_embedding_fwd_bf16_62/expand_dims_14"
  attr {
    key: "Bundle_idx"
    value {
      s: "188"
    }
  }
  attr {
    key: "Exec_idx"
    value {
      s: "34"
    }
  }
  attr {
    key: "Op_idx"
    value {
      s: "2"
    }
  }
  attr {
    key: "inputTensor:0"
    value {
      s: "tensor_37_id_80414_module/model/31/aten__transpose_slice_0_0_0_0_0__0__bundle_188_34335  |  Sizes = [1,4,284,128]  |  bf16  |  expBias = 0, scale = 1  |    |  ModelParam = 0  |  strides = [581632, 581632, 256, 2048, 2]  |  data = 0, sizeInBytes = 290816  |  isAliased = tensor_37_id_80414_module/model/31/aten__transpose, type = concat, offset: 0  |  location = in DRAM  |  isSparseLayout  |  "
    }
  }
  attr {
    key: "inputTensor:1"
    value {
      s: "bf16-13_33731  |  Sizes = [1,284,128]  |  bf16  |  expBias = 0, scale = 1  |    |  ModelParam = 0  |  strides = [72704, 72704, 256, 2]  |  data = 0, sizeInBytes = 72704  |  location = in DRAM  |  dramOffset = 0x40000023880  |  "
    }
  }
  attr {
    key: "inputTensor:2"
    value {
      s: "bf16-15_33732  |  Sizes = [1,284,128]  |  bf16  |  expBias = 0, scale = 1  |    |  ModelParam = 0  |  strides = [72704, 72704, 256, 2]  |  data = 0, sizeInBytes = 72704  |  location = in DRAM  |  dramOffset = 0x120000000000  |  "
    }
  }
  attr {
    key: "outputTensor:0"
    value {
      s: "tensor_39_slice_0_0_0_0_0__0__bundle_188_34338  |  Sizes = [1,4,284,128]  |  bf16  |  expBias = 0, scale = 1  |    |  ModelParam = 0  |  strides = [581632, 581632, 72704, 256, 2]  |  data = 0, sizeInBytes = 290816  |  isAliased = tensor_39, type = concat, offset: 0  |  location = in DRAM  |  "
    }
  }
}
node {
  name: "module/model/31/rotary_pos_embedding_fwd_bf16/2792_complex/rotary_pos_embedding_fwd_bf16_63/rope_st2_fwd_bf16_16_bundle_188/op_3"
  op: "rope_st2_fwd_bf16"
  input: "tensor_99_id_80410_module/model/31/aten__transpose_bundle_188/split_internal/0"
  input: "module/model/31/rotary_pos_embedding_fwd_bf16/2792_complex/rotary_pos_embedding_fwd_bf16_63/expand_dims_12"
  input: "module/model/31/rotary_pos_embedding_fwd_bf16/2792_complex/rotary_pos_embedding_fwd_bf16_63/expand_dims_14"
  attr {
    key: "Bundle_idx"
    value {
      s: "188"
    }
  }
  attr {
    key: "Exec_idx"
    value {
      s: "35"
    }
  }
  attr {
    key: "Op_idx"
    value {
      s: "3"
    }
  }
  attr {
    key: "inputTensor:0"
    value {
      s: "tensor_99_id_80410_module/model/31/aten__transpose_slice_0_0_0_0_0__0__bundle_188_34343  |  Sizes = [1,16,284,128]  |  bf16  |  expBias = 0, scale = 1  |    |  ModelParam = 0  |  strides = [2326528, 2326528, 256, 8192, 2]  |  data = 0, sizeInBytes = 1163264  |  isAliased = tensor_99_id_80410_module/model/31/aten__transpose, type = concat, offset: 0  |  location = in DRAM  |  isSparseLayout  |  "
    }
  }
  attr {
    key: "inputTensor:1"
    value {
      s: "bf16-13_33748  |  Sizes = [1,284,128]  |  bf16  |  expBias = 0, scale = 1  |    |  ModelParam = 0  |  strides = [72704, 72704, 256, 2]  |  data = 0, sizeInBytes = 72704  |  location = in DRAM  |  dramOffset = 0x120000058c00  |  "
    }
  }
  attr {
    key: "inputTensor:2"
    value {
      s: "bf16-15_33749  |  Sizes = [1,284,128]  |  bf16  |  expBias = 0, scale = 1  |    |  ModelParam = 0  |  strides = [72704, 72704, 256, 2]  |  data = 0, sizeInBytes = 72704  |  location = in DRAM  |  dramOffset = 0x12000006a800  |  "
    }
  }
  attr {
    key: "outputTensor:0"
    value {
      s: "tensor_101_slice_0_0_0_0_0__0__bundle_188_34346  |  Sizes = [1,16,284,128]  |  bf16  |  expBias = 0, scale = 1  |    |  ModelParam = 0  |  strides = [1163264, 1163264, 72704, 256, 2]  |  data = 0, sizeInBytes = 1163264  |  location = in SRAM  |  sramOffset = 0x1000fffffd3a4000  |  "
    }
  }
}
node {
  name: "module/model/31/rotary_pos_embedding_fwd_bf16/2765_complex/rotary_pos_embedding_fwd_bf16_62/rope_st2_fwd_bf16_16_bundle_188/op_6"
  op: "rope_st2_fwd_bf16"
  input: "tensor_37_id_80414_module/model/31/aten__transpose_bundle_188/split_internal/0"
  input: "module/model/31/rotary_pos_embedding_fwd_bf16/2765_complex/rotary_pos_embedding_fwd_bf16_62/expand_dims_12"
  input: "module/model/31/rotary_pos_embedding_fwd_bf16/2765_complex/rotary_pos_embedding_fwd_bf16_62/expand_dims_14"
  attr {
    key: "Bundle_idx"
    value {
      s: "188"
    }
  }
  attr {
    key: "Exec_idx"
    value {
      s: "36"
    }
  }
  attr {
    key: "Op_idx"
    value {
      s: "4"
    }
  }
  attr {
    key: "inputTensor:0"
    value {
      s: "tensor_37_id_80414_module/model/31/aten__transpose_slice_0_0_1_0_0__0__bundle_188_34349  |  Sizes = [1,4,284,128]  |  bf16  |  expBias = 0, scale = 1  |    |  ModelParam = 0  |  strides = [581632, 581632, 256, 2048, 2]  |  data = 0, sizeInBytes = 290816  |  isAliased = tensor_37_id_80414_module/model/31/aten__transpose, type = concat, offset: 1024  |  location = in DRAM  |  isSparseLayout  |  "
    }
  }
  attr {
    key: "inputTensor:1"
    value {
      s: "bf16-13_33731  |  Sizes = [1,284,128]  |  bf16  |  expBias = 0, scale = 1  |    |  ModelParam = 0  |  strides = [72704, 72704, 256, 2]  |  data = 0, sizeInBytes = 72704  |  location = in DRAM  |  dramOffset = 0x40000023880  |  "
    }
  }
  attr {
    key: "inputTensor:2"
    value {
      s: "bf16-15_33732  |  Sizes = [1,284,128]  |  bf16  |  expBias = 0, scale = 1  |    |  ModelParam = 0  |  strides = [72704, 72704, 256, 2]  |  data = 0, sizeInBytes = 72704  |  location = in DRAM  |  dramOffset = 0x120000000000  |  "
    }
  }
  attr {
    key: "outputTensor:0"
    value {
      s: "tensor_39_slice_0_0_1_0_0__0__bundle_188_34350  |  Sizes = [1,4,284,128]  |  bf16  |  expBias = 0, scale = 1  |    |  ModelParam = 0  |  strides = [581632, 581632, 72704, 256, 2]  |  data = 0, sizeInBytes = 290816  |  isAliased = tensor_39, type = concat, offset: 290816  |  location = in DRAM  |  "
    }
  }
}
node {
  name: "tensor_39_bundle_188/concat_logical_internal/0"
  op: "Concatenate"
  input: "module/model/31/rotary_pos_embedding_fwd_bf16/2765_complex/rotary_pos_embedding_fwd_bf16_62/rope_st2_fwd_bf16_16_bundle_188/op_0"
  input: "module/model/31/rotary_pos_embedding_fwd_bf16/2765_complex/rotary_pos_embedding_fwd_bf16_62/rope_st2_fwd_bf16_16_bundle_188/op_6"
  attr {
    key: "Bundle_idx"
    value {
      s: "188"
    }
  }
  attr {
    key: "Exec_idx"
    value {
      s: "37"
    }
  }
  attr {
    key: "Op_idx"
    value {
      s: "5"
    }
  }
  attr {
    key: "inputTensor:0"
    value {
      s: "tensor_39_slice_0_0_0_0_0__0__bundle_188_34338  |  Sizes = [1,4,284,128]  |  bf16  |  expBias = 0, scale = 1  |    |  ModelParam = 0  |  strides = [581632, 581632, 72704, 256, 2]  |  data = 0, sizeInBytes = 290816  |  isAliased = tensor_39, type = concat, offset: 0  |  location = in DRAM  |  "
    }
  }
  attr {
    key: "inputTensor:1"
    value {
      s: "tensor_39_slice_0_0_1_0_0__0__bundle_188_34350  |  Sizes = [1,4,284,128]  |  bf16  |  expBias = 0, scale = 1  |    |  ModelParam = 0  |  strides = [581632, 581632, 72704, 256, 2]  |  data = 0, sizeInBytes = 290816  |  isAliased = tensor_39, type = concat, offset: 290816  |  location = in DRAM  |  "
    }
  }
  attr {
    key: "outputTensor:0"
    value {
      s: "tensor_39  |  Sizes = [1,8,284,128]  |  bf16  |  expBias = 0, scale = 1  |    |  ModelParam = 0  |  strides = [581632, 581632, 72704, 256, 2]  |  data = 0, sizeInBytes = 581632  |  location = in DRAM  |  dramOffset = 0x420000238000  |  "
    }
  }
}
node {
  name: "tensor_39"
  op: "OutputTensor"
  input: "tensor_39_bundle_188/concat_logical_internal/0"
  attr {
    key: "dtype"
    value {
      type: DT_BFLOAT16
    }
  }
  attr {
    key: "shape"
    value {
      shape {
        dim {
          size: 128
        }
        dim {
          size: 284
        }
        dim {
          size: 8
        }
        dim {
          size: 1
        }
        dim {
          size: 1
        }
      }
    }
  }
  attr {
    key: "synDataType"
    value {
      s: "bf16"
    }
  }
}
node {
  name: "module/model/31/rotary_pos_embedding_fwd_bf16/2792_complex/rotary_pos_embedding_fwd_bf16_63/rope_st2_fwd_bf16_16_bundle_188/op_9"
  op: "rope_st2_fwd_bf16"
  input: "tensor_99_id_80410_module/model/31/aten__transpose_bundle_188/split_internal/0"
  input: "module/model/31/rotary_pos_embedding_fwd_bf16/2792_complex/rotary_pos_embedding_fwd_bf16_63/expand_dims_12"
  input: "module/model/31/rotary_pos_embedding_fwd_bf16/2792_complex/rotary_pos_embedding_fwd_bf16_63/expand_dims_14"
  attr {
    key: "Bundle_idx"
    value {
      s: "188"
    }
  }
  attr {
    key: "Exec_idx"
    value {
      s: "38"
    }
  }
  attr {
    key: "Op_idx"
    value {
      s: "6"
    }
  }
  attr {
    key: "inputTensor:0"
    value {
      s: "tensor_99_id_80410_module/model/31/aten__transpose_slice_0_0_1_0_0__0__bundle_188_34355  |  Sizes = [1,16,284,128]  |  bf16  |  expBias = 0, scale = 1  |    |  ModelParam = 0  |  strides = [2326528, 2326528, 256, 8192, 2]  |  data = 0, sizeInBytes = 1163264  |  isAliased = tensor_99_id_80410_module/model/31/aten__transpose, type = concat, offset: 4096  |  location = in DRAM  |  isSparseLayout  |  "
    }
  }
  attr {
    key: "inputTensor:1"
    value {
      s: "bf16-13_33748  |  Sizes = [1,284,128]  |  bf16  |  expBias = 0, scale = 1  |    |  ModelParam = 0  |  strides = [72704, 72704, 256, 2]  |  data = 0, sizeInBytes = 72704  |  location = in DRAM  |  dramOffset = 0x120000058c00  |  "
    }
  }
  attr {
    key: "inputTensor:2"
    value {
      s: "bf16-15_33749  |  Sizes = [1,284,128]  |  bf16  |  expBias = 0, scale = 1  |    |  ModelParam = 0  |  strides = [72704, 72704, 256, 2]  |  data = 0, sizeInBytes = 72704  |  location = in DRAM  |  dramOffset = 0x12000006a800  |  "
    }
  }
  attr {
    key: "outputTensor:0"
    value {
      s: "tensor_101_slice_0_0_1_0_0__0__bundle_188_34356  |  Sizes = [1,16,284,128]  |  bf16  |  expBias = 0, scale = 1  |    |  ModelParam = 0  |  strides = [1163264, 1163264, 72704, 256, 2]  |  data = 0, sizeInBytes = 1163264  |  location = in SRAM  |  sramOffset = 0x1000fffffd4c0000  |  "
    }
  }
}
node {
  name: "fusedTPCNode_52_1_bundle_188/op_1"
  op: "fused_kernel_0x103ECDE1_B0_bf16"
  input: "module/model/31/rotary_pos_embedding_fwd_bf16/2765_complex/rotary_pos_embedding_fwd_bf16_62/rope_st2_fwd_bf16_16_bundle_188/op_0"
  attr {
    key: "Bundle_idx"
    value {
      s: "188"
    }
  }
  attr {
    key: "Exec_idx"
    value {
      s: "39"
    }
  }
  attr {
    key: "Op_idx"
    value {
      s: "7"
    }
  }
  attr {
    key: "inputTensor:0"
    value {
      s: "tensor_39_slice_0_0_0_0_0__0__bundle_188_34338  |  Sizes = [1,4,284,128]  |  bf16  |  expBias = 0, scale = 1  |    |  ModelParam = 0  |  strides = [581632, 581632, 72704, 256, 2]  |  data = 0, sizeInBytes = 290816  |  isAliased = tensor_39, type = concat, offset: 0  |  location = in DRAM  |  "
    }
  }
  attr {
    key: "outputTensor:0"
    value {
      s: "tensor_44_slice_0_0_0_0_0__0__bundle_188_34339  |  Sizes = [1,4,284,128]  |  hfloat8  |  expBias = 7, scale = 1  |    |  ModelParam = 0  |  strides = [290816, 290816, 36352, 128, 1]  |  data = 0, sizeInBytes = 145408  |  isAliased = tensor_44, type = concat, offset: 0  |  location = in DRAM  |  "
    }
  }
  attr {
    key: "outputTensor:1"
    value {
      s: "tensor_47_slice_0_0_0_0_0__0__bundle_188_34340  |  Sizes = [1,4,284,128]  |  bf16  |  expBias = 0, scale = 1  |    |  ModelParam = 0  |  strides = [581632, 581632, 72704, 256, 2]  |  data = 0, sizeInBytes = 290816  |  isAliased = tensor_47, type = concat, offset: 0  |  location = in DRAM  |  "
    }
  }
  attr {
    key: "outputTensor:2"
    value {
      s: "tensor-33969_slice_0_0_0_0_0__0__bundle_188_34341  |  Sizes = [1,4,284,128]  |  hfloat8  |  expBias = 7, scale = 1  |    |  ModelParam = 0  |  strides = [145408, 145408, 36352, 128, 1]  |  data = 0, sizeInBytes = 145408  |  isAliased = tensor_87_id_80525_module/model/31/fused_scaled_dot_product_attention/aten__view_slice_0_0_0_0_0__0__bundle_188_34342, type = alias, offset: 0  |  location = in SRAM  |  sramOffset = 0x1000fffffd5dc000  |  "
    }
  }
}
node {
  name: "reshape_5_5_bundle_188/op_2"
  op: "Reshape"
  input: "fusedTPCNode_52_1_bundle_188/op_1"
  attr {
    key: "Bundle_idx"
    value {
      s: "188"
    }
  }
  attr {
    key: "Exec_idx"
    value {
      s: "40"
    }
  }
  attr {
    key: "Op_idx"
    value {
      s: "8"
    }
  }
  attr {
    key: "inputTensor:0"
    value {
      s: "tensor-33969_slice_0_0_0_0_0__0__bundle_188_34341  |  Sizes = [1,4,284,128]  |  hfloat8  |  expBias = 7, scale = 1  |    |  ModelParam = 0  |  strides = [145408, 145408, 36352, 128, 1]  |  data = 0, sizeInBytes = 145408  |  isAliased = tensor_87_id_80525_module/model/31/fused_scaled_dot_product_attention/aten__view_slice_0_0_0_0_0__0__bundle_188_34342, type = alias, offset: 0  |  location = in SRAM  |  sramOffset = 0x1000fffffd5dc000  |  "
    }
  }
  attr {
    key: "outputTensor:0"
    value {
      s: "tensor_87_id_80525_module/model/31/fused_scaled_dot_product_attention/aten__view_slice_0_0_0_0_0__0__bundle_188_34342  |  Sizes = [1,4,1,284,128]  |  hfloat8  |  expBias = 7, scale = 1  |    |  ModelParam = 0  |  strides = [145408, 145408, 36352, 36352, 128, 1]  |  data = 0, sizeInBytes = 145408  |  location = in SRAM  |  sramOffset = 0x1000fffffd5dc000  |  "
    }
  }
}
node {
  name: "fusedTPCNode_52_3_bundle_188/op_4"
  op: "fused_kernel_0xBF0A9C96_B2_hf8"
  input: "module/model/31/rotary_pos_embedding_fwd_bf16/2792_complex/rotary_pos_embedding_fwd_bf16_63/rope_st2_fwd_bf16_16_bundle_188/op_3"
  attr {
    key: "Bundle_idx"
    value {
      s: "188"
    }
  }
  attr {
    key: "Exec_idx"
    value {
      s: "41"
    }
  }
  attr {
    key: "Op_idx"
    value {
      s: "9"
    }
  }
  attr {
    key: "inputTensor:0"
    value {
      s: "tensor_101_slice_0_0_0_0_0__0__bundle_188_34346  |  Sizes = [1,16,284,128]  |  bf16  |  expBias = 0, scale = 1  |    |  ModelParam = 0  |  strides = [1163264, 1163264, 72704, 256, 2]  |  data = 0, sizeInBytes = 1163264  |  location = in SRAM  |  sramOffset = 0x1000fffffd3a4000  |  "
    }
  }
  attr {
    key: "outputTensor:0"
    value {
      s: "tensor-33971_slice_0_0_0_0_0__0__bundle_188_34347  |  Sizes = [1,16,284,128]  |  hfloat8  |  expBias = 7, scale = 1  |    |  ModelParam = 0  |  strides = [581632, 581632, 36352, 128, 1]  |  data = 0, sizeInBytes = 581632  |  isAliased = tensor_106_id_80523_module/model/31/fused_scaled_dot_product_attention/aten__view_slice_0_0_0_0_0__0__bundle_188_34348, type = alias, offset: 0  |  location = in SRAM  |  sramOffset = 0x1000fffffd623000  |  "
    }
  }
}
node {
  name: "reshape_11_11_bundle_188/op_5"
  op: "Reshape"
  input: "fusedTPCNode_52_3_bundle_188/op_4"
  attr {
    key: "Bundle_idx"
    value {
      s: "188"
    }
  }
  attr {
    key: "Exec_idx"
    value {
      s: "42"
    }
  }
  attr {
    key: "Op_idx"
    value {
      s: "10"
    }
  }
  attr {
    key: "inputTensor:0"
    value {
      s: "tensor-33971_slice_0_0_0_0_0__0__bundle_188_34347  |  Sizes = [1,16,284,128]  |  hfloat8  |  expBias = 7, scale = 1  |    |  ModelParam = 0  |  strides = [581632, 581632, 36352, 128, 1]  |  data = 0, sizeInBytes = 581632  |  isAliased = tensor_106_id_80523_module/model/31/fused_scaled_dot_product_attention/aten__view_slice_0_0_0_0_0__0__bundle_188_34348, type = alias, offset: 0  |  location = in SRAM  |  sramOffset = 0x1000fffffd623000  |  "
    }
  }
  attr {
    key: "outputTensor:0"
    value {
      s: "tensor_106_id_80523_module/model/31/fused_scaled_dot_product_attention/aten__view_slice_0_0_0_0_0__0__bundle_188_34348  |  Sizes = [1,4,4,284,128]  |  hfloat8  |  expBias = 7, scale = 1  |    |  ModelParam = 0  |  strides = [581632, 581632, 145408, 36352, 128, 1]  |  data = 0, sizeInBytes = 581632  |  location = in SRAM  |  sramOffset = 0x1000fffffd623000  |  "
    }
  }
}
node {
  name: "fusedTPCNode_52_1_bundle_188/op_7"
  op: "fused_kernel_0x103ECDE1_B0_bf16"
  input: "module/model/31/rotary_pos_embedding_fwd_bf16/2765_complex/rotary_pos_embedding_fwd_bf16_62/rope_st2_fwd_bf16_16_bundle_188/op_6"
  attr {
    key: "Bundle_idx"
    value {
      s: "188"
    }
  }
  attr {
    key: "Exec_idx"
    value {
      s: "43"
    }
  }
  attr {
    key: "Op_idx"
    value {
      s: "11"
    }
  }
  attr {
    key: "inputTensor:0"
    value {
      s: "tensor_39_slice_0_0_1_0_0__0__bundle_188_34350  |  Sizes = [1,4,284,128]  |  bf16  |  expBias = 0, scale = 1  |    |  ModelParam = 0  |  strides = [581632, 581632, 72704, 256, 2]  |  data = 0, sizeInBytes = 290816  |  isAliased = tensor_39, type = concat, offset: 290816  |  location = in DRAM  |  "
    }
  }
  attr {
    key: "outputTensor:0"
    value {
      s: "tensor_44_slice_0_0_1_0_0__0__bundle_188_34351  |  Sizes = [1,4,284,128]  |  hfloat8  |  expBias = 7, scale = 1  |    |  ModelParam = 0  |  strides = [290816, 290816, 36352, 128, 1]  |  data = 0, sizeInBytes = 145408  |  isAliased = tensor_44, type = concat, offset: 145408  |  location = in DRAM  |  "
    }
  }
  attr {
    key: "outputTensor:1"
    value {
      s: "tensor_47_slice_0_0_1_0_0__0__bundle_188_34352  |  Sizes = [1,4,284,128]  |  bf16  |  expBias = 0, scale = 1  |    |  ModelParam = 0  |  strides = [581632, 581632, 72704, 256, 2]  |  data = 0, sizeInBytes = 290816  |  isAliased = tensor_47, type = concat, offset: 290816  |  location = in DRAM  |  "
    }
  }
  attr {
    key: "outputTensor:2"
    value {
      s: "tensor-33969_slice_0_0_1_0_0__0__bundle_188_34353  |  Sizes = [1,4,284,128]  |  hfloat8  |  expBias = 7, scale = 1  |    |  ModelParam = 0  |  strides = [145408, 145408, 36352, 128, 1]  |  data = 0, sizeInBytes = 145408  |  isAliased = tensor_87_id_80525_module/model/31/fused_scaled_dot_product_attention/aten__view_slice_0_0_0_1_0__0__bundle_188_34354, type = alias, offset: 0  |  location = in SRAM  |  sramOffset = 0x1000fffffd5ff800  |  "
    }
  }
}
node {
  name: "reshape_5_5_bundle_188/op_8"
  op: "Reshape"
  input: "fusedTPCNode_52_1_bundle_188/op_7"
  attr {
    key: "Bundle_idx"
    value {
      s: "188"
    }
  }
  attr {
    key: "Exec_idx"
    value {
      s: "44"
    }
  }
  attr {
    key: "Op_idx"
    value {
      s: "12"
    }
  }
  attr {
    key: "inputTensor:0"
    value {
      s: "tensor-33969_slice_0_0_1_0_0__0__bundle_188_34353  |  Sizes = [1,4,284,128]  |  hfloat8  |  expBias = 7, scale = 1  |    |  ModelParam = 0  |  strides = [145408, 145408, 36352, 128, 1]  |  data = 0, sizeInBytes = 145408  |  isAliased = tensor_87_id_80525_module/model/31/fused_scaled_dot_product_attention/aten__view_slice_0_0_0_1_0__0__bundle_188_34354, type = alias, offset: 0  |  location = in SRAM  |  sramOffset = 0x1000fffffd5ff800  |  "
    }
  }
  attr {
    key: "outputTensor:0"
    value {
      s: "tensor_87_id_80525_module/model/31/fused_scaled_dot_product_attention/aten__view_slice_0_0_0_1_0__0__bundle_188_34354  |  Sizes = [1,4,1,284,128]  |  hfloat8  |  expBias = 7, scale = 1  |    |  ModelParam = 0  |  strides = [145408, 145408, 36352, 36352, 128, 1]  |  data = 0, sizeInBytes = 145408  |  location = in SRAM  |  sramOffset = 0x1000fffffd5ff800  |  "
    }
  }
}
node {
  name: "tensor_44_bundle_188/concat_logical_internal/0"
  op: "Concatenate"
  input: "fusedTPCNode_52_1_bundle_188/op_1"
  input: "fusedTPCNode_52_1_bundle_188/op_7"
  attr {
    key: "Bundle_idx"
    value {
      s: "188"
    }
  }
  attr {
    key: "Exec_idx"
    value {
      s: "45"
    }
  }
  attr {
    key: "Op_idx"
    value {
      s: "13"
    }
  }
  attr {
    key: "inputTensor:0"
    value {
      s: "tensor_44_slice_0_0_0_0_0__0__bundle_188_34339  |  Sizes = [1,4,284,128]  |  hfloat8  |  expBias = 7, scale = 1  |    |  ModelParam = 0  |  strides = [290816, 290816, 36352, 128, 1]  |  data = 0, sizeInBytes = 145408  |  isAliased = tensor_44, type = concat, offset: 0  |  location = in DRAM  |  "
    }
  }
  attr {
    key: "inputTensor:1"
    value {
      s: "tensor_44_slice_0_0_1_0_0__0__bundle_188_34351  |  Sizes = [1,4,284,128]  |  hfloat8  |  expBias = 7, scale = 1  |    |  ModelParam = 0  |  strides = [290816, 290816, 36352, 128, 1]  |  data = 0, sizeInBytes = 145408  |  isAliased = tensor_44, type = concat, offset: 145408  |  location = in DRAM  |  "
    }
  }
  attr {
    key: "outputTensor:0"
    value {
      s: "tensor_44  |  Sizes = [1,8,284,128]  |  hfloat8  |  expBias = 7, scale = 1  |    |  ModelParam = 0  |  strides = [290816, 290816, 36352, 128, 1]  |  data = 0, sizeInBytes = 290816  |  isPersistent  |  location = in DRAM  |  dramOffset = 0x40000000000  |  userMemorySection(type=Persistent, id=4)  |  "
    }
  }
}
node {
  name: "tensor_44"
  op: "OutputTensor"
  input: "tensor_44_bundle_188/concat_logical_internal/0"
  attr {
    key: "dtype"
    value {
      type: DT_INVALID
    }
  }
  attr {
    key: "shape"
    value {
      shape {
        dim {
          size: 128
        }
        dim {
          size: 284
        }
        dim {
          size: 8
        }
        dim {
          size: 1
        }
        dim {
          size: 1
        }
      }
    }
  }
  attr {
    key: "synDataType"
    value {
      s: "hfloat8"
    }
  }
}
node {
  name: "tensor_47_bundle_188/concat_logical_internal/0"
  op: "Concatenate"
  input: "fusedTPCNode_52_1_bundle_188/op_1"
  input: "fusedTPCNode_52_1_bundle_188/op_7"
  attr {
    key: "Bundle_idx"
    value {
      s: "188"
    }
  }
  attr {
    key: "Exec_idx"
    value {
      s: "46"
    }
  }
  attr {
    key: "Op_idx"
    value {
      s: "14"
    }
  }
  attr {
    key: "inputTensor:0"
    value {
      s: "tensor_47_slice_0_0_0_0_0__0__bundle_188_34340  |  Sizes = [1,4,284,128]  |  bf16  |  expBias = 0, scale = 1  |    |  ModelParam = 0  |  strides = [581632, 581632, 72704, 256, 2]  |  data = 0, sizeInBytes = 290816  |  isAliased = tensor_47, type = concat, offset: 0  |  location = in DRAM  |  "
    }
  }
  attr {
    key: "inputTensor:1"
    value {
      s: "tensor_47_slice_0_0_1_0_0__0__bundle_188_34352  |  Sizes = [1,4,284,128]  |  bf16  |  expBias = 0, scale = 1  |    |  ModelParam = 0  |  strides = [581632, 581632, 72704, 256, 2]  |  data = 0, sizeInBytes = 290816  |  isAliased = tensor_47, type = concat, offset: 290816  |  location = in DRAM  |  "
    }
  }
  attr {
    key: "outputTensor:0"
    value {
      s: "tensor_47  |  Sizes = [1,8,284,128]  |  bf16  |  expBias = 0, scale = 1  |    |  ModelParam = 0  |  strides = [581632, 581632, 72704, 256, 2]  |  data = 0, sizeInBytes = 581632  |  isPersistent  |  location = in DRAM  |  dramOffset = 0x120000000000  |  userMemorySection(type=Persistent, id=18)  |  "
    }
  }
}
node {
  name: "tensor_47"
  op: "OutputTensor"
  input: "tensor_47_bundle_188/concat_logical_internal/0"
  attr {
    key: "dtype"
    value {
      type: DT_BFLOAT16
    }
  }
  attr {
    key: "shape"
    value {
      shape {
        dim {
          size: 128
        }
        dim {
          size: 284
        }
        dim {
          size: 8
        }
        dim {
          size: 1
        }
        dim {
          size: 1
        }
      }
    }
  }
  attr {
    key: "synDataType"
    value {
      s: "bf16"
    }
  }
}
node {
  name: "fusedTPCNode_52_3_bundle_188/op_10"
  op: "fused_kernel_0xBF0A9C96_B2_hf8"
  input: "module/model/31/rotary_pos_embedding_fwd_bf16/2792_complex/rotary_pos_embedding_fwd_bf16_63/rope_st2_fwd_bf16_16_bundle_188/op_9"
  attr {
    key: "Bundle_idx"
    value {
      s: "188"
    }
  }
  attr {
    key: "Exec_idx"
    value {
      s: "47"
    }
  }
  attr {
    key: "Op_idx"
    value {
      s: "15"
    }
  }
  attr {
    key: "inputTensor:0"
    value {
      s: "tensor_101_slice_0_0_1_0_0__0__bundle_188_34356  |  Sizes = [1,16,284,128]  |  bf16  |  expBias = 0, scale = 1  |    |  ModelParam = 0  |  strides = [1163264, 1163264, 72704, 256, 2]  |  data = 0, sizeInBytes = 1163264  |  location = in SRAM  |  sramOffset = 0x1000fffffd4c0000  |  "
    }
  }
  attr {
    key: "outputTensor:0"
    value {
      s: "tensor-33971_slice_0_0_1_0_0__0__bundle_188_34357  |  Sizes = [1,16,284,128]  |  hfloat8  |  expBias = 7, scale = 1  |    |  ModelParam = 0  |  strides = [581632, 581632, 36352, 128, 1]  |  data = 0, sizeInBytes = 581632  |  isAliased = tensor_106_id_80523_module/model/31/fused_scaled_dot_product_attention/aten__view_slice_0_0_0_1_0__0__bundle_188_34358, type = alias, offset: 0  |  location = in SRAM  |  sramOffset = 0x1000fffffd6b1000  |  "
    }
  }
}
node {
  name: "reshape_11_11_bundle_188/op_11"
  op: "Reshape"
  input: "fusedTPCNode_52_3_bundle_188/op_10"
  attr {
    key: "Bundle_idx"
    value {
      s: "188"
    }
  }
  attr {
    key: "Exec_idx"
    value {
      s: "48"
    }
  }
  attr {
    key: "Op_idx"
    value {
      s: "16"
    }
  }
  attr {
    key: "inputTensor:0"
    value {
      s: "tensor-33971_slice_0_0_1_0_0__0__bundle_188_34357  |  Sizes = [1,16,284,128]  |  hfloat8  |  expBias = 7, scale = 1  |    |  ModelParam = 0  |  strides = [581632, 581632, 36352, 128, 1]  |  data = 0, sizeInBytes = 581632  |  isAliased = tensor_106_id_80523_module/model/31/fused_scaled_dot_product_attention/aten__view_slice_0_0_0_1_0__0__bundle_188_34358, type = alias, offset: 0  |  location = in SRAM  |  sramOffset = 0x1000fffffd6b1000  |  "
    }
  }
  attr {
    key: "outputTensor:0"
    value {
      s: "tensor_106_id_80523_module/model/31/fused_scaled_dot_product_attention/aten__view_slice_0_0_0_1_0__0__bundle_188_34358  |  Sizes = [1,4,4,284,128]  |  hfloat8  |  expBias = 7, scale = 1  |    |  ModelParam = 0  |  strides = [581632, 581632, 145408, 36352, 128, 1]  |  data = 0, sizeInBytes = 581632  |  location = in SRAM  |  sramOffset = 0x1000fffffd6b1000  |  "
    }
  }
}
node {
  name: "module/model/31/fused_scaled_dot_product_attention/sdpa_recomp_fwd_hf8/2795_complex/sdpa_recomp_fwd_hf8_63/sdpa_recomp_core_fwd_hf8_31/fp8_gemm_hf8_502/batch_gemm_16_bundle_188/op_12"
  op: "BatchGemm"
  input: "reshape_11_11_bundle_188/op_5"
  input: "reshape_5_5_bundle_188/op_2"
  attr {
    key: "Bundle_idx"
    value {
      s: "188"
    }
  }
  attr {
    key: "Exec_idx"
    value {
      s: "49"
    }
  }
  attr {
    key: "Op_idx"
    value {
      s: "17"
    }
  }
  attr {
    key: "Parameters"
    value {
      s: "transpose_a=false, transpose_b=true"
    }
  }
  attr {
    key: "fp8BiasIn"
    value {
      s: "7"
    }
  }
  attr {
    key: "fp8BiasIn2"
    value {
      s: "7"
    }
  }
  attr {
    key: "fp8BiasOut"
    value {
      s: "0"
    }
  }
  attr {
    key: "inputTensor:0"
    value {
      s: "tensor_106_id_80523_module/model/31/fused_scaled_dot_product_attention/aten__view_slice_0_0_0_0_0__0__bundle_188_34348  |  Sizes = [1,4,4,284,128]  |  hfloat8  |  expBias = 7, scale = 1  |    |  ModelParam = 0  |  strides = [581632, 581632, 145408, 36352, 128, 1]  |  data = 0, sizeInBytes = 581632  |  location = in SRAM  |  sramOffset = 0x1000fffffd623000  |  "
    }
  }
  attr {
    key: "inputTensor:1"
    value {
      s: "tensor_87_id_80525_module/model/31/fused_scaled_dot_product_attention/aten__view_slice_0_0_0_0_0__0__bundle_188_34342  |  Sizes = [1,4,1,284,128]  |  hfloat8  |  expBias = 7, scale = 1  |    |  ModelParam = 0  |  strides = [145408, 145408, 36352, 36352, 128, 1]  |  data = 0, sizeInBytes = 145408  |  location = in SRAM  |  sramOffset = 0x1000fffffd5dc000  |  "
    }
  }
  attr {
    key: "outputTensor:0"
    value {
      s: "bf16-17_33758_slice_0_0_0_0_0__0__bundle_188_34359  |  Sizes = [1,4,4,284,284]  |  bf16  |  expBias = 0, scale = 1  |    |  ModelParam = 0  |  strides = [5161984, 5161984, 645248, 161312, 568, 2]  |  data = 0, sizeInBytes = 2580992  |  isAliased = bf16-17_33758, type = concat, offset: 0  |  location = in DRAM  |  "
    }
  }
}
node {
  name: "module/model/31/fused_scaled_dot_product_attention/sdpa_recomp_fwd_hf8/2795_complex/sdpa_recomp_fwd_hf8_63/sdpa_recomp_core_fwd_hf8_31/fp8_gemm_hf8_502/batch_gemm_16_bundle_188/op_13"
  op: "BatchGemm"
  input: "reshape_11_11_bundle_188/op_11"
  input: "reshape_5_5_bundle_188/op_8"
  attr {
    key: "Bundle_idx"
    value {
      s: "188"
    }
  }
  attr {
    key: "Exec_idx"
    value {
      s: "50"
    }
  }
  attr {
    key: "Op_idx"
    value {
      s: "18"
    }
  }
  attr {
    key: "Parameters"
    value {
      s: "transpose_a=false, transpose_b=true"
    }
  }
  attr {
    key: "fp8BiasIn"
    value {
      s: "7"
    }
  }
  attr {
    key: "fp8BiasIn2"
    value {
      s: "7"
    }
  }
  attr {
    key: "fp8BiasOut"
    value {
      s: "0"
    }
  }
  attr {
    key: "inputTensor:0"
    value {
      s: "tensor_106_id_80523_module/model/31/fused_scaled_dot_product_attention/aten__view_slice_0_0_0_1_0__0__bundle_188_34358  |  Sizes = [1,4,4,284,128]  |  hfloat8  |  expBias = 7, scale = 1  |    |  ModelParam = 0  |  strides = [581632, 581632, 145408, 36352, 128, 1]  |  data = 0, sizeInBytes = 581632  |  location = in SRAM  |  sramOffset = 0x1000fffffd6b1000  |  "
    }
  }
  attr {
    key: "inputTensor:1"
    value {
      s: "tensor_87_id_80525_module/model/31/fused_scaled_dot_product_attention/aten__view_slice_0_0_0_1_0__0__bundle_188_34354  |  Sizes = [1,4,1,284,128]  |  hfloat8  |  expBias = 7, scale = 1  |    |  ModelParam = 0  |  strides = [145408, 145408, 36352, 36352, 128, 1]  |  data = 0, sizeInBytes = 145408  |  location = in SRAM  |  sramOffset = 0x1000fffffd5ff800  |  "
    }
  }
  attr {
    key: "outputTensor:0"
    value {
      s: "bf16-17_33758_slice_0_0_0_1_0__0__bundle_188_34360  |  Sizes = [1,4,4,284,284]  |  bf16  |  expBias = 0, scale = 1  |    |  ModelParam = 0  |  strides = [5161984, 5161984, 645248, 161312, 568, 2]  |  data = 0, sizeInBytes = 2580992  |  isAliased = bf16-17_33758, type = concat, offset: 2580992  |  location = in DRAM  |  "
    }
  }
}
node {
  name: "bf16-17_33758_bundle_188/concat_logical_internal/0"
  op: "Concatenate"
  input: "module/model/31/fused_scaled_dot_product_attention/sdpa_recomp_fwd_hf8/2795_complex/sdpa_recomp_fwd_hf8_63/sdpa_recomp_core_fwd_hf8_31/fp8_gemm_hf8_502/batch_gemm_16_bundle_188/op_12"
  input: "module/model/31/fused_scaled_dot_product_attention/sdpa_recomp_fwd_hf8/2795_complex/sdpa_recomp_fwd_hf8_63/sdpa_recomp_core_fwd_hf8_31/fp8_gemm_hf8_502/batch_gemm_16_bundle_188/op_13"
  attr {
    key: "Bundle_idx"
    value {
      s: "188"
    }
  }
  attr {
    key: "Exec_idx"
    value {
      s: "51"
    }
  }
  attr {
    key: "Op_idx"
    value {
      s: "19"
    }
  }
  attr {
    key: "inputTensor:0"
    value {
      s: "bf16-17_33758_slice_0_0_0_0_0__0__bundle_188_34359  |  Sizes = [1,4,4,284,284]  |  bf16  |  expBias = 0, scale = 1  |    |  ModelParam = 0  |  strides = [5161984, 5161984, 645248, 161312, 568, 2]  |  data = 0, sizeInBytes = 2580992  |  isAliased = bf16-17_33758, type = concat, offset: 0  |  location = in DRAM  |  "
    }
  }
  attr {
    key: "inputTensor:1"
    value {
      s: "bf16-17_33758_slice_0_0_0_1_0__0__bundle_188_34360  |  Sizes = [1,4,4,284,284]  |  bf16  |  expBias = 0, scale = 1  |    |  ModelParam = 0  |  strides = [5161984, 5161984, 645248, 161312, 568, 2]  |  data = 0, sizeInBytes = 2580992  |  isAliased = bf16-17_33758, type = concat, offset: 2580992  |  location = in DRAM  |  "
    }
  }
  attr {
    key: "outputTensor:0"
    value {
      s: "bf16-17_33758  |  Sizes = [1,8,4,284,284]  |  bf16  |  expBias = 0, scale = 1  |    |  ModelParam = 0  |  strides = [5161984, 5161984, 645248, 161312, 568, 2]  |  data = 0, sizeInBytes = 5161984  |  location = in DRAM  |  dramOffset = 0x4200002c6000  |  "
    }
  }
}
node {
  name: "module/model/31/fused_scaled_dot_product_attention/sdpa_recomp_fwd_hf8/2795_complex/sdpa_recomp_fwd_hf8_63/sdpa_recomp_core_fwd_hf8_31/constant_f32_18"
  op: "constant_f32"
  attr {
    key: "Bundle_idx"
    value {
      s: "N/A"
    }
  }
  attr {
    key: "Exec_idx"
    value {
      s: "52"
    }
  }
  attr {
    key: "Op_idx"
    value {
      s: "N/A"
    }
  }
  attr {
    key: "outputTensor:0"
    value {
      s: "f32-19_33759  |  Sizes = [1]  |  float32  |  expBias = 0, scale = 1  |    |  ModelParam = 0  |  strides = [4, 4]  |  data = 0, sizeInBytes = 4  |  location = in DRAM  |  dramOffset = 0x4200007b2400  |  "
    }
  }
}
node {
  name: "module/model/31/fused_scaled_dot_product_attention/sdpa_recomp_fwd_hf8/2795_complex/sdpa_recomp_fwd_hf8_63/sdpa_recomp_core_fwd_hf8_31/constant_f32_20"
  op: "constant_f32"
  attr {
    key: "Bundle_idx"
    value {
      s: "N/A"
    }
  }
  attr {
    key: "Exec_idx"
    value {
      s: "53"
    }
  }
  attr {
    key: "Op_idx"
    value {
      s: "N/A"
    }
  }
  attr {
    key: "outputTensor:0"
    value {
      s: "f32-21_33760  |  Sizes = [1]  |  float32  |  expBias = 0, scale = 1  |    |  ModelParam = 0  |  strides = [4, 4]  |  data = 0, sizeInBytes = 4  |  location = in DRAM  |  dramOffset = 0x4200007b2480  |  "
    }
  }
}
node {
  name: "tensor_67_bundle_189/split_internal/0"
  op: "Split"
  input: "module/model/31/quant_input_0/transpose/2773_transpose_via_logical"
  attr {
    key: "Bundle_idx"
    value {
      s: "189"
    }
  }
  attr {
    key: "Exec_idx"
    value {
      s: "54"
    }
  }
  attr {
    key: "Op_idx"
    value {
      s: "0"
    }
  }
  attr {
    key: "inputTensor:0"
    value {
      s: "tensor_67  |  Sizes = [1,8,284,128]  |  hfloat8  |  expBias = 7, scale = 1  |    |  ModelParam = 0  |  strides = [290816, 290816, 36352, 128, 1]  |  data = 0, sizeInBytes = 290816  |  isPersistent  |  location = in DRAM  |  dramOffset = 0x130000000000  |  userMemorySection(type=Persistent, id=19)  |  "
    }
  }
  attr {
    key: "outputTensor:0"
    value {
      s: "tensor_67_slice_0_0_0_0_0__0__bundle_189_34361  |  Sizes = [1,2,284,128]  |  hfloat8  |  expBias = 7, scale = 1  |    |  ModelParam = 0  |  strides = [290816, 290816, 36352, 128, 1]  |  data = 0, sizeInBytes = 72704  |  isAliased = tensor_67, type = concat, offset: 0  |  location = in DRAM  |  "
    }
  }
  attr {
    key: "outputTensor:1"
    value {
      s: "tensor_67_slice_0_0_1_0_0__0__bundle_189_34371  |  Sizes = [1,2,284,128]  |  hfloat8  |  expBias = 7, scale = 1  |    |  ModelParam = 0  |  strides = [290816, 290816, 36352, 128, 1]  |  data = 0, sizeInBytes = 72704  |  isAliased = tensor_67, type = concat, offset: 72704  |  location = in DRAM  |  "
    }
  }
  attr {
    key: "outputTensor:2"
    value {
      s: "tensor_67_slice_0_0_2_0_0__0__bundle_189_34378  |  Sizes = [1,2,284,128]  |  hfloat8  |  expBias = 7, scale = 1  |    |  ModelParam = 0  |  strides = [290816, 290816, 36352, 128, 1]  |  data = 0, sizeInBytes = 72704  |  isAliased = tensor_67, type = concat, offset: 145408  |  location = in DRAM  |  "
    }
  }
  attr {
    key: "outputTensor:3"
    value {
      s: "tensor_67_slice_0_0_3_0_0__0__bundle_189_34385  |  Sizes = [1,2,284,128]  |  hfloat8  |  expBias = 7, scale = 1  |    |  ModelParam = 0  |  strides = [290816, 290816, 36352, 128, 1]  |  data = 0, sizeInBytes = 72704  |  isAliased = tensor_67, type = concat, offset: 218112  |  location = in DRAM  |  "
    }
  }
}
node {
  name: "bf16-17_33758_bundle_189/split_internal/0"
  op: "Split"
  input: "bf16-17_33758_bundle_188/concat_logical_internal/0"
  attr {
    key: "Bundle_idx"
    value {
      s: "189"
    }
  }
  attr {
    key: "Exec_idx"
    value {
      s: "55"
    }
  }
  attr {
    key: "Op_idx"
    value {
      s: "1"
    }
  }
  attr {
    key: "inputTensor:0"
    value {
      s: "bf16-17_33758  |  Sizes = [1,8,4,284,284]  |  bf16  |  expBias = 0, scale = 1  |    |  ModelParam = 0  |  strides = [5161984, 5161984, 645248, 161312, 568, 2]  |  data = 0, sizeInBytes = 5161984  |  location = in DRAM  |  dramOffset = 0x4200002c6000  |  "
    }
  }
  attr {
    key: "outputTensor:0"
    value {
      s: "bf16-17_33758_slice_0_0_0_0_0__0__bundle_189_34365  |  Sizes = [1,2,4,284,284]  |  bf16  |  expBias = 0, scale = 1  |    |  ModelParam = 0  |  strides = [5161984, 5161984, 645248, 161312, 568, 2]  |  data = 0, sizeInBytes = 1290496  |  isAliased = bf16-17_33758, type = concat, offset: 0  |  location = in DRAM  |  "
    }
  }
  attr {
    key: "outputTensor:1"
    value {
      s: "bf16-17_33758_slice_0_0_0_1_0__0__bundle_189_34375  |  Sizes = [1,2,4,284,284]  |  bf16  |  expBias = 0, scale = 1  |    |  ModelParam = 0  |  strides = [5161984, 5161984, 645248, 161312, 568, 2]  |  data = 0, sizeInBytes = 1290496  |  isAliased = bf16-17_33758, type = concat, offset: 1290496  |  location = in DRAM  |  "
    }
  }
  attr {
    key: "outputTensor:2"
    value {
      s: "bf16-17_33758_slice_0_0_0_2_0__0__bundle_189_34382  |  Sizes = [1,2,4,284,284]  |  bf16  |  expBias = 0, scale = 1  |    |  ModelParam = 0  |  strides = [5161984, 5161984, 645248, 161312, 568, 2]  |  data = 0, sizeInBytes = 1290496  |  isAliased = bf16-17_33758, type = concat, offset: 2580992  |  location = in DRAM  |  "
    }
  }
  attr {
    key: "outputTensor:3"
    value {
      s: "bf16-17_33758_slice_0_0_0_3_0__0__bundle_189_34389  |  Sizes = [1,2,4,284,284]  |  bf16  |  expBias = 0, scale = 1  |    |  ModelParam = 0  |  strides = [5161984, 5161984, 645248, 161312, 568, 2]  |  data = 0, sizeInBytes = 1290496  |  isAliased = bf16-17_33758, type = concat, offset: 3871488  |  location = in DRAM  |  "
    }
  }
}
node {
  name: "fusedTPCNode_52_2_bundle_189/op_0"
  op: "fused_kernel_0xBF9FDCD7_B1_bf16"
  input: "tensor_67_bundle_189/split_internal/0"
  attr {
    key: "Bundle_idx"
    value {
      s: "189"
    }
  }
  attr {
    key: "Exec_idx"
    value {
      s: "56"
    }
  }
  attr {
    key: "Op_idx"
    value {
      s: "2"
    }
  }
  attr {
    key: "inputTensor:0"
    value {
      s: "tensor_67_slice_0_0_0_0_0__0__bundle_189_34361  |  Sizes = [1,2,284,128]  |  hfloat8  |  expBias = 7, scale = 1  |    |  ModelParam = 0  |  strides = [290816, 290816, 36352, 128, 1]  |  data = 0, sizeInBytes = 72704  |  isAliased = tensor_67, type = concat, offset: 0  |  location = in DRAM  |  "
    }
  }
  attr {
    key: "outputTensor:0"
    value {
      s: "tensor_70_slice_0_0_0_0_0__0__bundle_189_34362  |  Sizes = [1,2,284,128]  |  bf16  |  expBias = 0, scale = 1  |    |  ModelParam = 0  |  strides = [581632, 581632, 72704, 256, 2]  |  data = 0, sizeInBytes = 145408  |  isAliased = tensor_70, type = concat, offset: 0  |  location = in DRAM  |  "
    }
  }
  attr {
    key: "outputTensor:1"
    value {
      s: "tensor-33970_slice_0_0_0_0_0__0__bundle_189_34363  |  Sizes = [1,2,284,128]  |  hfloat8  |  expBias = 7, scale = 1  |    |  ModelParam = 0  |  strides = [72704, 72704, 36352, 128, 1]  |  data = 0, sizeInBytes = 72704  |  isAliased = tensor_82_id_80527_module/model/31/fused_scaled_dot_product_attention/aten__view_slice_0_0_0_0_0__0__bundle_189_34364, type = alias, offset: 0  |  location = in SRAM  |  sramOffset = 0x1000fffffd73f000  |  "
    }
  }
}
node {
  name: "reshape_8_8_bundle_189/op_1"
  op: "Reshape"
  input: "fusedTPCNode_52_2_bundle_189/op_0"
  attr {
    key: "Bundle_idx"
    value {
      s: "189"
    }
  }
  attr {
    key: "Exec_idx"
    value {
      s: "57"
    }
  }
  attr {
    key: "Op_idx"
    value {
      s: "3"
    }
  }
  attr {
    key: "inputTensor:0"
    value {
      s: "tensor-33970_slice_0_0_0_0_0__0__bundle_189_34363  |  Sizes = [1,2,284,128]  |  hfloat8  |  expBias = 7, scale = 1  |    |  ModelParam = 0  |  strides = [72704, 72704, 36352, 128, 1]  |  data = 0, sizeInBytes = 72704  |  isAliased = tensor_82_id_80527_module/model/31/fused_scaled_dot_product_attention/aten__view_slice_0_0_0_0_0__0__bundle_189_34364, type = alias, offset: 0  |  location = in SRAM  |  sramOffset = 0x1000fffffd73f000  |  "
    }
  }
  attr {
    key: "outputTensor:0"
    value {
      s: "tensor_82_id_80527_module/model/31/fused_scaled_dot_product_attention/aten__view_slice_0_0_0_0_0__0__bundle_189_34364  |  Sizes = [1,2,1,284,128]  |  hfloat8  |  expBias = 7, scale = 1  |    |  ModelParam = 0  |  strides = [72704, 72704, 36352, 36352, 128, 1]  |  data = 0, sizeInBytes = 72704  |  location = in SRAM  |  sramOffset = 0x1000fffffd73f000  |  "
    }
  }
}
node {
  name: "tensor_110_odule/model/31/fused_scaled_dot_product_attention/placeholder/7"
  op: "Placeholder"
  attr {
    key: "dtype"
    value {
      type: DT_FLOAT
    }
  }
  attr {
    key: "shape"
    value {
      shape {
        dim {
          size: 1
        }
        dim {
          size: 1
        }
        dim {
          size: 1
        }
        dim {
          size: 1
        }
        dim {
          size: 1
        }
      }
    }
  }
  attr {
    key: "synDataType"
    value {
      s: "float32"
    }
  }
}
node {
  name: "module/model/31/fused_scaled_dot_product_attention/sdpa_recomp_fwd_hf8/2795_complex/sdpa_recomp_fwd_hf8_63/sdpa_recomp_core_fwd_hf8_31/softmax_fwd_hf8_22_bundle_189/op_2"
  op: "softmax_fwd_hf8"
  input: "bf16-17_33758_bundle_189/split_internal/0"
  input: "module/model/31/fused_scaled_dot_product_attention/sdpa_recomp_fwd_hf8/2795_complex/sdpa_recomp_fwd_hf8_63/sdpa_recomp_core_fwd_hf8_31/constant_f32_18"
  input: "module/model/31/fused_scaled_dot_product_attention/sdpa_recomp_fwd_hf8/2795_complex/sdpa_recomp_fwd_hf8_63/sdpa_recomp_core_fwd_hf8_31/constant_f32_20"
  input: "tensor_110_odule/model/31/fused_scaled_dot_product_attention/placeholder/7"
  input: "module/model/31/fused_scaled_dot_product_attention/expand_dims/2782"
  attr {
    key: "Bundle_idx"
    value {
      s: "189"
    }
  }
  attr {
    key: "Exec_idx"
    value {
      s: "58"
    }
  }
  attr {
    key: "Op_idx"
    value {
      s: "4"
    }
  }
  attr {
    key: "inputTensor:0"
    value {
      s: "bf16-17_33758_slice_0_0_0_0_0__0__bundle_189_34365  |  Sizes = [1,2,4,284,284]  |  bf16  |  expBias = 0, scale = 1  |    |  ModelParam = 0  |  strides = [5161984, 5161984, 645248, 161312, 568, 2]  |  data = 0, sizeInBytes = 1290496  |  isAliased = bf16-17_33758, type = concat, offset: 0  |  location = in DRAM  |  "
    }
  }
  attr {
    key: "inputTensor:1"
    value {
      s: "f32-19_33759  |  Sizes = [1]  |  float32  |  expBias = 0, scale = 1  |    |  ModelParam = 0  |  strides = [4, 4]  |  data = 0, sizeInBytes = 4  |  location = in DRAM  |  dramOffset = 0x4200007b2400  |  "
    }
  }
  attr {
    key: "inputTensor:2"
    value {
      s: "f32-21_33760  |  Sizes = [1]  |  float32  |  expBias = 0, scale = 1  |    |  ModelParam = 0  |  strides = [4, 4]  |  data = 0, sizeInBytes = 4  |  location = in DRAM  |  dramOffset = 0x4200007b2480  |  "
    }
  }
  attr {
    key: "inputTensor:3"
    value {
      s: "tensor_110_odule/model/31/fused_scaled_dot_product_attention/placeholder/7  |  Sizes = [1]  |  float32  |  expBias = 0, scale = 1  |    |  ModelParam = 0  |  strides = [4, 4]  |  data = 0x56464ad0bb68, sizeInBytes = 4  |  buffer = 16  |  isPersistent  |  location = in DRAM  |  dramOffset = 0x270000000000  |  userMemorySection(type=Persistent, id=39)  |  isStaticParam  |  bufferDtype=float32  |  "
    }
  }
  attr {
    key: "inputTensor:4"
    value {
      s: "tensor_77_id_80529_module/model/31/fused_scaled_dot_product_attention/aten__unsqueeze  |  Sizes = [1,1,1,284,284]  |  bf16  |  expBias = 0, scale = 1  |    |  ModelParam = 0  |  strides = [161312, 161312, 161312, 161312, 568, 2]  |  data = 0, sizeInBytes = 161312  |  isAliased = tensor_71_odule/model/31/fused_scaled_dot_product_attention/placeholder/0, type = alias, offset: 0  |  location = in DRAM  |  "
    }
  }
  attr {
    key: "outputTensor:0"
    value {
      s: "hf8-23_33761_slice_0_0_0_0_0__0__bundle_189_34370  |  Sizes = [1,2,4,284,284]  |  hfloat8  |  expBias = 7, scale = 1  |    |  ModelParam = 0  |  strides = [872448, 872448, 436224, 109056, 384, 1]  |  data = 0, sizeInBytes = 872448  |  location = in SRAM  |  sramOffset = 0x1000fffffd762800  |  isSparseLayout  |  "
    }
  }
}
node {
  name: "fusedTPCNode_52_2_bundle_189/op_3"
  op: "fused_kernel_0xBF9FDCD7_B1_bf16"
  input: "tensor_67_bundle_189/split_internal/0"
  attr {
    key: "Bundle_idx"
    value {
      s: "189"
    }
  }
  attr {
    key: "Exec_idx"
    value {
      s: "59"
    }
  }
  attr {
    key: "Op_idx"
    value {
      s: "5"
    }
  }
  attr {
    key: "inputTensor:0"
    value {
      s: "tensor_67_slice_0_0_1_0_0__0__bundle_189_34371  |  Sizes = [1,2,284,128]  |  hfloat8  |  expBias = 7, scale = 1  |    |  ModelParam = 0  |  strides = [290816, 290816, 36352, 128, 1]  |  data = 0, sizeInBytes = 72704  |  isAliased = tensor_67, type = concat, offset: 72704  |  location = in DRAM  |  "
    }
  }
  attr {
    key: "outputTensor:0"
    value {
      s: "tensor_70_slice_0_0_1_0_0__0__bundle_189_34372  |  Sizes = [1,2,284,128]  |  bf16  |  expBias = 0, scale = 1  |    |  ModelParam = 0  |  strides = [581632, 581632, 72704, 256, 2]  |  data = 0, sizeInBytes = 145408  |  isAliased = tensor_70, type = concat, offset: 145408  |  location = in DRAM  |  "
    }
  }
  attr {
    key: "outputTensor:1"
    value {
      s: "tensor-33970_slice_0_0_1_0_0__0__bundle_189_34373  |  Sizes = [1,2,284,128]  |  hfloat8  |  expBias = 7, scale = 1  |    |  ModelParam = 0  |  strides = [72704, 72704, 36352, 128, 1]  |  data = 0, sizeInBytes = 72704  |  isAliased = tensor_82_id_80527_module/model/31/fused_scaled_dot_product_attention/aten__view_slice_0_0_0_1_0__0__bundle_189_34374, type = alias, offset: 0  |  location = in SRAM  |  sramOffset = 0x1000fffffd750c00  |  "
    }
  }
}
node {
  name: "reshape_8_8_bundle_189/op_4"
  op: "Reshape"
  input: "fusedTPCNode_52_2_bundle_189/op_3"
  attr {
    key: "Bundle_idx"
    value {
      s: "189"
    }
  }
  attr {
    key: "Exec_idx"
    value {
      s: "60"
    }
  }
  attr {
    key: "Op_idx"
    value {
      s: "6"
    }
  }
  attr {
    key: "inputTensor:0"
    value {
      s: "tensor-33970_slice_0_0_1_0_0__0__bundle_189_34373  |  Sizes = [1,2,284,128]  |  hfloat8  |  expBias = 7, scale = 1  |    |  ModelParam = 0  |  strides = [72704, 72704, 36352, 128, 1]  |  data = 0, sizeInBytes = 72704  |  isAliased = tensor_82_id_80527_module/model/31/fused_scaled_dot_product_attention/aten__view_slice_0_0_0_1_0__0__bundle_189_34374, type = alias, offset: 0  |  location = in SRAM  |  sramOffset = 0x1000fffffd750c00  |  "
    }
  }
  attr {
    key: "outputTensor:0"
    value {
      s: "tensor_82_id_80527_module/model/31/fused_scaled_dot_product_attention/aten__view_slice_0_0_0_1_0__0__bundle_189_34374  |  Sizes = [1,2,1,284,128]  |  hfloat8  |  expBias = 7, scale = 1  |    |  ModelParam = 0  |  strides = [72704, 72704, 36352, 36352, 128, 1]  |  data = 0, sizeInBytes = 72704  |  location = in SRAM  |  sramOffset = 0x1000fffffd750c00  |  "
    }
  }
}
node {
  name: "module/model/31/fused_scaled_dot_product_attention/sdpa_recomp_fwd_hf8/2795_complex/sdpa_recomp_fwd_hf8_63/sdpa_recomp_core_fwd_hf8_31/softmax_fwd_hf8_22_bundle_189/op_5"
  op: "softmax_fwd_hf8"
  input: "bf16-17_33758_bundle_189/split_internal/0"
  input: "module/model/31/fused_scaled_dot_product_attention/sdpa_recomp_fwd_hf8/2795_complex/sdpa_recomp_fwd_hf8_63/sdpa_recomp_core_fwd_hf8_31/constant_f32_18"
  input: "module/model/31/fused_scaled_dot_product_attention/sdpa_recomp_fwd_hf8/2795_complex/sdpa_recomp_fwd_hf8_63/sdpa_recomp_core_fwd_hf8_31/constant_f32_20"
  input: "tensor_110_odule/model/31/fused_scaled_dot_product_attention/placeholder/7"
  input: "module/model/31/fused_scaled_dot_product_attention/expand_dims/2782"
  attr {
    key: "Bundle_idx"
    value {
      s: "189"
    }
  }
  attr {
    key: "Exec_idx"
    value {
      s: "61"
    }
  }
  attr {
    key: "Op_idx"
    value {
      s: "7"
    }
  }
  attr {
    key: "inputTensor:0"
    value {
      s: "bf16-17_33758_slice_0_0_0_1_0__0__bundle_189_34375  |  Sizes = [1,2,4,284,284]  |  bf16  |  expBias = 0, scale = 1  |    |  ModelParam = 0  |  strides = [5161984, 5161984, 645248, 161312, 568, 2]  |  data = 0, sizeInBytes = 1290496  |  isAliased = bf16-17_33758, type = concat, offset: 1290496  |  location = in DRAM  |  "
    }
  }
  attr {
    key: "inputTensor:1"
    value {
      s: "f32-19_33759  |  Sizes = [1]  |  float32  |  expBias = 0, scale = 1  |    |  ModelParam = 0  |  strides = [4, 4]  |  data = 0, sizeInBytes = 4  |  location = in DRAM  |  dramOffset = 0x4200007b2400  |  "
    }
  }
  attr {
    key: "inputTensor:2"
    value {
      s: "f32-21_33760  |  Sizes = [1]  |  float32  |  expBias = 0, scale = 1  |    |  ModelParam = 0  |  strides = [4, 4]  |  data = 0, sizeInBytes = 4  |  location = in DRAM  |  dramOffset = 0x4200007b2480  |  "
    }
  }
  attr {
    key: "inputTensor:3"
    value {
      s: "tensor_110_odule/model/31/fused_scaled_dot_product_attention/placeholder/7  |  Sizes = [1]  |  float32  |  expBias = 0, scale = 1  |    |  ModelParam = 0  |  strides = [4, 4]  |  data = 0x56464ad0bb68, sizeInBytes = 4  |  buffer = 16  |  isPersistent  |  location = in DRAM  |  dramOffset = 0x270000000000  |  userMemorySection(type=Persistent, id=39)  |  isStaticParam  |  bufferDtype=float32  |  "
    }
  }
  attr {
    key: "inputTensor:4"
    value {
      s: "tensor_77_id_80529_module/model/31/fused_scaled_dot_product_attention/aten__unsqueeze  |  Sizes = [1,1,1,284,284]  |  bf16  |  expBias = 0, scale = 1  |    |  ModelParam = 0  |  strides = [161312, 161312, 161312, 161312, 568, 2]  |  data = 0, sizeInBytes = 161312  |  isAliased = tensor_71_odule/model/31/fused_scaled_dot_product_attention/placeholder/0, type = alias, offset: 0  |  location = in DRAM  |  "
    }
  }
  attr {
    key: "outputTensor:0"
    value {
      s: "hf8-23_33761_slice_0_0_0_1_0__0__bundle_189_34376  |  Sizes = [1,2,4,284,284]  |  hfloat8  |  expBias = 7, scale = 1  |    |  ModelParam = 0  |  strides = [872448, 872448, 436224, 109056, 384, 1]  |  data = 0, sizeInBytes = 872448  |  location = in SRAM  |  sramOffset = 0x1000fffffd837800  |  isSparseLayout  |  "
    }
  }
}
node {
  name: "module/model/31/fused_scaled_dot_product_attention/sdpa_recomp_fwd_hf8/2795_complex/sdpa_recomp_fwd_hf8_63/sdpa_recomp_core_fwd_hf8_31/fp8_gemm_hf8_503/batch_gemm_24_bundle_189/op_6"
  op: "BatchGemm"
  input: "module/model/31/fused_scaled_dot_product_attention/sdpa_recomp_fwd_hf8/2795_complex/sdpa_recomp_fwd_hf8_63/sdpa_recomp_core_fwd_hf8_31/softmax_fwd_hf8_22_bundle_189/op_2"
  input: "reshape_8_8_bundle_189/op_1"
  attr {
    key: "Bundle_idx"
    value {
      s: "189"
    }
  }
  attr {
    key: "Exec_idx"
    value {
      s: "62"
    }
  }
  attr {
    key: "Op_idx"
    value {
      s: "8"
    }
  }
  attr {
    key: "Parameters"
    value {
      s: "transpose_a=false, transpose_b=false"
    }
  }
  attr {
    key: "fp8BiasIn"
    value {
      s: "11"
    }
  }
  attr {
    key: "fp8BiasIn2"
    value {
      s: "7"
    }
  }
  attr {
    key: "fp8BiasOut"
    value {
      s: "7"
    }
  }
  attr {
    key: "inputTensor:0"
    value {
      s: "hf8-23_33761_slice_0_0_0_0_0__0__bundle_189_34370  |  Sizes = [1,2,4,284,284]  |  hfloat8  |  expBias = 7, scale = 1  |    |  ModelParam = 0  |  strides = [872448, 872448, 436224, 109056, 384, 1]  |  data = 0, sizeInBytes = 872448  |  location = in SRAM  |  sramOffset = 0x1000fffffd762800  |  isSparseLayout  |  "
    }
  }
  attr {
    key: "inputTensor:1"
    value {
      s: "tensor_82_id_80527_module/model/31/fused_scaled_dot_product_attention/aten__view_slice_0_0_0_0_0__0__bundle_189_34364  |  Sizes = [1,2,1,284,128]  |  hfloat8  |  expBias = 7, scale = 1  |    |  ModelParam = 0  |  strides = [72704, 72704, 36352, 36352, 128, 1]  |  data = 0, sizeInBytes = 72704  |  location = in SRAM  |  sramOffset = 0x1000fffffd73f000  |  "
    }
  }
  attr {
    key: "outputTensor:0"
    value {
      s: "tensor_118_slice_0_0_0_0_0__0__bundle_189_34377  |  Sizes = [1,2,4,284,128]  |  hfloat8  |  expBias = 7, scale = 1  |    |  ModelParam = 0  |  strides = [1163264, 1163264, 145408, 36352, 128, 1]  |  data = 0, sizeInBytes = 290816  |  isAliased = tensor_118, type = concat, offset: 0  |  location = in DRAM  |  "
    }
  }
}
node {
  name: "module/model/31/fused_scaled_dot_product_attention/sdpa_recomp_fwd_hf8/2795_complex/sdpa_recomp_fwd_hf8_63/sdpa_recomp_core_fwd_hf8_31/fp8_gemm_hf8_503/batch_gemm_24_bundle_189/op_10"
  op: "BatchGemm"
  input: "module/model/31/fused_scaled_dot_product_attention/sdpa_recomp_fwd_hf8/2795_complex/sdpa_recomp_fwd_hf8_63/sdpa_recomp_core_fwd_hf8_31/softmax_fwd_hf8_22_bundle_189/op_5"
  input: "reshape_8_8_bundle_189/op_4"
  attr {
    key: "Bundle_idx"
    value {
      s: "189"
    }
  }
  attr {
    key: "Exec_idx"
    value {
      s: "63"
    }
  }
  attr {
    key: "Op_idx"
    value {
      s: "9"
    }
  }
  attr {
    key: "Parameters"
    value {
      s: "transpose_a=false, transpose_b=false"
    }
  }
  attr {
    key: "fp8BiasIn"
    value {
      s: "11"
    }
  }
  attr {
    key: "fp8BiasIn2"
    value {
      s: "7"
    }
  }
  attr {
    key: "fp8BiasOut"
    value {
      s: "7"
    }
  }
  attr {
    key: "inputTensor:0"
    value {
      s: "hf8-23_33761_slice_0_0_0_1_0__0__bundle_189_34376  |  Sizes = [1,2,4,284,284]  |  hfloat8  |  expBias = 7, scale = 1  |    |  ModelParam = 0  |  strides = [872448, 872448, 436224, 109056, 384, 1]  |  data = 0, sizeInBytes = 872448  |  location = in SRAM  |  sramOffset = 0x1000fffffd837800  |  isSparseLayout  |  "
    }
  }
  attr {
    key: "inputTensor:1"
    value {
      s: "tensor_82_id_80527_module/model/31/fused_scaled_dot_product_attention/aten__view_slice_0_0_0_1_0__0__bundle_189_34374  |  Sizes = [1,2,1,284,128]  |  hfloat8  |  expBias = 7, scale = 1  |    |  ModelParam = 0  |  strides = [72704, 72704, 36352, 36352, 128, 1]  |  data = 0, sizeInBytes = 72704  |  location = in SRAM  |  sramOffset = 0x1000fffffd750c00  |  "
    }
  }
  attr {
    key: "outputTensor:0"
    value {
      s: "tensor_118_slice_0_0_0_1_0__0__bundle_189_34384  |  Sizes = [1,2,4,284,128]  |  hfloat8  |  expBias = 7, scale = 1  |    |  ModelParam = 0  |  strides = [1163264, 1163264, 145408, 36352, 128, 1]  |  data = 0, sizeInBytes = 290816  |  isAliased = tensor_118, type = concat, offset: 290816  |  location = in DRAM  |  "
    }
  }
}
node {
  name: "fusedTPCNode_52_2_bundle_189/op_7"
  op: "fused_kernel_0xBF9FDCD7_B1_bf16"
  input: "tensor_67_bundle_189/split_internal/0"
  attr {
    key: "Bundle_idx"
    value {
      s: "189"
    }
  }
  attr {
    key: "Exec_idx"
    value {
      s: "64"
    }
  }
  attr {
    key: "Op_idx"
    value {
      s: "10"
    }
  }
  attr {
    key: "inputTensor:0"
    value {
      s: "tensor_67_slice_0_0_2_0_0__0__bundle_189_34378  |  Sizes = [1,2,284,128]  |  hfloat8  |  expBias = 7, scale = 1  |    |  ModelParam = 0  |  strides = [290816, 290816, 36352, 128, 1]  |  data = 0, sizeInBytes = 72704  |  isAliased = tensor_67, type = concat, offset: 145408  |  location = in DRAM  |  "
    }
  }
  attr {
    key: "outputTensor:0"
    value {
      s: "tensor_70_slice_0_0_2_0_0__0__bundle_189_34379  |  Sizes = [1,2,284,128]  |  bf16  |  expBias = 0, scale = 1  |    |  ModelParam = 0  |  strides = [581632, 581632, 72704, 256, 2]  |  data = 0, sizeInBytes = 145408  |  isAliased = tensor_70, type = concat, offset: 290816  |  location = in DRAM  |  "
    }
  }
  attr {
    key: "outputTensor:1"
    value {
      s: "tensor-33970_slice_0_0_2_0_0__0__bundle_189_34380  |  Sizes = [1,2,284,128]  |  hfloat8  |  expBias = 7, scale = 1  |    |  ModelParam = 0  |  strides = [72704, 72704, 36352, 128, 1]  |  data = 0, sizeInBytes = 72704  |  isAliased = tensor_82_id_80527_module/model/31/fused_scaled_dot_product_attention/aten__view_slice_0_0_0_2_0__0__bundle_189_34381, type = alias, offset: 0  |  location = in SRAM  |  sramOffset = 0x1000fffffd73f000  |  "
    }
  }
}
node {
  name: "reshape_8_8_bundle_189/op_8"
  op: "Reshape"
  input: "fusedTPCNode_52_2_bundle_189/op_7"
  attr {
    key: "Bundle_idx"
    value {
      s: "189"
    }
  }
  attr {
    key: "Exec_idx"
    value {
      s: "65"
    }
  }
  attr {
    key: "Op_idx"
    value {
      s: "11"
    }
  }
  attr {
    key: "inputTensor:0"
    value {
      s: "tensor-33970_slice_0_0_2_0_0__0__bundle_189_34380  |  Sizes = [1,2,284,128]  |  hfloat8  |  expBias = 7, scale = 1  |    |  ModelParam = 0  |  strides = [72704, 72704, 36352, 128, 1]  |  data = 0, sizeInBytes = 72704  |  isAliased = tensor_82_id_80527_module/model/31/fused_scaled_dot_product_attention/aten__view_slice_0_0_0_2_0__0__bundle_189_34381, type = alias, offset: 0  |  location = in SRAM  |  sramOffset = 0x1000fffffd73f000  |  "
    }
  }
  attr {
    key: "outputTensor:0"
    value {
      s: "tensor_82_id_80527_module/model/31/fused_scaled_dot_product_attention/aten__view_slice_0_0_0_2_0__0__bundle_189_34381  |  Sizes = [1,2,1,284,128]  |  hfloat8  |  expBias = 7, scale = 1  |    |  ModelParam = 0  |  strides = [72704, 72704, 36352, 36352, 128, 1]  |  data = 0, sizeInBytes = 72704  |  location = in SRAM  |  sramOffset = 0x1000fffffd73f000  |  "
    }
  }
}
node {
  name: "module/model/31/fused_scaled_dot_product_attention/sdpa_recomp_fwd_hf8/2795_complex/sdpa_recomp_fwd_hf8_63/sdpa_recomp_core_fwd_hf8_31/softmax_fwd_hf8_22_bundle_189/op_9"
  op: "softmax_fwd_hf8"
  input: "bf16-17_33758_bundle_189/split_internal/0"
  input: "module/model/31/fused_scaled_dot_product_attention/sdpa_recomp_fwd_hf8/2795_complex/sdpa_recomp_fwd_hf8_63/sdpa_recomp_core_fwd_hf8_31/constant_f32_18"
  input: "module/model/31/fused_scaled_dot_product_attention/sdpa_recomp_fwd_hf8/2795_complex/sdpa_recomp_fwd_hf8_63/sdpa_recomp_core_fwd_hf8_31/constant_f32_20"
  input: "tensor_110_odule/model/31/fused_scaled_dot_product_attention/placeholder/7"
  input: "module/model/31/fused_scaled_dot_product_attention/expand_dims/2782"
  attr {
    key: "Bundle_idx"
    value {
      s: "189"
    }
  }
  attr {
    key: "Exec_idx"
    value {
      s: "66"
    }
  }
  attr {
    key: "Op_idx"
    value {
      s: "12"
    }
  }
  attr {
    key: "inputTensor:0"
    value {
      s: "bf16-17_33758_slice_0_0_0_2_0__0__bundle_189_34382  |  Sizes = [1,2,4,284,284]  |  bf16  |  expBias = 0, scale = 1  |    |  ModelParam = 0  |  strides = [5161984, 5161984, 645248, 161312, 568, 2]  |  data = 0, sizeInBytes = 1290496  |  isAliased = bf16-17_33758, type = concat, offset: 2580992  |  location = in DRAM  |  "
    }
  }
  attr {
    key: "inputTensor:1"
    value {
      s: "f32-19_33759  |  Sizes = [1]  |  float32  |  expBias = 0, scale = 1  |    |  ModelParam = 0  |  strides = [4, 4]  |  data = 0, sizeInBytes = 4  |  location = in DRAM  |  dramOffset = 0x4200007b2400  |  "
    }
  }
  attr {
    key: "inputTensor:2"
    value {
      s: "f32-21_33760  |  Sizes = [1]  |  float32  |  expBias = 0, scale = 1  |    |  ModelParam = 0  |  strides = [4, 4]  |  data = 0, sizeInBytes = 4  |  location = in DRAM  |  dramOffset = 0x4200007b2480  |  "
    }
  }
  attr {
    key: "inputTensor:3"
    value {
      s: "tensor_110_odule/model/31/fused_scaled_dot_product_attention/placeholder/7  |  Sizes = [1]  |  float32  |  expBias = 0, scale = 1  |    |  ModelParam = 0  |  strides = [4, 4]  |  data = 0x56464ad0bb68, sizeInBytes = 4  |  buffer = 16  |  isPersistent  |  location = in DRAM  |  dramOffset = 0x270000000000  |  userMemorySection(type=Persistent, id=39)  |  isStaticParam  |  bufferDtype=float32  |  "
    }
  }
  attr {
    key: "inputTensor:4"
    value {
      s: "tensor_77_id_80529_module/model/31/fused_scaled_dot_product_attention/aten__unsqueeze  |  Sizes = [1,1,1,284,284]  |  bf16  |  expBias = 0, scale = 1  |    |  ModelParam = 0  |  strides = [161312, 161312, 161312, 161312, 568, 2]  |  data = 0, sizeInBytes = 161312  |  isAliased = tensor_71_odule/model/31/fused_scaled_dot_product_attention/placeholder/0, type = alias, offset: 0  |  location = in DRAM  |  "
    }
  }
  attr {
    key: "outputTensor:0"
    value {
      s: "hf8-23_33761_slice_0_0_0_2_0__0__bundle_189_34383  |  Sizes = [1,2,4,284,284]  |  hfloat8  |  expBias = 7, scale = 1  |    |  ModelParam = 0  |  strides = [872448, 872448, 436224, 109056, 384, 1]  |  data = 0, sizeInBytes = 872448  |  location = in SRAM  |  sramOffset = 0x1000fffffd762800  |  isSparseLayout  |  "
    }
  }
}
node {
  name: "fusedTPCNode_52_2_bundle_189/op_11"
  op: "fused_kernel_0xBF9FDCD7_B1_bf16"
  input: "tensor_67_bundle_189/split_internal/0"
  attr {
    key: "Bundle_idx"
    value {
      s: "189"
    }
  }
  attr {
    key: "Exec_idx"
    value {
      s: "67"
    }
  }
  attr {
    key: "Op_idx"
    value {
      s: "13"
    }
  }
  attr {
    key: "inputTensor:0"
    value {
      s: "tensor_67_slice_0_0_3_0_0__0__bundle_189_34385  |  Sizes = [1,2,284,128]  |  hfloat8  |  expBias = 7, scale = 1  |    |  ModelParam = 0  |  strides = [290816, 290816, 36352, 128, 1]  |  data = 0, sizeInBytes = 72704  |  isAliased = tensor_67, type = concat, offset: 218112  |  location = in DRAM  |  "
    }
  }
  attr {
    key: "outputTensor:0"
    value {
      s: "tensor_70_slice_0_0_3_0_0__0__bundle_189_34386  |  Sizes = [1,2,284,128]  |  bf16  |  expBias = 0, scale = 1  |    |  ModelParam = 0  |  strides = [581632, 581632, 72704, 256, 2]  |  data = 0, sizeInBytes = 145408  |  isAliased = tensor_70, type = concat, offset: 436224  |  location = in DRAM  |  "
    }
  }
  attr {
    key: "outputTensor:1"
    value {
      s: "tensor-33970_slice_0_0_3_0_0__0__bundle_189_34387  |  Sizes = [1,2,284,128]  |  hfloat8  |  expBias = 7, scale = 1  |    |  ModelParam = 0  |  strides = [72704, 72704, 36352, 128, 1]  |  data = 0, sizeInBytes = 72704  |  isAliased = tensor_82_id_80527_module/model/31/fused_scaled_dot_product_attention/aten__view_slice_0_0_0_3_0__0__bundle_189_34388, type = alias, offset: 0  |  location = in SRAM  |  sramOffset = 0x1000fffffd750c00  |  "
    }
  }
}
node {
  name: "reshape_8_8_bundle_189/op_12"
  op: "Reshape"
  input: "fusedTPCNode_52_2_bundle_189/op_11"
  attr {
    key: "Bundle_idx"
    value {
      s: "189"
    }
  }
  attr {
    key: "Exec_idx"
    value {
      s: "68"
    }
  }
  attr {
    key: "Op_idx"
    value {
      s: "14"
    }
  }
  attr {
    key: "inputTensor:0"
    value {
      s: "tensor-33970_slice_0_0_3_0_0__0__bundle_189_34387  |  Sizes = [1,2,284,128]  |  hfloat8  |  expBias = 7, scale = 1  |    |  ModelParam = 0  |  strides = [72704, 72704, 36352, 128, 1]  |  data = 0, sizeInBytes = 72704  |  isAliased = tensor_82_id_80527_module/model/31/fused_scaled_dot_product_attention/aten__view_slice_0_0_0_3_0__0__bundle_189_34388, type = alias, offset: 0  |  location = in SRAM  |  sramOffset = 0x1000fffffd750c00  |  "
    }
  }
  attr {
    key: "outputTensor:0"
    value {
      s: "tensor_82_id_80527_module/model/31/fused_scaled_dot_product_attention/aten__view_slice_0_0_0_3_0__0__bundle_189_34388  |  Sizes = [1,2,1,284,128]  |  hfloat8  |  expBias = 7, scale = 1  |    |  ModelParam = 0  |  strides = [72704, 72704, 36352, 36352, 128, 1]  |  data = 0, sizeInBytes = 72704  |  location = in SRAM  |  sramOffset = 0x1000fffffd750c00  |  "
    }
  }
}
node {
  name: "tensor_70_bundle_189/concat_logical_internal/0"
  op: "Concatenate"
  input: "fusedTPCNode_52_2_bundle_189/op_0"
  input: "fusedTPCNode_52_2_bundle_189/op_3"
  input: "fusedTPCNode_52_2_bundle_189/op_7"
  input: "fusedTPCNode_52_2_bundle_189/op_11"
  attr {
    key: "Bundle_idx"
    value {
      s: "189"
    }
  }
  attr {
    key: "Exec_idx"
    value {
      s: "69"
    }
  }
  attr {
    key: "Op_idx"
    value {
      s: "15"
    }
  }
  attr {
    key: "inputTensor:0"
    value {
      s: "tensor_70_slice_0_0_0_0_0__0__bundle_189_34362  |  Sizes = [1,2,284,128]  |  bf16  |  expBias = 0, scale = 1  |    |  ModelParam = 0  |  strides = [581632, 581632, 72704, 256, 2]  |  data = 0, sizeInBytes = 145408  |  isAliased = tensor_70, type = concat, offset: 0  |  location = in DRAM  |  "
    }
  }
  attr {
    key: "inputTensor:1"
    value {
      s: "tensor_70_slice_0_0_1_0_0__0__bundle_189_34372  |  Sizes = [1,2,284,128]  |  bf16  |  expBias = 0, scale = 1  |    |  ModelParam = 0  |  strides = [581632, 581632, 72704, 256, 2]  |  data = 0, sizeInBytes = 145408  |  isAliased = tensor_70, type = concat, offset: 145408  |  location = in DRAM  |  "
    }
  }
  attr {
    key: "inputTensor:2"
    value {
      s: "tensor_70_slice_0_0_2_0_0__0__bundle_189_34379  |  Sizes = [1,2,284,128]  |  bf16  |  expBias = 0, scale = 1  |    |  ModelParam = 0  |  strides = [581632, 581632, 72704, 256, 2]  |  data = 0, sizeInBytes = 145408  |  isAliased = tensor_70, type = concat, offset: 290816  |  location = in DRAM  |  "
    }
  }
  attr {
    key: "inputTensor:3"
    value {
      s: "tensor_70_slice_0_0_3_0_0__0__bundle_189_34386  |  Sizes = [1,2,284,128]  |  bf16  |  expBias = 0, scale = 1  |    |  ModelParam = 0  |  strides = [581632, 581632, 72704, 256, 2]  |  data = 0, sizeInBytes = 145408  |  isAliased = tensor_70, type = concat, offset: 436224  |  location = in DRAM  |  "
    }
  }
  attr {
    key: "outputTensor:0"
    value {
      s: "tensor_70  |  Sizes = [1,8,284,128]  |  bf16  |  expBias = 0, scale = 1  |    |  ModelParam = 0  |  strides = [581632, 581632, 72704, 256, 2]  |  data = 0, sizeInBytes = 581632  |  isPersistent  |  location = in DRAM  |  dramOffset = 0x1b0000000000  |  userMemorySection(type=Persistent, id=27)  |  "
    }
  }
}
node {
  name: "tensor_70"
  op: "OutputTensor"
  input: "tensor_70_bundle_189/concat_logical_internal/0"
  attr {
    key: "dtype"
    value {
      type: DT_BFLOAT16
    }
  }
  attr {
    key: "shape"
    value {
      shape {
        dim {
          size: 128
        }
        dim {
          size: 284
        }
        dim {
          size: 8
        }
        dim {
          size: 1
        }
        dim {
          size: 1
        }
      }
    }
  }
  attr {
    key: "synDataType"
    value {
      s: "bf16"
    }
  }
}
node {
  name: "module/model/31/fused_scaled_dot_product_attention/sdpa_recomp_fwd_hf8/2795_complex/sdpa_recomp_fwd_hf8_63/sdpa_recomp_core_fwd_hf8_31/softmax_fwd_hf8_22_bundle_189/op_13"
  op: "softmax_fwd_hf8"
  input: "bf16-17_33758_bundle_189/split_internal/0"
  input: "module/model/31/fused_scaled_dot_product_attention/sdpa_recomp_fwd_hf8/2795_complex/sdpa_recomp_fwd_hf8_63/sdpa_recomp_core_fwd_hf8_31/constant_f32_18"
  input: "module/model/31/fused_scaled_dot_product_attention/sdpa_recomp_fwd_hf8/2795_complex/sdpa_recomp_fwd_hf8_63/sdpa_recomp_core_fwd_hf8_31/constant_f32_20"
  input: "tensor_110_odule/model/31/fused_scaled_dot_product_attention/placeholder/7"
  input: "module/model/31/fused_scaled_dot_product_attention/expand_dims/2782"
  attr {
    key: "Bundle_idx"
    value {
      s: "189"
    }
  }
  attr {
    key: "Exec_idx"
    value {
      s: "70"
    }
  }
  attr {
    key: "Op_idx"
    value {
      s: "16"
    }
  }
  attr {
    key: "inputTensor:0"
    value {
      s: "bf16-17_33758_slice_0_0_0_3_0__0__bundle_189_34389  |  Sizes = [1,2,4,284,284]  |  bf16  |  expBias = 0, scale = 1  |    |  ModelParam = 0  |  strides = [5161984, 5161984, 645248, 161312, 568, 2]  |  data = 0, sizeInBytes = 1290496  |  isAliased = bf16-17_33758, type = concat, offset: 3871488  |  location = in DRAM  |  "
    }
  }
  attr {
    key: "inputTensor:1"
    value {
      s: "f32-19_33759  |  Sizes = [1]  |  float32  |  expBias = 0, scale = 1  |    |  ModelParam = 0  |  strides = [4, 4]  |  data = 0, sizeInBytes = 4  |  location = in DRAM  |  dramOffset = 0x4200007b2400  |  "
    }
  }
  attr {
    key: "inputTensor:2"
    value {
      s: "f32-21_33760  |  Sizes = [1]  |  float32  |  expBias = 0, scale = 1  |    |  ModelParam = 0  |  strides = [4, 4]  |  data = 0, sizeInBytes = 4  |  location = in DRAM  |  dramOffset = 0x4200007b2480  |  "
    }
  }
  attr {
    key: "inputTensor:3"
    value {
      s: "tensor_110_odule/model/31/fused_scaled_dot_product_attention/placeholder/7  |  Sizes = [1]  |  float32  |  expBias = 0, scale = 1  |    |  ModelParam = 0  |  strides = [4, 4]  |  data = 0x56464ad0bb68, sizeInBytes = 4  |  buffer = 16  |  isPersistent  |  location = in DRAM  |  dramOffset = 0x270000000000  |  userMemorySection(type=Persistent, id=39)  |  isStaticParam  |  bufferDtype=float32  |  "
    }
  }
  attr {
    key: "inputTensor:4"
    value {
      s: "tensor_77_id_80529_module/model/31/fused_scaled_dot_product_attention/aten__unsqueeze  |  Sizes = [1,1,1,284,284]  |  bf16  |  expBias = 0, scale = 1  |    |  ModelParam = 0  |  strides = [161312, 161312, 161312, 161312, 568, 2]  |  data = 0, sizeInBytes = 161312  |  isAliased = tensor_71_odule/model/31/fused_scaled_dot_product_attention/placeholder/0, type = alias, offset: 0  |  location = in DRAM  |  "
    }
  }
  attr {
    key: "outputTensor:0"
    value {
      s: "hf8-23_33761_slice_0_0_0_3_0__0__bundle_189_34390  |  Sizes = [1,2,4,284,284]  |  hfloat8  |  expBias = 7, scale = 1  |    |  ModelParam = 0  |  strides = [872448, 872448, 436224, 109056, 384, 1]  |  data = 0, sizeInBytes = 872448  |  location = in SRAM  |  sramOffset = 0x1000fffffd837800  |  isSparseLayout  |  "
    }
  }
}
node {
  name: "module/model/31/fused_scaled_dot_product_attention/sdpa_recomp_fwd_hf8/2795_complex/sdpa_recomp_fwd_hf8_63/sdpa_recomp_core_fwd_hf8_31/fp8_gemm_hf8_503/batch_gemm_24_bundle_189/op_14"
  op: "BatchGemm"
  input: "module/model/31/fused_scaled_dot_product_attention/sdpa_recomp_fwd_hf8/2795_complex/sdpa_recomp_fwd_hf8_63/sdpa_recomp_core_fwd_hf8_31/softmax_fwd_hf8_22_bundle_189/op_9"
  input: "reshape_8_8_bundle_189/op_8"
  attr {
    key: "Bundle_idx"
    value {
      s: "189"
    }
  }
  attr {
    key: "Exec_idx"
    value {
      s: "71"
    }
  }
  attr {
    key: "Op_idx"
    value {
      s: "17"
    }
  }
  attr {
    key: "Parameters"
    value {
      s: "transpose_a=false, transpose_b=false"
    }
  }
  attr {
    key: "fp8BiasIn"
    value {
      s: "11"
    }
  }
  attr {
    key: "fp8BiasIn2"
    value {
      s: "7"
    }
  }
  attr {
    key: "fp8BiasOut"
    value {
      s: "7"
    }
  }
  attr {
    key: "inputTensor:0"
    value {
      s: "hf8-23_33761_slice_0_0_0_2_0__0__bundle_189_34383  |  Sizes = [1,2,4,284,284]  |  hfloat8  |  expBias = 7, scale = 1  |    |  ModelParam = 0  |  strides = [872448, 872448, 436224, 109056, 384, 1]  |  data = 0, sizeInBytes = 872448  |  location = in SRAM  |  sramOffset = 0x1000fffffd762800  |  isSparseLayout  |  "
    }
  }
  attr {
    key: "inputTensor:1"
    value {
      s: "tensor_82_id_80527_module/model/31/fused_scaled_dot_product_attention/aten__view_slice_0_0_0_2_0__0__bundle_189_34381  |  Sizes = [1,2,1,284,128]  |  hfloat8  |  expBias = 7, scale = 1  |    |  ModelParam = 0  |  strides = [72704, 72704, 36352, 36352, 128, 1]  |  data = 0, sizeInBytes = 72704  |  location = in SRAM  |  sramOffset = 0x1000fffffd73f000  |  "
    }
  }
  attr {
    key: "outputTensor:0"
    value {
      s: "tensor_118_slice_0_0_0_2_0__0__bundle_189_34391  |  Sizes = [1,2,4,284,128]  |  hfloat8  |  expBias = 7, scale = 1  |    |  ModelParam = 0  |  strides = [1163264, 1163264, 145408, 36352, 128, 1]  |  data = 0, sizeInBytes = 290816  |  isAliased = tensor_118, type = concat, offset: 581632  |  location = in DRAM  |  "
    }
  }
}
node {
  name: "module/model/31/fused_scaled_dot_product_attention/sdpa_recomp_fwd_hf8/2795_complex/sdpa_recomp_fwd_hf8_63/sdpa_recomp_core_fwd_hf8_31/fp8_gemm_hf8_503/batch_gemm_24_bundle_189/op_15"
  op: "BatchGemm"
  input: "module/model/31/fused_scaled_dot_product_attention/sdpa_recomp_fwd_hf8/2795_complex/sdpa_recomp_fwd_hf8_63/sdpa_recomp_core_fwd_hf8_31/softmax_fwd_hf8_22_bundle_189/op_13"
  input: "reshape_8_8_bundle_189/op_12"
  attr {
    key: "Bundle_idx"
    value {
      s: "189"
    }
  }
  attr {
    key: "Exec_idx"
    value {
      s: "72"
    }
  }
  attr {
    key: "Op_idx"
    value {
      s: "18"
    }
  }
  attr {
    key: "Parameters"
    value {
      s: "transpose_a=false, transpose_b=false"
    }
  }
  attr {
    key: "fp8BiasIn"
    value {
      s: "11"
    }
  }
  attr {
    key: "fp8BiasIn2"
    value {
      s: "7"
    }
  }
  attr {
    key: "fp8BiasOut"
    value {
      s: "7"
    }
  }
  attr {
    key: "inputTensor:0"
    value {
      s: "hf8-23_33761_slice_0_0_0_3_0__0__bundle_189_34390  |  Sizes = [1,2,4,284,284]  |  hfloat8  |  expBias = 7, scale = 1  |    |  ModelParam = 0  |  strides = [872448, 872448, 436224, 109056, 384, 1]  |  data = 0, sizeInBytes = 872448  |  location = in SRAM  |  sramOffset = 0x1000fffffd837800  |  isSparseLayout  |  "
    }
  }
  attr {
    key: "inputTensor:1"
    value {
      s: "tensor_82_id_80527_module/model/31/fused_scaled_dot_product_attention/aten__view_slice_0_0_0_3_0__0__bundle_189_34388  |  Sizes = [1,2,1,284,128]  |  hfloat8  |  expBias = 7, scale = 1  |    |  ModelParam = 0  |  strides = [72704, 72704, 36352, 36352, 128, 1]  |  data = 0, sizeInBytes = 72704  |  location = in SRAM  |  sramOffset = 0x1000fffffd750c00  |  "
    }
  }
  attr {
    key: "outputTensor:0"
    value {
      s: "tensor_118_slice_0_0_0_3_0__0__bundle_189_34392  |  Sizes = [1,2,4,284,128]  |  hfloat8  |  expBias = 7, scale = 1  |    |  ModelParam = 0  |  strides = [1163264, 1163264, 145408, 36352, 128, 1]  |  data = 0, sizeInBytes = 290816  |  isAliased = tensor_118, type = concat, offset: 872448  |  location = in DRAM  |  "
    }
  }
}
node {
  name: "tensor_118_bundle_189/concat_logical_internal/0"
  op: "Concatenate"
  input: "module/model/31/fused_scaled_dot_product_attention/sdpa_recomp_fwd_hf8/2795_complex/sdpa_recomp_fwd_hf8_63/sdpa_recomp_core_fwd_hf8_31/fp8_gemm_hf8_503/batch_gemm_24_bundle_189/op_6"
  input: "module/model/31/fused_scaled_dot_product_attention/sdpa_recomp_fwd_hf8/2795_complex/sdpa_recomp_fwd_hf8_63/sdpa_recomp_core_fwd_hf8_31/fp8_gemm_hf8_503/batch_gemm_24_bundle_189/op_10"
  input: "module/model/31/fused_scaled_dot_product_attention/sdpa_recomp_fwd_hf8/2795_complex/sdpa_recomp_fwd_hf8_63/sdpa_recomp_core_fwd_hf8_31/fp8_gemm_hf8_503/batch_gemm_24_bundle_189/op_14"
  input: "module/model/31/fused_scaled_dot_product_attention/sdpa_recomp_fwd_hf8/2795_complex/sdpa_recomp_fwd_hf8_63/sdpa_recomp_core_fwd_hf8_31/fp8_gemm_hf8_503/batch_gemm_24_bundle_189/op_15"
  attr {
    key: "Bundle_idx"
    value {
      s: "189"
    }
  }
  attr {
    key: "Exec_idx"
    value {
      s: "73"
    }
  }
  attr {
    key: "Op_idx"
    value {
      s: "19"
    }
  }
  attr {
    key: "inputTensor:0"
    value {
      s: "tensor_118_slice_0_0_0_0_0__0__bundle_189_34377  |  Sizes = [1,2,4,284,128]  |  hfloat8  |  expBias = 7, scale = 1  |    |  ModelParam = 0  |  strides = [1163264, 1163264, 145408, 36352, 128, 1]  |  data = 0, sizeInBytes = 290816  |  isAliased = tensor_118, type = concat, offset: 0  |  location = in DRAM  |  "
    }
  }
  attr {
    key: "inputTensor:1"
    value {
      s: "tensor_118_slice_0_0_0_1_0__0__bundle_189_34384  |  Sizes = [1,2,4,284,128]  |  hfloat8  |  expBias = 7, scale = 1  |    |  ModelParam = 0  |  strides = [1163264, 1163264, 145408, 36352, 128, 1]  |  data = 0, sizeInBytes = 290816  |  isAliased = tensor_118, type = concat, offset: 290816  |  location = in DRAM  |  "
    }
  }
  attr {
    key: "inputTensor:2"
    value {
      s: "tensor_118_slice_0_0_0_2_0__0__bundle_189_34391  |  Sizes = [1,2,4,284,128]  |  hfloat8  |  expBias = 7, scale = 1  |    |  ModelParam = 0  |  strides = [1163264, 1163264, 145408, 36352, 128, 1]  |  data = 0, sizeInBytes = 290816  |  isAliased = tensor_118, type = concat, offset: 581632  |  location = in DRAM  |  "
    }
  }
  attr {
    key: "inputTensor:3"
    value {
      s: "tensor_118_slice_0_0_0_3_0__0__bundle_189_34392  |  Sizes = [1,2,4,284,128]  |  hfloat8  |  expBias = 7, scale = 1  |    |  ModelParam = 0  |  strides = [1163264, 1163264, 145408, 36352, 128, 1]  |  data = 0, sizeInBytes = 290816  |  isAliased = tensor_118, type = concat, offset: 872448  |  location = in DRAM  |  "
    }
  }
  attr {
    key: "outputTensor:0"
    value {
      s: "tensor_118  |  Sizes = [1,8,4,284,128]  |  hfloat8  |  expBias = 7, scale = 1  |    |  ModelParam = 0  |  strides = [1163264, 1163264, 145408, 36352, 128, 1]  |  data = 0, sizeInBytes = 1163264  |  isAliased = tensor_119_id_80548_module/model/31/fused_scaled_dot_product_attention/dequant_output/aten__view, type = alias, offset: 0  |  location = in DRAM  |  "
    }
  }
}
node {
  name: "module/model/31/fused_scaled_dot_product_attention/dequant_output/reshape/2796"
  op: "Reshape"
  input: "tensor_118_bundle_189/concat_logical_internal/0"
  attr {
    key: "Bundle_idx"
    value {
      s: "N/A"
    }
  }
  attr {
    key: "Exec_idx"
    value {
      s: "74"
    }
  }
  attr {
    key: "Op_idx"
    value {
      s: "N/A"
    }
  }
  attr {
    key: "inputTensor:0"
    value {
      s: "tensor_118  |  Sizes = [1,8,4,284,128]  |  hfloat8  |  expBias = 7, scale = 1  |    |  ModelParam = 0  |  strides = [1163264, 1163264, 145408, 36352, 128, 1]  |  data = 0, sizeInBytes = 1163264  |  isAliased = tensor_119_id_80548_module/model/31/fused_scaled_dot_product_attention/dequant_output/aten__view, type = alias, offset: 0  |  location = in DRAM  |  "
    }
  }
  attr {
    key: "outputTensor:0"
    value {
      s: "tensor_119_id_80548_module/model/31/fused_scaled_dot_product_attention/dequant_output/aten__view  |  Sizes = [1,32,284,128]  |  hfloat8  |  expBias = 7, scale = 1  |    |  ModelParam = 0  |  strides = [1163264, 1163264, 36352, 128, 1]  |  data = 0, sizeInBytes = 1163264  |  location = in DRAM  |  dramOffset = 0x4200007b2500  |  "
    }
  }
}
node {
  name: "module/model/31/transpose/2798_transpose_via_logical"
  op: "LogicalTranspose"
  input: "module/model/31/fused_scaled_dot_product_attention/dequant_output/reshape/2796"
  attr {
    key: "Bundle_idx"
    value {
      s: "N/A"
    }
  }
  attr {
    key: "Exec_idx"
    value {
      s: "75"
    }
  }
  attr {
    key: "Op_idx"
    value {
      s: "N/A"
    }
  }
  attr {
    key: "Parameters"
    value {
      s: "permutation: (0,2,1,3)"
    }
  }
  attr {
    key: "inputTensor:0"
    value {
      s: "tensor_119_id_80548_module/model/31/fused_scaled_dot_product_attention/dequant_output/aten__view  |  Sizes = [1,32,284,128]  |  hfloat8  |  expBias = 7, scale = 1  |    |  ModelParam = 0  |  strides = [1163264, 1163264, 36352, 128, 1]  |  data = 0, sizeInBytes = 1163264  |  location = in DRAM  |  dramOffset = 0x4200007b2500  |  "
    }
  }
  attr {
    key: "outputTensor:0"
    value {
      s: "tensor_123_id_80553_module/model/31/aten__transpose  |  Sizes = [1,284,32,128]  |  hfloat8  |  expBias = 7, scale = 1  |    |  ModelParam = 0  |  strides = [1163264, 1163264, 128, 36352, 1]  |  data = 0, sizeInBytes = 1163264  |  isAliased = tensor_119_id_80548_module/model/31/fused_scaled_dot_product_attention/dequant_output/aten__view, type = alias, offset: 0  |  location = in DRAM  |  isSparseLayout  |  "
    }
  }
}
node {
  name: "tensor_123_id_80553_module/model/31/aten__transpose_memcpy_34415_internal"
  op: "DmaMemcpy"
  input: "module/model/31/transpose/2798_transpose_via_logical"
  attr {
    key: "Bundle_idx"
    value {
      s: "N/A"
    }
  }
  attr {
    key: "Exec_idx"
    value {
      s: "76"
    }
  }
  attr {
    key: "Op_idx"
    value {
      s: "N/A"
    }
  }
  attr {
    key: "inputTensor:0"
    value {
      s: "tensor_123_id_80553_module/model/31/aten__transpose  |  Sizes = [1,284,32,128]  |  hfloat8  |  expBias = 7, scale = 1  |    |  ModelParam = 0  |  strides = [1163264, 1163264, 128, 36352, 1]  |  data = 0, sizeInBytes = 1163264  |  isAliased = tensor_119_id_80548_module/model/31/fused_scaled_dot_product_attention/dequant_output/aten__view, type = alias, offset: 0  |  location = in DRAM  |  isSparseLayout  |  "
    }
  }
  attr {
    key: "outputTensor:0"
    value {
      s: "tensor_123_id_80553_module/model/31/aten__transpose_memcpy_34415  |  Sizes = [1,284,32,128]  |  hfloat8  |  expBias = 7, scale = 1  |    |  ModelParam = 0  |  strides = [1163264, 1163264, 4096, 128, 1]  |  data = 0, sizeInBytes = 1163264  |  location = in DRAM  |  dramOffset = 0x420000000000  |  "
    }
  }
}
node {
  name: "module/model/31/o_proj/quant_input_0/reshape/2800"
  op: "Reshape"
  input: "tensor_123_id_80553_module/model/31/aten__transpose_memcpy_34415_internal"
  attr {
    key: "Bundle_idx"
    value {
      s: "N/A"
    }
  }
  attr {
    key: "Exec_idx"
    value {
      s: "77"
    }
  }
  attr {
    key: "Op_idx"
    value {
      s: "N/A"
    }
  }
  attr {
    key: "inputTensor:0"
    value {
      s: "tensor_123_id_80553_module/model/31/aten__transpose_memcpy_34415  |  Sizes = [1,284,32,128]  |  hfloat8  |  expBias = 7, scale = 1  |    |  ModelParam = 0  |  strides = [1163264, 1163264, 4096, 128, 1]  |  data = 0, sizeInBytes = 1163264  |  location = in DRAM  |  dramOffset = 0x420000000000  |  "
    }
  }
  attr {
    key: "outputTensor:0"
    value {
      s: "tensor_129_c33676  |  Sizes = [1,284,4096]  |  hfloat8  |  expBias = 7, scale = 1  |    |  ModelParam = 0  |  strides = [1163264, 1163264, 4096, 1]  |  data = 0, sizeInBytes = 1163264  |  isAliased = tensor_123_id_80553_module/model/31/aten__transpose_memcpy_34415, type = alias, offset: 0  |  location = in DRAM  |  "
    }
  }
}
node {
  name: "tensor_130_odule/model/31/o_proj/placeholder/1"
  op: "Placeholder"
  attr {
    key: "dtype"
    value {
      type: DT_INVALID
    }
  }
  attr {
    key: "shape"
    value {
      shape {
        dim {
          size: 4096
        }
        dim {
          size: 4096
        }
        dim {
          size: 1
        }
        dim {
          size: 1
        }
        dim {
          size: 1
        }
      }
    }
  }
  attr {
    key: "synDataType"
    value {
      s: "hfloat8"
    }
  }
}
node {
  name: "module/model/31/o_proj/fp8_gemm_bf16/2802_complex/fp8_gemm_bf16_505/expand_dims_6"
  op: "ExpandDims"
  input: "tensor_130_odule/model/31/o_proj/placeholder/1"
  attr {
    key: "Bundle_idx"
    value {
      s: "N/A"
    }
  }
  attr {
    key: "Exec_idx"
    value {
      s: "78"
    }
  }
  attr {
    key: "Op_idx"
    value {
      s: "N/A"
    }
  }
  attr {
    key: "inputTensor:0"
    value {
      s: "tensor_130_odule/model/31/o_proj/placeholder/1  |  Sizes = [4096,4096]  |  hfloat8  |  expBias = 7, scale = 1  |    |  ModelParam = 0  |  strides = [16777216, 4096, 1]  |  data = 0, sizeInBytes = 16777216  |  isPersistent  |  location = in DRAM  |  dramOffset = 0x2c0000000000  |  userMemorySection(type=Persistent, id=44)  |  "
    }
  }
  attr {
    key: "outputTensor:0"
    value {
      s: "hf8-7_33765  |  Sizes = [1,4096,4096]  |  hfloat8  |  expBias = 7, scale = 1  |    |  ModelParam = 0  |  strides = [16777216, 16777216, 4096, 1]  |  data = 0, sizeInBytes = 16777216  |  isAliased = tensor_130_odule/model/31/o_proj/placeholder/1, type = alias, offset: 0  |  location = in DRAM  |  "
    }
  }
}
node {
  name: "tensor_129_c33676_bundle_190/memcpy/0"
  op: "DmaMemcpy"
  input: "module/model/31/o_proj/quant_input_0/reshape/2800"
  attr {
    key: "Bundle_idx"
    value {
      s: "190"
    }
  }
  attr {
    key: "Exec_idx"
    value {
      s: "79"
    }
  }
  attr {
    key: "Op_idx"
    value {
      s: "0"
    }
  }
  attr {
    key: "inputTensor:0"
    value {
      s: "tensor_129_c33676  |  Sizes = [1,284,4096]  |  hfloat8  |  expBias = 7, scale = 1  |    |  ModelParam = 0  |  strides = [1163264, 1163264, 4096, 1]  |  data = 0, sizeInBytes = 1163264  |  isAliased = tensor_123_id_80553_module/model/31/aten__transpose_memcpy_34415, type = alias, offset: 0  |  location = in DRAM  |  "
    }
  }
  attr {
    key: "outputTensor:0"
    value {
      s: "tensor_129_c33676_slice_0_0_0_0_0__0__bundle_190_34393  |  Sizes = [1,284,4096]  |  hfloat8  |  expBias = 7, scale = 1  |    |  ModelParam = 0  |  strides = [1163264, 1163264, 4096, 1]  |  data = 0, sizeInBytes = 1163264  |  location = in SRAM  |  sramOffset = 0x1000fffffd90c800  |  "
    }
  }
}
node {
  name: "module/model/31/o_proj/fp8_gemm_bf16/2802_complex/fp8_gemm_bf16_505/batch_gemm_8_bundle_190/op_0_gemm"
  op: "GEMM"
  input: "tensor_129_c33676_bundle_190/memcpy/0"
  input: "module/model/31/o_proj/fp8_gemm_bf16/2802_complex/fp8_gemm_bf16_505/expand_dims_6"
  attr {
    key: "Bundle_idx"
    value {
      s: "190"
    }
  }
  attr {
    key: "Exec_idx"
    value {
      s: "80"
    }
  }
  attr {
    key: "Op_idx"
    value {
      s: "1"
    }
  }
  attr {
    key: "Parameters"
    value {
      s: "transpose_a=false, transpose_b=false"
    }
  }
  attr {
    key: "fp8BiasIn"
    value {
      s: "7"
    }
  }
  attr {
    key: "fp8BiasIn2"
    value {
      s: "15"
    }
  }
  attr {
    key: "fp8BiasOut"
    value {
      s: "0"
    }
  }
  attr {
    key: "inputTensor:0"
    value {
      s: "tensor_129_c33676_slice_0_0_0_0_0__0__bundle_190_34393  |  Sizes = [1,284,4096]  |  hfloat8  |  expBias = 7, scale = 1  |    |  ModelParam = 0  |  strides = [1163264, 1163264, 4096, 1]  |  data = 0, sizeInBytes = 1163264  |  location = in SRAM  |  sramOffset = 0x1000fffffd90c800  |  "
    }
  }
  attr {
    key: "inputTensor:1"
    value {
      s: "hf8-7_33765  |  Sizes = [1,4096,4096]  |  hfloat8  |  expBias = 7, scale = 1  |    |  ModelParam = 0  |  strides = [16777216, 16777216, 4096, 1]  |  data = 0, sizeInBytes = 16777216  |  isAliased = tensor_130_odule/model/31/o_proj/placeholder/1, type = alias, offset: 0  |  location = in DRAM  |  "
    }
  }
  attr {
    key: "outputTensor:0"
    value {
      s: "tensor_134  |  Sizes = [1,284,4096]  |  bf16  |  expBias = 0, scale = 1  |    |  ModelParam = 0  |  strides = [2326528, 2326528, 8192, 2]  |  data = 0, sizeInBytes = 2326528  |  location = in DRAM  |  dramOffset = 0x4200008ce500  |  "
    }
  }
}
node {
  name: "tensor_145_odule/model/31/up_proj/placeholder/1"
  op: "Placeholder"
  attr {
    key: "dtype"
    value {
      type: DT_INVALID
    }
  }
  attr {
    key: "shape"
    value {
      shape {
        dim {
          size: 14336
        }
        dim {
          size: 4096
        }
        dim {
          size: 1
        }
        dim {
          size: 1
        }
        dim {
          size: 1
        }
      }
    }
  }
  attr {
    key: "synDataType"
    value {
      s: "hfloat8"
    }
  }
}
node {
  name: "module/model/31/up_proj/fp8_gemm_bf16/2806_complex/fp8_gemm_bf16_507/expand_dims_6"
  op: "ExpandDims"
  input: "tensor_145_odule/model/31/up_proj/placeholder/1"
  attr {
    key: "Bundle_idx"
    value {
      s: "N/A"
    }
  }
  attr {
    key: "Exec_idx"
    value {
      s: "81"
    }
  }
  attr {
    key: "Op_idx"
    value {
      s: "N/A"
    }
  }
  attr {
    key: "inputTensor:0"
    value {
      s: "tensor_145_odule/model/31/up_proj/placeholder/1  |  Sizes = [4096,14336]  |  hfloat8  |  expBias = 7, scale = 1  |    |  ModelParam = 0  |  strides = [58720256, 14336, 1]  |  data = 0, sizeInBytes = 58720256  |  isPersistent  |  location = in DRAM  |  dramOffset = 0x310000000000  |  userMemorySection(type=Persistent, id=49)  |  "
    }
  }
  attr {
    key: "outputTensor:0"
    value {
      s: "hf8-7_33773  |  Sizes = [1,4096,14336]  |  hfloat8  |  expBias = 7, scale = 1  |    |  ModelParam = 0  |  strides = [58720256, 58720256, 14336, 1]  |  data = 0, sizeInBytes = 58720256  |  isAliased = tensor_145_odule/model/31/up_proj/placeholder/1, type = alias, offset: 0  |  location = in DRAM  |  "
    }
  }
}
node {
  name: "tensor_154_odule/model/31/gate_proj/placeholder/1"
  op: "Placeholder"
  attr {
    key: "dtype"
    value {
      type: DT_INVALID
    }
  }
  attr {
    key: "shape"
    value {
      shape {
        dim {
          size: 14336
        }
        dim {
          size: 4096
        }
        dim {
          size: 1
        }
        dim {
          size: 1
        }
        dim {
          size: 1
        }
      }
    }
  }
  attr {
    key: "synDataType"
    value {
      s: "hfloat8"
    }
  }
}
node {
  name: "module/model/31/gate_proj/fp8_gemm_bf16/2808_complex/fp8_gemm_bf16_509/expand_dims_6"
  op: "ExpandDims"
  input: "tensor_154_odule/model/31/gate_proj/placeholder/1"
  attr {
    key: "Bundle_idx"
    value {
      s: "N/A"
    }
  }
  attr {
    key: "Exec_idx"
    value {
      s: "82"
    }
  }
  attr {
    key: "Op_idx"
    value {
      s: "N/A"
    }
  }
  attr {
    key: "inputTensor:0"
    value {
      s: "tensor_154_odule/model/31/gate_proj/placeholder/1  |  Sizes = [4096,14336]  |  hfloat8  |  expBias = 7, scale = 1  |    |  ModelParam = 0  |  strides = [58720256, 14336, 1]  |  data = 0, sizeInBytes = 58720256  |  isPersistent  |  location = in DRAM  |  dramOffset = 0x350000000000  |  userMemorySection(type=Persistent, id=53)  |  "
    }
  }
  attr {
    key: "outputTensor:0"
    value {
      s: "hf8-7_33777  |  Sizes = [1,4096,14336]  |  hfloat8  |  expBias = 7, scale = 1  |    |  ModelParam = 0  |  strides = [58720256, 58720256, 14336, 1]  |  data = 0, sizeInBytes = 58720256  |  isAliased = tensor_154_odule/model/31/gate_proj/placeholder/1, type = alias, offset: 0  |  location = in DRAM  |  "
    }
  }
}
node {
  name: "module/model/31/add_fwd_bf16/2803_complex/add_fwd_bf16_0_bundle_187/op_0"
  op: "add_fwd_bf16"
  input: "tensor_21_odule/model/31/input_layernorm/placeholder/0"
  input: "module/model/31/o_proj/fp8_gemm_bf16/2802_complex/fp8_gemm_bf16_505/batch_gemm_8_bundle_190/op_0_gemm"
  attr {
    key: "Bundle_idx"
    value {
      s: "187"
    }
  }
  attr {
    key: "Exec_idx"
    value {
      s: "83"
    }
  }
  attr {
    key: "Op_idx"
    value {
      s: "0"
    }
  }
  attr {
    key: "inputTensor:0"
    value {
      s: "tensor_21_odule/model/31/input_layernorm/placeholder/0  |  Sizes = [1,284,4096]  |  bf16  |  expBias = 0, scale = 1  |    |  ModelParam = 0  |  strides = [2326528, 2326528, 8192, 2]  |  data = 0, sizeInBytes = 2326528  |  isPersistent  |  location = in DRAM  |  dramOffset = 0x90000000000  |  userMemorySection(type=Persistent, id=9)  |  "
    }
  }
  attr {
    key: "inputTensor:1"
    value {
      s: "tensor_134  |  Sizes = [1,284,4096]  |  bf16  |  expBias = 0, scale = 1  |    |  ModelParam = 0  |  strides = [2326528, 2326528, 8192, 2]  |  data = 0, sizeInBytes = 2326528  |  location = in DRAM  |  dramOffset = 0x4200008ce500  |  "
    }
  }
  attr {
    key: "outputTensor:0"
    value {
      s: "tensor_135_replaced_33702_slice_0_0_0_0_0__0__bundle_187_34319  |  Sizes = [1,284,4096]  |  bf16  |  expBias = 0, scale = 1  |    |  ModelParam = 0  |  strides = [2326528, 2326528, 8192, 2]  |  data = 0, sizeInBytes = 2326528  |  location = in SRAM  |  sramOffset = 0x1000fffffda28800  |  "
    }
  }
}
node {
  name: "module/model/31/post_attention_layernorm/rms_norm_ex_fwd_bf16/2804_complex/rms_norm_ex_fwd_bf16_127/reshape_2_bundle_187/op_1"
  op: "Reshape"
  input: "module/model/31/add_fwd_bf16/2803_complex/add_fwd_bf16_0_bundle_187/op_0"
  attr {
    key: "Bundle_idx"
    value {
      s: "187"
    }
  }
  attr {
    key: "Exec_idx"
    value {
      s: "84"
    }
  }
  attr {
    key: "Op_idx"
    value {
      s: "1"
    }
  }
  attr {
    key: "inputTensor:0"
    value {
      s: "tensor_135_replaced_33702_slice_0_0_0_0_0__0__bundle_187_34319  |  Sizes = [1,284,4096]  |  bf16  |  expBias = 0, scale = 1  |    |  ModelParam = 0  |  strides = [2326528, 2326528, 8192, 2]  |  data = 0, sizeInBytes = 2326528  |  location = in SRAM  |  sramOffset = 0x1000fffffda28800  |  "
    }
  }
  attr {
    key: "outputTensor:0"
    value {
      s: "bf16-3_33767_slice_0_0_0_0_0__0__bundle_187_34320  |  Sizes = [284,4096]  |  bf16  |  expBias = 0, scale = 1  |    |  ModelParam = 0  |  strides = [2326528, 8192, 2]  |  data = 0, sizeInBytes = 2326528  |  isAliased = tensor_135_replaced_33702_slice_0_0_0_0_0__0__bundle_187_34319, type = alias, offset: 0  |  location = in SRAM  |  sramOffset = 0x1000fffffda28800  |  "
    }
  }
}
node {
  name: "tensor_136_odule/model/31/post_attention_layernorm/placeholder/1"
  op: "Placeholder"
  attr {
    key: "dtype"
    value {
      type: DT_BFLOAT16
    }
  }
  attr {
    key: "shape"
    value {
      shape {
        dim {
          size: 4096
        }
        dim {
          size: 1
        }
        dim {
          size: 1
        }
        dim {
          size: 1
        }
        dim {
          size: 1
        }
      }
    }
  }
  attr {
    key: "synDataType"
    value {
      s: "bf16"
    }
  }
}
node {
  name: "module/model/31/post_attention_layernorm/rms_norm_ex_fwd_bf16/2804_complex/rms_norm_ex_fwd_bf16_127/rms_norm_fwd_bf16_4_bundle_187/op_2"
  op: "rms_norm_fwd_bf16"
  input: "module/model/31/post_attention_layernorm/rms_norm_ex_fwd_bf16/2804_complex/rms_norm_ex_fwd_bf16_127/reshape_2_bundle_187/op_1"
  input: "tensor_136_odule/model/31/post_attention_layernorm/placeholder/1"
  attr {
    key: "Bundle_idx"
    value {
      s: "187"
    }
  }
  attr {
    key: "Exec_idx"
    value {
      s: "85"
    }
  }
  attr {
    key: "Op_idx"
    value {
      s: "2"
    }
  }
  attr {
    key: "inputTensor:0"
    value {
      s: "bf16-3_33767_slice_0_0_0_0_0__0__bundle_187_34320  |  Sizes = [284,4096]  |  bf16  |  expBias = 0, scale = 1  |    |  ModelParam = 0  |  strides = [2326528, 8192, 2]  |  data = 0, sizeInBytes = 2326528  |  isAliased = tensor_135_replaced_33702_slice_0_0_0_0_0__0__bundle_187_34319, type = alias, offset: 0  |  location = in SRAM  |  sramOffset = 0x1000fffffda28800  |  "
    }
  }
  attr {
    key: "inputTensor:1"
    value {
      s: "tensor_136_odule/model/31/post_attention_layernorm/placeholder/1  |  Sizes = [4096]  |  bf16  |  expBias = 0, scale = 1  |    |  ModelParam = 0  |  strides = [8192, 2]  |  data = 0, sizeInBytes = 8192  |  isPersistent  |  location = in DRAM  |  dramOffset = 0x2f0000000000  |  userMemorySection(type=Persistent, id=47)  |  "
    }
  }
  attr {
    key: "outputTensor:0"
    value {
      s: "bf16-5_33768_slice_0_0_0_0_0__0__bundle_187_34322  |  Sizes = [284,4096]  |  bf16  |  expBias = 0, scale = 1  |    |  ModelParam = 0  |  strides = [2326528, 8192, 2]  |  data = 0, sizeInBytes = 2326528  |  isAliased = tensor-33972_slice_0_0_0_0_0__0__bundle_187_34324, type = alias, offset: 0  |  location = in SRAM  |  sramOffset = 0x1000fffffdc60800  |  "
    }
  }
  attr {
    key: "outputTensor:1"
    value {
      s: "f32-6_33769  |  Sizes = [284,1]  |  float32  |  expBias = 0, scale = 1  |    |  ModelParam = 0  |  strides = [1136, 4, 4]  |  data = 0, sizeInBytes = 1136  |  location = in DRAM  |  dramOffset = 0x42000011c000  |  "
    }
  }
}
node {
  name: "f32-6_33769"
  op: "OutputTensor"
  input: "module/model/31/post_attention_layernorm/rms_norm_ex_fwd_bf16/2804_complex/rms_norm_ex_fwd_bf16_127/rms_norm_fwd_bf16_4_bundle_187/op_2"
  attr {
    key: "dtype"
    value {
      type: DT_FLOAT
    }
  }
  attr {
    key: "shape"
    value {
      shape {
        dim {
          size: 1
        }
        dim {
          size: 284
        }
        dim {
          size: 1
        }
        dim {
          size: 1
        }
        dim {
          size: 1
        }
      }
    }
  }
  attr {
    key: "synDataType"
    value {
      s: "float32"
    }
  }
}
node {
  name: "reshape_12_12_bundle_187/op_3"
  op: "Reshape"
  input: "module/model/31/post_attention_layernorm/rms_norm_ex_fwd_bf16/2804_complex/rms_norm_ex_fwd_bf16_127/rms_norm_fwd_bf16_4_bundle_187/op_2"
  attr {
    key: "Bundle_idx"
    value {
      s: "187"
    }
  }
  attr {
    key: "Exec_idx"
    value {
      s: "86"
    }
  }
  attr {
    key: "Op_idx"
    value {
      s: "3"
    }
  }
  attr {
    key: "inputTensor:0"
    value {
      s: "bf16-5_33768_slice_0_0_0_0_0__0__bundle_187_34322  |  Sizes = [284,4096]  |  bf16  |  expBias = 0, scale = 1  |    |  ModelParam = 0  |  strides = [2326528, 8192, 2]  |  data = 0, sizeInBytes = 2326528  |  isAliased = tensor-33972_slice_0_0_0_0_0__0__bundle_187_34324, type = alias, offset: 0  |  location = in SRAM  |  sramOffset = 0x1000fffffdc60800  |  "
    }
  }
  attr {
    key: "outputTensor:0"
    value {
      s: "tensor-33972_slice_0_0_0_0_0__0__bundle_187_34324  |  Sizes = [1,284,4096]  |  bf16  |  expBias = 0, scale = 1  |    |  ModelParam = 0  |  strides = [2326528, 2326528, 8192, 2]  |  data = 0, sizeInBytes = 2326528  |  location = in SRAM  |  sramOffset = 0x1000fffffdc60800  |  "
    }
  }
}
node {
  name: "fusedTPCNode_52_4_bundle_187/op_4"
  op: "fused_kernel_0xA38212B5_AF_hf8"
  input: "reshape_12_12_bundle_187/op_3"
  attr {
    key: "Bundle_idx"
    value {
      s: "187"
    }
  }
  attr {
    key: "Exec_idx"
    value {
      s: "87"
    }
  }
  attr {
    key: "Op_idx"
    value {
      s: "4"
    }
  }
  attr {
    key: "inputTensor:0"
    value {
      s: "tensor-33972_slice_0_0_0_0_0__0__bundle_187_34324  |  Sizes = [1,284,4096]  |  bf16  |  expBias = 0, scale = 1  |    |  ModelParam = 0  |  strides = [2326528, 2326528, 8192, 2]  |  data = 0, sizeInBytes = 2326528  |  location = in SRAM  |  sramOffset = 0x1000fffffdc60800  |  "
    }
  }
  attr {
    key: "outputTensor:0"
    value {
      s: "tensor_144_slice_0_0_0_0_0__0__bundle_187_34325  |  Sizes = [1,284,4096]  |  hfloat8  |  expBias = 7, scale = 1  |    |  ModelParam = 0  |  strides = [1163264, 1163264, 4096, 1]  |  data = 0, sizeInBytes = 1163264  |  location = in SRAM  |  sramOffset = 0x1000fffffde98800  |  "
    }
  }
}
node {
  name: "module/model/31/up_proj/fp8_gemm_bf16/2806_complex/fp8_gemm_bf16_507/batch_gemm_8_bundle_187/op_5_gemm"
  op: "GEMM"
  input: "fusedTPCNode_52_4_bundle_187/op_4"
  input: "module/model/31/up_proj/fp8_gemm_bf16/2806_complex/fp8_gemm_bf16_507/expand_dims_6"
  attr {
    key: "Bundle_idx"
    value {
      s: "187"
    }
  }
  attr {
    key: "Exec_idx"
    value {
      s: "88"
    }
  }
  attr {
    key: "Op_idx"
    value {
      s: "5"
    }
  }
  attr {
    key: "Parameters"
    value {
      s: "transpose_a=false, transpose_b=false"
    }
  }
  attr {
    key: "fp8BiasIn"
    value {
      s: "7"
    }
  }
  attr {
    key: "fp8BiasIn2"
    value {
      s: "11"
    }
  }
  attr {
    key: "fp8BiasOut"
    value {
      s: "0"
    }
  }
  attr {
    key: "inputTensor:0"
    value {
      s: "tensor_144_slice_0_0_0_0_0__0__bundle_187_34325  |  Sizes = [1,284,4096]  |  hfloat8  |  expBias = 7, scale = 1  |    |  ModelParam = 0  |  strides = [1163264, 1163264, 4096, 1]  |  data = 0, sizeInBytes = 1163264  |  location = in SRAM  |  sramOffset = 0x1000fffffde98800  |  "
    }
  }
  attr {
    key: "inputTensor:1"
    value {
      s: "hf8-7_33773  |  Sizes = [1,4096,14336]  |  hfloat8  |  expBias = 7, scale = 1  |    |  ModelParam = 0  |  strides = [58720256, 58720256, 14336, 1]  |  data = 0, sizeInBytes = 58720256  |  isAliased = tensor_145_odule/model/31/up_proj/placeholder/1, type = alias, offset: 0  |  location = in DRAM  |  "
    }
  }
  attr {
    key: "outputTensor:0"
    value {
      s: "tensor_149  |  Sizes = [1,284,14336]  |  bf16  |  expBias = 0, scale = 1  |    |  ModelParam = 0  |  strides = [8142848, 8142848, 28672, 2]  |  data = 0, sizeInBytes = 8142848  |  location = in DRAM  |  dramOffset = 0x420000b06500  |  "
    }
  }
}
node {
  name: "module/model/31/gate_proj/fp8_gemm_bf16/2808_complex/fp8_gemm_bf16_509/batch_gemm_8_bundle_187/op_6_gemm"
  op: "GEMM"
  input: "fusedTPCNode_52_4_bundle_187/op_4"
  input: "module/model/31/gate_proj/fp8_gemm_bf16/2808_complex/fp8_gemm_bf16_509/expand_dims_6"
  attr {
    key: "Bundle_idx"
    value {
      s: "187"
    }
  }
  attr {
    key: "Exec_idx"
    value {
      s: "89"
    }
  }
  attr {
    key: "Op_idx"
    value {
      s: "6"
    }
  }
  attr {
    key: "Parameters"
    value {
      s: "transpose_a=false, transpose_b=false"
    }
  }
  attr {
    key: "fp8BiasIn"
    value {
      s: "7"
    }
  }
  attr {
    key: "fp8BiasIn2"
    value {
      s: "11"
    }
  }
  attr {
    key: "fp8BiasOut"
    value {
      s: "0"
    }
  }
  attr {
    key: "inputTensor:0"
    value {
      s: "tensor_144_slice_0_0_0_0_0__0__bundle_187_34325  |  Sizes = [1,284,4096]  |  hfloat8  |  expBias = 7, scale = 1  |    |  ModelParam = 0  |  strides = [1163264, 1163264, 4096, 1]  |  data = 0, sizeInBytes = 1163264  |  location = in SRAM  |  sramOffset = 0x1000fffffde98800  |  "
    }
  }
  attr {
    key: "inputTensor:1"
    value {
      s: "hf8-7_33777  |  Sizes = [1,4096,14336]  |  hfloat8  |  expBias = 7, scale = 1  |    |  ModelParam = 0  |  strides = [58720256, 58720256, 14336, 1]  |  data = 0, sizeInBytes = 58720256  |  isAliased = tensor_154_odule/model/31/gate_proj/placeholder/1, type = alias, offset: 0  |  location = in DRAM  |  "
    }
  }
  attr {
    key: "outputTensor:0"
    value {
      s: "tensor_158  |  Sizes = [1,284,14336]  |  bf16  |  expBias = 0, scale = 1  |    |  ModelParam = 0  |  strides = [8142848, 8142848, 28672, 2]  |  data = 0, sizeInBytes = 8142848  |  location = in DRAM  |  dramOffset = 0x4200012ca500  |  "
    }
  }
}
node {
  name: "tensor_135_replaced_33702_bundle_187/memcpy/0"
  op: "DmaMemcpy"
  input: "module/model/31/add_fwd_bf16/2803_complex/add_fwd_bf16_0_bundle_187/op_0"
  attr {
    key: "Bundle_idx"
    value {
      s: "187"
    }
  }
  attr {
    key: "Exec_idx"
    value {
      s: "90"
    }
  }
  attr {
    key: "Op_idx"
    value {
      s: "7"
    }
  }
  attr {
    key: "inputTensor:0"
    value {
      s: "tensor_135_replaced_33702_slice_0_0_0_0_0__0__bundle_187_34319  |  Sizes = [1,284,4096]  |  bf16  |  expBias = 0, scale = 1  |    |  ModelParam = 0  |  strides = [2326528, 2326528, 8192, 2]  |  data = 0, sizeInBytes = 2326528  |  location = in SRAM  |  sramOffset = 0x1000fffffda28800  |  "
    }
  }
  attr {
    key: "outputTensor:0"
    value {
      s: "tensor_135_replaced_33702  |  Sizes = [1,284,4096]  |  bf16  |  expBias = 0, scale = 1  |    |  ModelParam = 0  |  strides = [2326528, 2326528, 8192, 2]  |  data = 0, sizeInBytes = 2326528  |  location = in DRAM  |  dramOffset = 0x42000011c480  |  "
    }
  }
}
node {
  name: "tensor_165_odule/model/31/down_proj/placeholder/1"
  op: "Placeholder"
  attr {
    key: "dtype"
    value {
      type: DT_INVALID
    }
  }
  attr {
    key: "shape"
    value {
      shape {
        dim {
          size: 4096
        }
        dim {
          size: 14336
        }
        dim {
          size: 1
        }
        dim {
          size: 1
        }
        dim {
          size: 1
        }
      }
    }
  }
  attr {
    key: "synDataType"
    value {
      s: "hfloat8"
    }
  }
}
node {
  name: "module/model/31/down_proj/fp8_gemm_bf16/2812_complex/fp8_gemm_bf16_511/expand_dims_6"
  op: "ExpandDims"
  input: "tensor_165_odule/model/31/down_proj/placeholder/1"
  attr {
    key: "Bundle_idx"
    value {
      s: "N/A"
    }
  }
  attr {
    key: "Exec_idx"
    value {
      s: "91"
    }
  }
  attr {
    key: "Op_idx"
    value {
      s: "N/A"
    }
  }
  attr {
    key: "inputTensor:0"
    value {
      s: "tensor_165_odule/model/31/down_proj/placeholder/1  |  Sizes = [14336,4096]  |  hfloat8  |  expBias = 7, scale = 1  |    |  ModelParam = 0  |  strides = [58720256, 4096, 1]  |  data = 0, sizeInBytes = 58720256  |  isPersistent  |  location = in DRAM  |  dramOffset = 0x390000000000  |  userMemorySection(type=Persistent, id=57)  |  "
    }
  }
  attr {
    key: "outputTensor:0"
    value {
      s: "hf8-7_33786  |  Sizes = [1,14336,4096]  |  hfloat8  |  expBias = 7, scale = 1  |    |  ModelParam = 0  |  strides = [58720256, 58720256, 4096, 1]  |  data = 0, sizeInBytes = 58720256  |  isAliased = tensor_165_odule/model/31/down_proj/placeholder/1, type = alias, offset: 0  |  location = in DRAM  |  "
    }
  }
}
node {
  name: "fusedTPCNode_52_5_bundle_191/op_0"
  op: "fused_kernel_0xDAF7E86D_B3_bf16"
  input: "module/model/31/gate_proj/fp8_gemm_bf16/2808_complex/fp8_gemm_bf16_509/batch_gemm_8_bundle_187/op_6_gemm"
  input: "module/model/31/up_proj/fp8_gemm_bf16/2806_complex/fp8_gemm_bf16_507/batch_gemm_8_bundle_187/op_5_gemm"
  attr {
    key: "Bundle_idx"
    value {
      s: "191"
    }
  }
  attr {
    key: "Exec_idx"
    value {
      s: "92"
    }
  }
  attr {
    key: "Op_idx"
    value {
      s: "0"
    }
  }
  attr {
    key: "inputTensor:0"
    value {
      s: "tensor_158  |  Sizes = [1,284,14336]  |  bf16  |  expBias = 0, scale = 1  |    |  ModelParam = 0  |  strides = [8142848, 8142848, 28672, 2]  |  data = 0, sizeInBytes = 8142848  |  location = in DRAM  |  dramOffset = 0x4200012ca500  |  "
    }
  }
  attr {
    key: "inputTensor:1"
    value {
      s: "tensor_149  |  Sizes = [1,284,14336]  |  bf16  |  expBias = 0, scale = 1  |    |  ModelParam = 0  |  strides = [8142848, 8142848, 28672, 2]  |  data = 0, sizeInBytes = 8142848  |  location = in DRAM  |  dramOffset = 0x420000b06500  |  "
    }
  }
  attr {
    key: "outputTensor:0"
    value {
      s: "tensor_164_slice_0_0_0_0_0__0__bundle_191_34398  |  Sizes = [1,284,14336]  |  hfloat8  |  expBias = 7, scale = 1  |    |  ModelParam = 0  |  strides = [4071424, 4071424, 14336, 1]  |  data = 0, sizeInBytes = 4071424  |  location = in SRAM  |  sramOffset = 0x1000fffffdfb4800  |  "
    }
  }
}
node {
  name: "module/model/31/down_proj/fp8_gemm_bf16/2812_complex/fp8_gemm_bf16_511/batch_gemm_8_bundle_191/op_1_gemm"
  op: "GEMM"
  input: "fusedTPCNode_52_5_bundle_191/op_0"
  input: "module/model/31/down_proj/fp8_gemm_bf16/2812_complex/fp8_gemm_bf16_511/expand_dims_6"
  attr {
    key: "Bundle_idx"
    value {
      s: "191"
    }
  }
  attr {
    key: "Exec_idx"
    value {
      s: "93"
    }
  }
  attr {
    key: "Op_idx"
    value {
      s: "1"
    }
  }
  attr {
    key: "Parameters"
    value {
      s: "transpose_a=false, transpose_b=false"
    }
  }
  attr {
    key: "fp8BiasIn"
    value {
      s: "3"
    }
  }
  attr {
    key: "fp8BiasIn2"
    value {
      s: "11"
    }
  }
  attr {
    key: "fp8BiasOut"
    value {
      s: "0"
    }
  }
  attr {
    key: "inputTensor:0"
    value {
      s: "tensor_164_slice_0_0_0_0_0__0__bundle_191_34398  |  Sizes = [1,284,14336]  |  hfloat8  |  expBias = 7, scale = 1  |    |  ModelParam = 0  |  strides = [4071424, 4071424, 14336, 1]  |  data = 0, sizeInBytes = 4071424  |  location = in SRAM  |  sramOffset = 0x1000fffffdfb4800  |  "
    }
  }
  attr {
    key: "inputTensor:1"
    value {
      s: "hf8-7_33786  |  Sizes = [1,14336,4096]  |  hfloat8  |  expBias = 7, scale = 1  |    |  ModelParam = 0  |  strides = [58720256, 58720256, 4096, 1]  |  data = 0, sizeInBytes = 58720256  |  isAliased = tensor_165_odule/model/31/down_proj/placeholder/1, type = alias, offset: 0  |  location = in DRAM  |  "
    }
  }
  attr {
    key: "outputTensor:0"
    value {
      s: "tensor_169  |  Sizes = [1,284,4096]  |  bf16  |  expBias = 0, scale = 1  |    |  ModelParam = 0  |  strides = [2326528, 2326528, 8192, 2]  |  data = 0, sizeInBytes = 2326528  |  location = in DRAM  |  dramOffset = 0x420000354480  |  "
    }
  }
}
node {
  name: "tensor_182_odule/lm_head/placeholder/1"
  op: "Placeholder"
  attr {
    key: "dtype"
    value {
      type: DT_INVALID
    }
  }
  attr {
    key: "shape"
    value {
      shape {
        dim {
          size: 128256
        }
        dim {
          size: 4096
        }
        dim {
          size: 1
        }
        dim {
          size: 1
        }
        dim {
          size: 1
        }
      }
    }
  }
  attr {
    key: "synDataType"
    value {
      s: "hfloat8"
    }
  }
}
node {
  name: "module/lm_head/fp8_gemm_bf16/2818_complex/fp8_gemm_bf16_513/expand_dims_6"
  op: "ExpandDims"
  input: "tensor_182_odule/lm_head/placeholder/1"
  attr {
    key: "Bundle_idx"
    value {
      s: "N/A"
    }
  }
  attr {
    key: "Exec_idx"
    value {
      s: "94"
    }
  }
  attr {
    key: "Op_idx"
    value {
      s: "N/A"
    }
  }
  attr {
    key: "inputTensor:0"
    value {
      s: "tensor_182_odule/lm_head/placeholder/1  |  Sizes = [4096,128256]  |  hfloat8  |  expBias = 7, scale = 1  |    |  ModelParam = 0  |  strides = [525336576, 128256, 1]  |  data = 0, sizeInBytes = 525336576  |  isPersistent  |  location = in DRAM  |  dramOffset = 0x3e0000000000  |  userMemorySection(type=Persistent, id=62)  |  "
    }
  }
  attr {
    key: "outputTensor:0"
    value {
      s: "hf8-7_33795  |  Sizes = [1,4096,128256]  |  hfloat8  |  expBias = 7, scale = 1  |    |  ModelParam = 0  |  strides = [525336576, 525336576, 128256, 1]  |  data = 0, sizeInBytes = 525336576  |  isAliased = tensor_182_odule/lm_head/placeholder/1, type = alias, offset: 0  |  location = in DRAM  |  "
    }
  }
}
node {
  name: "module/model/31/add_fwd_bf16/2813_complex/add_fwd_bf16_0_bundle_192/op_0"
  op: "add_fwd_bf16"
  input: "tensor_135_replaced_33702_bundle_187/memcpy/0"
  input: "module/model/31/down_proj/fp8_gemm_bf16/2812_complex/fp8_gemm_bf16_511/batch_gemm_8_bundle_191/op_1_gemm"
  attr {
    key: "Bundle_idx"
    value {
      s: "192"
    }
  }
  attr {
    key: "Exec_idx"
    value {
      s: "95"
    }
  }
  attr {
    key: "Op_idx"
    value {
      s: "0"
    }
  }
  attr {
    key: "inputTensor:0"
    value {
      s: "tensor_135_replaced_33702  |  Sizes = [1,284,4096]  |  bf16  |  expBias = 0, scale = 1  |    |  ModelParam = 0  |  strides = [2326528, 2326528, 8192, 2]  |  data = 0, sizeInBytes = 2326528  |  location = in DRAM  |  dramOffset = 0x42000011c480  |  "
    }
  }
  attr {
    key: "inputTensor:1"
    value {
      s: "tensor_169  |  Sizes = [1,284,4096]  |  bf16  |  expBias = 0, scale = 1  |    |  ModelParam = 0  |  strides = [2326528, 2326528, 8192, 2]  |  data = 0, sizeInBytes = 2326528  |  location = in DRAM  |  dramOffset = 0x420000354480  |  "
    }
  }
  attr {
    key: "outputTensor:0"
    value {
      s: "tensor_170_slice_0_0_0_0_0__0__bundle_192_34403  |  Sizes = [1,284,4096]  |  bf16  |  expBias = 0, scale = 1  |    |  ModelParam = 0  |  strides = [2326528, 2326528, 8192, 2]  |  data = 0, sizeInBytes = 2326528  |  location = in SRAM  |  sramOffset = 0x1000fffffe396800  |  "
    }
  }
}
node {
  name: "module/model/norm/rms_norm_ex_fwd_bf16/2814_complex/rms_norm_ex_fwd_bf16_129/reshape_4_bundle_192/op_1"
  op: "Reshape"
  input: "module/model/31/add_fwd_bf16/2813_complex/add_fwd_bf16_0_bundle_192/op_0"
  attr {
    key: "Bundle_idx"
    value {
      s: "192"
    }
  }
  attr {
    key: "Exec_idx"
    value {
      s: "96"
    }
  }
  attr {
    key: "Op_idx"
    value {
      s: "1"
    }
  }
  attr {
    key: "inputTensor:0"
    value {
      s: "tensor_170_slice_0_0_0_0_0__0__bundle_192_34403  |  Sizes = [1,284,4096]  |  bf16  |  expBias = 0, scale = 1  |    |  ModelParam = 0  |  strides = [2326528, 2326528, 8192, 2]  |  data = 0, sizeInBytes = 2326528  |  location = in SRAM  |  sramOffset = 0x1000fffffe396800  |  "
    }
  }
  attr {
    key: "outputTensor:0"
    value {
      s: "bf16-5_33789_slice_0_0_0_0_0__0__bundle_192_34404  |  Sizes = [284,4096]  |  bf16  |  expBias = 0, scale = 1  |    |  ModelParam = 0  |  strides = [2326528, 8192, 2]  |  data = 0, sizeInBytes = 2326528  |  isAliased = tensor_170_slice_0_0_0_0_0__0__bundle_192_34403, type = alias, offset: 0  |  location = in SRAM  |  sramOffset = 0x1000fffffe396800  |  "
    }
  }
}
node {
  name: "tensor_171_odule/model/norm/placeholder/1"
  op: "Placeholder"
  attr {
    key: "dtype"
    value {
      type: DT_BFLOAT16
    }
  }
  attr {
    key: "shape"
    value {
      shape {
        dim {
          size: 4096
        }
        dim {
          size: 1
        }
        dim {
          size: 1
        }
        dim {
          size: 1
        }
        dim {
          size: 1
        }
      }
    }
  }
  attr {
    key: "synDataType"
    value {
      s: "bf16"
    }
  }
}
node {
  name: "module/model/norm/rms_norm_ex_fwd_bf16/2814_complex/rms_norm_ex_fwd_bf16_129/rms_norm_fwd_bf16_6_bundle_192/op_2"
  op: "rms_norm_fwd_bf16"
  input: "module/model/norm/rms_norm_ex_fwd_bf16/2814_complex/rms_norm_ex_fwd_bf16_129/reshape_4_bundle_192/op_1"
  input: "tensor_171_odule/model/norm/placeholder/1"
  attr {
    key: "Bundle_idx"
    value {
      s: "192"
    }
  }
  attr {
    key: "Exec_idx"
    value {
      s: "97"
    }
  }
  attr {
    key: "Op_idx"
    value {
      s: "2"
    }
  }
  attr {
    key: "inputTensor:0"
    value {
      s: "bf16-5_33789_slice_0_0_0_0_0__0__bundle_192_34404  |  Sizes = [284,4096]  |  bf16  |  expBias = 0, scale = 1  |    |  ModelParam = 0  |  strides = [2326528, 8192, 2]  |  data = 0, sizeInBytes = 2326528  |  isAliased = tensor_170_slice_0_0_0_0_0__0__bundle_192_34403, type = alias, offset: 0  |  location = in SRAM  |  sramOffset = 0x1000fffffe396800  |  "
    }
  }
  attr {
    key: "inputTensor:1"
    value {
      s: "tensor_171_odule/model/norm/placeholder/1  |  Sizes = [4096]  |  bf16  |  expBias = 0, scale = 1  |    |  ModelParam = 0  |  strides = [8192, 2]  |  data = 0, sizeInBytes = 8192  |  isPersistent  |  location = in DRAM  |  dramOffset = 0x3c0000000000  |  userMemorySection(type=Persistent, id=60)  |  "
    }
  }
  attr {
    key: "outputTensor:0"
    value {
      s: "bf16-7_33790_slice_0_0_0_0_0__0__bundle_192_34406  |  Sizes = [284,4096]  |  bf16  |  expBias = 0, scale = 1  |    |  ModelParam = 0  |  strides = [2326528, 8192, 2]  |  data = 0, sizeInBytes = 2326528  |  isAliased = tensor-33973_slice_0_0_0_0_0__0__bundle_192_34408, type = alias, offset: 0  |  location = in SRAM  |  sramOffset = 0x1000fffffe5ce800  |  "
    }
  }
  attr {
    key: "outputTensor:1"
    value {
      s: "f32-8_33791  |  Sizes = [284,1]  |  float32  |  expBias = 0, scale = 1  |    |  ModelParam = 0  |  strides = [1136, 4, 4]  |  data = 0, sizeInBytes = 1136  |  location = in DRAM  |  dramOffset = 0x420000000000  |  "
    }
  }
}
node {
  name: "f32-8_33791"
  op: "OutputTensor"
  input: "module/model/norm/rms_norm_ex_fwd_bf16/2814_complex/rms_norm_ex_fwd_bf16_129/rms_norm_fwd_bf16_6_bundle_192/op_2"
  attr {
    key: "dtype"
    value {
      type: DT_FLOAT
    }
  }
  attr {
    key: "shape"
    value {
      shape {
        dim {
          size: 1
        }
        dim {
          size: 284
        }
        dim {
          size: 1
        }
        dim {
          size: 1
        }
        dim {
          size: 1
        }
      }
    }
  }
  attr {
    key: "synDataType"
    value {
      s: "float32"
    }
  }
}
node {
  name: "reshape_16_16_bundle_192/op_3"
  op: "Reshape"
  input: "module/model/norm/rms_norm_ex_fwd_bf16/2814_complex/rms_norm_ex_fwd_bf16_129/rms_norm_fwd_bf16_6_bundle_192/op_2"
  attr {
    key: "Bundle_idx"
    value {
      s: "192"
    }
  }
  attr {
    key: "Exec_idx"
    value {
      s: "98"
    }
  }
  attr {
    key: "Op_idx"
    value {
      s: "3"
    }
  }
  attr {
    key: "inputTensor:0"
    value {
      s: "bf16-7_33790_slice_0_0_0_0_0__0__bundle_192_34406  |  Sizes = [284,4096]  |  bf16  |  expBias = 0, scale = 1  |    |  ModelParam = 0  |  strides = [2326528, 8192, 2]  |  data = 0, sizeInBytes = 2326528  |  isAliased = tensor-33973_slice_0_0_0_0_0__0__bundle_192_34408, type = alias, offset: 0  |  location = in SRAM  |  sramOffset = 0x1000fffffe5ce800  |  "
    }
  }
  attr {
    key: "outputTensor:0"
    value {
      s: "tensor-33973_slice_0_0_0_0_0__0__bundle_192_34408  |  Sizes = [1,284,4096]  |  bf16  |  expBias = 0, scale = 1  |    |  ModelParam = 0  |  strides = [2326528, 2326528, 8192, 2]  |  data = 0, sizeInBytes = 2326528  |  location = in SRAM  |  sramOffset = 0x1000fffffe5ce800  |  "
    }
  }
}
node {
  name: "fusedTPCNode_52_6_bundle_192/op_4"
  op: "fused_kernel_0xA38212B5_AF_hf8"
  input: "reshape_16_16_bundle_192/op_3"
  attr {
    key: "Bundle_idx"
    value {
      s: "192"
    }
  }
  attr {
    key: "Exec_idx"
    value {
      s: "99"
    }
  }
  attr {
    key: "Op_idx"
    value {
      s: "4"
    }
  }
  attr {
    key: "inputTensor:0"
    value {
      s: "tensor-33973_slice_0_0_0_0_0__0__bundle_192_34408  |  Sizes = [1,284,4096]  |  bf16  |  expBias = 0, scale = 1  |    |  ModelParam = 0  |  strides = [2326528, 2326528, 8192, 2]  |  data = 0, sizeInBytes = 2326528  |  location = in SRAM  |  sramOffset = 0x1000fffffe5ce800  |  "
    }
  }
  attr {
    key: "outputTensor:0"
    value {
      s: "tensor_181_slice_0_0_0_0_0__0__bundle_192_34409  |  Sizes = [1,284,4096]  |  hfloat8  |  expBias = 7, scale = 1  |    |  ModelParam = 0  |  strides = [1163264, 1163264, 4096, 1]  |  data = 0, sizeInBytes = 1163264  |  location = in SRAM  |  sramOffset = 0x1000fffffe806800  |  "
    }
  }
}
node {
  name: "module/lm_head/fp8_gemm_bf16/2818_complex/fp8_gemm_bf16_513/batch_gemm_8_bundle_192/op_5_gemm"
  op: "GEMM"
  input: "fusedTPCNode_52_6_bundle_192/op_4"
  input: "module/lm_head/fp8_gemm_bf16/2818_complex/fp8_gemm_bf16_513/expand_dims_6"
  attr {
    key: "Bundle_idx"
    value {
      s: "192"
    }
  }
  attr {
    key: "Exec_idx"
    value {
      s: "100"
    }
  }
  attr {
    key: "Op_idx"
    value {
      s: "5"
    }
  }
  attr {
    key: "Parameters"
    value {
      s: "transpose_a=false, transpose_b=false"
    }
  }
  attr {
    key: "fp8BiasIn"
    value {
      s: "7"
    }
  }
  attr {
    key: "fp8BiasIn2"
    value {
      s: "15"
    }
  }
  attr {
    key: "fp8BiasOut"
    value {
      s: "0"
    }
  }
  attr {
    key: "inputTensor:0"
    value {
      s: "tensor_181_slice_0_0_0_0_0__0__bundle_192_34409  |  Sizes = [1,284,4096]  |  hfloat8  |  expBias = 7, scale = 1  |    |  ModelParam = 0  |  strides = [1163264, 1163264, 4096, 1]  |  data = 0, sizeInBytes = 1163264  |  location = in SRAM  |  sramOffset = 0x1000fffffe806800  |  "
    }
  }
  attr {
    key: "inputTensor:1"
    value {
      s: "hf8-7_33795  |  Sizes = [1,4096,128256]  |  hfloat8  |  expBias = 7, scale = 1  |    |  ModelParam = 0  |  strides = [525336576, 525336576, 128256, 1]  |  data = 0, sizeInBytes = 525336576  |  isAliased = tensor_182_odule/lm_head/placeholder/1, type = alias, offset: 0  |  location = in DRAM  |  "
    }
  }
  attr {
    key: "outputTensor:0"
    value {
      s: "tensor_188  |  Sizes = [1,284,128256]  |  float32  |  expBias = 0, scale = 1  |    |  ModelParam = 0  |  strides = [145698816, 145698816, 513024, 4]  |  data = 0, sizeInBytes = 145698816  |  isPersistent  |  location = in DRAM  |  dramOffset = 0x420000000000  |  userMemorySection(type=Persistent, id=66)  |  "
    }
  }
}
node {
  name: "tensor_188"
  op: "OutputTensor"
  input: "module/lm_head/fp8_gemm_bf16/2818_complex/fp8_gemm_bf16_513/batch_gemm_8_bundle_192/op_5_gemm"
  attr {
    key: "dtype"
    value {
      type: DT_FLOAT
    }
  }
  attr {
    key: "shape"
    value {
      shape {
        dim {
          size: 128256
        }
        dim {
          size: 284
        }
        dim {
          size: 1
        }
        dim {
          size: 1
        }
        dim {
          size: 1
        }
      }
    }
  }
  attr {
    key: "synDataType"
    value {
      s: "float32"
    }
  }
}
node {
  name: "tensor_170_bundle_192/memcpy/0"
  op: "DmaMemcpy"
  input: "module/model/31/add_fwd_bf16/2813_complex/add_fwd_bf16_0_bundle_192/op_0"
  input: "^module/model/31/input_layernorm/rms_norm_ex_fwd_bf16/2760_complex/rms_norm_ex_fwd_bf16_125/reshape_4"
  input: "^module/model/31/add_fwd_bf16/2803_complex/add_fwd_bf16_0_bundle_187/op_0"
  attr {
    key: "Bundle_idx"
    value {
      s: "192"
    }
  }
  attr {
    key: "Exec_idx"
    value {
      s: "101"
    }
  }
  attr {
    key: "Op_idx"
    value {
      s: "6"
    }
  }
  attr {
    key: "inputTensor:0"
    value {
      s: "tensor_170_slice_0_0_0_0_0__0__bundle_192_34403  |  Sizes = [1,284,4096]  |  bf16  |  expBias = 0, scale = 1  |    |  ModelParam = 0  |  strides = [2326528, 2326528, 8192, 2]  |  data = 0, sizeInBytes = 2326528  |  location = in SRAM  |  sramOffset = 0x1000fffffe396800  |  "
    }
  }
  attr {
    key: "outputTensor:0"
    value {
      s: "tensor_170  |  Sizes = [1,284,4096]  |  bf16  |  expBias = 0, scale = 1  |    |  ModelParam = 0  |  strides = [2326528, 2326528, 8192, 2]  |  data = 0, sizeInBytes = 2326528  |  isPersistent  |  location = in DRAM  |  dramOffset = 0x90000000000  |  userMemorySection(type=Persistent, id=9)  |  "
    }
  }
}
node {
  name: "tensor_170"
  op: "OutputTensor"
  input: "tensor_170_bundle_192/memcpy/0"
  attr {
    key: "dtype"
    value {
      type: DT_BFLOAT16
    }
  }
  attr {
    key: "shape"
    value {
      shape {
        dim {
          size: 4096
        }
        dim {
          size: 284
        }
        dim {
          size: 1
        }
        dim {
          size: 1
        }
        dim {
          size: 1
        }
      }
    }
  }
  attr {
    key: "synDataType"
    value {
      s: "bf16"
    }
  }
}
