node {
  name: "tensor_7_odule/model/13/placeholder/0"
  op: "Placeholder"
  attr {
    key: "dtype"
    value {
      type: DT_INT32
    }
  }
  attr {
    key: "shape"
    value {
      shape {
        dim {
          size: 16
        }
        dim {
          size: 1
        }
        dim {
          size: 1
        }
        dim {
          size: 1
        }
        dim {
          size: 1
        }
      }
    }
  }
  attr {
    key: "synDataType"
    value {
      s: "int32"
    }
  }
}
node {
  name: "module/model/13/expand_dims/12555"
  op: "ExpandDims"
  input: "tensor_7_odule/model/13/placeholder/0"
  attr {
    key: "Bundle_idx"
    value {
      s: "N/A"
    }
  }
  attr {
    key: "Exec_idx"
    value {
      s: "0"
    }
  }
  attr {
    key: "Op_idx"
    value {
      s: "N/A"
    }
  }
  attr {
    key: "inputTensor:0"
    value {
      s: "tensor_7_odule/model/13/placeholder/0  |  Sizes = [16]  |  int32  |  expBias = 0, scale = 1  |    |  ModelParam = 0  |  strides = [64, 4]  |  data = 0, sizeInBytes = 64  |  isPersistent  |  userMemorySection(type=Persistent, id=7)  |  "
    }
  }
  attr {
    key: "outputTensor:0"
    value {
      s: "tensor_8_id_120665_module/model/13/aten__unsqueeze/1  |  Sizes = [1,16]  |  int32  |  expBias = 0, scale = 1  |    |  ModelParam = 0  |  strides = [64, 64, 4]  |  data = 0, sizeInBytes = 64  |  "
    }
  }
}
node {
  name: "tensor_73_odule/model/13/fused_scaled_dot_product_attention/placeholder/0"
  op: "Placeholder"
  attr {
    key: "dtype"
    value {
      type: DT_BFLOAT16
    }
  }
  attr {
    key: "shape"
    value {
      shape {
        dim {
          size: 16
        }
        dim {
          size: 16
        }
        dim {
          size: 1
        }
        dim {
          size: 1
        }
        dim {
          size: 1
        }
      }
    }
  }
  attr {
    key: "synDataType"
    value {
      s: "bf16"
    }
  }
}
node {
  name: "module/model/13/fused_scaled_dot_product_attention/expand_dims/12585"
  op: "ExpandDims"
  input: "tensor_73_odule/model/13/fused_scaled_dot_product_attention/placeholder/0"
  attr {
    key: "Bundle_idx"
    value {
      s: "N/A"
    }
  }
  attr {
    key: "Exec_idx"
    value {
      s: "1"
    }
  }
  attr {
    key: "Op_idx"
    value {
      s: "N/A"
    }
  }
  attr {
    key: "inputTensor:0"
    value {
      s: "tensor_73_odule/model/13/fused_scaled_dot_product_attention/placeholder/0  |  Sizes = [16,16]  |  bf16  |  expBias = 0, scale = 1  |    |  ModelParam = 0  |  strides = [512, 32, 2]  |  data = 0, sizeInBytes = 512  |  isPersistent  |  userMemorySection(type=Persistent, id=29)  |  "
    }
  }
  attr {
    key: "outputTensor:0"
    value {
      s: "tensor_74_id_120666_module/model/13/fused_scaled_dot_product_attention/aten__unsqueeze  |  Sizes = [1,16,16]  |  bf16  |  expBias = 0, scale = 1  |    |  ModelParam = 0  |  strides = [512, 512, 32, 2]  |  data = 0, sizeInBytes = 512  |  "
    }
  }
}
node {
  name: "module/model/13/fused_scaled_dot_product_attention/expand_dims/12586"
  op: "ExpandDims"
  input: "module/model/13/fused_scaled_dot_product_attention/expand_dims/12585"
  attr {
    key: "Bundle_idx"
    value {
      s: "N/A"
    }
  }
  attr {
    key: "Exec_idx"
    value {
      s: "2"
    }
  }
  attr {
    key: "Op_idx"
    value {
      s: "N/A"
    }
  }
  attr {
    key: "inputTensor:0"
    value {
      s: "tensor_74_id_120666_module/model/13/fused_scaled_dot_product_attention/aten__unsqueeze  |  Sizes = [1,16,16]  |  bf16  |  expBias = 0, scale = 1  |    |  ModelParam = 0  |  strides = [512, 512, 32, 2]  |  data = 0, sizeInBytes = 512  |  "
    }
  }
  attr {
    key: "outputTensor:0"
    value {
      s: "tensor_75_id_120667_module/model/13/fused_scaled_dot_product_attention/aten__unsqueeze  |  Sizes = [1,1,16,16]  |  bf16  |  expBias = 0, scale = 1  |    |  ModelParam = 0  |  strides = [512, 512, 512, 32, 2]  |  data = 0, sizeInBytes = 512  |  "
    }
  }
}
node {
  name: "module/model/13/expand_dims/12595"
  op: "ExpandDims"
  input: "tensor_7_odule/model/13/placeholder/0"
  attr {
    key: "Bundle_idx"
    value {
      s: "N/A"
    }
  }
  attr {
    key: "Exec_idx"
    value {
      s: "3"
    }
  }
  attr {
    key: "Op_idx"
    value {
      s: "N/A"
    }
  }
  attr {
    key: "inputTensor:0"
    value {
      s: "tensor_7_odule/model/13/placeholder/0  |  Sizes = [16]  |  int32  |  expBias = 0, scale = 1  |    |  ModelParam = 0  |  strides = [64, 4]  |  data = 0, sizeInBytes = 64  |  isPersistent  |  userMemorySection(type=Persistent, id=7)  |  "
    }
  }
  attr {
    key: "outputTensor:0"
    value {
      s: "tensor_90_id_120665_module/model/13/aten__unsqueeze  |  Sizes = [1,16]  |  int32  |  expBias = 0, scale = 1  |    |  ModelParam = 0  |  strides = [64, 64, 4]  |  data = 0, sizeInBytes = 64  |  "
    }
  }
}
node {
  name: "tensor_0_odule/model/12/placeholder/0"
  op: "Placeholder"
  attr {
    key: "dtype"
    value {
      type: DT_BFLOAT16
    }
  }
  attr {
    key: "shape"
    value {
      shape {
        dim {
          size: 4096
        }
        dim {
          size: 16
        }
        dim {
          size: 1
        }
        dim {
          size: 1
        }
        dim {
          size: 1
        }
      }
    }
  }
  attr {
    key: "synDataType"
    value {
      s: "bf16"
    }
  }
}
node {
  name: "tensor_1_odule/model/12/placeholder/1"
  op: "Placeholder"
  attr {
    key: "dtype"
    value {
      type: DT_BFLOAT16
    }
  }
  attr {
    key: "shape"
    value {
      shape {
        dim {
          size: 4096
        }
        dim {
          size: 16
        }
        dim {
          size: 1
        }
        dim {
          size: 1
        }
        dim {
          size: 1
        }
      }
    }
  }
  attr {
    key: "synDataType"
    value {
      s: "bf16"
    }
  }
}
node {
  name: "module/model/12/add_fwd_bf16/12553"
  op: "add_fwd_bf16"
  input: "tensor_0_odule/model/12/placeholder/0"
  input: "tensor_1_odule/model/12/placeholder/1"
  attr {
    key: "Bundle_idx"
    value {
      s: "N/A"
    }
  }
  attr {
    key: "Exec_idx"
    value {
      s: "4"
    }
  }
  attr {
    key: "Op_idx"
    value {
      s: "N/A"
    }
  }
  attr {
    key: "inputTensor:0"
    value {
      s: "tensor_0_odule/model/12/placeholder/0  |  Sizes = [1,16,4096]  |  bf16  |  expBias = 0, scale = 1  |    |  ModelParam = 0  |  strides = [131072, 131072, 8192, 2]  |  data = 0, sizeInBytes = 131072  |  isPersistent  |  userMemorySection(type=Persistent, id=4)  |  "
    }
  }
  attr {
    key: "inputTensor:1"
    value {
      s: "tensor_1_odule/model/12/placeholder/1  |  Sizes = [1,16,4096]  |  bf16  |  expBias = 0, scale = 1  |    |  ModelParam = 0  |  strides = [131072, 131072, 8192, 2]  |  data = 0, sizeInBytes = 131072  |  isPersistent  |  userMemorySection(type=Persistent, id=5)  |  "
    }
  }
  attr {
    key: "outputTensor:0"
    value {
      s: "tensor_2  |  Sizes = [1,16,4096]  |  bf16  |  expBias = 0, scale = 1  |    |  ModelParam = 0  |  strides = [131072, 131072, 8192, 2]  |  data = 0, sizeInBytes = 131072  |  isPersistent  |  userMemorySection(type=Persistent, id=4)  |  "
    }
  }
}
node {
  name: "tensor_24_odule/model/13/input_layernorm/placeholder/1"
  op: "Placeholder"
  attr {
    key: "dtype"
    value {
      type: DT_BFLOAT16
    }
  }
  attr {
    key: "shape"
    value {
      shape {
        dim {
          size: 4096
        }
        dim {
          size: 1
        }
        dim {
          size: 1
        }
        dim {
          size: 1
        }
        dim {
          size: 1
        }
      }
    }
  }
  attr {
    key: "synDataType"
    value {
      s: "bf16"
    }
  }
}
node {
  name: "module/model/13/input_layernorm/rms_norm_ex_fwd_bf16/12568"
  op: "rms_norm_ex_fwd_bf16"
  input: "module/model/12/add_fwd_bf16/12553"
  input: "tensor_24_odule/model/13/input_layernorm/placeholder/1"
  attr {
    key: "Bundle_idx"
    value {
      s: "N/A"
    }
  }
  attr {
    key: "Exec_idx"
    value {
      s: "5"
    }
  }
  attr {
    key: "Op_idx"
    value {
      s: "N/A"
    }
  }
  attr {
    key: "inputTensor:0"
    value {
      s: "tensor_2  |  Sizes = [1,16,4096]  |  bf16  |  expBias = 0, scale = 1  |    |  ModelParam = 0  |  strides = [131072, 131072, 8192, 2]  |  data = 0, sizeInBytes = 131072  |  isPersistent  |  userMemorySection(type=Persistent, id=4)  |  "
    }
  }
  attr {
    key: "inputTensor:1"
    value {
      s: "tensor_24_odule/model/13/input_layernorm/placeholder/1  |  Sizes = [4096]  |  bf16  |  expBias = 0, scale = 1  |    |  ModelParam = 0  |  strides = [8192, 2]  |  data = 0, sizeInBytes = 8192  |  isPersistent  |  userMemorySection(type=Persistent, id=11)  |  "
    }
  }
  attr {
    key: "outputTensor:0"
    value {
      s: "tensor_27  |  Sizes = [1,16,4096]  |  bf16  |  expBias = 0, scale = 1  |    |  ModelParam = 0  |  strides = [131072, 131072, 8192, 2]  |  data = 0, sizeInBytes = 131072  |  "
    }
  }
  attr {
    key: "outputTensor:1"
    value {
      s: "tensor_28  |  Sizes = [1,16,1]  |  float32  |  expBias = 0, scale = 1  |    |  ModelParam = 0  |  strides = [64, 64, 4, 4]  |  data = 0, sizeInBytes = 64  |  "
    }
  }
}
node {
  name: "tensor_28"
  op: "OutputTensor"
  input: "module/model/13/input_layernorm/rms_norm_ex_fwd_bf16/12568"
  attr {
    key: "dtype"
    value {
      type: DT_FLOAT
    }
  }
  attr {
    key: "shape"
    value {
      shape {
        dim {
          size: 1
        }
        dim {
          size: 16
        }
        dim {
          size: 1
        }
        dim {
          size: 1
        }
        dim {
          size: 1
        }
      }
    }
  }
  attr {
    key: "synDataType"
    value {
      s: "float32"
    }
  }
}
node {
  name: "tensor_29_odule/model/13/k_proj/quant_input_0/placeholder/1"
  op: "Placeholder"
  attr {
    key: "dtype"
    value {
      type: DT_BFLOAT16
    }
  }
  attr {
    key: "shape"
    value {
      shape {
        dim {
          size: 1
        }
        dim {
          size: 1
        }
        dim {
          size: 1
        }
        dim {
          size: 1
        }
        dim {
          size: 1
        }
      }
    }
  }
  attr {
    key: "synDataType"
    value {
      s: "bf16"
    }
  }
}
node {
  name: "module/model/13/k_proj/quant_input_0/convert_to_fp8_bf16/12569"
  op: "convert_to_fp8_bf16"
  input: "module/model/13/input_layernorm/rms_norm_ex_fwd_bf16/12568"
  input: "tensor_29_odule/model/13/k_proj/quant_input_0/placeholder/1"
  attr {
    key: "Bundle_idx"
    value {
      s: "N/A"
    }
  }
  attr {
    key: "Exec_idx"
    value {
      s: "6"
    }
  }
  attr {
    key: "Op_idx"
    value {
      s: "N/A"
    }
  }
  attr {
    key: "inputTensor:0"
    value {
      s: "tensor_27  |  Sizes = [1,16,4096]  |  bf16  |  expBias = 0, scale = 1  |    |  ModelParam = 0  |  strides = [131072, 131072, 8192, 2]  |  data = 0, sizeInBytes = 131072  |  "
    }
  }
  attr {
    key: "inputTensor:1"
    value {
      s: "tensor_29_odule/model/13/k_proj/quant_input_0/placeholder/1  |  Sizes = [1]  |  bf16  |  expBias = 0, scale = 1  |    |  ModelParam = 0  |  strides = [2, 2]  |  data = 0x55662e400a68, sizeInBytes = 2  |  buffer = 1  |  isPersistent  |  userMemorySection(type=Persistent, id=12)  |  isStaticParam  |  bufferDtype=bf16  |  "
    }
  }
  attr {
    key: "outputTensor:0"
    value {
      s: "tensor_32  |  Sizes = [1,16,4096]  |  hfloat8  |  expBias = 7, scale = 1  |    |  ModelParam = 0  |  strides = [65536, 65536, 4096, 1]  |  data = 0, sizeInBytes = 65536  |  "
    }
  }
}
node {
  name: "tensor_9_odule/model/13/rotary_emb/placeholder/0"
  op: "Placeholder"
  attr {
    key: "dtype"
    value {
      type: DT_BFLOAT16
    }
  }
  attr {
    key: "shape"
    value {
      shape {
        dim {
          size: 128
        }
        dim {
          size: 131072
        }
        dim {
          size: 1
        }
        dim {
          size: 1
        }
        dim {
          size: 1
        }
      }
    }
  }
  attr {
    key: "synDataType"
    value {
      s: "bf16"
    }
  }
}
node {
  name: "module/model/13/rotary_emb/slice/12556"
  op: "Slice"
  input: "tensor_9_odule/model/13/rotary_emb/placeholder/0"
  attr {
    key: "Bundle_idx"
    value {
      s: "N/A"
    }
  }
  attr {
    key: "Exec_idx"
    value {
      s: "7"
    }
  }
  attr {
    key: "Op_idx"
    value {
      s: "N/A"
    }
  }
  attr {
    key: "inputTensor:0"
    value {
      s: "tensor_9_odule/model/13/rotary_emb/placeholder/0  |  Sizes = [131072,128]  |  bf16  |  expBias = 0, scale = 1  |    |  ModelParam = 0  |  strides = [33554432, 256, 2]  |  data = 0, sizeInBytes = 33554432  |  isPersistent  |  userMemorySection(type=Persistent, id=8)  |  "
    }
  }
  attr {
    key: "outputTensor:0"
    value {
      s: "tensor_10_id_120783_module/model/13/rotary_emb/aten__slice  |  Sizes = [16,128]  |  bf16  |  expBias = 0, scale = 1  |    |  ModelParam = 0  |  strides = [4096, 256, 2]  |  data = 0, sizeInBytes = 4096  |  "
    }
  }
}
node {
  name: "tensor_11_odule/model/13/rotary_emb/placeholder/1"
  op: "Placeholder"
  attr {
    key: "dtype"
    value {
      type: DT_FLOAT
    }
  }
  attr {
    key: "shape"
    value {
      shape {
        dim {
          size: 1
        }
        dim {
          size: 1
        }
        dim {
          size: 1
        }
        dim {
          size: 1
        }
        dim {
          size: 1
        }
      }
    }
  }
  attr {
    key: "synDataType"
    value {
      s: "float32"
    }
  }
}
node {
  name: "module/model/13/rotary_emb/cast_f32_to_bf16/12557"
  op: "cast_f32_to_bf16"
  input: "tensor_11_odule/model/13/rotary_emb/placeholder/1"
  attr {
    key: "Bundle_idx"
    value {
      s: "N/A"
    }
  }
  attr {
    key: "Exec_idx"
    value {
      s: "8"
    }
  }
  attr {
    key: "Op_idx"
    value {
      s: "N/A"
    }
  }
  attr {
    key: "inputTensor:0"
    value {
      s: "tensor_11_odule/model/13/rotary_emb/placeholder/1  |  Sizes = [1]  |  float32  |  expBias = 0, scale = 1  |    |  ModelParam = 0  |  strides = [4, 4]  |  data = 0, sizeInBytes = 4  |  isPersistent  |  userMemorySection(type=Persistent, id=9)  |  "
    }
  }
  attr {
    key: "outputTensor:0"
    value {
      s: "tensor_13  |  Sizes = [1]  |  bf16  |  expBias = 0, scale = 1  |    |  ModelParam = 0  |  strides = [2, 2]  |  data = 0, sizeInBytes = 2  |  "
    }
  }
}
node {
  name: "tensor_17_odule/model/13/rotary_emb/placeholder/0"
  op: "Placeholder"
  attr {
    key: "dtype"
    value {
      type: DT_BFLOAT16
    }
  }
  attr {
    key: "shape"
    value {
      shape {
        dim {
          size: 128
        }
        dim {
          size: 131072
        }
        dim {
          size: 1
        }
        dim {
          size: 1
        }
        dim {
          size: 1
        }
      }
    }
  }
  attr {
    key: "synDataType"
    value {
      s: "bf16"
    }
  }
}
node {
  name: "module/model/13/rotary_emb/slice/12562"
  op: "Slice"
  input: "tensor_17_odule/model/13/rotary_emb/placeholder/0"
  attr {
    key: "Bundle_idx"
    value {
      s: "N/A"
    }
  }
  attr {
    key: "Exec_idx"
    value {
      s: "9"
    }
  }
  attr {
    key: "Op_idx"
    value {
      s: "N/A"
    }
  }
  attr {
    key: "inputTensor:0"
    value {
      s: "tensor_17_odule/model/13/rotary_emb/placeholder/0  |  Sizes = [131072,128]  |  bf16  |  expBias = 0, scale = 1  |    |  ModelParam = 0  |  strides = [33554432, 256, 2]  |  data = 0, sizeInBytes = 33554432  |  isPersistent  |  userMemorySection(type=Persistent, id=10)  |  "
    }
  }
  attr {
    key: "outputTensor:0"
    value {
      s: "tensor_18_id_120787_module/model/13/rotary_emb/aten__slice  |  Sizes = [16,128]  |  bf16  |  expBias = 0, scale = 1  |    |  ModelParam = 0  |  strides = [4096, 256, 2]  |  data = 0, sizeInBytes = 4096  |  "
    }
  }
}
node {
  name: "module/model/13/rotary_emb/cast_f32_to_bf16/12563"
  op: "cast_f32_to_bf16"
  input: "tensor_11_odule/model/13/rotary_emb/placeholder/1"
  attr {
    key: "Bundle_idx"
    value {
      s: "N/A"
    }
  }
  attr {
    key: "Exec_idx"
    value {
      s: "10"
    }
  }
  attr {
    key: "Op_idx"
    value {
      s: "N/A"
    }
  }
  attr {
    key: "inputTensor:0"
    value {
      s: "tensor_11_odule/model/13/rotary_emb/placeholder/1  |  Sizes = [1]  |  float32  |  expBias = 0, scale = 1  |    |  ModelParam = 0  |  strides = [4, 4]  |  data = 0, sizeInBytes = 4  |  isPersistent  |  userMemorySection(type=Persistent, id=9)  |  "
    }
  }
  attr {
    key: "outputTensor:0"
    value {
      s: "tensor_20  |  Sizes = [1]  |  bf16  |  expBias = 0, scale = 1  |    |  ModelParam = 0  |  strides = [2, 2]  |  data = 0, sizeInBytes = 2  |  "
    }
  }
}
node {
  name: "tensor_33_odule/model/13/k_proj/placeholder/1"
  op: "Placeholder"
  attr {
    key: "dtype"
    value {
      type: DT_INVALID
    }
  }
  attr {
    key: "shape"
    value {
      shape {
        dim {
          size: 512
        }
        dim {
          size: 4096
        }
        dim {
          size: 1
        }
        dim {
          size: 1
        }
        dim {
          size: 1
        }
      }
    }
  }
  attr {
    key: "synDataType"
    value {
      s: "hfloat8"
    }
  }
}
node {
  name: "tensor_34_odule/model/13/k_proj/placeholder/2"
  op: "Placeholder"
  attr {
    key: "dtype"
    value {
      type: DT_BFLOAT16
    }
  }
  attr {
    key: "shape"
    value {
      shape {
        dim {
          size: 1
        }
        dim {
          size: 1
        }
        dim {
          size: 1
        }
        dim {
          size: 1
        }
        dim {
          size: 1
        }
      }
    }
  }
  attr {
    key: "synDataType"
    value {
      s: "bf16"
    }
  }
}
node {
  name: "tensor_35_odule/model/13/k_proj/placeholder/3"
  op: "Placeholder"
  attr {
    key: "dtype"
    value {
      type: DT_BFLOAT16
    }
  }
  attr {
    key: "shape"
    value {
      shape {
        dim {
          size: 1
        }
        dim {
          size: 1
        }
        dim {
          size: 1
        }
        dim {
          size: 1
        }
        dim {
          size: 1
        }
      }
    }
  }
  attr {
    key: "synDataType"
    value {
      s: "bf16"
    }
  }
}
node {
  name: "module/model/13/k_proj/fp8_gemm_bf16/12570"
  op: "fp8_gemm_bf16"
  input: "module/model/13/k_proj/quant_input_0/convert_to_fp8_bf16/12569"
  input: "tensor_33_odule/model/13/k_proj/placeholder/1"
  input: "tensor_34_odule/model/13/k_proj/placeholder/2"
  input: "tensor_35_odule/model/13/k_proj/placeholder/3"
  input: "unused_port"
  input: "unused_port"
  input: "unused_port"
  attr {
    key: "Bundle_idx"
    value {
      s: "N/A"
    }
  }
  attr {
    key: "Exec_idx"
    value {
      s: "11"
    }
  }
  attr {
    key: "Op_idx"
    value {
      s: "N/A"
    }
  }
  attr {
    key: "inputTensor:0"
    value {
      s: "tensor_32  |  Sizes = [1,16,4096]  |  hfloat8  |  expBias = 7, scale = 1  |    |  ModelParam = 0  |  strides = [65536, 65536, 4096, 1]  |  data = 0, sizeInBytes = 65536  |  "
    }
  }
  attr {
    key: "inputTensor:1"
    value {
      s: "tensor_33_odule/model/13/k_proj/placeholder/1  |  Sizes = [4096,512]  |  hfloat8  |  expBias = 7, scale = 1  |    |  ModelParam = 0  |  strides = [2097152, 512, 1]  |  data = 0, sizeInBytes = 2097152  |  isPersistent  |  userMemorySection(type=Persistent, id=13)  |  "
    }
  }
  attr {
    key: "inputTensor:2"
    value {
      s: "tensor_34_odule/model/13/k_proj/placeholder/2  |  Sizes = [1]  |  bf16  |  expBias = 0, scale = 1  |    |  ModelParam = 0  |  strides = [2, 2]  |  data = 0x5566cb809c28, sizeInBytes = 2  |  buffer = 1  |  isPersistent  |  userMemorySection(type=Persistent, id=14)  |  isStaticParam  |  bufferDtype=bf16  |  "
    }
  }
  attr {
    key: "inputTensor:3"
    value {
      s: "tensor_35_odule/model/13/k_proj/placeholder/3  |  Sizes = [1]  |  bf16  |  expBias = 0, scale = 1  |    |  ModelParam = 0  |  strides = [2, 2]  |  data = 0x5566cb809f58, sizeInBytes = 2  |  buffer = 0.00390625  |  isPersistent  |  userMemorySection(type=Persistent, id=15)  |  isStaticParam  |  bufferDtype=bf16  |  "
    }
  }
  attr {
    key: "outputTensor:0"
    value {
      s: "tensor_37  |  Sizes = [1,16,512]  |  bf16  |  expBias = 0, scale = 1  |    |  ModelParam = 0  |  strides = [16384, 16384, 1024, 2]  |  data = 0, sizeInBytes = 16384  |  "
    }
  }
}
node {
  name: "module/model/13/reshape/12571"
  op: "Reshape"
  input: "module/model/13/k_proj/fp8_gemm_bf16/12570"
  attr {
    key: "Bundle_idx"
    value {
      s: "N/A"
    }
  }
  attr {
    key: "Exec_idx"
    value {
      s: "12"
    }
  }
  attr {
    key: "Op_idx"
    value {
      s: "N/A"
    }
  }
  attr {
    key: "inputTensor:0"
    value {
      s: "tensor_37  |  Sizes = [1,16,512]  |  bf16  |  expBias = 0, scale = 1  |    |  ModelParam = 0  |  strides = [16384, 16384, 1024, 2]  |  data = 0, sizeInBytes = 16384  |  "
    }
  }
  attr {
    key: "outputTensor:0"
    value {
      s: "tensor_38_id_120775_module/model/13/aten__view  |  Sizes = [1,16,4,128]  |  bf16  |  expBias = 0, scale = 1  |    |  ModelParam = 0  |  strides = [16384, 16384, 1024, 256, 2]  |  data = 0, sizeInBytes = 16384  |  "
    }
  }
}
node {
  name: "tensor_54_odule/model/13/v_proj/quant_input_0/placeholder/1"
  op: "Placeholder"
  attr {
    key: "dtype"
    value {
      type: DT_BFLOAT16
    }
  }
  attr {
    key: "shape"
    value {
      shape {
        dim {
          size: 1
        }
        dim {
          size: 1
        }
        dim {
          size: 1
        }
        dim {
          size: 1
        }
        dim {
          size: 1
        }
      }
    }
  }
  attr {
    key: "synDataType"
    value {
      s: "bf16"
    }
  }
}
node {
  name: "module/model/13/v_proj/quant_input_0/convert_to_fp8_bf16/12578"
  op: "convert_to_fp8_bf16"
  input: "module/model/13/input_layernorm/rms_norm_ex_fwd_bf16/12568"
  input: "tensor_54_odule/model/13/v_proj/quant_input_0/placeholder/1"
  attr {
    key: "Bundle_idx"
    value {
      s: "N/A"
    }
  }
  attr {
    key: "Exec_idx"
    value {
      s: "13"
    }
  }
  attr {
    key: "Op_idx"
    value {
      s: "N/A"
    }
  }
  attr {
    key: "inputTensor:0"
    value {
      s: "tensor_27  |  Sizes = [1,16,4096]  |  bf16  |  expBias = 0, scale = 1  |    |  ModelParam = 0  |  strides = [131072, 131072, 8192, 2]  |  data = 0, sizeInBytes = 131072  |  "
    }
  }
  attr {
    key: "inputTensor:1"
    value {
      s: "tensor_54_odule/model/13/v_proj/quant_input_0/placeholder/1  |  Sizes = [1]  |  bf16  |  expBias = 0, scale = 1  |    |  ModelParam = 0  |  strides = [2, 2]  |  data = 0x55662f009e68, sizeInBytes = 2  |  buffer = 1  |  isPersistent  |  userMemorySection(type=Persistent, id=21)  |  isStaticParam  |  bufferDtype=bf16  |  "
    }
  }
  attr {
    key: "outputTensor:0"
    value {
      s: "tensor_57  |  Sizes = [1,16,4096]  |  hfloat8  |  expBias = 7, scale = 1  |    |  ModelParam = 0  |  strides = [65536, 65536, 4096, 1]  |  data = 0, sizeInBytes = 65536  |  "
    }
  }
}
node {
  name: "module/model/13/rotary_emb/mult_fwd_bf16/12558"
  op: "mult_fwd_bf16"
  input: "module/model/13/rotary_emb/slice/12556"
  input: "module/model/13/rotary_emb/cast_f32_to_bf16/12557"
  attr {
    key: "Bundle_idx"
    value {
      s: "N/A"
    }
  }
  attr {
    key: "Exec_idx"
    value {
      s: "14"
    }
  }
  attr {
    key: "Op_idx"
    value {
      s: "N/A"
    }
  }
  attr {
    key: "inputTensor:0"
    value {
      s: "tensor_10_id_120783_module/model/13/rotary_emb/aten__slice  |  Sizes = [16,128]  |  bf16  |  expBias = 0, scale = 1  |    |  ModelParam = 0  |  strides = [4096, 256, 2]  |  data = 0, sizeInBytes = 4096  |  "
    }
  }
  attr {
    key: "inputTensor:1"
    value {
      s: "tensor_13  |  Sizes = [1]  |  bf16  |  expBias = 0, scale = 1  |    |  ModelParam = 0  |  strides = [2, 2]  |  data = 0, sizeInBytes = 2  |  "
    }
  }
  attr {
    key: "outputTensor:0"
    value {
      s: "tensor_12_id_120785_module/model/13/rotary_emb/aten__mul  |  Sizes = [16,128]  |  bf16  |  expBias = 0, scale = 1  |    |  ModelParam = 0  |  strides = [4096, 256, 2]  |  data = 0, sizeInBytes = 4096  |  "
    }
  }
}
node {
  name: "module/model/13/expand_dims/12559"
  op: "ExpandDims"
  input: "module/model/13/rotary_emb/mult_fwd_bf16/12558"
  attr {
    key: "Bundle_idx"
    value {
      s: "N/A"
    }
  }
  attr {
    key: "Exec_idx"
    value {
      s: "15"
    }
  }
  attr {
    key: "Op_idx"
    value {
      s: "N/A"
    }
  }
  attr {
    key: "inputTensor:0"
    value {
      s: "tensor_12_id_120785_module/model/13/rotary_emb/aten__mul  |  Sizes = [16,128]  |  bf16  |  expBias = 0, scale = 1  |    |  ModelParam = 0  |  strides = [4096, 256, 2]  |  data = 0, sizeInBytes = 4096  |  "
    }
  }
  attr {
    key: "outputTensor:0"
    value {
      s: "tensor_14_id_120807_module/model/13/aten__unsqueeze  |  Sizes = [1,16,128]  |  bf16  |  expBias = 0, scale = 1  |    |  ModelParam = 0  |  strides = [4096, 4096, 256, 2]  |  data = 0, sizeInBytes = 4096  |  "
    }
  }
}
node {
  name: "module/model/13/expand_dims/12560"
  op: "ExpandDims"
  input: "module/model/13/expand_dims/12559"
  attr {
    key: "Bundle_idx"
    value {
      s: "N/A"
    }
  }
  attr {
    key: "Exec_idx"
    value {
      s: "16"
    }
  }
  attr {
    key: "Op_idx"
    value {
      s: "N/A"
    }
  }
  attr {
    key: "inputTensor:0"
    value {
      s: "tensor_14_id_120807_module/model/13/aten__unsqueeze  |  Sizes = [1,16,128]  |  bf16  |  expBias = 0, scale = 1  |    |  ModelParam = 0  |  strides = [4096, 4096, 256, 2]  |  data = 0, sizeInBytes = 4096  |  "
    }
  }
  attr {
    key: "outputTensor:0"
    value {
      s: "tensor_15_id_120809_module/model/13/aten__unsqueeze  |  Sizes = [1,1,16,128]  |  bf16  |  expBias = 0, scale = 1  |    |  ModelParam = 0  |  strides = [4096, 4096, 4096, 256, 2]  |  data = 0, sizeInBytes = 4096  |  "
    }
  }
}
node {
  name: "module/model/13/identity/12561"
  op: "Identity"
  input: "module/model/13/expand_dims/12560"
  attr {
    key: "Bundle_idx"
    value {
      s: "N/A"
    }
  }
  attr {
    key: "Exec_idx"
    value {
      s: "17"
    }
  }
  attr {
    key: "Op_idx"
    value {
      s: "N/A"
    }
  }
  attr {
    key: "inputTensor:0"
    value {
      s: "tensor_15_id_120809_module/model/13/aten__unsqueeze  |  Sizes = [1,1,16,128]  |  bf16  |  expBias = 0, scale = 1  |    |  ModelParam = 0  |  strides = [4096, 4096, 4096, 256, 2]  |  data = 0, sizeInBytes = 4096  |  "
    }
  }
  attr {
    key: "outputTensor:0"
    value {
      s: "tensor_16_id_120811_module/model/13/aten__clone  |  Sizes = [1,1,16,128]  |  bf16  |  expBias = 0, scale = 1  |    |  ModelParam = 0  |  strides = [4096, 4096, 4096, 256, 2]  |  data = 0, sizeInBytes = 4096  |  "
    }
  }
}
node {
  name: "module/model/13/rotary_emb/mult_fwd_bf16/12564"
  op: "mult_fwd_bf16"
  input: "module/model/13/rotary_emb/slice/12562"
  input: "module/model/13/rotary_emb/cast_f32_to_bf16/12563"
  attr {
    key: "Bundle_idx"
    value {
      s: "N/A"
    }
  }
  attr {
    key: "Exec_idx"
    value {
      s: "18"
    }
  }
  attr {
    key: "Op_idx"
    value {
      s: "N/A"
    }
  }
  attr {
    key: "inputTensor:0"
    value {
      s: "tensor_18_id_120787_module/model/13/rotary_emb/aten__slice  |  Sizes = [16,128]  |  bf16  |  expBias = 0, scale = 1  |    |  ModelParam = 0  |  strides = [4096, 256, 2]  |  data = 0, sizeInBytes = 4096  |  "
    }
  }
  attr {
    key: "inputTensor:1"
    value {
      s: "tensor_20  |  Sizes = [1]  |  bf16  |  expBias = 0, scale = 1  |    |  ModelParam = 0  |  strides = [2, 2]  |  data = 0, sizeInBytes = 2  |  "
    }
  }
  attr {
    key: "outputTensor:0"
    value {
      s: "tensor_19_id_120789_module/model/13/rotary_emb/aten__mul  |  Sizes = [16,128]  |  bf16  |  expBias = 0, scale = 1  |    |  ModelParam = 0  |  strides = [4096, 256, 2]  |  data = 0, sizeInBytes = 4096  |  "
    }
  }
}
node {
  name: "module/model/13/expand_dims/12565"
  op: "ExpandDims"
  input: "module/model/13/rotary_emb/mult_fwd_bf16/12564"
  attr {
    key: "Bundle_idx"
    value {
      s: "N/A"
    }
  }
  attr {
    key: "Exec_idx"
    value {
      s: "19"
    }
  }
  attr {
    key: "Op_idx"
    value {
      s: "N/A"
    }
  }
  attr {
    key: "inputTensor:0"
    value {
      s: "tensor_19_id_120789_module/model/13/rotary_emb/aten__mul  |  Sizes = [16,128]  |  bf16  |  expBias = 0, scale = 1  |    |  ModelParam = 0  |  strides = [4096, 256, 2]  |  data = 0, sizeInBytes = 4096  |  "
    }
  }
  attr {
    key: "outputTensor:0"
    value {
      s: "tensor_21_id_120813_module/model/13/aten__unsqueeze  |  Sizes = [1,16,128]  |  bf16  |  expBias = 0, scale = 1  |    |  ModelParam = 0  |  strides = [4096, 4096, 256, 2]  |  data = 0, sizeInBytes = 4096  |  "
    }
  }
}
node {
  name: "module/model/13/expand_dims/12566"
  op: "ExpandDims"
  input: "module/model/13/expand_dims/12565"
  attr {
    key: "Bundle_idx"
    value {
      s: "N/A"
    }
  }
  attr {
    key: "Exec_idx"
    value {
      s: "20"
    }
  }
  attr {
    key: "Op_idx"
    value {
      s: "N/A"
    }
  }
  attr {
    key: "inputTensor:0"
    value {
      s: "tensor_21_id_120813_module/model/13/aten__unsqueeze  |  Sizes = [1,16,128]  |  bf16  |  expBias = 0, scale = 1  |    |  ModelParam = 0  |  strides = [4096, 4096, 256, 2]  |  data = 0, sizeInBytes = 4096  |  "
    }
  }
  attr {
    key: "outputTensor:0"
    value {
      s: "tensor_22_id_120815_module/model/13/aten__unsqueeze  |  Sizes = [1,1,16,128]  |  bf16  |  expBias = 0, scale = 1  |    |  ModelParam = 0  |  strides = [4096, 4096, 4096, 256, 2]  |  data = 0, sizeInBytes = 4096  |  "
    }
  }
}
node {
  name: "module/model/13/identity/12567"
  op: "Identity"
  input: "module/model/13/expand_dims/12566"
  attr {
    key: "Bundle_idx"
    value {
      s: "N/A"
    }
  }
  attr {
    key: "Exec_idx"
    value {
      s: "21"
    }
  }
  attr {
    key: "Op_idx"
    value {
      s: "N/A"
    }
  }
  attr {
    key: "inputTensor:0"
    value {
      s: "tensor_22_id_120815_module/model/13/aten__unsqueeze  |  Sizes = [1,1,16,128]  |  bf16  |  expBias = 0, scale = 1  |    |  ModelParam = 0  |  strides = [4096, 4096, 4096, 256, 2]  |  data = 0, sizeInBytes = 4096  |  "
    }
  }
  attr {
    key: "outputTensor:0"
    value {
      s: "tensor_23_id_120817_module/model/13/aten__clone  |  Sizes = [1,1,16,128]  |  bf16  |  expBias = 0, scale = 1  |    |  ModelParam = 0  |  strides = [4096, 4096, 4096, 256, 2]  |  data = 0, sizeInBytes = 4096  |  "
    }
  }
}
node {
  name: "module/model/13/transpose/12572"
  op: "Transpose"
  input: "module/model/13/reshape/12571"
  attr {
    key: "Bundle_idx"
    value {
      s: "N/A"
    }
  }
  attr {
    key: "Exec_idx"
    value {
      s: "22"
    }
  }
  attr {
    key: "Op_idx"
    value {
      s: "N/A"
    }
  }
  attr {
    key: "Parameters"
    value {
      s: "permutation: (0,2,1,3)"
    }
  }
  attr {
    key: "inputTensor:0"
    value {
      s: "tensor_38_id_120775_module/model/13/aten__view  |  Sizes = [1,16,4,128]  |  bf16  |  expBias = 0, scale = 1  |    |  ModelParam = 0  |  strides = [16384, 16384, 1024, 256, 2]  |  data = 0, sizeInBytes = 16384  |  "
    }
  }
  attr {
    key: "outputTensor:0"
    value {
      s: "tensor_39_id_120777_module/model/13/aten__transpose  |  Sizes = [1,4,16,128]  |  bf16  |  expBias = 0, scale = 1  |    |  ModelParam = 0  |  strides = [16384, 16384, 4096, 256, 2]  |  data = 0, sizeInBytes = 16384  |  "
    }
  }
}
node {
  name: "tensor_58_odule/model/13/v_proj/placeholder/1"
  op: "Placeholder"
  attr {
    key: "dtype"
    value {
      type: DT_INVALID
    }
  }
  attr {
    key: "shape"
    value {
      shape {
        dim {
          size: 512
        }
        dim {
          size: 4096
        }
        dim {
          size: 1
        }
        dim {
          size: 1
        }
        dim {
          size: 1
        }
      }
    }
  }
  attr {
    key: "synDataType"
    value {
      s: "hfloat8"
    }
  }
}
node {
  name: "tensor_59_odule/model/13/v_proj/placeholder/2"
  op: "Placeholder"
  attr {
    key: "dtype"
    value {
      type: DT_BFLOAT16
    }
  }
  attr {
    key: "shape"
    value {
      shape {
        dim {
          size: 1
        }
        dim {
          size: 1
        }
        dim {
          size: 1
        }
        dim {
          size: 1
        }
        dim {
          size: 1
        }
      }
    }
  }
  attr {
    key: "synDataType"
    value {
      s: "bf16"
    }
  }
}
node {
  name: "tensor_60_odule/model/13/v_proj/placeholder/3"
  op: "Placeholder"
  attr {
    key: "dtype"
    value {
      type: DT_BFLOAT16
    }
  }
  attr {
    key: "shape"
    value {
      shape {
        dim {
          size: 1
        }
        dim {
          size: 1
        }
        dim {
          size: 1
        }
        dim {
          size: 1
        }
        dim {
          size: 1
        }
      }
    }
  }
  attr {
    key: "synDataType"
    value {
      s: "bf16"
    }
  }
}
node {
  name: "module/model/13/v_proj/fp8_gemm_bf16/12579"
  op: "fp8_gemm_bf16"
  input: "module/model/13/v_proj/quant_input_0/convert_to_fp8_bf16/12578"
  input: "tensor_58_odule/model/13/v_proj/placeholder/1"
  input: "tensor_59_odule/model/13/v_proj/placeholder/2"
  input: "tensor_60_odule/model/13/v_proj/placeholder/3"
  input: "unused_port"
  input: "unused_port"
  input: "unused_port"
  attr {
    key: "Bundle_idx"
    value {
      s: "N/A"
    }
  }
  attr {
    key: "Exec_idx"
    value {
      s: "23"
    }
  }
  attr {
    key: "Op_idx"
    value {
      s: "N/A"
    }
  }
  attr {
    key: "inputTensor:0"
    value {
      s: "tensor_57  |  Sizes = [1,16,4096]  |  hfloat8  |  expBias = 7, scale = 1  |    |  ModelParam = 0  |  strides = [65536, 65536, 4096, 1]  |  data = 0, sizeInBytes = 65536  |  "
    }
  }
  attr {
    key: "inputTensor:1"
    value {
      s: "tensor_58_odule/model/13/v_proj/placeholder/1  |  Sizes = [4096,512]  |  hfloat8  |  expBias = 7, scale = 1  |    |  ModelParam = 0  |  strides = [2097152, 512, 1]  |  data = 0, sizeInBytes = 2097152  |  isPersistent  |  userMemorySection(type=Persistent, id=22)  |  "
    }
  }
  attr {
    key: "inputTensor:2"
    value {
      s: "tensor_59_odule/model/13/v_proj/placeholder/2  |  Sizes = [1]  |  bf16  |  expBias = 0, scale = 1  |    |  ModelParam = 0  |  strides = [2, 2]  |  data = 0x5566c8ee3c00, sizeInBytes = 2  |  buffer = 1  |  isPersistent  |  userMemorySection(type=Persistent, id=23)  |  isStaticParam  |  bufferDtype=bf16  |  "
    }
  }
  attr {
    key: "inputTensor:3"
    value {
      s: "tensor_60_odule/model/13/v_proj/placeholder/3  |  Sizes = [1]  |  bf16  |  expBias = 0, scale = 1  |    |  ModelParam = 0  |  strides = [2, 2]  |  data = 0x5566c8ee2198, sizeInBytes = 2  |  buffer = 0.00390625  |  isPersistent  |  userMemorySection(type=Persistent, id=24)  |  isStaticParam  |  bufferDtype=bf16  |  "
    }
  }
  attr {
    key: "outputTensor:0"
    value {
      s: "tensor_62  |  Sizes = [1,16,512]  |  bf16  |  expBias = 0, scale = 1  |    |  ModelParam = 0  |  strides = [16384, 16384, 1024, 2]  |  data = 0, sizeInBytes = 16384  |  "
    }
  }
}
node {
  name: "module/model/13/quant_input_0/reshape/12580"
  op: "Reshape"
  input: "module/model/13/v_proj/fp8_gemm_bf16/12579"
  attr {
    key: "Bundle_idx"
    value {
      s: "N/A"
    }
  }
  attr {
    key: "Exec_idx"
    value {
      s: "24"
    }
  }
  attr {
    key: "Op_idx"
    value {
      s: "N/A"
    }
  }
  attr {
    key: "inputTensor:0"
    value {
      s: "tensor_62  |  Sizes = [1,16,512]  |  bf16  |  expBias = 0, scale = 1  |    |  ModelParam = 0  |  strides = [16384, 16384, 1024, 2]  |  data = 0, sizeInBytes = 16384  |  "
    }
  }
  attr {
    key: "outputTensor:0"
    value {
      s: "tensor_63_id_120779_module/model/13/quant_input_0/aten__view  |  Sizes = [1,16,4,128]  |  bf16  |  expBias = 0, scale = 1  |    |  ModelParam = 0  |  strides = [16384, 16384, 1024, 256, 2]  |  data = 0, sizeInBytes = 16384  |  "
    }
  }
}
node {
  name: "tensor_91_odule/model/13/q_proj/quant_input_0/placeholder/1"
  op: "Placeholder"
  attr {
    key: "dtype"
    value {
      type: DT_BFLOAT16
    }
  }
  attr {
    key: "shape"
    value {
      shape {
        dim {
          size: 1
        }
        dim {
          size: 1
        }
        dim {
          size: 1
        }
        dim {
          size: 1
        }
        dim {
          size: 1
        }
      }
    }
  }
  attr {
    key: "synDataType"
    value {
      s: "bf16"
    }
  }
}
node {
  name: "module/model/13/q_proj/quant_input_0/convert_to_fp8_bf16/12596"
  op: "convert_to_fp8_bf16"
  input: "module/model/13/input_layernorm/rms_norm_ex_fwd_bf16/12568"
  input: "tensor_91_odule/model/13/q_proj/quant_input_0/placeholder/1"
  attr {
    key: "Bundle_idx"
    value {
      s: "N/A"
    }
  }
  attr {
    key: "Exec_idx"
    value {
      s: "25"
    }
  }
  attr {
    key: "Op_idx"
    value {
      s: "N/A"
    }
  }
  attr {
    key: "inputTensor:0"
    value {
      s: "tensor_27  |  Sizes = [1,16,4096]  |  bf16  |  expBias = 0, scale = 1  |    |  ModelParam = 0  |  strides = [131072, 131072, 8192, 2]  |  data = 0, sizeInBytes = 131072  |  "
    }
  }
  attr {
    key: "inputTensor:1"
    value {
      s: "tensor_91_odule/model/13/q_proj/quant_input_0/placeholder/1  |  Sizes = [1]  |  bf16  |  expBias = 0, scale = 1  |    |  ModelParam = 0  |  strides = [2, 2]  |  data = 0x5566cafbc0b8, sizeInBytes = 2  |  buffer = 1  |  isPersistent  |  userMemorySection(type=Persistent, id=32)  |  isStaticParam  |  bufferDtype=bf16  |  "
    }
  }
  attr {
    key: "outputTensor:0"
    value {
      s: "tensor_94  |  Sizes = [1,16,4096]  |  hfloat8  |  expBias = 7, scale = 1  |    |  ModelParam = 0  |  strides = [65536, 65536, 4096, 1]  |  data = 0, sizeInBytes = 65536  |  "
    }
  }
}
node {
  name: "module/model/13/rotary_pos_embedding_fwd_bf16/12573"
  op: "rotary_pos_embedding_fwd_bf16"
  input: "module/model/13/transpose/12572"
  input: "module/model/13/identity/12567"
  input: "module/model/13/identity/12561"
  input: "module/model/13/expand_dims/12555"
  attr {
    key: "Bundle_idx"
    value {
      s: "N/A"
    }
  }
  attr {
    key: "Exec_idx"
    value {
      s: "26"
    }
  }
  attr {
    key: "Op_idx"
    value {
      s: "N/A"
    }
  }
  attr {
    key: "inputTensor:0"
    value {
      s: "tensor_39_id_120777_module/model/13/aten__transpose  |  Sizes = [1,4,16,128]  |  bf16  |  expBias = 0, scale = 1  |    |  ModelParam = 0  |  strides = [16384, 16384, 4096, 256, 2]  |  data = 0, sizeInBytes = 16384  |  "
    }
  }
  attr {
    key: "inputTensor:1"
    value {
      s: "tensor_23_id_120817_module/model/13/aten__clone  |  Sizes = [1,1,16,128]  |  bf16  |  expBias = 0, scale = 1  |    |  ModelParam = 0  |  strides = [4096, 4096, 4096, 256, 2]  |  data = 0, sizeInBytes = 4096  |  "
    }
  }
  attr {
    key: "inputTensor:2"
    value {
      s: "tensor_16_id_120811_module/model/13/aten__clone  |  Sizes = [1,1,16,128]  |  bf16  |  expBias = 0, scale = 1  |    |  ModelParam = 0  |  strides = [4096, 4096, 4096, 256, 2]  |  data = 0, sizeInBytes = 4096  |  "
    }
  }
  attr {
    key: "inputTensor:3"
    value {
      s: "tensor_8_id_120665_module/model/13/aten__unsqueeze/1  |  Sizes = [1,16]  |  int32  |  expBias = 0, scale = 1  |    |  ModelParam = 0  |  strides = [64, 64, 4]  |  data = 0, sizeInBytes = 64  |  "
    }
  }
  attr {
    key: "outputTensor:0"
    value {
      s: "tensor_41  |  Sizes = [1,4,16,128]  |  bf16  |  expBias = 0, scale = 1  |    |  ModelParam = 0  |  strides = [16384, 16384, 4096, 256, 2]  |  data = 0, sizeInBytes = 16384  |  "
    }
  }
}
node {
  name: "module/model/13/quant_input_0/transpose/12581"
  op: "Transpose"
  input: "module/model/13/quant_input_0/reshape/12580"
  attr {
    key: "Bundle_idx"
    value {
      s: "N/A"
    }
  }
  attr {
    key: "Exec_idx"
    value {
      s: "27"
    }
  }
  attr {
    key: "Op_idx"
    value {
      s: "N/A"
    }
  }
  attr {
    key: "Parameters"
    value {
      s: "permutation: (0,2,1,3)"
    }
  }
  attr {
    key: "inputTensor:0"
    value {
      s: "tensor_63_id_120779_module/model/13/quant_input_0/aten__view  |  Sizes = [1,16,4,128]  |  bf16  |  expBias = 0, scale = 1  |    |  ModelParam = 0  |  strides = [16384, 16384, 1024, 256, 2]  |  data = 0, sizeInBytes = 16384  |  "
    }
  }
  attr {
    key: "outputTensor:0"
    value {
      s: "tensor_64_id_120781_module/model/13/quant_input_0/aten__transpose  |  Sizes = [1,4,16,128]  |  bf16  |  expBias = 0, scale = 1  |    |  ModelParam = 0  |  strides = [16384, 16384, 4096, 256, 2]  |  data = 0, sizeInBytes = 16384  |  "
    }
  }
}
node {
  name: "tensor_95_odule/model/13/q_proj/placeholder/1"
  op: "Placeholder"
  attr {
    key: "dtype"
    value {
      type: DT_INVALID
    }
  }
  attr {
    key: "shape"
    value {
      shape {
        dim {
          size: 2048
        }
        dim {
          size: 4096
        }
        dim {
          size: 1
        }
        dim {
          size: 1
        }
        dim {
          size: 1
        }
      }
    }
  }
  attr {
    key: "synDataType"
    value {
      s: "hfloat8"
    }
  }
}
node {
  name: "tensor_96_odule/model/13/q_proj/placeholder/2"
  op: "Placeholder"
  attr {
    key: "dtype"
    value {
      type: DT_BFLOAT16
    }
  }
  attr {
    key: "shape"
    value {
      shape {
        dim {
          size: 1
        }
        dim {
          size: 1
        }
        dim {
          size: 1
        }
        dim {
          size: 1
        }
        dim {
          size: 1
        }
      }
    }
  }
  attr {
    key: "synDataType"
    value {
      s: "bf16"
    }
  }
}
node {
  name: "tensor_97_odule/model/13/q_proj/placeholder/3"
  op: "Placeholder"
  attr {
    key: "dtype"
    value {
      type: DT_BFLOAT16
    }
  }
  attr {
    key: "shape"
    value {
      shape {
        dim {
          size: 1
        }
        dim {
          size: 1
        }
        dim {
          size: 1
        }
        dim {
          size: 1
        }
        dim {
          size: 1
        }
      }
    }
  }
  attr {
    key: "synDataType"
    value {
      s: "bf16"
    }
  }
}
node {
  name: "module/model/13/q_proj/fp8_gemm_bf16/12597"
  op: "fp8_gemm_bf16"
  input: "module/model/13/q_proj/quant_input_0/convert_to_fp8_bf16/12596"
  input: "tensor_95_odule/model/13/q_proj/placeholder/1"
  input: "tensor_96_odule/model/13/q_proj/placeholder/2"
  input: "tensor_97_odule/model/13/q_proj/placeholder/3"
  input: "unused_port"
  input: "unused_port"
  input: "unused_port"
  attr {
    key: "Bundle_idx"
    value {
      s: "N/A"
    }
  }
  attr {
    key: "Exec_idx"
    value {
      s: "28"
    }
  }
  attr {
    key: "Op_idx"
    value {
      s: "N/A"
    }
  }
  attr {
    key: "inputTensor:0"
    value {
      s: "tensor_94  |  Sizes = [1,16,4096]  |  hfloat8  |  expBias = 7, scale = 1  |    |  ModelParam = 0  |  strides = [65536, 65536, 4096, 1]  |  data = 0, sizeInBytes = 65536  |  "
    }
  }
  attr {
    key: "inputTensor:1"
    value {
      s: "tensor_95_odule/model/13/q_proj/placeholder/1  |  Sizes = [4096,2048]  |  hfloat8  |  expBias = 7, scale = 1  |    |  ModelParam = 0  |  strides = [8388608, 2048, 1]  |  data = 0, sizeInBytes = 8388608  |  isPersistent  |  userMemorySection(type=Persistent, id=33)  |  "
    }
  }
  attr {
    key: "inputTensor:2"
    value {
      s: "tensor_96_odule/model/13/q_proj/placeholder/2  |  Sizes = [1]  |  bf16  |  expBias = 0, scale = 1  |    |  ModelParam = 0  |  strides = [2, 2]  |  data = 0x5566ca653450, sizeInBytes = 2  |  buffer = 1  |  isPersistent  |  userMemorySection(type=Persistent, id=34)  |  isStaticParam  |  bufferDtype=bf16  |  "
    }
  }
  attr {
    key: "inputTensor:3"
    value {
      s: "tensor_97_odule/model/13/q_proj/placeholder/3  |  Sizes = [1]  |  bf16  |  expBias = 0, scale = 1  |    |  ModelParam = 0  |  strides = [2, 2]  |  data = 0x5566ca652dd0, sizeInBytes = 2  |  buffer = 0.00390625  |  isPersistent  |  userMemorySection(type=Persistent, id=35)  |  isStaticParam  |  bufferDtype=bf16  |  "
    }
  }
  attr {
    key: "outputTensor:0"
    value {
      s: "tensor_99  |  Sizes = [1,16,2048]  |  bf16  |  expBias = 0, scale = 1  |    |  ModelParam = 0  |  strides = [65536, 65536, 4096, 2]  |  data = 0, sizeInBytes = 65536  |  "
    }
  }
}
node {
  name: "module/model/13/reshape/12598"
  op: "Reshape"
  input: "module/model/13/q_proj/fp8_gemm_bf16/12597"
  attr {
    key: "Bundle_idx"
    value {
      s: "N/A"
    }
  }
  attr {
    key: "Exec_idx"
    value {
      s: "29"
    }
  }
  attr {
    key: "Op_idx"
    value {
      s: "N/A"
    }
  }
  attr {
    key: "inputTensor:0"
    value {
      s: "tensor_99  |  Sizes = [1,16,2048]  |  bf16  |  expBias = 0, scale = 1  |    |  ModelParam = 0  |  strides = [65536, 65536, 4096, 2]  |  data = 0, sizeInBytes = 65536  |  "
    }
  }
  attr {
    key: "outputTensor:0"
    value {
      s: "tensor_100_id_120771_module/model/13/aten__view  |  Sizes = [1,16,16,128]  |  bf16  |  expBias = 0, scale = 1  |    |  ModelParam = 0  |  strides = [65536, 65536, 4096, 256, 2]  |  data = 0, sizeInBytes = 65536  |  "
    }
  }
}
node {
  name: "tensor_42_odule/model/13/quant_input_0/placeholder/1"
  op: "Placeholder"
  attr {
    key: "dtype"
    value {
      type: DT_BFLOAT16
    }
  }
  attr {
    key: "shape"
    value {
      shape {
        dim {
          size: 1
        }
        dim {
          size: 1
        }
        dim {
          size: 1
        }
        dim {
          size: 1
        }
        dim {
          size: 1
        }
      }
    }
  }
  attr {
    key: "synDataType"
    value {
      s: "bf16"
    }
  }
}
node {
  name: "module/model/13/quant_input_0/convert_to_fp8_bf16/12574"
  op: "convert_to_fp8_bf16"
  input: "module/model/13/rotary_pos_embedding_fwd_bf16/12573"
  input: "tensor_42_odule/model/13/quant_input_0/placeholder/1"
  attr {
    key: "Bundle_idx"
    value {
      s: "N/A"
    }
  }
  attr {
    key: "Exec_idx"
    value {
      s: "30"
    }
  }
  attr {
    key: "Op_idx"
    value {
      s: "N/A"
    }
  }
  attr {
    key: "inputTensor:0"
    value {
      s: "tensor_41  |  Sizes = [1,4,16,128]  |  bf16  |  expBias = 0, scale = 1  |    |  ModelParam = 0  |  strides = [16384, 16384, 4096, 256, 2]  |  data = 0, sizeInBytes = 16384  |  "
    }
  }
  attr {
    key: "inputTensor:1"
    value {
      s: "tensor_42_odule/model/13/quant_input_0/placeholder/1  |  Sizes = [1]  |  bf16  |  expBias = 0, scale = 1  |    |  ModelParam = 0  |  strides = [2, 2]  |  data = 0x5566cae3e538, sizeInBytes = 2  |  buffer = 1  |  isPersistent  |  userMemorySection(type=Persistent, id=16)  |  isStaticParam  |  bufferDtype=bf16  |  "
    }
  }
  attr {
    key: "outputTensor:0"
    value {
      s: "tensor_45  |  Sizes = [1,4,16,128]  |  hfloat8  |  expBias = 7, scale = 1  |    |  ModelParam = 0  |  strides = [8192, 8192, 2048, 128, 1]  |  data = 0, sizeInBytes = 8192  |  "
    }
  }
}
node {
  name: "tensor_65_odule/model/13/quant_input_0/placeholder/1"
  op: "Placeholder"
  attr {
    key: "dtype"
    value {
      type: DT_BFLOAT16
    }
  }
  attr {
    key: "shape"
    value {
      shape {
        dim {
          size: 1
        }
        dim {
          size: 1
        }
        dim {
          size: 1
        }
        dim {
          size: 1
        }
        dim {
          size: 1
        }
      }
    }
  }
  attr {
    key: "synDataType"
    value {
      s: "bf16"
    }
  }
}
node {
  name: "module/model/13/quant_input_0/convert_to_fp8_bf16/12582"
  op: "convert_to_fp8_bf16"
  input: "module/model/13/quant_input_0/transpose/12581"
  input: "tensor_65_odule/model/13/quant_input_0/placeholder/1"
  attr {
    key: "Bundle_idx"
    value {
      s: "N/A"
    }
  }
  attr {
    key: "Exec_idx"
    value {
      s: "31"
    }
  }
  attr {
    key: "Op_idx"
    value {
      s: "N/A"
    }
  }
  attr {
    key: "inputTensor:0"
    value {
      s: "tensor_64_id_120781_module/model/13/quant_input_0/aten__transpose  |  Sizes = [1,4,16,128]  |  bf16  |  expBias = 0, scale = 1  |    |  ModelParam = 0  |  strides = [16384, 16384, 4096, 256, 2]  |  data = 0, sizeInBytes = 16384  |  "
    }
  }
  attr {
    key: "inputTensor:1"
    value {
      s: "tensor_65_odule/model/13/quant_input_0/placeholder/1  |  Sizes = [1]  |  bf16  |  expBias = 0, scale = 1  |    |  ModelParam = 0  |  strides = [2, 2]  |  data = 0x5566cae3fe68, sizeInBytes = 2  |  buffer = 16  |  isPersistent  |  userMemorySection(type=Persistent, id=25)  |  isStaticParam  |  bufferDtype=bf16  |  "
    }
  }
  attr {
    key: "outputTensor:0"
    value {
      s: "tensor_68  |  Sizes = [1,4,16,128]  |  hfloat8  |  expBias = 7, scale = 1  |    |  ModelParam = 0  |  strides = [8192, 8192, 2048, 128, 1]  |  data = 0, sizeInBytes = 8192  |  "
    }
  }
}
node {
  name: "module/model/13/fused_scaled_dot_product_attention/slice/12587"
  op: "Slice"
  input: "module/model/13/fused_scaled_dot_product_attention/expand_dims/12586"
  attr {
    key: "Bundle_idx"
    value {
      s: "N/A"
    }
  }
  attr {
    key: "Exec_idx"
    value {
      s: "32"
    }
  }
  attr {
    key: "Op_idx"
    value {
      s: "N/A"
    }
  }
  attr {
    key: "inputTensor:0"
    value {
      s: "tensor_75_id_120667_module/model/13/fused_scaled_dot_product_attention/aten__unsqueeze  |  Sizes = [1,1,16,16]  |  bf16  |  expBias = 0, scale = 1  |    |  ModelParam = 0  |  strides = [512, 512, 512, 32, 2]  |  data = 0, sizeInBytes = 512  |  "
    }
  }
  attr {
    key: "outputTensor:0"
    value {
      s: "tensor_76_id_120668_module/model/13/fused_scaled_dot_product_attention/aten__slice  |  Sizes = [1,1,16,16]  |  bf16  |  expBias = 0, scale = 1  |    |  ModelParam = 0  |  strides = [512, 512, 512, 32, 2]  |  data = 0, sizeInBytes = 512  |  "
    }
  }
}
node {
  name: "module/model/13/transpose/12599"
  op: "Transpose"
  input: "module/model/13/reshape/12598"
  attr {
    key: "Bundle_idx"
    value {
      s: "N/A"
    }
  }
  attr {
    key: "Exec_idx"
    value {
      s: "33"
    }
  }
  attr {
    key: "Op_idx"
    value {
      s: "N/A"
    }
  }
  attr {
    key: "Parameters"
    value {
      s: "permutation: (0,2,1,3)"
    }
  }
  attr {
    key: "inputTensor:0"
    value {
      s: "tensor_100_id_120771_module/model/13/aten__view  |  Sizes = [1,16,16,128]  |  bf16  |  expBias = 0, scale = 1  |    |  ModelParam = 0  |  strides = [65536, 65536, 4096, 256, 2]  |  data = 0, sizeInBytes = 65536  |  "
    }
  }
  attr {
    key: "outputTensor:0"
    value {
      s: "tensor_101_id_120773_module/model/13/aten__transpose  |  Sizes = [1,16,16,128]  |  bf16  |  expBias = 0, scale = 1  |    |  ModelParam = 0  |  strides = [65536, 65536, 4096, 256, 2]  |  data = 0, sizeInBytes = 65536  |  "
    }
  }
}
node {
  name: "tensor_47_odule/model/13/quant_output/placeholder/1"
  op: "Placeholder"
  attr {
    key: "dtype"
    value {
      type: DT_BFLOAT16
    }
  }
  attr {
    key: "shape"
    value {
      shape {
        dim {
          size: 1
        }
        dim {
          size: 1
        }
        dim {
          size: 1
        }
        dim {
          size: 1
        }
        dim {
          size: 1
        }
      }
    }
  }
  attr {
    key: "synDataType"
    value {
      s: "bf16"
    }
  }
}
node {
  name: "module/model/13/quant_output/convert_from_fp8_bf16/12576"
  op: "convert_from_fp8_bf16"
  input: "module/model/13/quant_input_0/convert_to_fp8_bf16/12574"
  input: "tensor_47_odule/model/13/quant_output/placeholder/1"
  attr {
    key: "Bundle_idx"
    value {
      s: "N/A"
    }
  }
  attr {
    key: "Exec_idx"
    value {
      s: "34"
    }
  }
  attr {
    key: "Op_idx"
    value {
      s: "N/A"
    }
  }
  attr {
    key: "inputTensor:0"
    value {
      s: "tensor_45  |  Sizes = [1,4,16,128]  |  hfloat8  |  expBias = 7, scale = 1  |    |  ModelParam = 0  |  strides = [8192, 8192, 2048, 128, 1]  |  data = 0, sizeInBytes = 8192  |  "
    }
  }
  attr {
    key: "inputTensor:1"
    value {
      s: "tensor_47_odule/model/13/quant_output/placeholder/1  |  Sizes = [1]  |  bf16  |  expBias = 0, scale = 1  |    |  ModelParam = 0  |  strides = [2, 2]  |  data = 0x5566c9335e50, sizeInBytes = 2  |  buffer = 1  |  isPersistent  |  userMemorySection(type=Persistent, id=17)  |  isStaticParam  |  bufferDtype=bf16  |  "
    }
  }
  attr {
    key: "outputTensor:0"
    value {
      s: "tensor_49  |  Sizes = [1,4,16,128]  |  bf16  |  expBias = 0, scale = 1  |    |  ModelParam = 0  |  strides = [16384, 16384, 4096, 256, 2]  |  data = 0, sizeInBytes = 16384  |  isPersistent  |  userMemorySection(type=Persistent, id=19)  |  "
    }
  }
}
node {
  name: "tensor_70_odule/model/13/quant_output/placeholder/1"
  op: "Placeholder"
  attr {
    key: "dtype"
    value {
      type: DT_BFLOAT16
    }
  }
  attr {
    key: "shape"
    value {
      shape {
        dim {
          size: 1
        }
        dim {
          size: 1
        }
        dim {
          size: 1
        }
        dim {
          size: 1
        }
        dim {
          size: 1
        }
      }
    }
  }
  attr {
    key: "synDataType"
    value {
      s: "bf16"
    }
  }
}
node {
  name: "module/model/13/quant_output/convert_from_fp8_bf16/12584"
  op: "convert_from_fp8_bf16"
  input: "module/model/13/quant_input_0/convert_to_fp8_bf16/12582"
  input: "tensor_70_odule/model/13/quant_output/placeholder/1"
  attr {
    key: "Bundle_idx"
    value {
      s: "N/A"
    }
  }
  attr {
    key: "Exec_idx"
    value {
      s: "35"
    }
  }
  attr {
    key: "Op_idx"
    value {
      s: "N/A"
    }
  }
  attr {
    key: "inputTensor:0"
    value {
      s: "tensor_68  |  Sizes = [1,4,16,128]  |  hfloat8  |  expBias = 7, scale = 1  |    |  ModelParam = 0  |  strides = [8192, 8192, 2048, 128, 1]  |  data = 0, sizeInBytes = 8192  |  "
    }
  }
  attr {
    key: "inputTensor:1"
    value {
      s: "tensor_70_odule/model/13/quant_output/placeholder/1  |  Sizes = [1]  |  bf16  |  expBias = 0, scale = 1  |    |  ModelParam = 0  |  strides = [2, 2]  |  data = 0x5566cada52f0, sizeInBytes = 2  |  buffer = 0.0625  |  isPersistent  |  userMemorySection(type=Persistent, id=26)  |  isStaticParam  |  bufferDtype=bf16  |  "
    }
  }
  attr {
    key: "outputTensor:0"
    value {
      s: "tensor_72  |  Sizes = [1,4,16,128]  |  bf16  |  expBias = 0, scale = 1  |    |  ModelParam = 0  |  strides = [16384, 16384, 4096, 256, 2]  |  data = 0, sizeInBytes = 16384  |  isPersistent  |  userMemorySection(type=Persistent, id=28)  |  "
    }
  }
}
node {
  name: "module/model/13/fused_scaled_dot_product_attention/slice/12588"
  op: "Slice"
  input: "module/model/13/fused_scaled_dot_product_attention/slice/12587"
  attr {
    key: "Bundle_idx"
    value {
      s: "N/A"
    }
  }
  attr {
    key: "Exec_idx"
    value {
      s: "36"
    }
  }
  attr {
    key: "Op_idx"
    value {
      s: "N/A"
    }
  }
  attr {
    key: "inputTensor:0"
    value {
      s: "tensor_76_id_120668_module/model/13/fused_scaled_dot_product_attention/aten__slice  |  Sizes = [1,1,16,16]  |  bf16  |  expBias = 0, scale = 1  |    |  ModelParam = 0  |  strides = [512, 512, 512, 32, 2]  |  data = 0, sizeInBytes = 512  |  "
    }
  }
  attr {
    key: "outputTensor:0"
    value {
      s: "tensor_77_id_120669_module/model/13/fused_scaled_dot_product_attention/aten__slice  |  Sizes = [1,1,16,16]  |  bf16  |  expBias = 0, scale = 1  |    |  ModelParam = 0  |  strides = [512, 512, 512, 32, 2]  |  data = 0, sizeInBytes = 512  |  "
    }
  }
}
node {
  name: "module/model/13/rotary_pos_embedding_fwd_bf16/12600"
  op: "rotary_pos_embedding_fwd_bf16"
  input: "module/model/13/transpose/12599"
  input: "module/model/13/identity/12567"
  input: "module/model/13/identity/12561"
  input: "module/model/13/expand_dims/12595"
  attr {
    key: "Bundle_idx"
    value {
      s: "N/A"
    }
  }
  attr {
    key: "Exec_idx"
    value {
      s: "37"
    }
  }
  attr {
    key: "Op_idx"
    value {
      s: "N/A"
    }
  }
  attr {
    key: "inputTensor:0"
    value {
      s: "tensor_101_id_120773_module/model/13/aten__transpose  |  Sizes = [1,16,16,128]  |  bf16  |  expBias = 0, scale = 1  |    |  ModelParam = 0  |  strides = [65536, 65536, 4096, 256, 2]  |  data = 0, sizeInBytes = 65536  |  "
    }
  }
  attr {
    key: "inputTensor:1"
    value {
      s: "tensor_23_id_120817_module/model/13/aten__clone  |  Sizes = [1,1,16,128]  |  bf16  |  expBias = 0, scale = 1  |    |  ModelParam = 0  |  strides = [4096, 4096, 4096, 256, 2]  |  data = 0, sizeInBytes = 4096  |  "
    }
  }
  attr {
    key: "inputTensor:2"
    value {
      s: "tensor_16_id_120811_module/model/13/aten__clone  |  Sizes = [1,1,16,128]  |  bf16  |  expBias = 0, scale = 1  |    |  ModelParam = 0  |  strides = [4096, 4096, 4096, 256, 2]  |  data = 0, sizeInBytes = 4096  |  "
    }
  }
  attr {
    key: "inputTensor:3"
    value {
      s: "tensor_90_id_120665_module/model/13/aten__unsqueeze  |  Sizes = [1,16]  |  int32  |  expBias = 0, scale = 1  |    |  ModelParam = 0  |  strides = [64, 64, 4]  |  data = 0, sizeInBytes = 64  |  "
    }
  }
  attr {
    key: "outputTensor:0"
    value {
      s: "tensor_103  |  Sizes = [1,16,16,128]  |  bf16  |  expBias = 0, scale = 1  |    |  ModelParam = 0  |  strides = [65536, 65536, 4096, 256, 2]  |  data = 0, sizeInBytes = 65536  |  "
    }
  }
}
node {
  name: "module/model/13/fused_scaled_dot_product_attention/broadcast/12589"
  op: "Broadcast"
  input: "module/model/13/fused_scaled_dot_product_attention/slice/12588"
  attr {
    key: "Bundle_idx"
    value {
      s: "N/A"
    }
  }
  attr {
    key: "Exec_idx"
    value {
      s: "38"
    }
  }
  attr {
    key: "Op_idx"
    value {
      s: "N/A"
    }
  }
  attr {
    key: "inputTensor:0"
    value {
      s: "tensor_77_id_120669_module/model/13/fused_scaled_dot_product_attention/aten__slice  |  Sizes = [1,1,16,16]  |  bf16  |  expBias = 0, scale = 1  |    |  ModelParam = 0  |  strides = [512, 512, 512, 32, 2]  |  data = 0, sizeInBytes = 512  |  "
    }
  }
  attr {
    key: "outputTensor:0"
    value {
      s: "tensor_78_id_120670_module/model/13/fused_scaled_dot_product_attention/hpu__expand  |  Sizes = [1,1,16,16]  |  bf16  |  expBias = 0, scale = 1  |    |  ModelParam = 0  |  strides = [512, 512, 512, 32, 2]  |  data = 0, sizeInBytes = 512  |  "
    }
  }
}
node {
  name: "module/model/13/fused_scaled_dot_product_attention/expand_dims/12590"
  op: "ExpandDims"
  input: "module/model/13/fused_scaled_dot_product_attention/broadcast/12589"
  attr {
    key: "Bundle_idx"
    value {
      s: "N/A"
    }
  }
  attr {
    key: "Exec_idx"
    value {
      s: "39"
    }
  }
  attr {
    key: "Op_idx"
    value {
      s: "N/A"
    }
  }
  attr {
    key: "inputTensor:0"
    value {
      s: "tensor_78_id_120670_module/model/13/fused_scaled_dot_product_attention/hpu__expand  |  Sizes = [1,1,16,16]  |  bf16  |  expBias = 0, scale = 1  |    |  ModelParam = 0  |  strides = [512, 512, 512, 32, 2]  |  data = 0, sizeInBytes = 512  |  "
    }
  }
  attr {
    key: "outputTensor:0"
    value {
      s: "tensor_79_id_120892_module/model/13/fused_scaled_dot_product_attention/aten__unsqueeze  |  Sizes = [1,1,1,16,16]  |  bf16  |  expBias = 0, scale = 1  |    |  ModelParam = 0  |  strides = [512, 512, 512, 512, 32, 2]  |  data = 0, sizeInBytes = 512  |  "
    }
  }
}
node {
  name: "tensor_80_odule/model/13/fused_scaled_dot_product_attention/quant_v/placeholder/1"
  op: "Placeholder"
  attr {
    key: "dtype"
    value {
      type: DT_BFLOAT16
    }
  }
  attr {
    key: "shape"
    value {
      shape {
        dim {
          size: 1
        }
        dim {
          size: 1
        }
        dim {
          size: 1
        }
        dim {
          size: 1
        }
        dim {
          size: 1
        }
      }
    }
  }
  attr {
    key: "synDataType"
    value {
      s: "bf16"
    }
  }
}
node {
  name: "module/model/13/fused_scaled_dot_product_attention/quant_v/convert_to_fp8_bf16/12591"
  op: "convert_to_fp8_bf16"
  input: "module/model/13/quant_output/convert_from_fp8_bf16/12584"
  input: "tensor_80_odule/model/13/fused_scaled_dot_product_attention/quant_v/placeholder/1"
  attr {
    key: "Bundle_idx"
    value {
      s: "N/A"
    }
  }
  attr {
    key: "Exec_idx"
    value {
      s: "40"
    }
  }
  attr {
    key: "Op_idx"
    value {
      s: "N/A"
    }
  }
  attr {
    key: "inputTensor:0"
    value {
      s: "tensor_72  |  Sizes = [1,4,16,128]  |  bf16  |  expBias = 0, scale = 1  |    |  ModelParam = 0  |  strides = [16384, 16384, 4096, 256, 2]  |  data = 0, sizeInBytes = 16384  |  isPersistent  |  userMemorySection(type=Persistent, id=28)  |  "
    }
  }
  attr {
    key: "inputTensor:1"
    value {
      s: "tensor_80_odule/model/13/fused_scaled_dot_product_attention/quant_v/placeholder/1  |  Sizes = [1]  |  bf16  |  expBias = 0, scale = 1  |    |  ModelParam = 0  |  strides = [2, 2]  |  data = 0x5566cab645e0, sizeInBytes = 2  |  buffer = 16  |  isPersistent  |  userMemorySection(type=Persistent, id=30)  |  isStaticParam  |  bufferDtype=bf16  |  "
    }
  }
  attr {
    key: "outputTensor:0"
    value {
      s: "tensor_83  |  Sizes = [1,4,16,128]  |  hfloat8  |  expBias = 7, scale = 1  |    |  ModelParam = 0  |  strides = [8192, 8192, 2048, 128, 1]  |  data = 0, sizeInBytes = 8192  |  "
    }
  }
}
node {
  name: "module/model/13/fused_scaled_dot_product_attention/reshape/12592"
  op: "Reshape"
  input: "module/model/13/fused_scaled_dot_product_attention/quant_v/convert_to_fp8_bf16/12591"
  attr {
    key: "Bundle_idx"
    value {
      s: "N/A"
    }
  }
  attr {
    key: "Exec_idx"
    value {
      s: "41"
    }
  }
  attr {
    key: "Op_idx"
    value {
      s: "N/A"
    }
  }
  attr {
    key: "inputTensor:0"
    value {
      s: "tensor_83  |  Sizes = [1,4,16,128]  |  hfloat8  |  expBias = 7, scale = 1  |    |  ModelParam = 0  |  strides = [8192, 8192, 2048, 128, 1]  |  data = 0, sizeInBytes = 8192  |  "
    }
  }
  attr {
    key: "outputTensor:0"
    value {
      s: "tensor_84_id_120890_module/model/13/fused_scaled_dot_product_attention/aten__view  |  Sizes = [1,4,1,16,128]  |  hfloat8  |  expBias = 7, scale = 1  |    |  ModelParam = 0  |  strides = [8192, 8192, 2048, 2048, 128, 1]  |  data = 0, sizeInBytes = 8192  |  "
    }
  }
}
node {
  name: "tensor_85_odule/model/13/fused_scaled_dot_product_attention/quant_k/placeholder/1"
  op: "Placeholder"
  attr {
    key: "dtype"
    value {
      type: DT_BFLOAT16
    }
  }
  attr {
    key: "shape"
    value {
      shape {
        dim {
          size: 1
        }
        dim {
          size: 1
        }
        dim {
          size: 1
        }
        dim {
          size: 1
        }
        dim {
          size: 1
        }
      }
    }
  }
  attr {
    key: "synDataType"
    value {
      s: "bf16"
    }
  }
}
node {
  name: "module/model/13/fused_scaled_dot_product_attention/quant_k/convert_to_fp8_bf16/12593"
  op: "convert_to_fp8_bf16"
  input: "module/model/13/quant_output/convert_from_fp8_bf16/12576"
  input: "tensor_85_odule/model/13/fused_scaled_dot_product_attention/quant_k/placeholder/1"
  attr {
    key: "Bundle_idx"
    value {
      s: "N/A"
    }
  }
  attr {
    key: "Exec_idx"
    value {
      s: "42"
    }
  }
  attr {
    key: "Op_idx"
    value {
      s: "N/A"
    }
  }
  attr {
    key: "inputTensor:0"
    value {
      s: "tensor_49  |  Sizes = [1,4,16,128]  |  bf16  |  expBias = 0, scale = 1  |    |  ModelParam = 0  |  strides = [16384, 16384, 4096, 256, 2]  |  data = 0, sizeInBytes = 16384  |  isPersistent  |  userMemorySection(type=Persistent, id=19)  |  "
    }
  }
  attr {
    key: "inputTensor:1"
    value {
      s: "tensor_85_odule/model/13/fused_scaled_dot_product_attention/quant_k/placeholder/1  |  Sizes = [1]  |  bf16  |  expBias = 0, scale = 1  |    |  ModelParam = 0  |  strides = [2, 2]  |  data = 0x5566ca6523a8, sizeInBytes = 2  |  buffer = 1  |  isPersistent  |  userMemorySection(type=Persistent, id=31)  |  isStaticParam  |  bufferDtype=bf16  |  "
    }
  }
  attr {
    key: "outputTensor:0"
    value {
      s: "tensor_88  |  Sizes = [1,4,16,128]  |  hfloat8  |  expBias = 7, scale = 1  |    |  ModelParam = 0  |  strides = [8192, 8192, 2048, 128, 1]  |  data = 0, sizeInBytes = 8192  |  "
    }
  }
}
node {
  name: "module/model/13/fused_scaled_dot_product_attention/reshape/12594"
  op: "Reshape"
  input: "module/model/13/fused_scaled_dot_product_attention/quant_k/convert_to_fp8_bf16/12593"
  attr {
    key: "Bundle_idx"
    value {
      s: "N/A"
    }
  }
  attr {
    key: "Exec_idx"
    value {
      s: "43"
    }
  }
  attr {
    key: "Op_idx"
    value {
      s: "N/A"
    }
  }
  attr {
    key: "inputTensor:0"
    value {
      s: "tensor_88  |  Sizes = [1,4,16,128]  |  hfloat8  |  expBias = 7, scale = 1  |    |  ModelParam = 0  |  strides = [8192, 8192, 2048, 128, 1]  |  data = 0, sizeInBytes = 8192  |  "
    }
  }
  attr {
    key: "outputTensor:0"
    value {
      s: "tensor_89_id_120888_module/model/13/fused_scaled_dot_product_attention/aten__view  |  Sizes = [1,4,1,16,128]  |  hfloat8  |  expBias = 7, scale = 1  |    |  ModelParam = 0  |  strides = [8192, 8192, 2048, 2048, 128, 1]  |  data = 0, sizeInBytes = 8192  |  "
    }
  }
}
node {
  name: "tensor_104_odule/model/13/fused_scaled_dot_product_attention/quant_q/placeholder/1"
  op: "Placeholder"
  attr {
    key: "dtype"
    value {
      type: DT_BFLOAT16
    }
  }
  attr {
    key: "shape"
    value {
      shape {
        dim {
          size: 1
        }
        dim {
          size: 1
        }
        dim {
          size: 1
        }
        dim {
          size: 1
        }
        dim {
          size: 1
        }
      }
    }
  }
  attr {
    key: "synDataType"
    value {
      s: "bf16"
    }
  }
}
node {
  name: "module/model/13/fused_scaled_dot_product_attention/quant_q/convert_to_fp8_bf16/12601"
  op: "convert_to_fp8_bf16"
  input: "module/model/13/rotary_pos_embedding_fwd_bf16/12600"
  input: "tensor_104_odule/model/13/fused_scaled_dot_product_attention/quant_q/placeholder/1"
  attr {
    key: "Bundle_idx"
    value {
      s: "N/A"
    }
  }
  attr {
    key: "Exec_idx"
    value {
      s: "44"
    }
  }
  attr {
    key: "Op_idx"
    value {
      s: "N/A"
    }
  }
  attr {
    key: "inputTensor:0"
    value {
      s: "tensor_103  |  Sizes = [1,16,16,128]  |  bf16  |  expBias = 0, scale = 1  |    |  ModelParam = 0  |  strides = [65536, 65536, 4096, 256, 2]  |  data = 0, sizeInBytes = 65536  |  "
    }
  }
  attr {
    key: "inputTensor:1"
    value {
      s: "tensor_104_odule/model/13/fused_scaled_dot_product_attention/quant_q/placeholder/1  |  Sizes = [1]  |  bf16  |  expBias = 0, scale = 1  |    |  ModelParam = 0  |  strides = [2, 2]  |  data = 0x5566cafbc2d0, sizeInBytes = 2  |  buffer = 1  |  isPersistent  |  userMemorySection(type=Persistent, id=36)  |  isStaticParam  |  bufferDtype=bf16  |  "
    }
  }
  attr {
    key: "outputTensor:0"
    value {
      s: "tensor_107  |  Sizes = [1,16,16,128]  |  hfloat8  |  expBias = 7, scale = 1  |    |  ModelParam = 0  |  strides = [32768, 32768, 2048, 128, 1]  |  data = 0, sizeInBytes = 32768  |  "
    }
  }
}
node {
  name: "module/model/13/fused_scaled_dot_product_attention/reshape/12602"
  op: "Reshape"
  input: "module/model/13/fused_scaled_dot_product_attention/quant_q/convert_to_fp8_bf16/12601"
  attr {
    key: "Bundle_idx"
    value {
      s: "N/A"
    }
  }
  attr {
    key: "Exec_idx"
    value {
      s: "45"
    }
  }
  attr {
    key: "Op_idx"
    value {
      s: "N/A"
    }
  }
  attr {
    key: "inputTensor:0"
    value {
      s: "tensor_107  |  Sizes = [1,16,16,128]  |  hfloat8  |  expBias = 7, scale = 1  |    |  ModelParam = 0  |  strides = [32768, 32768, 2048, 128, 1]  |  data = 0, sizeInBytes = 32768  |  "
    }
  }
  attr {
    key: "outputTensor:0"
    value {
      s: "tensor_108_id_120886_module/model/13/fused_scaled_dot_product_attention/aten__view  |  Sizes = [1,4,4,16,128]  |  hfloat8  |  expBias = 7, scale = 1  |    |  ModelParam = 0  |  strides = [32768, 32768, 8192, 2048, 128, 1]  |  data = 0, sizeInBytes = 32768  |  "
    }
  }
}
node {
  name: "tensor_109_odule/model/13/fused_scaled_dot_product_attention/placeholder/4"
  op: "Placeholder"
  attr {
    key: "dtype"
    value {
      type: DT_FLOAT
    }
  }
  attr {
    key: "shape"
    value {
      shape {
        dim {
          size: 1
        }
        dim {
          size: 1
        }
        dim {
          size: 1
        }
        dim {
          size: 1
        }
        dim {
          size: 1
        }
      }
    }
  }
  attr {
    key: "synDataType"
    value {
      s: "float32"
    }
  }
}
node {
  name: "tensor_110_odule/model/13/fused_scaled_dot_product_attention/placeholder/5"
  op: "Placeholder"
  attr {
    key: "dtype"
    value {
      type: DT_FLOAT
    }
  }
  attr {
    key: "shape"
    value {
      shape {
        dim {
          size: 1
        }
        dim {
          size: 1
        }
        dim {
          size: 1
        }
        dim {
          size: 1
        }
        dim {
          size: 1
        }
      }
    }
  }
  attr {
    key: "synDataType"
    value {
      s: "float32"
    }
  }
}
node {
  name: "tensor_111_odule/model/13/fused_scaled_dot_product_attention/placeholder/6"
  op: "Placeholder"
  attr {
    key: "dtype"
    value {
      type: DT_FLOAT
    }
  }
  attr {
    key: "shape"
    value {
      shape {
        dim {
          size: 1
        }
        dim {
          size: 1
        }
        dim {
          size: 1
        }
        dim {
          size: 1
        }
        dim {
          size: 1
        }
      }
    }
  }
  attr {
    key: "synDataType"
    value {
      s: "float32"
    }
  }
}
node {
  name: "tensor_112_odule/model/13/fused_scaled_dot_product_attention/placeholder/7"
  op: "Placeholder"
  attr {
    key: "dtype"
    value {
      type: DT_FLOAT
    }
  }
  attr {
    key: "shape"
    value {
      shape {
        dim {
          size: 1
        }
        dim {
          size: 1
        }
        dim {
          size: 1
        }
        dim {
          size: 1
        }
        dim {
          size: 1
        }
      }
    }
  }
  attr {
    key: "synDataType"
    value {
      s: "float32"
    }
  }
}
node {
  name: "tensor_113_odule/model/13/fused_scaled_dot_product_attention/placeholder/8"
  op: "Placeholder"
  attr {
    key: "dtype"
    value {
      type: DT_FLOAT
    }
  }
  attr {
    key: "shape"
    value {
      shape {
        dim {
          size: 1
        }
        dim {
          size: 1
        }
        dim {
          size: 1
        }
        dim {
          size: 1
        }
        dim {
          size: 1
        }
      }
    }
  }
  attr {
    key: "synDataType"
    value {
      s: "float32"
    }
  }
}
node {
  name: "tensor_114_odule/model/13/fused_scaled_dot_product_attention/placeholder/9"
  op: "Placeholder"
  attr {
    key: "dtype"
    value {
      type: DT_FLOAT
    }
  }
  attr {
    key: "shape"
    value {
      shape {
        dim {
          size: 1
        }
        dim {
          size: 1
        }
        dim {
          size: 1
        }
        dim {
          size: 1
        }
        dim {
          size: 1
        }
      }
    }
  }
  attr {
    key: "synDataType"
    value {
      s: "float32"
    }
  }
}
node {
  name: "module/model/13/fused_scaled_dot_product_attention/sdpa_recomp_fwd_hf8/12603"
  op: "sdpa_recomp_fwd_hf8"
  input: "module/model/13/fused_scaled_dot_product_attention/reshape/12602"
  input: "module/model/13/fused_scaled_dot_product_attention/reshape/12594"
  input: "module/model/13/fused_scaled_dot_product_attention/reshape/12592"
  input: "module/model/13/fused_scaled_dot_product_attention/expand_dims/12590"
  input: "unused_port"
  input: "tensor_109_odule/model/13/fused_scaled_dot_product_attention/placeholder/4"
  input: "tensor_110_odule/model/13/fused_scaled_dot_product_attention/placeholder/5"
  input: "tensor_111_odule/model/13/fused_scaled_dot_product_attention/placeholder/6"
  input: "tensor_112_odule/model/13/fused_scaled_dot_product_attention/placeholder/7"
  input: "tensor_113_odule/model/13/fused_scaled_dot_product_attention/placeholder/8"
  input: "tensor_114_odule/model/13/fused_scaled_dot_product_attention/placeholder/9"
  attr {
    key: "Bundle_idx"
    value {
      s: "N/A"
    }
  }
  attr {
    key: "Exec_idx"
    value {
      s: "46"
    }
  }
  attr {
    key: "Op_idx"
    value {
      s: "N/A"
    }
  }
  attr {
    key: "inputTensor:00"
    value {
      s: "tensor_108_id_120886_module/model/13/fused_scaled_dot_product_attention/aten__view  |  Sizes = [1,4,4,16,128]  |  hfloat8  |  expBias = 7, scale = 1  |    |  ModelParam = 0  |  strides = [32768, 32768, 8192, 2048, 128, 1]  |  data = 0, sizeInBytes = 32768  |  "
    }
  }
  attr {
    key: "inputTensor:01"
    value {
      s: "tensor_89_id_120888_module/model/13/fused_scaled_dot_product_attention/aten__view  |  Sizes = [1,4,1,16,128]  |  hfloat8  |  expBias = 7, scale = 1  |    |  ModelParam = 0  |  strides = [8192, 8192, 2048, 2048, 128, 1]  |  data = 0, sizeInBytes = 8192  |  "
    }
  }
  attr {
    key: "inputTensor:02"
    value {
      s: "tensor_84_id_120890_module/model/13/fused_scaled_dot_product_attention/aten__view  |  Sizes = [1,4,1,16,128]  |  hfloat8  |  expBias = 7, scale = 1  |    |  ModelParam = 0  |  strides = [8192, 8192, 2048, 2048, 128, 1]  |  data = 0, sizeInBytes = 8192  |  "
    }
  }
  attr {
    key: "inputTensor:03"
    value {
      s: "tensor_79_id_120892_module/model/13/fused_scaled_dot_product_attention/aten__unsqueeze  |  Sizes = [1,1,1,16,16]  |  bf16  |  expBias = 0, scale = 1  |    |  ModelParam = 0  |  strides = [512, 512, 512, 512, 32, 2]  |  data = 0, sizeInBytes = 512  |  "
    }
  }
  attr {
    key: "inputTensor:05"
    value {
      s: "tensor_109_odule/model/13/fused_scaled_dot_product_attention/placeholder/4  |  Sizes = [1]  |  float32  |  expBias = 0, scale = 1  |    |  ModelParam = 0  |  strides = [4, 4]  |  data = 0x5566cafbc358, sizeInBytes = 4  |  buffer = 1  |  isPersistent  |  userMemorySection(type=Persistent, id=37)  |  isStaticParam  |  bufferDtype=float32  |  "
    }
  }
  attr {
    key: "inputTensor:06"
    value {
      s: "tensor_110_odule/model/13/fused_scaled_dot_product_attention/placeholder/5  |  Sizes = [1]  |  float32  |  expBias = 0, scale = 1  |    |  ModelParam = 0  |  strides = [4, 4]  |  data = 0x5566ca653f50, sizeInBytes = 4  |  buffer = 1  |  isPersistent  |  userMemorySection(type=Persistent, id=38)  |  isStaticParam  |  bufferDtype=float32  |  "
    }
  }
  attr {
    key: "inputTensor:07"
    value {
      s: "tensor_111_odule/model/13/fused_scaled_dot_product_attention/placeholder/6  |  Sizes = [1]  |  float32  |  expBias = 0, scale = 1  |    |  ModelParam = 0  |  strides = [4, 4]  |  data = 0x5566ca653f28, sizeInBytes = 4  |  buffer = 0.0625  |  isPersistent  |  userMemorySection(type=Persistent, id=39)  |  isStaticParam  |  bufferDtype=float32  |  "
    }
  }
  attr {
    key: "inputTensor:08"
    value {
      s: "tensor_112_odule/model/13/fused_scaled_dot_product_attention/placeholder/7  |  Sizes = [1]  |  float32  |  expBias = 0, scale = 1  |    |  ModelParam = 0  |  strides = [4, 4]  |  data = 0x5566ca653f00, sizeInBytes = 4  |  buffer = 16  |  isPersistent  |  userMemorySection(type=Persistent, id=40)  |  isStaticParam  |  bufferDtype=float32  |  "
    }
  }
  attr {
    key: "inputTensor:09"
    value {
      s: "tensor_113_odule/model/13/fused_scaled_dot_product_attention/placeholder/8  |  Sizes = [1]  |  float32  |  expBias = 0, scale = 1  |    |  ModelParam = 0  |  strides = [4, 4]  |  data = 0x5566ca653ee8, sizeInBytes = 4  |  buffer = 16  |  isPersistent  |  userMemorySection(type=Persistent, id=41)  |  isStaticParam  |  bufferDtype=float32  |  "
    }
  }
  attr {
    key: "inputTensor:10"
    value {
      s: "tensor_114_odule/model/13/fused_scaled_dot_product_attention/placeholder/9  |  Sizes = [1]  |  float32  |  expBias = 0, scale = 1  |    |  ModelParam = 0  |  strides = [4, 4]  |  data = 0x5566ca653f08, sizeInBytes = 4  |  buffer = 0.0625  |  isPersistent  |  userMemorySection(type=Persistent, id=42)  |  isStaticParam  |  bufferDtype=float32  |  "
    }
  }
  attr {
    key: "outputTensor:0"
    value {
      s: "tensor_120  |  Sizes = [1,4,4,16,128]  |  hfloat8  |  expBias = 7, scale = 1  |    |  ModelParam = 0  |  strides = [32768, 32768, 8192, 2048, 128, 1]  |  data = 0, sizeInBytes = 32768  |  "
    }
  }
}
node {
  name: "module/model/13/fused_scaled_dot_product_attention/dequant_output/reshape/12604"
  op: "Reshape"
  input: "module/model/13/fused_scaled_dot_product_attention/sdpa_recomp_fwd_hf8/12603"
  attr {
    key: "Bundle_idx"
    value {
      s: "N/A"
    }
  }
  attr {
    key: "Exec_idx"
    value {
      s: "47"
    }
  }
  attr {
    key: "Op_idx"
    value {
      s: "N/A"
    }
  }
  attr {
    key: "inputTensor:0"
    value {
      s: "tensor_120  |  Sizes = [1,4,4,16,128]  |  hfloat8  |  expBias = 7, scale = 1  |    |  ModelParam = 0  |  strides = [32768, 32768, 8192, 2048, 128, 1]  |  data = 0, sizeInBytes = 32768  |  "
    }
  }
  attr {
    key: "outputTensor:0"
    value {
      s: "tensor_121_id_120911_module/model/13/fused_scaled_dot_product_attention/dequant_output/aten__view  |  Sizes = [1,16,16,128]  |  hfloat8  |  expBias = 7, scale = 1  |    |  ModelParam = 0  |  strides = [32768, 32768, 2048, 128, 1]  |  data = 0, sizeInBytes = 32768  |  "
    }
  }
}
node {
  name: "tensor_122_odule/model/13/fused_scaled_dot_product_attention/dequant_output/placeholder/1"
  op: "Placeholder"
  attr {
    key: "dtype"
    value {
      type: DT_BFLOAT16
    }
  }
  attr {
    key: "shape"
    value {
      shape {
        dim {
          size: 1
        }
        dim {
          size: 1
        }
        dim {
          size: 1
        }
        dim {
          size: 1
        }
        dim {
          size: 1
        }
      }
    }
  }
  attr {
    key: "synDataType"
    value {
      s: "bf16"
    }
  }
}
node {
  name: "module/model/13/fused_scaled_dot_product_attention/dequant_output/convert_from_fp8_bf16/12605"
  op: "convert_from_fp8_bf16"
  input: "module/model/13/fused_scaled_dot_product_attention/dequant_output/reshape/12604"
  input: "tensor_122_odule/model/13/fused_scaled_dot_product_attention/dequant_output/placeholder/1"
  attr {
    key: "Bundle_idx"
    value {
      s: "N/A"
    }
  }
  attr {
    key: "Exec_idx"
    value {
      s: "48"
    }
  }
  attr {
    key: "Op_idx"
    value {
      s: "N/A"
    }
  }
  attr {
    key: "inputTensor:0"
    value {
      s: "tensor_121_id_120911_module/model/13/fused_scaled_dot_product_attention/dequant_output/aten__view  |  Sizes = [1,16,16,128]  |  hfloat8  |  expBias = 7, scale = 1  |    |  ModelParam = 0  |  strides = [32768, 32768, 2048, 128, 1]  |  data = 0, sizeInBytes = 32768  |  "
    }
  }
  attr {
    key: "inputTensor:1"
    value {
      s: "tensor_122_odule/model/13/fused_scaled_dot_product_attention/dequant_output/placeholder/1  |  Sizes = [1]  |  bf16  |  expBias = 0, scale = 1  |    |  ModelParam = 0  |  strides = [2, 2]  |  data = 0x5566ca653ec8, sizeInBytes = 2  |  buffer = 0.0625  |  isPersistent  |  userMemorySection(type=Persistent, id=43)  |  isStaticParam  |  bufferDtype=bf16  |  "
    }
  }
  attr {
    key: "outputTensor:0"
    value {
      s: "tensor_124  |  Sizes = [1,16,16,128]  |  bf16  |  expBias = 0, scale = 1  |    |  ModelParam = 0  |  strides = [65536, 65536, 4096, 256, 2]  |  data = 0, sizeInBytes = 65536  |  "
    }
  }
}
node {
  name: "module/model/13/transpose/12606"
  op: "Transpose"
  input: "module/model/13/fused_scaled_dot_product_attention/dequant_output/convert_from_fp8_bf16/12605"
  attr {
    key: "Bundle_idx"
    value {
      s: "N/A"
    }
  }
  attr {
    key: "Exec_idx"
    value {
      s: "49"
    }
  }
  attr {
    key: "Op_idx"
    value {
      s: "N/A"
    }
  }
  attr {
    key: "Parameters"
    value {
      s: "permutation: (0,2,1,3)"
    }
  }
  attr {
    key: "inputTensor:0"
    value {
      s: "tensor_124  |  Sizes = [1,16,16,128]  |  bf16  |  expBias = 0, scale = 1  |    |  ModelParam = 0  |  strides = [65536, 65536, 4096, 256, 2]  |  data = 0, sizeInBytes = 65536  |  "
    }
  }
  attr {
    key: "outputTensor:0"
    value {
      s: "tensor_125_id_120916_module/model/13/aten__transpose  |  Sizes = [1,16,16,128]  |  bf16  |  expBias = 0, scale = 1  |    |  ModelParam = 0  |  strides = [65536, 65536, 4096, 256, 2]  |  data = 0, sizeInBytes = 65536  |  "
    }
  }
}
node {
  name: "module/model/13/identity/12607"
  op: "Identity"
  input: "module/model/13/transpose/12606"
  attr {
    key: "Bundle_idx"
    value {
      s: "N/A"
    }
  }
  attr {
    key: "Exec_idx"
    value {
      s: "50"
    }
  }
  attr {
    key: "Op_idx"
    value {
      s: "N/A"
    }
  }
  attr {
    key: "inputTensor:0"
    value {
      s: "tensor_125_id_120916_module/model/13/aten__transpose  |  Sizes = [1,16,16,128]  |  bf16  |  expBias = 0, scale = 1  |    |  ModelParam = 0  |  strides = [65536, 65536, 4096, 256, 2]  |  data = 0, sizeInBytes = 65536  |  "
    }
  }
  attr {
    key: "outputTensor:0"
    value {
      s: "tensor_126_id_120918_module/model/13/aten__clone  |  Sizes = [1,16,16,128]  |  bf16  |  expBias = 0, scale = 1  |    |  ModelParam = 0  |  strides = [65536, 65536, 4096, 256, 2]  |  data = 0, sizeInBytes = 65536  |  "
    }
  }
}
node {
  name: "module/model/13/o_proj/quant_input_0/reshape/12608"
  op: "Reshape"
  input: "module/model/13/identity/12607"
  attr {
    key: "Bundle_idx"
    value {
      s: "N/A"
    }
  }
  attr {
    key: "Exec_idx"
    value {
      s: "51"
    }
  }
  attr {
    key: "Op_idx"
    value {
      s: "N/A"
    }
  }
  attr {
    key: "inputTensor:0"
    value {
      s: "tensor_126_id_120918_module/model/13/aten__clone  |  Sizes = [1,16,16,128]  |  bf16  |  expBias = 0, scale = 1  |    |  ModelParam = 0  |  strides = [65536, 65536, 4096, 256, 2]  |  data = 0, sizeInBytes = 65536  |  "
    }
  }
  attr {
    key: "outputTensor:0"
    value {
      s: "tensor_127_id_120921_module/model/13/o_proj/quant_input_0/aten__view  |  Sizes = [1,16,2048]  |  bf16  |  expBias = 0, scale = 1  |    |  ModelParam = 0  |  strides = [65536, 65536, 4096, 2]  |  data = 0, sizeInBytes = 65536  |  "
    }
  }
}
node {
  name: "module/model/13/constant_hf8/12554"
  op: "constant_hf8"
  attr {
    key: "Bundle_idx"
    value {
      s: "N/A"
    }
  }
  attr {
    key: "Exec_idx"
    value {
      s: "52"
    }
  }
  attr {
    key: "Op_idx"
    value {
      s: "N/A"
    }
  }
  attr {
    key: "outputTensor:0"
    value {
      s: "tensor_5  |  Sizes = [1,4,16,128]  |  hfloat8  |  expBias = 7, scale = 1  |    |  ModelParam = 0  |  strides = [8192, 8192, 2048, 128, 1]  |  data = 0, sizeInBytes = 8192  |  isPersistent  |  userMemorySection(type=Persistent, id=6)  |  "
    }
  }
}
node {
  name: "tensor_5"
  op: "OutputTensor"
  input: "module/model/13/constant_hf8/12554"
  attr {
    key: "dtype"
    value {
      type: DT_INVALID
    }
  }
  attr {
    key: "shape"
    value {
      shape {
        dim {
          size: 128
        }
        dim {
          size: 16
        }
        dim {
          size: 4
        }
        dim {
          size: 1
        }
        dim {
          size: 1
        }
      }
    }
  }
  attr {
    key: "synDataType"
    value {
      s: "hfloat8"
    }
  }
}
node {
  name: "module/model/13/constant_hf8/12577"
  op: "constant_hf8"
  attr {
    key: "Bundle_idx"
    value {
      s: "N/A"
    }
  }
  attr {
    key: "Exec_idx"
    value {
      s: "53"
    }
  }
  attr {
    key: "Op_idx"
    value {
      s: "N/A"
    }
  }
  attr {
    key: "outputTensor:0"
    value {
      s: "tensor_52  |  Sizes = [1,4,16,128]  |  hfloat8  |  expBias = 7, scale = 1  |    |  ModelParam = 0  |  strides = [8192, 8192, 2048, 128, 1]  |  data = 0, sizeInBytes = 8192  |  isPersistent  |  userMemorySection(type=Persistent, id=20)  |  "
    }
  }
}
node {
  name: "tensor_52"
  op: "OutputTensor"
  input: "module/model/13/constant_hf8/12577"
  attr {
    key: "dtype"
    value {
      type: DT_INVALID
    }
  }
  attr {
    key: "shape"
    value {
      shape {
        dim {
          size: 128
        }
        dim {
          size: 16
        }
        dim {
          size: 4
        }
        dim {
          size: 1
        }
        dim {
          size: 1
        }
      }
    }
  }
  attr {
    key: "synDataType"
    value {
      s: "hfloat8"
    }
  }
}
node {
  name: "tensor_128_odule/model/13/o_proj/quant_input_0/placeholder/1"
  op: "Placeholder"
  attr {
    key: "dtype"
    value {
      type: DT_BFLOAT16
    }
  }
  attr {
    key: "shape"
    value {
      shape {
        dim {
          size: 1
        }
        dim {
          size: 1
        }
        dim {
          size: 1
        }
        dim {
          size: 1
        }
        dim {
          size: 1
        }
      }
    }
  }
  attr {
    key: "synDataType"
    value {
      s: "bf16"
    }
  }
}
node {
  name: "module/model/13/o_proj/quant_input_0/convert_to_fp8_bf16/12609"
  op: "convert_to_fp8_bf16"
  input: "module/model/13/o_proj/quant_input_0/reshape/12608"
  input: "tensor_128_odule/model/13/o_proj/quant_input_0/placeholder/1"
  attr {
    key: "Bundle_idx"
    value {
      s: "N/A"
    }
  }
  attr {
    key: "Exec_idx"
    value {
      s: "54"
    }
  }
  attr {
    key: "Op_idx"
    value {
      s: "N/A"
    }
  }
  attr {
    key: "inputTensor:0"
    value {
      s: "tensor_127_id_120921_module/model/13/o_proj/quant_input_0/aten__view  |  Sizes = [1,16,2048]  |  bf16  |  expBias = 0, scale = 1  |    |  ModelParam = 0  |  strides = [65536, 65536, 4096, 2]  |  data = 0, sizeInBytes = 65536  |  "
    }
  }
  attr {
    key: "inputTensor:1"
    value {
      s: "tensor_128_odule/model/13/o_proj/quant_input_0/placeholder/1  |  Sizes = [1]  |  bf16  |  expBias = 0, scale = 1  |    |  ModelParam = 0  |  strides = [2, 2]  |  data = 0x5566ca653b38, sizeInBytes = 2  |  buffer = 16  |  isPersistent  |  userMemorySection(type=Persistent, id=44)  |  isStaticParam  |  bufferDtype=bf16  |  "
    }
  }
  attr {
    key: "outputTensor:0"
    value {
      s: "tensor_131  |  Sizes = [1,16,2048]  |  hfloat8  |  expBias = 7, scale = 1  |    |  ModelParam = 0  |  strides = [32768, 32768, 2048, 1]  |  data = 0, sizeInBytes = 32768  |  "
    }
  }
}
node {
  name: "module/model/13/memcpy/12575"
  op: "Memcpy"
  input: "module/model/13/quant_input_0/convert_to_fp8_bf16/12574"
  input: "^module/model/13/constant_hf8/12554"
  attr {
    key: "Bundle_idx"
    value {
      s: "N/A"
    }
  }
  attr {
    key: "Exec_idx"
    value {
      s: "55"
    }
  }
  attr {
    key: "Op_idx"
    value {
      s: "N/A"
    }
  }
  attr {
    key: "inputTensor:0"
    value {
      s: "tensor_45  |  Sizes = [1,4,16,128]  |  hfloat8  |  expBias = 7, scale = 1  |    |  ModelParam = 0  |  strides = [8192, 8192, 2048, 128, 1]  |  data = 0, sizeInBytes = 8192  |  "
    }
  }
  attr {
    key: "outputTensor:0"
    value {
      s: "tensor_46  |  Sizes = [1,4,16,128]  |  hfloat8  |  expBias = 7, scale = 1  |    |  ModelParam = 0  |  strides = [8192, 8192, 2048, 128, 1]  |  data = 0, sizeInBytes = 8192  |  isPersistent  |  userMemorySection(type=Persistent, id=6)  |  "
    }
  }
}
node {
  name: "tensor_46"
  op: "OutputTensor"
  input: "module/model/13/memcpy/12575"
  attr {
    key: "dtype"
    value {
      type: DT_INVALID
    }
  }
  attr {
    key: "shape"
    value {
      shape {
        dim {
          size: 128
        }
        dim {
          size: 16
        }
        dim {
          size: 4
        }
        dim {
          size: 1
        }
        dim {
          size: 1
        }
      }
    }
  }
  attr {
    key: "synDataType"
    value {
      s: "hfloat8"
    }
  }
}
node {
  name: "module/model/13/memcpy/12583"
  op: "Memcpy"
  input: "module/model/13/quant_input_0/convert_to_fp8_bf16/12582"
  input: "^module/model/13/constant_hf8/12577"
  attr {
    key: "Bundle_idx"
    value {
      s: "N/A"
    }
  }
  attr {
    key: "Exec_idx"
    value {
      s: "56"
    }
  }
  attr {
    key: "Op_idx"
    value {
      s: "N/A"
    }
  }
  attr {
    key: "inputTensor:0"
    value {
      s: "tensor_68  |  Sizes = [1,4,16,128]  |  hfloat8  |  expBias = 7, scale = 1  |    |  ModelParam = 0  |  strides = [8192, 8192, 2048, 128, 1]  |  data = 0, sizeInBytes = 8192  |  "
    }
  }
  attr {
    key: "outputTensor:0"
    value {
      s: "tensor_69  |  Sizes = [1,4,16,128]  |  hfloat8  |  expBias = 7, scale = 1  |    |  ModelParam = 0  |  strides = [8192, 8192, 2048, 128, 1]  |  data = 0, sizeInBytes = 8192  |  isPersistent  |  userMemorySection(type=Persistent, id=20)  |  "
    }
  }
}
node {
  name: "tensor_69"
  op: "OutputTensor"
  input: "module/model/13/memcpy/12583"
  attr {
    key: "dtype"
    value {
      type: DT_INVALID
    }
  }
  attr {
    key: "shape"
    value {
      shape {
        dim {
          size: 128
        }
        dim {
          size: 16
        }
        dim {
          size: 4
        }
        dim {
          size: 1
        }
        dim {
          size: 1
        }
      }
    }
  }
  attr {
    key: "synDataType"
    value {
      s: "hfloat8"
    }
  }
}
node {
  name: "tensor_132_odule/model/13/o_proj/placeholder/1"
  op: "Placeholder"
  attr {
    key: "dtype"
    value {
      type: DT_INVALID
    }
  }
  attr {
    key: "shape"
    value {
      shape {
        dim {
          size: 4096
        }
        dim {
          size: 2048
        }
        dim {
          size: 1
        }
        dim {
          size: 1
        }
        dim {
          size: 1
        }
      }
    }
  }
  attr {
    key: "synDataType"
    value {
      s: "hfloat8"
    }
  }
}
node {
  name: "tensor_133_odule/model/13/o_proj/placeholder/2"
  op: "Placeholder"
  attr {
    key: "dtype"
    value {
      type: DT_BFLOAT16
    }
  }
  attr {
    key: "shape"
    value {
      shape {
        dim {
          size: 1
        }
        dim {
          size: 1
        }
        dim {
          size: 1
        }
        dim {
          size: 1
        }
        dim {
          size: 1
        }
      }
    }
  }
  attr {
    key: "synDataType"
    value {
      s: "bf16"
    }
  }
}
node {
  name: "tensor_134_odule/model/13/o_proj/placeholder/3"
  op: "Placeholder"
  attr {
    key: "dtype"
    value {
      type: DT_BFLOAT16
    }
  }
  attr {
    key: "shape"
    value {
      shape {
        dim {
          size: 1
        }
        dim {
          size: 1
        }
        dim {
          size: 1
        }
        dim {
          size: 1
        }
        dim {
          size: 1
        }
      }
    }
  }
  attr {
    key: "synDataType"
    value {
      s: "bf16"
    }
  }
}
node {
  name: "module/model/13/o_proj/fp8_gemm_bf16/12610"
  op: "fp8_gemm_bf16"
  input: "module/model/13/o_proj/quant_input_0/convert_to_fp8_bf16/12609"
  input: "tensor_132_odule/model/13/o_proj/placeholder/1"
  input: "tensor_133_odule/model/13/o_proj/placeholder/2"
  input: "tensor_134_odule/model/13/o_proj/placeholder/3"
  input: "unused_port"
  input: "unused_port"
  input: "unused_port"
  attr {
    key: "Bundle_idx"
    value {
      s: "N/A"
    }
  }
  attr {
    key: "Exec_idx"
    value {
      s: "57"
    }
  }
  attr {
    key: "Op_idx"
    value {
      s: "N/A"
    }
  }
  attr {
    key: "inputTensor:0"
    value {
      s: "tensor_131  |  Sizes = [1,16,2048]  |  hfloat8  |  expBias = 7, scale = 1  |    |  ModelParam = 0  |  strides = [32768, 32768, 2048, 1]  |  data = 0, sizeInBytes = 32768  |  "
    }
  }
  attr {
    key: "inputTensor:1"
    value {
      s: "tensor_132_odule/model/13/o_proj/placeholder/1  |  Sizes = [2048,4096]  |  hfloat8  |  expBias = 7, scale = 1  |    |  ModelParam = 0  |  strides = [8388608, 4096, 1]  |  data = 0, sizeInBytes = 8388608  |  isPersistent  |  userMemorySection(type=Persistent, id=45)  |  "
    }
  }
  attr {
    key: "inputTensor:2"
    value {
      s: "tensor_133_odule/model/13/o_proj/placeholder/2  |  Sizes = [1]  |  bf16  |  expBias = 0, scale = 1  |    |  ModelParam = 0  |  strides = [2, 2]  |  data = 0x5566ca653360, sizeInBytes = 2  |  buffer = 0.0625  |  isPersistent  |  userMemorySection(type=Persistent, id=46)  |  isStaticParam  |  bufferDtype=bf16  |  "
    }
  }
  attr {
    key: "inputTensor:3"
    value {
      s: "tensor_134_odule/model/13/o_proj/placeholder/3  |  Sizes = [1]  |  bf16  |  expBias = 0, scale = 1  |    |  ModelParam = 0  |  strides = [2, 2]  |  data = 0x5566ca653b18, sizeInBytes = 2  |  buffer = 0.00390625  |  isPersistent  |  userMemorySection(type=Persistent, id=47)  |  isStaticParam  |  bufferDtype=bf16  |  "
    }
  }
  attr {
    key: "outputTensor:0"
    value {
      s: "tensor_136  |  Sizes = [1,16,4096]  |  bf16  |  expBias = 0, scale = 1  |    |  ModelParam = 0  |  strides = [131072, 131072, 8192, 2]  |  data = 0, sizeInBytes = 131072  |  isPersistent  |  userMemorySection(type=Persistent, id=49)  |  "
    }
  }
}
node {
  name: "tensor_136"
  op: "OutputTensor"
  input: "module/model/13/o_proj/fp8_gemm_bf16/12610"
  attr {
    key: "dtype"
    value {
      type: DT_BFLOAT16
    }
  }
  attr {
    key: "shape"
    value {
      shape {
        dim {
          size: 4096
        }
        dim {
          size: 16
        }
        dim {
          size: 1
        }
        dim {
          size: 1
        }
        dim {
          size: 1
        }
      }
    }
  }
  attr {
    key: "synDataType"
    value {
      s: "bf16"
    }
  }
}
