node {
  name: "tensor_7_odule/model/18/placeholder/0"
  op: "Placeholder"
  attr {
    key: "dtype"
    value {
      type: DT_INT32
    }
  }
  attr {
    key: "shape"
    value {
      shape {
        dim {
          size: 189
        }
        dim {
          size: 1
        }
        dim {
          size: 1
        }
        dim {
          size: 1
        }
        dim {
          size: 1
        }
      }
    }
  }
  attr {
    key: "synDataType"
    value {
      s: "int32"
    }
  }
}
node {
  name: "module/model/18/expand_dims/12502"
  op: "ExpandDims"
  input: "tensor_7_odule/model/18/placeholder/0"
  attr {
    key: "Bundle_idx"
    value {
      s: "N/A"
    }
  }
  attr {
    key: "Exec_idx"
    value {
      s: "0"
    }
  }
  attr {
    key: "Op_idx"
    value {
      s: "N/A"
    }
  }
  attr {
    key: "inputTensor:0"
    value {
      s: "tensor_7_odule/model/18/placeholder/0  |  Sizes = [189]  |  int32  |  expBias = 0, scale = 1  |    |  ModelParam = 0  |  strides = [756, 4]  |  data = 0, sizeInBytes = 756  |  isPersistent  |  userMemorySection(type=Persistent, id=7)  |  "
    }
  }
  attr {
    key: "outputTensor:0"
    value {
      s: "tensor_8_id_124487_module/model/18/aten__unsqueeze/1  |  Sizes = [1,189]  |  int32  |  expBias = 0, scale = 1  |    |  ModelParam = 0  |  strides = [756, 756, 4]  |  data = 0, sizeInBytes = 756  |  "
    }
  }
}
node {
  name: "tensor_73_odule/model/18/fused_scaled_dot_product_attention/placeholder/0"
  op: "Placeholder"
  attr {
    key: "dtype"
    value {
      type: DT_BFLOAT16
    }
  }
  attr {
    key: "shape"
    value {
      shape {
        dim {
          size: 189
        }
        dim {
          size: 189
        }
        dim {
          size: 1
        }
        dim {
          size: 1
        }
        dim {
          size: 1
        }
      }
    }
  }
  attr {
    key: "synDataType"
    value {
      s: "bf16"
    }
  }
}
node {
  name: "module/model/18/fused_scaled_dot_product_attention/expand_dims/12532"
  op: "ExpandDims"
  input: "tensor_73_odule/model/18/fused_scaled_dot_product_attention/placeholder/0"
  attr {
    key: "Bundle_idx"
    value {
      s: "N/A"
    }
  }
  attr {
    key: "Exec_idx"
    value {
      s: "1"
    }
  }
  attr {
    key: "Op_idx"
    value {
      s: "N/A"
    }
  }
  attr {
    key: "inputTensor:0"
    value {
      s: "tensor_73_odule/model/18/fused_scaled_dot_product_attention/placeholder/0  |  Sizes = [189,189]  |  bf16  |  expBias = 0, scale = 1  |    |  ModelParam = 0  |  strides = [71442, 378, 2]  |  data = 0, sizeInBytes = 71442  |  isPersistent  |  userMemorySection(type=Persistent, id=29)  |  "
    }
  }
  attr {
    key: "outputTensor:0"
    value {
      s: "tensor_74_id_124488_module/model/18/fused_scaled_dot_product_attention/aten__unsqueeze  |  Sizes = [1,189,189]  |  bf16  |  expBias = 0, scale = 1  |    |  ModelParam = 0  |  strides = [71442, 71442, 378, 2]  |  data = 0, sizeInBytes = 71442  |  "
    }
  }
}
node {
  name: "module/model/18/fused_scaled_dot_product_attention/expand_dims/12533"
  op: "ExpandDims"
  input: "module/model/18/fused_scaled_dot_product_attention/expand_dims/12532"
  attr {
    key: "Bundle_idx"
    value {
      s: "N/A"
    }
  }
  attr {
    key: "Exec_idx"
    value {
      s: "2"
    }
  }
  attr {
    key: "Op_idx"
    value {
      s: "N/A"
    }
  }
  attr {
    key: "inputTensor:0"
    value {
      s: "tensor_74_id_124488_module/model/18/fused_scaled_dot_product_attention/aten__unsqueeze  |  Sizes = [1,189,189]  |  bf16  |  expBias = 0, scale = 1  |    |  ModelParam = 0  |  strides = [71442, 71442, 378, 2]  |  data = 0, sizeInBytes = 71442  |  "
    }
  }
  attr {
    key: "outputTensor:0"
    value {
      s: "tensor_75_id_124489_module/model/18/fused_scaled_dot_product_attention/aten__unsqueeze  |  Sizes = [1,1,189,189]  |  bf16  |  expBias = 0, scale = 1  |    |  ModelParam = 0  |  strides = [71442, 71442, 71442, 378, 2]  |  data = 0, sizeInBytes = 71442  |  "
    }
  }
}
node {
  name: "module/model/18/expand_dims/12542"
  op: "ExpandDims"
  input: "tensor_7_odule/model/18/placeholder/0"
  attr {
    key: "Bundle_idx"
    value {
      s: "N/A"
    }
  }
  attr {
    key: "Exec_idx"
    value {
      s: "3"
    }
  }
  attr {
    key: "Op_idx"
    value {
      s: "N/A"
    }
  }
  attr {
    key: "inputTensor:0"
    value {
      s: "tensor_7_odule/model/18/placeholder/0  |  Sizes = [189]  |  int32  |  expBias = 0, scale = 1  |    |  ModelParam = 0  |  strides = [756, 4]  |  data = 0, sizeInBytes = 756  |  isPersistent  |  userMemorySection(type=Persistent, id=7)  |  "
    }
  }
  attr {
    key: "outputTensor:0"
    value {
      s: "tensor_90_id_124487_module/model/18/aten__unsqueeze  |  Sizes = [1,189]  |  int32  |  expBias = 0, scale = 1  |    |  ModelParam = 0  |  strides = [756, 756, 4]  |  data = 0, sizeInBytes = 756  |  "
    }
  }
}
node {
  name: "tensor_0_odule/model/17/placeholder/0"
  op: "Placeholder"
  attr {
    key: "dtype"
    value {
      type: DT_BFLOAT16
    }
  }
  attr {
    key: "shape"
    value {
      shape {
        dim {
          size: 8192
        }
        dim {
          size: 189
        }
        dim {
          size: 1
        }
        dim {
          size: 1
        }
        dim {
          size: 1
        }
      }
    }
  }
  attr {
    key: "synDataType"
    value {
      s: "bf16"
    }
  }
}
node {
  name: "tensor_1_odule/model/17/placeholder/1"
  op: "Placeholder"
  attr {
    key: "dtype"
    value {
      type: DT_BFLOAT16
    }
  }
  attr {
    key: "shape"
    value {
      shape {
        dim {
          size: 8192
        }
        dim {
          size: 189
        }
        dim {
          size: 1
        }
        dim {
          size: 1
        }
        dim {
          size: 1
        }
      }
    }
  }
  attr {
    key: "synDataType"
    value {
      s: "bf16"
    }
  }
}
node {
  name: "module/model/17/add_fwd_bf16/12500"
  op: "add_fwd_bf16"
  input: "tensor_0_odule/model/17/placeholder/0"
  input: "tensor_1_odule/model/17/placeholder/1"
  attr {
    key: "Bundle_idx"
    value {
      s: "N/A"
    }
  }
  attr {
    key: "Exec_idx"
    value {
      s: "4"
    }
  }
  attr {
    key: "Op_idx"
    value {
      s: "N/A"
    }
  }
  attr {
    key: "inputTensor:0"
    value {
      s: "tensor_0_odule/model/17/placeholder/0  |  Sizes = [1,189,8192]  |  bf16  |  expBias = 0, scale = 1  |    |  ModelParam = 0  |  strides = [3096576, 3096576, 16384, 2]  |  data = 0, sizeInBytes = 3096576  |  isPersistent  |  userMemorySection(type=Persistent, id=4)  |  "
    }
  }
  attr {
    key: "inputTensor:1"
    value {
      s: "tensor_1_odule/model/17/placeholder/1  |  Sizes = [1,189,8192]  |  bf16  |  expBias = 0, scale = 1  |    |  ModelParam = 0  |  strides = [3096576, 3096576, 16384, 2]  |  data = 0, sizeInBytes = 3096576  |  isPersistent  |  userMemorySection(type=Persistent, id=5)  |  "
    }
  }
  attr {
    key: "outputTensor:0"
    value {
      s: "tensor_2  |  Sizes = [1,189,8192]  |  bf16  |  expBias = 0, scale = 1  |    |  ModelParam = 0  |  strides = [3096576, 3096576, 16384, 2]  |  data = 0, sizeInBytes = 3096576  |  isPersistent  |  userMemorySection(type=Persistent, id=4)  |  "
    }
  }
}
node {
  name: "tensor_24_odule/model/18/input_layernorm/placeholder/1"
  op: "Placeholder"
  attr {
    key: "dtype"
    value {
      type: DT_BFLOAT16
    }
  }
  attr {
    key: "shape"
    value {
      shape {
        dim {
          size: 8192
        }
        dim {
          size: 1
        }
        dim {
          size: 1
        }
        dim {
          size: 1
        }
        dim {
          size: 1
        }
      }
    }
  }
  attr {
    key: "synDataType"
    value {
      s: "bf16"
    }
  }
}
node {
  name: "module/model/18/input_layernorm/rms_norm_ex_fwd_bf16/12515"
  op: "rms_norm_ex_fwd_bf16"
  input: "module/model/17/add_fwd_bf16/12500"
  input: "tensor_24_odule/model/18/input_layernorm/placeholder/1"
  attr {
    key: "Bundle_idx"
    value {
      s: "N/A"
    }
  }
  attr {
    key: "Exec_idx"
    value {
      s: "5"
    }
  }
  attr {
    key: "Op_idx"
    value {
      s: "N/A"
    }
  }
  attr {
    key: "inputTensor:0"
    value {
      s: "tensor_2  |  Sizes = [1,189,8192]  |  bf16  |  expBias = 0, scale = 1  |    |  ModelParam = 0  |  strides = [3096576, 3096576, 16384, 2]  |  data = 0, sizeInBytes = 3096576  |  isPersistent  |  userMemorySection(type=Persistent, id=4)  |  "
    }
  }
  attr {
    key: "inputTensor:1"
    value {
      s: "tensor_24_odule/model/18/input_layernorm/placeholder/1  |  Sizes = [8192]  |  bf16  |  expBias = 0, scale = 1  |    |  ModelParam = 0  |  strides = [16384, 2]  |  data = 0, sizeInBytes = 16384  |  isPersistent  |  userMemorySection(type=Persistent, id=11)  |  "
    }
  }
  attr {
    key: "outputTensor:0"
    value {
      s: "tensor_27  |  Sizes = [1,189,8192]  |  bf16  |  expBias = 0, scale = 1  |    |  ModelParam = 0  |  strides = [3096576, 3096576, 16384, 2]  |  data = 0, sizeInBytes = 3096576  |  "
    }
  }
  attr {
    key: "outputTensor:1"
    value {
      s: "tensor_28  |  Sizes = [1,189,1]  |  float32  |  expBias = 0, scale = 1  |    |  ModelParam = 0  |  strides = [756, 756, 4, 4]  |  data = 0, sizeInBytes = 756  |  "
    }
  }
}
node {
  name: "tensor_28"
  op: "OutputTensor"
  input: "module/model/18/input_layernorm/rms_norm_ex_fwd_bf16/12515"
  attr {
    key: "dtype"
    value {
      type: DT_FLOAT
    }
  }
  attr {
    key: "shape"
    value {
      shape {
        dim {
          size: 1
        }
        dim {
          size: 189
        }
        dim {
          size: 1
        }
        dim {
          size: 1
        }
        dim {
          size: 1
        }
      }
    }
  }
  attr {
    key: "synDataType"
    value {
      s: "float32"
    }
  }
}
node {
  name: "tensor_29_odule/model/18/k_proj/quant_input_0/placeholder/1"
  op: "Placeholder"
  attr {
    key: "dtype"
    value {
      type: DT_BFLOAT16
    }
  }
  attr {
    key: "shape"
    value {
      shape {
        dim {
          size: 1
        }
        dim {
          size: 1
        }
        dim {
          size: 1
        }
        dim {
          size: 1
        }
        dim {
          size: 1
        }
      }
    }
  }
  attr {
    key: "synDataType"
    value {
      s: "bf16"
    }
  }
}
node {
  name: "module/model/18/k_proj/quant_input_0/convert_to_fp8_bf16/12516"
  op: "convert_to_fp8_bf16"
  input: "module/model/18/input_layernorm/rms_norm_ex_fwd_bf16/12515"
  input: "tensor_29_odule/model/18/k_proj/quant_input_0/placeholder/1"
  attr {
    key: "Bundle_idx"
    value {
      s: "N/A"
    }
  }
  attr {
    key: "Exec_idx"
    value {
      s: "6"
    }
  }
  attr {
    key: "Op_idx"
    value {
      s: "N/A"
    }
  }
  attr {
    key: "inputTensor:0"
    value {
      s: "tensor_27  |  Sizes = [1,189,8192]  |  bf16  |  expBias = 0, scale = 1  |    |  ModelParam = 0  |  strides = [3096576, 3096576, 16384, 2]  |  data = 0, sizeInBytes = 3096576  |  "
    }
  }
  attr {
    key: "inputTensor:1"
    value {
      s: "tensor_29_odule/model/18/k_proj/quant_input_0/placeholder/1  |  Sizes = [1]  |  bf16  |  expBias = 0, scale = 1  |    |  ModelParam = 0  |  strides = [2, 2]  |  data = 0x55db7e2aad00, sizeInBytes = 2  |  buffer = 1  |  isPersistent  |  userMemorySection(type=Persistent, id=12)  |  isStaticParam  |  bufferDtype=bf16  |  "
    }
  }
  attr {
    key: "outputTensor:0"
    value {
      s: "tensor_32  |  Sizes = [1,189,8192]  |  hfloat8  |  expBias = 7, scale = 1  |    |  ModelParam = 0  |  strides = [1548288, 1548288, 8192, 1]  |  data = 0, sizeInBytes = 1548288  |  "
    }
  }
}
node {
  name: "tensor_9_odule/model/18/rotary_emb/placeholder/0"
  op: "Placeholder"
  attr {
    key: "dtype"
    value {
      type: DT_BFLOAT16
    }
  }
  attr {
    key: "shape"
    value {
      shape {
        dim {
          size: 128
        }
        dim {
          size: 131072
        }
        dim {
          size: 1
        }
        dim {
          size: 1
        }
        dim {
          size: 1
        }
      }
    }
  }
  attr {
    key: "synDataType"
    value {
      s: "bf16"
    }
  }
}
node {
  name: "module/model/18/rotary_emb/slice/12503"
  op: "Slice"
  input: "tensor_9_odule/model/18/rotary_emb/placeholder/0"
  attr {
    key: "Bundle_idx"
    value {
      s: "N/A"
    }
  }
  attr {
    key: "Exec_idx"
    value {
      s: "7"
    }
  }
  attr {
    key: "Op_idx"
    value {
      s: "N/A"
    }
  }
  attr {
    key: "inputTensor:0"
    value {
      s: "tensor_9_odule/model/18/rotary_emb/placeholder/0  |  Sizes = [131072,128]  |  bf16  |  expBias = 0, scale = 1  |    |  ModelParam = 0  |  strides = [33554432, 256, 2]  |  data = 0, sizeInBytes = 33554432  |  isPersistent  |  userMemorySection(type=Persistent, id=8)  |  "
    }
  }
  attr {
    key: "outputTensor:0"
    value {
      s: "tensor_10_id_124605_module/model/18/rotary_emb/aten__slice  |  Sizes = [189,128]  |  bf16  |  expBias = 0, scale = 1  |    |  ModelParam = 0  |  strides = [48384, 256, 2]  |  data = 0, sizeInBytes = 48384  |  "
    }
  }
}
node {
  name: "tensor_11_odule/model/18/rotary_emb/placeholder/1"
  op: "Placeholder"
  attr {
    key: "dtype"
    value {
      type: DT_FLOAT
    }
  }
  attr {
    key: "shape"
    value {
      shape {
        dim {
          size: 1
        }
        dim {
          size: 1
        }
        dim {
          size: 1
        }
        dim {
          size: 1
        }
        dim {
          size: 1
        }
      }
    }
  }
  attr {
    key: "synDataType"
    value {
      s: "float32"
    }
  }
}
node {
  name: "module/model/18/rotary_emb/cast_f32_to_bf16/12504"
  op: "cast_f32_to_bf16"
  input: "tensor_11_odule/model/18/rotary_emb/placeholder/1"
  attr {
    key: "Bundle_idx"
    value {
      s: "N/A"
    }
  }
  attr {
    key: "Exec_idx"
    value {
      s: "8"
    }
  }
  attr {
    key: "Op_idx"
    value {
      s: "N/A"
    }
  }
  attr {
    key: "inputTensor:0"
    value {
      s: "tensor_11_odule/model/18/rotary_emb/placeholder/1  |  Sizes = [1]  |  float32  |  expBias = 0, scale = 1  |    |  ModelParam = 0  |  strides = [4, 4]  |  data = 0, sizeInBytes = 4  |  isPersistent  |  userMemorySection(type=Persistent, id=9)  |  "
    }
  }
  attr {
    key: "outputTensor:0"
    value {
      s: "tensor_13  |  Sizes = [1]  |  bf16  |  expBias = 0, scale = 1  |    |  ModelParam = 0  |  strides = [2, 2]  |  data = 0, sizeInBytes = 2  |  "
    }
  }
}
node {
  name: "tensor_17_odule/model/18/rotary_emb/placeholder/0"
  op: "Placeholder"
  attr {
    key: "dtype"
    value {
      type: DT_BFLOAT16
    }
  }
  attr {
    key: "shape"
    value {
      shape {
        dim {
          size: 128
        }
        dim {
          size: 131072
        }
        dim {
          size: 1
        }
        dim {
          size: 1
        }
        dim {
          size: 1
        }
      }
    }
  }
  attr {
    key: "synDataType"
    value {
      s: "bf16"
    }
  }
}
node {
  name: "module/model/18/rotary_emb/slice/12509"
  op: "Slice"
  input: "tensor_17_odule/model/18/rotary_emb/placeholder/0"
  attr {
    key: "Bundle_idx"
    value {
      s: "N/A"
    }
  }
  attr {
    key: "Exec_idx"
    value {
      s: "9"
    }
  }
  attr {
    key: "Op_idx"
    value {
      s: "N/A"
    }
  }
  attr {
    key: "inputTensor:0"
    value {
      s: "tensor_17_odule/model/18/rotary_emb/placeholder/0  |  Sizes = [131072,128]  |  bf16  |  expBias = 0, scale = 1  |    |  ModelParam = 0  |  strides = [33554432, 256, 2]  |  data = 0, sizeInBytes = 33554432  |  isPersistent  |  userMemorySection(type=Persistent, id=10)  |  "
    }
  }
  attr {
    key: "outputTensor:0"
    value {
      s: "tensor_18_id_124609_module/model/18/rotary_emb/aten__slice  |  Sizes = [189,128]  |  bf16  |  expBias = 0, scale = 1  |    |  ModelParam = 0  |  strides = [48384, 256, 2]  |  data = 0, sizeInBytes = 48384  |  "
    }
  }
}
node {
  name: "module/model/18/rotary_emb/cast_f32_to_bf16/12510"
  op: "cast_f32_to_bf16"
  input: "tensor_11_odule/model/18/rotary_emb/placeholder/1"
  attr {
    key: "Bundle_idx"
    value {
      s: "N/A"
    }
  }
  attr {
    key: "Exec_idx"
    value {
      s: "10"
    }
  }
  attr {
    key: "Op_idx"
    value {
      s: "N/A"
    }
  }
  attr {
    key: "inputTensor:0"
    value {
      s: "tensor_11_odule/model/18/rotary_emb/placeholder/1  |  Sizes = [1]  |  float32  |  expBias = 0, scale = 1  |    |  ModelParam = 0  |  strides = [4, 4]  |  data = 0, sizeInBytes = 4  |  isPersistent  |  userMemorySection(type=Persistent, id=9)  |  "
    }
  }
  attr {
    key: "outputTensor:0"
    value {
      s: "tensor_20  |  Sizes = [1]  |  bf16  |  expBias = 0, scale = 1  |    |  ModelParam = 0  |  strides = [2, 2]  |  data = 0, sizeInBytes = 2  |  "
    }
  }
}
node {
  name: "tensor_33_odule/model/18/k_proj/placeholder/1"
  op: "Placeholder"
  attr {
    key: "dtype"
    value {
      type: DT_INVALID
    }
  }
  attr {
    key: "shape"
    value {
      shape {
        dim {
          size: 256
        }
        dim {
          size: 8192
        }
        dim {
          size: 1
        }
        dim {
          size: 1
        }
        dim {
          size: 1
        }
      }
    }
  }
  attr {
    key: "synDataType"
    value {
      s: "hfloat8"
    }
  }
}
node {
  name: "tensor_34_odule/model/18/k_proj/placeholder/2"
  op: "Placeholder"
  attr {
    key: "dtype"
    value {
      type: DT_BFLOAT16
    }
  }
  attr {
    key: "shape"
    value {
      shape {
        dim {
          size: 1
        }
        dim {
          size: 1
        }
        dim {
          size: 1
        }
        dim {
          size: 1
        }
        dim {
          size: 1
        }
      }
    }
  }
  attr {
    key: "synDataType"
    value {
      s: "bf16"
    }
  }
}
node {
  name: "tensor_35_odule/model/18/k_proj/placeholder/3"
  op: "Placeholder"
  attr {
    key: "dtype"
    value {
      type: DT_BFLOAT16
    }
  }
  attr {
    key: "shape"
    value {
      shape {
        dim {
          size: 1
        }
        dim {
          size: 1
        }
        dim {
          size: 1
        }
        dim {
          size: 1
        }
        dim {
          size: 1
        }
      }
    }
  }
  attr {
    key: "synDataType"
    value {
      s: "bf16"
    }
  }
}
node {
  name: "module/model/18/k_proj/fp8_gemm_bf16/12517"
  op: "fp8_gemm_bf16"
  input: "module/model/18/k_proj/quant_input_0/convert_to_fp8_bf16/12516"
  input: "tensor_33_odule/model/18/k_proj/placeholder/1"
  input: "tensor_34_odule/model/18/k_proj/placeholder/2"
  input: "tensor_35_odule/model/18/k_proj/placeholder/3"
  input: "unused_port"
  input: "unused_port"
  input: "unused_port"
  attr {
    key: "Bundle_idx"
    value {
      s: "N/A"
    }
  }
  attr {
    key: "Exec_idx"
    value {
      s: "11"
    }
  }
  attr {
    key: "Op_idx"
    value {
      s: "N/A"
    }
  }
  attr {
    key: "inputTensor:0"
    value {
      s: "tensor_32  |  Sizes = [1,189,8192]  |  hfloat8  |  expBias = 7, scale = 1  |    |  ModelParam = 0  |  strides = [1548288, 1548288, 8192, 1]  |  data = 0, sizeInBytes = 1548288  |  "
    }
  }
  attr {
    key: "inputTensor:1"
    value {
      s: "tensor_33_odule/model/18/k_proj/placeholder/1  |  Sizes = [8192,256]  |  hfloat8  |  expBias = 7, scale = 1  |    |  ModelParam = 0  |  strides = [2097152, 256, 1]  |  data = 0, sizeInBytes = 2097152  |  isPersistent  |  userMemorySection(type=Persistent, id=13)  |  "
    }
  }
  attr {
    key: "inputTensor:2"
    value {
      s: "tensor_34_odule/model/18/k_proj/placeholder/2  |  Sizes = [1]  |  bf16  |  expBias = 0, scale = 1  |    |  ModelParam = 0  |  strides = [2, 2]  |  data = 0x55db7e2aa3a0, sizeInBytes = 2  |  buffer = 1  |  isPersistent  |  userMemorySection(type=Persistent, id=14)  |  isStaticParam  |  bufferDtype=bf16  |  "
    }
  }
  attr {
    key: "inputTensor:3"
    value {
      s: "tensor_35_odule/model/18/k_proj/placeholder/3  |  Sizes = [1]  |  bf16  |  expBias = 0, scale = 1  |    |  ModelParam = 0  |  strides = [2, 2]  |  data = 0x55db7e2aac50, sizeInBytes = 2  |  buffer = 0.00390625  |  isPersistent  |  userMemorySection(type=Persistent, id=15)  |  isStaticParam  |  bufferDtype=bf16  |  "
    }
  }
  attr {
    key: "outputTensor:0"
    value {
      s: "tensor_37  |  Sizes = [1,189,256]  |  bf16  |  expBias = 0, scale = 1  |    |  ModelParam = 0  |  strides = [96768, 96768, 512, 2]  |  data = 0, sizeInBytes = 96768  |  "
    }
  }
}
node {
  name: "module/model/18/reshape/12518"
  op: "Reshape"
  input: "module/model/18/k_proj/fp8_gemm_bf16/12517"
  attr {
    key: "Bundle_idx"
    value {
      s: "N/A"
    }
  }
  attr {
    key: "Exec_idx"
    value {
      s: "12"
    }
  }
  attr {
    key: "Op_idx"
    value {
      s: "N/A"
    }
  }
  attr {
    key: "inputTensor:0"
    value {
      s: "tensor_37  |  Sizes = [1,189,256]  |  bf16  |  expBias = 0, scale = 1  |    |  ModelParam = 0  |  strides = [96768, 96768, 512, 2]  |  data = 0, sizeInBytes = 96768  |  "
    }
  }
  attr {
    key: "outputTensor:0"
    value {
      s: "tensor_38_id_124597_module/model/18/aten__view  |  Sizes = [1,189,2,128]  |  bf16  |  expBias = 0, scale = 1  |    |  ModelParam = 0  |  strides = [96768, 96768, 512, 256, 2]  |  data = 0, sizeInBytes = 96768  |  "
    }
  }
}
node {
  name: "tensor_54_odule/model/18/v_proj/quant_input_0/placeholder/1"
  op: "Placeholder"
  attr {
    key: "dtype"
    value {
      type: DT_BFLOAT16
    }
  }
  attr {
    key: "shape"
    value {
      shape {
        dim {
          size: 1
        }
        dim {
          size: 1
        }
        dim {
          size: 1
        }
        dim {
          size: 1
        }
        dim {
          size: 1
        }
      }
    }
  }
  attr {
    key: "synDataType"
    value {
      s: "bf16"
    }
  }
}
node {
  name: "module/model/18/v_proj/quant_input_0/convert_to_fp8_bf16/12525"
  op: "convert_to_fp8_bf16"
  input: "module/model/18/input_layernorm/rms_norm_ex_fwd_bf16/12515"
  input: "tensor_54_odule/model/18/v_proj/quant_input_0/placeholder/1"
  attr {
    key: "Bundle_idx"
    value {
      s: "N/A"
    }
  }
  attr {
    key: "Exec_idx"
    value {
      s: "13"
    }
  }
  attr {
    key: "Op_idx"
    value {
      s: "N/A"
    }
  }
  attr {
    key: "inputTensor:0"
    value {
      s: "tensor_27  |  Sizes = [1,189,8192]  |  bf16  |  expBias = 0, scale = 1  |    |  ModelParam = 0  |  strides = [3096576, 3096576, 16384, 2]  |  data = 0, sizeInBytes = 3096576  |  "
    }
  }
  attr {
    key: "inputTensor:1"
    value {
      s: "tensor_54_odule/model/18/v_proj/quant_input_0/placeholder/1  |  Sizes = [1]  |  bf16  |  expBias = 0, scale = 1  |    |  ModelParam = 0  |  strides = [2, 2]  |  data = 0x55db6bf5edd0, sizeInBytes = 2  |  buffer = 1  |  isPersistent  |  userMemorySection(type=Persistent, id=21)  |  isStaticParam  |  bufferDtype=bf16  |  "
    }
  }
  attr {
    key: "outputTensor:0"
    value {
      s: "tensor_57  |  Sizes = [1,189,8192]  |  hfloat8  |  expBias = 7, scale = 1  |    |  ModelParam = 0  |  strides = [1548288, 1548288, 8192, 1]  |  data = 0, sizeInBytes = 1548288  |  "
    }
  }
}
node {
  name: "module/model/18/rotary_emb/mult_fwd_bf16/12505"
  op: "mult_fwd_bf16"
  input: "module/model/18/rotary_emb/slice/12503"
  input: "module/model/18/rotary_emb/cast_f32_to_bf16/12504"
  attr {
    key: "Bundle_idx"
    value {
      s: "N/A"
    }
  }
  attr {
    key: "Exec_idx"
    value {
      s: "14"
    }
  }
  attr {
    key: "Op_idx"
    value {
      s: "N/A"
    }
  }
  attr {
    key: "inputTensor:0"
    value {
      s: "tensor_10_id_124605_module/model/18/rotary_emb/aten__slice  |  Sizes = [189,128]  |  bf16  |  expBias = 0, scale = 1  |    |  ModelParam = 0  |  strides = [48384, 256, 2]  |  data = 0, sizeInBytes = 48384  |  "
    }
  }
  attr {
    key: "inputTensor:1"
    value {
      s: "tensor_13  |  Sizes = [1]  |  bf16  |  expBias = 0, scale = 1  |    |  ModelParam = 0  |  strides = [2, 2]  |  data = 0, sizeInBytes = 2  |  "
    }
  }
  attr {
    key: "outputTensor:0"
    value {
      s: "tensor_12_id_124607_module/model/18/rotary_emb/aten__mul  |  Sizes = [189,128]  |  bf16  |  expBias = 0, scale = 1  |    |  ModelParam = 0  |  strides = [48384, 256, 2]  |  data = 0, sizeInBytes = 48384  |  "
    }
  }
}
node {
  name: "module/model/18/expand_dims/12506"
  op: "ExpandDims"
  input: "module/model/18/rotary_emb/mult_fwd_bf16/12505"
  attr {
    key: "Bundle_idx"
    value {
      s: "N/A"
    }
  }
  attr {
    key: "Exec_idx"
    value {
      s: "15"
    }
  }
  attr {
    key: "Op_idx"
    value {
      s: "N/A"
    }
  }
  attr {
    key: "inputTensor:0"
    value {
      s: "tensor_12_id_124607_module/model/18/rotary_emb/aten__mul  |  Sizes = [189,128]  |  bf16  |  expBias = 0, scale = 1  |    |  ModelParam = 0  |  strides = [48384, 256, 2]  |  data = 0, sizeInBytes = 48384  |  "
    }
  }
  attr {
    key: "outputTensor:0"
    value {
      s: "tensor_14_id_124629_module/model/18/aten__unsqueeze  |  Sizes = [1,189,128]  |  bf16  |  expBias = 0, scale = 1  |    |  ModelParam = 0  |  strides = [48384, 48384, 256, 2]  |  data = 0, sizeInBytes = 48384  |  "
    }
  }
}
node {
  name: "module/model/18/expand_dims/12507"
  op: "ExpandDims"
  input: "module/model/18/expand_dims/12506"
  attr {
    key: "Bundle_idx"
    value {
      s: "N/A"
    }
  }
  attr {
    key: "Exec_idx"
    value {
      s: "16"
    }
  }
  attr {
    key: "Op_idx"
    value {
      s: "N/A"
    }
  }
  attr {
    key: "inputTensor:0"
    value {
      s: "tensor_14_id_124629_module/model/18/aten__unsqueeze  |  Sizes = [1,189,128]  |  bf16  |  expBias = 0, scale = 1  |    |  ModelParam = 0  |  strides = [48384, 48384, 256, 2]  |  data = 0, sizeInBytes = 48384  |  "
    }
  }
  attr {
    key: "outputTensor:0"
    value {
      s: "tensor_15_id_124631_module/model/18/aten__unsqueeze  |  Sizes = [1,1,189,128]  |  bf16  |  expBias = 0, scale = 1  |    |  ModelParam = 0  |  strides = [48384, 48384, 48384, 256, 2]  |  data = 0, sizeInBytes = 48384  |  "
    }
  }
}
node {
  name: "module/model/18/identity/12508"
  op: "Identity"
  input: "module/model/18/expand_dims/12507"
  attr {
    key: "Bundle_idx"
    value {
      s: "N/A"
    }
  }
  attr {
    key: "Exec_idx"
    value {
      s: "17"
    }
  }
  attr {
    key: "Op_idx"
    value {
      s: "N/A"
    }
  }
  attr {
    key: "inputTensor:0"
    value {
      s: "tensor_15_id_124631_module/model/18/aten__unsqueeze  |  Sizes = [1,1,189,128]  |  bf16  |  expBias = 0, scale = 1  |    |  ModelParam = 0  |  strides = [48384, 48384, 48384, 256, 2]  |  data = 0, sizeInBytes = 48384  |  "
    }
  }
  attr {
    key: "outputTensor:0"
    value {
      s: "tensor_16_id_124633_module/model/18/aten__clone  |  Sizes = [1,1,189,128]  |  bf16  |  expBias = 0, scale = 1  |    |  ModelParam = 0  |  strides = [48384, 48384, 48384, 256, 2]  |  data = 0, sizeInBytes = 48384  |  "
    }
  }
}
node {
  name: "module/model/18/rotary_emb/mult_fwd_bf16/12511"
  op: "mult_fwd_bf16"
  input: "module/model/18/rotary_emb/slice/12509"
  input: "module/model/18/rotary_emb/cast_f32_to_bf16/12510"
  attr {
    key: "Bundle_idx"
    value {
      s: "N/A"
    }
  }
  attr {
    key: "Exec_idx"
    value {
      s: "18"
    }
  }
  attr {
    key: "Op_idx"
    value {
      s: "N/A"
    }
  }
  attr {
    key: "inputTensor:0"
    value {
      s: "tensor_18_id_124609_module/model/18/rotary_emb/aten__slice  |  Sizes = [189,128]  |  bf16  |  expBias = 0, scale = 1  |    |  ModelParam = 0  |  strides = [48384, 256, 2]  |  data = 0, sizeInBytes = 48384  |  "
    }
  }
  attr {
    key: "inputTensor:1"
    value {
      s: "tensor_20  |  Sizes = [1]  |  bf16  |  expBias = 0, scale = 1  |    |  ModelParam = 0  |  strides = [2, 2]  |  data = 0, sizeInBytes = 2  |  "
    }
  }
  attr {
    key: "outputTensor:0"
    value {
      s: "tensor_19_id_124611_module/model/18/rotary_emb/aten__mul  |  Sizes = [189,128]  |  bf16  |  expBias = 0, scale = 1  |    |  ModelParam = 0  |  strides = [48384, 256, 2]  |  data = 0, sizeInBytes = 48384  |  "
    }
  }
}
node {
  name: "module/model/18/expand_dims/12512"
  op: "ExpandDims"
  input: "module/model/18/rotary_emb/mult_fwd_bf16/12511"
  attr {
    key: "Bundle_idx"
    value {
      s: "N/A"
    }
  }
  attr {
    key: "Exec_idx"
    value {
      s: "19"
    }
  }
  attr {
    key: "Op_idx"
    value {
      s: "N/A"
    }
  }
  attr {
    key: "inputTensor:0"
    value {
      s: "tensor_19_id_124611_module/model/18/rotary_emb/aten__mul  |  Sizes = [189,128]  |  bf16  |  expBias = 0, scale = 1  |    |  ModelParam = 0  |  strides = [48384, 256, 2]  |  data = 0, sizeInBytes = 48384  |  "
    }
  }
  attr {
    key: "outputTensor:0"
    value {
      s: "tensor_21_id_124635_module/model/18/aten__unsqueeze  |  Sizes = [1,189,128]  |  bf16  |  expBias = 0, scale = 1  |    |  ModelParam = 0  |  strides = [48384, 48384, 256, 2]  |  data = 0, sizeInBytes = 48384  |  "
    }
  }
}
node {
  name: "module/model/18/expand_dims/12513"
  op: "ExpandDims"
  input: "module/model/18/expand_dims/12512"
  attr {
    key: "Bundle_idx"
    value {
      s: "N/A"
    }
  }
  attr {
    key: "Exec_idx"
    value {
      s: "20"
    }
  }
  attr {
    key: "Op_idx"
    value {
      s: "N/A"
    }
  }
  attr {
    key: "inputTensor:0"
    value {
      s: "tensor_21_id_124635_module/model/18/aten__unsqueeze  |  Sizes = [1,189,128]  |  bf16  |  expBias = 0, scale = 1  |    |  ModelParam = 0  |  strides = [48384, 48384, 256, 2]  |  data = 0, sizeInBytes = 48384  |  "
    }
  }
  attr {
    key: "outputTensor:0"
    value {
      s: "tensor_22_id_124637_module/model/18/aten__unsqueeze  |  Sizes = [1,1,189,128]  |  bf16  |  expBias = 0, scale = 1  |    |  ModelParam = 0  |  strides = [48384, 48384, 48384, 256, 2]  |  data = 0, sizeInBytes = 48384  |  "
    }
  }
}
node {
  name: "module/model/18/identity/12514"
  op: "Identity"
  input: "module/model/18/expand_dims/12513"
  attr {
    key: "Bundle_idx"
    value {
      s: "N/A"
    }
  }
  attr {
    key: "Exec_idx"
    value {
      s: "21"
    }
  }
  attr {
    key: "Op_idx"
    value {
      s: "N/A"
    }
  }
  attr {
    key: "inputTensor:0"
    value {
      s: "tensor_22_id_124637_module/model/18/aten__unsqueeze  |  Sizes = [1,1,189,128]  |  bf16  |  expBias = 0, scale = 1  |    |  ModelParam = 0  |  strides = [48384, 48384, 48384, 256, 2]  |  data = 0, sizeInBytes = 48384  |  "
    }
  }
  attr {
    key: "outputTensor:0"
    value {
      s: "tensor_23_id_124639_module/model/18/aten__clone  |  Sizes = [1,1,189,128]  |  bf16  |  expBias = 0, scale = 1  |    |  ModelParam = 0  |  strides = [48384, 48384, 48384, 256, 2]  |  data = 0, sizeInBytes = 48384  |  "
    }
  }
}
node {
  name: "module/model/18/transpose/12519"
  op: "Transpose"
  input: "module/model/18/reshape/12518"
  attr {
    key: "Bundle_idx"
    value {
      s: "N/A"
    }
  }
  attr {
    key: "Exec_idx"
    value {
      s: "22"
    }
  }
  attr {
    key: "Op_idx"
    value {
      s: "N/A"
    }
  }
  attr {
    key: "Parameters"
    value {
      s: "permutation: (0,2,1,3)"
    }
  }
  attr {
    key: "inputTensor:0"
    value {
      s: "tensor_38_id_124597_module/model/18/aten__view  |  Sizes = [1,189,2,128]  |  bf16  |  expBias = 0, scale = 1  |    |  ModelParam = 0  |  strides = [96768, 96768, 512, 256, 2]  |  data = 0, sizeInBytes = 96768  |  "
    }
  }
  attr {
    key: "outputTensor:0"
    value {
      s: "tensor_39_id_124599_module/model/18/aten__transpose  |  Sizes = [1,2,189,128]  |  bf16  |  expBias = 0, scale = 1  |    |  ModelParam = 0  |  strides = [96768, 96768, 48384, 256, 2]  |  data = 0, sizeInBytes = 96768  |  "
    }
  }
}
node {
  name: "tensor_58_odule/model/18/v_proj/placeholder/1"
  op: "Placeholder"
  attr {
    key: "dtype"
    value {
      type: DT_INVALID
    }
  }
  attr {
    key: "shape"
    value {
      shape {
        dim {
          size: 256
        }
        dim {
          size: 8192
        }
        dim {
          size: 1
        }
        dim {
          size: 1
        }
        dim {
          size: 1
        }
      }
    }
  }
  attr {
    key: "synDataType"
    value {
      s: "hfloat8"
    }
  }
}
node {
  name: "tensor_59_odule/model/18/v_proj/placeholder/2"
  op: "Placeholder"
  attr {
    key: "dtype"
    value {
      type: DT_BFLOAT16
    }
  }
  attr {
    key: "shape"
    value {
      shape {
        dim {
          size: 1
        }
        dim {
          size: 1
        }
        dim {
          size: 1
        }
        dim {
          size: 1
        }
        dim {
          size: 1
        }
      }
    }
  }
  attr {
    key: "synDataType"
    value {
      s: "bf16"
    }
  }
}
node {
  name: "tensor_60_odule/model/18/v_proj/placeholder/3"
  op: "Placeholder"
  attr {
    key: "dtype"
    value {
      type: DT_BFLOAT16
    }
  }
  attr {
    key: "shape"
    value {
      shape {
        dim {
          size: 1
        }
        dim {
          size: 1
        }
        dim {
          size: 1
        }
        dim {
          size: 1
        }
        dim {
          size: 1
        }
      }
    }
  }
  attr {
    key: "synDataType"
    value {
      s: "bf16"
    }
  }
}
node {
  name: "module/model/18/v_proj/fp8_gemm_bf16/12526"
  op: "fp8_gemm_bf16"
  input: "module/model/18/v_proj/quant_input_0/convert_to_fp8_bf16/12525"
  input: "tensor_58_odule/model/18/v_proj/placeholder/1"
  input: "tensor_59_odule/model/18/v_proj/placeholder/2"
  input: "tensor_60_odule/model/18/v_proj/placeholder/3"
  input: "unused_port"
  input: "unused_port"
  input: "unused_port"
  attr {
    key: "Bundle_idx"
    value {
      s: "N/A"
    }
  }
  attr {
    key: "Exec_idx"
    value {
      s: "23"
    }
  }
  attr {
    key: "Op_idx"
    value {
      s: "N/A"
    }
  }
  attr {
    key: "inputTensor:0"
    value {
      s: "tensor_57  |  Sizes = [1,189,8192]  |  hfloat8  |  expBias = 7, scale = 1  |    |  ModelParam = 0  |  strides = [1548288, 1548288, 8192, 1]  |  data = 0, sizeInBytes = 1548288  |  "
    }
  }
  attr {
    key: "inputTensor:1"
    value {
      s: "tensor_58_odule/model/18/v_proj/placeholder/1  |  Sizes = [8192,256]  |  hfloat8  |  expBias = 7, scale = 1  |    |  ModelParam = 0  |  strides = [2097152, 256, 1]  |  data = 0, sizeInBytes = 2097152  |  isPersistent  |  userMemorySection(type=Persistent, id=22)  |  "
    }
  }
  attr {
    key: "inputTensor:2"
    value {
      s: "tensor_59_odule/model/18/v_proj/placeholder/2  |  Sizes = [1]  |  bf16  |  expBias = 0, scale = 1  |    |  ModelParam = 0  |  strides = [2, 2]  |  data = 0x55db6bf5f078, sizeInBytes = 2  |  buffer = 1  |  isPersistent  |  userMemorySection(type=Persistent, id=23)  |  isStaticParam  |  bufferDtype=bf16  |  "
    }
  }
  attr {
    key: "inputTensor:3"
    value {
      s: "tensor_60_odule/model/18/v_proj/placeholder/3  |  Sizes = [1]  |  bf16  |  expBias = 0, scale = 1  |    |  ModelParam = 0  |  strides = [2, 2]  |  data = 0x55db6bf5e990, sizeInBytes = 2  |  buffer = 0.00390625  |  isPersistent  |  userMemorySection(type=Persistent, id=24)  |  isStaticParam  |  bufferDtype=bf16  |  "
    }
  }
  attr {
    key: "outputTensor:0"
    value {
      s: "tensor_62  |  Sizes = [1,189,256]  |  bf16  |  expBias = 0, scale = 1  |    |  ModelParam = 0  |  strides = [96768, 96768, 512, 2]  |  data = 0, sizeInBytes = 96768  |  "
    }
  }
}
node {
  name: "module/model/18/quant_input_0/reshape/12527"
  op: "Reshape"
  input: "module/model/18/v_proj/fp8_gemm_bf16/12526"
  attr {
    key: "Bundle_idx"
    value {
      s: "N/A"
    }
  }
  attr {
    key: "Exec_idx"
    value {
      s: "24"
    }
  }
  attr {
    key: "Op_idx"
    value {
      s: "N/A"
    }
  }
  attr {
    key: "inputTensor:0"
    value {
      s: "tensor_62  |  Sizes = [1,189,256]  |  bf16  |  expBias = 0, scale = 1  |    |  ModelParam = 0  |  strides = [96768, 96768, 512, 2]  |  data = 0, sizeInBytes = 96768  |  "
    }
  }
  attr {
    key: "outputTensor:0"
    value {
      s: "tensor_63_id_124601_module/model/18/quant_input_0/aten__view  |  Sizes = [1,189,2,128]  |  bf16  |  expBias = 0, scale = 1  |    |  ModelParam = 0  |  strides = [96768, 96768, 512, 256, 2]  |  data = 0, sizeInBytes = 96768  |  "
    }
  }
}
node {
  name: "tensor_91_odule/model/18/q_proj/quant_input_0/placeholder/1"
  op: "Placeholder"
  attr {
    key: "dtype"
    value {
      type: DT_BFLOAT16
    }
  }
  attr {
    key: "shape"
    value {
      shape {
        dim {
          size: 1
        }
        dim {
          size: 1
        }
        dim {
          size: 1
        }
        dim {
          size: 1
        }
        dim {
          size: 1
        }
      }
    }
  }
  attr {
    key: "synDataType"
    value {
      s: "bf16"
    }
  }
}
node {
  name: "module/model/18/q_proj/quant_input_0/convert_to_fp8_bf16/12543"
  op: "convert_to_fp8_bf16"
  input: "module/model/18/input_layernorm/rms_norm_ex_fwd_bf16/12515"
  input: "tensor_91_odule/model/18/q_proj/quant_input_0/placeholder/1"
  attr {
    key: "Bundle_idx"
    value {
      s: "N/A"
    }
  }
  attr {
    key: "Exec_idx"
    value {
      s: "25"
    }
  }
  attr {
    key: "Op_idx"
    value {
      s: "N/A"
    }
  }
  attr {
    key: "inputTensor:0"
    value {
      s: "tensor_27  |  Sizes = [1,189,8192]  |  bf16  |  expBias = 0, scale = 1  |    |  ModelParam = 0  |  strides = [3096576, 3096576, 16384, 2]  |  data = 0, sizeInBytes = 3096576  |  "
    }
  }
  attr {
    key: "inputTensor:1"
    value {
      s: "tensor_91_odule/model/18/q_proj/quant_input_0/placeholder/1  |  Sizes = [1]  |  bf16  |  expBias = 0, scale = 1  |    |  ModelParam = 0  |  strides = [2, 2]  |  data = 0x55db7e2aaf90, sizeInBytes = 2  |  buffer = 1  |  isPersistent  |  userMemorySection(type=Persistent, id=32)  |  isStaticParam  |  bufferDtype=bf16  |  "
    }
  }
  attr {
    key: "outputTensor:0"
    value {
      s: "tensor_94  |  Sizes = [1,189,8192]  |  hfloat8  |  expBias = 7, scale = 1  |    |  ModelParam = 0  |  strides = [1548288, 1548288, 8192, 1]  |  data = 0, sizeInBytes = 1548288  |  "
    }
  }
}
node {
  name: "module/model/18/rotary_pos_embedding_fwd_bf16/12520"
  op: "rotary_pos_embedding_fwd_bf16"
  input: "module/model/18/transpose/12519"
  input: "module/model/18/identity/12514"
  input: "module/model/18/identity/12508"
  input: "module/model/18/expand_dims/12502"
  attr {
    key: "Bundle_idx"
    value {
      s: "N/A"
    }
  }
  attr {
    key: "Exec_idx"
    value {
      s: "26"
    }
  }
  attr {
    key: "Op_idx"
    value {
      s: "N/A"
    }
  }
  attr {
    key: "inputTensor:0"
    value {
      s: "tensor_39_id_124599_module/model/18/aten__transpose  |  Sizes = [1,2,189,128]  |  bf16  |  expBias = 0, scale = 1  |    |  ModelParam = 0  |  strides = [96768, 96768, 48384, 256, 2]  |  data = 0, sizeInBytes = 96768  |  "
    }
  }
  attr {
    key: "inputTensor:1"
    value {
      s: "tensor_23_id_124639_module/model/18/aten__clone  |  Sizes = [1,1,189,128]  |  bf16  |  expBias = 0, scale = 1  |    |  ModelParam = 0  |  strides = [48384, 48384, 48384, 256, 2]  |  data = 0, sizeInBytes = 48384  |  "
    }
  }
  attr {
    key: "inputTensor:2"
    value {
      s: "tensor_16_id_124633_module/model/18/aten__clone  |  Sizes = [1,1,189,128]  |  bf16  |  expBias = 0, scale = 1  |    |  ModelParam = 0  |  strides = [48384, 48384, 48384, 256, 2]  |  data = 0, sizeInBytes = 48384  |  "
    }
  }
  attr {
    key: "inputTensor:3"
    value {
      s: "tensor_8_id_124487_module/model/18/aten__unsqueeze/1  |  Sizes = [1,189]  |  int32  |  expBias = 0, scale = 1  |    |  ModelParam = 0  |  strides = [756, 756, 4]  |  data = 0, sizeInBytes = 756  |  "
    }
  }
  attr {
    key: "outputTensor:0"
    value {
      s: "tensor_41  |  Sizes = [1,2,189,128]  |  bf16  |  expBias = 0, scale = 1  |    |  ModelParam = 0  |  strides = [96768, 96768, 48384, 256, 2]  |  data = 0, sizeInBytes = 96768  |  "
    }
  }
}
node {
  name: "module/model/18/quant_input_0/transpose/12528"
  op: "Transpose"
  input: "module/model/18/quant_input_0/reshape/12527"
  attr {
    key: "Bundle_idx"
    value {
      s: "N/A"
    }
  }
  attr {
    key: "Exec_idx"
    value {
      s: "27"
    }
  }
  attr {
    key: "Op_idx"
    value {
      s: "N/A"
    }
  }
  attr {
    key: "Parameters"
    value {
      s: "permutation: (0,2,1,3)"
    }
  }
  attr {
    key: "inputTensor:0"
    value {
      s: "tensor_63_id_124601_module/model/18/quant_input_0/aten__view  |  Sizes = [1,189,2,128]  |  bf16  |  expBias = 0, scale = 1  |    |  ModelParam = 0  |  strides = [96768, 96768, 512, 256, 2]  |  data = 0, sizeInBytes = 96768  |  "
    }
  }
  attr {
    key: "outputTensor:0"
    value {
      s: "tensor_64_id_124603_module/model/18/quant_input_0/aten__transpose  |  Sizes = [1,2,189,128]  |  bf16  |  expBias = 0, scale = 1  |    |  ModelParam = 0  |  strides = [96768, 96768, 48384, 256, 2]  |  data = 0, sizeInBytes = 96768  |  "
    }
  }
}
node {
  name: "tensor_95_odule/model/18/q_proj/placeholder/1"
  op: "Placeholder"
  attr {
    key: "dtype"
    value {
      type: DT_INVALID
    }
  }
  attr {
    key: "shape"
    value {
      shape {
        dim {
          size: 2048
        }
        dim {
          size: 8192
        }
        dim {
          size: 1
        }
        dim {
          size: 1
        }
        dim {
          size: 1
        }
      }
    }
  }
  attr {
    key: "synDataType"
    value {
      s: "hfloat8"
    }
  }
}
node {
  name: "tensor_96_odule/model/18/q_proj/placeholder/2"
  op: "Placeholder"
  attr {
    key: "dtype"
    value {
      type: DT_BFLOAT16
    }
  }
  attr {
    key: "shape"
    value {
      shape {
        dim {
          size: 1
        }
        dim {
          size: 1
        }
        dim {
          size: 1
        }
        dim {
          size: 1
        }
        dim {
          size: 1
        }
      }
    }
  }
  attr {
    key: "synDataType"
    value {
      s: "bf16"
    }
  }
}
node {
  name: "tensor_97_odule/model/18/q_proj/placeholder/3"
  op: "Placeholder"
  attr {
    key: "dtype"
    value {
      type: DT_BFLOAT16
    }
  }
  attr {
    key: "shape"
    value {
      shape {
        dim {
          size: 1
        }
        dim {
          size: 1
        }
        dim {
          size: 1
        }
        dim {
          size: 1
        }
        dim {
          size: 1
        }
      }
    }
  }
  attr {
    key: "synDataType"
    value {
      s: "bf16"
    }
  }
}
node {
  name: "module/model/18/q_proj/fp8_gemm_bf16/12544"
  op: "fp8_gemm_bf16"
  input: "module/model/18/q_proj/quant_input_0/convert_to_fp8_bf16/12543"
  input: "tensor_95_odule/model/18/q_proj/placeholder/1"
  input: "tensor_96_odule/model/18/q_proj/placeholder/2"
  input: "tensor_97_odule/model/18/q_proj/placeholder/3"
  input: "unused_port"
  input: "unused_port"
  input: "unused_port"
  attr {
    key: "Bundle_idx"
    value {
      s: "N/A"
    }
  }
  attr {
    key: "Exec_idx"
    value {
      s: "28"
    }
  }
  attr {
    key: "Op_idx"
    value {
      s: "N/A"
    }
  }
  attr {
    key: "inputTensor:0"
    value {
      s: "tensor_94  |  Sizes = [1,189,8192]  |  hfloat8  |  expBias = 7, scale = 1  |    |  ModelParam = 0  |  strides = [1548288, 1548288, 8192, 1]  |  data = 0, sizeInBytes = 1548288  |  "
    }
  }
  attr {
    key: "inputTensor:1"
    value {
      s: "tensor_95_odule/model/18/q_proj/placeholder/1  |  Sizes = [8192,2048]  |  hfloat8  |  expBias = 7, scale = 1  |    |  ModelParam = 0  |  strides = [16777216, 2048, 1]  |  data = 0, sizeInBytes = 16777216  |  isPersistent  |  userMemorySection(type=Persistent, id=33)  |  "
    }
  }
  attr {
    key: "inputTensor:2"
    value {
      s: "tensor_96_odule/model/18/q_proj/placeholder/2  |  Sizes = [1]  |  bf16  |  expBias = 0, scale = 1  |    |  ModelParam = 0  |  strides = [2, 2]  |  data = 0x55db7e2aac78, sizeInBytes = 2  |  buffer = 1  |  isPersistent  |  userMemorySection(type=Persistent, id=34)  |  isStaticParam  |  bufferDtype=bf16  |  "
    }
  }
  attr {
    key: "inputTensor:3"
    value {
      s: "tensor_97_odule/model/18/q_proj/placeholder/3  |  Sizes = [1]  |  bf16  |  expBias = 0, scale = 1  |    |  ModelParam = 0  |  strides = [2, 2]  |  data = 0x55db7e2ab008, sizeInBytes = 2  |  buffer = 0.00390625  |  isPersistent  |  userMemorySection(type=Persistent, id=35)  |  isStaticParam  |  bufferDtype=bf16  |  "
    }
  }
  attr {
    key: "outputTensor:0"
    value {
      s: "tensor_99  |  Sizes = [1,189,2048]  |  bf16  |  expBias = 0, scale = 1  |    |  ModelParam = 0  |  strides = [774144, 774144, 4096, 2]  |  data = 0, sizeInBytes = 774144  |  "
    }
  }
}
node {
  name: "module/model/18/reshape/12545"
  op: "Reshape"
  input: "module/model/18/q_proj/fp8_gemm_bf16/12544"
  attr {
    key: "Bundle_idx"
    value {
      s: "N/A"
    }
  }
  attr {
    key: "Exec_idx"
    value {
      s: "29"
    }
  }
  attr {
    key: "Op_idx"
    value {
      s: "N/A"
    }
  }
  attr {
    key: "inputTensor:0"
    value {
      s: "tensor_99  |  Sizes = [1,189,2048]  |  bf16  |  expBias = 0, scale = 1  |    |  ModelParam = 0  |  strides = [774144, 774144, 4096, 2]  |  data = 0, sizeInBytes = 774144  |  "
    }
  }
  attr {
    key: "outputTensor:0"
    value {
      s: "tensor_100_id_124593_module/model/18/aten__view  |  Sizes = [1,189,16,128]  |  bf16  |  expBias = 0, scale = 1  |    |  ModelParam = 0  |  strides = [774144, 774144, 4096, 256, 2]  |  data = 0, sizeInBytes = 774144  |  "
    }
  }
}
node {
  name: "tensor_42_odule/model/18/quant_input_0/placeholder/1"
  op: "Placeholder"
  attr {
    key: "dtype"
    value {
      type: DT_BFLOAT16
    }
  }
  attr {
    key: "shape"
    value {
      shape {
        dim {
          size: 1
        }
        dim {
          size: 1
        }
        dim {
          size: 1
        }
        dim {
          size: 1
        }
        dim {
          size: 1
        }
      }
    }
  }
  attr {
    key: "synDataType"
    value {
      s: "bf16"
    }
  }
}
node {
  name: "module/model/18/quant_input_0/convert_to_fp8_bf16/12521"
  op: "convert_to_fp8_bf16"
  input: "module/model/18/rotary_pos_embedding_fwd_bf16/12520"
  input: "tensor_42_odule/model/18/quant_input_0/placeholder/1"
  attr {
    key: "Bundle_idx"
    value {
      s: "N/A"
    }
  }
  attr {
    key: "Exec_idx"
    value {
      s: "30"
    }
  }
  attr {
    key: "Op_idx"
    value {
      s: "N/A"
    }
  }
  attr {
    key: "inputTensor:0"
    value {
      s: "tensor_41  |  Sizes = [1,2,189,128]  |  bf16  |  expBias = 0, scale = 1  |    |  ModelParam = 0  |  strides = [96768, 96768, 48384, 256, 2]  |  data = 0, sizeInBytes = 96768  |  "
    }
  }
  attr {
    key: "inputTensor:1"
    value {
      s: "tensor_42_odule/model/18/quant_input_0/placeholder/1  |  Sizes = [1]  |  bf16  |  expBias = 0, scale = 1  |    |  ModelParam = 0  |  strides = [2, 2]  |  data = 0x55db7e2ab1f0, sizeInBytes = 2  |  buffer = 1  |  isPersistent  |  userMemorySection(type=Persistent, id=16)  |  isStaticParam  |  bufferDtype=bf16  |  "
    }
  }
  attr {
    key: "outputTensor:0"
    value {
      s: "tensor_45  |  Sizes = [1,2,189,128]  |  hfloat8  |  expBias = 7, scale = 1  |    |  ModelParam = 0  |  strides = [48384, 48384, 24192, 128, 1]  |  data = 0, sizeInBytes = 48384  |  "
    }
  }
}
node {
  name: "tensor_65_odule/model/18/quant_input_0/placeholder/1"
  op: "Placeholder"
  attr {
    key: "dtype"
    value {
      type: DT_BFLOAT16
    }
  }
  attr {
    key: "shape"
    value {
      shape {
        dim {
          size: 1
        }
        dim {
          size: 1
        }
        dim {
          size: 1
        }
        dim {
          size: 1
        }
        dim {
          size: 1
        }
      }
    }
  }
  attr {
    key: "synDataType"
    value {
      s: "bf16"
    }
  }
}
node {
  name: "module/model/18/quant_input_0/convert_to_fp8_bf16/12529"
  op: "convert_to_fp8_bf16"
  input: "module/model/18/quant_input_0/transpose/12528"
  input: "tensor_65_odule/model/18/quant_input_0/placeholder/1"
  attr {
    key: "Bundle_idx"
    value {
      s: "N/A"
    }
  }
  attr {
    key: "Exec_idx"
    value {
      s: "31"
    }
  }
  attr {
    key: "Op_idx"
    value {
      s: "N/A"
    }
  }
  attr {
    key: "inputTensor:0"
    value {
      s: "tensor_64_id_124603_module/model/18/quant_input_0/aten__transpose  |  Sizes = [1,2,189,128]  |  bf16  |  expBias = 0, scale = 1  |    |  ModelParam = 0  |  strides = [96768, 96768, 48384, 256, 2]  |  data = 0, sizeInBytes = 96768  |  "
    }
  }
  attr {
    key: "inputTensor:1"
    value {
      s: "tensor_65_odule/model/18/quant_input_0/placeholder/1  |  Sizes = [1]  |  bf16  |  expBias = 0, scale = 1  |    |  ModelParam = 0  |  strides = [2, 2]  |  data = 0x55db64348ca0, sizeInBytes = 2  |  buffer = 16  |  isPersistent  |  userMemorySection(type=Persistent, id=25)  |  isStaticParam  |  bufferDtype=bf16  |  "
    }
  }
  attr {
    key: "outputTensor:0"
    value {
      s: "tensor_68  |  Sizes = [1,2,189,128]  |  hfloat8  |  expBias = 7, scale = 1  |    |  ModelParam = 0  |  strides = [48384, 48384, 24192, 128, 1]  |  data = 0, sizeInBytes = 48384  |  "
    }
  }
}
node {
  name: "module/model/18/fused_scaled_dot_product_attention/slice/12534"
  op: "Slice"
  input: "module/model/18/fused_scaled_dot_product_attention/expand_dims/12533"
  attr {
    key: "Bundle_idx"
    value {
      s: "N/A"
    }
  }
  attr {
    key: "Exec_idx"
    value {
      s: "32"
    }
  }
  attr {
    key: "Op_idx"
    value {
      s: "N/A"
    }
  }
  attr {
    key: "inputTensor:0"
    value {
      s: "tensor_75_id_124489_module/model/18/fused_scaled_dot_product_attention/aten__unsqueeze  |  Sizes = [1,1,189,189]  |  bf16  |  expBias = 0, scale = 1  |    |  ModelParam = 0  |  strides = [71442, 71442, 71442, 378, 2]  |  data = 0, sizeInBytes = 71442  |  "
    }
  }
  attr {
    key: "outputTensor:0"
    value {
      s: "tensor_76_id_124490_module/model/18/fused_scaled_dot_product_attention/aten__slice  |  Sizes = [1,1,189,189]  |  bf16  |  expBias = 0, scale = 1  |    |  ModelParam = 0  |  strides = [71442, 71442, 71442, 378, 2]  |  data = 0, sizeInBytes = 71442  |  "
    }
  }
}
node {
  name: "module/model/18/transpose/12546"
  op: "Transpose"
  input: "module/model/18/reshape/12545"
  attr {
    key: "Bundle_idx"
    value {
      s: "N/A"
    }
  }
  attr {
    key: "Exec_idx"
    value {
      s: "33"
    }
  }
  attr {
    key: "Op_idx"
    value {
      s: "N/A"
    }
  }
  attr {
    key: "Parameters"
    value {
      s: "permutation: (0,2,1,3)"
    }
  }
  attr {
    key: "inputTensor:0"
    value {
      s: "tensor_100_id_124593_module/model/18/aten__view  |  Sizes = [1,189,16,128]  |  bf16  |  expBias = 0, scale = 1  |    |  ModelParam = 0  |  strides = [774144, 774144, 4096, 256, 2]  |  data = 0, sizeInBytes = 774144  |  "
    }
  }
  attr {
    key: "outputTensor:0"
    value {
      s: "tensor_101_id_124595_module/model/18/aten__transpose  |  Sizes = [1,16,189,128]  |  bf16  |  expBias = 0, scale = 1  |    |  ModelParam = 0  |  strides = [774144, 774144, 48384, 256, 2]  |  data = 0, sizeInBytes = 774144  |  "
    }
  }
}
node {
  name: "tensor_47_odule/model/18/quant_output/placeholder/1"
  op: "Placeholder"
  attr {
    key: "dtype"
    value {
      type: DT_BFLOAT16
    }
  }
  attr {
    key: "shape"
    value {
      shape {
        dim {
          size: 1
        }
        dim {
          size: 1
        }
        dim {
          size: 1
        }
        dim {
          size: 1
        }
        dim {
          size: 1
        }
      }
    }
  }
  attr {
    key: "synDataType"
    value {
      s: "bf16"
    }
  }
}
node {
  name: "module/model/18/quant_output/convert_from_fp8_bf16/12523"
  op: "convert_from_fp8_bf16"
  input: "module/model/18/quant_input_0/convert_to_fp8_bf16/12521"
  input: "tensor_47_odule/model/18/quant_output/placeholder/1"
  attr {
    key: "Bundle_idx"
    value {
      s: "N/A"
    }
  }
  attr {
    key: "Exec_idx"
    value {
      s: "34"
    }
  }
  attr {
    key: "Op_idx"
    value {
      s: "N/A"
    }
  }
  attr {
    key: "inputTensor:0"
    value {
      s: "tensor_45  |  Sizes = [1,2,189,128]  |  hfloat8  |  expBias = 7, scale = 1  |    |  ModelParam = 0  |  strides = [48384, 48384, 24192, 128, 1]  |  data = 0, sizeInBytes = 48384  |  "
    }
  }
  attr {
    key: "inputTensor:1"
    value {
      s: "tensor_47_odule/model/18/quant_output/placeholder/1  |  Sizes = [1]  |  bf16  |  expBias = 0, scale = 1  |    |  ModelParam = 0  |  strides = [2, 2]  |  data = 0x55db860a4ab8, sizeInBytes = 2  |  buffer = 1  |  isPersistent  |  userMemorySection(type=Persistent, id=17)  |  isStaticParam  |  bufferDtype=bf16  |  "
    }
  }
  attr {
    key: "outputTensor:0"
    value {
      s: "tensor_49  |  Sizes = [1,2,189,128]  |  bf16  |  expBias = 0, scale = 1  |    |  ModelParam = 0  |  strides = [96768, 96768, 48384, 256, 2]  |  data = 0, sizeInBytes = 96768  |  isPersistent  |  userMemorySection(type=Persistent, id=19)  |  "
    }
  }
}
node {
  name: "tensor_70_odule/model/18/quant_output/placeholder/1"
  op: "Placeholder"
  attr {
    key: "dtype"
    value {
      type: DT_BFLOAT16
    }
  }
  attr {
    key: "shape"
    value {
      shape {
        dim {
          size: 1
        }
        dim {
          size: 1
        }
        dim {
          size: 1
        }
        dim {
          size: 1
        }
        dim {
          size: 1
        }
      }
    }
  }
  attr {
    key: "synDataType"
    value {
      s: "bf16"
    }
  }
}
node {
  name: "module/model/18/quant_output/convert_from_fp8_bf16/12531"
  op: "convert_from_fp8_bf16"
  input: "module/model/18/quant_input_0/convert_to_fp8_bf16/12529"
  input: "tensor_70_odule/model/18/quant_output/placeholder/1"
  attr {
    key: "Bundle_idx"
    value {
      s: "N/A"
    }
  }
  attr {
    key: "Exec_idx"
    value {
      s: "35"
    }
  }
  attr {
    key: "Op_idx"
    value {
      s: "N/A"
    }
  }
  attr {
    key: "inputTensor:0"
    value {
      s: "tensor_68  |  Sizes = [1,2,189,128]  |  hfloat8  |  expBias = 7, scale = 1  |    |  ModelParam = 0  |  strides = [48384, 48384, 24192, 128, 1]  |  data = 0, sizeInBytes = 48384  |  "
    }
  }
  attr {
    key: "inputTensor:1"
    value {
      s: "tensor_70_odule/model/18/quant_output/placeholder/1  |  Sizes = [1]  |  bf16  |  expBias = 0, scale = 1  |    |  ModelParam = 0  |  strides = [2, 2]  |  data = 0x55db6c6089e8, sizeInBytes = 2  |  buffer = 0.0625  |  isPersistent  |  userMemorySection(type=Persistent, id=26)  |  isStaticParam  |  bufferDtype=bf16  |  "
    }
  }
  attr {
    key: "outputTensor:0"
    value {
      s: "tensor_72  |  Sizes = [1,2,189,128]  |  bf16  |  expBias = 0, scale = 1  |    |  ModelParam = 0  |  strides = [96768, 96768, 48384, 256, 2]  |  data = 0, sizeInBytes = 96768  |  isPersistent  |  userMemorySection(type=Persistent, id=28)  |  "
    }
  }
}
node {
  name: "module/model/18/fused_scaled_dot_product_attention/slice/12535"
  op: "Slice"
  input: "module/model/18/fused_scaled_dot_product_attention/slice/12534"
  attr {
    key: "Bundle_idx"
    value {
      s: "N/A"
    }
  }
  attr {
    key: "Exec_idx"
    value {
      s: "36"
    }
  }
  attr {
    key: "Op_idx"
    value {
      s: "N/A"
    }
  }
  attr {
    key: "inputTensor:0"
    value {
      s: "tensor_76_id_124490_module/model/18/fused_scaled_dot_product_attention/aten__slice  |  Sizes = [1,1,189,189]  |  bf16  |  expBias = 0, scale = 1  |    |  ModelParam = 0  |  strides = [71442, 71442, 71442, 378, 2]  |  data = 0, sizeInBytes = 71442  |  "
    }
  }
  attr {
    key: "outputTensor:0"
    value {
      s: "tensor_77_id_124491_module/model/18/fused_scaled_dot_product_attention/aten__slice  |  Sizes = [1,1,189,189]  |  bf16  |  expBias = 0, scale = 1  |    |  ModelParam = 0  |  strides = [71442, 71442, 71442, 378, 2]  |  data = 0, sizeInBytes = 71442  |  "
    }
  }
}
node {
  name: "module/model/18/rotary_pos_embedding_fwd_bf16/12547"
  op: "rotary_pos_embedding_fwd_bf16"
  input: "module/model/18/transpose/12546"
  input: "module/model/18/identity/12514"
  input: "module/model/18/identity/12508"
  input: "module/model/18/expand_dims/12542"
  attr {
    key: "Bundle_idx"
    value {
      s: "N/A"
    }
  }
  attr {
    key: "Exec_idx"
    value {
      s: "37"
    }
  }
  attr {
    key: "Op_idx"
    value {
      s: "N/A"
    }
  }
  attr {
    key: "inputTensor:0"
    value {
      s: "tensor_101_id_124595_module/model/18/aten__transpose  |  Sizes = [1,16,189,128]  |  bf16  |  expBias = 0, scale = 1  |    |  ModelParam = 0  |  strides = [774144, 774144, 48384, 256, 2]  |  data = 0, sizeInBytes = 774144  |  "
    }
  }
  attr {
    key: "inputTensor:1"
    value {
      s: "tensor_23_id_124639_module/model/18/aten__clone  |  Sizes = [1,1,189,128]  |  bf16  |  expBias = 0, scale = 1  |    |  ModelParam = 0  |  strides = [48384, 48384, 48384, 256, 2]  |  data = 0, sizeInBytes = 48384  |  "
    }
  }
  attr {
    key: "inputTensor:2"
    value {
      s: "tensor_16_id_124633_module/model/18/aten__clone  |  Sizes = [1,1,189,128]  |  bf16  |  expBias = 0, scale = 1  |    |  ModelParam = 0  |  strides = [48384, 48384, 48384, 256, 2]  |  data = 0, sizeInBytes = 48384  |  "
    }
  }
  attr {
    key: "inputTensor:3"
    value {
      s: "tensor_90_id_124487_module/model/18/aten__unsqueeze  |  Sizes = [1,189]  |  int32  |  expBias = 0, scale = 1  |    |  ModelParam = 0  |  strides = [756, 756, 4]  |  data = 0, sizeInBytes = 756  |  "
    }
  }
  attr {
    key: "outputTensor:0"
    value {
      s: "tensor_103  |  Sizes = [1,16,189,128]  |  bf16  |  expBias = 0, scale = 1  |    |  ModelParam = 0  |  strides = [774144, 774144, 48384, 256, 2]  |  data = 0, sizeInBytes = 774144  |  "
    }
  }
}
node {
  name: "module/model/18/fused_scaled_dot_product_attention/broadcast/12536"
  op: "Broadcast"
  input: "module/model/18/fused_scaled_dot_product_attention/slice/12535"
  attr {
    key: "Bundle_idx"
    value {
      s: "N/A"
    }
  }
  attr {
    key: "Exec_idx"
    value {
      s: "38"
    }
  }
  attr {
    key: "Op_idx"
    value {
      s: "N/A"
    }
  }
  attr {
    key: "inputTensor:0"
    value {
      s: "tensor_77_id_124491_module/model/18/fused_scaled_dot_product_attention/aten__slice  |  Sizes = [1,1,189,189]  |  bf16  |  expBias = 0, scale = 1  |    |  ModelParam = 0  |  strides = [71442, 71442, 71442, 378, 2]  |  data = 0, sizeInBytes = 71442  |  "
    }
  }
  attr {
    key: "outputTensor:0"
    value {
      s: "tensor_78_id_124492_module/model/18/fused_scaled_dot_product_attention/hpu__expand  |  Sizes = [1,1,189,189]  |  bf16  |  expBias = 0, scale = 1  |    |  ModelParam = 0  |  strides = [71442, 71442, 71442, 378, 2]  |  data = 0, sizeInBytes = 71442  |  "
    }
  }
}
node {
  name: "module/model/18/fused_scaled_dot_product_attention/expand_dims/12537"
  op: "ExpandDims"
  input: "module/model/18/fused_scaled_dot_product_attention/broadcast/12536"
  attr {
    key: "Bundle_idx"
    value {
      s: "N/A"
    }
  }
  attr {
    key: "Exec_idx"
    value {
      s: "39"
    }
  }
  attr {
    key: "Op_idx"
    value {
      s: "N/A"
    }
  }
  attr {
    key: "inputTensor:0"
    value {
      s: "tensor_78_id_124492_module/model/18/fused_scaled_dot_product_attention/hpu__expand  |  Sizes = [1,1,189,189]  |  bf16  |  expBias = 0, scale = 1  |    |  ModelParam = 0  |  strides = [71442, 71442, 71442, 378, 2]  |  data = 0, sizeInBytes = 71442  |  "
    }
  }
  attr {
    key: "outputTensor:0"
    value {
      s: "tensor_79_id_124714_module/model/18/fused_scaled_dot_product_attention/aten__unsqueeze  |  Sizes = [1,1,1,189,189]  |  bf16  |  expBias = 0, scale = 1  |    |  ModelParam = 0  |  strides = [71442, 71442, 71442, 71442, 378, 2]  |  data = 0, sizeInBytes = 71442  |  "
    }
  }
}
node {
  name: "tensor_80_odule/model/18/fused_scaled_dot_product_attention/quant_v/placeholder/1"
  op: "Placeholder"
  attr {
    key: "dtype"
    value {
      type: DT_BFLOAT16
    }
  }
  attr {
    key: "shape"
    value {
      shape {
        dim {
          size: 1
        }
        dim {
          size: 1
        }
        dim {
          size: 1
        }
        dim {
          size: 1
        }
        dim {
          size: 1
        }
      }
    }
  }
  attr {
    key: "synDataType"
    value {
      s: "bf16"
    }
  }
}
node {
  name: "module/model/18/fused_scaled_dot_product_attention/quant_v/convert_to_fp8_bf16/12538"
  op: "convert_to_fp8_bf16"
  input: "module/model/18/quant_output/convert_from_fp8_bf16/12531"
  input: "tensor_80_odule/model/18/fused_scaled_dot_product_attention/quant_v/placeholder/1"
  attr {
    key: "Bundle_idx"
    value {
      s: "N/A"
    }
  }
  attr {
    key: "Exec_idx"
    value {
      s: "40"
    }
  }
  attr {
    key: "Op_idx"
    value {
      s: "N/A"
    }
  }
  attr {
    key: "inputTensor:0"
    value {
      s: "tensor_72  |  Sizes = [1,2,189,128]  |  bf16  |  expBias = 0, scale = 1  |    |  ModelParam = 0  |  strides = [96768, 96768, 48384, 256, 2]  |  data = 0, sizeInBytes = 96768  |  isPersistent  |  userMemorySection(type=Persistent, id=28)  |  "
    }
  }
  attr {
    key: "inputTensor:1"
    value {
      s: "tensor_80_odule/model/18/fused_scaled_dot_product_attention/quant_v/placeholder/1  |  Sizes = [1]  |  bf16  |  expBias = 0, scale = 1  |    |  ModelParam = 0  |  strides = [2, 2]  |  data = 0x55db7e2ab2e0, sizeInBytes = 2  |  buffer = 16  |  isPersistent  |  userMemorySection(type=Persistent, id=30)  |  isStaticParam  |  bufferDtype=bf16  |  "
    }
  }
  attr {
    key: "outputTensor:0"
    value {
      s: "tensor_83  |  Sizes = [1,2,189,128]  |  hfloat8  |  expBias = 7, scale = 1  |    |  ModelParam = 0  |  strides = [48384, 48384, 24192, 128, 1]  |  data = 0, sizeInBytes = 48384  |  "
    }
  }
}
node {
  name: "module/model/18/fused_scaled_dot_product_attention/reshape/12539"
  op: "Reshape"
  input: "module/model/18/fused_scaled_dot_product_attention/quant_v/convert_to_fp8_bf16/12538"
  attr {
    key: "Bundle_idx"
    value {
      s: "N/A"
    }
  }
  attr {
    key: "Exec_idx"
    value {
      s: "41"
    }
  }
  attr {
    key: "Op_idx"
    value {
      s: "N/A"
    }
  }
  attr {
    key: "inputTensor:0"
    value {
      s: "tensor_83  |  Sizes = [1,2,189,128]  |  hfloat8  |  expBias = 7, scale = 1  |    |  ModelParam = 0  |  strides = [48384, 48384, 24192, 128, 1]  |  data = 0, sizeInBytes = 48384  |  "
    }
  }
  attr {
    key: "outputTensor:0"
    value {
      s: "tensor_84_id_124712_module/model/18/fused_scaled_dot_product_attention/aten__view  |  Sizes = [1,2,1,189,128]  |  hfloat8  |  expBias = 7, scale = 1  |    |  ModelParam = 0  |  strides = [48384, 48384, 24192, 24192, 128, 1]  |  data = 0, sizeInBytes = 48384  |  "
    }
  }
}
node {
  name: "tensor_85_odule/model/18/fused_scaled_dot_product_attention/quant_k/placeholder/1"
  op: "Placeholder"
  attr {
    key: "dtype"
    value {
      type: DT_BFLOAT16
    }
  }
  attr {
    key: "shape"
    value {
      shape {
        dim {
          size: 1
        }
        dim {
          size: 1
        }
        dim {
          size: 1
        }
        dim {
          size: 1
        }
        dim {
          size: 1
        }
      }
    }
  }
  attr {
    key: "synDataType"
    value {
      s: "bf16"
    }
  }
}
node {
  name: "module/model/18/fused_scaled_dot_product_attention/quant_k/convert_to_fp8_bf16/12540"
  op: "convert_to_fp8_bf16"
  input: "module/model/18/quant_output/convert_from_fp8_bf16/12523"
  input: "tensor_85_odule/model/18/fused_scaled_dot_product_attention/quant_k/placeholder/1"
  attr {
    key: "Bundle_idx"
    value {
      s: "N/A"
    }
  }
  attr {
    key: "Exec_idx"
    value {
      s: "42"
    }
  }
  attr {
    key: "Op_idx"
    value {
      s: "N/A"
    }
  }
  attr {
    key: "inputTensor:0"
    value {
      s: "tensor_49  |  Sizes = [1,2,189,128]  |  bf16  |  expBias = 0, scale = 1  |    |  ModelParam = 0  |  strides = [96768, 96768, 48384, 256, 2]  |  data = 0, sizeInBytes = 96768  |  isPersistent  |  userMemorySection(type=Persistent, id=19)  |  "
    }
  }
  attr {
    key: "inputTensor:1"
    value {
      s: "tensor_85_odule/model/18/fused_scaled_dot_product_attention/quant_k/placeholder/1  |  Sizes = [1]  |  bf16  |  expBias = 0, scale = 1  |    |  ModelParam = 0  |  strides = [2, 2]  |  data = 0x55db6bf5f6e0, sizeInBytes = 2  |  buffer = 1  |  isPersistent  |  userMemorySection(type=Persistent, id=31)  |  isStaticParam  |  bufferDtype=bf16  |  "
    }
  }
  attr {
    key: "outputTensor:0"
    value {
      s: "tensor_88  |  Sizes = [1,2,189,128]  |  hfloat8  |  expBias = 7, scale = 1  |    |  ModelParam = 0  |  strides = [48384, 48384, 24192, 128, 1]  |  data = 0, sizeInBytes = 48384  |  "
    }
  }
}
node {
  name: "module/model/18/fused_scaled_dot_product_attention/reshape/12541"
  op: "Reshape"
  input: "module/model/18/fused_scaled_dot_product_attention/quant_k/convert_to_fp8_bf16/12540"
  attr {
    key: "Bundle_idx"
    value {
      s: "N/A"
    }
  }
  attr {
    key: "Exec_idx"
    value {
      s: "43"
    }
  }
  attr {
    key: "Op_idx"
    value {
      s: "N/A"
    }
  }
  attr {
    key: "inputTensor:0"
    value {
      s: "tensor_88  |  Sizes = [1,2,189,128]  |  hfloat8  |  expBias = 7, scale = 1  |    |  ModelParam = 0  |  strides = [48384, 48384, 24192, 128, 1]  |  data = 0, sizeInBytes = 48384  |  "
    }
  }
  attr {
    key: "outputTensor:0"
    value {
      s: "tensor_89_id_124710_module/model/18/fused_scaled_dot_product_attention/aten__view  |  Sizes = [1,2,1,189,128]  |  hfloat8  |  expBias = 7, scale = 1  |    |  ModelParam = 0  |  strides = [48384, 48384, 24192, 24192, 128, 1]  |  data = 0, sizeInBytes = 48384  |  "
    }
  }
}
node {
  name: "tensor_104_odule/model/18/fused_scaled_dot_product_attention/quant_q/placeholder/1"
  op: "Placeholder"
  attr {
    key: "dtype"
    value {
      type: DT_BFLOAT16
    }
  }
  attr {
    key: "shape"
    value {
      shape {
        dim {
          size: 1
        }
        dim {
          size: 1
        }
        dim {
          size: 1
        }
        dim {
          size: 1
        }
        dim {
          size: 1
        }
      }
    }
  }
  attr {
    key: "synDataType"
    value {
      s: "bf16"
    }
  }
}
node {
  name: "module/model/18/fused_scaled_dot_product_attention/quant_q/convert_to_fp8_bf16/12548"
  op: "convert_to_fp8_bf16"
  input: "module/model/18/rotary_pos_embedding_fwd_bf16/12547"
  input: "tensor_104_odule/model/18/fused_scaled_dot_product_attention/quant_q/placeholder/1"
  attr {
    key: "Bundle_idx"
    value {
      s: "N/A"
    }
  }
  attr {
    key: "Exec_idx"
    value {
      s: "44"
    }
  }
  attr {
    key: "Op_idx"
    value {
      s: "N/A"
    }
  }
  attr {
    key: "inputTensor:0"
    value {
      s: "tensor_103  |  Sizes = [1,16,189,128]  |  bf16  |  expBias = 0, scale = 1  |    |  ModelParam = 0  |  strides = [774144, 774144, 48384, 256, 2]  |  data = 0, sizeInBytes = 774144  |  "
    }
  }
  attr {
    key: "inputTensor:1"
    value {
      s: "tensor_104_odule/model/18/fused_scaled_dot_product_attention/quant_q/placeholder/1  |  Sizes = [1]  |  bf16  |  expBias = 0, scale = 1  |    |  ModelParam = 0  |  strides = [2, 2]  |  data = 0x55db68fe91b0, sizeInBytes = 2  |  buffer = 1  |  isPersistent  |  userMemorySection(type=Persistent, id=36)  |  isStaticParam  |  bufferDtype=bf16  |  "
    }
  }
  attr {
    key: "outputTensor:0"
    value {
      s: "tensor_107  |  Sizes = [1,16,189,128]  |  hfloat8  |  expBias = 7, scale = 1  |    |  ModelParam = 0  |  strides = [387072, 387072, 24192, 128, 1]  |  data = 0, sizeInBytes = 387072  |  "
    }
  }
}
node {
  name: "module/model/18/fused_scaled_dot_product_attention/reshape/12549"
  op: "Reshape"
  input: "module/model/18/fused_scaled_dot_product_attention/quant_q/convert_to_fp8_bf16/12548"
  attr {
    key: "Bundle_idx"
    value {
      s: "N/A"
    }
  }
  attr {
    key: "Exec_idx"
    value {
      s: "45"
    }
  }
  attr {
    key: "Op_idx"
    value {
      s: "N/A"
    }
  }
  attr {
    key: "inputTensor:0"
    value {
      s: "tensor_107  |  Sizes = [1,16,189,128]  |  hfloat8  |  expBias = 7, scale = 1  |    |  ModelParam = 0  |  strides = [387072, 387072, 24192, 128, 1]  |  data = 0, sizeInBytes = 387072  |  "
    }
  }
  attr {
    key: "outputTensor:0"
    value {
      s: "tensor_108_id_124708_module/model/18/fused_scaled_dot_product_attention/aten__view  |  Sizes = [1,2,8,189,128]  |  hfloat8  |  expBias = 7, scale = 1  |    |  ModelParam = 0  |  strides = [387072, 387072, 193536, 24192, 128, 1]  |  data = 0, sizeInBytes = 387072  |  "
    }
  }
}
node {
  name: "tensor_109_odule/model/18/fused_scaled_dot_product_attention/placeholder/4"
  op: "Placeholder"
  attr {
    key: "dtype"
    value {
      type: DT_FLOAT
    }
  }
  attr {
    key: "shape"
    value {
      shape {
        dim {
          size: 1
        }
        dim {
          size: 1
        }
        dim {
          size: 1
        }
        dim {
          size: 1
        }
        dim {
          size: 1
        }
      }
    }
  }
  attr {
    key: "synDataType"
    value {
      s: "float32"
    }
  }
}
node {
  name: "tensor_110_odule/model/18/fused_scaled_dot_product_attention/placeholder/5"
  op: "Placeholder"
  attr {
    key: "dtype"
    value {
      type: DT_FLOAT
    }
  }
  attr {
    key: "shape"
    value {
      shape {
        dim {
          size: 1
        }
        dim {
          size: 1
        }
        dim {
          size: 1
        }
        dim {
          size: 1
        }
        dim {
          size: 1
        }
      }
    }
  }
  attr {
    key: "synDataType"
    value {
      s: "float32"
    }
  }
}
node {
  name: "tensor_111_odule/model/18/fused_scaled_dot_product_attention/placeholder/6"
  op: "Placeholder"
  attr {
    key: "dtype"
    value {
      type: DT_FLOAT
    }
  }
  attr {
    key: "shape"
    value {
      shape {
        dim {
          size: 1
        }
        dim {
          size: 1
        }
        dim {
          size: 1
        }
        dim {
          size: 1
        }
        dim {
          size: 1
        }
      }
    }
  }
  attr {
    key: "synDataType"
    value {
      s: "float32"
    }
  }
}
node {
  name: "tensor_112_odule/model/18/fused_scaled_dot_product_attention/placeholder/7"
  op: "Placeholder"
  attr {
    key: "dtype"
    value {
      type: DT_FLOAT
    }
  }
  attr {
    key: "shape"
    value {
      shape {
        dim {
          size: 1
        }
        dim {
          size: 1
        }
        dim {
          size: 1
        }
        dim {
          size: 1
        }
        dim {
          size: 1
        }
      }
    }
  }
  attr {
    key: "synDataType"
    value {
      s: "float32"
    }
  }
}
node {
  name: "tensor_113_odule/model/18/fused_scaled_dot_product_attention/placeholder/8"
  op: "Placeholder"
  attr {
    key: "dtype"
    value {
      type: DT_FLOAT
    }
  }
  attr {
    key: "shape"
    value {
      shape {
        dim {
          size: 1
        }
        dim {
          size: 1
        }
        dim {
          size: 1
        }
        dim {
          size: 1
        }
        dim {
          size: 1
        }
      }
    }
  }
  attr {
    key: "synDataType"
    value {
      s: "float32"
    }
  }
}
node {
  name: "tensor_114_odule/model/18/fused_scaled_dot_product_attention/placeholder/9"
  op: "Placeholder"
  attr {
    key: "dtype"
    value {
      type: DT_FLOAT
    }
  }
  attr {
    key: "shape"
    value {
      shape {
        dim {
          size: 1
        }
        dim {
          size: 1
        }
        dim {
          size: 1
        }
        dim {
          size: 1
        }
        dim {
          size: 1
        }
      }
    }
  }
  attr {
    key: "synDataType"
    value {
      s: "float32"
    }
  }
}
node {
  name: "module/model/18/fused_scaled_dot_product_attention/sdpa_recomp_fwd_hf8/12550"
  op: "sdpa_recomp_fwd_hf8"
  input: "module/model/18/fused_scaled_dot_product_attention/reshape/12549"
  input: "module/model/18/fused_scaled_dot_product_attention/reshape/12541"
  input: "module/model/18/fused_scaled_dot_product_attention/reshape/12539"
  input: "module/model/18/fused_scaled_dot_product_attention/expand_dims/12537"
  input: "unused_port"
  input: "tensor_109_odule/model/18/fused_scaled_dot_product_attention/placeholder/4"
  input: "tensor_110_odule/model/18/fused_scaled_dot_product_attention/placeholder/5"
  input: "tensor_111_odule/model/18/fused_scaled_dot_product_attention/placeholder/6"
  input: "tensor_112_odule/model/18/fused_scaled_dot_product_attention/placeholder/7"
  input: "tensor_113_odule/model/18/fused_scaled_dot_product_attention/placeholder/8"
  input: "tensor_114_odule/model/18/fused_scaled_dot_product_attention/placeholder/9"
  attr {
    key: "Bundle_idx"
    value {
      s: "N/A"
    }
  }
  attr {
    key: "Exec_idx"
    value {
      s: "46"
    }
  }
  attr {
    key: "Op_idx"
    value {
      s: "N/A"
    }
  }
  attr {
    key: "inputTensor:00"
    value {
      s: "tensor_108_id_124708_module/model/18/fused_scaled_dot_product_attention/aten__view  |  Sizes = [1,2,8,189,128]  |  hfloat8  |  expBias = 7, scale = 1  |    |  ModelParam = 0  |  strides = [387072, 387072, 193536, 24192, 128, 1]  |  data = 0, sizeInBytes = 387072  |  "
    }
  }
  attr {
    key: "inputTensor:01"
    value {
      s: "tensor_89_id_124710_module/model/18/fused_scaled_dot_product_attention/aten__view  |  Sizes = [1,2,1,189,128]  |  hfloat8  |  expBias = 7, scale = 1  |    |  ModelParam = 0  |  strides = [48384, 48384, 24192, 24192, 128, 1]  |  data = 0, sizeInBytes = 48384  |  "
    }
  }
  attr {
    key: "inputTensor:02"
    value {
      s: "tensor_84_id_124712_module/model/18/fused_scaled_dot_product_attention/aten__view  |  Sizes = [1,2,1,189,128]  |  hfloat8  |  expBias = 7, scale = 1  |    |  ModelParam = 0  |  strides = [48384, 48384, 24192, 24192, 128, 1]  |  data = 0, sizeInBytes = 48384  |  "
    }
  }
  attr {
    key: "inputTensor:03"
    value {
      s: "tensor_79_id_124714_module/model/18/fused_scaled_dot_product_attention/aten__unsqueeze  |  Sizes = [1,1,1,189,189]  |  bf16  |  expBias = 0, scale = 1  |    |  ModelParam = 0  |  strides = [71442, 71442, 71442, 71442, 378, 2]  |  data = 0, sizeInBytes = 71442  |  "
    }
  }
  attr {
    key: "inputTensor:05"
    value {
      s: "tensor_109_odule/model/18/fused_scaled_dot_product_attention/placeholder/4  |  Sizes = [1]  |  float32  |  expBias = 0, scale = 1  |    |  ModelParam = 0  |  strides = [4, 4]  |  data = 0x55db6c608c98, sizeInBytes = 4  |  buffer = 1  |  isPersistent  |  userMemorySection(type=Persistent, id=37)  |  isStaticParam  |  bufferDtype=float32  |  "
    }
  }
  attr {
    key: "inputTensor:06"
    value {
      s: "tensor_110_odule/model/18/fused_scaled_dot_product_attention/placeholder/5  |  Sizes = [1]  |  float32  |  expBias = 0, scale = 1  |    |  ModelParam = 0  |  strides = [4, 4]  |  data = 0x55db7e2ab7f0, sizeInBytes = 4  |  buffer = 1  |  isPersistent  |  userMemorySection(type=Persistent, id=38)  |  isStaticParam  |  bufferDtype=float32  |  "
    }
  }
  attr {
    key: "inputTensor:07"
    value {
      s: "tensor_111_odule/model/18/fused_scaled_dot_product_attention/placeholder/6  |  Sizes = [1]  |  float32  |  expBias = 0, scale = 1  |    |  ModelParam = 0  |  strides = [4, 4]  |  data = 0x55db7e2ab7e8, sizeInBytes = 4  |  buffer = 0.0625  |  isPersistent  |  userMemorySection(type=Persistent, id=39)  |  isStaticParam  |  bufferDtype=float32  |  "
    }
  }
  attr {
    key: "inputTensor:08"
    value {
      s: "tensor_112_odule/model/18/fused_scaled_dot_product_attention/placeholder/7  |  Sizes = [1]  |  float32  |  expBias = 0, scale = 1  |    |  ModelParam = 0  |  strides = [4, 4]  |  data = 0x55db7e2ab7f8, sizeInBytes = 4  |  buffer = 16  |  isPersistent  |  userMemorySection(type=Persistent, id=40)  |  isStaticParam  |  bufferDtype=float32  |  "
    }
  }
  attr {
    key: "inputTensor:09"
    value {
      s: "tensor_113_odule/model/18/fused_scaled_dot_product_attention/placeholder/8  |  Sizes = [1]  |  float32  |  expBias = 0, scale = 1  |    |  ModelParam = 0  |  strides = [4, 4]  |  data = 0x55db7e2ab800, sizeInBytes = 4  |  buffer = 16  |  isPersistent  |  userMemorySection(type=Persistent, id=41)  |  isStaticParam  |  bufferDtype=float32  |  "
    }
  }
  attr {
    key: "inputTensor:10"
    value {
      s: "tensor_114_odule/model/18/fused_scaled_dot_product_attention/placeholder/9  |  Sizes = [1]  |  float32  |  expBias = 0, scale = 1  |    |  ModelParam = 0  |  strides = [4, 4]  |  data = 0x55db7e2ab808, sizeInBytes = 4  |  buffer = 0.0625  |  isPersistent  |  userMemorySection(type=Persistent, id=42)  |  isStaticParam  |  bufferDtype=float32  |  "
    }
  }
  attr {
    key: "outputTensor:0"
    value {
      s: "tensor_120  |  Sizes = [1,2,8,189,128]  |  hfloat8  |  expBias = 7, scale = 1  |    |  ModelParam = 0  |  strides = [387072, 387072, 193536, 24192, 128, 1]  |  data = 0, sizeInBytes = 387072  |  "
    }
  }
}
node {
  name: "module/model/18/fused_scaled_dot_product_attention/dequant_output/reshape/12551"
  op: "Reshape"
  input: "module/model/18/fused_scaled_dot_product_attention/sdpa_recomp_fwd_hf8/12550"
  attr {
    key: "Bundle_idx"
    value {
      s: "N/A"
    }
  }
  attr {
    key: "Exec_idx"
    value {
      s: "47"
    }
  }
  attr {
    key: "Op_idx"
    value {
      s: "N/A"
    }
  }
  attr {
    key: "inputTensor:0"
    value {
      s: "tensor_120  |  Sizes = [1,2,8,189,128]  |  hfloat8  |  expBias = 7, scale = 1  |    |  ModelParam = 0  |  strides = [387072, 387072, 193536, 24192, 128, 1]  |  data = 0, sizeInBytes = 387072  |  "
    }
  }
  attr {
    key: "outputTensor:0"
    value {
      s: "tensor_121_id_124733_module/model/18/fused_scaled_dot_product_attention/dequant_output/aten__view  |  Sizes = [1,16,189,128]  |  hfloat8  |  expBias = 7, scale = 1  |    |  ModelParam = 0  |  strides = [387072, 387072, 24192, 128, 1]  |  data = 0, sizeInBytes = 387072  |  "
    }
  }
}
node {
  name: "tensor_122_odule/model/18/fused_scaled_dot_product_attention/dequant_output/placeholder/1"
  op: "Placeholder"
  attr {
    key: "dtype"
    value {
      type: DT_BFLOAT16
    }
  }
  attr {
    key: "shape"
    value {
      shape {
        dim {
          size: 1
        }
        dim {
          size: 1
        }
        dim {
          size: 1
        }
        dim {
          size: 1
        }
        dim {
          size: 1
        }
      }
    }
  }
  attr {
    key: "synDataType"
    value {
      s: "bf16"
    }
  }
}
node {
  name: "module/model/18/fused_scaled_dot_product_attention/dequant_output/convert_from_fp8_bf16/12552"
  op: "convert_from_fp8_bf16"
  input: "module/model/18/fused_scaled_dot_product_attention/dequant_output/reshape/12551"
  input: "tensor_122_odule/model/18/fused_scaled_dot_product_attention/dequant_output/placeholder/1"
  attr {
    key: "Bundle_idx"
    value {
      s: "N/A"
    }
  }
  attr {
    key: "Exec_idx"
    value {
      s: "48"
    }
  }
  attr {
    key: "Op_idx"
    value {
      s: "N/A"
    }
  }
  attr {
    key: "inputTensor:0"
    value {
      s: "tensor_121_id_124733_module/model/18/fused_scaled_dot_product_attention/dequant_output/aten__view  |  Sizes = [1,16,189,128]  |  hfloat8  |  expBias = 7, scale = 1  |    |  ModelParam = 0  |  strides = [387072, 387072, 24192, 128, 1]  |  data = 0, sizeInBytes = 387072  |  "
    }
  }
  attr {
    key: "inputTensor:1"
    value {
      s: "tensor_122_odule/model/18/fused_scaled_dot_product_attention/dequant_output/placeholder/1  |  Sizes = [1]  |  bf16  |  expBias = 0, scale = 1  |    |  ModelParam = 0  |  strides = [2, 2]  |  data = 0x55db7e2ab818, sizeInBytes = 2  |  buffer = 0.0625  |  isPersistent  |  userMemorySection(type=Persistent, id=43)  |  isStaticParam  |  bufferDtype=bf16  |  "
    }
  }
  attr {
    key: "outputTensor:0"
    value {
      s: "tensor_124  |  Sizes = [1,16,189,128]  |  bf16  |  expBias = 0, scale = 1  |    |  ModelParam = 0  |  strides = [774144, 774144, 48384, 256, 2]  |  data = 0, sizeInBytes = 774144  |  "
    }
  }
}
node {
  name: "module/model/18/transpose/12553"
  op: "Transpose"
  input: "module/model/18/fused_scaled_dot_product_attention/dequant_output/convert_from_fp8_bf16/12552"
  attr {
    key: "Bundle_idx"
    value {
      s: "N/A"
    }
  }
  attr {
    key: "Exec_idx"
    value {
      s: "49"
    }
  }
  attr {
    key: "Op_idx"
    value {
      s: "N/A"
    }
  }
  attr {
    key: "Parameters"
    value {
      s: "permutation: (0,2,1,3)"
    }
  }
  attr {
    key: "inputTensor:0"
    value {
      s: "tensor_124  |  Sizes = [1,16,189,128]  |  bf16  |  expBias = 0, scale = 1  |    |  ModelParam = 0  |  strides = [774144, 774144, 48384, 256, 2]  |  data = 0, sizeInBytes = 774144  |  "
    }
  }
  attr {
    key: "outputTensor:0"
    value {
      s: "tensor_125_id_124738_module/model/18/aten__transpose  |  Sizes = [1,189,16,128]  |  bf16  |  expBias = 0, scale = 1  |    |  ModelParam = 0  |  strides = [774144, 774144, 4096, 256, 2]  |  data = 0, sizeInBytes = 774144  |  "
    }
  }
}
node {
  name: "module/model/18/identity/12554"
  op: "Identity"
  input: "module/model/18/transpose/12553"
  attr {
    key: "Bundle_idx"
    value {
      s: "N/A"
    }
  }
  attr {
    key: "Exec_idx"
    value {
      s: "50"
    }
  }
  attr {
    key: "Op_idx"
    value {
      s: "N/A"
    }
  }
  attr {
    key: "inputTensor:0"
    value {
      s: "tensor_125_id_124738_module/model/18/aten__transpose  |  Sizes = [1,189,16,128]  |  bf16  |  expBias = 0, scale = 1  |    |  ModelParam = 0  |  strides = [774144, 774144, 4096, 256, 2]  |  data = 0, sizeInBytes = 774144  |  "
    }
  }
  attr {
    key: "outputTensor:0"
    value {
      s: "tensor_126_id_124740_module/model/18/aten__clone  |  Sizes = [1,189,16,128]  |  bf16  |  expBias = 0, scale = 1  |    |  ModelParam = 0  |  strides = [774144, 774144, 4096, 256, 2]  |  data = 0, sizeInBytes = 774144  |  "
    }
  }
}
node {
  name: "module/model/18/o_proj/quant_input_0/reshape/12555"
  op: "Reshape"
  input: "module/model/18/identity/12554"
  attr {
    key: "Bundle_idx"
    value {
      s: "N/A"
    }
  }
  attr {
    key: "Exec_idx"
    value {
      s: "51"
    }
  }
  attr {
    key: "Op_idx"
    value {
      s: "N/A"
    }
  }
  attr {
    key: "inputTensor:0"
    value {
      s: "tensor_126_id_124740_module/model/18/aten__clone  |  Sizes = [1,189,16,128]  |  bf16  |  expBias = 0, scale = 1  |    |  ModelParam = 0  |  strides = [774144, 774144, 4096, 256, 2]  |  data = 0, sizeInBytes = 774144  |  "
    }
  }
  attr {
    key: "outputTensor:0"
    value {
      s: "tensor_127_id_124743_module/model/18/o_proj/quant_input_0/aten__view  |  Sizes = [1,189,2048]  |  bf16  |  expBias = 0, scale = 1  |    |  ModelParam = 0  |  strides = [774144, 774144, 4096, 2]  |  data = 0, sizeInBytes = 774144  |  "
    }
  }
}
node {
  name: "module/model/18/constant_hf8/12501"
  op: "constant_hf8"
  attr {
    key: "Bundle_idx"
    value {
      s: "N/A"
    }
  }
  attr {
    key: "Exec_idx"
    value {
      s: "52"
    }
  }
  attr {
    key: "Op_idx"
    value {
      s: "N/A"
    }
  }
  attr {
    key: "outputTensor:0"
    value {
      s: "tensor_5  |  Sizes = [1,2,189,128]  |  hfloat8  |  expBias = 7, scale = 1  |    |  ModelParam = 0  |  strides = [48384, 48384, 24192, 128, 1]  |  data = 0, sizeInBytes = 48384  |  isPersistent  |  userMemorySection(type=Persistent, id=6)  |  "
    }
  }
}
node {
  name: "tensor_5"
  op: "OutputTensor"
  input: "module/model/18/constant_hf8/12501"
  attr {
    key: "dtype"
    value {
      type: DT_INVALID
    }
  }
  attr {
    key: "shape"
    value {
      shape {
        dim {
          size: 128
        }
        dim {
          size: 189
        }
        dim {
          size: 2
        }
        dim {
          size: 1
        }
        dim {
          size: 1
        }
      }
    }
  }
  attr {
    key: "synDataType"
    value {
      s: "hfloat8"
    }
  }
}
node {
  name: "module/model/18/constant_hf8/12524"
  op: "constant_hf8"
  attr {
    key: "Bundle_idx"
    value {
      s: "N/A"
    }
  }
  attr {
    key: "Exec_idx"
    value {
      s: "53"
    }
  }
  attr {
    key: "Op_idx"
    value {
      s: "N/A"
    }
  }
  attr {
    key: "outputTensor:0"
    value {
      s: "tensor_52  |  Sizes = [1,2,189,128]  |  hfloat8  |  expBias = 7, scale = 1  |    |  ModelParam = 0  |  strides = [48384, 48384, 24192, 128, 1]  |  data = 0, sizeInBytes = 48384  |  isPersistent  |  userMemorySection(type=Persistent, id=20)  |  "
    }
  }
}
node {
  name: "tensor_52"
  op: "OutputTensor"
  input: "module/model/18/constant_hf8/12524"
  attr {
    key: "dtype"
    value {
      type: DT_INVALID
    }
  }
  attr {
    key: "shape"
    value {
      shape {
        dim {
          size: 128
        }
        dim {
          size: 189
        }
        dim {
          size: 2
        }
        dim {
          size: 1
        }
        dim {
          size: 1
        }
      }
    }
  }
  attr {
    key: "synDataType"
    value {
      s: "hfloat8"
    }
  }
}
node {
  name: "tensor_128_odule/model/18/o_proj/quant_input_0/placeholder/1"
  op: "Placeholder"
  attr {
    key: "dtype"
    value {
      type: DT_BFLOAT16
    }
  }
  attr {
    key: "shape"
    value {
      shape {
        dim {
          size: 1
        }
        dim {
          size: 1
        }
        dim {
          size: 1
        }
        dim {
          size: 1
        }
        dim {
          size: 1
        }
      }
    }
  }
  attr {
    key: "synDataType"
    value {
      s: "bf16"
    }
  }
}
node {
  name: "module/model/18/o_proj/quant_input_0/convert_to_fp8_bf16/12556"
  op: "convert_to_fp8_bf16"
  input: "module/model/18/o_proj/quant_input_0/reshape/12555"
  input: "tensor_128_odule/model/18/o_proj/quant_input_0/placeholder/1"
  attr {
    key: "Bundle_idx"
    value {
      s: "N/A"
    }
  }
  attr {
    key: "Exec_idx"
    value {
      s: "54"
    }
  }
  attr {
    key: "Op_idx"
    value {
      s: "N/A"
    }
  }
  attr {
    key: "inputTensor:0"
    value {
      s: "tensor_127_id_124743_module/model/18/o_proj/quant_input_0/aten__view  |  Sizes = [1,189,2048]  |  bf16  |  expBias = 0, scale = 1  |    |  ModelParam = 0  |  strides = [774144, 774144, 4096, 2]  |  data = 0, sizeInBytes = 774144  |  "
    }
  }
  attr {
    key: "inputTensor:1"
    value {
      s: "tensor_128_odule/model/18/o_proj/quant_input_0/placeholder/1  |  Sizes = [1]  |  bf16  |  expBias = 0, scale = 1  |    |  ModelParam = 0  |  strides = [2, 2]  |  data = 0x55db7e2ab890, sizeInBytes = 2  |  buffer = 16  |  isPersistent  |  userMemorySection(type=Persistent, id=44)  |  isStaticParam  |  bufferDtype=bf16  |  "
    }
  }
  attr {
    key: "outputTensor:0"
    value {
      s: "tensor_131  |  Sizes = [1,189,2048]  |  hfloat8  |  expBias = 7, scale = 1  |    |  ModelParam = 0  |  strides = [387072, 387072, 2048, 1]  |  data = 0, sizeInBytes = 387072  |  "
    }
  }
}
node {
  name: "module/model/18/memcpy/12522"
  op: "Memcpy"
  input: "module/model/18/quant_input_0/convert_to_fp8_bf16/12521"
  input: "^module/model/18/constant_hf8/12501"
  attr {
    key: "Bundle_idx"
    value {
      s: "N/A"
    }
  }
  attr {
    key: "Exec_idx"
    value {
      s: "55"
    }
  }
  attr {
    key: "Op_idx"
    value {
      s: "N/A"
    }
  }
  attr {
    key: "inputTensor:0"
    value {
      s: "tensor_45  |  Sizes = [1,2,189,128]  |  hfloat8  |  expBias = 7, scale = 1  |    |  ModelParam = 0  |  strides = [48384, 48384, 24192, 128, 1]  |  data = 0, sizeInBytes = 48384  |  "
    }
  }
  attr {
    key: "outputTensor:0"
    value {
      s: "tensor_46  |  Sizes = [1,2,189,128]  |  hfloat8  |  expBias = 7, scale = 1  |    |  ModelParam = 0  |  strides = [48384, 48384, 24192, 128, 1]  |  data = 0, sizeInBytes = 48384  |  isPersistent  |  userMemorySection(type=Persistent, id=6)  |  "
    }
  }
}
node {
  name: "tensor_46"
  op: "OutputTensor"
  input: "module/model/18/memcpy/12522"
  attr {
    key: "dtype"
    value {
      type: DT_INVALID
    }
  }
  attr {
    key: "shape"
    value {
      shape {
        dim {
          size: 128
        }
        dim {
          size: 189
        }
        dim {
          size: 2
        }
        dim {
          size: 1
        }
        dim {
          size: 1
        }
      }
    }
  }
  attr {
    key: "synDataType"
    value {
      s: "hfloat8"
    }
  }
}
node {
  name: "module/model/18/memcpy/12530"
  op: "Memcpy"
  input: "module/model/18/quant_input_0/convert_to_fp8_bf16/12529"
  input: "^module/model/18/constant_hf8/12524"
  attr {
    key: "Bundle_idx"
    value {
      s: "N/A"
    }
  }
  attr {
    key: "Exec_idx"
    value {
      s: "56"
    }
  }
  attr {
    key: "Op_idx"
    value {
      s: "N/A"
    }
  }
  attr {
    key: "inputTensor:0"
    value {
      s: "tensor_68  |  Sizes = [1,2,189,128]  |  hfloat8  |  expBias = 7, scale = 1  |    |  ModelParam = 0  |  strides = [48384, 48384, 24192, 128, 1]  |  data = 0, sizeInBytes = 48384  |  "
    }
  }
  attr {
    key: "outputTensor:0"
    value {
      s: "tensor_69  |  Sizes = [1,2,189,128]  |  hfloat8  |  expBias = 7, scale = 1  |    |  ModelParam = 0  |  strides = [48384, 48384, 24192, 128, 1]  |  data = 0, sizeInBytes = 48384  |  isPersistent  |  userMemorySection(type=Persistent, id=20)  |  "
    }
  }
}
node {
  name: "tensor_69"
  op: "OutputTensor"
  input: "module/model/18/memcpy/12530"
  attr {
    key: "dtype"
    value {
      type: DT_INVALID
    }
  }
  attr {
    key: "shape"
    value {
      shape {
        dim {
          size: 128
        }
        dim {
          size: 189
        }
        dim {
          size: 2
        }
        dim {
          size: 1
        }
        dim {
          size: 1
        }
      }
    }
  }
  attr {
    key: "synDataType"
    value {
      s: "hfloat8"
    }
  }
}
node {
  name: "tensor_132_odule/model/18/o_proj/placeholder/1"
  op: "Placeholder"
  attr {
    key: "dtype"
    value {
      type: DT_INVALID
    }
  }
  attr {
    key: "shape"
    value {
      shape {
        dim {
          size: 8192
        }
        dim {
          size: 2048
        }
        dim {
          size: 1
        }
        dim {
          size: 1
        }
        dim {
          size: 1
        }
      }
    }
  }
  attr {
    key: "synDataType"
    value {
      s: "hfloat8"
    }
  }
}
node {
  name: "tensor_133_odule/model/18/o_proj/placeholder/2"
  op: "Placeholder"
  attr {
    key: "dtype"
    value {
      type: DT_BFLOAT16
    }
  }
  attr {
    key: "shape"
    value {
      shape {
        dim {
          size: 1
        }
        dim {
          size: 1
        }
        dim {
          size: 1
        }
        dim {
          size: 1
        }
        dim {
          size: 1
        }
      }
    }
  }
  attr {
    key: "synDataType"
    value {
      s: "bf16"
    }
  }
}
node {
  name: "tensor_134_odule/model/18/o_proj/placeholder/3"
  op: "Placeholder"
  attr {
    key: "dtype"
    value {
      type: DT_BFLOAT16
    }
  }
  attr {
    key: "shape"
    value {
      shape {
        dim {
          size: 1
        }
        dim {
          size: 1
        }
        dim {
          size: 1
        }
        dim {
          size: 1
        }
        dim {
          size: 1
        }
      }
    }
  }
  attr {
    key: "synDataType"
    value {
      s: "bf16"
    }
  }
}
node {
  name: "module/model/18/o_proj/fp8_gemm_bf16/12557"
  op: "fp8_gemm_bf16"
  input: "module/model/18/o_proj/quant_input_0/convert_to_fp8_bf16/12556"
  input: "tensor_132_odule/model/18/o_proj/placeholder/1"
  input: "tensor_133_odule/model/18/o_proj/placeholder/2"
  input: "tensor_134_odule/model/18/o_proj/placeholder/3"
  input: "unused_port"
  input: "unused_port"
  input: "unused_port"
  attr {
    key: "Bundle_idx"
    value {
      s: "N/A"
    }
  }
  attr {
    key: "Exec_idx"
    value {
      s: "57"
    }
  }
  attr {
    key: "Op_idx"
    value {
      s: "N/A"
    }
  }
  attr {
    key: "inputTensor:0"
    value {
      s: "tensor_131  |  Sizes = [1,189,2048]  |  hfloat8  |  expBias = 7, scale = 1  |    |  ModelParam = 0  |  strides = [387072, 387072, 2048, 1]  |  data = 0, sizeInBytes = 387072  |  "
    }
  }
  attr {
    key: "inputTensor:1"
    value {
      s: "tensor_132_odule/model/18/o_proj/placeholder/1  |  Sizes = [2048,8192]  |  hfloat8  |  expBias = 7, scale = 1  |    |  ModelParam = 0  |  strides = [16777216, 8192, 1]  |  data = 0, sizeInBytes = 16777216  |  isPersistent  |  userMemorySection(type=Persistent, id=45)  |  "
    }
  }
  attr {
    key: "inputTensor:2"
    value {
      s: "tensor_133_odule/model/18/o_proj/placeholder/2  |  Sizes = [1]  |  bf16  |  expBias = 0, scale = 1  |    |  ModelParam = 0  |  strides = [2, 2]  |  data = 0x55db7e2ab8c0, sizeInBytes = 2  |  buffer = 0.0625  |  isPersistent  |  userMemorySection(type=Persistent, id=46)  |  isStaticParam  |  bufferDtype=bf16  |  "
    }
  }
  attr {
    key: "inputTensor:3"
    value {
      s: "tensor_134_odule/model/18/o_proj/placeholder/3  |  Sizes = [1]  |  bf16  |  expBias = 0, scale = 1  |    |  ModelParam = 0  |  strides = [2, 2]  |  data = 0x55db7e2ab8b8, sizeInBytes = 2  |  buffer = 0.00390625  |  isPersistent  |  userMemorySection(type=Persistent, id=47)  |  isStaticParam  |  bufferDtype=bf16  |  "
    }
  }
  attr {
    key: "outputTensor:0"
    value {
      s: "tensor_136  |  Sizes = [1,189,8192]  |  bf16  |  expBias = 0, scale = 1  |    |  ModelParam = 0  |  strides = [3096576, 3096576, 16384, 2]  |  data = 0, sizeInBytes = 3096576  |  isPersistent  |  userMemorySection(type=Persistent, id=49)  |  "
    }
  }
}
node {
  name: "tensor_136"
  op: "OutputTensor"
  input: "module/model/18/o_proj/fp8_gemm_bf16/12557"
  attr {
    key: "dtype"
    value {
      type: DT_BFLOAT16
    }
  }
  attr {
    key: "shape"
    value {
      shape {
        dim {
          size: 8192
        }
        dim {
          size: 189
        }
        dim {
          size: 1
        }
        dim {
          size: 1
        }
        dim {
          size: 1
        }
      }
    }
  }
  attr {
    key: "synDataType"
    value {
      s: "bf16"
    }
  }
}
