node {
  name: "tensor_7_odule/model/78/placeholder/0"
  op: "Placeholder"
  attr {
    key: "dtype"
    value {
      type: DT_INT32
    }
  }
  attr {
    key: "shape"
    value {
      shape {
        dim {
          size: 284
        }
        dim {
          size: 1
        }
        dim {
          size: 1
        }
        dim {
          size: 1
        }
        dim {
          size: 1
        }
      }
    }
  }
  attr {
    key: "synDataType"
    value {
      s: "int32"
    }
  }
}
node {
  name: "module/model/78/expand_dims/11122"
  op: "ExpandDims"
  input: "tensor_7_odule/model/78/placeholder/0"
  attr {
    key: "Bundle_idx"
    value {
      s: "N/A"
    }
  }
  attr {
    key: "Exec_idx"
    value {
      s: "0"
    }
  }
  attr {
    key: "Op_idx"
    value {
      s: "N/A"
    }
  }
  attr {
    key: "inputTensor:0"
    value {
      s: "tensor_7_odule/model/78/placeholder/0  |  Sizes = [284]  |  int32  |  expBias = 0, scale = 1  |    |  ModelParam = 0  |  strides = [1136, 4]  |  data = 0, sizeInBytes = 1136  |  isPersistent  |  location = in DRAM  |  dramOffset = 0x70000000000  |  userMemorySection(type=Persistent, id=7)  |  "
    }
  }
  attr {
    key: "outputTensor:0"
    value {
      s: "tensor_8_id_118809_module/model/78/aten__unsqueeze/1  |  Sizes = [1,284]  |  int32  |  expBias = 0, scale = 1  |    |  ModelParam = 0  |  strides = [1136, 1136, 4]  |  data = 0, sizeInBytes = 1136  |  isAliased = tensor_7_odule/model/78/placeholder/0, type = alias, offset: 0  |  location = in DRAM  |  "
    }
  }
}
node {
  name: "tensor_9_odule/model/78/rotary_emb/placeholder/0"
  op: "Placeholder"
  attr {
    key: "dtype"
    value {
      type: DT_BFLOAT16
    }
  }
  attr {
    key: "shape"
    value {
      shape {
        dim {
          size: 128
        }
        dim {
          size: 131072
        }
        dim {
          size: 1
        }
        dim {
          size: 1
        }
        dim {
          size: 1
        }
      }
    }
  }
  attr {
    key: "synDataType"
    value {
      s: "bf16"
    }
  }
}
node {
  name: "module/model/78/rotary_emb/slice/11123"
  op: "Slice"
  input: "tensor_9_odule/model/78/rotary_emb/placeholder/0"
  attr {
    key: "Bundle_idx"
    value {
      s: "N/A"
    }
  }
  attr {
    key: "Exec_idx"
    value {
      s: "1"
    }
  }
  attr {
    key: "Op_idx"
    value {
      s: "N/A"
    }
  }
  attr {
    key: "inputTensor:0"
    value {
      s: "tensor_9_odule/model/78/rotary_emb/placeholder/0  |  Sizes = [131072,128]  |  bf16  |  expBias = 0, scale = 1  |    |  ModelParam = 0  |  strides = [33554432, 256, 2]  |  data = 0, sizeInBytes = 33554432  |  isPersistent  |  location = in DRAM  |  dramOffset = 0x80000000000  |  userMemorySection(type=Persistent, id=8)  |  "
    }
  }
  attr {
    key: "outputTensor:0"
    value {
      s: "tensor_10_id_118927_module/model/78/rotary_emb/aten__slice  |  Sizes = [284,128]  |  bf16  |  expBias = 0, scale = 1  |    |  ModelParam = 0  |  strides = [33554432, 256, 2]  |  data = 0, sizeInBytes = 72704  |  isAliased = tensor_9_odule/model/78/rotary_emb/placeholder/0, type = slice, offset: 0  |  location = in DRAM  |  "
    }
  }
}
node {
  name: "tensor_11_odule/model/78/rotary_emb/placeholder/1"
  op: "Placeholder"
  attr {
    key: "dtype"
    value {
      type: DT_FLOAT
    }
  }
  attr {
    key: "shape"
    value {
      shape {
        dim {
          size: 1
        }
        dim {
          size: 1
        }
        dim {
          size: 1
        }
        dim {
          size: 1
        }
        dim {
          size: 1
        }
      }
    }
  }
  attr {
    key: "synDataType"
    value {
      s: "float32"
    }
  }
}
node {
  name: "module/model/78/rotary_emb/cast_f32_to_bf16/11124"
  op: "cast_f32_to_bf16"
  input: "tensor_11_odule/model/78/rotary_emb/placeholder/1"
  attr {
    key: "Bundle_idx"
    value {
      s: "N/A"
    }
  }
  attr {
    key: "Exec_idx"
    value {
      s: "2"
    }
  }
  attr {
    key: "Op_idx"
    value {
      s: "N/A"
    }
  }
  attr {
    key: "inputTensor:0"
    value {
      s: "tensor_11_odule/model/78/rotary_emb/placeholder/1  |  Sizes = [1]  |  float32  |  expBias = 0, scale = 1  |    |  ModelParam = 0  |  strides = [4, 4]  |  data = 0, sizeInBytes = 4  |  isPersistent  |  location = in DRAM  |  dramOffset = 0x90000000000  |  userMemorySection(type=Persistent, id=9)  |  "
    }
  }
  attr {
    key: "outputTensor:0"
    value {
      s: "tensor_13  |  Sizes = [1]  |  bf16  |  expBias = 0, scale = 1  |    |  ModelParam = 0  |  strides = [2, 2]  |  data = 0, sizeInBytes = 2  |  location = in DRAM  |  dramOffset = 0x60000000000  |  "
    }
  }
}
node {
  name: "module/model/78/rotary_emb/mult_fwd_bf16/11125_complex/mult_fwd_bf16_0"
  op: "mult_fwd_bf16"
  input: "module/model/78/rotary_emb/slice/11123"
  input: "module/model/78/rotary_emb/cast_f32_to_bf16/11124"
  attr {
    key: "Bundle_idx"
    value {
      s: "N/A"
    }
  }
  attr {
    key: "Exec_idx"
    value {
      s: "3"
    }
  }
  attr {
    key: "Op_idx"
    value {
      s: "N/A"
    }
  }
  attr {
    key: "inputTensor:0"
    value {
      s: "tensor_10_id_118927_module/model/78/rotary_emb/aten__slice  |  Sizes = [284,128]  |  bf16  |  expBias = 0, scale = 1  |    |  ModelParam = 0  |  strides = [33554432, 256, 2]  |  data = 0, sizeInBytes = 72704  |  isAliased = tensor_9_odule/model/78/rotary_emb/placeholder/0, type = slice, offset: 0  |  location = in DRAM  |  "
    }
  }
  attr {
    key: "inputTensor:1"
    value {
      s: "tensor_13  |  Sizes = [1]  |  bf16  |  expBias = 0, scale = 1  |    |  ModelParam = 0  |  strides = [2, 2]  |  data = 0, sizeInBytes = 2  |  location = in DRAM  |  dramOffset = 0x60000000000  |  "
    }
  }
  attr {
    key: "outputTensor:0"
    value {
      s: "tensor_12_id_118929_module/model/78/rotary_emb/aten__mul  |  Sizes = [284,128]  |  bf16  |  expBias = 0, scale = 1  |    |  ModelParam = 0  |  strides = [72704, 256, 2]  |  data = 0, sizeInBytes = 72704  |  location = in DRAM  |  dramOffset = 0x130000000000  |  "
    }
  }
}
node {
  name: "tensor_17_odule/model/78/rotary_emb/placeholder/0"
  op: "Placeholder"
  attr {
    key: "dtype"
    value {
      type: DT_BFLOAT16
    }
  }
  attr {
    key: "shape"
    value {
      shape {
        dim {
          size: 128
        }
        dim {
          size: 131072
        }
        dim {
          size: 1
        }
        dim {
          size: 1
        }
        dim {
          size: 1
        }
      }
    }
  }
  attr {
    key: "synDataType"
    value {
      s: "bf16"
    }
  }
}
node {
  name: "module/model/78/rotary_emb/slice/11129"
  op: "Slice"
  input: "tensor_17_odule/model/78/rotary_emb/placeholder/0"
  attr {
    key: "Bundle_idx"
    value {
      s: "N/A"
    }
  }
  attr {
    key: "Exec_idx"
    value {
      s: "4"
    }
  }
  attr {
    key: "Op_idx"
    value {
      s: "N/A"
    }
  }
  attr {
    key: "inputTensor:0"
    value {
      s: "tensor_17_odule/model/78/rotary_emb/placeholder/0  |  Sizes = [131072,128]  |  bf16  |  expBias = 0, scale = 1  |    |  ModelParam = 0  |  strides = [33554432, 256, 2]  |  data = 0, sizeInBytes = 33554432  |  isPersistent  |  location = in DRAM  |  dramOffset = 0xa0000000000  |  userMemorySection(type=Persistent, id=10)  |  "
    }
  }
  attr {
    key: "outputTensor:0"
    value {
      s: "tensor_18_id_118931_module/model/78/rotary_emb/aten__slice  |  Sizes = [284,128]  |  bf16  |  expBias = 0, scale = 1  |    |  ModelParam = 0  |  strides = [33554432, 256, 2]  |  data = 0, sizeInBytes = 72704  |  isAliased = tensor_17_odule/model/78/rotary_emb/placeholder/0, type = slice, offset: 0  |  location = in DRAM  |  "
    }
  }
}
node {
  name: "module/model/78/rotary_emb/mult_fwd_bf16/11131_complex/mult_fwd_bf16_0"
  op: "mult_fwd_bf16"
  input: "module/model/78/rotary_emb/slice/11129"
  input: "module/model/78/rotary_emb/cast_f32_to_bf16/11124"
  attr {
    key: "Bundle_idx"
    value {
      s: "N/A"
    }
  }
  attr {
    key: "Exec_idx"
    value {
      s: "5"
    }
  }
  attr {
    key: "Op_idx"
    value {
      s: "N/A"
    }
  }
  attr {
    key: "inputTensor:0"
    value {
      s: "tensor_18_id_118931_module/model/78/rotary_emb/aten__slice  |  Sizes = [284,128]  |  bf16  |  expBias = 0, scale = 1  |    |  ModelParam = 0  |  strides = [33554432, 256, 2]  |  data = 0, sizeInBytes = 72704  |  isAliased = tensor_17_odule/model/78/rotary_emb/placeholder/0, type = slice, offset: 0  |  location = in DRAM  |  "
    }
  }
  attr {
    key: "inputTensor:1"
    value {
      s: "tensor_13  |  Sizes = [1]  |  bf16  |  expBias = 0, scale = 1  |    |  ModelParam = 0  |  strides = [2, 2]  |  data = 0, sizeInBytes = 2  |  location = in DRAM  |  dramOffset = 0x60000000000  |  "
    }
  }
  attr {
    key: "outputTensor:0"
    value {
      s: "tensor_19_id_118933_module/model/78/rotary_emb/aten__mul  |  Sizes = [284,128]  |  bf16  |  expBias = 0, scale = 1  |    |  ModelParam = 0  |  strides = [72704, 256, 2]  |  data = 0, sizeInBytes = 72704  |  location = in DRAM  |  dramOffset = 0x130000011c00  |  "
    }
  }
}
node {
  name: "tensor_33_odule/model/78/k_proj/placeholder/1"
  op: "Placeholder"
  attr {
    key: "dtype"
    value {
      type: DT_INVALID
    }
  }
  attr {
    key: "shape"
    value {
      shape {
        dim {
          size: 256
        }
        dim {
          size: 8192
        }
        dim {
          size: 1
        }
        dim {
          size: 1
        }
        dim {
          size: 1
        }
      }
    }
  }
  attr {
    key: "synDataType"
    value {
      s: "hfloat8"
    }
  }
}
node {
  name: "module/model/78/k_proj/fp8_gemm_bf16/11137_complex/fp8_gemm_bf16_1249/expand_dims_6"
  op: "ExpandDims"
  input: "tensor_33_odule/model/78/k_proj/placeholder/1"
  attr {
    key: "Bundle_idx"
    value {
      s: "N/A"
    }
  }
  attr {
    key: "Exec_idx"
    value {
      s: "6"
    }
  }
  attr {
    key: "Op_idx"
    value {
      s: "N/A"
    }
  }
  attr {
    key: "inputTensor:0"
    value {
      s: "tensor_33_odule/model/78/k_proj/placeholder/1  |  Sizes = [8192,256]  |  hfloat8  |  expBias = 7, scale = 1  |    |  ModelParam = 0  |  strides = [2097152, 256, 1]  |  data = 0, sizeInBytes = 2097152  |  isPersistent  |  location = in DRAM  |  dramOffset = 0xd0000000000  |  userMemorySection(type=Persistent, id=13)  |  "
    }
  }
  attr {
    key: "outputTensor:0"
    value {
      s: "hf8-7_95787  |  Sizes = [1,8192,256]  |  hfloat8  |  expBias = 7, scale = 1  |    |  ModelParam = 0  |  strides = [2097152, 2097152, 256, 1]  |  data = 0, sizeInBytes = 2097152  |  isAliased = tensor_33_odule/model/78/k_proj/placeholder/1, type = alias, offset: 0  |  location = in DRAM  |  "
    }
  }
}
node {
  name: "module/model/78/rotary_pos_embedding_fwd_bf16/11140_complex/rotary_pos_embedding_fwd_bf16_156/gather_nd_mxnet_fwd_bf16_8"
  op: "gather_nd_mxnet_fwd_bf16"
  input: "module/model/78/rotary_emb/mult_fwd_bf16/11131_complex/mult_fwd_bf16_0"
  input: "module/model/78/expand_dims/11122"
  attr {
    key: "Bundle_idx"
    value {
      s: "N/A"
    }
  }
  attr {
    key: "Exec_idx"
    value {
      s: "7"
    }
  }
  attr {
    key: "Op_idx"
    value {
      s: "N/A"
    }
  }
  attr {
    key: "inputTensor:0"
    value {
      s: "tensor_19_id_118933_module/model/78/rotary_emb/aten__mul  |  Sizes = [284,128]  |  bf16  |  expBias = 0, scale = 1  |    |  ModelParam = 0  |  strides = [72704, 256, 2]  |  data = 0, sizeInBytes = 72704  |  location = in DRAM  |  dramOffset = 0x130000011c00  |  "
    }
  }
  attr {
    key: "inputTensor:1"
    value {
      s: "tensor_8_id_118809_module/model/78/aten__unsqueeze/1  |  Sizes = [1,284]  |  int32  |  expBias = 0, scale = 1  |    |  ModelParam = 0  |  strides = [1136, 1136, 4]  |  data = 0, sizeInBytes = 1136  |  isAliased = tensor_7_odule/model/78/placeholder/0, type = alias, offset: 0  |  location = in DRAM  |  "
    }
  }
  attr {
    key: "outputTensor:0"
    value {
      s: "bf16-9_95792  |  Sizes = [284,128]  |  bf16  |  expBias = 0, scale = 1  |    |  ModelParam = 0  |  strides = [72704, 256, 2]  |  data = 0, sizeInBytes = 72704  |  isAliased = bf16-13_95794, type = alias, offset: 0  |  location = in DRAM  |  "
    }
  }
}
node {
  name: "module/model/78/rotary_pos_embedding_fwd_bf16/11140_complex/rotary_pos_embedding_fwd_bf16_156/gather_nd_mxnet_fwd_bf16_10"
  op: "gather_nd_mxnet_fwd_bf16"
  input: "module/model/78/rotary_emb/mult_fwd_bf16/11125_complex/mult_fwd_bf16_0"
  input: "module/model/78/expand_dims/11122"
  attr {
    key: "Bundle_idx"
    value {
      s: "N/A"
    }
  }
  attr {
    key: "Exec_idx"
    value {
      s: "8"
    }
  }
  attr {
    key: "Op_idx"
    value {
      s: "N/A"
    }
  }
  attr {
    key: "inputTensor:0"
    value {
      s: "tensor_12_id_118929_module/model/78/rotary_emb/aten__mul  |  Sizes = [284,128]  |  bf16  |  expBias = 0, scale = 1  |    |  ModelParam = 0  |  strides = [72704, 256, 2]  |  data = 0, sizeInBytes = 72704  |  location = in DRAM  |  dramOffset = 0x130000000000  |  "
    }
  }
  attr {
    key: "inputTensor:1"
    value {
      s: "tensor_8_id_118809_module/model/78/aten__unsqueeze/1  |  Sizes = [1,284]  |  int32  |  expBias = 0, scale = 1  |    |  ModelParam = 0  |  strides = [1136, 1136, 4]  |  data = 0, sizeInBytes = 1136  |  isAliased = tensor_7_odule/model/78/placeholder/0, type = alias, offset: 0  |  location = in DRAM  |  "
    }
  }
  attr {
    key: "outputTensor:0"
    value {
      s: "bf16-11_95793  |  Sizes = [284,128]  |  bf16  |  expBias = 0, scale = 1  |    |  ModelParam = 0  |  strides = [72704, 256, 2]  |  data = 0, sizeInBytes = 72704  |  isAliased = bf16-15_95795, type = alias, offset: 0  |  location = in DRAM  |  "
    }
  }
}
node {
  name: "module/model/78/rotary_pos_embedding_fwd_bf16/11140_complex/rotary_pos_embedding_fwd_bf16_156/expand_dims_12"
  op: "ExpandDims"
  input: "module/model/78/rotary_pos_embedding_fwd_bf16/11140_complex/rotary_pos_embedding_fwd_bf16_156/gather_nd_mxnet_fwd_bf16_8"
  attr {
    key: "Bundle_idx"
    value {
      s: "N/A"
    }
  }
  attr {
    key: "Exec_idx"
    value {
      s: "9"
    }
  }
  attr {
    key: "Op_idx"
    value {
      s: "N/A"
    }
  }
  attr {
    key: "inputTensor:0"
    value {
      s: "bf16-9_95792  |  Sizes = [284,128]  |  bf16  |  expBias = 0, scale = 1  |    |  ModelParam = 0  |  strides = [72704, 256, 2]  |  data = 0, sizeInBytes = 72704  |  isAliased = bf16-13_95794, type = alias, offset: 0  |  location = in DRAM  |  "
    }
  }
  attr {
    key: "outputTensor:0"
    value {
      s: "bf16-13_95794  |  Sizes = [1,284,128]  |  bf16  |  expBias = 0, scale = 1  |    |  ModelParam = 0  |  strides = [72704, 72704, 256, 2]  |  data = 0, sizeInBytes = 72704  |  location = in DRAM  |  dramOffset = 0x140000000000  |  "
    }
  }
}
node {
  name: "module/model/78/rotary_pos_embedding_fwd_bf16/11140_complex/rotary_pos_embedding_fwd_bf16_156/expand_dims_14"
  op: "ExpandDims"
  input: "module/model/78/rotary_pos_embedding_fwd_bf16/11140_complex/rotary_pos_embedding_fwd_bf16_156/gather_nd_mxnet_fwd_bf16_10"
  attr {
    key: "Bundle_idx"
    value {
      s: "N/A"
    }
  }
  attr {
    key: "Exec_idx"
    value {
      s: "10"
    }
  }
  attr {
    key: "Op_idx"
    value {
      s: "N/A"
    }
  }
  attr {
    key: "inputTensor:0"
    value {
      s: "bf16-11_95793  |  Sizes = [284,128]  |  bf16  |  expBias = 0, scale = 1  |    |  ModelParam = 0  |  strides = [72704, 256, 2]  |  data = 0, sizeInBytes = 72704  |  isAliased = bf16-15_95795, type = alias, offset: 0  |  location = in DRAM  |  "
    }
  }
  attr {
    key: "outputTensor:0"
    value {
      s: "bf16-15_95795  |  Sizes = [1,284,128]  |  bf16  |  expBias = 0, scale = 1  |    |  ModelParam = 0  |  strides = [72704, 72704, 256, 2]  |  data = 0, sizeInBytes = 72704  |  location = in DRAM  |  dramOffset = 0x1c0000000000  |  "
    }
  }
}
node {
  name: "tensor_58_odule/model/78/v_proj/placeholder/1"
  op: "Placeholder"
  attr {
    key: "dtype"
    value {
      type: DT_INVALID
    }
  }
  attr {
    key: "shape"
    value {
      shape {
        dim {
          size: 256
        }
        dim {
          size: 8192
        }
        dim {
          size: 1
        }
        dim {
          size: 1
        }
        dim {
          size: 1
        }
      }
    }
  }
  attr {
    key: "synDataType"
    value {
      s: "hfloat8"
    }
  }
}
node {
  name: "module/model/78/v_proj/fp8_gemm_bf16/11146_complex/fp8_gemm_hf8_1251/expand_dims_8"
  op: "ExpandDims"
  input: "tensor_58_odule/model/78/v_proj/placeholder/1"
  attr {
    key: "Bundle_idx"
    value {
      s: "N/A"
    }
  }
  attr {
    key: "Exec_idx"
    value {
      s: "11"
    }
  }
  attr {
    key: "Op_idx"
    value {
      s: "N/A"
    }
  }
  attr {
    key: "inputTensor:0"
    value {
      s: "tensor_58_odule/model/78/v_proj/placeholder/1  |  Sizes = [8192,256]  |  hfloat8  |  expBias = 7, scale = 1  |    |  ModelParam = 0  |  strides = [2097152, 256, 1]  |  data = 0, sizeInBytes = 2097152  |  isPersistent  |  location = in DRAM  |  dramOffset = 0x160000000000  |  userMemorySection(type=Persistent, id=22)  |  "
    }
  }
  attr {
    key: "outputTensor:0"
    value {
      s: "hf8-9_95800  |  Sizes = [1,8192,256]  |  hfloat8  |  expBias = 7, scale = 1  |    |  ModelParam = 0  |  strides = [2097152, 2097152, 256, 1]  |  data = 0, sizeInBytes = 2097152  |  isAliased = tensor_58_odule/model/78/v_proj/placeholder/1, type = alias, offset: 0  |  location = in DRAM  |  "
    }
  }
}
node {
  name: "tensor_73_odule/model/78/fused_scaled_dot_product_attention/placeholder/0"
  op: "Placeholder"
  attr {
    key: "dtype"
    value {
      type: DT_BFLOAT16
    }
  }
  attr {
    key: "shape"
    value {
      shape {
        dim {
          size: 284
        }
        dim {
          size: 284
        }
        dim {
          size: 1
        }
        dim {
          size: 1
        }
        dim {
          size: 1
        }
      }
    }
  }
  attr {
    key: "synDataType"
    value {
      s: "bf16"
    }
  }
}
node {
  name: "module/model/78/fused_scaled_dot_product_attention/expand_dims/11157"
  op: "Reshape"
  input: "tensor_73_odule/model/78/fused_scaled_dot_product_attention/placeholder/0"
  attr {
    key: "Bundle_idx"
    value {
      s: "N/A"
    }
  }
  attr {
    key: "Exec_idx"
    value {
      s: "12"
    }
  }
  attr {
    key: "Op_idx"
    value {
      s: "N/A"
    }
  }
  attr {
    key: "inputTensor:0"
    value {
      s: "tensor_73_odule/model/78/fused_scaled_dot_product_attention/placeholder/0  |  Sizes = [284,284]  |  bf16  |  expBias = 0, scale = 1  |    |  ModelParam = 0  |  strides = [161312, 568, 2]  |  data = 0, sizeInBytes = 161312  |  isPersistent  |  location = in DRAM  |  dramOffset = 0x1d0000000000  |  userMemorySection(type=Persistent, id=29)  |  "
    }
  }
  attr {
    key: "outputTensor:0"
    value {
      s: "tensor_79_id_119036_module/model/78/fused_scaled_dot_product_attention/aten__unsqueeze  |  Sizes = [1,1,1,284,284]  |  bf16  |  expBias = 0, scale = 1  |    |  ModelParam = 0  |  strides = [161312, 161312, 161312, 161312, 568, 2]  |  data = 0, sizeInBytes = 161312  |  isAliased = tensor_73_odule/model/78/fused_scaled_dot_product_attention/placeholder/0, type = alias, offset: 0  |  location = in DRAM  |  "
    }
  }
}
node {
  name: "tensor_95_odule/model/78/q_proj/placeholder/1"
  op: "Placeholder"
  attr {
    key: "dtype"
    value {
      type: DT_INVALID
    }
  }
  attr {
    key: "shape"
    value {
      shape {
        dim {
          size: 2048
        }
        dim {
          size: 8192
        }
        dim {
          size: 1
        }
        dim {
          size: 1
        }
        dim {
          size: 1
        }
      }
    }
  }
  attr {
    key: "synDataType"
    value {
      s: "hfloat8"
    }
  }
}
node {
  name: "module/model/78/q_proj/fp8_gemm_bf16/11164_complex/fp8_gemm_bf16_1253/expand_dims_6"
  op: "ExpandDims"
  input: "tensor_95_odule/model/78/q_proj/placeholder/1"
  attr {
    key: "Bundle_idx"
    value {
      s: "N/A"
    }
  }
  attr {
    key: "Exec_idx"
    value {
      s: "13"
    }
  }
  attr {
    key: "Op_idx"
    value {
      s: "N/A"
    }
  }
  attr {
    key: "inputTensor:0"
    value {
      s: "tensor_95_odule/model/78/q_proj/placeholder/1  |  Sizes = [8192,2048]  |  hfloat8  |  expBias = 7, scale = 1  |    |  ModelParam = 0  |  strides = [16777216, 2048, 1]  |  data = 0, sizeInBytes = 16777216  |  isPersistent  |  location = in DRAM  |  dramOffset = 0x210000000000  |  userMemorySection(type=Persistent, id=33)  |  "
    }
  }
  attr {
    key: "outputTensor:0"
    value {
      s: "hf8-7_95804  |  Sizes = [1,8192,2048]  |  hfloat8  |  expBias = 7, scale = 1  |    |  ModelParam = 0  |  strides = [16777216, 16777216, 2048, 1]  |  data = 0, sizeInBytes = 16777216  |  isAliased = tensor_95_odule/model/78/q_proj/placeholder/1, type = alias, offset: 0  |  location = in DRAM  |  "
    }
  }
}
node {
  name: "tensor_0_odule/model/77/placeholder/0"
  op: "Placeholder"
  attr {
    key: "dtype"
    value {
      type: DT_BFLOAT16
    }
  }
  attr {
    key: "shape"
    value {
      shape {
        dim {
          size: 8192
        }
        dim {
          size: 284
        }
        dim {
          size: 1
        }
        dim {
          size: 1
        }
        dim {
          size: 1
        }
      }
    }
  }
  attr {
    key: "synDataType"
    value {
      s: "bf16"
    }
  }
}
node {
  name: "tensor_1_odule/model/77/placeholder/1"
  op: "Placeholder"
  attr {
    key: "dtype"
    value {
      type: DT_BFLOAT16
    }
  }
  attr {
    key: "shape"
    value {
      shape {
        dim {
          size: 8192
        }
        dim {
          size: 284
        }
        dim {
          size: 1
        }
        dim {
          size: 1
        }
        dim {
          size: 1
        }
      }
    }
  }
  attr {
    key: "synDataType"
    value {
      s: "bf16"
    }
  }
}
node {
  name: "module/model/77/add_fwd_bf16/11120_complex/add_fwd_bf16_0_bundle_468/op_0"
  op: "add_fwd_bf16"
  input: "tensor_0_odule/model/77/placeholder/0"
  input: "tensor_1_odule/model/77/placeholder/1"
  attr {
    key: "Bundle_idx"
    value {
      s: "468"
    }
  }
  attr {
    key: "Exec_idx"
    value {
      s: "14"
    }
  }
  attr {
    key: "Op_idx"
    value {
      s: "0"
    }
  }
  attr {
    key: "inputTensor:0"
    value {
      s: "tensor_0_odule/model/77/placeholder/0  |  Sizes = [1,284,8192]  |  bf16  |  expBias = 0, scale = 1  |    |  ModelParam = 0  |  strides = [4653056, 4653056, 16384, 2]  |  data = 0, sizeInBytes = 4653056  |  isPersistent  |  location = in DRAM  |  dramOffset = 0x40000000000  |  userMemorySection(type=Persistent, id=4)  |  "
    }
  }
  attr {
    key: "inputTensor:1"
    value {
      s: "tensor_1_odule/model/77/placeholder/1  |  Sizes = [1,284,8192]  |  bf16  |  expBias = 0, scale = 1  |    |  ModelParam = 0  |  strides = [4653056, 4653056, 16384, 2]  |  data = 0, sizeInBytes = 4653056  |  isPersistent  |  location = in DRAM  |  dramOffset = 0x50000000000  |  userMemorySection(type=Persistent, id=5)  |  "
    }
  }
  attr {
    key: "outputTensor:0"
    value {
      s: "tensor_2_slice_0_0_0_0_0__0__bundle_468_96271  |  Sizes = [1,284,8192]  |  bf16  |  expBias = 0, scale = 1  |    |  ModelParam = 0  |  strides = [4653056, 4653056, 16384, 2]  |  data = 0, sizeInBytes = 4653056  |  location = in SRAM  |  sramOffset = 0x1000fffffd050000  |  "
    }
  }
}
node {
  name: "module/model/78/input_layernorm/rms_norm_ex_fwd_bf16/11135_complex/rms_norm_ex_fwd_bf16_313/reshape_4_bundle_468/op_1"
  op: "Reshape"
  input: "module/model/77/add_fwd_bf16/11120_complex/add_fwd_bf16_0_bundle_468/op_0"
  attr {
    key: "Bundle_idx"
    value {
      s: "468"
    }
  }
  attr {
    key: "Exec_idx"
    value {
      s: "15"
    }
  }
  attr {
    key: "Op_idx"
    value {
      s: "1"
    }
  }
  attr {
    key: "inputTensor:0"
    value {
      s: "tensor_2_slice_0_0_0_0_0__0__bundle_468_96271  |  Sizes = [1,284,8192]  |  bf16  |  expBias = 0, scale = 1  |    |  ModelParam = 0  |  strides = [4653056, 4653056, 16384, 2]  |  data = 0, sizeInBytes = 4653056  |  location = in SRAM  |  sramOffset = 0x1000fffffd050000  |  "
    }
  }
  attr {
    key: "outputTensor:0"
    value {
      s: "bf16-5_95781_slice_0_0_0_0_0__0__bundle_468_96272  |  Sizes = [284,8192]  |  bf16  |  expBias = 0, scale = 1  |    |  ModelParam = 0  |  strides = [4653056, 16384, 2]  |  data = 0, sizeInBytes = 4653056  |  isAliased = tensor_2_slice_0_0_0_0_0__0__bundle_468_96271, type = alias, offset: 0  |  location = in SRAM  |  sramOffset = 0x1000fffffd050000  |  "
    }
  }
}
node {
  name: "tensor_24_odule/model/78/input_layernorm/placeholder/1"
  op: "Placeholder"
  attr {
    key: "dtype"
    value {
      type: DT_BFLOAT16
    }
  }
  attr {
    key: "shape"
    value {
      shape {
        dim {
          size: 8192
        }
        dim {
          size: 1
        }
        dim {
          size: 1
        }
        dim {
          size: 1
        }
        dim {
          size: 1
        }
      }
    }
  }
  attr {
    key: "synDataType"
    value {
      s: "bf16"
    }
  }
}
node {
  name: "module/model/78/input_layernorm/rms_norm_ex_fwd_bf16/11135_complex/rms_norm_ex_fwd_bf16_313/rms_norm_fwd_bf16_6_bundle_468/op_2"
  op: "rms_norm_fwd_bf16"
  input: "module/model/78/input_layernorm/rms_norm_ex_fwd_bf16/11135_complex/rms_norm_ex_fwd_bf16_313/reshape_4_bundle_468/op_1"
  input: "tensor_24_odule/model/78/input_layernorm/placeholder/1"
  attr {
    key: "Bundle_idx"
    value {
      s: "468"
    }
  }
  attr {
    key: "Exec_idx"
    value {
      s: "16"
    }
  }
  attr {
    key: "Op_idx"
    value {
      s: "2"
    }
  }
  attr {
    key: "inputTensor:0"
    value {
      s: "bf16-5_95781_slice_0_0_0_0_0__0__bundle_468_96272  |  Sizes = [284,8192]  |  bf16  |  expBias = 0, scale = 1  |    |  ModelParam = 0  |  strides = [4653056, 16384, 2]  |  data = 0, sizeInBytes = 4653056  |  isAliased = tensor_2_slice_0_0_0_0_0__0__bundle_468_96271, type = alias, offset: 0  |  location = in SRAM  |  sramOffset = 0x1000fffffd050000  |  "
    }
  }
  attr {
    key: "inputTensor:1"
    value {
      s: "tensor_24_odule/model/78/input_layernorm/placeholder/1  |  Sizes = [8192]  |  bf16  |  expBias = 0, scale = 1  |    |  ModelParam = 0  |  strides = [16384, 2]  |  data = 0, sizeInBytes = 16384  |  isPersistent  |  location = in DRAM  |  dramOffset = 0xb0000000000  |  userMemorySection(type=Persistent, id=11)  |  "
    }
  }
  attr {
    key: "outputTensor:0"
    value {
      s: "bf16-7_95782_slice_0_0_0_0_0__0__bundle_468_96274  |  Sizes = [284,8192]  |  bf16  |  expBias = 0, scale = 1  |    |  ModelParam = 0  |  strides = [4653056, 16384, 2]  |  data = 0, sizeInBytes = 4653056  |  isAliased = tensor-96000_slice_0_0_0_0_0__0__bundle_468_96276, type = alias, offset: 0  |  location = in SRAM  |  sramOffset = 0x1000fffffd4c0000  |  "
    }
  }
  attr {
    key: "outputTensor:1"
    value {
      s: "f32-8_95783  |  Sizes = [284,1]  |  float32  |  expBias = 0, scale = 1  |    |  ModelParam = 0  |  strides = [1136, 4, 4]  |  data = 0, sizeInBytes = 1136  |  location = in DRAM  |  dramOffset = 0x60000000080  |  "
    }
  }
}
node {
  name: "f32-8_95783"
  op: "OutputTensor"
  input: "module/model/78/input_layernorm/rms_norm_ex_fwd_bf16/11135_complex/rms_norm_ex_fwd_bf16_313/rms_norm_fwd_bf16_6_bundle_468/op_2"
  attr {
    key: "dtype"
    value {
      type: DT_FLOAT
    }
  }
  attr {
    key: "shape"
    value {
      shape {
        dim {
          size: 1
        }
        dim {
          size: 284
        }
        dim {
          size: 1
        }
        dim {
          size: 1
        }
        dim {
          size: 1
        }
      }
    }
  }
  attr {
    key: "synDataType"
    value {
      s: "float32"
    }
  }
}
node {
  name: "reshape_0_0_bundle_468/op_3"
  op: "Reshape"
  input: "module/model/78/input_layernorm/rms_norm_ex_fwd_bf16/11135_complex/rms_norm_ex_fwd_bf16_313/rms_norm_fwd_bf16_6_bundle_468/op_2"
  attr {
    key: "Bundle_idx"
    value {
      s: "468"
    }
  }
  attr {
    key: "Exec_idx"
    value {
      s: "17"
    }
  }
  attr {
    key: "Op_idx"
    value {
      s: "3"
    }
  }
  attr {
    key: "inputTensor:0"
    value {
      s: "bf16-7_95782_slice_0_0_0_0_0__0__bundle_468_96274  |  Sizes = [284,8192]  |  bf16  |  expBias = 0, scale = 1  |    |  ModelParam = 0  |  strides = [4653056, 16384, 2]  |  data = 0, sizeInBytes = 4653056  |  isAliased = tensor-96000_slice_0_0_0_0_0__0__bundle_468_96276, type = alias, offset: 0  |  location = in SRAM  |  sramOffset = 0x1000fffffd4c0000  |  "
    }
  }
  attr {
    key: "outputTensor:0"
    value {
      s: "tensor-96000_slice_0_0_0_0_0__0__bundle_468_96276  |  Sizes = [1,284,8192]  |  bf16  |  expBias = 0, scale = 1  |    |  ModelParam = 0  |  strides = [4653056, 4653056, 16384, 2]  |  data = 0, sizeInBytes = 4653056  |  location = in SRAM  |  sramOffset = 0x1000fffffd4c0000  |  "
    }
  }
}
node {
  name: "fusedTPCNode_166_0_bundle_468/op_4"
  op: "fused_kernel_0xB7FC9BF5_1E0_hf8"
  input: "reshape_0_0_bundle_468/op_3"
  attr {
    key: "Bundle_idx"
    value {
      s: "468"
    }
  }
  attr {
    key: "Exec_idx"
    value {
      s: "18"
    }
  }
  attr {
    key: "Op_idx"
    value {
      s: "4"
    }
  }
  attr {
    key: "inputTensor:0"
    value {
      s: "tensor-96000_slice_0_0_0_0_0__0__bundle_468_96276  |  Sizes = [1,284,8192]  |  bf16  |  expBias = 0, scale = 1  |    |  ModelParam = 0  |  strides = [4653056, 4653056, 16384, 2]  |  data = 0, sizeInBytes = 4653056  |  location = in SRAM  |  sramOffset = 0x1000fffffd4c0000  |  "
    }
  }
  attr {
    key: "outputTensor:0"
    value {
      s: "tensor_32_slice_0_0_0_0_0__0__bundle_468_96277  |  Sizes = [1,284,8192]  |  hfloat8  |  expBias = 7, scale = 1  |    |  ModelParam = 0  |  strides = [2326528, 2326528, 8192, 1]  |  data = 0, sizeInBytes = 2326528  |  location = in SRAM  |  sramOffset = 0x1000fffffd930000  |  "
    }
  }
}
node {
  name: "module/model/78/k_proj/fp8_gemm_bf16/11137_complex/fp8_gemm_bf16_1249/batch_gemm_8_bundle_468/op_5_gemm"
  op: "GEMM"
  input: "fusedTPCNode_166_0_bundle_468/op_4"
  input: "module/model/78/k_proj/fp8_gemm_bf16/11137_complex/fp8_gemm_bf16_1249/expand_dims_6"
  attr {
    key: "Bundle_idx"
    value {
      s: "468"
    }
  }
  attr {
    key: "Exec_idx"
    value {
      s: "19"
    }
  }
  attr {
    key: "Op_idx"
    value {
      s: "5"
    }
  }
  attr {
    key: "Parameters"
    value {
      s: "transpose_a=false, transpose_b=false"
    }
  }
  attr {
    key: "fp8BiasIn"
    value {
      s: "7"
    }
  }
  attr {
    key: "fp8BiasIn2"
    value {
      s: "11"
    }
  }
  attr {
    key: "fp8BiasOut"
    value {
      s: "0"
    }
  }
  attr {
    key: "inputTensor:0"
    value {
      s: "tensor_32_slice_0_0_0_0_0__0__bundle_468_96277  |  Sizes = [1,284,8192]  |  hfloat8  |  expBias = 7, scale = 1  |    |  ModelParam = 0  |  strides = [2326528, 2326528, 8192, 1]  |  data = 0, sizeInBytes = 2326528  |  location = in SRAM  |  sramOffset = 0x1000fffffd930000  |  "
    }
  }
  attr {
    key: "inputTensor:1"
    value {
      s: "hf8-7_95787  |  Sizes = [1,8192,256]  |  hfloat8  |  expBias = 7, scale = 1  |    |  ModelParam = 0  |  strides = [2097152, 2097152, 256, 1]  |  data = 0, sizeInBytes = 2097152  |  isAliased = tensor_33_odule/model/78/k_proj/placeholder/1, type = alias, offset: 0  |  location = in DRAM  |  "
    }
  }
  attr {
    key: "outputTensor:0"
    value {
      s: "tensor_37  |  Sizes = [1,284,256]  |  bf16  |  expBias = 0, scale = 1  |    |  ModelParam = 0  |  strides = [145408, 145408, 512, 2]  |  data = 0, sizeInBytes = 145408  |  isAliased = tensor_38_id_118919_module/model/78/aten__view, type = alias, offset: 0  |  location = in DRAM  |  "
    }
  }
}
node {
  name: "module/model/78/v_proj/fp8_gemm_bf16/11146_complex/fp8_gemm_hf8_1251/batch_gemm_10_bundle_468/op_6_gemm"
  op: "GEMM"
  input: "fusedTPCNode_166_0_bundle_468/op_4"
  input: "module/model/78/v_proj/fp8_gemm_bf16/11146_complex/fp8_gemm_hf8_1251/expand_dims_8"
  attr {
    key: "Bundle_idx"
    value {
      s: "468"
    }
  }
  attr {
    key: "Exec_idx"
    value {
      s: "20"
    }
  }
  attr {
    key: "Op_idx"
    value {
      s: "6"
    }
  }
  attr {
    key: "Parameters"
    value {
      s: "transpose_a=false, transpose_b=false"
    }
  }
  attr {
    key: "fp8BiasIn"
    value {
      s: "7"
    }
  }
  attr {
    key: "fp8BiasIn2"
    value {
      s: "15"
    }
  }
  attr {
    key: "fp8BiasOut"
    value {
      s: "7"
    }
  }
  attr {
    key: "inputTensor:0"
    value {
      s: "tensor_32_slice_0_0_0_0_0__0__bundle_468_96277  |  Sizes = [1,284,8192]  |  hfloat8  |  expBias = 7, scale = 1  |    |  ModelParam = 0  |  strides = [2326528, 2326528, 8192, 1]  |  data = 0, sizeInBytes = 2326528  |  location = in SRAM  |  sramOffset = 0x1000fffffd930000  |  "
    }
  }
  attr {
    key: "inputTensor:1"
    value {
      s: "hf8-9_95800  |  Sizes = [1,8192,256]  |  hfloat8  |  expBias = 7, scale = 1  |    |  ModelParam = 0  |  strides = [2097152, 2097152, 256, 1]  |  data = 0, sizeInBytes = 2097152  |  isAliased = tensor_58_odule/model/78/v_proj/placeholder/1, type = alias, offset: 0  |  location = in DRAM  |  "
    }
  }
  attr {
    key: "outputTensor:0"
    value {
      s: "tensor_62_c95748  |  Sizes = [1,284,256]  |  hfloat8  |  expBias = 7, scale = 1  |    |  ModelParam = 0  |  strides = [72704, 72704, 256, 1]  |  data = 0, sizeInBytes = 72704  |  isAliased = tensor_63_id_118923_module/model/78/quant_input_0/aten__view_memcpy_96330, type = alias, offset: 0  |  location = in DRAM  |  "
    }
  }
}
node {
  name: "module/model/78/q_proj/fp8_gemm_bf16/11164_complex/fp8_gemm_bf16_1253/batch_gemm_8_bundle_468/op_7_gemm"
  op: "GEMM"
  input: "fusedTPCNode_166_0_bundle_468/op_4"
  input: "module/model/78/q_proj/fp8_gemm_bf16/11164_complex/fp8_gemm_bf16_1253/expand_dims_6"
  attr {
    key: "Bundle_idx"
    value {
      s: "468"
    }
  }
  attr {
    key: "Exec_idx"
    value {
      s: "21"
    }
  }
  attr {
    key: "Op_idx"
    value {
      s: "7"
    }
  }
  attr {
    key: "Parameters"
    value {
      s: "transpose_a=false, transpose_b=false"
    }
  }
  attr {
    key: "fp8BiasIn"
    value {
      s: "7"
    }
  }
  attr {
    key: "fp8BiasIn2"
    value {
      s: "15"
    }
  }
  attr {
    key: "fp8BiasOut"
    value {
      s: "0"
    }
  }
  attr {
    key: "inputTensor:0"
    value {
      s: "tensor_32_slice_0_0_0_0_0__0__bundle_468_96277  |  Sizes = [1,284,8192]  |  hfloat8  |  expBias = 7, scale = 1  |    |  ModelParam = 0  |  strides = [2326528, 2326528, 8192, 1]  |  data = 0, sizeInBytes = 2326528  |  location = in SRAM  |  sramOffset = 0x1000fffffd930000  |  "
    }
  }
  attr {
    key: "inputTensor:1"
    value {
      s: "hf8-7_95804  |  Sizes = [1,8192,2048]  |  hfloat8  |  expBias = 7, scale = 1  |    |  ModelParam = 0  |  strides = [16777216, 16777216, 2048, 1]  |  data = 0, sizeInBytes = 16777216  |  isAliased = tensor_95_odule/model/78/q_proj/placeholder/1, type = alias, offset: 0  |  location = in DRAM  |  "
    }
  }
  attr {
    key: "outputTensor:0"
    value {
      s: "tensor_99  |  Sizes = [1,284,2048]  |  bf16  |  expBias = 0, scale = 1  |    |  ModelParam = 0  |  strides = [1163264, 1163264, 4096, 2]  |  data = 0, sizeInBytes = 1163264  |  isAliased = tensor_100_id_118915_module/model/78/aten__view, type = alias, offset: 0  |  location = in DRAM  |  "
    }
  }
}
node {
  name: "tensor_2_bundle_468/memcpy/0"
  op: "DmaMemcpy"
  input: "module/model/77/add_fwd_bf16/11120_complex/add_fwd_bf16_0_bundle_468/op_0"
  input: "^module/model/77/add_fwd_bf16/11120_complex/add_fwd_bf16_0_bundle_468/op_0"
  attr {
    key: "Bundle_idx"
    value {
      s: "468"
    }
  }
  attr {
    key: "Exec_idx"
    value {
      s: "22"
    }
  }
  attr {
    key: "Op_idx"
    value {
      s: "8"
    }
  }
  attr {
    key: "inputTensor:0"
    value {
      s: "tensor_2_slice_0_0_0_0_0__0__bundle_468_96271  |  Sizes = [1,284,8192]  |  bf16  |  expBias = 0, scale = 1  |    |  ModelParam = 0  |  strides = [4653056, 4653056, 16384, 2]  |  data = 0, sizeInBytes = 4653056  |  location = in SRAM  |  sramOffset = 0x1000fffffd050000  |  "
    }
  }
  attr {
    key: "outputTensor:0"
    value {
      s: "tensor_2  |  Sizes = [1,284,8192]  |  bf16  |  expBias = 0, scale = 1  |    |  ModelParam = 0  |  strides = [4653056, 4653056, 16384, 2]  |  data = 0, sizeInBytes = 4653056  |  isPersistent  |  location = in DRAM  |  dramOffset = 0x40000000000  |  userMemorySection(type=Persistent, id=4)  |  "
    }
  }
}
node {
  name: "tensor_2"
  op: "OutputTensor"
  input: "tensor_2_bundle_468/memcpy/0"
  attr {
    key: "dtype"
    value {
      type: DT_BFLOAT16
    }
  }
  attr {
    key: "shape"
    value {
      shape {
        dim {
          size: 8192
        }
        dim {
          size: 284
        }
        dim {
          size: 1
        }
        dim {
          size: 1
        }
        dim {
          size: 1
        }
      }
    }
  }
  attr {
    key: "synDataType"
    value {
      s: "bf16"
    }
  }
}
node {
  name: "module/model/78/reshape/11138"
  op: "Reshape"
  input: "module/model/78/k_proj/fp8_gemm_bf16/11137_complex/fp8_gemm_bf16_1249/batch_gemm_8_bundle_468/op_5_gemm"
  attr {
    key: "Bundle_idx"
    value {
      s: "N/A"
    }
  }
  attr {
    key: "Exec_idx"
    value {
      s: "23"
    }
  }
  attr {
    key: "Op_idx"
    value {
      s: "N/A"
    }
  }
  attr {
    key: "inputTensor:0"
    value {
      s: "tensor_37  |  Sizes = [1,284,256]  |  bf16  |  expBias = 0, scale = 1  |    |  ModelParam = 0  |  strides = [145408, 145408, 512, 2]  |  data = 0, sizeInBytes = 145408  |  isAliased = tensor_38_id_118919_module/model/78/aten__view, type = alias, offset: 0  |  location = in DRAM  |  "
    }
  }
  attr {
    key: "outputTensor:0"
    value {
      s: "tensor_38_id_118919_module/model/78/aten__view  |  Sizes = [1,284,2,128]  |  bf16  |  expBias = 0, scale = 1  |    |  ModelParam = 0  |  strides = [145408, 145408, 512, 256, 2]  |  data = 0, sizeInBytes = 145408  |  location = in DRAM  |  dramOffset = 0x310000000000  |  "
    }
  }
}
node {
  name: "module/model/78/transpose/11139_transpose_via_logical"
  op: "LogicalTranspose"
  input: "module/model/78/reshape/11138"
  attr {
    key: "Bundle_idx"
    value {
      s: "N/A"
    }
  }
  attr {
    key: "Exec_idx"
    value {
      s: "24"
    }
  }
  attr {
    key: "Op_idx"
    value {
      s: "N/A"
    }
  }
  attr {
    key: "Parameters"
    value {
      s: "permutation: (0,2,1,3)"
    }
  }
  attr {
    key: "inputTensor:0"
    value {
      s: "tensor_38_id_118919_module/model/78/aten__view  |  Sizes = [1,284,2,128]  |  bf16  |  expBias = 0, scale = 1  |    |  ModelParam = 0  |  strides = [145408, 145408, 512, 256, 2]  |  data = 0, sizeInBytes = 145408  |  location = in DRAM  |  dramOffset = 0x310000000000  |  "
    }
  }
  attr {
    key: "outputTensor:0"
    value {
      s: "tensor_39_id_118921_module/model/78/aten__transpose  |  Sizes = [1,2,284,128]  |  bf16  |  expBias = 0, scale = 1  |    |  ModelParam = 0  |  strides = [145408, 145408, 256, 512, 2]  |  data = 0, sizeInBytes = 145408  |  isAliased = tensor_38_id_118919_module/model/78/aten__view, type = alias, offset: 0  |  location = in DRAM  |  isSparseLayout  |  "
    }
  }
}
node {
  name: "module/model/78/rotary_pos_embedding_fwd_bf16/11140_complex/rotary_pos_embedding_fwd_bf16_156/rope_st2_fwd_bf16_16"
  op: "rope_st2_fwd_bf16"
  input: "module/model/78/transpose/11139_transpose_via_logical"
  input: "module/model/78/rotary_pos_embedding_fwd_bf16/11140_complex/rotary_pos_embedding_fwd_bf16_156/expand_dims_12"
  input: "module/model/78/rotary_pos_embedding_fwd_bf16/11140_complex/rotary_pos_embedding_fwd_bf16_156/expand_dims_14"
  attr {
    key: "Bundle_idx"
    value {
      s: "N/A"
    }
  }
  attr {
    key: "Exec_idx"
    value {
      s: "25"
    }
  }
  attr {
    key: "Op_idx"
    value {
      s: "N/A"
    }
  }
  attr {
    key: "inputTensor:0"
    value {
      s: "tensor_39_id_118921_module/model/78/aten__transpose  |  Sizes = [1,2,284,128]  |  bf16  |  expBias = 0, scale = 1  |    |  ModelParam = 0  |  strides = [145408, 145408, 256, 512, 2]  |  data = 0, sizeInBytes = 145408  |  isAliased = tensor_38_id_118919_module/model/78/aten__view, type = alias, offset: 0  |  location = in DRAM  |  isSparseLayout  |  "
    }
  }
  attr {
    key: "inputTensor:1"
    value {
      s: "bf16-13_95794  |  Sizes = [1,284,128]  |  bf16  |  expBias = 0, scale = 1  |    |  ModelParam = 0  |  strides = [72704, 72704, 256, 2]  |  data = 0, sizeInBytes = 72704  |  location = in DRAM  |  dramOffset = 0x140000000000  |  "
    }
  }
  attr {
    key: "inputTensor:2"
    value {
      s: "bf16-15_95795  |  Sizes = [1,284,128]  |  bf16  |  expBias = 0, scale = 1  |    |  ModelParam = 0  |  strides = [72704, 72704, 256, 2]  |  data = 0, sizeInBytes = 72704  |  location = in DRAM  |  dramOffset = 0x1c0000000000  |  "
    }
  }
  attr {
    key: "outputTensor:0"
    value {
      s: "tensor_41  |  Sizes = [1,2,284,128]  |  bf16  |  expBias = 0, scale = 1  |    |  ModelParam = 0  |  strides = [145408, 145408, 72704, 256, 2]  |  data = 0, sizeInBytes = 145408  |  location = in DRAM  |  dramOffset = 0x31000013f800  |  "
    }
  }
}
node {
  name: "module/model/78/quant_input_0/reshape/11147"
  op: "Reshape"
  input: "module/model/78/v_proj/fp8_gemm_bf16/11146_complex/fp8_gemm_hf8_1251/batch_gemm_10_bundle_468/op_6_gemm"
  attr {
    key: "Bundle_idx"
    value {
      s: "N/A"
    }
  }
  attr {
    key: "Exec_idx"
    value {
      s: "26"
    }
  }
  attr {
    key: "Op_idx"
    value {
      s: "N/A"
    }
  }
  attr {
    key: "inputTensor:0"
    value {
      s: "tensor_62_c95748  |  Sizes = [1,284,256]  |  hfloat8  |  expBias = 7, scale = 1  |    |  ModelParam = 0  |  strides = [72704, 72704, 256, 1]  |  data = 0, sizeInBytes = 72704  |  isAliased = tensor_63_id_118923_module/model/78/quant_input_0/aten__view_memcpy_96330, type = alias, offset: 0  |  location = in DRAM  |  "
    }
  }
  attr {
    key: "outputTensor:0"
    value {
      s: "tensor_63_id_118923_module/model/78/quant_input_0/aten__view_memcpy_96330  |  Sizes = [1,284,2,128]  |  hfloat8  |  expBias = 7, scale = 1  |    |  ModelParam = 0  |  strides = [72704, 72704, 256, 128, 1]  |  data = 0, sizeInBytes = 72704  |  location = in DRAM  |  dramOffset = 0x1c0000011c00  |  "
    }
  }
}
node {
  name: "tensor_63_id_118923_module/model/78/quant_input_0/aten__view_memcpy_96330_internal"
  op: "DmaMemcpy"
  input: "module/model/78/quant_input_0/reshape/11147"
  attr {
    key: "Bundle_idx"
    value {
      s: "N/A"
    }
  }
  attr {
    key: "Exec_idx"
    value {
      s: "27"
    }
  }
  attr {
    key: "Op_idx"
    value {
      s: "N/A"
    }
  }
  attr {
    key: "inputTensor:0"
    value {
      s: "tensor_63_id_118923_module/model/78/quant_input_0/aten__view_memcpy_96330  |  Sizes = [1,284,2,128]  |  hfloat8  |  expBias = 7, scale = 1  |    |  ModelParam = 0  |  strides = [72704, 72704, 256, 128, 1]  |  data = 0, sizeInBytes = 72704  |  location = in DRAM  |  dramOffset = 0x1c0000011c00  |  "
    }
  }
  attr {
    key: "outputTensor:0"
    value {
      s: "tensor_63_id_118923_module/model/78/quant_input_0/aten__view  |  Sizes = [1,284,2,128]  |  hfloat8  |  expBias = 7, scale = 1  |    |  ModelParam = 0  |  strides = [72704, 72704, 128, 36352, 1]  |  data = 0, sizeInBytes = 72704  |  isAliased = tensor_69, type = alias, offset: 0  |  location = in DRAM  |  isSparseLayout  |  "
    }
  }
}
node {
  name: "module/model/78/quant_input_0/transpose/11148_transpose_via_logical"
  op: "LogicalTranspose"
  input: "tensor_63_id_118923_module/model/78/quant_input_0/aten__view_memcpy_96330_internal"
  attr {
    key: "Bundle_idx"
    value {
      s: "N/A"
    }
  }
  attr {
    key: "Exec_idx"
    value {
      s: "28"
    }
  }
  attr {
    key: "Op_idx"
    value {
      s: "N/A"
    }
  }
  attr {
    key: "Parameters"
    value {
      s: "permutation: (0,2,1,3)"
    }
  }
  attr {
    key: "inputTensor:0"
    value {
      s: "tensor_63_id_118923_module/model/78/quant_input_0/aten__view  |  Sizes = [1,284,2,128]  |  hfloat8  |  expBias = 7, scale = 1  |    |  ModelParam = 0  |  strides = [72704, 72704, 128, 36352, 1]  |  data = 0, sizeInBytes = 72704  |  isAliased = tensor_69, type = alias, offset: 0  |  location = in DRAM  |  isSparseLayout  |  "
    }
  }
  attr {
    key: "outputTensor:0"
    value {
      s: "tensor_69  |  Sizes = [1,2,284,128]  |  hfloat8  |  expBias = 7, scale = 1  |    |  ModelParam = 0  |  strides = [72704, 72704, 36352, 128, 1]  |  data = 0, sizeInBytes = 72704  |  isPersistent  |  location = in DRAM  |  dramOffset = 0x140000000000  |  userMemorySection(type=Persistent, id=20)  |  "
    }
  }
}
node {
  name: "module/model/78/reshape/11165"
  op: "Reshape"
  input: "module/model/78/q_proj/fp8_gemm_bf16/11164_complex/fp8_gemm_bf16_1253/batch_gemm_8_bundle_468/op_7_gemm"
  attr {
    key: "Bundle_idx"
    value {
      s: "N/A"
    }
  }
  attr {
    key: "Exec_idx"
    value {
      s: "29"
    }
  }
  attr {
    key: "Op_idx"
    value {
      s: "N/A"
    }
  }
  attr {
    key: "inputTensor:0"
    value {
      s: "tensor_99  |  Sizes = [1,284,2048]  |  bf16  |  expBias = 0, scale = 1  |    |  ModelParam = 0  |  strides = [1163264, 1163264, 4096, 2]  |  data = 0, sizeInBytes = 1163264  |  isAliased = tensor_100_id_118915_module/model/78/aten__view, type = alias, offset: 0  |  location = in DRAM  |  "
    }
  }
  attr {
    key: "outputTensor:0"
    value {
      s: "tensor_100_id_118915_module/model/78/aten__view  |  Sizes = [1,284,16,128]  |  bf16  |  expBias = 0, scale = 1  |    |  ModelParam = 0  |  strides = [1163264, 1163264, 4096, 256, 2]  |  data = 0, sizeInBytes = 1163264  |  location = in DRAM  |  dramOffset = 0x310000023800  |  "
    }
  }
}
node {
  name: "module/model/78/transpose/11166_transpose_via_logical"
  op: "LogicalTranspose"
  input: "module/model/78/reshape/11165"
  attr {
    key: "Bundle_idx"
    value {
      s: "N/A"
    }
  }
  attr {
    key: "Exec_idx"
    value {
      s: "30"
    }
  }
  attr {
    key: "Op_idx"
    value {
      s: "N/A"
    }
  }
  attr {
    key: "Parameters"
    value {
      s: "permutation: (0,2,1,3)"
    }
  }
  attr {
    key: "inputTensor:0"
    value {
      s: "tensor_100_id_118915_module/model/78/aten__view  |  Sizes = [1,284,16,128]  |  bf16  |  expBias = 0, scale = 1  |    |  ModelParam = 0  |  strides = [1163264, 1163264, 4096, 256, 2]  |  data = 0, sizeInBytes = 1163264  |  location = in DRAM  |  dramOffset = 0x310000023800  |  "
    }
  }
  attr {
    key: "outputTensor:0"
    value {
      s: "tensor_101_id_118917_module/model/78/aten__transpose  |  Sizes = [1,16,284,128]  |  bf16  |  expBias = 0, scale = 1  |    |  ModelParam = 0  |  strides = [1163264, 1163264, 256, 4096, 2]  |  data = 0, sizeInBytes = 1163264  |  isAliased = tensor_100_id_118915_module/model/78/aten__view, type = alias, offset: 0  |  location = in DRAM  |  isSparseLayout  |  "
    }
  }
}
node {
  name: "module/model/78/rotary_pos_embedding_fwd_bf16/11167_complex/rotary_pos_embedding_fwd_bf16_157/gather_nd_mxnet_fwd_bf16_8"
  op: "gather_nd_mxnet_fwd_bf16"
  input: "module/model/78/rotary_emb/mult_fwd_bf16/11131_complex/mult_fwd_bf16_0"
  input: "module/model/78/expand_dims/11122"
  attr {
    key: "Bundle_idx"
    value {
      s: "N/A"
    }
  }
  attr {
    key: "Exec_idx"
    value {
      s: "31"
    }
  }
  attr {
    key: "Op_idx"
    value {
      s: "N/A"
    }
  }
  attr {
    key: "inputTensor:0"
    value {
      s: "tensor_19_id_118933_module/model/78/rotary_emb/aten__mul  |  Sizes = [284,128]  |  bf16  |  expBias = 0, scale = 1  |    |  ModelParam = 0  |  strides = [72704, 256, 2]  |  data = 0, sizeInBytes = 72704  |  location = in DRAM  |  dramOffset = 0x130000011c00  |  "
    }
  }
  attr {
    key: "inputTensor:1"
    value {
      s: "tensor_8_id_118809_module/model/78/aten__unsqueeze/1  |  Sizes = [1,284]  |  int32  |  expBias = 0, scale = 1  |    |  ModelParam = 0  |  strides = [1136, 1136, 4]  |  data = 0, sizeInBytes = 1136  |  isAliased = tensor_7_odule/model/78/placeholder/0, type = alias, offset: 0  |  location = in DRAM  |  "
    }
  }
  attr {
    key: "outputTensor:0"
    value {
      s: "bf16-9_95809  |  Sizes = [284,128]  |  bf16  |  expBias = 0, scale = 1  |    |  ModelParam = 0  |  strides = [72704, 256, 2]  |  data = 0, sizeInBytes = 72704  |  isAliased = bf16-13_95811, type = alias, offset: 0  |  location = in DRAM  |  "
    }
  }
}
node {
  name: "module/model/78/rotary_pos_embedding_fwd_bf16/11167_complex/rotary_pos_embedding_fwd_bf16_157/gather_nd_mxnet_fwd_bf16_10"
  op: "gather_nd_mxnet_fwd_bf16"
  input: "module/model/78/rotary_emb/mult_fwd_bf16/11125_complex/mult_fwd_bf16_0"
  input: "module/model/78/expand_dims/11122"
  attr {
    key: "Bundle_idx"
    value {
      s: "N/A"
    }
  }
  attr {
    key: "Exec_idx"
    value {
      s: "32"
    }
  }
  attr {
    key: "Op_idx"
    value {
      s: "N/A"
    }
  }
  attr {
    key: "inputTensor:0"
    value {
      s: "tensor_12_id_118929_module/model/78/rotary_emb/aten__mul  |  Sizes = [284,128]  |  bf16  |  expBias = 0, scale = 1  |    |  ModelParam = 0  |  strides = [72704, 256, 2]  |  data = 0, sizeInBytes = 72704  |  location = in DRAM  |  dramOffset = 0x130000000000  |  "
    }
  }
  attr {
    key: "inputTensor:1"
    value {
      s: "tensor_8_id_118809_module/model/78/aten__unsqueeze/1  |  Sizes = [1,284]  |  int32  |  expBias = 0, scale = 1  |    |  ModelParam = 0  |  strides = [1136, 1136, 4]  |  data = 0, sizeInBytes = 1136  |  isAliased = tensor_7_odule/model/78/placeholder/0, type = alias, offset: 0  |  location = in DRAM  |  "
    }
  }
  attr {
    key: "outputTensor:0"
    value {
      s: "bf16-11_95810  |  Sizes = [284,128]  |  bf16  |  expBias = 0, scale = 1  |    |  ModelParam = 0  |  strides = [72704, 256, 2]  |  data = 0, sizeInBytes = 72704  |  isAliased = bf16-15_95812, type = alias, offset: 0  |  location = in DRAM  |  "
    }
  }
}
node {
  name: "module/model/78/rotary_pos_embedding_fwd_bf16/11167_complex/rotary_pos_embedding_fwd_bf16_157/expand_dims_12"
  op: "ExpandDims"
  input: "module/model/78/rotary_pos_embedding_fwd_bf16/11167_complex/rotary_pos_embedding_fwd_bf16_157/gather_nd_mxnet_fwd_bf16_8"
  attr {
    key: "Bundle_idx"
    value {
      s: "N/A"
    }
  }
  attr {
    key: "Exec_idx"
    value {
      s: "33"
    }
  }
  attr {
    key: "Op_idx"
    value {
      s: "N/A"
    }
  }
  attr {
    key: "inputTensor:0"
    value {
      s: "bf16-9_95809  |  Sizes = [284,128]  |  bf16  |  expBias = 0, scale = 1  |    |  ModelParam = 0  |  strides = [72704, 256, 2]  |  data = 0, sizeInBytes = 72704  |  isAliased = bf16-13_95811, type = alias, offset: 0  |  location = in DRAM  |  "
    }
  }
  attr {
    key: "outputTensor:0"
    value {
      s: "bf16-13_95811  |  Sizes = [1,284,128]  |  bf16  |  expBias = 0, scale = 1  |    |  ModelParam = 0  |  strides = [72704, 72704, 256, 2]  |  data = 0, sizeInBytes = 72704  |  location = in DRAM  |  dramOffset = 0x310000163000  |  "
    }
  }
}
node {
  name: "module/model/78/rotary_pos_embedding_fwd_bf16/11167_complex/rotary_pos_embedding_fwd_bf16_157/expand_dims_14"
  op: "ExpandDims"
  input: "module/model/78/rotary_pos_embedding_fwd_bf16/11167_complex/rotary_pos_embedding_fwd_bf16_157/gather_nd_mxnet_fwd_bf16_10"
  attr {
    key: "Bundle_idx"
    value {
      s: "N/A"
    }
  }
  attr {
    key: "Exec_idx"
    value {
      s: "34"
    }
  }
  attr {
    key: "Op_idx"
    value {
      s: "N/A"
    }
  }
  attr {
    key: "inputTensor:0"
    value {
      s: "bf16-11_95810  |  Sizes = [284,128]  |  bf16  |  expBias = 0, scale = 1  |    |  ModelParam = 0  |  strides = [72704, 256, 2]  |  data = 0, sizeInBytes = 72704  |  isAliased = bf16-15_95812, type = alias, offset: 0  |  location = in DRAM  |  "
    }
  }
  attr {
    key: "outputTensor:0"
    value {
      s: "bf16-15_95812  |  Sizes = [1,284,128]  |  bf16  |  expBias = 0, scale = 1  |    |  ModelParam = 0  |  strides = [72704, 72704, 256, 2]  |  data = 0, sizeInBytes = 72704  |  location = in DRAM  |  dramOffset = 0x60000000000  |  "
    }
  }
}
node {
  name: "tensor_101_id_118917_module/model/78/aten__transpose_bundle_469/split_internal/0"
  op: "Split"
  input: "module/model/78/transpose/11166_transpose_via_logical"
  attr {
    key: "Bundle_idx"
    value {
      s: "469"
    }
  }
  attr {
    key: "Exec_idx"
    value {
      s: "35"
    }
  }
  attr {
    key: "Op_idx"
    value {
      s: "0"
    }
  }
  attr {
    key: "inputTensor:0"
    value {
      s: "tensor_101_id_118917_module/model/78/aten__transpose  |  Sizes = [1,16,284,128]  |  bf16  |  expBias = 0, scale = 1  |    |  ModelParam = 0  |  strides = [1163264, 1163264, 256, 4096, 2]  |  data = 0, sizeInBytes = 1163264  |  isAliased = tensor_100_id_118915_module/model/78/aten__view, type = alias, offset: 0  |  location = in DRAM  |  isSparseLayout  |  "
    }
  }
  attr {
    key: "outputTensor:0"
    value {
      s: "tensor_101_id_118917_module/model/78/aten__transpose_slice_0_0_0_0_0__0__bundle_469_96292  |  Sizes = [1,8,284,128]  |  bf16  |  expBias = 0, scale = 1  |    |  ModelParam = 0  |  strides = [1163264, 1163264, 256, 4096, 2]  |  data = 0, sizeInBytes = 581632  |  isAliased = tensor_101_id_118917_module/model/78/aten__transpose, type = concat, offset: 0  |  location = in DRAM  |  isSparseLayout  |  "
    }
  }
  attr {
    key: "outputTensor:1"
    value {
      s: "tensor_101_id_118917_module/model/78/aten__transpose_slice_0_0_1_0_0__0__bundle_469_96303  |  Sizes = [1,8,284,128]  |  bf16  |  expBias = 0, scale = 1  |    |  ModelParam = 0  |  strides = [1163264, 1163264, 256, 4096, 2]  |  data = 0, sizeInBytes = 581632  |  isAliased = tensor_101_id_118917_module/model/78/aten__transpose, type = concat, offset: 2048  |  location = in DRAM  |  isSparseLayout  |  "
    }
  }
}
node {
  name: "tensor_41_bundle_469/split_internal/0"
  op: "Split"
  input: "module/model/78/rotary_pos_embedding_fwd_bf16/11140_complex/rotary_pos_embedding_fwd_bf16_156/rope_st2_fwd_bf16_16"
  attr {
    key: "Bundle_idx"
    value {
      s: "469"
    }
  }
  attr {
    key: "Exec_idx"
    value {
      s: "36"
    }
  }
  attr {
    key: "Op_idx"
    value {
      s: "1"
    }
  }
  attr {
    key: "inputTensor:0"
    value {
      s: "tensor_41  |  Sizes = [1,2,284,128]  |  bf16  |  expBias = 0, scale = 1  |    |  ModelParam = 0  |  strides = [145408, 145408, 72704, 256, 2]  |  data = 0, sizeInBytes = 145408  |  location = in DRAM  |  dramOffset = 0x31000013f800  |  "
    }
  }
  attr {
    key: "outputTensor:0"
    value {
      s: "tensor_41_slice_0_0_0_0_0__0__bundle_469_96287  |  Sizes = [1,1,284,128]  |  bf16  |  expBias = 0, scale = 1  |    |  ModelParam = 0  |  strides = [145408, 145408, 72704, 256, 2]  |  data = 0, sizeInBytes = 72704  |  isAliased = tensor_41, type = concat, offset: 0  |  location = in DRAM  |  "
    }
  }
  attr {
    key: "outputTensor:1"
    value {
      s: "tensor_41_slice_0_0_1_0_0__0__bundle_469_96298  |  Sizes = [1,1,284,128]  |  bf16  |  expBias = 0, scale = 1  |    |  ModelParam = 0  |  strides = [145408, 145408, 72704, 256, 2]  |  data = 0, sizeInBytes = 72704  |  isAliased = tensor_41, type = concat, offset: 72704  |  location = in DRAM  |  "
    }
  }
}
node {
  name: "module/model/78/rotary_pos_embedding_fwd_bf16/11167_complex/rotary_pos_embedding_fwd_bf16_157/rope_st2_fwd_bf16_16_bundle_469/op_2"
  op: "rope_st2_fwd_bf16"
  input: "tensor_101_id_118917_module/model/78/aten__transpose_bundle_469/split_internal/0"
  input: "module/model/78/rotary_pos_embedding_fwd_bf16/11167_complex/rotary_pos_embedding_fwd_bf16_157/expand_dims_12"
  input: "module/model/78/rotary_pos_embedding_fwd_bf16/11167_complex/rotary_pos_embedding_fwd_bf16_157/expand_dims_14"
  attr {
    key: "Bundle_idx"
    value {
      s: "469"
    }
  }
  attr {
    key: "Exec_idx"
    value {
      s: "37"
    }
  }
  attr {
    key: "Op_idx"
    value {
      s: "2"
    }
  }
  attr {
    key: "inputTensor:0"
    value {
      s: "tensor_101_id_118917_module/model/78/aten__transpose_slice_0_0_0_0_0__0__bundle_469_96292  |  Sizes = [1,8,284,128]  |  bf16  |  expBias = 0, scale = 1  |    |  ModelParam = 0  |  strides = [1163264, 1163264, 256, 4096, 2]  |  data = 0, sizeInBytes = 581632  |  isAliased = tensor_101_id_118917_module/model/78/aten__transpose, type = concat, offset: 0  |  location = in DRAM  |  isSparseLayout  |  "
    }
  }
  attr {
    key: "inputTensor:1"
    value {
      s: "bf16-13_95811  |  Sizes = [1,284,128]  |  bf16  |  expBias = 0, scale = 1  |    |  ModelParam = 0  |  strides = [72704, 72704, 256, 2]  |  data = 0, sizeInBytes = 72704  |  location = in DRAM  |  dramOffset = 0x310000163000  |  "
    }
  }
  attr {
    key: "inputTensor:2"
    value {
      s: "bf16-15_95812  |  Sizes = [1,284,128]  |  bf16  |  expBias = 0, scale = 1  |    |  ModelParam = 0  |  strides = [72704, 72704, 256, 2]  |  data = 0, sizeInBytes = 72704  |  location = in DRAM  |  dramOffset = 0x60000000000  |  "
    }
  }
  attr {
    key: "outputTensor:0"
    value {
      s: "tensor_103_slice_0_0_0_0_0__0__bundle_469_96295  |  Sizes = [1,8,284,128]  |  bf16  |  expBias = 0, scale = 1  |    |  ModelParam = 0  |  strides = [581632, 581632, 72704, 256, 2]  |  data = 0, sizeInBytes = 581632  |  location = in SRAM  |  sramOffset = 0x1000fffffdb68000  |  "
    }
  }
}
node {
  name: "module/model/78/rotary_pos_embedding_fwd_bf16/11167_complex/rotary_pos_embedding_fwd_bf16_157/rope_st2_fwd_bf16_16_bundle_469/op_7"
  op: "rope_st2_fwd_bf16"
  input: "tensor_101_id_118917_module/model/78/aten__transpose_bundle_469/split_internal/0"
  input: "module/model/78/rotary_pos_embedding_fwd_bf16/11167_complex/rotary_pos_embedding_fwd_bf16_157/expand_dims_12"
  input: "module/model/78/rotary_pos_embedding_fwd_bf16/11167_complex/rotary_pos_embedding_fwd_bf16_157/expand_dims_14"
  attr {
    key: "Bundle_idx"
    value {
      s: "469"
    }
  }
  attr {
    key: "Exec_idx"
    value {
      s: "38"
    }
  }
  attr {
    key: "Op_idx"
    value {
      s: "3"
    }
  }
  attr {
    key: "inputTensor:0"
    value {
      s: "tensor_101_id_118917_module/model/78/aten__transpose_slice_0_0_1_0_0__0__bundle_469_96303  |  Sizes = [1,8,284,128]  |  bf16  |  expBias = 0, scale = 1  |    |  ModelParam = 0  |  strides = [1163264, 1163264, 256, 4096, 2]  |  data = 0, sizeInBytes = 581632  |  isAliased = tensor_101_id_118917_module/model/78/aten__transpose, type = concat, offset: 2048  |  location = in DRAM  |  isSparseLayout  |  "
    }
  }
  attr {
    key: "inputTensor:1"
    value {
      s: "bf16-13_95811  |  Sizes = [1,284,128]  |  bf16  |  expBias = 0, scale = 1  |    |  ModelParam = 0  |  strides = [72704, 72704, 256, 2]  |  data = 0, sizeInBytes = 72704  |  location = in DRAM  |  dramOffset = 0x310000163000  |  "
    }
  }
  attr {
    key: "inputTensor:2"
    value {
      s: "bf16-15_95812  |  Sizes = [1,284,128]  |  bf16  |  expBias = 0, scale = 1  |    |  ModelParam = 0  |  strides = [72704, 72704, 256, 2]  |  data = 0, sizeInBytes = 72704  |  location = in DRAM  |  dramOffset = 0x60000000000  |  "
    }
  }
  attr {
    key: "outputTensor:0"
    value {
      s: "tensor_103_slice_0_0_1_0_0__0__bundle_469_96304  |  Sizes = [1,8,284,128]  |  bf16  |  expBias = 0, scale = 1  |    |  ModelParam = 0  |  strides = [581632, 581632, 72704, 256, 2]  |  data = 0, sizeInBytes = 581632  |  location = in SRAM  |  sramOffset = 0x1000fffffdbf6000  |  "
    }
  }
}
node {
  name: "fusedTPCNode_166_1_bundle_469/op_0"
  op: "fused_kernel_0xDF3C58C3_1E1_bf16"
  input: "tensor_41_bundle_469/split_internal/0"
  attr {
    key: "Bundle_idx"
    value {
      s: "469"
    }
  }
  attr {
    key: "Exec_idx"
    value {
      s: "39"
    }
  }
  attr {
    key: "Op_idx"
    value {
      s: "4"
    }
  }
  attr {
    key: "inputTensor:0"
    value {
      s: "tensor_41_slice_0_0_0_0_0__0__bundle_469_96287  |  Sizes = [1,1,284,128]  |  bf16  |  expBias = 0, scale = 1  |    |  ModelParam = 0  |  strides = [145408, 145408, 72704, 256, 2]  |  data = 0, sizeInBytes = 72704  |  isAliased = tensor_41, type = concat, offset: 0  |  location = in DRAM  |  "
    }
  }
  attr {
    key: "outputTensor:0"
    value {
      s: "tensor_46_slice_0_0_0_0_0__0__bundle_469_96288  |  Sizes = [1,1,284,128]  |  hfloat8  |  expBias = 7, scale = 1  |    |  ModelParam = 0  |  strides = [72704, 72704, 36352, 128, 1]  |  data = 0, sizeInBytes = 36352  |  isAliased = tensor_46, type = concat, offset: 0  |  location = in DRAM  |  "
    }
  }
  attr {
    key: "outputTensor:1"
    value {
      s: "tensor_49_slice_0_0_0_0_0__0__bundle_469_96289  |  Sizes = [1,1,284,128]  |  bf16  |  expBias = 0, scale = 1  |    |  ModelParam = 0  |  strides = [145408, 145408, 72704, 256, 2]  |  data = 0, sizeInBytes = 72704  |  isAliased = tensor_49, type = concat, offset: 0  |  location = in DRAM  |  "
    }
  }
  attr {
    key: "outputTensor:2"
    value {
      s: "tensor-96001_slice_0_0_0_0_0__0__bundle_469_96290  |  Sizes = [1,1,284,128]  |  hfloat8  |  expBias = 7, scale = 1  |    |  ModelParam = 0  |  strides = [36352, 36352, 36352, 128, 1]  |  data = 0, sizeInBytes = 36352  |  isAliased = tensor_89_id_119032_module/model/78/fused_scaled_dot_product_attention/aten__view_slice_0_0_0_0_0__0__bundle_469_96291, type = alias, offset: 0  |  location = in SRAM  |  sramOffset = 0x1000fffffdc84000  |  "
    }
  }
}
node {
  name: "reshape_5_5_bundle_469/op_1"
  op: "Reshape"
  input: "fusedTPCNode_166_1_bundle_469/op_0"
  attr {
    key: "Bundle_idx"
    value {
      s: "469"
    }
  }
  attr {
    key: "Exec_idx"
    value {
      s: "40"
    }
  }
  attr {
    key: "Op_idx"
    value {
      s: "5"
    }
  }
  attr {
    key: "inputTensor:0"
    value {
      s: "tensor-96001_slice_0_0_0_0_0__0__bundle_469_96290  |  Sizes = [1,1,284,128]  |  hfloat8  |  expBias = 7, scale = 1  |    |  ModelParam = 0  |  strides = [36352, 36352, 36352, 128, 1]  |  data = 0, sizeInBytes = 36352  |  isAliased = tensor_89_id_119032_module/model/78/fused_scaled_dot_product_attention/aten__view_slice_0_0_0_0_0__0__bundle_469_96291, type = alias, offset: 0  |  location = in SRAM  |  sramOffset = 0x1000fffffdc84000  |  "
    }
  }
  attr {
    key: "outputTensor:0"
    value {
      s: "tensor_89_id_119032_module/model/78/fused_scaled_dot_product_attention/aten__view_slice_0_0_0_0_0__0__bundle_469_96291  |  Sizes = [1,1,1,284,128]  |  hfloat8  |  expBias = 7, scale = 1  |    |  ModelParam = 0  |  strides = [36352, 36352, 36352, 36352, 128, 1]  |  data = 0, sizeInBytes = 36352  |  location = in SRAM  |  sramOffset = 0x1000fffffdc84000  |  "
    }
  }
}
node {
  name: "fusedTPCNode_166_3_bundle_469/op_3"
  op: "fused_kernel_0xC5556D41_1E3_hf8"
  input: "module/model/78/rotary_pos_embedding_fwd_bf16/11167_complex/rotary_pos_embedding_fwd_bf16_157/rope_st2_fwd_bf16_16_bundle_469/op_2"
  attr {
    key: "Bundle_idx"
    value {
      s: "469"
    }
  }
  attr {
    key: "Exec_idx"
    value {
      s: "41"
    }
  }
  attr {
    key: "Op_idx"
    value {
      s: "6"
    }
  }
  attr {
    key: "inputTensor:0"
    value {
      s: "tensor_103_slice_0_0_0_0_0__0__bundle_469_96295  |  Sizes = [1,8,284,128]  |  bf16  |  expBias = 0, scale = 1  |    |  ModelParam = 0  |  strides = [581632, 581632, 72704, 256, 2]  |  data = 0, sizeInBytes = 581632  |  location = in SRAM  |  sramOffset = 0x1000fffffdb68000  |  "
    }
  }
  attr {
    key: "outputTensor:0"
    value {
      s: "tensor-96003_slice_0_0_0_0_0__0__bundle_469_96296  |  Sizes = [1,8,284,128]  |  hfloat8  |  expBias = 7, scale = 1  |    |  ModelParam = 0  |  strides = [290816, 290816, 36352, 128, 1]  |  data = 0, sizeInBytes = 290816  |  isAliased = tensor_108_id_119030_module/model/78/fused_scaled_dot_product_attention/aten__view_slice_0_0_0_0_0__0__bundle_469_96297, type = alias, offset: 0  |  location = in SRAM  |  sramOffset = 0x1000fffffdc95c00  |  "
    }
  }
}
node {
  name: "reshape_11_11_bundle_469/op_4"
  op: "Reshape"
  input: "fusedTPCNode_166_3_bundle_469/op_3"
  attr {
    key: "Bundle_idx"
    value {
      s: "469"
    }
  }
  attr {
    key: "Exec_idx"
    value {
      s: "42"
    }
  }
  attr {
    key: "Op_idx"
    value {
      s: "7"
    }
  }
  attr {
    key: "inputTensor:0"
    value {
      s: "tensor-96003_slice_0_0_0_0_0__0__bundle_469_96296  |  Sizes = [1,8,284,128]  |  hfloat8  |  expBias = 7, scale = 1  |    |  ModelParam = 0  |  strides = [290816, 290816, 36352, 128, 1]  |  data = 0, sizeInBytes = 290816  |  isAliased = tensor_108_id_119030_module/model/78/fused_scaled_dot_product_attention/aten__view_slice_0_0_0_0_0__0__bundle_469_96297, type = alias, offset: 0  |  location = in SRAM  |  sramOffset = 0x1000fffffdc95c00  |  "
    }
  }
  attr {
    key: "outputTensor:0"
    value {
      s: "tensor_108_id_119030_module/model/78/fused_scaled_dot_product_attention/aten__view_slice_0_0_0_0_0__0__bundle_469_96297  |  Sizes = [1,1,8,284,128]  |  hfloat8  |  expBias = 7, scale = 1  |    |  ModelParam = 0  |  strides = [290816, 290816, 290816, 36352, 128, 1]  |  data = 0, sizeInBytes = 290816  |  location = in SRAM  |  sramOffset = 0x1000fffffdc95c00  |  "
    }
  }
}
node {
  name: "fusedTPCNode_166_1_bundle_469/op_5"
  op: "fused_kernel_0xDF3C58C3_1E1_bf16"
  input: "tensor_41_bundle_469/split_internal/0"
  attr {
    key: "Bundle_idx"
    value {
      s: "469"
    }
  }
  attr {
    key: "Exec_idx"
    value {
      s: "43"
    }
  }
  attr {
    key: "Op_idx"
    value {
      s: "8"
    }
  }
  attr {
    key: "inputTensor:0"
    value {
      s: "tensor_41_slice_0_0_1_0_0__0__bundle_469_96298  |  Sizes = [1,1,284,128]  |  bf16  |  expBias = 0, scale = 1  |    |  ModelParam = 0  |  strides = [145408, 145408, 72704, 256, 2]  |  data = 0, sizeInBytes = 72704  |  isAliased = tensor_41, type = concat, offset: 72704  |  location = in DRAM  |  "
    }
  }
  attr {
    key: "outputTensor:0"
    value {
      s: "tensor_46_slice_0_0_1_0_0__0__bundle_469_96299  |  Sizes = [1,1,284,128]  |  hfloat8  |  expBias = 7, scale = 1  |    |  ModelParam = 0  |  strides = [72704, 72704, 36352, 128, 1]  |  data = 0, sizeInBytes = 36352  |  isAliased = tensor_46, type = concat, offset: 36352  |  location = in DRAM  |  "
    }
  }
  attr {
    key: "outputTensor:1"
    value {
      s: "tensor_49_slice_0_0_1_0_0__0__bundle_469_96300  |  Sizes = [1,1,284,128]  |  bf16  |  expBias = 0, scale = 1  |    |  ModelParam = 0  |  strides = [145408, 145408, 72704, 256, 2]  |  data = 0, sizeInBytes = 72704  |  isAliased = tensor_49, type = concat, offset: 72704  |  location = in DRAM  |  "
    }
  }
  attr {
    key: "outputTensor:2"
    value {
      s: "tensor-96001_slice_0_0_1_0_0__0__bundle_469_96301  |  Sizes = [1,1,284,128]  |  hfloat8  |  expBias = 7, scale = 1  |    |  ModelParam = 0  |  strides = [36352, 36352, 36352, 128, 1]  |  data = 0, sizeInBytes = 36352  |  isAliased = tensor_89_id_119032_module/model/78/fused_scaled_dot_product_attention/aten__view_slice_0_0_0_1_0__0__bundle_469_96302, type = alias, offset: 0  |  location = in SRAM  |  sramOffset = 0x1000fffffdc8ce00  |  "
    }
  }
}
node {
  name: "reshape_5_5_bundle_469/op_6"
  op: "Reshape"
  input: "fusedTPCNode_166_1_bundle_469/op_5"
  attr {
    key: "Bundle_idx"
    value {
      s: "469"
    }
  }
  attr {
    key: "Exec_idx"
    value {
      s: "44"
    }
  }
  attr {
    key: "Op_idx"
    value {
      s: "9"
    }
  }
  attr {
    key: "inputTensor:0"
    value {
      s: "tensor-96001_slice_0_0_1_0_0__0__bundle_469_96301  |  Sizes = [1,1,284,128]  |  hfloat8  |  expBias = 7, scale = 1  |    |  ModelParam = 0  |  strides = [36352, 36352, 36352, 128, 1]  |  data = 0, sizeInBytes = 36352  |  isAliased = tensor_89_id_119032_module/model/78/fused_scaled_dot_product_attention/aten__view_slice_0_0_0_1_0__0__bundle_469_96302, type = alias, offset: 0  |  location = in SRAM  |  sramOffset = 0x1000fffffdc8ce00  |  "
    }
  }
  attr {
    key: "outputTensor:0"
    value {
      s: "tensor_89_id_119032_module/model/78/fused_scaled_dot_product_attention/aten__view_slice_0_0_0_1_0__0__bundle_469_96302  |  Sizes = [1,1,1,284,128]  |  hfloat8  |  expBias = 7, scale = 1  |    |  ModelParam = 0  |  strides = [36352, 36352, 36352, 36352, 128, 1]  |  data = 0, sizeInBytes = 36352  |  location = in SRAM  |  sramOffset = 0x1000fffffdc8ce00  |  "
    }
  }
}
node {
  name: "tensor_46_bundle_469/concat_logical_internal/0"
  op: "Concatenate"
  input: "fusedTPCNode_166_1_bundle_469/op_0"
  input: "fusedTPCNode_166_1_bundle_469/op_5"
  attr {
    key: "Bundle_idx"
    value {
      s: "469"
    }
  }
  attr {
    key: "Exec_idx"
    value {
      s: "45"
    }
  }
  attr {
    key: "Op_idx"
    value {
      s: "10"
    }
  }
  attr {
    key: "inputTensor:0"
    value {
      s: "tensor_46_slice_0_0_0_0_0__0__bundle_469_96288  |  Sizes = [1,1,284,128]  |  hfloat8  |  expBias = 7, scale = 1  |    |  ModelParam = 0  |  strides = [72704, 72704, 36352, 128, 1]  |  data = 0, sizeInBytes = 36352  |  isAliased = tensor_46, type = concat, offset: 0  |  location = in DRAM  |  "
    }
  }
  attr {
    key: "inputTensor:1"
    value {
      s: "tensor_46_slice_0_0_1_0_0__0__bundle_469_96299  |  Sizes = [1,1,284,128]  |  hfloat8  |  expBias = 7, scale = 1  |    |  ModelParam = 0  |  strides = [72704, 72704, 36352, 128, 1]  |  data = 0, sizeInBytes = 36352  |  isAliased = tensor_46, type = concat, offset: 36352  |  location = in DRAM  |  "
    }
  }
  attr {
    key: "outputTensor:0"
    value {
      s: "tensor_46  |  Sizes = [1,2,284,128]  |  hfloat8  |  expBias = 7, scale = 1  |    |  ModelParam = 0  |  strides = [72704, 72704, 36352, 128, 1]  |  data = 0, sizeInBytes = 72704  |  isPersistent  |  location = in DRAM  |  dramOffset = 0x60000000000  |  userMemorySection(type=Persistent, id=6)  |  "
    }
  }
}
node {
  name: "tensor_46"
  op: "OutputTensor"
  input: "tensor_46_bundle_469/concat_logical_internal/0"
  attr {
    key: "dtype"
    value {
      type: DT_INVALID
    }
  }
  attr {
    key: "shape"
    value {
      shape {
        dim {
          size: 128
        }
        dim {
          size: 284
        }
        dim {
          size: 2
        }
        dim {
          size: 1
        }
        dim {
          size: 1
        }
      }
    }
  }
  attr {
    key: "synDataType"
    value {
      s: "hfloat8"
    }
  }
}
node {
  name: "tensor_49_bundle_469/concat_logical_internal/0"
  op: "Concatenate"
  input: "fusedTPCNode_166_1_bundle_469/op_0"
  input: "fusedTPCNode_166_1_bundle_469/op_5"
  attr {
    key: "Bundle_idx"
    value {
      s: "469"
    }
  }
  attr {
    key: "Exec_idx"
    value {
      s: "46"
    }
  }
  attr {
    key: "Op_idx"
    value {
      s: "11"
    }
  }
  attr {
    key: "inputTensor:0"
    value {
      s: "tensor_49_slice_0_0_0_0_0__0__bundle_469_96289  |  Sizes = [1,1,284,128]  |  bf16  |  expBias = 0, scale = 1  |    |  ModelParam = 0  |  strides = [145408, 145408, 72704, 256, 2]  |  data = 0, sizeInBytes = 72704  |  isAliased = tensor_49, type = concat, offset: 0  |  location = in DRAM  |  "
    }
  }
  attr {
    key: "inputTensor:1"
    value {
      s: "tensor_49_slice_0_0_1_0_0__0__bundle_469_96300  |  Sizes = [1,1,284,128]  |  bf16  |  expBias = 0, scale = 1  |    |  ModelParam = 0  |  strides = [145408, 145408, 72704, 256, 2]  |  data = 0, sizeInBytes = 72704  |  isAliased = tensor_49, type = concat, offset: 72704  |  location = in DRAM  |  "
    }
  }
  attr {
    key: "outputTensor:0"
    value {
      s: "tensor_49  |  Sizes = [1,2,284,128]  |  bf16  |  expBias = 0, scale = 1  |    |  ModelParam = 0  |  strides = [145408, 145408, 72704, 256, 2]  |  data = 0, sizeInBytes = 145408  |  isPersistent  |  location = in DRAM  |  dramOffset = 0x130000000000  |  userMemorySection(type=Persistent, id=19)  |  "
    }
  }
}
node {
  name: "tensor_49"
  op: "OutputTensor"
  input: "tensor_49_bundle_469/concat_logical_internal/0"
  attr {
    key: "dtype"
    value {
      type: DT_BFLOAT16
    }
  }
  attr {
    key: "shape"
    value {
      shape {
        dim {
          size: 128
        }
        dim {
          size: 284
        }
        dim {
          size: 2
        }
        dim {
          size: 1
        }
        dim {
          size: 1
        }
      }
    }
  }
  attr {
    key: "synDataType"
    value {
      s: "bf16"
    }
  }
}
node {
  name: "fusedTPCNode_166_3_bundle_469/op_8"
  op: "fused_kernel_0xC5556D41_1E3_hf8"
  input: "module/model/78/rotary_pos_embedding_fwd_bf16/11167_complex/rotary_pos_embedding_fwd_bf16_157/rope_st2_fwd_bf16_16_bundle_469/op_7"
  attr {
    key: "Bundle_idx"
    value {
      s: "469"
    }
  }
  attr {
    key: "Exec_idx"
    value {
      s: "47"
    }
  }
  attr {
    key: "Op_idx"
    value {
      s: "12"
    }
  }
  attr {
    key: "inputTensor:0"
    value {
      s: "tensor_103_slice_0_0_1_0_0__0__bundle_469_96304  |  Sizes = [1,8,284,128]  |  bf16  |  expBias = 0, scale = 1  |    |  ModelParam = 0  |  strides = [581632, 581632, 72704, 256, 2]  |  data = 0, sizeInBytes = 581632  |  location = in SRAM  |  sramOffset = 0x1000fffffdbf6000  |  "
    }
  }
  attr {
    key: "outputTensor:0"
    value {
      s: "tensor-96003_slice_0_0_1_0_0__0__bundle_469_96305  |  Sizes = [1,8,284,128]  |  hfloat8  |  expBias = 7, scale = 1  |    |  ModelParam = 0  |  strides = [290816, 290816, 36352, 128, 1]  |  data = 0, sizeInBytes = 290816  |  isAliased = tensor_108_id_119030_module/model/78/fused_scaled_dot_product_attention/aten__view_slice_0_0_0_1_0__0__bundle_469_96306, type = alias, offset: 0  |  location = in SRAM  |  sramOffset = 0x1000fffffdcdcc00  |  "
    }
  }
}
node {
  name: "reshape_11_11_bundle_469/op_9"
  op: "Reshape"
  input: "fusedTPCNode_166_3_bundle_469/op_8"
  attr {
    key: "Bundle_idx"
    value {
      s: "469"
    }
  }
  attr {
    key: "Exec_idx"
    value {
      s: "48"
    }
  }
  attr {
    key: "Op_idx"
    value {
      s: "13"
    }
  }
  attr {
    key: "inputTensor:0"
    value {
      s: "tensor-96003_slice_0_0_1_0_0__0__bundle_469_96305  |  Sizes = [1,8,284,128]  |  hfloat8  |  expBias = 7, scale = 1  |    |  ModelParam = 0  |  strides = [290816, 290816, 36352, 128, 1]  |  data = 0, sizeInBytes = 290816  |  isAliased = tensor_108_id_119030_module/model/78/fused_scaled_dot_product_attention/aten__view_slice_0_0_0_1_0__0__bundle_469_96306, type = alias, offset: 0  |  location = in SRAM  |  sramOffset = 0x1000fffffdcdcc00  |  "
    }
  }
  attr {
    key: "outputTensor:0"
    value {
      s: "tensor_108_id_119030_module/model/78/fused_scaled_dot_product_attention/aten__view_slice_0_0_0_1_0__0__bundle_469_96306  |  Sizes = [1,1,8,284,128]  |  hfloat8  |  expBias = 7, scale = 1  |    |  ModelParam = 0  |  strides = [290816, 290816, 290816, 36352, 128, 1]  |  data = 0, sizeInBytes = 290816  |  location = in SRAM  |  sramOffset = 0x1000fffffdcdcc00  |  "
    }
  }
}
node {
  name: "module/model/78/fused_scaled_dot_product_attention/sdpa_recomp_fwd_hf8/11170_complex/sdpa_recomp_fwd_hf8_157/sdpa_recomp_core_fwd_hf8_78/fp8_gemm_hf8_1254/batch_gemm_16_bundle_469/op_10"
  op: "BatchGemm"
  input: "reshape_11_11_bundle_469/op_4"
  input: "reshape_5_5_bundle_469/op_1"
  attr {
    key: "Bundle_idx"
    value {
      s: "469"
    }
  }
  attr {
    key: "Exec_idx"
    value {
      s: "49"
    }
  }
  attr {
    key: "Op_idx"
    value {
      s: "14"
    }
  }
  attr {
    key: "Parameters"
    value {
      s: "transpose_a=false, transpose_b=true"
    }
  }
  attr {
    key: "fp8BiasIn"
    value {
      s: "7"
    }
  }
  attr {
    key: "fp8BiasIn2"
    value {
      s: "7"
    }
  }
  attr {
    key: "fp8BiasOut"
    value {
      s: "0"
    }
  }
  attr {
    key: "inputTensor:0"
    value {
      s: "tensor_108_id_119030_module/model/78/fused_scaled_dot_product_attention/aten__view_slice_0_0_0_0_0__0__bundle_469_96297  |  Sizes = [1,1,8,284,128]  |  hfloat8  |  expBias = 7, scale = 1  |    |  ModelParam = 0  |  strides = [290816, 290816, 290816, 36352, 128, 1]  |  data = 0, sizeInBytes = 290816  |  location = in SRAM  |  sramOffset = 0x1000fffffdc95c00  |  "
    }
  }
  attr {
    key: "inputTensor:1"
    value {
      s: "tensor_89_id_119032_module/model/78/fused_scaled_dot_product_attention/aten__view_slice_0_0_0_0_0__0__bundle_469_96291  |  Sizes = [1,1,1,284,128]  |  hfloat8  |  expBias = 7, scale = 1  |    |  ModelParam = 0  |  strides = [36352, 36352, 36352, 36352, 128, 1]  |  data = 0, sizeInBytes = 36352  |  location = in SRAM  |  sramOffset = 0x1000fffffdc84000  |  "
    }
  }
  attr {
    key: "outputTensor:0"
    value {
      s: "bf16-17_95821_slice_0_0_0_0_0__0__bundle_469_96307  |  Sizes = [1,1,8,284,284]  |  bf16  |  expBias = 0, scale = 1  |    |  ModelParam = 0  |  strides = [2580992, 2580992, 1290496, 161312, 568, 2]  |  data = 0, sizeInBytes = 1290496  |  isAliased = bf16-17_95821, type = concat, offset: 0  |  location = in DRAM  |  "
    }
  }
}
node {
  name: "module/model/78/fused_scaled_dot_product_attention/sdpa_recomp_fwd_hf8/11170_complex/sdpa_recomp_fwd_hf8_157/sdpa_recomp_core_fwd_hf8_78/fp8_gemm_hf8_1254/batch_gemm_16_bundle_469/op_11"
  op: "BatchGemm"
  input: "reshape_11_11_bundle_469/op_9"
  input: "reshape_5_5_bundle_469/op_6"
  attr {
    key: "Bundle_idx"
    value {
      s: "469"
    }
  }
  attr {
    key: "Exec_idx"
    value {
      s: "50"
    }
  }
  attr {
    key: "Op_idx"
    value {
      s: "15"
    }
  }
  attr {
    key: "Parameters"
    value {
      s: "transpose_a=false, transpose_b=true"
    }
  }
  attr {
    key: "fp8BiasIn"
    value {
      s: "7"
    }
  }
  attr {
    key: "fp8BiasIn2"
    value {
      s: "7"
    }
  }
  attr {
    key: "fp8BiasOut"
    value {
      s: "0"
    }
  }
  attr {
    key: "inputTensor:0"
    value {
      s: "tensor_108_id_119030_module/model/78/fused_scaled_dot_product_attention/aten__view_slice_0_0_0_1_0__0__bundle_469_96306  |  Sizes = [1,1,8,284,128]  |  hfloat8  |  expBias = 7, scale = 1  |    |  ModelParam = 0  |  strides = [290816, 290816, 290816, 36352, 128, 1]  |  data = 0, sizeInBytes = 290816  |  location = in SRAM  |  sramOffset = 0x1000fffffdcdcc00  |  "
    }
  }
  attr {
    key: "inputTensor:1"
    value {
      s: "tensor_89_id_119032_module/model/78/fused_scaled_dot_product_attention/aten__view_slice_0_0_0_1_0__0__bundle_469_96302  |  Sizes = [1,1,1,284,128]  |  hfloat8  |  expBias = 7, scale = 1  |    |  ModelParam = 0  |  strides = [36352, 36352, 36352, 36352, 128, 1]  |  data = 0, sizeInBytes = 36352  |  location = in SRAM  |  sramOffset = 0x1000fffffdc8ce00  |  "
    }
  }
  attr {
    key: "outputTensor:0"
    value {
      s: "bf16-17_95821_slice_0_0_0_1_0__0__bundle_469_96308  |  Sizes = [1,1,8,284,284]  |  bf16  |  expBias = 0, scale = 1  |    |  ModelParam = 0  |  strides = [2580992, 2580992, 1290496, 161312, 568, 2]  |  data = 0, sizeInBytes = 1290496  |  isAliased = bf16-17_95821, type = concat, offset: 1290496  |  location = in DRAM  |  "
    }
  }
}
node {
  name: "bf16-17_95821_bundle_469/concat_logical_internal/0"
  op: "Concatenate"
  input: "module/model/78/fused_scaled_dot_product_attention/sdpa_recomp_fwd_hf8/11170_complex/sdpa_recomp_fwd_hf8_157/sdpa_recomp_core_fwd_hf8_78/fp8_gemm_hf8_1254/batch_gemm_16_bundle_469/op_10"
  input: "module/model/78/fused_scaled_dot_product_attention/sdpa_recomp_fwd_hf8/11170_complex/sdpa_recomp_fwd_hf8_157/sdpa_recomp_core_fwd_hf8_78/fp8_gemm_hf8_1254/batch_gemm_16_bundle_469/op_11"
  attr {
    key: "Bundle_idx"
    value {
      s: "469"
    }
  }
  attr {
    key: "Exec_idx"
    value {
      s: "51"
    }
  }
  attr {
    key: "Op_idx"
    value {
      s: "16"
    }
  }
  attr {
    key: "inputTensor:0"
    value {
      s: "bf16-17_95821_slice_0_0_0_0_0__0__bundle_469_96307  |  Sizes = [1,1,8,284,284]  |  bf16  |  expBias = 0, scale = 1  |    |  ModelParam = 0  |  strides = [2580992, 2580992, 1290496, 161312, 568, 2]  |  data = 0, sizeInBytes = 1290496  |  isAliased = bf16-17_95821, type = concat, offset: 0  |  location = in DRAM  |  "
    }
  }
  attr {
    key: "inputTensor:1"
    value {
      s: "bf16-17_95821_slice_0_0_0_1_0__0__bundle_469_96308  |  Sizes = [1,1,8,284,284]  |  bf16  |  expBias = 0, scale = 1  |    |  ModelParam = 0  |  strides = [2580992, 2580992, 1290496, 161312, 568, 2]  |  data = 0, sizeInBytes = 1290496  |  isAliased = bf16-17_95821, type = concat, offset: 1290496  |  location = in DRAM  |  "
    }
  }
  attr {
    key: "outputTensor:0"
    value {
      s: "bf16-17_95821  |  Sizes = [1,2,8,284,284]  |  bf16  |  expBias = 0, scale = 1  |    |  ModelParam = 0  |  strides = [2580992, 2580992, 1290496, 161312, 568, 2]  |  data = 0, sizeInBytes = 2580992  |  location = in DRAM  |  dramOffset = 0x310000174c00  |  "
    }
  }
}
node {
  name: "module/model/78/fused_scaled_dot_product_attention/sdpa_recomp_fwd_hf8/11170_complex/sdpa_recomp_fwd_hf8_157/sdpa_recomp_core_fwd_hf8_78/constant_f32_18"
  op: "constant_f32"
  attr {
    key: "Bundle_idx"
    value {
      s: "N/A"
    }
  }
  attr {
    key: "Exec_idx"
    value {
      s: "52"
    }
  }
  attr {
    key: "Op_idx"
    value {
      s: "N/A"
    }
  }
  attr {
    key: "outputTensor:0"
    value {
      s: "f32-19_95822  |  Sizes = [1]  |  float32  |  expBias = 0, scale = 1  |    |  ModelParam = 0  |  strides = [4, 4]  |  data = 0, sizeInBytes = 4  |  location = in DRAM  |  dramOffset = 0x310000000000  |  "
    }
  }
}
node {
  name: "module/model/78/fused_scaled_dot_product_attention/sdpa_recomp_fwd_hf8/11170_complex/sdpa_recomp_fwd_hf8_157/sdpa_recomp_core_fwd_hf8_78/constant_f32_20"
  op: "constant_f32"
  attr {
    key: "Bundle_idx"
    value {
      s: "N/A"
    }
  }
  attr {
    key: "Exec_idx"
    value {
      s: "53"
    }
  }
  attr {
    key: "Op_idx"
    value {
      s: "N/A"
    }
  }
  attr {
    key: "outputTensor:0"
    value {
      s: "f32-21_95823  |  Sizes = [1]  |  float32  |  expBias = 0, scale = 1  |    |  ModelParam = 0  |  strides = [4, 4]  |  data = 0, sizeInBytes = 4  |  location = in DRAM  |  dramOffset = 0x310000000080  |  "
    }
  }
}
node {
  name: "tensor_69_bundle_470/split_internal/0"
  op: "Split"
  input: "module/model/78/quant_input_0/transpose/11148_transpose_via_logical"
  attr {
    key: "Bundle_idx"
    value {
      s: "470"
    }
  }
  attr {
    key: "Exec_idx"
    value {
      s: "54"
    }
  }
  attr {
    key: "Op_idx"
    value {
      s: "0"
    }
  }
  attr {
    key: "inputTensor:0"
    value {
      s: "tensor_69  |  Sizes = [1,2,284,128]  |  hfloat8  |  expBias = 7, scale = 1  |    |  ModelParam = 0  |  strides = [72704, 72704, 36352, 128, 1]  |  data = 0, sizeInBytes = 72704  |  isPersistent  |  location = in DRAM  |  dramOffset = 0x140000000000  |  userMemorySection(type=Persistent, id=20)  |  "
    }
  }
  attr {
    key: "outputTensor:0"
    value {
      s: "tensor_69_slice_0_0_0_0_0__0__bundle_470_96309  |  Sizes = [1,1,284,128]  |  hfloat8  |  expBias = 7, scale = 1  |    |  ModelParam = 0  |  strides = [72704, 72704, 36352, 128, 1]  |  data = 0, sizeInBytes = 36352  |  isAliased = tensor_69, type = concat, offset: 0  |  location = in DRAM  |  "
    }
  }
  attr {
    key: "outputTensor:1"
    value {
      s: "tensor_69_slice_0_0_1_0_0__0__bundle_470_96319  |  Sizes = [1,1,284,128]  |  hfloat8  |  expBias = 7, scale = 1  |    |  ModelParam = 0  |  strides = [72704, 72704, 36352, 128, 1]  |  data = 0, sizeInBytes = 36352  |  isAliased = tensor_69, type = concat, offset: 36352  |  location = in DRAM  |  "
    }
  }
}
node {
  name: "bf16-17_95821_bundle_470/split_internal/0"
  op: "Split"
  input: "bf16-17_95821_bundle_469/concat_logical_internal/0"
  attr {
    key: "Bundle_idx"
    value {
      s: "470"
    }
  }
  attr {
    key: "Exec_idx"
    value {
      s: "55"
    }
  }
  attr {
    key: "Op_idx"
    value {
      s: "1"
    }
  }
  attr {
    key: "inputTensor:0"
    value {
      s: "bf16-17_95821  |  Sizes = [1,2,8,284,284]  |  bf16  |  expBias = 0, scale = 1  |    |  ModelParam = 0  |  strides = [2580992, 2580992, 1290496, 161312, 568, 2]  |  data = 0, sizeInBytes = 2580992  |  location = in DRAM  |  dramOffset = 0x310000174c00  |  "
    }
  }
  attr {
    key: "outputTensor:0"
    value {
      s: "bf16-17_95821_slice_0_0_0_0_0__0__bundle_470_96313  |  Sizes = [1,1,8,284,284]  |  bf16  |  expBias = 0, scale = 1  |    |  ModelParam = 0  |  strides = [2580992, 2580992, 1290496, 161312, 568, 2]  |  data = 0, sizeInBytes = 1290496  |  isAliased = bf16-17_95821, type = concat, offset: 0  |  location = in DRAM  |  "
    }
  }
  attr {
    key: "outputTensor:1"
    value {
      s: "bf16-17_95821_slice_0_0_0_1_0__0__bundle_470_96323  |  Sizes = [1,1,8,284,284]  |  bf16  |  expBias = 0, scale = 1  |    |  ModelParam = 0  |  strides = [2580992, 2580992, 1290496, 161312, 568, 2]  |  data = 0, sizeInBytes = 1290496  |  isAliased = bf16-17_95821, type = concat, offset: 1290496  |  location = in DRAM  |  "
    }
  }
}
node {
  name: "fusedTPCNode_166_2_bundle_470/op_0"
  op: "fused_kernel_0x712B83B3_1E2_bf16"
  input: "tensor_69_bundle_470/split_internal/0"
  attr {
    key: "Bundle_idx"
    value {
      s: "470"
    }
  }
  attr {
    key: "Exec_idx"
    value {
      s: "56"
    }
  }
  attr {
    key: "Op_idx"
    value {
      s: "2"
    }
  }
  attr {
    key: "inputTensor:0"
    value {
      s: "tensor_69_slice_0_0_0_0_0__0__bundle_470_96309  |  Sizes = [1,1,284,128]  |  hfloat8  |  expBias = 7, scale = 1  |    |  ModelParam = 0  |  strides = [72704, 72704, 36352, 128, 1]  |  data = 0, sizeInBytes = 36352  |  isAliased = tensor_69, type = concat, offset: 0  |  location = in DRAM  |  "
    }
  }
  attr {
    key: "outputTensor:0"
    value {
      s: "tensor_72_slice_0_0_0_0_0__0__bundle_470_96310  |  Sizes = [1,1,284,128]  |  bf16  |  expBias = 0, scale = 1  |    |  ModelParam = 0  |  strides = [145408, 145408, 72704, 256, 2]  |  data = 0, sizeInBytes = 72704  |  isAliased = tensor_72, type = concat, offset: 0  |  location = in DRAM  |  "
    }
  }
  attr {
    key: "outputTensor:1"
    value {
      s: "tensor-96002_slice_0_0_0_0_0__0__bundle_470_96311  |  Sizes = [1,1,284,128]  |  hfloat8  |  expBias = 7, scale = 1  |    |  ModelParam = 0  |  strides = [36352, 36352, 36352, 128, 1]  |  data = 0, sizeInBytes = 36352  |  isAliased = tensor_84_id_119034_module/model/78/fused_scaled_dot_product_attention/aten__view_slice_0_0_0_0_0__0__bundle_470_96312, type = alias, offset: 0  |  location = in SRAM  |  sramOffset = 0x1000fffffdd23c00  |  "
    }
  }
}
node {
  name: "reshape_8_8_bundle_470/op_1"
  op: "Reshape"
  input: "fusedTPCNode_166_2_bundle_470/op_0"
  attr {
    key: "Bundle_idx"
    value {
      s: "470"
    }
  }
  attr {
    key: "Exec_idx"
    value {
      s: "57"
    }
  }
  attr {
    key: "Op_idx"
    value {
      s: "3"
    }
  }
  attr {
    key: "inputTensor:0"
    value {
      s: "tensor-96002_slice_0_0_0_0_0__0__bundle_470_96311  |  Sizes = [1,1,284,128]  |  hfloat8  |  expBias = 7, scale = 1  |    |  ModelParam = 0  |  strides = [36352, 36352, 36352, 128, 1]  |  data = 0, sizeInBytes = 36352  |  isAliased = tensor_84_id_119034_module/model/78/fused_scaled_dot_product_attention/aten__view_slice_0_0_0_0_0__0__bundle_470_96312, type = alias, offset: 0  |  location = in SRAM  |  sramOffset = 0x1000fffffdd23c00  |  "
    }
  }
  attr {
    key: "outputTensor:0"
    value {
      s: "tensor_84_id_119034_module/model/78/fused_scaled_dot_product_attention/aten__view_slice_0_0_0_0_0__0__bundle_470_96312  |  Sizes = [1,1,1,284,128]  |  hfloat8  |  expBias = 7, scale = 1  |    |  ModelParam = 0  |  strides = [36352, 36352, 36352, 36352, 128, 1]  |  data = 0, sizeInBytes = 36352  |  location = in SRAM  |  sramOffset = 0x1000fffffdd23c00  |  "
    }
  }
}
node {
  name: "tensor_112_odule/model/78/fused_scaled_dot_product_attention/placeholder/7"
  op: "Placeholder"
  attr {
    key: "dtype"
    value {
      type: DT_FLOAT
    }
  }
  attr {
    key: "shape"
    value {
      shape {
        dim {
          size: 1
        }
        dim {
          size: 1
        }
        dim {
          size: 1
        }
        dim {
          size: 1
        }
        dim {
          size: 1
        }
      }
    }
  }
  attr {
    key: "synDataType"
    value {
      s: "float32"
    }
  }
}
node {
  name: "module/model/78/fused_scaled_dot_product_attention/sdpa_recomp_fwd_hf8/11170_complex/sdpa_recomp_fwd_hf8_157/sdpa_recomp_core_fwd_hf8_78/softmax_fwd_hf8_22_bundle_470/op_2"
  op: "softmax_fwd_hf8"
  input: "bf16-17_95821_bundle_470/split_internal/0"
  input: "module/model/78/fused_scaled_dot_product_attention/sdpa_recomp_fwd_hf8/11170_complex/sdpa_recomp_fwd_hf8_157/sdpa_recomp_core_fwd_hf8_78/constant_f32_18"
  input: "module/model/78/fused_scaled_dot_product_attention/sdpa_recomp_fwd_hf8/11170_complex/sdpa_recomp_fwd_hf8_157/sdpa_recomp_core_fwd_hf8_78/constant_f32_20"
  input: "tensor_112_odule/model/78/fused_scaled_dot_product_attention/placeholder/7"
  input: "module/model/78/fused_scaled_dot_product_attention/expand_dims/11157"
  attr {
    key: "Bundle_idx"
    value {
      s: "470"
    }
  }
  attr {
    key: "Exec_idx"
    value {
      s: "58"
    }
  }
  attr {
    key: "Op_idx"
    value {
      s: "4"
    }
  }
  attr {
    key: "inputTensor:0"
    value {
      s: "bf16-17_95821_slice_0_0_0_0_0__0__bundle_470_96313  |  Sizes = [1,1,8,284,284]  |  bf16  |  expBias = 0, scale = 1  |    |  ModelParam = 0  |  strides = [2580992, 2580992, 1290496, 161312, 568, 2]  |  data = 0, sizeInBytes = 1290496  |  isAliased = bf16-17_95821, type = concat, offset: 0  |  location = in DRAM  |  "
    }
  }
  attr {
    key: "inputTensor:1"
    value {
      s: "f32-19_95822  |  Sizes = [1]  |  float32  |  expBias = 0, scale = 1  |    |  ModelParam = 0  |  strides = [4, 4]  |  data = 0, sizeInBytes = 4  |  location = in DRAM  |  dramOffset = 0x310000000000  |  "
    }
  }
  attr {
    key: "inputTensor:2"
    value {
      s: "f32-21_95823  |  Sizes = [1]  |  float32  |  expBias = 0, scale = 1  |    |  ModelParam = 0  |  strides = [4, 4]  |  data = 0, sizeInBytes = 4  |  location = in DRAM  |  dramOffset = 0x310000000080  |  "
    }
  }
  attr {
    key: "inputTensor:3"
    value {
      s: "tensor_112_odule/model/78/fused_scaled_dot_product_attention/placeholder/7  |  Sizes = [1]  |  float32  |  expBias = 0, scale = 1  |    |  ModelParam = 0  |  strides = [4, 4]  |  data = 0x55db66e48228, sizeInBytes = 4  |  buffer = 16  |  isPersistent  |  location = in DRAM  |  dramOffset = 0x280000000000  |  userMemorySection(type=Persistent, id=40)  |  isStaticParam  |  bufferDtype=float32  |  "
    }
  }
  attr {
    key: "inputTensor:4"
    value {
      s: "tensor_79_id_119036_module/model/78/fused_scaled_dot_product_attention/aten__unsqueeze  |  Sizes = [1,1,1,284,284]  |  bf16  |  expBias = 0, scale = 1  |    |  ModelParam = 0  |  strides = [161312, 161312, 161312, 161312, 568, 2]  |  data = 0, sizeInBytes = 161312  |  isAliased = tensor_73_odule/model/78/fused_scaled_dot_product_attention/placeholder/0, type = alias, offset: 0  |  location = in DRAM  |  "
    }
  }
  attr {
    key: "outputTensor:0"
    value {
      s: "hf8-23_95824_slice_0_0_0_0_0__0__bundle_470_96318  |  Sizes = [1,1,8,284,284]  |  hfloat8  |  expBias = 7, scale = 1  |    |  ModelParam = 0  |  strides = [872448, 872448, 872448, 109056, 384, 1]  |  data = 0, sizeInBytes = 872448  |  location = in SRAM  |  sramOffset = 0x1000fffffdd35800  |  isSparseLayout  |  "
    }
  }
}
node {
  name: "fusedTPCNode_166_2_bundle_470/op_3"
  op: "fused_kernel_0x712B83B3_1E2_bf16"
  input: "tensor_69_bundle_470/split_internal/0"
  attr {
    key: "Bundle_idx"
    value {
      s: "470"
    }
  }
  attr {
    key: "Exec_idx"
    value {
      s: "59"
    }
  }
  attr {
    key: "Op_idx"
    value {
      s: "5"
    }
  }
  attr {
    key: "inputTensor:0"
    value {
      s: "tensor_69_slice_0_0_1_0_0__0__bundle_470_96319  |  Sizes = [1,1,284,128]  |  hfloat8  |  expBias = 7, scale = 1  |    |  ModelParam = 0  |  strides = [72704, 72704, 36352, 128, 1]  |  data = 0, sizeInBytes = 36352  |  isAliased = tensor_69, type = concat, offset: 36352  |  location = in DRAM  |  "
    }
  }
  attr {
    key: "outputTensor:0"
    value {
      s: "tensor_72_slice_0_0_1_0_0__0__bundle_470_96320  |  Sizes = [1,1,284,128]  |  bf16  |  expBias = 0, scale = 1  |    |  ModelParam = 0  |  strides = [145408, 145408, 72704, 256, 2]  |  data = 0, sizeInBytes = 72704  |  isAliased = tensor_72, type = concat, offset: 72704  |  location = in DRAM  |  "
    }
  }
  attr {
    key: "outputTensor:1"
    value {
      s: "tensor-96002_slice_0_0_1_0_0__0__bundle_470_96321  |  Sizes = [1,1,284,128]  |  hfloat8  |  expBias = 7, scale = 1  |    |  ModelParam = 0  |  strides = [36352, 36352, 36352, 128, 1]  |  data = 0, sizeInBytes = 36352  |  isAliased = tensor_84_id_119034_module/model/78/fused_scaled_dot_product_attention/aten__view_slice_0_0_0_1_0__0__bundle_470_96322, type = alias, offset: 0  |  location = in SRAM  |  sramOffset = 0x1000fffffdd2ca00  |  "
    }
  }
}
node {
  name: "reshape_8_8_bundle_470/op_4"
  op: "Reshape"
  input: "fusedTPCNode_166_2_bundle_470/op_3"
  attr {
    key: "Bundle_idx"
    value {
      s: "470"
    }
  }
  attr {
    key: "Exec_idx"
    value {
      s: "60"
    }
  }
  attr {
    key: "Op_idx"
    value {
      s: "6"
    }
  }
  attr {
    key: "inputTensor:0"
    value {
      s: "tensor-96002_slice_0_0_1_0_0__0__bundle_470_96321  |  Sizes = [1,1,284,128]  |  hfloat8  |  expBias = 7, scale = 1  |    |  ModelParam = 0  |  strides = [36352, 36352, 36352, 128, 1]  |  data = 0, sizeInBytes = 36352  |  isAliased = tensor_84_id_119034_module/model/78/fused_scaled_dot_product_attention/aten__view_slice_0_0_0_1_0__0__bundle_470_96322, type = alias, offset: 0  |  location = in SRAM  |  sramOffset = 0x1000fffffdd2ca00  |  "
    }
  }
  attr {
    key: "outputTensor:0"
    value {
      s: "tensor_84_id_119034_module/model/78/fused_scaled_dot_product_attention/aten__view_slice_0_0_0_1_0__0__bundle_470_96322  |  Sizes = [1,1,1,284,128]  |  hfloat8  |  expBias = 7, scale = 1  |    |  ModelParam = 0  |  strides = [36352, 36352, 36352, 36352, 128, 1]  |  data = 0, sizeInBytes = 36352  |  location = in SRAM  |  sramOffset = 0x1000fffffdd2ca00  |  "
    }
  }
}
node {
  name: "tensor_72_bundle_470/concat_logical_internal/0"
  op: "Concatenate"
  input: "fusedTPCNode_166_2_bundle_470/op_0"
  input: "fusedTPCNode_166_2_bundle_470/op_3"
  attr {
    key: "Bundle_idx"
    value {
      s: "470"
    }
  }
  attr {
    key: "Exec_idx"
    value {
      s: "61"
    }
  }
  attr {
    key: "Op_idx"
    value {
      s: "7"
    }
  }
  attr {
    key: "inputTensor:0"
    value {
      s: "tensor_72_slice_0_0_0_0_0__0__bundle_470_96310  |  Sizes = [1,1,284,128]  |  bf16  |  expBias = 0, scale = 1  |    |  ModelParam = 0  |  strides = [145408, 145408, 72704, 256, 2]  |  data = 0, sizeInBytes = 72704  |  isAliased = tensor_72, type = concat, offset: 0  |  location = in DRAM  |  "
    }
  }
  attr {
    key: "inputTensor:1"
    value {
      s: "tensor_72_slice_0_0_1_0_0__0__bundle_470_96320  |  Sizes = [1,1,284,128]  |  bf16  |  expBias = 0, scale = 1  |    |  ModelParam = 0  |  strides = [145408, 145408, 72704, 256, 2]  |  data = 0, sizeInBytes = 72704  |  isAliased = tensor_72, type = concat, offset: 72704  |  location = in DRAM  |  "
    }
  }
  attr {
    key: "outputTensor:0"
    value {
      s: "tensor_72  |  Sizes = [1,2,284,128]  |  bf16  |  expBias = 0, scale = 1  |    |  ModelParam = 0  |  strides = [145408, 145408, 72704, 256, 2]  |  data = 0, sizeInBytes = 145408  |  isPersistent  |  location = in DRAM  |  dramOffset = 0x1c0000000000  |  userMemorySection(type=Persistent, id=28)  |  "
    }
  }
}
node {
  name: "tensor_72"
  op: "OutputTensor"
  input: "tensor_72_bundle_470/concat_logical_internal/0"
  attr {
    key: "dtype"
    value {
      type: DT_BFLOAT16
    }
  }
  attr {
    key: "shape"
    value {
      shape {
        dim {
          size: 128
        }
        dim {
          size: 284
        }
        dim {
          size: 2
        }
        dim {
          size: 1
        }
        dim {
          size: 1
        }
      }
    }
  }
  attr {
    key: "synDataType"
    value {
      s: "bf16"
    }
  }
}
node {
  name: "module/model/78/fused_scaled_dot_product_attention/sdpa_recomp_fwd_hf8/11170_complex/sdpa_recomp_fwd_hf8_157/sdpa_recomp_core_fwd_hf8_78/softmax_fwd_hf8_22_bundle_470/op_5"
  op: "softmax_fwd_hf8"
  input: "bf16-17_95821_bundle_470/split_internal/0"
  input: "module/model/78/fused_scaled_dot_product_attention/sdpa_recomp_fwd_hf8/11170_complex/sdpa_recomp_fwd_hf8_157/sdpa_recomp_core_fwd_hf8_78/constant_f32_18"
  input: "module/model/78/fused_scaled_dot_product_attention/sdpa_recomp_fwd_hf8/11170_complex/sdpa_recomp_fwd_hf8_157/sdpa_recomp_core_fwd_hf8_78/constant_f32_20"
  input: "tensor_112_odule/model/78/fused_scaled_dot_product_attention/placeholder/7"
  input: "module/model/78/fused_scaled_dot_product_attention/expand_dims/11157"
  attr {
    key: "Bundle_idx"
    value {
      s: "470"
    }
  }
  attr {
    key: "Exec_idx"
    value {
      s: "62"
    }
  }
  attr {
    key: "Op_idx"
    value {
      s: "8"
    }
  }
  attr {
    key: "inputTensor:0"
    value {
      s: "bf16-17_95821_slice_0_0_0_1_0__0__bundle_470_96323  |  Sizes = [1,1,8,284,284]  |  bf16  |  expBias = 0, scale = 1  |    |  ModelParam = 0  |  strides = [2580992, 2580992, 1290496, 161312, 568, 2]  |  data = 0, sizeInBytes = 1290496  |  isAliased = bf16-17_95821, type = concat, offset: 1290496  |  location = in DRAM  |  "
    }
  }
  attr {
    key: "inputTensor:1"
    value {
      s: "f32-19_95822  |  Sizes = [1]  |  float32  |  expBias = 0, scale = 1  |    |  ModelParam = 0  |  strides = [4, 4]  |  data = 0, sizeInBytes = 4  |  location = in DRAM  |  dramOffset = 0x310000000000  |  "
    }
  }
  attr {
    key: "inputTensor:2"
    value {
      s: "f32-21_95823  |  Sizes = [1]  |  float32  |  expBias = 0, scale = 1  |    |  ModelParam = 0  |  strides = [4, 4]  |  data = 0, sizeInBytes = 4  |  location = in DRAM  |  dramOffset = 0x310000000080  |  "
    }
  }
  attr {
    key: "inputTensor:3"
    value {
      s: "tensor_112_odule/model/78/fused_scaled_dot_product_attention/placeholder/7  |  Sizes = [1]  |  float32  |  expBias = 0, scale = 1  |    |  ModelParam = 0  |  strides = [4, 4]  |  data = 0x55db66e48228, sizeInBytes = 4  |  buffer = 16  |  isPersistent  |  location = in DRAM  |  dramOffset = 0x280000000000  |  userMemorySection(type=Persistent, id=40)  |  isStaticParam  |  bufferDtype=float32  |  "
    }
  }
  attr {
    key: "inputTensor:4"
    value {
      s: "tensor_79_id_119036_module/model/78/fused_scaled_dot_product_attention/aten__unsqueeze  |  Sizes = [1,1,1,284,284]  |  bf16  |  expBias = 0, scale = 1  |    |  ModelParam = 0  |  strides = [161312, 161312, 161312, 161312, 568, 2]  |  data = 0, sizeInBytes = 161312  |  isAliased = tensor_73_odule/model/78/fused_scaled_dot_product_attention/placeholder/0, type = alias, offset: 0  |  location = in DRAM  |  "
    }
  }
  attr {
    key: "outputTensor:0"
    value {
      s: "hf8-23_95824_slice_0_0_0_1_0__0__bundle_470_96324  |  Sizes = [1,1,8,284,284]  |  hfloat8  |  expBias = 7, scale = 1  |    |  ModelParam = 0  |  strides = [872448, 872448, 872448, 109056, 384, 1]  |  data = 0, sizeInBytes = 872448  |  location = in SRAM  |  sramOffset = 0x1000fffffde0a800  |  isSparseLayout  |  "
    }
  }
}
node {
  name: "module/model/78/fused_scaled_dot_product_attention/sdpa_recomp_fwd_hf8/11170_complex/sdpa_recomp_fwd_hf8_157/sdpa_recomp_core_fwd_hf8_78/fp8_gemm_hf8_1255/batch_gemm_24_bundle_470/op_6"
  op: "BatchGemm"
  input: "module/model/78/fused_scaled_dot_product_attention/sdpa_recomp_fwd_hf8/11170_complex/sdpa_recomp_fwd_hf8_157/sdpa_recomp_core_fwd_hf8_78/softmax_fwd_hf8_22_bundle_470/op_2"
  input: "reshape_8_8_bundle_470/op_1"
  attr {
    key: "Bundle_idx"
    value {
      s: "470"
    }
  }
  attr {
    key: "Exec_idx"
    value {
      s: "63"
    }
  }
  attr {
    key: "Op_idx"
    value {
      s: "9"
    }
  }
  attr {
    key: "Parameters"
    value {
      s: "transpose_a=false, transpose_b=false"
    }
  }
  attr {
    key: "fp8BiasIn"
    value {
      s: "11"
    }
  }
  attr {
    key: "fp8BiasIn2"
    value {
      s: "7"
    }
  }
  attr {
    key: "fp8BiasOut"
    value {
      s: "11"
    }
  }
  attr {
    key: "inputTensor:0"
    value {
      s: "hf8-23_95824_slice_0_0_0_0_0__0__bundle_470_96318  |  Sizes = [1,1,8,284,284]  |  hfloat8  |  expBias = 7, scale = 1  |    |  ModelParam = 0  |  strides = [872448, 872448, 872448, 109056, 384, 1]  |  data = 0, sizeInBytes = 872448  |  location = in SRAM  |  sramOffset = 0x1000fffffdd35800  |  isSparseLayout  |  "
    }
  }
  attr {
    key: "inputTensor:1"
    value {
      s: "tensor_84_id_119034_module/model/78/fused_scaled_dot_product_attention/aten__view_slice_0_0_0_0_0__0__bundle_470_96312  |  Sizes = [1,1,1,284,128]  |  hfloat8  |  expBias = 7, scale = 1  |    |  ModelParam = 0  |  strides = [36352, 36352, 36352, 36352, 128, 1]  |  data = 0, sizeInBytes = 36352  |  location = in SRAM  |  sramOffset = 0x1000fffffdd23c00  |  "
    }
  }
  attr {
    key: "outputTensor:0"
    value {
      s: "tensor_120_slice_0_0_0_0_0__0__bundle_470_96325  |  Sizes = [1,1,8,284,128]  |  hfloat8  |  expBias = 7, scale = 1  |    |  ModelParam = 0  |  strides = [581632, 581632, 290816, 36352, 128, 1]  |  data = 0, sizeInBytes = 290816  |  isAliased = tensor_120, type = concat, offset: 0  |  location = in DRAM  |  "
    }
  }
}
node {
  name: "module/model/78/fused_scaled_dot_product_attention/sdpa_recomp_fwd_hf8/11170_complex/sdpa_recomp_fwd_hf8_157/sdpa_recomp_core_fwd_hf8_78/fp8_gemm_hf8_1255/batch_gemm_24_bundle_470/op_7"
  op: "BatchGemm"
  input: "module/model/78/fused_scaled_dot_product_attention/sdpa_recomp_fwd_hf8/11170_complex/sdpa_recomp_fwd_hf8_157/sdpa_recomp_core_fwd_hf8_78/softmax_fwd_hf8_22_bundle_470/op_5"
  input: "reshape_8_8_bundle_470/op_4"
  attr {
    key: "Bundle_idx"
    value {
      s: "470"
    }
  }
  attr {
    key: "Exec_idx"
    value {
      s: "64"
    }
  }
  attr {
    key: "Op_idx"
    value {
      s: "10"
    }
  }
  attr {
    key: "Parameters"
    value {
      s: "transpose_a=false, transpose_b=false"
    }
  }
  attr {
    key: "fp8BiasIn"
    value {
      s: "11"
    }
  }
  attr {
    key: "fp8BiasIn2"
    value {
      s: "7"
    }
  }
  attr {
    key: "fp8BiasOut"
    value {
      s: "11"
    }
  }
  attr {
    key: "inputTensor:0"
    value {
      s: "hf8-23_95824_slice_0_0_0_1_0__0__bundle_470_96324  |  Sizes = [1,1,8,284,284]  |  hfloat8  |  expBias = 7, scale = 1  |    |  ModelParam = 0  |  strides = [872448, 872448, 872448, 109056, 384, 1]  |  data = 0, sizeInBytes = 872448  |  location = in SRAM  |  sramOffset = 0x1000fffffde0a800  |  isSparseLayout  |  "
    }
  }
  attr {
    key: "inputTensor:1"
    value {
      s: "tensor_84_id_119034_module/model/78/fused_scaled_dot_product_attention/aten__view_slice_0_0_0_1_0__0__bundle_470_96322  |  Sizes = [1,1,1,284,128]  |  hfloat8  |  expBias = 7, scale = 1  |    |  ModelParam = 0  |  strides = [36352, 36352, 36352, 36352, 128, 1]  |  data = 0, sizeInBytes = 36352  |  location = in SRAM  |  sramOffset = 0x1000fffffdd2ca00  |  "
    }
  }
  attr {
    key: "outputTensor:0"
    value {
      s: "tensor_120_slice_0_0_0_1_0__0__bundle_470_96326  |  Sizes = [1,1,8,284,128]  |  hfloat8  |  expBias = 7, scale = 1  |    |  ModelParam = 0  |  strides = [581632, 581632, 290816, 36352, 128, 1]  |  data = 0, sizeInBytes = 290816  |  isAliased = tensor_120, type = concat, offset: 290816  |  location = in DRAM  |  "
    }
  }
}
node {
  name: "tensor_120_bundle_470/concat_logical_internal/0"
  op: "Concatenate"
  input: "module/model/78/fused_scaled_dot_product_attention/sdpa_recomp_fwd_hf8/11170_complex/sdpa_recomp_fwd_hf8_157/sdpa_recomp_core_fwd_hf8_78/fp8_gemm_hf8_1255/batch_gemm_24_bundle_470/op_6"
  input: "module/model/78/fused_scaled_dot_product_attention/sdpa_recomp_fwd_hf8/11170_complex/sdpa_recomp_fwd_hf8_157/sdpa_recomp_core_fwd_hf8_78/fp8_gemm_hf8_1255/batch_gemm_24_bundle_470/op_7"
  attr {
    key: "Bundle_idx"
    value {
      s: "470"
    }
  }
  attr {
    key: "Exec_idx"
    value {
      s: "65"
    }
  }
  attr {
    key: "Op_idx"
    value {
      s: "11"
    }
  }
  attr {
    key: "inputTensor:0"
    value {
      s: "tensor_120_slice_0_0_0_0_0__0__bundle_470_96325  |  Sizes = [1,1,8,284,128]  |  hfloat8  |  expBias = 7, scale = 1  |    |  ModelParam = 0  |  strides = [581632, 581632, 290816, 36352, 128, 1]  |  data = 0, sizeInBytes = 290816  |  isAliased = tensor_120, type = concat, offset: 0  |  location = in DRAM  |  "
    }
  }
  attr {
    key: "inputTensor:1"
    value {
      s: "tensor_120_slice_0_0_0_1_0__0__bundle_470_96326  |  Sizes = [1,1,8,284,128]  |  hfloat8  |  expBias = 7, scale = 1  |    |  ModelParam = 0  |  strides = [581632, 581632, 290816, 36352, 128, 1]  |  data = 0, sizeInBytes = 290816  |  isAliased = tensor_120, type = concat, offset: 290816  |  location = in DRAM  |  "
    }
  }
  attr {
    key: "outputTensor:0"
    value {
      s: "tensor_120  |  Sizes = [1,2,8,284,128]  |  hfloat8  |  expBias = 7, scale = 1  |    |  ModelParam = 0  |  strides = [581632, 581632, 290816, 36352, 128, 1]  |  data = 0, sizeInBytes = 581632  |  isAliased = tensor_121_id_119055_module/model/78/fused_scaled_dot_product_attention/dequant_output/aten__view, type = alias, offset: 0  |  location = in DRAM  |  "
    }
  }
}
node {
  name: "module/model/78/fused_scaled_dot_product_attention/dequant_output/reshape/11171"
  op: "Reshape"
  input: "tensor_120_bundle_470/concat_logical_internal/0"
  attr {
    key: "Bundle_idx"
    value {
      s: "N/A"
    }
  }
  attr {
    key: "Exec_idx"
    value {
      s: "66"
    }
  }
  attr {
    key: "Op_idx"
    value {
      s: "N/A"
    }
  }
  attr {
    key: "inputTensor:0"
    value {
      s: "tensor_120  |  Sizes = [1,2,8,284,128]  |  hfloat8  |  expBias = 7, scale = 1  |    |  ModelParam = 0  |  strides = [581632, 581632, 290816, 36352, 128, 1]  |  data = 0, sizeInBytes = 581632  |  isAliased = tensor_121_id_119055_module/model/78/fused_scaled_dot_product_attention/dequant_output/aten__view, type = alias, offset: 0  |  location = in DRAM  |  "
    }
  }
  attr {
    key: "outputTensor:0"
    value {
      s: "tensor_121_id_119055_module/model/78/fused_scaled_dot_product_attention/dequant_output/aten__view  |  Sizes = [1,16,284,128]  |  hfloat8  |  expBias = 7, scale = 1  |    |  ModelParam = 0  |  strides = [581632, 581632, 36352, 128, 1]  |  data = 0, sizeInBytes = 581632  |  location = in DRAM  |  dramOffset = 0x310000000100  |  "
    }
  }
}
node {
  name: "module/model/78/transpose/11173_transpose_via_logical"
  op: "LogicalTranspose"
  input: "module/model/78/fused_scaled_dot_product_attention/dequant_output/reshape/11171"
  attr {
    key: "Bundle_idx"
    value {
      s: "N/A"
    }
  }
  attr {
    key: "Exec_idx"
    value {
      s: "67"
    }
  }
  attr {
    key: "Op_idx"
    value {
      s: "N/A"
    }
  }
  attr {
    key: "Parameters"
    value {
      s: "permutation: (0,2,1,3)"
    }
  }
  attr {
    key: "inputTensor:0"
    value {
      s: "tensor_121_id_119055_module/model/78/fused_scaled_dot_product_attention/dequant_output/aten__view  |  Sizes = [1,16,284,128]  |  hfloat8  |  expBias = 7, scale = 1  |    |  ModelParam = 0  |  strides = [581632, 581632, 36352, 128, 1]  |  data = 0, sizeInBytes = 581632  |  location = in DRAM  |  dramOffset = 0x310000000100  |  "
    }
  }
  attr {
    key: "outputTensor:0"
    value {
      s: "tensor_125_id_119060_module/model/78/aten__transpose  |  Sizes = [1,284,16,128]  |  hfloat8  |  expBias = 7, scale = 1  |    |  ModelParam = 0  |  strides = [581632, 581632, 128, 36352, 1]  |  data = 0, sizeInBytes = 581632  |  isAliased = tensor_121_id_119055_module/model/78/fused_scaled_dot_product_attention/dequant_output/aten__view, type = alias, offset: 0  |  location = in DRAM  |  isSparseLayout  |  "
    }
  }
}
node {
  name: "tensor_125_id_119060_module/model/78/aten__transpose_memcpy_96331_internal"
  op: "DmaMemcpy"
  input: "module/model/78/transpose/11173_transpose_via_logical"
  attr {
    key: "Bundle_idx"
    value {
      s: "N/A"
    }
  }
  attr {
    key: "Exec_idx"
    value {
      s: "68"
    }
  }
  attr {
    key: "Op_idx"
    value {
      s: "N/A"
    }
  }
  attr {
    key: "inputTensor:0"
    value {
      s: "tensor_125_id_119060_module/model/78/aten__transpose  |  Sizes = [1,284,16,128]  |  hfloat8  |  expBias = 7, scale = 1  |    |  ModelParam = 0  |  strides = [581632, 581632, 128, 36352, 1]  |  data = 0, sizeInBytes = 581632  |  isAliased = tensor_121_id_119055_module/model/78/fused_scaled_dot_product_attention/dequant_output/aten__view, type = alias, offset: 0  |  location = in DRAM  |  isSparseLayout  |  "
    }
  }
  attr {
    key: "outputTensor:0"
    value {
      s: "tensor_125_id_119060_module/model/78/aten__transpose_memcpy_96331  |  Sizes = [1,284,16,128]  |  hfloat8  |  expBias = 7, scale = 1  |    |  ModelParam = 0  |  strides = [581632, 581632, 2048, 128, 1]  |  data = 0, sizeInBytes = 581632  |  location = in DRAM  |  dramOffset = 0x31000008e100  |  "
    }
  }
}
node {
  name: "module/model/78/o_proj/quant_input_0/reshape/11175"
  op: "Reshape"
  input: "tensor_125_id_119060_module/model/78/aten__transpose_memcpy_96331_internal"
  attr {
    key: "Bundle_idx"
    value {
      s: "N/A"
    }
  }
  attr {
    key: "Exec_idx"
    value {
      s: "69"
    }
  }
  attr {
    key: "Op_idx"
    value {
      s: "N/A"
    }
  }
  attr {
    key: "inputTensor:0"
    value {
      s: "tensor_125_id_119060_module/model/78/aten__transpose_memcpy_96331  |  Sizes = [1,284,16,128]  |  hfloat8  |  expBias = 7, scale = 1  |    |  ModelParam = 0  |  strides = [581632, 581632, 2048, 128, 1]  |  data = 0, sizeInBytes = 581632  |  location = in DRAM  |  dramOffset = 0x31000008e100  |  "
    }
  }
  attr {
    key: "outputTensor:0"
    value {
      s: "tensor_131_c95749  |  Sizes = [1,284,2048]  |  hfloat8  |  expBias = 7, scale = 1  |    |  ModelParam = 0  |  strides = [581632, 581632, 2048, 1]  |  data = 0, sizeInBytes = 581632  |  isAliased = tensor_125_id_119060_module/model/78/aten__transpose_memcpy_96331, type = alias, offset: 0  |  location = in DRAM  |  "
    }
  }
}
node {
  name: "tensor_132_odule/model/78/o_proj/placeholder/1"
  op: "Placeholder"
  attr {
    key: "dtype"
    value {
      type: DT_INVALID
    }
  }
  attr {
    key: "shape"
    value {
      shape {
        dim {
          size: 8192
        }
        dim {
          size: 2048
        }
        dim {
          size: 1
        }
        dim {
          size: 1
        }
        dim {
          size: 1
        }
      }
    }
  }
  attr {
    key: "synDataType"
    value {
      s: "hfloat8"
    }
  }
}
node {
  name: "module/model/78/o_proj/fp8_gemm_bf16/11177_complex/fp8_gemm_bf16_1257/expand_dims_6"
  op: "ExpandDims"
  input: "tensor_132_odule/model/78/o_proj/placeholder/1"
  attr {
    key: "Bundle_idx"
    value {
      s: "N/A"
    }
  }
  attr {
    key: "Exec_idx"
    value {
      s: "70"
    }
  }
  attr {
    key: "Op_idx"
    value {
      s: "N/A"
    }
  }
  attr {
    key: "inputTensor:0"
    value {
      s: "tensor_132_odule/model/78/o_proj/placeholder/1  |  Sizes = [2048,8192]  |  hfloat8  |  expBias = 7, scale = 1  |    |  ModelParam = 0  |  strides = [16777216, 8192, 1]  |  data = 0, sizeInBytes = 16777216  |  isPersistent  |  location = in DRAM  |  dramOffset = 0x2d0000000000  |  userMemorySection(type=Persistent, id=45)  |  "
    }
  }
  attr {
    key: "outputTensor:0"
    value {
      s: "hf8-7_95828  |  Sizes = [1,2048,8192]  |  hfloat8  |  expBias = 7, scale = 1  |    |  ModelParam = 0  |  strides = [16777216, 16777216, 8192, 1]  |  data = 0, sizeInBytes = 16777216  |  isAliased = tensor_132_odule/model/78/o_proj/placeholder/1, type = alias, offset: 0  |  location = in DRAM  |  "
    }
  }
}
node {
  name: "tensor_131_c95749_bundle_471/memcpy/0"
  op: "DmaMemcpy"
  input: "module/model/78/o_proj/quant_input_0/reshape/11175"
  attr {
    key: "Bundle_idx"
    value {
      s: "471"
    }
  }
  attr {
    key: "Exec_idx"
    value {
      s: "71"
    }
  }
  attr {
    key: "Op_idx"
    value {
      s: "0"
    }
  }
  attr {
    key: "inputTensor:0"
    value {
      s: "tensor_131_c95749  |  Sizes = [1,284,2048]  |  hfloat8  |  expBias = 7, scale = 1  |    |  ModelParam = 0  |  strides = [581632, 581632, 2048, 1]  |  data = 0, sizeInBytes = 581632  |  isAliased = tensor_125_id_119060_module/model/78/aten__transpose_memcpy_96331, type = alias, offset: 0  |  location = in DRAM  |  "
    }
  }
  attr {
    key: "outputTensor:0"
    value {
      s: "tensor_131_c95749_slice_0_0_0_0_0__0__bundle_471_96327  |  Sizes = [1,284,2048]  |  hfloat8  |  expBias = 7, scale = 1  |    |  ModelParam = 0  |  strides = [581632, 581632, 2048, 1]  |  data = 0, sizeInBytes = 581632  |  location = in SRAM  |  sramOffset = 0x1000fffffdedf800  |  "
    }
  }
}
node {
  name: "module/model/78/o_proj/fp8_gemm_bf16/11177_complex/fp8_gemm_bf16_1257/batch_gemm_8_bundle_471/op_0_gemm"
  op: "GEMM"
  input: "tensor_131_c95749_bundle_471/memcpy/0"
  input: "module/model/78/o_proj/fp8_gemm_bf16/11177_complex/fp8_gemm_bf16_1257/expand_dims_6"
  attr {
    key: "Bundle_idx"
    value {
      s: "471"
    }
  }
  attr {
    key: "Exec_idx"
    value {
      s: "72"
    }
  }
  attr {
    key: "Op_idx"
    value {
      s: "1"
    }
  }
  attr {
    key: "Parameters"
    value {
      s: "transpose_a=false, transpose_b=false"
    }
  }
  attr {
    key: "fp8BiasIn"
    value {
      s: "11"
    }
  }
  attr {
    key: "fp8BiasIn2"
    value {
      s: "15"
    }
  }
  attr {
    key: "fp8BiasOut"
    value {
      s: "0"
    }
  }
  attr {
    key: "inputTensor:0"
    value {
      s: "tensor_131_c95749_slice_0_0_0_0_0__0__bundle_471_96327  |  Sizes = [1,284,2048]  |  hfloat8  |  expBias = 7, scale = 1  |    |  ModelParam = 0  |  strides = [581632, 581632, 2048, 1]  |  data = 0, sizeInBytes = 581632  |  location = in SRAM  |  sramOffset = 0x1000fffffdedf800  |  "
    }
  }
  attr {
    key: "inputTensor:1"
    value {
      s: "hf8-7_95828  |  Sizes = [1,2048,8192]  |  hfloat8  |  expBias = 7, scale = 1  |    |  ModelParam = 0  |  strides = [16777216, 16777216, 8192, 1]  |  data = 0, sizeInBytes = 16777216  |  isAliased = tensor_132_odule/model/78/o_proj/placeholder/1, type = alias, offset: 0  |  location = in DRAM  |  "
    }
  }
  attr {
    key: "outputTensor:0"
    value {
      s: "tensor_136  |  Sizes = [1,284,8192]  |  bf16  |  expBias = 0, scale = 1  |    |  ModelParam = 0  |  strides = [4653056, 4653056, 16384, 2]  |  data = 0, sizeInBytes = 4653056  |  isPersistent  |  location = in DRAM  |  dramOffset = 0x310000000000  |  userMemorySection(type=Persistent, id=49)  |  "
    }
  }
}
node {
  name: "tensor_136"
  op: "OutputTensor"
  input: "module/model/78/o_proj/fp8_gemm_bf16/11177_complex/fp8_gemm_bf16_1257/batch_gemm_8_bundle_471/op_0_gemm"
  attr {
    key: "dtype"
    value {
      type: DT_BFLOAT16
    }
  }
  attr {
    key: "shape"
    value {
      shape {
        dim {
          size: 8192
        }
        dim {
          size: 284
        }
        dim {
          size: 1
        }
        dim {
          size: 1
        }
        dim {
          size: 1
        }
      }
    }
  }
  attr {
    key: "synDataType"
    value {
      s: "bf16"
    }
  }
}
