node {
  name: "tensor_4_odule/model/25/placeholder/0"
  op: "Placeholder"
  attr {
    key: "dtype"
    value {
      type: DT_INT32
    }
  }
  attr {
    key: "shape"
    value {
      shape {
        dim {
          size: 16
        }
        dim {
          size: 1
        }
        dim {
          size: 1
        }
        dim {
          size: 1
        }
        dim {
          size: 1
        }
      }
    }
  }
  attr {
    key: "synDataType"
    value {
      s: "int32"
    }
  }
}
node {
  name: "module/model/25/expand_dims/13314"
  op: "ExpandDims"
  input: "tensor_4_odule/model/25/placeholder/0"
  attr {
    key: "Bundle_idx"
    value {
      s: "N/A"
    }
  }
  attr {
    key: "Exec_idx"
    value {
      s: "0"
    }
  }
  attr {
    key: "Op_idx"
    value {
      s: "N/A"
    }
  }
  attr {
    key: "inputTensor:0"
    value {
      s: "tensor_4_odule/model/25/placeholder/0  |  Sizes = [16]  |  int32  |  expBias = 0, scale = 1  |    |  ModelParam = 0  |  strides = [64, 4]  |  data = 0, sizeInBytes = 64  |  isPersistent  |  location = in DRAM  |  dramOffset = 0x50000000000  |  userMemorySection(type=Persistent, id=5)  |  "
    }
  }
  attr {
    key: "outputTensor:0"
    value {
      s: "tensor_5_id_122496_module/model/25/aten__unsqueeze/1  |  Sizes = [1,16]  |  int32  |  expBias = 0, scale = 1  |    |  ModelParam = 0  |  strides = [64, 64, 4]  |  data = 0, sizeInBytes = 64  |  isAliased = tensor_4_odule/model/25/placeholder/0, type = alias, offset: 0  |  location = in DRAM  |  "
    }
  }
}
node {
  name: "tensor_6_odule/model/25/rotary_emb/placeholder/0"
  op: "Placeholder"
  attr {
    key: "dtype"
    value {
      type: DT_BFLOAT16
    }
  }
  attr {
    key: "shape"
    value {
      shape {
        dim {
          size: 128
        }
        dim {
          size: 131072
        }
        dim {
          size: 1
        }
        dim {
          size: 1
        }
        dim {
          size: 1
        }
      }
    }
  }
  attr {
    key: "synDataType"
    value {
      s: "bf16"
    }
  }
}
node {
  name: "module/model/25/rotary_emb/slice/13315"
  op: "Slice"
  input: "tensor_6_odule/model/25/rotary_emb/placeholder/0"
  attr {
    key: "Bundle_idx"
    value {
      s: "N/A"
    }
  }
  attr {
    key: "Exec_idx"
    value {
      s: "1"
    }
  }
  attr {
    key: "Op_idx"
    value {
      s: "N/A"
    }
  }
  attr {
    key: "inputTensor:0"
    value {
      s: "tensor_6_odule/model/25/rotary_emb/placeholder/0  |  Sizes = [131072,128]  |  bf16  |  expBias = 0, scale = 1  |    |  ModelParam = 0  |  strides = [33554432, 256, 2]  |  data = 0, sizeInBytes = 33554432  |  isPersistent  |  location = in DRAM  |  dramOffset = 0x60000000000  |  userMemorySection(type=Persistent, id=6)  |  "
    }
  }
  attr {
    key: "outputTensor:0"
    value {
      s: "tensor_7_id_122559_module/model/25/rotary_emb/aten__slice  |  Sizes = [16,128]  |  bf16  |  expBias = 0, scale = 1  |    |  ModelParam = 0  |  strides = [33554432, 256, 2]  |  data = 0, sizeInBytes = 4096  |  isAliased = tensor_6_odule/model/25/rotary_emb/placeholder/0, type = slice, offset: 0  |  location = in DRAM  |  "
    }
  }
}
node {
  name: "tensor_8_odule/model/25/rotary_emb/placeholder/1"
  op: "Placeholder"
  attr {
    key: "dtype"
    value {
      type: DT_FLOAT
    }
  }
  attr {
    key: "shape"
    value {
      shape {
        dim {
          size: 1
        }
        dim {
          size: 1
        }
        dim {
          size: 1
        }
        dim {
          size: 1
        }
        dim {
          size: 1
        }
      }
    }
  }
  attr {
    key: "synDataType"
    value {
      s: "float32"
    }
  }
}
node {
  name: "module/model/25/rotary_emb/cast_f32_to_bf16/13316"
  op: "cast_f32_to_bf16"
  input: "tensor_8_odule/model/25/rotary_emb/placeholder/1"
  attr {
    key: "Bundle_idx"
    value {
      s: "N/A"
    }
  }
  attr {
    key: "Exec_idx"
    value {
      s: "2"
    }
  }
  attr {
    key: "Op_idx"
    value {
      s: "N/A"
    }
  }
  attr {
    key: "inputTensor:0"
    value {
      s: "tensor_8_odule/model/25/rotary_emb/placeholder/1  |  Sizes = [1]  |  float32  |  expBias = 0, scale = 1  |    |  ModelParam = 0  |  strides = [4, 4]  |  data = 0, sizeInBytes = 4  |  isPersistent  |  location = in DRAM  |  dramOffset = 0x70000000000  |  userMemorySection(type=Persistent, id=7)  |  "
    }
  }
  attr {
    key: "outputTensor:0"
    value {
      s: "tensor_10  |  Sizes = [1]  |  bf16  |  expBias = 0, scale = 1  |    |  ModelParam = 0  |  strides = [2, 2]  |  data = 0, sizeInBytes = 2  |  location = in DRAM  |  dramOffset = 0x40000000000  |  "
    }
  }
}
node {
  name: "module/model/25/rotary_emb/mult_fwd_bf16/13317_complex/mult_fwd_bf16_0"
  op: "mult_fwd_bf16"
  input: "module/model/25/rotary_emb/slice/13315"
  input: "module/model/25/rotary_emb/cast_f32_to_bf16/13316"
  attr {
    key: "Bundle_idx"
    value {
      s: "N/A"
    }
  }
  attr {
    key: "Exec_idx"
    value {
      s: "3"
    }
  }
  attr {
    key: "Op_idx"
    value {
      s: "N/A"
    }
  }
  attr {
    key: "inputTensor:0"
    value {
      s: "tensor_7_id_122559_module/model/25/rotary_emb/aten__slice  |  Sizes = [16,128]  |  bf16  |  expBias = 0, scale = 1  |    |  ModelParam = 0  |  strides = [33554432, 256, 2]  |  data = 0, sizeInBytes = 4096  |  isAliased = tensor_6_odule/model/25/rotary_emb/placeholder/0, type = slice, offset: 0  |  location = in DRAM  |  "
    }
  }
  attr {
    key: "inputTensor:1"
    value {
      s: "tensor_10  |  Sizes = [1]  |  bf16  |  expBias = 0, scale = 1  |    |  ModelParam = 0  |  strides = [2, 2]  |  data = 0, sizeInBytes = 2  |  location = in DRAM  |  dramOffset = 0x40000000000  |  "
    }
  }
  attr {
    key: "outputTensor:0"
    value {
      s: "tensor_9_id_122561_module/model/25/rotary_emb/aten__mul  |  Sizes = [16,128]  |  bf16  |  expBias = 0, scale = 1  |    |  ModelParam = 0  |  strides = [4096, 256, 2]  |  data = 0, sizeInBytes = 4096  |  location = in DRAM  |  dramOffset = 0x40000000080  |  "
    }
  }
}
node {
  name: "tensor_14_odule/model/25/rotary_emb/placeholder/0"
  op: "Placeholder"
  attr {
    key: "dtype"
    value {
      type: DT_BFLOAT16
    }
  }
  attr {
    key: "shape"
    value {
      shape {
        dim {
          size: 128
        }
        dim {
          size: 131072
        }
        dim {
          size: 1
        }
        dim {
          size: 1
        }
        dim {
          size: 1
        }
      }
    }
  }
  attr {
    key: "synDataType"
    value {
      s: "bf16"
    }
  }
}
node {
  name: "module/model/25/rotary_emb/slice/13321"
  op: "Slice"
  input: "tensor_14_odule/model/25/rotary_emb/placeholder/0"
  attr {
    key: "Bundle_idx"
    value {
      s: "N/A"
    }
  }
  attr {
    key: "Exec_idx"
    value {
      s: "4"
    }
  }
  attr {
    key: "Op_idx"
    value {
      s: "N/A"
    }
  }
  attr {
    key: "inputTensor:0"
    value {
      s: "tensor_14_odule/model/25/rotary_emb/placeholder/0  |  Sizes = [131072,128]  |  bf16  |  expBias = 0, scale = 1  |    |  ModelParam = 0  |  strides = [33554432, 256, 2]  |  data = 0, sizeInBytes = 33554432  |  isPersistent  |  location = in DRAM  |  dramOffset = 0x80000000000  |  userMemorySection(type=Persistent, id=8)  |  "
    }
  }
  attr {
    key: "outputTensor:0"
    value {
      s: "tensor_15_id_122563_module/model/25/rotary_emb/aten__slice  |  Sizes = [16,128]  |  bf16  |  expBias = 0, scale = 1  |    |  ModelParam = 0  |  strides = [33554432, 256, 2]  |  data = 0, sizeInBytes = 4096  |  isAliased = tensor_14_odule/model/25/rotary_emb/placeholder/0, type = slice, offset: 0  |  location = in DRAM  |  "
    }
  }
}
node {
  name: "module/model/25/rotary_emb/mult_fwd_bf16/13323_complex/mult_fwd_bf16_0"
  op: "mult_fwd_bf16"
  input: "module/model/25/rotary_emb/slice/13321"
  input: "module/model/25/rotary_emb/cast_f32_to_bf16/13316"
  attr {
    key: "Bundle_idx"
    value {
      s: "N/A"
    }
  }
  attr {
    key: "Exec_idx"
    value {
      s: "5"
    }
  }
  attr {
    key: "Op_idx"
    value {
      s: "N/A"
    }
  }
  attr {
    key: "inputTensor:0"
    value {
      s: "tensor_15_id_122563_module/model/25/rotary_emb/aten__slice  |  Sizes = [16,128]  |  bf16  |  expBias = 0, scale = 1  |    |  ModelParam = 0  |  strides = [33554432, 256, 2]  |  data = 0, sizeInBytes = 4096  |  isAliased = tensor_14_odule/model/25/rotary_emb/placeholder/0, type = slice, offset: 0  |  location = in DRAM  |  "
    }
  }
  attr {
    key: "inputTensor:1"
    value {
      s: "tensor_10  |  Sizes = [1]  |  bf16  |  expBias = 0, scale = 1  |    |  ModelParam = 0  |  strides = [2, 2]  |  data = 0, sizeInBytes = 2  |  location = in DRAM  |  dramOffset = 0x40000000000  |  "
    }
  }
  attr {
    key: "outputTensor:0"
    value {
      s: "tensor_16_id_122565_module/model/25/rotary_emb/aten__mul  |  Sizes = [16,128]  |  bf16  |  expBias = 0, scale = 1  |    |  ModelParam = 0  |  strides = [4096, 256, 2]  |  data = 0, sizeInBytes = 4096  |  location = in DRAM  |  dramOffset = 0x40000001080  |  "
    }
  }
}
node {
  name: "tensor_21_odule/model/25/input_layernorm/placeholder/0"
  op: "Placeholder"
  attr {
    key: "dtype"
    value {
      type: DT_BFLOAT16
    }
  }
  attr {
    key: "shape"
    value {
      shape {
        dim {
          size: 4096
        }
        dim {
          size: 16
        }
        dim {
          size: 1
        }
        dim {
          size: 1
        }
        dim {
          size: 1
        }
      }
    }
  }
  attr {
    key: "synDataType"
    value {
      s: "bf16"
    }
  }
}
node {
  name: "module/model/25/input_layernorm/rms_norm_ex_fwd_bf16/13327_complex/rms_norm_ex_fwd_bf16_751/reshape_4"
  op: "Reshape"
  input: "tensor_21_odule/model/25/input_layernorm/placeholder/0"
  attr {
    key: "Bundle_idx"
    value {
      s: "N/A"
    }
  }
  attr {
    key: "Exec_idx"
    value {
      s: "6"
    }
  }
  attr {
    key: "Op_idx"
    value {
      s: "N/A"
    }
  }
  attr {
    key: "inputTensor:0"
    value {
      s: "tensor_21_odule/model/25/input_layernorm/placeholder/0  |  Sizes = [1,16,4096]  |  bf16  |  expBias = 0, scale = 1  |    |  ModelParam = 0  |  strides = [131072, 131072, 8192, 2]  |  data = 0, sizeInBytes = 131072  |  isPersistent  |  location = in DRAM  |  dramOffset = 0x90000000000  |  userMemorySection(type=Persistent, id=9)  |  "
    }
  }
  attr {
    key: "outputTensor:0"
    value {
      s: "bf16-5_175021  |  Sizes = [16,4096]  |  bf16  |  expBias = 0, scale = 1  |    |  ModelParam = 0  |  strides = [131072, 8192, 2]  |  data = 0, sizeInBytes = 131072  |  isAliased = tensor_21_odule/model/25/input_layernorm/placeholder/0, type = alias, offset: 0  |  location = in DRAM  |  "
    }
  }
}
node {
  name: "tensor_31_odule/model/25/k_proj/placeholder/1"
  op: "Placeholder"
  attr {
    key: "dtype"
    value {
      type: DT_INVALID
    }
  }
  attr {
    key: "shape"
    value {
      shape {
        dim {
          size: 1024
        }
        dim {
          size: 4096
        }
        dim {
          size: 1
        }
        dim {
          size: 1
        }
        dim {
          size: 1
        }
      }
    }
  }
  attr {
    key: "synDataType"
    value {
      s: "hfloat8"
    }
  }
}
node {
  name: "module/model/25/k_proj/fp8_gemm_bf16/13329_complex/fp8_gemm_bf16_2971/expand_dims_6"
  op: "ExpandDims"
  input: "tensor_31_odule/model/25/k_proj/placeholder/1"
  attr {
    key: "Bundle_idx"
    value {
      s: "N/A"
    }
  }
  attr {
    key: "Exec_idx"
    value {
      s: "7"
    }
  }
  attr {
    key: "Op_idx"
    value {
      s: "N/A"
    }
  }
  attr {
    key: "inputTensor:0"
    value {
      s: "tensor_31_odule/model/25/k_proj/placeholder/1  |  Sizes = [4096,1024]  |  hfloat8  |  expBias = 7, scale = 1  |    |  ModelParam = 0  |  strides = [4194304, 1024, 1]  |  data = 0, sizeInBytes = 4194304  |  isPersistent  |  location = in DRAM  |  dramOffset = 0xc0000000000  |  userMemorySection(type=Persistent, id=12)  |  "
    }
  }
  attr {
    key: "outputTensor:0"
    value {
      s: "hf8-7_175028  |  Sizes = [1,4096,1024]  |  hfloat8  |  expBias = 7, scale = 1  |    |  ModelParam = 0  |  strides = [4194304, 4194304, 1024, 1]  |  data = 0, sizeInBytes = 4194304  |  isAliased = tensor_31_odule/model/25/k_proj/placeholder/1, type = alias, offset: 0  |  location = in DRAM  |  "
    }
  }
}
node {
  name: "module/model/25/rotary_pos_embedding_fwd_bf16/13332_complex/rotary_pos_embedding_fwd_bf16_370/gather_nd_mxnet_fwd_bf16_8"
  op: "gather_nd_mxnet_fwd_bf16"
  input: "module/model/25/rotary_emb/mult_fwd_bf16/13323_complex/mult_fwd_bf16_0"
  input: "module/model/25/expand_dims/13314"
  attr {
    key: "Bundle_idx"
    value {
      s: "N/A"
    }
  }
  attr {
    key: "Exec_idx"
    value {
      s: "8"
    }
  }
  attr {
    key: "Op_idx"
    value {
      s: "N/A"
    }
  }
  attr {
    key: "inputTensor:0"
    value {
      s: "tensor_16_id_122565_module/model/25/rotary_emb/aten__mul  |  Sizes = [16,128]  |  bf16  |  expBias = 0, scale = 1  |    |  ModelParam = 0  |  strides = [4096, 256, 2]  |  data = 0, sizeInBytes = 4096  |  location = in DRAM  |  dramOffset = 0x40000001080  |  "
    }
  }
  attr {
    key: "inputTensor:1"
    value {
      s: "tensor_5_id_122496_module/model/25/aten__unsqueeze/1  |  Sizes = [1,16]  |  int32  |  expBias = 0, scale = 1  |    |  ModelParam = 0  |  strides = [64, 64, 4]  |  data = 0, sizeInBytes = 64  |  isAliased = tensor_4_odule/model/25/placeholder/0, type = alias, offset: 0  |  location = in DRAM  |  "
    }
  }
  attr {
    key: "outputTensor:0"
    value {
      s: "bf16-9_175033  |  Sizes = [16,128]  |  bf16  |  expBias = 0, scale = 1  |    |  ModelParam = 0  |  strides = [4096, 256, 2]  |  data = 0, sizeInBytes = 4096  |  isAliased = bf16-13_175035, type = alias, offset: 0  |  location = in DRAM  |  "
    }
  }
}
node {
  name: "module/model/25/rotary_pos_embedding_fwd_bf16/13332_complex/rotary_pos_embedding_fwd_bf16_370/gather_nd_mxnet_fwd_bf16_10"
  op: "gather_nd_mxnet_fwd_bf16"
  input: "module/model/25/rotary_emb/mult_fwd_bf16/13317_complex/mult_fwd_bf16_0"
  input: "module/model/25/expand_dims/13314"
  attr {
    key: "Bundle_idx"
    value {
      s: "N/A"
    }
  }
  attr {
    key: "Exec_idx"
    value {
      s: "9"
    }
  }
  attr {
    key: "Op_idx"
    value {
      s: "N/A"
    }
  }
  attr {
    key: "inputTensor:0"
    value {
      s: "tensor_9_id_122561_module/model/25/rotary_emb/aten__mul  |  Sizes = [16,128]  |  bf16  |  expBias = 0, scale = 1  |    |  ModelParam = 0  |  strides = [4096, 256, 2]  |  data = 0, sizeInBytes = 4096  |  location = in DRAM  |  dramOffset = 0x40000000080  |  "
    }
  }
  attr {
    key: "inputTensor:1"
    value {
      s: "tensor_5_id_122496_module/model/25/aten__unsqueeze/1  |  Sizes = [1,16]  |  int32  |  expBias = 0, scale = 1  |    |  ModelParam = 0  |  strides = [64, 64, 4]  |  data = 0, sizeInBytes = 64  |  isAliased = tensor_4_odule/model/25/placeholder/0, type = alias, offset: 0  |  location = in DRAM  |  "
    }
  }
  attr {
    key: "outputTensor:0"
    value {
      s: "bf16-11_175034  |  Sizes = [16,128]  |  bf16  |  expBias = 0, scale = 1  |    |  ModelParam = 0  |  strides = [4096, 256, 2]  |  data = 0, sizeInBytes = 4096  |  isAliased = bf16-15_175036, type = alias, offset: 0  |  location = in DRAM  |  "
    }
  }
}
node {
  name: "module/model/25/rotary_pos_embedding_fwd_bf16/13332_complex/rotary_pos_embedding_fwd_bf16_370/expand_dims_12"
  op: "ExpandDims"
  input: "module/model/25/rotary_pos_embedding_fwd_bf16/13332_complex/rotary_pos_embedding_fwd_bf16_370/gather_nd_mxnet_fwd_bf16_8"
  attr {
    key: "Bundle_idx"
    value {
      s: "N/A"
    }
  }
  attr {
    key: "Exec_idx"
    value {
      s: "10"
    }
  }
  attr {
    key: "Op_idx"
    value {
      s: "N/A"
    }
  }
  attr {
    key: "inputTensor:0"
    value {
      s: "bf16-9_175033  |  Sizes = [16,128]  |  bf16  |  expBias = 0, scale = 1  |    |  ModelParam = 0  |  strides = [4096, 256, 2]  |  data = 0, sizeInBytes = 4096  |  isAliased = bf16-13_175035, type = alias, offset: 0  |  location = in DRAM  |  "
    }
  }
  attr {
    key: "outputTensor:0"
    value {
      s: "bf16-13_175035  |  Sizes = [1,16,128]  |  bf16  |  expBias = 0, scale = 1  |    |  ModelParam = 0  |  strides = [4096, 4096, 256, 2]  |  data = 0, sizeInBytes = 4096  |  location = in DRAM  |  dramOffset = 0x40000002080  |  "
    }
  }
}
node {
  name: "module/model/25/rotary_pos_embedding_fwd_bf16/13332_complex/rotary_pos_embedding_fwd_bf16_370/expand_dims_14"
  op: "ExpandDims"
  input: "module/model/25/rotary_pos_embedding_fwd_bf16/13332_complex/rotary_pos_embedding_fwd_bf16_370/gather_nd_mxnet_fwd_bf16_10"
  attr {
    key: "Bundle_idx"
    value {
      s: "N/A"
    }
  }
  attr {
    key: "Exec_idx"
    value {
      s: "11"
    }
  }
  attr {
    key: "Op_idx"
    value {
      s: "N/A"
    }
  }
  attr {
    key: "inputTensor:0"
    value {
      s: "bf16-11_175034  |  Sizes = [16,128]  |  bf16  |  expBias = 0, scale = 1  |    |  ModelParam = 0  |  strides = [4096, 256, 2]  |  data = 0, sizeInBytes = 4096  |  isAliased = bf16-15_175036, type = alias, offset: 0  |  location = in DRAM  |  "
    }
  }
  attr {
    key: "outputTensor:0"
    value {
      s: "bf16-15_175036  |  Sizes = [1,16,128]  |  bf16  |  expBias = 0, scale = 1  |    |  ModelParam = 0  |  strides = [4096, 4096, 256, 2]  |  data = 0, sizeInBytes = 4096  |  location = in DRAM  |  dramOffset = 0x120000000000  |  "
    }
  }
}
node {
  name: "tensor_56_odule/model/25/v_proj/placeholder/1"
  op: "Placeholder"
  attr {
    key: "dtype"
    value {
      type: DT_INVALID
    }
  }
  attr {
    key: "shape"
    value {
      shape {
        dim {
          size: 1024
        }
        dim {
          size: 4096
        }
        dim {
          size: 1
        }
        dim {
          size: 1
        }
        dim {
          size: 1
        }
      }
    }
  }
  attr {
    key: "synDataType"
    value {
      s: "hfloat8"
    }
  }
}
node {
  name: "module/model/25/v_proj/fp8_gemm_bf16/13338_complex/fp8_gemm_hf8_2973/expand_dims_8"
  op: "ExpandDims"
  input: "tensor_56_odule/model/25/v_proj/placeholder/1"
  attr {
    key: "Bundle_idx"
    value {
      s: "N/A"
    }
  }
  attr {
    key: "Exec_idx"
    value {
      s: "12"
    }
  }
  attr {
    key: "Op_idx"
    value {
      s: "N/A"
    }
  }
  attr {
    key: "inputTensor:0"
    value {
      s: "tensor_56_odule/model/25/v_proj/placeholder/1  |  Sizes = [4096,1024]  |  hfloat8  |  expBias = 7, scale = 1  |    |  ModelParam = 0  |  strides = [4194304, 1024, 1]  |  data = 0, sizeInBytes = 4194304  |  isPersistent  |  location = in DRAM  |  dramOffset = 0x150000000000  |  userMemorySection(type=Persistent, id=21)  |  "
    }
  }
  attr {
    key: "outputTensor:0"
    value {
      s: "hf8-9_175041  |  Sizes = [1,4096,1024]  |  hfloat8  |  expBias = 7, scale = 1  |    |  ModelParam = 0  |  strides = [4194304, 4194304, 1024, 1]  |  data = 0, sizeInBytes = 4194304  |  isAliased = tensor_56_odule/model/25/v_proj/placeholder/1, type = alias, offset: 0  |  location = in DRAM  |  "
    }
  }
}
node {
  name: "tensor_71_odule/model/25/fused_scaled_dot_product_attention/placeholder/0"
  op: "Placeholder"
  attr {
    key: "dtype"
    value {
      type: DT_BFLOAT16
    }
  }
  attr {
    key: "shape"
    value {
      shape {
        dim {
          size: 16
        }
        dim {
          size: 16
        }
        dim {
          size: 1
        }
        dim {
          size: 1
        }
        dim {
          size: 1
        }
      }
    }
  }
  attr {
    key: "synDataType"
    value {
      s: "bf16"
    }
  }
}
node {
  name: "module/model/25/fused_scaled_dot_product_attention/expand_dims/13349"
  op: "Reshape"
  input: "tensor_71_odule/model/25/fused_scaled_dot_product_attention/placeholder/0"
  attr {
    key: "Bundle_idx"
    value {
      s: "N/A"
    }
  }
  attr {
    key: "Exec_idx"
    value {
      s: "13"
    }
  }
  attr {
    key: "Op_idx"
    value {
      s: "N/A"
    }
  }
  attr {
    key: "inputTensor:0"
    value {
      s: "tensor_71_odule/model/25/fused_scaled_dot_product_attention/placeholder/0  |  Sizes = [16,16]  |  bf16  |  expBias = 0, scale = 1  |    |  ModelParam = 0  |  strides = [512, 32, 2]  |  data = 0, sizeInBytes = 512  |  isPersistent  |  location = in DRAM  |  dramOffset = 0x1c0000000000  |  userMemorySection(type=Persistent, id=28)  |  "
    }
  }
  attr {
    key: "outputTensor:0"
    value {
      s: "tensor_77_id_122668_module/model/25/fused_scaled_dot_product_attention/aten__unsqueeze  |  Sizes = [1,1,1,16,16]  |  bf16  |  expBias = 0, scale = 1  |    |  ModelParam = 0  |  strides = [512, 512, 512, 512, 32, 2]  |  data = 0, sizeInBytes = 512  |  isAliased = tensor_71_odule/model/25/fused_scaled_dot_product_attention/placeholder/0, type = alias, offset: 0  |  location = in DRAM  |  "
    }
  }
}
node {
  name: "tensor_93_odule/model/25/q_proj/placeholder/1"
  op: "Placeholder"
  attr {
    key: "dtype"
    value {
      type: DT_INVALID
    }
  }
  attr {
    key: "shape"
    value {
      shape {
        dim {
          size: 4096
        }
        dim {
          size: 4096
        }
        dim {
          size: 1
        }
        dim {
          size: 1
        }
        dim {
          size: 1
        }
      }
    }
  }
  attr {
    key: "synDataType"
    value {
      s: "hfloat8"
    }
  }
}
node {
  name: "module/model/25/q_proj/fp8_gemm_bf16/13356_complex/fp8_gemm_bf16_2975/expand_dims_6"
  op: "ExpandDims"
  input: "tensor_93_odule/model/25/q_proj/placeholder/1"
  attr {
    key: "Bundle_idx"
    value {
      s: "N/A"
    }
  }
  attr {
    key: "Exec_idx"
    value {
      s: "14"
    }
  }
  attr {
    key: "Op_idx"
    value {
      s: "N/A"
    }
  }
  attr {
    key: "inputTensor:0"
    value {
      s: "tensor_93_odule/model/25/q_proj/placeholder/1  |  Sizes = [4096,4096]  |  hfloat8  |  expBias = 7, scale = 1  |    |  ModelParam = 0  |  strides = [16777216, 4096, 1]  |  data = 0, sizeInBytes = 16777216  |  isPersistent  |  location = in DRAM  |  dramOffset = 0x200000000000  |  userMemorySection(type=Persistent, id=32)  |  "
    }
  }
  attr {
    key: "outputTensor:0"
    value {
      s: "hf8-7_175045  |  Sizes = [1,4096,4096]  |  hfloat8  |  expBias = 7, scale = 1  |    |  ModelParam = 0  |  strides = [16777216, 16777216, 4096, 1]  |  data = 0, sizeInBytes = 16777216  |  isAliased = tensor_93_odule/model/25/q_proj/placeholder/1, type = alias, offset: 0  |  location = in DRAM  |  "
    }
  }
}
node {
  name: "tensor_22_odule/model/25/input_layernorm/placeholder/1"
  op: "Placeholder"
  attr {
    key: "dtype"
    value {
      type: DT_BFLOAT16
    }
  }
  attr {
    key: "shape"
    value {
      shape {
        dim {
          size: 4096
        }
        dim {
          size: 1
        }
        dim {
          size: 1
        }
        dim {
          size: 1
        }
        dim {
          size: 1
        }
      }
    }
  }
  attr {
    key: "synDataType"
    value {
      s: "bf16"
    }
  }
}
node {
  name: "module/model/25/input_layernorm/rms_norm_ex_fwd_bf16/13327_complex/rms_norm_ex_fwd_bf16_751/rms_norm_fwd_bf16_6_bundle_1115/op_0"
  op: "rms_norm_fwd_bf16"
  input: "module/model/25/input_layernorm/rms_norm_ex_fwd_bf16/13327_complex/rms_norm_ex_fwd_bf16_751/reshape_4"
  input: "tensor_22_odule/model/25/input_layernorm/placeholder/1"
  attr {
    key: "Bundle_idx"
    value {
      s: "1115"
    }
  }
  attr {
    key: "Exec_idx"
    value {
      s: "15"
    }
  }
  attr {
    key: "Op_idx"
    value {
      s: "0"
    }
  }
  attr {
    key: "inputTensor:0"
    value {
      s: "bf16-5_175021  |  Sizes = [16,4096]  |  bf16  |  expBias = 0, scale = 1  |    |  ModelParam = 0  |  strides = [131072, 8192, 2]  |  data = 0, sizeInBytes = 131072  |  isAliased = tensor_21_odule/model/25/input_layernorm/placeholder/0, type = alias, offset: 0  |  location = in DRAM  |  "
    }
  }
  attr {
    key: "inputTensor:1"
    value {
      s: "tensor_22_odule/model/25/input_layernorm/placeholder/1  |  Sizes = [4096]  |  bf16  |  expBias = 0, scale = 1  |    |  ModelParam = 0  |  strides = [8192, 2]  |  data = 0, sizeInBytes = 8192  |  isPersistent  |  location = in DRAM  |  dramOffset = 0xa0000000000  |  userMemorySection(type=Persistent, id=10)  |  "
    }
  }
  attr {
    key: "outputTensor:0"
    value {
      s: "bf16-7_175022_slice_0_0_0_0_0__0__bundle_1115_175657  |  Sizes = [16,4096]  |  bf16  |  expBias = 0, scale = 1  |    |  ModelParam = 0  |  strides = [131072, 8192, 2]  |  data = 0, sizeInBytes = 131072  |  isAliased = tensor-175262_slice_0_0_0_0_0__0__bundle_1115_175659, type = alias, offset: 0  |  location = in SRAM  |  sramOffset = 0x1000fffffd050000  |  "
    }
  }
  attr {
    key: "outputTensor:1"
    value {
      s: "f32-8_175023  |  Sizes = [16,1]  |  float32  |  expBias = 0, scale = 1  |    |  ModelParam = 0  |  strides = [64, 4, 4]  |  data = 0, sizeInBytes = 64  |  location = in DRAM  |  dramOffset = 0x40000003080  |  "
    }
  }
}
node {
  name: "f32-8_175023"
  op: "OutputTensor"
  input: "module/model/25/input_layernorm/rms_norm_ex_fwd_bf16/13327_complex/rms_norm_ex_fwd_bf16_751/rms_norm_fwd_bf16_6_bundle_1115/op_0"
  attr {
    key: "dtype"
    value {
      type: DT_FLOAT
    }
  }
  attr {
    key: "shape"
    value {
      shape {
        dim {
          size: 1
        }
        dim {
          size: 16
        }
        dim {
          size: 1
        }
        dim {
          size: 1
        }
        dim {
          size: 1
        }
      }
    }
  }
  attr {
    key: "synDataType"
    value {
      s: "float32"
    }
  }
}
node {
  name: "reshape_0_0_bundle_1115/op_1"
  op: "Reshape"
  input: "module/model/25/input_layernorm/rms_norm_ex_fwd_bf16/13327_complex/rms_norm_ex_fwd_bf16_751/rms_norm_fwd_bf16_6_bundle_1115/op_0"
  attr {
    key: "Bundle_idx"
    value {
      s: "1115"
    }
  }
  attr {
    key: "Exec_idx"
    value {
      s: "16"
    }
  }
  attr {
    key: "Op_idx"
    value {
      s: "1"
    }
  }
  attr {
    key: "inputTensor:0"
    value {
      s: "bf16-7_175022_slice_0_0_0_0_0__0__bundle_1115_175657  |  Sizes = [16,4096]  |  bf16  |  expBias = 0, scale = 1  |    |  ModelParam = 0  |  strides = [131072, 8192, 2]  |  data = 0, sizeInBytes = 131072  |  isAliased = tensor-175262_slice_0_0_0_0_0__0__bundle_1115_175659, type = alias, offset: 0  |  location = in SRAM  |  sramOffset = 0x1000fffffd050000  |  "
    }
  }
  attr {
    key: "outputTensor:0"
    value {
      s: "tensor-175262_slice_0_0_0_0_0__0__bundle_1115_175659  |  Sizes = [1,16,4096]  |  bf16  |  expBias = 0, scale = 1  |    |  ModelParam = 0  |  strides = [131072, 131072, 8192, 2]  |  data = 0, sizeInBytes = 131072  |  location = in SRAM  |  sramOffset = 0x1000fffffd050000  |  "
    }
  }
}
node {
  name: "fusedTPCNode_211_0_bundle_1115/op_2"
  op: "fused_kernel_0x2125B632_3BD_hf8"
  input: "reshape_0_0_bundle_1115/op_1"
  attr {
    key: "Bundle_idx"
    value {
      s: "1115"
    }
  }
  attr {
    key: "Exec_idx"
    value {
      s: "17"
    }
  }
  attr {
    key: "Op_idx"
    value {
      s: "2"
    }
  }
  attr {
    key: "inputTensor:0"
    value {
      s: "tensor-175262_slice_0_0_0_0_0__0__bundle_1115_175659  |  Sizes = [1,16,4096]  |  bf16  |  expBias = 0, scale = 1  |    |  ModelParam = 0  |  strides = [131072, 131072, 8192, 2]  |  data = 0, sizeInBytes = 131072  |  location = in SRAM  |  sramOffset = 0x1000fffffd050000  |  "
    }
  }
  attr {
    key: "outputTensor:0"
    value {
      s: "tensor_30_slice_0_0_0_0_0__0__bundle_1115_175660  |  Sizes = [1,16,4096]  |  hfloat8  |  expBias = 7, scale = 1  |    |  ModelParam = 0  |  strides = [65536, 65536, 4096, 1]  |  data = 0, sizeInBytes = 65536  |  location = in SRAM  |  sramOffset = 0x1000fffffd070000  |  "
    }
  }
}
node {
  name: "module/model/25/k_proj/fp8_gemm_bf16/13329_complex/fp8_gemm_bf16_2971/batch_gemm_8_bundle_1115/op_3_gemm"
  op: "GEMM"
  input: "fusedTPCNode_211_0_bundle_1115/op_2"
  input: "module/model/25/k_proj/fp8_gemm_bf16/13329_complex/fp8_gemm_bf16_2971/expand_dims_6"
  attr {
    key: "Bundle_idx"
    value {
      s: "1115"
    }
  }
  attr {
    key: "Exec_idx"
    value {
      s: "18"
    }
  }
  attr {
    key: "Op_idx"
    value {
      s: "3"
    }
  }
  attr {
    key: "Parameters"
    value {
      s: "transpose_a=false, transpose_b=false"
    }
  }
  attr {
    key: "fp8BiasIn"
    value {
      s: "7"
    }
  }
  attr {
    key: "fp8BiasIn2"
    value {
      s: "15"
    }
  }
  attr {
    key: "fp8BiasOut"
    value {
      s: "0"
    }
  }
  attr {
    key: "inputTensor:0"
    value {
      s: "tensor_30_slice_0_0_0_0_0__0__bundle_1115_175660  |  Sizes = [1,16,4096]  |  hfloat8  |  expBias = 7, scale = 1  |    |  ModelParam = 0  |  strides = [65536, 65536, 4096, 1]  |  data = 0, sizeInBytes = 65536  |  location = in SRAM  |  sramOffset = 0x1000fffffd070000  |  "
    }
  }
  attr {
    key: "inputTensor:1"
    value {
      s: "hf8-7_175028  |  Sizes = [1,4096,1024]  |  hfloat8  |  expBias = 7, scale = 1  |    |  ModelParam = 0  |  strides = [4194304, 4194304, 1024, 1]  |  data = 0, sizeInBytes = 4194304  |  isAliased = tensor_31_odule/model/25/k_proj/placeholder/1, type = alias, offset: 0  |  location = in DRAM  |  "
    }
  }
  attr {
    key: "outputTensor:0"
    value {
      s: "tensor_35  |  Sizes = [1,16,1024]  |  bf16  |  expBias = 0, scale = 1  |    |  ModelParam = 0  |  strides = [32768, 32768, 2048, 2]  |  data = 0, sizeInBytes = 32768  |  isAliased = tensor_36_id_122551_module/model/25/aten__view, type = alias, offset: 0  |  location = in DRAM  |  "
    }
  }
}
node {
  name: "module/model/25/v_proj/fp8_gemm_bf16/13338_complex/fp8_gemm_hf8_2973/batch_gemm_10_bundle_1115/op_4_gemm"
  op: "GEMM"
  input: "fusedTPCNode_211_0_bundle_1115/op_2"
  input: "module/model/25/v_proj/fp8_gemm_bf16/13338_complex/fp8_gemm_hf8_2973/expand_dims_8"
  attr {
    key: "Bundle_idx"
    value {
      s: "1115"
    }
  }
  attr {
    key: "Exec_idx"
    value {
      s: "19"
    }
  }
  attr {
    key: "Op_idx"
    value {
      s: "4"
    }
  }
  attr {
    key: "Parameters"
    value {
      s: "transpose_a=false, transpose_b=false"
    }
  }
  attr {
    key: "fp8BiasIn"
    value {
      s: "7"
    }
  }
  attr {
    key: "fp8BiasIn2"
    value {
      s: "15"
    }
  }
  attr {
    key: "fp8BiasOut"
    value {
      s: "7"
    }
  }
  attr {
    key: "inputTensor:0"
    value {
      s: "tensor_30_slice_0_0_0_0_0__0__bundle_1115_175660  |  Sizes = [1,16,4096]  |  hfloat8  |  expBias = 7, scale = 1  |    |  ModelParam = 0  |  strides = [65536, 65536, 4096, 1]  |  data = 0, sizeInBytes = 65536  |  location = in SRAM  |  sramOffset = 0x1000fffffd070000  |  "
    }
  }
  attr {
    key: "inputTensor:1"
    value {
      s: "hf8-9_175041  |  Sizes = [1,4096,1024]  |  hfloat8  |  expBias = 7, scale = 1  |    |  ModelParam = 0  |  strides = [4194304, 4194304, 1024, 1]  |  data = 0, sizeInBytes = 4194304  |  isAliased = tensor_56_odule/model/25/v_proj/placeholder/1, type = alias, offset: 0  |  location = in DRAM  |  "
    }
  }
  attr {
    key: "outputTensor:0"
    value {
      s: "tensor_60_c174979  |  Sizes = [1,16,1024]  |  hfloat8  |  expBias = 7, scale = 1  |    |  ModelParam = 0  |  strides = [16384, 16384, 1024, 1]  |  data = 0, sizeInBytes = 16384  |  isAliased = tensor_61_id_122555_module/model/25/quant_input_0/aten__view_memcpy_175723, type = alias, offset: 0  |  location = in DRAM  |  "
    }
  }
}
node {
  name: "module/model/25/q_proj/fp8_gemm_bf16/13356_complex/fp8_gemm_bf16_2975/batch_gemm_8_bundle_1115/op_5_gemm"
  op: "GEMM"
  input: "fusedTPCNode_211_0_bundle_1115/op_2"
  input: "module/model/25/q_proj/fp8_gemm_bf16/13356_complex/fp8_gemm_bf16_2975/expand_dims_6"
  attr {
    key: "Bundle_idx"
    value {
      s: "1115"
    }
  }
  attr {
    key: "Exec_idx"
    value {
      s: "20"
    }
  }
  attr {
    key: "Op_idx"
    value {
      s: "5"
    }
  }
  attr {
    key: "Parameters"
    value {
      s: "transpose_a=false, transpose_b=false"
    }
  }
  attr {
    key: "fp8BiasIn"
    value {
      s: "7"
    }
  }
  attr {
    key: "fp8BiasIn2"
    value {
      s: "15"
    }
  }
  attr {
    key: "fp8BiasOut"
    value {
      s: "0"
    }
  }
  attr {
    key: "inputTensor:0"
    value {
      s: "tensor_30_slice_0_0_0_0_0__0__bundle_1115_175660  |  Sizes = [1,16,4096]  |  hfloat8  |  expBias = 7, scale = 1  |    |  ModelParam = 0  |  strides = [65536, 65536, 4096, 1]  |  data = 0, sizeInBytes = 65536  |  location = in SRAM  |  sramOffset = 0x1000fffffd070000  |  "
    }
  }
  attr {
    key: "inputTensor:1"
    value {
      s: "hf8-7_175045  |  Sizes = [1,4096,4096]  |  hfloat8  |  expBias = 7, scale = 1  |    |  ModelParam = 0  |  strides = [16777216, 16777216, 4096, 1]  |  data = 0, sizeInBytes = 16777216  |  isAliased = tensor_93_odule/model/25/q_proj/placeholder/1, type = alias, offset: 0  |  location = in DRAM  |  "
    }
  }
  attr {
    key: "outputTensor:0"
    value {
      s: "tensor_97  |  Sizes = [1,16,4096]  |  bf16  |  expBias = 0, scale = 1  |    |  ModelParam = 0  |  strides = [131072, 131072, 8192, 2]  |  data = 0, sizeInBytes = 131072  |  isAliased = tensor_98_id_122547_module/model/25/aten__view, type = alias, offset: 0  |  location = in DRAM  |  "
    }
  }
}
node {
  name: "module/model/25/reshape/13330"
  op: "Reshape"
  input: "module/model/25/k_proj/fp8_gemm_bf16/13329_complex/fp8_gemm_bf16_2971/batch_gemm_8_bundle_1115/op_3_gemm"
  attr {
    key: "Bundle_idx"
    value {
      s: "N/A"
    }
  }
  attr {
    key: "Exec_idx"
    value {
      s: "21"
    }
  }
  attr {
    key: "Op_idx"
    value {
      s: "N/A"
    }
  }
  attr {
    key: "inputTensor:0"
    value {
      s: "tensor_35  |  Sizes = [1,16,1024]  |  bf16  |  expBias = 0, scale = 1  |    |  ModelParam = 0  |  strides = [32768, 32768, 2048, 2]  |  data = 0, sizeInBytes = 32768  |  isAliased = tensor_36_id_122551_module/model/25/aten__view, type = alias, offset: 0  |  location = in DRAM  |  "
    }
  }
  attr {
    key: "outputTensor:0"
    value {
      s: "tensor_36_id_122551_module/model/25/aten__view  |  Sizes = [1,16,8,128]  |  bf16  |  expBias = 0, scale = 1  |    |  ModelParam = 0  |  strides = [32768, 32768, 2048, 256, 2]  |  data = 0, sizeInBytes = 32768  |  location = in DRAM  |  dramOffset = 0x1b0000000000  |  "
    }
  }
}
node {
  name: "module/model/25/transpose/13331_transpose_via_logical"
  op: "LogicalTranspose"
  input: "module/model/25/reshape/13330"
  attr {
    key: "Bundle_idx"
    value {
      s: "N/A"
    }
  }
  attr {
    key: "Exec_idx"
    value {
      s: "22"
    }
  }
  attr {
    key: "Op_idx"
    value {
      s: "N/A"
    }
  }
  attr {
    key: "Parameters"
    value {
      s: "permutation: (0,2,1,3)"
    }
  }
  attr {
    key: "inputTensor:0"
    value {
      s: "tensor_36_id_122551_module/model/25/aten__view  |  Sizes = [1,16,8,128]  |  bf16  |  expBias = 0, scale = 1  |    |  ModelParam = 0  |  strides = [32768, 32768, 2048, 256, 2]  |  data = 0, sizeInBytes = 32768  |  location = in DRAM  |  dramOffset = 0x1b0000000000  |  "
    }
  }
  attr {
    key: "outputTensor:0"
    value {
      s: "tensor_37_id_122553_module/model/25/aten__transpose  |  Sizes = [1,8,16,128]  |  bf16  |  expBias = 0, scale = 1  |    |  ModelParam = 0  |  strides = [32768, 32768, 256, 2048, 2]  |  data = 0, sizeInBytes = 32768  |  isAliased = tensor_36_id_122551_module/model/25/aten__view, type = alias, offset: 0  |  location = in DRAM  |  isSparseLayout  |  "
    }
  }
}
node {
  name: "module/model/25/quant_input_0/reshape/13339"
  op: "Reshape"
  input: "module/model/25/v_proj/fp8_gemm_bf16/13338_complex/fp8_gemm_hf8_2973/batch_gemm_10_bundle_1115/op_4_gemm"
  attr {
    key: "Bundle_idx"
    value {
      s: "N/A"
    }
  }
  attr {
    key: "Exec_idx"
    value {
      s: "23"
    }
  }
  attr {
    key: "Op_idx"
    value {
      s: "N/A"
    }
  }
  attr {
    key: "inputTensor:0"
    value {
      s: "tensor_60_c174979  |  Sizes = [1,16,1024]  |  hfloat8  |  expBias = 7, scale = 1  |    |  ModelParam = 0  |  strides = [16384, 16384, 1024, 1]  |  data = 0, sizeInBytes = 16384  |  isAliased = tensor_61_id_122555_module/model/25/quant_input_0/aten__view_memcpy_175723, type = alias, offset: 0  |  location = in DRAM  |  "
    }
  }
  attr {
    key: "outputTensor:0"
    value {
      s: "tensor_61_id_122555_module/model/25/quant_input_0/aten__view_memcpy_175723  |  Sizes = [1,16,8,128]  |  hfloat8  |  expBias = 7, scale = 1  |    |  ModelParam = 0  |  strides = [16384, 16384, 1024, 128, 1]  |  data = 0, sizeInBytes = 16384  |  location = in DRAM  |  dramOffset = 0x120000001000  |  "
    }
  }
}
node {
  name: "tensor_61_id_122555_module/model/25/quant_input_0/aten__view_memcpy_175723_internal"
  op: "DmaMemcpy"
  input: "module/model/25/quant_input_0/reshape/13339"
  attr {
    key: "Bundle_idx"
    value {
      s: "N/A"
    }
  }
  attr {
    key: "Exec_idx"
    value {
      s: "24"
    }
  }
  attr {
    key: "Op_idx"
    value {
      s: "N/A"
    }
  }
  attr {
    key: "inputTensor:0"
    value {
      s: "tensor_61_id_122555_module/model/25/quant_input_0/aten__view_memcpy_175723  |  Sizes = [1,16,8,128]  |  hfloat8  |  expBias = 7, scale = 1  |    |  ModelParam = 0  |  strides = [16384, 16384, 1024, 128, 1]  |  data = 0, sizeInBytes = 16384  |  location = in DRAM  |  dramOffset = 0x120000001000  |  "
    }
  }
  attr {
    key: "outputTensor:0"
    value {
      s: "tensor_61_id_122555_module/model/25/quant_input_0/aten__view  |  Sizes = [1,16,8,128]  |  hfloat8  |  expBias = 7, scale = 1  |    |  ModelParam = 0  |  strides = [16384, 16384, 128, 2048, 1]  |  data = 0, sizeInBytes = 16384  |  isAliased = tensor_67, type = alias, offset: 0  |  location = in DRAM  |  isSparseLayout  |  "
    }
  }
}
node {
  name: "module/model/25/quant_input_0/transpose/13340_transpose_via_logical"
  op: "LogicalTranspose"
  input: "tensor_61_id_122555_module/model/25/quant_input_0/aten__view_memcpy_175723_internal"
  attr {
    key: "Bundle_idx"
    value {
      s: "N/A"
    }
  }
  attr {
    key: "Exec_idx"
    value {
      s: "25"
    }
  }
  attr {
    key: "Op_idx"
    value {
      s: "N/A"
    }
  }
  attr {
    key: "Parameters"
    value {
      s: "permutation: (0,2,1,3)"
    }
  }
  attr {
    key: "inputTensor:0"
    value {
      s: "tensor_61_id_122555_module/model/25/quant_input_0/aten__view  |  Sizes = [1,16,8,128]  |  hfloat8  |  expBias = 7, scale = 1  |    |  ModelParam = 0  |  strides = [16384, 16384, 128, 2048, 1]  |  data = 0, sizeInBytes = 16384  |  isAliased = tensor_67, type = alias, offset: 0  |  location = in DRAM  |  isSparseLayout  |  "
    }
  }
  attr {
    key: "outputTensor:0"
    value {
      s: "tensor_67  |  Sizes = [1,8,16,128]  |  hfloat8  |  expBias = 7, scale = 1  |    |  ModelParam = 0  |  strides = [16384, 16384, 2048, 128, 1]  |  data = 0, sizeInBytes = 16384  |  isPersistent  |  location = in DRAM  |  dramOffset = 0x130000000000  |  userMemorySection(type=Persistent, id=19)  |  "
    }
  }
}
node {
  name: "module/model/25/reshape/13357"
  op: "Reshape"
  input: "module/model/25/q_proj/fp8_gemm_bf16/13356_complex/fp8_gemm_bf16_2975/batch_gemm_8_bundle_1115/op_5_gemm"
  attr {
    key: "Bundle_idx"
    value {
      s: "N/A"
    }
  }
  attr {
    key: "Exec_idx"
    value {
      s: "26"
    }
  }
  attr {
    key: "Op_idx"
    value {
      s: "N/A"
    }
  }
  attr {
    key: "inputTensor:0"
    value {
      s: "tensor_97  |  Sizes = [1,16,4096]  |  bf16  |  expBias = 0, scale = 1  |    |  ModelParam = 0  |  strides = [131072, 131072, 8192, 2]  |  data = 0, sizeInBytes = 131072  |  isAliased = tensor_98_id_122547_module/model/25/aten__view, type = alias, offset: 0  |  location = in DRAM  |  "
    }
  }
  attr {
    key: "outputTensor:0"
    value {
      s: "tensor_98_id_122547_module/model/25/aten__view  |  Sizes = [1,16,32,128]  |  bf16  |  expBias = 0, scale = 1  |    |  ModelParam = 0  |  strides = [131072, 131072, 8192, 256, 2]  |  data = 0, sizeInBytes = 131072  |  location = in DRAM  |  dramOffset = 0x0  |  "
    }
  }
}
node {
  name: "module/model/25/transpose/13358_transpose_via_logical"
  op: "LogicalTranspose"
  input: "module/model/25/reshape/13357"
  attr {
    key: "Bundle_idx"
    value {
      s: "N/A"
    }
  }
  attr {
    key: "Exec_idx"
    value {
      s: "27"
    }
  }
  attr {
    key: "Op_idx"
    value {
      s: "N/A"
    }
  }
  attr {
    key: "Parameters"
    value {
      s: "permutation: (0,2,1,3)"
    }
  }
  attr {
    key: "inputTensor:0"
    value {
      s: "tensor_98_id_122547_module/model/25/aten__view  |  Sizes = [1,16,32,128]  |  bf16  |  expBias = 0, scale = 1  |    |  ModelParam = 0  |  strides = [131072, 131072, 8192, 256, 2]  |  data = 0, sizeInBytes = 131072  |  location = in DRAM  |  dramOffset = 0x0  |  "
    }
  }
  attr {
    key: "outputTensor:0"
    value {
      s: "tensor_99_id_122549_module/model/25/aten__transpose  |  Sizes = [1,32,16,128]  |  bf16  |  expBias = 0, scale = 1  |    |  ModelParam = 0  |  strides = [131072, 131072, 256, 8192, 2]  |  data = 0, sizeInBytes = 131072  |  isAliased = tensor_98_id_122547_module/model/25/aten__view, type = alias, offset: 0  |  location = in DRAM  |  isSparseLayout  |  "
    }
  }
}
node {
  name: "module/model/25/rotary_pos_embedding_fwd_bf16/13359_complex/rotary_pos_embedding_fwd_bf16_371/gather_nd_mxnet_fwd_bf16_8"
  op: "gather_nd_mxnet_fwd_bf16"
  input: "module/model/25/rotary_emb/mult_fwd_bf16/13323_complex/mult_fwd_bf16_0"
  input: "module/model/25/expand_dims/13314"
  attr {
    key: "Bundle_idx"
    value {
      s: "N/A"
    }
  }
  attr {
    key: "Exec_idx"
    value {
      s: "28"
    }
  }
  attr {
    key: "Op_idx"
    value {
      s: "N/A"
    }
  }
  attr {
    key: "inputTensor:0"
    value {
      s: "tensor_16_id_122565_module/model/25/rotary_emb/aten__mul  |  Sizes = [16,128]  |  bf16  |  expBias = 0, scale = 1  |    |  ModelParam = 0  |  strides = [4096, 256, 2]  |  data = 0, sizeInBytes = 4096  |  location = in DRAM  |  dramOffset = 0x40000001080  |  "
    }
  }
  attr {
    key: "inputTensor:1"
    value {
      s: "tensor_5_id_122496_module/model/25/aten__unsqueeze/1  |  Sizes = [1,16]  |  int32  |  expBias = 0, scale = 1  |    |  ModelParam = 0  |  strides = [64, 64, 4]  |  data = 0, sizeInBytes = 64  |  isAliased = tensor_4_odule/model/25/placeholder/0, type = alias, offset: 0  |  location = in DRAM  |  "
    }
  }
  attr {
    key: "outputTensor:0"
    value {
      s: "bf16-9_175050  |  Sizes = [16,128]  |  bf16  |  expBias = 0, scale = 1  |    |  ModelParam = 0  |  strides = [4096, 256, 2]  |  data = 0, sizeInBytes = 4096  |  isAliased = bf16-13_175052, type = alias, offset: 0  |  location = in DRAM  |  "
    }
  }
}
node {
  name: "module/model/25/rotary_pos_embedding_fwd_bf16/13359_complex/rotary_pos_embedding_fwd_bf16_371/gather_nd_mxnet_fwd_bf16_10"
  op: "gather_nd_mxnet_fwd_bf16"
  input: "module/model/25/rotary_emb/mult_fwd_bf16/13317_complex/mult_fwd_bf16_0"
  input: "module/model/25/expand_dims/13314"
  attr {
    key: "Bundle_idx"
    value {
      s: "N/A"
    }
  }
  attr {
    key: "Exec_idx"
    value {
      s: "29"
    }
  }
  attr {
    key: "Op_idx"
    value {
      s: "N/A"
    }
  }
  attr {
    key: "inputTensor:0"
    value {
      s: "tensor_9_id_122561_module/model/25/rotary_emb/aten__mul  |  Sizes = [16,128]  |  bf16  |  expBias = 0, scale = 1  |    |  ModelParam = 0  |  strides = [4096, 256, 2]  |  data = 0, sizeInBytes = 4096  |  location = in DRAM  |  dramOffset = 0x40000000080  |  "
    }
  }
  attr {
    key: "inputTensor:1"
    value {
      s: "tensor_5_id_122496_module/model/25/aten__unsqueeze/1  |  Sizes = [1,16]  |  int32  |  expBias = 0, scale = 1  |    |  ModelParam = 0  |  strides = [64, 64, 4]  |  data = 0, sizeInBytes = 64  |  isAliased = tensor_4_odule/model/25/placeholder/0, type = alias, offset: 0  |  location = in DRAM  |  "
    }
  }
  attr {
    key: "outputTensor:0"
    value {
      s: "bf16-11_175051  |  Sizes = [16,128]  |  bf16  |  expBias = 0, scale = 1  |    |  ModelParam = 0  |  strides = [4096, 256, 2]  |  data = 0, sizeInBytes = 4096  |  isAliased = bf16-15_175053, type = alias, offset: 0  |  location = in DRAM  |  "
    }
  }
}
node {
  name: "module/model/25/rotary_pos_embedding_fwd_bf16/13359_complex/rotary_pos_embedding_fwd_bf16_371/expand_dims_12"
  op: "ExpandDims"
  input: "module/model/25/rotary_pos_embedding_fwd_bf16/13359_complex/rotary_pos_embedding_fwd_bf16_371/gather_nd_mxnet_fwd_bf16_8"
  attr {
    key: "Bundle_idx"
    value {
      s: "N/A"
    }
  }
  attr {
    key: "Exec_idx"
    value {
      s: "30"
    }
  }
  attr {
    key: "Op_idx"
    value {
      s: "N/A"
    }
  }
  attr {
    key: "inputTensor:0"
    value {
      s: "bf16-9_175050  |  Sizes = [16,128]  |  bf16  |  expBias = 0, scale = 1  |    |  ModelParam = 0  |  strides = [4096, 256, 2]  |  data = 0, sizeInBytes = 4096  |  isAliased = bf16-13_175052, type = alias, offset: 0  |  location = in DRAM  |  "
    }
  }
  attr {
    key: "outputTensor:0"
    value {
      s: "bf16-13_175052  |  Sizes = [1,16,128]  |  bf16  |  expBias = 0, scale = 1  |    |  ModelParam = 0  |  strides = [4096, 4096, 256, 2]  |  data = 0, sizeInBytes = 4096  |  location = in DRAM  |  dramOffset = 0x120000005000  |  "
    }
  }
}
node {
  name: "module/model/25/rotary_pos_embedding_fwd_bf16/13359_complex/rotary_pos_embedding_fwd_bf16_371/expand_dims_14"
  op: "ExpandDims"
  input: "module/model/25/rotary_pos_embedding_fwd_bf16/13359_complex/rotary_pos_embedding_fwd_bf16_371/gather_nd_mxnet_fwd_bf16_10"
  attr {
    key: "Bundle_idx"
    value {
      s: "N/A"
    }
  }
  attr {
    key: "Exec_idx"
    value {
      s: "31"
    }
  }
  attr {
    key: "Op_idx"
    value {
      s: "N/A"
    }
  }
  attr {
    key: "inputTensor:0"
    value {
      s: "bf16-11_175051  |  Sizes = [16,128]  |  bf16  |  expBias = 0, scale = 1  |    |  ModelParam = 0  |  strides = [4096, 256, 2]  |  data = 0, sizeInBytes = 4096  |  isAliased = bf16-15_175053, type = alias, offset: 0  |  location = in DRAM  |  "
    }
  }
  attr {
    key: "outputTensor:0"
    value {
      s: "bf16-15_175053  |  Sizes = [1,16,128]  |  bf16  |  expBias = 0, scale = 1  |    |  ModelParam = 0  |  strides = [4096, 4096, 256, 2]  |  data = 0, sizeInBytes = 4096  |  location = in DRAM  |  dramOffset = 0x120000006000  |  "
    }
  }
}
node {
  name: "module/model/25/rotary_pos_embedding_fwd_bf16/13332_complex/rotary_pos_embedding_fwd_bf16_370/rope_st2_fwd_bf16_16_bundle_1117/op_0"
  op: "rope_st2_fwd_bf16"
  input: "module/model/25/transpose/13331_transpose_via_logical"
  input: "module/model/25/rotary_pos_embedding_fwd_bf16/13332_complex/rotary_pos_embedding_fwd_bf16_370/expand_dims_12"
  input: "module/model/25/rotary_pos_embedding_fwd_bf16/13332_complex/rotary_pos_embedding_fwd_bf16_370/expand_dims_14"
  attr {
    key: "Bundle_idx"
    value {
      s: "1117"
    }
  }
  attr {
    key: "Exec_idx"
    value {
      s: "32"
    }
  }
  attr {
    key: "Op_idx"
    value {
      s: "0"
    }
  }
  attr {
    key: "inputTensor:0"
    value {
      s: "tensor_37_id_122553_module/model/25/aten__transpose  |  Sizes = [1,8,16,128]  |  bf16  |  expBias = 0, scale = 1  |    |  ModelParam = 0  |  strides = [32768, 32768, 256, 2048, 2]  |  data = 0, sizeInBytes = 32768  |  isAliased = tensor_36_id_122551_module/model/25/aten__view, type = alias, offset: 0  |  location = in DRAM  |  isSparseLayout  |  "
    }
  }
  attr {
    key: "inputTensor:1"
    value {
      s: "bf16-13_175035  |  Sizes = [1,16,128]  |  bf16  |  expBias = 0, scale = 1  |    |  ModelParam = 0  |  strides = [4096, 4096, 256, 2]  |  data = 0, sizeInBytes = 4096  |  location = in DRAM  |  dramOffset = 0x40000002080  |  "
    }
  }
  attr {
    key: "inputTensor:2"
    value {
      s: "bf16-15_175036  |  Sizes = [1,16,128]  |  bf16  |  expBias = 0, scale = 1  |    |  ModelParam = 0  |  strides = [4096, 4096, 256, 2]  |  data = 0, sizeInBytes = 4096  |  location = in DRAM  |  dramOffset = 0x120000000000  |  "
    }
  }
  attr {
    key: "outputTensor:0"
    value {
      s: "tensor_39  |  Sizes = [1,8,16,128]  |  bf16  |  expBias = 0, scale = 1  |    |  ModelParam = 0  |  strides = [32768, 32768, 4096, 256, 2]  |  data = 0, sizeInBytes = 32768  |  location = in DRAM  |  dramOffset = 0x20000  |  "
    }
  }
}
node {
  name: "module/model/25/rotary_pos_embedding_fwd_bf16/13359_complex/rotary_pos_embedding_fwd_bf16_371/rope_st2_fwd_bf16_16_bundle_1117/op_3"
  op: "rope_st2_fwd_bf16"
  input: "module/model/25/transpose/13358_transpose_via_logical"
  input: "module/model/25/rotary_pos_embedding_fwd_bf16/13359_complex/rotary_pos_embedding_fwd_bf16_371/expand_dims_12"
  input: "module/model/25/rotary_pos_embedding_fwd_bf16/13359_complex/rotary_pos_embedding_fwd_bf16_371/expand_dims_14"
  attr {
    key: "Bundle_idx"
    value {
      s: "1117"
    }
  }
  attr {
    key: "Exec_idx"
    value {
      s: "33"
    }
  }
  attr {
    key: "Op_idx"
    value {
      s: "1"
    }
  }
  attr {
    key: "inputTensor:0"
    value {
      s: "tensor_99_id_122549_module/model/25/aten__transpose  |  Sizes = [1,32,16,128]  |  bf16  |  expBias = 0, scale = 1  |    |  ModelParam = 0  |  strides = [131072, 131072, 256, 8192, 2]  |  data = 0, sizeInBytes = 131072  |  isAliased = tensor_98_id_122547_module/model/25/aten__view, type = alias, offset: 0  |  location = in DRAM  |  isSparseLayout  |  "
    }
  }
  attr {
    key: "inputTensor:1"
    value {
      s: "bf16-13_175052  |  Sizes = [1,16,128]  |  bf16  |  expBias = 0, scale = 1  |    |  ModelParam = 0  |  strides = [4096, 4096, 256, 2]  |  data = 0, sizeInBytes = 4096  |  location = in DRAM  |  dramOffset = 0x120000005000  |  "
    }
  }
  attr {
    key: "inputTensor:2"
    value {
      s: "bf16-15_175053  |  Sizes = [1,16,128]  |  bf16  |  expBias = 0, scale = 1  |    |  ModelParam = 0  |  strides = [4096, 4096, 256, 2]  |  data = 0, sizeInBytes = 4096  |  location = in DRAM  |  dramOffset = 0x120000006000  |  "
    }
  }
  attr {
    key: "outputTensor:0"
    value {
      s: "tensor_101_slice_0_0_0_0_0__0__bundle_1117_175696  |  Sizes = [1,32,16,128]  |  bf16  |  expBias = 0, scale = 1  |    |  ModelParam = 0  |  strides = [131072, 131072, 4096, 256, 2]  |  data = 0, sizeInBytes = 131072  |  location = in SRAM  |  sramOffset = 0x1000fffffd080000  |  "
    }
  }
}
node {
  name: "fusedTPCNode_211_1_bundle_1117/op_1"
  op: "fused_kernel_0xC4A12092_3BE_bf16"
  input: "module/model/25/rotary_pos_embedding_fwd_bf16/13332_complex/rotary_pos_embedding_fwd_bf16_370/rope_st2_fwd_bf16_16_bundle_1117/op_0"
  attr {
    key: "Bundle_idx"
    value {
      s: "1117"
    }
  }
  attr {
    key: "Exec_idx"
    value {
      s: "34"
    }
  }
  attr {
    key: "Op_idx"
    value {
      s: "2"
    }
  }
  attr {
    key: "inputTensor:0"
    value {
      s: "tensor_39  |  Sizes = [1,8,16,128]  |  bf16  |  expBias = 0, scale = 1  |    |  ModelParam = 0  |  strides = [32768, 32768, 4096, 256, 2]  |  data = 0, sizeInBytes = 32768  |  location = in DRAM  |  dramOffset = 0x20000  |  "
    }
  }
  attr {
    key: "outputTensor:0"
    value {
      s: "tensor_44  |  Sizes = [1,8,16,128]  |  hfloat8  |  expBias = 7, scale = 1  |    |  ModelParam = 0  |  strides = [16384, 16384, 2048, 128, 1]  |  data = 0, sizeInBytes = 16384  |  isPersistent  |  location = in DRAM  |  dramOffset = 0x40000000000  |  userMemorySection(type=Persistent, id=4)  |  "
    }
  }
  attr {
    key: "outputTensor:1"
    value {
      s: "tensor_47  |  Sizes = [1,8,16,128]  |  bf16  |  expBias = 0, scale = 1  |    |  ModelParam = 0  |  strides = [32768, 32768, 4096, 256, 2]  |  data = 0, sizeInBytes = 32768  |  isPersistent  |  location = in DRAM  |  dramOffset = 0x120000000000  |  userMemorySection(type=Persistent, id=18)  |  "
    }
  }
  attr {
    key: "outputTensor:2"
    value {
      s: "tensor-175263_slice_0_0_0_0_0__0__bundle_1117_175691  |  Sizes = [1,8,16,128]  |  hfloat8  |  expBias = 7, scale = 1  |    |  ModelParam = 0  |  strides = [16384, 16384, 2048, 128, 1]  |  data = 0, sizeInBytes = 16384  |  isAliased = tensor_87_id_122664_module/model/25/fused_scaled_dot_product_attention/aten__view_slice_0_0_0_0_0__0__bundle_1117_175692, type = alias, offset: 0  |  location = in SRAM  |  sramOffset = 0x1000fffffd0a0000  |  "
    }
  }
}
node {
  name: "tensor_44"
  op: "OutputTensor"
  input: "fusedTPCNode_211_1_bundle_1117/op_1"
  attr {
    key: "dtype"
    value {
      type: DT_INVALID
    }
  }
  attr {
    key: "shape"
    value {
      shape {
        dim {
          size: 128
        }
        dim {
          size: 16
        }
        dim {
          size: 8
        }
        dim {
          size: 1
        }
        dim {
          size: 1
        }
      }
    }
  }
  attr {
    key: "synDataType"
    value {
      s: "hfloat8"
    }
  }
}
node {
  name: "tensor_47"
  op: "OutputTensor"
  input: "fusedTPCNode_211_1_bundle_1117/op_1"
  attr {
    key: "dtype"
    value {
      type: DT_BFLOAT16
    }
  }
  attr {
    key: "shape"
    value {
      shape {
        dim {
          size: 128
        }
        dim {
          size: 16
        }
        dim {
          size: 8
        }
        dim {
          size: 1
        }
        dim {
          size: 1
        }
      }
    }
  }
  attr {
    key: "synDataType"
    value {
      s: "bf16"
    }
  }
}
node {
  name: "reshape_5_5_bundle_1117/op_2"
  op: "Reshape"
  input: "fusedTPCNode_211_1_bundle_1117/op_1"
  attr {
    key: "Bundle_idx"
    value {
      s: "1117"
    }
  }
  attr {
    key: "Exec_idx"
    value {
      s: "35"
    }
  }
  attr {
    key: "Op_idx"
    value {
      s: "3"
    }
  }
  attr {
    key: "inputTensor:0"
    value {
      s: "tensor-175263_slice_0_0_0_0_0__0__bundle_1117_175691  |  Sizes = [1,8,16,128]  |  hfloat8  |  expBias = 7, scale = 1  |    |  ModelParam = 0  |  strides = [16384, 16384, 2048, 128, 1]  |  data = 0, sizeInBytes = 16384  |  isAliased = tensor_87_id_122664_module/model/25/fused_scaled_dot_product_attention/aten__view_slice_0_0_0_0_0__0__bundle_1117_175692, type = alias, offset: 0  |  location = in SRAM  |  sramOffset = 0x1000fffffd0a0000  |  "
    }
  }
  attr {
    key: "outputTensor:0"
    value {
      s: "tensor_87_id_122664_module/model/25/fused_scaled_dot_product_attention/aten__view_slice_0_0_0_0_0__0__bundle_1117_175692  |  Sizes = [1,8,1,16,128]  |  hfloat8  |  expBias = 7, scale = 1  |    |  ModelParam = 0  |  strides = [16384, 16384, 2048, 2048, 128, 1]  |  data = 0, sizeInBytes = 16384  |  location = in SRAM  |  sramOffset = 0x1000fffffd0a0000  |  "
    }
  }
}
node {
  name: "fusedTPCNode_211_3_bundle_1117/op_4"
  op: "fused_kernel_0x751BA069_3C0_hf8"
  input: "module/model/25/rotary_pos_embedding_fwd_bf16/13359_complex/rotary_pos_embedding_fwd_bf16_371/rope_st2_fwd_bf16_16_bundle_1117/op_3"
  attr {
    key: "Bundle_idx"
    value {
      s: "1117"
    }
  }
  attr {
    key: "Exec_idx"
    value {
      s: "36"
    }
  }
  attr {
    key: "Op_idx"
    value {
      s: "4"
    }
  }
  attr {
    key: "inputTensor:0"
    value {
      s: "tensor_101_slice_0_0_0_0_0__0__bundle_1117_175696  |  Sizes = [1,32,16,128]  |  bf16  |  expBias = 0, scale = 1  |    |  ModelParam = 0  |  strides = [131072, 131072, 4096, 256, 2]  |  data = 0, sizeInBytes = 131072  |  location = in SRAM  |  sramOffset = 0x1000fffffd080000  |  "
    }
  }
  attr {
    key: "outputTensor:0"
    value {
      s: "tensor-175265_slice_0_0_0_0_0__0__bundle_1117_175697  |  Sizes = [1,32,16,128]  |  hfloat8  |  expBias = 7, scale = 1  |    |  ModelParam = 0  |  strides = [65536, 65536, 2048, 128, 1]  |  data = 0, sizeInBytes = 65536  |  isAliased = tensor_106_id_122662_module/model/25/fused_scaled_dot_product_attention/aten__view_slice_0_0_0_0_0__0__bundle_1117_175698, type = alias, offset: 0  |  location = in SRAM  |  sramOffset = 0x1000fffffd0a4000  |  "
    }
  }
}
node {
  name: "reshape_11_11_bundle_1117/op_5"
  op: "Reshape"
  input: "fusedTPCNode_211_3_bundle_1117/op_4"
  attr {
    key: "Bundle_idx"
    value {
      s: "1117"
    }
  }
  attr {
    key: "Exec_idx"
    value {
      s: "37"
    }
  }
  attr {
    key: "Op_idx"
    value {
      s: "5"
    }
  }
  attr {
    key: "inputTensor:0"
    value {
      s: "tensor-175265_slice_0_0_0_0_0__0__bundle_1117_175697  |  Sizes = [1,32,16,128]  |  hfloat8  |  expBias = 7, scale = 1  |    |  ModelParam = 0  |  strides = [65536, 65536, 2048, 128, 1]  |  data = 0, sizeInBytes = 65536  |  isAliased = tensor_106_id_122662_module/model/25/fused_scaled_dot_product_attention/aten__view_slice_0_0_0_0_0__0__bundle_1117_175698, type = alias, offset: 0  |  location = in SRAM  |  sramOffset = 0x1000fffffd0a4000  |  "
    }
  }
  attr {
    key: "outputTensor:0"
    value {
      s: "tensor_106_id_122662_module/model/25/fused_scaled_dot_product_attention/aten__view_slice_0_0_0_0_0__0__bundle_1117_175698  |  Sizes = [1,8,4,16,128]  |  hfloat8  |  expBias = 7, scale = 1  |    |  ModelParam = 0  |  strides = [65536, 65536, 8192, 2048, 128, 1]  |  data = 0, sizeInBytes = 65536  |  location = in SRAM  |  sramOffset = 0x1000fffffd0a4000  |  "
    }
  }
}
node {
  name: "module/model/25/fused_scaled_dot_product_attention/sdpa_recomp_fwd_hf8/13362_complex/sdpa_recomp_fwd_hf8_371/sdpa_recomp_core_fwd_hf8_185/fp8_gemm_hf8_2976/batch_gemm_16_bundle_1117/op_6"
  op: "BatchGemm"
  input: "reshape_11_11_bundle_1117/op_5"
  input: "reshape_5_5_bundle_1117/op_2"
  attr {
    key: "Bundle_idx"
    value {
      s: "1117"
    }
  }
  attr {
    key: "Exec_idx"
    value {
      s: "38"
    }
  }
  attr {
    key: "Op_idx"
    value {
      s: "6"
    }
  }
  attr {
    key: "Parameters"
    value {
      s: "transpose_a=false, transpose_b=true"
    }
  }
  attr {
    key: "fp8BiasIn"
    value {
      s: "7"
    }
  }
  attr {
    key: "fp8BiasIn2"
    value {
      s: "7"
    }
  }
  attr {
    key: "fp8BiasOut"
    value {
      s: "0"
    }
  }
  attr {
    key: "inputTensor:0"
    value {
      s: "tensor_106_id_122662_module/model/25/fused_scaled_dot_product_attention/aten__view_slice_0_0_0_0_0__0__bundle_1117_175698  |  Sizes = [1,8,4,16,128]  |  hfloat8  |  expBias = 7, scale = 1  |    |  ModelParam = 0  |  strides = [65536, 65536, 8192, 2048, 128, 1]  |  data = 0, sizeInBytes = 65536  |  location = in SRAM  |  sramOffset = 0x1000fffffd0a4000  |  "
    }
  }
  attr {
    key: "inputTensor:1"
    value {
      s: "tensor_87_id_122664_module/model/25/fused_scaled_dot_product_attention/aten__view_slice_0_0_0_0_0__0__bundle_1117_175692  |  Sizes = [1,8,1,16,128]  |  hfloat8  |  expBias = 7, scale = 1  |    |  ModelParam = 0  |  strides = [16384, 16384, 2048, 2048, 128, 1]  |  data = 0, sizeInBytes = 16384  |  location = in SRAM  |  sramOffset = 0x1000fffffd0a0000  |  "
    }
  }
  attr {
    key: "outputTensor:0"
    value {
      s: "bf16-17_175062  |  Sizes = [1,8,4,16,16]  |  bf16  |  expBias = 0, scale = 1  |    |  ModelParam = 0  |  strides = [16384, 16384, 2048, 512, 32, 2]  |  data = 0, sizeInBytes = 16384  |  location = in DRAM  |  dramOffset = 0x28000  |  "
    }
  }
}
node {
  name: "module/model/25/fused_scaled_dot_product_attention/sdpa_recomp_fwd_hf8/13362_complex/sdpa_recomp_fwd_hf8_371/sdpa_recomp_core_fwd_hf8_185/constant_f32_18"
  op: "constant_f32"
  attr {
    key: "Bundle_idx"
    value {
      s: "N/A"
    }
  }
  attr {
    key: "Exec_idx"
    value {
      s: "39"
    }
  }
  attr {
    key: "Op_idx"
    value {
      s: "N/A"
    }
  }
  attr {
    key: "outputTensor:0"
    value {
      s: "f32-19_175063  |  Sizes = [1]  |  float32  |  expBias = 0, scale = 1  |    |  ModelParam = 0  |  strides = [4, 4]  |  data = 0, sizeInBytes = 4  |  location = in DRAM  |  dramOffset = 0x2c000  |  "
    }
  }
}
node {
  name: "module/model/25/fused_scaled_dot_product_attention/sdpa_recomp_fwd_hf8/13362_complex/sdpa_recomp_fwd_hf8_371/sdpa_recomp_core_fwd_hf8_185/constant_f32_20"
  op: "constant_f32"
  attr {
    key: "Bundle_idx"
    value {
      s: "N/A"
    }
  }
  attr {
    key: "Exec_idx"
    value {
      s: "40"
    }
  }
  attr {
    key: "Op_idx"
    value {
      s: "N/A"
    }
  }
  attr {
    key: "outputTensor:0"
    value {
      s: "f32-21_175064  |  Sizes = [1]  |  float32  |  expBias = 0, scale = 1  |    |  ModelParam = 0  |  strides = [4, 4]  |  data = 0, sizeInBytes = 4  |  location = in DRAM  |  dramOffset = 0x2c080  |  "
    }
  }
}
node {
  name: "fusedTPCNode_211_2_bundle_1118/op_0"
  op: "fused_kernel_0xE69E3CD3_3BF_bf16"
  input: "module/model/25/quant_input_0/transpose/13340_transpose_via_logical"
  attr {
    key: "Bundle_idx"
    value {
      s: "1118"
    }
  }
  attr {
    key: "Exec_idx"
    value {
      s: "41"
    }
  }
  attr {
    key: "Op_idx"
    value {
      s: "0"
    }
  }
  attr {
    key: "inputTensor:0"
    value {
      s: "tensor_67  |  Sizes = [1,8,16,128]  |  hfloat8  |  expBias = 7, scale = 1  |    |  ModelParam = 0  |  strides = [16384, 16384, 2048, 128, 1]  |  data = 0, sizeInBytes = 16384  |  isPersistent  |  location = in DRAM  |  dramOffset = 0x130000000000  |  userMemorySection(type=Persistent, id=19)  |  "
    }
  }
  attr {
    key: "outputTensor:0"
    value {
      s: "tensor_70  |  Sizes = [1,8,16,128]  |  bf16  |  expBias = 0, scale = 1  |    |  ModelParam = 0  |  strides = [32768, 32768, 4096, 256, 2]  |  data = 0, sizeInBytes = 32768  |  isPersistent  |  location = in DRAM  |  dramOffset = 0x1b0000000000  |  userMemorySection(type=Persistent, id=27)  |  "
    }
  }
  attr {
    key: "outputTensor:1"
    value {
      s: "tensor-175264_slice_0_0_0_0_0__0__bundle_1118_175702  |  Sizes = [1,8,16,128]  |  hfloat8  |  expBias = 7, scale = 1  |    |  ModelParam = 0  |  strides = [16384, 16384, 2048, 128, 1]  |  data = 0, sizeInBytes = 16384  |  isAliased = tensor_82_id_122666_module/model/25/fused_scaled_dot_product_attention/aten__view_slice_0_0_0_0_0__0__bundle_1118_175703, type = alias, offset: 0  |  location = in SRAM  |  sramOffset = 0x1000fffffd0b4000  |  "
    }
  }
}
node {
  name: "tensor_70"
  op: "OutputTensor"
  input: "fusedTPCNode_211_2_bundle_1118/op_0"
  attr {
    key: "dtype"
    value {
      type: DT_BFLOAT16
    }
  }
  attr {
    key: "shape"
    value {
      shape {
        dim {
          size: 128
        }
        dim {
          size: 16
        }
        dim {
          size: 8
        }
        dim {
          size: 1
        }
        dim {
          size: 1
        }
      }
    }
  }
  attr {
    key: "synDataType"
    value {
      s: "bf16"
    }
  }
}
node {
  name: "reshape_8_8_bundle_1118/op_1"
  op: "Reshape"
  input: "fusedTPCNode_211_2_bundle_1118/op_0"
  attr {
    key: "Bundle_idx"
    value {
      s: "1118"
    }
  }
  attr {
    key: "Exec_idx"
    value {
      s: "42"
    }
  }
  attr {
    key: "Op_idx"
    value {
      s: "1"
    }
  }
  attr {
    key: "inputTensor:0"
    value {
      s: "tensor-175264_slice_0_0_0_0_0__0__bundle_1118_175702  |  Sizes = [1,8,16,128]  |  hfloat8  |  expBias = 7, scale = 1  |    |  ModelParam = 0  |  strides = [16384, 16384, 2048, 128, 1]  |  data = 0, sizeInBytes = 16384  |  isAliased = tensor_82_id_122666_module/model/25/fused_scaled_dot_product_attention/aten__view_slice_0_0_0_0_0__0__bundle_1118_175703, type = alias, offset: 0  |  location = in SRAM  |  sramOffset = 0x1000fffffd0b4000  |  "
    }
  }
  attr {
    key: "outputTensor:0"
    value {
      s: "tensor_82_id_122666_module/model/25/fused_scaled_dot_product_attention/aten__view_slice_0_0_0_0_0__0__bundle_1118_175703  |  Sizes = [1,8,1,16,128]  |  hfloat8  |  expBias = 7, scale = 1  |    |  ModelParam = 0  |  strides = [16384, 16384, 2048, 2048, 128, 1]  |  data = 0, sizeInBytes = 16384  |  location = in SRAM  |  sramOffset = 0x1000fffffd0b4000  |  "
    }
  }
}
node {
  name: "tensor_110_odule/model/25/fused_scaled_dot_product_attention/placeholder/7"
  op: "Placeholder"
  attr {
    key: "dtype"
    value {
      type: DT_FLOAT
    }
  }
  attr {
    key: "shape"
    value {
      shape {
        dim {
          size: 1
        }
        dim {
          size: 1
        }
        dim {
          size: 1
        }
        dim {
          size: 1
        }
        dim {
          size: 1
        }
      }
    }
  }
  attr {
    key: "synDataType"
    value {
      s: "float32"
    }
  }
}
node {
  name: "module/model/25/fused_scaled_dot_product_attention/sdpa_recomp_fwd_hf8/13362_complex/sdpa_recomp_fwd_hf8_371/sdpa_recomp_core_fwd_hf8_185/softmax_fwd_hf8_22_bundle_1118/op_2"
  op: "softmax_fwd_hf8"
  input: "module/model/25/fused_scaled_dot_product_attention/sdpa_recomp_fwd_hf8/13362_complex/sdpa_recomp_fwd_hf8_371/sdpa_recomp_core_fwd_hf8_185/fp8_gemm_hf8_2976/batch_gemm_16_bundle_1117/op_6"
  input: "module/model/25/fused_scaled_dot_product_attention/sdpa_recomp_fwd_hf8/13362_complex/sdpa_recomp_fwd_hf8_371/sdpa_recomp_core_fwd_hf8_185/constant_f32_18"
  input: "module/model/25/fused_scaled_dot_product_attention/sdpa_recomp_fwd_hf8/13362_complex/sdpa_recomp_fwd_hf8_371/sdpa_recomp_core_fwd_hf8_185/constant_f32_20"
  input: "tensor_110_odule/model/25/fused_scaled_dot_product_attention/placeholder/7"
  input: "module/model/25/fused_scaled_dot_product_attention/expand_dims/13349"
  attr {
    key: "Bundle_idx"
    value {
      s: "1118"
    }
  }
  attr {
    key: "Exec_idx"
    value {
      s: "43"
    }
  }
  attr {
    key: "Op_idx"
    value {
      s: "2"
    }
  }
  attr {
    key: "inputTensor:0"
    value {
      s: "bf16-17_175062  |  Sizes = [1,8,4,16,16]  |  bf16  |  expBias = 0, scale = 1  |    |  ModelParam = 0  |  strides = [16384, 16384, 2048, 512, 32, 2]  |  data = 0, sizeInBytes = 16384  |  location = in DRAM  |  dramOffset = 0x28000  |  "
    }
  }
  attr {
    key: "inputTensor:1"
    value {
      s: "f32-19_175063  |  Sizes = [1]  |  float32  |  expBias = 0, scale = 1  |    |  ModelParam = 0  |  strides = [4, 4]  |  data = 0, sizeInBytes = 4  |  location = in DRAM  |  dramOffset = 0x2c000  |  "
    }
  }
  attr {
    key: "inputTensor:2"
    value {
      s: "f32-21_175064  |  Sizes = [1]  |  float32  |  expBias = 0, scale = 1  |    |  ModelParam = 0  |  strides = [4, 4]  |  data = 0, sizeInBytes = 4  |  location = in DRAM  |  dramOffset = 0x2c080  |  "
    }
  }
  attr {
    key: "inputTensor:3"
    value {
      s: "tensor_110_odule/model/25/fused_scaled_dot_product_attention/placeholder/7  |  Sizes = [1]  |  float32  |  expBias = 0, scale = 1  |    |  ModelParam = 0  |  strides = [4, 4]  |  data = 0x564737e454d8, sizeInBytes = 4  |  buffer = 16  |  isPersistent  |  location = in DRAM  |  dramOffset = 0x270000000000  |  userMemorySection(type=Persistent, id=39)  |  isStaticParam  |  bufferDtype=float32  |  "
    }
  }
  attr {
    key: "inputTensor:4"
    value {
      s: "tensor_77_id_122668_module/model/25/fused_scaled_dot_product_attention/aten__unsqueeze  |  Sizes = [1,1,1,16,16]  |  bf16  |  expBias = 0, scale = 1  |    |  ModelParam = 0  |  strides = [512, 512, 512, 512, 32, 2]  |  data = 0, sizeInBytes = 512  |  isAliased = tensor_71_odule/model/25/fused_scaled_dot_product_attention/placeholder/0, type = alias, offset: 0  |  location = in DRAM  |  "
    }
  }
  attr {
    key: "outputTensor:0"
    value {
      s: "hf8-23_175065_slice_0_0_0_0_0__0__bundle_1118_175709  |  Sizes = [1,8,4,16,16]  |  hfloat8  |  expBias = 7, scale = 1  |    |  ModelParam = 0  |  strides = [8192, 8192, 1024, 256, 16, 1]  |  data = 0, sizeInBytes = 8192  |  location = in SRAM  |  sramOffset = 0x1000fffffd0b8000  |  "
    }
  }
}
node {
  name: "module/model/25/fused_scaled_dot_product_attention/sdpa_recomp_fwd_hf8/13362_complex/sdpa_recomp_fwd_hf8_371/sdpa_recomp_core_fwd_hf8_185/fp8_gemm_hf8_2977/batch_gemm_24_bundle_1118/op_3"
  op: "BatchGemm"
  input: "module/model/25/fused_scaled_dot_product_attention/sdpa_recomp_fwd_hf8/13362_complex/sdpa_recomp_fwd_hf8_371/sdpa_recomp_core_fwd_hf8_185/softmax_fwd_hf8_22_bundle_1118/op_2"
  input: "reshape_8_8_bundle_1118/op_1"
  attr {
    key: "Bundle_idx"
    value {
      s: "1118"
    }
  }
  attr {
    key: "Exec_idx"
    value {
      s: "44"
    }
  }
  attr {
    key: "Op_idx"
    value {
      s: "3"
    }
  }
  attr {
    key: "Parameters"
    value {
      s: "transpose_a=false, transpose_b=false"
    }
  }
  attr {
    key: "fp8BiasIn"
    value {
      s: "11"
    }
  }
  attr {
    key: "fp8BiasIn2"
    value {
      s: "7"
    }
  }
  attr {
    key: "fp8BiasOut"
    value {
      s: "7"
    }
  }
  attr {
    key: "inputTensor:0"
    value {
      s: "hf8-23_175065_slice_0_0_0_0_0__0__bundle_1118_175709  |  Sizes = [1,8,4,16,16]  |  hfloat8  |  expBias = 7, scale = 1  |    |  ModelParam = 0  |  strides = [8192, 8192, 1024, 256, 16, 1]  |  data = 0, sizeInBytes = 8192  |  location = in SRAM  |  sramOffset = 0x1000fffffd0b8000  |  "
    }
  }
  attr {
    key: "inputTensor:1"
    value {
      s: "tensor_82_id_122666_module/model/25/fused_scaled_dot_product_attention/aten__view_slice_0_0_0_0_0__0__bundle_1118_175703  |  Sizes = [1,8,1,16,128]  |  hfloat8  |  expBias = 7, scale = 1  |    |  ModelParam = 0  |  strides = [16384, 16384, 2048, 2048, 128, 1]  |  data = 0, sizeInBytes = 16384  |  location = in SRAM  |  sramOffset = 0x1000fffffd0b4000  |  "
    }
  }
  attr {
    key: "outputTensor:0"
    value {
      s: "tensor_118  |  Sizes = [1,8,4,16,128]  |  hfloat8  |  expBias = 7, scale = 1  |    |  ModelParam = 0  |  strides = [65536, 65536, 8192, 2048, 128, 1]  |  data = 0, sizeInBytes = 65536  |  isAliased = tensor_119_id_122687_module/model/25/fused_scaled_dot_product_attention/dequant_output/aten__view, type = alias, offset: 0  |  location = in DRAM  |  "
    }
  }
}
node {
  name: "module/model/25/fused_scaled_dot_product_attention/dequant_output/reshape/13363"
  op: "Reshape"
  input: "module/model/25/fused_scaled_dot_product_attention/sdpa_recomp_fwd_hf8/13362_complex/sdpa_recomp_fwd_hf8_371/sdpa_recomp_core_fwd_hf8_185/fp8_gemm_hf8_2977/batch_gemm_24_bundle_1118/op_3"
  attr {
    key: "Bundle_idx"
    value {
      s: "N/A"
    }
  }
  attr {
    key: "Exec_idx"
    value {
      s: "45"
    }
  }
  attr {
    key: "Op_idx"
    value {
      s: "N/A"
    }
  }
  attr {
    key: "inputTensor:0"
    value {
      s: "tensor_118  |  Sizes = [1,8,4,16,128]  |  hfloat8  |  expBias = 7, scale = 1  |    |  ModelParam = 0  |  strides = [65536, 65536, 8192, 2048, 128, 1]  |  data = 0, sizeInBytes = 65536  |  isAliased = tensor_119_id_122687_module/model/25/fused_scaled_dot_product_attention/dequant_output/aten__view, type = alias, offset: 0  |  location = in DRAM  |  "
    }
  }
  attr {
    key: "outputTensor:0"
    value {
      s: "tensor_119_id_122687_module/model/25/fused_scaled_dot_product_attention/dequant_output/aten__view  |  Sizes = [1,32,16,128]  |  hfloat8  |  expBias = 7, scale = 1  |    |  ModelParam = 0  |  strides = [65536, 65536, 2048, 128, 1]  |  data = 0, sizeInBytes = 65536  |  location = in DRAM  |  dramOffset = 0x0  |  "
    }
  }
}
node {
  name: "module/model/25/transpose/13365_transpose_via_logical"
  op: "LogicalTranspose"
  input: "module/model/25/fused_scaled_dot_product_attention/dequant_output/reshape/13363"
  attr {
    key: "Bundle_idx"
    value {
      s: "N/A"
    }
  }
  attr {
    key: "Exec_idx"
    value {
      s: "46"
    }
  }
  attr {
    key: "Op_idx"
    value {
      s: "N/A"
    }
  }
  attr {
    key: "Parameters"
    value {
      s: "permutation: (0,2,1,3)"
    }
  }
  attr {
    key: "inputTensor:0"
    value {
      s: "tensor_119_id_122687_module/model/25/fused_scaled_dot_product_attention/dequant_output/aten__view  |  Sizes = [1,32,16,128]  |  hfloat8  |  expBias = 7, scale = 1  |    |  ModelParam = 0  |  strides = [65536, 65536, 2048, 128, 1]  |  data = 0, sizeInBytes = 65536  |  location = in DRAM  |  dramOffset = 0x0  |  "
    }
  }
  attr {
    key: "outputTensor:0"
    value {
      s: "tensor_123_id_122692_module/model/25/aten__transpose  |  Sizes = [1,16,32,128]  |  hfloat8  |  expBias = 7, scale = 1  |    |  ModelParam = 0  |  strides = [65536, 65536, 128, 2048, 1]  |  data = 0, sizeInBytes = 65536  |  isAliased = tensor_119_id_122687_module/model/25/fused_scaled_dot_product_attention/dequant_output/aten__view, type = alias, offset: 0  |  location = in DRAM  |  isSparseLayout  |  "
    }
  }
}
node {
  name: "tensor_123_id_122692_module/model/25/aten__transpose_memcpy_175724_internal"
  op: "DmaMemcpy"
  input: "module/model/25/transpose/13365_transpose_via_logical"
  attr {
    key: "Bundle_idx"
    value {
      s: "N/A"
    }
  }
  attr {
    key: "Exec_idx"
    value {
      s: "47"
    }
  }
  attr {
    key: "Op_idx"
    value {
      s: "N/A"
    }
  }
  attr {
    key: "inputTensor:0"
    value {
      s: "tensor_123_id_122692_module/model/25/aten__transpose  |  Sizes = [1,16,32,128]  |  hfloat8  |  expBias = 7, scale = 1  |    |  ModelParam = 0  |  strides = [65536, 65536, 128, 2048, 1]  |  data = 0, sizeInBytes = 65536  |  isAliased = tensor_119_id_122687_module/model/25/fused_scaled_dot_product_attention/dequant_output/aten__view, type = alias, offset: 0  |  location = in DRAM  |  isSparseLayout  |  "
    }
  }
  attr {
    key: "outputTensor:0"
    value {
      s: "tensor_123_id_122692_module/model/25/aten__transpose_memcpy_175724  |  Sizes = [1,16,32,128]  |  hfloat8  |  expBias = 7, scale = 1  |    |  ModelParam = 0  |  strides = [65536, 65536, 4096, 128, 1]  |  data = 0, sizeInBytes = 65536  |  location = in DRAM  |  dramOffset = 0x10000  |  "
    }
  }
}
node {
  name: "module/model/25/o_proj/quant_input_0/reshape/13367"
  op: "Reshape"
  input: "tensor_123_id_122692_module/model/25/aten__transpose_memcpy_175724_internal"
  attr {
    key: "Bundle_idx"
    value {
      s: "N/A"
    }
  }
  attr {
    key: "Exec_idx"
    value {
      s: "48"
    }
  }
  attr {
    key: "Op_idx"
    value {
      s: "N/A"
    }
  }
  attr {
    key: "inputTensor:0"
    value {
      s: "tensor_123_id_122692_module/model/25/aten__transpose_memcpy_175724  |  Sizes = [1,16,32,128]  |  hfloat8  |  expBias = 7, scale = 1  |    |  ModelParam = 0  |  strides = [65536, 65536, 4096, 128, 1]  |  data = 0, sizeInBytes = 65536  |  location = in DRAM  |  dramOffset = 0x10000  |  "
    }
  }
  attr {
    key: "outputTensor:0"
    value {
      s: "tensor_129_c174980  |  Sizes = [1,16,4096]  |  hfloat8  |  expBias = 7, scale = 1  |    |  ModelParam = 0  |  strides = [65536, 65536, 4096, 1]  |  data = 0, sizeInBytes = 65536  |  isAliased = tensor_123_id_122692_module/model/25/aten__transpose_memcpy_175724, type = alias, offset: 0  |  location = in DRAM  |  "
    }
  }
}
node {
  name: "tensor_130_odule/model/25/o_proj/placeholder/1"
  op: "Placeholder"
  attr {
    key: "dtype"
    value {
      type: DT_INVALID
    }
  }
  attr {
    key: "shape"
    value {
      shape {
        dim {
          size: 4096
        }
        dim {
          size: 4096
        }
        dim {
          size: 1
        }
        dim {
          size: 1
        }
        dim {
          size: 1
        }
      }
    }
  }
  attr {
    key: "synDataType"
    value {
      s: "hfloat8"
    }
  }
}
node {
  name: "module/model/25/o_proj/fp8_gemm_bf16/13369_complex/fp8_gemm_bf16_2979/expand_dims_6"
  op: "ExpandDims"
  input: "tensor_130_odule/model/25/o_proj/placeholder/1"
  attr {
    key: "Bundle_idx"
    value {
      s: "N/A"
    }
  }
  attr {
    key: "Exec_idx"
    value {
      s: "49"
    }
  }
  attr {
    key: "Op_idx"
    value {
      s: "N/A"
    }
  }
  attr {
    key: "inputTensor:0"
    value {
      s: "tensor_130_odule/model/25/o_proj/placeholder/1  |  Sizes = [4096,4096]  |  hfloat8  |  expBias = 7, scale = 1  |    |  ModelParam = 0  |  strides = [16777216, 4096, 1]  |  data = 0, sizeInBytes = 16777216  |  isPersistent  |  location = in DRAM  |  dramOffset = 0x2c0000000000  |  userMemorySection(type=Persistent, id=44)  |  "
    }
  }
  attr {
    key: "outputTensor:0"
    value {
      s: "hf8-7_175069  |  Sizes = [1,4096,4096]  |  hfloat8  |  expBias = 7, scale = 1  |    |  ModelParam = 0  |  strides = [16777216, 16777216, 4096, 1]  |  data = 0, sizeInBytes = 16777216  |  isAliased = tensor_130_odule/model/25/o_proj/placeholder/1, type = alias, offset: 0  |  location = in DRAM  |  "
    }
  }
}
node {
  name: "module/model/25/o_proj/fp8_gemm_bf16/13369_complex/fp8_gemm_bf16_2979/batch_gemm_8_bundle_1119/op_0_gemm"
  op: "GEMM"
  input: "module/model/25/o_proj/quant_input_0/reshape/13367"
  input: "module/model/25/o_proj/fp8_gemm_bf16/13369_complex/fp8_gemm_bf16_2979/expand_dims_6"
  attr {
    key: "Bundle_idx"
    value {
      s: "1119"
    }
  }
  attr {
    key: "Exec_idx"
    value {
      s: "50"
    }
  }
  attr {
    key: "Op_idx"
    value {
      s: "0"
    }
  }
  attr {
    key: "Parameters"
    value {
      s: "transpose_a=false, transpose_b=false"
    }
  }
  attr {
    key: "fp8BiasIn"
    value {
      s: "7"
    }
  }
  attr {
    key: "fp8BiasIn2"
    value {
      s: "15"
    }
  }
  attr {
    key: "fp8BiasOut"
    value {
      s: "0"
    }
  }
  attr {
    key: "inputTensor:0"
    value {
      s: "tensor_129_c174980  |  Sizes = [1,16,4096]  |  hfloat8  |  expBias = 7, scale = 1  |    |  ModelParam = 0  |  strides = [65536, 65536, 4096, 1]  |  data = 0, sizeInBytes = 65536  |  isAliased = tensor_123_id_122692_module/model/25/aten__transpose_memcpy_175724, type = alias, offset: 0  |  location = in DRAM  |  "
    }
  }
  attr {
    key: "inputTensor:1"
    value {
      s: "hf8-7_175069  |  Sizes = [1,4096,4096]  |  hfloat8  |  expBias = 7, scale = 1  |    |  ModelParam = 0  |  strides = [16777216, 16777216, 4096, 1]  |  data = 0, sizeInBytes = 16777216  |  isAliased = tensor_130_odule/model/25/o_proj/placeholder/1, type = alias, offset: 0  |  location = in DRAM  |  "
    }
  }
  attr {
    key: "outputTensor:0"
    value {
      s: "tensor_134  |  Sizes = [1,16,4096]  |  bf16  |  expBias = 0, scale = 1  |    |  ModelParam = 0  |  strides = [131072, 131072, 8192, 2]  |  data = 0, sizeInBytes = 131072  |  location = in DRAM  |  dramOffset = 0x2c100  |  "
    }
  }
}
node {
  name: "tensor_145_odule/model/25/up_proj/placeholder/1"
  op: "Placeholder"
  attr {
    key: "dtype"
    value {
      type: DT_INVALID
    }
  }
  attr {
    key: "shape"
    value {
      shape {
        dim {
          size: 14336
        }
        dim {
          size: 4096
        }
        dim {
          size: 1
        }
        dim {
          size: 1
        }
        dim {
          size: 1
        }
      }
    }
  }
  attr {
    key: "synDataType"
    value {
      s: "hfloat8"
    }
  }
}
node {
  name: "module/model/25/up_proj/fp8_gemm_bf16/13373_complex/fp8_gemm_bf16_2981/expand_dims_6"
  op: "ExpandDims"
  input: "tensor_145_odule/model/25/up_proj/placeholder/1"
  attr {
    key: "Bundle_idx"
    value {
      s: "N/A"
    }
  }
  attr {
    key: "Exec_idx"
    value {
      s: "51"
    }
  }
  attr {
    key: "Op_idx"
    value {
      s: "N/A"
    }
  }
  attr {
    key: "inputTensor:0"
    value {
      s: "tensor_145_odule/model/25/up_proj/placeholder/1  |  Sizes = [4096,14336]  |  hfloat8  |  expBias = 7, scale = 1  |    |  ModelParam = 0  |  strides = [58720256, 14336, 1]  |  data = 0, sizeInBytes = 58720256  |  isPersistent  |  location = in DRAM  |  dramOffset = 0x310000000000  |  userMemorySection(type=Persistent, id=49)  |  "
    }
  }
  attr {
    key: "outputTensor:0"
    value {
      s: "hf8-7_175077  |  Sizes = [1,4096,14336]  |  hfloat8  |  expBias = 7, scale = 1  |    |  ModelParam = 0  |  strides = [58720256, 58720256, 14336, 1]  |  data = 0, sizeInBytes = 58720256  |  isAliased = tensor_145_odule/model/25/up_proj/placeholder/1, type = alias, offset: 0  |  location = in DRAM  |  "
    }
  }
}
node {
  name: "tensor_154_odule/model/25/gate_proj/placeholder/1"
  op: "Placeholder"
  attr {
    key: "dtype"
    value {
      type: DT_INVALID
    }
  }
  attr {
    key: "shape"
    value {
      shape {
        dim {
          size: 14336
        }
        dim {
          size: 4096
        }
        dim {
          size: 1
        }
        dim {
          size: 1
        }
        dim {
          size: 1
        }
      }
    }
  }
  attr {
    key: "synDataType"
    value {
      s: "hfloat8"
    }
  }
}
node {
  name: "module/model/25/gate_proj/fp8_gemm_bf16/13375_complex/fp8_gemm_bf16_2983/expand_dims_6"
  op: "ExpandDims"
  input: "tensor_154_odule/model/25/gate_proj/placeholder/1"
  attr {
    key: "Bundle_idx"
    value {
      s: "N/A"
    }
  }
  attr {
    key: "Exec_idx"
    value {
      s: "52"
    }
  }
  attr {
    key: "Op_idx"
    value {
      s: "N/A"
    }
  }
  attr {
    key: "inputTensor:0"
    value {
      s: "tensor_154_odule/model/25/gate_proj/placeholder/1  |  Sizes = [4096,14336]  |  hfloat8  |  expBias = 7, scale = 1  |    |  ModelParam = 0  |  strides = [58720256, 14336, 1]  |  data = 0, sizeInBytes = 58720256  |  isPersistent  |  location = in DRAM  |  dramOffset = 0x350000000000  |  userMemorySection(type=Persistent, id=53)  |  "
    }
  }
  attr {
    key: "outputTensor:0"
    value {
      s: "hf8-7_175081  |  Sizes = [1,4096,14336]  |  hfloat8  |  expBias = 7, scale = 1  |    |  ModelParam = 0  |  strides = [58720256, 58720256, 14336, 1]  |  data = 0, sizeInBytes = 58720256  |  isAliased = tensor_154_odule/model/25/gate_proj/placeholder/1, type = alias, offset: 0  |  location = in DRAM  |  "
    }
  }
}
node {
  name: "module/model/25/add_fwd_bf16/13370_complex/add_fwd_bf16_0_bundle_1116/op_0"
  op: "add_fwd_bf16"
  input: "tensor_21_odule/model/25/input_layernorm/placeholder/0"
  input: "module/model/25/o_proj/fp8_gemm_bf16/13369_complex/fp8_gemm_bf16_2979/batch_gemm_8_bundle_1119/op_0_gemm"
  attr {
    key: "Bundle_idx"
    value {
      s: "1116"
    }
  }
  attr {
    key: "Exec_idx"
    value {
      s: "53"
    }
  }
  attr {
    key: "Op_idx"
    value {
      s: "0"
    }
  }
  attr {
    key: "inputTensor:0"
    value {
      s: "tensor_21_odule/model/25/input_layernorm/placeholder/0  |  Sizes = [1,16,4096]  |  bf16  |  expBias = 0, scale = 1  |    |  ModelParam = 0  |  strides = [131072, 131072, 8192, 2]  |  data = 0, sizeInBytes = 131072  |  isPersistent  |  location = in DRAM  |  dramOffset = 0x90000000000  |  userMemorySection(type=Persistent, id=9)  |  "
    }
  }
  attr {
    key: "inputTensor:1"
    value {
      s: "tensor_134  |  Sizes = [1,16,4096]  |  bf16  |  expBias = 0, scale = 1  |    |  ModelParam = 0  |  strides = [131072, 131072, 8192, 2]  |  data = 0, sizeInBytes = 131072  |  location = in DRAM  |  dramOffset = 0x2c100  |  "
    }
  }
  attr {
    key: "outputTensor:0"
    value {
      s: "tensor_135_replaced_175006_slice_0_0_0_0_0__0__bundle_1116_175669  |  Sizes = [1,16,4096]  |  bf16  |  expBias = 0, scale = 1  |    |  ModelParam = 0  |  strides = [131072, 131072, 8192, 2]  |  data = 0, sizeInBytes = 131072  |  location = in SRAM  |  sramOffset = 0x1000fffffd0ba000  |  "
    }
  }
}
node {
  name: "module/model/25/post_attention_layernorm/rms_norm_ex_fwd_bf16/13371_complex/rms_norm_ex_fwd_bf16_753/reshape_2_bundle_1116/op_1"
  op: "Reshape"
  input: "module/model/25/add_fwd_bf16/13370_complex/add_fwd_bf16_0_bundle_1116/op_0"
  attr {
    key: "Bundle_idx"
    value {
      s: "1116"
    }
  }
  attr {
    key: "Exec_idx"
    value {
      s: "54"
    }
  }
  attr {
    key: "Op_idx"
    value {
      s: "1"
    }
  }
  attr {
    key: "inputTensor:0"
    value {
      s: "tensor_135_replaced_175006_slice_0_0_0_0_0__0__bundle_1116_175669  |  Sizes = [1,16,4096]  |  bf16  |  expBias = 0, scale = 1  |    |  ModelParam = 0  |  strides = [131072, 131072, 8192, 2]  |  data = 0, sizeInBytes = 131072  |  location = in SRAM  |  sramOffset = 0x1000fffffd0ba000  |  "
    }
  }
  attr {
    key: "outputTensor:0"
    value {
      s: "bf16-3_175071_slice_0_0_0_0_0__0__bundle_1116_175670  |  Sizes = [16,4096]  |  bf16  |  expBias = 0, scale = 1  |    |  ModelParam = 0  |  strides = [131072, 8192, 2]  |  data = 0, sizeInBytes = 131072  |  isAliased = tensor_135_replaced_175006_slice_0_0_0_0_0__0__bundle_1116_175669, type = alias, offset: 0  |  location = in SRAM  |  sramOffset = 0x1000fffffd0ba000  |  "
    }
  }
}
node {
  name: "tensor_136_odule/model/25/post_attention_layernorm/placeholder/1"
  op: "Placeholder"
  attr {
    key: "dtype"
    value {
      type: DT_BFLOAT16
    }
  }
  attr {
    key: "shape"
    value {
      shape {
        dim {
          size: 4096
        }
        dim {
          size: 1
        }
        dim {
          size: 1
        }
        dim {
          size: 1
        }
        dim {
          size: 1
        }
      }
    }
  }
  attr {
    key: "synDataType"
    value {
      s: "bf16"
    }
  }
}
node {
  name: "module/model/25/post_attention_layernorm/rms_norm_ex_fwd_bf16/13371_complex/rms_norm_ex_fwd_bf16_753/rms_norm_fwd_bf16_4_bundle_1116/op_2"
  op: "rms_norm_fwd_bf16"
  input: "module/model/25/post_attention_layernorm/rms_norm_ex_fwd_bf16/13371_complex/rms_norm_ex_fwd_bf16_753/reshape_2_bundle_1116/op_1"
  input: "tensor_136_odule/model/25/post_attention_layernorm/placeholder/1"
  attr {
    key: "Bundle_idx"
    value {
      s: "1116"
    }
  }
  attr {
    key: "Exec_idx"
    value {
      s: "55"
    }
  }
  attr {
    key: "Op_idx"
    value {
      s: "2"
    }
  }
  attr {
    key: "inputTensor:0"
    value {
      s: "bf16-3_175071_slice_0_0_0_0_0__0__bundle_1116_175670  |  Sizes = [16,4096]  |  bf16  |  expBias = 0, scale = 1  |    |  ModelParam = 0  |  strides = [131072, 8192, 2]  |  data = 0, sizeInBytes = 131072  |  isAliased = tensor_135_replaced_175006_slice_0_0_0_0_0__0__bundle_1116_175669, type = alias, offset: 0  |  location = in SRAM  |  sramOffset = 0x1000fffffd0ba000  |  "
    }
  }
  attr {
    key: "inputTensor:1"
    value {
      s: "tensor_136_odule/model/25/post_attention_layernorm/placeholder/1  |  Sizes = [4096]  |  bf16  |  expBias = 0, scale = 1  |    |  ModelParam = 0  |  strides = [8192, 2]  |  data = 0, sizeInBytes = 8192  |  isPersistent  |  location = in DRAM  |  dramOffset = 0x2f0000000000  |  userMemorySection(type=Persistent, id=47)  |  "
    }
  }
  attr {
    key: "outputTensor:0"
    value {
      s: "bf16-5_175072_slice_0_0_0_0_0__0__bundle_1116_175672  |  Sizes = [16,4096]  |  bf16  |  expBias = 0, scale = 1  |    |  ModelParam = 0  |  strides = [131072, 8192, 2]  |  data = 0, sizeInBytes = 131072  |  isAliased = tensor-175266_slice_0_0_0_0_0__0__bundle_1116_175674, type = alias, offset: 0  |  location = in SRAM  |  sramOffset = 0x1000fffffd0da000  |  "
    }
  }
  attr {
    key: "outputTensor:1"
    value {
      s: "f32-6_175073  |  Sizes = [16,1]  |  float32  |  expBias = 0, scale = 1  |    |  ModelParam = 0  |  strides = [64, 4, 4]  |  data = 0, sizeInBytes = 64  |  location = in DRAM  |  dramOffset = 0x20000  |  "
    }
  }
}
node {
  name: "f32-6_175073"
  op: "OutputTensor"
  input: "module/model/25/post_attention_layernorm/rms_norm_ex_fwd_bf16/13371_complex/rms_norm_ex_fwd_bf16_753/rms_norm_fwd_bf16_4_bundle_1116/op_2"
  attr {
    key: "dtype"
    value {
      type: DT_FLOAT
    }
  }
  attr {
    key: "shape"
    value {
      shape {
        dim {
          size: 1
        }
        dim {
          size: 16
        }
        dim {
          size: 1
        }
        dim {
          size: 1
        }
        dim {
          size: 1
        }
      }
    }
  }
  attr {
    key: "synDataType"
    value {
      s: "float32"
    }
  }
}
node {
  name: "reshape_12_12_bundle_1116/op_3"
  op: "Reshape"
  input: "module/model/25/post_attention_layernorm/rms_norm_ex_fwd_bf16/13371_complex/rms_norm_ex_fwd_bf16_753/rms_norm_fwd_bf16_4_bundle_1116/op_2"
  attr {
    key: "Bundle_idx"
    value {
      s: "1116"
    }
  }
  attr {
    key: "Exec_idx"
    value {
      s: "56"
    }
  }
  attr {
    key: "Op_idx"
    value {
      s: "3"
    }
  }
  attr {
    key: "inputTensor:0"
    value {
      s: "bf16-5_175072_slice_0_0_0_0_0__0__bundle_1116_175672  |  Sizes = [16,4096]  |  bf16  |  expBias = 0, scale = 1  |    |  ModelParam = 0  |  strides = [131072, 8192, 2]  |  data = 0, sizeInBytes = 131072  |  isAliased = tensor-175266_slice_0_0_0_0_0__0__bundle_1116_175674, type = alias, offset: 0  |  location = in SRAM  |  sramOffset = 0x1000fffffd0da000  |  "
    }
  }
  attr {
    key: "outputTensor:0"
    value {
      s: "tensor-175266_slice_0_0_0_0_0__0__bundle_1116_175674  |  Sizes = [1,16,4096]  |  bf16  |  expBias = 0, scale = 1  |    |  ModelParam = 0  |  strides = [131072, 131072, 8192, 2]  |  data = 0, sizeInBytes = 131072  |  location = in SRAM  |  sramOffset = 0x1000fffffd0da000  |  "
    }
  }
}
node {
  name: "fusedTPCNode_211_4_bundle_1116/op_4"
  op: "fused_kernel_0x2125B632_3BD_hf8"
  input: "reshape_12_12_bundle_1116/op_3"
  attr {
    key: "Bundle_idx"
    value {
      s: "1116"
    }
  }
  attr {
    key: "Exec_idx"
    value {
      s: "57"
    }
  }
  attr {
    key: "Op_idx"
    value {
      s: "4"
    }
  }
  attr {
    key: "inputTensor:0"
    value {
      s: "tensor-175266_slice_0_0_0_0_0__0__bundle_1116_175674  |  Sizes = [1,16,4096]  |  bf16  |  expBias = 0, scale = 1  |    |  ModelParam = 0  |  strides = [131072, 131072, 8192, 2]  |  data = 0, sizeInBytes = 131072  |  location = in SRAM  |  sramOffset = 0x1000fffffd0da000  |  "
    }
  }
  attr {
    key: "outputTensor:0"
    value {
      s: "tensor_144_slice_0_0_0_0_0__0__bundle_1116_175675  |  Sizes = [1,16,4096]  |  hfloat8  |  expBias = 7, scale = 1  |    |  ModelParam = 0  |  strides = [65536, 65536, 4096, 1]  |  data = 0, sizeInBytes = 65536  |  location = in SRAM  |  sramOffset = 0x1000fffffd0fa000  |  "
    }
  }
}
node {
  name: "module/model/25/up_proj/fp8_gemm_bf16/13373_complex/fp8_gemm_bf16_2981/batch_gemm_8_bundle_1116/op_5_gemm"
  op: "GEMM"
  input: "fusedTPCNode_211_4_bundle_1116/op_4"
  input: "module/model/25/up_proj/fp8_gemm_bf16/13373_complex/fp8_gemm_bf16_2981/expand_dims_6"
  attr {
    key: "Bundle_idx"
    value {
      s: "1116"
    }
  }
  attr {
    key: "Exec_idx"
    value {
      s: "58"
    }
  }
  attr {
    key: "Op_idx"
    value {
      s: "5"
    }
  }
  attr {
    key: "Parameters"
    value {
      s: "transpose_a=false, transpose_b=false"
    }
  }
  attr {
    key: "fp8BiasIn"
    value {
      s: "7"
    }
  }
  attr {
    key: "fp8BiasIn2"
    value {
      s: "15"
    }
  }
  attr {
    key: "fp8BiasOut"
    value {
      s: "0"
    }
  }
  attr {
    key: "inputTensor:0"
    value {
      s: "tensor_144_slice_0_0_0_0_0__0__bundle_1116_175675  |  Sizes = [1,16,4096]  |  hfloat8  |  expBias = 7, scale = 1  |    |  ModelParam = 0  |  strides = [65536, 65536, 4096, 1]  |  data = 0, sizeInBytes = 65536  |  location = in SRAM  |  sramOffset = 0x1000fffffd0fa000  |  "
    }
  }
  attr {
    key: "inputTensor:1"
    value {
      s: "hf8-7_175077  |  Sizes = [1,4096,14336]  |  hfloat8  |  expBias = 7, scale = 1  |    |  ModelParam = 0  |  strides = [58720256, 58720256, 14336, 1]  |  data = 0, sizeInBytes = 58720256  |  isAliased = tensor_145_odule/model/25/up_proj/placeholder/1, type = alias, offset: 0  |  location = in DRAM  |  "
    }
  }
  attr {
    key: "outputTensor:0"
    value {
      s: "tensor_149  |  Sizes = [1,16,14336]  |  bf16  |  expBias = 0, scale = 1  |    |  ModelParam = 0  |  strides = [458752, 458752, 28672, 2]  |  data = 0, sizeInBytes = 458752  |  location = in DRAM  |  dramOffset = 0x4c100  |  "
    }
  }
}
node {
  name: "module/model/25/gate_proj/fp8_gemm_bf16/13375_complex/fp8_gemm_bf16_2983/batch_gemm_8_bundle_1116/op_6_gemm"
  op: "GEMM"
  input: "fusedTPCNode_211_4_bundle_1116/op_4"
  input: "module/model/25/gate_proj/fp8_gemm_bf16/13375_complex/fp8_gemm_bf16_2983/expand_dims_6"
  attr {
    key: "Bundle_idx"
    value {
      s: "1116"
    }
  }
  attr {
    key: "Exec_idx"
    value {
      s: "59"
    }
  }
  attr {
    key: "Op_idx"
    value {
      s: "6"
    }
  }
  attr {
    key: "Parameters"
    value {
      s: "transpose_a=false, transpose_b=false"
    }
  }
  attr {
    key: "fp8BiasIn"
    value {
      s: "7"
    }
  }
  attr {
    key: "fp8BiasIn2"
    value {
      s: "15"
    }
  }
  attr {
    key: "fp8BiasOut"
    value {
      s: "0"
    }
  }
  attr {
    key: "inputTensor:0"
    value {
      s: "tensor_144_slice_0_0_0_0_0__0__bundle_1116_175675  |  Sizes = [1,16,4096]  |  hfloat8  |  expBias = 7, scale = 1  |    |  ModelParam = 0  |  strides = [65536, 65536, 4096, 1]  |  data = 0, sizeInBytes = 65536  |  location = in SRAM  |  sramOffset = 0x1000fffffd0fa000  |  "
    }
  }
  attr {
    key: "inputTensor:1"
    value {
      s: "hf8-7_175081  |  Sizes = [1,4096,14336]  |  hfloat8  |  expBias = 7, scale = 1  |    |  ModelParam = 0  |  strides = [58720256, 58720256, 14336, 1]  |  data = 0, sizeInBytes = 58720256  |  isAliased = tensor_154_odule/model/25/gate_proj/placeholder/1, type = alias, offset: 0  |  location = in DRAM  |  "
    }
  }
  attr {
    key: "outputTensor:0"
    value {
      s: "tensor_158  |  Sizes = [1,16,14336]  |  bf16  |  expBias = 0, scale = 1  |    |  ModelParam = 0  |  strides = [458752, 458752, 28672, 2]  |  data = 0, sizeInBytes = 458752  |  location = in DRAM  |  dramOffset = 0xbc100  |  "
    }
  }
}
node {
  name: "tensor_135_replaced_175006_bundle_1116/memcpy/0"
  op: "DmaMemcpy"
  input: "module/model/25/add_fwd_bf16/13370_complex/add_fwd_bf16_0_bundle_1116/op_0"
  attr {
    key: "Bundle_idx"
    value {
      s: "1116"
    }
  }
  attr {
    key: "Exec_idx"
    value {
      s: "60"
    }
  }
  attr {
    key: "Op_idx"
    value {
      s: "7"
    }
  }
  attr {
    key: "inputTensor:0"
    value {
      s: "tensor_135_replaced_175006_slice_0_0_0_0_0__0__bundle_1116_175669  |  Sizes = [1,16,4096]  |  bf16  |  expBias = 0, scale = 1  |    |  ModelParam = 0  |  strides = [131072, 131072, 8192, 2]  |  data = 0, sizeInBytes = 131072  |  location = in SRAM  |  sramOffset = 0x1000fffffd0ba000  |  "
    }
  }
  attr {
    key: "outputTensor:0"
    value {
      s: "tensor_135_replaced_175006  |  Sizes = [1,16,4096]  |  bf16  |  expBias = 0, scale = 1  |    |  ModelParam = 0  |  strides = [131072, 131072, 8192, 2]  |  data = 0, sizeInBytes = 131072  |  location = in DRAM  |  dramOffset = 0x12c100  |  "
    }
  }
}
node {
  name: "tensor_165_odule/model/25/down_proj/placeholder/1"
  op: "Placeholder"
  attr {
    key: "dtype"
    value {
      type: DT_INVALID
    }
  }
  attr {
    key: "shape"
    value {
      shape {
        dim {
          size: 4096
        }
        dim {
          size: 14336
        }
        dim {
          size: 1
        }
        dim {
          size: 1
        }
        dim {
          size: 1
        }
      }
    }
  }
  attr {
    key: "synDataType"
    value {
      s: "hfloat8"
    }
  }
}
node {
  name: "module/model/25/down_proj/fp8_gemm_bf16/13379_complex/fp8_gemm_bf16_2985/expand_dims_6"
  op: "ExpandDims"
  input: "tensor_165_odule/model/25/down_proj/placeholder/1"
  attr {
    key: "Bundle_idx"
    value {
      s: "N/A"
    }
  }
  attr {
    key: "Exec_idx"
    value {
      s: "61"
    }
  }
  attr {
    key: "Op_idx"
    value {
      s: "N/A"
    }
  }
  attr {
    key: "inputTensor:0"
    value {
      s: "tensor_165_odule/model/25/down_proj/placeholder/1  |  Sizes = [14336,4096]  |  hfloat8  |  expBias = 7, scale = 1  |    |  ModelParam = 0  |  strides = [58720256, 4096, 1]  |  data = 0, sizeInBytes = 58720256  |  isPersistent  |  location = in DRAM  |  dramOffset = 0x390000000000  |  userMemorySection(type=Persistent, id=57)  |  "
    }
  }
  attr {
    key: "outputTensor:0"
    value {
      s: "hf8-7_175089  |  Sizes = [1,14336,4096]  |  hfloat8  |  expBias = 7, scale = 1  |    |  ModelParam = 0  |  strides = [58720256, 58720256, 4096, 1]  |  data = 0, sizeInBytes = 58720256  |  isAliased = tensor_165_odule/model/25/down_proj/placeholder/1, type = alias, offset: 0  |  location = in DRAM  |  "
    }
  }
}
node {
  name: "fusedTPCNode_211_5_bundle_1120/op_0"
  op: "fused_kernel_0x13C9E4C4_3C1_bf16"
  input: "module/model/25/gate_proj/fp8_gemm_bf16/13375_complex/fp8_gemm_bf16_2983/batch_gemm_8_bundle_1116/op_6_gemm"
  input: "module/model/25/up_proj/fp8_gemm_bf16/13373_complex/fp8_gemm_bf16_2981/batch_gemm_8_bundle_1116/op_5_gemm"
  attr {
    key: "Bundle_idx"
    value {
      s: "1120"
    }
  }
  attr {
    key: "Exec_idx"
    value {
      s: "62"
    }
  }
  attr {
    key: "Op_idx"
    value {
      s: "0"
    }
  }
  attr {
    key: "inputTensor:0"
    value {
      s: "tensor_158  |  Sizes = [1,16,14336]  |  bf16  |  expBias = 0, scale = 1  |    |  ModelParam = 0  |  strides = [458752, 458752, 28672, 2]  |  data = 0, sizeInBytes = 458752  |  location = in DRAM  |  dramOffset = 0xbc100  |  "
    }
  }
  attr {
    key: "inputTensor:1"
    value {
      s: "tensor_149  |  Sizes = [1,16,14336]  |  bf16  |  expBias = 0, scale = 1  |    |  ModelParam = 0  |  strides = [458752, 458752, 28672, 2]  |  data = 0, sizeInBytes = 458752  |  location = in DRAM  |  dramOffset = 0x4c100  |  "
    }
  }
  attr {
    key: "outputTensor:0"
    value {
      s: "tensor_164_slice_0_0_0_0_0__0__bundle_1120_175716  |  Sizes = [1,16,14336]  |  hfloat8  |  expBias = 7, scale = 1  |    |  ModelParam = 0  |  strides = [229376, 229376, 14336, 1]  |  data = 0, sizeInBytes = 229376  |  location = in SRAM  |  sramOffset = 0x1000fffffd10a000  |  "
    }
  }
}
node {
  name: "module/model/25/down_proj/fp8_gemm_bf16/13379_complex/fp8_gemm_bf16_2985/batch_gemm_8_bundle_1120/op_1_gemm"
  op: "GEMM"
  input: "fusedTPCNode_211_5_bundle_1120/op_0"
  input: "module/model/25/down_proj/fp8_gemm_bf16/13379_complex/fp8_gemm_bf16_2985/expand_dims_6"
  attr {
    key: "Bundle_idx"
    value {
      s: "1120"
    }
  }
  attr {
    key: "Exec_idx"
    value {
      s: "63"
    }
  }
  attr {
    key: "Op_idx"
    value {
      s: "1"
    }
  }
  attr {
    key: "Parameters"
    value {
      s: "transpose_a=false, transpose_b=false"
    }
  }
  attr {
    key: "fp8BiasIn"
    value {
      s: "7"
    }
  }
  attr {
    key: "fp8BiasIn2"
    value {
      s: "11"
    }
  }
  attr {
    key: "fp8BiasOut"
    value {
      s: "0"
    }
  }
  attr {
    key: "inputTensor:0"
    value {
      s: "tensor_164_slice_0_0_0_0_0__0__bundle_1120_175716  |  Sizes = [1,16,14336]  |  hfloat8  |  expBias = 7, scale = 1  |    |  ModelParam = 0  |  strides = [229376, 229376, 14336, 1]  |  data = 0, sizeInBytes = 229376  |  location = in SRAM  |  sramOffset = 0x1000fffffd10a000  |  "
    }
  }
  attr {
    key: "inputTensor:1"
    value {
      s: "hf8-7_175089  |  Sizes = [1,14336,4096]  |  hfloat8  |  expBias = 7, scale = 1  |    |  ModelParam = 0  |  strides = [58720256, 58720256, 4096, 1]  |  data = 0, sizeInBytes = 58720256  |  isAliased = tensor_165_odule/model/25/down_proj/placeholder/1, type = alias, offset: 0  |  location = in DRAM  |  "
    }
  }
  attr {
    key: "outputTensor:0"
    value {
      s: "tensor_169_slice_0_0_0_0_0__0__bundle_1120_175718  |  Sizes = [1,16,4096]  |  bf16  |  expBias = 0, scale = 1  |    |  ModelParam = 0  |  strides = [131072, 131072, 8192, 2]  |  data = 0, sizeInBytes = 131072  |  location = in SRAM  |  sramOffset = 0x1000fffffd142000  |  "
    }
  }
}
node {
  name: "module/model/25/add_fwd_bf16/13380_complex/add_fwd_bf16_0_bundle_1120/op_2"
  op: "add_fwd_bf16"
  input: "tensor_135_replaced_175006_bundle_1116/memcpy/0"
  input: "module/model/25/down_proj/fp8_gemm_bf16/13379_complex/fp8_gemm_bf16_2985/batch_gemm_8_bundle_1120/op_1_gemm"
  input: "^module/model/25/input_layernorm/rms_norm_ex_fwd_bf16/13327_complex/rms_norm_ex_fwd_bf16_751/reshape_4"
  input: "^module/model/25/add_fwd_bf16/13370_complex/add_fwd_bf16_0_bundle_1116/op_0"
  attr {
    key: "Bundle_idx"
    value {
      s: "1120"
    }
  }
  attr {
    key: "Exec_idx"
    value {
      s: "64"
    }
  }
  attr {
    key: "Op_idx"
    value {
      s: "2"
    }
  }
  attr {
    key: "inputTensor:0"
    value {
      s: "tensor_135_replaced_175006  |  Sizes = [1,16,4096]  |  bf16  |  expBias = 0, scale = 1  |    |  ModelParam = 0  |  strides = [131072, 131072, 8192, 2]  |  data = 0, sizeInBytes = 131072  |  location = in DRAM  |  dramOffset = 0x12c100  |  "
    }
  }
  attr {
    key: "inputTensor:1"
    value {
      s: "tensor_169_slice_0_0_0_0_0__0__bundle_1120_175718  |  Sizes = [1,16,4096]  |  bf16  |  expBias = 0, scale = 1  |    |  ModelParam = 0  |  strides = [131072, 131072, 8192, 2]  |  data = 0, sizeInBytes = 131072  |  location = in SRAM  |  sramOffset = 0x1000fffffd142000  |  "
    }
  }
  attr {
    key: "outputTensor:0"
    value {
      s: "tensor_170  |  Sizes = [1,16,4096]  |  bf16  |  expBias = 0, scale = 1  |    |  ModelParam = 0  |  strides = [131072, 131072, 8192, 2]  |  data = 0, sizeInBytes = 131072  |  isPersistent  |  location = in DRAM  |  dramOffset = 0x90000000000  |  userMemorySection(type=Persistent, id=9)  |  "
    }
  }
}
node {
  name: "tensor_170"
  op: "OutputTensor"
  input: "module/model/25/add_fwd_bf16/13380_complex/add_fwd_bf16_0_bundle_1120/op_2"
  attr {
    key: "dtype"
    value {
      type: DT_BFLOAT16
    }
  }
  attr {
    key: "shape"
    value {
      shape {
        dim {
          size: 4096
        }
        dim {
          size: 16
        }
        dim {
          size: 1
        }
        dim {
          size: 1
        }
        dim {
          size: 1
        }
      }
    }
  }
  attr {
    key: "synDataType"
    value {
      s: "bf16"
    }
  }
}
