node {
  name: "tensor_4_odule/model/25/placeholder/0"
  op: "Placeholder"
  attr {
    key: "dtype"
    value {
      type: DT_INT32
    }
  }
  attr {
    key: "shape"
    value {
      shape {
        dim {
          size: 128
        }
        dim {
          size: 1
        }
        dim {
          size: 1
        }
        dim {
          size: 1
        }
        dim {
          size: 1
        }
      }
    }
  }
  attr {
    key: "synDataType"
    value {
      s: "int32"
    }
  }
}
node {
  name: "module/model/25/expand_dims/6729"
  op: "ExpandDims"
  input: "tensor_4_odule/model/25/placeholder/0"
  attr {
    key: "Bundle_idx"
    value {
      s: "N/A"
    }
  }
  attr {
    key: "Exec_idx"
    value {
      s: "0"
    }
  }
  attr {
    key: "Op_idx"
    value {
      s: "N/A"
    }
  }
  attr {
    key: "inputTensor:0"
    value {
      s: "tensor_4_odule/model/25/placeholder/0  |  Sizes = [128]  |  int32  |  expBias = 0, scale = 1  |    |  ModelParam = 0  |  strides = [512, 4]  |  data = 0, sizeInBytes = 512  |  isPersistent  |  location = in DRAM  |  dramOffset = 0x50000000000  |  userMemorySection(type=Persistent, id=5)  |  "
    }
  }
  attr {
    key: "outputTensor:0"
    value {
      s: "tensor_5_id_96237_module/model/25/aten__unsqueeze/1  |  Sizes = [1,128]  |  int32  |  expBias = 0, scale = 1  |    |  ModelParam = 0  |  strides = [512, 512, 4]  |  data = 0, sizeInBytes = 512  |  isAliased = tensor_4_odule/model/25/placeholder/0, type = alias, offset: 0  |  location = in DRAM  |  "
    }
  }
}
node {
  name: "tensor_6_odule/model/25/rotary_emb/placeholder/0"
  op: "Placeholder"
  attr {
    key: "dtype"
    value {
      type: DT_BFLOAT16
    }
  }
  attr {
    key: "shape"
    value {
      shape {
        dim {
          size: 128
        }
        dim {
          size: 131072
        }
        dim {
          size: 1
        }
        dim {
          size: 1
        }
        dim {
          size: 1
        }
      }
    }
  }
  attr {
    key: "synDataType"
    value {
      s: "bf16"
    }
  }
}
node {
  name: "module/model/25/rotary_emb/slice/6730"
  op: "Slice"
  input: "tensor_6_odule/model/25/rotary_emb/placeholder/0"
  attr {
    key: "Bundle_idx"
    value {
      s: "N/A"
    }
  }
  attr {
    key: "Exec_idx"
    value {
      s: "1"
    }
  }
  attr {
    key: "Op_idx"
    value {
      s: "N/A"
    }
  }
  attr {
    key: "inputTensor:0"
    value {
      s: "tensor_6_odule/model/25/rotary_emb/placeholder/0  |  Sizes = [131072,128]  |  bf16  |  expBias = 0, scale = 1  |    |  ModelParam = 0  |  strides = [33554432, 256, 2]  |  data = 0, sizeInBytes = 33554432  |  isPersistent  |  location = in DRAM  |  dramOffset = 0x60000000000  |  userMemorySection(type=Persistent, id=6)  |  "
    }
  }
  attr {
    key: "outputTensor:0"
    value {
      s: "tensor_7_id_96300_module/model/25/rotary_emb/aten__slice  |  Sizes = [128,128]  |  bf16  |  expBias = 0, scale = 1  |    |  ModelParam = 0  |  strides = [33554432, 256, 2]  |  data = 0, sizeInBytes = 32768  |  isAliased = tensor_6_odule/model/25/rotary_emb/placeholder/0, type = slice, offset: 0  |  location = in DRAM  |  "
    }
  }
}
node {
  name: "tensor_8_odule/model/25/rotary_emb/placeholder/1"
  op: "Placeholder"
  attr {
    key: "dtype"
    value {
      type: DT_FLOAT
    }
  }
  attr {
    key: "shape"
    value {
      shape {
        dim {
          size: 1
        }
        dim {
          size: 1
        }
        dim {
          size: 1
        }
        dim {
          size: 1
        }
        dim {
          size: 1
        }
      }
    }
  }
  attr {
    key: "synDataType"
    value {
      s: "float32"
    }
  }
}
node {
  name: "module/model/25/rotary_emb/cast_f32_to_bf16/6731"
  op: "cast_f32_to_bf16"
  input: "tensor_8_odule/model/25/rotary_emb/placeholder/1"
  attr {
    key: "Bundle_idx"
    value {
      s: "N/A"
    }
  }
  attr {
    key: "Exec_idx"
    value {
      s: "2"
    }
  }
  attr {
    key: "Op_idx"
    value {
      s: "N/A"
    }
  }
  attr {
    key: "inputTensor:0"
    value {
      s: "tensor_8_odule/model/25/rotary_emb/placeholder/1  |  Sizes = [1]  |  float32  |  expBias = 0, scale = 1  |    |  ModelParam = 0  |  strides = [4, 4]  |  data = 0, sizeInBytes = 4  |  isPersistent  |  location = in DRAM  |  dramOffset = 0x70000000000  |  userMemorySection(type=Persistent, id=7)  |  "
    }
  }
  attr {
    key: "outputTensor:0"
    value {
      s: "tensor_10  |  Sizes = [1]  |  bf16  |  expBias = 0, scale = 1  |    |  ModelParam = 0  |  strides = [2, 2]  |  data = 0, sizeInBytes = 2  |  location = in DRAM  |  dramOffset = 0x40000000000  |  "
    }
  }
}
node {
  name: "module/model/25/rotary_emb/mult_fwd_bf16/6732_complex/mult_fwd_bf16_0"
  op: "mult_fwd_bf16"
  input: "module/model/25/rotary_emb/slice/6730"
  input: "module/model/25/rotary_emb/cast_f32_to_bf16/6731"
  attr {
    key: "Bundle_idx"
    value {
      s: "N/A"
    }
  }
  attr {
    key: "Exec_idx"
    value {
      s: "3"
    }
  }
  attr {
    key: "Op_idx"
    value {
      s: "N/A"
    }
  }
  attr {
    key: "inputTensor:0"
    value {
      s: "tensor_7_id_96300_module/model/25/rotary_emb/aten__slice  |  Sizes = [128,128]  |  bf16  |  expBias = 0, scale = 1  |    |  ModelParam = 0  |  strides = [33554432, 256, 2]  |  data = 0, sizeInBytes = 32768  |  isAliased = tensor_6_odule/model/25/rotary_emb/placeholder/0, type = slice, offset: 0  |  location = in DRAM  |  "
    }
  }
  attr {
    key: "inputTensor:1"
    value {
      s: "tensor_10  |  Sizes = [1]  |  bf16  |  expBias = 0, scale = 1  |    |  ModelParam = 0  |  strides = [2, 2]  |  data = 0, sizeInBytes = 2  |  location = in DRAM  |  dramOffset = 0x40000000000  |  "
    }
  }
  attr {
    key: "outputTensor:0"
    value {
      s: "tensor_9_id_96302_module/model/25/rotary_emb/aten__mul  |  Sizes = [128,128]  |  bf16  |  expBias = 0, scale = 1  |    |  ModelParam = 0  |  strides = [32768, 256, 2]  |  data = 0, sizeInBytes = 32768  |  location = in DRAM  |  dramOffset = 0x40000000080  |  "
    }
  }
}
node {
  name: "tensor_14_odule/model/25/rotary_emb/placeholder/0"
  op: "Placeholder"
  attr {
    key: "dtype"
    value {
      type: DT_BFLOAT16
    }
  }
  attr {
    key: "shape"
    value {
      shape {
        dim {
          size: 128
        }
        dim {
          size: 131072
        }
        dim {
          size: 1
        }
        dim {
          size: 1
        }
        dim {
          size: 1
        }
      }
    }
  }
  attr {
    key: "synDataType"
    value {
      s: "bf16"
    }
  }
}
node {
  name: "module/model/25/rotary_emb/slice/6736"
  op: "Slice"
  input: "tensor_14_odule/model/25/rotary_emb/placeholder/0"
  attr {
    key: "Bundle_idx"
    value {
      s: "N/A"
    }
  }
  attr {
    key: "Exec_idx"
    value {
      s: "4"
    }
  }
  attr {
    key: "Op_idx"
    value {
      s: "N/A"
    }
  }
  attr {
    key: "inputTensor:0"
    value {
      s: "tensor_14_odule/model/25/rotary_emb/placeholder/0  |  Sizes = [131072,128]  |  bf16  |  expBias = 0, scale = 1  |    |  ModelParam = 0  |  strides = [33554432, 256, 2]  |  data = 0, sizeInBytes = 33554432  |  isPersistent  |  location = in DRAM  |  dramOffset = 0x80000000000  |  userMemorySection(type=Persistent, id=8)  |  "
    }
  }
  attr {
    key: "outputTensor:0"
    value {
      s: "tensor_15_id_96304_module/model/25/rotary_emb/aten__slice  |  Sizes = [128,128]  |  bf16  |  expBias = 0, scale = 1  |    |  ModelParam = 0  |  strides = [33554432, 256, 2]  |  data = 0, sizeInBytes = 32768  |  isAliased = tensor_14_odule/model/25/rotary_emb/placeholder/0, type = slice, offset: 0  |  location = in DRAM  |  "
    }
  }
}
node {
  name: "module/model/25/rotary_emb/mult_fwd_bf16/6738_complex/mult_fwd_bf16_0"
  op: "mult_fwd_bf16"
  input: "module/model/25/rotary_emb/slice/6736"
  input: "module/model/25/rotary_emb/cast_f32_to_bf16/6731"
  attr {
    key: "Bundle_idx"
    value {
      s: "N/A"
    }
  }
  attr {
    key: "Exec_idx"
    value {
      s: "5"
    }
  }
  attr {
    key: "Op_idx"
    value {
      s: "N/A"
    }
  }
  attr {
    key: "inputTensor:0"
    value {
      s: "tensor_15_id_96304_module/model/25/rotary_emb/aten__slice  |  Sizes = [128,128]  |  bf16  |  expBias = 0, scale = 1  |    |  ModelParam = 0  |  strides = [33554432, 256, 2]  |  data = 0, sizeInBytes = 32768  |  isAliased = tensor_14_odule/model/25/rotary_emb/placeholder/0, type = slice, offset: 0  |  location = in DRAM  |  "
    }
  }
  attr {
    key: "inputTensor:1"
    value {
      s: "tensor_10  |  Sizes = [1]  |  bf16  |  expBias = 0, scale = 1  |    |  ModelParam = 0  |  strides = [2, 2]  |  data = 0, sizeInBytes = 2  |  location = in DRAM  |  dramOffset = 0x40000000000  |  "
    }
  }
  attr {
    key: "outputTensor:0"
    value {
      s: "tensor_16_id_96306_module/model/25/rotary_emb/aten__mul  |  Sizes = [128,128]  |  bf16  |  expBias = 0, scale = 1  |    |  ModelParam = 0  |  strides = [32768, 256, 2]  |  data = 0, sizeInBytes = 32768  |  location = in DRAM  |  dramOffset = 0x40000008080  |  "
    }
  }
}
node {
  name: "tensor_21_odule/model/25/input_layernorm/placeholder/0"
  op: "Placeholder"
  attr {
    key: "dtype"
    value {
      type: DT_BFLOAT16
    }
  }
  attr {
    key: "shape"
    value {
      shape {
        dim {
          size: 4096
        }
        dim {
          size: 128
        }
        dim {
          size: 1
        }
        dim {
          size: 1
        }
        dim {
          size: 1
        }
      }
    }
  }
  attr {
    key: "synDataType"
    value {
      s: "bf16"
    }
  }
}
node {
  name: "module/model/25/input_layernorm/rms_norm_ex_fwd_bf16/6742_complex/rms_norm_ex_fwd_bf16_361/reshape_4"
  op: "Reshape"
  input: "tensor_21_odule/model/25/input_layernorm/placeholder/0"
  attr {
    key: "Bundle_idx"
    value {
      s: "N/A"
    }
  }
  attr {
    key: "Exec_idx"
    value {
      s: "6"
    }
  }
  attr {
    key: "Op_idx"
    value {
      s: "N/A"
    }
  }
  attr {
    key: "inputTensor:0"
    value {
      s: "tensor_21_odule/model/25/input_layernorm/placeholder/0  |  Sizes = [1,128,4096]  |  bf16  |  expBias = 0, scale = 1  |    |  ModelParam = 0  |  strides = [1048576, 1048576, 8192, 2]  |  data = 0, sizeInBytes = 1048576  |  isPersistent  |  location = in DRAM  |  dramOffset = 0x90000000000  |  userMemorySection(type=Persistent, id=9)  |  "
    }
  }
  attr {
    key: "outputTensor:0"
    value {
      s: "bf16-5_84460  |  Sizes = [128,4096]  |  bf16  |  expBias = 0, scale = 1  |    |  ModelParam = 0  |  strides = [1048576, 8192, 2]  |  data = 0, sizeInBytes = 1048576  |  isAliased = tensor_21_odule/model/25/input_layernorm/placeholder/0, type = alias, offset: 0  |  location = in DRAM  |  "
    }
  }
}
node {
  name: "tensor_31_odule/model/25/k_proj/placeholder/1"
  op: "Placeholder"
  attr {
    key: "dtype"
    value {
      type: DT_INVALID
    }
  }
  attr {
    key: "shape"
    value {
      shape {
        dim {
          size: 1024
        }
        dim {
          size: 4096
        }
        dim {
          size: 1
        }
        dim {
          size: 1
        }
        dim {
          size: 1
        }
      }
    }
  }
  attr {
    key: "synDataType"
    value {
      s: "hfloat8"
    }
  }
}
node {
  name: "module/model/25/k_proj/fp8_gemm_bf16/6744_complex/fp8_gemm_bf16_1429/expand_dims_6"
  op: "ExpandDims"
  input: "tensor_31_odule/model/25/k_proj/placeholder/1"
  attr {
    key: "Bundle_idx"
    value {
      s: "N/A"
    }
  }
  attr {
    key: "Exec_idx"
    value {
      s: "7"
    }
  }
  attr {
    key: "Op_idx"
    value {
      s: "N/A"
    }
  }
  attr {
    key: "inputTensor:0"
    value {
      s: "tensor_31_odule/model/25/k_proj/placeholder/1  |  Sizes = [4096,1024]  |  hfloat8  |  expBias = 7, scale = 1  |    |  ModelParam = 0  |  strides = [4194304, 1024, 1]  |  data = 0, sizeInBytes = 4194304  |  isPersistent  |  location = in DRAM  |  dramOffset = 0xc0000000000  |  userMemorySection(type=Persistent, id=12)  |  "
    }
  }
  attr {
    key: "outputTensor:0"
    value {
      s: "hf8-7_84467  |  Sizes = [1,4096,1024]  |  hfloat8  |  expBias = 7, scale = 1  |    |  ModelParam = 0  |  strides = [4194304, 4194304, 1024, 1]  |  data = 0, sizeInBytes = 4194304  |  isAliased = tensor_31_odule/model/25/k_proj/placeholder/1, type = alias, offset: 0  |  location = in DRAM  |  "
    }
  }
}
node {
  name: "module/model/25/rotary_pos_embedding_fwd_bf16/6747_complex/rotary_pos_embedding_fwd_bf16_178/gather_nd_mxnet_fwd_bf16_8"
  op: "gather_nd_mxnet_fwd_bf16"
  input: "module/model/25/rotary_emb/mult_fwd_bf16/6738_complex/mult_fwd_bf16_0"
  input: "module/model/25/expand_dims/6729"
  attr {
    key: "Bundle_idx"
    value {
      s: "N/A"
    }
  }
  attr {
    key: "Exec_idx"
    value {
      s: "8"
    }
  }
  attr {
    key: "Op_idx"
    value {
      s: "N/A"
    }
  }
  attr {
    key: "inputTensor:0"
    value {
      s: "tensor_16_id_96306_module/model/25/rotary_emb/aten__mul  |  Sizes = [128,128]  |  bf16  |  expBias = 0, scale = 1  |    |  ModelParam = 0  |  strides = [32768, 256, 2]  |  data = 0, sizeInBytes = 32768  |  location = in DRAM  |  dramOffset = 0x40000008080  |  "
    }
  }
  attr {
    key: "inputTensor:1"
    value {
      s: "tensor_5_id_96237_module/model/25/aten__unsqueeze/1  |  Sizes = [1,128]  |  int32  |  expBias = 0, scale = 1  |    |  ModelParam = 0  |  strides = [512, 512, 4]  |  data = 0, sizeInBytes = 512  |  isAliased = tensor_4_odule/model/25/placeholder/0, type = alias, offset: 0  |  location = in DRAM  |  "
    }
  }
  attr {
    key: "outputTensor:0"
    value {
      s: "bf16-9_84472  |  Sizes = [128,128]  |  bf16  |  expBias = 0, scale = 1  |    |  ModelParam = 0  |  strides = [32768, 256, 2]  |  data = 0, sizeInBytes = 32768  |  isAliased = bf16-13_84474, type = alias, offset: 0  |  location = in DRAM  |  "
    }
  }
}
node {
  name: "module/model/25/rotary_pos_embedding_fwd_bf16/6747_complex/rotary_pos_embedding_fwd_bf16_178/gather_nd_mxnet_fwd_bf16_10"
  op: "gather_nd_mxnet_fwd_bf16"
  input: "module/model/25/rotary_emb/mult_fwd_bf16/6732_complex/mult_fwd_bf16_0"
  input: "module/model/25/expand_dims/6729"
  attr {
    key: "Bundle_idx"
    value {
      s: "N/A"
    }
  }
  attr {
    key: "Exec_idx"
    value {
      s: "9"
    }
  }
  attr {
    key: "Op_idx"
    value {
      s: "N/A"
    }
  }
  attr {
    key: "inputTensor:0"
    value {
      s: "tensor_9_id_96302_module/model/25/rotary_emb/aten__mul  |  Sizes = [128,128]  |  bf16  |  expBias = 0, scale = 1  |    |  ModelParam = 0  |  strides = [32768, 256, 2]  |  data = 0, sizeInBytes = 32768  |  location = in DRAM  |  dramOffset = 0x40000000080  |  "
    }
  }
  attr {
    key: "inputTensor:1"
    value {
      s: "tensor_5_id_96237_module/model/25/aten__unsqueeze/1  |  Sizes = [1,128]  |  int32  |  expBias = 0, scale = 1  |    |  ModelParam = 0  |  strides = [512, 512, 4]  |  data = 0, sizeInBytes = 512  |  isAliased = tensor_4_odule/model/25/placeholder/0, type = alias, offset: 0  |  location = in DRAM  |  "
    }
  }
  attr {
    key: "outputTensor:0"
    value {
      s: "bf16-11_84473  |  Sizes = [128,128]  |  bf16  |  expBias = 0, scale = 1  |    |  ModelParam = 0  |  strides = [32768, 256, 2]  |  data = 0, sizeInBytes = 32768  |  isAliased = bf16-15_84475, type = alias, offset: 0  |  location = in DRAM  |  "
    }
  }
}
node {
  name: "module/model/25/rotary_pos_embedding_fwd_bf16/6747_complex/rotary_pos_embedding_fwd_bf16_178/expand_dims_12"
  op: "ExpandDims"
  input: "module/model/25/rotary_pos_embedding_fwd_bf16/6747_complex/rotary_pos_embedding_fwd_bf16_178/gather_nd_mxnet_fwd_bf16_8"
  attr {
    key: "Bundle_idx"
    value {
      s: "N/A"
    }
  }
  attr {
    key: "Exec_idx"
    value {
      s: "10"
    }
  }
  attr {
    key: "Op_idx"
    value {
      s: "N/A"
    }
  }
  attr {
    key: "inputTensor:0"
    value {
      s: "bf16-9_84472  |  Sizes = [128,128]  |  bf16  |  expBias = 0, scale = 1  |    |  ModelParam = 0  |  strides = [32768, 256, 2]  |  data = 0, sizeInBytes = 32768  |  isAliased = bf16-13_84474, type = alias, offset: 0  |  location = in DRAM  |  "
    }
  }
  attr {
    key: "outputTensor:0"
    value {
      s: "bf16-13_84474  |  Sizes = [1,128,128]  |  bf16  |  expBias = 0, scale = 1  |    |  ModelParam = 0  |  strides = [32768, 32768, 256, 2]  |  data = 0, sizeInBytes = 32768  |  location = in DRAM  |  dramOffset = 0x40000010080  |  "
    }
  }
}
node {
  name: "module/model/25/rotary_pos_embedding_fwd_bf16/6747_complex/rotary_pos_embedding_fwd_bf16_178/expand_dims_14"
  op: "ExpandDims"
  input: "module/model/25/rotary_pos_embedding_fwd_bf16/6747_complex/rotary_pos_embedding_fwd_bf16_178/gather_nd_mxnet_fwd_bf16_10"
  attr {
    key: "Bundle_idx"
    value {
      s: "N/A"
    }
  }
  attr {
    key: "Exec_idx"
    value {
      s: "11"
    }
  }
  attr {
    key: "Op_idx"
    value {
      s: "N/A"
    }
  }
  attr {
    key: "inputTensor:0"
    value {
      s: "bf16-11_84473  |  Sizes = [128,128]  |  bf16  |  expBias = 0, scale = 1  |    |  ModelParam = 0  |  strides = [32768, 256, 2]  |  data = 0, sizeInBytes = 32768  |  isAliased = bf16-15_84475, type = alias, offset: 0  |  location = in DRAM  |  "
    }
  }
  attr {
    key: "outputTensor:0"
    value {
      s: "bf16-15_84475  |  Sizes = [1,128,128]  |  bf16  |  expBias = 0, scale = 1  |    |  ModelParam = 0  |  strides = [32768, 32768, 256, 2]  |  data = 0, sizeInBytes = 32768  |  location = in DRAM  |  dramOffset = 0x120000000000  |  "
    }
  }
}
node {
  name: "tensor_56_odule/model/25/v_proj/placeholder/1"
  op: "Placeholder"
  attr {
    key: "dtype"
    value {
      type: DT_INVALID
    }
  }
  attr {
    key: "shape"
    value {
      shape {
        dim {
          size: 1024
        }
        dim {
          size: 4096
        }
        dim {
          size: 1
        }
        dim {
          size: 1
        }
        dim {
          size: 1
        }
      }
    }
  }
  attr {
    key: "synDataType"
    value {
      s: "hfloat8"
    }
  }
}
node {
  name: "module/model/25/v_proj/fp8_gemm_bf16/6753_complex/fp8_gemm_hf8_1431/expand_dims_8"
  op: "ExpandDims"
  input: "tensor_56_odule/model/25/v_proj/placeholder/1"
  attr {
    key: "Bundle_idx"
    value {
      s: "N/A"
    }
  }
  attr {
    key: "Exec_idx"
    value {
      s: "12"
    }
  }
  attr {
    key: "Op_idx"
    value {
      s: "N/A"
    }
  }
  attr {
    key: "inputTensor:0"
    value {
      s: "tensor_56_odule/model/25/v_proj/placeholder/1  |  Sizes = [4096,1024]  |  hfloat8  |  expBias = 7, scale = 1  |    |  ModelParam = 0  |  strides = [4194304, 1024, 1]  |  data = 0, sizeInBytes = 4194304  |  isPersistent  |  location = in DRAM  |  dramOffset = 0x150000000000  |  userMemorySection(type=Persistent, id=21)  |  "
    }
  }
  attr {
    key: "outputTensor:0"
    value {
      s: "hf8-9_84480  |  Sizes = [1,4096,1024]  |  hfloat8  |  expBias = 7, scale = 1  |    |  ModelParam = 0  |  strides = [4194304, 4194304, 1024, 1]  |  data = 0, sizeInBytes = 4194304  |  isAliased = tensor_56_odule/model/25/v_proj/placeholder/1, type = alias, offset: 0  |  location = in DRAM  |  "
    }
  }
}
node {
  name: "tensor_71_odule/model/25/fused_scaled_dot_product_attention/placeholder/0"
  op: "Placeholder"
  attr {
    key: "dtype"
    value {
      type: DT_BFLOAT16
    }
  }
  attr {
    key: "shape"
    value {
      shape {
        dim {
          size: 128
        }
        dim {
          size: 128
        }
        dim {
          size: 1
        }
        dim {
          size: 1
        }
        dim {
          size: 1
        }
      }
    }
  }
  attr {
    key: "synDataType"
    value {
      s: "bf16"
    }
  }
}
node {
  name: "module/model/25/fused_scaled_dot_product_attention/expand_dims/6764"
  op: "Reshape"
  input: "tensor_71_odule/model/25/fused_scaled_dot_product_attention/placeholder/0"
  attr {
    key: "Bundle_idx"
    value {
      s: "N/A"
    }
  }
  attr {
    key: "Exec_idx"
    value {
      s: "13"
    }
  }
  attr {
    key: "Op_idx"
    value {
      s: "N/A"
    }
  }
  attr {
    key: "inputTensor:0"
    value {
      s: "tensor_71_odule/model/25/fused_scaled_dot_product_attention/placeholder/0  |  Sizes = [128,128]  |  bf16  |  expBias = 0, scale = 1  |    |  ModelParam = 0  |  strides = [32768, 256, 2]  |  data = 0, sizeInBytes = 32768  |  isPersistent  |  location = in DRAM  |  dramOffset = 0x1c0000000000  |  userMemorySection(type=Persistent, id=28)  |  "
    }
  }
  attr {
    key: "outputTensor:0"
    value {
      s: "tensor_77_id_96409_module/model/25/fused_scaled_dot_product_attention/aten__unsqueeze  |  Sizes = [1,1,1,128,128]  |  bf16  |  expBias = 0, scale = 1  |    |  ModelParam = 0  |  strides = [32768, 32768, 32768, 32768, 256, 2]  |  data = 0, sizeInBytes = 32768  |  isAliased = tensor_71_odule/model/25/fused_scaled_dot_product_attention/placeholder/0, type = alias, offset: 0  |  location = in DRAM  |  "
    }
  }
}
node {
  name: "tensor_93_odule/model/25/q_proj/placeholder/1"
  op: "Placeholder"
  attr {
    key: "dtype"
    value {
      type: DT_INVALID
    }
  }
  attr {
    key: "shape"
    value {
      shape {
        dim {
          size: 4096
        }
        dim {
          size: 4096
        }
        dim {
          size: 1
        }
        dim {
          size: 1
        }
        dim {
          size: 1
        }
      }
    }
  }
  attr {
    key: "synDataType"
    value {
      s: "hfloat8"
    }
  }
}
node {
  name: "module/model/25/q_proj/fp8_gemm_bf16/6771_complex/fp8_gemm_bf16_1433/expand_dims_6"
  op: "ExpandDims"
  input: "tensor_93_odule/model/25/q_proj/placeholder/1"
  attr {
    key: "Bundle_idx"
    value {
      s: "N/A"
    }
  }
  attr {
    key: "Exec_idx"
    value {
      s: "14"
    }
  }
  attr {
    key: "Op_idx"
    value {
      s: "N/A"
    }
  }
  attr {
    key: "inputTensor:0"
    value {
      s: "tensor_93_odule/model/25/q_proj/placeholder/1  |  Sizes = [4096,4096]  |  hfloat8  |  expBias = 7, scale = 1  |    |  ModelParam = 0  |  strides = [16777216, 4096, 1]  |  data = 0, sizeInBytes = 16777216  |  isPersistent  |  location = in DRAM  |  dramOffset = 0x200000000000  |  userMemorySection(type=Persistent, id=32)  |  "
    }
  }
  attr {
    key: "outputTensor:0"
    value {
      s: "hf8-7_84484  |  Sizes = [1,4096,4096]  |  hfloat8  |  expBias = 7, scale = 1  |    |  ModelParam = 0  |  strides = [16777216, 16777216, 4096, 1]  |  data = 0, sizeInBytes = 16777216  |  isAliased = tensor_93_odule/model/25/q_proj/placeholder/1, type = alias, offset: 0  |  location = in DRAM  |  "
    }
  }
}
node {
  name: "tensor_22_odule/model/25/input_layernorm/placeholder/1"
  op: "Placeholder"
  attr {
    key: "dtype"
    value {
      type: DT_BFLOAT16
    }
  }
  attr {
    key: "shape"
    value {
      shape {
        dim {
          size: 4096
        }
        dim {
          size: 1
        }
        dim {
          size: 1
        }
        dim {
          size: 1
        }
        dim {
          size: 1
        }
      }
    }
  }
  attr {
    key: "synDataType"
    value {
      s: "bf16"
    }
  }
}
node {
  name: "module/model/25/input_layernorm/rms_norm_ex_fwd_bf16/6742_complex/rms_norm_ex_fwd_bf16_361/rms_norm_fwd_bf16_6_bundle_536/op_0"
  op: "rms_norm_fwd_bf16"
  input: "module/model/25/input_layernorm/rms_norm_ex_fwd_bf16/6742_complex/rms_norm_ex_fwd_bf16_361/reshape_4"
  input: "tensor_22_odule/model/25/input_layernorm/placeholder/1"
  attr {
    key: "Bundle_idx"
    value {
      s: "536"
    }
  }
  attr {
    key: "Exec_idx"
    value {
      s: "15"
    }
  }
  attr {
    key: "Op_idx"
    value {
      s: "0"
    }
  }
  attr {
    key: "inputTensor:0"
    value {
      s: "bf16-5_84460  |  Sizes = [128,4096]  |  bf16  |  expBias = 0, scale = 1  |    |  ModelParam = 0  |  strides = [1048576, 8192, 2]  |  data = 0, sizeInBytes = 1048576  |  isAliased = tensor_21_odule/model/25/input_layernorm/placeholder/0, type = alias, offset: 0  |  location = in DRAM  |  "
    }
  }
  attr {
    key: "inputTensor:1"
    value {
      s: "tensor_22_odule/model/25/input_layernorm/placeholder/1  |  Sizes = [4096]  |  bf16  |  expBias = 0, scale = 1  |    |  ModelParam = 0  |  strides = [8192, 2]  |  data = 0, sizeInBytes = 8192  |  isPersistent  |  location = in DRAM  |  dramOffset = 0xa0000000000  |  userMemorySection(type=Persistent, id=10)  |  "
    }
  }
  attr {
    key: "outputTensor:0"
    value {
      s: "bf16-7_84461_slice_0_0_0_0_0__0__bundle_536_85069  |  Sizes = [128,4096]  |  bf16  |  expBias = 0, scale = 1  |    |  ModelParam = 0  |  strides = [1048576, 8192, 2]  |  data = 0, sizeInBytes = 1048576  |  isAliased = tensor-84701_slice_0_0_0_0_0__0__bundle_536_85071, type = alias, offset: 0  |  location = in SRAM  |  sramOffset = 0x1000fffffd050000  |  "
    }
  }
  attr {
    key: "outputTensor:1"
    value {
      s: "f32-8_84462  |  Sizes = [128,1]  |  float32  |  expBias = 0, scale = 1  |    |  ModelParam = 0  |  strides = [512, 4, 4]  |  data = 0, sizeInBytes = 512  |  location = in DRAM  |  dramOffset = 0x40000018080  |  "
    }
  }
}
node {
  name: "f32-8_84462"
  op: "OutputTensor"
  input: "module/model/25/input_layernorm/rms_norm_ex_fwd_bf16/6742_complex/rms_norm_ex_fwd_bf16_361/rms_norm_fwd_bf16_6_bundle_536/op_0"
  attr {
    key: "dtype"
    value {
      type: DT_FLOAT
    }
  }
  attr {
    key: "shape"
    value {
      shape {
        dim {
          size: 1
        }
        dim {
          size: 128
        }
        dim {
          size: 1
        }
        dim {
          size: 1
        }
        dim {
          size: 1
        }
      }
    }
  }
  attr {
    key: "synDataType"
    value {
      s: "float32"
    }
  }
}
node {
  name: "reshape_0_0_bundle_536/op_1"
  op: "Reshape"
  input: "module/model/25/input_layernorm/rms_norm_ex_fwd_bf16/6742_complex/rms_norm_ex_fwd_bf16_361/rms_norm_fwd_bf16_6_bundle_536/op_0"
  attr {
    key: "Bundle_idx"
    value {
      s: "536"
    }
  }
  attr {
    key: "Exec_idx"
    value {
      s: "16"
    }
  }
  attr {
    key: "Op_idx"
    value {
      s: "1"
    }
  }
  attr {
    key: "inputTensor:0"
    value {
      s: "bf16-7_84461_slice_0_0_0_0_0__0__bundle_536_85069  |  Sizes = [128,4096]  |  bf16  |  expBias = 0, scale = 1  |    |  ModelParam = 0  |  strides = [1048576, 8192, 2]  |  data = 0, sizeInBytes = 1048576  |  isAliased = tensor-84701_slice_0_0_0_0_0__0__bundle_536_85071, type = alias, offset: 0  |  location = in SRAM  |  sramOffset = 0x1000fffffd050000  |  "
    }
  }
  attr {
    key: "outputTensor:0"
    value {
      s: "tensor-84701_slice_0_0_0_0_0__0__bundle_536_85071  |  Sizes = [1,128,4096]  |  bf16  |  expBias = 0, scale = 1  |    |  ModelParam = 0  |  strides = [1048576, 1048576, 8192, 2]  |  data = 0, sizeInBytes = 1048576  |  location = in SRAM  |  sramOffset = 0x1000fffffd050000  |  "
    }
  }
}
node {
  name: "fusedTPCNode_112_0_bundle_536/op_2"
  op: "fused_kernel_0xEBEC7C21_1D7_hf8"
  input: "reshape_0_0_bundle_536/op_1"
  attr {
    key: "Bundle_idx"
    value {
      s: "536"
    }
  }
  attr {
    key: "Exec_idx"
    value {
      s: "17"
    }
  }
  attr {
    key: "Op_idx"
    value {
      s: "2"
    }
  }
  attr {
    key: "inputTensor:0"
    value {
      s: "tensor-84701_slice_0_0_0_0_0__0__bundle_536_85071  |  Sizes = [1,128,4096]  |  bf16  |  expBias = 0, scale = 1  |    |  ModelParam = 0  |  strides = [1048576, 1048576, 8192, 2]  |  data = 0, sizeInBytes = 1048576  |  location = in SRAM  |  sramOffset = 0x1000fffffd050000  |  "
    }
  }
  attr {
    key: "outputTensor:0"
    value {
      s: "tensor_30_slice_0_0_0_0_0__0__bundle_536_85072  |  Sizes = [1,128,4096]  |  hfloat8  |  expBias = 7, scale = 1  |    |  ModelParam = 0  |  strides = [524288, 524288, 4096, 1]  |  data = 0, sizeInBytes = 524288  |  location = in SRAM  |  sramOffset = 0x1000fffffd150000  |  "
    }
  }
}
node {
  name: "module/model/25/k_proj/fp8_gemm_bf16/6744_complex/fp8_gemm_bf16_1429/batch_gemm_8_bundle_536/op_3_gemm"
  op: "GEMM"
  input: "fusedTPCNode_112_0_bundle_536/op_2"
  input: "module/model/25/k_proj/fp8_gemm_bf16/6744_complex/fp8_gemm_bf16_1429/expand_dims_6"
  attr {
    key: "Bundle_idx"
    value {
      s: "536"
    }
  }
  attr {
    key: "Exec_idx"
    value {
      s: "18"
    }
  }
  attr {
    key: "Op_idx"
    value {
      s: "3"
    }
  }
  attr {
    key: "Parameters"
    value {
      s: "transpose_a=false, transpose_b=false"
    }
  }
  attr {
    key: "fp8BiasIn"
    value {
      s: "7"
    }
  }
  attr {
    key: "fp8BiasIn2"
    value {
      s: "15"
    }
  }
  attr {
    key: "fp8BiasOut"
    value {
      s: "0"
    }
  }
  attr {
    key: "inputTensor:0"
    value {
      s: "tensor_30_slice_0_0_0_0_0__0__bundle_536_85072  |  Sizes = [1,128,4096]  |  hfloat8  |  expBias = 7, scale = 1  |    |  ModelParam = 0  |  strides = [524288, 524288, 4096, 1]  |  data = 0, sizeInBytes = 524288  |  location = in SRAM  |  sramOffset = 0x1000fffffd150000  |  "
    }
  }
  attr {
    key: "inputTensor:1"
    value {
      s: "hf8-7_84467  |  Sizes = [1,4096,1024]  |  hfloat8  |  expBias = 7, scale = 1  |    |  ModelParam = 0  |  strides = [4194304, 4194304, 1024, 1]  |  data = 0, sizeInBytes = 4194304  |  isAliased = tensor_31_odule/model/25/k_proj/placeholder/1, type = alias, offset: 0  |  location = in DRAM  |  "
    }
  }
  attr {
    key: "outputTensor:0"
    value {
      s: "tensor_35  |  Sizes = [1,128,1024]  |  bf16  |  expBias = 0, scale = 1  |    |  ModelParam = 0  |  strides = [262144, 262144, 2048, 2]  |  data = 0, sizeInBytes = 262144  |  isAliased = tensor_36_id_96292_module/model/25/aten__view, type = alias, offset: 0  |  location = in DRAM  |  "
    }
  }
}
node {
  name: "module/model/25/v_proj/fp8_gemm_bf16/6753_complex/fp8_gemm_hf8_1431/batch_gemm_10_bundle_536/op_4_gemm"
  op: "GEMM"
  input: "fusedTPCNode_112_0_bundle_536/op_2"
  input: "module/model/25/v_proj/fp8_gemm_bf16/6753_complex/fp8_gemm_hf8_1431/expand_dims_8"
  attr {
    key: "Bundle_idx"
    value {
      s: "536"
    }
  }
  attr {
    key: "Exec_idx"
    value {
      s: "19"
    }
  }
  attr {
    key: "Op_idx"
    value {
      s: "4"
    }
  }
  attr {
    key: "Parameters"
    value {
      s: "transpose_a=false, transpose_b=false"
    }
  }
  attr {
    key: "fp8BiasIn"
    value {
      s: "7"
    }
  }
  attr {
    key: "fp8BiasIn2"
    value {
      s: "15"
    }
  }
  attr {
    key: "fp8BiasOut"
    value {
      s: "7"
    }
  }
  attr {
    key: "inputTensor:0"
    value {
      s: "tensor_30_slice_0_0_0_0_0__0__bundle_536_85072  |  Sizes = [1,128,4096]  |  hfloat8  |  expBias = 7, scale = 1  |    |  ModelParam = 0  |  strides = [524288, 524288, 4096, 1]  |  data = 0, sizeInBytes = 524288  |  location = in SRAM  |  sramOffset = 0x1000fffffd150000  |  "
    }
  }
  attr {
    key: "inputTensor:1"
    value {
      s: "hf8-9_84480  |  Sizes = [1,4096,1024]  |  hfloat8  |  expBias = 7, scale = 1  |    |  ModelParam = 0  |  strides = [4194304, 4194304, 1024, 1]  |  data = 0, sizeInBytes = 4194304  |  isAliased = tensor_56_odule/model/25/v_proj/placeholder/1, type = alias, offset: 0  |  location = in DRAM  |  "
    }
  }
  attr {
    key: "outputTensor:0"
    value {
      s: "tensor_60_c84418  |  Sizes = [1,128,1024]  |  hfloat8  |  expBias = 7, scale = 1  |    |  ModelParam = 0  |  strides = [131072, 131072, 1024, 1]  |  data = 0, sizeInBytes = 131072  |  isAliased = tensor_61_id_96296_module/model/25/quant_input_0/aten__view_memcpy_85167, type = alias, offset: 0  |  location = in DRAM  |  "
    }
  }
}
node {
  name: "module/model/25/q_proj/fp8_gemm_bf16/6771_complex/fp8_gemm_bf16_1433/batch_gemm_8_bundle_536/op_5_gemm"
  op: "GEMM"
  input: "fusedTPCNode_112_0_bundle_536/op_2"
  input: "module/model/25/q_proj/fp8_gemm_bf16/6771_complex/fp8_gemm_bf16_1433/expand_dims_6"
  attr {
    key: "Bundle_idx"
    value {
      s: "536"
    }
  }
  attr {
    key: "Exec_idx"
    value {
      s: "20"
    }
  }
  attr {
    key: "Op_idx"
    value {
      s: "5"
    }
  }
  attr {
    key: "Parameters"
    value {
      s: "transpose_a=false, transpose_b=false"
    }
  }
  attr {
    key: "fp8BiasIn"
    value {
      s: "7"
    }
  }
  attr {
    key: "fp8BiasIn2"
    value {
      s: "15"
    }
  }
  attr {
    key: "fp8BiasOut"
    value {
      s: "0"
    }
  }
  attr {
    key: "inputTensor:0"
    value {
      s: "tensor_30_slice_0_0_0_0_0__0__bundle_536_85072  |  Sizes = [1,128,4096]  |  hfloat8  |  expBias = 7, scale = 1  |    |  ModelParam = 0  |  strides = [524288, 524288, 4096, 1]  |  data = 0, sizeInBytes = 524288  |  location = in SRAM  |  sramOffset = 0x1000fffffd150000  |  "
    }
  }
  attr {
    key: "inputTensor:1"
    value {
      s: "hf8-7_84484  |  Sizes = [1,4096,4096]  |  hfloat8  |  expBias = 7, scale = 1  |    |  ModelParam = 0  |  strides = [16777216, 16777216, 4096, 1]  |  data = 0, sizeInBytes = 16777216  |  isAliased = tensor_93_odule/model/25/q_proj/placeholder/1, type = alias, offset: 0  |  location = in DRAM  |  "
    }
  }
  attr {
    key: "outputTensor:0"
    value {
      s: "tensor_97  |  Sizes = [1,128,4096]  |  bf16  |  expBias = 0, scale = 1  |    |  ModelParam = 0  |  strides = [1048576, 1048576, 8192, 2]  |  data = 0, sizeInBytes = 1048576  |  isAliased = tensor_98_id_96288_module/model/25/aten__view, type = alias, offset: 0  |  location = in DRAM  |  "
    }
  }
}
node {
  name: "module/model/25/reshape/6745"
  op: "Reshape"
  input: "module/model/25/k_proj/fp8_gemm_bf16/6744_complex/fp8_gemm_bf16_1429/batch_gemm_8_bundle_536/op_3_gemm"
  attr {
    key: "Bundle_idx"
    value {
      s: "N/A"
    }
  }
  attr {
    key: "Exec_idx"
    value {
      s: "21"
    }
  }
  attr {
    key: "Op_idx"
    value {
      s: "N/A"
    }
  }
  attr {
    key: "inputTensor:0"
    value {
      s: "tensor_35  |  Sizes = [1,128,1024]  |  bf16  |  expBias = 0, scale = 1  |    |  ModelParam = 0  |  strides = [262144, 262144, 2048, 2]  |  data = 0, sizeInBytes = 262144  |  isAliased = tensor_36_id_96292_module/model/25/aten__view, type = alias, offset: 0  |  location = in DRAM  |  "
    }
  }
  attr {
    key: "outputTensor:0"
    value {
      s: "tensor_36_id_96292_module/model/25/aten__view  |  Sizes = [1,128,8,128]  |  bf16  |  expBias = 0, scale = 1  |    |  ModelParam = 0  |  strides = [262144, 262144, 2048, 256, 2]  |  data = 0, sizeInBytes = 262144  |  location = in DRAM  |  dramOffset = 0x1b0000000000  |  "
    }
  }
}
node {
  name: "module/model/25/transpose/6746_transpose_via_logical"
  op: "LogicalTranspose"
  input: "module/model/25/reshape/6745"
  attr {
    key: "Bundle_idx"
    value {
      s: "N/A"
    }
  }
  attr {
    key: "Exec_idx"
    value {
      s: "22"
    }
  }
  attr {
    key: "Op_idx"
    value {
      s: "N/A"
    }
  }
  attr {
    key: "Parameters"
    value {
      s: "permutation: (0,2,1,3)"
    }
  }
  attr {
    key: "inputTensor:0"
    value {
      s: "tensor_36_id_96292_module/model/25/aten__view  |  Sizes = [1,128,8,128]  |  bf16  |  expBias = 0, scale = 1  |    |  ModelParam = 0  |  strides = [262144, 262144, 2048, 256, 2]  |  data = 0, sizeInBytes = 262144  |  location = in DRAM  |  dramOffset = 0x1b0000000000  |  "
    }
  }
  attr {
    key: "outputTensor:0"
    value {
      s: "tensor_37_id_96294_module/model/25/aten__transpose  |  Sizes = [1,8,128,128]  |  bf16  |  expBias = 0, scale = 1  |    |  ModelParam = 0  |  strides = [262144, 262144, 256, 2048, 2]  |  data = 0, sizeInBytes = 262144  |  isAliased = tensor_36_id_96292_module/model/25/aten__view, type = alias, offset: 0  |  location = in DRAM  |  isSparseLayout  |  "
    }
  }
}
node {
  name: "module/model/25/quant_input_0/reshape/6754"
  op: "Reshape"
  input: "module/model/25/v_proj/fp8_gemm_bf16/6753_complex/fp8_gemm_hf8_1431/batch_gemm_10_bundle_536/op_4_gemm"
  attr {
    key: "Bundle_idx"
    value {
      s: "N/A"
    }
  }
  attr {
    key: "Exec_idx"
    value {
      s: "23"
    }
  }
  attr {
    key: "Op_idx"
    value {
      s: "N/A"
    }
  }
  attr {
    key: "inputTensor:0"
    value {
      s: "tensor_60_c84418  |  Sizes = [1,128,1024]  |  hfloat8  |  expBias = 7, scale = 1  |    |  ModelParam = 0  |  strides = [131072, 131072, 1024, 1]  |  data = 0, sizeInBytes = 131072  |  isAliased = tensor_61_id_96296_module/model/25/quant_input_0/aten__view_memcpy_85167, type = alias, offset: 0  |  location = in DRAM  |  "
    }
  }
  attr {
    key: "outputTensor:0"
    value {
      s: "tensor_61_id_96296_module/model/25/quant_input_0/aten__view_memcpy_85167  |  Sizes = [1,128,8,128]  |  hfloat8  |  expBias = 7, scale = 1  |    |  ModelParam = 0  |  strides = [131072, 131072, 1024, 128, 1]  |  data = 0, sizeInBytes = 131072  |  location = in DRAM  |  dramOffset = 0x120000008000  |  "
    }
  }
}
node {
  name: "tensor_61_id_96296_module/model/25/quant_input_0/aten__view_memcpy_85167_internal"
  op: "DmaMemcpy"
  input: "module/model/25/quant_input_0/reshape/6754"
  attr {
    key: "Bundle_idx"
    value {
      s: "N/A"
    }
  }
  attr {
    key: "Exec_idx"
    value {
      s: "24"
    }
  }
  attr {
    key: "Op_idx"
    value {
      s: "N/A"
    }
  }
  attr {
    key: "inputTensor:0"
    value {
      s: "tensor_61_id_96296_module/model/25/quant_input_0/aten__view_memcpy_85167  |  Sizes = [1,128,8,128]  |  hfloat8  |  expBias = 7, scale = 1  |    |  ModelParam = 0  |  strides = [131072, 131072, 1024, 128, 1]  |  data = 0, sizeInBytes = 131072  |  location = in DRAM  |  dramOffset = 0x120000008000  |  "
    }
  }
  attr {
    key: "outputTensor:0"
    value {
      s: "tensor_61_id_96296_module/model/25/quant_input_0/aten__view  |  Sizes = [1,128,8,128]  |  hfloat8  |  expBias = 7, scale = 1  |    |  ModelParam = 0  |  strides = [131072, 131072, 128, 16384, 1]  |  data = 0, sizeInBytes = 131072  |  isAliased = tensor_67, type = alias, offset: 0  |  location = in DRAM  |  isSparseLayout  |  "
    }
  }
}
node {
  name: "module/model/25/quant_input_0/transpose/6755_transpose_via_logical"
  op: "LogicalTranspose"
  input: "tensor_61_id_96296_module/model/25/quant_input_0/aten__view_memcpy_85167_internal"
  attr {
    key: "Bundle_idx"
    value {
      s: "N/A"
    }
  }
  attr {
    key: "Exec_idx"
    value {
      s: "25"
    }
  }
  attr {
    key: "Op_idx"
    value {
      s: "N/A"
    }
  }
  attr {
    key: "Parameters"
    value {
      s: "permutation: (0,2,1,3)"
    }
  }
  attr {
    key: "inputTensor:0"
    value {
      s: "tensor_61_id_96296_module/model/25/quant_input_0/aten__view  |  Sizes = [1,128,8,128]  |  hfloat8  |  expBias = 7, scale = 1  |    |  ModelParam = 0  |  strides = [131072, 131072, 128, 16384, 1]  |  data = 0, sizeInBytes = 131072  |  isAliased = tensor_67, type = alias, offset: 0  |  location = in DRAM  |  isSparseLayout  |  "
    }
  }
  attr {
    key: "outputTensor:0"
    value {
      s: "tensor_67  |  Sizes = [1,8,128,128]  |  hfloat8  |  expBias = 7, scale = 1  |    |  ModelParam = 0  |  strides = [131072, 131072, 16384, 128, 1]  |  data = 0, sizeInBytes = 131072  |  isPersistent  |  location = in DRAM  |  dramOffset = 0x130000000000  |  userMemorySection(type=Persistent, id=19)  |  "
    }
  }
}
node {
  name: "module/model/25/reshape/6772"
  op: "Reshape"
  input: "module/model/25/q_proj/fp8_gemm_bf16/6771_complex/fp8_gemm_bf16_1433/batch_gemm_8_bundle_536/op_5_gemm"
  attr {
    key: "Bundle_idx"
    value {
      s: "N/A"
    }
  }
  attr {
    key: "Exec_idx"
    value {
      s: "26"
    }
  }
  attr {
    key: "Op_idx"
    value {
      s: "N/A"
    }
  }
  attr {
    key: "inputTensor:0"
    value {
      s: "tensor_97  |  Sizes = [1,128,4096]  |  bf16  |  expBias = 0, scale = 1  |    |  ModelParam = 0  |  strides = [1048576, 1048576, 8192, 2]  |  data = 0, sizeInBytes = 1048576  |  isAliased = tensor_98_id_96288_module/model/25/aten__view, type = alias, offset: 0  |  location = in DRAM  |  "
    }
  }
  attr {
    key: "outputTensor:0"
    value {
      s: "tensor_98_id_96288_module/model/25/aten__view  |  Sizes = [1,128,32,128]  |  bf16  |  expBias = 0, scale = 1  |    |  ModelParam = 0  |  strides = [1048576, 1048576, 8192, 256, 2]  |  data = 0, sizeInBytes = 1048576  |  location = in DRAM  |  dramOffset = 0x0  |  "
    }
  }
}
node {
  name: "module/model/25/transpose/6773_transpose_via_logical"
  op: "LogicalTranspose"
  input: "module/model/25/reshape/6772"
  attr {
    key: "Bundle_idx"
    value {
      s: "N/A"
    }
  }
  attr {
    key: "Exec_idx"
    value {
      s: "27"
    }
  }
  attr {
    key: "Op_idx"
    value {
      s: "N/A"
    }
  }
  attr {
    key: "Parameters"
    value {
      s: "permutation: (0,2,1,3)"
    }
  }
  attr {
    key: "inputTensor:0"
    value {
      s: "tensor_98_id_96288_module/model/25/aten__view  |  Sizes = [1,128,32,128]  |  bf16  |  expBias = 0, scale = 1  |    |  ModelParam = 0  |  strides = [1048576, 1048576, 8192, 256, 2]  |  data = 0, sizeInBytes = 1048576  |  location = in DRAM  |  dramOffset = 0x0  |  "
    }
  }
  attr {
    key: "outputTensor:0"
    value {
      s: "tensor_99_id_96290_module/model/25/aten__transpose  |  Sizes = [1,32,128,128]  |  bf16  |  expBias = 0, scale = 1  |    |  ModelParam = 0  |  strides = [1048576, 1048576, 256, 8192, 2]  |  data = 0, sizeInBytes = 1048576  |  isAliased = tensor_98_id_96288_module/model/25/aten__view, type = alias, offset: 0  |  location = in DRAM  |  isSparseLayout  |  "
    }
  }
}
node {
  name: "module/model/25/rotary_pos_embedding_fwd_bf16/6774_complex/rotary_pos_embedding_fwd_bf16_179/gather_nd_mxnet_fwd_bf16_8"
  op: "gather_nd_mxnet_fwd_bf16"
  input: "module/model/25/rotary_emb/mult_fwd_bf16/6738_complex/mult_fwd_bf16_0"
  input: "module/model/25/expand_dims/6729"
  attr {
    key: "Bundle_idx"
    value {
      s: "N/A"
    }
  }
  attr {
    key: "Exec_idx"
    value {
      s: "28"
    }
  }
  attr {
    key: "Op_idx"
    value {
      s: "N/A"
    }
  }
  attr {
    key: "inputTensor:0"
    value {
      s: "tensor_16_id_96306_module/model/25/rotary_emb/aten__mul  |  Sizes = [128,128]  |  bf16  |  expBias = 0, scale = 1  |    |  ModelParam = 0  |  strides = [32768, 256, 2]  |  data = 0, sizeInBytes = 32768  |  location = in DRAM  |  dramOffset = 0x40000008080  |  "
    }
  }
  attr {
    key: "inputTensor:1"
    value {
      s: "tensor_5_id_96237_module/model/25/aten__unsqueeze/1  |  Sizes = [1,128]  |  int32  |  expBias = 0, scale = 1  |    |  ModelParam = 0  |  strides = [512, 512, 4]  |  data = 0, sizeInBytes = 512  |  isAliased = tensor_4_odule/model/25/placeholder/0, type = alias, offset: 0  |  location = in DRAM  |  "
    }
  }
  attr {
    key: "outputTensor:0"
    value {
      s: "bf16-9_84489  |  Sizes = [128,128]  |  bf16  |  expBias = 0, scale = 1  |    |  ModelParam = 0  |  strides = [32768, 256, 2]  |  data = 0, sizeInBytes = 32768  |  isAliased = bf16-13_84491, type = alias, offset: 0  |  location = in DRAM  |  "
    }
  }
}
node {
  name: "module/model/25/rotary_pos_embedding_fwd_bf16/6774_complex/rotary_pos_embedding_fwd_bf16_179/gather_nd_mxnet_fwd_bf16_10"
  op: "gather_nd_mxnet_fwd_bf16"
  input: "module/model/25/rotary_emb/mult_fwd_bf16/6732_complex/mult_fwd_bf16_0"
  input: "module/model/25/expand_dims/6729"
  attr {
    key: "Bundle_idx"
    value {
      s: "N/A"
    }
  }
  attr {
    key: "Exec_idx"
    value {
      s: "29"
    }
  }
  attr {
    key: "Op_idx"
    value {
      s: "N/A"
    }
  }
  attr {
    key: "inputTensor:0"
    value {
      s: "tensor_9_id_96302_module/model/25/rotary_emb/aten__mul  |  Sizes = [128,128]  |  bf16  |  expBias = 0, scale = 1  |    |  ModelParam = 0  |  strides = [32768, 256, 2]  |  data = 0, sizeInBytes = 32768  |  location = in DRAM  |  dramOffset = 0x40000000080  |  "
    }
  }
  attr {
    key: "inputTensor:1"
    value {
      s: "tensor_5_id_96237_module/model/25/aten__unsqueeze/1  |  Sizes = [1,128]  |  int32  |  expBias = 0, scale = 1  |    |  ModelParam = 0  |  strides = [512, 512, 4]  |  data = 0, sizeInBytes = 512  |  isAliased = tensor_4_odule/model/25/placeholder/0, type = alias, offset: 0  |  location = in DRAM  |  "
    }
  }
  attr {
    key: "outputTensor:0"
    value {
      s: "bf16-11_84490  |  Sizes = [128,128]  |  bf16  |  expBias = 0, scale = 1  |    |  ModelParam = 0  |  strides = [32768, 256, 2]  |  data = 0, sizeInBytes = 32768  |  isAliased = bf16-15_84492, type = alias, offset: 0  |  location = in DRAM  |  "
    }
  }
}
node {
  name: "module/model/25/rotary_pos_embedding_fwd_bf16/6774_complex/rotary_pos_embedding_fwd_bf16_179/expand_dims_12"
  op: "ExpandDims"
  input: "module/model/25/rotary_pos_embedding_fwd_bf16/6774_complex/rotary_pos_embedding_fwd_bf16_179/gather_nd_mxnet_fwd_bf16_8"
  attr {
    key: "Bundle_idx"
    value {
      s: "N/A"
    }
  }
  attr {
    key: "Exec_idx"
    value {
      s: "30"
    }
  }
  attr {
    key: "Op_idx"
    value {
      s: "N/A"
    }
  }
  attr {
    key: "inputTensor:0"
    value {
      s: "bf16-9_84489  |  Sizes = [128,128]  |  bf16  |  expBias = 0, scale = 1  |    |  ModelParam = 0  |  strides = [32768, 256, 2]  |  data = 0, sizeInBytes = 32768  |  isAliased = bf16-13_84491, type = alias, offset: 0  |  location = in DRAM  |  "
    }
  }
  attr {
    key: "outputTensor:0"
    value {
      s: "bf16-13_84491  |  Sizes = [1,128,128]  |  bf16  |  expBias = 0, scale = 1  |    |  ModelParam = 0  |  strides = [32768, 32768, 256, 2]  |  data = 0, sizeInBytes = 32768  |  location = in DRAM  |  dramOffset = 0x120000028000  |  "
    }
  }
}
node {
  name: "module/model/25/rotary_pos_embedding_fwd_bf16/6774_complex/rotary_pos_embedding_fwd_bf16_179/expand_dims_14"
  op: "ExpandDims"
  input: "module/model/25/rotary_pos_embedding_fwd_bf16/6774_complex/rotary_pos_embedding_fwd_bf16_179/gather_nd_mxnet_fwd_bf16_10"
  attr {
    key: "Bundle_idx"
    value {
      s: "N/A"
    }
  }
  attr {
    key: "Exec_idx"
    value {
      s: "31"
    }
  }
  attr {
    key: "Op_idx"
    value {
      s: "N/A"
    }
  }
  attr {
    key: "inputTensor:0"
    value {
      s: "bf16-11_84490  |  Sizes = [128,128]  |  bf16  |  expBias = 0, scale = 1  |    |  ModelParam = 0  |  strides = [32768, 256, 2]  |  data = 0, sizeInBytes = 32768  |  isAliased = bf16-15_84492, type = alias, offset: 0  |  location = in DRAM  |  "
    }
  }
  attr {
    key: "outputTensor:0"
    value {
      s: "bf16-15_84492  |  Sizes = [1,128,128]  |  bf16  |  expBias = 0, scale = 1  |    |  ModelParam = 0  |  strides = [32768, 32768, 256, 2]  |  data = 0, sizeInBytes = 32768  |  location = in DRAM  |  dramOffset = 0x120000030000  |  "
    }
  }
}
node {
  name: "tensor_37_id_96294_module/model/25/aten__transpose_bundle_538/split_internal/0"
  op: "Split"
  input: "module/model/25/transpose/6746_transpose_via_logical"
  attr {
    key: "Bundle_idx"
    value {
      s: "538"
    }
  }
  attr {
    key: "Exec_idx"
    value {
      s: "32"
    }
  }
  attr {
    key: "Op_idx"
    value {
      s: "0"
    }
  }
  attr {
    key: "inputTensor:0"
    value {
      s: "tensor_37_id_96294_module/model/25/aten__transpose  |  Sizes = [1,8,128,128]  |  bf16  |  expBias = 0, scale = 1  |    |  ModelParam = 0  |  strides = [262144, 262144, 256, 2048, 2]  |  data = 0, sizeInBytes = 262144  |  isAliased = tensor_36_id_96292_module/model/25/aten__view, type = alias, offset: 0  |  location = in DRAM  |  isSparseLayout  |  "
    }
  }
  attr {
    key: "outputTensor:0"
    value {
      s: "tensor_37_id_96294_module/model/25/aten__transpose_slice_0_0_0_0_0__0__bundle_538_85097  |  Sizes = [1,4,128,128]  |  bf16  |  expBias = 0, scale = 1  |    |  ModelParam = 0  |  strides = [262144, 262144, 256, 2048, 2]  |  data = 0, sizeInBytes = 131072  |  isAliased = tensor_37_id_96294_module/model/25/aten__transpose, type = concat, offset: 0  |  location = in DRAM  |  isSparseLayout  |  "
    }
  }
  attr {
    key: "outputTensor:1"
    value {
      s: "tensor_37_id_96294_module/model/25/aten__transpose_slice_0_0_1_0_0__0__bundle_538_85111  |  Sizes = [1,4,128,128]  |  bf16  |  expBias = 0, scale = 1  |    |  ModelParam = 0  |  strides = [262144, 262144, 256, 2048, 2]  |  data = 0, sizeInBytes = 131072  |  isAliased = tensor_37_id_96294_module/model/25/aten__transpose, type = concat, offset: 1024  |  location = in DRAM  |  isSparseLayout  |  "
    }
  }
}
node {
  name: "tensor_99_id_96290_module/model/25/aten__transpose_bundle_538/split_internal/0"
  op: "Split"
  input: "module/model/25/transpose/6773_transpose_via_logical"
  attr {
    key: "Bundle_idx"
    value {
      s: "538"
    }
  }
  attr {
    key: "Exec_idx"
    value {
      s: "33"
    }
  }
  attr {
    key: "Op_idx"
    value {
      s: "1"
    }
  }
  attr {
    key: "inputTensor:0"
    value {
      s: "tensor_99_id_96290_module/model/25/aten__transpose  |  Sizes = [1,32,128,128]  |  bf16  |  expBias = 0, scale = 1  |    |  ModelParam = 0  |  strides = [1048576, 1048576, 256, 8192, 2]  |  data = 0, sizeInBytes = 1048576  |  isAliased = tensor_98_id_96288_module/model/25/aten__view, type = alias, offset: 0  |  location = in DRAM  |  isSparseLayout  |  "
    }
  }
  attr {
    key: "outputTensor:0"
    value {
      s: "tensor_99_id_96290_module/model/25/aten__transpose_slice_0_0_0_0_0__0__bundle_538_85105  |  Sizes = [1,16,128,128]  |  bf16  |  expBias = 0, scale = 1  |    |  ModelParam = 0  |  strides = [1048576, 1048576, 256, 8192, 2]  |  data = 0, sizeInBytes = 524288  |  isAliased = tensor_99_id_96290_module/model/25/aten__transpose, type = concat, offset: 0  |  location = in DRAM  |  isSparseLayout  |  "
    }
  }
  attr {
    key: "outputTensor:1"
    value {
      s: "tensor_99_id_96290_module/model/25/aten__transpose_slice_0_0_1_0_0__0__bundle_538_85117  |  Sizes = [1,16,128,128]  |  bf16  |  expBias = 0, scale = 1  |    |  ModelParam = 0  |  strides = [1048576, 1048576, 256, 8192, 2]  |  data = 0, sizeInBytes = 524288  |  isAliased = tensor_99_id_96290_module/model/25/aten__transpose, type = concat, offset: 4096  |  location = in DRAM  |  isSparseLayout  |  "
    }
  }
}
node {
  name: "module/model/25/rotary_pos_embedding_fwd_bf16/6747_complex/rotary_pos_embedding_fwd_bf16_178/rope_st2_fwd_bf16_16_bundle_538/op_0"
  op: "rope_st2_fwd_bf16"
  input: "tensor_37_id_96294_module/model/25/aten__transpose_bundle_538/split_internal/0"
  input: "module/model/25/rotary_pos_embedding_fwd_bf16/6747_complex/rotary_pos_embedding_fwd_bf16_178/expand_dims_12"
  input: "module/model/25/rotary_pos_embedding_fwd_bf16/6747_complex/rotary_pos_embedding_fwd_bf16_178/expand_dims_14"
  attr {
    key: "Bundle_idx"
    value {
      s: "538"
    }
  }
  attr {
    key: "Exec_idx"
    value {
      s: "34"
    }
  }
  attr {
    key: "Op_idx"
    value {
      s: "2"
    }
  }
  attr {
    key: "inputTensor:0"
    value {
      s: "tensor_37_id_96294_module/model/25/aten__transpose_slice_0_0_0_0_0__0__bundle_538_85097  |  Sizes = [1,4,128,128]  |  bf16  |  expBias = 0, scale = 1  |    |  ModelParam = 0  |  strides = [262144, 262144, 256, 2048, 2]  |  data = 0, sizeInBytes = 131072  |  isAliased = tensor_37_id_96294_module/model/25/aten__transpose, type = concat, offset: 0  |  location = in DRAM  |  isSparseLayout  |  "
    }
  }
  attr {
    key: "inputTensor:1"
    value {
      s: "bf16-13_84474  |  Sizes = [1,128,128]  |  bf16  |  expBias = 0, scale = 1  |    |  ModelParam = 0  |  strides = [32768, 32768, 256, 2]  |  data = 0, sizeInBytes = 32768  |  location = in DRAM  |  dramOffset = 0x40000010080  |  "
    }
  }
  attr {
    key: "inputTensor:2"
    value {
      s: "bf16-15_84475  |  Sizes = [1,128,128]  |  bf16  |  expBias = 0, scale = 1  |    |  ModelParam = 0  |  strides = [32768, 32768, 256, 2]  |  data = 0, sizeInBytes = 32768  |  location = in DRAM  |  dramOffset = 0x120000000000  |  "
    }
  }
  attr {
    key: "outputTensor:0"
    value {
      s: "tensor_39_slice_0_0_0_0_0__0__bundle_538_85100  |  Sizes = [1,4,128,128]  |  bf16  |  expBias = 0, scale = 1  |    |  ModelParam = 0  |  strides = [262144, 262144, 32768, 256, 2]  |  data = 0, sizeInBytes = 131072  |  isAliased = tensor_39, type = concat, offset: 0  |  location = in DRAM  |  "
    }
  }
}
node {
  name: "module/model/25/rotary_pos_embedding_fwd_bf16/6774_complex/rotary_pos_embedding_fwd_bf16_179/rope_st2_fwd_bf16_16_bundle_538/op_3"
  op: "rope_st2_fwd_bf16"
  input: "tensor_99_id_96290_module/model/25/aten__transpose_bundle_538/split_internal/0"
  input: "module/model/25/rotary_pos_embedding_fwd_bf16/6774_complex/rotary_pos_embedding_fwd_bf16_179/expand_dims_12"
  input: "module/model/25/rotary_pos_embedding_fwd_bf16/6774_complex/rotary_pos_embedding_fwd_bf16_179/expand_dims_14"
  attr {
    key: "Bundle_idx"
    value {
      s: "538"
    }
  }
  attr {
    key: "Exec_idx"
    value {
      s: "35"
    }
  }
  attr {
    key: "Op_idx"
    value {
      s: "3"
    }
  }
  attr {
    key: "inputTensor:0"
    value {
      s: "tensor_99_id_96290_module/model/25/aten__transpose_slice_0_0_0_0_0__0__bundle_538_85105  |  Sizes = [1,16,128,128]  |  bf16  |  expBias = 0, scale = 1  |    |  ModelParam = 0  |  strides = [1048576, 1048576, 256, 8192, 2]  |  data = 0, sizeInBytes = 524288  |  isAliased = tensor_99_id_96290_module/model/25/aten__transpose, type = concat, offset: 0  |  location = in DRAM  |  isSparseLayout  |  "
    }
  }
  attr {
    key: "inputTensor:1"
    value {
      s: "bf16-13_84491  |  Sizes = [1,128,128]  |  bf16  |  expBias = 0, scale = 1  |    |  ModelParam = 0  |  strides = [32768, 32768, 256, 2]  |  data = 0, sizeInBytes = 32768  |  location = in DRAM  |  dramOffset = 0x120000028000  |  "
    }
  }
  attr {
    key: "inputTensor:2"
    value {
      s: "bf16-15_84492  |  Sizes = [1,128,128]  |  bf16  |  expBias = 0, scale = 1  |    |  ModelParam = 0  |  strides = [32768, 32768, 256, 2]  |  data = 0, sizeInBytes = 32768  |  location = in DRAM  |  dramOffset = 0x120000030000  |  "
    }
  }
  attr {
    key: "outputTensor:0"
    value {
      s: "tensor_101_slice_0_0_0_0_0__0__bundle_538_85108  |  Sizes = [1,16,128,128]  |  bf16  |  expBias = 0, scale = 1  |    |  ModelParam = 0  |  strides = [524288, 524288, 32768, 256, 2]  |  data = 0, sizeInBytes = 524288  |  location = in SRAM  |  sramOffset = 0x1000fffffd1d0000  |  "
    }
  }
}
node {
  name: "module/model/25/rotary_pos_embedding_fwd_bf16/6747_complex/rotary_pos_embedding_fwd_bf16_178/rope_st2_fwd_bf16_16_bundle_538/op_6"
  op: "rope_st2_fwd_bf16"
  input: "tensor_37_id_96294_module/model/25/aten__transpose_bundle_538/split_internal/0"
  input: "module/model/25/rotary_pos_embedding_fwd_bf16/6747_complex/rotary_pos_embedding_fwd_bf16_178/expand_dims_12"
  input: "module/model/25/rotary_pos_embedding_fwd_bf16/6747_complex/rotary_pos_embedding_fwd_bf16_178/expand_dims_14"
  attr {
    key: "Bundle_idx"
    value {
      s: "538"
    }
  }
  attr {
    key: "Exec_idx"
    value {
      s: "36"
    }
  }
  attr {
    key: "Op_idx"
    value {
      s: "4"
    }
  }
  attr {
    key: "inputTensor:0"
    value {
      s: "tensor_37_id_96294_module/model/25/aten__transpose_slice_0_0_1_0_0__0__bundle_538_85111  |  Sizes = [1,4,128,128]  |  bf16  |  expBias = 0, scale = 1  |    |  ModelParam = 0  |  strides = [262144, 262144, 256, 2048, 2]  |  data = 0, sizeInBytes = 131072  |  isAliased = tensor_37_id_96294_module/model/25/aten__transpose, type = concat, offset: 1024  |  location = in DRAM  |  isSparseLayout  |  "
    }
  }
  attr {
    key: "inputTensor:1"
    value {
      s: "bf16-13_84474  |  Sizes = [1,128,128]  |  bf16  |  expBias = 0, scale = 1  |    |  ModelParam = 0  |  strides = [32768, 32768, 256, 2]  |  data = 0, sizeInBytes = 32768  |  location = in DRAM  |  dramOffset = 0x40000010080  |  "
    }
  }
  attr {
    key: "inputTensor:2"
    value {
      s: "bf16-15_84475  |  Sizes = [1,128,128]  |  bf16  |  expBias = 0, scale = 1  |    |  ModelParam = 0  |  strides = [32768, 32768, 256, 2]  |  data = 0, sizeInBytes = 32768  |  location = in DRAM  |  dramOffset = 0x120000000000  |  "
    }
  }
  attr {
    key: "outputTensor:0"
    value {
      s: "tensor_39_slice_0_0_1_0_0__0__bundle_538_85112  |  Sizes = [1,4,128,128]  |  bf16  |  expBias = 0, scale = 1  |    |  ModelParam = 0  |  strides = [262144, 262144, 32768, 256, 2]  |  data = 0, sizeInBytes = 131072  |  isAliased = tensor_39, type = concat, offset: 131072  |  location = in DRAM  |  "
    }
  }
}
node {
  name: "tensor_39_bundle_538/concat_logical_internal/0"
  op: "Concatenate"
  input: "module/model/25/rotary_pos_embedding_fwd_bf16/6747_complex/rotary_pos_embedding_fwd_bf16_178/rope_st2_fwd_bf16_16_bundle_538/op_0"
  input: "module/model/25/rotary_pos_embedding_fwd_bf16/6747_complex/rotary_pos_embedding_fwd_bf16_178/rope_st2_fwd_bf16_16_bundle_538/op_6"
  attr {
    key: "Bundle_idx"
    value {
      s: "538"
    }
  }
  attr {
    key: "Exec_idx"
    value {
      s: "37"
    }
  }
  attr {
    key: "Op_idx"
    value {
      s: "5"
    }
  }
  attr {
    key: "inputTensor:0"
    value {
      s: "tensor_39_slice_0_0_0_0_0__0__bundle_538_85100  |  Sizes = [1,4,128,128]  |  bf16  |  expBias = 0, scale = 1  |    |  ModelParam = 0  |  strides = [262144, 262144, 32768, 256, 2]  |  data = 0, sizeInBytes = 131072  |  isAliased = tensor_39, type = concat, offset: 0  |  location = in DRAM  |  "
    }
  }
  attr {
    key: "inputTensor:1"
    value {
      s: "tensor_39_slice_0_0_1_0_0__0__bundle_538_85112  |  Sizes = [1,4,128,128]  |  bf16  |  expBias = 0, scale = 1  |    |  ModelParam = 0  |  strides = [262144, 262144, 32768, 256, 2]  |  data = 0, sizeInBytes = 131072  |  isAliased = tensor_39, type = concat, offset: 131072  |  location = in DRAM  |  "
    }
  }
  attr {
    key: "outputTensor:0"
    value {
      s: "tensor_39  |  Sizes = [1,8,128,128]  |  bf16  |  expBias = 0, scale = 1  |    |  ModelParam = 0  |  strides = [262144, 262144, 32768, 256, 2]  |  data = 0, sizeInBytes = 262144  |  location = in DRAM  |  dramOffset = 0x100000  |  "
    }
  }
}
node {
  name: "tensor_39"
  op: "OutputTensor"
  input: "tensor_39_bundle_538/concat_logical_internal/0"
  attr {
    key: "dtype"
    value {
      type: DT_BFLOAT16
    }
  }
  attr {
    key: "shape"
    value {
      shape {
        dim {
          size: 128
        }
        dim {
          size: 128
        }
        dim {
          size: 8
        }
        dim {
          size: 1
        }
        dim {
          size: 1
        }
      }
    }
  }
  attr {
    key: "synDataType"
    value {
      s: "bf16"
    }
  }
}
node {
  name: "module/model/25/rotary_pos_embedding_fwd_bf16/6774_complex/rotary_pos_embedding_fwd_bf16_179/rope_st2_fwd_bf16_16_bundle_538/op_9"
  op: "rope_st2_fwd_bf16"
  input: "tensor_99_id_96290_module/model/25/aten__transpose_bundle_538/split_internal/0"
  input: "module/model/25/rotary_pos_embedding_fwd_bf16/6774_complex/rotary_pos_embedding_fwd_bf16_179/expand_dims_12"
  input: "module/model/25/rotary_pos_embedding_fwd_bf16/6774_complex/rotary_pos_embedding_fwd_bf16_179/expand_dims_14"
  attr {
    key: "Bundle_idx"
    value {
      s: "538"
    }
  }
  attr {
    key: "Exec_idx"
    value {
      s: "38"
    }
  }
  attr {
    key: "Op_idx"
    value {
      s: "6"
    }
  }
  attr {
    key: "inputTensor:0"
    value {
      s: "tensor_99_id_96290_module/model/25/aten__transpose_slice_0_0_1_0_0__0__bundle_538_85117  |  Sizes = [1,16,128,128]  |  bf16  |  expBias = 0, scale = 1  |    |  ModelParam = 0  |  strides = [1048576, 1048576, 256, 8192, 2]  |  data = 0, sizeInBytes = 524288  |  isAliased = tensor_99_id_96290_module/model/25/aten__transpose, type = concat, offset: 4096  |  location = in DRAM  |  isSparseLayout  |  "
    }
  }
  attr {
    key: "inputTensor:1"
    value {
      s: "bf16-13_84491  |  Sizes = [1,128,128]  |  bf16  |  expBias = 0, scale = 1  |    |  ModelParam = 0  |  strides = [32768, 32768, 256, 2]  |  data = 0, sizeInBytes = 32768  |  location = in DRAM  |  dramOffset = 0x120000028000  |  "
    }
  }
  attr {
    key: "inputTensor:2"
    value {
      s: "bf16-15_84492  |  Sizes = [1,128,128]  |  bf16  |  expBias = 0, scale = 1  |    |  ModelParam = 0  |  strides = [32768, 32768, 256, 2]  |  data = 0, sizeInBytes = 32768  |  location = in DRAM  |  dramOffset = 0x120000030000  |  "
    }
  }
  attr {
    key: "outputTensor:0"
    value {
      s: "tensor_101_slice_0_0_1_0_0__0__bundle_538_85118  |  Sizes = [1,16,128,128]  |  bf16  |  expBias = 0, scale = 1  |    |  ModelParam = 0  |  strides = [524288, 524288, 32768, 256, 2]  |  data = 0, sizeInBytes = 524288  |  location = in SRAM  |  sramOffset = 0x1000fffffd250000  |  "
    }
  }
}
node {
  name: "fusedTPCNode_112_1_bundle_538/op_1"
  op: "fused_kernel_0x233100B9_1D8_bf16"
  input: "module/model/25/rotary_pos_embedding_fwd_bf16/6747_complex/rotary_pos_embedding_fwd_bf16_178/rope_st2_fwd_bf16_16_bundle_538/op_0"
  attr {
    key: "Bundle_idx"
    value {
      s: "538"
    }
  }
  attr {
    key: "Exec_idx"
    value {
      s: "39"
    }
  }
  attr {
    key: "Op_idx"
    value {
      s: "7"
    }
  }
  attr {
    key: "inputTensor:0"
    value {
      s: "tensor_39_slice_0_0_0_0_0__0__bundle_538_85100  |  Sizes = [1,4,128,128]  |  bf16  |  expBias = 0, scale = 1  |    |  ModelParam = 0  |  strides = [262144, 262144, 32768, 256, 2]  |  data = 0, sizeInBytes = 131072  |  isAliased = tensor_39, type = concat, offset: 0  |  location = in DRAM  |  "
    }
  }
  attr {
    key: "outputTensor:0"
    value {
      s: "tensor_44_slice_0_0_0_0_0__0__bundle_538_85101  |  Sizes = [1,4,128,128]  |  hfloat8  |  expBias = 7, scale = 1  |    |  ModelParam = 0  |  strides = [131072, 131072, 16384, 128, 1]  |  data = 0, sizeInBytes = 65536  |  isAliased = tensor_44, type = concat, offset: 0  |  location = in DRAM  |  "
    }
  }
  attr {
    key: "outputTensor:1"
    value {
      s: "tensor_47_slice_0_0_0_0_0__0__bundle_538_85102  |  Sizes = [1,4,128,128]  |  bf16  |  expBias = 0, scale = 1  |    |  ModelParam = 0  |  strides = [262144, 262144, 32768, 256, 2]  |  data = 0, sizeInBytes = 131072  |  isAliased = tensor_47, type = concat, offset: 0  |  location = in DRAM  |  "
    }
  }
  attr {
    key: "outputTensor:2"
    value {
      s: "tensor-84702_slice_0_0_0_0_0__0__bundle_538_85103  |  Sizes = [1,4,128,128]  |  hfloat8  |  expBias = 7, scale = 1  |    |  ModelParam = 0  |  strides = [65536, 65536, 16384, 128, 1]  |  data = 0, sizeInBytes = 65536  |  isAliased = tensor_87_id_96405_module/model/25/fused_scaled_dot_product_attention/aten__view_slice_0_0_0_0_0__0__bundle_538_85104, type = alias, offset: 0  |  location = in SRAM  |  sramOffset = 0x1000fffffd2d0000  |  "
    }
  }
}
node {
  name: "reshape_5_5_bundle_538/op_2"
  op: "Reshape"
  input: "fusedTPCNode_112_1_bundle_538/op_1"
  attr {
    key: "Bundle_idx"
    value {
      s: "538"
    }
  }
  attr {
    key: "Exec_idx"
    value {
      s: "40"
    }
  }
  attr {
    key: "Op_idx"
    value {
      s: "8"
    }
  }
  attr {
    key: "inputTensor:0"
    value {
      s: "tensor-84702_slice_0_0_0_0_0__0__bundle_538_85103  |  Sizes = [1,4,128,128]  |  hfloat8  |  expBias = 7, scale = 1  |    |  ModelParam = 0  |  strides = [65536, 65536, 16384, 128, 1]  |  data = 0, sizeInBytes = 65536  |  isAliased = tensor_87_id_96405_module/model/25/fused_scaled_dot_product_attention/aten__view_slice_0_0_0_0_0__0__bundle_538_85104, type = alias, offset: 0  |  location = in SRAM  |  sramOffset = 0x1000fffffd2d0000  |  "
    }
  }
  attr {
    key: "outputTensor:0"
    value {
      s: "tensor_87_id_96405_module/model/25/fused_scaled_dot_product_attention/aten__view_slice_0_0_0_0_0__0__bundle_538_85104  |  Sizes = [1,4,1,128,128]  |  hfloat8  |  expBias = 7, scale = 1  |    |  ModelParam = 0  |  strides = [65536, 65536, 16384, 16384, 128, 1]  |  data = 0, sizeInBytes = 65536  |  location = in SRAM  |  sramOffset = 0x1000fffffd2d0000  |  "
    }
  }
}
node {
  name: "fusedTPCNode_112_3_bundle_538/op_4"
  op: "fused_kernel_0x99B8F185_1DA_hf8"
  input: "module/model/25/rotary_pos_embedding_fwd_bf16/6774_complex/rotary_pos_embedding_fwd_bf16_179/rope_st2_fwd_bf16_16_bundle_538/op_3"
  attr {
    key: "Bundle_idx"
    value {
      s: "538"
    }
  }
  attr {
    key: "Exec_idx"
    value {
      s: "41"
    }
  }
  attr {
    key: "Op_idx"
    value {
      s: "9"
    }
  }
  attr {
    key: "inputTensor:0"
    value {
      s: "tensor_101_slice_0_0_0_0_0__0__bundle_538_85108  |  Sizes = [1,16,128,128]  |  bf16  |  expBias = 0, scale = 1  |    |  ModelParam = 0  |  strides = [524288, 524288, 32768, 256, 2]  |  data = 0, sizeInBytes = 524288  |  location = in SRAM  |  sramOffset = 0x1000fffffd1d0000  |  "
    }
  }
  attr {
    key: "outputTensor:0"
    value {
      s: "tensor-84704_slice_0_0_0_0_0__0__bundle_538_85109  |  Sizes = [1,16,128,128]  |  hfloat8  |  expBias = 7, scale = 1  |    |  ModelParam = 0  |  strides = [262144, 262144, 16384, 128, 1]  |  data = 0, sizeInBytes = 262144  |  isAliased = tensor_106_id_96403_module/model/25/fused_scaled_dot_product_attention/aten__view_slice_0_0_0_0_0__0__bundle_538_85110, type = alias, offset: 0  |  location = in SRAM  |  sramOffset = 0x1000fffffd2f0000  |  "
    }
  }
}
node {
  name: "reshape_11_11_bundle_538/op_5"
  op: "Reshape"
  input: "fusedTPCNode_112_3_bundle_538/op_4"
  attr {
    key: "Bundle_idx"
    value {
      s: "538"
    }
  }
  attr {
    key: "Exec_idx"
    value {
      s: "42"
    }
  }
  attr {
    key: "Op_idx"
    value {
      s: "10"
    }
  }
  attr {
    key: "inputTensor:0"
    value {
      s: "tensor-84704_slice_0_0_0_0_0__0__bundle_538_85109  |  Sizes = [1,16,128,128]  |  hfloat8  |  expBias = 7, scale = 1  |    |  ModelParam = 0  |  strides = [262144, 262144, 16384, 128, 1]  |  data = 0, sizeInBytes = 262144  |  isAliased = tensor_106_id_96403_module/model/25/fused_scaled_dot_product_attention/aten__view_slice_0_0_0_0_0__0__bundle_538_85110, type = alias, offset: 0  |  location = in SRAM  |  sramOffset = 0x1000fffffd2f0000  |  "
    }
  }
  attr {
    key: "outputTensor:0"
    value {
      s: "tensor_106_id_96403_module/model/25/fused_scaled_dot_product_attention/aten__view_slice_0_0_0_0_0__0__bundle_538_85110  |  Sizes = [1,4,4,128,128]  |  hfloat8  |  expBias = 7, scale = 1  |    |  ModelParam = 0  |  strides = [262144, 262144, 65536, 16384, 128, 1]  |  data = 0, sizeInBytes = 262144  |  location = in SRAM  |  sramOffset = 0x1000fffffd2f0000  |  "
    }
  }
}
node {
  name: "fusedTPCNode_112_1_bundle_538/op_7"
  op: "fused_kernel_0x233100B9_1D8_bf16"
  input: "module/model/25/rotary_pos_embedding_fwd_bf16/6747_complex/rotary_pos_embedding_fwd_bf16_178/rope_st2_fwd_bf16_16_bundle_538/op_6"
  attr {
    key: "Bundle_idx"
    value {
      s: "538"
    }
  }
  attr {
    key: "Exec_idx"
    value {
      s: "43"
    }
  }
  attr {
    key: "Op_idx"
    value {
      s: "11"
    }
  }
  attr {
    key: "inputTensor:0"
    value {
      s: "tensor_39_slice_0_0_1_0_0__0__bundle_538_85112  |  Sizes = [1,4,128,128]  |  bf16  |  expBias = 0, scale = 1  |    |  ModelParam = 0  |  strides = [262144, 262144, 32768, 256, 2]  |  data = 0, sizeInBytes = 131072  |  isAliased = tensor_39, type = concat, offset: 131072  |  location = in DRAM  |  "
    }
  }
  attr {
    key: "outputTensor:0"
    value {
      s: "tensor_44_slice_0_0_1_0_0__0__bundle_538_85113  |  Sizes = [1,4,128,128]  |  hfloat8  |  expBias = 7, scale = 1  |    |  ModelParam = 0  |  strides = [131072, 131072, 16384, 128, 1]  |  data = 0, sizeInBytes = 65536  |  isAliased = tensor_44, type = concat, offset: 65536  |  location = in DRAM  |  "
    }
  }
  attr {
    key: "outputTensor:1"
    value {
      s: "tensor_47_slice_0_0_1_0_0__0__bundle_538_85114  |  Sizes = [1,4,128,128]  |  bf16  |  expBias = 0, scale = 1  |    |  ModelParam = 0  |  strides = [262144, 262144, 32768, 256, 2]  |  data = 0, sizeInBytes = 131072  |  isAliased = tensor_47, type = concat, offset: 131072  |  location = in DRAM  |  "
    }
  }
  attr {
    key: "outputTensor:2"
    value {
      s: "tensor-84702_slice_0_0_1_0_0__0__bundle_538_85115  |  Sizes = [1,4,128,128]  |  hfloat8  |  expBias = 7, scale = 1  |    |  ModelParam = 0  |  strides = [65536, 65536, 16384, 128, 1]  |  data = 0, sizeInBytes = 65536  |  isAliased = tensor_87_id_96405_module/model/25/fused_scaled_dot_product_attention/aten__view_slice_0_0_0_1_0__0__bundle_538_85116, type = alias, offset: 0  |  location = in SRAM  |  sramOffset = 0x1000fffffd2e0000  |  "
    }
  }
}
node {
  name: "reshape_5_5_bundle_538/op_8"
  op: "Reshape"
  input: "fusedTPCNode_112_1_bundle_538/op_7"
  attr {
    key: "Bundle_idx"
    value {
      s: "538"
    }
  }
  attr {
    key: "Exec_idx"
    value {
      s: "44"
    }
  }
  attr {
    key: "Op_idx"
    value {
      s: "12"
    }
  }
  attr {
    key: "inputTensor:0"
    value {
      s: "tensor-84702_slice_0_0_1_0_0__0__bundle_538_85115  |  Sizes = [1,4,128,128]  |  hfloat8  |  expBias = 7, scale = 1  |    |  ModelParam = 0  |  strides = [65536, 65536, 16384, 128, 1]  |  data = 0, sizeInBytes = 65536  |  isAliased = tensor_87_id_96405_module/model/25/fused_scaled_dot_product_attention/aten__view_slice_0_0_0_1_0__0__bundle_538_85116, type = alias, offset: 0  |  location = in SRAM  |  sramOffset = 0x1000fffffd2e0000  |  "
    }
  }
  attr {
    key: "outputTensor:0"
    value {
      s: "tensor_87_id_96405_module/model/25/fused_scaled_dot_product_attention/aten__view_slice_0_0_0_1_0__0__bundle_538_85116  |  Sizes = [1,4,1,128,128]  |  hfloat8  |  expBias = 7, scale = 1  |    |  ModelParam = 0  |  strides = [65536, 65536, 16384, 16384, 128, 1]  |  data = 0, sizeInBytes = 65536  |  location = in SRAM  |  sramOffset = 0x1000fffffd2e0000  |  "
    }
  }
}
node {
  name: "tensor_44_bundle_538/concat_logical_internal/0"
  op: "Concatenate"
  input: "fusedTPCNode_112_1_bundle_538/op_1"
  input: "fusedTPCNode_112_1_bundle_538/op_7"
  attr {
    key: "Bundle_idx"
    value {
      s: "538"
    }
  }
  attr {
    key: "Exec_idx"
    value {
      s: "45"
    }
  }
  attr {
    key: "Op_idx"
    value {
      s: "13"
    }
  }
  attr {
    key: "inputTensor:0"
    value {
      s: "tensor_44_slice_0_0_0_0_0__0__bundle_538_85101  |  Sizes = [1,4,128,128]  |  hfloat8  |  expBias = 7, scale = 1  |    |  ModelParam = 0  |  strides = [131072, 131072, 16384, 128, 1]  |  data = 0, sizeInBytes = 65536  |  isAliased = tensor_44, type = concat, offset: 0  |  location = in DRAM  |  "
    }
  }
  attr {
    key: "inputTensor:1"
    value {
      s: "tensor_44_slice_0_0_1_0_0__0__bundle_538_85113  |  Sizes = [1,4,128,128]  |  hfloat8  |  expBias = 7, scale = 1  |    |  ModelParam = 0  |  strides = [131072, 131072, 16384, 128, 1]  |  data = 0, sizeInBytes = 65536  |  isAliased = tensor_44, type = concat, offset: 65536  |  location = in DRAM  |  "
    }
  }
  attr {
    key: "outputTensor:0"
    value {
      s: "tensor_44  |  Sizes = [1,8,128,128]  |  hfloat8  |  expBias = 7, scale = 1  |    |  ModelParam = 0  |  strides = [131072, 131072, 16384, 128, 1]  |  data = 0, sizeInBytes = 131072  |  isPersistent  |  location = in DRAM  |  dramOffset = 0x40000000000  |  userMemorySection(type=Persistent, id=4)  |  "
    }
  }
}
node {
  name: "tensor_44"
  op: "OutputTensor"
  input: "tensor_44_bundle_538/concat_logical_internal/0"
  attr {
    key: "dtype"
    value {
      type: DT_INVALID
    }
  }
  attr {
    key: "shape"
    value {
      shape {
        dim {
          size: 128
        }
        dim {
          size: 128
        }
        dim {
          size: 8
        }
        dim {
          size: 1
        }
        dim {
          size: 1
        }
      }
    }
  }
  attr {
    key: "synDataType"
    value {
      s: "hfloat8"
    }
  }
}
node {
  name: "tensor_47_bundle_538/concat_logical_internal/0"
  op: "Concatenate"
  input: "fusedTPCNode_112_1_bundle_538/op_1"
  input: "fusedTPCNode_112_1_bundle_538/op_7"
  attr {
    key: "Bundle_idx"
    value {
      s: "538"
    }
  }
  attr {
    key: "Exec_idx"
    value {
      s: "46"
    }
  }
  attr {
    key: "Op_idx"
    value {
      s: "14"
    }
  }
  attr {
    key: "inputTensor:0"
    value {
      s: "tensor_47_slice_0_0_0_0_0__0__bundle_538_85102  |  Sizes = [1,4,128,128]  |  bf16  |  expBias = 0, scale = 1  |    |  ModelParam = 0  |  strides = [262144, 262144, 32768, 256, 2]  |  data = 0, sizeInBytes = 131072  |  isAliased = tensor_47, type = concat, offset: 0  |  location = in DRAM  |  "
    }
  }
  attr {
    key: "inputTensor:1"
    value {
      s: "tensor_47_slice_0_0_1_0_0__0__bundle_538_85114  |  Sizes = [1,4,128,128]  |  bf16  |  expBias = 0, scale = 1  |    |  ModelParam = 0  |  strides = [262144, 262144, 32768, 256, 2]  |  data = 0, sizeInBytes = 131072  |  isAliased = tensor_47, type = concat, offset: 131072  |  location = in DRAM  |  "
    }
  }
  attr {
    key: "outputTensor:0"
    value {
      s: "tensor_47  |  Sizes = [1,8,128,128]  |  bf16  |  expBias = 0, scale = 1  |    |  ModelParam = 0  |  strides = [262144, 262144, 32768, 256, 2]  |  data = 0, sizeInBytes = 262144  |  isPersistent  |  location = in DRAM  |  dramOffset = 0x120000000000  |  userMemorySection(type=Persistent, id=18)  |  "
    }
  }
}
node {
  name: "tensor_47"
  op: "OutputTensor"
  input: "tensor_47_bundle_538/concat_logical_internal/0"
  attr {
    key: "dtype"
    value {
      type: DT_BFLOAT16
    }
  }
  attr {
    key: "shape"
    value {
      shape {
        dim {
          size: 128
        }
        dim {
          size: 128
        }
        dim {
          size: 8
        }
        dim {
          size: 1
        }
        dim {
          size: 1
        }
      }
    }
  }
  attr {
    key: "synDataType"
    value {
      s: "bf16"
    }
  }
}
node {
  name: "fusedTPCNode_112_3_bundle_538/op_10"
  op: "fused_kernel_0x99B8F185_1DA_hf8"
  input: "module/model/25/rotary_pos_embedding_fwd_bf16/6774_complex/rotary_pos_embedding_fwd_bf16_179/rope_st2_fwd_bf16_16_bundle_538/op_9"
  attr {
    key: "Bundle_idx"
    value {
      s: "538"
    }
  }
  attr {
    key: "Exec_idx"
    value {
      s: "47"
    }
  }
  attr {
    key: "Op_idx"
    value {
      s: "15"
    }
  }
  attr {
    key: "inputTensor:0"
    value {
      s: "tensor_101_slice_0_0_1_0_0__0__bundle_538_85118  |  Sizes = [1,16,128,128]  |  bf16  |  expBias = 0, scale = 1  |    |  ModelParam = 0  |  strides = [524288, 524288, 32768, 256, 2]  |  data = 0, sizeInBytes = 524288  |  location = in SRAM  |  sramOffset = 0x1000fffffd250000  |  "
    }
  }
  attr {
    key: "outputTensor:0"
    value {
      s: "tensor-84704_slice_0_0_1_0_0__0__bundle_538_85119  |  Sizes = [1,16,128,128]  |  hfloat8  |  expBias = 7, scale = 1  |    |  ModelParam = 0  |  strides = [262144, 262144, 16384, 128, 1]  |  data = 0, sizeInBytes = 262144  |  isAliased = tensor_106_id_96403_module/model/25/fused_scaled_dot_product_attention/aten__view_slice_0_0_0_1_0__0__bundle_538_85120, type = alias, offset: 0  |  location = in SRAM  |  sramOffset = 0x1000fffffd330000  |  "
    }
  }
}
node {
  name: "reshape_11_11_bundle_538/op_11"
  op: "Reshape"
  input: "fusedTPCNode_112_3_bundle_538/op_10"
  attr {
    key: "Bundle_idx"
    value {
      s: "538"
    }
  }
  attr {
    key: "Exec_idx"
    value {
      s: "48"
    }
  }
  attr {
    key: "Op_idx"
    value {
      s: "16"
    }
  }
  attr {
    key: "inputTensor:0"
    value {
      s: "tensor-84704_slice_0_0_1_0_0__0__bundle_538_85119  |  Sizes = [1,16,128,128]  |  hfloat8  |  expBias = 7, scale = 1  |    |  ModelParam = 0  |  strides = [262144, 262144, 16384, 128, 1]  |  data = 0, sizeInBytes = 262144  |  isAliased = tensor_106_id_96403_module/model/25/fused_scaled_dot_product_attention/aten__view_slice_0_0_0_1_0__0__bundle_538_85120, type = alias, offset: 0  |  location = in SRAM  |  sramOffset = 0x1000fffffd330000  |  "
    }
  }
  attr {
    key: "outputTensor:0"
    value {
      s: "tensor_106_id_96403_module/model/25/fused_scaled_dot_product_attention/aten__view_slice_0_0_0_1_0__0__bundle_538_85120  |  Sizes = [1,4,4,128,128]  |  hfloat8  |  expBias = 7, scale = 1  |    |  ModelParam = 0  |  strides = [262144, 262144, 65536, 16384, 128, 1]  |  data = 0, sizeInBytes = 262144  |  location = in SRAM  |  sramOffset = 0x1000fffffd330000  |  "
    }
  }
}
node {
  name: "module/model/25/fused_scaled_dot_product_attention/sdpa_recomp_fwd_hf8/6777_complex/sdpa_recomp_fwd_hf8_179/sdpa_recomp_core_fwd_hf8_89/fp8_gemm_hf8_1434/batch_gemm_16_bundle_538/op_12"
  op: "BatchGemm"
  input: "reshape_11_11_bundle_538/op_5"
  input: "reshape_5_5_bundle_538/op_2"
  attr {
    key: "Bundle_idx"
    value {
      s: "538"
    }
  }
  attr {
    key: "Exec_idx"
    value {
      s: "49"
    }
  }
  attr {
    key: "Op_idx"
    value {
      s: "17"
    }
  }
  attr {
    key: "Parameters"
    value {
      s: "transpose_a=false, transpose_b=true"
    }
  }
  attr {
    key: "fp8BiasIn"
    value {
      s: "7"
    }
  }
  attr {
    key: "fp8BiasIn2"
    value {
      s: "7"
    }
  }
  attr {
    key: "fp8BiasOut"
    value {
      s: "0"
    }
  }
  attr {
    key: "inputTensor:0"
    value {
      s: "tensor_106_id_96403_module/model/25/fused_scaled_dot_product_attention/aten__view_slice_0_0_0_0_0__0__bundle_538_85110  |  Sizes = [1,4,4,128,128]  |  hfloat8  |  expBias = 7, scale = 1  |    |  ModelParam = 0  |  strides = [262144, 262144, 65536, 16384, 128, 1]  |  data = 0, sizeInBytes = 262144  |  location = in SRAM  |  sramOffset = 0x1000fffffd2f0000  |  "
    }
  }
  attr {
    key: "inputTensor:1"
    value {
      s: "tensor_87_id_96405_module/model/25/fused_scaled_dot_product_attention/aten__view_slice_0_0_0_0_0__0__bundle_538_85104  |  Sizes = [1,4,1,128,128]  |  hfloat8  |  expBias = 7, scale = 1  |    |  ModelParam = 0  |  strides = [65536, 65536, 16384, 16384, 128, 1]  |  data = 0, sizeInBytes = 65536  |  location = in SRAM  |  sramOffset = 0x1000fffffd2d0000  |  "
    }
  }
  attr {
    key: "outputTensor:0"
    value {
      s: "bf16-17_84501_slice_0_0_0_0_0__0__bundle_538_85121  |  Sizes = [1,4,4,128,128]  |  bf16  |  expBias = 0, scale = 1  |    |  ModelParam = 0  |  strides = [1048576, 1048576, 131072, 32768, 256, 2]  |  data = 0, sizeInBytes = 524288  |  isAliased = bf16-17_84501, type = concat, offset: 0  |  location = in DRAM  |  "
    }
  }
}
node {
  name: "module/model/25/fused_scaled_dot_product_attention/sdpa_recomp_fwd_hf8/6777_complex/sdpa_recomp_fwd_hf8_179/sdpa_recomp_core_fwd_hf8_89/fp8_gemm_hf8_1434/batch_gemm_16_bundle_538/op_13"
  op: "BatchGemm"
  input: "reshape_11_11_bundle_538/op_11"
  input: "reshape_5_5_bundle_538/op_8"
  attr {
    key: "Bundle_idx"
    value {
      s: "538"
    }
  }
  attr {
    key: "Exec_idx"
    value {
      s: "50"
    }
  }
  attr {
    key: "Op_idx"
    value {
      s: "18"
    }
  }
  attr {
    key: "Parameters"
    value {
      s: "transpose_a=false, transpose_b=true"
    }
  }
  attr {
    key: "fp8BiasIn"
    value {
      s: "7"
    }
  }
  attr {
    key: "fp8BiasIn2"
    value {
      s: "7"
    }
  }
  attr {
    key: "fp8BiasOut"
    value {
      s: "0"
    }
  }
  attr {
    key: "inputTensor:0"
    value {
      s: "tensor_106_id_96403_module/model/25/fused_scaled_dot_product_attention/aten__view_slice_0_0_0_1_0__0__bundle_538_85120  |  Sizes = [1,4,4,128,128]  |  hfloat8  |  expBias = 7, scale = 1  |    |  ModelParam = 0  |  strides = [262144, 262144, 65536, 16384, 128, 1]  |  data = 0, sizeInBytes = 262144  |  location = in SRAM  |  sramOffset = 0x1000fffffd330000  |  "
    }
  }
  attr {
    key: "inputTensor:1"
    value {
      s: "tensor_87_id_96405_module/model/25/fused_scaled_dot_product_attention/aten__view_slice_0_0_0_1_0__0__bundle_538_85116  |  Sizes = [1,4,1,128,128]  |  hfloat8  |  expBias = 7, scale = 1  |    |  ModelParam = 0  |  strides = [65536, 65536, 16384, 16384, 128, 1]  |  data = 0, sizeInBytes = 65536  |  location = in SRAM  |  sramOffset = 0x1000fffffd2e0000  |  "
    }
  }
  attr {
    key: "outputTensor:0"
    value {
      s: "bf16-17_84501_slice_0_0_0_1_0__0__bundle_538_85122  |  Sizes = [1,4,4,128,128]  |  bf16  |  expBias = 0, scale = 1  |    |  ModelParam = 0  |  strides = [1048576, 1048576, 131072, 32768, 256, 2]  |  data = 0, sizeInBytes = 524288  |  isAliased = bf16-17_84501, type = concat, offset: 524288  |  location = in DRAM  |  "
    }
  }
}
node {
  name: "bf16-17_84501_bundle_538/concat_logical_internal/0"
  op: "Concatenate"
  input: "module/model/25/fused_scaled_dot_product_attention/sdpa_recomp_fwd_hf8/6777_complex/sdpa_recomp_fwd_hf8_179/sdpa_recomp_core_fwd_hf8_89/fp8_gemm_hf8_1434/batch_gemm_16_bundle_538/op_12"
  input: "module/model/25/fused_scaled_dot_product_attention/sdpa_recomp_fwd_hf8/6777_complex/sdpa_recomp_fwd_hf8_179/sdpa_recomp_core_fwd_hf8_89/fp8_gemm_hf8_1434/batch_gemm_16_bundle_538/op_13"
  attr {
    key: "Bundle_idx"
    value {
      s: "538"
    }
  }
  attr {
    key: "Exec_idx"
    value {
      s: "51"
    }
  }
  attr {
    key: "Op_idx"
    value {
      s: "19"
    }
  }
  attr {
    key: "inputTensor:0"
    value {
      s: "bf16-17_84501_slice_0_0_0_0_0__0__bundle_538_85121  |  Sizes = [1,4,4,128,128]  |  bf16  |  expBias = 0, scale = 1  |    |  ModelParam = 0  |  strides = [1048576, 1048576, 131072, 32768, 256, 2]  |  data = 0, sizeInBytes = 524288  |  isAliased = bf16-17_84501, type = concat, offset: 0  |  location = in DRAM  |  "
    }
  }
  attr {
    key: "inputTensor:1"
    value {
      s: "bf16-17_84501_slice_0_0_0_1_0__0__bundle_538_85122  |  Sizes = [1,4,4,128,128]  |  bf16  |  expBias = 0, scale = 1  |    |  ModelParam = 0  |  strides = [1048576, 1048576, 131072, 32768, 256, 2]  |  data = 0, sizeInBytes = 524288  |  isAliased = bf16-17_84501, type = concat, offset: 524288  |  location = in DRAM  |  "
    }
  }
  attr {
    key: "outputTensor:0"
    value {
      s: "bf16-17_84501  |  Sizes = [1,8,4,128,128]  |  bf16  |  expBias = 0, scale = 1  |    |  ModelParam = 0  |  strides = [1048576, 1048576, 131072, 32768, 256, 2]  |  data = 0, sizeInBytes = 1048576  |  location = in DRAM  |  dramOffset = 0x140000  |  "
    }
  }
}
node {
  name: "module/model/25/fused_scaled_dot_product_attention/sdpa_recomp_fwd_hf8/6777_complex/sdpa_recomp_fwd_hf8_179/sdpa_recomp_core_fwd_hf8_89/constant_f32_18"
  op: "constant_f32"
  attr {
    key: "Bundle_idx"
    value {
      s: "N/A"
    }
  }
  attr {
    key: "Exec_idx"
    value {
      s: "52"
    }
  }
  attr {
    key: "Op_idx"
    value {
      s: "N/A"
    }
  }
  attr {
    key: "outputTensor:0"
    value {
      s: "f32-19_84502  |  Sizes = [1]  |  float32  |  expBias = 0, scale = 1  |    |  ModelParam = 0  |  strides = [4, 4]  |  data = 0, sizeInBytes = 4  |  location = in DRAM  |  dramOffset = 0x240000  |  "
    }
  }
}
node {
  name: "module/model/25/fused_scaled_dot_product_attention/sdpa_recomp_fwd_hf8/6777_complex/sdpa_recomp_fwd_hf8_179/sdpa_recomp_core_fwd_hf8_89/constant_f32_20"
  op: "constant_f32"
  attr {
    key: "Bundle_idx"
    value {
      s: "N/A"
    }
  }
  attr {
    key: "Exec_idx"
    value {
      s: "53"
    }
  }
  attr {
    key: "Op_idx"
    value {
      s: "N/A"
    }
  }
  attr {
    key: "outputTensor:0"
    value {
      s: "f32-21_84503  |  Sizes = [1]  |  float32  |  expBias = 0, scale = 1  |    |  ModelParam = 0  |  strides = [4, 4]  |  data = 0, sizeInBytes = 4  |  location = in DRAM  |  dramOffset = 0x240080  |  "
    }
  }
}
node {
  name: "tensor_67_bundle_539/split_internal/0"
  op: "Split"
  input: "module/model/25/quant_input_0/transpose/6755_transpose_via_logical"
  attr {
    key: "Bundle_idx"
    value {
      s: "539"
    }
  }
  attr {
    key: "Exec_idx"
    value {
      s: "54"
    }
  }
  attr {
    key: "Op_idx"
    value {
      s: "0"
    }
  }
  attr {
    key: "inputTensor:0"
    value {
      s: "tensor_67  |  Sizes = [1,8,128,128]  |  hfloat8  |  expBias = 7, scale = 1  |    |  ModelParam = 0  |  strides = [131072, 131072, 16384, 128, 1]  |  data = 0, sizeInBytes = 131072  |  isPersistent  |  location = in DRAM  |  dramOffset = 0x130000000000  |  userMemorySection(type=Persistent, id=19)  |  "
    }
  }
  attr {
    key: "outputTensor:0"
    value {
      s: "tensor_67_slice_0_0_0_0_0__0__bundle_539_85123  |  Sizes = [1,2,128,128]  |  hfloat8  |  expBias = 7, scale = 1  |    |  ModelParam = 0  |  strides = [131072, 131072, 16384, 128, 1]  |  data = 0, sizeInBytes = 32768  |  isAliased = tensor_67, type = concat, offset: 0  |  location = in DRAM  |  "
    }
  }
  attr {
    key: "outputTensor:1"
    value {
      s: "tensor_67_slice_0_0_1_0_0__0__bundle_539_85133  |  Sizes = [1,2,128,128]  |  hfloat8  |  expBias = 7, scale = 1  |    |  ModelParam = 0  |  strides = [131072, 131072, 16384, 128, 1]  |  data = 0, sizeInBytes = 32768  |  isAliased = tensor_67, type = concat, offset: 32768  |  location = in DRAM  |  "
    }
  }
  attr {
    key: "outputTensor:2"
    value {
      s: "tensor_67_slice_0_0_2_0_0__0__bundle_539_85140  |  Sizes = [1,2,128,128]  |  hfloat8  |  expBias = 7, scale = 1  |    |  ModelParam = 0  |  strides = [131072, 131072, 16384, 128, 1]  |  data = 0, sizeInBytes = 32768  |  isAliased = tensor_67, type = concat, offset: 65536  |  location = in DRAM  |  "
    }
  }
  attr {
    key: "outputTensor:3"
    value {
      s: "tensor_67_slice_0_0_3_0_0__0__bundle_539_85147  |  Sizes = [1,2,128,128]  |  hfloat8  |  expBias = 7, scale = 1  |    |  ModelParam = 0  |  strides = [131072, 131072, 16384, 128, 1]  |  data = 0, sizeInBytes = 32768  |  isAliased = tensor_67, type = concat, offset: 98304  |  location = in DRAM  |  "
    }
  }
}
node {
  name: "bf16-17_84501_bundle_539/split_internal/0"
  op: "Split"
  input: "bf16-17_84501_bundle_538/concat_logical_internal/0"
  attr {
    key: "Bundle_idx"
    value {
      s: "539"
    }
  }
  attr {
    key: "Exec_idx"
    value {
      s: "55"
    }
  }
  attr {
    key: "Op_idx"
    value {
      s: "1"
    }
  }
  attr {
    key: "inputTensor:0"
    value {
      s: "bf16-17_84501  |  Sizes = [1,8,4,128,128]  |  bf16  |  expBias = 0, scale = 1  |    |  ModelParam = 0  |  strides = [1048576, 1048576, 131072, 32768, 256, 2]  |  data = 0, sizeInBytes = 1048576  |  location = in DRAM  |  dramOffset = 0x140000  |  "
    }
  }
  attr {
    key: "outputTensor:0"
    value {
      s: "bf16-17_84501_slice_0_0_0_0_0__0__bundle_539_85127  |  Sizes = [1,2,4,128,128]  |  bf16  |  expBias = 0, scale = 1  |    |  ModelParam = 0  |  strides = [1048576, 1048576, 131072, 32768, 256, 2]  |  data = 0, sizeInBytes = 262144  |  isAliased = bf16-17_84501, type = concat, offset: 0  |  location = in DRAM  |  "
    }
  }
  attr {
    key: "outputTensor:1"
    value {
      s: "bf16-17_84501_slice_0_0_0_1_0__0__bundle_539_85137  |  Sizes = [1,2,4,128,128]  |  bf16  |  expBias = 0, scale = 1  |    |  ModelParam = 0  |  strides = [1048576, 1048576, 131072, 32768, 256, 2]  |  data = 0, sizeInBytes = 262144  |  isAliased = bf16-17_84501, type = concat, offset: 262144  |  location = in DRAM  |  "
    }
  }
  attr {
    key: "outputTensor:2"
    value {
      s: "bf16-17_84501_slice_0_0_0_2_0__0__bundle_539_85144  |  Sizes = [1,2,4,128,128]  |  bf16  |  expBias = 0, scale = 1  |    |  ModelParam = 0  |  strides = [1048576, 1048576, 131072, 32768, 256, 2]  |  data = 0, sizeInBytes = 262144  |  isAliased = bf16-17_84501, type = concat, offset: 524288  |  location = in DRAM  |  "
    }
  }
  attr {
    key: "outputTensor:3"
    value {
      s: "bf16-17_84501_slice_0_0_0_3_0__0__bundle_539_85151  |  Sizes = [1,2,4,128,128]  |  bf16  |  expBias = 0, scale = 1  |    |  ModelParam = 0  |  strides = [1048576, 1048576, 131072, 32768, 256, 2]  |  data = 0, sizeInBytes = 262144  |  isAliased = bf16-17_84501, type = concat, offset: 786432  |  location = in DRAM  |  "
    }
  }
}
node {
  name: "fusedTPCNode_112_2_bundle_539/op_0"
  op: "fused_kernel_0xF02792F9_1D9_bf16"
  input: "tensor_67_bundle_539/split_internal/0"
  attr {
    key: "Bundle_idx"
    value {
      s: "539"
    }
  }
  attr {
    key: "Exec_idx"
    value {
      s: "56"
    }
  }
  attr {
    key: "Op_idx"
    value {
      s: "2"
    }
  }
  attr {
    key: "inputTensor:0"
    value {
      s: "tensor_67_slice_0_0_0_0_0__0__bundle_539_85123  |  Sizes = [1,2,128,128]  |  hfloat8  |  expBias = 7, scale = 1  |    |  ModelParam = 0  |  strides = [131072, 131072, 16384, 128, 1]  |  data = 0, sizeInBytes = 32768  |  isAliased = tensor_67, type = concat, offset: 0  |  location = in DRAM  |  "
    }
  }
  attr {
    key: "outputTensor:0"
    value {
      s: "tensor_70_slice_0_0_0_0_0__0__bundle_539_85124  |  Sizes = [1,2,128,128]  |  bf16  |  expBias = 0, scale = 1  |    |  ModelParam = 0  |  strides = [262144, 262144, 32768, 256, 2]  |  data = 0, sizeInBytes = 65536  |  isAliased = tensor_70, type = concat, offset: 0  |  location = in DRAM  |  "
    }
  }
  attr {
    key: "outputTensor:1"
    value {
      s: "tensor-84703_slice_0_0_0_0_0__0__bundle_539_85125  |  Sizes = [1,2,128,128]  |  hfloat8  |  expBias = 7, scale = 1  |    |  ModelParam = 0  |  strides = [32768, 32768, 16384, 128, 1]  |  data = 0, sizeInBytes = 32768  |  isAliased = tensor_82_id_96407_module/model/25/fused_scaled_dot_product_attention/aten__view_slice_0_0_0_0_0__0__bundle_539_85126, type = alias, offset: 0  |  location = in SRAM  |  sramOffset = 0x1000fffffd370000  |  "
    }
  }
}
node {
  name: "reshape_8_8_bundle_539/op_1"
  op: "Reshape"
  input: "fusedTPCNode_112_2_bundle_539/op_0"
  attr {
    key: "Bundle_idx"
    value {
      s: "539"
    }
  }
  attr {
    key: "Exec_idx"
    value {
      s: "57"
    }
  }
  attr {
    key: "Op_idx"
    value {
      s: "3"
    }
  }
  attr {
    key: "inputTensor:0"
    value {
      s: "tensor-84703_slice_0_0_0_0_0__0__bundle_539_85125  |  Sizes = [1,2,128,128]  |  hfloat8  |  expBias = 7, scale = 1  |    |  ModelParam = 0  |  strides = [32768, 32768, 16384, 128, 1]  |  data = 0, sizeInBytes = 32768  |  isAliased = tensor_82_id_96407_module/model/25/fused_scaled_dot_product_attention/aten__view_slice_0_0_0_0_0__0__bundle_539_85126, type = alias, offset: 0  |  location = in SRAM  |  sramOffset = 0x1000fffffd370000  |  "
    }
  }
  attr {
    key: "outputTensor:0"
    value {
      s: "tensor_82_id_96407_module/model/25/fused_scaled_dot_product_attention/aten__view_slice_0_0_0_0_0__0__bundle_539_85126  |  Sizes = [1,2,1,128,128]  |  hfloat8  |  expBias = 7, scale = 1  |    |  ModelParam = 0  |  strides = [32768, 32768, 16384, 16384, 128, 1]  |  data = 0, sizeInBytes = 32768  |  location = in SRAM  |  sramOffset = 0x1000fffffd370000  |  "
    }
  }
}
node {
  name: "tensor_110_odule/model/25/fused_scaled_dot_product_attention/placeholder/7"
  op: "Placeholder"
  attr {
    key: "dtype"
    value {
      type: DT_FLOAT
    }
  }
  attr {
    key: "shape"
    value {
      shape {
        dim {
          size: 1
        }
        dim {
          size: 1
        }
        dim {
          size: 1
        }
        dim {
          size: 1
        }
        dim {
          size: 1
        }
      }
    }
  }
  attr {
    key: "synDataType"
    value {
      s: "float32"
    }
  }
}
node {
  name: "module/model/25/fused_scaled_dot_product_attention/sdpa_recomp_fwd_hf8/6777_complex/sdpa_recomp_fwd_hf8_179/sdpa_recomp_core_fwd_hf8_89/softmax_fwd_hf8_22_bundle_539/op_2"
  op: "softmax_fwd_hf8"
  input: "bf16-17_84501_bundle_539/split_internal/0"
  input: "module/model/25/fused_scaled_dot_product_attention/sdpa_recomp_fwd_hf8/6777_complex/sdpa_recomp_fwd_hf8_179/sdpa_recomp_core_fwd_hf8_89/constant_f32_18"
  input: "module/model/25/fused_scaled_dot_product_attention/sdpa_recomp_fwd_hf8/6777_complex/sdpa_recomp_fwd_hf8_179/sdpa_recomp_core_fwd_hf8_89/constant_f32_20"
  input: "tensor_110_odule/model/25/fused_scaled_dot_product_attention/placeholder/7"
  input: "module/model/25/fused_scaled_dot_product_attention/expand_dims/6764"
  attr {
    key: "Bundle_idx"
    value {
      s: "539"
    }
  }
  attr {
    key: "Exec_idx"
    value {
      s: "58"
    }
  }
  attr {
    key: "Op_idx"
    value {
      s: "4"
    }
  }
  attr {
    key: "inputTensor:0"
    value {
      s: "bf16-17_84501_slice_0_0_0_0_0__0__bundle_539_85127  |  Sizes = [1,2,4,128,128]  |  bf16  |  expBias = 0, scale = 1  |    |  ModelParam = 0  |  strides = [1048576, 1048576, 131072, 32768, 256, 2]  |  data = 0, sizeInBytes = 262144  |  isAliased = bf16-17_84501, type = concat, offset: 0  |  location = in DRAM  |  "
    }
  }
  attr {
    key: "inputTensor:1"
    value {
      s: "f32-19_84502  |  Sizes = [1]  |  float32  |  expBias = 0, scale = 1  |    |  ModelParam = 0  |  strides = [4, 4]  |  data = 0, sizeInBytes = 4  |  location = in DRAM  |  dramOffset = 0x240000  |  "
    }
  }
  attr {
    key: "inputTensor:2"
    value {
      s: "f32-21_84503  |  Sizes = [1]  |  float32  |  expBias = 0, scale = 1  |    |  ModelParam = 0  |  strides = [4, 4]  |  data = 0, sizeInBytes = 4  |  location = in DRAM  |  dramOffset = 0x240080  |  "
    }
  }
  attr {
    key: "inputTensor:3"
    value {
      s: "tensor_110_odule/model/25/fused_scaled_dot_product_attention/placeholder/7  |  Sizes = [1]  |  float32  |  expBias = 0, scale = 1  |    |  ModelParam = 0  |  strides = [4, 4]  |  data = 0x5647317df6f8, sizeInBytes = 4  |  buffer = 16  |  isPersistent  |  location = in DRAM  |  dramOffset = 0x270000000000  |  userMemorySection(type=Persistent, id=39)  |  isStaticParam  |  bufferDtype=float32  |  "
    }
  }
  attr {
    key: "inputTensor:4"
    value {
      s: "tensor_77_id_96409_module/model/25/fused_scaled_dot_product_attention/aten__unsqueeze  |  Sizes = [1,1,1,128,128]  |  bf16  |  expBias = 0, scale = 1  |    |  ModelParam = 0  |  strides = [32768, 32768, 32768, 32768, 256, 2]  |  data = 0, sizeInBytes = 32768  |  isAliased = tensor_71_odule/model/25/fused_scaled_dot_product_attention/placeholder/0, type = alias, offset: 0  |  location = in DRAM  |  "
    }
  }
  attr {
    key: "outputTensor:0"
    value {
      s: "hf8-23_84504_slice_0_0_0_0_0__0__bundle_539_85132  |  Sizes = [1,2,4,128,128]  |  hfloat8  |  expBias = 7, scale = 1  |    |  ModelParam = 0  |  strides = [131072, 131072, 65536, 16384, 128, 1]  |  data = 0, sizeInBytes = 131072  |  location = in SRAM  |  sramOffset = 0x1000fffffd380000  |  "
    }
  }
}
node {
  name: "fusedTPCNode_112_2_bundle_539/op_3"
  op: "fused_kernel_0xF02792F9_1D9_bf16"
  input: "tensor_67_bundle_539/split_internal/0"
  attr {
    key: "Bundle_idx"
    value {
      s: "539"
    }
  }
  attr {
    key: "Exec_idx"
    value {
      s: "59"
    }
  }
  attr {
    key: "Op_idx"
    value {
      s: "5"
    }
  }
  attr {
    key: "inputTensor:0"
    value {
      s: "tensor_67_slice_0_0_1_0_0__0__bundle_539_85133  |  Sizes = [1,2,128,128]  |  hfloat8  |  expBias = 7, scale = 1  |    |  ModelParam = 0  |  strides = [131072, 131072, 16384, 128, 1]  |  data = 0, sizeInBytes = 32768  |  isAliased = tensor_67, type = concat, offset: 32768  |  location = in DRAM  |  "
    }
  }
  attr {
    key: "outputTensor:0"
    value {
      s: "tensor_70_slice_0_0_1_0_0__0__bundle_539_85134  |  Sizes = [1,2,128,128]  |  bf16  |  expBias = 0, scale = 1  |    |  ModelParam = 0  |  strides = [262144, 262144, 32768, 256, 2]  |  data = 0, sizeInBytes = 65536  |  isAliased = tensor_70, type = concat, offset: 65536  |  location = in DRAM  |  "
    }
  }
  attr {
    key: "outputTensor:1"
    value {
      s: "tensor-84703_slice_0_0_1_0_0__0__bundle_539_85135  |  Sizes = [1,2,128,128]  |  hfloat8  |  expBias = 7, scale = 1  |    |  ModelParam = 0  |  strides = [32768, 32768, 16384, 128, 1]  |  data = 0, sizeInBytes = 32768  |  isAliased = tensor_82_id_96407_module/model/25/fused_scaled_dot_product_attention/aten__view_slice_0_0_0_1_0__0__bundle_539_85136, type = alias, offset: 0  |  location = in SRAM  |  sramOffset = 0x1000fffffd378000  |  "
    }
  }
}
node {
  name: "reshape_8_8_bundle_539/op_4"
  op: "Reshape"
  input: "fusedTPCNode_112_2_bundle_539/op_3"
  attr {
    key: "Bundle_idx"
    value {
      s: "539"
    }
  }
  attr {
    key: "Exec_idx"
    value {
      s: "60"
    }
  }
  attr {
    key: "Op_idx"
    value {
      s: "6"
    }
  }
  attr {
    key: "inputTensor:0"
    value {
      s: "tensor-84703_slice_0_0_1_0_0__0__bundle_539_85135  |  Sizes = [1,2,128,128]  |  hfloat8  |  expBias = 7, scale = 1  |    |  ModelParam = 0  |  strides = [32768, 32768, 16384, 128, 1]  |  data = 0, sizeInBytes = 32768  |  isAliased = tensor_82_id_96407_module/model/25/fused_scaled_dot_product_attention/aten__view_slice_0_0_0_1_0__0__bundle_539_85136, type = alias, offset: 0  |  location = in SRAM  |  sramOffset = 0x1000fffffd378000  |  "
    }
  }
  attr {
    key: "outputTensor:0"
    value {
      s: "tensor_82_id_96407_module/model/25/fused_scaled_dot_product_attention/aten__view_slice_0_0_0_1_0__0__bundle_539_85136  |  Sizes = [1,2,1,128,128]  |  hfloat8  |  expBias = 7, scale = 1  |    |  ModelParam = 0  |  strides = [32768, 32768, 16384, 16384, 128, 1]  |  data = 0, sizeInBytes = 32768  |  location = in SRAM  |  sramOffset = 0x1000fffffd378000  |  "
    }
  }
}
node {
  name: "module/model/25/fused_scaled_dot_product_attention/sdpa_recomp_fwd_hf8/6777_complex/sdpa_recomp_fwd_hf8_179/sdpa_recomp_core_fwd_hf8_89/softmax_fwd_hf8_22_bundle_539/op_5"
  op: "softmax_fwd_hf8"
  input: "bf16-17_84501_bundle_539/split_internal/0"
  input: "module/model/25/fused_scaled_dot_product_attention/sdpa_recomp_fwd_hf8/6777_complex/sdpa_recomp_fwd_hf8_179/sdpa_recomp_core_fwd_hf8_89/constant_f32_18"
  input: "module/model/25/fused_scaled_dot_product_attention/sdpa_recomp_fwd_hf8/6777_complex/sdpa_recomp_fwd_hf8_179/sdpa_recomp_core_fwd_hf8_89/constant_f32_20"
  input: "tensor_110_odule/model/25/fused_scaled_dot_product_attention/placeholder/7"
  input: "module/model/25/fused_scaled_dot_product_attention/expand_dims/6764"
  attr {
    key: "Bundle_idx"
    value {
      s: "539"
    }
  }
  attr {
    key: "Exec_idx"
    value {
      s: "61"
    }
  }
  attr {
    key: "Op_idx"
    value {
      s: "7"
    }
  }
  attr {
    key: "inputTensor:0"
    value {
      s: "bf16-17_84501_slice_0_0_0_1_0__0__bundle_539_85137  |  Sizes = [1,2,4,128,128]  |  bf16  |  expBias = 0, scale = 1  |    |  ModelParam = 0  |  strides = [1048576, 1048576, 131072, 32768, 256, 2]  |  data = 0, sizeInBytes = 262144  |  isAliased = bf16-17_84501, type = concat, offset: 262144  |  location = in DRAM  |  "
    }
  }
  attr {
    key: "inputTensor:1"
    value {
      s: "f32-19_84502  |  Sizes = [1]  |  float32  |  expBias = 0, scale = 1  |    |  ModelParam = 0  |  strides = [4, 4]  |  data = 0, sizeInBytes = 4  |  location = in DRAM  |  dramOffset = 0x240000  |  "
    }
  }
  attr {
    key: "inputTensor:2"
    value {
      s: "f32-21_84503  |  Sizes = [1]  |  float32  |  expBias = 0, scale = 1  |    |  ModelParam = 0  |  strides = [4, 4]  |  data = 0, sizeInBytes = 4  |  location = in DRAM  |  dramOffset = 0x240080  |  "
    }
  }
  attr {
    key: "inputTensor:3"
    value {
      s: "tensor_110_odule/model/25/fused_scaled_dot_product_attention/placeholder/7  |  Sizes = [1]  |  float32  |  expBias = 0, scale = 1  |    |  ModelParam = 0  |  strides = [4, 4]  |  data = 0x5647317df6f8, sizeInBytes = 4  |  buffer = 16  |  isPersistent  |  location = in DRAM  |  dramOffset = 0x270000000000  |  userMemorySection(type=Persistent, id=39)  |  isStaticParam  |  bufferDtype=float32  |  "
    }
  }
  attr {
    key: "inputTensor:4"
    value {
      s: "tensor_77_id_96409_module/model/25/fused_scaled_dot_product_attention/aten__unsqueeze  |  Sizes = [1,1,1,128,128]  |  bf16  |  expBias = 0, scale = 1  |    |  ModelParam = 0  |  strides = [32768, 32768, 32768, 32768, 256, 2]  |  data = 0, sizeInBytes = 32768  |  isAliased = tensor_71_odule/model/25/fused_scaled_dot_product_attention/placeholder/0, type = alias, offset: 0  |  location = in DRAM  |  "
    }
  }
  attr {
    key: "outputTensor:0"
    value {
      s: "hf8-23_84504_slice_0_0_0_1_0__0__bundle_539_85138  |  Sizes = [1,2,4,128,128]  |  hfloat8  |  expBias = 7, scale = 1  |    |  ModelParam = 0  |  strides = [131072, 131072, 65536, 16384, 128, 1]  |  data = 0, sizeInBytes = 131072  |  location = in SRAM  |  sramOffset = 0x1000fffffd3a0000  |  "
    }
  }
}
node {
  name: "module/model/25/fused_scaled_dot_product_attention/sdpa_recomp_fwd_hf8/6777_complex/sdpa_recomp_fwd_hf8_179/sdpa_recomp_core_fwd_hf8_89/fp8_gemm_hf8_1435/batch_gemm_24_bundle_539/op_6"
  op: "BatchGemm"
  input: "module/model/25/fused_scaled_dot_product_attention/sdpa_recomp_fwd_hf8/6777_complex/sdpa_recomp_fwd_hf8_179/sdpa_recomp_core_fwd_hf8_89/softmax_fwd_hf8_22_bundle_539/op_2"
  input: "reshape_8_8_bundle_539/op_1"
  attr {
    key: "Bundle_idx"
    value {
      s: "539"
    }
  }
  attr {
    key: "Exec_idx"
    value {
      s: "62"
    }
  }
  attr {
    key: "Op_idx"
    value {
      s: "8"
    }
  }
  attr {
    key: "Parameters"
    value {
      s: "transpose_a=false, transpose_b=false"
    }
  }
  attr {
    key: "fp8BiasIn"
    value {
      s: "11"
    }
  }
  attr {
    key: "fp8BiasIn2"
    value {
      s: "7"
    }
  }
  attr {
    key: "fp8BiasOut"
    value {
      s: "7"
    }
  }
  attr {
    key: "inputTensor:0"
    value {
      s: "hf8-23_84504_slice_0_0_0_0_0__0__bundle_539_85132  |  Sizes = [1,2,4,128,128]  |  hfloat8  |  expBias = 7, scale = 1  |    |  ModelParam = 0  |  strides = [131072, 131072, 65536, 16384, 128, 1]  |  data = 0, sizeInBytes = 131072  |  location = in SRAM  |  sramOffset = 0x1000fffffd380000  |  "
    }
  }
  attr {
    key: "inputTensor:1"
    value {
      s: "tensor_82_id_96407_module/model/25/fused_scaled_dot_product_attention/aten__view_slice_0_0_0_0_0__0__bundle_539_85126  |  Sizes = [1,2,1,128,128]  |  hfloat8  |  expBias = 7, scale = 1  |    |  ModelParam = 0  |  strides = [32768, 32768, 16384, 16384, 128, 1]  |  data = 0, sizeInBytes = 32768  |  location = in SRAM  |  sramOffset = 0x1000fffffd370000  |  "
    }
  }
  attr {
    key: "outputTensor:0"
    value {
      s: "tensor_118_slice_0_0_0_0_0__0__bundle_539_85139  |  Sizes = [1,2,4,128,128]  |  hfloat8  |  expBias = 7, scale = 1  |    |  ModelParam = 0  |  strides = [524288, 524288, 65536, 16384, 128, 1]  |  data = 0, sizeInBytes = 131072  |  isAliased = tensor_118, type = concat, offset: 0  |  location = in DRAM  |  "
    }
  }
}
node {
  name: "module/model/25/fused_scaled_dot_product_attention/sdpa_recomp_fwd_hf8/6777_complex/sdpa_recomp_fwd_hf8_179/sdpa_recomp_core_fwd_hf8_89/fp8_gemm_hf8_1435/batch_gemm_24_bundle_539/op_10"
  op: "BatchGemm"
  input: "module/model/25/fused_scaled_dot_product_attention/sdpa_recomp_fwd_hf8/6777_complex/sdpa_recomp_fwd_hf8_179/sdpa_recomp_core_fwd_hf8_89/softmax_fwd_hf8_22_bundle_539/op_5"
  input: "reshape_8_8_bundle_539/op_4"
  attr {
    key: "Bundle_idx"
    value {
      s: "539"
    }
  }
  attr {
    key: "Exec_idx"
    value {
      s: "63"
    }
  }
  attr {
    key: "Op_idx"
    value {
      s: "9"
    }
  }
  attr {
    key: "Parameters"
    value {
      s: "transpose_a=false, transpose_b=false"
    }
  }
  attr {
    key: "fp8BiasIn"
    value {
      s: "11"
    }
  }
  attr {
    key: "fp8BiasIn2"
    value {
      s: "7"
    }
  }
  attr {
    key: "fp8BiasOut"
    value {
      s: "7"
    }
  }
  attr {
    key: "inputTensor:0"
    value {
      s: "hf8-23_84504_slice_0_0_0_1_0__0__bundle_539_85138  |  Sizes = [1,2,4,128,128]  |  hfloat8  |  expBias = 7, scale = 1  |    |  ModelParam = 0  |  strides = [131072, 131072, 65536, 16384, 128, 1]  |  data = 0, sizeInBytes = 131072  |  location = in SRAM  |  sramOffset = 0x1000fffffd3a0000  |  "
    }
  }
  attr {
    key: "inputTensor:1"
    value {
      s: "tensor_82_id_96407_module/model/25/fused_scaled_dot_product_attention/aten__view_slice_0_0_0_1_0__0__bundle_539_85136  |  Sizes = [1,2,1,128,128]  |  hfloat8  |  expBias = 7, scale = 1  |    |  ModelParam = 0  |  strides = [32768, 32768, 16384, 16384, 128, 1]  |  data = 0, sizeInBytes = 32768  |  location = in SRAM  |  sramOffset = 0x1000fffffd378000  |  "
    }
  }
  attr {
    key: "outputTensor:0"
    value {
      s: "tensor_118_slice_0_0_0_1_0__0__bundle_539_85146  |  Sizes = [1,2,4,128,128]  |  hfloat8  |  expBias = 7, scale = 1  |    |  ModelParam = 0  |  strides = [524288, 524288, 65536, 16384, 128, 1]  |  data = 0, sizeInBytes = 131072  |  isAliased = tensor_118, type = concat, offset: 131072  |  location = in DRAM  |  "
    }
  }
}
node {
  name: "fusedTPCNode_112_2_bundle_539/op_7"
  op: "fused_kernel_0xF02792F9_1D9_bf16"
  input: "tensor_67_bundle_539/split_internal/0"
  attr {
    key: "Bundle_idx"
    value {
      s: "539"
    }
  }
  attr {
    key: "Exec_idx"
    value {
      s: "64"
    }
  }
  attr {
    key: "Op_idx"
    value {
      s: "10"
    }
  }
  attr {
    key: "inputTensor:0"
    value {
      s: "tensor_67_slice_0_0_2_0_0__0__bundle_539_85140  |  Sizes = [1,2,128,128]  |  hfloat8  |  expBias = 7, scale = 1  |    |  ModelParam = 0  |  strides = [131072, 131072, 16384, 128, 1]  |  data = 0, sizeInBytes = 32768  |  isAliased = tensor_67, type = concat, offset: 65536  |  location = in DRAM  |  "
    }
  }
  attr {
    key: "outputTensor:0"
    value {
      s: "tensor_70_slice_0_0_2_0_0__0__bundle_539_85141  |  Sizes = [1,2,128,128]  |  bf16  |  expBias = 0, scale = 1  |    |  ModelParam = 0  |  strides = [262144, 262144, 32768, 256, 2]  |  data = 0, sizeInBytes = 65536  |  isAliased = tensor_70, type = concat, offset: 131072  |  location = in DRAM  |  "
    }
  }
  attr {
    key: "outputTensor:1"
    value {
      s: "tensor-84703_slice_0_0_2_0_0__0__bundle_539_85142  |  Sizes = [1,2,128,128]  |  hfloat8  |  expBias = 7, scale = 1  |    |  ModelParam = 0  |  strides = [32768, 32768, 16384, 128, 1]  |  data = 0, sizeInBytes = 32768  |  isAliased = tensor_82_id_96407_module/model/25/fused_scaled_dot_product_attention/aten__view_slice_0_0_0_2_0__0__bundle_539_85143, type = alias, offset: 0  |  location = in SRAM  |  sramOffset = 0x1000fffffd370000  |  "
    }
  }
}
node {
  name: "reshape_8_8_bundle_539/op_8"
  op: "Reshape"
  input: "fusedTPCNode_112_2_bundle_539/op_7"
  attr {
    key: "Bundle_idx"
    value {
      s: "539"
    }
  }
  attr {
    key: "Exec_idx"
    value {
      s: "65"
    }
  }
  attr {
    key: "Op_idx"
    value {
      s: "11"
    }
  }
  attr {
    key: "inputTensor:0"
    value {
      s: "tensor-84703_slice_0_0_2_0_0__0__bundle_539_85142  |  Sizes = [1,2,128,128]  |  hfloat8  |  expBias = 7, scale = 1  |    |  ModelParam = 0  |  strides = [32768, 32768, 16384, 128, 1]  |  data = 0, sizeInBytes = 32768  |  isAliased = tensor_82_id_96407_module/model/25/fused_scaled_dot_product_attention/aten__view_slice_0_0_0_2_0__0__bundle_539_85143, type = alias, offset: 0  |  location = in SRAM  |  sramOffset = 0x1000fffffd370000  |  "
    }
  }
  attr {
    key: "outputTensor:0"
    value {
      s: "tensor_82_id_96407_module/model/25/fused_scaled_dot_product_attention/aten__view_slice_0_0_0_2_0__0__bundle_539_85143  |  Sizes = [1,2,1,128,128]  |  hfloat8  |  expBias = 7, scale = 1  |    |  ModelParam = 0  |  strides = [32768, 32768, 16384, 16384, 128, 1]  |  data = 0, sizeInBytes = 32768  |  location = in SRAM  |  sramOffset = 0x1000fffffd370000  |  "
    }
  }
}
node {
  name: "module/model/25/fused_scaled_dot_product_attention/sdpa_recomp_fwd_hf8/6777_complex/sdpa_recomp_fwd_hf8_179/sdpa_recomp_core_fwd_hf8_89/softmax_fwd_hf8_22_bundle_539/op_9"
  op: "softmax_fwd_hf8"
  input: "bf16-17_84501_bundle_539/split_internal/0"
  input: "module/model/25/fused_scaled_dot_product_attention/sdpa_recomp_fwd_hf8/6777_complex/sdpa_recomp_fwd_hf8_179/sdpa_recomp_core_fwd_hf8_89/constant_f32_18"
  input: "module/model/25/fused_scaled_dot_product_attention/sdpa_recomp_fwd_hf8/6777_complex/sdpa_recomp_fwd_hf8_179/sdpa_recomp_core_fwd_hf8_89/constant_f32_20"
  input: "tensor_110_odule/model/25/fused_scaled_dot_product_attention/placeholder/7"
  input: "module/model/25/fused_scaled_dot_product_attention/expand_dims/6764"
  attr {
    key: "Bundle_idx"
    value {
      s: "539"
    }
  }
  attr {
    key: "Exec_idx"
    value {
      s: "66"
    }
  }
  attr {
    key: "Op_idx"
    value {
      s: "12"
    }
  }
  attr {
    key: "inputTensor:0"
    value {
      s: "bf16-17_84501_slice_0_0_0_2_0__0__bundle_539_85144  |  Sizes = [1,2,4,128,128]  |  bf16  |  expBias = 0, scale = 1  |    |  ModelParam = 0  |  strides = [1048576, 1048576, 131072, 32768, 256, 2]  |  data = 0, sizeInBytes = 262144  |  isAliased = bf16-17_84501, type = concat, offset: 524288  |  location = in DRAM  |  "
    }
  }
  attr {
    key: "inputTensor:1"
    value {
      s: "f32-19_84502  |  Sizes = [1]  |  float32  |  expBias = 0, scale = 1  |    |  ModelParam = 0  |  strides = [4, 4]  |  data = 0, sizeInBytes = 4  |  location = in DRAM  |  dramOffset = 0x240000  |  "
    }
  }
  attr {
    key: "inputTensor:2"
    value {
      s: "f32-21_84503  |  Sizes = [1]  |  float32  |  expBias = 0, scale = 1  |    |  ModelParam = 0  |  strides = [4, 4]  |  data = 0, sizeInBytes = 4  |  location = in DRAM  |  dramOffset = 0x240080  |  "
    }
  }
  attr {
    key: "inputTensor:3"
    value {
      s: "tensor_110_odule/model/25/fused_scaled_dot_product_attention/placeholder/7  |  Sizes = [1]  |  float32  |  expBias = 0, scale = 1  |    |  ModelParam = 0  |  strides = [4, 4]  |  data = 0x5647317df6f8, sizeInBytes = 4  |  buffer = 16  |  isPersistent  |  location = in DRAM  |  dramOffset = 0x270000000000  |  userMemorySection(type=Persistent, id=39)  |  isStaticParam  |  bufferDtype=float32  |  "
    }
  }
  attr {
    key: "inputTensor:4"
    value {
      s: "tensor_77_id_96409_module/model/25/fused_scaled_dot_product_attention/aten__unsqueeze  |  Sizes = [1,1,1,128,128]  |  bf16  |  expBias = 0, scale = 1  |    |  ModelParam = 0  |  strides = [32768, 32768, 32768, 32768, 256, 2]  |  data = 0, sizeInBytes = 32768  |  isAliased = tensor_71_odule/model/25/fused_scaled_dot_product_attention/placeholder/0, type = alias, offset: 0  |  location = in DRAM  |  "
    }
  }
  attr {
    key: "outputTensor:0"
    value {
      s: "hf8-23_84504_slice_0_0_0_2_0__0__bundle_539_85145  |  Sizes = [1,2,4,128,128]  |  hfloat8  |  expBias = 7, scale = 1  |    |  ModelParam = 0  |  strides = [131072, 131072, 65536, 16384, 128, 1]  |  data = 0, sizeInBytes = 131072  |  location = in SRAM  |  sramOffset = 0x1000fffffd380000  |  "
    }
  }
}
node {
  name: "fusedTPCNode_112_2_bundle_539/op_11"
  op: "fused_kernel_0xF02792F9_1D9_bf16"
  input: "tensor_67_bundle_539/split_internal/0"
  attr {
    key: "Bundle_idx"
    value {
      s: "539"
    }
  }
  attr {
    key: "Exec_idx"
    value {
      s: "67"
    }
  }
  attr {
    key: "Op_idx"
    value {
      s: "13"
    }
  }
  attr {
    key: "inputTensor:0"
    value {
      s: "tensor_67_slice_0_0_3_0_0__0__bundle_539_85147  |  Sizes = [1,2,128,128]  |  hfloat8  |  expBias = 7, scale = 1  |    |  ModelParam = 0  |  strides = [131072, 131072, 16384, 128, 1]  |  data = 0, sizeInBytes = 32768  |  isAliased = tensor_67, type = concat, offset: 98304  |  location = in DRAM  |  "
    }
  }
  attr {
    key: "outputTensor:0"
    value {
      s: "tensor_70_slice_0_0_3_0_0__0__bundle_539_85148  |  Sizes = [1,2,128,128]  |  bf16  |  expBias = 0, scale = 1  |    |  ModelParam = 0  |  strides = [262144, 262144, 32768, 256, 2]  |  data = 0, sizeInBytes = 65536  |  isAliased = tensor_70, type = concat, offset: 196608  |  location = in DRAM  |  "
    }
  }
  attr {
    key: "outputTensor:1"
    value {
      s: "tensor-84703_slice_0_0_3_0_0__0__bundle_539_85149  |  Sizes = [1,2,128,128]  |  hfloat8  |  expBias = 7, scale = 1  |    |  ModelParam = 0  |  strides = [32768, 32768, 16384, 128, 1]  |  data = 0, sizeInBytes = 32768  |  isAliased = tensor_82_id_96407_module/model/25/fused_scaled_dot_product_attention/aten__view_slice_0_0_0_3_0__0__bundle_539_85150, type = alias, offset: 0  |  location = in SRAM  |  sramOffset = 0x1000fffffd378000  |  "
    }
  }
}
node {
  name: "reshape_8_8_bundle_539/op_12"
  op: "Reshape"
  input: "fusedTPCNode_112_2_bundle_539/op_11"
  attr {
    key: "Bundle_idx"
    value {
      s: "539"
    }
  }
  attr {
    key: "Exec_idx"
    value {
      s: "68"
    }
  }
  attr {
    key: "Op_idx"
    value {
      s: "14"
    }
  }
  attr {
    key: "inputTensor:0"
    value {
      s: "tensor-84703_slice_0_0_3_0_0__0__bundle_539_85149  |  Sizes = [1,2,128,128]  |  hfloat8  |  expBias = 7, scale = 1  |    |  ModelParam = 0  |  strides = [32768, 32768, 16384, 128, 1]  |  data = 0, sizeInBytes = 32768  |  isAliased = tensor_82_id_96407_module/model/25/fused_scaled_dot_product_attention/aten__view_slice_0_0_0_3_0__0__bundle_539_85150, type = alias, offset: 0  |  location = in SRAM  |  sramOffset = 0x1000fffffd378000  |  "
    }
  }
  attr {
    key: "outputTensor:0"
    value {
      s: "tensor_82_id_96407_module/model/25/fused_scaled_dot_product_attention/aten__view_slice_0_0_0_3_0__0__bundle_539_85150  |  Sizes = [1,2,1,128,128]  |  hfloat8  |  expBias = 7, scale = 1  |    |  ModelParam = 0  |  strides = [32768, 32768, 16384, 16384, 128, 1]  |  data = 0, sizeInBytes = 32768  |  location = in SRAM  |  sramOffset = 0x1000fffffd378000  |  "
    }
  }
}
node {
  name: "tensor_70_bundle_539/concat_logical_internal/0"
  op: "Concatenate"
  input: "fusedTPCNode_112_2_bundle_539/op_0"
  input: "fusedTPCNode_112_2_bundle_539/op_3"
  input: "fusedTPCNode_112_2_bundle_539/op_7"
  input: "fusedTPCNode_112_2_bundle_539/op_11"
  attr {
    key: "Bundle_idx"
    value {
      s: "539"
    }
  }
  attr {
    key: "Exec_idx"
    value {
      s: "69"
    }
  }
  attr {
    key: "Op_idx"
    value {
      s: "15"
    }
  }
  attr {
    key: "inputTensor:0"
    value {
      s: "tensor_70_slice_0_0_0_0_0__0__bundle_539_85124  |  Sizes = [1,2,128,128]  |  bf16  |  expBias = 0, scale = 1  |    |  ModelParam = 0  |  strides = [262144, 262144, 32768, 256, 2]  |  data = 0, sizeInBytes = 65536  |  isAliased = tensor_70, type = concat, offset: 0  |  location = in DRAM  |  "
    }
  }
  attr {
    key: "inputTensor:1"
    value {
      s: "tensor_70_slice_0_0_1_0_0__0__bundle_539_85134  |  Sizes = [1,2,128,128]  |  bf16  |  expBias = 0, scale = 1  |    |  ModelParam = 0  |  strides = [262144, 262144, 32768, 256, 2]  |  data = 0, sizeInBytes = 65536  |  isAliased = tensor_70, type = concat, offset: 65536  |  location = in DRAM  |  "
    }
  }
  attr {
    key: "inputTensor:2"
    value {
      s: "tensor_70_slice_0_0_2_0_0__0__bundle_539_85141  |  Sizes = [1,2,128,128]  |  bf16  |  expBias = 0, scale = 1  |    |  ModelParam = 0  |  strides = [262144, 262144, 32768, 256, 2]  |  data = 0, sizeInBytes = 65536  |  isAliased = tensor_70, type = concat, offset: 131072  |  location = in DRAM  |  "
    }
  }
  attr {
    key: "inputTensor:3"
    value {
      s: "tensor_70_slice_0_0_3_0_0__0__bundle_539_85148  |  Sizes = [1,2,128,128]  |  bf16  |  expBias = 0, scale = 1  |    |  ModelParam = 0  |  strides = [262144, 262144, 32768, 256, 2]  |  data = 0, sizeInBytes = 65536  |  isAliased = tensor_70, type = concat, offset: 196608  |  location = in DRAM  |  "
    }
  }
  attr {
    key: "outputTensor:0"
    value {
      s: "tensor_70  |  Sizes = [1,8,128,128]  |  bf16  |  expBias = 0, scale = 1  |    |  ModelParam = 0  |  strides = [262144, 262144, 32768, 256, 2]  |  data = 0, sizeInBytes = 262144  |  isPersistent  |  location = in DRAM  |  dramOffset = 0x1b0000000000  |  userMemorySection(type=Persistent, id=27)  |  "
    }
  }
}
node {
  name: "tensor_70"
  op: "OutputTensor"
  input: "tensor_70_bundle_539/concat_logical_internal/0"
  attr {
    key: "dtype"
    value {
      type: DT_BFLOAT16
    }
  }
  attr {
    key: "shape"
    value {
      shape {
        dim {
          size: 128
        }
        dim {
          size: 128
        }
        dim {
          size: 8
        }
        dim {
          size: 1
        }
        dim {
          size: 1
        }
      }
    }
  }
  attr {
    key: "synDataType"
    value {
      s: "bf16"
    }
  }
}
node {
  name: "module/model/25/fused_scaled_dot_product_attention/sdpa_recomp_fwd_hf8/6777_complex/sdpa_recomp_fwd_hf8_179/sdpa_recomp_core_fwd_hf8_89/softmax_fwd_hf8_22_bundle_539/op_13"
  op: "softmax_fwd_hf8"
  input: "bf16-17_84501_bundle_539/split_internal/0"
  input: "module/model/25/fused_scaled_dot_product_attention/sdpa_recomp_fwd_hf8/6777_complex/sdpa_recomp_fwd_hf8_179/sdpa_recomp_core_fwd_hf8_89/constant_f32_18"
  input: "module/model/25/fused_scaled_dot_product_attention/sdpa_recomp_fwd_hf8/6777_complex/sdpa_recomp_fwd_hf8_179/sdpa_recomp_core_fwd_hf8_89/constant_f32_20"
  input: "tensor_110_odule/model/25/fused_scaled_dot_product_attention/placeholder/7"
  input: "module/model/25/fused_scaled_dot_product_attention/expand_dims/6764"
  attr {
    key: "Bundle_idx"
    value {
      s: "539"
    }
  }
  attr {
    key: "Exec_idx"
    value {
      s: "70"
    }
  }
  attr {
    key: "Op_idx"
    value {
      s: "16"
    }
  }
  attr {
    key: "inputTensor:0"
    value {
      s: "bf16-17_84501_slice_0_0_0_3_0__0__bundle_539_85151  |  Sizes = [1,2,4,128,128]  |  bf16  |  expBias = 0, scale = 1  |    |  ModelParam = 0  |  strides = [1048576, 1048576, 131072, 32768, 256, 2]  |  data = 0, sizeInBytes = 262144  |  isAliased = bf16-17_84501, type = concat, offset: 786432  |  location = in DRAM  |  "
    }
  }
  attr {
    key: "inputTensor:1"
    value {
      s: "f32-19_84502  |  Sizes = [1]  |  float32  |  expBias = 0, scale = 1  |    |  ModelParam = 0  |  strides = [4, 4]  |  data = 0, sizeInBytes = 4  |  location = in DRAM  |  dramOffset = 0x240000  |  "
    }
  }
  attr {
    key: "inputTensor:2"
    value {
      s: "f32-21_84503  |  Sizes = [1]  |  float32  |  expBias = 0, scale = 1  |    |  ModelParam = 0  |  strides = [4, 4]  |  data = 0, sizeInBytes = 4  |  location = in DRAM  |  dramOffset = 0x240080  |  "
    }
  }
  attr {
    key: "inputTensor:3"
    value {
      s: "tensor_110_odule/model/25/fused_scaled_dot_product_attention/placeholder/7  |  Sizes = [1]  |  float32  |  expBias = 0, scale = 1  |    |  ModelParam = 0  |  strides = [4, 4]  |  data = 0x5647317df6f8, sizeInBytes = 4  |  buffer = 16  |  isPersistent  |  location = in DRAM  |  dramOffset = 0x270000000000  |  userMemorySection(type=Persistent, id=39)  |  isStaticParam  |  bufferDtype=float32  |  "
    }
  }
  attr {
    key: "inputTensor:4"
    value {
      s: "tensor_77_id_96409_module/model/25/fused_scaled_dot_product_attention/aten__unsqueeze  |  Sizes = [1,1,1,128,128]  |  bf16  |  expBias = 0, scale = 1  |    |  ModelParam = 0  |  strides = [32768, 32768, 32768, 32768, 256, 2]  |  data = 0, sizeInBytes = 32768  |  isAliased = tensor_71_odule/model/25/fused_scaled_dot_product_attention/placeholder/0, type = alias, offset: 0  |  location = in DRAM  |  "
    }
  }
  attr {
    key: "outputTensor:0"
    value {
      s: "hf8-23_84504_slice_0_0_0_3_0__0__bundle_539_85152  |  Sizes = [1,2,4,128,128]  |  hfloat8  |  expBias = 7, scale = 1  |    |  ModelParam = 0  |  strides = [131072, 131072, 65536, 16384, 128, 1]  |  data = 0, sizeInBytes = 131072  |  location = in SRAM  |  sramOffset = 0x1000fffffd3a0000  |  "
    }
  }
}
node {
  name: "module/model/25/fused_scaled_dot_product_attention/sdpa_recomp_fwd_hf8/6777_complex/sdpa_recomp_fwd_hf8_179/sdpa_recomp_core_fwd_hf8_89/fp8_gemm_hf8_1435/batch_gemm_24_bundle_539/op_14"
  op: "BatchGemm"
  input: "module/model/25/fused_scaled_dot_product_attention/sdpa_recomp_fwd_hf8/6777_complex/sdpa_recomp_fwd_hf8_179/sdpa_recomp_core_fwd_hf8_89/softmax_fwd_hf8_22_bundle_539/op_9"
  input: "reshape_8_8_bundle_539/op_8"
  attr {
    key: "Bundle_idx"
    value {
      s: "539"
    }
  }
  attr {
    key: "Exec_idx"
    value {
      s: "71"
    }
  }
  attr {
    key: "Op_idx"
    value {
      s: "17"
    }
  }
  attr {
    key: "Parameters"
    value {
      s: "transpose_a=false, transpose_b=false"
    }
  }
  attr {
    key: "fp8BiasIn"
    value {
      s: "11"
    }
  }
  attr {
    key: "fp8BiasIn2"
    value {
      s: "7"
    }
  }
  attr {
    key: "fp8BiasOut"
    value {
      s: "7"
    }
  }
  attr {
    key: "inputTensor:0"
    value {
      s: "hf8-23_84504_slice_0_0_0_2_0__0__bundle_539_85145  |  Sizes = [1,2,4,128,128]  |  hfloat8  |  expBias = 7, scale = 1  |    |  ModelParam = 0  |  strides = [131072, 131072, 65536, 16384, 128, 1]  |  data = 0, sizeInBytes = 131072  |  location = in SRAM  |  sramOffset = 0x1000fffffd380000  |  "
    }
  }
  attr {
    key: "inputTensor:1"
    value {
      s: "tensor_82_id_96407_module/model/25/fused_scaled_dot_product_attention/aten__view_slice_0_0_0_2_0__0__bundle_539_85143  |  Sizes = [1,2,1,128,128]  |  hfloat8  |  expBias = 7, scale = 1  |    |  ModelParam = 0  |  strides = [32768, 32768, 16384, 16384, 128, 1]  |  data = 0, sizeInBytes = 32768  |  location = in SRAM  |  sramOffset = 0x1000fffffd370000  |  "
    }
  }
  attr {
    key: "outputTensor:0"
    value {
      s: "tensor_118_slice_0_0_0_2_0__0__bundle_539_85153  |  Sizes = [1,2,4,128,128]  |  hfloat8  |  expBias = 7, scale = 1  |    |  ModelParam = 0  |  strides = [524288, 524288, 65536, 16384, 128, 1]  |  data = 0, sizeInBytes = 131072  |  isAliased = tensor_118, type = concat, offset: 262144  |  location = in DRAM  |  "
    }
  }
}
node {
  name: "module/model/25/fused_scaled_dot_product_attention/sdpa_recomp_fwd_hf8/6777_complex/sdpa_recomp_fwd_hf8_179/sdpa_recomp_core_fwd_hf8_89/fp8_gemm_hf8_1435/batch_gemm_24_bundle_539/op_15"
  op: "BatchGemm"
  input: "module/model/25/fused_scaled_dot_product_attention/sdpa_recomp_fwd_hf8/6777_complex/sdpa_recomp_fwd_hf8_179/sdpa_recomp_core_fwd_hf8_89/softmax_fwd_hf8_22_bundle_539/op_13"
  input: "reshape_8_8_bundle_539/op_12"
  attr {
    key: "Bundle_idx"
    value {
      s: "539"
    }
  }
  attr {
    key: "Exec_idx"
    value {
      s: "72"
    }
  }
  attr {
    key: "Op_idx"
    value {
      s: "18"
    }
  }
  attr {
    key: "Parameters"
    value {
      s: "transpose_a=false, transpose_b=false"
    }
  }
  attr {
    key: "fp8BiasIn"
    value {
      s: "11"
    }
  }
  attr {
    key: "fp8BiasIn2"
    value {
      s: "7"
    }
  }
  attr {
    key: "fp8BiasOut"
    value {
      s: "7"
    }
  }
  attr {
    key: "inputTensor:0"
    value {
      s: "hf8-23_84504_slice_0_0_0_3_0__0__bundle_539_85152  |  Sizes = [1,2,4,128,128]  |  hfloat8  |  expBias = 7, scale = 1  |    |  ModelParam = 0  |  strides = [131072, 131072, 65536, 16384, 128, 1]  |  data = 0, sizeInBytes = 131072  |  location = in SRAM  |  sramOffset = 0x1000fffffd3a0000  |  "
    }
  }
  attr {
    key: "inputTensor:1"
    value {
      s: "tensor_82_id_96407_module/model/25/fused_scaled_dot_product_attention/aten__view_slice_0_0_0_3_0__0__bundle_539_85150  |  Sizes = [1,2,1,128,128]  |  hfloat8  |  expBias = 7, scale = 1  |    |  ModelParam = 0  |  strides = [32768, 32768, 16384, 16384, 128, 1]  |  data = 0, sizeInBytes = 32768  |  location = in SRAM  |  sramOffset = 0x1000fffffd378000  |  "
    }
  }
  attr {
    key: "outputTensor:0"
    value {
      s: "tensor_118_slice_0_0_0_3_0__0__bundle_539_85154  |  Sizes = [1,2,4,128,128]  |  hfloat8  |  expBias = 7, scale = 1  |    |  ModelParam = 0  |  strides = [524288, 524288, 65536, 16384, 128, 1]  |  data = 0, sizeInBytes = 131072  |  isAliased = tensor_118, type = concat, offset: 393216  |  location = in DRAM  |  "
    }
  }
}
node {
  name: "tensor_118_bundle_539/concat_logical_internal/0"
  op: "Concatenate"
  input: "module/model/25/fused_scaled_dot_product_attention/sdpa_recomp_fwd_hf8/6777_complex/sdpa_recomp_fwd_hf8_179/sdpa_recomp_core_fwd_hf8_89/fp8_gemm_hf8_1435/batch_gemm_24_bundle_539/op_6"
  input: "module/model/25/fused_scaled_dot_product_attention/sdpa_recomp_fwd_hf8/6777_complex/sdpa_recomp_fwd_hf8_179/sdpa_recomp_core_fwd_hf8_89/fp8_gemm_hf8_1435/batch_gemm_24_bundle_539/op_10"
  input: "module/model/25/fused_scaled_dot_product_attention/sdpa_recomp_fwd_hf8/6777_complex/sdpa_recomp_fwd_hf8_179/sdpa_recomp_core_fwd_hf8_89/fp8_gemm_hf8_1435/batch_gemm_24_bundle_539/op_14"
  input: "module/model/25/fused_scaled_dot_product_attention/sdpa_recomp_fwd_hf8/6777_complex/sdpa_recomp_fwd_hf8_179/sdpa_recomp_core_fwd_hf8_89/fp8_gemm_hf8_1435/batch_gemm_24_bundle_539/op_15"
  attr {
    key: "Bundle_idx"
    value {
      s: "539"
    }
  }
  attr {
    key: "Exec_idx"
    value {
      s: "73"
    }
  }
  attr {
    key: "Op_idx"
    value {
      s: "19"
    }
  }
  attr {
    key: "inputTensor:0"
    value {
      s: "tensor_118_slice_0_0_0_0_0__0__bundle_539_85139  |  Sizes = [1,2,4,128,128]  |  hfloat8  |  expBias = 7, scale = 1  |    |  ModelParam = 0  |  strides = [524288, 524288, 65536, 16384, 128, 1]  |  data = 0, sizeInBytes = 131072  |  isAliased = tensor_118, type = concat, offset: 0  |  location = in DRAM  |  "
    }
  }
  attr {
    key: "inputTensor:1"
    value {
      s: "tensor_118_slice_0_0_0_1_0__0__bundle_539_85146  |  Sizes = [1,2,4,128,128]  |  hfloat8  |  expBias = 7, scale = 1  |    |  ModelParam = 0  |  strides = [524288, 524288, 65536, 16384, 128, 1]  |  data = 0, sizeInBytes = 131072  |  isAliased = tensor_118, type = concat, offset: 131072  |  location = in DRAM  |  "
    }
  }
  attr {
    key: "inputTensor:2"
    value {
      s: "tensor_118_slice_0_0_0_2_0__0__bundle_539_85153  |  Sizes = [1,2,4,128,128]  |  hfloat8  |  expBias = 7, scale = 1  |    |  ModelParam = 0  |  strides = [524288, 524288, 65536, 16384, 128, 1]  |  data = 0, sizeInBytes = 131072  |  isAliased = tensor_118, type = concat, offset: 262144  |  location = in DRAM  |  "
    }
  }
  attr {
    key: "inputTensor:3"
    value {
      s: "tensor_118_slice_0_0_0_3_0__0__bundle_539_85154  |  Sizes = [1,2,4,128,128]  |  hfloat8  |  expBias = 7, scale = 1  |    |  ModelParam = 0  |  strides = [524288, 524288, 65536, 16384, 128, 1]  |  data = 0, sizeInBytes = 131072  |  isAliased = tensor_118, type = concat, offset: 393216  |  location = in DRAM  |  "
    }
  }
  attr {
    key: "outputTensor:0"
    value {
      s: "tensor_118  |  Sizes = [1,8,4,128,128]  |  hfloat8  |  expBias = 7, scale = 1  |    |  ModelParam = 0  |  strides = [524288, 524288, 65536, 16384, 128, 1]  |  data = 0, sizeInBytes = 524288  |  isAliased = tensor_119_id_96428_module/model/25/fused_scaled_dot_product_attention/dequant_output/aten__view, type = alias, offset: 0  |  location = in DRAM  |  "
    }
  }
}
node {
  name: "module/model/25/fused_scaled_dot_product_attention/dequant_output/reshape/6778"
  op: "Reshape"
  input: "tensor_118_bundle_539/concat_logical_internal/0"
  attr {
    key: "Bundle_idx"
    value {
      s: "N/A"
    }
  }
  attr {
    key: "Exec_idx"
    value {
      s: "74"
    }
  }
  attr {
    key: "Op_idx"
    value {
      s: "N/A"
    }
  }
  attr {
    key: "inputTensor:0"
    value {
      s: "tensor_118  |  Sizes = [1,8,4,128,128]  |  hfloat8  |  expBias = 7, scale = 1  |    |  ModelParam = 0  |  strides = [524288, 524288, 65536, 16384, 128, 1]  |  data = 0, sizeInBytes = 524288  |  isAliased = tensor_119_id_96428_module/model/25/fused_scaled_dot_product_attention/dequant_output/aten__view, type = alias, offset: 0  |  location = in DRAM  |  "
    }
  }
  attr {
    key: "outputTensor:0"
    value {
      s: "tensor_119_id_96428_module/model/25/fused_scaled_dot_product_attention/dequant_output/aten__view  |  Sizes = [1,32,128,128]  |  hfloat8  |  expBias = 7, scale = 1  |    |  ModelParam = 0  |  strides = [524288, 524288, 16384, 128, 1]  |  data = 0, sizeInBytes = 524288  |  location = in DRAM  |  dramOffset = 0x240100  |  "
    }
  }
}
node {
  name: "module/model/25/transpose/6780_transpose_via_logical"
  op: "LogicalTranspose"
  input: "module/model/25/fused_scaled_dot_product_attention/dequant_output/reshape/6778"
  attr {
    key: "Bundle_idx"
    value {
      s: "N/A"
    }
  }
  attr {
    key: "Exec_idx"
    value {
      s: "75"
    }
  }
  attr {
    key: "Op_idx"
    value {
      s: "N/A"
    }
  }
  attr {
    key: "Parameters"
    value {
      s: "permutation: (0,2,1,3)"
    }
  }
  attr {
    key: "inputTensor:0"
    value {
      s: "tensor_119_id_96428_module/model/25/fused_scaled_dot_product_attention/dequant_output/aten__view  |  Sizes = [1,32,128,128]  |  hfloat8  |  expBias = 7, scale = 1  |    |  ModelParam = 0  |  strides = [524288, 524288, 16384, 128, 1]  |  data = 0, sizeInBytes = 524288  |  location = in DRAM  |  dramOffset = 0x240100  |  "
    }
  }
  attr {
    key: "outputTensor:0"
    value {
      s: "tensor_123_id_96433_module/model/25/aten__transpose  |  Sizes = [1,128,32,128]  |  hfloat8  |  expBias = 7, scale = 1  |    |  ModelParam = 0  |  strides = [524288, 524288, 128, 16384, 1]  |  data = 0, sizeInBytes = 524288  |  isAliased = tensor_119_id_96428_module/model/25/fused_scaled_dot_product_attention/dequant_output/aten__view, type = alias, offset: 0  |  location = in DRAM  |  isSparseLayout  |  "
    }
  }
}
node {
  name: "tensor_123_id_96433_module/model/25/aten__transpose_memcpy_85168_internal"
  op: "DmaMemcpy"
  input: "module/model/25/transpose/6780_transpose_via_logical"
  attr {
    key: "Bundle_idx"
    value {
      s: "N/A"
    }
  }
  attr {
    key: "Exec_idx"
    value {
      s: "76"
    }
  }
  attr {
    key: "Op_idx"
    value {
      s: "N/A"
    }
  }
  attr {
    key: "inputTensor:0"
    value {
      s: "tensor_123_id_96433_module/model/25/aten__transpose  |  Sizes = [1,128,32,128]  |  hfloat8  |  expBias = 7, scale = 1  |    |  ModelParam = 0  |  strides = [524288, 524288, 128, 16384, 1]  |  data = 0, sizeInBytes = 524288  |  isAliased = tensor_119_id_96428_module/model/25/fused_scaled_dot_product_attention/dequant_output/aten__view, type = alias, offset: 0  |  location = in DRAM  |  isSparseLayout  |  "
    }
  }
  attr {
    key: "outputTensor:0"
    value {
      s: "tensor_123_id_96433_module/model/25/aten__transpose_memcpy_85168  |  Sizes = [1,128,32,128]  |  hfloat8  |  expBias = 7, scale = 1  |    |  ModelParam = 0  |  strides = [524288, 524288, 4096, 128, 1]  |  data = 0, sizeInBytes = 524288  |  location = in DRAM  |  dramOffset = 0x0  |  "
    }
  }
}
node {
  name: "module/model/25/o_proj/quant_input_0/reshape/6782"
  op: "Reshape"
  input: "tensor_123_id_96433_module/model/25/aten__transpose_memcpy_85168_internal"
  attr {
    key: "Bundle_idx"
    value {
      s: "N/A"
    }
  }
  attr {
    key: "Exec_idx"
    value {
      s: "77"
    }
  }
  attr {
    key: "Op_idx"
    value {
      s: "N/A"
    }
  }
  attr {
    key: "inputTensor:0"
    value {
      s: "tensor_123_id_96433_module/model/25/aten__transpose_memcpy_85168  |  Sizes = [1,128,32,128]  |  hfloat8  |  expBias = 7, scale = 1  |    |  ModelParam = 0  |  strides = [524288, 524288, 4096, 128, 1]  |  data = 0, sizeInBytes = 524288  |  location = in DRAM  |  dramOffset = 0x0  |  "
    }
  }
  attr {
    key: "outputTensor:0"
    value {
      s: "tensor_129_c84419  |  Sizes = [1,128,4096]  |  hfloat8  |  expBias = 7, scale = 1  |    |  ModelParam = 0  |  strides = [524288, 524288, 4096, 1]  |  data = 0, sizeInBytes = 524288  |  isAliased = tensor_123_id_96433_module/model/25/aten__transpose_memcpy_85168, type = alias, offset: 0  |  location = in DRAM  |  "
    }
  }
}
node {
  name: "tensor_130_odule/model/25/o_proj/placeholder/1"
  op: "Placeholder"
  attr {
    key: "dtype"
    value {
      type: DT_INVALID
    }
  }
  attr {
    key: "shape"
    value {
      shape {
        dim {
          size: 4096
        }
        dim {
          size: 4096
        }
        dim {
          size: 1
        }
        dim {
          size: 1
        }
        dim {
          size: 1
        }
      }
    }
  }
  attr {
    key: "synDataType"
    value {
      s: "hfloat8"
    }
  }
}
node {
  name: "module/model/25/o_proj/fp8_gemm_bf16/6784_complex/fp8_gemm_bf16_1437/expand_dims_6"
  op: "ExpandDims"
  input: "tensor_130_odule/model/25/o_proj/placeholder/1"
  attr {
    key: "Bundle_idx"
    value {
      s: "N/A"
    }
  }
  attr {
    key: "Exec_idx"
    value {
      s: "78"
    }
  }
  attr {
    key: "Op_idx"
    value {
      s: "N/A"
    }
  }
  attr {
    key: "inputTensor:0"
    value {
      s: "tensor_130_odule/model/25/o_proj/placeholder/1  |  Sizes = [4096,4096]  |  hfloat8  |  expBias = 7, scale = 1  |    |  ModelParam = 0  |  strides = [16777216, 4096, 1]  |  data = 0, sizeInBytes = 16777216  |  isPersistent  |  location = in DRAM  |  dramOffset = 0x2c0000000000  |  userMemorySection(type=Persistent, id=44)  |  "
    }
  }
  attr {
    key: "outputTensor:0"
    value {
      s: "hf8-7_84508  |  Sizes = [1,4096,4096]  |  hfloat8  |  expBias = 7, scale = 1  |    |  ModelParam = 0  |  strides = [16777216, 16777216, 4096, 1]  |  data = 0, sizeInBytes = 16777216  |  isAliased = tensor_130_odule/model/25/o_proj/placeholder/1, type = alias, offset: 0  |  location = in DRAM  |  "
    }
  }
}
node {
  name: "tensor_129_c84419_bundle_540/memcpy/0"
  op: "DmaMemcpy"
  input: "module/model/25/o_proj/quant_input_0/reshape/6782"
  attr {
    key: "Bundle_idx"
    value {
      s: "540"
    }
  }
  attr {
    key: "Exec_idx"
    value {
      s: "79"
    }
  }
  attr {
    key: "Op_idx"
    value {
      s: "0"
    }
  }
  attr {
    key: "inputTensor:0"
    value {
      s: "tensor_129_c84419  |  Sizes = [1,128,4096]  |  hfloat8  |  expBias = 7, scale = 1  |    |  ModelParam = 0  |  strides = [524288, 524288, 4096, 1]  |  data = 0, sizeInBytes = 524288  |  isAliased = tensor_123_id_96433_module/model/25/aten__transpose_memcpy_85168, type = alias, offset: 0  |  location = in DRAM  |  "
    }
  }
  attr {
    key: "outputTensor:0"
    value {
      s: "tensor_129_c84419_slice_0_0_0_0_0__0__bundle_540_85155  |  Sizes = [1,128,4096]  |  hfloat8  |  expBias = 7, scale = 1  |    |  ModelParam = 0  |  strides = [524288, 524288, 4096, 1]  |  data = 0, sizeInBytes = 524288  |  location = in SRAM  |  sramOffset = 0x1000fffffd3c0000  |  "
    }
  }
}
node {
  name: "module/model/25/o_proj/fp8_gemm_bf16/6784_complex/fp8_gemm_bf16_1437/batch_gemm_8_bundle_540/op_0_gemm"
  op: "GEMM"
  input: "tensor_129_c84419_bundle_540/memcpy/0"
  input: "module/model/25/o_proj/fp8_gemm_bf16/6784_complex/fp8_gemm_bf16_1437/expand_dims_6"
  attr {
    key: "Bundle_idx"
    value {
      s: "540"
    }
  }
  attr {
    key: "Exec_idx"
    value {
      s: "80"
    }
  }
  attr {
    key: "Op_idx"
    value {
      s: "1"
    }
  }
  attr {
    key: "Parameters"
    value {
      s: "transpose_a=false, transpose_b=false"
    }
  }
  attr {
    key: "fp8BiasIn"
    value {
      s: "7"
    }
  }
  attr {
    key: "fp8BiasIn2"
    value {
      s: "15"
    }
  }
  attr {
    key: "fp8BiasOut"
    value {
      s: "0"
    }
  }
  attr {
    key: "inputTensor:0"
    value {
      s: "tensor_129_c84419_slice_0_0_0_0_0__0__bundle_540_85155  |  Sizes = [1,128,4096]  |  hfloat8  |  expBias = 7, scale = 1  |    |  ModelParam = 0  |  strides = [524288, 524288, 4096, 1]  |  data = 0, sizeInBytes = 524288  |  location = in SRAM  |  sramOffset = 0x1000fffffd3c0000  |  "
    }
  }
  attr {
    key: "inputTensor:1"
    value {
      s: "hf8-7_84508  |  Sizes = [1,4096,4096]  |  hfloat8  |  expBias = 7, scale = 1  |    |  ModelParam = 0  |  strides = [16777216, 16777216, 4096, 1]  |  data = 0, sizeInBytes = 16777216  |  isAliased = tensor_130_odule/model/25/o_proj/placeholder/1, type = alias, offset: 0  |  location = in DRAM  |  "
    }
  }
  attr {
    key: "outputTensor:0"
    value {
      s: "tensor_134  |  Sizes = [1,128,4096]  |  bf16  |  expBias = 0, scale = 1  |    |  ModelParam = 0  |  strides = [1048576, 1048576, 8192, 2]  |  data = 0, sizeInBytes = 1048576  |  location = in DRAM  |  dramOffset = 0x2c0100  |  "
    }
  }
}
node {
  name: "tensor_145_odule/model/25/up_proj/placeholder/1"
  op: "Placeholder"
  attr {
    key: "dtype"
    value {
      type: DT_INVALID
    }
  }
  attr {
    key: "shape"
    value {
      shape {
        dim {
          size: 14336
        }
        dim {
          size: 4096
        }
        dim {
          size: 1
        }
        dim {
          size: 1
        }
        dim {
          size: 1
        }
      }
    }
  }
  attr {
    key: "synDataType"
    value {
      s: "hfloat8"
    }
  }
}
node {
  name: "module/model/25/up_proj/fp8_gemm_bf16/6788_complex/fp8_gemm_bf16_1439/expand_dims_6"
  op: "ExpandDims"
  input: "tensor_145_odule/model/25/up_proj/placeholder/1"
  attr {
    key: "Bundle_idx"
    value {
      s: "N/A"
    }
  }
  attr {
    key: "Exec_idx"
    value {
      s: "81"
    }
  }
  attr {
    key: "Op_idx"
    value {
      s: "N/A"
    }
  }
  attr {
    key: "inputTensor:0"
    value {
      s: "tensor_145_odule/model/25/up_proj/placeholder/1  |  Sizes = [4096,14336]  |  hfloat8  |  expBias = 7, scale = 1  |    |  ModelParam = 0  |  strides = [58720256, 14336, 1]  |  data = 0, sizeInBytes = 58720256  |  isPersistent  |  location = in DRAM  |  dramOffset = 0x310000000000  |  userMemorySection(type=Persistent, id=49)  |  "
    }
  }
  attr {
    key: "outputTensor:0"
    value {
      s: "hf8-7_84516  |  Sizes = [1,4096,14336]  |  hfloat8  |  expBias = 7, scale = 1  |    |  ModelParam = 0  |  strides = [58720256, 58720256, 14336, 1]  |  data = 0, sizeInBytes = 58720256  |  isAliased = tensor_145_odule/model/25/up_proj/placeholder/1, type = alias, offset: 0  |  location = in DRAM  |  "
    }
  }
}
node {
  name: "tensor_154_odule/model/25/gate_proj/placeholder/1"
  op: "Placeholder"
  attr {
    key: "dtype"
    value {
      type: DT_INVALID
    }
  }
  attr {
    key: "shape"
    value {
      shape {
        dim {
          size: 14336
        }
        dim {
          size: 4096
        }
        dim {
          size: 1
        }
        dim {
          size: 1
        }
        dim {
          size: 1
        }
      }
    }
  }
  attr {
    key: "synDataType"
    value {
      s: "hfloat8"
    }
  }
}
node {
  name: "module/model/25/gate_proj/fp8_gemm_bf16/6790_complex/fp8_gemm_bf16_1441/expand_dims_6"
  op: "ExpandDims"
  input: "tensor_154_odule/model/25/gate_proj/placeholder/1"
  attr {
    key: "Bundle_idx"
    value {
      s: "N/A"
    }
  }
  attr {
    key: "Exec_idx"
    value {
      s: "82"
    }
  }
  attr {
    key: "Op_idx"
    value {
      s: "N/A"
    }
  }
  attr {
    key: "inputTensor:0"
    value {
      s: "tensor_154_odule/model/25/gate_proj/placeholder/1  |  Sizes = [4096,14336]  |  hfloat8  |  expBias = 7, scale = 1  |    |  ModelParam = 0  |  strides = [58720256, 14336, 1]  |  data = 0, sizeInBytes = 58720256  |  isPersistent  |  location = in DRAM  |  dramOffset = 0x350000000000  |  userMemorySection(type=Persistent, id=53)  |  "
    }
  }
  attr {
    key: "outputTensor:0"
    value {
      s: "hf8-7_84520  |  Sizes = [1,4096,14336]  |  hfloat8  |  expBias = 7, scale = 1  |    |  ModelParam = 0  |  strides = [58720256, 58720256, 14336, 1]  |  data = 0, sizeInBytes = 58720256  |  isAliased = tensor_154_odule/model/25/gate_proj/placeholder/1, type = alias, offset: 0  |  location = in DRAM  |  "
    }
  }
}
node {
  name: "module/model/25/add_fwd_bf16/6785_complex/add_fwd_bf16_0_bundle_537/op_0"
  op: "add_fwd_bf16"
  input: "tensor_21_odule/model/25/input_layernorm/placeholder/0"
  input: "module/model/25/o_proj/fp8_gemm_bf16/6784_complex/fp8_gemm_bf16_1437/batch_gemm_8_bundle_540/op_0_gemm"
  attr {
    key: "Bundle_idx"
    value {
      s: "537"
    }
  }
  attr {
    key: "Exec_idx"
    value {
      s: "83"
    }
  }
  attr {
    key: "Op_idx"
    value {
      s: "0"
    }
  }
  attr {
    key: "inputTensor:0"
    value {
      s: "tensor_21_odule/model/25/input_layernorm/placeholder/0  |  Sizes = [1,128,4096]  |  bf16  |  expBias = 0, scale = 1  |    |  ModelParam = 0  |  strides = [1048576, 1048576, 8192, 2]  |  data = 0, sizeInBytes = 1048576  |  isPersistent  |  location = in DRAM  |  dramOffset = 0x90000000000  |  userMemorySection(type=Persistent, id=9)  |  "
    }
  }
  attr {
    key: "inputTensor:1"
    value {
      s: "tensor_134  |  Sizes = [1,128,4096]  |  bf16  |  expBias = 0, scale = 1  |    |  ModelParam = 0  |  strides = [1048576, 1048576, 8192, 2]  |  data = 0, sizeInBytes = 1048576  |  location = in DRAM  |  dramOffset = 0x2c0100  |  "
    }
  }
  attr {
    key: "outputTensor:0"
    value {
      s: "tensor_135_replaced_84445_slice_0_0_0_0_0__0__bundle_537_85081  |  Sizes = [1,128,4096]  |  bf16  |  expBias = 0, scale = 1  |    |  ModelParam = 0  |  strides = [1048576, 1048576, 8192, 2]  |  data = 0, sizeInBytes = 1048576  |  location = in SRAM  |  sramOffset = 0x1000fffffd440000  |  "
    }
  }
}
node {
  name: "module/model/25/post_attention_layernorm/rms_norm_ex_fwd_bf16/6786_complex/rms_norm_ex_fwd_bf16_363/reshape_2_bundle_537/op_1"
  op: "Reshape"
  input: "module/model/25/add_fwd_bf16/6785_complex/add_fwd_bf16_0_bundle_537/op_0"
  attr {
    key: "Bundle_idx"
    value {
      s: "537"
    }
  }
  attr {
    key: "Exec_idx"
    value {
      s: "84"
    }
  }
  attr {
    key: "Op_idx"
    value {
      s: "1"
    }
  }
  attr {
    key: "inputTensor:0"
    value {
      s: "tensor_135_replaced_84445_slice_0_0_0_0_0__0__bundle_537_85081  |  Sizes = [1,128,4096]  |  bf16  |  expBias = 0, scale = 1  |    |  ModelParam = 0  |  strides = [1048576, 1048576, 8192, 2]  |  data = 0, sizeInBytes = 1048576  |  location = in SRAM  |  sramOffset = 0x1000fffffd440000  |  "
    }
  }
  attr {
    key: "outputTensor:0"
    value {
      s: "bf16-3_84510_slice_0_0_0_0_0__0__bundle_537_85082  |  Sizes = [128,4096]  |  bf16  |  expBias = 0, scale = 1  |    |  ModelParam = 0  |  strides = [1048576, 8192, 2]  |  data = 0, sizeInBytes = 1048576  |  isAliased = tensor_135_replaced_84445_slice_0_0_0_0_0__0__bundle_537_85081, type = alias, offset: 0  |  location = in SRAM  |  sramOffset = 0x1000fffffd440000  |  "
    }
  }
}
node {
  name: "tensor_136_odule/model/25/post_attention_layernorm/placeholder/1"
  op: "Placeholder"
  attr {
    key: "dtype"
    value {
      type: DT_BFLOAT16
    }
  }
  attr {
    key: "shape"
    value {
      shape {
        dim {
          size: 4096
        }
        dim {
          size: 1
        }
        dim {
          size: 1
        }
        dim {
          size: 1
        }
        dim {
          size: 1
        }
      }
    }
  }
  attr {
    key: "synDataType"
    value {
      s: "bf16"
    }
  }
}
node {
  name: "module/model/25/post_attention_layernorm/rms_norm_ex_fwd_bf16/6786_complex/rms_norm_ex_fwd_bf16_363/rms_norm_fwd_bf16_4_bundle_537/op_2"
  op: "rms_norm_fwd_bf16"
  input: "module/model/25/post_attention_layernorm/rms_norm_ex_fwd_bf16/6786_complex/rms_norm_ex_fwd_bf16_363/reshape_2_bundle_537/op_1"
  input: "tensor_136_odule/model/25/post_attention_layernorm/placeholder/1"
  attr {
    key: "Bundle_idx"
    value {
      s: "537"
    }
  }
  attr {
    key: "Exec_idx"
    value {
      s: "85"
    }
  }
  attr {
    key: "Op_idx"
    value {
      s: "2"
    }
  }
  attr {
    key: "inputTensor:0"
    value {
      s: "bf16-3_84510_slice_0_0_0_0_0__0__bundle_537_85082  |  Sizes = [128,4096]  |  bf16  |  expBias = 0, scale = 1  |    |  ModelParam = 0  |  strides = [1048576, 8192, 2]  |  data = 0, sizeInBytes = 1048576  |  isAliased = tensor_135_replaced_84445_slice_0_0_0_0_0__0__bundle_537_85081, type = alias, offset: 0  |  location = in SRAM  |  sramOffset = 0x1000fffffd440000  |  "
    }
  }
  attr {
    key: "inputTensor:1"
    value {
      s: "tensor_136_odule/model/25/post_attention_layernorm/placeholder/1  |  Sizes = [4096]  |  bf16  |  expBias = 0, scale = 1  |    |  ModelParam = 0  |  strides = [8192, 2]  |  data = 0, sizeInBytes = 8192  |  isPersistent  |  location = in DRAM  |  dramOffset = 0x2f0000000000  |  userMemorySection(type=Persistent, id=47)  |  "
    }
  }
  attr {
    key: "outputTensor:0"
    value {
      s: "bf16-5_84511_slice_0_0_0_0_0__0__bundle_537_85084  |  Sizes = [128,4096]  |  bf16  |  expBias = 0, scale = 1  |    |  ModelParam = 0  |  strides = [1048576, 8192, 2]  |  data = 0, sizeInBytes = 1048576  |  isAliased = tensor-84705_slice_0_0_0_0_0__0__bundle_537_85086, type = alias, offset: 0  |  location = in SRAM  |  sramOffset = 0x1000fffffd540000  |  "
    }
  }
  attr {
    key: "outputTensor:1"
    value {
      s: "f32-6_84512  |  Sizes = [128,1]  |  float32  |  expBias = 0, scale = 1  |    |  ModelParam = 0  |  strides = [512, 4, 4]  |  data = 0, sizeInBytes = 512  |  location = in DRAM  |  dramOffset = 0x80000  |  "
    }
  }
}
node {
  name: "f32-6_84512"
  op: "OutputTensor"
  input: "module/model/25/post_attention_layernorm/rms_norm_ex_fwd_bf16/6786_complex/rms_norm_ex_fwd_bf16_363/rms_norm_fwd_bf16_4_bundle_537/op_2"
  attr {
    key: "dtype"
    value {
      type: DT_FLOAT
    }
  }
  attr {
    key: "shape"
    value {
      shape {
        dim {
          size: 1
        }
        dim {
          size: 128
        }
        dim {
          size: 1
        }
        dim {
          size: 1
        }
        dim {
          size: 1
        }
      }
    }
  }
  attr {
    key: "synDataType"
    value {
      s: "float32"
    }
  }
}
node {
  name: "reshape_12_12_bundle_537/op_3"
  op: "Reshape"
  input: "module/model/25/post_attention_layernorm/rms_norm_ex_fwd_bf16/6786_complex/rms_norm_ex_fwd_bf16_363/rms_norm_fwd_bf16_4_bundle_537/op_2"
  attr {
    key: "Bundle_idx"
    value {
      s: "537"
    }
  }
  attr {
    key: "Exec_idx"
    value {
      s: "86"
    }
  }
  attr {
    key: "Op_idx"
    value {
      s: "3"
    }
  }
  attr {
    key: "inputTensor:0"
    value {
      s: "bf16-5_84511_slice_0_0_0_0_0__0__bundle_537_85084  |  Sizes = [128,4096]  |  bf16  |  expBias = 0, scale = 1  |    |  ModelParam = 0  |  strides = [1048576, 8192, 2]  |  data = 0, sizeInBytes = 1048576  |  isAliased = tensor-84705_slice_0_0_0_0_0__0__bundle_537_85086, type = alias, offset: 0  |  location = in SRAM  |  sramOffset = 0x1000fffffd540000  |  "
    }
  }
  attr {
    key: "outputTensor:0"
    value {
      s: "tensor-84705_slice_0_0_0_0_0__0__bundle_537_85086  |  Sizes = [1,128,4096]  |  bf16  |  expBias = 0, scale = 1  |    |  ModelParam = 0  |  strides = [1048576, 1048576, 8192, 2]  |  data = 0, sizeInBytes = 1048576  |  location = in SRAM  |  sramOffset = 0x1000fffffd540000  |  "
    }
  }
}
node {
  name: "fusedTPCNode_112_4_bundle_537/op_4"
  op: "fused_kernel_0xEBEC7C21_1D7_hf8"
  input: "reshape_12_12_bundle_537/op_3"
  attr {
    key: "Bundle_idx"
    value {
      s: "537"
    }
  }
  attr {
    key: "Exec_idx"
    value {
      s: "87"
    }
  }
  attr {
    key: "Op_idx"
    value {
      s: "4"
    }
  }
  attr {
    key: "inputTensor:0"
    value {
      s: "tensor-84705_slice_0_0_0_0_0__0__bundle_537_85086  |  Sizes = [1,128,4096]  |  bf16  |  expBias = 0, scale = 1  |    |  ModelParam = 0  |  strides = [1048576, 1048576, 8192, 2]  |  data = 0, sizeInBytes = 1048576  |  location = in SRAM  |  sramOffset = 0x1000fffffd540000  |  "
    }
  }
  attr {
    key: "outputTensor:0"
    value {
      s: "tensor_144_slice_0_0_0_0_0__0__bundle_537_85087  |  Sizes = [1,128,4096]  |  hfloat8  |  expBias = 7, scale = 1  |    |  ModelParam = 0  |  strides = [524288, 524288, 4096, 1]  |  data = 0, sizeInBytes = 524288  |  location = in SRAM  |  sramOffset = 0x1000fffffd640000  |  "
    }
  }
}
node {
  name: "module/model/25/up_proj/fp8_gemm_bf16/6788_complex/fp8_gemm_bf16_1439/batch_gemm_8_bundle_537/op_5_gemm"
  op: "GEMM"
  input: "fusedTPCNode_112_4_bundle_537/op_4"
  input: "module/model/25/up_proj/fp8_gemm_bf16/6788_complex/fp8_gemm_bf16_1439/expand_dims_6"
  attr {
    key: "Bundle_idx"
    value {
      s: "537"
    }
  }
  attr {
    key: "Exec_idx"
    value {
      s: "88"
    }
  }
  attr {
    key: "Op_idx"
    value {
      s: "5"
    }
  }
  attr {
    key: "Parameters"
    value {
      s: "transpose_a=false, transpose_b=false"
    }
  }
  attr {
    key: "fp8BiasIn"
    value {
      s: "7"
    }
  }
  attr {
    key: "fp8BiasIn2"
    value {
      s: "15"
    }
  }
  attr {
    key: "fp8BiasOut"
    value {
      s: "0"
    }
  }
  attr {
    key: "inputTensor:0"
    value {
      s: "tensor_144_slice_0_0_0_0_0__0__bundle_537_85087  |  Sizes = [1,128,4096]  |  hfloat8  |  expBias = 7, scale = 1  |    |  ModelParam = 0  |  strides = [524288, 524288, 4096, 1]  |  data = 0, sizeInBytes = 524288  |  location = in SRAM  |  sramOffset = 0x1000fffffd640000  |  "
    }
  }
  attr {
    key: "inputTensor:1"
    value {
      s: "hf8-7_84516  |  Sizes = [1,4096,14336]  |  hfloat8  |  expBias = 7, scale = 1  |    |  ModelParam = 0  |  strides = [58720256, 58720256, 14336, 1]  |  data = 0, sizeInBytes = 58720256  |  isAliased = tensor_145_odule/model/25/up_proj/placeholder/1, type = alias, offset: 0  |  location = in DRAM  |  "
    }
  }
  attr {
    key: "outputTensor:0"
    value {
      s: "tensor_149  |  Sizes = [1,128,14336]  |  bf16  |  expBias = 0, scale = 1  |    |  ModelParam = 0  |  strides = [3670016, 3670016, 28672, 2]  |  data = 0, sizeInBytes = 3670016  |  location = in DRAM  |  dramOffset = 0x3c0100  |  "
    }
  }
}
node {
  name: "module/model/25/gate_proj/fp8_gemm_bf16/6790_complex/fp8_gemm_bf16_1441/batch_gemm_8_bundle_537/op_6_gemm"
  op: "GEMM"
  input: "fusedTPCNode_112_4_bundle_537/op_4"
  input: "module/model/25/gate_proj/fp8_gemm_bf16/6790_complex/fp8_gemm_bf16_1441/expand_dims_6"
  attr {
    key: "Bundle_idx"
    value {
      s: "537"
    }
  }
  attr {
    key: "Exec_idx"
    value {
      s: "89"
    }
  }
  attr {
    key: "Op_idx"
    value {
      s: "6"
    }
  }
  attr {
    key: "Parameters"
    value {
      s: "transpose_a=false, transpose_b=false"
    }
  }
  attr {
    key: "fp8BiasIn"
    value {
      s: "7"
    }
  }
  attr {
    key: "fp8BiasIn2"
    value {
      s: "15"
    }
  }
  attr {
    key: "fp8BiasOut"
    value {
      s: "0"
    }
  }
  attr {
    key: "inputTensor:0"
    value {
      s: "tensor_144_slice_0_0_0_0_0__0__bundle_537_85087  |  Sizes = [1,128,4096]  |  hfloat8  |  expBias = 7, scale = 1  |    |  ModelParam = 0  |  strides = [524288, 524288, 4096, 1]  |  data = 0, sizeInBytes = 524288  |  location = in SRAM  |  sramOffset = 0x1000fffffd640000  |  "
    }
  }
  attr {
    key: "inputTensor:1"
    value {
      s: "hf8-7_84520  |  Sizes = [1,4096,14336]  |  hfloat8  |  expBias = 7, scale = 1  |    |  ModelParam = 0  |  strides = [58720256, 58720256, 14336, 1]  |  data = 0, sizeInBytes = 58720256  |  isAliased = tensor_154_odule/model/25/gate_proj/placeholder/1, type = alias, offset: 0  |  location = in DRAM  |  "
    }
  }
  attr {
    key: "outputTensor:0"
    value {
      s: "tensor_158  |  Sizes = [1,128,14336]  |  bf16  |  expBias = 0, scale = 1  |    |  ModelParam = 0  |  strides = [3670016, 3670016, 28672, 2]  |  data = 0, sizeInBytes = 3670016  |  location = in DRAM  |  dramOffset = 0x740100  |  "
    }
  }
}
node {
  name: "tensor_135_replaced_84445_bundle_537/memcpy/0"
  op: "DmaMemcpy"
  input: "module/model/25/add_fwd_bf16/6785_complex/add_fwd_bf16_0_bundle_537/op_0"
  attr {
    key: "Bundle_idx"
    value {
      s: "537"
    }
  }
  attr {
    key: "Exec_idx"
    value {
      s: "90"
    }
  }
  attr {
    key: "Op_idx"
    value {
      s: "7"
    }
  }
  attr {
    key: "inputTensor:0"
    value {
      s: "tensor_135_replaced_84445_slice_0_0_0_0_0__0__bundle_537_85081  |  Sizes = [1,128,4096]  |  bf16  |  expBias = 0, scale = 1  |    |  ModelParam = 0  |  strides = [1048576, 1048576, 8192, 2]  |  data = 0, sizeInBytes = 1048576  |  location = in SRAM  |  sramOffset = 0x1000fffffd440000  |  "
    }
  }
  attr {
    key: "outputTensor:0"
    value {
      s: "tensor_135_replaced_84445  |  Sizes = [1,128,4096]  |  bf16  |  expBias = 0, scale = 1  |    |  ModelParam = 0  |  strides = [1048576, 1048576, 8192, 2]  |  data = 0, sizeInBytes = 1048576  |  location = in DRAM  |  dramOffset = 0x80200  |  "
    }
  }
}
node {
  name: "tensor_165_odule/model/25/down_proj/placeholder/1"
  op: "Placeholder"
  attr {
    key: "dtype"
    value {
      type: DT_INVALID
    }
  }
  attr {
    key: "shape"
    value {
      shape {
        dim {
          size: 4096
        }
        dim {
          size: 14336
        }
        dim {
          size: 1
        }
        dim {
          size: 1
        }
        dim {
          size: 1
        }
      }
    }
  }
  attr {
    key: "synDataType"
    value {
      s: "hfloat8"
    }
  }
}
node {
  name: "module/model/25/down_proj/fp8_gemm_bf16/6794_complex/fp8_gemm_bf16_1443/expand_dims_6"
  op: "ExpandDims"
  input: "tensor_165_odule/model/25/down_proj/placeholder/1"
  attr {
    key: "Bundle_idx"
    value {
      s: "N/A"
    }
  }
  attr {
    key: "Exec_idx"
    value {
      s: "91"
    }
  }
  attr {
    key: "Op_idx"
    value {
      s: "N/A"
    }
  }
  attr {
    key: "inputTensor:0"
    value {
      s: "tensor_165_odule/model/25/down_proj/placeholder/1  |  Sizes = [14336,4096]  |  hfloat8  |  expBias = 7, scale = 1  |    |  ModelParam = 0  |  strides = [58720256, 4096, 1]  |  data = 0, sizeInBytes = 58720256  |  isPersistent  |  location = in DRAM  |  dramOffset = 0x390000000000  |  userMemorySection(type=Persistent, id=57)  |  "
    }
  }
  attr {
    key: "outputTensor:0"
    value {
      s: "hf8-7_84528  |  Sizes = [1,14336,4096]  |  hfloat8  |  expBias = 7, scale = 1  |    |  ModelParam = 0  |  strides = [58720256, 58720256, 4096, 1]  |  data = 0, sizeInBytes = 58720256  |  isAliased = tensor_165_odule/model/25/down_proj/placeholder/1, type = alias, offset: 0  |  location = in DRAM  |  "
    }
  }
}
node {
  name: "fusedTPCNode_112_5_bundle_541/op_0"
  op: "fused_kernel_0x36B71539_1DB_bf16"
  input: "module/model/25/gate_proj/fp8_gemm_bf16/6790_complex/fp8_gemm_bf16_1441/batch_gemm_8_bundle_537/op_6_gemm"
  input: "module/model/25/up_proj/fp8_gemm_bf16/6788_complex/fp8_gemm_bf16_1439/batch_gemm_8_bundle_537/op_5_gemm"
  attr {
    key: "Bundle_idx"
    value {
      s: "541"
    }
  }
  attr {
    key: "Exec_idx"
    value {
      s: "92"
    }
  }
  attr {
    key: "Op_idx"
    value {
      s: "0"
    }
  }
  attr {
    key: "inputTensor:0"
    value {
      s: "tensor_158  |  Sizes = [1,128,14336]  |  bf16  |  expBias = 0, scale = 1  |    |  ModelParam = 0  |  strides = [3670016, 3670016, 28672, 2]  |  data = 0, sizeInBytes = 3670016  |  location = in DRAM  |  dramOffset = 0x740100  |  "
    }
  }
  attr {
    key: "inputTensor:1"
    value {
      s: "tensor_149  |  Sizes = [1,128,14336]  |  bf16  |  expBias = 0, scale = 1  |    |  ModelParam = 0  |  strides = [3670016, 3670016, 28672, 2]  |  data = 0, sizeInBytes = 3670016  |  location = in DRAM  |  dramOffset = 0x3c0100  |  "
    }
  }
  attr {
    key: "outputTensor:0"
    value {
      s: "tensor_164_slice_0_0_0_0_0__0__bundle_541_85160  |  Sizes = [1,128,14336]  |  hfloat8  |  expBias = 7, scale = 1  |    |  ModelParam = 0  |  strides = [1835008, 1835008, 14336, 1]  |  data = 0, sizeInBytes = 1835008  |  location = in SRAM  |  sramOffset = 0x1000fffffd6c0000  |  "
    }
  }
}
node {
  name: "module/model/25/down_proj/fp8_gemm_bf16/6794_complex/fp8_gemm_bf16_1443/batch_gemm_8_bundle_541/op_1_gemm"
  op: "GEMM"
  input: "fusedTPCNode_112_5_bundle_541/op_0"
  input: "module/model/25/down_proj/fp8_gemm_bf16/6794_complex/fp8_gemm_bf16_1443/expand_dims_6"
  attr {
    key: "Bundle_idx"
    value {
      s: "541"
    }
  }
  attr {
    key: "Exec_idx"
    value {
      s: "93"
    }
  }
  attr {
    key: "Op_idx"
    value {
      s: "1"
    }
  }
  attr {
    key: "Parameters"
    value {
      s: "transpose_a=false, transpose_b=false"
    }
  }
  attr {
    key: "fp8BiasIn"
    value {
      s: "7"
    }
  }
  attr {
    key: "fp8BiasIn2"
    value {
      s: "11"
    }
  }
  attr {
    key: "fp8BiasOut"
    value {
      s: "0"
    }
  }
  attr {
    key: "inputTensor:0"
    value {
      s: "tensor_164_slice_0_0_0_0_0__0__bundle_541_85160  |  Sizes = [1,128,14336]  |  hfloat8  |  expBias = 7, scale = 1  |    |  ModelParam = 0  |  strides = [1835008, 1835008, 14336, 1]  |  data = 0, sizeInBytes = 1835008  |  location = in SRAM  |  sramOffset = 0x1000fffffd6c0000  |  "
    }
  }
  attr {
    key: "inputTensor:1"
    value {
      s: "hf8-7_84528  |  Sizes = [1,14336,4096]  |  hfloat8  |  expBias = 7, scale = 1  |    |  ModelParam = 0  |  strides = [58720256, 58720256, 4096, 1]  |  data = 0, sizeInBytes = 58720256  |  isAliased = tensor_165_odule/model/25/down_proj/placeholder/1, type = alias, offset: 0  |  location = in DRAM  |  "
    }
  }
  attr {
    key: "outputTensor:0"
    value {
      s: "tensor_169_slice_0_0_0_0_0__0__bundle_541_85162  |  Sizes = [1,128,4096]  |  bf16  |  expBias = 0, scale = 1  |    |  ModelParam = 0  |  strides = [1048576, 1048576, 8192, 2]  |  data = 0, sizeInBytes = 1048576  |  location = in SRAM  |  sramOffset = 0x1000fffffd880000  |  "
    }
  }
}
node {
  name: "module/model/25/add_fwd_bf16/6795_complex/add_fwd_bf16_0_bundle_541/op_2"
  op: "add_fwd_bf16"
  input: "tensor_135_replaced_84445_bundle_537/memcpy/0"
  input: "module/model/25/down_proj/fp8_gemm_bf16/6794_complex/fp8_gemm_bf16_1443/batch_gemm_8_bundle_541/op_1_gemm"
  input: "^module/model/25/input_layernorm/rms_norm_ex_fwd_bf16/6742_complex/rms_norm_ex_fwd_bf16_361/reshape_4"
  input: "^module/model/25/add_fwd_bf16/6785_complex/add_fwd_bf16_0_bundle_537/op_0"
  attr {
    key: "Bundle_idx"
    value {
      s: "541"
    }
  }
  attr {
    key: "Exec_idx"
    value {
      s: "94"
    }
  }
  attr {
    key: "Op_idx"
    value {
      s: "2"
    }
  }
  attr {
    key: "inputTensor:0"
    value {
      s: "tensor_135_replaced_84445  |  Sizes = [1,128,4096]  |  bf16  |  expBias = 0, scale = 1  |    |  ModelParam = 0  |  strides = [1048576, 1048576, 8192, 2]  |  data = 0, sizeInBytes = 1048576  |  location = in DRAM  |  dramOffset = 0x80200  |  "
    }
  }
  attr {
    key: "inputTensor:1"
    value {
      s: "tensor_169_slice_0_0_0_0_0__0__bundle_541_85162  |  Sizes = [1,128,4096]  |  bf16  |  expBias = 0, scale = 1  |    |  ModelParam = 0  |  strides = [1048576, 1048576, 8192, 2]  |  data = 0, sizeInBytes = 1048576  |  location = in SRAM  |  sramOffset = 0x1000fffffd880000  |  "
    }
  }
  attr {
    key: "outputTensor:0"
    value {
      s: "tensor_170  |  Sizes = [1,128,4096]  |  bf16  |  expBias = 0, scale = 1  |    |  ModelParam = 0  |  strides = [1048576, 1048576, 8192, 2]  |  data = 0, sizeInBytes = 1048576  |  isPersistent  |  location = in DRAM  |  dramOffset = 0x90000000000  |  userMemorySection(type=Persistent, id=9)  |  "
    }
  }
}
node {
  name: "tensor_170"
  op: "OutputTensor"
  input: "module/model/25/add_fwd_bf16/6795_complex/add_fwd_bf16_0_bundle_541/op_2"
  attr {
    key: "dtype"
    value {
      type: DT_BFLOAT16
    }
  }
  attr {
    key: "shape"
    value {
      shape {
        dim {
          size: 4096
        }
        dim {
          size: 128
        }
        dim {
          size: 1
        }
        dim {
          size: 1
        }
        dim {
          size: 1
        }
      }
    }
  }
  attr {
    key: "synDataType"
    value {
      s: "bf16"
    }
  }
}
