node {
  name: "tensor_0_odule/model/27/placeholder/0"
  op: "Placeholder"
  attr {
    key: "dtype"
    value {
      type: DT_BFLOAT16
    }
  }
  attr {
    key: "shape"
    value {
      shape {
        dim {
          size: 8192
        }
        dim {
          size: 189
        }
        dim {
          size: 1
        }
        dim {
          size: 1
        }
        dim {
          size: 1
        }
      }
    }
  }
  attr {
    key: "synDataType"
    value {
      s: "bf16"
    }
  }
}
node {
  name: "module/model/27/add_fwd_bf16/13180_complex/add_fwd_bf16_0_reshape_TPC_out1"
  op: "StaticReshape"
  input: "tensor_0_odule/model/27/placeholder/0"
  attr {
    key: "Bundle_idx"
    value {
      s: "N/A"
    }
  }
  attr {
    key: "Exec_idx"
    value {
      s: "0"
    }
  }
  attr {
    key: "Op_idx"
    value {
      s: "N/A"
    }
  }
  attr {
    key: "inputTensor:0"
    value {
      s: "tensor_0_odule/model/27/placeholder/0  |  Sizes = [1,189,8192]  |  bf16  |  expBias = 0, scale = 1  |    |  ModelParam = 0  |  strides = [3096576, 3096576, 16384, 2]  |  data = 0, sizeInBytes = 3096576  |  isPersistent  |  location = in DRAM  |  dramOffset = 0x40000000000  |  userMemorySection(type=Persistent, id=4)  |  "
    }
  }
  attr {
    key: "outputTensor:0"
    value {
      s: "_reshaped_126573  |  Sizes = [1,12096,128]  |  bf16  |  expBias = 0, scale = 1  |    |  ModelParam = 0  |  strides = [3096576, 3096576, 256, 2]  |  data = 0, sizeInBytes = 3096576  |  isAliased = tensor_0_odule/model/27/placeholder/0, type = alias, offset: 0  |  location = in DRAM  |  "
    }
  }
}
node {
  name: "tensor_1_odule/model/27/placeholder/1"
  op: "Placeholder"
  attr {
    key: "dtype"
    value {
      type: DT_BFLOAT16
    }
  }
  attr {
    key: "shape"
    value {
      shape {
        dim {
          size: 8192
        }
        dim {
          size: 189
        }
        dim {
          size: 1
        }
        dim {
          size: 1
        }
        dim {
          size: 1
        }
      }
    }
  }
  attr {
    key: "synDataType"
    value {
      s: "bf16"
    }
  }
}
node {
  name: "module/model/27/add_fwd_bf16/13180_complex/add_fwd_bf16_0_reshape_TPC_in1"
  op: "StaticReshape"
  input: "tensor_1_odule/model/27/placeholder/1"
  attr {
    key: "Bundle_idx"
    value {
      s: "N/A"
    }
  }
  attr {
    key: "Exec_idx"
    value {
      s: "1"
    }
  }
  attr {
    key: "Op_idx"
    value {
      s: "N/A"
    }
  }
  attr {
    key: "inputTensor:0"
    value {
      s: "tensor_1_odule/model/27/placeholder/1  |  Sizes = [1,189,8192]  |  bf16  |  expBias = 0, scale = 1  |    |  ModelParam = 0  |  strides = [3096576, 3096576, 16384, 2]  |  data = 0, sizeInBytes = 3096576  |  isPersistent  |  location = in DRAM  |  dramOffset = 0x50000000000  |  userMemorySection(type=Persistent, id=5)  |  "
    }
  }
  attr {
    key: "outputTensor:0"
    value {
      s: "_reshaped_126574  |  Sizes = [1,12096,128]  |  bf16  |  expBias = 0, scale = 1  |    |  ModelParam = 0  |  strides = [3096576, 3096576, 256, 2]  |  data = 0, sizeInBytes = 3096576  |  isAliased = tensor_1_odule/model/27/placeholder/1, type = alias, offset: 0  |  location = in DRAM  |  "
    }
  }
}
node {
  name: "module/model/27/add_fwd_bf16/13180_complex/add_fwd_bf16_0_optimized"
  op: "add_fwd_bf16"
  input: "module/model/27/add_fwd_bf16/13180_complex/add_fwd_bf16_0_reshape_TPC_out1"
  input: "module/model/27/add_fwd_bf16/13180_complex/add_fwd_bf16_0_reshape_TPC_in1"
  attr {
    key: "Bundle_idx"
    value {
      s: "N/A"
    }
  }
  attr {
    key: "Exec_idx"
    value {
      s: "2"
    }
  }
  attr {
    key: "Op_idx"
    value {
      s: "N/A"
    }
  }
  attr {
    key: "inputTensor:0"
    value {
      s: "_reshaped_126573  |  Sizes = [1,12096,128]  |  bf16  |  expBias = 0, scale = 1  |    |  ModelParam = 0  |  strides = [3096576, 3096576, 256, 2]  |  data = 0, sizeInBytes = 3096576  |  isAliased = tensor_0_odule/model/27/placeholder/0, type = alias, offset: 0  |  location = in DRAM  |  "
    }
  }
  attr {
    key: "inputTensor:1"
    value {
      s: "_reshaped_126574  |  Sizes = [1,12096,128]  |  bf16  |  expBias = 0, scale = 1  |    |  ModelParam = 0  |  strides = [3096576, 3096576, 256, 2]  |  data = 0, sizeInBytes = 3096576  |  isAliased = tensor_1_odule/model/27/placeholder/1, type = alias, offset: 0  |  location = in DRAM  |  "
    }
  }
  attr {
    key: "outputTensor:0"
    value {
      s: "_reshaped_126577  |  Sizes = [1,12096,128]  |  bf16  |  expBias = 0, scale = 1  |    |  ModelParam = 0  |  strides = [3096576, 3096576, 256, 2]  |  data = 0, sizeInBytes = 3096576  |  isAliased = tensor_2, type = alias, offset: 0  |  location = in DRAM  |  "
    }
  }
}
node {
  name: "module/model/27/add_fwd_bf16/13180_complex/add_fwd_bf16_0_reshape_TPC_out0"
  op: "StaticReshape"
  input: "module/model/27/add_fwd_bf16/13180_complex/add_fwd_bf16_0_optimized"
  input: "^module/model/27/add_fwd_bf16/13180_complex/add_fwd_bf16_0_reshape_TPC_out1"
  attr {
    key: "Bundle_idx"
    value {
      s: "N/A"
    }
  }
  attr {
    key: "Exec_idx"
    value {
      s: "3"
    }
  }
  attr {
    key: "Op_idx"
    value {
      s: "N/A"
    }
  }
  attr {
    key: "inputTensor:0"
    value {
      s: "_reshaped_126577  |  Sizes = [1,12096,128]  |  bf16  |  expBias = 0, scale = 1  |    |  ModelParam = 0  |  strides = [3096576, 3096576, 256, 2]  |  data = 0, sizeInBytes = 3096576  |  isAliased = tensor_2, type = alias, offset: 0  |  location = in DRAM  |  "
    }
  }
  attr {
    key: "outputTensor:0"
    value {
      s: "tensor_2  |  Sizes = [1,189,8192]  |  bf16  |  expBias = 0, scale = 1  |    |  ModelParam = 0  |  strides = [3096576, 3096576, 16384, 2]  |  data = 0, sizeInBytes = 3096576  |  isPersistent  |  location = in DRAM  |  dramOffset = 0x40000000000  |  userMemorySection(type=Persistent, id=4)  |  "
    }
  }
}
node {
  name: "tensor_7_odule/model/28/placeholder/0"
  op: "Placeholder"
  attr {
    key: "dtype"
    value {
      type: DT_INT32
    }
  }
  attr {
    key: "shape"
    value {
      shape {
        dim {
          size: 189
        }
        dim {
          size: 1
        }
        dim {
          size: 1
        }
        dim {
          size: 1
        }
        dim {
          size: 1
        }
      }
    }
  }
  attr {
    key: "synDataType"
    value {
      s: "int32"
    }
  }
}
node {
  name: "module/model/28/expand_dims/13182"
  op: "ExpandDims"
  input: "tensor_7_odule/model/28/placeholder/0"
  attr {
    key: "Bundle_idx"
    value {
      s: "N/A"
    }
  }
  attr {
    key: "Exec_idx"
    value {
      s: "4"
    }
  }
  attr {
    key: "Op_idx"
    value {
      s: "N/A"
    }
  }
  attr {
    key: "inputTensor:0"
    value {
      s: "tensor_7_odule/model/28/placeholder/0  |  Sizes = [189]  |  int32  |  expBias = 0, scale = 1  |    |  ModelParam = 0  |  strides = [756, 4]  |  data = 0, sizeInBytes = 756  |  isPersistent  |  location = in DRAM  |  dramOffset = 0x70000000000  |  userMemorySection(type=Persistent, id=7)  |  "
    }
  }
  attr {
    key: "outputTensor:0"
    value {
      s: "tensor_8_id_127277_module/model/28/aten__unsqueeze/1  |  Sizes = [1,189]  |  int32  |  expBias = 0, scale = 1  |    |  ModelParam = 0  |  strides = [756, 756, 4]  |  data = 0, sizeInBytes = 756  |  isAliased = tensor_7_odule/model/28/placeholder/0, type = alias, offset: 0  |  location = in DRAM  |  "
    }
  }
}
node {
  name: "tensor_9_odule/model/28/rotary_emb/placeholder/0"
  op: "Placeholder"
  attr {
    key: "dtype"
    value {
      type: DT_BFLOAT16
    }
  }
  attr {
    key: "shape"
    value {
      shape {
        dim {
          size: 128
        }
        dim {
          size: 131072
        }
        dim {
          size: 1
        }
        dim {
          size: 1
        }
        dim {
          size: 1
        }
      }
    }
  }
  attr {
    key: "synDataType"
    value {
      s: "bf16"
    }
  }
}
node {
  name: "module/model/28/rotary_emb/slice/13183"
  op: "Slice"
  input: "tensor_9_odule/model/28/rotary_emb/placeholder/0"
  attr {
    key: "Bundle_idx"
    value {
      s: "N/A"
    }
  }
  attr {
    key: "Exec_idx"
    value {
      s: "5"
    }
  }
  attr {
    key: "Op_idx"
    value {
      s: "N/A"
    }
  }
  attr {
    key: "inputTensor:0"
    value {
      s: "tensor_9_odule/model/28/rotary_emb/placeholder/0  |  Sizes = [131072,128]  |  bf16  |  expBias = 0, scale = 1  |    |  ModelParam = 0  |  strides = [33554432, 256, 2]  |  data = 0, sizeInBytes = 33554432  |  isPersistent  |  location = in DRAM  |  dramOffset = 0x80000000000  |  userMemorySection(type=Persistent, id=8)  |  "
    }
  }
  attr {
    key: "outputTensor:0"
    value {
      s: "tensor_10_id_127395_module/model/28/rotary_emb/aten__slice  |  Sizes = [189,128]  |  bf16  |  expBias = 0, scale = 1  |    |  ModelParam = 0  |  strides = [33554432, 256, 2]  |  data = 0, sizeInBytes = 48384  |  isAliased = tensor_9_odule/model/28/rotary_emb/placeholder/0, type = slice, offset: 0  |  location = in DRAM  |  "
    }
  }
}
node {
  name: "tensor_11_odule/model/28/rotary_emb/placeholder/1"
  op: "Placeholder"
  attr {
    key: "dtype"
    value {
      type: DT_FLOAT
    }
  }
  attr {
    key: "shape"
    value {
      shape {
        dim {
          size: 1
        }
        dim {
          size: 1
        }
        dim {
          size: 1
        }
        dim {
          size: 1
        }
        dim {
          size: 1
        }
      }
    }
  }
  attr {
    key: "synDataType"
    value {
      s: "float32"
    }
  }
}
node {
  name: "module/model/28/rotary_emb/cast_f32_to_bf16/13184"
  op: "cast_f32_to_bf16"
  input: "tensor_11_odule/model/28/rotary_emb/placeholder/1"
  attr {
    key: "Bundle_idx"
    value {
      s: "N/A"
    }
  }
  attr {
    key: "Exec_idx"
    value {
      s: "6"
    }
  }
  attr {
    key: "Op_idx"
    value {
      s: "N/A"
    }
  }
  attr {
    key: "inputTensor:0"
    value {
      s: "tensor_11_odule/model/28/rotary_emb/placeholder/1  |  Sizes = [1]  |  float32  |  expBias = 0, scale = 1  |    |  ModelParam = 0  |  strides = [4, 4]  |  data = 0, sizeInBytes = 4  |  isPersistent  |  location = in DRAM  |  dramOffset = 0x90000000000  |  userMemorySection(type=Persistent, id=9)  |  "
    }
  }
  attr {
    key: "outputTensor:0"
    value {
      s: "tensor_13  |  Sizes = [1]  |  bf16  |  expBias = 0, scale = 1  |    |  ModelParam = 0  |  strides = [2, 2]  |  data = 0, sizeInBytes = 2  |  location = in DRAM  |  dramOffset = 0x60000000000  |  "
    }
  }
}
node {
  name: "module/model/28/rotary_emb/mult_fwd_bf16/13185_complex/mult_fwd_bf16_0"
  op: "mult_fwd_bf16"
  input: "module/model/28/rotary_emb/slice/13183"
  input: "module/model/28/rotary_emb/cast_f32_to_bf16/13184"
  attr {
    key: "Bundle_idx"
    value {
      s: "N/A"
    }
  }
  attr {
    key: "Exec_idx"
    value {
      s: "7"
    }
  }
  attr {
    key: "Op_idx"
    value {
      s: "N/A"
    }
  }
  attr {
    key: "inputTensor:0"
    value {
      s: "tensor_10_id_127395_module/model/28/rotary_emb/aten__slice  |  Sizes = [189,128]  |  bf16  |  expBias = 0, scale = 1  |    |  ModelParam = 0  |  strides = [33554432, 256, 2]  |  data = 0, sizeInBytes = 48384  |  isAliased = tensor_9_odule/model/28/rotary_emb/placeholder/0, type = slice, offset: 0  |  location = in DRAM  |  "
    }
  }
  attr {
    key: "inputTensor:1"
    value {
      s: "tensor_13  |  Sizes = [1]  |  bf16  |  expBias = 0, scale = 1  |    |  ModelParam = 0  |  strides = [2, 2]  |  data = 0, sizeInBytes = 2  |  location = in DRAM  |  dramOffset = 0x60000000000  |  "
    }
  }
  attr {
    key: "outputTensor:0"
    value {
      s: "tensor_12_id_127397_module/model/28/rotary_emb/aten__mul  |  Sizes = [189,128]  |  bf16  |  expBias = 0, scale = 1  |    |  ModelParam = 0  |  strides = [48384, 256, 2]  |  data = 0, sizeInBytes = 48384  |  location = in DRAM  |  dramOffset = 0x130000000000  |  "
    }
  }
}
node {
  name: "tensor_17_odule/model/28/rotary_emb/placeholder/0"
  op: "Placeholder"
  attr {
    key: "dtype"
    value {
      type: DT_BFLOAT16
    }
  }
  attr {
    key: "shape"
    value {
      shape {
        dim {
          size: 128
        }
        dim {
          size: 131072
        }
        dim {
          size: 1
        }
        dim {
          size: 1
        }
        dim {
          size: 1
        }
      }
    }
  }
  attr {
    key: "synDataType"
    value {
      s: "bf16"
    }
  }
}
node {
  name: "module/model/28/rotary_emb/slice/13189"
  op: "Slice"
  input: "tensor_17_odule/model/28/rotary_emb/placeholder/0"
  attr {
    key: "Bundle_idx"
    value {
      s: "N/A"
    }
  }
  attr {
    key: "Exec_idx"
    value {
      s: "8"
    }
  }
  attr {
    key: "Op_idx"
    value {
      s: "N/A"
    }
  }
  attr {
    key: "inputTensor:0"
    value {
      s: "tensor_17_odule/model/28/rotary_emb/placeholder/0  |  Sizes = [131072,128]  |  bf16  |  expBias = 0, scale = 1  |    |  ModelParam = 0  |  strides = [33554432, 256, 2]  |  data = 0, sizeInBytes = 33554432  |  isPersistent  |  location = in DRAM  |  dramOffset = 0xa0000000000  |  userMemorySection(type=Persistent, id=10)  |  "
    }
  }
  attr {
    key: "outputTensor:0"
    value {
      s: "tensor_18_id_127399_module/model/28/rotary_emb/aten__slice  |  Sizes = [189,128]  |  bf16  |  expBias = 0, scale = 1  |    |  ModelParam = 0  |  strides = [33554432, 256, 2]  |  data = 0, sizeInBytes = 48384  |  isAliased = tensor_17_odule/model/28/rotary_emb/placeholder/0, type = slice, offset: 0  |  location = in DRAM  |  "
    }
  }
}
node {
  name: "module/model/28/rotary_emb/mult_fwd_bf16/13191_complex/mult_fwd_bf16_0"
  op: "mult_fwd_bf16"
  input: "module/model/28/rotary_emb/slice/13189"
  input: "module/model/28/rotary_emb/cast_f32_to_bf16/13184"
  attr {
    key: "Bundle_idx"
    value {
      s: "N/A"
    }
  }
  attr {
    key: "Exec_idx"
    value {
      s: "9"
    }
  }
  attr {
    key: "Op_idx"
    value {
      s: "N/A"
    }
  }
  attr {
    key: "inputTensor:0"
    value {
      s: "tensor_18_id_127399_module/model/28/rotary_emb/aten__slice  |  Sizes = [189,128]  |  bf16  |  expBias = 0, scale = 1  |    |  ModelParam = 0  |  strides = [33554432, 256, 2]  |  data = 0, sizeInBytes = 48384  |  isAliased = tensor_17_odule/model/28/rotary_emb/placeholder/0, type = slice, offset: 0  |  location = in DRAM  |  "
    }
  }
  attr {
    key: "inputTensor:1"
    value {
      s: "tensor_13  |  Sizes = [1]  |  bf16  |  expBias = 0, scale = 1  |    |  ModelParam = 0  |  strides = [2, 2]  |  data = 0, sizeInBytes = 2  |  location = in DRAM  |  dramOffset = 0x60000000000  |  "
    }
  }
  attr {
    key: "outputTensor:0"
    value {
      s: "tensor_19_id_127401_module/model/28/rotary_emb/aten__mul  |  Sizes = [189,128]  |  bf16  |  expBias = 0, scale = 1  |    |  ModelParam = 0  |  strides = [48384, 256, 2]  |  data = 0, sizeInBytes = 48384  |  location = in DRAM  |  dramOffset = 0x13000000bd00  |  "
    }
  }
}
node {
  name: "module/model/28/input_layernorm/rms_norm_ex_fwd_bf16/13195_complex/rms_norm_ex_fwd_bf16_435/reshape_4"
  op: "Reshape"
  input: "module/model/27/add_fwd_bf16/13180_complex/add_fwd_bf16_0_reshape_TPC_out0"
  attr {
    key: "Bundle_idx"
    value {
      s: "N/A"
    }
  }
  attr {
    key: "Exec_idx"
    value {
      s: "10"
    }
  }
  attr {
    key: "Op_idx"
    value {
      s: "N/A"
    }
  }
  attr {
    key: "inputTensor:0"
    value {
      s: "tensor_2  |  Sizes = [1,189,8192]  |  bf16  |  expBias = 0, scale = 1  |    |  ModelParam = 0  |  strides = [3096576, 3096576, 16384, 2]  |  data = 0, sizeInBytes = 3096576  |  isPersistent  |  location = in DRAM  |  dramOffset = 0x40000000000  |  userMemorySection(type=Persistent, id=4)  |  "
    }
  }
  attr {
    key: "outputTensor:0"
    value {
      s: "bf16-5_126350  |  Sizes = [189,8192]  |  bf16  |  expBias = 0, scale = 1  |    |  ModelParam = 0  |  strides = [3096576, 16384, 2]  |  data = 0, sizeInBytes = 3096576  |  isAliased = tensor_2, type = alias, offset: 0  |  location = in DRAM  |  "
    }
  }
}
node {
  name: "tensor_33_odule/model/28/k_proj/placeholder/1"
  op: "Placeholder"
  attr {
    key: "dtype"
    value {
      type: DT_INVALID
    }
  }
  attr {
    key: "shape"
    value {
      shape {
        dim {
          size: 256
        }
        dim {
          size: 8192
        }
        dim {
          size: 1
        }
        dim {
          size: 1
        }
        dim {
          size: 1
        }
      }
    }
  }
  attr {
    key: "synDataType"
    value {
      s: "hfloat8"
    }
  }
}
node {
  name: "module/model/28/k_proj/fp8_gemm_bf16/13197_complex/fp8_gemm_bf16_1731/expand_dims_6"
  op: "ExpandDims"
  input: "tensor_33_odule/model/28/k_proj/placeholder/1"
  attr {
    key: "Bundle_idx"
    value {
      s: "N/A"
    }
  }
  attr {
    key: "Exec_idx"
    value {
      s: "11"
    }
  }
  attr {
    key: "Op_idx"
    value {
      s: "N/A"
    }
  }
  attr {
    key: "inputTensor:0"
    value {
      s: "tensor_33_odule/model/28/k_proj/placeholder/1  |  Sizes = [8192,256]  |  hfloat8  |  expBias = 7, scale = 1  |    |  ModelParam = 0  |  strides = [2097152, 256, 1]  |  data = 0, sizeInBytes = 2097152  |  isPersistent  |  location = in DRAM  |  dramOffset = 0xd0000000000  |  userMemorySection(type=Persistent, id=13)  |  "
    }
  }
  attr {
    key: "outputTensor:0"
    value {
      s: "hf8-7_126356  |  Sizes = [1,8192,256]  |  hfloat8  |  expBias = 7, scale = 1  |    |  ModelParam = 0  |  strides = [2097152, 2097152, 256, 1]  |  data = 0, sizeInBytes = 2097152  |  isAliased = tensor_33_odule/model/28/k_proj/placeholder/1, type = alias, offset: 0  |  location = in DRAM  |  "
    }
  }
}
node {
  name: "module/model/28/rotary_pos_embedding_fwd_bf16/13200_complex/rotary_pos_embedding_fwd_bf16_216/gather_nd_mxnet_fwd_bf16_8"
  op: "gather_nd_mxnet_fwd_bf16"
  input: "module/model/28/rotary_emb/mult_fwd_bf16/13191_complex/mult_fwd_bf16_0"
  input: "module/model/28/expand_dims/13182"
  attr {
    key: "Bundle_idx"
    value {
      s: "N/A"
    }
  }
  attr {
    key: "Exec_idx"
    value {
      s: "12"
    }
  }
  attr {
    key: "Op_idx"
    value {
      s: "N/A"
    }
  }
  attr {
    key: "inputTensor:0"
    value {
      s: "tensor_19_id_127401_module/model/28/rotary_emb/aten__mul  |  Sizes = [189,128]  |  bf16  |  expBias = 0, scale = 1  |    |  ModelParam = 0  |  strides = [48384, 256, 2]  |  data = 0, sizeInBytes = 48384  |  location = in DRAM  |  dramOffset = 0x13000000bd00  |  "
    }
  }
  attr {
    key: "inputTensor:1"
    value {
      s: "tensor_8_id_127277_module/model/28/aten__unsqueeze/1  |  Sizes = [1,189]  |  int32  |  expBias = 0, scale = 1  |    |  ModelParam = 0  |  strides = [756, 756, 4]  |  data = 0, sizeInBytes = 756  |  isAliased = tensor_7_odule/model/28/placeholder/0, type = alias, offset: 0  |  location = in DRAM  |  "
    }
  }
  attr {
    key: "outputTensor:0"
    value {
      s: "bf16-9_126361  |  Sizes = [189,128]  |  bf16  |  expBias = 0, scale = 1  |    |  ModelParam = 0  |  strides = [48384, 256, 2]  |  data = 0, sizeInBytes = 48384  |  isAliased = bf16-13_126363, type = alias, offset: 0  |  location = in DRAM  |  "
    }
  }
}
node {
  name: "module/model/28/rotary_pos_embedding_fwd_bf16/13200_complex/rotary_pos_embedding_fwd_bf16_216/gather_nd_mxnet_fwd_bf16_10"
  op: "gather_nd_mxnet_fwd_bf16"
  input: "module/model/28/rotary_emb/mult_fwd_bf16/13185_complex/mult_fwd_bf16_0"
  input: "module/model/28/expand_dims/13182"
  attr {
    key: "Bundle_idx"
    value {
      s: "N/A"
    }
  }
  attr {
    key: "Exec_idx"
    value {
      s: "13"
    }
  }
  attr {
    key: "Op_idx"
    value {
      s: "N/A"
    }
  }
  attr {
    key: "inputTensor:0"
    value {
      s: "tensor_12_id_127397_module/model/28/rotary_emb/aten__mul  |  Sizes = [189,128]  |  bf16  |  expBias = 0, scale = 1  |    |  ModelParam = 0  |  strides = [48384, 256, 2]  |  data = 0, sizeInBytes = 48384  |  location = in DRAM  |  dramOffset = 0x130000000000  |  "
    }
  }
  attr {
    key: "inputTensor:1"
    value {
      s: "tensor_8_id_127277_module/model/28/aten__unsqueeze/1  |  Sizes = [1,189]  |  int32  |  expBias = 0, scale = 1  |    |  ModelParam = 0  |  strides = [756, 756, 4]  |  data = 0, sizeInBytes = 756  |  isAliased = tensor_7_odule/model/28/placeholder/0, type = alias, offset: 0  |  location = in DRAM  |  "
    }
  }
  attr {
    key: "outputTensor:0"
    value {
      s: "bf16-11_126362  |  Sizes = [189,128]  |  bf16  |  expBias = 0, scale = 1  |    |  ModelParam = 0  |  strides = [48384, 256, 2]  |  data = 0, sizeInBytes = 48384  |  isAliased = bf16-15_126364, type = alias, offset: 0  |  location = in DRAM  |  "
    }
  }
}
node {
  name: "module/model/28/rotary_pos_embedding_fwd_bf16/13200_complex/rotary_pos_embedding_fwd_bf16_216/expand_dims_12"
  op: "ExpandDims"
  input: "module/model/28/rotary_pos_embedding_fwd_bf16/13200_complex/rotary_pos_embedding_fwd_bf16_216/gather_nd_mxnet_fwd_bf16_8"
  attr {
    key: "Bundle_idx"
    value {
      s: "N/A"
    }
  }
  attr {
    key: "Exec_idx"
    value {
      s: "14"
    }
  }
  attr {
    key: "Op_idx"
    value {
      s: "N/A"
    }
  }
  attr {
    key: "inputTensor:0"
    value {
      s: "bf16-9_126361  |  Sizes = [189,128]  |  bf16  |  expBias = 0, scale = 1  |    |  ModelParam = 0  |  strides = [48384, 256, 2]  |  data = 0, sizeInBytes = 48384  |  isAliased = bf16-13_126363, type = alias, offset: 0  |  location = in DRAM  |  "
    }
  }
  attr {
    key: "outputTensor:0"
    value {
      s: "bf16-13_126363  |  Sizes = [1,189,128]  |  bf16  |  expBias = 0, scale = 1  |    |  ModelParam = 0  |  strides = [48384, 48384, 256, 2]  |  data = 0, sizeInBytes = 48384  |  location = in DRAM  |  dramOffset = 0x140000000000  |  "
    }
  }
}
node {
  name: "module/model/28/rotary_pos_embedding_fwd_bf16/13200_complex/rotary_pos_embedding_fwd_bf16_216/expand_dims_14"
  op: "ExpandDims"
  input: "module/model/28/rotary_pos_embedding_fwd_bf16/13200_complex/rotary_pos_embedding_fwd_bf16_216/gather_nd_mxnet_fwd_bf16_10"
  attr {
    key: "Bundle_idx"
    value {
      s: "N/A"
    }
  }
  attr {
    key: "Exec_idx"
    value {
      s: "15"
    }
  }
  attr {
    key: "Op_idx"
    value {
      s: "N/A"
    }
  }
  attr {
    key: "inputTensor:0"
    value {
      s: "bf16-11_126362  |  Sizes = [189,128]  |  bf16  |  expBias = 0, scale = 1  |    |  ModelParam = 0  |  strides = [48384, 256, 2]  |  data = 0, sizeInBytes = 48384  |  isAliased = bf16-15_126364, type = alias, offset: 0  |  location = in DRAM  |  "
    }
  }
  attr {
    key: "outputTensor:0"
    value {
      s: "bf16-15_126364  |  Sizes = [1,189,128]  |  bf16  |  expBias = 0, scale = 1  |    |  ModelParam = 0  |  strides = [48384, 48384, 256, 2]  |  data = 0, sizeInBytes = 48384  |  location = in DRAM  |  dramOffset = 0x1c0000000000  |  "
    }
  }
}
node {
  name: "tensor_58_odule/model/28/v_proj/placeholder/1"
  op: "Placeholder"
  attr {
    key: "dtype"
    value {
      type: DT_INVALID
    }
  }
  attr {
    key: "shape"
    value {
      shape {
        dim {
          size: 256
        }
        dim {
          size: 8192
        }
        dim {
          size: 1
        }
        dim {
          size: 1
        }
        dim {
          size: 1
        }
      }
    }
  }
  attr {
    key: "synDataType"
    value {
      s: "hfloat8"
    }
  }
}
node {
  name: "module/model/28/v_proj/fp8_gemm_bf16/13206_complex/fp8_gemm_hf8_1733/expand_dims_8"
  op: "ExpandDims"
  input: "tensor_58_odule/model/28/v_proj/placeholder/1"
  attr {
    key: "Bundle_idx"
    value {
      s: "N/A"
    }
  }
  attr {
    key: "Exec_idx"
    value {
      s: "16"
    }
  }
  attr {
    key: "Op_idx"
    value {
      s: "N/A"
    }
  }
  attr {
    key: "inputTensor:0"
    value {
      s: "tensor_58_odule/model/28/v_proj/placeholder/1  |  Sizes = [8192,256]  |  hfloat8  |  expBias = 7, scale = 1  |    |  ModelParam = 0  |  strides = [2097152, 256, 1]  |  data = 0, sizeInBytes = 2097152  |  isPersistent  |  location = in DRAM  |  dramOffset = 0x160000000000  |  userMemorySection(type=Persistent, id=22)  |  "
    }
  }
  attr {
    key: "outputTensor:0"
    value {
      s: "hf8-9_126369  |  Sizes = [1,8192,256]  |  hfloat8  |  expBias = 7, scale = 1  |    |  ModelParam = 0  |  strides = [2097152, 2097152, 256, 1]  |  data = 0, sizeInBytes = 2097152  |  isAliased = tensor_58_odule/model/28/v_proj/placeholder/1, type = alias, offset: 0  |  location = in DRAM  |  "
    }
  }
}
node {
  name: "tensor_73_odule/model/28/fused_scaled_dot_product_attention/placeholder/0"
  op: "Placeholder"
  attr {
    key: "dtype"
    value {
      type: DT_BFLOAT16
    }
  }
  attr {
    key: "shape"
    value {
      shape {
        dim {
          size: 189
        }
        dim {
          size: 189
        }
        dim {
          size: 1
        }
        dim {
          size: 1
        }
        dim {
          size: 1
        }
      }
    }
  }
  attr {
    key: "synDataType"
    value {
      s: "bf16"
    }
  }
}
node {
  name: "module/model/28/fused_scaled_dot_product_attention/expand_dims/13217"
  op: "Reshape"
  input: "tensor_73_odule/model/28/fused_scaled_dot_product_attention/placeholder/0"
  attr {
    key: "Bundle_idx"
    value {
      s: "N/A"
    }
  }
  attr {
    key: "Exec_idx"
    value {
      s: "17"
    }
  }
  attr {
    key: "Op_idx"
    value {
      s: "N/A"
    }
  }
  attr {
    key: "inputTensor:0"
    value {
      s: "tensor_73_odule/model/28/fused_scaled_dot_product_attention/placeholder/0  |  Sizes = [189,189]  |  bf16  |  expBias = 0, scale = 1  |    |  ModelParam = 0  |  strides = [71442, 378, 2]  |  data = 0, sizeInBytes = 71442  |  isPersistent  |  location = in DRAM  |  dramOffset = 0x1d0000000000  |  userMemorySection(type=Persistent, id=29)  |  "
    }
  }
  attr {
    key: "outputTensor:0"
    value {
      s: "tensor_79_id_127504_module/model/28/fused_scaled_dot_product_attention/aten__unsqueeze  |  Sizes = [1,1,1,189,189]  |  bf16  |  expBias = 0, scale = 1  |    |  ModelParam = 0  |  strides = [71442, 71442, 71442, 71442, 378, 2]  |  data = 0, sizeInBytes = 71442  |  isAliased = tensor_73_odule/model/28/fused_scaled_dot_product_attention/placeholder/0, type = alias, offset: 0  |  location = in DRAM  |  "
    }
  }
}
node {
  name: "tensor_95_odule/model/28/q_proj/placeholder/1"
  op: "Placeholder"
  attr {
    key: "dtype"
    value {
      type: DT_INVALID
    }
  }
  attr {
    key: "shape"
    value {
      shape {
        dim {
          size: 2048
        }
        dim {
          size: 8192
        }
        dim {
          size: 1
        }
        dim {
          size: 1
        }
        dim {
          size: 1
        }
      }
    }
  }
  attr {
    key: "synDataType"
    value {
      s: "hfloat8"
    }
  }
}
node {
  name: "module/model/28/q_proj/fp8_gemm_bf16/13224_complex/fp8_gemm_bf16_1735/expand_dims_6"
  op: "ExpandDims"
  input: "tensor_95_odule/model/28/q_proj/placeholder/1"
  attr {
    key: "Bundle_idx"
    value {
      s: "N/A"
    }
  }
  attr {
    key: "Exec_idx"
    value {
      s: "18"
    }
  }
  attr {
    key: "Op_idx"
    value {
      s: "N/A"
    }
  }
  attr {
    key: "inputTensor:0"
    value {
      s: "tensor_95_odule/model/28/q_proj/placeholder/1  |  Sizes = [8192,2048]  |  hfloat8  |  expBias = 7, scale = 1  |    |  ModelParam = 0  |  strides = [16777216, 2048, 1]  |  data = 0, sizeInBytes = 16777216  |  isPersistent  |  location = in DRAM  |  dramOffset = 0x210000000000  |  userMemorySection(type=Persistent, id=33)  |  "
    }
  }
  attr {
    key: "outputTensor:0"
    value {
      s: "hf8-7_126373  |  Sizes = [1,8192,2048]  |  hfloat8  |  expBias = 7, scale = 1  |    |  ModelParam = 0  |  strides = [16777216, 16777216, 2048, 1]  |  data = 0, sizeInBytes = 16777216  |  isAliased = tensor_95_odule/model/28/q_proj/placeholder/1, type = alias, offset: 0  |  location = in DRAM  |  "
    }
  }
}
node {
  name: "tensor_24_odule/model/28/input_layernorm/placeholder/1"
  op: "Placeholder"
  attr {
    key: "dtype"
    value {
      type: DT_BFLOAT16
    }
  }
  attr {
    key: "shape"
    value {
      shape {
        dim {
          size: 8192
        }
        dim {
          size: 1
        }
        dim {
          size: 1
        }
        dim {
          size: 1
        }
        dim {
          size: 1
        }
      }
    }
  }
  attr {
    key: "synDataType"
    value {
      s: "bf16"
    }
  }
}
node {
  name: "module/model/28/input_layernorm/rms_norm_ex_fwd_bf16/13195_complex/rms_norm_ex_fwd_bf16_435/rms_norm_fwd_bf16_6_bundle_649/op_0"
  op: "rms_norm_fwd_bf16"
  input: "module/model/28/input_layernorm/rms_norm_ex_fwd_bf16/13195_complex/rms_norm_ex_fwd_bf16_435/reshape_4"
  input: "tensor_24_odule/model/28/input_layernorm/placeholder/1"
  attr {
    key: "Bundle_idx"
    value {
      s: "649"
    }
  }
  attr {
    key: "Exec_idx"
    value {
      s: "19"
    }
  }
  attr {
    key: "Op_idx"
    value {
      s: "0"
    }
  }
  attr {
    key: "inputTensor:0"
    value {
      s: "bf16-5_126350  |  Sizes = [189,8192]  |  bf16  |  expBias = 0, scale = 1  |    |  ModelParam = 0  |  strides = [3096576, 16384, 2]  |  data = 0, sizeInBytes = 3096576  |  isAliased = tensor_2, type = alias, offset: 0  |  location = in DRAM  |  "
    }
  }
  attr {
    key: "inputTensor:1"
    value {
      s: "tensor_24_odule/model/28/input_layernorm/placeholder/1  |  Sizes = [8192]  |  bf16  |  expBias = 0, scale = 1  |    |  ModelParam = 0  |  strides = [16384, 2]  |  data = 0, sizeInBytes = 16384  |  isPersistent  |  location = in DRAM  |  dramOffset = 0xb0000000000  |  userMemorySection(type=Persistent, id=11)  |  "
    }
  }
  attr {
    key: "outputTensor:0"
    value {
      s: "bf16-7_126351_slice_0_0_0_0_0__0__bundle_649_126813  |  Sizes = [189,8192]  |  bf16  |  expBias = 0, scale = 1  |    |  ModelParam = 0  |  strides = [3096576, 16384, 2]  |  data = 0, sizeInBytes = 3096576  |  isAliased = tensor-126569_slice_0_0_0_0_0__0__bundle_649_126815, type = alias, offset: 0  |  location = in SRAM  |  sramOffset = 0x1000fffffd050000  |  "
    }
  }
  attr {
    key: "outputTensor:1"
    value {
      s: "f32-8_126352  |  Sizes = [189,1]  |  float32  |  expBias = 0, scale = 1  |    |  ModelParam = 0  |  strides = [756, 4, 4]  |  data = 0, sizeInBytes = 756  |  location = in DRAM  |  dramOffset = 0x60000000080  |  "
    }
  }
}
node {
  name: "f32-8_126352"
  op: "OutputTensor"
  input: "module/model/28/input_layernorm/rms_norm_ex_fwd_bf16/13195_complex/rms_norm_ex_fwd_bf16_435/rms_norm_fwd_bf16_6_bundle_649/op_0"
  attr {
    key: "dtype"
    value {
      type: DT_FLOAT
    }
  }
  attr {
    key: "shape"
    value {
      shape {
        dim {
          size: 1
        }
        dim {
          size: 189
        }
        dim {
          size: 1
        }
        dim {
          size: 1
        }
        dim {
          size: 1
        }
      }
    }
  }
  attr {
    key: "synDataType"
    value {
      s: "float32"
    }
  }
}
node {
  name: "reshape_0_0_bundle_649/op_1"
  op: "Reshape"
  input: "module/model/28/input_layernorm/rms_norm_ex_fwd_bf16/13195_complex/rms_norm_ex_fwd_bf16_435/rms_norm_fwd_bf16_6_bundle_649/op_0"
  attr {
    key: "Bundle_idx"
    value {
      s: "649"
    }
  }
  attr {
    key: "Exec_idx"
    value {
      s: "20"
    }
  }
  attr {
    key: "Op_idx"
    value {
      s: "1"
    }
  }
  attr {
    key: "inputTensor:0"
    value {
      s: "bf16-7_126351_slice_0_0_0_0_0__0__bundle_649_126813  |  Sizes = [189,8192]  |  bf16  |  expBias = 0, scale = 1  |    |  ModelParam = 0  |  strides = [3096576, 16384, 2]  |  data = 0, sizeInBytes = 3096576  |  isAliased = tensor-126569_slice_0_0_0_0_0__0__bundle_649_126815, type = alias, offset: 0  |  location = in SRAM  |  sramOffset = 0x1000fffffd050000  |  "
    }
  }
  attr {
    key: "outputTensor:0"
    value {
      s: "tensor-126569_slice_0_0_0_0_0__0__bundle_649_126815  |  Sizes = [1,189,8192]  |  bf16  |  expBias = 0, scale = 1  |    |  ModelParam = 0  |  strides = [3096576, 3096576, 16384, 2]  |  data = 0, sizeInBytes = 3096576  |  location = in SRAM  |  sramOffset = 0x1000fffffd050000  |  "
    }
  }
}
node {
  name: "fusedTPCNode_228_0_bundle_649/op_2"
  op: "fused_kernel_0xB24F8DCF_297_hf8"
  input: "reshape_0_0_bundle_649/op_1"
  attr {
    key: "Bundle_idx"
    value {
      s: "649"
    }
  }
  attr {
    key: "Exec_idx"
    value {
      s: "21"
    }
  }
  attr {
    key: "Op_idx"
    value {
      s: "2"
    }
  }
  attr {
    key: "inputTensor:0"
    value {
      s: "tensor-126569_slice_0_0_0_0_0__0__bundle_649_126815  |  Sizes = [1,189,8192]  |  bf16  |  expBias = 0, scale = 1  |    |  ModelParam = 0  |  strides = [3096576, 3096576, 16384, 2]  |  data = 0, sizeInBytes = 3096576  |  location = in SRAM  |  sramOffset = 0x1000fffffd050000  |  "
    }
  }
  attr {
    key: "outputTensor:0"
    value {
      s: "tensor_32_slice_0_0_0_0_0__0__bundle_649_126816  |  Sizes = [1,189,8192]  |  hfloat8  |  expBias = 7, scale = 1  |    |  ModelParam = 0  |  strides = [1548288, 1548288, 8192, 1]  |  data = 0, sizeInBytes = 1548288  |  location = in SRAM  |  sramOffset = 0x1000fffffd344000  |  "
    }
  }
}
node {
  name: "module/model/28/k_proj/fp8_gemm_bf16/13197_complex/fp8_gemm_bf16_1731/batch_gemm_8_bundle_649/op_3_gemm"
  op: "GEMM"
  input: "fusedTPCNode_228_0_bundle_649/op_2"
  input: "module/model/28/k_proj/fp8_gemm_bf16/13197_complex/fp8_gemm_bf16_1731/expand_dims_6"
  attr {
    key: "Bundle_idx"
    value {
      s: "649"
    }
  }
  attr {
    key: "Exec_idx"
    value {
      s: "22"
    }
  }
  attr {
    key: "Op_idx"
    value {
      s: "3"
    }
  }
  attr {
    key: "Parameters"
    value {
      s: "transpose_a=false, transpose_b=false"
    }
  }
  attr {
    key: "fp8BiasIn"
    value {
      s: "7"
    }
  }
  attr {
    key: "fp8BiasIn2"
    value {
      s: "15"
    }
  }
  attr {
    key: "fp8BiasOut"
    value {
      s: "0"
    }
  }
  attr {
    key: "inputTensor:0"
    value {
      s: "tensor_32_slice_0_0_0_0_0__0__bundle_649_126816  |  Sizes = [1,189,8192]  |  hfloat8  |  expBias = 7, scale = 1  |    |  ModelParam = 0  |  strides = [1548288, 1548288, 8192, 1]  |  data = 0, sizeInBytes = 1548288  |  location = in SRAM  |  sramOffset = 0x1000fffffd344000  |  "
    }
  }
  attr {
    key: "inputTensor:1"
    value {
      s: "hf8-7_126356  |  Sizes = [1,8192,256]  |  hfloat8  |  expBias = 7, scale = 1  |    |  ModelParam = 0  |  strides = [2097152, 2097152, 256, 1]  |  data = 0, sizeInBytes = 2097152  |  isAliased = tensor_33_odule/model/28/k_proj/placeholder/1, type = alias, offset: 0  |  location = in DRAM  |  "
    }
  }
  attr {
    key: "outputTensor:0"
    value {
      s: "tensor_37  |  Sizes = [1,189,256]  |  bf16  |  expBias = 0, scale = 1  |    |  ModelParam = 0  |  strides = [96768, 96768, 512, 2]  |  data = 0, sizeInBytes = 96768  |  isAliased = tensor_38_id_127387_module/model/28/aten__view, type = alias, offset: 0  |  location = in DRAM  |  "
    }
  }
}
node {
  name: "module/model/28/v_proj/fp8_gemm_bf16/13206_complex/fp8_gemm_hf8_1733/batch_gemm_10_bundle_649/op_4_gemm"
  op: "GEMM"
  input: "fusedTPCNode_228_0_bundle_649/op_2"
  input: "module/model/28/v_proj/fp8_gemm_bf16/13206_complex/fp8_gemm_hf8_1733/expand_dims_8"
  attr {
    key: "Bundle_idx"
    value {
      s: "649"
    }
  }
  attr {
    key: "Exec_idx"
    value {
      s: "23"
    }
  }
  attr {
    key: "Op_idx"
    value {
      s: "4"
    }
  }
  attr {
    key: "Parameters"
    value {
      s: "transpose_a=false, transpose_b=false"
    }
  }
  attr {
    key: "fp8BiasIn"
    value {
      s: "7"
    }
  }
  attr {
    key: "fp8BiasIn2"
    value {
      s: "15"
    }
  }
  attr {
    key: "fp8BiasOut"
    value {
      s: "7"
    }
  }
  attr {
    key: "inputTensor:0"
    value {
      s: "tensor_32_slice_0_0_0_0_0__0__bundle_649_126816  |  Sizes = [1,189,8192]  |  hfloat8  |  expBias = 7, scale = 1  |    |  ModelParam = 0  |  strides = [1548288, 1548288, 8192, 1]  |  data = 0, sizeInBytes = 1548288  |  location = in SRAM  |  sramOffset = 0x1000fffffd344000  |  "
    }
  }
  attr {
    key: "inputTensor:1"
    value {
      s: "hf8-9_126369  |  Sizes = [1,8192,256]  |  hfloat8  |  expBias = 7, scale = 1  |    |  ModelParam = 0  |  strides = [2097152, 2097152, 256, 1]  |  data = 0, sizeInBytes = 2097152  |  isAliased = tensor_58_odule/model/28/v_proj/placeholder/1, type = alias, offset: 0  |  location = in DRAM  |  "
    }
  }
  attr {
    key: "outputTensor:0"
    value {
      s: "tensor_62_c126317  |  Sizes = [1,189,256]  |  hfloat8  |  expBias = 7, scale = 1  |    |  ModelParam = 0  |  strides = [48384, 48384, 256, 1]  |  data = 0, sizeInBytes = 48384  |  isAliased = tensor_63_id_127391_module/model/28/quant_input_0/aten__view_memcpy_126866, type = alias, offset: 0  |  location = in DRAM  |  "
    }
  }
}
node {
  name: "module/model/28/q_proj/fp8_gemm_bf16/13224_complex/fp8_gemm_bf16_1735/batch_gemm_8_bundle_649/op_5_gemm"
  op: "GEMM"
  input: "fusedTPCNode_228_0_bundle_649/op_2"
  input: "module/model/28/q_proj/fp8_gemm_bf16/13224_complex/fp8_gemm_bf16_1735/expand_dims_6"
  attr {
    key: "Bundle_idx"
    value {
      s: "649"
    }
  }
  attr {
    key: "Exec_idx"
    value {
      s: "24"
    }
  }
  attr {
    key: "Op_idx"
    value {
      s: "5"
    }
  }
  attr {
    key: "Parameters"
    value {
      s: "transpose_a=false, transpose_b=false"
    }
  }
  attr {
    key: "fp8BiasIn"
    value {
      s: "7"
    }
  }
  attr {
    key: "fp8BiasIn2"
    value {
      s: "15"
    }
  }
  attr {
    key: "fp8BiasOut"
    value {
      s: "0"
    }
  }
  attr {
    key: "inputTensor:0"
    value {
      s: "tensor_32_slice_0_0_0_0_0__0__bundle_649_126816  |  Sizes = [1,189,8192]  |  hfloat8  |  expBias = 7, scale = 1  |    |  ModelParam = 0  |  strides = [1548288, 1548288, 8192, 1]  |  data = 0, sizeInBytes = 1548288  |  location = in SRAM  |  sramOffset = 0x1000fffffd344000  |  "
    }
  }
  attr {
    key: "inputTensor:1"
    value {
      s: "hf8-7_126373  |  Sizes = [1,8192,2048]  |  hfloat8  |  expBias = 7, scale = 1  |    |  ModelParam = 0  |  strides = [16777216, 16777216, 2048, 1]  |  data = 0, sizeInBytes = 16777216  |  isAliased = tensor_95_odule/model/28/q_proj/placeholder/1, type = alias, offset: 0  |  location = in DRAM  |  "
    }
  }
  attr {
    key: "outputTensor:0"
    value {
      s: "tensor_99  |  Sizes = [1,189,2048]  |  bf16  |  expBias = 0, scale = 1  |    |  ModelParam = 0  |  strides = [774144, 774144, 4096, 2]  |  data = 0, sizeInBytes = 774144  |  isAliased = tensor_100_id_127383_module/model/28/aten__view, type = alias, offset: 0  |  location = in DRAM  |  "
    }
  }
}
node {
  name: "module/model/28/reshape/13198"
  op: "Reshape"
  input: "module/model/28/k_proj/fp8_gemm_bf16/13197_complex/fp8_gemm_bf16_1731/batch_gemm_8_bundle_649/op_3_gemm"
  attr {
    key: "Bundle_idx"
    value {
      s: "N/A"
    }
  }
  attr {
    key: "Exec_idx"
    value {
      s: "25"
    }
  }
  attr {
    key: "Op_idx"
    value {
      s: "N/A"
    }
  }
  attr {
    key: "inputTensor:0"
    value {
      s: "tensor_37  |  Sizes = [1,189,256]  |  bf16  |  expBias = 0, scale = 1  |    |  ModelParam = 0  |  strides = [96768, 96768, 512, 2]  |  data = 0, sizeInBytes = 96768  |  isAliased = tensor_38_id_127387_module/model/28/aten__view, type = alias, offset: 0  |  location = in DRAM  |  "
    }
  }
  attr {
    key: "outputTensor:0"
    value {
      s: "tensor_38_id_127387_module/model/28/aten__view  |  Sizes = [1,189,2,128]  |  bf16  |  expBias = 0, scale = 1  |    |  ModelParam = 0  |  strides = [96768, 96768, 512, 256, 2]  |  data = 0, sizeInBytes = 96768  |  location = in DRAM  |  dramOffset = 0x310000000000  |  "
    }
  }
}
node {
  name: "module/model/28/transpose/13199_transpose_via_logical"
  op: "LogicalTranspose"
  input: "module/model/28/reshape/13198"
  attr {
    key: "Bundle_idx"
    value {
      s: "N/A"
    }
  }
  attr {
    key: "Exec_idx"
    value {
      s: "26"
    }
  }
  attr {
    key: "Op_idx"
    value {
      s: "N/A"
    }
  }
  attr {
    key: "Parameters"
    value {
      s: "permutation: (0,2,1,3)"
    }
  }
  attr {
    key: "inputTensor:0"
    value {
      s: "tensor_38_id_127387_module/model/28/aten__view  |  Sizes = [1,189,2,128]  |  bf16  |  expBias = 0, scale = 1  |    |  ModelParam = 0  |  strides = [96768, 96768, 512, 256, 2]  |  data = 0, sizeInBytes = 96768  |  location = in DRAM  |  dramOffset = 0x310000000000  |  "
    }
  }
  attr {
    key: "outputTensor:0"
    value {
      s: "tensor_39_id_127389_module/model/28/aten__transpose  |  Sizes = [1,2,189,128]  |  bf16  |  expBias = 0, scale = 1  |    |  ModelParam = 0  |  strides = [96768, 96768, 256, 512, 2]  |  data = 0, sizeInBytes = 96768  |  isAliased = tensor_38_id_127387_module/model/28/aten__view, type = alias, offset: 0  |  location = in DRAM  |  isSparseLayout  |  "
    }
  }
}
node {
  name: "module/model/28/rotary_pos_embedding_fwd_bf16/13200_complex/rotary_pos_embedding_fwd_bf16_216/rope_st2_fwd_bf16_16"
  op: "rope_st2_fwd_bf16"
  input: "module/model/28/transpose/13199_transpose_via_logical"
  input: "module/model/28/rotary_pos_embedding_fwd_bf16/13200_complex/rotary_pos_embedding_fwd_bf16_216/expand_dims_12"
  input: "module/model/28/rotary_pos_embedding_fwd_bf16/13200_complex/rotary_pos_embedding_fwd_bf16_216/expand_dims_14"
  attr {
    key: "Bundle_idx"
    value {
      s: "N/A"
    }
  }
  attr {
    key: "Exec_idx"
    value {
      s: "27"
    }
  }
  attr {
    key: "Op_idx"
    value {
      s: "N/A"
    }
  }
  attr {
    key: "inputTensor:0"
    value {
      s: "tensor_39_id_127389_module/model/28/aten__transpose  |  Sizes = [1,2,189,128]  |  bf16  |  expBias = 0, scale = 1  |    |  ModelParam = 0  |  strides = [96768, 96768, 256, 512, 2]  |  data = 0, sizeInBytes = 96768  |  isAliased = tensor_38_id_127387_module/model/28/aten__view, type = alias, offset: 0  |  location = in DRAM  |  isSparseLayout  |  "
    }
  }
  attr {
    key: "inputTensor:1"
    value {
      s: "bf16-13_126363  |  Sizes = [1,189,128]  |  bf16  |  expBias = 0, scale = 1  |    |  ModelParam = 0  |  strides = [48384, 48384, 256, 2]  |  data = 0, sizeInBytes = 48384  |  location = in DRAM  |  dramOffset = 0x140000000000  |  "
    }
  }
  attr {
    key: "inputTensor:2"
    value {
      s: "bf16-15_126364  |  Sizes = [1,189,128]  |  bf16  |  expBias = 0, scale = 1  |    |  ModelParam = 0  |  strides = [48384, 48384, 256, 2]  |  data = 0, sizeInBytes = 48384  |  location = in DRAM  |  dramOffset = 0x1c0000000000  |  "
    }
  }
  attr {
    key: "outputTensor:0"
    value {
      s: "tensor_41  |  Sizes = [1,2,189,128]  |  bf16  |  expBias = 0, scale = 1  |    |  ModelParam = 0  |  strides = [96768, 96768, 48384, 256, 2]  |  data = 0, sizeInBytes = 96768  |  location = in DRAM  |  dramOffset = 0x3100000d4a00  |  "
    }
  }
}
node {
  name: "module/model/28/quant_input_0/reshape/13207"
  op: "Reshape"
  input: "module/model/28/v_proj/fp8_gemm_bf16/13206_complex/fp8_gemm_hf8_1733/batch_gemm_10_bundle_649/op_4_gemm"
  attr {
    key: "Bundle_idx"
    value {
      s: "N/A"
    }
  }
  attr {
    key: "Exec_idx"
    value {
      s: "28"
    }
  }
  attr {
    key: "Op_idx"
    value {
      s: "N/A"
    }
  }
  attr {
    key: "inputTensor:0"
    value {
      s: "tensor_62_c126317  |  Sizes = [1,189,256]  |  hfloat8  |  expBias = 7, scale = 1  |    |  ModelParam = 0  |  strides = [48384, 48384, 256, 1]  |  data = 0, sizeInBytes = 48384  |  isAliased = tensor_63_id_127391_module/model/28/quant_input_0/aten__view_memcpy_126866, type = alias, offset: 0  |  location = in DRAM  |  "
    }
  }
  attr {
    key: "outputTensor:0"
    value {
      s: "tensor_63_id_127391_module/model/28/quant_input_0/aten__view_memcpy_126866  |  Sizes = [1,189,2,128]  |  hfloat8  |  expBias = 7, scale = 1  |    |  ModelParam = 0  |  strides = [48384, 48384, 256, 128, 1]  |  data = 0, sizeInBytes = 48384  |  location = in DRAM  |  dramOffset = 0x1c000000bd00  |  "
    }
  }
}
node {
  name: "tensor_63_id_127391_module/model/28/quant_input_0/aten__view_memcpy_126866_internal"
  op: "DmaMemcpy"
  input: "module/model/28/quant_input_0/reshape/13207"
  attr {
    key: "Bundle_idx"
    value {
      s: "N/A"
    }
  }
  attr {
    key: "Exec_idx"
    value {
      s: "29"
    }
  }
  attr {
    key: "Op_idx"
    value {
      s: "N/A"
    }
  }
  attr {
    key: "inputTensor:0"
    value {
      s: "tensor_63_id_127391_module/model/28/quant_input_0/aten__view_memcpy_126866  |  Sizes = [1,189,2,128]  |  hfloat8  |  expBias = 7, scale = 1  |    |  ModelParam = 0  |  strides = [48384, 48384, 256, 128, 1]  |  data = 0, sizeInBytes = 48384  |  location = in DRAM  |  dramOffset = 0x1c000000bd00  |  "
    }
  }
  attr {
    key: "outputTensor:0"
    value {
      s: "tensor_63_id_127391_module/model/28/quant_input_0/aten__view  |  Sizes = [1,189,2,128]  |  hfloat8  |  expBias = 7, scale = 1  |    |  ModelParam = 0  |  strides = [48384, 48384, 128, 24192, 1]  |  data = 0, sizeInBytes = 48384  |  isAliased = tensor_69, type = alias, offset: 0  |  location = in DRAM  |  isSparseLayout  |  "
    }
  }
}
node {
  name: "module/model/28/quant_input_0/transpose/13208_transpose_via_logical"
  op: "LogicalTranspose"
  input: "tensor_63_id_127391_module/model/28/quant_input_0/aten__view_memcpy_126866_internal"
  attr {
    key: "Bundle_idx"
    value {
      s: "N/A"
    }
  }
  attr {
    key: "Exec_idx"
    value {
      s: "30"
    }
  }
  attr {
    key: "Op_idx"
    value {
      s: "N/A"
    }
  }
  attr {
    key: "Parameters"
    value {
      s: "permutation: (0,2,1,3)"
    }
  }
  attr {
    key: "inputTensor:0"
    value {
      s: "tensor_63_id_127391_module/model/28/quant_input_0/aten__view  |  Sizes = [1,189,2,128]  |  hfloat8  |  expBias = 7, scale = 1  |    |  ModelParam = 0  |  strides = [48384, 48384, 128, 24192, 1]  |  data = 0, sizeInBytes = 48384  |  isAliased = tensor_69, type = alias, offset: 0  |  location = in DRAM  |  isSparseLayout  |  "
    }
  }
  attr {
    key: "outputTensor:0"
    value {
      s: "tensor_69  |  Sizes = [1,2,189,128]  |  hfloat8  |  expBias = 7, scale = 1  |    |  ModelParam = 0  |  strides = [48384, 48384, 24192, 128, 1]  |  data = 0, sizeInBytes = 48384  |  isPersistent  |  location = in DRAM  |  dramOffset = 0x140000000000  |  userMemorySection(type=Persistent, id=20)  |  "
    }
  }
}
node {
  name: "module/model/28/reshape/13225"
  op: "Reshape"
  input: "module/model/28/q_proj/fp8_gemm_bf16/13224_complex/fp8_gemm_bf16_1735/batch_gemm_8_bundle_649/op_5_gemm"
  attr {
    key: "Bundle_idx"
    value {
      s: "N/A"
    }
  }
  attr {
    key: "Exec_idx"
    value {
      s: "31"
    }
  }
  attr {
    key: "Op_idx"
    value {
      s: "N/A"
    }
  }
  attr {
    key: "inputTensor:0"
    value {
      s: "tensor_99  |  Sizes = [1,189,2048]  |  bf16  |  expBias = 0, scale = 1  |    |  ModelParam = 0  |  strides = [774144, 774144, 4096, 2]  |  data = 0, sizeInBytes = 774144  |  isAliased = tensor_100_id_127383_module/model/28/aten__view, type = alias, offset: 0  |  location = in DRAM  |  "
    }
  }
  attr {
    key: "outputTensor:0"
    value {
      s: "tensor_100_id_127383_module/model/28/aten__view  |  Sizes = [1,189,16,128]  |  bf16  |  expBias = 0, scale = 1  |    |  ModelParam = 0  |  strides = [774144, 774144, 4096, 256, 2]  |  data = 0, sizeInBytes = 774144  |  location = in DRAM  |  dramOffset = 0x310000017a00  |  "
    }
  }
}
node {
  name: "module/model/28/transpose/13226_transpose_via_logical"
  op: "LogicalTranspose"
  input: "module/model/28/reshape/13225"
  attr {
    key: "Bundle_idx"
    value {
      s: "N/A"
    }
  }
  attr {
    key: "Exec_idx"
    value {
      s: "32"
    }
  }
  attr {
    key: "Op_idx"
    value {
      s: "N/A"
    }
  }
  attr {
    key: "Parameters"
    value {
      s: "permutation: (0,2,1,3)"
    }
  }
  attr {
    key: "inputTensor:0"
    value {
      s: "tensor_100_id_127383_module/model/28/aten__view  |  Sizes = [1,189,16,128]  |  bf16  |  expBias = 0, scale = 1  |    |  ModelParam = 0  |  strides = [774144, 774144, 4096, 256, 2]  |  data = 0, sizeInBytes = 774144  |  location = in DRAM  |  dramOffset = 0x310000017a00  |  "
    }
  }
  attr {
    key: "outputTensor:0"
    value {
      s: "tensor_101_id_127385_module/model/28/aten__transpose  |  Sizes = [1,16,189,128]  |  bf16  |  expBias = 0, scale = 1  |    |  ModelParam = 0  |  strides = [774144, 774144, 256, 4096, 2]  |  data = 0, sizeInBytes = 774144  |  isAliased = tensor_100_id_127383_module/model/28/aten__view, type = alias, offset: 0  |  location = in DRAM  |  isSparseLayout  |  "
    }
  }
}
node {
  name: "module/model/28/rotary_pos_embedding_fwd_bf16/13227_complex/rotary_pos_embedding_fwd_bf16_217/gather_nd_mxnet_fwd_bf16_8"
  op: "gather_nd_mxnet_fwd_bf16"
  input: "module/model/28/rotary_emb/mult_fwd_bf16/13191_complex/mult_fwd_bf16_0"
  input: "module/model/28/expand_dims/13182"
  attr {
    key: "Bundle_idx"
    value {
      s: "N/A"
    }
  }
  attr {
    key: "Exec_idx"
    value {
      s: "33"
    }
  }
  attr {
    key: "Op_idx"
    value {
      s: "N/A"
    }
  }
  attr {
    key: "inputTensor:0"
    value {
      s: "tensor_19_id_127401_module/model/28/rotary_emb/aten__mul  |  Sizes = [189,128]  |  bf16  |  expBias = 0, scale = 1  |    |  ModelParam = 0  |  strides = [48384, 256, 2]  |  data = 0, sizeInBytes = 48384  |  location = in DRAM  |  dramOffset = 0x13000000bd00  |  "
    }
  }
  attr {
    key: "inputTensor:1"
    value {
      s: "tensor_8_id_127277_module/model/28/aten__unsqueeze/1  |  Sizes = [1,189]  |  int32  |  expBias = 0, scale = 1  |    |  ModelParam = 0  |  strides = [756, 756, 4]  |  data = 0, sizeInBytes = 756  |  isAliased = tensor_7_odule/model/28/placeholder/0, type = alias, offset: 0  |  location = in DRAM  |  "
    }
  }
  attr {
    key: "outputTensor:0"
    value {
      s: "bf16-9_126378  |  Sizes = [189,128]  |  bf16  |  expBias = 0, scale = 1  |    |  ModelParam = 0  |  strides = [48384, 256, 2]  |  data = 0, sizeInBytes = 48384  |  isAliased = bf16-13_126380, type = alias, offset: 0  |  location = in DRAM  |  "
    }
  }
}
node {
  name: "module/model/28/rotary_pos_embedding_fwd_bf16/13227_complex/rotary_pos_embedding_fwd_bf16_217/gather_nd_mxnet_fwd_bf16_10"
  op: "gather_nd_mxnet_fwd_bf16"
  input: "module/model/28/rotary_emb/mult_fwd_bf16/13185_complex/mult_fwd_bf16_0"
  input: "module/model/28/expand_dims/13182"
  attr {
    key: "Bundle_idx"
    value {
      s: "N/A"
    }
  }
  attr {
    key: "Exec_idx"
    value {
      s: "34"
    }
  }
  attr {
    key: "Op_idx"
    value {
      s: "N/A"
    }
  }
  attr {
    key: "inputTensor:0"
    value {
      s: "tensor_12_id_127397_module/model/28/rotary_emb/aten__mul  |  Sizes = [189,128]  |  bf16  |  expBias = 0, scale = 1  |    |  ModelParam = 0  |  strides = [48384, 256, 2]  |  data = 0, sizeInBytes = 48384  |  location = in DRAM  |  dramOffset = 0x130000000000  |  "
    }
  }
  attr {
    key: "inputTensor:1"
    value {
      s: "tensor_8_id_127277_module/model/28/aten__unsqueeze/1  |  Sizes = [1,189]  |  int32  |  expBias = 0, scale = 1  |    |  ModelParam = 0  |  strides = [756, 756, 4]  |  data = 0, sizeInBytes = 756  |  isAliased = tensor_7_odule/model/28/placeholder/0, type = alias, offset: 0  |  location = in DRAM  |  "
    }
  }
  attr {
    key: "outputTensor:0"
    value {
      s: "bf16-11_126379  |  Sizes = [189,128]  |  bf16  |  expBias = 0, scale = 1  |    |  ModelParam = 0  |  strides = [48384, 256, 2]  |  data = 0, sizeInBytes = 48384  |  isAliased = bf16-15_126381, type = alias, offset: 0  |  location = in DRAM  |  "
    }
  }
}
node {
  name: "module/model/28/rotary_pos_embedding_fwd_bf16/13227_complex/rotary_pos_embedding_fwd_bf16_217/expand_dims_12"
  op: "ExpandDims"
  input: "module/model/28/rotary_pos_embedding_fwd_bf16/13227_complex/rotary_pos_embedding_fwd_bf16_217/gather_nd_mxnet_fwd_bf16_8"
  attr {
    key: "Bundle_idx"
    value {
      s: "N/A"
    }
  }
  attr {
    key: "Exec_idx"
    value {
      s: "35"
    }
  }
  attr {
    key: "Op_idx"
    value {
      s: "N/A"
    }
  }
  attr {
    key: "inputTensor:0"
    value {
      s: "bf16-9_126378  |  Sizes = [189,128]  |  bf16  |  expBias = 0, scale = 1  |    |  ModelParam = 0  |  strides = [48384, 256, 2]  |  data = 0, sizeInBytes = 48384  |  isAliased = bf16-13_126380, type = alias, offset: 0  |  location = in DRAM  |  "
    }
  }
  attr {
    key: "outputTensor:0"
    value {
      s: "bf16-13_126380  |  Sizes = [1,189,128]  |  bf16  |  expBias = 0, scale = 1  |    |  ModelParam = 0  |  strides = [48384, 48384, 256, 2]  |  data = 0, sizeInBytes = 48384  |  location = in DRAM  |  dramOffset = 0x3100000ec400  |  "
    }
  }
}
node {
  name: "module/model/28/rotary_pos_embedding_fwd_bf16/13227_complex/rotary_pos_embedding_fwd_bf16_217/expand_dims_14"
  op: "ExpandDims"
  input: "module/model/28/rotary_pos_embedding_fwd_bf16/13227_complex/rotary_pos_embedding_fwd_bf16_217/gather_nd_mxnet_fwd_bf16_10"
  attr {
    key: "Bundle_idx"
    value {
      s: "N/A"
    }
  }
  attr {
    key: "Exec_idx"
    value {
      s: "36"
    }
  }
  attr {
    key: "Op_idx"
    value {
      s: "N/A"
    }
  }
  attr {
    key: "inputTensor:0"
    value {
      s: "bf16-11_126379  |  Sizes = [189,128]  |  bf16  |  expBias = 0, scale = 1  |    |  ModelParam = 0  |  strides = [48384, 256, 2]  |  data = 0, sizeInBytes = 48384  |  isAliased = bf16-15_126381, type = alias, offset: 0  |  location = in DRAM  |  "
    }
  }
  attr {
    key: "outputTensor:0"
    value {
      s: "bf16-15_126381  |  Sizes = [1,189,128]  |  bf16  |  expBias = 0, scale = 1  |    |  ModelParam = 0  |  strides = [48384, 48384, 256, 2]  |  data = 0, sizeInBytes = 48384  |  location = in DRAM  |  dramOffset = 0x60000000000  |  "
    }
  }
}
node {
  name: "tensor_101_id_127385_module/model/28/aten__transpose_bundle_650/split_internal/0"
  op: "Split"
  input: "module/model/28/transpose/13226_transpose_via_logical"
  attr {
    key: "Bundle_idx"
    value {
      s: "650"
    }
  }
  attr {
    key: "Exec_idx"
    value {
      s: "37"
    }
  }
  attr {
    key: "Op_idx"
    value {
      s: "0"
    }
  }
  attr {
    key: "inputTensor:0"
    value {
      s: "tensor_101_id_127385_module/model/28/aten__transpose  |  Sizes = [1,16,189,128]  |  bf16  |  expBias = 0, scale = 1  |    |  ModelParam = 0  |  strides = [774144, 774144, 256, 4096, 2]  |  data = 0, sizeInBytes = 774144  |  isAliased = tensor_100_id_127383_module/model/28/aten__view, type = alias, offset: 0  |  location = in DRAM  |  isSparseLayout  |  "
    }
  }
  attr {
    key: "outputTensor:0"
    value {
      s: "tensor_101_id_127385_module/model/28/aten__transpose_slice_0_0_0_0_0__0__bundle_650_126828  |  Sizes = [1,8,189,128]  |  bf16  |  expBias = 0, scale = 1  |    |  ModelParam = 0  |  strides = [774144, 774144, 256, 4096, 2]  |  data = 0, sizeInBytes = 387072  |  isAliased = tensor_101_id_127385_module/model/28/aten__transpose, type = concat, offset: 0  |  location = in DRAM  |  isSparseLayout  |  "
    }
  }
  attr {
    key: "outputTensor:1"
    value {
      s: "tensor_101_id_127385_module/model/28/aten__transpose_slice_0_0_1_0_0__0__bundle_650_126839  |  Sizes = [1,8,189,128]  |  bf16  |  expBias = 0, scale = 1  |    |  ModelParam = 0  |  strides = [774144, 774144, 256, 4096, 2]  |  data = 0, sizeInBytes = 387072  |  isAliased = tensor_101_id_127385_module/model/28/aten__transpose, type = concat, offset: 2048  |  location = in DRAM  |  isSparseLayout  |  "
    }
  }
}
node {
  name: "tensor_41_bundle_650/split_internal/0"
  op: "Split"
  input: "module/model/28/rotary_pos_embedding_fwd_bf16/13200_complex/rotary_pos_embedding_fwd_bf16_216/rope_st2_fwd_bf16_16"
  attr {
    key: "Bundle_idx"
    value {
      s: "650"
    }
  }
  attr {
    key: "Exec_idx"
    value {
      s: "38"
    }
  }
  attr {
    key: "Op_idx"
    value {
      s: "1"
    }
  }
  attr {
    key: "inputTensor:0"
    value {
      s: "tensor_41  |  Sizes = [1,2,189,128]  |  bf16  |  expBias = 0, scale = 1  |    |  ModelParam = 0  |  strides = [96768, 96768, 48384, 256, 2]  |  data = 0, sizeInBytes = 96768  |  location = in DRAM  |  dramOffset = 0x3100000d4a00  |  "
    }
  }
  attr {
    key: "outputTensor:0"
    value {
      s: "tensor_41_slice_0_0_0_0_0__0__bundle_650_126823  |  Sizes = [1,1,189,128]  |  bf16  |  expBias = 0, scale = 1  |    |  ModelParam = 0  |  strides = [96768, 96768, 48384, 256, 2]  |  data = 0, sizeInBytes = 48384  |  isAliased = tensor_41, type = concat, offset: 0  |  location = in DRAM  |  "
    }
  }
  attr {
    key: "outputTensor:1"
    value {
      s: "tensor_41_slice_0_0_1_0_0__0__bundle_650_126834  |  Sizes = [1,1,189,128]  |  bf16  |  expBias = 0, scale = 1  |    |  ModelParam = 0  |  strides = [96768, 96768, 48384, 256, 2]  |  data = 0, sizeInBytes = 48384  |  isAliased = tensor_41, type = concat, offset: 48384  |  location = in DRAM  |  "
    }
  }
}
node {
  name: "module/model/28/rotary_pos_embedding_fwd_bf16/13227_complex/rotary_pos_embedding_fwd_bf16_217/rope_st2_fwd_bf16_16_bundle_650/op_2"
  op: "rope_st2_fwd_bf16"
  input: "tensor_101_id_127385_module/model/28/aten__transpose_bundle_650/split_internal/0"
  input: "module/model/28/rotary_pos_embedding_fwd_bf16/13227_complex/rotary_pos_embedding_fwd_bf16_217/expand_dims_12"
  input: "module/model/28/rotary_pos_embedding_fwd_bf16/13227_complex/rotary_pos_embedding_fwd_bf16_217/expand_dims_14"
  attr {
    key: "Bundle_idx"
    value {
      s: "650"
    }
  }
  attr {
    key: "Exec_idx"
    value {
      s: "39"
    }
  }
  attr {
    key: "Op_idx"
    value {
      s: "2"
    }
  }
  attr {
    key: "inputTensor:0"
    value {
      s: "tensor_101_id_127385_module/model/28/aten__transpose_slice_0_0_0_0_0__0__bundle_650_126828  |  Sizes = [1,8,189,128]  |  bf16  |  expBias = 0, scale = 1  |    |  ModelParam = 0  |  strides = [774144, 774144, 256, 4096, 2]  |  data = 0, sizeInBytes = 387072  |  isAliased = tensor_101_id_127385_module/model/28/aten__transpose, type = concat, offset: 0  |  location = in DRAM  |  isSparseLayout  |  "
    }
  }
  attr {
    key: "inputTensor:1"
    value {
      s: "bf16-13_126380  |  Sizes = [1,189,128]  |  bf16  |  expBias = 0, scale = 1  |    |  ModelParam = 0  |  strides = [48384, 48384, 256, 2]  |  data = 0, sizeInBytes = 48384  |  location = in DRAM  |  dramOffset = 0x3100000ec400  |  "
    }
  }
  attr {
    key: "inputTensor:2"
    value {
      s: "bf16-15_126381  |  Sizes = [1,189,128]  |  bf16  |  expBias = 0, scale = 1  |    |  ModelParam = 0  |  strides = [48384, 48384, 256, 2]  |  data = 0, sizeInBytes = 48384  |  location = in DRAM  |  dramOffset = 0x60000000000  |  "
    }
  }
  attr {
    key: "outputTensor:0"
    value {
      s: "tensor_103_slice_0_0_0_0_0__0__bundle_650_126831  |  Sizes = [1,8,189,128]  |  bf16  |  expBias = 0, scale = 1  |    |  ModelParam = 0  |  strides = [387072, 387072, 48384, 256, 2]  |  data = 0, sizeInBytes = 387072  |  location = in SRAM  |  sramOffset = 0x1000fffffd4be000  |  "
    }
  }
}
node {
  name: "module/model/28/rotary_pos_embedding_fwd_bf16/13227_complex/rotary_pos_embedding_fwd_bf16_217/rope_st2_fwd_bf16_16_bundle_650/op_7"
  op: "rope_st2_fwd_bf16"
  input: "tensor_101_id_127385_module/model/28/aten__transpose_bundle_650/split_internal/0"
  input: "module/model/28/rotary_pos_embedding_fwd_bf16/13227_complex/rotary_pos_embedding_fwd_bf16_217/expand_dims_12"
  input: "module/model/28/rotary_pos_embedding_fwd_bf16/13227_complex/rotary_pos_embedding_fwd_bf16_217/expand_dims_14"
  attr {
    key: "Bundle_idx"
    value {
      s: "650"
    }
  }
  attr {
    key: "Exec_idx"
    value {
      s: "40"
    }
  }
  attr {
    key: "Op_idx"
    value {
      s: "3"
    }
  }
  attr {
    key: "inputTensor:0"
    value {
      s: "tensor_101_id_127385_module/model/28/aten__transpose_slice_0_0_1_0_0__0__bundle_650_126839  |  Sizes = [1,8,189,128]  |  bf16  |  expBias = 0, scale = 1  |    |  ModelParam = 0  |  strides = [774144, 774144, 256, 4096, 2]  |  data = 0, sizeInBytes = 387072  |  isAliased = tensor_101_id_127385_module/model/28/aten__transpose, type = concat, offset: 2048  |  location = in DRAM  |  isSparseLayout  |  "
    }
  }
  attr {
    key: "inputTensor:1"
    value {
      s: "bf16-13_126380  |  Sizes = [1,189,128]  |  bf16  |  expBias = 0, scale = 1  |    |  ModelParam = 0  |  strides = [48384, 48384, 256, 2]  |  data = 0, sizeInBytes = 48384  |  location = in DRAM  |  dramOffset = 0x3100000ec400  |  "
    }
  }
  attr {
    key: "inputTensor:2"
    value {
      s: "bf16-15_126381  |  Sizes = [1,189,128]  |  bf16  |  expBias = 0, scale = 1  |    |  ModelParam = 0  |  strides = [48384, 48384, 256, 2]  |  data = 0, sizeInBytes = 48384  |  location = in DRAM  |  dramOffset = 0x60000000000  |  "
    }
  }
  attr {
    key: "outputTensor:0"
    value {
      s: "tensor_103_slice_0_0_1_0_0__0__bundle_650_126840  |  Sizes = [1,8,189,128]  |  bf16  |  expBias = 0, scale = 1  |    |  ModelParam = 0  |  strides = [387072, 387072, 48384, 256, 2]  |  data = 0, sizeInBytes = 387072  |  location = in SRAM  |  sramOffset = 0x1000fffffd51c800  |  "
    }
  }
}
node {
  name: "fusedTPCNode_228_1_bundle_650/op_0"
  op: "fused_kernel_0xE37FC39A_298_bf16"
  input: "tensor_41_bundle_650/split_internal/0"
  attr {
    key: "Bundle_idx"
    value {
      s: "650"
    }
  }
  attr {
    key: "Exec_idx"
    value {
      s: "41"
    }
  }
  attr {
    key: "Op_idx"
    value {
      s: "4"
    }
  }
  attr {
    key: "inputTensor:0"
    value {
      s: "tensor_41_slice_0_0_0_0_0__0__bundle_650_126823  |  Sizes = [1,1,189,128]  |  bf16  |  expBias = 0, scale = 1  |    |  ModelParam = 0  |  strides = [96768, 96768, 48384, 256, 2]  |  data = 0, sizeInBytes = 48384  |  isAliased = tensor_41, type = concat, offset: 0  |  location = in DRAM  |  "
    }
  }
  attr {
    key: "outputTensor:0"
    value {
      s: "tensor_46_slice_0_0_0_0_0__0__bundle_650_126824  |  Sizes = [1,1,189,128]  |  hfloat8  |  expBias = 7, scale = 1  |    |  ModelParam = 0  |  strides = [48384, 48384, 24192, 128, 1]  |  data = 0, sizeInBytes = 24192  |  isAliased = tensor_46, type = concat, offset: 0  |  location = in DRAM  |  "
    }
  }
  attr {
    key: "outputTensor:1"
    value {
      s: "tensor_49_slice_0_0_0_0_0__0__bundle_650_126825  |  Sizes = [1,1,189,128]  |  bf16  |  expBias = 0, scale = 1  |    |  ModelParam = 0  |  strides = [96768, 96768, 48384, 256, 2]  |  data = 0, sizeInBytes = 48384  |  isAliased = tensor_49, type = concat, offset: 0  |  location = in DRAM  |  "
    }
  }
  attr {
    key: "outputTensor:2"
    value {
      s: "tensor-126570_slice_0_0_0_0_0__0__bundle_650_126826  |  Sizes = [1,1,189,128]  |  hfloat8  |  expBias = 7, scale = 1  |    |  ModelParam = 0  |  strides = [24192, 24192, 24192, 128, 1]  |  data = 0, sizeInBytes = 24192  |  isAliased = tensor_89_id_127500_module/model/28/fused_scaled_dot_product_attention/aten__view_slice_0_0_0_0_0__0__bundle_650_126827, type = alias, offset: 0  |  location = in SRAM  |  sramOffset = 0x1000fffffd57b000  |  "
    }
  }
}
node {
  name: "reshape_5_5_bundle_650/op_1"
  op: "Reshape"
  input: "fusedTPCNode_228_1_bundle_650/op_0"
  attr {
    key: "Bundle_idx"
    value {
      s: "650"
    }
  }
  attr {
    key: "Exec_idx"
    value {
      s: "42"
    }
  }
  attr {
    key: "Op_idx"
    value {
      s: "5"
    }
  }
  attr {
    key: "inputTensor:0"
    value {
      s: "tensor-126570_slice_0_0_0_0_0__0__bundle_650_126826  |  Sizes = [1,1,189,128]  |  hfloat8  |  expBias = 7, scale = 1  |    |  ModelParam = 0  |  strides = [24192, 24192, 24192, 128, 1]  |  data = 0, sizeInBytes = 24192  |  isAliased = tensor_89_id_127500_module/model/28/fused_scaled_dot_product_attention/aten__view_slice_0_0_0_0_0__0__bundle_650_126827, type = alias, offset: 0  |  location = in SRAM  |  sramOffset = 0x1000fffffd57b000  |  "
    }
  }
  attr {
    key: "outputTensor:0"
    value {
      s: "tensor_89_id_127500_module/model/28/fused_scaled_dot_product_attention/aten__view_slice_0_0_0_0_0__0__bundle_650_126827  |  Sizes = [1,1,1,189,128]  |  hfloat8  |  expBias = 7, scale = 1  |    |  ModelParam = 0  |  strides = [24192, 24192, 24192, 24192, 128, 1]  |  data = 0, sizeInBytes = 24192  |  location = in SRAM  |  sramOffset = 0x1000fffffd57b000  |  "
    }
  }
}
node {
  name: "fusedTPCNode_228_3_bundle_650/op_3"
  op: "fused_kernel_0x7A851414_29A_hf8"
  input: "module/model/28/rotary_pos_embedding_fwd_bf16/13227_complex/rotary_pos_embedding_fwd_bf16_217/rope_st2_fwd_bf16_16_bundle_650/op_2"
  attr {
    key: "Bundle_idx"
    value {
      s: "650"
    }
  }
  attr {
    key: "Exec_idx"
    value {
      s: "43"
    }
  }
  attr {
    key: "Op_idx"
    value {
      s: "6"
    }
  }
  attr {
    key: "inputTensor:0"
    value {
      s: "tensor_103_slice_0_0_0_0_0__0__bundle_650_126831  |  Sizes = [1,8,189,128]  |  bf16  |  expBias = 0, scale = 1  |    |  ModelParam = 0  |  strides = [387072, 387072, 48384, 256, 2]  |  data = 0, sizeInBytes = 387072  |  location = in SRAM  |  sramOffset = 0x1000fffffd4be000  |  "
    }
  }
  attr {
    key: "outputTensor:0"
    value {
      s: "tensor-126572_slice_0_0_0_0_0__0__bundle_650_126832  |  Sizes = [1,8,189,128]  |  hfloat8  |  expBias = 7, scale = 1  |    |  ModelParam = 0  |  strides = [193536, 193536, 24192, 128, 1]  |  data = 0, sizeInBytes = 193536  |  isAliased = tensor_108_id_127498_module/model/28/fused_scaled_dot_product_attention/aten__view_slice_0_0_0_0_0__0__bundle_650_126833, type = alias, offset: 0  |  location = in SRAM  |  sramOffset = 0x1000fffffd586d00  |  "
    }
  }
}
node {
  name: "reshape_11_11_bundle_650/op_4"
  op: "Reshape"
  input: "fusedTPCNode_228_3_bundle_650/op_3"
  attr {
    key: "Bundle_idx"
    value {
      s: "650"
    }
  }
  attr {
    key: "Exec_idx"
    value {
      s: "44"
    }
  }
  attr {
    key: "Op_idx"
    value {
      s: "7"
    }
  }
  attr {
    key: "inputTensor:0"
    value {
      s: "tensor-126572_slice_0_0_0_0_0__0__bundle_650_126832  |  Sizes = [1,8,189,128]  |  hfloat8  |  expBias = 7, scale = 1  |    |  ModelParam = 0  |  strides = [193536, 193536, 24192, 128, 1]  |  data = 0, sizeInBytes = 193536  |  isAliased = tensor_108_id_127498_module/model/28/fused_scaled_dot_product_attention/aten__view_slice_0_0_0_0_0__0__bundle_650_126833, type = alias, offset: 0  |  location = in SRAM  |  sramOffset = 0x1000fffffd586d00  |  "
    }
  }
  attr {
    key: "outputTensor:0"
    value {
      s: "tensor_108_id_127498_module/model/28/fused_scaled_dot_product_attention/aten__view_slice_0_0_0_0_0__0__bundle_650_126833  |  Sizes = [1,1,8,189,128]  |  hfloat8  |  expBias = 7, scale = 1  |    |  ModelParam = 0  |  strides = [193536, 193536, 193536, 24192, 128, 1]  |  data = 0, sizeInBytes = 193536  |  location = in SRAM  |  sramOffset = 0x1000fffffd586d00  |  "
    }
  }
}
node {
  name: "fusedTPCNode_228_1_bundle_650/op_5"
  op: "fused_kernel_0xE37FC39A_298_bf16"
  input: "tensor_41_bundle_650/split_internal/0"
  attr {
    key: "Bundle_idx"
    value {
      s: "650"
    }
  }
  attr {
    key: "Exec_idx"
    value {
      s: "45"
    }
  }
  attr {
    key: "Op_idx"
    value {
      s: "8"
    }
  }
  attr {
    key: "inputTensor:0"
    value {
      s: "tensor_41_slice_0_0_1_0_0__0__bundle_650_126834  |  Sizes = [1,1,189,128]  |  bf16  |  expBias = 0, scale = 1  |    |  ModelParam = 0  |  strides = [96768, 96768, 48384, 256, 2]  |  data = 0, sizeInBytes = 48384  |  isAliased = tensor_41, type = concat, offset: 48384  |  location = in DRAM  |  "
    }
  }
  attr {
    key: "outputTensor:0"
    value {
      s: "tensor_46_slice_0_0_1_0_0__0__bundle_650_126835  |  Sizes = [1,1,189,128]  |  hfloat8  |  expBias = 7, scale = 1  |    |  ModelParam = 0  |  strides = [48384, 48384, 24192, 128, 1]  |  data = 0, sizeInBytes = 24192  |  isAliased = tensor_46, type = concat, offset: 24192  |  location = in DRAM  |  "
    }
  }
  attr {
    key: "outputTensor:1"
    value {
      s: "tensor_49_slice_0_0_1_0_0__0__bundle_650_126836  |  Sizes = [1,1,189,128]  |  bf16  |  expBias = 0, scale = 1  |    |  ModelParam = 0  |  strides = [96768, 96768, 48384, 256, 2]  |  data = 0, sizeInBytes = 48384  |  isAliased = tensor_49, type = concat, offset: 48384  |  location = in DRAM  |  "
    }
  }
  attr {
    key: "outputTensor:2"
    value {
      s: "tensor-126570_slice_0_0_1_0_0__0__bundle_650_126837  |  Sizes = [1,1,189,128]  |  hfloat8  |  expBias = 7, scale = 1  |    |  ModelParam = 0  |  strides = [24192, 24192, 24192, 128, 1]  |  data = 0, sizeInBytes = 24192  |  isAliased = tensor_89_id_127500_module/model/28/fused_scaled_dot_product_attention/aten__view_slice_0_0_0_1_0__0__bundle_650_126838, type = alias, offset: 0  |  location = in SRAM  |  sramOffset = 0x1000fffffd580e80  |  "
    }
  }
}
node {
  name: "reshape_5_5_bundle_650/op_6"
  op: "Reshape"
  input: "fusedTPCNode_228_1_bundle_650/op_5"
  attr {
    key: "Bundle_idx"
    value {
      s: "650"
    }
  }
  attr {
    key: "Exec_idx"
    value {
      s: "46"
    }
  }
  attr {
    key: "Op_idx"
    value {
      s: "9"
    }
  }
  attr {
    key: "inputTensor:0"
    value {
      s: "tensor-126570_slice_0_0_1_0_0__0__bundle_650_126837  |  Sizes = [1,1,189,128]  |  hfloat8  |  expBias = 7, scale = 1  |    |  ModelParam = 0  |  strides = [24192, 24192, 24192, 128, 1]  |  data = 0, sizeInBytes = 24192  |  isAliased = tensor_89_id_127500_module/model/28/fused_scaled_dot_product_attention/aten__view_slice_0_0_0_1_0__0__bundle_650_126838, type = alias, offset: 0  |  location = in SRAM  |  sramOffset = 0x1000fffffd580e80  |  "
    }
  }
  attr {
    key: "outputTensor:0"
    value {
      s: "tensor_89_id_127500_module/model/28/fused_scaled_dot_product_attention/aten__view_slice_0_0_0_1_0__0__bundle_650_126838  |  Sizes = [1,1,1,189,128]  |  hfloat8  |  expBias = 7, scale = 1  |    |  ModelParam = 0  |  strides = [24192, 24192, 24192, 24192, 128, 1]  |  data = 0, sizeInBytes = 24192  |  location = in SRAM  |  sramOffset = 0x1000fffffd580e80  |  "
    }
  }
}
node {
  name: "tensor_46_bundle_650/concat_logical_internal/0"
  op: "Concatenate"
  input: "fusedTPCNode_228_1_bundle_650/op_0"
  input: "fusedTPCNode_228_1_bundle_650/op_5"
  attr {
    key: "Bundle_idx"
    value {
      s: "650"
    }
  }
  attr {
    key: "Exec_idx"
    value {
      s: "47"
    }
  }
  attr {
    key: "Op_idx"
    value {
      s: "10"
    }
  }
  attr {
    key: "inputTensor:0"
    value {
      s: "tensor_46_slice_0_0_0_0_0__0__bundle_650_126824  |  Sizes = [1,1,189,128]  |  hfloat8  |  expBias = 7, scale = 1  |    |  ModelParam = 0  |  strides = [48384, 48384, 24192, 128, 1]  |  data = 0, sizeInBytes = 24192  |  isAliased = tensor_46, type = concat, offset: 0  |  location = in DRAM  |  "
    }
  }
  attr {
    key: "inputTensor:1"
    value {
      s: "tensor_46_slice_0_0_1_0_0__0__bundle_650_126835  |  Sizes = [1,1,189,128]  |  hfloat8  |  expBias = 7, scale = 1  |    |  ModelParam = 0  |  strides = [48384, 48384, 24192, 128, 1]  |  data = 0, sizeInBytes = 24192  |  isAliased = tensor_46, type = concat, offset: 24192  |  location = in DRAM  |  "
    }
  }
  attr {
    key: "outputTensor:0"
    value {
      s: "tensor_46  |  Sizes = [1,2,189,128]  |  hfloat8  |  expBias = 7, scale = 1  |    |  ModelParam = 0  |  strides = [48384, 48384, 24192, 128, 1]  |  data = 0, sizeInBytes = 48384  |  isPersistent  |  location = in DRAM  |  dramOffset = 0x60000000000  |  userMemorySection(type=Persistent, id=6)  |  "
    }
  }
}
node {
  name: "tensor_46"
  op: "OutputTensor"
  input: "tensor_46_bundle_650/concat_logical_internal/0"
  attr {
    key: "dtype"
    value {
      type: DT_INVALID
    }
  }
  attr {
    key: "shape"
    value {
      shape {
        dim {
          size: 128
        }
        dim {
          size: 189
        }
        dim {
          size: 2
        }
        dim {
          size: 1
        }
        dim {
          size: 1
        }
      }
    }
  }
  attr {
    key: "synDataType"
    value {
      s: "hfloat8"
    }
  }
}
node {
  name: "tensor_49_bundle_650/concat_logical_internal/0"
  op: "Concatenate"
  input: "fusedTPCNode_228_1_bundle_650/op_0"
  input: "fusedTPCNode_228_1_bundle_650/op_5"
  attr {
    key: "Bundle_idx"
    value {
      s: "650"
    }
  }
  attr {
    key: "Exec_idx"
    value {
      s: "48"
    }
  }
  attr {
    key: "Op_idx"
    value {
      s: "11"
    }
  }
  attr {
    key: "inputTensor:0"
    value {
      s: "tensor_49_slice_0_0_0_0_0__0__bundle_650_126825  |  Sizes = [1,1,189,128]  |  bf16  |  expBias = 0, scale = 1  |    |  ModelParam = 0  |  strides = [96768, 96768, 48384, 256, 2]  |  data = 0, sizeInBytes = 48384  |  isAliased = tensor_49, type = concat, offset: 0  |  location = in DRAM  |  "
    }
  }
  attr {
    key: "inputTensor:1"
    value {
      s: "tensor_49_slice_0_0_1_0_0__0__bundle_650_126836  |  Sizes = [1,1,189,128]  |  bf16  |  expBias = 0, scale = 1  |    |  ModelParam = 0  |  strides = [96768, 96768, 48384, 256, 2]  |  data = 0, sizeInBytes = 48384  |  isAliased = tensor_49, type = concat, offset: 48384  |  location = in DRAM  |  "
    }
  }
  attr {
    key: "outputTensor:0"
    value {
      s: "tensor_49  |  Sizes = [1,2,189,128]  |  bf16  |  expBias = 0, scale = 1  |    |  ModelParam = 0  |  strides = [96768, 96768, 48384, 256, 2]  |  data = 0, sizeInBytes = 96768  |  isPersistent  |  location = in DRAM  |  dramOffset = 0x130000000000  |  userMemorySection(type=Persistent, id=19)  |  "
    }
  }
}
node {
  name: "tensor_49"
  op: "OutputTensor"
  input: "tensor_49_bundle_650/concat_logical_internal/0"
  attr {
    key: "dtype"
    value {
      type: DT_BFLOAT16
    }
  }
  attr {
    key: "shape"
    value {
      shape {
        dim {
          size: 128
        }
        dim {
          size: 189
        }
        dim {
          size: 2
        }
        dim {
          size: 1
        }
        dim {
          size: 1
        }
      }
    }
  }
  attr {
    key: "synDataType"
    value {
      s: "bf16"
    }
  }
}
node {
  name: "fusedTPCNode_228_3_bundle_650/op_8"
  op: "fused_kernel_0x7A851414_29A_hf8"
  input: "module/model/28/rotary_pos_embedding_fwd_bf16/13227_complex/rotary_pos_embedding_fwd_bf16_217/rope_st2_fwd_bf16_16_bundle_650/op_7"
  attr {
    key: "Bundle_idx"
    value {
      s: "650"
    }
  }
  attr {
    key: "Exec_idx"
    value {
      s: "49"
    }
  }
  attr {
    key: "Op_idx"
    value {
      s: "12"
    }
  }
  attr {
    key: "inputTensor:0"
    value {
      s: "tensor_103_slice_0_0_1_0_0__0__bundle_650_126840  |  Sizes = [1,8,189,128]  |  bf16  |  expBias = 0, scale = 1  |    |  ModelParam = 0  |  strides = [387072, 387072, 48384, 256, 2]  |  data = 0, sizeInBytes = 387072  |  location = in SRAM  |  sramOffset = 0x1000fffffd51c800  |  "
    }
  }
  attr {
    key: "outputTensor:0"
    value {
      s: "tensor-126572_slice_0_0_1_0_0__0__bundle_650_126841  |  Sizes = [1,8,189,128]  |  hfloat8  |  expBias = 7, scale = 1  |    |  ModelParam = 0  |  strides = [193536, 193536, 24192, 128, 1]  |  data = 0, sizeInBytes = 193536  |  isAliased = tensor_108_id_127498_module/model/28/fused_scaled_dot_product_attention/aten__view_slice_0_0_0_1_0__0__bundle_650_126842, type = alias, offset: 0  |  location = in SRAM  |  sramOffset = 0x1000fffffd5b6100  |  "
    }
  }
}
node {
  name: "reshape_11_11_bundle_650/op_9"
  op: "Reshape"
  input: "fusedTPCNode_228_3_bundle_650/op_8"
  attr {
    key: "Bundle_idx"
    value {
      s: "650"
    }
  }
  attr {
    key: "Exec_idx"
    value {
      s: "50"
    }
  }
  attr {
    key: "Op_idx"
    value {
      s: "13"
    }
  }
  attr {
    key: "inputTensor:0"
    value {
      s: "tensor-126572_slice_0_0_1_0_0__0__bundle_650_126841  |  Sizes = [1,8,189,128]  |  hfloat8  |  expBias = 7, scale = 1  |    |  ModelParam = 0  |  strides = [193536, 193536, 24192, 128, 1]  |  data = 0, sizeInBytes = 193536  |  isAliased = tensor_108_id_127498_module/model/28/fused_scaled_dot_product_attention/aten__view_slice_0_0_0_1_0__0__bundle_650_126842, type = alias, offset: 0  |  location = in SRAM  |  sramOffset = 0x1000fffffd5b6100  |  "
    }
  }
  attr {
    key: "outputTensor:0"
    value {
      s: "tensor_108_id_127498_module/model/28/fused_scaled_dot_product_attention/aten__view_slice_0_0_0_1_0__0__bundle_650_126842  |  Sizes = [1,1,8,189,128]  |  hfloat8  |  expBias = 7, scale = 1  |    |  ModelParam = 0  |  strides = [193536, 193536, 193536, 24192, 128, 1]  |  data = 0, sizeInBytes = 193536  |  location = in SRAM  |  sramOffset = 0x1000fffffd5b6100  |  "
    }
  }
}
node {
  name: "module/model/28/fused_scaled_dot_product_attention/sdpa_recomp_fwd_hf8/13230_complex/sdpa_recomp_fwd_hf8_217/sdpa_recomp_core_fwd_hf8_108/fp8_gemm_hf8_1736/batch_gemm_16_bundle_650/op_10"
  op: "BatchGemm"
  input: "reshape_11_11_bundle_650/op_4"
  input: "reshape_5_5_bundle_650/op_1"
  attr {
    key: "Bundle_idx"
    value {
      s: "650"
    }
  }
  attr {
    key: "Exec_idx"
    value {
      s: "51"
    }
  }
  attr {
    key: "Op_idx"
    value {
      s: "14"
    }
  }
  attr {
    key: "Parameters"
    value {
      s: "transpose_a=false, transpose_b=true"
    }
  }
  attr {
    key: "fp8BiasIn"
    value {
      s: "7"
    }
  }
  attr {
    key: "fp8BiasIn2"
    value {
      s: "7"
    }
  }
  attr {
    key: "fp8BiasOut"
    value {
      s: "0"
    }
  }
  attr {
    key: "inputTensor:0"
    value {
      s: "tensor_108_id_127498_module/model/28/fused_scaled_dot_product_attention/aten__view_slice_0_0_0_0_0__0__bundle_650_126833  |  Sizes = [1,1,8,189,128]  |  hfloat8  |  expBias = 7, scale = 1  |    |  ModelParam = 0  |  strides = [193536, 193536, 193536, 24192, 128, 1]  |  data = 0, sizeInBytes = 193536  |  location = in SRAM  |  sramOffset = 0x1000fffffd586d00  |  "
    }
  }
  attr {
    key: "inputTensor:1"
    value {
      s: "tensor_89_id_127500_module/model/28/fused_scaled_dot_product_attention/aten__view_slice_0_0_0_0_0__0__bundle_650_126827  |  Sizes = [1,1,1,189,128]  |  hfloat8  |  expBias = 7, scale = 1  |    |  ModelParam = 0  |  strides = [24192, 24192, 24192, 24192, 128, 1]  |  data = 0, sizeInBytes = 24192  |  location = in SRAM  |  sramOffset = 0x1000fffffd57b000  |  "
    }
  }
  attr {
    key: "outputTensor:0"
    value {
      s: "bf16-17_126390_slice_0_0_0_0_0__0__bundle_650_126843  |  Sizes = [1,1,8,189,189]  |  bf16  |  expBias = 0, scale = 1  |    |  ModelParam = 0  |  strides = [1143072, 1143072, 571536, 71442, 378, 2]  |  data = 0, sizeInBytes = 571536  |  isAliased = bf16-17_126390, type = concat, offset: 0  |  location = in DRAM  |  "
    }
  }
}
node {
  name: "module/model/28/fused_scaled_dot_product_attention/sdpa_recomp_fwd_hf8/13230_complex/sdpa_recomp_fwd_hf8_217/sdpa_recomp_core_fwd_hf8_108/fp8_gemm_hf8_1736/batch_gemm_16_bundle_650/op_11"
  op: "BatchGemm"
  input: "reshape_11_11_bundle_650/op_9"
  input: "reshape_5_5_bundle_650/op_6"
  attr {
    key: "Bundle_idx"
    value {
      s: "650"
    }
  }
  attr {
    key: "Exec_idx"
    value {
      s: "52"
    }
  }
  attr {
    key: "Op_idx"
    value {
      s: "15"
    }
  }
  attr {
    key: "Parameters"
    value {
      s: "transpose_a=false, transpose_b=true"
    }
  }
  attr {
    key: "fp8BiasIn"
    value {
      s: "7"
    }
  }
  attr {
    key: "fp8BiasIn2"
    value {
      s: "7"
    }
  }
  attr {
    key: "fp8BiasOut"
    value {
      s: "0"
    }
  }
  attr {
    key: "inputTensor:0"
    value {
      s: "tensor_108_id_127498_module/model/28/fused_scaled_dot_product_attention/aten__view_slice_0_0_0_1_0__0__bundle_650_126842  |  Sizes = [1,1,8,189,128]  |  hfloat8  |  expBias = 7, scale = 1  |    |  ModelParam = 0  |  strides = [193536, 193536, 193536, 24192, 128, 1]  |  data = 0, sizeInBytes = 193536  |  location = in SRAM  |  sramOffset = 0x1000fffffd5b6100  |  "
    }
  }
  attr {
    key: "inputTensor:1"
    value {
      s: "tensor_89_id_127500_module/model/28/fused_scaled_dot_product_attention/aten__view_slice_0_0_0_1_0__0__bundle_650_126838  |  Sizes = [1,1,1,189,128]  |  hfloat8  |  expBias = 7, scale = 1  |    |  ModelParam = 0  |  strides = [24192, 24192, 24192, 24192, 128, 1]  |  data = 0, sizeInBytes = 24192  |  location = in SRAM  |  sramOffset = 0x1000fffffd580e80  |  "
    }
  }
  attr {
    key: "outputTensor:0"
    value {
      s: "bf16-17_126390_slice_0_0_0_1_0__0__bundle_650_126844  |  Sizes = [1,1,8,189,189]  |  bf16  |  expBias = 0, scale = 1  |    |  ModelParam = 0  |  strides = [1143072, 1143072, 571536, 71442, 378, 2]  |  data = 0, sizeInBytes = 571536  |  isAliased = bf16-17_126390, type = concat, offset: 571536  |  location = in DRAM  |  "
    }
  }
}
node {
  name: "bf16-17_126390_bundle_650/concat_logical_internal/0"
  op: "Concatenate"
  input: "module/model/28/fused_scaled_dot_product_attention/sdpa_recomp_fwd_hf8/13230_complex/sdpa_recomp_fwd_hf8_217/sdpa_recomp_core_fwd_hf8_108/fp8_gemm_hf8_1736/batch_gemm_16_bundle_650/op_10"
  input: "module/model/28/fused_scaled_dot_product_attention/sdpa_recomp_fwd_hf8/13230_complex/sdpa_recomp_fwd_hf8_217/sdpa_recomp_core_fwd_hf8_108/fp8_gemm_hf8_1736/batch_gemm_16_bundle_650/op_11"
  attr {
    key: "Bundle_idx"
    value {
      s: "650"
    }
  }
  attr {
    key: "Exec_idx"
    value {
      s: "53"
    }
  }
  attr {
    key: "Op_idx"
    value {
      s: "16"
    }
  }
  attr {
    key: "inputTensor:0"
    value {
      s: "bf16-17_126390_slice_0_0_0_0_0__0__bundle_650_126843  |  Sizes = [1,1,8,189,189]  |  bf16  |  expBias = 0, scale = 1  |    |  ModelParam = 0  |  strides = [1143072, 1143072, 571536, 71442, 378, 2]  |  data = 0, sizeInBytes = 571536  |  isAliased = bf16-17_126390, type = concat, offset: 0  |  location = in DRAM  |  "
    }
  }
  attr {
    key: "inputTensor:1"
    value {
      s: "bf16-17_126390_slice_0_0_0_1_0__0__bundle_650_126844  |  Sizes = [1,1,8,189,189]  |  bf16  |  expBias = 0, scale = 1  |    |  ModelParam = 0  |  strides = [1143072, 1143072, 571536, 71442, 378, 2]  |  data = 0, sizeInBytes = 571536  |  isAliased = bf16-17_126390, type = concat, offset: 571536  |  location = in DRAM  |  "
    }
  }
  attr {
    key: "outputTensor:0"
    value {
      s: "bf16-17_126390  |  Sizes = [1,2,8,189,189]  |  bf16  |  expBias = 0, scale = 1  |    |  ModelParam = 0  |  strides = [1143072, 1143072, 571536, 71442, 378, 2]  |  data = 0, sizeInBytes = 1143072  |  location = in DRAM  |  dramOffset = 0x3100000f8100  |  "
    }
  }
}
node {
  name: "module/model/28/fused_scaled_dot_product_attention/sdpa_recomp_fwd_hf8/13230_complex/sdpa_recomp_fwd_hf8_217/sdpa_recomp_core_fwd_hf8_108/constant_f32_18"
  op: "constant_f32"
  attr {
    key: "Bundle_idx"
    value {
      s: "N/A"
    }
  }
  attr {
    key: "Exec_idx"
    value {
      s: "54"
    }
  }
  attr {
    key: "Op_idx"
    value {
      s: "N/A"
    }
  }
  attr {
    key: "outputTensor:0"
    value {
      s: "f32-19_126391  |  Sizes = [1]  |  float32  |  expBias = 0, scale = 1  |    |  ModelParam = 0  |  strides = [4, 4]  |  data = 0, sizeInBytes = 4  |  location = in DRAM  |  dramOffset = 0x310000000000  |  "
    }
  }
}
node {
  name: "module/model/28/fused_scaled_dot_product_attention/sdpa_recomp_fwd_hf8/13230_complex/sdpa_recomp_fwd_hf8_217/sdpa_recomp_core_fwd_hf8_108/constant_f32_20"
  op: "constant_f32"
  attr {
    key: "Bundle_idx"
    value {
      s: "N/A"
    }
  }
  attr {
    key: "Exec_idx"
    value {
      s: "55"
    }
  }
  attr {
    key: "Op_idx"
    value {
      s: "N/A"
    }
  }
  attr {
    key: "outputTensor:0"
    value {
      s: "f32-21_126392  |  Sizes = [1]  |  float32  |  expBias = 0, scale = 1  |    |  ModelParam = 0  |  strides = [4, 4]  |  data = 0, sizeInBytes = 4  |  location = in DRAM  |  dramOffset = 0x310000000080  |  "
    }
  }
}
node {
  name: "tensor_69_bundle_651/split_internal/0"
  op: "Split"
  input: "module/model/28/quant_input_0/transpose/13208_transpose_via_logical"
  attr {
    key: "Bundle_idx"
    value {
      s: "651"
    }
  }
  attr {
    key: "Exec_idx"
    value {
      s: "56"
    }
  }
  attr {
    key: "Op_idx"
    value {
      s: "0"
    }
  }
  attr {
    key: "inputTensor:0"
    value {
      s: "tensor_69  |  Sizes = [1,2,189,128]  |  hfloat8  |  expBias = 7, scale = 1  |    |  ModelParam = 0  |  strides = [48384, 48384, 24192, 128, 1]  |  data = 0, sizeInBytes = 48384  |  isPersistent  |  location = in DRAM  |  dramOffset = 0x140000000000  |  userMemorySection(type=Persistent, id=20)  |  "
    }
  }
  attr {
    key: "outputTensor:0"
    value {
      s: "tensor_69_slice_0_0_0_0_0__0__bundle_651_126845  |  Sizes = [1,1,189,128]  |  hfloat8  |  expBias = 7, scale = 1  |    |  ModelParam = 0  |  strides = [48384, 48384, 24192, 128, 1]  |  data = 0, sizeInBytes = 24192  |  isAliased = tensor_69, type = concat, offset: 0  |  location = in DRAM  |  "
    }
  }
  attr {
    key: "outputTensor:1"
    value {
      s: "tensor_69_slice_0_0_1_0_0__0__bundle_651_126855  |  Sizes = [1,1,189,128]  |  hfloat8  |  expBias = 7, scale = 1  |    |  ModelParam = 0  |  strides = [48384, 48384, 24192, 128, 1]  |  data = 0, sizeInBytes = 24192  |  isAliased = tensor_69, type = concat, offset: 24192  |  location = in DRAM  |  "
    }
  }
}
node {
  name: "bf16-17_126390_bundle_651/split_internal/0"
  op: "Split"
  input: "bf16-17_126390_bundle_650/concat_logical_internal/0"
  attr {
    key: "Bundle_idx"
    value {
      s: "651"
    }
  }
  attr {
    key: "Exec_idx"
    value {
      s: "57"
    }
  }
  attr {
    key: "Op_idx"
    value {
      s: "1"
    }
  }
  attr {
    key: "inputTensor:0"
    value {
      s: "bf16-17_126390  |  Sizes = [1,2,8,189,189]  |  bf16  |  expBias = 0, scale = 1  |    |  ModelParam = 0  |  strides = [1143072, 1143072, 571536, 71442, 378, 2]  |  data = 0, sizeInBytes = 1143072  |  location = in DRAM  |  dramOffset = 0x3100000f8100  |  "
    }
  }
  attr {
    key: "outputTensor:0"
    value {
      s: "bf16-17_126390_slice_0_0_0_0_0__0__bundle_651_126849  |  Sizes = [1,1,8,189,189]  |  bf16  |  expBias = 0, scale = 1  |    |  ModelParam = 0  |  strides = [1143072, 1143072, 571536, 71442, 378, 2]  |  data = 0, sizeInBytes = 571536  |  isAliased = bf16-17_126390, type = concat, offset: 0  |  location = in DRAM  |  "
    }
  }
  attr {
    key: "outputTensor:1"
    value {
      s: "bf16-17_126390_slice_0_0_0_1_0__0__bundle_651_126859  |  Sizes = [1,1,8,189,189]  |  bf16  |  expBias = 0, scale = 1  |    |  ModelParam = 0  |  strides = [1143072, 1143072, 571536, 71442, 378, 2]  |  data = 0, sizeInBytes = 571536  |  isAliased = bf16-17_126390, type = concat, offset: 571536  |  location = in DRAM  |  "
    }
  }
}
node {
  name: "fusedTPCNode_228_2_bundle_651/op_0"
  op: "fused_kernel_0x701DC306_299_bf16"
  input: "tensor_69_bundle_651/split_internal/0"
  attr {
    key: "Bundle_idx"
    value {
      s: "651"
    }
  }
  attr {
    key: "Exec_idx"
    value {
      s: "58"
    }
  }
  attr {
    key: "Op_idx"
    value {
      s: "2"
    }
  }
  attr {
    key: "inputTensor:0"
    value {
      s: "tensor_69_slice_0_0_0_0_0__0__bundle_651_126845  |  Sizes = [1,1,189,128]  |  hfloat8  |  expBias = 7, scale = 1  |    |  ModelParam = 0  |  strides = [48384, 48384, 24192, 128, 1]  |  data = 0, sizeInBytes = 24192  |  isAliased = tensor_69, type = concat, offset: 0  |  location = in DRAM  |  "
    }
  }
  attr {
    key: "outputTensor:0"
    value {
      s: "tensor_72_slice_0_0_0_0_0__0__bundle_651_126846  |  Sizes = [1,1,189,128]  |  bf16  |  expBias = 0, scale = 1  |    |  ModelParam = 0  |  strides = [96768, 96768, 48384, 256, 2]  |  data = 0, sizeInBytes = 48384  |  isAliased = tensor_72, type = concat, offset: 0  |  location = in DRAM  |  "
    }
  }
  attr {
    key: "outputTensor:1"
    value {
      s: "tensor-126571_slice_0_0_0_0_0__0__bundle_651_126847  |  Sizes = [1,1,189,128]  |  hfloat8  |  expBias = 7, scale = 1  |    |  ModelParam = 0  |  strides = [24192, 24192, 24192, 128, 1]  |  data = 0, sizeInBytes = 24192  |  isAliased = tensor_84_id_127502_module/model/28/fused_scaled_dot_product_attention/aten__view_slice_0_0_0_0_0__0__bundle_651_126848, type = alias, offset: 0  |  location = in SRAM  |  sramOffset = 0x1000fffffd5e5500  |  "
    }
  }
}
node {
  name: "reshape_8_8_bundle_651/op_1"
  op: "Reshape"
  input: "fusedTPCNode_228_2_bundle_651/op_0"
  attr {
    key: "Bundle_idx"
    value {
      s: "651"
    }
  }
  attr {
    key: "Exec_idx"
    value {
      s: "59"
    }
  }
  attr {
    key: "Op_idx"
    value {
      s: "3"
    }
  }
  attr {
    key: "inputTensor:0"
    value {
      s: "tensor-126571_slice_0_0_0_0_0__0__bundle_651_126847  |  Sizes = [1,1,189,128]  |  hfloat8  |  expBias = 7, scale = 1  |    |  ModelParam = 0  |  strides = [24192, 24192, 24192, 128, 1]  |  data = 0, sizeInBytes = 24192  |  isAliased = tensor_84_id_127502_module/model/28/fused_scaled_dot_product_attention/aten__view_slice_0_0_0_0_0__0__bundle_651_126848, type = alias, offset: 0  |  location = in SRAM  |  sramOffset = 0x1000fffffd5e5500  |  "
    }
  }
  attr {
    key: "outputTensor:0"
    value {
      s: "tensor_84_id_127502_module/model/28/fused_scaled_dot_product_attention/aten__view_slice_0_0_0_0_0__0__bundle_651_126848  |  Sizes = [1,1,1,189,128]  |  hfloat8  |  expBias = 7, scale = 1  |    |  ModelParam = 0  |  strides = [24192, 24192, 24192, 24192, 128, 1]  |  data = 0, sizeInBytes = 24192  |  location = in SRAM  |  sramOffset = 0x1000fffffd5e5500  |  "
    }
  }
}
node {
  name: "tensor_112_odule/model/28/fused_scaled_dot_product_attention/placeholder/7"
  op: "Placeholder"
  attr {
    key: "dtype"
    value {
      type: DT_FLOAT
    }
  }
  attr {
    key: "shape"
    value {
      shape {
        dim {
          size: 1
        }
        dim {
          size: 1
        }
        dim {
          size: 1
        }
        dim {
          size: 1
        }
        dim {
          size: 1
        }
      }
    }
  }
  attr {
    key: "synDataType"
    value {
      s: "float32"
    }
  }
}
node {
  name: "module/model/28/fused_scaled_dot_product_attention/sdpa_recomp_fwd_hf8/13230_complex/sdpa_recomp_fwd_hf8_217/sdpa_recomp_core_fwd_hf8_108/softmax_fwd_hf8_22_bundle_651/op_2"
  op: "softmax_fwd_hf8"
  input: "bf16-17_126390_bundle_651/split_internal/0"
  input: "module/model/28/fused_scaled_dot_product_attention/sdpa_recomp_fwd_hf8/13230_complex/sdpa_recomp_fwd_hf8_217/sdpa_recomp_core_fwd_hf8_108/constant_f32_18"
  input: "module/model/28/fused_scaled_dot_product_attention/sdpa_recomp_fwd_hf8/13230_complex/sdpa_recomp_fwd_hf8_217/sdpa_recomp_core_fwd_hf8_108/constant_f32_20"
  input: "tensor_112_odule/model/28/fused_scaled_dot_product_attention/placeholder/7"
  input: "module/model/28/fused_scaled_dot_product_attention/expand_dims/13217"
  attr {
    key: "Bundle_idx"
    value {
      s: "651"
    }
  }
  attr {
    key: "Exec_idx"
    value {
      s: "60"
    }
  }
  attr {
    key: "Op_idx"
    value {
      s: "4"
    }
  }
  attr {
    key: "inputTensor:0"
    value {
      s: "bf16-17_126390_slice_0_0_0_0_0__0__bundle_651_126849  |  Sizes = [1,1,8,189,189]  |  bf16  |  expBias = 0, scale = 1  |    |  ModelParam = 0  |  strides = [1143072, 1143072, 571536, 71442, 378, 2]  |  data = 0, sizeInBytes = 571536  |  isAliased = bf16-17_126390, type = concat, offset: 0  |  location = in DRAM  |  "
    }
  }
  attr {
    key: "inputTensor:1"
    value {
      s: "f32-19_126391  |  Sizes = [1]  |  float32  |  expBias = 0, scale = 1  |    |  ModelParam = 0  |  strides = [4, 4]  |  data = 0, sizeInBytes = 4  |  location = in DRAM  |  dramOffset = 0x310000000000  |  "
    }
  }
  attr {
    key: "inputTensor:2"
    value {
      s: "f32-21_126392  |  Sizes = [1]  |  float32  |  expBias = 0, scale = 1  |    |  ModelParam = 0  |  strides = [4, 4]  |  data = 0, sizeInBytes = 4  |  location = in DRAM  |  dramOffset = 0x310000000080  |  "
    }
  }
  attr {
    key: "inputTensor:3"
    value {
      s: "tensor_112_odule/model/28/fused_scaled_dot_product_attention/placeholder/7  |  Sizes = [1]  |  float32  |  expBias = 0, scale = 1  |    |  ModelParam = 0  |  strides = [4, 4]  |  data = 0x55db6cb6f6c8, sizeInBytes = 4  |  buffer = 16  |  isPersistent  |  location = in DRAM  |  dramOffset = 0x280000000000  |  userMemorySection(type=Persistent, id=40)  |  isStaticParam  |  bufferDtype=float32  |  "
    }
  }
  attr {
    key: "inputTensor:4"
    value {
      s: "tensor_79_id_127504_module/model/28/fused_scaled_dot_product_attention/aten__unsqueeze  |  Sizes = [1,1,1,189,189]  |  bf16  |  expBias = 0, scale = 1  |    |  ModelParam = 0  |  strides = [71442, 71442, 71442, 71442, 378, 2]  |  data = 0, sizeInBytes = 71442  |  isAliased = tensor_73_odule/model/28/fused_scaled_dot_product_attention/placeholder/0, type = alias, offset: 0  |  location = in DRAM  |  "
    }
  }
  attr {
    key: "outputTensor:0"
    value {
      s: "hf8-23_126393_slice_0_0_0_0_0__0__bundle_651_126854  |  Sizes = [1,1,8,189,189]  |  hfloat8  |  expBias = 7, scale = 1  |    |  ModelParam = 0  |  strides = [387072, 387072, 387072, 48384, 256, 1]  |  data = 0, sizeInBytes = 387072  |  location = in SRAM  |  sramOffset = 0x1000fffffd5f1200  |  isSparseLayout  |  "
    }
  }
}
node {
  name: "fusedTPCNode_228_2_bundle_651/op_3"
  op: "fused_kernel_0x701DC306_299_bf16"
  input: "tensor_69_bundle_651/split_internal/0"
  attr {
    key: "Bundle_idx"
    value {
      s: "651"
    }
  }
  attr {
    key: "Exec_idx"
    value {
      s: "61"
    }
  }
  attr {
    key: "Op_idx"
    value {
      s: "5"
    }
  }
  attr {
    key: "inputTensor:0"
    value {
      s: "tensor_69_slice_0_0_1_0_0__0__bundle_651_126855  |  Sizes = [1,1,189,128]  |  hfloat8  |  expBias = 7, scale = 1  |    |  ModelParam = 0  |  strides = [48384, 48384, 24192, 128, 1]  |  data = 0, sizeInBytes = 24192  |  isAliased = tensor_69, type = concat, offset: 24192  |  location = in DRAM  |  "
    }
  }
  attr {
    key: "outputTensor:0"
    value {
      s: "tensor_72_slice_0_0_1_0_0__0__bundle_651_126856  |  Sizes = [1,1,189,128]  |  bf16  |  expBias = 0, scale = 1  |    |  ModelParam = 0  |  strides = [96768, 96768, 48384, 256, 2]  |  data = 0, sizeInBytes = 48384  |  isAliased = tensor_72, type = concat, offset: 48384  |  location = in DRAM  |  "
    }
  }
  attr {
    key: "outputTensor:1"
    value {
      s: "tensor-126571_slice_0_0_1_0_0__0__bundle_651_126857  |  Sizes = [1,1,189,128]  |  hfloat8  |  expBias = 7, scale = 1  |    |  ModelParam = 0  |  strides = [24192, 24192, 24192, 128, 1]  |  data = 0, sizeInBytes = 24192  |  isAliased = tensor_84_id_127502_module/model/28/fused_scaled_dot_product_attention/aten__view_slice_0_0_0_1_0__0__bundle_651_126858, type = alias, offset: 0  |  location = in SRAM  |  sramOffset = 0x1000fffffd5eb380  |  "
    }
  }
}
node {
  name: "reshape_8_8_bundle_651/op_4"
  op: "Reshape"
  input: "fusedTPCNode_228_2_bundle_651/op_3"
  attr {
    key: "Bundle_idx"
    value {
      s: "651"
    }
  }
  attr {
    key: "Exec_idx"
    value {
      s: "62"
    }
  }
  attr {
    key: "Op_idx"
    value {
      s: "6"
    }
  }
  attr {
    key: "inputTensor:0"
    value {
      s: "tensor-126571_slice_0_0_1_0_0__0__bundle_651_126857  |  Sizes = [1,1,189,128]  |  hfloat8  |  expBias = 7, scale = 1  |    |  ModelParam = 0  |  strides = [24192, 24192, 24192, 128, 1]  |  data = 0, sizeInBytes = 24192  |  isAliased = tensor_84_id_127502_module/model/28/fused_scaled_dot_product_attention/aten__view_slice_0_0_0_1_0__0__bundle_651_126858, type = alias, offset: 0  |  location = in SRAM  |  sramOffset = 0x1000fffffd5eb380  |  "
    }
  }
  attr {
    key: "outputTensor:0"
    value {
      s: "tensor_84_id_127502_module/model/28/fused_scaled_dot_product_attention/aten__view_slice_0_0_0_1_0__0__bundle_651_126858  |  Sizes = [1,1,1,189,128]  |  hfloat8  |  expBias = 7, scale = 1  |    |  ModelParam = 0  |  strides = [24192, 24192, 24192, 24192, 128, 1]  |  data = 0, sizeInBytes = 24192  |  location = in SRAM  |  sramOffset = 0x1000fffffd5eb380  |  "
    }
  }
}
node {
  name: "tensor_72_bundle_651/concat_logical_internal/0"
  op: "Concatenate"
  input: "fusedTPCNode_228_2_bundle_651/op_0"
  input: "fusedTPCNode_228_2_bundle_651/op_3"
  attr {
    key: "Bundle_idx"
    value {
      s: "651"
    }
  }
  attr {
    key: "Exec_idx"
    value {
      s: "63"
    }
  }
  attr {
    key: "Op_idx"
    value {
      s: "7"
    }
  }
  attr {
    key: "inputTensor:0"
    value {
      s: "tensor_72_slice_0_0_0_0_0__0__bundle_651_126846  |  Sizes = [1,1,189,128]  |  bf16  |  expBias = 0, scale = 1  |    |  ModelParam = 0  |  strides = [96768, 96768, 48384, 256, 2]  |  data = 0, sizeInBytes = 48384  |  isAliased = tensor_72, type = concat, offset: 0  |  location = in DRAM  |  "
    }
  }
  attr {
    key: "inputTensor:1"
    value {
      s: "tensor_72_slice_0_0_1_0_0__0__bundle_651_126856  |  Sizes = [1,1,189,128]  |  bf16  |  expBias = 0, scale = 1  |    |  ModelParam = 0  |  strides = [96768, 96768, 48384, 256, 2]  |  data = 0, sizeInBytes = 48384  |  isAliased = tensor_72, type = concat, offset: 48384  |  location = in DRAM  |  "
    }
  }
  attr {
    key: "outputTensor:0"
    value {
      s: "tensor_72  |  Sizes = [1,2,189,128]  |  bf16  |  expBias = 0, scale = 1  |    |  ModelParam = 0  |  strides = [96768, 96768, 48384, 256, 2]  |  data = 0, sizeInBytes = 96768  |  isPersistent  |  location = in DRAM  |  dramOffset = 0x1c0000000000  |  userMemorySection(type=Persistent, id=28)  |  "
    }
  }
}
node {
  name: "tensor_72"
  op: "OutputTensor"
  input: "tensor_72_bundle_651/concat_logical_internal/0"
  attr {
    key: "dtype"
    value {
      type: DT_BFLOAT16
    }
  }
  attr {
    key: "shape"
    value {
      shape {
        dim {
          size: 128
        }
        dim {
          size: 189
        }
        dim {
          size: 2
        }
        dim {
          size: 1
        }
        dim {
          size: 1
        }
      }
    }
  }
  attr {
    key: "synDataType"
    value {
      s: "bf16"
    }
  }
}
node {
  name: "module/model/28/fused_scaled_dot_product_attention/sdpa_recomp_fwd_hf8/13230_complex/sdpa_recomp_fwd_hf8_217/sdpa_recomp_core_fwd_hf8_108/softmax_fwd_hf8_22_bundle_651/op_5"
  op: "softmax_fwd_hf8"
  input: "bf16-17_126390_bundle_651/split_internal/0"
  input: "module/model/28/fused_scaled_dot_product_attention/sdpa_recomp_fwd_hf8/13230_complex/sdpa_recomp_fwd_hf8_217/sdpa_recomp_core_fwd_hf8_108/constant_f32_18"
  input: "module/model/28/fused_scaled_dot_product_attention/sdpa_recomp_fwd_hf8/13230_complex/sdpa_recomp_fwd_hf8_217/sdpa_recomp_core_fwd_hf8_108/constant_f32_20"
  input: "tensor_112_odule/model/28/fused_scaled_dot_product_attention/placeholder/7"
  input: "module/model/28/fused_scaled_dot_product_attention/expand_dims/13217"
  attr {
    key: "Bundle_idx"
    value {
      s: "651"
    }
  }
  attr {
    key: "Exec_idx"
    value {
      s: "64"
    }
  }
  attr {
    key: "Op_idx"
    value {
      s: "8"
    }
  }
  attr {
    key: "inputTensor:0"
    value {
      s: "bf16-17_126390_slice_0_0_0_1_0__0__bundle_651_126859  |  Sizes = [1,1,8,189,189]  |  bf16  |  expBias = 0, scale = 1  |    |  ModelParam = 0  |  strides = [1143072, 1143072, 571536, 71442, 378, 2]  |  data = 0, sizeInBytes = 571536  |  isAliased = bf16-17_126390, type = concat, offset: 571536  |  location = in DRAM  |  "
    }
  }
  attr {
    key: "inputTensor:1"
    value {
      s: "f32-19_126391  |  Sizes = [1]  |  float32  |  expBias = 0, scale = 1  |    |  ModelParam = 0  |  strides = [4, 4]  |  data = 0, sizeInBytes = 4  |  location = in DRAM  |  dramOffset = 0x310000000000  |  "
    }
  }
  attr {
    key: "inputTensor:2"
    value {
      s: "f32-21_126392  |  Sizes = [1]  |  float32  |  expBias = 0, scale = 1  |    |  ModelParam = 0  |  strides = [4, 4]  |  data = 0, sizeInBytes = 4  |  location = in DRAM  |  dramOffset = 0x310000000080  |  "
    }
  }
  attr {
    key: "inputTensor:3"
    value {
      s: "tensor_112_odule/model/28/fused_scaled_dot_product_attention/placeholder/7  |  Sizes = [1]  |  float32  |  expBias = 0, scale = 1  |    |  ModelParam = 0  |  strides = [4, 4]  |  data = 0x55db6cb6f6c8, sizeInBytes = 4  |  buffer = 16  |  isPersistent  |  location = in DRAM  |  dramOffset = 0x280000000000  |  userMemorySection(type=Persistent, id=40)  |  isStaticParam  |  bufferDtype=float32  |  "
    }
  }
  attr {
    key: "inputTensor:4"
    value {
      s: "tensor_79_id_127504_module/model/28/fused_scaled_dot_product_attention/aten__unsqueeze  |  Sizes = [1,1,1,189,189]  |  bf16  |  expBias = 0, scale = 1  |    |  ModelParam = 0  |  strides = [71442, 71442, 71442, 71442, 378, 2]  |  data = 0, sizeInBytes = 71442  |  isAliased = tensor_73_odule/model/28/fused_scaled_dot_product_attention/placeholder/0, type = alias, offset: 0  |  location = in DRAM  |  "
    }
  }
  attr {
    key: "outputTensor:0"
    value {
      s: "hf8-23_126393_slice_0_0_0_1_0__0__bundle_651_126860  |  Sizes = [1,1,8,189,189]  |  hfloat8  |  expBias = 7, scale = 1  |    |  ModelParam = 0  |  strides = [387072, 387072, 387072, 48384, 256, 1]  |  data = 0, sizeInBytes = 387072  |  location = in SRAM  |  sramOffset = 0x1000fffffd64fa00  |  isSparseLayout  |  "
    }
  }
}
node {
  name: "module/model/28/fused_scaled_dot_product_attention/sdpa_recomp_fwd_hf8/13230_complex/sdpa_recomp_fwd_hf8_217/sdpa_recomp_core_fwd_hf8_108/fp8_gemm_hf8_1737/batch_gemm_24_bundle_651/op_6"
  op: "BatchGemm"
  input: "module/model/28/fused_scaled_dot_product_attention/sdpa_recomp_fwd_hf8/13230_complex/sdpa_recomp_fwd_hf8_217/sdpa_recomp_core_fwd_hf8_108/softmax_fwd_hf8_22_bundle_651/op_2"
  input: "reshape_8_8_bundle_651/op_1"
  attr {
    key: "Bundle_idx"
    value {
      s: "651"
    }
  }
  attr {
    key: "Exec_idx"
    value {
      s: "65"
    }
  }
  attr {
    key: "Op_idx"
    value {
      s: "9"
    }
  }
  attr {
    key: "Parameters"
    value {
      s: "transpose_a=false, transpose_b=false"
    }
  }
  attr {
    key: "fp8BiasIn"
    value {
      s: "11"
    }
  }
  attr {
    key: "fp8BiasIn2"
    value {
      s: "7"
    }
  }
  attr {
    key: "fp8BiasOut"
    value {
      s: "11"
    }
  }
  attr {
    key: "inputTensor:0"
    value {
      s: "hf8-23_126393_slice_0_0_0_0_0__0__bundle_651_126854  |  Sizes = [1,1,8,189,189]  |  hfloat8  |  expBias = 7, scale = 1  |    |  ModelParam = 0  |  strides = [387072, 387072, 387072, 48384, 256, 1]  |  data = 0, sizeInBytes = 387072  |  location = in SRAM  |  sramOffset = 0x1000fffffd5f1200  |  isSparseLayout  |  "
    }
  }
  attr {
    key: "inputTensor:1"
    value {
      s: "tensor_84_id_127502_module/model/28/fused_scaled_dot_product_attention/aten__view_slice_0_0_0_0_0__0__bundle_651_126848  |  Sizes = [1,1,1,189,128]  |  hfloat8  |  expBias = 7, scale = 1  |    |  ModelParam = 0  |  strides = [24192, 24192, 24192, 24192, 128, 1]  |  data = 0, sizeInBytes = 24192  |  location = in SRAM  |  sramOffset = 0x1000fffffd5e5500  |  "
    }
  }
  attr {
    key: "outputTensor:0"
    value {
      s: "tensor_120_slice_0_0_0_0_0__0__bundle_651_126861  |  Sizes = [1,1,8,189,128]  |  hfloat8  |  expBias = 7, scale = 1  |    |  ModelParam = 0  |  strides = [387072, 387072, 193536, 24192, 128, 1]  |  data = 0, sizeInBytes = 193536  |  isAliased = tensor_120, type = concat, offset: 0  |  location = in DRAM  |  "
    }
  }
}
node {
  name: "module/model/28/fused_scaled_dot_product_attention/sdpa_recomp_fwd_hf8/13230_complex/sdpa_recomp_fwd_hf8_217/sdpa_recomp_core_fwd_hf8_108/fp8_gemm_hf8_1737/batch_gemm_24_bundle_651/op_7"
  op: "BatchGemm"
  input: "module/model/28/fused_scaled_dot_product_attention/sdpa_recomp_fwd_hf8/13230_complex/sdpa_recomp_fwd_hf8_217/sdpa_recomp_core_fwd_hf8_108/softmax_fwd_hf8_22_bundle_651/op_5"
  input: "reshape_8_8_bundle_651/op_4"
  attr {
    key: "Bundle_idx"
    value {
      s: "651"
    }
  }
  attr {
    key: "Exec_idx"
    value {
      s: "66"
    }
  }
  attr {
    key: "Op_idx"
    value {
      s: "10"
    }
  }
  attr {
    key: "Parameters"
    value {
      s: "transpose_a=false, transpose_b=false"
    }
  }
  attr {
    key: "fp8BiasIn"
    value {
      s: "11"
    }
  }
  attr {
    key: "fp8BiasIn2"
    value {
      s: "7"
    }
  }
  attr {
    key: "fp8BiasOut"
    value {
      s: "11"
    }
  }
  attr {
    key: "inputTensor:0"
    value {
      s: "hf8-23_126393_slice_0_0_0_1_0__0__bundle_651_126860  |  Sizes = [1,1,8,189,189]  |  hfloat8  |  expBias = 7, scale = 1  |    |  ModelParam = 0  |  strides = [387072, 387072, 387072, 48384, 256, 1]  |  data = 0, sizeInBytes = 387072  |  location = in SRAM  |  sramOffset = 0x1000fffffd64fa00  |  isSparseLayout  |  "
    }
  }
  attr {
    key: "inputTensor:1"
    value {
      s: "tensor_84_id_127502_module/model/28/fused_scaled_dot_product_attention/aten__view_slice_0_0_0_1_0__0__bundle_651_126858  |  Sizes = [1,1,1,189,128]  |  hfloat8  |  expBias = 7, scale = 1  |    |  ModelParam = 0  |  strides = [24192, 24192, 24192, 24192, 128, 1]  |  data = 0, sizeInBytes = 24192  |  location = in SRAM  |  sramOffset = 0x1000fffffd5eb380  |  "
    }
  }
  attr {
    key: "outputTensor:0"
    value {
      s: "tensor_120_slice_0_0_0_1_0__0__bundle_651_126862  |  Sizes = [1,1,8,189,128]  |  hfloat8  |  expBias = 7, scale = 1  |    |  ModelParam = 0  |  strides = [387072, 387072, 193536, 24192, 128, 1]  |  data = 0, sizeInBytes = 193536  |  isAliased = tensor_120, type = concat, offset: 193536  |  location = in DRAM  |  "
    }
  }
}
node {
  name: "tensor_120_bundle_651/concat_logical_internal/0"
  op: "Concatenate"
  input: "module/model/28/fused_scaled_dot_product_attention/sdpa_recomp_fwd_hf8/13230_complex/sdpa_recomp_fwd_hf8_217/sdpa_recomp_core_fwd_hf8_108/fp8_gemm_hf8_1737/batch_gemm_24_bundle_651/op_6"
  input: "module/model/28/fused_scaled_dot_product_attention/sdpa_recomp_fwd_hf8/13230_complex/sdpa_recomp_fwd_hf8_217/sdpa_recomp_core_fwd_hf8_108/fp8_gemm_hf8_1737/batch_gemm_24_bundle_651/op_7"
  attr {
    key: "Bundle_idx"
    value {
      s: "651"
    }
  }
  attr {
    key: "Exec_idx"
    value {
      s: "67"
    }
  }
  attr {
    key: "Op_idx"
    value {
      s: "11"
    }
  }
  attr {
    key: "inputTensor:0"
    value {
      s: "tensor_120_slice_0_0_0_0_0__0__bundle_651_126861  |  Sizes = [1,1,8,189,128]  |  hfloat8  |  expBias = 7, scale = 1  |    |  ModelParam = 0  |  strides = [387072, 387072, 193536, 24192, 128, 1]  |  data = 0, sizeInBytes = 193536  |  isAliased = tensor_120, type = concat, offset: 0  |  location = in DRAM  |  "
    }
  }
  attr {
    key: "inputTensor:1"
    value {
      s: "tensor_120_slice_0_0_0_1_0__0__bundle_651_126862  |  Sizes = [1,1,8,189,128]  |  hfloat8  |  expBias = 7, scale = 1  |    |  ModelParam = 0  |  strides = [387072, 387072, 193536, 24192, 128, 1]  |  data = 0, sizeInBytes = 193536  |  isAliased = tensor_120, type = concat, offset: 193536  |  location = in DRAM  |  "
    }
  }
  attr {
    key: "outputTensor:0"
    value {
      s: "tensor_120  |  Sizes = [1,2,8,189,128]  |  hfloat8  |  expBias = 7, scale = 1  |    |  ModelParam = 0  |  strides = [387072, 387072, 193536, 24192, 128, 1]  |  data = 0, sizeInBytes = 387072  |  isAliased = tensor_121_id_127523_module/model/28/fused_scaled_dot_product_attention/dequant_output/aten__view, type = alias, offset: 0  |  location = in DRAM  |  "
    }
  }
}
node {
  name: "module/model/28/fused_scaled_dot_product_attention/dequant_output/reshape/13231"
  op: "Reshape"
  input: "tensor_120_bundle_651/concat_logical_internal/0"
  attr {
    key: "Bundle_idx"
    value {
      s: "N/A"
    }
  }
  attr {
    key: "Exec_idx"
    value {
      s: "68"
    }
  }
  attr {
    key: "Op_idx"
    value {
      s: "N/A"
    }
  }
  attr {
    key: "inputTensor:0"
    value {
      s: "tensor_120  |  Sizes = [1,2,8,189,128]  |  hfloat8  |  expBias = 7, scale = 1  |    |  ModelParam = 0  |  strides = [387072, 387072, 193536, 24192, 128, 1]  |  data = 0, sizeInBytes = 387072  |  isAliased = tensor_121_id_127523_module/model/28/fused_scaled_dot_product_attention/dequant_output/aten__view, type = alias, offset: 0  |  location = in DRAM  |  "
    }
  }
  attr {
    key: "outputTensor:0"
    value {
      s: "tensor_121_id_127523_module/model/28/fused_scaled_dot_product_attention/dequant_output/aten__view  |  Sizes = [1,16,189,128]  |  hfloat8  |  expBias = 7, scale = 1  |    |  ModelParam = 0  |  strides = [387072, 387072, 24192, 128, 1]  |  data = 0, sizeInBytes = 387072  |  location = in DRAM  |  dramOffset = 0x310000000100  |  "
    }
  }
}
node {
  name: "module/model/28/transpose/13233_transpose_via_logical"
  op: "LogicalTranspose"
  input: "module/model/28/fused_scaled_dot_product_attention/dequant_output/reshape/13231"
  attr {
    key: "Bundle_idx"
    value {
      s: "N/A"
    }
  }
  attr {
    key: "Exec_idx"
    value {
      s: "69"
    }
  }
  attr {
    key: "Op_idx"
    value {
      s: "N/A"
    }
  }
  attr {
    key: "Parameters"
    value {
      s: "permutation: (0,2,1,3)"
    }
  }
  attr {
    key: "inputTensor:0"
    value {
      s: "tensor_121_id_127523_module/model/28/fused_scaled_dot_product_attention/dequant_output/aten__view  |  Sizes = [1,16,189,128]  |  hfloat8  |  expBias = 7, scale = 1  |    |  ModelParam = 0  |  strides = [387072, 387072, 24192, 128, 1]  |  data = 0, sizeInBytes = 387072  |  location = in DRAM  |  dramOffset = 0x310000000100  |  "
    }
  }
  attr {
    key: "outputTensor:0"
    value {
      s: "tensor_125_id_127528_module/model/28/aten__transpose  |  Sizes = [1,189,16,128]  |  hfloat8  |  expBias = 7, scale = 1  |    |  ModelParam = 0  |  strides = [387072, 387072, 128, 24192, 1]  |  data = 0, sizeInBytes = 387072  |  isAliased = tensor_121_id_127523_module/model/28/fused_scaled_dot_product_attention/dequant_output/aten__view, type = alias, offset: 0  |  location = in DRAM  |  isSparseLayout  |  "
    }
  }
}
node {
  name: "tensor_125_id_127528_module/model/28/aten__transpose_memcpy_126867_internal"
  op: "DmaMemcpy"
  input: "module/model/28/transpose/13233_transpose_via_logical"
  attr {
    key: "Bundle_idx"
    value {
      s: "N/A"
    }
  }
  attr {
    key: "Exec_idx"
    value {
      s: "70"
    }
  }
  attr {
    key: "Op_idx"
    value {
      s: "N/A"
    }
  }
  attr {
    key: "inputTensor:0"
    value {
      s: "tensor_125_id_127528_module/model/28/aten__transpose  |  Sizes = [1,189,16,128]  |  hfloat8  |  expBias = 7, scale = 1  |    |  ModelParam = 0  |  strides = [387072, 387072, 128, 24192, 1]  |  data = 0, sizeInBytes = 387072  |  isAliased = tensor_121_id_127523_module/model/28/fused_scaled_dot_product_attention/dequant_output/aten__view, type = alias, offset: 0  |  location = in DRAM  |  isSparseLayout  |  "
    }
  }
  attr {
    key: "outputTensor:0"
    value {
      s: "tensor_125_id_127528_module/model/28/aten__transpose_memcpy_126867  |  Sizes = [1,189,16,128]  |  hfloat8  |  expBias = 7, scale = 1  |    |  ModelParam = 0  |  strides = [387072, 387072, 2048, 128, 1]  |  data = 0, sizeInBytes = 387072  |  location = in DRAM  |  dramOffset = 0x31000005e900  |  "
    }
  }
}
node {
  name: "module/model/28/o_proj/quant_input_0/reshape/13235"
  op: "Reshape"
  input: "tensor_125_id_127528_module/model/28/aten__transpose_memcpy_126867_internal"
  attr {
    key: "Bundle_idx"
    value {
      s: "N/A"
    }
  }
  attr {
    key: "Exec_idx"
    value {
      s: "71"
    }
  }
  attr {
    key: "Op_idx"
    value {
      s: "N/A"
    }
  }
  attr {
    key: "inputTensor:0"
    value {
      s: "tensor_125_id_127528_module/model/28/aten__transpose_memcpy_126867  |  Sizes = [1,189,16,128]  |  hfloat8  |  expBias = 7, scale = 1  |    |  ModelParam = 0  |  strides = [387072, 387072, 2048, 128, 1]  |  data = 0, sizeInBytes = 387072  |  location = in DRAM  |  dramOffset = 0x31000005e900  |  "
    }
  }
  attr {
    key: "outputTensor:0"
    value {
      s: "tensor_131_c126318  |  Sizes = [1,189,2048]  |  hfloat8  |  expBias = 7, scale = 1  |    |  ModelParam = 0  |  strides = [387072, 387072, 2048, 1]  |  data = 0, sizeInBytes = 387072  |  isAliased = tensor_125_id_127528_module/model/28/aten__transpose_memcpy_126867, type = alias, offset: 0  |  location = in DRAM  |  "
    }
  }
}
node {
  name: "tensor_132_odule/model/28/o_proj/placeholder/1"
  op: "Placeholder"
  attr {
    key: "dtype"
    value {
      type: DT_INVALID
    }
  }
  attr {
    key: "shape"
    value {
      shape {
        dim {
          size: 8192
        }
        dim {
          size: 2048
        }
        dim {
          size: 1
        }
        dim {
          size: 1
        }
        dim {
          size: 1
        }
      }
    }
  }
  attr {
    key: "synDataType"
    value {
      s: "hfloat8"
    }
  }
}
node {
  name: "module/model/28/o_proj/fp8_gemm_bf16/13237_complex/fp8_gemm_bf16_1739/expand_dims_6"
  op: "ExpandDims"
  input: "tensor_132_odule/model/28/o_proj/placeholder/1"
  attr {
    key: "Bundle_idx"
    value {
      s: "N/A"
    }
  }
  attr {
    key: "Exec_idx"
    value {
      s: "72"
    }
  }
  attr {
    key: "Op_idx"
    value {
      s: "N/A"
    }
  }
  attr {
    key: "inputTensor:0"
    value {
      s: "tensor_132_odule/model/28/o_proj/placeholder/1  |  Sizes = [2048,8192]  |  hfloat8  |  expBias = 7, scale = 1  |    |  ModelParam = 0  |  strides = [16777216, 8192, 1]  |  data = 0, sizeInBytes = 16777216  |  isPersistent  |  location = in DRAM  |  dramOffset = 0x2d0000000000  |  userMemorySection(type=Persistent, id=45)  |  "
    }
  }
  attr {
    key: "outputTensor:0"
    value {
      s: "hf8-7_126397  |  Sizes = [1,2048,8192]  |  hfloat8  |  expBias = 7, scale = 1  |    |  ModelParam = 0  |  strides = [16777216, 16777216, 8192, 1]  |  data = 0, sizeInBytes = 16777216  |  isAliased = tensor_132_odule/model/28/o_proj/placeholder/1, type = alias, offset: 0  |  location = in DRAM  |  "
    }
  }
}
node {
  name: "tensor_131_c126318_bundle_652/memcpy/0"
  op: "DmaMemcpy"
  input: "module/model/28/o_proj/quant_input_0/reshape/13235"
  attr {
    key: "Bundle_idx"
    value {
      s: "652"
    }
  }
  attr {
    key: "Exec_idx"
    value {
      s: "73"
    }
  }
  attr {
    key: "Op_idx"
    value {
      s: "0"
    }
  }
  attr {
    key: "inputTensor:0"
    value {
      s: "tensor_131_c126318  |  Sizes = [1,189,2048]  |  hfloat8  |  expBias = 7, scale = 1  |    |  ModelParam = 0  |  strides = [387072, 387072, 2048, 1]  |  data = 0, sizeInBytes = 387072  |  isAliased = tensor_125_id_127528_module/model/28/aten__transpose_memcpy_126867, type = alias, offset: 0  |  location = in DRAM  |  "
    }
  }
  attr {
    key: "outputTensor:0"
    value {
      s: "tensor_131_c126318_slice_0_0_0_0_0__0__bundle_652_126863  |  Sizes = [1,189,2048]  |  hfloat8  |  expBias = 7, scale = 1  |    |  ModelParam = 0  |  strides = [387072, 387072, 2048, 1]  |  data = 0, sizeInBytes = 387072  |  location = in SRAM  |  sramOffset = 0x1000fffffd6ae200  |  "
    }
  }
}
node {
  name: "module/model/28/o_proj/fp8_gemm_bf16/13237_complex/fp8_gemm_bf16_1739/batch_gemm_8_bundle_652/op_0_gemm"
  op: "GEMM"
  input: "tensor_131_c126318_bundle_652/memcpy/0"
  input: "module/model/28/o_proj/fp8_gemm_bf16/13237_complex/fp8_gemm_bf16_1739/expand_dims_6"
  attr {
    key: "Bundle_idx"
    value {
      s: "652"
    }
  }
  attr {
    key: "Exec_idx"
    value {
      s: "74"
    }
  }
  attr {
    key: "Op_idx"
    value {
      s: "1"
    }
  }
  attr {
    key: "Parameters"
    value {
      s: "transpose_a=false, transpose_b=false"
    }
  }
  attr {
    key: "fp8BiasIn"
    value {
      s: "11"
    }
  }
  attr {
    key: "fp8BiasIn2"
    value {
      s: "15"
    }
  }
  attr {
    key: "fp8BiasOut"
    value {
      s: "0"
    }
  }
  attr {
    key: "inputTensor:0"
    value {
      s: "tensor_131_c126318_slice_0_0_0_0_0__0__bundle_652_126863  |  Sizes = [1,189,2048]  |  hfloat8  |  expBias = 7, scale = 1  |    |  ModelParam = 0  |  strides = [387072, 387072, 2048, 1]  |  data = 0, sizeInBytes = 387072  |  location = in SRAM  |  sramOffset = 0x1000fffffd6ae200  |  "
    }
  }
  attr {
    key: "inputTensor:1"
    value {
      s: "hf8-7_126397  |  Sizes = [1,2048,8192]  |  hfloat8  |  expBias = 7, scale = 1  |    |  ModelParam = 0  |  strides = [16777216, 16777216, 8192, 1]  |  data = 0, sizeInBytes = 16777216  |  isAliased = tensor_132_odule/model/28/o_proj/placeholder/1, type = alias, offset: 0  |  location = in DRAM  |  "
    }
  }
  attr {
    key: "outputTensor:0"
    value {
      s: "tensor_136  |  Sizes = [1,189,8192]  |  bf16  |  expBias = 0, scale = 1  |    |  ModelParam = 0  |  strides = [3096576, 3096576, 16384, 2]  |  data = 0, sizeInBytes = 3096576  |  isPersistent  |  location = in DRAM  |  dramOffset = 0x310000000000  |  userMemorySection(type=Persistent, id=49)  |  "
    }
  }
}
node {
  name: "tensor_136"
  op: "OutputTensor"
  input: "module/model/28/o_proj/fp8_gemm_bf16/13237_complex/fp8_gemm_bf16_1739/batch_gemm_8_bundle_652/op_0_gemm"
  attr {
    key: "dtype"
    value {
      type: DT_BFLOAT16
    }
  }
  attr {
    key: "shape"
    value {
      shape {
        dim {
          size: 8192
        }
        dim {
          size: 189
        }
        dim {
          size: 1
        }
        dim {
          size: 1
        }
        dim {
          size: 1
        }
      }
    }
  }
  attr {
    key: "synDataType"
    value {
      s: "bf16"
    }
  }
}
