node {
  name: "tensor_4_odule/model/0/placeholder/0"
  op: "Placeholder"
  attr {
    key: "dtype"
    value {
      type: DT_INT32
    }
  }
  attr {
    key: "shape"
    value {
      shape {
        dim {
          size: 189
        }
        dim {
          size: 1
        }
        dim {
          size: 1
        }
        dim {
          size: 1
        }
        dim {
          size: 1
        }
      }
    }
  }
  attr {
    key: "synDataType"
    value {
      s: "int32"
    }
  }
}
node {
  name: "module/model/0/expand_dims/4558"
  op: "ExpandDims"
  input: "tensor_4_odule/model/0/placeholder/0"
  attr {
    key: "Bundle_idx"
    value {
      s: "N/A"
    }
  }
  attr {
    key: "Exec_idx"
    value {
      s: "0"
    }
  }
  attr {
    key: "Op_idx"
    value {
      s: "N/A"
    }
  }
  attr {
    key: "inputTensor:0"
    value {
      s: "tensor_4_odule/model/0/placeholder/0  |  Sizes = [189]  |  int32  |  expBias = 0, scale = 1  |    |  ModelParam = 0  |  strides = [756, 4]  |  data = 0, sizeInBytes = 756  |  isPersistent  |  location = in DRAM  |  dramOffset = 0x50000000000  |  userMemorySection(type=Persistent, id=5)  |  "
    }
  }
  attr {
    key: "outputTensor:0"
    value {
      s: "tensor_5_id_48006_module/model/0/aten__unsqueeze/1  |  Sizes = [1,189]  |  int32  |  expBias = 0, scale = 1  |    |  ModelParam = 0  |  strides = [756, 756, 4]  |  data = 0, sizeInBytes = 756  |  isAliased = tensor_4_odule/model/0/placeholder/0, type = alias, offset: 0  |  location = in DRAM  |  "
    }
  }
}
node {
  name: "tensor_6_odule/model/0/rotary_emb/placeholder/0"
  op: "Placeholder"
  attr {
    key: "dtype"
    value {
      type: DT_BFLOAT16
    }
  }
  attr {
    key: "shape"
    value {
      shape {
        dim {
          size: 128
        }
        dim {
          size: 131072
        }
        dim {
          size: 1
        }
        dim {
          size: 1
        }
        dim {
          size: 1
        }
      }
    }
  }
  attr {
    key: "synDataType"
    value {
      s: "bf16"
    }
  }
}
node {
  name: "module/model/0/rotary_emb/slice/4559"
  op: "Slice"
  input: "tensor_6_odule/model/0/rotary_emb/placeholder/0"
  attr {
    key: "Bundle_idx"
    value {
      s: "N/A"
    }
  }
  attr {
    key: "Exec_idx"
    value {
      s: "1"
    }
  }
  attr {
    key: "Op_idx"
    value {
      s: "N/A"
    }
  }
  attr {
    key: "inputTensor:0"
    value {
      s: "tensor_6_odule/model/0/rotary_emb/placeholder/0  |  Sizes = [131072,128]  |  bf16  |  expBias = 0, scale = 1  |    |  ModelParam = 0  |  strides = [33554432, 256, 2]  |  data = 0, sizeInBytes = 33554432  |  isPersistent  |  location = in DRAM  |  dramOffset = 0x60000000000  |  userMemorySection(type=Persistent, id=6)  |  "
    }
  }
  attr {
    key: "outputTensor:0"
    value {
      s: "tensor_7_id_48064_module/model/0/rotary_emb/aten__slice  |  Sizes = [189,128]  |  bf16  |  expBias = 0, scale = 1  |    |  ModelParam = 0  |  strides = [33554432, 256, 2]  |  data = 0, sizeInBytes = 48384  |  isAliased = tensor_6_odule/model/0/rotary_emb/placeholder/0, type = slice, offset: 0  |  location = in DRAM  |  "
    }
  }
}
node {
  name: "tensor_8_odule/model/0/rotary_emb/placeholder/1"
  op: "Placeholder"
  attr {
    key: "dtype"
    value {
      type: DT_FLOAT
    }
  }
  attr {
    key: "shape"
    value {
      shape {
        dim {
          size: 1
        }
        dim {
          size: 1
        }
        dim {
          size: 1
        }
        dim {
          size: 1
        }
        dim {
          size: 1
        }
      }
    }
  }
  attr {
    key: "synDataType"
    value {
      s: "float32"
    }
  }
}
node {
  name: "module/model/0/rotary_emb/cast_f32_to_bf16/4560"
  op: "cast_f32_to_bf16"
  input: "tensor_8_odule/model/0/rotary_emb/placeholder/1"
  attr {
    key: "Bundle_idx"
    value {
      s: "N/A"
    }
  }
  attr {
    key: "Exec_idx"
    value {
      s: "2"
    }
  }
  attr {
    key: "Op_idx"
    value {
      s: "N/A"
    }
  }
  attr {
    key: "inputTensor:0"
    value {
      s: "tensor_8_odule/model/0/rotary_emb/placeholder/1  |  Sizes = [1]  |  float32  |  expBias = 0, scale = 1  |    |  ModelParam = 0  |  strides = [4, 4]  |  data = 0, sizeInBytes = 4  |  isPersistent  |  location = in DRAM  |  dramOffset = 0x70000000000  |  userMemorySection(type=Persistent, id=7)  |  "
    }
  }
  attr {
    key: "outputTensor:0"
    value {
      s: "tensor_10  |  Sizes = [1]  |  bf16  |  expBias = 0, scale = 1  |    |  ModelParam = 0  |  strides = [2, 2]  |  data = 0, sizeInBytes = 2  |  location = in DRAM  |  dramOffset = 0x40000000000  |  "
    }
  }
}
node {
  name: "module/model/0/rotary_emb/mult_fwd_bf16/4561_complex/mult_fwd_bf16_0"
  op: "mult_fwd_bf16"
  input: "module/model/0/rotary_emb/slice/4559"
  input: "module/model/0/rotary_emb/cast_f32_to_bf16/4560"
  attr {
    key: "Bundle_idx"
    value {
      s: "N/A"
    }
  }
  attr {
    key: "Exec_idx"
    value {
      s: "3"
    }
  }
  attr {
    key: "Op_idx"
    value {
      s: "N/A"
    }
  }
  attr {
    key: "inputTensor:0"
    value {
      s: "tensor_7_id_48064_module/model/0/rotary_emb/aten__slice  |  Sizes = [189,128]  |  bf16  |  expBias = 0, scale = 1  |    |  ModelParam = 0  |  strides = [33554432, 256, 2]  |  data = 0, sizeInBytes = 48384  |  isAliased = tensor_6_odule/model/0/rotary_emb/placeholder/0, type = slice, offset: 0  |  location = in DRAM  |  "
    }
  }
  attr {
    key: "inputTensor:1"
    value {
      s: "tensor_10  |  Sizes = [1]  |  bf16  |  expBias = 0, scale = 1  |    |  ModelParam = 0  |  strides = [2, 2]  |  data = 0, sizeInBytes = 2  |  location = in DRAM  |  dramOffset = 0x40000000000  |  "
    }
  }
  attr {
    key: "outputTensor:0"
    value {
      s: "tensor_9_id_48066_module/model/0/rotary_emb/aten__mul  |  Sizes = [189,128]  |  bf16  |  expBias = 0, scale = 1  |    |  ModelParam = 0  |  strides = [48384, 256, 2]  |  data = 0, sizeInBytes = 48384  |  location = in DRAM  |  dramOffset = 0x40000000080  |  "
    }
  }
}
node {
  name: "tensor_14_odule/model/0/rotary_emb/placeholder/0"
  op: "Placeholder"
  attr {
    key: "dtype"
    value {
      type: DT_BFLOAT16
    }
  }
  attr {
    key: "shape"
    value {
      shape {
        dim {
          size: 128
        }
        dim {
          size: 131072
        }
        dim {
          size: 1
        }
        dim {
          size: 1
        }
        dim {
          size: 1
        }
      }
    }
  }
  attr {
    key: "synDataType"
    value {
      s: "bf16"
    }
  }
}
node {
  name: "module/model/0/rotary_emb/slice/4565"
  op: "Slice"
  input: "tensor_14_odule/model/0/rotary_emb/placeholder/0"
  attr {
    key: "Bundle_idx"
    value {
      s: "N/A"
    }
  }
  attr {
    key: "Exec_idx"
    value {
      s: "4"
    }
  }
  attr {
    key: "Op_idx"
    value {
      s: "N/A"
    }
  }
  attr {
    key: "inputTensor:0"
    value {
      s: "tensor_14_odule/model/0/rotary_emb/placeholder/0  |  Sizes = [131072,128]  |  bf16  |  expBias = 0, scale = 1  |    |  ModelParam = 0  |  strides = [33554432, 256, 2]  |  data = 0, sizeInBytes = 33554432  |  isPersistent  |  location = in DRAM  |  dramOffset = 0x80000000000  |  userMemorySection(type=Persistent, id=8)  |  "
    }
  }
  attr {
    key: "outputTensor:0"
    value {
      s: "tensor_15_id_48068_module/model/0/rotary_emb/aten__slice  |  Sizes = [189,128]  |  bf16  |  expBias = 0, scale = 1  |    |  ModelParam = 0  |  strides = [33554432, 256, 2]  |  data = 0, sizeInBytes = 48384  |  isAliased = tensor_14_odule/model/0/rotary_emb/placeholder/0, type = slice, offset: 0  |  location = in DRAM  |  "
    }
  }
}
node {
  name: "module/model/0/rotary_emb/mult_fwd_bf16/4567_complex/mult_fwd_bf16_0"
  op: "mult_fwd_bf16"
  input: "module/model/0/rotary_emb/slice/4565"
  input: "module/model/0/rotary_emb/cast_f32_to_bf16/4560"
  attr {
    key: "Bundle_idx"
    value {
      s: "N/A"
    }
  }
  attr {
    key: "Exec_idx"
    value {
      s: "5"
    }
  }
  attr {
    key: "Op_idx"
    value {
      s: "N/A"
    }
  }
  attr {
    key: "inputTensor:0"
    value {
      s: "tensor_15_id_48068_module/model/0/rotary_emb/aten__slice  |  Sizes = [189,128]  |  bf16  |  expBias = 0, scale = 1  |    |  ModelParam = 0  |  strides = [33554432, 256, 2]  |  data = 0, sizeInBytes = 48384  |  isAliased = tensor_14_odule/model/0/rotary_emb/placeholder/0, type = slice, offset: 0  |  location = in DRAM  |  "
    }
  }
  attr {
    key: "inputTensor:1"
    value {
      s: "tensor_10  |  Sizes = [1]  |  bf16  |  expBias = 0, scale = 1  |    |  ModelParam = 0  |  strides = [2, 2]  |  data = 0, sizeInBytes = 2  |  location = in DRAM  |  dramOffset = 0x40000000000  |  "
    }
  }
  attr {
    key: "outputTensor:0"
    value {
      s: "tensor_16_id_48070_module/model/0/rotary_emb/aten__mul  |  Sizes = [189,128]  |  bf16  |  expBias = 0, scale = 1  |    |  ModelParam = 0  |  strides = [48384, 256, 2]  |  data = 0, sizeInBytes = 48384  |  location = in DRAM  |  dramOffset = 0x120000000000  |  "
    }
  }
}
node {
  name: "tensor_21_odule/model/0/input_layernorm/placeholder/0"
  op: "Placeholder"
  attr {
    key: "dtype"
    value {
      type: DT_BFLOAT16
    }
  }
  attr {
    key: "shape"
    value {
      shape {
        dim {
          size: 4096
        }
        dim {
          size: 189
        }
        dim {
          size: 1
        }
        dim {
          size: 1
        }
        dim {
          size: 1
        }
      }
    }
  }
  attr {
    key: "synDataType"
    value {
      s: "bf16"
    }
  }
}
node {
  name: "module/model/0/input_layernorm/rms_norm_ex_fwd_bf16/4571_complex/rms_norm_ex_fwd_bf16_131/reshape_4"
  op: "Reshape"
  input: "tensor_21_odule/model/0/input_layernorm/placeholder/0"
  attr {
    key: "Bundle_idx"
    value {
      s: "N/A"
    }
  }
  attr {
    key: "Exec_idx"
    value {
      s: "6"
    }
  }
  attr {
    key: "Op_idx"
    value {
      s: "N/A"
    }
  }
  attr {
    key: "inputTensor:0"
    value {
      s: "tensor_21_odule/model/0/input_layernorm/placeholder/0  |  Sizes = [1,189,4096]  |  bf16  |  expBias = 0, scale = 1  |    |  ModelParam = 0  |  strides = [1548288, 1548288, 8192, 2]  |  data = 0, sizeInBytes = 1548288  |  isPersistent  |  location = in DRAM  |  dramOffset = 0x90000000000  |  userMemorySection(type=Persistent, id=9)  |  "
    }
  }
  attr {
    key: "outputTensor:0"
    value {
      s: "bf16-5_42395  |  Sizes = [189,4096]  |  bf16  |  expBias = 0, scale = 1  |    |  ModelParam = 0  |  strides = [1548288, 8192, 2]  |  data = 0, sizeInBytes = 1548288  |  isAliased = tensor_21_odule/model/0/input_layernorm/placeholder/0, type = alias, offset: 0  |  location = in DRAM  |  "
    }
  }
}
node {
  name: "tensor_31_odule/model/0/k_proj/placeholder/1"
  op: "Placeholder"
  attr {
    key: "dtype"
    value {
      type: DT_INVALID
    }
  }
  attr {
    key: "shape"
    value {
      shape {
        dim {
          size: 512
        }
        dim {
          size: 4096
        }
        dim {
          size: 1
        }
        dim {
          size: 1
        }
        dim {
          size: 1
        }
      }
    }
  }
  attr {
    key: "synDataType"
    value {
      s: "hfloat8"
    }
  }
}
node {
  name: "module/model/0/k_proj/fp8_gemm_bf16/4573_complex/fp8_gemm_bf16_515/expand_dims_6"
  op: "ExpandDims"
  input: "tensor_31_odule/model/0/k_proj/placeholder/1"
  attr {
    key: "Bundle_idx"
    value {
      s: "N/A"
    }
  }
  attr {
    key: "Exec_idx"
    value {
      s: "7"
    }
  }
  attr {
    key: "Op_idx"
    value {
      s: "N/A"
    }
  }
  attr {
    key: "inputTensor:0"
    value {
      s: "tensor_31_odule/model/0/k_proj/placeholder/1  |  Sizes = [4096,512]  |  hfloat8  |  expBias = 7, scale = 1  |    |  ModelParam = 0  |  strides = [2097152, 512, 1]  |  data = 0, sizeInBytes = 2097152  |  isPersistent  |  location = in DRAM  |  dramOffset = 0xc0000000000  |  userMemorySection(type=Persistent, id=12)  |  "
    }
  }
  attr {
    key: "outputTensor:0"
    value {
      s: "hf8-7_42401  |  Sizes = [1,4096,512]  |  hfloat8  |  expBias = 7, scale = 1  |    |  ModelParam = 0  |  strides = [2097152, 2097152, 512, 1]  |  data = 0, sizeInBytes = 2097152  |  isAliased = tensor_31_odule/model/0/k_proj/placeholder/1, type = alias, offset: 0  |  location = in DRAM  |  "
    }
  }
}
node {
  name: "module/model/0/rotary_pos_embedding_fwd_bf16/4576_complex/rotary_pos_embedding_fwd_bf16_64/gather_nd_mxnet_fwd_bf16_8"
  op: "gather_nd_mxnet_fwd_bf16"
  input: "module/model/0/rotary_emb/mult_fwd_bf16/4567_complex/mult_fwd_bf16_0"
  input: "module/model/0/expand_dims/4558"
  attr {
    key: "Bundle_idx"
    value {
      s: "N/A"
    }
  }
  attr {
    key: "Exec_idx"
    value {
      s: "8"
    }
  }
  attr {
    key: "Op_idx"
    value {
      s: "N/A"
    }
  }
  attr {
    key: "inputTensor:0"
    value {
      s: "tensor_16_id_48070_module/model/0/rotary_emb/aten__mul  |  Sizes = [189,128]  |  bf16  |  expBias = 0, scale = 1  |    |  ModelParam = 0  |  strides = [48384, 256, 2]  |  data = 0, sizeInBytes = 48384  |  location = in DRAM  |  dramOffset = 0x120000000000  |  "
    }
  }
  attr {
    key: "inputTensor:1"
    value {
      s: "tensor_5_id_48006_module/model/0/aten__unsqueeze/1  |  Sizes = [1,189]  |  int32  |  expBias = 0, scale = 1  |    |  ModelParam = 0  |  strides = [756, 756, 4]  |  data = 0, sizeInBytes = 756  |  isAliased = tensor_4_odule/model/0/placeholder/0, type = alias, offset: 0  |  location = in DRAM  |  "
    }
  }
  attr {
    key: "outputTensor:0"
    value {
      s: "bf16-9_42406  |  Sizes = [189,128]  |  bf16  |  expBias = 0, scale = 1  |    |  ModelParam = 0  |  strides = [48384, 256, 2]  |  data = 0, sizeInBytes = 48384  |  isAliased = bf16-13_42408, type = alias, offset: 0  |  location = in DRAM  |  "
    }
  }
}
node {
  name: "module/model/0/rotary_pos_embedding_fwd_bf16/4576_complex/rotary_pos_embedding_fwd_bf16_64/gather_nd_mxnet_fwd_bf16_10"
  op: "gather_nd_mxnet_fwd_bf16"
  input: "module/model/0/rotary_emb/mult_fwd_bf16/4561_complex/mult_fwd_bf16_0"
  input: "module/model/0/expand_dims/4558"
  attr {
    key: "Bundle_idx"
    value {
      s: "N/A"
    }
  }
  attr {
    key: "Exec_idx"
    value {
      s: "9"
    }
  }
  attr {
    key: "Op_idx"
    value {
      s: "N/A"
    }
  }
  attr {
    key: "inputTensor:0"
    value {
      s: "tensor_9_id_48066_module/model/0/rotary_emb/aten__mul  |  Sizes = [189,128]  |  bf16  |  expBias = 0, scale = 1  |    |  ModelParam = 0  |  strides = [48384, 256, 2]  |  data = 0, sizeInBytes = 48384  |  location = in DRAM  |  dramOffset = 0x40000000080  |  "
    }
  }
  attr {
    key: "inputTensor:1"
    value {
      s: "tensor_5_id_48006_module/model/0/aten__unsqueeze/1  |  Sizes = [1,189]  |  int32  |  expBias = 0, scale = 1  |    |  ModelParam = 0  |  strides = [756, 756, 4]  |  data = 0, sizeInBytes = 756  |  isAliased = tensor_4_odule/model/0/placeholder/0, type = alias, offset: 0  |  location = in DRAM  |  "
    }
  }
  attr {
    key: "outputTensor:0"
    value {
      s: "bf16-11_42407  |  Sizes = [189,128]  |  bf16  |  expBias = 0, scale = 1  |    |  ModelParam = 0  |  strides = [48384, 256, 2]  |  data = 0, sizeInBytes = 48384  |  isAliased = bf16-15_42409, type = alias, offset: 0  |  location = in DRAM  |  "
    }
  }
}
node {
  name: "module/model/0/rotary_pos_embedding_fwd_bf16/4576_complex/rotary_pos_embedding_fwd_bf16_64/expand_dims_12"
  op: "ExpandDims"
  input: "module/model/0/rotary_pos_embedding_fwd_bf16/4576_complex/rotary_pos_embedding_fwd_bf16_64/gather_nd_mxnet_fwd_bf16_8"
  attr {
    key: "Bundle_idx"
    value {
      s: "N/A"
    }
  }
  attr {
    key: "Exec_idx"
    value {
      s: "10"
    }
  }
  attr {
    key: "Op_idx"
    value {
      s: "N/A"
    }
  }
  attr {
    key: "inputTensor:0"
    value {
      s: "bf16-9_42406  |  Sizes = [189,128]  |  bf16  |  expBias = 0, scale = 1  |    |  ModelParam = 0  |  strides = [48384, 256, 2]  |  data = 0, sizeInBytes = 48384  |  isAliased = bf16-13_42408, type = alias, offset: 0  |  location = in DRAM  |  "
    }
  }
  attr {
    key: "outputTensor:0"
    value {
      s: "bf16-13_42408  |  Sizes = [1,189,128]  |  bf16  |  expBias = 0, scale = 1  |    |  ModelParam = 0  |  strides = [48384, 48384, 256, 2]  |  data = 0, sizeInBytes = 48384  |  location = in DRAM  |  dramOffset = 0x130000000000  |  "
    }
  }
}
node {
  name: "module/model/0/rotary_pos_embedding_fwd_bf16/4576_complex/rotary_pos_embedding_fwd_bf16_64/expand_dims_14"
  op: "ExpandDims"
  input: "module/model/0/rotary_pos_embedding_fwd_bf16/4576_complex/rotary_pos_embedding_fwd_bf16_64/gather_nd_mxnet_fwd_bf16_10"
  attr {
    key: "Bundle_idx"
    value {
      s: "N/A"
    }
  }
  attr {
    key: "Exec_idx"
    value {
      s: "11"
    }
  }
  attr {
    key: "Op_idx"
    value {
      s: "N/A"
    }
  }
  attr {
    key: "inputTensor:0"
    value {
      s: "bf16-11_42407  |  Sizes = [189,128]  |  bf16  |  expBias = 0, scale = 1  |    |  ModelParam = 0  |  strides = [48384, 256, 2]  |  data = 0, sizeInBytes = 48384  |  isAliased = bf16-15_42409, type = alias, offset: 0  |  location = in DRAM  |  "
    }
  }
  attr {
    key: "outputTensor:0"
    value {
      s: "bf16-15_42409  |  Sizes = [1,189,128]  |  bf16  |  expBias = 0, scale = 1  |    |  ModelParam = 0  |  strides = [48384, 48384, 256, 2]  |  data = 0, sizeInBytes = 48384  |  location = in DRAM  |  dramOffset = 0x13000000bd00  |  "
    }
  }
}
node {
  name: "tensor_56_odule/model/0/v_proj/placeholder/1"
  op: "Placeholder"
  attr {
    key: "dtype"
    value {
      type: DT_INVALID
    }
  }
  attr {
    key: "shape"
    value {
      shape {
        dim {
          size: 512
        }
        dim {
          size: 4096
        }
        dim {
          size: 1
        }
        dim {
          size: 1
        }
        dim {
          size: 1
        }
      }
    }
  }
  attr {
    key: "synDataType"
    value {
      s: "hfloat8"
    }
  }
}
node {
  name: "module/model/0/v_proj/fp8_gemm_bf16/4582_complex/fp8_gemm_hf8_517/expand_dims_8"
  op: "ExpandDims"
  input: "tensor_56_odule/model/0/v_proj/placeholder/1"
  attr {
    key: "Bundle_idx"
    value {
      s: "N/A"
    }
  }
  attr {
    key: "Exec_idx"
    value {
      s: "12"
    }
  }
  attr {
    key: "Op_idx"
    value {
      s: "N/A"
    }
  }
  attr {
    key: "inputTensor:0"
    value {
      s: "tensor_56_odule/model/0/v_proj/placeholder/1  |  Sizes = [4096,512]  |  hfloat8  |  expBias = 7, scale = 1  |    |  ModelParam = 0  |  strides = [2097152, 512, 1]  |  data = 0, sizeInBytes = 2097152  |  isPersistent  |  location = in DRAM  |  dramOffset = 0x150000000000  |  userMemorySection(type=Persistent, id=21)  |  "
    }
  }
  attr {
    key: "outputTensor:0"
    value {
      s: "hf8-9_42414  |  Sizes = [1,4096,512]  |  hfloat8  |  expBias = 7, scale = 1  |    |  ModelParam = 0  |  strides = [2097152, 2097152, 512, 1]  |  data = 0, sizeInBytes = 2097152  |  isAliased = tensor_56_odule/model/0/v_proj/placeholder/1, type = alias, offset: 0  |  location = in DRAM  |  "
    }
  }
}
node {
  name: "tensor_71_odule/model/0/fused_scaled_dot_product_attention/placeholder/0"
  op: "Placeholder"
  attr {
    key: "dtype"
    value {
      type: DT_BFLOAT16
    }
  }
  attr {
    key: "shape"
    value {
      shape {
        dim {
          size: 189
        }
        dim {
          size: 189
        }
        dim {
          size: 1
        }
        dim {
          size: 1
        }
        dim {
          size: 1
        }
      }
    }
  }
  attr {
    key: "synDataType"
    value {
      s: "bf16"
    }
  }
}
node {
  name: "module/model/0/fused_scaled_dot_product_attention/expand_dims/4593"
  op: "Reshape"
  input: "tensor_71_odule/model/0/fused_scaled_dot_product_attention/placeholder/0"
  attr {
    key: "Bundle_idx"
    value {
      s: "N/A"
    }
  }
  attr {
    key: "Exec_idx"
    value {
      s: "13"
    }
  }
  attr {
    key: "Op_idx"
    value {
      s: "N/A"
    }
  }
  attr {
    key: "inputTensor:0"
    value {
      s: "tensor_71_odule/model/0/fused_scaled_dot_product_attention/placeholder/0  |  Sizes = [189,189]  |  bf16  |  expBias = 0, scale = 1  |    |  ModelParam = 0  |  strides = [71442, 378, 2]  |  data = 0, sizeInBytes = 71442  |  isPersistent  |  location = in DRAM  |  dramOffset = 0x1c0000000000  |  userMemorySection(type=Persistent, id=28)  |  "
    }
  }
  attr {
    key: "outputTensor:0"
    value {
      s: "tensor_77_id_48173_module/model/0/fused_scaled_dot_product_attention/aten__unsqueeze  |  Sizes = [1,1,1,189,189]  |  bf16  |  expBias = 0, scale = 1  |    |  ModelParam = 0  |  strides = [71442, 71442, 71442, 71442, 378, 2]  |  data = 0, sizeInBytes = 71442  |  isAliased = tensor_71_odule/model/0/fused_scaled_dot_product_attention/placeholder/0, type = alias, offset: 0  |  location = in DRAM  |  "
    }
  }
}
node {
  name: "tensor_93_odule/model/0/q_proj/placeholder/1"
  op: "Placeholder"
  attr {
    key: "dtype"
    value {
      type: DT_INVALID
    }
  }
  attr {
    key: "shape"
    value {
      shape {
        dim {
          size: 2048
        }
        dim {
          size: 4096
        }
        dim {
          size: 1
        }
        dim {
          size: 1
        }
        dim {
          size: 1
        }
      }
    }
  }
  attr {
    key: "synDataType"
    value {
      s: "hfloat8"
    }
  }
}
node {
  name: "module/model/0/q_proj/fp8_gemm_bf16/4600_complex/fp8_gemm_bf16_519/expand_dims_6"
  op: "ExpandDims"
  input: "tensor_93_odule/model/0/q_proj/placeholder/1"
  attr {
    key: "Bundle_idx"
    value {
      s: "N/A"
    }
  }
  attr {
    key: "Exec_idx"
    value {
      s: "14"
    }
  }
  attr {
    key: "Op_idx"
    value {
      s: "N/A"
    }
  }
  attr {
    key: "inputTensor:0"
    value {
      s: "tensor_93_odule/model/0/q_proj/placeholder/1  |  Sizes = [4096,2048]  |  hfloat8  |  expBias = 7, scale = 1  |    |  ModelParam = 0  |  strides = [8388608, 2048, 1]  |  data = 0, sizeInBytes = 8388608  |  isPersistent  |  location = in DRAM  |  dramOffset = 0x200000000000  |  userMemorySection(type=Persistent, id=32)  |  "
    }
  }
  attr {
    key: "outputTensor:0"
    value {
      s: "hf8-7_42420  |  Sizes = [1,4096,2048]  |  hfloat8  |  expBias = 7, scale = 1  |    |  ModelParam = 0  |  strides = [8388608, 8388608, 2048, 1]  |  data = 0, sizeInBytes = 8388608  |  isAliased = tensor_93_odule/model/0/q_proj/placeholder/1, type = alias, offset: 0  |  location = in DRAM  |  "
    }
  }
}
node {
  name: "tensor_22_odule/model/0/input_layernorm/placeholder/1"
  op: "Placeholder"
  attr {
    key: "dtype"
    value {
      type: DT_BFLOAT16
    }
  }
  attr {
    key: "shape"
    value {
      shape {
        dim {
          size: 4096
        }
        dim {
          size: 1
        }
        dim {
          size: 1
        }
        dim {
          size: 1
        }
        dim {
          size: 1
        }
      }
    }
  }
  attr {
    key: "synDataType"
    value {
      s: "bf16"
    }
  }
}
node {
  name: "module/model/0/input_layernorm/rms_norm_ex_fwd_bf16/4571_complex/rms_norm_ex_fwd_bf16_131/rms_norm_fwd_bf16_6_bundle_193/op_0"
  op: "rms_norm_fwd_bf16"
  input: "module/model/0/input_layernorm/rms_norm_ex_fwd_bf16/4571_complex/rms_norm_ex_fwd_bf16_131/reshape_4"
  input: "tensor_22_odule/model/0/input_layernorm/placeholder/1"
  attr {
    key: "Bundle_idx"
    value {
      s: "193"
    }
  }
  attr {
    key: "Exec_idx"
    value {
      s: "15"
    }
  }
  attr {
    key: "Op_idx"
    value {
      s: "0"
    }
  }
  attr {
    key: "inputTensor:0"
    value {
      s: "bf16-5_42395  |  Sizes = [189,4096]  |  bf16  |  expBias = 0, scale = 1  |    |  ModelParam = 0  |  strides = [1548288, 8192, 2]  |  data = 0, sizeInBytes = 1548288  |  isAliased = tensor_21_odule/model/0/input_layernorm/placeholder/0, type = alias, offset: 0  |  location = in DRAM  |  "
    }
  }
  attr {
    key: "inputTensor:1"
    value {
      s: "tensor_22_odule/model/0/input_layernorm/placeholder/1  |  Sizes = [4096]  |  bf16  |  expBias = 0, scale = 1  |    |  ModelParam = 0  |  strides = [8192, 2]  |  data = 0, sizeInBytes = 8192  |  isPersistent  |  location = in DRAM  |  dramOffset = 0xa0000000000  |  userMemorySection(type=Persistent, id=10)  |  "
    }
  }
  attr {
    key: "outputTensor:0"
    value {
      s: "bf16-7_42396_slice_0_0_0_0_0__0__bundle_193_42848  |  Sizes = [189,4096]  |  bf16  |  expBias = 0, scale = 1  |    |  ModelParam = 0  |  strides = [1548288, 8192, 2]  |  data = 0, sizeInBytes = 1548288  |  isAliased = tensor-42616_slice_0_0_0_0_0__0__bundle_193_42850, type = alias, offset: 0  |  location = in SRAM  |  sramOffset = 0x1000fffffd050000  |  "
    }
  }
  attr {
    key: "outputTensor:1"
    value {
      s: "f32-8_42397  |  Sizes = [189,1]  |  float32  |  expBias = 0, scale = 1  |    |  ModelParam = 0  |  strides = [756, 4, 4]  |  data = 0, sizeInBytes = 756  |  location = in DRAM  |  dramOffset = 0x4000000bd80  |  "
    }
  }
}
node {
  name: "f32-8_42397"
  op: "OutputTensor"
  input: "module/model/0/input_layernorm/rms_norm_ex_fwd_bf16/4571_complex/rms_norm_ex_fwd_bf16_131/rms_norm_fwd_bf16_6_bundle_193/op_0"
  attr {
    key: "dtype"
    value {
      type: DT_FLOAT
    }
  }
  attr {
    key: "shape"
    value {
      shape {
        dim {
          size: 1
        }
        dim {
          size: 189
        }
        dim {
          size: 1
        }
        dim {
          size: 1
        }
        dim {
          size: 1
        }
      }
    }
  }
  attr {
    key: "synDataType"
    value {
      s: "float32"
    }
  }
}
node {
  name: "reshape_0_0_bundle_193/op_1"
  op: "Reshape"
  input: "module/model/0/input_layernorm/rms_norm_ex_fwd_bf16/4571_complex/rms_norm_ex_fwd_bf16_131/rms_norm_fwd_bf16_6_bundle_193/op_0"
  attr {
    key: "Bundle_idx"
    value {
      s: "193"
    }
  }
  attr {
    key: "Exec_idx"
    value {
      s: "16"
    }
  }
  attr {
    key: "Op_idx"
    value {
      s: "1"
    }
  }
  attr {
    key: "inputTensor:0"
    value {
      s: "bf16-7_42396_slice_0_0_0_0_0__0__bundle_193_42848  |  Sizes = [189,4096]  |  bf16  |  expBias = 0, scale = 1  |    |  ModelParam = 0  |  strides = [1548288, 8192, 2]  |  data = 0, sizeInBytes = 1548288  |  isAliased = tensor-42616_slice_0_0_0_0_0__0__bundle_193_42850, type = alias, offset: 0  |  location = in SRAM  |  sramOffset = 0x1000fffffd050000  |  "
    }
  }
  attr {
    key: "outputTensor:0"
    value {
      s: "tensor-42616_slice_0_0_0_0_0__0__bundle_193_42850  |  Sizes = [1,189,4096]  |  bf16  |  expBias = 0, scale = 1  |    |  ModelParam = 0  |  strides = [1548288, 1548288, 8192, 2]  |  data = 0, sizeInBytes = 1548288  |  location = in SRAM  |  sramOffset = 0x1000fffffd050000  |  "
    }
  }
}
node {
  name: "fusedTPCNode_76_0_bundle_193/op_2"
  op: "fused_kernel_0x69612E63_CE_hf8"
  input: "reshape_0_0_bundle_193/op_1"
  attr {
    key: "Bundle_idx"
    value {
      s: "193"
    }
  }
  attr {
    key: "Exec_idx"
    value {
      s: "17"
    }
  }
  attr {
    key: "Op_idx"
    value {
      s: "2"
    }
  }
  attr {
    key: "inputTensor:0"
    value {
      s: "tensor-42616_slice_0_0_0_0_0__0__bundle_193_42850  |  Sizes = [1,189,4096]  |  bf16  |  expBias = 0, scale = 1  |    |  ModelParam = 0  |  strides = [1548288, 1548288, 8192, 2]  |  data = 0, sizeInBytes = 1548288  |  location = in SRAM  |  sramOffset = 0x1000fffffd050000  |  "
    }
  }
  attr {
    key: "outputTensor:0"
    value {
      s: "tensor_30_slice_0_0_0_0_0__0__bundle_193_42851  |  Sizes = [1,189,4096]  |  hfloat8  |  expBias = 7, scale = 1  |    |  ModelParam = 0  |  strides = [774144, 774144, 4096, 1]  |  data = 0, sizeInBytes = 774144  |  location = in SRAM  |  sramOffset = 0x1000fffffd1ca000  |  "
    }
  }
}
node {
  name: "module/model/0/k_proj/fp8_gemm_bf16/4573_complex/fp8_gemm_bf16_515/batch_gemm_8_bundle_193/op_3_gemm"
  op: "GEMM"
  input: "fusedTPCNode_76_0_bundle_193/op_2"
  input: "module/model/0/k_proj/fp8_gemm_bf16/4573_complex/fp8_gemm_bf16_515/expand_dims_6"
  attr {
    key: "Bundle_idx"
    value {
      s: "193"
    }
  }
  attr {
    key: "Exec_idx"
    value {
      s: "18"
    }
  }
  attr {
    key: "Op_idx"
    value {
      s: "3"
    }
  }
  attr {
    key: "Parameters"
    value {
      s: "transpose_a=false, transpose_b=false"
    }
  }
  attr {
    key: "fp8BiasIn"
    value {
      s: "7"
    }
  }
  attr {
    key: "fp8BiasIn2"
    value {
      s: "11"
    }
  }
  attr {
    key: "fp8BiasOut"
    value {
      s: "0"
    }
  }
  attr {
    key: "inputTensor:0"
    value {
      s: "tensor_30_slice_0_0_0_0_0__0__bundle_193_42851  |  Sizes = [1,189,4096]  |  hfloat8  |  expBias = 7, scale = 1  |    |  ModelParam = 0  |  strides = [774144, 774144, 4096, 1]  |  data = 0, sizeInBytes = 774144  |  location = in SRAM  |  sramOffset = 0x1000fffffd1ca000  |  "
    }
  }
  attr {
    key: "inputTensor:1"
    value {
      s: "hf8-7_42401  |  Sizes = [1,4096,512]  |  hfloat8  |  expBias = 7, scale = 1  |    |  ModelParam = 0  |  strides = [2097152, 2097152, 512, 1]  |  data = 0, sizeInBytes = 2097152  |  isAliased = tensor_31_odule/model/0/k_proj/placeholder/1, type = alias, offset: 0  |  location = in DRAM  |  "
    }
  }
  attr {
    key: "outputTensor:0"
    value {
      s: "tensor_35  |  Sizes = [1,189,512]  |  bf16  |  expBias = 0, scale = 1  |    |  ModelParam = 0  |  strides = [193536, 193536, 1024, 2]  |  data = 0, sizeInBytes = 193536  |  isAliased = tensor_36_id_48056_module/model/0/aten__view, type = alias, offset: 0  |  location = in DRAM  |  "
    }
  }
}
node {
  name: "module/model/0/v_proj/fp8_gemm_bf16/4582_complex/fp8_gemm_hf8_517/batch_gemm_10_bundle_193/op_4_gemm"
  op: "GEMM"
  input: "fusedTPCNode_76_0_bundle_193/op_2"
  input: "module/model/0/v_proj/fp8_gemm_bf16/4582_complex/fp8_gemm_hf8_517/expand_dims_8"
  attr {
    key: "Bundle_idx"
    value {
      s: "193"
    }
  }
  attr {
    key: "Exec_idx"
    value {
      s: "19"
    }
  }
  attr {
    key: "Op_idx"
    value {
      s: "4"
    }
  }
  attr {
    key: "Parameters"
    value {
      s: "transpose_a=false, transpose_b=false"
    }
  }
  attr {
    key: "fp8BiasIn"
    value {
      s: "7"
    }
  }
  attr {
    key: "fp8BiasIn2"
    value {
      s: "15"
    }
  }
  attr {
    key: "fp8BiasOut"
    value {
      s: "11"
    }
  }
  attr {
    key: "inputTensor:0"
    value {
      s: "tensor_30_slice_0_0_0_0_0__0__bundle_193_42851  |  Sizes = [1,189,4096]  |  hfloat8  |  expBias = 7, scale = 1  |    |  ModelParam = 0  |  strides = [774144, 774144, 4096, 1]  |  data = 0, sizeInBytes = 774144  |  location = in SRAM  |  sramOffset = 0x1000fffffd1ca000  |  "
    }
  }
  attr {
    key: "inputTensor:1"
    value {
      s: "hf8-9_42414  |  Sizes = [1,4096,512]  |  hfloat8  |  expBias = 7, scale = 1  |    |  ModelParam = 0  |  strides = [2097152, 2097152, 512, 1]  |  data = 0, sizeInBytes = 2097152  |  isAliased = tensor_56_odule/model/0/v_proj/placeholder/1, type = alias, offset: 0  |  location = in DRAM  |  "
    }
  }
  attr {
    key: "outputTensor:0"
    value {
      s: "tensor_60_c42362  |  Sizes = [1,189,512]  |  hfloat8  |  expBias = 7, scale = 1  |    |  ModelParam = 0  |  strides = [96768, 96768, 512, 1]  |  data = 0, sizeInBytes = 96768  |  isAliased = tensor_61_id_48060_module/model/0/quant_input_0/aten__view_memcpy_42935, type = alias, offset: 0  |  location = in DRAM  |  "
    }
  }
}
node {
  name: "module/model/0/q_proj/fp8_gemm_bf16/4600_complex/fp8_gemm_bf16_519/batch_gemm_8_bundle_193/op_5_gemm"
  op: "GEMM"
  input: "fusedTPCNode_76_0_bundle_193/op_2"
  input: "module/model/0/q_proj/fp8_gemm_bf16/4600_complex/fp8_gemm_bf16_519/expand_dims_6"
  attr {
    key: "Bundle_idx"
    value {
      s: "193"
    }
  }
  attr {
    key: "Exec_idx"
    value {
      s: "20"
    }
  }
  attr {
    key: "Op_idx"
    value {
      s: "5"
    }
  }
  attr {
    key: "Parameters"
    value {
      s: "transpose_a=false, transpose_b=false"
    }
  }
  attr {
    key: "fp8BiasIn"
    value {
      s: "7"
    }
  }
  attr {
    key: "fp8BiasIn2"
    value {
      s: "11"
    }
  }
  attr {
    key: "fp8BiasOut"
    value {
      s: "0"
    }
  }
  attr {
    key: "inputTensor:0"
    value {
      s: "tensor_30_slice_0_0_0_0_0__0__bundle_193_42851  |  Sizes = [1,189,4096]  |  hfloat8  |  expBias = 7, scale = 1  |    |  ModelParam = 0  |  strides = [774144, 774144, 4096, 1]  |  data = 0, sizeInBytes = 774144  |  location = in SRAM  |  sramOffset = 0x1000fffffd1ca000  |  "
    }
  }
  attr {
    key: "inputTensor:1"
    value {
      s: "hf8-7_42420  |  Sizes = [1,4096,2048]  |  hfloat8  |  expBias = 7, scale = 1  |    |  ModelParam = 0  |  strides = [8388608, 8388608, 2048, 1]  |  data = 0, sizeInBytes = 8388608  |  isAliased = tensor_93_odule/model/0/q_proj/placeholder/1, type = alias, offset: 0  |  location = in DRAM  |  "
    }
  }
  attr {
    key: "outputTensor:0"
    value {
      s: "tensor_97  |  Sizes = [1,189,2048]  |  bf16  |  expBias = 0, scale = 1  |    |  ModelParam = 0  |  strides = [774144, 774144, 4096, 2]  |  data = 0, sizeInBytes = 774144  |  isAliased = tensor_98_id_48052_module/model/0/aten__view, type = alias, offset: 0  |  location = in DRAM  |  "
    }
  }
}
node {
  name: "module/model/0/reshape/4574"
  op: "Reshape"
  input: "module/model/0/k_proj/fp8_gemm_bf16/4573_complex/fp8_gemm_bf16_515/batch_gemm_8_bundle_193/op_3_gemm"
  attr {
    key: "Bundle_idx"
    value {
      s: "N/A"
    }
  }
  attr {
    key: "Exec_idx"
    value {
      s: "21"
    }
  }
  attr {
    key: "Op_idx"
    value {
      s: "N/A"
    }
  }
  attr {
    key: "inputTensor:0"
    value {
      s: "tensor_35  |  Sizes = [1,189,512]  |  bf16  |  expBias = 0, scale = 1  |    |  ModelParam = 0  |  strides = [193536, 193536, 1024, 2]  |  data = 0, sizeInBytes = 193536  |  isAliased = tensor_36_id_48056_module/model/0/aten__view, type = alias, offset: 0  |  location = in DRAM  |  "
    }
  }
  attr {
    key: "outputTensor:0"
    value {
      s: "tensor_36_id_48056_module/model/0/aten__view  |  Sizes = [1,189,4,128]  |  bf16  |  expBias = 0, scale = 1  |    |  ModelParam = 0  |  strides = [193536, 193536, 1024, 256, 2]  |  data = 0, sizeInBytes = 193536  |  location = in DRAM  |  dramOffset = 0x1b0000000000  |  "
    }
  }
}
node {
  name: "module/model/0/transpose/4575_transpose_via_logical"
  op: "LogicalTranspose"
  input: "module/model/0/reshape/4574"
  attr {
    key: "Bundle_idx"
    value {
      s: "N/A"
    }
  }
  attr {
    key: "Exec_idx"
    value {
      s: "22"
    }
  }
  attr {
    key: "Op_idx"
    value {
      s: "N/A"
    }
  }
  attr {
    key: "Parameters"
    value {
      s: "permutation: (0,2,1,3)"
    }
  }
  attr {
    key: "inputTensor:0"
    value {
      s: "tensor_36_id_48056_module/model/0/aten__view  |  Sizes = [1,189,4,128]  |  bf16  |  expBias = 0, scale = 1  |    |  ModelParam = 0  |  strides = [193536, 193536, 1024, 256, 2]  |  data = 0, sizeInBytes = 193536  |  location = in DRAM  |  dramOffset = 0x1b0000000000  |  "
    }
  }
  attr {
    key: "outputTensor:0"
    value {
      s: "tensor_37_id_48058_module/model/0/aten__transpose  |  Sizes = [1,4,189,128]  |  bf16  |  expBias = 0, scale = 1  |    |  ModelParam = 0  |  strides = [193536, 193536, 256, 1024, 2]  |  data = 0, sizeInBytes = 193536  |  isAliased = tensor_36_id_48056_module/model/0/aten__view, type = alias, offset: 0  |  location = in DRAM  |  isSparseLayout  |  "
    }
  }
}
node {
  name: "module/model/0/rotary_pos_embedding_fwd_bf16/4576_complex/rotary_pos_embedding_fwd_bf16_64/rope_st2_fwd_bf16_16"
  op: "rope_st2_fwd_bf16"
  input: "module/model/0/transpose/4575_transpose_via_logical"
  input: "module/model/0/rotary_pos_embedding_fwd_bf16/4576_complex/rotary_pos_embedding_fwd_bf16_64/expand_dims_12"
  input: "module/model/0/rotary_pos_embedding_fwd_bf16/4576_complex/rotary_pos_embedding_fwd_bf16_64/expand_dims_14"
  attr {
    key: "Bundle_idx"
    value {
      s: "N/A"
    }
  }
  attr {
    key: "Exec_idx"
    value {
      s: "23"
    }
  }
  attr {
    key: "Op_idx"
    value {
      s: "N/A"
    }
  }
  attr {
    key: "inputTensor:0"
    value {
      s: "tensor_37_id_48058_module/model/0/aten__transpose  |  Sizes = [1,4,189,128]  |  bf16  |  expBias = 0, scale = 1  |    |  ModelParam = 0  |  strides = [193536, 193536, 256, 1024, 2]  |  data = 0, sizeInBytes = 193536  |  isAliased = tensor_36_id_48056_module/model/0/aten__view, type = alias, offset: 0  |  location = in DRAM  |  isSparseLayout  |  "
    }
  }
  attr {
    key: "inputTensor:1"
    value {
      s: "bf16-13_42408  |  Sizes = [1,189,128]  |  bf16  |  expBias = 0, scale = 1  |    |  ModelParam = 0  |  strides = [48384, 48384, 256, 2]  |  data = 0, sizeInBytes = 48384  |  location = in DRAM  |  dramOffset = 0x130000000000  |  "
    }
  }
  attr {
    key: "inputTensor:2"
    value {
      s: "bf16-15_42409  |  Sizes = [1,189,128]  |  bf16  |  expBias = 0, scale = 1  |    |  ModelParam = 0  |  strides = [48384, 48384, 256, 2]  |  data = 0, sizeInBytes = 48384  |  location = in DRAM  |  dramOffset = 0x13000000bd00  |  "
    }
  }
  attr {
    key: "outputTensor:0"
    value {
      s: "tensor_39  |  Sizes = [1,4,189,128]  |  bf16  |  expBias = 0, scale = 1  |    |  ModelParam = 0  |  strides = [193536, 193536, 48384, 256, 2]  |  data = 0, sizeInBytes = 193536  |  location = in DRAM  |  dramOffset = 0x3000000bd000  |  "
    }
  }
}
node {
  name: "module/model/0/quant_input_0/reshape/4583"
  op: "Reshape"
  input: "module/model/0/v_proj/fp8_gemm_bf16/4582_complex/fp8_gemm_hf8_517/batch_gemm_10_bundle_193/op_4_gemm"
  attr {
    key: "Bundle_idx"
    value {
      s: "N/A"
    }
  }
  attr {
    key: "Exec_idx"
    value {
      s: "24"
    }
  }
  attr {
    key: "Op_idx"
    value {
      s: "N/A"
    }
  }
  attr {
    key: "inputTensor:0"
    value {
      s: "tensor_60_c42362  |  Sizes = [1,189,512]  |  hfloat8  |  expBias = 7, scale = 1  |    |  ModelParam = 0  |  strides = [96768, 96768, 512, 1]  |  data = 0, sizeInBytes = 96768  |  isAliased = tensor_61_id_48060_module/model/0/quant_input_0/aten__view_memcpy_42935, type = alias, offset: 0  |  location = in DRAM  |  "
    }
  }
  attr {
    key: "outputTensor:0"
    value {
      s: "tensor_61_id_48060_module/model/0/quant_input_0/aten__view_memcpy_42935  |  Sizes = [1,189,4,128]  |  hfloat8  |  expBias = 7, scale = 1  |    |  ModelParam = 0  |  strides = [96768, 96768, 512, 128, 1]  |  data = 0, sizeInBytes = 96768  |  location = in DRAM  |  dramOffset = 0x12000000bd00  |  "
    }
  }
}
node {
  name: "tensor_61_id_48060_module/model/0/quant_input_0/aten__view_memcpy_42935_internal"
  op: "DmaMemcpy"
  input: "module/model/0/quant_input_0/reshape/4583"
  attr {
    key: "Bundle_idx"
    value {
      s: "N/A"
    }
  }
  attr {
    key: "Exec_idx"
    value {
      s: "25"
    }
  }
  attr {
    key: "Op_idx"
    value {
      s: "N/A"
    }
  }
  attr {
    key: "inputTensor:0"
    value {
      s: "tensor_61_id_48060_module/model/0/quant_input_0/aten__view_memcpy_42935  |  Sizes = [1,189,4,128]  |  hfloat8  |  expBias = 7, scale = 1  |    |  ModelParam = 0  |  strides = [96768, 96768, 512, 128, 1]  |  data = 0, sizeInBytes = 96768  |  location = in DRAM  |  dramOffset = 0x12000000bd00  |  "
    }
  }
  attr {
    key: "outputTensor:0"
    value {
      s: "tensor_61_id_48060_module/model/0/quant_input_0/aten__view  |  Sizes = [1,189,4,128]  |  hfloat8  |  expBias = 7, scale = 1  |    |  ModelParam = 0  |  strides = [96768, 96768, 128, 24192, 1]  |  data = 0, sizeInBytes = 96768  |  isAliased = tensor_67, type = alias, offset: 0  |  location = in DRAM  |  isSparseLayout  |  "
    }
  }
}
node {
  name: "module/model/0/quant_input_0/transpose/4584_transpose_via_logical"
  op: "LogicalTranspose"
  input: "tensor_61_id_48060_module/model/0/quant_input_0/aten__view_memcpy_42935_internal"
  attr {
    key: "Bundle_idx"
    value {
      s: "N/A"
    }
  }
  attr {
    key: "Exec_idx"
    value {
      s: "26"
    }
  }
  attr {
    key: "Op_idx"
    value {
      s: "N/A"
    }
  }
  attr {
    key: "Parameters"
    value {
      s: "permutation: (0,2,1,3)"
    }
  }
  attr {
    key: "inputTensor:0"
    value {
      s: "tensor_61_id_48060_module/model/0/quant_input_0/aten__view  |  Sizes = [1,189,4,128]  |  hfloat8  |  expBias = 7, scale = 1  |    |  ModelParam = 0  |  strides = [96768, 96768, 128, 24192, 1]  |  data = 0, sizeInBytes = 96768  |  isAliased = tensor_67, type = alias, offset: 0  |  location = in DRAM  |  isSparseLayout  |  "
    }
  }
  attr {
    key: "outputTensor:0"
    value {
      s: "tensor_67  |  Sizes = [1,4,189,128]  |  hfloat8  |  expBias = 7, scale = 1  |    |  ModelParam = 0  |  strides = [96768, 96768, 24192, 128, 1]  |  data = 0, sizeInBytes = 96768  |  isPersistent  |  location = in DRAM  |  dramOffset = 0x130000000000  |  userMemorySection(type=Persistent, id=19)  |  "
    }
  }
}
node {
  name: "module/model/0/reshape/4601"
  op: "Reshape"
  input: "module/model/0/q_proj/fp8_gemm_bf16/4600_complex/fp8_gemm_bf16_519/batch_gemm_8_bundle_193/op_5_gemm"
  attr {
    key: "Bundle_idx"
    value {
      s: "N/A"
    }
  }
  attr {
    key: "Exec_idx"
    value {
      s: "27"
    }
  }
  attr {
    key: "Op_idx"
    value {
      s: "N/A"
    }
  }
  attr {
    key: "inputTensor:0"
    value {
      s: "tensor_97  |  Sizes = [1,189,2048]  |  bf16  |  expBias = 0, scale = 1  |    |  ModelParam = 0  |  strides = [774144, 774144, 4096, 2]  |  data = 0, sizeInBytes = 774144  |  isAliased = tensor_98_id_48052_module/model/0/aten__view, type = alias, offset: 0  |  location = in DRAM  |  "
    }
  }
  attr {
    key: "outputTensor:0"
    value {
      s: "tensor_98_id_48052_module/model/0/aten__view  |  Sizes = [1,189,16,128]  |  bf16  |  expBias = 0, scale = 1  |    |  ModelParam = 0  |  strides = [774144, 774144, 4096, 256, 2]  |  data = 0, sizeInBytes = 774144  |  location = in DRAM  |  dramOffset = 0x300000000000  |  "
    }
  }
}
node {
  name: "module/model/0/transpose/4602_transpose_via_logical"
  op: "LogicalTranspose"
  input: "module/model/0/reshape/4601"
  attr {
    key: "Bundle_idx"
    value {
      s: "N/A"
    }
  }
  attr {
    key: "Exec_idx"
    value {
      s: "28"
    }
  }
  attr {
    key: "Op_idx"
    value {
      s: "N/A"
    }
  }
  attr {
    key: "Parameters"
    value {
      s: "permutation: (0,2,1,3)"
    }
  }
  attr {
    key: "inputTensor:0"
    value {
      s: "tensor_98_id_48052_module/model/0/aten__view  |  Sizes = [1,189,16,128]  |  bf16  |  expBias = 0, scale = 1  |    |  ModelParam = 0  |  strides = [774144, 774144, 4096, 256, 2]  |  data = 0, sizeInBytes = 774144  |  location = in DRAM  |  dramOffset = 0x300000000000  |  "
    }
  }
  attr {
    key: "outputTensor:0"
    value {
      s: "tensor_99_id_48054_module/model/0/aten__transpose  |  Sizes = [1,16,189,128]  |  bf16  |  expBias = 0, scale = 1  |    |  ModelParam = 0  |  strides = [774144, 774144, 256, 4096, 2]  |  data = 0, sizeInBytes = 774144  |  isAliased = tensor_98_id_48052_module/model/0/aten__view, type = alias, offset: 0  |  location = in DRAM  |  isSparseLayout  |  "
    }
  }
}
node {
  name: "module/model/0/rotary_pos_embedding_fwd_bf16/4603_complex/rotary_pos_embedding_fwd_bf16_65/gather_nd_mxnet_fwd_bf16_8"
  op: "gather_nd_mxnet_fwd_bf16"
  input: "module/model/0/rotary_emb/mult_fwd_bf16/4567_complex/mult_fwd_bf16_0"
  input: "module/model/0/expand_dims/4558"
  attr {
    key: "Bundle_idx"
    value {
      s: "N/A"
    }
  }
  attr {
    key: "Exec_idx"
    value {
      s: "29"
    }
  }
  attr {
    key: "Op_idx"
    value {
      s: "N/A"
    }
  }
  attr {
    key: "inputTensor:0"
    value {
      s: "tensor_16_id_48070_module/model/0/rotary_emb/aten__mul  |  Sizes = [189,128]  |  bf16  |  expBias = 0, scale = 1  |    |  ModelParam = 0  |  strides = [48384, 256, 2]  |  data = 0, sizeInBytes = 48384  |  location = in DRAM  |  dramOffset = 0x120000000000  |  "
    }
  }
  attr {
    key: "inputTensor:1"
    value {
      s: "tensor_5_id_48006_module/model/0/aten__unsqueeze/1  |  Sizes = [1,189]  |  int32  |  expBias = 0, scale = 1  |    |  ModelParam = 0  |  strides = [756, 756, 4]  |  data = 0, sizeInBytes = 756  |  isAliased = tensor_4_odule/model/0/placeholder/0, type = alias, offset: 0  |  location = in DRAM  |  "
    }
  }
  attr {
    key: "outputTensor:0"
    value {
      s: "bf16-9_42425  |  Sizes = [189,128]  |  bf16  |  expBias = 0, scale = 1  |    |  ModelParam = 0  |  strides = [48384, 256, 2]  |  data = 0, sizeInBytes = 48384  |  isAliased = bf16-13_42427, type = alias, offset: 0  |  location = in DRAM  |  "
    }
  }
}
node {
  name: "module/model/0/rotary_pos_embedding_fwd_bf16/4603_complex/rotary_pos_embedding_fwd_bf16_65/gather_nd_mxnet_fwd_bf16_10"
  op: "gather_nd_mxnet_fwd_bf16"
  input: "module/model/0/rotary_emb/mult_fwd_bf16/4561_complex/mult_fwd_bf16_0"
  input: "module/model/0/expand_dims/4558"
  attr {
    key: "Bundle_idx"
    value {
      s: "N/A"
    }
  }
  attr {
    key: "Exec_idx"
    value {
      s: "30"
    }
  }
  attr {
    key: "Op_idx"
    value {
      s: "N/A"
    }
  }
  attr {
    key: "inputTensor:0"
    value {
      s: "tensor_9_id_48066_module/model/0/rotary_emb/aten__mul  |  Sizes = [189,128]  |  bf16  |  expBias = 0, scale = 1  |    |  ModelParam = 0  |  strides = [48384, 256, 2]  |  data = 0, sizeInBytes = 48384  |  location = in DRAM  |  dramOffset = 0x40000000080  |  "
    }
  }
  attr {
    key: "inputTensor:1"
    value {
      s: "tensor_5_id_48006_module/model/0/aten__unsqueeze/1  |  Sizes = [1,189]  |  int32  |  expBias = 0, scale = 1  |    |  ModelParam = 0  |  strides = [756, 756, 4]  |  data = 0, sizeInBytes = 756  |  isAliased = tensor_4_odule/model/0/placeholder/0, type = alias, offset: 0  |  location = in DRAM  |  "
    }
  }
  attr {
    key: "outputTensor:0"
    value {
      s: "bf16-11_42426  |  Sizes = [189,128]  |  bf16  |  expBias = 0, scale = 1  |    |  ModelParam = 0  |  strides = [48384, 256, 2]  |  data = 0, sizeInBytes = 48384  |  isAliased = bf16-15_42428, type = alias, offset: 0  |  location = in DRAM  |  "
    }
  }
}
node {
  name: "module/model/0/rotary_pos_embedding_fwd_bf16/4603_complex/rotary_pos_embedding_fwd_bf16_65/expand_dims_12"
  op: "ExpandDims"
  input: "module/model/0/rotary_pos_embedding_fwd_bf16/4603_complex/rotary_pos_embedding_fwd_bf16_65/gather_nd_mxnet_fwd_bf16_8"
  attr {
    key: "Bundle_idx"
    value {
      s: "N/A"
    }
  }
  attr {
    key: "Exec_idx"
    value {
      s: "31"
    }
  }
  attr {
    key: "Op_idx"
    value {
      s: "N/A"
    }
  }
  attr {
    key: "inputTensor:0"
    value {
      s: "bf16-9_42425  |  Sizes = [189,128]  |  bf16  |  expBias = 0, scale = 1  |    |  ModelParam = 0  |  strides = [48384, 256, 2]  |  data = 0, sizeInBytes = 48384  |  isAliased = bf16-13_42427, type = alias, offset: 0  |  location = in DRAM  |  "
    }
  }
  attr {
    key: "outputTensor:0"
    value {
      s: "bf16-13_42427  |  Sizes = [1,189,128]  |  bf16  |  expBias = 0, scale = 1  |    |  ModelParam = 0  |  strides = [48384, 48384, 256, 2]  |  data = 0, sizeInBytes = 48384  |  location = in DRAM  |  dramOffset = 0x3000000ec400  |  "
    }
  }
}
node {
  name: "module/model/0/rotary_pos_embedding_fwd_bf16/4603_complex/rotary_pos_embedding_fwd_bf16_65/expand_dims_14"
  op: "ExpandDims"
  input: "module/model/0/rotary_pos_embedding_fwd_bf16/4603_complex/rotary_pos_embedding_fwd_bf16_65/gather_nd_mxnet_fwd_bf16_10"
  attr {
    key: "Bundle_idx"
    value {
      s: "N/A"
    }
  }
  attr {
    key: "Exec_idx"
    value {
      s: "32"
    }
  }
  attr {
    key: "Op_idx"
    value {
      s: "N/A"
    }
  }
  attr {
    key: "inputTensor:0"
    value {
      s: "bf16-11_42426  |  Sizes = [189,128]  |  bf16  |  expBias = 0, scale = 1  |    |  ModelParam = 0  |  strides = [48384, 256, 2]  |  data = 0, sizeInBytes = 48384  |  isAliased = bf16-15_42428, type = alias, offset: 0  |  location = in DRAM  |  "
    }
  }
  attr {
    key: "outputTensor:0"
    value {
      s: "bf16-15_42428  |  Sizes = [1,189,128]  |  bf16  |  expBias = 0, scale = 1  |    |  ModelParam = 0  |  strides = [48384, 48384, 256, 2]  |  data = 0, sizeInBytes = 48384  |  location = in DRAM  |  dramOffset = 0x3000000f8100  |  "
    }
  }
}
node {
  name: "tensor_99_id_48054_module/model/0/aten__transpose_bundle_194/split_internal/0"
  op: "Split"
  input: "module/model/0/transpose/4602_transpose_via_logical"
  attr {
    key: "Bundle_idx"
    value {
      s: "194"
    }
  }
  attr {
    key: "Exec_idx"
    value {
      s: "33"
    }
  }
  attr {
    key: "Op_idx"
    value {
      s: "0"
    }
  }
  attr {
    key: "inputTensor:0"
    value {
      s: "tensor_99_id_48054_module/model/0/aten__transpose  |  Sizes = [1,16,189,128]  |  bf16  |  expBias = 0, scale = 1  |    |  ModelParam = 0  |  strides = [774144, 774144, 256, 4096, 2]  |  data = 0, sizeInBytes = 774144  |  isAliased = tensor_98_id_48052_module/model/0/aten__view, type = alias, offset: 0  |  location = in DRAM  |  isSparseLayout  |  "
    }
  }
  attr {
    key: "outputTensor:0"
    value {
      s: "tensor_99_id_48054_module/model/0/aten__transpose_slice_0_0_0_0_0__0__bundle_194_42863  |  Sizes = [1,4,189,128]  |  bf16  |  expBias = 0, scale = 1  |    |  ModelParam = 0  |  strides = [774144, 774144, 256, 4096, 2]  |  data = 0, sizeInBytes = 193536  |  isAliased = tensor_99_id_48054_module/model/0/aten__transpose, type = concat, offset: 0  |  location = in DRAM  |  isSparseLayout  |  "
    }
  }
  attr {
    key: "outputTensor:1"
    value {
      s: "tensor_99_id_48054_module/model/0/aten__transpose_slice_0_0_1_0_0__0__bundle_194_42874  |  Sizes = [1,4,189,128]  |  bf16  |  expBias = 0, scale = 1  |    |  ModelParam = 0  |  strides = [774144, 774144, 256, 4096, 2]  |  data = 0, sizeInBytes = 193536  |  isAliased = tensor_99_id_48054_module/model/0/aten__transpose, type = concat, offset: 1024  |  location = in DRAM  |  isSparseLayout  |  "
    }
  }
  attr {
    key: "outputTensor:2"
    value {
      s: "tensor_99_id_48054_module/model/0/aten__transpose_slice_0_0_2_0_0__0__bundle_194_42884  |  Sizes = [1,4,189,128]  |  bf16  |  expBias = 0, scale = 1  |    |  ModelParam = 0  |  strides = [774144, 774144, 256, 4096, 2]  |  data = 0, sizeInBytes = 193536  |  isAliased = tensor_99_id_48054_module/model/0/aten__transpose, type = concat, offset: 2048  |  location = in DRAM  |  isSparseLayout  |  "
    }
  }
  attr {
    key: "outputTensor:3"
    value {
      s: "tensor_99_id_48054_module/model/0/aten__transpose_slice_0_0_3_0_0__0__bundle_194_42894  |  Sizes = [1,4,189,128]  |  bf16  |  expBias = 0, scale = 1  |    |  ModelParam = 0  |  strides = [774144, 774144, 256, 4096, 2]  |  data = 0, sizeInBytes = 193536  |  isAliased = tensor_99_id_48054_module/model/0/aten__transpose, type = concat, offset: 3072  |  location = in DRAM  |  isSparseLayout  |  "
    }
  }
}
node {
  name: "tensor_39_bundle_194/split_internal/0"
  op: "Split"
  input: "module/model/0/rotary_pos_embedding_fwd_bf16/4576_complex/rotary_pos_embedding_fwd_bf16_64/rope_st2_fwd_bf16_16"
  attr {
    key: "Bundle_idx"
    value {
      s: "194"
    }
  }
  attr {
    key: "Exec_idx"
    value {
      s: "34"
    }
  }
  attr {
    key: "Op_idx"
    value {
      s: "1"
    }
  }
  attr {
    key: "inputTensor:0"
    value {
      s: "tensor_39  |  Sizes = [1,4,189,128]  |  bf16  |  expBias = 0, scale = 1  |    |  ModelParam = 0  |  strides = [193536, 193536, 48384, 256, 2]  |  data = 0, sizeInBytes = 193536  |  location = in DRAM  |  dramOffset = 0x3000000bd000  |  "
    }
  }
  attr {
    key: "outputTensor:0"
    value {
      s: "tensor_39_slice_0_0_0_0_0__0__bundle_194_42858  |  Sizes = [1,1,189,128]  |  bf16  |  expBias = 0, scale = 1  |    |  ModelParam = 0  |  strides = [193536, 193536, 48384, 256, 2]  |  data = 0, sizeInBytes = 48384  |  isAliased = tensor_39, type = concat, offset: 0  |  location = in DRAM  |  "
    }
  }
  attr {
    key: "outputTensor:1"
    value {
      s: "tensor_39_slice_0_0_1_0_0__0__bundle_194_42869  |  Sizes = [1,1,189,128]  |  bf16  |  expBias = 0, scale = 1  |    |  ModelParam = 0  |  strides = [193536, 193536, 48384, 256, 2]  |  data = 0, sizeInBytes = 48384  |  isAliased = tensor_39, type = concat, offset: 48384  |  location = in DRAM  |  "
    }
  }
  attr {
    key: "outputTensor:2"
    value {
      s: "tensor_39_slice_0_0_2_0_0__0__bundle_194_42879  |  Sizes = [1,1,189,128]  |  bf16  |  expBias = 0, scale = 1  |    |  ModelParam = 0  |  strides = [193536, 193536, 48384, 256, 2]  |  data = 0, sizeInBytes = 48384  |  isAliased = tensor_39, type = concat, offset: 96768  |  location = in DRAM  |  "
    }
  }
  attr {
    key: "outputTensor:3"
    value {
      s: "tensor_39_slice_0_0_3_0_0__0__bundle_194_42889  |  Sizes = [1,1,189,128]  |  bf16  |  expBias = 0, scale = 1  |    |  ModelParam = 0  |  strides = [193536, 193536, 48384, 256, 2]  |  data = 0, sizeInBytes = 48384  |  isAliased = tensor_39, type = concat, offset: 145152  |  location = in DRAM  |  "
    }
  }
}
node {
  name: "module/model/0/rotary_pos_embedding_fwd_bf16/4603_complex/rotary_pos_embedding_fwd_bf16_65/rope_st2_fwd_bf16_16_bundle_194/op_2"
  op: "rope_st2_fwd_bf16"
  input: "tensor_99_id_48054_module/model/0/aten__transpose_bundle_194/split_internal/0"
  input: "module/model/0/rotary_pos_embedding_fwd_bf16/4603_complex/rotary_pos_embedding_fwd_bf16_65/expand_dims_12"
  input: "module/model/0/rotary_pos_embedding_fwd_bf16/4603_complex/rotary_pos_embedding_fwd_bf16_65/expand_dims_14"
  attr {
    key: "Bundle_idx"
    value {
      s: "194"
    }
  }
  attr {
    key: "Exec_idx"
    value {
      s: "35"
    }
  }
  attr {
    key: "Op_idx"
    value {
      s: "2"
    }
  }
  attr {
    key: "inputTensor:0"
    value {
      s: "tensor_99_id_48054_module/model/0/aten__transpose_slice_0_0_0_0_0__0__bundle_194_42863  |  Sizes = [1,4,189,128]  |  bf16  |  expBias = 0, scale = 1  |    |  ModelParam = 0  |  strides = [774144, 774144, 256, 4096, 2]  |  data = 0, sizeInBytes = 193536  |  isAliased = tensor_99_id_48054_module/model/0/aten__transpose, type = concat, offset: 0  |  location = in DRAM  |  isSparseLayout  |  "
    }
  }
  attr {
    key: "inputTensor:1"
    value {
      s: "bf16-13_42427  |  Sizes = [1,189,128]  |  bf16  |  expBias = 0, scale = 1  |    |  ModelParam = 0  |  strides = [48384, 48384, 256, 2]  |  data = 0, sizeInBytes = 48384  |  location = in DRAM  |  dramOffset = 0x3000000ec400  |  "
    }
  }
  attr {
    key: "inputTensor:2"
    value {
      s: "bf16-15_42428  |  Sizes = [1,189,128]  |  bf16  |  expBias = 0, scale = 1  |    |  ModelParam = 0  |  strides = [48384, 48384, 256, 2]  |  data = 0, sizeInBytes = 48384  |  location = in DRAM  |  dramOffset = 0x3000000f8100  |  "
    }
  }
  attr {
    key: "outputTensor:0"
    value {
      s: "tensor_101_slice_0_0_0_0_0__0__bundle_194_42866  |  Sizes = [1,4,189,128]  |  bf16  |  expBias = 0, scale = 1  |    |  ModelParam = 0  |  strides = [193536, 193536, 48384, 256, 2]  |  data = 0, sizeInBytes = 193536  |  location = in SRAM  |  sramOffset = 0x1000fffffd287000  |  "
    }
  }
}
node {
  name: "module/model/0/rotary_pos_embedding_fwd_bf16/4603_complex/rotary_pos_embedding_fwd_bf16_65/rope_st2_fwd_bf16_16_bundle_194/op_7"
  op: "rope_st2_fwd_bf16"
  input: "tensor_99_id_48054_module/model/0/aten__transpose_bundle_194/split_internal/0"
  input: "module/model/0/rotary_pos_embedding_fwd_bf16/4603_complex/rotary_pos_embedding_fwd_bf16_65/expand_dims_12"
  input: "module/model/0/rotary_pos_embedding_fwd_bf16/4603_complex/rotary_pos_embedding_fwd_bf16_65/expand_dims_14"
  attr {
    key: "Bundle_idx"
    value {
      s: "194"
    }
  }
  attr {
    key: "Exec_idx"
    value {
      s: "36"
    }
  }
  attr {
    key: "Op_idx"
    value {
      s: "3"
    }
  }
  attr {
    key: "inputTensor:0"
    value {
      s: "tensor_99_id_48054_module/model/0/aten__transpose_slice_0_0_1_0_0__0__bundle_194_42874  |  Sizes = [1,4,189,128]  |  bf16  |  expBias = 0, scale = 1  |    |  ModelParam = 0  |  strides = [774144, 774144, 256, 4096, 2]  |  data = 0, sizeInBytes = 193536  |  isAliased = tensor_99_id_48054_module/model/0/aten__transpose, type = concat, offset: 1024  |  location = in DRAM  |  isSparseLayout  |  "
    }
  }
  attr {
    key: "inputTensor:1"
    value {
      s: "bf16-13_42427  |  Sizes = [1,189,128]  |  bf16  |  expBias = 0, scale = 1  |    |  ModelParam = 0  |  strides = [48384, 48384, 256, 2]  |  data = 0, sizeInBytes = 48384  |  location = in DRAM  |  dramOffset = 0x3000000ec400  |  "
    }
  }
  attr {
    key: "inputTensor:2"
    value {
      s: "bf16-15_42428  |  Sizes = [1,189,128]  |  bf16  |  expBias = 0, scale = 1  |    |  ModelParam = 0  |  strides = [48384, 48384, 256, 2]  |  data = 0, sizeInBytes = 48384  |  location = in DRAM  |  dramOffset = 0x3000000f8100  |  "
    }
  }
  attr {
    key: "outputTensor:0"
    value {
      s: "tensor_101_slice_0_0_1_0_0__0__bundle_194_42875  |  Sizes = [1,4,189,128]  |  bf16  |  expBias = 0, scale = 1  |    |  ModelParam = 0  |  strides = [193536, 193536, 48384, 256, 2]  |  data = 0, sizeInBytes = 193536  |  location = in SRAM  |  sramOffset = 0x1000fffffd2b6400  |  "
    }
  }
}
node {
  name: "fusedTPCNode_76_1_bundle_194/op_0"
  op: "fused_kernel_0xC8F2E7E1_CF_bf16"
  input: "tensor_39_bundle_194/split_internal/0"
  attr {
    key: "Bundle_idx"
    value {
      s: "194"
    }
  }
  attr {
    key: "Exec_idx"
    value {
      s: "37"
    }
  }
  attr {
    key: "Op_idx"
    value {
      s: "4"
    }
  }
  attr {
    key: "inputTensor:0"
    value {
      s: "tensor_39_slice_0_0_0_0_0__0__bundle_194_42858  |  Sizes = [1,1,189,128]  |  bf16  |  expBias = 0, scale = 1  |    |  ModelParam = 0  |  strides = [193536, 193536, 48384, 256, 2]  |  data = 0, sizeInBytes = 48384  |  isAliased = tensor_39, type = concat, offset: 0  |  location = in DRAM  |  "
    }
  }
  attr {
    key: "outputTensor:0"
    value {
      s: "tensor_44_slice_0_0_0_0_0__0__bundle_194_42859  |  Sizes = [1,1,189,128]  |  hfloat8  |  expBias = 7, scale = 1  |    |  ModelParam = 0  |  strides = [96768, 96768, 24192, 128, 1]  |  data = 0, sizeInBytes = 24192  |  isAliased = tensor_44, type = concat, offset: 0  |  location = in DRAM  |  "
    }
  }
  attr {
    key: "outputTensor:1"
    value {
      s: "tensor_47_slice_0_0_0_0_0__0__bundle_194_42860  |  Sizes = [1,1,189,128]  |  bf16  |  expBias = 0, scale = 1  |    |  ModelParam = 0  |  strides = [193536, 193536, 48384, 256, 2]  |  data = 0, sizeInBytes = 48384  |  isAliased = tensor_47, type = concat, offset: 0  |  location = in DRAM  |  "
    }
  }
  attr {
    key: "outputTensor:2"
    value {
      s: "tensor-42617_slice_0_0_0_0_0__0__bundle_194_42861  |  Sizes = [1,1,189,128]  |  hfloat8  |  expBias = 7, scale = 1  |    |  ModelParam = 0  |  strides = [24192, 24192, 24192, 128, 1]  |  data = 0, sizeInBytes = 24192  |  isAliased = tensor_87_id_48169_module/model/0/fused_scaled_dot_product_attention/aten__view_slice_0_0_0_0_0__0__bundle_194_42862, type = alias, offset: 0  |  location = in SRAM  |  sramOffset = 0x1000fffffd2e5800  |  "
    }
  }
}
node {
  name: "reshape_5_5_bundle_194/op_1"
  op: "Reshape"
  input: "fusedTPCNode_76_1_bundle_194/op_0"
  attr {
    key: "Bundle_idx"
    value {
      s: "194"
    }
  }
  attr {
    key: "Exec_idx"
    value {
      s: "38"
    }
  }
  attr {
    key: "Op_idx"
    value {
      s: "5"
    }
  }
  attr {
    key: "inputTensor:0"
    value {
      s: "tensor-42617_slice_0_0_0_0_0__0__bundle_194_42861  |  Sizes = [1,1,189,128]  |  hfloat8  |  expBias = 7, scale = 1  |    |  ModelParam = 0  |  strides = [24192, 24192, 24192, 128, 1]  |  data = 0, sizeInBytes = 24192  |  isAliased = tensor_87_id_48169_module/model/0/fused_scaled_dot_product_attention/aten__view_slice_0_0_0_0_0__0__bundle_194_42862, type = alias, offset: 0  |  location = in SRAM  |  sramOffset = 0x1000fffffd2e5800  |  "
    }
  }
  attr {
    key: "outputTensor:0"
    value {
      s: "tensor_87_id_48169_module/model/0/fused_scaled_dot_product_attention/aten__view_slice_0_0_0_0_0__0__bundle_194_42862  |  Sizes = [1,1,1,189,128]  |  hfloat8  |  expBias = 7, scale = 1  |    |  ModelParam = 0  |  strides = [24192, 24192, 24192, 24192, 128, 1]  |  data = 0, sizeInBytes = 24192  |  location = in SRAM  |  sramOffset = 0x1000fffffd2e5800  |  "
    }
  }
}
node {
  name: "fusedTPCNode_76_3_bundle_194/op_3"
  op: "fused_kernel_0x95D407AC_D1_hf8"
  input: "module/model/0/rotary_pos_embedding_fwd_bf16/4603_complex/rotary_pos_embedding_fwd_bf16_65/rope_st2_fwd_bf16_16_bundle_194/op_2"
  attr {
    key: "Bundle_idx"
    value {
      s: "194"
    }
  }
  attr {
    key: "Exec_idx"
    value {
      s: "39"
    }
  }
  attr {
    key: "Op_idx"
    value {
      s: "6"
    }
  }
  attr {
    key: "inputTensor:0"
    value {
      s: "tensor_101_slice_0_0_0_0_0__0__bundle_194_42866  |  Sizes = [1,4,189,128]  |  bf16  |  expBias = 0, scale = 1  |    |  ModelParam = 0  |  strides = [193536, 193536, 48384, 256, 2]  |  data = 0, sizeInBytes = 193536  |  location = in SRAM  |  sramOffset = 0x1000fffffd287000  |  "
    }
  }
  attr {
    key: "outputTensor:0"
    value {
      s: "tensor-42619_slice_0_0_0_0_0__0__bundle_194_42867  |  Sizes = [1,4,189,128]  |  hfloat8  |  expBias = 7, scale = 1  |    |  ModelParam = 0  |  strides = [96768, 96768, 24192, 128, 1]  |  data = 0, sizeInBytes = 96768  |  isAliased = tensor_106_id_48167_module/model/0/fused_scaled_dot_product_attention/aten__view_slice_0_0_0_0_0__0__bundle_194_42868, type = alias, offset: 0  |  location = in SRAM  |  sramOffset = 0x1000fffffd2f1500  |  "
    }
  }
}
node {
  name: "reshape_11_11_bundle_194/op_4"
  op: "Reshape"
  input: "fusedTPCNode_76_3_bundle_194/op_3"
  attr {
    key: "Bundle_idx"
    value {
      s: "194"
    }
  }
  attr {
    key: "Exec_idx"
    value {
      s: "40"
    }
  }
  attr {
    key: "Op_idx"
    value {
      s: "7"
    }
  }
  attr {
    key: "inputTensor:0"
    value {
      s: "tensor-42619_slice_0_0_0_0_0__0__bundle_194_42867  |  Sizes = [1,4,189,128]  |  hfloat8  |  expBias = 7, scale = 1  |    |  ModelParam = 0  |  strides = [96768, 96768, 24192, 128, 1]  |  data = 0, sizeInBytes = 96768  |  isAliased = tensor_106_id_48167_module/model/0/fused_scaled_dot_product_attention/aten__view_slice_0_0_0_0_0__0__bundle_194_42868, type = alias, offset: 0  |  location = in SRAM  |  sramOffset = 0x1000fffffd2f1500  |  "
    }
  }
  attr {
    key: "outputTensor:0"
    value {
      s: "tensor_106_id_48167_module/model/0/fused_scaled_dot_product_attention/aten__view_slice_0_0_0_0_0__0__bundle_194_42868  |  Sizes = [1,1,4,189,128]  |  hfloat8  |  expBias = 7, scale = 1  |    |  ModelParam = 0  |  strides = [96768, 96768, 96768, 24192, 128, 1]  |  data = 0, sizeInBytes = 96768  |  location = in SRAM  |  sramOffset = 0x1000fffffd2f1500  |  "
    }
  }
}
node {
  name: "fusedTPCNode_76_1_bundle_194/op_5"
  op: "fused_kernel_0xC8F2E7E1_CF_bf16"
  input: "tensor_39_bundle_194/split_internal/0"
  attr {
    key: "Bundle_idx"
    value {
      s: "194"
    }
  }
  attr {
    key: "Exec_idx"
    value {
      s: "41"
    }
  }
  attr {
    key: "Op_idx"
    value {
      s: "8"
    }
  }
  attr {
    key: "inputTensor:0"
    value {
      s: "tensor_39_slice_0_0_1_0_0__0__bundle_194_42869  |  Sizes = [1,1,189,128]  |  bf16  |  expBias = 0, scale = 1  |    |  ModelParam = 0  |  strides = [193536, 193536, 48384, 256, 2]  |  data = 0, sizeInBytes = 48384  |  isAliased = tensor_39, type = concat, offset: 48384  |  location = in DRAM  |  "
    }
  }
  attr {
    key: "outputTensor:0"
    value {
      s: "tensor_44_slice_0_0_1_0_0__0__bundle_194_42870  |  Sizes = [1,1,189,128]  |  hfloat8  |  expBias = 7, scale = 1  |    |  ModelParam = 0  |  strides = [96768, 96768, 24192, 128, 1]  |  data = 0, sizeInBytes = 24192  |  isAliased = tensor_44, type = concat, offset: 24192  |  location = in DRAM  |  "
    }
  }
  attr {
    key: "outputTensor:1"
    value {
      s: "tensor_47_slice_0_0_1_0_0__0__bundle_194_42871  |  Sizes = [1,1,189,128]  |  bf16  |  expBias = 0, scale = 1  |    |  ModelParam = 0  |  strides = [193536, 193536, 48384, 256, 2]  |  data = 0, sizeInBytes = 48384  |  isAliased = tensor_47, type = concat, offset: 48384  |  location = in DRAM  |  "
    }
  }
  attr {
    key: "outputTensor:2"
    value {
      s: "tensor-42617_slice_0_0_1_0_0__0__bundle_194_42872  |  Sizes = [1,1,189,128]  |  hfloat8  |  expBias = 7, scale = 1  |    |  ModelParam = 0  |  strides = [24192, 24192, 24192, 128, 1]  |  data = 0, sizeInBytes = 24192  |  isAliased = tensor_87_id_48169_module/model/0/fused_scaled_dot_product_attention/aten__view_slice_0_0_0_1_0__0__bundle_194_42873, type = alias, offset: 0  |  location = in SRAM  |  sramOffset = 0x1000fffffd2eb680  |  "
    }
  }
}
node {
  name: "reshape_5_5_bundle_194/op_6"
  op: "Reshape"
  input: "fusedTPCNode_76_1_bundle_194/op_5"
  attr {
    key: "Bundle_idx"
    value {
      s: "194"
    }
  }
  attr {
    key: "Exec_idx"
    value {
      s: "42"
    }
  }
  attr {
    key: "Op_idx"
    value {
      s: "9"
    }
  }
  attr {
    key: "inputTensor:0"
    value {
      s: "tensor-42617_slice_0_0_1_0_0__0__bundle_194_42872  |  Sizes = [1,1,189,128]  |  hfloat8  |  expBias = 7, scale = 1  |    |  ModelParam = 0  |  strides = [24192, 24192, 24192, 128, 1]  |  data = 0, sizeInBytes = 24192  |  isAliased = tensor_87_id_48169_module/model/0/fused_scaled_dot_product_attention/aten__view_slice_0_0_0_1_0__0__bundle_194_42873, type = alias, offset: 0  |  location = in SRAM  |  sramOffset = 0x1000fffffd2eb680  |  "
    }
  }
  attr {
    key: "outputTensor:0"
    value {
      s: "tensor_87_id_48169_module/model/0/fused_scaled_dot_product_attention/aten__view_slice_0_0_0_1_0__0__bundle_194_42873  |  Sizes = [1,1,1,189,128]  |  hfloat8  |  expBias = 7, scale = 1  |    |  ModelParam = 0  |  strides = [24192, 24192, 24192, 24192, 128, 1]  |  data = 0, sizeInBytes = 24192  |  location = in SRAM  |  sramOffset = 0x1000fffffd2eb680  |  "
    }
  }
}
node {
  name: "fusedTPCNode_76_3_bundle_194/op_8"
  op: "fused_kernel_0x95D407AC_D1_hf8"
  input: "module/model/0/rotary_pos_embedding_fwd_bf16/4603_complex/rotary_pos_embedding_fwd_bf16_65/rope_st2_fwd_bf16_16_bundle_194/op_7"
  attr {
    key: "Bundle_idx"
    value {
      s: "194"
    }
  }
  attr {
    key: "Exec_idx"
    value {
      s: "43"
    }
  }
  attr {
    key: "Op_idx"
    value {
      s: "10"
    }
  }
  attr {
    key: "inputTensor:0"
    value {
      s: "tensor_101_slice_0_0_1_0_0__0__bundle_194_42875  |  Sizes = [1,4,189,128]  |  bf16  |  expBias = 0, scale = 1  |    |  ModelParam = 0  |  strides = [193536, 193536, 48384, 256, 2]  |  data = 0, sizeInBytes = 193536  |  location = in SRAM  |  sramOffset = 0x1000fffffd2b6400  |  "
    }
  }
  attr {
    key: "outputTensor:0"
    value {
      s: "tensor-42619_slice_0_0_1_0_0__0__bundle_194_42876  |  Sizes = [1,4,189,128]  |  hfloat8  |  expBias = 7, scale = 1  |    |  ModelParam = 0  |  strides = [96768, 96768, 24192, 128, 1]  |  data = 0, sizeInBytes = 96768  |  isAliased = tensor_106_id_48167_module/model/0/fused_scaled_dot_product_attention/aten__view_slice_0_0_0_1_0__0__bundle_194_42877, type = alias, offset: 0  |  location = in SRAM  |  sramOffset = 0x1000fffffd308f00  |  "
    }
  }
}
node {
  name: "reshape_11_11_bundle_194/op_9"
  op: "Reshape"
  input: "fusedTPCNode_76_3_bundle_194/op_8"
  attr {
    key: "Bundle_idx"
    value {
      s: "194"
    }
  }
  attr {
    key: "Exec_idx"
    value {
      s: "44"
    }
  }
  attr {
    key: "Op_idx"
    value {
      s: "11"
    }
  }
  attr {
    key: "inputTensor:0"
    value {
      s: "tensor-42619_slice_0_0_1_0_0__0__bundle_194_42876  |  Sizes = [1,4,189,128]  |  hfloat8  |  expBias = 7, scale = 1  |    |  ModelParam = 0  |  strides = [96768, 96768, 24192, 128, 1]  |  data = 0, sizeInBytes = 96768  |  isAliased = tensor_106_id_48167_module/model/0/fused_scaled_dot_product_attention/aten__view_slice_0_0_0_1_0__0__bundle_194_42877, type = alias, offset: 0  |  location = in SRAM  |  sramOffset = 0x1000fffffd308f00  |  "
    }
  }
  attr {
    key: "outputTensor:0"
    value {
      s: "tensor_106_id_48167_module/model/0/fused_scaled_dot_product_attention/aten__view_slice_0_0_0_1_0__0__bundle_194_42877  |  Sizes = [1,1,4,189,128]  |  hfloat8  |  expBias = 7, scale = 1  |    |  ModelParam = 0  |  strides = [96768, 96768, 96768, 24192, 128, 1]  |  data = 0, sizeInBytes = 96768  |  location = in SRAM  |  sramOffset = 0x1000fffffd308f00  |  "
    }
  }
}
node {
  name: "module/model/0/fused_scaled_dot_product_attention/sdpa_recomp_fwd_hf8/4606_complex/sdpa_recomp_fwd_hf8_65/sdpa_recomp_core_fwd_hf8_32/fp8_gemm_hf8_520/batch_gemm_16_bundle_194/op_10"
  op: "BatchGemm"
  input: "reshape_11_11_bundle_194/op_4"
  input: "reshape_5_5_bundle_194/op_1"
  attr {
    key: "Bundle_idx"
    value {
      s: "194"
    }
  }
  attr {
    key: "Exec_idx"
    value {
      s: "45"
    }
  }
  attr {
    key: "Op_idx"
    value {
      s: "12"
    }
  }
  attr {
    key: "Parameters"
    value {
      s: "transpose_a=false, transpose_b=true"
    }
  }
  attr {
    key: "fp8BiasIn"
    value {
      s: "7"
    }
  }
  attr {
    key: "fp8BiasIn2"
    value {
      s: "7"
    }
  }
  attr {
    key: "fp8BiasOut"
    value {
      s: "0"
    }
  }
  attr {
    key: "inputTensor:0"
    value {
      s: "tensor_106_id_48167_module/model/0/fused_scaled_dot_product_attention/aten__view_slice_0_0_0_0_0__0__bundle_194_42868  |  Sizes = [1,1,4,189,128]  |  hfloat8  |  expBias = 7, scale = 1  |    |  ModelParam = 0  |  strides = [96768, 96768, 96768, 24192, 128, 1]  |  data = 0, sizeInBytes = 96768  |  location = in SRAM  |  sramOffset = 0x1000fffffd2f1500  |  "
    }
  }
  attr {
    key: "inputTensor:1"
    value {
      s: "tensor_87_id_48169_module/model/0/fused_scaled_dot_product_attention/aten__view_slice_0_0_0_0_0__0__bundle_194_42862  |  Sizes = [1,1,1,189,128]  |  hfloat8  |  expBias = 7, scale = 1  |    |  ModelParam = 0  |  strides = [24192, 24192, 24192, 24192, 128, 1]  |  data = 0, sizeInBytes = 24192  |  location = in SRAM  |  sramOffset = 0x1000fffffd2e5800  |  "
    }
  }
  attr {
    key: "outputTensor:0"
    value {
      s: "bf16-17_42437_slice_0_0_0_0_0__0__bundle_194_42878  |  Sizes = [1,1,4,189,189]  |  bf16  |  expBias = 0, scale = 1  |    |  ModelParam = 0  |  strides = [1143072, 1143072, 285768, 71442, 378, 2]  |  data = 0, sizeInBytes = 285768  |  isAliased = bf16-17_42437, type = concat, offset: 0  |  location = in DRAM  |  "
    }
  }
}
node {
  name: "module/model/0/rotary_pos_embedding_fwd_bf16/4603_complex/rotary_pos_embedding_fwd_bf16_65/rope_st2_fwd_bf16_16_bundle_194/op_13"
  op: "rope_st2_fwd_bf16"
  input: "tensor_99_id_48054_module/model/0/aten__transpose_bundle_194/split_internal/0"
  input: "module/model/0/rotary_pos_embedding_fwd_bf16/4603_complex/rotary_pos_embedding_fwd_bf16_65/expand_dims_12"
  input: "module/model/0/rotary_pos_embedding_fwd_bf16/4603_complex/rotary_pos_embedding_fwd_bf16_65/expand_dims_14"
  attr {
    key: "Bundle_idx"
    value {
      s: "194"
    }
  }
  attr {
    key: "Exec_idx"
    value {
      s: "46"
    }
  }
  attr {
    key: "Op_idx"
    value {
      s: "13"
    }
  }
  attr {
    key: "inputTensor:0"
    value {
      s: "tensor_99_id_48054_module/model/0/aten__transpose_slice_0_0_2_0_0__0__bundle_194_42884  |  Sizes = [1,4,189,128]  |  bf16  |  expBias = 0, scale = 1  |    |  ModelParam = 0  |  strides = [774144, 774144, 256, 4096, 2]  |  data = 0, sizeInBytes = 193536  |  isAliased = tensor_99_id_48054_module/model/0/aten__transpose, type = concat, offset: 2048  |  location = in DRAM  |  isSparseLayout  |  "
    }
  }
  attr {
    key: "inputTensor:1"
    value {
      s: "bf16-13_42427  |  Sizes = [1,189,128]  |  bf16  |  expBias = 0, scale = 1  |    |  ModelParam = 0  |  strides = [48384, 48384, 256, 2]  |  data = 0, sizeInBytes = 48384  |  location = in DRAM  |  dramOffset = 0x3000000ec400  |  "
    }
  }
  attr {
    key: "inputTensor:2"
    value {
      s: "bf16-15_42428  |  Sizes = [1,189,128]  |  bf16  |  expBias = 0, scale = 1  |    |  ModelParam = 0  |  strides = [48384, 48384, 256, 2]  |  data = 0, sizeInBytes = 48384  |  location = in DRAM  |  dramOffset = 0x3000000f8100  |  "
    }
  }
  attr {
    key: "outputTensor:0"
    value {
      s: "tensor_101_slice_0_0_2_0_0__0__bundle_194_42885  |  Sizes = [1,4,189,128]  |  bf16  |  expBias = 0, scale = 1  |    |  ModelParam = 0  |  strides = [193536, 193536, 48384, 256, 2]  |  data = 0, sizeInBytes = 193536  |  location = in SRAM  |  sramOffset = 0x1000fffffd287000  |  "
    }
  }
}
node {
  name: "module/model/0/fused_scaled_dot_product_attention/sdpa_recomp_fwd_hf8/4606_complex/sdpa_recomp_fwd_hf8_65/sdpa_recomp_core_fwd_hf8_32/fp8_gemm_hf8_520/batch_gemm_16_bundle_194/op_16"
  op: "BatchGemm"
  input: "reshape_11_11_bundle_194/op_9"
  input: "reshape_5_5_bundle_194/op_6"
  attr {
    key: "Bundle_idx"
    value {
      s: "194"
    }
  }
  attr {
    key: "Exec_idx"
    value {
      s: "47"
    }
  }
  attr {
    key: "Op_idx"
    value {
      s: "14"
    }
  }
  attr {
    key: "Parameters"
    value {
      s: "transpose_a=false, transpose_b=true"
    }
  }
  attr {
    key: "fp8BiasIn"
    value {
      s: "7"
    }
  }
  attr {
    key: "fp8BiasIn2"
    value {
      s: "7"
    }
  }
  attr {
    key: "fp8BiasOut"
    value {
      s: "0"
    }
  }
  attr {
    key: "inputTensor:0"
    value {
      s: "tensor_106_id_48167_module/model/0/fused_scaled_dot_product_attention/aten__view_slice_0_0_0_1_0__0__bundle_194_42877  |  Sizes = [1,1,4,189,128]  |  hfloat8  |  expBias = 7, scale = 1  |    |  ModelParam = 0  |  strides = [96768, 96768, 96768, 24192, 128, 1]  |  data = 0, sizeInBytes = 96768  |  location = in SRAM  |  sramOffset = 0x1000fffffd308f00  |  "
    }
  }
  attr {
    key: "inputTensor:1"
    value {
      s: "tensor_87_id_48169_module/model/0/fused_scaled_dot_product_attention/aten__view_slice_0_0_0_1_0__0__bundle_194_42873  |  Sizes = [1,1,1,189,128]  |  hfloat8  |  expBias = 7, scale = 1  |    |  ModelParam = 0  |  strides = [24192, 24192, 24192, 24192, 128, 1]  |  data = 0, sizeInBytes = 24192  |  location = in SRAM  |  sramOffset = 0x1000fffffd2eb680  |  "
    }
  }
  attr {
    key: "outputTensor:0"
    value {
      s: "bf16-17_42437_slice_0_0_0_1_0__0__bundle_194_42888  |  Sizes = [1,1,4,189,189]  |  bf16  |  expBias = 0, scale = 1  |    |  ModelParam = 0  |  strides = [1143072, 1143072, 285768, 71442, 378, 2]  |  data = 0, sizeInBytes = 285768  |  isAliased = bf16-17_42437, type = concat, offset: 285768  |  location = in DRAM  |  "
    }
  }
}
node {
  name: "module/model/0/rotary_pos_embedding_fwd_bf16/4603_complex/rotary_pos_embedding_fwd_bf16_65/rope_st2_fwd_bf16_16_bundle_194/op_19"
  op: "rope_st2_fwd_bf16"
  input: "tensor_99_id_48054_module/model/0/aten__transpose_bundle_194/split_internal/0"
  input: "module/model/0/rotary_pos_embedding_fwd_bf16/4603_complex/rotary_pos_embedding_fwd_bf16_65/expand_dims_12"
  input: "module/model/0/rotary_pos_embedding_fwd_bf16/4603_complex/rotary_pos_embedding_fwd_bf16_65/expand_dims_14"
  attr {
    key: "Bundle_idx"
    value {
      s: "194"
    }
  }
  attr {
    key: "Exec_idx"
    value {
      s: "48"
    }
  }
  attr {
    key: "Op_idx"
    value {
      s: "15"
    }
  }
  attr {
    key: "inputTensor:0"
    value {
      s: "tensor_99_id_48054_module/model/0/aten__transpose_slice_0_0_3_0_0__0__bundle_194_42894  |  Sizes = [1,4,189,128]  |  bf16  |  expBias = 0, scale = 1  |    |  ModelParam = 0  |  strides = [774144, 774144, 256, 4096, 2]  |  data = 0, sizeInBytes = 193536  |  isAliased = tensor_99_id_48054_module/model/0/aten__transpose, type = concat, offset: 3072  |  location = in DRAM  |  isSparseLayout  |  "
    }
  }
  attr {
    key: "inputTensor:1"
    value {
      s: "bf16-13_42427  |  Sizes = [1,189,128]  |  bf16  |  expBias = 0, scale = 1  |    |  ModelParam = 0  |  strides = [48384, 48384, 256, 2]  |  data = 0, sizeInBytes = 48384  |  location = in DRAM  |  dramOffset = 0x3000000ec400  |  "
    }
  }
  attr {
    key: "inputTensor:2"
    value {
      s: "bf16-15_42428  |  Sizes = [1,189,128]  |  bf16  |  expBias = 0, scale = 1  |    |  ModelParam = 0  |  strides = [48384, 48384, 256, 2]  |  data = 0, sizeInBytes = 48384  |  location = in DRAM  |  dramOffset = 0x3000000f8100  |  "
    }
  }
  attr {
    key: "outputTensor:0"
    value {
      s: "tensor_101_slice_0_0_3_0_0__0__bundle_194_42895  |  Sizes = [1,4,189,128]  |  bf16  |  expBias = 0, scale = 1  |    |  ModelParam = 0  |  strides = [193536, 193536, 48384, 256, 2]  |  data = 0, sizeInBytes = 193536  |  location = in SRAM  |  sramOffset = 0x1000fffffd2b6400  |  "
    }
  }
}
node {
  name: "fusedTPCNode_76_1_bundle_194/op_11"
  op: "fused_kernel_0xC8F2E7E1_CF_bf16"
  input: "tensor_39_bundle_194/split_internal/0"
  attr {
    key: "Bundle_idx"
    value {
      s: "194"
    }
  }
  attr {
    key: "Exec_idx"
    value {
      s: "49"
    }
  }
  attr {
    key: "Op_idx"
    value {
      s: "16"
    }
  }
  attr {
    key: "inputTensor:0"
    value {
      s: "tensor_39_slice_0_0_2_0_0__0__bundle_194_42879  |  Sizes = [1,1,189,128]  |  bf16  |  expBias = 0, scale = 1  |    |  ModelParam = 0  |  strides = [193536, 193536, 48384, 256, 2]  |  data = 0, sizeInBytes = 48384  |  isAliased = tensor_39, type = concat, offset: 96768  |  location = in DRAM  |  "
    }
  }
  attr {
    key: "outputTensor:0"
    value {
      s: "tensor_44_slice_0_0_2_0_0__0__bundle_194_42880  |  Sizes = [1,1,189,128]  |  hfloat8  |  expBias = 7, scale = 1  |    |  ModelParam = 0  |  strides = [96768, 96768, 24192, 128, 1]  |  data = 0, sizeInBytes = 24192  |  isAliased = tensor_44, type = concat, offset: 48384  |  location = in DRAM  |  "
    }
  }
  attr {
    key: "outputTensor:1"
    value {
      s: "tensor_47_slice_0_0_2_0_0__0__bundle_194_42881  |  Sizes = [1,1,189,128]  |  bf16  |  expBias = 0, scale = 1  |    |  ModelParam = 0  |  strides = [193536, 193536, 48384, 256, 2]  |  data = 0, sizeInBytes = 48384  |  isAliased = tensor_47, type = concat, offset: 96768  |  location = in DRAM  |  "
    }
  }
  attr {
    key: "outputTensor:2"
    value {
      s: "tensor-42617_slice_0_0_2_0_0__0__bundle_194_42882  |  Sizes = [1,1,189,128]  |  hfloat8  |  expBias = 7, scale = 1  |    |  ModelParam = 0  |  strides = [24192, 24192, 24192, 128, 1]  |  data = 0, sizeInBytes = 24192  |  isAliased = tensor_87_id_48169_module/model/0/fused_scaled_dot_product_attention/aten__view_slice_0_0_0_2_0__0__bundle_194_42883, type = alias, offset: 0  |  location = in SRAM  |  sramOffset = 0x1000fffffd2e5800  |  "
    }
  }
}
node {
  name: "reshape_5_5_bundle_194/op_12"
  op: "Reshape"
  input: "fusedTPCNode_76_1_bundle_194/op_11"
  attr {
    key: "Bundle_idx"
    value {
      s: "194"
    }
  }
  attr {
    key: "Exec_idx"
    value {
      s: "50"
    }
  }
  attr {
    key: "Op_idx"
    value {
      s: "17"
    }
  }
  attr {
    key: "inputTensor:0"
    value {
      s: "tensor-42617_slice_0_0_2_0_0__0__bundle_194_42882  |  Sizes = [1,1,189,128]  |  hfloat8  |  expBias = 7, scale = 1  |    |  ModelParam = 0  |  strides = [24192, 24192, 24192, 128, 1]  |  data = 0, sizeInBytes = 24192  |  isAliased = tensor_87_id_48169_module/model/0/fused_scaled_dot_product_attention/aten__view_slice_0_0_0_2_0__0__bundle_194_42883, type = alias, offset: 0  |  location = in SRAM  |  sramOffset = 0x1000fffffd2e5800  |  "
    }
  }
  attr {
    key: "outputTensor:0"
    value {
      s: "tensor_87_id_48169_module/model/0/fused_scaled_dot_product_attention/aten__view_slice_0_0_0_2_0__0__bundle_194_42883  |  Sizes = [1,1,1,189,128]  |  hfloat8  |  expBias = 7, scale = 1  |    |  ModelParam = 0  |  strides = [24192, 24192, 24192, 24192, 128, 1]  |  data = 0, sizeInBytes = 24192  |  location = in SRAM  |  sramOffset = 0x1000fffffd2e5800  |  "
    }
  }
}
node {
  name: "fusedTPCNode_76_3_bundle_194/op_14"
  op: "fused_kernel_0x95D407AC_D1_hf8"
  input: "module/model/0/rotary_pos_embedding_fwd_bf16/4603_complex/rotary_pos_embedding_fwd_bf16_65/rope_st2_fwd_bf16_16_bundle_194/op_13"
  attr {
    key: "Bundle_idx"
    value {
      s: "194"
    }
  }
  attr {
    key: "Exec_idx"
    value {
      s: "51"
    }
  }
  attr {
    key: "Op_idx"
    value {
      s: "18"
    }
  }
  attr {
    key: "inputTensor:0"
    value {
      s: "tensor_101_slice_0_0_2_0_0__0__bundle_194_42885  |  Sizes = [1,4,189,128]  |  bf16  |  expBias = 0, scale = 1  |    |  ModelParam = 0  |  strides = [193536, 193536, 48384, 256, 2]  |  data = 0, sizeInBytes = 193536  |  location = in SRAM  |  sramOffset = 0x1000fffffd287000  |  "
    }
  }
  attr {
    key: "outputTensor:0"
    value {
      s: "tensor-42619_slice_0_0_2_0_0__0__bundle_194_42886  |  Sizes = [1,4,189,128]  |  hfloat8  |  expBias = 7, scale = 1  |    |  ModelParam = 0  |  strides = [96768, 96768, 24192, 128, 1]  |  data = 0, sizeInBytes = 96768  |  isAliased = tensor_106_id_48167_module/model/0/fused_scaled_dot_product_attention/aten__view_slice_0_0_0_2_0__0__bundle_194_42887, type = alias, offset: 0  |  location = in SRAM  |  sramOffset = 0x1000fffffd2f1500  |  "
    }
  }
}
node {
  name: "reshape_11_11_bundle_194/op_15"
  op: "Reshape"
  input: "fusedTPCNode_76_3_bundle_194/op_14"
  attr {
    key: "Bundle_idx"
    value {
      s: "194"
    }
  }
  attr {
    key: "Exec_idx"
    value {
      s: "52"
    }
  }
  attr {
    key: "Op_idx"
    value {
      s: "19"
    }
  }
  attr {
    key: "inputTensor:0"
    value {
      s: "tensor-42619_slice_0_0_2_0_0__0__bundle_194_42886  |  Sizes = [1,4,189,128]  |  hfloat8  |  expBias = 7, scale = 1  |    |  ModelParam = 0  |  strides = [96768, 96768, 24192, 128, 1]  |  data = 0, sizeInBytes = 96768  |  isAliased = tensor_106_id_48167_module/model/0/fused_scaled_dot_product_attention/aten__view_slice_0_0_0_2_0__0__bundle_194_42887, type = alias, offset: 0  |  location = in SRAM  |  sramOffset = 0x1000fffffd2f1500  |  "
    }
  }
  attr {
    key: "outputTensor:0"
    value {
      s: "tensor_106_id_48167_module/model/0/fused_scaled_dot_product_attention/aten__view_slice_0_0_0_2_0__0__bundle_194_42887  |  Sizes = [1,1,4,189,128]  |  hfloat8  |  expBias = 7, scale = 1  |    |  ModelParam = 0  |  strides = [96768, 96768, 96768, 24192, 128, 1]  |  data = 0, sizeInBytes = 96768  |  location = in SRAM  |  sramOffset = 0x1000fffffd2f1500  |  "
    }
  }
}
node {
  name: "fusedTPCNode_76_1_bundle_194/op_17"
  op: "fused_kernel_0xC8F2E7E1_CF_bf16"
  input: "tensor_39_bundle_194/split_internal/0"
  attr {
    key: "Bundle_idx"
    value {
      s: "194"
    }
  }
  attr {
    key: "Exec_idx"
    value {
      s: "53"
    }
  }
  attr {
    key: "Op_idx"
    value {
      s: "20"
    }
  }
  attr {
    key: "inputTensor:0"
    value {
      s: "tensor_39_slice_0_0_3_0_0__0__bundle_194_42889  |  Sizes = [1,1,189,128]  |  bf16  |  expBias = 0, scale = 1  |    |  ModelParam = 0  |  strides = [193536, 193536, 48384, 256, 2]  |  data = 0, sizeInBytes = 48384  |  isAliased = tensor_39, type = concat, offset: 145152  |  location = in DRAM  |  "
    }
  }
  attr {
    key: "outputTensor:0"
    value {
      s: "tensor_44_slice_0_0_3_0_0__0__bundle_194_42890  |  Sizes = [1,1,189,128]  |  hfloat8  |  expBias = 7, scale = 1  |    |  ModelParam = 0  |  strides = [96768, 96768, 24192, 128, 1]  |  data = 0, sizeInBytes = 24192  |  isAliased = tensor_44, type = concat, offset: 72576  |  location = in DRAM  |  "
    }
  }
  attr {
    key: "outputTensor:1"
    value {
      s: "tensor_47_slice_0_0_3_0_0__0__bundle_194_42891  |  Sizes = [1,1,189,128]  |  bf16  |  expBias = 0, scale = 1  |    |  ModelParam = 0  |  strides = [193536, 193536, 48384, 256, 2]  |  data = 0, sizeInBytes = 48384  |  isAliased = tensor_47, type = concat, offset: 145152  |  location = in DRAM  |  "
    }
  }
  attr {
    key: "outputTensor:2"
    value {
      s: "tensor-42617_slice_0_0_3_0_0__0__bundle_194_42892  |  Sizes = [1,1,189,128]  |  hfloat8  |  expBias = 7, scale = 1  |    |  ModelParam = 0  |  strides = [24192, 24192, 24192, 128, 1]  |  data = 0, sizeInBytes = 24192  |  isAliased = tensor_87_id_48169_module/model/0/fused_scaled_dot_product_attention/aten__view_slice_0_0_0_3_0__0__bundle_194_42893, type = alias, offset: 0  |  location = in SRAM  |  sramOffset = 0x1000fffffd2eb680  |  "
    }
  }
}
node {
  name: "reshape_5_5_bundle_194/op_18"
  op: "Reshape"
  input: "fusedTPCNode_76_1_bundle_194/op_17"
  attr {
    key: "Bundle_idx"
    value {
      s: "194"
    }
  }
  attr {
    key: "Exec_idx"
    value {
      s: "54"
    }
  }
  attr {
    key: "Op_idx"
    value {
      s: "21"
    }
  }
  attr {
    key: "inputTensor:0"
    value {
      s: "tensor-42617_slice_0_0_3_0_0__0__bundle_194_42892  |  Sizes = [1,1,189,128]  |  hfloat8  |  expBias = 7, scale = 1  |    |  ModelParam = 0  |  strides = [24192, 24192, 24192, 128, 1]  |  data = 0, sizeInBytes = 24192  |  isAliased = tensor_87_id_48169_module/model/0/fused_scaled_dot_product_attention/aten__view_slice_0_0_0_3_0__0__bundle_194_42893, type = alias, offset: 0  |  location = in SRAM  |  sramOffset = 0x1000fffffd2eb680  |  "
    }
  }
  attr {
    key: "outputTensor:0"
    value {
      s: "tensor_87_id_48169_module/model/0/fused_scaled_dot_product_attention/aten__view_slice_0_0_0_3_0__0__bundle_194_42893  |  Sizes = [1,1,1,189,128]  |  hfloat8  |  expBias = 7, scale = 1  |    |  ModelParam = 0  |  strides = [24192, 24192, 24192, 24192, 128, 1]  |  data = 0, sizeInBytes = 24192  |  location = in SRAM  |  sramOffset = 0x1000fffffd2eb680  |  "
    }
  }
}
node {
  name: "tensor_44_bundle_194/concat_logical_internal/0"
  op: "Concatenate"
  input: "fusedTPCNode_76_1_bundle_194/op_0"
  input: "fusedTPCNode_76_1_bundle_194/op_5"
  input: "fusedTPCNode_76_1_bundle_194/op_11"
  input: "fusedTPCNode_76_1_bundle_194/op_17"
  attr {
    key: "Bundle_idx"
    value {
      s: "194"
    }
  }
  attr {
    key: "Exec_idx"
    value {
      s: "55"
    }
  }
  attr {
    key: "Op_idx"
    value {
      s: "22"
    }
  }
  attr {
    key: "inputTensor:0"
    value {
      s: "tensor_44_slice_0_0_0_0_0__0__bundle_194_42859  |  Sizes = [1,1,189,128]  |  hfloat8  |  expBias = 7, scale = 1  |    |  ModelParam = 0  |  strides = [96768, 96768, 24192, 128, 1]  |  data = 0, sizeInBytes = 24192  |  isAliased = tensor_44, type = concat, offset: 0  |  location = in DRAM  |  "
    }
  }
  attr {
    key: "inputTensor:1"
    value {
      s: "tensor_44_slice_0_0_1_0_0__0__bundle_194_42870  |  Sizes = [1,1,189,128]  |  hfloat8  |  expBias = 7, scale = 1  |    |  ModelParam = 0  |  strides = [96768, 96768, 24192, 128, 1]  |  data = 0, sizeInBytes = 24192  |  isAliased = tensor_44, type = concat, offset: 24192  |  location = in DRAM  |  "
    }
  }
  attr {
    key: "inputTensor:2"
    value {
      s: "tensor_44_slice_0_0_2_0_0__0__bundle_194_42880  |  Sizes = [1,1,189,128]  |  hfloat8  |  expBias = 7, scale = 1  |    |  ModelParam = 0  |  strides = [96768, 96768, 24192, 128, 1]  |  data = 0, sizeInBytes = 24192  |  isAliased = tensor_44, type = concat, offset: 48384  |  location = in DRAM  |  "
    }
  }
  attr {
    key: "inputTensor:3"
    value {
      s: "tensor_44_slice_0_0_3_0_0__0__bundle_194_42890  |  Sizes = [1,1,189,128]  |  hfloat8  |  expBias = 7, scale = 1  |    |  ModelParam = 0  |  strides = [96768, 96768, 24192, 128, 1]  |  data = 0, sizeInBytes = 24192  |  isAliased = tensor_44, type = concat, offset: 72576  |  location = in DRAM  |  "
    }
  }
  attr {
    key: "outputTensor:0"
    value {
      s: "tensor_44  |  Sizes = [1,4,189,128]  |  hfloat8  |  expBias = 7, scale = 1  |    |  ModelParam = 0  |  strides = [96768, 96768, 24192, 128, 1]  |  data = 0, sizeInBytes = 96768  |  isPersistent  |  location = in DRAM  |  dramOffset = 0x40000000000  |  userMemorySection(type=Persistent, id=4)  |  "
    }
  }
}
node {
  name: "tensor_44"
  op: "OutputTensor"
  input: "tensor_44_bundle_194/concat_logical_internal/0"
  attr {
    key: "dtype"
    value {
      type: DT_INVALID
    }
  }
  attr {
    key: "shape"
    value {
      shape {
        dim {
          size: 128
        }
        dim {
          size: 189
        }
        dim {
          size: 4
        }
        dim {
          size: 1
        }
        dim {
          size: 1
        }
      }
    }
  }
  attr {
    key: "synDataType"
    value {
      s: "hfloat8"
    }
  }
}
node {
  name: "tensor_47_bundle_194/concat_logical_internal/0"
  op: "Concatenate"
  input: "fusedTPCNode_76_1_bundle_194/op_0"
  input: "fusedTPCNode_76_1_bundle_194/op_5"
  input: "fusedTPCNode_76_1_bundle_194/op_11"
  input: "fusedTPCNode_76_1_bundle_194/op_17"
  attr {
    key: "Bundle_idx"
    value {
      s: "194"
    }
  }
  attr {
    key: "Exec_idx"
    value {
      s: "56"
    }
  }
  attr {
    key: "Op_idx"
    value {
      s: "23"
    }
  }
  attr {
    key: "inputTensor:0"
    value {
      s: "tensor_47_slice_0_0_0_0_0__0__bundle_194_42860  |  Sizes = [1,1,189,128]  |  bf16  |  expBias = 0, scale = 1  |    |  ModelParam = 0  |  strides = [193536, 193536, 48384, 256, 2]  |  data = 0, sizeInBytes = 48384  |  isAliased = tensor_47, type = concat, offset: 0  |  location = in DRAM  |  "
    }
  }
  attr {
    key: "inputTensor:1"
    value {
      s: "tensor_47_slice_0_0_1_0_0__0__bundle_194_42871  |  Sizes = [1,1,189,128]  |  bf16  |  expBias = 0, scale = 1  |    |  ModelParam = 0  |  strides = [193536, 193536, 48384, 256, 2]  |  data = 0, sizeInBytes = 48384  |  isAliased = tensor_47, type = concat, offset: 48384  |  location = in DRAM  |  "
    }
  }
  attr {
    key: "inputTensor:2"
    value {
      s: "tensor_47_slice_0_0_2_0_0__0__bundle_194_42881  |  Sizes = [1,1,189,128]  |  bf16  |  expBias = 0, scale = 1  |    |  ModelParam = 0  |  strides = [193536, 193536, 48384, 256, 2]  |  data = 0, sizeInBytes = 48384  |  isAliased = tensor_47, type = concat, offset: 96768  |  location = in DRAM  |  "
    }
  }
  attr {
    key: "inputTensor:3"
    value {
      s: "tensor_47_slice_0_0_3_0_0__0__bundle_194_42891  |  Sizes = [1,1,189,128]  |  bf16  |  expBias = 0, scale = 1  |    |  ModelParam = 0  |  strides = [193536, 193536, 48384, 256, 2]  |  data = 0, sizeInBytes = 48384  |  isAliased = tensor_47, type = concat, offset: 145152  |  location = in DRAM  |  "
    }
  }
  attr {
    key: "outputTensor:0"
    value {
      s: "tensor_47  |  Sizes = [1,4,189,128]  |  bf16  |  expBias = 0, scale = 1  |    |  ModelParam = 0  |  strides = [193536, 193536, 48384, 256, 2]  |  data = 0, sizeInBytes = 193536  |  isPersistent  |  location = in DRAM  |  dramOffset = 0x120000000000  |  userMemorySection(type=Persistent, id=18)  |  "
    }
  }
}
node {
  name: "tensor_47"
  op: "OutputTensor"
  input: "tensor_47_bundle_194/concat_logical_internal/0"
  attr {
    key: "dtype"
    value {
      type: DT_BFLOAT16
    }
  }
  attr {
    key: "shape"
    value {
      shape {
        dim {
          size: 128
        }
        dim {
          size: 189
        }
        dim {
          size: 4
        }
        dim {
          size: 1
        }
        dim {
          size: 1
        }
      }
    }
  }
  attr {
    key: "synDataType"
    value {
      s: "bf16"
    }
  }
}
node {
  name: "fusedTPCNode_76_3_bundle_194/op_20"
  op: "fused_kernel_0x95D407AC_D1_hf8"
  input: "module/model/0/rotary_pos_embedding_fwd_bf16/4603_complex/rotary_pos_embedding_fwd_bf16_65/rope_st2_fwd_bf16_16_bundle_194/op_19"
  attr {
    key: "Bundle_idx"
    value {
      s: "194"
    }
  }
  attr {
    key: "Exec_idx"
    value {
      s: "57"
    }
  }
  attr {
    key: "Op_idx"
    value {
      s: "24"
    }
  }
  attr {
    key: "inputTensor:0"
    value {
      s: "tensor_101_slice_0_0_3_0_0__0__bundle_194_42895  |  Sizes = [1,4,189,128]  |  bf16  |  expBias = 0, scale = 1  |    |  ModelParam = 0  |  strides = [193536, 193536, 48384, 256, 2]  |  data = 0, sizeInBytes = 193536  |  location = in SRAM  |  sramOffset = 0x1000fffffd2b6400  |  "
    }
  }
  attr {
    key: "outputTensor:0"
    value {
      s: "tensor-42619_slice_0_0_3_0_0__0__bundle_194_42896  |  Sizes = [1,4,189,128]  |  hfloat8  |  expBias = 7, scale = 1  |    |  ModelParam = 0  |  strides = [96768, 96768, 24192, 128, 1]  |  data = 0, sizeInBytes = 96768  |  isAliased = tensor_106_id_48167_module/model/0/fused_scaled_dot_product_attention/aten__view_slice_0_0_0_3_0__0__bundle_194_42897, type = alias, offset: 0  |  location = in SRAM  |  sramOffset = 0x1000fffffd308f00  |  "
    }
  }
}
node {
  name: "reshape_11_11_bundle_194/op_21"
  op: "Reshape"
  input: "fusedTPCNode_76_3_bundle_194/op_20"
  attr {
    key: "Bundle_idx"
    value {
      s: "194"
    }
  }
  attr {
    key: "Exec_idx"
    value {
      s: "58"
    }
  }
  attr {
    key: "Op_idx"
    value {
      s: "25"
    }
  }
  attr {
    key: "inputTensor:0"
    value {
      s: "tensor-42619_slice_0_0_3_0_0__0__bundle_194_42896  |  Sizes = [1,4,189,128]  |  hfloat8  |  expBias = 7, scale = 1  |    |  ModelParam = 0  |  strides = [96768, 96768, 24192, 128, 1]  |  data = 0, sizeInBytes = 96768  |  isAliased = tensor_106_id_48167_module/model/0/fused_scaled_dot_product_attention/aten__view_slice_0_0_0_3_0__0__bundle_194_42897, type = alias, offset: 0  |  location = in SRAM  |  sramOffset = 0x1000fffffd308f00  |  "
    }
  }
  attr {
    key: "outputTensor:0"
    value {
      s: "tensor_106_id_48167_module/model/0/fused_scaled_dot_product_attention/aten__view_slice_0_0_0_3_0__0__bundle_194_42897  |  Sizes = [1,1,4,189,128]  |  hfloat8  |  expBias = 7, scale = 1  |    |  ModelParam = 0  |  strides = [96768, 96768, 96768, 24192, 128, 1]  |  data = 0, sizeInBytes = 96768  |  location = in SRAM  |  sramOffset = 0x1000fffffd308f00  |  "
    }
  }
}
node {
  name: "module/model/0/fused_scaled_dot_product_attention/sdpa_recomp_fwd_hf8/4606_complex/sdpa_recomp_fwd_hf8_65/sdpa_recomp_core_fwd_hf8_32/fp8_gemm_hf8_520/batch_gemm_16_bundle_194/op_22"
  op: "BatchGemm"
  input: "reshape_11_11_bundle_194/op_15"
  input: "reshape_5_5_bundle_194/op_12"
  attr {
    key: "Bundle_idx"
    value {
      s: "194"
    }
  }
  attr {
    key: "Exec_idx"
    value {
      s: "59"
    }
  }
  attr {
    key: "Op_idx"
    value {
      s: "26"
    }
  }
  attr {
    key: "Parameters"
    value {
      s: "transpose_a=false, transpose_b=true"
    }
  }
  attr {
    key: "fp8BiasIn"
    value {
      s: "7"
    }
  }
  attr {
    key: "fp8BiasIn2"
    value {
      s: "7"
    }
  }
  attr {
    key: "fp8BiasOut"
    value {
      s: "0"
    }
  }
  attr {
    key: "inputTensor:0"
    value {
      s: "tensor_106_id_48167_module/model/0/fused_scaled_dot_product_attention/aten__view_slice_0_0_0_2_0__0__bundle_194_42887  |  Sizes = [1,1,4,189,128]  |  hfloat8  |  expBias = 7, scale = 1  |    |  ModelParam = 0  |  strides = [96768, 96768, 96768, 24192, 128, 1]  |  data = 0, sizeInBytes = 96768  |  location = in SRAM  |  sramOffset = 0x1000fffffd2f1500  |  "
    }
  }
  attr {
    key: "inputTensor:1"
    value {
      s: "tensor_87_id_48169_module/model/0/fused_scaled_dot_product_attention/aten__view_slice_0_0_0_2_0__0__bundle_194_42883  |  Sizes = [1,1,1,189,128]  |  hfloat8  |  expBias = 7, scale = 1  |    |  ModelParam = 0  |  strides = [24192, 24192, 24192, 24192, 128, 1]  |  data = 0, sizeInBytes = 24192  |  location = in SRAM  |  sramOffset = 0x1000fffffd2e5800  |  "
    }
  }
  attr {
    key: "outputTensor:0"
    value {
      s: "bf16-17_42437_slice_0_0_0_2_0__0__bundle_194_42898  |  Sizes = [1,1,4,189,189]  |  bf16  |  expBias = 0, scale = 1  |    |  ModelParam = 0  |  strides = [1143072, 1143072, 285768, 71442, 378, 2]  |  data = 0, sizeInBytes = 285768  |  isAliased = bf16-17_42437, type = concat, offset: 571536  |  location = in DRAM  |  "
    }
  }
}
node {
  name: "module/model/0/fused_scaled_dot_product_attention/sdpa_recomp_fwd_hf8/4606_complex/sdpa_recomp_fwd_hf8_65/sdpa_recomp_core_fwd_hf8_32/fp8_gemm_hf8_520/batch_gemm_16_bundle_194/op_23"
  op: "BatchGemm"
  input: "reshape_11_11_bundle_194/op_21"
  input: "reshape_5_5_bundle_194/op_18"
  attr {
    key: "Bundle_idx"
    value {
      s: "194"
    }
  }
  attr {
    key: "Exec_idx"
    value {
      s: "60"
    }
  }
  attr {
    key: "Op_idx"
    value {
      s: "27"
    }
  }
  attr {
    key: "Parameters"
    value {
      s: "transpose_a=false, transpose_b=true"
    }
  }
  attr {
    key: "fp8BiasIn"
    value {
      s: "7"
    }
  }
  attr {
    key: "fp8BiasIn2"
    value {
      s: "7"
    }
  }
  attr {
    key: "fp8BiasOut"
    value {
      s: "0"
    }
  }
  attr {
    key: "inputTensor:0"
    value {
      s: "tensor_106_id_48167_module/model/0/fused_scaled_dot_product_attention/aten__view_slice_0_0_0_3_0__0__bundle_194_42897  |  Sizes = [1,1,4,189,128]  |  hfloat8  |  expBias = 7, scale = 1  |    |  ModelParam = 0  |  strides = [96768, 96768, 96768, 24192, 128, 1]  |  data = 0, sizeInBytes = 96768  |  location = in SRAM  |  sramOffset = 0x1000fffffd308f00  |  "
    }
  }
  attr {
    key: "inputTensor:1"
    value {
      s: "tensor_87_id_48169_module/model/0/fused_scaled_dot_product_attention/aten__view_slice_0_0_0_3_0__0__bundle_194_42893  |  Sizes = [1,1,1,189,128]  |  hfloat8  |  expBias = 7, scale = 1  |    |  ModelParam = 0  |  strides = [24192, 24192, 24192, 24192, 128, 1]  |  data = 0, sizeInBytes = 24192  |  location = in SRAM  |  sramOffset = 0x1000fffffd2eb680  |  "
    }
  }
  attr {
    key: "outputTensor:0"
    value {
      s: "bf16-17_42437_slice_0_0_0_3_0__0__bundle_194_42899  |  Sizes = [1,1,4,189,189]  |  bf16  |  expBias = 0, scale = 1  |    |  ModelParam = 0  |  strides = [1143072, 1143072, 285768, 71442, 378, 2]  |  data = 0, sizeInBytes = 285768  |  isAliased = bf16-17_42437, type = concat, offset: 857304  |  location = in DRAM  |  "
    }
  }
}
node {
  name: "bf16-17_42437_bundle_194/concat_logical_internal/0"
  op: "Concatenate"
  input: "module/model/0/fused_scaled_dot_product_attention/sdpa_recomp_fwd_hf8/4606_complex/sdpa_recomp_fwd_hf8_65/sdpa_recomp_core_fwd_hf8_32/fp8_gemm_hf8_520/batch_gemm_16_bundle_194/op_10"
  input: "module/model/0/fused_scaled_dot_product_attention/sdpa_recomp_fwd_hf8/4606_complex/sdpa_recomp_fwd_hf8_65/sdpa_recomp_core_fwd_hf8_32/fp8_gemm_hf8_520/batch_gemm_16_bundle_194/op_16"
  input: "module/model/0/fused_scaled_dot_product_attention/sdpa_recomp_fwd_hf8/4606_complex/sdpa_recomp_fwd_hf8_65/sdpa_recomp_core_fwd_hf8_32/fp8_gemm_hf8_520/batch_gemm_16_bundle_194/op_22"
  input: "module/model/0/fused_scaled_dot_product_attention/sdpa_recomp_fwd_hf8/4606_complex/sdpa_recomp_fwd_hf8_65/sdpa_recomp_core_fwd_hf8_32/fp8_gemm_hf8_520/batch_gemm_16_bundle_194/op_23"
  attr {
    key: "Bundle_idx"
    value {
      s: "194"
    }
  }
  attr {
    key: "Exec_idx"
    value {
      s: "61"
    }
  }
  attr {
    key: "Op_idx"
    value {
      s: "28"
    }
  }
  attr {
    key: "inputTensor:0"
    value {
      s: "bf16-17_42437_slice_0_0_0_0_0__0__bundle_194_42878  |  Sizes = [1,1,4,189,189]  |  bf16  |  expBias = 0, scale = 1  |    |  ModelParam = 0  |  strides = [1143072, 1143072, 285768, 71442, 378, 2]  |  data = 0, sizeInBytes = 285768  |  isAliased = bf16-17_42437, type = concat, offset: 0  |  location = in DRAM  |  "
    }
  }
  attr {
    key: "inputTensor:1"
    value {
      s: "bf16-17_42437_slice_0_0_0_1_0__0__bundle_194_42888  |  Sizes = [1,1,4,189,189]  |  bf16  |  expBias = 0, scale = 1  |    |  ModelParam = 0  |  strides = [1143072, 1143072, 285768, 71442, 378, 2]  |  data = 0, sizeInBytes = 285768  |  isAliased = bf16-17_42437, type = concat, offset: 285768  |  location = in DRAM  |  "
    }
  }
  attr {
    key: "inputTensor:2"
    value {
      s: "bf16-17_42437_slice_0_0_0_2_0__0__bundle_194_42898  |  Sizes = [1,1,4,189,189]  |  bf16  |  expBias = 0, scale = 1  |    |  ModelParam = 0  |  strides = [1143072, 1143072, 285768, 71442, 378, 2]  |  data = 0, sizeInBytes = 285768  |  isAliased = bf16-17_42437, type = concat, offset: 571536  |  location = in DRAM  |  "
    }
  }
  attr {
    key: "inputTensor:3"
    value {
      s: "bf16-17_42437_slice_0_0_0_3_0__0__bundle_194_42899  |  Sizes = [1,1,4,189,189]  |  bf16  |  expBias = 0, scale = 1  |    |  ModelParam = 0  |  strides = [1143072, 1143072, 285768, 71442, 378, 2]  |  data = 0, sizeInBytes = 285768  |  isAliased = bf16-17_42437, type = concat, offset: 857304  |  location = in DRAM  |  "
    }
  }
  attr {
    key: "outputTensor:0"
    value {
      s: "bf16-17_42437  |  Sizes = [1,4,4,189,189]  |  bf16  |  expBias = 0, scale = 1  |    |  ModelParam = 0  |  strides = [1143072, 1143072, 285768, 71442, 378, 2]  |  data = 0, sizeInBytes = 1143072  |  location = in DRAM  |  dramOffset = 0x0  |  "
    }
  }
}
node {
  name: "module/model/0/fused_scaled_dot_product_attention/sdpa_recomp_fwd_hf8/4606_complex/sdpa_recomp_fwd_hf8_65/sdpa_recomp_core_fwd_hf8_32/constant_f32_18"
  op: "constant_f32"
  attr {
    key: "Bundle_idx"
    value {
      s: "N/A"
    }
  }
  attr {
    key: "Exec_idx"
    value {
      s: "62"
    }
  }
  attr {
    key: "Op_idx"
    value {
      s: "N/A"
    }
  }
  attr {
    key: "outputTensor:0"
    value {
      s: "f32-19_42438  |  Sizes = [1]  |  float32  |  expBias = 0, scale = 1  |    |  ModelParam = 0  |  strides = [4, 4]  |  data = 0, sizeInBytes = 4  |  location = in DRAM  |  dramOffset = 0x300000103e00  |  "
    }
  }
}
node {
  name: "module/model/0/fused_scaled_dot_product_attention/sdpa_recomp_fwd_hf8/4606_complex/sdpa_recomp_fwd_hf8_65/sdpa_recomp_core_fwd_hf8_32/constant_f32_20"
  op: "constant_f32"
  attr {
    key: "Bundle_idx"
    value {
      s: "N/A"
    }
  }
  attr {
    key: "Exec_idx"
    value {
      s: "63"
    }
  }
  attr {
    key: "Op_idx"
    value {
      s: "N/A"
    }
  }
  attr {
    key: "outputTensor:0"
    value {
      s: "f32-21_42439  |  Sizes = [1]  |  float32  |  expBias = 0, scale = 1  |    |  ModelParam = 0  |  strides = [4, 4]  |  data = 0, sizeInBytes = 4  |  location = in DRAM  |  dramOffset = 0x300000103e80  |  "
    }
  }
}
node {
  name: "tensor_67_bundle_195/split_internal/0"
  op: "Split"
  input: "module/model/0/quant_input_0/transpose/4584_transpose_via_logical"
  attr {
    key: "Bundle_idx"
    value {
      s: "195"
    }
  }
  attr {
    key: "Exec_idx"
    value {
      s: "64"
    }
  }
  attr {
    key: "Op_idx"
    value {
      s: "0"
    }
  }
  attr {
    key: "inputTensor:0"
    value {
      s: "tensor_67  |  Sizes = [1,4,189,128]  |  hfloat8  |  expBias = 7, scale = 1  |    |  ModelParam = 0  |  strides = [96768, 96768, 24192, 128, 1]  |  data = 0, sizeInBytes = 96768  |  isPersistent  |  location = in DRAM  |  dramOffset = 0x130000000000  |  userMemorySection(type=Persistent, id=19)  |  "
    }
  }
  attr {
    key: "outputTensor:0"
    value {
      s: "tensor_67_slice_0_0_0_0_0__0__bundle_195_42900  |  Sizes = [1,1,189,128]  |  hfloat8  |  expBias = 7, scale = 1  |    |  ModelParam = 0  |  strides = [96768, 96768, 24192, 128, 1]  |  data = 0, sizeInBytes = 24192  |  isAliased = tensor_67, type = concat, offset: 0  |  location = in DRAM  |  "
    }
  }
  attr {
    key: "outputTensor:1"
    value {
      s: "tensor_67_slice_0_0_1_0_0__0__bundle_195_42910  |  Sizes = [1,1,189,128]  |  hfloat8  |  expBias = 7, scale = 1  |    |  ModelParam = 0  |  strides = [96768, 96768, 24192, 128, 1]  |  data = 0, sizeInBytes = 24192  |  isAliased = tensor_67, type = concat, offset: 24192  |  location = in DRAM  |  "
    }
  }
  attr {
    key: "outputTensor:2"
    value {
      s: "tensor_67_slice_0_0_2_0_0__0__bundle_195_42917  |  Sizes = [1,1,189,128]  |  hfloat8  |  expBias = 7, scale = 1  |    |  ModelParam = 0  |  strides = [96768, 96768, 24192, 128, 1]  |  data = 0, sizeInBytes = 24192  |  isAliased = tensor_67, type = concat, offset: 48384  |  location = in DRAM  |  "
    }
  }
  attr {
    key: "outputTensor:3"
    value {
      s: "tensor_67_slice_0_0_3_0_0__0__bundle_195_42924  |  Sizes = [1,1,189,128]  |  hfloat8  |  expBias = 7, scale = 1  |    |  ModelParam = 0  |  strides = [96768, 96768, 24192, 128, 1]  |  data = 0, sizeInBytes = 24192  |  isAliased = tensor_67, type = concat, offset: 72576  |  location = in DRAM  |  "
    }
  }
}
node {
  name: "bf16-17_42437_bundle_195/split_internal/0"
  op: "Split"
  input: "bf16-17_42437_bundle_194/concat_logical_internal/0"
  attr {
    key: "Bundle_idx"
    value {
      s: "195"
    }
  }
  attr {
    key: "Exec_idx"
    value {
      s: "65"
    }
  }
  attr {
    key: "Op_idx"
    value {
      s: "1"
    }
  }
  attr {
    key: "inputTensor:0"
    value {
      s: "bf16-17_42437  |  Sizes = [1,4,4,189,189]  |  bf16  |  expBias = 0, scale = 1  |    |  ModelParam = 0  |  strides = [1143072, 1143072, 285768, 71442, 378, 2]  |  data = 0, sizeInBytes = 1143072  |  location = in DRAM  |  dramOffset = 0x0  |  "
    }
  }
  attr {
    key: "outputTensor:0"
    value {
      s: "bf16-17_42437_slice_0_0_0_0_0__0__bundle_195_42904  |  Sizes = [1,1,4,189,189]  |  bf16  |  expBias = 0, scale = 1  |    |  ModelParam = 0  |  strides = [1143072, 1143072, 285768, 71442, 378, 2]  |  data = 0, sizeInBytes = 285768  |  isAliased = bf16-17_42437, type = concat, offset: 0  |  location = in DRAM  |  "
    }
  }
  attr {
    key: "outputTensor:1"
    value {
      s: "bf16-17_42437_slice_0_0_0_1_0__0__bundle_195_42914  |  Sizes = [1,1,4,189,189]  |  bf16  |  expBias = 0, scale = 1  |    |  ModelParam = 0  |  strides = [1143072, 1143072, 285768, 71442, 378, 2]  |  data = 0, sizeInBytes = 285768  |  isAliased = bf16-17_42437, type = concat, offset: 285768  |  location = in DRAM  |  "
    }
  }
  attr {
    key: "outputTensor:2"
    value {
      s: "bf16-17_42437_slice_0_0_0_2_0__0__bundle_195_42921  |  Sizes = [1,1,4,189,189]  |  bf16  |  expBias = 0, scale = 1  |    |  ModelParam = 0  |  strides = [1143072, 1143072, 285768, 71442, 378, 2]  |  data = 0, sizeInBytes = 285768  |  isAliased = bf16-17_42437, type = concat, offset: 571536  |  location = in DRAM  |  "
    }
  }
  attr {
    key: "outputTensor:3"
    value {
      s: "bf16-17_42437_slice_0_0_0_3_0__0__bundle_195_42928  |  Sizes = [1,1,4,189,189]  |  bf16  |  expBias = 0, scale = 1  |    |  ModelParam = 0  |  strides = [1143072, 1143072, 285768, 71442, 378, 2]  |  data = 0, sizeInBytes = 285768  |  isAliased = bf16-17_42437, type = concat, offset: 857304  |  location = in DRAM  |  "
    }
  }
}
node {
  name: "fusedTPCNode_76_2_bundle_195/op_0"
  op: "fused_kernel_0x7840DEC6_D0_bf16"
  input: "tensor_67_bundle_195/split_internal/0"
  attr {
    key: "Bundle_idx"
    value {
      s: "195"
    }
  }
  attr {
    key: "Exec_idx"
    value {
      s: "66"
    }
  }
  attr {
    key: "Op_idx"
    value {
      s: "2"
    }
  }
  attr {
    key: "inputTensor:0"
    value {
      s: "tensor_67_slice_0_0_0_0_0__0__bundle_195_42900  |  Sizes = [1,1,189,128]  |  hfloat8  |  expBias = 7, scale = 1  |    |  ModelParam = 0  |  strides = [96768, 96768, 24192, 128, 1]  |  data = 0, sizeInBytes = 24192  |  isAliased = tensor_67, type = concat, offset: 0  |  location = in DRAM  |  "
    }
  }
  attr {
    key: "outputTensor:0"
    value {
      s: "tensor_70_slice_0_0_0_0_0__0__bundle_195_42901  |  Sizes = [1,1,189,128]  |  bf16  |  expBias = 0, scale = 1  |    |  ModelParam = 0  |  strides = [193536, 193536, 48384, 256, 2]  |  data = 0, sizeInBytes = 48384  |  isAliased = tensor_70, type = concat, offset: 0  |  location = in DRAM  |  "
    }
  }
  attr {
    key: "outputTensor:1"
    value {
      s: "tensor-42618_slice_0_0_0_0_0__0__bundle_195_42902  |  Sizes = [1,1,189,128]  |  hfloat8  |  expBias = 7, scale = 1  |    |  ModelParam = 0  |  strides = [24192, 24192, 24192, 128, 1]  |  data = 0, sizeInBytes = 24192  |  isAliased = tensor_82_id_48171_module/model/0/fused_scaled_dot_product_attention/aten__view_slice_0_0_0_0_0__0__bundle_195_42903, type = alias, offset: 0  |  location = in SRAM  |  sramOffset = 0x1000fffffd320900  |  "
    }
  }
}
node {
  name: "reshape_8_8_bundle_195/op_1"
  op: "Reshape"
  input: "fusedTPCNode_76_2_bundle_195/op_0"
  attr {
    key: "Bundle_idx"
    value {
      s: "195"
    }
  }
  attr {
    key: "Exec_idx"
    value {
      s: "67"
    }
  }
  attr {
    key: "Op_idx"
    value {
      s: "3"
    }
  }
  attr {
    key: "inputTensor:0"
    value {
      s: "tensor-42618_slice_0_0_0_0_0__0__bundle_195_42902  |  Sizes = [1,1,189,128]  |  hfloat8  |  expBias = 7, scale = 1  |    |  ModelParam = 0  |  strides = [24192, 24192, 24192, 128, 1]  |  data = 0, sizeInBytes = 24192  |  isAliased = tensor_82_id_48171_module/model/0/fused_scaled_dot_product_attention/aten__view_slice_0_0_0_0_0__0__bundle_195_42903, type = alias, offset: 0  |  location = in SRAM  |  sramOffset = 0x1000fffffd320900  |  "
    }
  }
  attr {
    key: "outputTensor:0"
    value {
      s: "tensor_82_id_48171_module/model/0/fused_scaled_dot_product_attention/aten__view_slice_0_0_0_0_0__0__bundle_195_42903  |  Sizes = [1,1,1,189,128]  |  hfloat8  |  expBias = 7, scale = 1  |    |  ModelParam = 0  |  strides = [24192, 24192, 24192, 24192, 128, 1]  |  data = 0, sizeInBytes = 24192  |  location = in SRAM  |  sramOffset = 0x1000fffffd320900  |  "
    }
  }
}
node {
  name: "tensor_110_odule/model/0/fused_scaled_dot_product_attention/placeholder/7"
  op: "Placeholder"
  attr {
    key: "dtype"
    value {
      type: DT_FLOAT
    }
  }
  attr {
    key: "shape"
    value {
      shape {
        dim {
          size: 1
        }
        dim {
          size: 1
        }
        dim {
          size: 1
        }
        dim {
          size: 1
        }
        dim {
          size: 1
        }
      }
    }
  }
  attr {
    key: "synDataType"
    value {
      s: "float32"
    }
  }
}
node {
  name: "module/model/0/fused_scaled_dot_product_attention/sdpa_recomp_fwd_hf8/4606_complex/sdpa_recomp_fwd_hf8_65/sdpa_recomp_core_fwd_hf8_32/softmax_fwd_hf8_22_bundle_195/op_2"
  op: "softmax_fwd_hf8"
  input: "bf16-17_42437_bundle_195/split_internal/0"
  input: "module/model/0/fused_scaled_dot_product_attention/sdpa_recomp_fwd_hf8/4606_complex/sdpa_recomp_fwd_hf8_65/sdpa_recomp_core_fwd_hf8_32/constant_f32_18"
  input: "module/model/0/fused_scaled_dot_product_attention/sdpa_recomp_fwd_hf8/4606_complex/sdpa_recomp_fwd_hf8_65/sdpa_recomp_core_fwd_hf8_32/constant_f32_20"
  input: "tensor_110_odule/model/0/fused_scaled_dot_product_attention/placeholder/7"
  input: "module/model/0/fused_scaled_dot_product_attention/expand_dims/4593"
  attr {
    key: "Bundle_idx"
    value {
      s: "195"
    }
  }
  attr {
    key: "Exec_idx"
    value {
      s: "68"
    }
  }
  attr {
    key: "Op_idx"
    value {
      s: "4"
    }
  }
  attr {
    key: "inputTensor:0"
    value {
      s: "bf16-17_42437_slice_0_0_0_0_0__0__bundle_195_42904  |  Sizes = [1,1,4,189,189]  |  bf16  |  expBias = 0, scale = 1  |    |  ModelParam = 0  |  strides = [1143072, 1143072, 285768, 71442, 378, 2]  |  data = 0, sizeInBytes = 285768  |  isAliased = bf16-17_42437, type = concat, offset: 0  |  location = in DRAM  |  "
    }
  }
  attr {
    key: "inputTensor:1"
    value {
      s: "f32-19_42438  |  Sizes = [1]  |  float32  |  expBias = 0, scale = 1  |    |  ModelParam = 0  |  strides = [4, 4]  |  data = 0, sizeInBytes = 4  |  location = in DRAM  |  dramOffset = 0x300000103e00  |  "
    }
  }
  attr {
    key: "inputTensor:2"
    value {
      s: "f32-21_42439  |  Sizes = [1]  |  float32  |  expBias = 0, scale = 1  |    |  ModelParam = 0  |  strides = [4, 4]  |  data = 0, sizeInBytes = 4  |  location = in DRAM  |  dramOffset = 0x300000103e80  |  "
    }
  }
  attr {
    key: "inputTensor:3"
    value {
      s: "tensor_110_odule/model/0/fused_scaled_dot_product_attention/placeholder/7  |  Sizes = [1]  |  float32  |  expBias = 0, scale = 1  |    |  ModelParam = 0  |  strides = [4, 4]  |  data = 0x55c381304c40, sizeInBytes = 4  |  buffer = 16  |  isPersistent  |  location = in DRAM  |  dramOffset = 0x270000000000  |  userMemorySection(type=Persistent, id=39)  |  isStaticParam  |  bufferDtype=float32  |  "
    }
  }
  attr {
    key: "inputTensor:4"
    value {
      s: "tensor_77_id_48173_module/model/0/fused_scaled_dot_product_attention/aten__unsqueeze  |  Sizes = [1,1,1,189,189]  |  bf16  |  expBias = 0, scale = 1  |    |  ModelParam = 0  |  strides = [71442, 71442, 71442, 71442, 378, 2]  |  data = 0, sizeInBytes = 71442  |  isAliased = tensor_71_odule/model/0/fused_scaled_dot_product_attention/placeholder/0, type = alias, offset: 0  |  location = in DRAM  |  "
    }
  }
  attr {
    key: "outputTensor:0"
    value {
      s: "hf8-23_42440_slice_0_0_0_0_0__0__bundle_195_42909  |  Sizes = [1,1,4,189,189]  |  hfloat8  |  expBias = 7, scale = 1  |    |  ModelParam = 0  |  strides = [193536, 193536, 193536, 48384, 256, 1]  |  data = 0, sizeInBytes = 193536  |  location = in SRAM  |  sramOffset = 0x1000fffffd32c600  |  isSparseLayout  |  "
    }
  }
}
node {
  name: "fusedTPCNode_76_2_bundle_195/op_3"
  op: "fused_kernel_0x7840DEC6_D0_bf16"
  input: "tensor_67_bundle_195/split_internal/0"
  attr {
    key: "Bundle_idx"
    value {
      s: "195"
    }
  }
  attr {
    key: "Exec_idx"
    value {
      s: "69"
    }
  }
  attr {
    key: "Op_idx"
    value {
      s: "5"
    }
  }
  attr {
    key: "inputTensor:0"
    value {
      s: "tensor_67_slice_0_0_1_0_0__0__bundle_195_42910  |  Sizes = [1,1,189,128]  |  hfloat8  |  expBias = 7, scale = 1  |    |  ModelParam = 0  |  strides = [96768, 96768, 24192, 128, 1]  |  data = 0, sizeInBytes = 24192  |  isAliased = tensor_67, type = concat, offset: 24192  |  location = in DRAM  |  "
    }
  }
  attr {
    key: "outputTensor:0"
    value {
      s: "tensor_70_slice_0_0_1_0_0__0__bundle_195_42911  |  Sizes = [1,1,189,128]  |  bf16  |  expBias = 0, scale = 1  |    |  ModelParam = 0  |  strides = [193536, 193536, 48384, 256, 2]  |  data = 0, sizeInBytes = 48384  |  isAliased = tensor_70, type = concat, offset: 48384  |  location = in DRAM  |  "
    }
  }
  attr {
    key: "outputTensor:1"
    value {
      s: "tensor-42618_slice_0_0_1_0_0__0__bundle_195_42912  |  Sizes = [1,1,189,128]  |  hfloat8  |  expBias = 7, scale = 1  |    |  ModelParam = 0  |  strides = [24192, 24192, 24192, 128, 1]  |  data = 0, sizeInBytes = 24192  |  isAliased = tensor_82_id_48171_module/model/0/fused_scaled_dot_product_attention/aten__view_slice_0_0_0_1_0__0__bundle_195_42913, type = alias, offset: 0  |  location = in SRAM  |  sramOffset = 0x1000fffffd326780  |  "
    }
  }
}
node {
  name: "reshape_8_8_bundle_195/op_4"
  op: "Reshape"
  input: "fusedTPCNode_76_2_bundle_195/op_3"
  attr {
    key: "Bundle_idx"
    value {
      s: "195"
    }
  }
  attr {
    key: "Exec_idx"
    value {
      s: "70"
    }
  }
  attr {
    key: "Op_idx"
    value {
      s: "6"
    }
  }
  attr {
    key: "inputTensor:0"
    value {
      s: "tensor-42618_slice_0_0_1_0_0__0__bundle_195_42912  |  Sizes = [1,1,189,128]  |  hfloat8  |  expBias = 7, scale = 1  |    |  ModelParam = 0  |  strides = [24192, 24192, 24192, 128, 1]  |  data = 0, sizeInBytes = 24192  |  isAliased = tensor_82_id_48171_module/model/0/fused_scaled_dot_product_attention/aten__view_slice_0_0_0_1_0__0__bundle_195_42913, type = alias, offset: 0  |  location = in SRAM  |  sramOffset = 0x1000fffffd326780  |  "
    }
  }
  attr {
    key: "outputTensor:0"
    value {
      s: "tensor_82_id_48171_module/model/0/fused_scaled_dot_product_attention/aten__view_slice_0_0_0_1_0__0__bundle_195_42913  |  Sizes = [1,1,1,189,128]  |  hfloat8  |  expBias = 7, scale = 1  |    |  ModelParam = 0  |  strides = [24192, 24192, 24192, 24192, 128, 1]  |  data = 0, sizeInBytes = 24192  |  location = in SRAM  |  sramOffset = 0x1000fffffd326780  |  "
    }
  }
}
node {
  name: "module/model/0/fused_scaled_dot_product_attention/sdpa_recomp_fwd_hf8/4606_complex/sdpa_recomp_fwd_hf8_65/sdpa_recomp_core_fwd_hf8_32/softmax_fwd_hf8_22_bundle_195/op_5"
  op: "softmax_fwd_hf8"
  input: "bf16-17_42437_bundle_195/split_internal/0"
  input: "module/model/0/fused_scaled_dot_product_attention/sdpa_recomp_fwd_hf8/4606_complex/sdpa_recomp_fwd_hf8_65/sdpa_recomp_core_fwd_hf8_32/constant_f32_18"
  input: "module/model/0/fused_scaled_dot_product_attention/sdpa_recomp_fwd_hf8/4606_complex/sdpa_recomp_fwd_hf8_65/sdpa_recomp_core_fwd_hf8_32/constant_f32_20"
  input: "tensor_110_odule/model/0/fused_scaled_dot_product_attention/placeholder/7"
  input: "module/model/0/fused_scaled_dot_product_attention/expand_dims/4593"
  attr {
    key: "Bundle_idx"
    value {
      s: "195"
    }
  }
  attr {
    key: "Exec_idx"
    value {
      s: "71"
    }
  }
  attr {
    key: "Op_idx"
    value {
      s: "7"
    }
  }
  attr {
    key: "inputTensor:0"
    value {
      s: "bf16-17_42437_slice_0_0_0_1_0__0__bundle_195_42914  |  Sizes = [1,1,4,189,189]  |  bf16  |  expBias = 0, scale = 1  |    |  ModelParam = 0  |  strides = [1143072, 1143072, 285768, 71442, 378, 2]  |  data = 0, sizeInBytes = 285768  |  isAliased = bf16-17_42437, type = concat, offset: 285768  |  location = in DRAM  |  "
    }
  }
  attr {
    key: "inputTensor:1"
    value {
      s: "f32-19_42438  |  Sizes = [1]  |  float32  |  expBias = 0, scale = 1  |    |  ModelParam = 0  |  strides = [4, 4]  |  data = 0, sizeInBytes = 4  |  location = in DRAM  |  dramOffset = 0x300000103e00  |  "
    }
  }
  attr {
    key: "inputTensor:2"
    value {
      s: "f32-21_42439  |  Sizes = [1]  |  float32  |  expBias = 0, scale = 1  |    |  ModelParam = 0  |  strides = [4, 4]  |  data = 0, sizeInBytes = 4  |  location = in DRAM  |  dramOffset = 0x300000103e80  |  "
    }
  }
  attr {
    key: "inputTensor:3"
    value {
      s: "tensor_110_odule/model/0/fused_scaled_dot_product_attention/placeholder/7  |  Sizes = [1]  |  float32  |  expBias = 0, scale = 1  |    |  ModelParam = 0  |  strides = [4, 4]  |  data = 0x55c381304c40, sizeInBytes = 4  |  buffer = 16  |  isPersistent  |  location = in DRAM  |  dramOffset = 0x270000000000  |  userMemorySection(type=Persistent, id=39)  |  isStaticParam  |  bufferDtype=float32  |  "
    }
  }
  attr {
    key: "inputTensor:4"
    value {
      s: "tensor_77_id_48173_module/model/0/fused_scaled_dot_product_attention/aten__unsqueeze  |  Sizes = [1,1,1,189,189]  |  bf16  |  expBias = 0, scale = 1  |    |  ModelParam = 0  |  strides = [71442, 71442, 71442, 71442, 378, 2]  |  data = 0, sizeInBytes = 71442  |  isAliased = tensor_71_odule/model/0/fused_scaled_dot_product_attention/placeholder/0, type = alias, offset: 0  |  location = in DRAM  |  "
    }
  }
  attr {
    key: "outputTensor:0"
    value {
      s: "hf8-23_42440_slice_0_0_0_1_0__0__bundle_195_42915  |  Sizes = [1,1,4,189,189]  |  hfloat8  |  expBias = 7, scale = 1  |    |  ModelParam = 0  |  strides = [193536, 193536, 193536, 48384, 256, 1]  |  data = 0, sizeInBytes = 193536  |  location = in SRAM  |  sramOffset = 0x1000fffffd35ba00  |  isSparseLayout  |  "
    }
  }
}
node {
  name: "module/model/0/fused_scaled_dot_product_attention/sdpa_recomp_fwd_hf8/4606_complex/sdpa_recomp_fwd_hf8_65/sdpa_recomp_core_fwd_hf8_32/fp8_gemm_hf8_521/batch_gemm_24_bundle_195/op_6"
  op: "BatchGemm"
  input: "module/model/0/fused_scaled_dot_product_attention/sdpa_recomp_fwd_hf8/4606_complex/sdpa_recomp_fwd_hf8_65/sdpa_recomp_core_fwd_hf8_32/softmax_fwd_hf8_22_bundle_195/op_2"
  input: "reshape_8_8_bundle_195/op_1"
  attr {
    key: "Bundle_idx"
    value {
      s: "195"
    }
  }
  attr {
    key: "Exec_idx"
    value {
      s: "72"
    }
  }
  attr {
    key: "Op_idx"
    value {
      s: "8"
    }
  }
  attr {
    key: "Parameters"
    value {
      s: "transpose_a=false, transpose_b=false"
    }
  }
  attr {
    key: "fp8BiasIn"
    value {
      s: "11"
    }
  }
  attr {
    key: "fp8BiasIn2"
    value {
      s: "11"
    }
  }
  attr {
    key: "fp8BiasOut"
    value {
      s: "11"
    }
  }
  attr {
    key: "inputTensor:0"
    value {
      s: "hf8-23_42440_slice_0_0_0_0_0__0__bundle_195_42909  |  Sizes = [1,1,4,189,189]  |  hfloat8  |  expBias = 7, scale = 1  |    |  ModelParam = 0  |  strides = [193536, 193536, 193536, 48384, 256, 1]  |  data = 0, sizeInBytes = 193536  |  location = in SRAM  |  sramOffset = 0x1000fffffd32c600  |  isSparseLayout  |  "
    }
  }
  attr {
    key: "inputTensor:1"
    value {
      s: "tensor_82_id_48171_module/model/0/fused_scaled_dot_product_attention/aten__view_slice_0_0_0_0_0__0__bundle_195_42903  |  Sizes = [1,1,1,189,128]  |  hfloat8  |  expBias = 7, scale = 1  |    |  ModelParam = 0  |  strides = [24192, 24192, 24192, 24192, 128, 1]  |  data = 0, sizeInBytes = 24192  |  location = in SRAM  |  sramOffset = 0x1000fffffd320900  |  "
    }
  }
  attr {
    key: "outputTensor:0"
    value {
      s: "tensor_118_slice_0_0_0_0_0__0__bundle_195_42916  |  Sizes = [1,1,4,189,128]  |  hfloat8  |  expBias = 7, scale = 1  |    |  ModelParam = 0  |  strides = [387072, 387072, 96768, 24192, 128, 1]  |  data = 0, sizeInBytes = 96768  |  isAliased = tensor_118, type = concat, offset: 0  |  location = in DRAM  |  "
    }
  }
}
node {
  name: "module/model/0/fused_scaled_dot_product_attention/sdpa_recomp_fwd_hf8/4606_complex/sdpa_recomp_fwd_hf8_65/sdpa_recomp_core_fwd_hf8_32/fp8_gemm_hf8_521/batch_gemm_24_bundle_195/op_10"
  op: "BatchGemm"
  input: "module/model/0/fused_scaled_dot_product_attention/sdpa_recomp_fwd_hf8/4606_complex/sdpa_recomp_fwd_hf8_65/sdpa_recomp_core_fwd_hf8_32/softmax_fwd_hf8_22_bundle_195/op_5"
  input: "reshape_8_8_bundle_195/op_4"
  attr {
    key: "Bundle_idx"
    value {
      s: "195"
    }
  }
  attr {
    key: "Exec_idx"
    value {
      s: "73"
    }
  }
  attr {
    key: "Op_idx"
    value {
      s: "9"
    }
  }
  attr {
    key: "Parameters"
    value {
      s: "transpose_a=false, transpose_b=false"
    }
  }
  attr {
    key: "fp8BiasIn"
    value {
      s: "11"
    }
  }
  attr {
    key: "fp8BiasIn2"
    value {
      s: "11"
    }
  }
  attr {
    key: "fp8BiasOut"
    value {
      s: "11"
    }
  }
  attr {
    key: "inputTensor:0"
    value {
      s: "hf8-23_42440_slice_0_0_0_1_0__0__bundle_195_42915  |  Sizes = [1,1,4,189,189]  |  hfloat8  |  expBias = 7, scale = 1  |    |  ModelParam = 0  |  strides = [193536, 193536, 193536, 48384, 256, 1]  |  data = 0, sizeInBytes = 193536  |  location = in SRAM  |  sramOffset = 0x1000fffffd35ba00  |  isSparseLayout  |  "
    }
  }
  attr {
    key: "inputTensor:1"
    value {
      s: "tensor_82_id_48171_module/model/0/fused_scaled_dot_product_attention/aten__view_slice_0_0_0_1_0__0__bundle_195_42913  |  Sizes = [1,1,1,189,128]  |  hfloat8  |  expBias = 7, scale = 1  |    |  ModelParam = 0  |  strides = [24192, 24192, 24192, 24192, 128, 1]  |  data = 0, sizeInBytes = 24192  |  location = in SRAM  |  sramOffset = 0x1000fffffd326780  |  "
    }
  }
  attr {
    key: "outputTensor:0"
    value {
      s: "tensor_118_slice_0_0_0_1_0__0__bundle_195_42923  |  Sizes = [1,1,4,189,128]  |  hfloat8  |  expBias = 7, scale = 1  |    |  ModelParam = 0  |  strides = [387072, 387072, 96768, 24192, 128, 1]  |  data = 0, sizeInBytes = 96768  |  isAliased = tensor_118, type = concat, offset: 96768  |  location = in DRAM  |  "
    }
  }
}
node {
  name: "fusedTPCNode_76_2_bundle_195/op_7"
  op: "fused_kernel_0x7840DEC6_D0_bf16"
  input: "tensor_67_bundle_195/split_internal/0"
  attr {
    key: "Bundle_idx"
    value {
      s: "195"
    }
  }
  attr {
    key: "Exec_idx"
    value {
      s: "74"
    }
  }
  attr {
    key: "Op_idx"
    value {
      s: "10"
    }
  }
  attr {
    key: "inputTensor:0"
    value {
      s: "tensor_67_slice_0_0_2_0_0__0__bundle_195_42917  |  Sizes = [1,1,189,128]  |  hfloat8  |  expBias = 7, scale = 1  |    |  ModelParam = 0  |  strides = [96768, 96768, 24192, 128, 1]  |  data = 0, sizeInBytes = 24192  |  isAliased = tensor_67, type = concat, offset: 48384  |  location = in DRAM  |  "
    }
  }
  attr {
    key: "outputTensor:0"
    value {
      s: "tensor_70_slice_0_0_2_0_0__0__bundle_195_42918  |  Sizes = [1,1,189,128]  |  bf16  |  expBias = 0, scale = 1  |    |  ModelParam = 0  |  strides = [193536, 193536, 48384, 256, 2]  |  data = 0, sizeInBytes = 48384  |  isAliased = tensor_70, type = concat, offset: 96768  |  location = in DRAM  |  "
    }
  }
  attr {
    key: "outputTensor:1"
    value {
      s: "tensor-42618_slice_0_0_2_0_0__0__bundle_195_42919  |  Sizes = [1,1,189,128]  |  hfloat8  |  expBias = 7, scale = 1  |    |  ModelParam = 0  |  strides = [24192, 24192, 24192, 128, 1]  |  data = 0, sizeInBytes = 24192  |  isAliased = tensor_82_id_48171_module/model/0/fused_scaled_dot_product_attention/aten__view_slice_0_0_0_2_0__0__bundle_195_42920, type = alias, offset: 0  |  location = in SRAM  |  sramOffset = 0x1000fffffd320900  |  "
    }
  }
}
node {
  name: "reshape_8_8_bundle_195/op_8"
  op: "Reshape"
  input: "fusedTPCNode_76_2_bundle_195/op_7"
  attr {
    key: "Bundle_idx"
    value {
      s: "195"
    }
  }
  attr {
    key: "Exec_idx"
    value {
      s: "75"
    }
  }
  attr {
    key: "Op_idx"
    value {
      s: "11"
    }
  }
  attr {
    key: "inputTensor:0"
    value {
      s: "tensor-42618_slice_0_0_2_0_0__0__bundle_195_42919  |  Sizes = [1,1,189,128]  |  hfloat8  |  expBias = 7, scale = 1  |    |  ModelParam = 0  |  strides = [24192, 24192, 24192, 128, 1]  |  data = 0, sizeInBytes = 24192  |  isAliased = tensor_82_id_48171_module/model/0/fused_scaled_dot_product_attention/aten__view_slice_0_0_0_2_0__0__bundle_195_42920, type = alias, offset: 0  |  location = in SRAM  |  sramOffset = 0x1000fffffd320900  |  "
    }
  }
  attr {
    key: "outputTensor:0"
    value {
      s: "tensor_82_id_48171_module/model/0/fused_scaled_dot_product_attention/aten__view_slice_0_0_0_2_0__0__bundle_195_42920  |  Sizes = [1,1,1,189,128]  |  hfloat8  |  expBias = 7, scale = 1  |    |  ModelParam = 0  |  strides = [24192, 24192, 24192, 24192, 128, 1]  |  data = 0, sizeInBytes = 24192  |  location = in SRAM  |  sramOffset = 0x1000fffffd320900  |  "
    }
  }
}
node {
  name: "module/model/0/fused_scaled_dot_product_attention/sdpa_recomp_fwd_hf8/4606_complex/sdpa_recomp_fwd_hf8_65/sdpa_recomp_core_fwd_hf8_32/softmax_fwd_hf8_22_bundle_195/op_9"
  op: "softmax_fwd_hf8"
  input: "bf16-17_42437_bundle_195/split_internal/0"
  input: "module/model/0/fused_scaled_dot_product_attention/sdpa_recomp_fwd_hf8/4606_complex/sdpa_recomp_fwd_hf8_65/sdpa_recomp_core_fwd_hf8_32/constant_f32_18"
  input: "module/model/0/fused_scaled_dot_product_attention/sdpa_recomp_fwd_hf8/4606_complex/sdpa_recomp_fwd_hf8_65/sdpa_recomp_core_fwd_hf8_32/constant_f32_20"
  input: "tensor_110_odule/model/0/fused_scaled_dot_product_attention/placeholder/7"
  input: "module/model/0/fused_scaled_dot_product_attention/expand_dims/4593"
  attr {
    key: "Bundle_idx"
    value {
      s: "195"
    }
  }
  attr {
    key: "Exec_idx"
    value {
      s: "76"
    }
  }
  attr {
    key: "Op_idx"
    value {
      s: "12"
    }
  }
  attr {
    key: "inputTensor:0"
    value {
      s: "bf16-17_42437_slice_0_0_0_2_0__0__bundle_195_42921  |  Sizes = [1,1,4,189,189]  |  bf16  |  expBias = 0, scale = 1  |    |  ModelParam = 0  |  strides = [1143072, 1143072, 285768, 71442, 378, 2]  |  data = 0, sizeInBytes = 285768  |  isAliased = bf16-17_42437, type = concat, offset: 571536  |  location = in DRAM  |  "
    }
  }
  attr {
    key: "inputTensor:1"
    value {
      s: "f32-19_42438  |  Sizes = [1]  |  float32  |  expBias = 0, scale = 1  |    |  ModelParam = 0  |  strides = [4, 4]  |  data = 0, sizeInBytes = 4  |  location = in DRAM  |  dramOffset = 0x300000103e00  |  "
    }
  }
  attr {
    key: "inputTensor:2"
    value {
      s: "f32-21_42439  |  Sizes = [1]  |  float32  |  expBias = 0, scale = 1  |    |  ModelParam = 0  |  strides = [4, 4]  |  data = 0, sizeInBytes = 4  |  location = in DRAM  |  dramOffset = 0x300000103e80  |  "
    }
  }
  attr {
    key: "inputTensor:3"
    value {
      s: "tensor_110_odule/model/0/fused_scaled_dot_product_attention/placeholder/7  |  Sizes = [1]  |  float32  |  expBias = 0, scale = 1  |    |  ModelParam = 0  |  strides = [4, 4]  |  data = 0x55c381304c40, sizeInBytes = 4  |  buffer = 16  |  isPersistent  |  location = in DRAM  |  dramOffset = 0x270000000000  |  userMemorySection(type=Persistent, id=39)  |  isStaticParam  |  bufferDtype=float32  |  "
    }
  }
  attr {
    key: "inputTensor:4"
    value {
      s: "tensor_77_id_48173_module/model/0/fused_scaled_dot_product_attention/aten__unsqueeze  |  Sizes = [1,1,1,189,189]  |  bf16  |  expBias = 0, scale = 1  |    |  ModelParam = 0  |  strides = [71442, 71442, 71442, 71442, 378, 2]  |  data = 0, sizeInBytes = 71442  |  isAliased = tensor_71_odule/model/0/fused_scaled_dot_product_attention/placeholder/0, type = alias, offset: 0  |  location = in DRAM  |  "
    }
  }
  attr {
    key: "outputTensor:0"
    value {
      s: "hf8-23_42440_slice_0_0_0_2_0__0__bundle_195_42922  |  Sizes = [1,1,4,189,189]  |  hfloat8  |  expBias = 7, scale = 1  |    |  ModelParam = 0  |  strides = [193536, 193536, 193536, 48384, 256, 1]  |  data = 0, sizeInBytes = 193536  |  location = in SRAM  |  sramOffset = 0x1000fffffd32c600  |  isSparseLayout  |  "
    }
  }
}
node {
  name: "fusedTPCNode_76_2_bundle_195/op_11"
  op: "fused_kernel_0x7840DEC6_D0_bf16"
  input: "tensor_67_bundle_195/split_internal/0"
  attr {
    key: "Bundle_idx"
    value {
      s: "195"
    }
  }
  attr {
    key: "Exec_idx"
    value {
      s: "77"
    }
  }
  attr {
    key: "Op_idx"
    value {
      s: "13"
    }
  }
  attr {
    key: "inputTensor:0"
    value {
      s: "tensor_67_slice_0_0_3_0_0__0__bundle_195_42924  |  Sizes = [1,1,189,128]  |  hfloat8  |  expBias = 7, scale = 1  |    |  ModelParam = 0  |  strides = [96768, 96768, 24192, 128, 1]  |  data = 0, sizeInBytes = 24192  |  isAliased = tensor_67, type = concat, offset: 72576  |  location = in DRAM  |  "
    }
  }
  attr {
    key: "outputTensor:0"
    value {
      s: "tensor_70_slice_0_0_3_0_0__0__bundle_195_42925  |  Sizes = [1,1,189,128]  |  bf16  |  expBias = 0, scale = 1  |    |  ModelParam = 0  |  strides = [193536, 193536, 48384, 256, 2]  |  data = 0, sizeInBytes = 48384  |  isAliased = tensor_70, type = concat, offset: 145152  |  location = in DRAM  |  "
    }
  }
  attr {
    key: "outputTensor:1"
    value {
      s: "tensor-42618_slice_0_0_3_0_0__0__bundle_195_42926  |  Sizes = [1,1,189,128]  |  hfloat8  |  expBias = 7, scale = 1  |    |  ModelParam = 0  |  strides = [24192, 24192, 24192, 128, 1]  |  data = 0, sizeInBytes = 24192  |  isAliased = tensor_82_id_48171_module/model/0/fused_scaled_dot_product_attention/aten__view_slice_0_0_0_3_0__0__bundle_195_42927, type = alias, offset: 0  |  location = in SRAM  |  sramOffset = 0x1000fffffd326780  |  "
    }
  }
}
node {
  name: "reshape_8_8_bundle_195/op_12"
  op: "Reshape"
  input: "fusedTPCNode_76_2_bundle_195/op_11"
  attr {
    key: "Bundle_idx"
    value {
      s: "195"
    }
  }
  attr {
    key: "Exec_idx"
    value {
      s: "78"
    }
  }
  attr {
    key: "Op_idx"
    value {
      s: "14"
    }
  }
  attr {
    key: "inputTensor:0"
    value {
      s: "tensor-42618_slice_0_0_3_0_0__0__bundle_195_42926  |  Sizes = [1,1,189,128]  |  hfloat8  |  expBias = 7, scale = 1  |    |  ModelParam = 0  |  strides = [24192, 24192, 24192, 128, 1]  |  data = 0, sizeInBytes = 24192  |  isAliased = tensor_82_id_48171_module/model/0/fused_scaled_dot_product_attention/aten__view_slice_0_0_0_3_0__0__bundle_195_42927, type = alias, offset: 0  |  location = in SRAM  |  sramOffset = 0x1000fffffd326780  |  "
    }
  }
  attr {
    key: "outputTensor:0"
    value {
      s: "tensor_82_id_48171_module/model/0/fused_scaled_dot_product_attention/aten__view_slice_0_0_0_3_0__0__bundle_195_42927  |  Sizes = [1,1,1,189,128]  |  hfloat8  |  expBias = 7, scale = 1  |    |  ModelParam = 0  |  strides = [24192, 24192, 24192, 24192, 128, 1]  |  data = 0, sizeInBytes = 24192  |  location = in SRAM  |  sramOffset = 0x1000fffffd326780  |  "
    }
  }
}
node {
  name: "tensor_70_bundle_195/concat_logical_internal/0"
  op: "Concatenate"
  input: "fusedTPCNode_76_2_bundle_195/op_0"
  input: "fusedTPCNode_76_2_bundle_195/op_3"
  input: "fusedTPCNode_76_2_bundle_195/op_7"
  input: "fusedTPCNode_76_2_bundle_195/op_11"
  attr {
    key: "Bundle_idx"
    value {
      s: "195"
    }
  }
  attr {
    key: "Exec_idx"
    value {
      s: "79"
    }
  }
  attr {
    key: "Op_idx"
    value {
      s: "15"
    }
  }
  attr {
    key: "inputTensor:0"
    value {
      s: "tensor_70_slice_0_0_0_0_0__0__bundle_195_42901  |  Sizes = [1,1,189,128]  |  bf16  |  expBias = 0, scale = 1  |    |  ModelParam = 0  |  strides = [193536, 193536, 48384, 256, 2]  |  data = 0, sizeInBytes = 48384  |  isAliased = tensor_70, type = concat, offset: 0  |  location = in DRAM  |  "
    }
  }
  attr {
    key: "inputTensor:1"
    value {
      s: "tensor_70_slice_0_0_1_0_0__0__bundle_195_42911  |  Sizes = [1,1,189,128]  |  bf16  |  expBias = 0, scale = 1  |    |  ModelParam = 0  |  strides = [193536, 193536, 48384, 256, 2]  |  data = 0, sizeInBytes = 48384  |  isAliased = tensor_70, type = concat, offset: 48384  |  location = in DRAM  |  "
    }
  }
  attr {
    key: "inputTensor:2"
    value {
      s: "tensor_70_slice_0_0_2_0_0__0__bundle_195_42918  |  Sizes = [1,1,189,128]  |  bf16  |  expBias = 0, scale = 1  |    |  ModelParam = 0  |  strides = [193536, 193536, 48384, 256, 2]  |  data = 0, sizeInBytes = 48384  |  isAliased = tensor_70, type = concat, offset: 96768  |  location = in DRAM  |  "
    }
  }
  attr {
    key: "inputTensor:3"
    value {
      s: "tensor_70_slice_0_0_3_0_0__0__bundle_195_42925  |  Sizes = [1,1,189,128]  |  bf16  |  expBias = 0, scale = 1  |    |  ModelParam = 0  |  strides = [193536, 193536, 48384, 256, 2]  |  data = 0, sizeInBytes = 48384  |  isAliased = tensor_70, type = concat, offset: 145152  |  location = in DRAM  |  "
    }
  }
  attr {
    key: "outputTensor:0"
    value {
      s: "tensor_70  |  Sizes = [1,4,189,128]  |  bf16  |  expBias = 0, scale = 1  |    |  ModelParam = 0  |  strides = [193536, 193536, 48384, 256, 2]  |  data = 0, sizeInBytes = 193536  |  isPersistent  |  location = in DRAM  |  dramOffset = 0x1b0000000000  |  userMemorySection(type=Persistent, id=27)  |  "
    }
  }
}
node {
  name: "tensor_70"
  op: "OutputTensor"
  input: "tensor_70_bundle_195/concat_logical_internal/0"
  attr {
    key: "dtype"
    value {
      type: DT_BFLOAT16
    }
  }
  attr {
    key: "shape"
    value {
      shape {
        dim {
          size: 128
        }
        dim {
          size: 189
        }
        dim {
          size: 4
        }
        dim {
          size: 1
        }
        dim {
          size: 1
        }
      }
    }
  }
  attr {
    key: "synDataType"
    value {
      s: "bf16"
    }
  }
}
node {
  name: "module/model/0/fused_scaled_dot_product_attention/sdpa_recomp_fwd_hf8/4606_complex/sdpa_recomp_fwd_hf8_65/sdpa_recomp_core_fwd_hf8_32/softmax_fwd_hf8_22_bundle_195/op_13"
  op: "softmax_fwd_hf8"
  input: "bf16-17_42437_bundle_195/split_internal/0"
  input: "module/model/0/fused_scaled_dot_product_attention/sdpa_recomp_fwd_hf8/4606_complex/sdpa_recomp_fwd_hf8_65/sdpa_recomp_core_fwd_hf8_32/constant_f32_18"
  input: "module/model/0/fused_scaled_dot_product_attention/sdpa_recomp_fwd_hf8/4606_complex/sdpa_recomp_fwd_hf8_65/sdpa_recomp_core_fwd_hf8_32/constant_f32_20"
  input: "tensor_110_odule/model/0/fused_scaled_dot_product_attention/placeholder/7"
  input: "module/model/0/fused_scaled_dot_product_attention/expand_dims/4593"
  attr {
    key: "Bundle_idx"
    value {
      s: "195"
    }
  }
  attr {
    key: "Exec_idx"
    value {
      s: "80"
    }
  }
  attr {
    key: "Op_idx"
    value {
      s: "16"
    }
  }
  attr {
    key: "inputTensor:0"
    value {
      s: "bf16-17_42437_slice_0_0_0_3_0__0__bundle_195_42928  |  Sizes = [1,1,4,189,189]  |  bf16  |  expBias = 0, scale = 1  |    |  ModelParam = 0  |  strides = [1143072, 1143072, 285768, 71442, 378, 2]  |  data = 0, sizeInBytes = 285768  |  isAliased = bf16-17_42437, type = concat, offset: 857304  |  location = in DRAM  |  "
    }
  }
  attr {
    key: "inputTensor:1"
    value {
      s: "f32-19_42438  |  Sizes = [1]  |  float32  |  expBias = 0, scale = 1  |    |  ModelParam = 0  |  strides = [4, 4]  |  data = 0, sizeInBytes = 4  |  location = in DRAM  |  dramOffset = 0x300000103e00  |  "
    }
  }
  attr {
    key: "inputTensor:2"
    value {
      s: "f32-21_42439  |  Sizes = [1]  |  float32  |  expBias = 0, scale = 1  |    |  ModelParam = 0  |  strides = [4, 4]  |  data = 0, sizeInBytes = 4  |  location = in DRAM  |  dramOffset = 0x300000103e80  |  "
    }
  }
  attr {
    key: "inputTensor:3"
    value {
      s: "tensor_110_odule/model/0/fused_scaled_dot_product_attention/placeholder/7  |  Sizes = [1]  |  float32  |  expBias = 0, scale = 1  |    |  ModelParam = 0  |  strides = [4, 4]  |  data = 0x55c381304c40, sizeInBytes = 4  |  buffer = 16  |  isPersistent  |  location = in DRAM  |  dramOffset = 0x270000000000  |  userMemorySection(type=Persistent, id=39)  |  isStaticParam  |  bufferDtype=float32  |  "
    }
  }
  attr {
    key: "inputTensor:4"
    value {
      s: "tensor_77_id_48173_module/model/0/fused_scaled_dot_product_attention/aten__unsqueeze  |  Sizes = [1,1,1,189,189]  |  bf16  |  expBias = 0, scale = 1  |    |  ModelParam = 0  |  strides = [71442, 71442, 71442, 71442, 378, 2]  |  data = 0, sizeInBytes = 71442  |  isAliased = tensor_71_odule/model/0/fused_scaled_dot_product_attention/placeholder/0, type = alias, offset: 0  |  location = in DRAM  |  "
    }
  }
  attr {
    key: "outputTensor:0"
    value {
      s: "hf8-23_42440_slice_0_0_0_3_0__0__bundle_195_42929  |  Sizes = [1,1,4,189,189]  |  hfloat8  |  expBias = 7, scale = 1  |    |  ModelParam = 0  |  strides = [193536, 193536, 193536, 48384, 256, 1]  |  data = 0, sizeInBytes = 193536  |  location = in SRAM  |  sramOffset = 0x1000fffffd35ba00  |  isSparseLayout  |  "
    }
  }
}
node {
  name: "module/model/0/fused_scaled_dot_product_attention/sdpa_recomp_fwd_hf8/4606_complex/sdpa_recomp_fwd_hf8_65/sdpa_recomp_core_fwd_hf8_32/fp8_gemm_hf8_521/batch_gemm_24_bundle_195/op_14"
  op: "BatchGemm"
  input: "module/model/0/fused_scaled_dot_product_attention/sdpa_recomp_fwd_hf8/4606_complex/sdpa_recomp_fwd_hf8_65/sdpa_recomp_core_fwd_hf8_32/softmax_fwd_hf8_22_bundle_195/op_9"
  input: "reshape_8_8_bundle_195/op_8"
  attr {
    key: "Bundle_idx"
    value {
      s: "195"
    }
  }
  attr {
    key: "Exec_idx"
    value {
      s: "81"
    }
  }
  attr {
    key: "Op_idx"
    value {
      s: "17"
    }
  }
  attr {
    key: "Parameters"
    value {
      s: "transpose_a=false, transpose_b=false"
    }
  }
  attr {
    key: "fp8BiasIn"
    value {
      s: "11"
    }
  }
  attr {
    key: "fp8BiasIn2"
    value {
      s: "11"
    }
  }
  attr {
    key: "fp8BiasOut"
    value {
      s: "11"
    }
  }
  attr {
    key: "inputTensor:0"
    value {
      s: "hf8-23_42440_slice_0_0_0_2_0__0__bundle_195_42922  |  Sizes = [1,1,4,189,189]  |  hfloat8  |  expBias = 7, scale = 1  |    |  ModelParam = 0  |  strides = [193536, 193536, 193536, 48384, 256, 1]  |  data = 0, sizeInBytes = 193536  |  location = in SRAM  |  sramOffset = 0x1000fffffd32c600  |  isSparseLayout  |  "
    }
  }
  attr {
    key: "inputTensor:1"
    value {
      s: "tensor_82_id_48171_module/model/0/fused_scaled_dot_product_attention/aten__view_slice_0_0_0_2_0__0__bundle_195_42920  |  Sizes = [1,1,1,189,128]  |  hfloat8  |  expBias = 7, scale = 1  |    |  ModelParam = 0  |  strides = [24192, 24192, 24192, 24192, 128, 1]  |  data = 0, sizeInBytes = 24192  |  location = in SRAM  |  sramOffset = 0x1000fffffd320900  |  "
    }
  }
  attr {
    key: "outputTensor:0"
    value {
      s: "tensor_118_slice_0_0_0_2_0__0__bundle_195_42930  |  Sizes = [1,1,4,189,128]  |  hfloat8  |  expBias = 7, scale = 1  |    |  ModelParam = 0  |  strides = [387072, 387072, 96768, 24192, 128, 1]  |  data = 0, sizeInBytes = 96768  |  isAliased = tensor_118, type = concat, offset: 193536  |  location = in DRAM  |  "
    }
  }
}
node {
  name: "module/model/0/fused_scaled_dot_product_attention/sdpa_recomp_fwd_hf8/4606_complex/sdpa_recomp_fwd_hf8_65/sdpa_recomp_core_fwd_hf8_32/fp8_gemm_hf8_521/batch_gemm_24_bundle_195/op_15"
  op: "BatchGemm"
  input: "module/model/0/fused_scaled_dot_product_attention/sdpa_recomp_fwd_hf8/4606_complex/sdpa_recomp_fwd_hf8_65/sdpa_recomp_core_fwd_hf8_32/softmax_fwd_hf8_22_bundle_195/op_13"
  input: "reshape_8_8_bundle_195/op_12"
  attr {
    key: "Bundle_idx"
    value {
      s: "195"
    }
  }
  attr {
    key: "Exec_idx"
    value {
      s: "82"
    }
  }
  attr {
    key: "Op_idx"
    value {
      s: "18"
    }
  }
  attr {
    key: "Parameters"
    value {
      s: "transpose_a=false, transpose_b=false"
    }
  }
  attr {
    key: "fp8BiasIn"
    value {
      s: "11"
    }
  }
  attr {
    key: "fp8BiasIn2"
    value {
      s: "11"
    }
  }
  attr {
    key: "fp8BiasOut"
    value {
      s: "11"
    }
  }
  attr {
    key: "inputTensor:0"
    value {
      s: "hf8-23_42440_slice_0_0_0_3_0__0__bundle_195_42929  |  Sizes = [1,1,4,189,189]  |  hfloat8  |  expBias = 7, scale = 1  |    |  ModelParam = 0  |  strides = [193536, 193536, 193536, 48384, 256, 1]  |  data = 0, sizeInBytes = 193536  |  location = in SRAM  |  sramOffset = 0x1000fffffd35ba00  |  isSparseLayout  |  "
    }
  }
  attr {
    key: "inputTensor:1"
    value {
      s: "tensor_82_id_48171_module/model/0/fused_scaled_dot_product_attention/aten__view_slice_0_0_0_3_0__0__bundle_195_42927  |  Sizes = [1,1,1,189,128]  |  hfloat8  |  expBias = 7, scale = 1  |    |  ModelParam = 0  |  strides = [24192, 24192, 24192, 24192, 128, 1]  |  data = 0, sizeInBytes = 24192  |  location = in SRAM  |  sramOffset = 0x1000fffffd326780  |  "
    }
  }
  attr {
    key: "outputTensor:0"
    value {
      s: "tensor_118_slice_0_0_0_3_0__0__bundle_195_42931  |  Sizes = [1,1,4,189,128]  |  hfloat8  |  expBias = 7, scale = 1  |    |  ModelParam = 0  |  strides = [387072, 387072, 96768, 24192, 128, 1]  |  data = 0, sizeInBytes = 96768  |  isAliased = tensor_118, type = concat, offset: 290304  |  location = in DRAM  |  "
    }
  }
}
node {
  name: "tensor_118_bundle_195/concat_logical_internal/0"
  op: "Concatenate"
  input: "module/model/0/fused_scaled_dot_product_attention/sdpa_recomp_fwd_hf8/4606_complex/sdpa_recomp_fwd_hf8_65/sdpa_recomp_core_fwd_hf8_32/fp8_gemm_hf8_521/batch_gemm_24_bundle_195/op_6"
  input: "module/model/0/fused_scaled_dot_product_attention/sdpa_recomp_fwd_hf8/4606_complex/sdpa_recomp_fwd_hf8_65/sdpa_recomp_core_fwd_hf8_32/fp8_gemm_hf8_521/batch_gemm_24_bundle_195/op_10"
  input: "module/model/0/fused_scaled_dot_product_attention/sdpa_recomp_fwd_hf8/4606_complex/sdpa_recomp_fwd_hf8_65/sdpa_recomp_core_fwd_hf8_32/fp8_gemm_hf8_521/batch_gemm_24_bundle_195/op_14"
  input: "module/model/0/fused_scaled_dot_product_attention/sdpa_recomp_fwd_hf8/4606_complex/sdpa_recomp_fwd_hf8_65/sdpa_recomp_core_fwd_hf8_32/fp8_gemm_hf8_521/batch_gemm_24_bundle_195/op_15"
  attr {
    key: "Bundle_idx"
    value {
      s: "195"
    }
  }
  attr {
    key: "Exec_idx"
    value {
      s: "83"
    }
  }
  attr {
    key: "Op_idx"
    value {
      s: "19"
    }
  }
  attr {
    key: "inputTensor:0"
    value {
      s: "tensor_118_slice_0_0_0_0_0__0__bundle_195_42916  |  Sizes = [1,1,4,189,128]  |  hfloat8  |  expBias = 7, scale = 1  |    |  ModelParam = 0  |  strides = [387072, 387072, 96768, 24192, 128, 1]  |  data = 0, sizeInBytes = 96768  |  isAliased = tensor_118, type = concat, offset: 0  |  location = in DRAM  |  "
    }
  }
  attr {
    key: "inputTensor:1"
    value {
      s: "tensor_118_slice_0_0_0_1_0__0__bundle_195_42923  |  Sizes = [1,1,4,189,128]  |  hfloat8  |  expBias = 7, scale = 1  |    |  ModelParam = 0  |  strides = [387072, 387072, 96768, 24192, 128, 1]  |  data = 0, sizeInBytes = 96768  |  isAliased = tensor_118, type = concat, offset: 96768  |  location = in DRAM  |  "
    }
  }
  attr {
    key: "inputTensor:2"
    value {
      s: "tensor_118_slice_0_0_0_2_0__0__bundle_195_42930  |  Sizes = [1,1,4,189,128]  |  hfloat8  |  expBias = 7, scale = 1  |    |  ModelParam = 0  |  strides = [387072, 387072, 96768, 24192, 128, 1]  |  data = 0, sizeInBytes = 96768  |  isAliased = tensor_118, type = concat, offset: 193536  |  location = in DRAM  |  "
    }
  }
  attr {
    key: "inputTensor:3"
    value {
      s: "tensor_118_slice_0_0_0_3_0__0__bundle_195_42931  |  Sizes = [1,1,4,189,128]  |  hfloat8  |  expBias = 7, scale = 1  |    |  ModelParam = 0  |  strides = [387072, 387072, 96768, 24192, 128, 1]  |  data = 0, sizeInBytes = 96768  |  isAliased = tensor_118, type = concat, offset: 290304  |  location = in DRAM  |  "
    }
  }
  attr {
    key: "outputTensor:0"
    value {
      s: "tensor_118  |  Sizes = [1,4,4,189,128]  |  hfloat8  |  expBias = 7, scale = 1  |    |  ModelParam = 0  |  strides = [387072, 387072, 96768, 24192, 128, 1]  |  data = 0, sizeInBytes = 387072  |  isAliased = tensor_119_id_48192_module/model/0/fused_scaled_dot_product_attention/dequant_output/aten__view, type = alias, offset: 0  |  location = in DRAM  |  "
    }
  }
}
node {
  name: "module/model/0/fused_scaled_dot_product_attention/dequant_output/reshape/4607"
  op: "Reshape"
  input: "tensor_118_bundle_195/concat_logical_internal/0"
  attr {
    key: "Bundle_idx"
    value {
      s: "N/A"
    }
  }
  attr {
    key: "Exec_idx"
    value {
      s: "84"
    }
  }
  attr {
    key: "Op_idx"
    value {
      s: "N/A"
    }
  }
  attr {
    key: "inputTensor:0"
    value {
      s: "tensor_118  |  Sizes = [1,4,4,189,128]  |  hfloat8  |  expBias = 7, scale = 1  |    |  ModelParam = 0  |  strides = [387072, 387072, 96768, 24192, 128, 1]  |  data = 0, sizeInBytes = 387072  |  isAliased = tensor_119_id_48192_module/model/0/fused_scaled_dot_product_attention/dequant_output/aten__view, type = alias, offset: 0  |  location = in DRAM  |  "
    }
  }
  attr {
    key: "outputTensor:0"
    value {
      s: "tensor_119_id_48192_module/model/0/fused_scaled_dot_product_attention/dequant_output/aten__view  |  Sizes = [1,16,189,128]  |  hfloat8  |  expBias = 7, scale = 1  |    |  ModelParam = 0  |  strides = [387072, 387072, 24192, 128, 1]  |  data = 0, sizeInBytes = 387072  |  location = in DRAM  |  dramOffset = 0x300000103f00  |  "
    }
  }
}
node {
  name: "module/model/0/transpose/4609_transpose_via_logical"
  op: "LogicalTranspose"
  input: "module/model/0/fused_scaled_dot_product_attention/dequant_output/reshape/4607"
  attr {
    key: "Bundle_idx"
    value {
      s: "N/A"
    }
  }
  attr {
    key: "Exec_idx"
    value {
      s: "85"
    }
  }
  attr {
    key: "Op_idx"
    value {
      s: "N/A"
    }
  }
  attr {
    key: "Parameters"
    value {
      s: "permutation: (0,2,1,3)"
    }
  }
  attr {
    key: "inputTensor:0"
    value {
      s: "tensor_119_id_48192_module/model/0/fused_scaled_dot_product_attention/dequant_output/aten__view  |  Sizes = [1,16,189,128]  |  hfloat8  |  expBias = 7, scale = 1  |    |  ModelParam = 0  |  strides = [387072, 387072, 24192, 128, 1]  |  data = 0, sizeInBytes = 387072  |  location = in DRAM  |  dramOffset = 0x300000103f00  |  "
    }
  }
  attr {
    key: "outputTensor:0"
    value {
      s: "tensor_123_id_48197_module/model/0/aten__transpose  |  Sizes = [1,189,16,128]  |  hfloat8  |  expBias = 7, scale = 1  |    |  ModelParam = 0  |  strides = [387072, 387072, 128, 24192, 1]  |  data = 0, sizeInBytes = 387072  |  isAliased = tensor_119_id_48192_module/model/0/fused_scaled_dot_product_attention/dequant_output/aten__view, type = alias, offset: 0  |  location = in DRAM  |  isSparseLayout  |  "
    }
  }
}
node {
  name: "tensor_123_id_48197_module/model/0/aten__transpose_memcpy_42936_internal"
  op: "DmaMemcpy"
  input: "module/model/0/transpose/4609_transpose_via_logical"
  attr {
    key: "Bundle_idx"
    value {
      s: "N/A"
    }
  }
  attr {
    key: "Exec_idx"
    value {
      s: "86"
    }
  }
  attr {
    key: "Op_idx"
    value {
      s: "N/A"
    }
  }
  attr {
    key: "inputTensor:0"
    value {
      s: "tensor_123_id_48197_module/model/0/aten__transpose  |  Sizes = [1,189,16,128]  |  hfloat8  |  expBias = 7, scale = 1  |    |  ModelParam = 0  |  strides = [387072, 387072, 128, 24192, 1]  |  data = 0, sizeInBytes = 387072  |  isAliased = tensor_119_id_48192_module/model/0/fused_scaled_dot_product_attention/dequant_output/aten__view, type = alias, offset: 0  |  location = in DRAM  |  isSparseLayout  |  "
    }
  }
  attr {
    key: "outputTensor:0"
    value {
      s: "tensor_123_id_48197_module/model/0/aten__transpose_memcpy_42936  |  Sizes = [1,189,16,128]  |  hfloat8  |  expBias = 7, scale = 1  |    |  ModelParam = 0  |  strides = [387072, 387072, 2048, 128, 1]  |  data = 0, sizeInBytes = 387072  |  location = in DRAM  |  dramOffset = 0x300000000000  |  "
    }
  }
}
node {
  name: "module/model/0/o_proj/quant_input_0/reshape/4611"
  op: "Reshape"
  input: "tensor_123_id_48197_module/model/0/aten__transpose_memcpy_42936_internal"
  attr {
    key: "Bundle_idx"
    value {
      s: "N/A"
    }
  }
  attr {
    key: "Exec_idx"
    value {
      s: "87"
    }
  }
  attr {
    key: "Op_idx"
    value {
      s: "N/A"
    }
  }
  attr {
    key: "inputTensor:0"
    value {
      s: "tensor_123_id_48197_module/model/0/aten__transpose_memcpy_42936  |  Sizes = [1,189,16,128]  |  hfloat8  |  expBias = 7, scale = 1  |    |  ModelParam = 0  |  strides = [387072, 387072, 2048, 128, 1]  |  data = 0, sizeInBytes = 387072  |  location = in DRAM  |  dramOffset = 0x300000000000  |  "
    }
  }
  attr {
    key: "outputTensor:0"
    value {
      s: "tensor_129_c42363  |  Sizes = [1,189,2048]  |  hfloat8  |  expBias = 7, scale = 1  |    |  ModelParam = 0  |  strides = [387072, 387072, 2048, 1]  |  data = 0, sizeInBytes = 387072  |  isAliased = tensor_123_id_48197_module/model/0/aten__transpose_memcpy_42936, type = alias, offset: 0  |  location = in DRAM  |  "
    }
  }
}
node {
  name: "tensor_130_odule/model/0/o_proj/placeholder/1"
  op: "Placeholder"
  attr {
    key: "dtype"
    value {
      type: DT_INVALID
    }
  }
  attr {
    key: "shape"
    value {
      shape {
        dim {
          size: 4096
        }
        dim {
          size: 2048
        }
        dim {
          size: 1
        }
        dim {
          size: 1
        }
        dim {
          size: 1
        }
      }
    }
  }
  attr {
    key: "synDataType"
    value {
      s: "hfloat8"
    }
  }
}
node {
  name: "module/model/0/o_proj/fp8_gemm_bf16/4613_complex/fp8_gemm_bf16_523/expand_dims_6"
  op: "ExpandDims"
  input: "tensor_130_odule/model/0/o_proj/placeholder/1"
  attr {
    key: "Bundle_idx"
    value {
      s: "N/A"
    }
  }
  attr {
    key: "Exec_idx"
    value {
      s: "88"
    }
  }
  attr {
    key: "Op_idx"
    value {
      s: "N/A"
    }
  }
  attr {
    key: "inputTensor:0"
    value {
      s: "tensor_130_odule/model/0/o_proj/placeholder/1  |  Sizes = [2048,4096]  |  hfloat8  |  expBias = 7, scale = 1  |    |  ModelParam = 0  |  strides = [8388608, 4096, 1]  |  data = 0, sizeInBytes = 8388608  |  isPersistent  |  location = in DRAM  |  dramOffset = 0x2c0000000000  |  userMemorySection(type=Persistent, id=44)  |  "
    }
  }
  attr {
    key: "outputTensor:0"
    value {
      s: "hf8-7_42444  |  Sizes = [1,2048,4096]  |  hfloat8  |  expBias = 7, scale = 1  |    |  ModelParam = 0  |  strides = [8388608, 8388608, 4096, 1]  |  data = 0, sizeInBytes = 8388608  |  isAliased = tensor_130_odule/model/0/o_proj/placeholder/1, type = alias, offset: 0  |  location = in DRAM  |  "
    }
  }
}
node {
  name: "tensor_129_c42363_bundle_196/memcpy/0"
  op: "DmaMemcpy"
  input: "module/model/0/o_proj/quant_input_0/reshape/4611"
  attr {
    key: "Bundle_idx"
    value {
      s: "196"
    }
  }
  attr {
    key: "Exec_idx"
    value {
      s: "89"
    }
  }
  attr {
    key: "Op_idx"
    value {
      s: "0"
    }
  }
  attr {
    key: "inputTensor:0"
    value {
      s: "tensor_129_c42363  |  Sizes = [1,189,2048]  |  hfloat8  |  expBias = 7, scale = 1  |    |  ModelParam = 0  |  strides = [387072, 387072, 2048, 1]  |  data = 0, sizeInBytes = 387072  |  isAliased = tensor_123_id_48197_module/model/0/aten__transpose_memcpy_42936, type = alias, offset: 0  |  location = in DRAM  |  "
    }
  }
  attr {
    key: "outputTensor:0"
    value {
      s: "tensor_129_c42363_slice_0_0_0_0_0__0__bundle_196_42932  |  Sizes = [1,189,2048]  |  hfloat8  |  expBias = 7, scale = 1  |    |  ModelParam = 0  |  strides = [387072, 387072, 2048, 1]  |  data = 0, sizeInBytes = 387072  |  location = in SRAM  |  sramOffset = 0x1000fffffd38ae00  |  "
    }
  }
}
node {
  name: "module/model/0/o_proj/fp8_gemm_bf16/4613_complex/fp8_gemm_bf16_523/batch_gemm_8_bundle_196/op_0_gemm"
  op: "GEMM"
  input: "tensor_129_c42363_bundle_196/memcpy/0"
  input: "module/model/0/o_proj/fp8_gemm_bf16/4613_complex/fp8_gemm_bf16_523/expand_dims_6"
  attr {
    key: "Bundle_idx"
    value {
      s: "196"
    }
  }
  attr {
    key: "Exec_idx"
    value {
      s: "90"
    }
  }
  attr {
    key: "Op_idx"
    value {
      s: "1"
    }
  }
  attr {
    key: "Parameters"
    value {
      s: "transpose_a=false, transpose_b=false"
    }
  }
  attr {
    key: "fp8BiasIn"
    value {
      s: "11"
    }
  }
  attr {
    key: "fp8BiasIn2"
    value {
      s: "15"
    }
  }
  attr {
    key: "fp8BiasOut"
    value {
      s: "0"
    }
  }
  attr {
    key: "inputTensor:0"
    value {
      s: "tensor_129_c42363_slice_0_0_0_0_0__0__bundle_196_42932  |  Sizes = [1,189,2048]  |  hfloat8  |  expBias = 7, scale = 1  |    |  ModelParam = 0  |  strides = [387072, 387072, 2048, 1]  |  data = 0, sizeInBytes = 387072  |  location = in SRAM  |  sramOffset = 0x1000fffffd38ae00  |  "
    }
  }
  attr {
    key: "inputTensor:1"
    value {
      s: "hf8-7_42444  |  Sizes = [1,2048,4096]  |  hfloat8  |  expBias = 7, scale = 1  |    |  ModelParam = 0  |  strides = [8388608, 8388608, 4096, 1]  |  data = 0, sizeInBytes = 8388608  |  isAliased = tensor_130_odule/model/0/o_proj/placeholder/1, type = alias, offset: 0  |  location = in DRAM  |  "
    }
  }
  attr {
    key: "outputTensor:0"
    value {
      s: "tensor_134  |  Sizes = [1,189,4096]  |  bf16  |  expBias = 0, scale = 1  |    |  ModelParam = 0  |  strides = [1548288, 1548288, 8192, 2]  |  data = 0, sizeInBytes = 1548288  |  isPersistent  |  location = in DRAM  |  dramOffset = 0x300000000000  |  userMemorySection(type=Persistent, id=48)  |  "
    }
  }
}
node {
  name: "tensor_134"
  op: "OutputTensor"
  input: "module/model/0/o_proj/fp8_gemm_bf16/4613_complex/fp8_gemm_bf16_523/batch_gemm_8_bundle_196/op_0_gemm"
  attr {
    key: "dtype"
    value {
      type: DT_BFLOAT16
    }
  }
  attr {
    key: "shape"
    value {
      shape {
        dim {
          size: 4096
        }
        dim {
          size: 189
        }
        dim {
          size: 1
        }
        dim {
          size: 1
        }
        dim {
          size: 1
        }
      }
    }
  }
  attr {
    key: "synDataType"
    value {
      s: "bf16"
    }
  }
}
