node {
  name: "tensor_7_odule/model/12/placeholder/0"
  op: "Placeholder"
  attr {
    key: "dtype"
    value {
      type: DT_INT32
    }
  }
  attr {
    key: "shape"
    value {
      shape {
        dim {
          size: 128
        }
        dim {
          size: 1
        }
        dim {
          size: 1
        }
        dim {
          size: 1
        }
        dim {
          size: 1
        }
      }
    }
  }
  attr {
    key: "synDataType"
    value {
      s: "int32"
    }
  }
}
node {
  name: "module/model/12/expand_dims/7570"
  op: "ExpandDims"
  input: "tensor_7_odule/model/12/placeholder/0"
  attr {
    key: "Bundle_idx"
    value {
      s: "N/A"
    }
  }
  attr {
    key: "Exec_idx"
    value {
      s: "0"
    }
  }
  attr {
    key: "Op_idx"
    value {
      s: "N/A"
    }
  }
  attr {
    key: "inputTensor:0"
    value {
      s: "tensor_7_odule/model/12/placeholder/0  |  Sizes = [128]  |  int32  |  expBias = 0, scale = 1  |    |  ModelParam = 0  |  strides = [512, 4]  |  data = 0, sizeInBytes = 512  |  isPersistent  |  location = in DRAM  |  dramOffset = 0x70000000000  |  userMemorySection(type=Persistent, id=7)  |  "
    }
  }
  attr {
    key: "outputTensor:0"
    value {
      s: "tensor_8_id_60319_module/model/12/aten__unsqueeze/1  |  Sizes = [1,128]  |  int32  |  expBias = 0, scale = 1  |    |  ModelParam = 0  |  strides = [512, 512, 4]  |  data = 0, sizeInBytes = 512  |  isAliased = tensor_7_odule/model/12/placeholder/0, type = alias, offset: 0  |  location = in DRAM  |  "
    }
  }
}
node {
  name: "tensor_9_odule/model/12/rotary_emb/placeholder/0"
  op: "Placeholder"
  attr {
    key: "dtype"
    value {
      type: DT_BFLOAT16
    }
  }
  attr {
    key: "shape"
    value {
      shape {
        dim {
          size: 128
        }
        dim {
          size: 131072
        }
        dim {
          size: 1
        }
        dim {
          size: 1
        }
        dim {
          size: 1
        }
      }
    }
  }
  attr {
    key: "synDataType"
    value {
      s: "bf16"
    }
  }
}
node {
  name: "module/model/12/rotary_emb/slice/7571"
  op: "Slice"
  input: "tensor_9_odule/model/12/rotary_emb/placeholder/0"
  attr {
    key: "Bundle_idx"
    value {
      s: "N/A"
    }
  }
  attr {
    key: "Exec_idx"
    value {
      s: "1"
    }
  }
  attr {
    key: "Op_idx"
    value {
      s: "N/A"
    }
  }
  attr {
    key: "inputTensor:0"
    value {
      s: "tensor_9_odule/model/12/rotary_emb/placeholder/0  |  Sizes = [131072,128]  |  bf16  |  expBias = 0, scale = 1  |    |  ModelParam = 0  |  strides = [33554432, 256, 2]  |  data = 0, sizeInBytes = 33554432  |  isPersistent  |  location = in DRAM  |  dramOffset = 0x80000000000  |  userMemorySection(type=Persistent, id=8)  |  "
    }
  }
  attr {
    key: "outputTensor:0"
    value {
      s: "tensor_10_id_60437_module/model/12/rotary_emb/aten__slice  |  Sizes = [128,128]  |  bf16  |  expBias = 0, scale = 1  |    |  ModelParam = 0  |  strides = [33554432, 256, 2]  |  data = 0, sizeInBytes = 32768  |  isAliased = tensor_9_odule/model/12/rotary_emb/placeholder/0, type = slice, offset: 0  |  location = in DRAM  |  "
    }
  }
}
node {
  name: "tensor_11_odule/model/12/rotary_emb/placeholder/1"
  op: "Placeholder"
  attr {
    key: "dtype"
    value {
      type: DT_FLOAT
    }
  }
  attr {
    key: "shape"
    value {
      shape {
        dim {
          size: 1
        }
        dim {
          size: 1
        }
        dim {
          size: 1
        }
        dim {
          size: 1
        }
        dim {
          size: 1
        }
      }
    }
  }
  attr {
    key: "synDataType"
    value {
      s: "float32"
    }
  }
}
node {
  name: "module/model/12/rotary_emb/cast_f32_to_bf16/7572"
  op: "cast_f32_to_bf16"
  input: "tensor_11_odule/model/12/rotary_emb/placeholder/1"
  attr {
    key: "Bundle_idx"
    value {
      s: "N/A"
    }
  }
  attr {
    key: "Exec_idx"
    value {
      s: "2"
    }
  }
  attr {
    key: "Op_idx"
    value {
      s: "N/A"
    }
  }
  attr {
    key: "inputTensor:0"
    value {
      s: "tensor_11_odule/model/12/rotary_emb/placeholder/1  |  Sizes = [1]  |  float32  |  expBias = 0, scale = 1  |    |  ModelParam = 0  |  strides = [4, 4]  |  data = 0, sizeInBytes = 4  |  isPersistent  |  location = in DRAM  |  dramOffset = 0x90000000000  |  userMemorySection(type=Persistent, id=9)  |  "
    }
  }
  attr {
    key: "outputTensor:0"
    value {
      s: "tensor_13  |  Sizes = [1]  |  bf16  |  expBias = 0, scale = 1  |    |  ModelParam = 0  |  strides = [2, 2]  |  data = 0, sizeInBytes = 2  |  location = in DRAM  |  dramOffset = 0x60000000000  |  "
    }
  }
}
node {
  name: "module/model/12/rotary_emb/mult_fwd_bf16/7573_complex/mult_fwd_bf16_0"
  op: "mult_fwd_bf16"
  input: "module/model/12/rotary_emb/slice/7571"
  input: "module/model/12/rotary_emb/cast_f32_to_bf16/7572"
  attr {
    key: "Bundle_idx"
    value {
      s: "N/A"
    }
  }
  attr {
    key: "Exec_idx"
    value {
      s: "3"
    }
  }
  attr {
    key: "Op_idx"
    value {
      s: "N/A"
    }
  }
  attr {
    key: "inputTensor:0"
    value {
      s: "tensor_10_id_60437_module/model/12/rotary_emb/aten__slice  |  Sizes = [128,128]  |  bf16  |  expBias = 0, scale = 1  |    |  ModelParam = 0  |  strides = [33554432, 256, 2]  |  data = 0, sizeInBytes = 32768  |  isAliased = tensor_9_odule/model/12/rotary_emb/placeholder/0, type = slice, offset: 0  |  location = in DRAM  |  "
    }
  }
  attr {
    key: "inputTensor:1"
    value {
      s: "tensor_13  |  Sizes = [1]  |  bf16  |  expBias = 0, scale = 1  |    |  ModelParam = 0  |  strides = [2, 2]  |  data = 0, sizeInBytes = 2  |  location = in DRAM  |  dramOffset = 0x60000000000  |  "
    }
  }
  attr {
    key: "outputTensor:0"
    value {
      s: "tensor_12_id_60439_module/model/12/rotary_emb/aten__mul  |  Sizes = [128,128]  |  bf16  |  expBias = 0, scale = 1  |    |  ModelParam = 0  |  strides = [32768, 256, 2]  |  data = 0, sizeInBytes = 32768  |  location = in DRAM  |  dramOffset = 0x60000000080  |  "
    }
  }
}
node {
  name: "tensor_17_odule/model/12/rotary_emb/placeholder/0"
  op: "Placeholder"
  attr {
    key: "dtype"
    value {
      type: DT_BFLOAT16
    }
  }
  attr {
    key: "shape"
    value {
      shape {
        dim {
          size: 128
        }
        dim {
          size: 131072
        }
        dim {
          size: 1
        }
        dim {
          size: 1
        }
        dim {
          size: 1
        }
      }
    }
  }
  attr {
    key: "synDataType"
    value {
      s: "bf16"
    }
  }
}
node {
  name: "module/model/12/rotary_emb/slice/7577"
  op: "Slice"
  input: "tensor_17_odule/model/12/rotary_emb/placeholder/0"
  attr {
    key: "Bundle_idx"
    value {
      s: "N/A"
    }
  }
  attr {
    key: "Exec_idx"
    value {
      s: "4"
    }
  }
  attr {
    key: "Op_idx"
    value {
      s: "N/A"
    }
  }
  attr {
    key: "inputTensor:0"
    value {
      s: "tensor_17_odule/model/12/rotary_emb/placeholder/0  |  Sizes = [131072,128]  |  bf16  |  expBias = 0, scale = 1  |    |  ModelParam = 0  |  strides = [33554432, 256, 2]  |  data = 0, sizeInBytes = 33554432  |  isPersistent  |  location = in DRAM  |  dramOffset = 0xa0000000000  |  userMemorySection(type=Persistent, id=10)  |  "
    }
  }
  attr {
    key: "outputTensor:0"
    value {
      s: "tensor_18_id_60441_module/model/12/rotary_emb/aten__slice  |  Sizes = [128,128]  |  bf16  |  expBias = 0, scale = 1  |    |  ModelParam = 0  |  strides = [33554432, 256, 2]  |  data = 0, sizeInBytes = 32768  |  isAliased = tensor_17_odule/model/12/rotary_emb/placeholder/0, type = slice, offset: 0  |  location = in DRAM  |  "
    }
  }
}
node {
  name: "module/model/12/rotary_emb/mult_fwd_bf16/7579_complex/mult_fwd_bf16_0"
  op: "mult_fwd_bf16"
  input: "module/model/12/rotary_emb/slice/7577"
  input: "module/model/12/rotary_emb/cast_f32_to_bf16/7572"
  attr {
    key: "Bundle_idx"
    value {
      s: "N/A"
    }
  }
  attr {
    key: "Exec_idx"
    value {
      s: "5"
    }
  }
  attr {
    key: "Op_idx"
    value {
      s: "N/A"
    }
  }
  attr {
    key: "inputTensor:0"
    value {
      s: "tensor_18_id_60441_module/model/12/rotary_emb/aten__slice  |  Sizes = [128,128]  |  bf16  |  expBias = 0, scale = 1  |    |  ModelParam = 0  |  strides = [33554432, 256, 2]  |  data = 0, sizeInBytes = 32768  |  isAliased = tensor_17_odule/model/12/rotary_emb/placeholder/0, type = slice, offset: 0  |  location = in DRAM  |  "
    }
  }
  attr {
    key: "inputTensor:1"
    value {
      s: "tensor_13  |  Sizes = [1]  |  bf16  |  expBias = 0, scale = 1  |    |  ModelParam = 0  |  strides = [2, 2]  |  data = 0, sizeInBytes = 2  |  location = in DRAM  |  dramOffset = 0x60000000000  |  "
    }
  }
  attr {
    key: "outputTensor:0"
    value {
      s: "tensor_19_id_60443_module/model/12/rotary_emb/aten__mul  |  Sizes = [128,128]  |  bf16  |  expBias = 0, scale = 1  |    |  ModelParam = 0  |  strides = [32768, 256, 2]  |  data = 0, sizeInBytes = 32768  |  location = in DRAM  |  dramOffset = 0x130000000000  |  "
    }
  }
}
node {
  name: "tensor_33_odule/model/12/k_proj/placeholder/1"
  op: "Placeholder"
  attr {
    key: "dtype"
    value {
      type: DT_INVALID
    }
  }
  attr {
    key: "shape"
    value {
      shape {
        dim {
          size: 512
        }
        dim {
          size: 4096
        }
        dim {
          size: 1
        }
        dim {
          size: 1
        }
        dim {
          size: 1
        }
      }
    }
  }
  attr {
    key: "synDataType"
    value {
      s: "hfloat8"
    }
  }
}
node {
  name: "module/model/12/k_proj/fp8_gemm_bf16/7585_complex/fp8_gemm_bf16_1221/expand_dims_6"
  op: "ExpandDims"
  input: "tensor_33_odule/model/12/k_proj/placeholder/1"
  attr {
    key: "Bundle_idx"
    value {
      s: "N/A"
    }
  }
  attr {
    key: "Exec_idx"
    value {
      s: "6"
    }
  }
  attr {
    key: "Op_idx"
    value {
      s: "N/A"
    }
  }
  attr {
    key: "inputTensor:0"
    value {
      s: "tensor_33_odule/model/12/k_proj/placeholder/1  |  Sizes = [4096,512]  |  hfloat8  |  expBias = 7, scale = 1  |    |  ModelParam = 0  |  strides = [2097152, 512, 1]  |  data = 0, sizeInBytes = 2097152  |  isPersistent  |  location = in DRAM  |  dramOffset = 0xd0000000000  |  userMemorySection(type=Persistent, id=13)  |  "
    }
  }
  attr {
    key: "outputTensor:0"
    value {
      s: "hf8-7_89530  |  Sizes = [1,4096,512]  |  hfloat8  |  expBias = 7, scale = 1  |    |  ModelParam = 0  |  strides = [2097152, 2097152, 512, 1]  |  data = 0, sizeInBytes = 2097152  |  isAliased = tensor_33_odule/model/12/k_proj/placeholder/1, type = alias, offset: 0  |  location = in DRAM  |  "
    }
  }
}
node {
  name: "module/model/12/rotary_pos_embedding_fwd_bf16/7588_complex/rotary_pos_embedding_fwd_bf16_152/gather_nd_mxnet_fwd_bf16_8"
  op: "gather_nd_mxnet_fwd_bf16"
  input: "module/model/12/rotary_emb/mult_fwd_bf16/7579_complex/mult_fwd_bf16_0"
  input: "module/model/12/expand_dims/7570"
  attr {
    key: "Bundle_idx"
    value {
      s: "N/A"
    }
  }
  attr {
    key: "Exec_idx"
    value {
      s: "7"
    }
  }
  attr {
    key: "Op_idx"
    value {
      s: "N/A"
    }
  }
  attr {
    key: "inputTensor:0"
    value {
      s: "tensor_19_id_60443_module/model/12/rotary_emb/aten__mul  |  Sizes = [128,128]  |  bf16  |  expBias = 0, scale = 1  |    |  ModelParam = 0  |  strides = [32768, 256, 2]  |  data = 0, sizeInBytes = 32768  |  location = in DRAM  |  dramOffset = 0x130000000000  |  "
    }
  }
  attr {
    key: "inputTensor:1"
    value {
      s: "tensor_8_id_60319_module/model/12/aten__unsqueeze/1  |  Sizes = [1,128]  |  int32  |  expBias = 0, scale = 1  |    |  ModelParam = 0  |  strides = [512, 512, 4]  |  data = 0, sizeInBytes = 512  |  isAliased = tensor_7_odule/model/12/placeholder/0, type = alias, offset: 0  |  location = in DRAM  |  "
    }
  }
  attr {
    key: "outputTensor:0"
    value {
      s: "bf16-9_89535  |  Sizes = [128,128]  |  bf16  |  expBias = 0, scale = 1  |    |  ModelParam = 0  |  strides = [32768, 256, 2]  |  data = 0, sizeInBytes = 32768  |  isAliased = bf16-13_89537, type = alias, offset: 0  |  location = in DRAM  |  "
    }
  }
}
node {
  name: "module/model/12/rotary_pos_embedding_fwd_bf16/7588_complex/rotary_pos_embedding_fwd_bf16_152/gather_nd_mxnet_fwd_bf16_10"
  op: "gather_nd_mxnet_fwd_bf16"
  input: "module/model/12/rotary_emb/mult_fwd_bf16/7573_complex/mult_fwd_bf16_0"
  input: "module/model/12/expand_dims/7570"
  attr {
    key: "Bundle_idx"
    value {
      s: "N/A"
    }
  }
  attr {
    key: "Exec_idx"
    value {
      s: "8"
    }
  }
  attr {
    key: "Op_idx"
    value {
      s: "N/A"
    }
  }
  attr {
    key: "inputTensor:0"
    value {
      s: "tensor_12_id_60439_module/model/12/rotary_emb/aten__mul  |  Sizes = [128,128]  |  bf16  |  expBias = 0, scale = 1  |    |  ModelParam = 0  |  strides = [32768, 256, 2]  |  data = 0, sizeInBytes = 32768  |  location = in DRAM  |  dramOffset = 0x60000000080  |  "
    }
  }
  attr {
    key: "inputTensor:1"
    value {
      s: "tensor_8_id_60319_module/model/12/aten__unsqueeze/1  |  Sizes = [1,128]  |  int32  |  expBias = 0, scale = 1  |    |  ModelParam = 0  |  strides = [512, 512, 4]  |  data = 0, sizeInBytes = 512  |  isAliased = tensor_7_odule/model/12/placeholder/0, type = alias, offset: 0  |  location = in DRAM  |  "
    }
  }
  attr {
    key: "outputTensor:0"
    value {
      s: "bf16-11_89536  |  Sizes = [128,128]  |  bf16  |  expBias = 0, scale = 1  |    |  ModelParam = 0  |  strides = [32768, 256, 2]  |  data = 0, sizeInBytes = 32768  |  isAliased = bf16-15_89538, type = alias, offset: 0  |  location = in DRAM  |  "
    }
  }
}
node {
  name: "module/model/12/rotary_pos_embedding_fwd_bf16/7588_complex/rotary_pos_embedding_fwd_bf16_152/expand_dims_12"
  op: "ExpandDims"
  input: "module/model/12/rotary_pos_embedding_fwd_bf16/7588_complex/rotary_pos_embedding_fwd_bf16_152/gather_nd_mxnet_fwd_bf16_8"
  attr {
    key: "Bundle_idx"
    value {
      s: "N/A"
    }
  }
  attr {
    key: "Exec_idx"
    value {
      s: "9"
    }
  }
  attr {
    key: "Op_idx"
    value {
      s: "N/A"
    }
  }
  attr {
    key: "inputTensor:0"
    value {
      s: "bf16-9_89535  |  Sizes = [128,128]  |  bf16  |  expBias = 0, scale = 1  |    |  ModelParam = 0  |  strides = [32768, 256, 2]  |  data = 0, sizeInBytes = 32768  |  isAliased = bf16-13_89537, type = alias, offset: 0  |  location = in DRAM  |  "
    }
  }
  attr {
    key: "outputTensor:0"
    value {
      s: "bf16-13_89537  |  Sizes = [1,128,128]  |  bf16  |  expBias = 0, scale = 1  |    |  ModelParam = 0  |  strides = [32768, 32768, 256, 2]  |  data = 0, sizeInBytes = 32768  |  location = in DRAM  |  dramOffset = 0x140000000000  |  "
    }
  }
}
node {
  name: "module/model/12/rotary_pos_embedding_fwd_bf16/7588_complex/rotary_pos_embedding_fwd_bf16_152/expand_dims_14"
  op: "ExpandDims"
  input: "module/model/12/rotary_pos_embedding_fwd_bf16/7588_complex/rotary_pos_embedding_fwd_bf16_152/gather_nd_mxnet_fwd_bf16_10"
  attr {
    key: "Bundle_idx"
    value {
      s: "N/A"
    }
  }
  attr {
    key: "Exec_idx"
    value {
      s: "10"
    }
  }
  attr {
    key: "Op_idx"
    value {
      s: "N/A"
    }
  }
  attr {
    key: "inputTensor:0"
    value {
      s: "bf16-11_89536  |  Sizes = [128,128]  |  bf16  |  expBias = 0, scale = 1  |    |  ModelParam = 0  |  strides = [32768, 256, 2]  |  data = 0, sizeInBytes = 32768  |  isAliased = bf16-15_89538, type = alias, offset: 0  |  location = in DRAM  |  "
    }
  }
  attr {
    key: "outputTensor:0"
    value {
      s: "bf16-15_89538  |  Sizes = [1,128,128]  |  bf16  |  expBias = 0, scale = 1  |    |  ModelParam = 0  |  strides = [32768, 32768, 256, 2]  |  data = 0, sizeInBytes = 32768  |  location = in DRAM  |  dramOffset = 0x140000008000  |  "
    }
  }
}
node {
  name: "tensor_58_odule/model/12/v_proj/placeholder/1"
  op: "Placeholder"
  attr {
    key: "dtype"
    value {
      type: DT_INVALID
    }
  }
  attr {
    key: "shape"
    value {
      shape {
        dim {
          size: 512
        }
        dim {
          size: 4096
        }
        dim {
          size: 1
        }
        dim {
          size: 1
        }
        dim {
          size: 1
        }
      }
    }
  }
  attr {
    key: "synDataType"
    value {
      s: "hfloat8"
    }
  }
}
node {
  name: "module/model/12/v_proj/fp8_gemm_bf16/7594_complex/fp8_gemm_hf8_1223/expand_dims_8"
  op: "ExpandDims"
  input: "tensor_58_odule/model/12/v_proj/placeholder/1"
  attr {
    key: "Bundle_idx"
    value {
      s: "N/A"
    }
  }
  attr {
    key: "Exec_idx"
    value {
      s: "11"
    }
  }
  attr {
    key: "Op_idx"
    value {
      s: "N/A"
    }
  }
  attr {
    key: "inputTensor:0"
    value {
      s: "tensor_58_odule/model/12/v_proj/placeholder/1  |  Sizes = [4096,512]  |  hfloat8  |  expBias = 7, scale = 1  |    |  ModelParam = 0  |  strides = [2097152, 512, 1]  |  data = 0, sizeInBytes = 2097152  |  isPersistent  |  location = in DRAM  |  dramOffset = 0x160000000000  |  userMemorySection(type=Persistent, id=22)  |  "
    }
  }
  attr {
    key: "outputTensor:0"
    value {
      s: "hf8-9_89543  |  Sizes = [1,4096,512]  |  hfloat8  |  expBias = 7, scale = 1  |    |  ModelParam = 0  |  strides = [2097152, 2097152, 512, 1]  |  data = 0, sizeInBytes = 2097152  |  isAliased = tensor_58_odule/model/12/v_proj/placeholder/1, type = alias, offset: 0  |  location = in DRAM  |  "
    }
  }
}
node {
  name: "tensor_73_odule/model/12/fused_scaled_dot_product_attention/placeholder/0"
  op: "Placeholder"
  attr {
    key: "dtype"
    value {
      type: DT_BFLOAT16
    }
  }
  attr {
    key: "shape"
    value {
      shape {
        dim {
          size: 128
        }
        dim {
          size: 128
        }
        dim {
          size: 1
        }
        dim {
          size: 1
        }
        dim {
          size: 1
        }
      }
    }
  }
  attr {
    key: "synDataType"
    value {
      s: "bf16"
    }
  }
}
node {
  name: "module/model/12/fused_scaled_dot_product_attention/expand_dims/7605"
  op: "Reshape"
  input: "tensor_73_odule/model/12/fused_scaled_dot_product_attention/placeholder/0"
  attr {
    key: "Bundle_idx"
    value {
      s: "N/A"
    }
  }
  attr {
    key: "Exec_idx"
    value {
      s: "12"
    }
  }
  attr {
    key: "Op_idx"
    value {
      s: "N/A"
    }
  }
  attr {
    key: "inputTensor:0"
    value {
      s: "tensor_73_odule/model/12/fused_scaled_dot_product_attention/placeholder/0  |  Sizes = [128,128]  |  bf16  |  expBias = 0, scale = 1  |    |  ModelParam = 0  |  strides = [32768, 256, 2]  |  data = 0, sizeInBytes = 32768  |  isPersistent  |  location = in DRAM  |  dramOffset = 0x1d0000000000  |  userMemorySection(type=Persistent, id=29)  |  "
    }
  }
  attr {
    key: "outputTensor:0"
    value {
      s: "tensor_79_id_60546_module/model/12/fused_scaled_dot_product_attention/aten__unsqueeze  |  Sizes = [1,1,1,128,128]  |  bf16  |  expBias = 0, scale = 1  |    |  ModelParam = 0  |  strides = [32768, 32768, 32768, 32768, 256, 2]  |  data = 0, sizeInBytes = 32768  |  isAliased = tensor_73_odule/model/12/fused_scaled_dot_product_attention/placeholder/0, type = alias, offset: 0  |  location = in DRAM  |  "
    }
  }
}
node {
  name: "tensor_95_odule/model/12/q_proj/placeholder/1"
  op: "Placeholder"
  attr {
    key: "dtype"
    value {
      type: DT_INVALID
    }
  }
  attr {
    key: "shape"
    value {
      shape {
        dim {
          size: 2048
        }
        dim {
          size: 4096
        }
        dim {
          size: 1
        }
        dim {
          size: 1
        }
        dim {
          size: 1
        }
      }
    }
  }
  attr {
    key: "synDataType"
    value {
      s: "hfloat8"
    }
  }
}
node {
  name: "module/model/12/q_proj/fp8_gemm_bf16/7612_complex/fp8_gemm_bf16_1225/expand_dims_6"
  op: "ExpandDims"
  input: "tensor_95_odule/model/12/q_proj/placeholder/1"
  attr {
    key: "Bundle_idx"
    value {
      s: "N/A"
    }
  }
  attr {
    key: "Exec_idx"
    value {
      s: "13"
    }
  }
  attr {
    key: "Op_idx"
    value {
      s: "N/A"
    }
  }
  attr {
    key: "inputTensor:0"
    value {
      s: "tensor_95_odule/model/12/q_proj/placeholder/1  |  Sizes = [4096,2048]  |  hfloat8  |  expBias = 7, scale = 1  |    |  ModelParam = 0  |  strides = [8388608, 2048, 1]  |  data = 0, sizeInBytes = 8388608  |  isPersistent  |  location = in DRAM  |  dramOffset = 0x210000000000  |  userMemorySection(type=Persistent, id=33)  |  "
    }
  }
  attr {
    key: "outputTensor:0"
    value {
      s: "hf8-7_89549  |  Sizes = [1,4096,2048]  |  hfloat8  |  expBias = 7, scale = 1  |    |  ModelParam = 0  |  strides = [8388608, 8388608, 2048, 1]  |  data = 0, sizeInBytes = 8388608  |  isAliased = tensor_95_odule/model/12/q_proj/placeholder/1, type = alias, offset: 0  |  location = in DRAM  |  "
    }
  }
}
node {
  name: "tensor_0_odule/model/11/placeholder/0"
  op: "Placeholder"
  attr {
    key: "dtype"
    value {
      type: DT_BFLOAT16
    }
  }
  attr {
    key: "shape"
    value {
      shape {
        dim {
          size: 4096
        }
        dim {
          size: 128
        }
        dim {
          size: 1
        }
        dim {
          size: 1
        }
        dim {
          size: 1
        }
      }
    }
  }
  attr {
    key: "synDataType"
    value {
      s: "bf16"
    }
  }
}
node {
  name: "tensor_1_odule/model/11/placeholder/1"
  op: "Placeholder"
  attr {
    key: "dtype"
    value {
      type: DT_BFLOAT16
    }
  }
  attr {
    key: "shape"
    value {
      shape {
        dim {
          size: 4096
        }
        dim {
          size: 128
        }
        dim {
          size: 1
        }
        dim {
          size: 1
        }
        dim {
          size: 1
        }
      }
    }
  }
  attr {
    key: "synDataType"
    value {
      s: "bf16"
    }
  }
}
node {
  name: "module/model/11/add_fwd_bf16/7568_complex/add_fwd_bf16_0_bundle_458/op_0"
  op: "add_fwd_bf16"
  input: "tensor_0_odule/model/11/placeholder/0"
  input: "tensor_1_odule/model/11/placeholder/1"
  attr {
    key: "Bundle_idx"
    value {
      s: "458"
    }
  }
  attr {
    key: "Exec_idx"
    value {
      s: "14"
    }
  }
  attr {
    key: "Op_idx"
    value {
      s: "0"
    }
  }
  attr {
    key: "inputTensor:0"
    value {
      s: "tensor_0_odule/model/11/placeholder/0  |  Sizes = [1,128,4096]  |  bf16  |  expBias = 0, scale = 1  |    |  ModelParam = 0  |  strides = [1048576, 1048576, 8192, 2]  |  data = 0, sizeInBytes = 1048576  |  isPersistent  |  location = in DRAM  |  dramOffset = 0x40000000000  |  userMemorySection(type=Persistent, id=4)  |  "
    }
  }
  attr {
    key: "inputTensor:1"
    value {
      s: "tensor_1_odule/model/11/placeholder/1  |  Sizes = [1,128,4096]  |  bf16  |  expBias = 0, scale = 1  |    |  ModelParam = 0  |  strides = [1048576, 1048576, 8192, 2]  |  data = 0, sizeInBytes = 1048576  |  isPersistent  |  location = in DRAM  |  dramOffset = 0x50000000000  |  userMemorySection(type=Persistent, id=5)  |  "
    }
  }
  attr {
    key: "outputTensor:0"
    value {
      s: "tensor_2_slice_0_0_0_0_0__0__bundle_458_90091  |  Sizes = [1,128,4096]  |  bf16  |  expBias = 0, scale = 1  |    |  ModelParam = 0  |  strides = [1048576, 1048576, 8192, 2]  |  data = 0, sizeInBytes = 1048576  |  location = in SRAM  |  sramOffset = 0x1000fffffd050000  |  "
    }
  }
}
node {
  name: "module/model/12/input_layernorm/rms_norm_ex_fwd_bf16/7583_complex/rms_norm_ex_fwd_bf16_309/reshape_4_bundle_458/op_1"
  op: "Reshape"
  input: "module/model/11/add_fwd_bf16/7568_complex/add_fwd_bf16_0_bundle_458/op_0"
  attr {
    key: "Bundle_idx"
    value {
      s: "458"
    }
  }
  attr {
    key: "Exec_idx"
    value {
      s: "15"
    }
  }
  attr {
    key: "Op_idx"
    value {
      s: "1"
    }
  }
  attr {
    key: "inputTensor:0"
    value {
      s: "tensor_2_slice_0_0_0_0_0__0__bundle_458_90091  |  Sizes = [1,128,4096]  |  bf16  |  expBias = 0, scale = 1  |    |  ModelParam = 0  |  strides = [1048576, 1048576, 8192, 2]  |  data = 0, sizeInBytes = 1048576  |  location = in SRAM  |  sramOffset = 0x1000fffffd050000  |  "
    }
  }
  attr {
    key: "outputTensor:0"
    value {
      s: "bf16-5_89524_slice_0_0_0_0_0__0__bundle_458_90092  |  Sizes = [128,4096]  |  bf16  |  expBias = 0, scale = 1  |    |  ModelParam = 0  |  strides = [1048576, 8192, 2]  |  data = 0, sizeInBytes = 1048576  |  isAliased = tensor_2_slice_0_0_0_0_0__0__bundle_458_90091, type = alias, offset: 0  |  location = in SRAM  |  sramOffset = 0x1000fffffd050000  |  "
    }
  }
}
node {
  name: "tensor_24_odule/model/12/input_layernorm/placeholder/1"
  op: "Placeholder"
  attr {
    key: "dtype"
    value {
      type: DT_BFLOAT16
    }
  }
  attr {
    key: "shape"
    value {
      shape {
        dim {
          size: 4096
        }
        dim {
          size: 1
        }
        dim {
          size: 1
        }
        dim {
          size: 1
        }
        dim {
          size: 1
        }
      }
    }
  }
  attr {
    key: "synDataType"
    value {
      s: "bf16"
    }
  }
}
node {
  name: "module/model/12/input_layernorm/rms_norm_ex_fwd_bf16/7583_complex/rms_norm_ex_fwd_bf16_309/rms_norm_fwd_bf16_6_bundle_458/op_2"
  op: "rms_norm_fwd_bf16"
  input: "module/model/12/input_layernorm/rms_norm_ex_fwd_bf16/7583_complex/rms_norm_ex_fwd_bf16_309/reshape_4_bundle_458/op_1"
  input: "tensor_24_odule/model/12/input_layernorm/placeholder/1"
  attr {
    key: "Bundle_idx"
    value {
      s: "458"
    }
  }
  attr {
    key: "Exec_idx"
    value {
      s: "16"
    }
  }
  attr {
    key: "Op_idx"
    value {
      s: "2"
    }
  }
  attr {
    key: "inputTensor:0"
    value {
      s: "bf16-5_89524_slice_0_0_0_0_0__0__bundle_458_90092  |  Sizes = [128,4096]  |  bf16  |  expBias = 0, scale = 1  |    |  ModelParam = 0  |  strides = [1048576, 8192, 2]  |  data = 0, sizeInBytes = 1048576  |  isAliased = tensor_2_slice_0_0_0_0_0__0__bundle_458_90091, type = alias, offset: 0  |  location = in SRAM  |  sramOffset = 0x1000fffffd050000  |  "
    }
  }
  attr {
    key: "inputTensor:1"
    value {
      s: "tensor_24_odule/model/12/input_layernorm/placeholder/1  |  Sizes = [4096]  |  bf16  |  expBias = 0, scale = 1  |    |  ModelParam = 0  |  strides = [8192, 2]  |  data = 0, sizeInBytes = 8192  |  isPersistent  |  location = in DRAM  |  dramOffset = 0xb0000000000  |  userMemorySection(type=Persistent, id=11)  |  "
    }
  }
  attr {
    key: "outputTensor:0"
    value {
      s: "bf16-7_89525_slice_0_0_0_0_0__0__bundle_458_90094  |  Sizes = [128,4096]  |  bf16  |  expBias = 0, scale = 1  |    |  ModelParam = 0  |  strides = [1048576, 8192, 2]  |  data = 0, sizeInBytes = 1048576  |  isAliased = tensor-89745_slice_0_0_0_0_0__0__bundle_458_90096, type = alias, offset: 0  |  location = in SRAM  |  sramOffset = 0x1000fffffd150000  |  "
    }
  }
  attr {
    key: "outputTensor:1"
    value {
      s: "f32-8_89526  |  Sizes = [128,1]  |  float32  |  expBias = 0, scale = 1  |    |  ModelParam = 0  |  strides = [512, 4, 4]  |  data = 0, sizeInBytes = 512  |  location = in DRAM  |  dramOffset = 0x60000008080  |  "
    }
  }
}
node {
  name: "f32-8_89526"
  op: "OutputTensor"
  input: "module/model/12/input_layernorm/rms_norm_ex_fwd_bf16/7583_complex/rms_norm_ex_fwd_bf16_309/rms_norm_fwd_bf16_6_bundle_458/op_2"
  attr {
    key: "dtype"
    value {
      type: DT_FLOAT
    }
  }
  attr {
    key: "shape"
    value {
      shape {
        dim {
          size: 1
        }
        dim {
          size: 128
        }
        dim {
          size: 1
        }
        dim {
          size: 1
        }
        dim {
          size: 1
        }
      }
    }
  }
  attr {
    key: "synDataType"
    value {
      s: "float32"
    }
  }
}
node {
  name: "reshape_0_0_bundle_458/op_3"
  op: "Reshape"
  input: "module/model/12/input_layernorm/rms_norm_ex_fwd_bf16/7583_complex/rms_norm_ex_fwd_bf16_309/rms_norm_fwd_bf16_6_bundle_458/op_2"
  attr {
    key: "Bundle_idx"
    value {
      s: "458"
    }
  }
  attr {
    key: "Exec_idx"
    value {
      s: "17"
    }
  }
  attr {
    key: "Op_idx"
    value {
      s: "3"
    }
  }
  attr {
    key: "inputTensor:0"
    value {
      s: "bf16-7_89525_slice_0_0_0_0_0__0__bundle_458_90094  |  Sizes = [128,4096]  |  bf16  |  expBias = 0, scale = 1  |    |  ModelParam = 0  |  strides = [1048576, 8192, 2]  |  data = 0, sizeInBytes = 1048576  |  isAliased = tensor-89745_slice_0_0_0_0_0__0__bundle_458_90096, type = alias, offset: 0  |  location = in SRAM  |  sramOffset = 0x1000fffffd150000  |  "
    }
  }
  attr {
    key: "outputTensor:0"
    value {
      s: "tensor-89745_slice_0_0_0_0_0__0__bundle_458_90096  |  Sizes = [1,128,4096]  |  bf16  |  expBias = 0, scale = 1  |    |  ModelParam = 0  |  strides = [1048576, 1048576, 8192, 2]  |  data = 0, sizeInBytes = 1048576  |  location = in SRAM  |  sramOffset = 0x1000fffffd150000  |  "
    }
  }
}
node {
  name: "fusedTPCNode_166_0_bundle_458/op_4"
  op: "fused_kernel_0xEBEC7C21_1D8_hf8"
  input: "reshape_0_0_bundle_458/op_3"
  attr {
    key: "Bundle_idx"
    value {
      s: "458"
    }
  }
  attr {
    key: "Exec_idx"
    value {
      s: "18"
    }
  }
  attr {
    key: "Op_idx"
    value {
      s: "4"
    }
  }
  attr {
    key: "inputTensor:0"
    value {
      s: "tensor-89745_slice_0_0_0_0_0__0__bundle_458_90096  |  Sizes = [1,128,4096]  |  bf16  |  expBias = 0, scale = 1  |    |  ModelParam = 0  |  strides = [1048576, 1048576, 8192, 2]  |  data = 0, sizeInBytes = 1048576  |  location = in SRAM  |  sramOffset = 0x1000fffffd150000  |  "
    }
  }
  attr {
    key: "outputTensor:0"
    value {
      s: "tensor_32_slice_0_0_0_0_0__0__bundle_458_90097  |  Sizes = [1,128,4096]  |  hfloat8  |  expBias = 7, scale = 1  |    |  ModelParam = 0  |  strides = [524288, 524288, 4096, 1]  |  data = 0, sizeInBytes = 524288  |  location = in SRAM  |  sramOffset = 0x1000fffffd250000  |  "
    }
  }
}
node {
  name: "module/model/12/k_proj/fp8_gemm_bf16/7585_complex/fp8_gemm_bf16_1221/batch_gemm_8_bundle_458/op_5_gemm"
  op: "GEMM"
  input: "fusedTPCNode_166_0_bundle_458/op_4"
  input: "module/model/12/k_proj/fp8_gemm_bf16/7585_complex/fp8_gemm_bf16_1221/expand_dims_6"
  attr {
    key: "Bundle_idx"
    value {
      s: "458"
    }
  }
  attr {
    key: "Exec_idx"
    value {
      s: "19"
    }
  }
  attr {
    key: "Op_idx"
    value {
      s: "5"
    }
  }
  attr {
    key: "Parameters"
    value {
      s: "transpose_a=false, transpose_b=false"
    }
  }
  attr {
    key: "fp8BiasIn"
    value {
      s: "7"
    }
  }
  attr {
    key: "fp8BiasIn2"
    value {
      s: "15"
    }
  }
  attr {
    key: "fp8BiasOut"
    value {
      s: "0"
    }
  }
  attr {
    key: "inputTensor:0"
    value {
      s: "tensor_32_slice_0_0_0_0_0__0__bundle_458_90097  |  Sizes = [1,128,4096]  |  hfloat8  |  expBias = 7, scale = 1  |    |  ModelParam = 0  |  strides = [524288, 524288, 4096, 1]  |  data = 0, sizeInBytes = 524288  |  location = in SRAM  |  sramOffset = 0x1000fffffd250000  |  "
    }
  }
  attr {
    key: "inputTensor:1"
    value {
      s: "hf8-7_89530  |  Sizes = [1,4096,512]  |  hfloat8  |  expBias = 7, scale = 1  |    |  ModelParam = 0  |  strides = [2097152, 2097152, 512, 1]  |  data = 0, sizeInBytes = 2097152  |  isAliased = tensor_33_odule/model/12/k_proj/placeholder/1, type = alias, offset: 0  |  location = in DRAM  |  "
    }
  }
  attr {
    key: "outputTensor:0"
    value {
      s: "tensor_37  |  Sizes = [1,128,512]  |  bf16  |  expBias = 0, scale = 1  |    |  ModelParam = 0  |  strides = [131072, 131072, 1024, 2]  |  data = 0, sizeInBytes = 131072  |  isAliased = tensor_38_id_60429_module/model/12/aten__view, type = alias, offset: 0  |  location = in DRAM  |  "
    }
  }
}
node {
  name: "module/model/12/v_proj/fp8_gemm_bf16/7594_complex/fp8_gemm_hf8_1223/batch_gemm_10_bundle_458/op_6_gemm"
  op: "GEMM"
  input: "fusedTPCNode_166_0_bundle_458/op_4"
  input: "module/model/12/v_proj/fp8_gemm_bf16/7594_complex/fp8_gemm_hf8_1223/expand_dims_8"
  attr {
    key: "Bundle_idx"
    value {
      s: "458"
    }
  }
  attr {
    key: "Exec_idx"
    value {
      s: "20"
    }
  }
  attr {
    key: "Op_idx"
    value {
      s: "6"
    }
  }
  attr {
    key: "Parameters"
    value {
      s: "transpose_a=false, transpose_b=false"
    }
  }
  attr {
    key: "fp8BiasIn"
    value {
      s: "7"
    }
  }
  attr {
    key: "fp8BiasIn2"
    value {
      s: "15"
    }
  }
  attr {
    key: "fp8BiasOut"
    value {
      s: "11"
    }
  }
  attr {
    key: "inputTensor:0"
    value {
      s: "tensor_32_slice_0_0_0_0_0__0__bundle_458_90097  |  Sizes = [1,128,4096]  |  hfloat8  |  expBias = 7, scale = 1  |    |  ModelParam = 0  |  strides = [524288, 524288, 4096, 1]  |  data = 0, sizeInBytes = 524288  |  location = in SRAM  |  sramOffset = 0x1000fffffd250000  |  "
    }
  }
  attr {
    key: "inputTensor:1"
    value {
      s: "hf8-9_89543  |  Sizes = [1,4096,512]  |  hfloat8  |  expBias = 7, scale = 1  |    |  ModelParam = 0  |  strides = [2097152, 2097152, 512, 1]  |  data = 0, sizeInBytes = 2097152  |  isAliased = tensor_58_odule/model/12/v_proj/placeholder/1, type = alias, offset: 0  |  location = in DRAM  |  "
    }
  }
  attr {
    key: "outputTensor:0"
    value {
      s: "tensor_62_c89491  |  Sizes = [1,128,512]  |  hfloat8  |  expBias = 7, scale = 1  |    |  ModelParam = 0  |  strides = [65536, 65536, 512, 1]  |  data = 0, sizeInBytes = 65536  |  isAliased = tensor_63_id_60433_module/model/12/quant_input_0/aten__view_memcpy_90184, type = alias, offset: 0  |  location = in DRAM  |  "
    }
  }
}
node {
  name: "module/model/12/q_proj/fp8_gemm_bf16/7612_complex/fp8_gemm_bf16_1225/batch_gemm_8_bundle_458/op_7_gemm"
  op: "GEMM"
  input: "fusedTPCNode_166_0_bundle_458/op_4"
  input: "module/model/12/q_proj/fp8_gemm_bf16/7612_complex/fp8_gemm_bf16_1225/expand_dims_6"
  attr {
    key: "Bundle_idx"
    value {
      s: "458"
    }
  }
  attr {
    key: "Exec_idx"
    value {
      s: "21"
    }
  }
  attr {
    key: "Op_idx"
    value {
      s: "7"
    }
  }
  attr {
    key: "Parameters"
    value {
      s: "transpose_a=false, transpose_b=false"
    }
  }
  attr {
    key: "fp8BiasIn"
    value {
      s: "7"
    }
  }
  attr {
    key: "fp8BiasIn2"
    value {
      s: "15"
    }
  }
  attr {
    key: "fp8BiasOut"
    value {
      s: "0"
    }
  }
  attr {
    key: "inputTensor:0"
    value {
      s: "tensor_32_slice_0_0_0_0_0__0__bundle_458_90097  |  Sizes = [1,128,4096]  |  hfloat8  |  expBias = 7, scale = 1  |    |  ModelParam = 0  |  strides = [524288, 524288, 4096, 1]  |  data = 0, sizeInBytes = 524288  |  location = in SRAM  |  sramOffset = 0x1000fffffd250000  |  "
    }
  }
  attr {
    key: "inputTensor:1"
    value {
      s: "hf8-7_89549  |  Sizes = [1,4096,2048]  |  hfloat8  |  expBias = 7, scale = 1  |    |  ModelParam = 0  |  strides = [8388608, 8388608, 2048, 1]  |  data = 0, sizeInBytes = 8388608  |  isAliased = tensor_95_odule/model/12/q_proj/placeholder/1, type = alias, offset: 0  |  location = in DRAM  |  "
    }
  }
  attr {
    key: "outputTensor:0"
    value {
      s: "tensor_99  |  Sizes = [1,128,2048]  |  bf16  |  expBias = 0, scale = 1  |    |  ModelParam = 0  |  strides = [524288, 524288, 4096, 2]  |  data = 0, sizeInBytes = 524288  |  isAliased = tensor_100_id_60425_module/model/12/aten__view, type = alias, offset: 0  |  location = in DRAM  |  "
    }
  }
}
node {
  name: "tensor_2_bundle_458/memcpy/0"
  op: "DmaMemcpy"
  input: "module/model/11/add_fwd_bf16/7568_complex/add_fwd_bf16_0_bundle_458/op_0"
  input: "^module/model/11/add_fwd_bf16/7568_complex/add_fwd_bf16_0_bundle_458/op_0"
  attr {
    key: "Bundle_idx"
    value {
      s: "458"
    }
  }
  attr {
    key: "Exec_idx"
    value {
      s: "22"
    }
  }
  attr {
    key: "Op_idx"
    value {
      s: "8"
    }
  }
  attr {
    key: "inputTensor:0"
    value {
      s: "tensor_2_slice_0_0_0_0_0__0__bundle_458_90091  |  Sizes = [1,128,4096]  |  bf16  |  expBias = 0, scale = 1  |    |  ModelParam = 0  |  strides = [1048576, 1048576, 8192, 2]  |  data = 0, sizeInBytes = 1048576  |  location = in SRAM  |  sramOffset = 0x1000fffffd050000  |  "
    }
  }
  attr {
    key: "outputTensor:0"
    value {
      s: "tensor_2  |  Sizes = [1,128,4096]  |  bf16  |  expBias = 0, scale = 1  |    |  ModelParam = 0  |  strides = [1048576, 1048576, 8192, 2]  |  data = 0, sizeInBytes = 1048576  |  isPersistent  |  location = in DRAM  |  dramOffset = 0x40000000000  |  userMemorySection(type=Persistent, id=4)  |  "
    }
  }
}
node {
  name: "tensor_2"
  op: "OutputTensor"
  input: "tensor_2_bundle_458/memcpy/0"
  attr {
    key: "dtype"
    value {
      type: DT_BFLOAT16
    }
  }
  attr {
    key: "shape"
    value {
      shape {
        dim {
          size: 4096
        }
        dim {
          size: 128
        }
        dim {
          size: 1
        }
        dim {
          size: 1
        }
        dim {
          size: 1
        }
      }
    }
  }
  attr {
    key: "synDataType"
    value {
      s: "bf16"
    }
  }
}
node {
  name: "module/model/12/reshape/7586"
  op: "Reshape"
  input: "module/model/12/k_proj/fp8_gemm_bf16/7585_complex/fp8_gemm_bf16_1221/batch_gemm_8_bundle_458/op_5_gemm"
  attr {
    key: "Bundle_idx"
    value {
      s: "N/A"
    }
  }
  attr {
    key: "Exec_idx"
    value {
      s: "23"
    }
  }
  attr {
    key: "Op_idx"
    value {
      s: "N/A"
    }
  }
  attr {
    key: "inputTensor:0"
    value {
      s: "tensor_37  |  Sizes = [1,128,512]  |  bf16  |  expBias = 0, scale = 1  |    |  ModelParam = 0  |  strides = [131072, 131072, 1024, 2]  |  data = 0, sizeInBytes = 131072  |  isAliased = tensor_38_id_60429_module/model/12/aten__view, type = alias, offset: 0  |  location = in DRAM  |  "
    }
  }
  attr {
    key: "outputTensor:0"
    value {
      s: "tensor_38_id_60429_module/model/12/aten__view  |  Sizes = [1,128,4,128]  |  bf16  |  expBias = 0, scale = 1  |    |  ModelParam = 0  |  strides = [131072, 131072, 1024, 256, 2]  |  data = 0, sizeInBytes = 131072  |  location = in DRAM  |  dramOffset = 0x1c0000000000  |  "
    }
  }
}
node {
  name: "module/model/12/transpose/7587_transpose_via_logical"
  op: "LogicalTranspose"
  input: "module/model/12/reshape/7586"
  attr {
    key: "Bundle_idx"
    value {
      s: "N/A"
    }
  }
  attr {
    key: "Exec_idx"
    value {
      s: "24"
    }
  }
  attr {
    key: "Op_idx"
    value {
      s: "N/A"
    }
  }
  attr {
    key: "Parameters"
    value {
      s: "permutation: (0,2,1,3)"
    }
  }
  attr {
    key: "inputTensor:0"
    value {
      s: "tensor_38_id_60429_module/model/12/aten__view  |  Sizes = [1,128,4,128]  |  bf16  |  expBias = 0, scale = 1  |    |  ModelParam = 0  |  strides = [131072, 131072, 1024, 256, 2]  |  data = 0, sizeInBytes = 131072  |  location = in DRAM  |  dramOffset = 0x1c0000000000  |  "
    }
  }
  attr {
    key: "outputTensor:0"
    value {
      s: "tensor_39_id_60431_module/model/12/aten__transpose  |  Sizes = [1,4,128,128]  |  bf16  |  expBias = 0, scale = 1  |    |  ModelParam = 0  |  strides = [131072, 131072, 256, 1024, 2]  |  data = 0, sizeInBytes = 131072  |  isAliased = tensor_38_id_60429_module/model/12/aten__view, type = alias, offset: 0  |  location = in DRAM  |  isSparseLayout  |  "
    }
  }
}
node {
  name: "module/model/12/rotary_pos_embedding_fwd_bf16/7588_complex/rotary_pos_embedding_fwd_bf16_152/rope_st2_fwd_bf16_16"
  op: "rope_st2_fwd_bf16"
  input: "module/model/12/transpose/7587_transpose_via_logical"
  input: "module/model/12/rotary_pos_embedding_fwd_bf16/7588_complex/rotary_pos_embedding_fwd_bf16_152/expand_dims_12"
  input: "module/model/12/rotary_pos_embedding_fwd_bf16/7588_complex/rotary_pos_embedding_fwd_bf16_152/expand_dims_14"
  attr {
    key: "Bundle_idx"
    value {
      s: "N/A"
    }
  }
  attr {
    key: "Exec_idx"
    value {
      s: "25"
    }
  }
  attr {
    key: "Op_idx"
    value {
      s: "N/A"
    }
  }
  attr {
    key: "inputTensor:0"
    value {
      s: "tensor_39_id_60431_module/model/12/aten__transpose  |  Sizes = [1,4,128,128]  |  bf16  |  expBias = 0, scale = 1  |    |  ModelParam = 0  |  strides = [131072, 131072, 256, 1024, 2]  |  data = 0, sizeInBytes = 131072  |  isAliased = tensor_38_id_60429_module/model/12/aten__view, type = alias, offset: 0  |  location = in DRAM  |  isSparseLayout  |  "
    }
  }
  attr {
    key: "inputTensor:1"
    value {
      s: "bf16-13_89537  |  Sizes = [1,128,128]  |  bf16  |  expBias = 0, scale = 1  |    |  ModelParam = 0  |  strides = [32768, 32768, 256, 2]  |  data = 0, sizeInBytes = 32768  |  location = in DRAM  |  dramOffset = 0x140000000000  |  "
    }
  }
  attr {
    key: "inputTensor:2"
    value {
      s: "bf16-15_89538  |  Sizes = [1,128,128]  |  bf16  |  expBias = 0, scale = 1  |    |  ModelParam = 0  |  strides = [32768, 32768, 256, 2]  |  data = 0, sizeInBytes = 32768  |  location = in DRAM  |  dramOffset = 0x140000008000  |  "
    }
  }
  attr {
    key: "outputTensor:0"
    value {
      s: "tensor_41  |  Sizes = [1,4,128,128]  |  bf16  |  expBias = 0, scale = 1  |    |  ModelParam = 0  |  strides = [131072, 131072, 32768, 256, 2]  |  data = 0, sizeInBytes = 131072  |  location = in DRAM  |  dramOffset = 0x310000080000  |  "
    }
  }
}
node {
  name: "module/model/12/quant_input_0/reshape/7595"
  op: "Reshape"
  input: "module/model/12/v_proj/fp8_gemm_bf16/7594_complex/fp8_gemm_hf8_1223/batch_gemm_10_bundle_458/op_6_gemm"
  attr {
    key: "Bundle_idx"
    value {
      s: "N/A"
    }
  }
  attr {
    key: "Exec_idx"
    value {
      s: "26"
    }
  }
  attr {
    key: "Op_idx"
    value {
      s: "N/A"
    }
  }
  attr {
    key: "inputTensor:0"
    value {
      s: "tensor_62_c89491  |  Sizes = [1,128,512]  |  hfloat8  |  expBias = 7, scale = 1  |    |  ModelParam = 0  |  strides = [65536, 65536, 512, 1]  |  data = 0, sizeInBytes = 65536  |  isAliased = tensor_63_id_60433_module/model/12/quant_input_0/aten__view_memcpy_90184, type = alias, offset: 0  |  location = in DRAM  |  "
    }
  }
  attr {
    key: "outputTensor:0"
    value {
      s: "tensor_63_id_60433_module/model/12/quant_input_0/aten__view_memcpy_90184  |  Sizes = [1,128,4,128]  |  hfloat8  |  expBias = 7, scale = 1  |    |  ModelParam = 0  |  strides = [65536, 65536, 512, 128, 1]  |  data = 0, sizeInBytes = 65536  |  location = in DRAM  |  dramOffset = 0x130000008000  |  "
    }
  }
}
node {
  name: "tensor_63_id_60433_module/model/12/quant_input_0/aten__view_memcpy_90184_internal"
  op: "DmaMemcpy"
  input: "module/model/12/quant_input_0/reshape/7595"
  attr {
    key: "Bundle_idx"
    value {
      s: "N/A"
    }
  }
  attr {
    key: "Exec_idx"
    value {
      s: "27"
    }
  }
  attr {
    key: "Op_idx"
    value {
      s: "N/A"
    }
  }
  attr {
    key: "inputTensor:0"
    value {
      s: "tensor_63_id_60433_module/model/12/quant_input_0/aten__view_memcpy_90184  |  Sizes = [1,128,4,128]  |  hfloat8  |  expBias = 7, scale = 1  |    |  ModelParam = 0  |  strides = [65536, 65536, 512, 128, 1]  |  data = 0, sizeInBytes = 65536  |  location = in DRAM  |  dramOffset = 0x130000008000  |  "
    }
  }
  attr {
    key: "outputTensor:0"
    value {
      s: "tensor_63_id_60433_module/model/12/quant_input_0/aten__view  |  Sizes = [1,128,4,128]  |  hfloat8  |  expBias = 7, scale = 1  |    |  ModelParam = 0  |  strides = [65536, 65536, 128, 16384, 1]  |  data = 0, sizeInBytes = 65536  |  isAliased = tensor_69, type = alias, offset: 0  |  location = in DRAM  |  isSparseLayout  |  "
    }
  }
}
node {
  name: "module/model/12/quant_input_0/transpose/7596_transpose_via_logical"
  op: "LogicalTranspose"
  input: "tensor_63_id_60433_module/model/12/quant_input_0/aten__view_memcpy_90184_internal"
  attr {
    key: "Bundle_idx"
    value {
      s: "N/A"
    }
  }
  attr {
    key: "Exec_idx"
    value {
      s: "28"
    }
  }
  attr {
    key: "Op_idx"
    value {
      s: "N/A"
    }
  }
  attr {
    key: "Parameters"
    value {
      s: "permutation: (0,2,1,3)"
    }
  }
  attr {
    key: "inputTensor:0"
    value {
      s: "tensor_63_id_60433_module/model/12/quant_input_0/aten__view  |  Sizes = [1,128,4,128]  |  hfloat8  |  expBias = 7, scale = 1  |    |  ModelParam = 0  |  strides = [65536, 65536, 128, 16384, 1]  |  data = 0, sizeInBytes = 65536  |  isAliased = tensor_69, type = alias, offset: 0  |  location = in DRAM  |  isSparseLayout  |  "
    }
  }
  attr {
    key: "outputTensor:0"
    value {
      s: "tensor_69  |  Sizes = [1,4,128,128]  |  hfloat8  |  expBias = 7, scale = 1  |    |  ModelParam = 0  |  strides = [65536, 65536, 16384, 128, 1]  |  data = 0, sizeInBytes = 65536  |  isPersistent  |  location = in DRAM  |  dramOffset = 0x140000000000  |  userMemorySection(type=Persistent, id=20)  |  "
    }
  }
}
node {
  name: "module/model/12/reshape/7613"
  op: "Reshape"
  input: "module/model/12/q_proj/fp8_gemm_bf16/7612_complex/fp8_gemm_bf16_1225/batch_gemm_8_bundle_458/op_7_gemm"
  attr {
    key: "Bundle_idx"
    value {
      s: "N/A"
    }
  }
  attr {
    key: "Exec_idx"
    value {
      s: "29"
    }
  }
  attr {
    key: "Op_idx"
    value {
      s: "N/A"
    }
  }
  attr {
    key: "inputTensor:0"
    value {
      s: "tensor_99  |  Sizes = [1,128,2048]  |  bf16  |  expBias = 0, scale = 1  |    |  ModelParam = 0  |  strides = [524288, 524288, 4096, 2]  |  data = 0, sizeInBytes = 524288  |  isAliased = tensor_100_id_60425_module/model/12/aten__view, type = alias, offset: 0  |  location = in DRAM  |  "
    }
  }
  attr {
    key: "outputTensor:0"
    value {
      s: "tensor_100_id_60425_module/model/12/aten__view  |  Sizes = [1,128,16,128]  |  bf16  |  expBias = 0, scale = 1  |    |  ModelParam = 0  |  strides = [524288, 524288, 4096, 256, 2]  |  data = 0, sizeInBytes = 524288  |  location = in DRAM  |  dramOffset = 0x310000000000  |  "
    }
  }
}
node {
  name: "module/model/12/transpose/7614_transpose_via_logical"
  op: "LogicalTranspose"
  input: "module/model/12/reshape/7613"
  attr {
    key: "Bundle_idx"
    value {
      s: "N/A"
    }
  }
  attr {
    key: "Exec_idx"
    value {
      s: "30"
    }
  }
  attr {
    key: "Op_idx"
    value {
      s: "N/A"
    }
  }
  attr {
    key: "Parameters"
    value {
      s: "permutation: (0,2,1,3)"
    }
  }
  attr {
    key: "inputTensor:0"
    value {
      s: "tensor_100_id_60425_module/model/12/aten__view  |  Sizes = [1,128,16,128]  |  bf16  |  expBias = 0, scale = 1  |    |  ModelParam = 0  |  strides = [524288, 524288, 4096, 256, 2]  |  data = 0, sizeInBytes = 524288  |  location = in DRAM  |  dramOffset = 0x310000000000  |  "
    }
  }
  attr {
    key: "outputTensor:0"
    value {
      s: "tensor_101_id_60427_module/model/12/aten__transpose  |  Sizes = [1,16,128,128]  |  bf16  |  expBias = 0, scale = 1  |    |  ModelParam = 0  |  strides = [524288, 524288, 256, 4096, 2]  |  data = 0, sizeInBytes = 524288  |  isAliased = tensor_100_id_60425_module/model/12/aten__view, type = alias, offset: 0  |  location = in DRAM  |  isSparseLayout  |  "
    }
  }
}
node {
  name: "module/model/12/rotary_pos_embedding_fwd_bf16/7615_complex/rotary_pos_embedding_fwd_bf16_153/gather_nd_mxnet_fwd_bf16_8"
  op: "gather_nd_mxnet_fwd_bf16"
  input: "module/model/12/rotary_emb/mult_fwd_bf16/7579_complex/mult_fwd_bf16_0"
  input: "module/model/12/expand_dims/7570"
  attr {
    key: "Bundle_idx"
    value {
      s: "N/A"
    }
  }
  attr {
    key: "Exec_idx"
    value {
      s: "31"
    }
  }
  attr {
    key: "Op_idx"
    value {
      s: "N/A"
    }
  }
  attr {
    key: "inputTensor:0"
    value {
      s: "tensor_19_id_60443_module/model/12/rotary_emb/aten__mul  |  Sizes = [128,128]  |  bf16  |  expBias = 0, scale = 1  |    |  ModelParam = 0  |  strides = [32768, 256, 2]  |  data = 0, sizeInBytes = 32768  |  location = in DRAM  |  dramOffset = 0x130000000000  |  "
    }
  }
  attr {
    key: "inputTensor:1"
    value {
      s: "tensor_8_id_60319_module/model/12/aten__unsqueeze/1  |  Sizes = [1,128]  |  int32  |  expBias = 0, scale = 1  |    |  ModelParam = 0  |  strides = [512, 512, 4]  |  data = 0, sizeInBytes = 512  |  isAliased = tensor_7_odule/model/12/placeholder/0, type = alias, offset: 0  |  location = in DRAM  |  "
    }
  }
  attr {
    key: "outputTensor:0"
    value {
      s: "bf16-9_89554  |  Sizes = [128,128]  |  bf16  |  expBias = 0, scale = 1  |    |  ModelParam = 0  |  strides = [32768, 256, 2]  |  data = 0, sizeInBytes = 32768  |  isAliased = bf16-13_89556, type = alias, offset: 0  |  location = in DRAM  |  "
    }
  }
}
node {
  name: "module/model/12/rotary_pos_embedding_fwd_bf16/7615_complex/rotary_pos_embedding_fwd_bf16_153/gather_nd_mxnet_fwd_bf16_10"
  op: "gather_nd_mxnet_fwd_bf16"
  input: "module/model/12/rotary_emb/mult_fwd_bf16/7573_complex/mult_fwd_bf16_0"
  input: "module/model/12/expand_dims/7570"
  attr {
    key: "Bundle_idx"
    value {
      s: "N/A"
    }
  }
  attr {
    key: "Exec_idx"
    value {
      s: "32"
    }
  }
  attr {
    key: "Op_idx"
    value {
      s: "N/A"
    }
  }
  attr {
    key: "inputTensor:0"
    value {
      s: "tensor_12_id_60439_module/model/12/rotary_emb/aten__mul  |  Sizes = [128,128]  |  bf16  |  expBias = 0, scale = 1  |    |  ModelParam = 0  |  strides = [32768, 256, 2]  |  data = 0, sizeInBytes = 32768  |  location = in DRAM  |  dramOffset = 0x60000000080  |  "
    }
  }
  attr {
    key: "inputTensor:1"
    value {
      s: "tensor_8_id_60319_module/model/12/aten__unsqueeze/1  |  Sizes = [1,128]  |  int32  |  expBias = 0, scale = 1  |    |  ModelParam = 0  |  strides = [512, 512, 4]  |  data = 0, sizeInBytes = 512  |  isAliased = tensor_7_odule/model/12/placeholder/0, type = alias, offset: 0  |  location = in DRAM  |  "
    }
  }
  attr {
    key: "outputTensor:0"
    value {
      s: "bf16-11_89555  |  Sizes = [128,128]  |  bf16  |  expBias = 0, scale = 1  |    |  ModelParam = 0  |  strides = [32768, 256, 2]  |  data = 0, sizeInBytes = 32768  |  isAliased = bf16-15_89557, type = alias, offset: 0  |  location = in DRAM  |  "
    }
  }
}
node {
  name: "module/model/12/rotary_pos_embedding_fwd_bf16/7615_complex/rotary_pos_embedding_fwd_bf16_153/expand_dims_12"
  op: "ExpandDims"
  input: "module/model/12/rotary_pos_embedding_fwd_bf16/7615_complex/rotary_pos_embedding_fwd_bf16_153/gather_nd_mxnet_fwd_bf16_8"
  attr {
    key: "Bundle_idx"
    value {
      s: "N/A"
    }
  }
  attr {
    key: "Exec_idx"
    value {
      s: "33"
    }
  }
  attr {
    key: "Op_idx"
    value {
      s: "N/A"
    }
  }
  attr {
    key: "inputTensor:0"
    value {
      s: "bf16-9_89554  |  Sizes = [128,128]  |  bf16  |  expBias = 0, scale = 1  |    |  ModelParam = 0  |  strides = [32768, 256, 2]  |  data = 0, sizeInBytes = 32768  |  isAliased = bf16-13_89556, type = alias, offset: 0  |  location = in DRAM  |  "
    }
  }
  attr {
    key: "outputTensor:0"
    value {
      s: "bf16-13_89556  |  Sizes = [1,128,128]  |  bf16  |  expBias = 0, scale = 1  |    |  ModelParam = 0  |  strides = [32768, 32768, 256, 2]  |  data = 0, sizeInBytes = 32768  |  location = in DRAM  |  dramOffset = 0x3100000a0000  |  "
    }
  }
}
node {
  name: "module/model/12/rotary_pos_embedding_fwd_bf16/7615_complex/rotary_pos_embedding_fwd_bf16_153/expand_dims_14"
  op: "ExpandDims"
  input: "module/model/12/rotary_pos_embedding_fwd_bf16/7615_complex/rotary_pos_embedding_fwd_bf16_153/gather_nd_mxnet_fwd_bf16_10"
  attr {
    key: "Bundle_idx"
    value {
      s: "N/A"
    }
  }
  attr {
    key: "Exec_idx"
    value {
      s: "34"
    }
  }
  attr {
    key: "Op_idx"
    value {
      s: "N/A"
    }
  }
  attr {
    key: "inputTensor:0"
    value {
      s: "bf16-11_89555  |  Sizes = [128,128]  |  bf16  |  expBias = 0, scale = 1  |    |  ModelParam = 0  |  strides = [32768, 256, 2]  |  data = 0, sizeInBytes = 32768  |  isAliased = bf16-15_89557, type = alias, offset: 0  |  location = in DRAM  |  "
    }
  }
  attr {
    key: "outputTensor:0"
    value {
      s: "bf16-15_89557  |  Sizes = [1,128,128]  |  bf16  |  expBias = 0, scale = 1  |    |  ModelParam = 0  |  strides = [32768, 32768, 256, 2]  |  data = 0, sizeInBytes = 32768  |  location = in DRAM  |  dramOffset = 0x3100000a8000  |  "
    }
  }
}
node {
  name: "tensor_101_id_60427_module/model/12/aten__transpose_bundle_459/split_internal/0"
  op: "Split"
  input: "module/model/12/transpose/7614_transpose_via_logical"
  attr {
    key: "Bundle_idx"
    value {
      s: "459"
    }
  }
  attr {
    key: "Exec_idx"
    value {
      s: "35"
    }
  }
  attr {
    key: "Op_idx"
    value {
      s: "0"
    }
  }
  attr {
    key: "inputTensor:0"
    value {
      s: "tensor_101_id_60427_module/model/12/aten__transpose  |  Sizes = [1,16,128,128]  |  bf16  |  expBias = 0, scale = 1  |    |  ModelParam = 0  |  strides = [524288, 524288, 256, 4096, 2]  |  data = 0, sizeInBytes = 524288  |  isAliased = tensor_100_id_60425_module/model/12/aten__view, type = alias, offset: 0  |  location = in DRAM  |  isSparseLayout  |  "
    }
  }
  attr {
    key: "outputTensor:0"
    value {
      s: "tensor_101_id_60427_module/model/12/aten__transpose_slice_0_0_0_0_0__0__bundle_459_90112  |  Sizes = [1,4,128,128]  |  bf16  |  expBias = 0, scale = 1  |    |  ModelParam = 0  |  strides = [524288, 524288, 256, 4096, 2]  |  data = 0, sizeInBytes = 131072  |  isAliased = tensor_101_id_60427_module/model/12/aten__transpose, type = concat, offset: 0  |  location = in DRAM  |  isSparseLayout  |  "
    }
  }
  attr {
    key: "outputTensor:1"
    value {
      s: "tensor_101_id_60427_module/model/12/aten__transpose_slice_0_0_1_0_0__0__bundle_459_90123  |  Sizes = [1,4,128,128]  |  bf16  |  expBias = 0, scale = 1  |    |  ModelParam = 0  |  strides = [524288, 524288, 256, 4096, 2]  |  data = 0, sizeInBytes = 131072  |  isAliased = tensor_101_id_60427_module/model/12/aten__transpose, type = concat, offset: 1024  |  location = in DRAM  |  isSparseLayout  |  "
    }
  }
  attr {
    key: "outputTensor:2"
    value {
      s: "tensor_101_id_60427_module/model/12/aten__transpose_slice_0_0_2_0_0__0__bundle_459_90133  |  Sizes = [1,4,128,128]  |  bf16  |  expBias = 0, scale = 1  |    |  ModelParam = 0  |  strides = [524288, 524288, 256, 4096, 2]  |  data = 0, sizeInBytes = 131072  |  isAliased = tensor_101_id_60427_module/model/12/aten__transpose, type = concat, offset: 2048  |  location = in DRAM  |  isSparseLayout  |  "
    }
  }
  attr {
    key: "outputTensor:3"
    value {
      s: "tensor_101_id_60427_module/model/12/aten__transpose_slice_0_0_3_0_0__0__bundle_459_90143  |  Sizes = [1,4,128,128]  |  bf16  |  expBias = 0, scale = 1  |    |  ModelParam = 0  |  strides = [524288, 524288, 256, 4096, 2]  |  data = 0, sizeInBytes = 131072  |  isAliased = tensor_101_id_60427_module/model/12/aten__transpose, type = concat, offset: 3072  |  location = in DRAM  |  isSparseLayout  |  "
    }
  }
}
node {
  name: "tensor_41_bundle_459/split_internal/0"
  op: "Split"
  input: "module/model/12/rotary_pos_embedding_fwd_bf16/7588_complex/rotary_pos_embedding_fwd_bf16_152/rope_st2_fwd_bf16_16"
  attr {
    key: "Bundle_idx"
    value {
      s: "459"
    }
  }
  attr {
    key: "Exec_idx"
    value {
      s: "36"
    }
  }
  attr {
    key: "Op_idx"
    value {
      s: "1"
    }
  }
  attr {
    key: "inputTensor:0"
    value {
      s: "tensor_41  |  Sizes = [1,4,128,128]  |  bf16  |  expBias = 0, scale = 1  |    |  ModelParam = 0  |  strides = [131072, 131072, 32768, 256, 2]  |  data = 0, sizeInBytes = 131072  |  location = in DRAM  |  dramOffset = 0x310000080000  |  "
    }
  }
  attr {
    key: "outputTensor:0"
    value {
      s: "tensor_41_slice_0_0_0_0_0__0__bundle_459_90107  |  Sizes = [1,1,128,128]  |  bf16  |  expBias = 0, scale = 1  |    |  ModelParam = 0  |  strides = [131072, 131072, 32768, 256, 2]  |  data = 0, sizeInBytes = 32768  |  isAliased = tensor_41, type = concat, offset: 0  |  location = in DRAM  |  "
    }
  }
  attr {
    key: "outputTensor:1"
    value {
      s: "tensor_41_slice_0_0_1_0_0__0__bundle_459_90118  |  Sizes = [1,1,128,128]  |  bf16  |  expBias = 0, scale = 1  |    |  ModelParam = 0  |  strides = [131072, 131072, 32768, 256, 2]  |  data = 0, sizeInBytes = 32768  |  isAliased = tensor_41, type = concat, offset: 32768  |  location = in DRAM  |  "
    }
  }
  attr {
    key: "outputTensor:2"
    value {
      s: "tensor_41_slice_0_0_2_0_0__0__bundle_459_90128  |  Sizes = [1,1,128,128]  |  bf16  |  expBias = 0, scale = 1  |    |  ModelParam = 0  |  strides = [131072, 131072, 32768, 256, 2]  |  data = 0, sizeInBytes = 32768  |  isAliased = tensor_41, type = concat, offset: 65536  |  location = in DRAM  |  "
    }
  }
  attr {
    key: "outputTensor:3"
    value {
      s: "tensor_41_slice_0_0_3_0_0__0__bundle_459_90138  |  Sizes = [1,1,128,128]  |  bf16  |  expBias = 0, scale = 1  |    |  ModelParam = 0  |  strides = [131072, 131072, 32768, 256, 2]  |  data = 0, sizeInBytes = 32768  |  isAliased = tensor_41, type = concat, offset: 98304  |  location = in DRAM  |  "
    }
  }
}
node {
  name: "module/model/12/rotary_pos_embedding_fwd_bf16/7615_complex/rotary_pos_embedding_fwd_bf16_153/rope_st2_fwd_bf16_16_bundle_459/op_2"
  op: "rope_st2_fwd_bf16"
  input: "tensor_101_id_60427_module/model/12/aten__transpose_bundle_459/split_internal/0"
  input: "module/model/12/rotary_pos_embedding_fwd_bf16/7615_complex/rotary_pos_embedding_fwd_bf16_153/expand_dims_12"
  input: "module/model/12/rotary_pos_embedding_fwd_bf16/7615_complex/rotary_pos_embedding_fwd_bf16_153/expand_dims_14"
  attr {
    key: "Bundle_idx"
    value {
      s: "459"
    }
  }
  attr {
    key: "Exec_idx"
    value {
      s: "37"
    }
  }
  attr {
    key: "Op_idx"
    value {
      s: "2"
    }
  }
  attr {
    key: "inputTensor:0"
    value {
      s: "tensor_101_id_60427_module/model/12/aten__transpose_slice_0_0_0_0_0__0__bundle_459_90112  |  Sizes = [1,4,128,128]  |  bf16  |  expBias = 0, scale = 1  |    |  ModelParam = 0  |  strides = [524288, 524288, 256, 4096, 2]  |  data = 0, sizeInBytes = 131072  |  isAliased = tensor_101_id_60427_module/model/12/aten__transpose, type = concat, offset: 0  |  location = in DRAM  |  isSparseLayout  |  "
    }
  }
  attr {
    key: "inputTensor:1"
    value {
      s: "bf16-13_89556  |  Sizes = [1,128,128]  |  bf16  |  expBias = 0, scale = 1  |    |  ModelParam = 0  |  strides = [32768, 32768, 256, 2]  |  data = 0, sizeInBytes = 32768  |  location = in DRAM  |  dramOffset = 0x3100000a0000  |  "
    }
  }
  attr {
    key: "inputTensor:2"
    value {
      s: "bf16-15_89557  |  Sizes = [1,128,128]  |  bf16  |  expBias = 0, scale = 1  |    |  ModelParam = 0  |  strides = [32768, 32768, 256, 2]  |  data = 0, sizeInBytes = 32768  |  location = in DRAM  |  dramOffset = 0x3100000a8000  |  "
    }
  }
  attr {
    key: "outputTensor:0"
    value {
      s: "tensor_103_slice_0_0_0_0_0__0__bundle_459_90115  |  Sizes = [1,4,128,128]  |  bf16  |  expBias = 0, scale = 1  |    |  ModelParam = 0  |  strides = [131072, 131072, 32768, 256, 2]  |  data = 0, sizeInBytes = 131072  |  location = in SRAM  |  sramOffset = 0x1000fffffd2d0000  |  "
    }
  }
}
node {
  name: "module/model/12/rotary_pos_embedding_fwd_bf16/7615_complex/rotary_pos_embedding_fwd_bf16_153/rope_st2_fwd_bf16_16_bundle_459/op_7"
  op: "rope_st2_fwd_bf16"
  input: "tensor_101_id_60427_module/model/12/aten__transpose_bundle_459/split_internal/0"
  input: "module/model/12/rotary_pos_embedding_fwd_bf16/7615_complex/rotary_pos_embedding_fwd_bf16_153/expand_dims_12"
  input: "module/model/12/rotary_pos_embedding_fwd_bf16/7615_complex/rotary_pos_embedding_fwd_bf16_153/expand_dims_14"
  attr {
    key: "Bundle_idx"
    value {
      s: "459"
    }
  }
  attr {
    key: "Exec_idx"
    value {
      s: "38"
    }
  }
  attr {
    key: "Op_idx"
    value {
      s: "3"
    }
  }
  attr {
    key: "inputTensor:0"
    value {
      s: "tensor_101_id_60427_module/model/12/aten__transpose_slice_0_0_1_0_0__0__bundle_459_90123  |  Sizes = [1,4,128,128]  |  bf16  |  expBias = 0, scale = 1  |    |  ModelParam = 0  |  strides = [524288, 524288, 256, 4096, 2]  |  data = 0, sizeInBytes = 131072  |  isAliased = tensor_101_id_60427_module/model/12/aten__transpose, type = concat, offset: 1024  |  location = in DRAM  |  isSparseLayout  |  "
    }
  }
  attr {
    key: "inputTensor:1"
    value {
      s: "bf16-13_89556  |  Sizes = [1,128,128]  |  bf16  |  expBias = 0, scale = 1  |    |  ModelParam = 0  |  strides = [32768, 32768, 256, 2]  |  data = 0, sizeInBytes = 32768  |  location = in DRAM  |  dramOffset = 0x3100000a0000  |  "
    }
  }
  attr {
    key: "inputTensor:2"
    value {
      s: "bf16-15_89557  |  Sizes = [1,128,128]  |  bf16  |  expBias = 0, scale = 1  |    |  ModelParam = 0  |  strides = [32768, 32768, 256, 2]  |  data = 0, sizeInBytes = 32768  |  location = in DRAM  |  dramOffset = 0x3100000a8000  |  "
    }
  }
  attr {
    key: "outputTensor:0"
    value {
      s: "tensor_103_slice_0_0_1_0_0__0__bundle_459_90124  |  Sizes = [1,4,128,128]  |  bf16  |  expBias = 0, scale = 1  |    |  ModelParam = 0  |  strides = [131072, 131072, 32768, 256, 2]  |  data = 0, sizeInBytes = 131072  |  location = in SRAM  |  sramOffset = 0x1000fffffd2f0000  |  "
    }
  }
}
node {
  name: "fusedTPCNode_166_1_bundle_459/op_0"
  op: "fused_kernel_0xB8CE0392_1D9_bf16"
  input: "tensor_41_bundle_459/split_internal/0"
  attr {
    key: "Bundle_idx"
    value {
      s: "459"
    }
  }
  attr {
    key: "Exec_idx"
    value {
      s: "39"
    }
  }
  attr {
    key: "Op_idx"
    value {
      s: "4"
    }
  }
  attr {
    key: "inputTensor:0"
    value {
      s: "tensor_41_slice_0_0_0_0_0__0__bundle_459_90107  |  Sizes = [1,1,128,128]  |  bf16  |  expBias = 0, scale = 1  |    |  ModelParam = 0  |  strides = [131072, 131072, 32768, 256, 2]  |  data = 0, sizeInBytes = 32768  |  isAliased = tensor_41, type = concat, offset: 0  |  location = in DRAM  |  "
    }
  }
  attr {
    key: "outputTensor:0"
    value {
      s: "tensor_46_slice_0_0_0_0_0__0__bundle_459_90108  |  Sizes = [1,1,128,128]  |  hfloat8  |  expBias = 7, scale = 1  |    |  ModelParam = 0  |  strides = [65536, 65536, 16384, 128, 1]  |  data = 0, sizeInBytes = 16384  |  isAliased = tensor_46, type = concat, offset: 0  |  location = in DRAM  |  "
    }
  }
  attr {
    key: "outputTensor:1"
    value {
      s: "tensor_49_slice_0_0_0_0_0__0__bundle_459_90109  |  Sizes = [1,1,128,128]  |  bf16  |  expBias = 0, scale = 1  |    |  ModelParam = 0  |  strides = [131072, 131072, 32768, 256, 2]  |  data = 0, sizeInBytes = 32768  |  isAliased = tensor_49, type = concat, offset: 0  |  location = in DRAM  |  "
    }
  }
  attr {
    key: "outputTensor:2"
    value {
      s: "tensor-89746_slice_0_0_0_0_0__0__bundle_459_90110  |  Sizes = [1,1,128,128]  |  hfloat8  |  expBias = 7, scale = 1  |    |  ModelParam = 0  |  strides = [16384, 16384, 16384, 128, 1]  |  data = 0, sizeInBytes = 16384  |  isAliased = tensor_89_id_60542_module/model/12/fused_scaled_dot_product_attention/aten__view_slice_0_0_0_0_0__0__bundle_459_90111, type = alias, offset: 0  |  location = in SRAM  |  sramOffset = 0x1000fffffd310000  |  "
    }
  }
}
node {
  name: "reshape_5_5_bundle_459/op_1"
  op: "Reshape"
  input: "fusedTPCNode_166_1_bundle_459/op_0"
  attr {
    key: "Bundle_idx"
    value {
      s: "459"
    }
  }
  attr {
    key: "Exec_idx"
    value {
      s: "40"
    }
  }
  attr {
    key: "Op_idx"
    value {
      s: "5"
    }
  }
  attr {
    key: "inputTensor:0"
    value {
      s: "tensor-89746_slice_0_0_0_0_0__0__bundle_459_90110  |  Sizes = [1,1,128,128]  |  hfloat8  |  expBias = 7, scale = 1  |    |  ModelParam = 0  |  strides = [16384, 16384, 16384, 128, 1]  |  data = 0, sizeInBytes = 16384  |  isAliased = tensor_89_id_60542_module/model/12/fused_scaled_dot_product_attention/aten__view_slice_0_0_0_0_0__0__bundle_459_90111, type = alias, offset: 0  |  location = in SRAM  |  sramOffset = 0x1000fffffd310000  |  "
    }
  }
  attr {
    key: "outputTensor:0"
    value {
      s: "tensor_89_id_60542_module/model/12/fused_scaled_dot_product_attention/aten__view_slice_0_0_0_0_0__0__bundle_459_90111  |  Sizes = [1,1,1,128,128]  |  hfloat8  |  expBias = 7, scale = 1  |    |  ModelParam = 0  |  strides = [16384, 16384, 16384, 16384, 128, 1]  |  data = 0, sizeInBytes = 16384  |  location = in SRAM  |  sramOffset = 0x1000fffffd310000  |  "
    }
  }
}
node {
  name: "fusedTPCNode_166_3_bundle_459/op_3"
  op: "fused_kernel_0x51F021BC_1DB_hf8"
  input: "module/model/12/rotary_pos_embedding_fwd_bf16/7615_complex/rotary_pos_embedding_fwd_bf16_153/rope_st2_fwd_bf16_16_bundle_459/op_2"
  attr {
    key: "Bundle_idx"
    value {
      s: "459"
    }
  }
  attr {
    key: "Exec_idx"
    value {
      s: "41"
    }
  }
  attr {
    key: "Op_idx"
    value {
      s: "6"
    }
  }
  attr {
    key: "inputTensor:0"
    value {
      s: "tensor_103_slice_0_0_0_0_0__0__bundle_459_90115  |  Sizes = [1,4,128,128]  |  bf16  |  expBias = 0, scale = 1  |    |  ModelParam = 0  |  strides = [131072, 131072, 32768, 256, 2]  |  data = 0, sizeInBytes = 131072  |  location = in SRAM  |  sramOffset = 0x1000fffffd2d0000  |  "
    }
  }
  attr {
    key: "outputTensor:0"
    value {
      s: "tensor-89748_slice_0_0_0_0_0__0__bundle_459_90116  |  Sizes = [1,4,128,128]  |  hfloat8  |  expBias = 7, scale = 1  |    |  ModelParam = 0  |  strides = [65536, 65536, 16384, 128, 1]  |  data = 0, sizeInBytes = 65536  |  isAliased = tensor_108_id_60540_module/model/12/fused_scaled_dot_product_attention/aten__view_slice_0_0_0_0_0__0__bundle_459_90117, type = alias, offset: 0  |  location = in SRAM  |  sramOffset = 0x1000fffffd318000  |  "
    }
  }
}
node {
  name: "reshape_11_11_bundle_459/op_4"
  op: "Reshape"
  input: "fusedTPCNode_166_3_bundle_459/op_3"
  attr {
    key: "Bundle_idx"
    value {
      s: "459"
    }
  }
  attr {
    key: "Exec_idx"
    value {
      s: "42"
    }
  }
  attr {
    key: "Op_idx"
    value {
      s: "7"
    }
  }
  attr {
    key: "inputTensor:0"
    value {
      s: "tensor-89748_slice_0_0_0_0_0__0__bundle_459_90116  |  Sizes = [1,4,128,128]  |  hfloat8  |  expBias = 7, scale = 1  |    |  ModelParam = 0  |  strides = [65536, 65536, 16384, 128, 1]  |  data = 0, sizeInBytes = 65536  |  isAliased = tensor_108_id_60540_module/model/12/fused_scaled_dot_product_attention/aten__view_slice_0_0_0_0_0__0__bundle_459_90117, type = alias, offset: 0  |  location = in SRAM  |  sramOffset = 0x1000fffffd318000  |  "
    }
  }
  attr {
    key: "outputTensor:0"
    value {
      s: "tensor_108_id_60540_module/model/12/fused_scaled_dot_product_attention/aten__view_slice_0_0_0_0_0__0__bundle_459_90117  |  Sizes = [1,1,4,128,128]  |  hfloat8  |  expBias = 7, scale = 1  |    |  ModelParam = 0  |  strides = [65536, 65536, 65536, 16384, 128, 1]  |  data = 0, sizeInBytes = 65536  |  location = in SRAM  |  sramOffset = 0x1000fffffd318000  |  "
    }
  }
}
node {
  name: "fusedTPCNode_166_1_bundle_459/op_5"
  op: "fused_kernel_0xB8CE0392_1D9_bf16"
  input: "tensor_41_bundle_459/split_internal/0"
  attr {
    key: "Bundle_idx"
    value {
      s: "459"
    }
  }
  attr {
    key: "Exec_idx"
    value {
      s: "43"
    }
  }
  attr {
    key: "Op_idx"
    value {
      s: "8"
    }
  }
  attr {
    key: "inputTensor:0"
    value {
      s: "tensor_41_slice_0_0_1_0_0__0__bundle_459_90118  |  Sizes = [1,1,128,128]  |  bf16  |  expBias = 0, scale = 1  |    |  ModelParam = 0  |  strides = [131072, 131072, 32768, 256, 2]  |  data = 0, sizeInBytes = 32768  |  isAliased = tensor_41, type = concat, offset: 32768  |  location = in DRAM  |  "
    }
  }
  attr {
    key: "outputTensor:0"
    value {
      s: "tensor_46_slice_0_0_1_0_0__0__bundle_459_90119  |  Sizes = [1,1,128,128]  |  hfloat8  |  expBias = 7, scale = 1  |    |  ModelParam = 0  |  strides = [65536, 65536, 16384, 128, 1]  |  data = 0, sizeInBytes = 16384  |  isAliased = tensor_46, type = concat, offset: 16384  |  location = in DRAM  |  "
    }
  }
  attr {
    key: "outputTensor:1"
    value {
      s: "tensor_49_slice_0_0_1_0_0__0__bundle_459_90120  |  Sizes = [1,1,128,128]  |  bf16  |  expBias = 0, scale = 1  |    |  ModelParam = 0  |  strides = [131072, 131072, 32768, 256, 2]  |  data = 0, sizeInBytes = 32768  |  isAliased = tensor_49, type = concat, offset: 32768  |  location = in DRAM  |  "
    }
  }
  attr {
    key: "outputTensor:2"
    value {
      s: "tensor-89746_slice_0_0_1_0_0__0__bundle_459_90121  |  Sizes = [1,1,128,128]  |  hfloat8  |  expBias = 7, scale = 1  |    |  ModelParam = 0  |  strides = [16384, 16384, 16384, 128, 1]  |  data = 0, sizeInBytes = 16384  |  isAliased = tensor_89_id_60542_module/model/12/fused_scaled_dot_product_attention/aten__view_slice_0_0_0_1_0__0__bundle_459_90122, type = alias, offset: 0  |  location = in SRAM  |  sramOffset = 0x1000fffffd314000  |  "
    }
  }
}
node {
  name: "reshape_5_5_bundle_459/op_6"
  op: "Reshape"
  input: "fusedTPCNode_166_1_bundle_459/op_5"
  attr {
    key: "Bundle_idx"
    value {
      s: "459"
    }
  }
  attr {
    key: "Exec_idx"
    value {
      s: "44"
    }
  }
  attr {
    key: "Op_idx"
    value {
      s: "9"
    }
  }
  attr {
    key: "inputTensor:0"
    value {
      s: "tensor-89746_slice_0_0_1_0_0__0__bundle_459_90121  |  Sizes = [1,1,128,128]  |  hfloat8  |  expBias = 7, scale = 1  |    |  ModelParam = 0  |  strides = [16384, 16384, 16384, 128, 1]  |  data = 0, sizeInBytes = 16384  |  isAliased = tensor_89_id_60542_module/model/12/fused_scaled_dot_product_attention/aten__view_slice_0_0_0_1_0__0__bundle_459_90122, type = alias, offset: 0  |  location = in SRAM  |  sramOffset = 0x1000fffffd314000  |  "
    }
  }
  attr {
    key: "outputTensor:0"
    value {
      s: "tensor_89_id_60542_module/model/12/fused_scaled_dot_product_attention/aten__view_slice_0_0_0_1_0__0__bundle_459_90122  |  Sizes = [1,1,1,128,128]  |  hfloat8  |  expBias = 7, scale = 1  |    |  ModelParam = 0  |  strides = [16384, 16384, 16384, 16384, 128, 1]  |  data = 0, sizeInBytes = 16384  |  location = in SRAM  |  sramOffset = 0x1000fffffd314000  |  "
    }
  }
}
node {
  name: "fusedTPCNode_166_3_bundle_459/op_8"
  op: "fused_kernel_0x51F021BC_1DB_hf8"
  input: "module/model/12/rotary_pos_embedding_fwd_bf16/7615_complex/rotary_pos_embedding_fwd_bf16_153/rope_st2_fwd_bf16_16_bundle_459/op_7"
  attr {
    key: "Bundle_idx"
    value {
      s: "459"
    }
  }
  attr {
    key: "Exec_idx"
    value {
      s: "45"
    }
  }
  attr {
    key: "Op_idx"
    value {
      s: "10"
    }
  }
  attr {
    key: "inputTensor:0"
    value {
      s: "tensor_103_slice_0_0_1_0_0__0__bundle_459_90124  |  Sizes = [1,4,128,128]  |  bf16  |  expBias = 0, scale = 1  |    |  ModelParam = 0  |  strides = [131072, 131072, 32768, 256, 2]  |  data = 0, sizeInBytes = 131072  |  location = in SRAM  |  sramOffset = 0x1000fffffd2f0000  |  "
    }
  }
  attr {
    key: "outputTensor:0"
    value {
      s: "tensor-89748_slice_0_0_1_0_0__0__bundle_459_90125  |  Sizes = [1,4,128,128]  |  hfloat8  |  expBias = 7, scale = 1  |    |  ModelParam = 0  |  strides = [65536, 65536, 16384, 128, 1]  |  data = 0, sizeInBytes = 65536  |  isAliased = tensor_108_id_60540_module/model/12/fused_scaled_dot_product_attention/aten__view_slice_0_0_0_1_0__0__bundle_459_90126, type = alias, offset: 0  |  location = in SRAM  |  sramOffset = 0x1000fffffd328000  |  "
    }
  }
}
node {
  name: "reshape_11_11_bundle_459/op_9"
  op: "Reshape"
  input: "fusedTPCNode_166_3_bundle_459/op_8"
  attr {
    key: "Bundle_idx"
    value {
      s: "459"
    }
  }
  attr {
    key: "Exec_idx"
    value {
      s: "46"
    }
  }
  attr {
    key: "Op_idx"
    value {
      s: "11"
    }
  }
  attr {
    key: "inputTensor:0"
    value {
      s: "tensor-89748_slice_0_0_1_0_0__0__bundle_459_90125  |  Sizes = [1,4,128,128]  |  hfloat8  |  expBias = 7, scale = 1  |    |  ModelParam = 0  |  strides = [65536, 65536, 16384, 128, 1]  |  data = 0, sizeInBytes = 65536  |  isAliased = tensor_108_id_60540_module/model/12/fused_scaled_dot_product_attention/aten__view_slice_0_0_0_1_0__0__bundle_459_90126, type = alias, offset: 0  |  location = in SRAM  |  sramOffset = 0x1000fffffd328000  |  "
    }
  }
  attr {
    key: "outputTensor:0"
    value {
      s: "tensor_108_id_60540_module/model/12/fused_scaled_dot_product_attention/aten__view_slice_0_0_0_1_0__0__bundle_459_90126  |  Sizes = [1,1,4,128,128]  |  hfloat8  |  expBias = 7, scale = 1  |    |  ModelParam = 0  |  strides = [65536, 65536, 65536, 16384, 128, 1]  |  data = 0, sizeInBytes = 65536  |  location = in SRAM  |  sramOffset = 0x1000fffffd328000  |  "
    }
  }
}
node {
  name: "module/model/12/fused_scaled_dot_product_attention/sdpa_recomp_fwd_hf8/7618_complex/sdpa_recomp_fwd_hf8_153/sdpa_recomp_core_fwd_hf8_76/fp8_gemm_hf8_1226/batch_gemm_16_bundle_459/op_10"
  op: "BatchGemm"
  input: "reshape_11_11_bundle_459/op_4"
  input: "reshape_5_5_bundle_459/op_1"
  attr {
    key: "Bundle_idx"
    value {
      s: "459"
    }
  }
  attr {
    key: "Exec_idx"
    value {
      s: "47"
    }
  }
  attr {
    key: "Op_idx"
    value {
      s: "12"
    }
  }
  attr {
    key: "Parameters"
    value {
      s: "transpose_a=false, transpose_b=true"
    }
  }
  attr {
    key: "fp8BiasIn"
    value {
      s: "7"
    }
  }
  attr {
    key: "fp8BiasIn2"
    value {
      s: "7"
    }
  }
  attr {
    key: "fp8BiasOut"
    value {
      s: "0"
    }
  }
  attr {
    key: "inputTensor:0"
    value {
      s: "tensor_108_id_60540_module/model/12/fused_scaled_dot_product_attention/aten__view_slice_0_0_0_0_0__0__bundle_459_90117  |  Sizes = [1,1,4,128,128]  |  hfloat8  |  expBias = 7, scale = 1  |    |  ModelParam = 0  |  strides = [65536, 65536, 65536, 16384, 128, 1]  |  data = 0, sizeInBytes = 65536  |  location = in SRAM  |  sramOffset = 0x1000fffffd318000  |  "
    }
  }
  attr {
    key: "inputTensor:1"
    value {
      s: "tensor_89_id_60542_module/model/12/fused_scaled_dot_product_attention/aten__view_slice_0_0_0_0_0__0__bundle_459_90111  |  Sizes = [1,1,1,128,128]  |  hfloat8  |  expBias = 7, scale = 1  |    |  ModelParam = 0  |  strides = [16384, 16384, 16384, 16384, 128, 1]  |  data = 0, sizeInBytes = 16384  |  location = in SRAM  |  sramOffset = 0x1000fffffd310000  |  "
    }
  }
  attr {
    key: "outputTensor:0"
    value {
      s: "bf16-17_89566_slice_0_0_0_0_0__0__bundle_459_90127  |  Sizes = [1,1,4,128,128]  |  bf16  |  expBias = 0, scale = 1  |    |  ModelParam = 0  |  strides = [524288, 524288, 131072, 32768, 256, 2]  |  data = 0, sizeInBytes = 131072  |  isAliased = bf16-17_89566, type = concat, offset: 0  |  location = in DRAM  |  "
    }
  }
}
node {
  name: "module/model/12/rotary_pos_embedding_fwd_bf16/7615_complex/rotary_pos_embedding_fwd_bf16_153/rope_st2_fwd_bf16_16_bundle_459/op_13"
  op: "rope_st2_fwd_bf16"
  input: "tensor_101_id_60427_module/model/12/aten__transpose_bundle_459/split_internal/0"
  input: "module/model/12/rotary_pos_embedding_fwd_bf16/7615_complex/rotary_pos_embedding_fwd_bf16_153/expand_dims_12"
  input: "module/model/12/rotary_pos_embedding_fwd_bf16/7615_complex/rotary_pos_embedding_fwd_bf16_153/expand_dims_14"
  attr {
    key: "Bundle_idx"
    value {
      s: "459"
    }
  }
  attr {
    key: "Exec_idx"
    value {
      s: "48"
    }
  }
  attr {
    key: "Op_idx"
    value {
      s: "13"
    }
  }
  attr {
    key: "inputTensor:0"
    value {
      s: "tensor_101_id_60427_module/model/12/aten__transpose_slice_0_0_2_0_0__0__bundle_459_90133  |  Sizes = [1,4,128,128]  |  bf16  |  expBias = 0, scale = 1  |    |  ModelParam = 0  |  strides = [524288, 524288, 256, 4096, 2]  |  data = 0, sizeInBytes = 131072  |  isAliased = tensor_101_id_60427_module/model/12/aten__transpose, type = concat, offset: 2048  |  location = in DRAM  |  isSparseLayout  |  "
    }
  }
  attr {
    key: "inputTensor:1"
    value {
      s: "bf16-13_89556  |  Sizes = [1,128,128]  |  bf16  |  expBias = 0, scale = 1  |    |  ModelParam = 0  |  strides = [32768, 32768, 256, 2]  |  data = 0, sizeInBytes = 32768  |  location = in DRAM  |  dramOffset = 0x3100000a0000  |  "
    }
  }
  attr {
    key: "inputTensor:2"
    value {
      s: "bf16-15_89557  |  Sizes = [1,128,128]  |  bf16  |  expBias = 0, scale = 1  |    |  ModelParam = 0  |  strides = [32768, 32768, 256, 2]  |  data = 0, sizeInBytes = 32768  |  location = in DRAM  |  dramOffset = 0x3100000a8000  |  "
    }
  }
  attr {
    key: "outputTensor:0"
    value {
      s: "tensor_103_slice_0_0_2_0_0__0__bundle_459_90134  |  Sizes = [1,4,128,128]  |  bf16  |  expBias = 0, scale = 1  |    |  ModelParam = 0  |  strides = [131072, 131072, 32768, 256, 2]  |  data = 0, sizeInBytes = 131072  |  location = in SRAM  |  sramOffset = 0x1000fffffd2d0000  |  "
    }
  }
}
node {
  name: "module/model/12/fused_scaled_dot_product_attention/sdpa_recomp_fwd_hf8/7618_complex/sdpa_recomp_fwd_hf8_153/sdpa_recomp_core_fwd_hf8_76/fp8_gemm_hf8_1226/batch_gemm_16_bundle_459/op_16"
  op: "BatchGemm"
  input: "reshape_11_11_bundle_459/op_9"
  input: "reshape_5_5_bundle_459/op_6"
  attr {
    key: "Bundle_idx"
    value {
      s: "459"
    }
  }
  attr {
    key: "Exec_idx"
    value {
      s: "49"
    }
  }
  attr {
    key: "Op_idx"
    value {
      s: "14"
    }
  }
  attr {
    key: "Parameters"
    value {
      s: "transpose_a=false, transpose_b=true"
    }
  }
  attr {
    key: "fp8BiasIn"
    value {
      s: "7"
    }
  }
  attr {
    key: "fp8BiasIn2"
    value {
      s: "7"
    }
  }
  attr {
    key: "fp8BiasOut"
    value {
      s: "0"
    }
  }
  attr {
    key: "inputTensor:0"
    value {
      s: "tensor_108_id_60540_module/model/12/fused_scaled_dot_product_attention/aten__view_slice_0_0_0_1_0__0__bundle_459_90126  |  Sizes = [1,1,4,128,128]  |  hfloat8  |  expBias = 7, scale = 1  |    |  ModelParam = 0  |  strides = [65536, 65536, 65536, 16384, 128, 1]  |  data = 0, sizeInBytes = 65536  |  location = in SRAM  |  sramOffset = 0x1000fffffd328000  |  "
    }
  }
  attr {
    key: "inputTensor:1"
    value {
      s: "tensor_89_id_60542_module/model/12/fused_scaled_dot_product_attention/aten__view_slice_0_0_0_1_0__0__bundle_459_90122  |  Sizes = [1,1,1,128,128]  |  hfloat8  |  expBias = 7, scale = 1  |    |  ModelParam = 0  |  strides = [16384, 16384, 16384, 16384, 128, 1]  |  data = 0, sizeInBytes = 16384  |  location = in SRAM  |  sramOffset = 0x1000fffffd314000  |  "
    }
  }
  attr {
    key: "outputTensor:0"
    value {
      s: "bf16-17_89566_slice_0_0_0_1_0__0__bundle_459_90137  |  Sizes = [1,1,4,128,128]  |  bf16  |  expBias = 0, scale = 1  |    |  ModelParam = 0  |  strides = [524288, 524288, 131072, 32768, 256, 2]  |  data = 0, sizeInBytes = 131072  |  isAliased = bf16-17_89566, type = concat, offset: 131072  |  location = in DRAM  |  "
    }
  }
}
node {
  name: "module/model/12/rotary_pos_embedding_fwd_bf16/7615_complex/rotary_pos_embedding_fwd_bf16_153/rope_st2_fwd_bf16_16_bundle_459/op_19"
  op: "rope_st2_fwd_bf16"
  input: "tensor_101_id_60427_module/model/12/aten__transpose_bundle_459/split_internal/0"
  input: "module/model/12/rotary_pos_embedding_fwd_bf16/7615_complex/rotary_pos_embedding_fwd_bf16_153/expand_dims_12"
  input: "module/model/12/rotary_pos_embedding_fwd_bf16/7615_complex/rotary_pos_embedding_fwd_bf16_153/expand_dims_14"
  attr {
    key: "Bundle_idx"
    value {
      s: "459"
    }
  }
  attr {
    key: "Exec_idx"
    value {
      s: "50"
    }
  }
  attr {
    key: "Op_idx"
    value {
      s: "15"
    }
  }
  attr {
    key: "inputTensor:0"
    value {
      s: "tensor_101_id_60427_module/model/12/aten__transpose_slice_0_0_3_0_0__0__bundle_459_90143  |  Sizes = [1,4,128,128]  |  bf16  |  expBias = 0, scale = 1  |    |  ModelParam = 0  |  strides = [524288, 524288, 256, 4096, 2]  |  data = 0, sizeInBytes = 131072  |  isAliased = tensor_101_id_60427_module/model/12/aten__transpose, type = concat, offset: 3072  |  location = in DRAM  |  isSparseLayout  |  "
    }
  }
  attr {
    key: "inputTensor:1"
    value {
      s: "bf16-13_89556  |  Sizes = [1,128,128]  |  bf16  |  expBias = 0, scale = 1  |    |  ModelParam = 0  |  strides = [32768, 32768, 256, 2]  |  data = 0, sizeInBytes = 32768  |  location = in DRAM  |  dramOffset = 0x3100000a0000  |  "
    }
  }
  attr {
    key: "inputTensor:2"
    value {
      s: "bf16-15_89557  |  Sizes = [1,128,128]  |  bf16  |  expBias = 0, scale = 1  |    |  ModelParam = 0  |  strides = [32768, 32768, 256, 2]  |  data = 0, sizeInBytes = 32768  |  location = in DRAM  |  dramOffset = 0x3100000a8000  |  "
    }
  }
  attr {
    key: "outputTensor:0"
    value {
      s: "tensor_103_slice_0_0_3_0_0__0__bundle_459_90144  |  Sizes = [1,4,128,128]  |  bf16  |  expBias = 0, scale = 1  |    |  ModelParam = 0  |  strides = [131072, 131072, 32768, 256, 2]  |  data = 0, sizeInBytes = 131072  |  location = in SRAM  |  sramOffset = 0x1000fffffd2f0000  |  "
    }
  }
}
node {
  name: "fusedTPCNode_166_1_bundle_459/op_11"
  op: "fused_kernel_0xB8CE0392_1D9_bf16"
  input: "tensor_41_bundle_459/split_internal/0"
  attr {
    key: "Bundle_idx"
    value {
      s: "459"
    }
  }
  attr {
    key: "Exec_idx"
    value {
      s: "51"
    }
  }
  attr {
    key: "Op_idx"
    value {
      s: "16"
    }
  }
  attr {
    key: "inputTensor:0"
    value {
      s: "tensor_41_slice_0_0_2_0_0__0__bundle_459_90128  |  Sizes = [1,1,128,128]  |  bf16  |  expBias = 0, scale = 1  |    |  ModelParam = 0  |  strides = [131072, 131072, 32768, 256, 2]  |  data = 0, sizeInBytes = 32768  |  isAliased = tensor_41, type = concat, offset: 65536  |  location = in DRAM  |  "
    }
  }
  attr {
    key: "outputTensor:0"
    value {
      s: "tensor_46_slice_0_0_2_0_0__0__bundle_459_90129  |  Sizes = [1,1,128,128]  |  hfloat8  |  expBias = 7, scale = 1  |    |  ModelParam = 0  |  strides = [65536, 65536, 16384, 128, 1]  |  data = 0, sizeInBytes = 16384  |  isAliased = tensor_46, type = concat, offset: 32768  |  location = in DRAM  |  "
    }
  }
  attr {
    key: "outputTensor:1"
    value {
      s: "tensor_49_slice_0_0_2_0_0__0__bundle_459_90130  |  Sizes = [1,1,128,128]  |  bf16  |  expBias = 0, scale = 1  |    |  ModelParam = 0  |  strides = [131072, 131072, 32768, 256, 2]  |  data = 0, sizeInBytes = 32768  |  isAliased = tensor_49, type = concat, offset: 65536  |  location = in DRAM  |  "
    }
  }
  attr {
    key: "outputTensor:2"
    value {
      s: "tensor-89746_slice_0_0_2_0_0__0__bundle_459_90131  |  Sizes = [1,1,128,128]  |  hfloat8  |  expBias = 7, scale = 1  |    |  ModelParam = 0  |  strides = [16384, 16384, 16384, 128, 1]  |  data = 0, sizeInBytes = 16384  |  isAliased = tensor_89_id_60542_module/model/12/fused_scaled_dot_product_attention/aten__view_slice_0_0_0_2_0__0__bundle_459_90132, type = alias, offset: 0  |  location = in SRAM  |  sramOffset = 0x1000fffffd310000  |  "
    }
  }
}
node {
  name: "reshape_5_5_bundle_459/op_12"
  op: "Reshape"
  input: "fusedTPCNode_166_1_bundle_459/op_11"
  attr {
    key: "Bundle_idx"
    value {
      s: "459"
    }
  }
  attr {
    key: "Exec_idx"
    value {
      s: "52"
    }
  }
  attr {
    key: "Op_idx"
    value {
      s: "17"
    }
  }
  attr {
    key: "inputTensor:0"
    value {
      s: "tensor-89746_slice_0_0_2_0_0__0__bundle_459_90131  |  Sizes = [1,1,128,128]  |  hfloat8  |  expBias = 7, scale = 1  |    |  ModelParam = 0  |  strides = [16384, 16384, 16384, 128, 1]  |  data = 0, sizeInBytes = 16384  |  isAliased = tensor_89_id_60542_module/model/12/fused_scaled_dot_product_attention/aten__view_slice_0_0_0_2_0__0__bundle_459_90132, type = alias, offset: 0  |  location = in SRAM  |  sramOffset = 0x1000fffffd310000  |  "
    }
  }
  attr {
    key: "outputTensor:0"
    value {
      s: "tensor_89_id_60542_module/model/12/fused_scaled_dot_product_attention/aten__view_slice_0_0_0_2_0__0__bundle_459_90132  |  Sizes = [1,1,1,128,128]  |  hfloat8  |  expBias = 7, scale = 1  |    |  ModelParam = 0  |  strides = [16384, 16384, 16384, 16384, 128, 1]  |  data = 0, sizeInBytes = 16384  |  location = in SRAM  |  sramOffset = 0x1000fffffd310000  |  "
    }
  }
}
node {
  name: "fusedTPCNode_166_3_bundle_459/op_14"
  op: "fused_kernel_0x51F021BC_1DB_hf8"
  input: "module/model/12/rotary_pos_embedding_fwd_bf16/7615_complex/rotary_pos_embedding_fwd_bf16_153/rope_st2_fwd_bf16_16_bundle_459/op_13"
  attr {
    key: "Bundle_idx"
    value {
      s: "459"
    }
  }
  attr {
    key: "Exec_idx"
    value {
      s: "53"
    }
  }
  attr {
    key: "Op_idx"
    value {
      s: "18"
    }
  }
  attr {
    key: "inputTensor:0"
    value {
      s: "tensor_103_slice_0_0_2_0_0__0__bundle_459_90134  |  Sizes = [1,4,128,128]  |  bf16  |  expBias = 0, scale = 1  |    |  ModelParam = 0  |  strides = [131072, 131072, 32768, 256, 2]  |  data = 0, sizeInBytes = 131072  |  location = in SRAM  |  sramOffset = 0x1000fffffd2d0000  |  "
    }
  }
  attr {
    key: "outputTensor:0"
    value {
      s: "tensor-89748_slice_0_0_2_0_0__0__bundle_459_90135  |  Sizes = [1,4,128,128]  |  hfloat8  |  expBias = 7, scale = 1  |    |  ModelParam = 0  |  strides = [65536, 65536, 16384, 128, 1]  |  data = 0, sizeInBytes = 65536  |  isAliased = tensor_108_id_60540_module/model/12/fused_scaled_dot_product_attention/aten__view_slice_0_0_0_2_0__0__bundle_459_90136, type = alias, offset: 0  |  location = in SRAM  |  sramOffset = 0x1000fffffd318000  |  "
    }
  }
}
node {
  name: "reshape_11_11_bundle_459/op_15"
  op: "Reshape"
  input: "fusedTPCNode_166_3_bundle_459/op_14"
  attr {
    key: "Bundle_idx"
    value {
      s: "459"
    }
  }
  attr {
    key: "Exec_idx"
    value {
      s: "54"
    }
  }
  attr {
    key: "Op_idx"
    value {
      s: "19"
    }
  }
  attr {
    key: "inputTensor:0"
    value {
      s: "tensor-89748_slice_0_0_2_0_0__0__bundle_459_90135  |  Sizes = [1,4,128,128]  |  hfloat8  |  expBias = 7, scale = 1  |    |  ModelParam = 0  |  strides = [65536, 65536, 16384, 128, 1]  |  data = 0, sizeInBytes = 65536  |  isAliased = tensor_108_id_60540_module/model/12/fused_scaled_dot_product_attention/aten__view_slice_0_0_0_2_0__0__bundle_459_90136, type = alias, offset: 0  |  location = in SRAM  |  sramOffset = 0x1000fffffd318000  |  "
    }
  }
  attr {
    key: "outputTensor:0"
    value {
      s: "tensor_108_id_60540_module/model/12/fused_scaled_dot_product_attention/aten__view_slice_0_0_0_2_0__0__bundle_459_90136  |  Sizes = [1,1,4,128,128]  |  hfloat8  |  expBias = 7, scale = 1  |    |  ModelParam = 0  |  strides = [65536, 65536, 65536, 16384, 128, 1]  |  data = 0, sizeInBytes = 65536  |  location = in SRAM  |  sramOffset = 0x1000fffffd318000  |  "
    }
  }
}
node {
  name: "fusedTPCNode_166_1_bundle_459/op_17"
  op: "fused_kernel_0xB8CE0392_1D9_bf16"
  input: "tensor_41_bundle_459/split_internal/0"
  attr {
    key: "Bundle_idx"
    value {
      s: "459"
    }
  }
  attr {
    key: "Exec_idx"
    value {
      s: "55"
    }
  }
  attr {
    key: "Op_idx"
    value {
      s: "20"
    }
  }
  attr {
    key: "inputTensor:0"
    value {
      s: "tensor_41_slice_0_0_3_0_0__0__bundle_459_90138  |  Sizes = [1,1,128,128]  |  bf16  |  expBias = 0, scale = 1  |    |  ModelParam = 0  |  strides = [131072, 131072, 32768, 256, 2]  |  data = 0, sizeInBytes = 32768  |  isAliased = tensor_41, type = concat, offset: 98304  |  location = in DRAM  |  "
    }
  }
  attr {
    key: "outputTensor:0"
    value {
      s: "tensor_46_slice_0_0_3_0_0__0__bundle_459_90139  |  Sizes = [1,1,128,128]  |  hfloat8  |  expBias = 7, scale = 1  |    |  ModelParam = 0  |  strides = [65536, 65536, 16384, 128, 1]  |  data = 0, sizeInBytes = 16384  |  isAliased = tensor_46, type = concat, offset: 49152  |  location = in DRAM  |  "
    }
  }
  attr {
    key: "outputTensor:1"
    value {
      s: "tensor_49_slice_0_0_3_0_0__0__bundle_459_90140  |  Sizes = [1,1,128,128]  |  bf16  |  expBias = 0, scale = 1  |    |  ModelParam = 0  |  strides = [131072, 131072, 32768, 256, 2]  |  data = 0, sizeInBytes = 32768  |  isAliased = tensor_49, type = concat, offset: 98304  |  location = in DRAM  |  "
    }
  }
  attr {
    key: "outputTensor:2"
    value {
      s: "tensor-89746_slice_0_0_3_0_0__0__bundle_459_90141  |  Sizes = [1,1,128,128]  |  hfloat8  |  expBias = 7, scale = 1  |    |  ModelParam = 0  |  strides = [16384, 16384, 16384, 128, 1]  |  data = 0, sizeInBytes = 16384  |  isAliased = tensor_89_id_60542_module/model/12/fused_scaled_dot_product_attention/aten__view_slice_0_0_0_3_0__0__bundle_459_90142, type = alias, offset: 0  |  location = in SRAM  |  sramOffset = 0x1000fffffd314000  |  "
    }
  }
}
node {
  name: "reshape_5_5_bundle_459/op_18"
  op: "Reshape"
  input: "fusedTPCNode_166_1_bundle_459/op_17"
  attr {
    key: "Bundle_idx"
    value {
      s: "459"
    }
  }
  attr {
    key: "Exec_idx"
    value {
      s: "56"
    }
  }
  attr {
    key: "Op_idx"
    value {
      s: "21"
    }
  }
  attr {
    key: "inputTensor:0"
    value {
      s: "tensor-89746_slice_0_0_3_0_0__0__bundle_459_90141  |  Sizes = [1,1,128,128]  |  hfloat8  |  expBias = 7, scale = 1  |    |  ModelParam = 0  |  strides = [16384, 16384, 16384, 128, 1]  |  data = 0, sizeInBytes = 16384  |  isAliased = tensor_89_id_60542_module/model/12/fused_scaled_dot_product_attention/aten__view_slice_0_0_0_3_0__0__bundle_459_90142, type = alias, offset: 0  |  location = in SRAM  |  sramOffset = 0x1000fffffd314000  |  "
    }
  }
  attr {
    key: "outputTensor:0"
    value {
      s: "tensor_89_id_60542_module/model/12/fused_scaled_dot_product_attention/aten__view_slice_0_0_0_3_0__0__bundle_459_90142  |  Sizes = [1,1,1,128,128]  |  hfloat8  |  expBias = 7, scale = 1  |    |  ModelParam = 0  |  strides = [16384, 16384, 16384, 16384, 128, 1]  |  data = 0, sizeInBytes = 16384  |  location = in SRAM  |  sramOffset = 0x1000fffffd314000  |  "
    }
  }
}
node {
  name: "tensor_46_bundle_459/concat_logical_internal/0"
  op: "Concatenate"
  input: "fusedTPCNode_166_1_bundle_459/op_0"
  input: "fusedTPCNode_166_1_bundle_459/op_5"
  input: "fusedTPCNode_166_1_bundle_459/op_11"
  input: "fusedTPCNode_166_1_bundle_459/op_17"
  attr {
    key: "Bundle_idx"
    value {
      s: "459"
    }
  }
  attr {
    key: "Exec_idx"
    value {
      s: "57"
    }
  }
  attr {
    key: "Op_idx"
    value {
      s: "22"
    }
  }
  attr {
    key: "inputTensor:0"
    value {
      s: "tensor_46_slice_0_0_0_0_0__0__bundle_459_90108  |  Sizes = [1,1,128,128]  |  hfloat8  |  expBias = 7, scale = 1  |    |  ModelParam = 0  |  strides = [65536, 65536, 16384, 128, 1]  |  data = 0, sizeInBytes = 16384  |  isAliased = tensor_46, type = concat, offset: 0  |  location = in DRAM  |  "
    }
  }
  attr {
    key: "inputTensor:1"
    value {
      s: "tensor_46_slice_0_0_1_0_0__0__bundle_459_90119  |  Sizes = [1,1,128,128]  |  hfloat8  |  expBias = 7, scale = 1  |    |  ModelParam = 0  |  strides = [65536, 65536, 16384, 128, 1]  |  data = 0, sizeInBytes = 16384  |  isAliased = tensor_46, type = concat, offset: 16384  |  location = in DRAM  |  "
    }
  }
  attr {
    key: "inputTensor:2"
    value {
      s: "tensor_46_slice_0_0_2_0_0__0__bundle_459_90129  |  Sizes = [1,1,128,128]  |  hfloat8  |  expBias = 7, scale = 1  |    |  ModelParam = 0  |  strides = [65536, 65536, 16384, 128, 1]  |  data = 0, sizeInBytes = 16384  |  isAliased = tensor_46, type = concat, offset: 32768  |  location = in DRAM  |  "
    }
  }
  attr {
    key: "inputTensor:3"
    value {
      s: "tensor_46_slice_0_0_3_0_0__0__bundle_459_90139  |  Sizes = [1,1,128,128]  |  hfloat8  |  expBias = 7, scale = 1  |    |  ModelParam = 0  |  strides = [65536, 65536, 16384, 128, 1]  |  data = 0, sizeInBytes = 16384  |  isAliased = tensor_46, type = concat, offset: 49152  |  location = in DRAM  |  "
    }
  }
  attr {
    key: "outputTensor:0"
    value {
      s: "tensor_46  |  Sizes = [1,4,128,128]  |  hfloat8  |  expBias = 7, scale = 1  |    |  ModelParam = 0  |  strides = [65536, 65536, 16384, 128, 1]  |  data = 0, sizeInBytes = 65536  |  isPersistent  |  location = in DRAM  |  dramOffset = 0x60000000000  |  userMemorySection(type=Persistent, id=6)  |  "
    }
  }
}
node {
  name: "tensor_46"
  op: "OutputTensor"
  input: "tensor_46_bundle_459/concat_logical_internal/0"
  attr {
    key: "dtype"
    value {
      type: DT_INVALID
    }
  }
  attr {
    key: "shape"
    value {
      shape {
        dim {
          size: 128
        }
        dim {
          size: 128
        }
        dim {
          size: 4
        }
        dim {
          size: 1
        }
        dim {
          size: 1
        }
      }
    }
  }
  attr {
    key: "synDataType"
    value {
      s: "hfloat8"
    }
  }
}
node {
  name: "tensor_49_bundle_459/concat_logical_internal/0"
  op: "Concatenate"
  input: "fusedTPCNode_166_1_bundle_459/op_0"
  input: "fusedTPCNode_166_1_bundle_459/op_5"
  input: "fusedTPCNode_166_1_bundle_459/op_11"
  input: "fusedTPCNode_166_1_bundle_459/op_17"
  attr {
    key: "Bundle_idx"
    value {
      s: "459"
    }
  }
  attr {
    key: "Exec_idx"
    value {
      s: "58"
    }
  }
  attr {
    key: "Op_idx"
    value {
      s: "23"
    }
  }
  attr {
    key: "inputTensor:0"
    value {
      s: "tensor_49_slice_0_0_0_0_0__0__bundle_459_90109  |  Sizes = [1,1,128,128]  |  bf16  |  expBias = 0, scale = 1  |    |  ModelParam = 0  |  strides = [131072, 131072, 32768, 256, 2]  |  data = 0, sizeInBytes = 32768  |  isAliased = tensor_49, type = concat, offset: 0  |  location = in DRAM  |  "
    }
  }
  attr {
    key: "inputTensor:1"
    value {
      s: "tensor_49_slice_0_0_1_0_0__0__bundle_459_90120  |  Sizes = [1,1,128,128]  |  bf16  |  expBias = 0, scale = 1  |    |  ModelParam = 0  |  strides = [131072, 131072, 32768, 256, 2]  |  data = 0, sizeInBytes = 32768  |  isAliased = tensor_49, type = concat, offset: 32768  |  location = in DRAM  |  "
    }
  }
  attr {
    key: "inputTensor:2"
    value {
      s: "tensor_49_slice_0_0_2_0_0__0__bundle_459_90130  |  Sizes = [1,1,128,128]  |  bf16  |  expBias = 0, scale = 1  |    |  ModelParam = 0  |  strides = [131072, 131072, 32768, 256, 2]  |  data = 0, sizeInBytes = 32768  |  isAliased = tensor_49, type = concat, offset: 65536  |  location = in DRAM  |  "
    }
  }
  attr {
    key: "inputTensor:3"
    value {
      s: "tensor_49_slice_0_0_3_0_0__0__bundle_459_90140  |  Sizes = [1,1,128,128]  |  bf16  |  expBias = 0, scale = 1  |    |  ModelParam = 0  |  strides = [131072, 131072, 32768, 256, 2]  |  data = 0, sizeInBytes = 32768  |  isAliased = tensor_49, type = concat, offset: 98304  |  location = in DRAM  |  "
    }
  }
  attr {
    key: "outputTensor:0"
    value {
      s: "tensor_49  |  Sizes = [1,4,128,128]  |  bf16  |  expBias = 0, scale = 1  |    |  ModelParam = 0  |  strides = [131072, 131072, 32768, 256, 2]  |  data = 0, sizeInBytes = 131072  |  isPersistent  |  location = in DRAM  |  dramOffset = 0x130000000000  |  userMemorySection(type=Persistent, id=19)  |  "
    }
  }
}
node {
  name: "tensor_49"
  op: "OutputTensor"
  input: "tensor_49_bundle_459/concat_logical_internal/0"
  attr {
    key: "dtype"
    value {
      type: DT_BFLOAT16
    }
  }
  attr {
    key: "shape"
    value {
      shape {
        dim {
          size: 128
        }
        dim {
          size: 128
        }
        dim {
          size: 4
        }
        dim {
          size: 1
        }
        dim {
          size: 1
        }
      }
    }
  }
  attr {
    key: "synDataType"
    value {
      s: "bf16"
    }
  }
}
node {
  name: "fusedTPCNode_166_3_bundle_459/op_20"
  op: "fused_kernel_0x51F021BC_1DB_hf8"
  input: "module/model/12/rotary_pos_embedding_fwd_bf16/7615_complex/rotary_pos_embedding_fwd_bf16_153/rope_st2_fwd_bf16_16_bundle_459/op_19"
  attr {
    key: "Bundle_idx"
    value {
      s: "459"
    }
  }
  attr {
    key: "Exec_idx"
    value {
      s: "59"
    }
  }
  attr {
    key: "Op_idx"
    value {
      s: "24"
    }
  }
  attr {
    key: "inputTensor:0"
    value {
      s: "tensor_103_slice_0_0_3_0_0__0__bundle_459_90144  |  Sizes = [1,4,128,128]  |  bf16  |  expBias = 0, scale = 1  |    |  ModelParam = 0  |  strides = [131072, 131072, 32768, 256, 2]  |  data = 0, sizeInBytes = 131072  |  location = in SRAM  |  sramOffset = 0x1000fffffd2f0000  |  "
    }
  }
  attr {
    key: "outputTensor:0"
    value {
      s: "tensor-89748_slice_0_0_3_0_0__0__bundle_459_90145  |  Sizes = [1,4,128,128]  |  hfloat8  |  expBias = 7, scale = 1  |    |  ModelParam = 0  |  strides = [65536, 65536, 16384, 128, 1]  |  data = 0, sizeInBytes = 65536  |  isAliased = tensor_108_id_60540_module/model/12/fused_scaled_dot_product_attention/aten__view_slice_0_0_0_3_0__0__bundle_459_90146, type = alias, offset: 0  |  location = in SRAM  |  sramOffset = 0x1000fffffd328000  |  "
    }
  }
}
node {
  name: "reshape_11_11_bundle_459/op_21"
  op: "Reshape"
  input: "fusedTPCNode_166_3_bundle_459/op_20"
  attr {
    key: "Bundle_idx"
    value {
      s: "459"
    }
  }
  attr {
    key: "Exec_idx"
    value {
      s: "60"
    }
  }
  attr {
    key: "Op_idx"
    value {
      s: "25"
    }
  }
  attr {
    key: "inputTensor:0"
    value {
      s: "tensor-89748_slice_0_0_3_0_0__0__bundle_459_90145  |  Sizes = [1,4,128,128]  |  hfloat8  |  expBias = 7, scale = 1  |    |  ModelParam = 0  |  strides = [65536, 65536, 16384, 128, 1]  |  data = 0, sizeInBytes = 65536  |  isAliased = tensor_108_id_60540_module/model/12/fused_scaled_dot_product_attention/aten__view_slice_0_0_0_3_0__0__bundle_459_90146, type = alias, offset: 0  |  location = in SRAM  |  sramOffset = 0x1000fffffd328000  |  "
    }
  }
  attr {
    key: "outputTensor:0"
    value {
      s: "tensor_108_id_60540_module/model/12/fused_scaled_dot_product_attention/aten__view_slice_0_0_0_3_0__0__bundle_459_90146  |  Sizes = [1,1,4,128,128]  |  hfloat8  |  expBias = 7, scale = 1  |    |  ModelParam = 0  |  strides = [65536, 65536, 65536, 16384, 128, 1]  |  data = 0, sizeInBytes = 65536  |  location = in SRAM  |  sramOffset = 0x1000fffffd328000  |  "
    }
  }
}
node {
  name: "module/model/12/fused_scaled_dot_product_attention/sdpa_recomp_fwd_hf8/7618_complex/sdpa_recomp_fwd_hf8_153/sdpa_recomp_core_fwd_hf8_76/fp8_gemm_hf8_1226/batch_gemm_16_bundle_459/op_22"
  op: "BatchGemm"
  input: "reshape_11_11_bundle_459/op_15"
  input: "reshape_5_5_bundle_459/op_12"
  attr {
    key: "Bundle_idx"
    value {
      s: "459"
    }
  }
  attr {
    key: "Exec_idx"
    value {
      s: "61"
    }
  }
  attr {
    key: "Op_idx"
    value {
      s: "26"
    }
  }
  attr {
    key: "Parameters"
    value {
      s: "transpose_a=false, transpose_b=true"
    }
  }
  attr {
    key: "fp8BiasIn"
    value {
      s: "7"
    }
  }
  attr {
    key: "fp8BiasIn2"
    value {
      s: "7"
    }
  }
  attr {
    key: "fp8BiasOut"
    value {
      s: "0"
    }
  }
  attr {
    key: "inputTensor:0"
    value {
      s: "tensor_108_id_60540_module/model/12/fused_scaled_dot_product_attention/aten__view_slice_0_0_0_2_0__0__bundle_459_90136  |  Sizes = [1,1,4,128,128]  |  hfloat8  |  expBias = 7, scale = 1  |    |  ModelParam = 0  |  strides = [65536, 65536, 65536, 16384, 128, 1]  |  data = 0, sizeInBytes = 65536  |  location = in SRAM  |  sramOffset = 0x1000fffffd318000  |  "
    }
  }
  attr {
    key: "inputTensor:1"
    value {
      s: "tensor_89_id_60542_module/model/12/fused_scaled_dot_product_attention/aten__view_slice_0_0_0_2_0__0__bundle_459_90132  |  Sizes = [1,1,1,128,128]  |  hfloat8  |  expBias = 7, scale = 1  |    |  ModelParam = 0  |  strides = [16384, 16384, 16384, 16384, 128, 1]  |  data = 0, sizeInBytes = 16384  |  location = in SRAM  |  sramOffset = 0x1000fffffd310000  |  "
    }
  }
  attr {
    key: "outputTensor:0"
    value {
      s: "bf16-17_89566_slice_0_0_0_2_0__0__bundle_459_90147  |  Sizes = [1,1,4,128,128]  |  bf16  |  expBias = 0, scale = 1  |    |  ModelParam = 0  |  strides = [524288, 524288, 131072, 32768, 256, 2]  |  data = 0, sizeInBytes = 131072  |  isAliased = bf16-17_89566, type = concat, offset: 262144  |  location = in DRAM  |  "
    }
  }
}
node {
  name: "module/model/12/fused_scaled_dot_product_attention/sdpa_recomp_fwd_hf8/7618_complex/sdpa_recomp_fwd_hf8_153/sdpa_recomp_core_fwd_hf8_76/fp8_gemm_hf8_1226/batch_gemm_16_bundle_459/op_23"
  op: "BatchGemm"
  input: "reshape_11_11_bundle_459/op_21"
  input: "reshape_5_5_bundle_459/op_18"
  attr {
    key: "Bundle_idx"
    value {
      s: "459"
    }
  }
  attr {
    key: "Exec_idx"
    value {
      s: "62"
    }
  }
  attr {
    key: "Op_idx"
    value {
      s: "27"
    }
  }
  attr {
    key: "Parameters"
    value {
      s: "transpose_a=false, transpose_b=true"
    }
  }
  attr {
    key: "fp8BiasIn"
    value {
      s: "7"
    }
  }
  attr {
    key: "fp8BiasIn2"
    value {
      s: "7"
    }
  }
  attr {
    key: "fp8BiasOut"
    value {
      s: "0"
    }
  }
  attr {
    key: "inputTensor:0"
    value {
      s: "tensor_108_id_60540_module/model/12/fused_scaled_dot_product_attention/aten__view_slice_0_0_0_3_0__0__bundle_459_90146  |  Sizes = [1,1,4,128,128]  |  hfloat8  |  expBias = 7, scale = 1  |    |  ModelParam = 0  |  strides = [65536, 65536, 65536, 16384, 128, 1]  |  data = 0, sizeInBytes = 65536  |  location = in SRAM  |  sramOffset = 0x1000fffffd328000  |  "
    }
  }
  attr {
    key: "inputTensor:1"
    value {
      s: "tensor_89_id_60542_module/model/12/fused_scaled_dot_product_attention/aten__view_slice_0_0_0_3_0__0__bundle_459_90142  |  Sizes = [1,1,1,128,128]  |  hfloat8  |  expBias = 7, scale = 1  |    |  ModelParam = 0  |  strides = [16384, 16384, 16384, 16384, 128, 1]  |  data = 0, sizeInBytes = 16384  |  location = in SRAM  |  sramOffset = 0x1000fffffd314000  |  "
    }
  }
  attr {
    key: "outputTensor:0"
    value {
      s: "bf16-17_89566_slice_0_0_0_3_0__0__bundle_459_90148  |  Sizes = [1,1,4,128,128]  |  bf16  |  expBias = 0, scale = 1  |    |  ModelParam = 0  |  strides = [524288, 524288, 131072, 32768, 256, 2]  |  data = 0, sizeInBytes = 131072  |  isAliased = bf16-17_89566, type = concat, offset: 393216  |  location = in DRAM  |  "
    }
  }
}
node {
  name: "bf16-17_89566_bundle_459/concat_logical_internal/0"
  op: "Concatenate"
  input: "module/model/12/fused_scaled_dot_product_attention/sdpa_recomp_fwd_hf8/7618_complex/sdpa_recomp_fwd_hf8_153/sdpa_recomp_core_fwd_hf8_76/fp8_gemm_hf8_1226/batch_gemm_16_bundle_459/op_10"
  input: "module/model/12/fused_scaled_dot_product_attention/sdpa_recomp_fwd_hf8/7618_complex/sdpa_recomp_fwd_hf8_153/sdpa_recomp_core_fwd_hf8_76/fp8_gemm_hf8_1226/batch_gemm_16_bundle_459/op_16"
  input: "module/model/12/fused_scaled_dot_product_attention/sdpa_recomp_fwd_hf8/7618_complex/sdpa_recomp_fwd_hf8_153/sdpa_recomp_core_fwd_hf8_76/fp8_gemm_hf8_1226/batch_gemm_16_bundle_459/op_22"
  input: "module/model/12/fused_scaled_dot_product_attention/sdpa_recomp_fwd_hf8/7618_complex/sdpa_recomp_fwd_hf8_153/sdpa_recomp_core_fwd_hf8_76/fp8_gemm_hf8_1226/batch_gemm_16_bundle_459/op_23"
  attr {
    key: "Bundle_idx"
    value {
      s: "459"
    }
  }
  attr {
    key: "Exec_idx"
    value {
      s: "63"
    }
  }
  attr {
    key: "Op_idx"
    value {
      s: "28"
    }
  }
  attr {
    key: "inputTensor:0"
    value {
      s: "bf16-17_89566_slice_0_0_0_0_0__0__bundle_459_90127  |  Sizes = [1,1,4,128,128]  |  bf16  |  expBias = 0, scale = 1  |    |  ModelParam = 0  |  strides = [524288, 524288, 131072, 32768, 256, 2]  |  data = 0, sizeInBytes = 131072  |  isAliased = bf16-17_89566, type = concat, offset: 0  |  location = in DRAM  |  "
    }
  }
  attr {
    key: "inputTensor:1"
    value {
      s: "bf16-17_89566_slice_0_0_0_1_0__0__bundle_459_90137  |  Sizes = [1,1,4,128,128]  |  bf16  |  expBias = 0, scale = 1  |    |  ModelParam = 0  |  strides = [524288, 524288, 131072, 32768, 256, 2]  |  data = 0, sizeInBytes = 131072  |  isAliased = bf16-17_89566, type = concat, offset: 131072  |  location = in DRAM  |  "
    }
  }
  attr {
    key: "inputTensor:2"
    value {
      s: "bf16-17_89566_slice_0_0_0_2_0__0__bundle_459_90147  |  Sizes = [1,1,4,128,128]  |  bf16  |  expBias = 0, scale = 1  |    |  ModelParam = 0  |  strides = [524288, 524288, 131072, 32768, 256, 2]  |  data = 0, sizeInBytes = 131072  |  isAliased = bf16-17_89566, type = concat, offset: 262144  |  location = in DRAM  |  "
    }
  }
  attr {
    key: "inputTensor:3"
    value {
      s: "bf16-17_89566_slice_0_0_0_3_0__0__bundle_459_90148  |  Sizes = [1,1,4,128,128]  |  bf16  |  expBias = 0, scale = 1  |    |  ModelParam = 0  |  strides = [524288, 524288, 131072, 32768, 256, 2]  |  data = 0, sizeInBytes = 131072  |  isAliased = bf16-17_89566, type = concat, offset: 393216  |  location = in DRAM  |  "
    }
  }
  attr {
    key: "outputTensor:0"
    value {
      s: "bf16-17_89566  |  Sizes = [1,4,4,128,128]  |  bf16  |  expBias = 0, scale = 1  |    |  ModelParam = 0  |  strides = [524288, 524288, 131072, 32768, 256, 2]  |  data = 0, sizeInBytes = 524288  |  location = in DRAM  |  dramOffset = 0x0  |  "
    }
  }
}
node {
  name: "module/model/12/fused_scaled_dot_product_attention/sdpa_recomp_fwd_hf8/7618_complex/sdpa_recomp_fwd_hf8_153/sdpa_recomp_core_fwd_hf8_76/constant_f32_18"
  op: "constant_f32"
  attr {
    key: "Bundle_idx"
    value {
      s: "N/A"
    }
  }
  attr {
    key: "Exec_idx"
    value {
      s: "64"
    }
  }
  attr {
    key: "Op_idx"
    value {
      s: "N/A"
    }
  }
  attr {
    key: "outputTensor:0"
    value {
      s: "f32-19_89567  |  Sizes = [1]  |  float32  |  expBias = 0, scale = 1  |    |  ModelParam = 0  |  strides = [4, 4]  |  data = 0, sizeInBytes = 4  |  location = in DRAM  |  dramOffset = 0x3100000b0000  |  "
    }
  }
}
node {
  name: "module/model/12/fused_scaled_dot_product_attention/sdpa_recomp_fwd_hf8/7618_complex/sdpa_recomp_fwd_hf8_153/sdpa_recomp_core_fwd_hf8_76/constant_f32_20"
  op: "constant_f32"
  attr {
    key: "Bundle_idx"
    value {
      s: "N/A"
    }
  }
  attr {
    key: "Exec_idx"
    value {
      s: "65"
    }
  }
  attr {
    key: "Op_idx"
    value {
      s: "N/A"
    }
  }
  attr {
    key: "outputTensor:0"
    value {
      s: "f32-21_89568  |  Sizes = [1]  |  float32  |  expBias = 0, scale = 1  |    |  ModelParam = 0  |  strides = [4, 4]  |  data = 0, sizeInBytes = 4  |  location = in DRAM  |  dramOffset = 0x3100000b0080  |  "
    }
  }
}
node {
  name: "tensor_69_bundle_460/split_internal/0"
  op: "Split"
  input: "module/model/12/quant_input_0/transpose/7596_transpose_via_logical"
  attr {
    key: "Bundle_idx"
    value {
      s: "460"
    }
  }
  attr {
    key: "Exec_idx"
    value {
      s: "66"
    }
  }
  attr {
    key: "Op_idx"
    value {
      s: "0"
    }
  }
  attr {
    key: "inputTensor:0"
    value {
      s: "tensor_69  |  Sizes = [1,4,128,128]  |  hfloat8  |  expBias = 7, scale = 1  |    |  ModelParam = 0  |  strides = [65536, 65536, 16384, 128, 1]  |  data = 0, sizeInBytes = 65536  |  isPersistent  |  location = in DRAM  |  dramOffset = 0x140000000000  |  userMemorySection(type=Persistent, id=20)  |  "
    }
  }
  attr {
    key: "outputTensor:0"
    value {
      s: "tensor_69_slice_0_0_0_0_0__0__bundle_460_90149  |  Sizes = [1,1,128,128]  |  hfloat8  |  expBias = 7, scale = 1  |    |  ModelParam = 0  |  strides = [65536, 65536, 16384, 128, 1]  |  data = 0, sizeInBytes = 16384  |  isAliased = tensor_69, type = concat, offset: 0  |  location = in DRAM  |  "
    }
  }
  attr {
    key: "outputTensor:1"
    value {
      s: "tensor_69_slice_0_0_1_0_0__0__bundle_460_90159  |  Sizes = [1,1,128,128]  |  hfloat8  |  expBias = 7, scale = 1  |    |  ModelParam = 0  |  strides = [65536, 65536, 16384, 128, 1]  |  data = 0, sizeInBytes = 16384  |  isAliased = tensor_69, type = concat, offset: 16384  |  location = in DRAM  |  "
    }
  }
  attr {
    key: "outputTensor:2"
    value {
      s: "tensor_69_slice_0_0_2_0_0__0__bundle_460_90166  |  Sizes = [1,1,128,128]  |  hfloat8  |  expBias = 7, scale = 1  |    |  ModelParam = 0  |  strides = [65536, 65536, 16384, 128, 1]  |  data = 0, sizeInBytes = 16384  |  isAliased = tensor_69, type = concat, offset: 32768  |  location = in DRAM  |  "
    }
  }
  attr {
    key: "outputTensor:3"
    value {
      s: "tensor_69_slice_0_0_3_0_0__0__bundle_460_90173  |  Sizes = [1,1,128,128]  |  hfloat8  |  expBias = 7, scale = 1  |    |  ModelParam = 0  |  strides = [65536, 65536, 16384, 128, 1]  |  data = 0, sizeInBytes = 16384  |  isAliased = tensor_69, type = concat, offset: 49152  |  location = in DRAM  |  "
    }
  }
}
node {
  name: "bf16-17_89566_bundle_460/split_internal/0"
  op: "Split"
  input: "bf16-17_89566_bundle_459/concat_logical_internal/0"
  attr {
    key: "Bundle_idx"
    value {
      s: "460"
    }
  }
  attr {
    key: "Exec_idx"
    value {
      s: "67"
    }
  }
  attr {
    key: "Op_idx"
    value {
      s: "1"
    }
  }
  attr {
    key: "inputTensor:0"
    value {
      s: "bf16-17_89566  |  Sizes = [1,4,4,128,128]  |  bf16  |  expBias = 0, scale = 1  |    |  ModelParam = 0  |  strides = [524288, 524288, 131072, 32768, 256, 2]  |  data = 0, sizeInBytes = 524288  |  location = in DRAM  |  dramOffset = 0x0  |  "
    }
  }
  attr {
    key: "outputTensor:0"
    value {
      s: "bf16-17_89566_slice_0_0_0_0_0__0__bundle_460_90153  |  Sizes = [1,1,4,128,128]  |  bf16  |  expBias = 0, scale = 1  |    |  ModelParam = 0  |  strides = [524288, 524288, 131072, 32768, 256, 2]  |  data = 0, sizeInBytes = 131072  |  isAliased = bf16-17_89566, type = concat, offset: 0  |  location = in DRAM  |  "
    }
  }
  attr {
    key: "outputTensor:1"
    value {
      s: "bf16-17_89566_slice_0_0_0_1_0__0__bundle_460_90163  |  Sizes = [1,1,4,128,128]  |  bf16  |  expBias = 0, scale = 1  |    |  ModelParam = 0  |  strides = [524288, 524288, 131072, 32768, 256, 2]  |  data = 0, sizeInBytes = 131072  |  isAliased = bf16-17_89566, type = concat, offset: 131072  |  location = in DRAM  |  "
    }
  }
  attr {
    key: "outputTensor:2"
    value {
      s: "bf16-17_89566_slice_0_0_0_2_0__0__bundle_460_90170  |  Sizes = [1,1,4,128,128]  |  bf16  |  expBias = 0, scale = 1  |    |  ModelParam = 0  |  strides = [524288, 524288, 131072, 32768, 256, 2]  |  data = 0, sizeInBytes = 131072  |  isAliased = bf16-17_89566, type = concat, offset: 262144  |  location = in DRAM  |  "
    }
  }
  attr {
    key: "outputTensor:3"
    value {
      s: "bf16-17_89566_slice_0_0_0_3_0__0__bundle_460_90177  |  Sizes = [1,1,4,128,128]  |  bf16  |  expBias = 0, scale = 1  |    |  ModelParam = 0  |  strides = [524288, 524288, 131072, 32768, 256, 2]  |  data = 0, sizeInBytes = 131072  |  isAliased = bf16-17_89566, type = concat, offset: 393216  |  location = in DRAM  |  "
    }
  }
}
node {
  name: "fusedTPCNode_166_2_bundle_460/op_0"
  op: "fused_kernel_0x5AF37C5C_1DA_bf16"
  input: "tensor_69_bundle_460/split_internal/0"
  attr {
    key: "Bundle_idx"
    value {
      s: "460"
    }
  }
  attr {
    key: "Exec_idx"
    value {
      s: "68"
    }
  }
  attr {
    key: "Op_idx"
    value {
      s: "2"
    }
  }
  attr {
    key: "inputTensor:0"
    value {
      s: "tensor_69_slice_0_0_0_0_0__0__bundle_460_90149  |  Sizes = [1,1,128,128]  |  hfloat8  |  expBias = 7, scale = 1  |    |  ModelParam = 0  |  strides = [65536, 65536, 16384, 128, 1]  |  data = 0, sizeInBytes = 16384  |  isAliased = tensor_69, type = concat, offset: 0  |  location = in DRAM  |  "
    }
  }
  attr {
    key: "outputTensor:0"
    value {
      s: "tensor_72_slice_0_0_0_0_0__0__bundle_460_90150  |  Sizes = [1,1,128,128]  |  bf16  |  expBias = 0, scale = 1  |    |  ModelParam = 0  |  strides = [131072, 131072, 32768, 256, 2]  |  data = 0, sizeInBytes = 32768  |  isAliased = tensor_72, type = concat, offset: 0  |  location = in DRAM  |  "
    }
  }
  attr {
    key: "outputTensor:1"
    value {
      s: "tensor-89747_slice_0_0_0_0_0__0__bundle_460_90151  |  Sizes = [1,1,128,128]  |  hfloat8  |  expBias = 7, scale = 1  |    |  ModelParam = 0  |  strides = [16384, 16384, 16384, 128, 1]  |  data = 0, sizeInBytes = 16384  |  isAliased = tensor_84_id_60544_module/model/12/fused_scaled_dot_product_attention/aten__view_slice_0_0_0_0_0__0__bundle_460_90152, type = alias, offset: 0  |  location = in SRAM  |  sramOffset = 0x1000fffffd338000  |  "
    }
  }
}
node {
  name: "reshape_8_8_bundle_460/op_1"
  op: "Reshape"
  input: "fusedTPCNode_166_2_bundle_460/op_0"
  attr {
    key: "Bundle_idx"
    value {
      s: "460"
    }
  }
  attr {
    key: "Exec_idx"
    value {
      s: "69"
    }
  }
  attr {
    key: "Op_idx"
    value {
      s: "3"
    }
  }
  attr {
    key: "inputTensor:0"
    value {
      s: "tensor-89747_slice_0_0_0_0_0__0__bundle_460_90151  |  Sizes = [1,1,128,128]  |  hfloat8  |  expBias = 7, scale = 1  |    |  ModelParam = 0  |  strides = [16384, 16384, 16384, 128, 1]  |  data = 0, sizeInBytes = 16384  |  isAliased = tensor_84_id_60544_module/model/12/fused_scaled_dot_product_attention/aten__view_slice_0_0_0_0_0__0__bundle_460_90152, type = alias, offset: 0  |  location = in SRAM  |  sramOffset = 0x1000fffffd338000  |  "
    }
  }
  attr {
    key: "outputTensor:0"
    value {
      s: "tensor_84_id_60544_module/model/12/fused_scaled_dot_product_attention/aten__view_slice_0_0_0_0_0__0__bundle_460_90152  |  Sizes = [1,1,1,128,128]  |  hfloat8  |  expBias = 7, scale = 1  |    |  ModelParam = 0  |  strides = [16384, 16384, 16384, 16384, 128, 1]  |  data = 0, sizeInBytes = 16384  |  location = in SRAM  |  sramOffset = 0x1000fffffd338000  |  "
    }
  }
}
node {
  name: "tensor_112_odule/model/12/fused_scaled_dot_product_attention/placeholder/7"
  op: "Placeholder"
  attr {
    key: "dtype"
    value {
      type: DT_FLOAT
    }
  }
  attr {
    key: "shape"
    value {
      shape {
        dim {
          size: 1
        }
        dim {
          size: 1
        }
        dim {
          size: 1
        }
        dim {
          size: 1
        }
        dim {
          size: 1
        }
      }
    }
  }
  attr {
    key: "synDataType"
    value {
      s: "float32"
    }
  }
}
node {
  name: "module/model/12/fused_scaled_dot_product_attention/sdpa_recomp_fwd_hf8/7618_complex/sdpa_recomp_fwd_hf8_153/sdpa_recomp_core_fwd_hf8_76/softmax_fwd_hf8_22_bundle_460/op_2"
  op: "softmax_fwd_hf8"
  input: "bf16-17_89566_bundle_460/split_internal/0"
  input: "module/model/12/fused_scaled_dot_product_attention/sdpa_recomp_fwd_hf8/7618_complex/sdpa_recomp_fwd_hf8_153/sdpa_recomp_core_fwd_hf8_76/constant_f32_18"
  input: "module/model/12/fused_scaled_dot_product_attention/sdpa_recomp_fwd_hf8/7618_complex/sdpa_recomp_fwd_hf8_153/sdpa_recomp_core_fwd_hf8_76/constant_f32_20"
  input: "tensor_112_odule/model/12/fused_scaled_dot_product_attention/placeholder/7"
  input: "module/model/12/fused_scaled_dot_product_attention/expand_dims/7605"
  attr {
    key: "Bundle_idx"
    value {
      s: "460"
    }
  }
  attr {
    key: "Exec_idx"
    value {
      s: "70"
    }
  }
  attr {
    key: "Op_idx"
    value {
      s: "4"
    }
  }
  attr {
    key: "inputTensor:0"
    value {
      s: "bf16-17_89566_slice_0_0_0_0_0__0__bundle_460_90153  |  Sizes = [1,1,4,128,128]  |  bf16  |  expBias = 0, scale = 1  |    |  ModelParam = 0  |  strides = [524288, 524288, 131072, 32768, 256, 2]  |  data = 0, sizeInBytes = 131072  |  isAliased = bf16-17_89566, type = concat, offset: 0  |  location = in DRAM  |  "
    }
  }
  attr {
    key: "inputTensor:1"
    value {
      s: "f32-19_89567  |  Sizes = [1]  |  float32  |  expBias = 0, scale = 1  |    |  ModelParam = 0  |  strides = [4, 4]  |  data = 0, sizeInBytes = 4  |  location = in DRAM  |  dramOffset = 0x3100000b0000  |  "
    }
  }
  attr {
    key: "inputTensor:2"
    value {
      s: "f32-21_89568  |  Sizes = [1]  |  float32  |  expBias = 0, scale = 1  |    |  ModelParam = 0  |  strides = [4, 4]  |  data = 0, sizeInBytes = 4  |  location = in DRAM  |  dramOffset = 0x3100000b0080  |  "
    }
  }
  attr {
    key: "inputTensor:3"
    value {
      s: "tensor_112_odule/model/12/fused_scaled_dot_product_attention/placeholder/7  |  Sizes = [1]  |  float32  |  expBias = 0, scale = 1  |    |  ModelParam = 0  |  strides = [4, 4]  |  data = 0x55c37c3b0920, sizeInBytes = 4  |  buffer = 16  |  isPersistent  |  location = in DRAM  |  dramOffset = 0x280000000000  |  userMemorySection(type=Persistent, id=40)  |  isStaticParam  |  bufferDtype=float32  |  "
    }
  }
  attr {
    key: "inputTensor:4"
    value {
      s: "tensor_79_id_60546_module/model/12/fused_scaled_dot_product_attention/aten__unsqueeze  |  Sizes = [1,1,1,128,128]  |  bf16  |  expBias = 0, scale = 1  |    |  ModelParam = 0  |  strides = [32768, 32768, 32768, 32768, 256, 2]  |  data = 0, sizeInBytes = 32768  |  isAliased = tensor_73_odule/model/12/fused_scaled_dot_product_attention/placeholder/0, type = alias, offset: 0  |  location = in DRAM  |  "
    }
  }
  attr {
    key: "outputTensor:0"
    value {
      s: "hf8-23_89569_slice_0_0_0_0_0__0__bundle_460_90158  |  Sizes = [1,1,4,128,128]  |  hfloat8  |  expBias = 7, scale = 1  |    |  ModelParam = 0  |  strides = [65536, 65536, 65536, 16384, 128, 1]  |  data = 0, sizeInBytes = 65536  |  location = in SRAM  |  sramOffset = 0x1000fffffd340000  |  "
    }
  }
}
node {
  name: "fusedTPCNode_166_2_bundle_460/op_3"
  op: "fused_kernel_0x5AF37C5C_1DA_bf16"
  input: "tensor_69_bundle_460/split_internal/0"
  attr {
    key: "Bundle_idx"
    value {
      s: "460"
    }
  }
  attr {
    key: "Exec_idx"
    value {
      s: "71"
    }
  }
  attr {
    key: "Op_idx"
    value {
      s: "5"
    }
  }
  attr {
    key: "inputTensor:0"
    value {
      s: "tensor_69_slice_0_0_1_0_0__0__bundle_460_90159  |  Sizes = [1,1,128,128]  |  hfloat8  |  expBias = 7, scale = 1  |    |  ModelParam = 0  |  strides = [65536, 65536, 16384, 128, 1]  |  data = 0, sizeInBytes = 16384  |  isAliased = tensor_69, type = concat, offset: 16384  |  location = in DRAM  |  "
    }
  }
  attr {
    key: "outputTensor:0"
    value {
      s: "tensor_72_slice_0_0_1_0_0__0__bundle_460_90160  |  Sizes = [1,1,128,128]  |  bf16  |  expBias = 0, scale = 1  |    |  ModelParam = 0  |  strides = [131072, 131072, 32768, 256, 2]  |  data = 0, sizeInBytes = 32768  |  isAliased = tensor_72, type = concat, offset: 32768  |  location = in DRAM  |  "
    }
  }
  attr {
    key: "outputTensor:1"
    value {
      s: "tensor-89747_slice_0_0_1_0_0__0__bundle_460_90161  |  Sizes = [1,1,128,128]  |  hfloat8  |  expBias = 7, scale = 1  |    |  ModelParam = 0  |  strides = [16384, 16384, 16384, 128, 1]  |  data = 0, sizeInBytes = 16384  |  isAliased = tensor_84_id_60544_module/model/12/fused_scaled_dot_product_attention/aten__view_slice_0_0_0_1_0__0__bundle_460_90162, type = alias, offset: 0  |  location = in SRAM  |  sramOffset = 0x1000fffffd33c000  |  "
    }
  }
}
node {
  name: "reshape_8_8_bundle_460/op_4"
  op: "Reshape"
  input: "fusedTPCNode_166_2_bundle_460/op_3"
  attr {
    key: "Bundle_idx"
    value {
      s: "460"
    }
  }
  attr {
    key: "Exec_idx"
    value {
      s: "72"
    }
  }
  attr {
    key: "Op_idx"
    value {
      s: "6"
    }
  }
  attr {
    key: "inputTensor:0"
    value {
      s: "tensor-89747_slice_0_0_1_0_0__0__bundle_460_90161  |  Sizes = [1,1,128,128]  |  hfloat8  |  expBias = 7, scale = 1  |    |  ModelParam = 0  |  strides = [16384, 16384, 16384, 128, 1]  |  data = 0, sizeInBytes = 16384  |  isAliased = tensor_84_id_60544_module/model/12/fused_scaled_dot_product_attention/aten__view_slice_0_0_0_1_0__0__bundle_460_90162, type = alias, offset: 0  |  location = in SRAM  |  sramOffset = 0x1000fffffd33c000  |  "
    }
  }
  attr {
    key: "outputTensor:0"
    value {
      s: "tensor_84_id_60544_module/model/12/fused_scaled_dot_product_attention/aten__view_slice_0_0_0_1_0__0__bundle_460_90162  |  Sizes = [1,1,1,128,128]  |  hfloat8  |  expBias = 7, scale = 1  |    |  ModelParam = 0  |  strides = [16384, 16384, 16384, 16384, 128, 1]  |  data = 0, sizeInBytes = 16384  |  location = in SRAM  |  sramOffset = 0x1000fffffd33c000  |  "
    }
  }
}
node {
  name: "module/model/12/fused_scaled_dot_product_attention/sdpa_recomp_fwd_hf8/7618_complex/sdpa_recomp_fwd_hf8_153/sdpa_recomp_core_fwd_hf8_76/softmax_fwd_hf8_22_bundle_460/op_5"
  op: "softmax_fwd_hf8"
  input: "bf16-17_89566_bundle_460/split_internal/0"
  input: "module/model/12/fused_scaled_dot_product_attention/sdpa_recomp_fwd_hf8/7618_complex/sdpa_recomp_fwd_hf8_153/sdpa_recomp_core_fwd_hf8_76/constant_f32_18"
  input: "module/model/12/fused_scaled_dot_product_attention/sdpa_recomp_fwd_hf8/7618_complex/sdpa_recomp_fwd_hf8_153/sdpa_recomp_core_fwd_hf8_76/constant_f32_20"
  input: "tensor_112_odule/model/12/fused_scaled_dot_product_attention/placeholder/7"
  input: "module/model/12/fused_scaled_dot_product_attention/expand_dims/7605"
  attr {
    key: "Bundle_idx"
    value {
      s: "460"
    }
  }
  attr {
    key: "Exec_idx"
    value {
      s: "73"
    }
  }
  attr {
    key: "Op_idx"
    value {
      s: "7"
    }
  }
  attr {
    key: "inputTensor:0"
    value {
      s: "bf16-17_89566_slice_0_0_0_1_0__0__bundle_460_90163  |  Sizes = [1,1,4,128,128]  |  bf16  |  expBias = 0, scale = 1  |    |  ModelParam = 0  |  strides = [524288, 524288, 131072, 32768, 256, 2]  |  data = 0, sizeInBytes = 131072  |  isAliased = bf16-17_89566, type = concat, offset: 131072  |  location = in DRAM  |  "
    }
  }
  attr {
    key: "inputTensor:1"
    value {
      s: "f32-19_89567  |  Sizes = [1]  |  float32  |  expBias = 0, scale = 1  |    |  ModelParam = 0  |  strides = [4, 4]  |  data = 0, sizeInBytes = 4  |  location = in DRAM  |  dramOffset = 0x3100000b0000  |  "
    }
  }
  attr {
    key: "inputTensor:2"
    value {
      s: "f32-21_89568  |  Sizes = [1]  |  float32  |  expBias = 0, scale = 1  |    |  ModelParam = 0  |  strides = [4, 4]  |  data = 0, sizeInBytes = 4  |  location = in DRAM  |  dramOffset = 0x3100000b0080  |  "
    }
  }
  attr {
    key: "inputTensor:3"
    value {
      s: "tensor_112_odule/model/12/fused_scaled_dot_product_attention/placeholder/7  |  Sizes = [1]  |  float32  |  expBias = 0, scale = 1  |    |  ModelParam = 0  |  strides = [4, 4]  |  data = 0x55c37c3b0920, sizeInBytes = 4  |  buffer = 16  |  isPersistent  |  location = in DRAM  |  dramOffset = 0x280000000000  |  userMemorySection(type=Persistent, id=40)  |  isStaticParam  |  bufferDtype=float32  |  "
    }
  }
  attr {
    key: "inputTensor:4"
    value {
      s: "tensor_79_id_60546_module/model/12/fused_scaled_dot_product_attention/aten__unsqueeze  |  Sizes = [1,1,1,128,128]  |  bf16  |  expBias = 0, scale = 1  |    |  ModelParam = 0  |  strides = [32768, 32768, 32768, 32768, 256, 2]  |  data = 0, sizeInBytes = 32768  |  isAliased = tensor_73_odule/model/12/fused_scaled_dot_product_attention/placeholder/0, type = alias, offset: 0  |  location = in DRAM  |  "
    }
  }
  attr {
    key: "outputTensor:0"
    value {
      s: "hf8-23_89569_slice_0_0_0_1_0__0__bundle_460_90164  |  Sizes = [1,1,4,128,128]  |  hfloat8  |  expBias = 7, scale = 1  |    |  ModelParam = 0  |  strides = [65536, 65536, 65536, 16384, 128, 1]  |  data = 0, sizeInBytes = 65536  |  location = in SRAM  |  sramOffset = 0x1000fffffd350000  |  "
    }
  }
}
node {
  name: "module/model/12/fused_scaled_dot_product_attention/sdpa_recomp_fwd_hf8/7618_complex/sdpa_recomp_fwd_hf8_153/sdpa_recomp_core_fwd_hf8_76/fp8_gemm_hf8_1227/batch_gemm_24_bundle_460/op_6"
  op: "BatchGemm"
  input: "module/model/12/fused_scaled_dot_product_attention/sdpa_recomp_fwd_hf8/7618_complex/sdpa_recomp_fwd_hf8_153/sdpa_recomp_core_fwd_hf8_76/softmax_fwd_hf8_22_bundle_460/op_2"
  input: "reshape_8_8_bundle_460/op_1"
  attr {
    key: "Bundle_idx"
    value {
      s: "460"
    }
  }
  attr {
    key: "Exec_idx"
    value {
      s: "74"
    }
  }
  attr {
    key: "Op_idx"
    value {
      s: "8"
    }
  }
  attr {
    key: "Parameters"
    value {
      s: "transpose_a=false, transpose_b=false"
    }
  }
  attr {
    key: "fp8BiasIn"
    value {
      s: "11"
    }
  }
  attr {
    key: "fp8BiasIn2"
    value {
      s: "11"
    }
  }
  attr {
    key: "fp8BiasOut"
    value {
      s: "11"
    }
  }
  attr {
    key: "inputTensor:0"
    value {
      s: "hf8-23_89569_slice_0_0_0_0_0__0__bundle_460_90158  |  Sizes = [1,1,4,128,128]  |  hfloat8  |  expBias = 7, scale = 1  |    |  ModelParam = 0  |  strides = [65536, 65536, 65536, 16384, 128, 1]  |  data = 0, sizeInBytes = 65536  |  location = in SRAM  |  sramOffset = 0x1000fffffd340000  |  "
    }
  }
  attr {
    key: "inputTensor:1"
    value {
      s: "tensor_84_id_60544_module/model/12/fused_scaled_dot_product_attention/aten__view_slice_0_0_0_0_0__0__bundle_460_90152  |  Sizes = [1,1,1,128,128]  |  hfloat8  |  expBias = 7, scale = 1  |    |  ModelParam = 0  |  strides = [16384, 16384, 16384, 16384, 128, 1]  |  data = 0, sizeInBytes = 16384  |  location = in SRAM  |  sramOffset = 0x1000fffffd338000  |  "
    }
  }
  attr {
    key: "outputTensor:0"
    value {
      s: "tensor_120_slice_0_0_0_0_0__0__bundle_460_90165  |  Sizes = [1,1,4,128,128]  |  hfloat8  |  expBias = 7, scale = 1  |    |  ModelParam = 0  |  strides = [262144, 262144, 65536, 16384, 128, 1]  |  data = 0, sizeInBytes = 65536  |  isAliased = tensor_120, type = concat, offset: 0  |  location = in DRAM  |  "
    }
  }
}
node {
  name: "module/model/12/fused_scaled_dot_product_attention/sdpa_recomp_fwd_hf8/7618_complex/sdpa_recomp_fwd_hf8_153/sdpa_recomp_core_fwd_hf8_76/fp8_gemm_hf8_1227/batch_gemm_24_bundle_460/op_10"
  op: "BatchGemm"
  input: "module/model/12/fused_scaled_dot_product_attention/sdpa_recomp_fwd_hf8/7618_complex/sdpa_recomp_fwd_hf8_153/sdpa_recomp_core_fwd_hf8_76/softmax_fwd_hf8_22_bundle_460/op_5"
  input: "reshape_8_8_bundle_460/op_4"
  attr {
    key: "Bundle_idx"
    value {
      s: "460"
    }
  }
  attr {
    key: "Exec_idx"
    value {
      s: "75"
    }
  }
  attr {
    key: "Op_idx"
    value {
      s: "9"
    }
  }
  attr {
    key: "Parameters"
    value {
      s: "transpose_a=false, transpose_b=false"
    }
  }
  attr {
    key: "fp8BiasIn"
    value {
      s: "11"
    }
  }
  attr {
    key: "fp8BiasIn2"
    value {
      s: "11"
    }
  }
  attr {
    key: "fp8BiasOut"
    value {
      s: "11"
    }
  }
  attr {
    key: "inputTensor:0"
    value {
      s: "hf8-23_89569_slice_0_0_0_1_0__0__bundle_460_90164  |  Sizes = [1,1,4,128,128]  |  hfloat8  |  expBias = 7, scale = 1  |    |  ModelParam = 0  |  strides = [65536, 65536, 65536, 16384, 128, 1]  |  data = 0, sizeInBytes = 65536  |  location = in SRAM  |  sramOffset = 0x1000fffffd350000  |  "
    }
  }
  attr {
    key: "inputTensor:1"
    value {
      s: "tensor_84_id_60544_module/model/12/fused_scaled_dot_product_attention/aten__view_slice_0_0_0_1_0__0__bundle_460_90162  |  Sizes = [1,1,1,128,128]  |  hfloat8  |  expBias = 7, scale = 1  |    |  ModelParam = 0  |  strides = [16384, 16384, 16384, 16384, 128, 1]  |  data = 0, sizeInBytes = 16384  |  location = in SRAM  |  sramOffset = 0x1000fffffd33c000  |  "
    }
  }
  attr {
    key: "outputTensor:0"
    value {
      s: "tensor_120_slice_0_0_0_1_0__0__bundle_460_90172  |  Sizes = [1,1,4,128,128]  |  hfloat8  |  expBias = 7, scale = 1  |    |  ModelParam = 0  |  strides = [262144, 262144, 65536, 16384, 128, 1]  |  data = 0, sizeInBytes = 65536  |  isAliased = tensor_120, type = concat, offset: 65536  |  location = in DRAM  |  "
    }
  }
}
node {
  name: "fusedTPCNode_166_2_bundle_460/op_7"
  op: "fused_kernel_0x5AF37C5C_1DA_bf16"
  input: "tensor_69_bundle_460/split_internal/0"
  attr {
    key: "Bundle_idx"
    value {
      s: "460"
    }
  }
  attr {
    key: "Exec_idx"
    value {
      s: "76"
    }
  }
  attr {
    key: "Op_idx"
    value {
      s: "10"
    }
  }
  attr {
    key: "inputTensor:0"
    value {
      s: "tensor_69_slice_0_0_2_0_0__0__bundle_460_90166  |  Sizes = [1,1,128,128]  |  hfloat8  |  expBias = 7, scale = 1  |    |  ModelParam = 0  |  strides = [65536, 65536, 16384, 128, 1]  |  data = 0, sizeInBytes = 16384  |  isAliased = tensor_69, type = concat, offset: 32768  |  location = in DRAM  |  "
    }
  }
  attr {
    key: "outputTensor:0"
    value {
      s: "tensor_72_slice_0_0_2_0_0__0__bundle_460_90167  |  Sizes = [1,1,128,128]  |  bf16  |  expBias = 0, scale = 1  |    |  ModelParam = 0  |  strides = [131072, 131072, 32768, 256, 2]  |  data = 0, sizeInBytes = 32768  |  isAliased = tensor_72, type = concat, offset: 65536  |  location = in DRAM  |  "
    }
  }
  attr {
    key: "outputTensor:1"
    value {
      s: "tensor-89747_slice_0_0_2_0_0__0__bundle_460_90168  |  Sizes = [1,1,128,128]  |  hfloat8  |  expBias = 7, scale = 1  |    |  ModelParam = 0  |  strides = [16384, 16384, 16384, 128, 1]  |  data = 0, sizeInBytes = 16384  |  isAliased = tensor_84_id_60544_module/model/12/fused_scaled_dot_product_attention/aten__view_slice_0_0_0_2_0__0__bundle_460_90169, type = alias, offset: 0  |  location = in SRAM  |  sramOffset = 0x1000fffffd338000  |  "
    }
  }
}
node {
  name: "reshape_8_8_bundle_460/op_8"
  op: "Reshape"
  input: "fusedTPCNode_166_2_bundle_460/op_7"
  attr {
    key: "Bundle_idx"
    value {
      s: "460"
    }
  }
  attr {
    key: "Exec_idx"
    value {
      s: "77"
    }
  }
  attr {
    key: "Op_idx"
    value {
      s: "11"
    }
  }
  attr {
    key: "inputTensor:0"
    value {
      s: "tensor-89747_slice_0_0_2_0_0__0__bundle_460_90168  |  Sizes = [1,1,128,128]  |  hfloat8  |  expBias = 7, scale = 1  |    |  ModelParam = 0  |  strides = [16384, 16384, 16384, 128, 1]  |  data = 0, sizeInBytes = 16384  |  isAliased = tensor_84_id_60544_module/model/12/fused_scaled_dot_product_attention/aten__view_slice_0_0_0_2_0__0__bundle_460_90169, type = alias, offset: 0  |  location = in SRAM  |  sramOffset = 0x1000fffffd338000  |  "
    }
  }
  attr {
    key: "outputTensor:0"
    value {
      s: "tensor_84_id_60544_module/model/12/fused_scaled_dot_product_attention/aten__view_slice_0_0_0_2_0__0__bundle_460_90169  |  Sizes = [1,1,1,128,128]  |  hfloat8  |  expBias = 7, scale = 1  |    |  ModelParam = 0  |  strides = [16384, 16384, 16384, 16384, 128, 1]  |  data = 0, sizeInBytes = 16384  |  location = in SRAM  |  sramOffset = 0x1000fffffd338000  |  "
    }
  }
}
node {
  name: "module/model/12/fused_scaled_dot_product_attention/sdpa_recomp_fwd_hf8/7618_complex/sdpa_recomp_fwd_hf8_153/sdpa_recomp_core_fwd_hf8_76/softmax_fwd_hf8_22_bundle_460/op_9"
  op: "softmax_fwd_hf8"
  input: "bf16-17_89566_bundle_460/split_internal/0"
  input: "module/model/12/fused_scaled_dot_product_attention/sdpa_recomp_fwd_hf8/7618_complex/sdpa_recomp_fwd_hf8_153/sdpa_recomp_core_fwd_hf8_76/constant_f32_18"
  input: "module/model/12/fused_scaled_dot_product_attention/sdpa_recomp_fwd_hf8/7618_complex/sdpa_recomp_fwd_hf8_153/sdpa_recomp_core_fwd_hf8_76/constant_f32_20"
  input: "tensor_112_odule/model/12/fused_scaled_dot_product_attention/placeholder/7"
  input: "module/model/12/fused_scaled_dot_product_attention/expand_dims/7605"
  attr {
    key: "Bundle_idx"
    value {
      s: "460"
    }
  }
  attr {
    key: "Exec_idx"
    value {
      s: "78"
    }
  }
  attr {
    key: "Op_idx"
    value {
      s: "12"
    }
  }
  attr {
    key: "inputTensor:0"
    value {
      s: "bf16-17_89566_slice_0_0_0_2_0__0__bundle_460_90170  |  Sizes = [1,1,4,128,128]  |  bf16  |  expBias = 0, scale = 1  |    |  ModelParam = 0  |  strides = [524288, 524288, 131072, 32768, 256, 2]  |  data = 0, sizeInBytes = 131072  |  isAliased = bf16-17_89566, type = concat, offset: 262144  |  location = in DRAM  |  "
    }
  }
  attr {
    key: "inputTensor:1"
    value {
      s: "f32-19_89567  |  Sizes = [1]  |  float32  |  expBias = 0, scale = 1  |    |  ModelParam = 0  |  strides = [4, 4]  |  data = 0, sizeInBytes = 4  |  location = in DRAM  |  dramOffset = 0x3100000b0000  |  "
    }
  }
  attr {
    key: "inputTensor:2"
    value {
      s: "f32-21_89568  |  Sizes = [1]  |  float32  |  expBias = 0, scale = 1  |    |  ModelParam = 0  |  strides = [4, 4]  |  data = 0, sizeInBytes = 4  |  location = in DRAM  |  dramOffset = 0x3100000b0080  |  "
    }
  }
  attr {
    key: "inputTensor:3"
    value {
      s: "tensor_112_odule/model/12/fused_scaled_dot_product_attention/placeholder/7  |  Sizes = [1]  |  float32  |  expBias = 0, scale = 1  |    |  ModelParam = 0  |  strides = [4, 4]  |  data = 0x55c37c3b0920, sizeInBytes = 4  |  buffer = 16  |  isPersistent  |  location = in DRAM  |  dramOffset = 0x280000000000  |  userMemorySection(type=Persistent, id=40)  |  isStaticParam  |  bufferDtype=float32  |  "
    }
  }
  attr {
    key: "inputTensor:4"
    value {
      s: "tensor_79_id_60546_module/model/12/fused_scaled_dot_product_attention/aten__unsqueeze  |  Sizes = [1,1,1,128,128]  |  bf16  |  expBias = 0, scale = 1  |    |  ModelParam = 0  |  strides = [32768, 32768, 32768, 32768, 256, 2]  |  data = 0, sizeInBytes = 32768  |  isAliased = tensor_73_odule/model/12/fused_scaled_dot_product_attention/placeholder/0, type = alias, offset: 0  |  location = in DRAM  |  "
    }
  }
  attr {
    key: "outputTensor:0"
    value {
      s: "hf8-23_89569_slice_0_0_0_2_0__0__bundle_460_90171  |  Sizes = [1,1,4,128,128]  |  hfloat8  |  expBias = 7, scale = 1  |    |  ModelParam = 0  |  strides = [65536, 65536, 65536, 16384, 128, 1]  |  data = 0, sizeInBytes = 65536  |  location = in SRAM  |  sramOffset = 0x1000fffffd340000  |  "
    }
  }
}
node {
  name: "fusedTPCNode_166_2_bundle_460/op_11"
  op: "fused_kernel_0x5AF37C5C_1DA_bf16"
  input: "tensor_69_bundle_460/split_internal/0"
  attr {
    key: "Bundle_idx"
    value {
      s: "460"
    }
  }
  attr {
    key: "Exec_idx"
    value {
      s: "79"
    }
  }
  attr {
    key: "Op_idx"
    value {
      s: "13"
    }
  }
  attr {
    key: "inputTensor:0"
    value {
      s: "tensor_69_slice_0_0_3_0_0__0__bundle_460_90173  |  Sizes = [1,1,128,128]  |  hfloat8  |  expBias = 7, scale = 1  |    |  ModelParam = 0  |  strides = [65536, 65536, 16384, 128, 1]  |  data = 0, sizeInBytes = 16384  |  isAliased = tensor_69, type = concat, offset: 49152  |  location = in DRAM  |  "
    }
  }
  attr {
    key: "outputTensor:0"
    value {
      s: "tensor_72_slice_0_0_3_0_0__0__bundle_460_90174  |  Sizes = [1,1,128,128]  |  bf16  |  expBias = 0, scale = 1  |    |  ModelParam = 0  |  strides = [131072, 131072, 32768, 256, 2]  |  data = 0, sizeInBytes = 32768  |  isAliased = tensor_72, type = concat, offset: 98304  |  location = in DRAM  |  "
    }
  }
  attr {
    key: "outputTensor:1"
    value {
      s: "tensor-89747_slice_0_0_3_0_0__0__bundle_460_90175  |  Sizes = [1,1,128,128]  |  hfloat8  |  expBias = 7, scale = 1  |    |  ModelParam = 0  |  strides = [16384, 16384, 16384, 128, 1]  |  data = 0, sizeInBytes = 16384  |  isAliased = tensor_84_id_60544_module/model/12/fused_scaled_dot_product_attention/aten__view_slice_0_0_0_3_0__0__bundle_460_90176, type = alias, offset: 0  |  location = in SRAM  |  sramOffset = 0x1000fffffd33c000  |  "
    }
  }
}
node {
  name: "reshape_8_8_bundle_460/op_12"
  op: "Reshape"
  input: "fusedTPCNode_166_2_bundle_460/op_11"
  attr {
    key: "Bundle_idx"
    value {
      s: "460"
    }
  }
  attr {
    key: "Exec_idx"
    value {
      s: "80"
    }
  }
  attr {
    key: "Op_idx"
    value {
      s: "14"
    }
  }
  attr {
    key: "inputTensor:0"
    value {
      s: "tensor-89747_slice_0_0_3_0_0__0__bundle_460_90175  |  Sizes = [1,1,128,128]  |  hfloat8  |  expBias = 7, scale = 1  |    |  ModelParam = 0  |  strides = [16384, 16384, 16384, 128, 1]  |  data = 0, sizeInBytes = 16384  |  isAliased = tensor_84_id_60544_module/model/12/fused_scaled_dot_product_attention/aten__view_slice_0_0_0_3_0__0__bundle_460_90176, type = alias, offset: 0  |  location = in SRAM  |  sramOffset = 0x1000fffffd33c000  |  "
    }
  }
  attr {
    key: "outputTensor:0"
    value {
      s: "tensor_84_id_60544_module/model/12/fused_scaled_dot_product_attention/aten__view_slice_0_0_0_3_0__0__bundle_460_90176  |  Sizes = [1,1,1,128,128]  |  hfloat8  |  expBias = 7, scale = 1  |    |  ModelParam = 0  |  strides = [16384, 16384, 16384, 16384, 128, 1]  |  data = 0, sizeInBytes = 16384  |  location = in SRAM  |  sramOffset = 0x1000fffffd33c000  |  "
    }
  }
}
node {
  name: "tensor_72_bundle_460/concat_logical_internal/0"
  op: "Concatenate"
  input: "fusedTPCNode_166_2_bundle_460/op_0"
  input: "fusedTPCNode_166_2_bundle_460/op_3"
  input: "fusedTPCNode_166_2_bundle_460/op_7"
  input: "fusedTPCNode_166_2_bundle_460/op_11"
  attr {
    key: "Bundle_idx"
    value {
      s: "460"
    }
  }
  attr {
    key: "Exec_idx"
    value {
      s: "81"
    }
  }
  attr {
    key: "Op_idx"
    value {
      s: "15"
    }
  }
  attr {
    key: "inputTensor:0"
    value {
      s: "tensor_72_slice_0_0_0_0_0__0__bundle_460_90150  |  Sizes = [1,1,128,128]  |  bf16  |  expBias = 0, scale = 1  |    |  ModelParam = 0  |  strides = [131072, 131072, 32768, 256, 2]  |  data = 0, sizeInBytes = 32768  |  isAliased = tensor_72, type = concat, offset: 0  |  location = in DRAM  |  "
    }
  }
  attr {
    key: "inputTensor:1"
    value {
      s: "tensor_72_slice_0_0_1_0_0__0__bundle_460_90160  |  Sizes = [1,1,128,128]  |  bf16  |  expBias = 0, scale = 1  |    |  ModelParam = 0  |  strides = [131072, 131072, 32768, 256, 2]  |  data = 0, sizeInBytes = 32768  |  isAliased = tensor_72, type = concat, offset: 32768  |  location = in DRAM  |  "
    }
  }
  attr {
    key: "inputTensor:2"
    value {
      s: "tensor_72_slice_0_0_2_0_0__0__bundle_460_90167  |  Sizes = [1,1,128,128]  |  bf16  |  expBias = 0, scale = 1  |    |  ModelParam = 0  |  strides = [131072, 131072, 32768, 256, 2]  |  data = 0, sizeInBytes = 32768  |  isAliased = tensor_72, type = concat, offset: 65536  |  location = in DRAM  |  "
    }
  }
  attr {
    key: "inputTensor:3"
    value {
      s: "tensor_72_slice_0_0_3_0_0__0__bundle_460_90174  |  Sizes = [1,1,128,128]  |  bf16  |  expBias = 0, scale = 1  |    |  ModelParam = 0  |  strides = [131072, 131072, 32768, 256, 2]  |  data = 0, sizeInBytes = 32768  |  isAliased = tensor_72, type = concat, offset: 98304  |  location = in DRAM  |  "
    }
  }
  attr {
    key: "outputTensor:0"
    value {
      s: "tensor_72  |  Sizes = [1,4,128,128]  |  bf16  |  expBias = 0, scale = 1  |    |  ModelParam = 0  |  strides = [131072, 131072, 32768, 256, 2]  |  data = 0, sizeInBytes = 131072  |  isPersistent  |  location = in DRAM  |  dramOffset = 0x1c0000000000  |  userMemorySection(type=Persistent, id=28)  |  "
    }
  }
}
node {
  name: "tensor_72"
  op: "OutputTensor"
  input: "tensor_72_bundle_460/concat_logical_internal/0"
  attr {
    key: "dtype"
    value {
      type: DT_BFLOAT16
    }
  }
  attr {
    key: "shape"
    value {
      shape {
        dim {
          size: 128
        }
        dim {
          size: 128
        }
        dim {
          size: 4
        }
        dim {
          size: 1
        }
        dim {
          size: 1
        }
      }
    }
  }
  attr {
    key: "synDataType"
    value {
      s: "bf16"
    }
  }
}
node {
  name: "module/model/12/fused_scaled_dot_product_attention/sdpa_recomp_fwd_hf8/7618_complex/sdpa_recomp_fwd_hf8_153/sdpa_recomp_core_fwd_hf8_76/softmax_fwd_hf8_22_bundle_460/op_13"
  op: "softmax_fwd_hf8"
  input: "bf16-17_89566_bundle_460/split_internal/0"
  input: "module/model/12/fused_scaled_dot_product_attention/sdpa_recomp_fwd_hf8/7618_complex/sdpa_recomp_fwd_hf8_153/sdpa_recomp_core_fwd_hf8_76/constant_f32_18"
  input: "module/model/12/fused_scaled_dot_product_attention/sdpa_recomp_fwd_hf8/7618_complex/sdpa_recomp_fwd_hf8_153/sdpa_recomp_core_fwd_hf8_76/constant_f32_20"
  input: "tensor_112_odule/model/12/fused_scaled_dot_product_attention/placeholder/7"
  input: "module/model/12/fused_scaled_dot_product_attention/expand_dims/7605"
  attr {
    key: "Bundle_idx"
    value {
      s: "460"
    }
  }
  attr {
    key: "Exec_idx"
    value {
      s: "82"
    }
  }
  attr {
    key: "Op_idx"
    value {
      s: "16"
    }
  }
  attr {
    key: "inputTensor:0"
    value {
      s: "bf16-17_89566_slice_0_0_0_3_0__0__bundle_460_90177  |  Sizes = [1,1,4,128,128]  |  bf16  |  expBias = 0, scale = 1  |    |  ModelParam = 0  |  strides = [524288, 524288, 131072, 32768, 256, 2]  |  data = 0, sizeInBytes = 131072  |  isAliased = bf16-17_89566, type = concat, offset: 393216  |  location = in DRAM  |  "
    }
  }
  attr {
    key: "inputTensor:1"
    value {
      s: "f32-19_89567  |  Sizes = [1]  |  float32  |  expBias = 0, scale = 1  |    |  ModelParam = 0  |  strides = [4, 4]  |  data = 0, sizeInBytes = 4  |  location = in DRAM  |  dramOffset = 0x3100000b0000  |  "
    }
  }
  attr {
    key: "inputTensor:2"
    value {
      s: "f32-21_89568  |  Sizes = [1]  |  float32  |  expBias = 0, scale = 1  |    |  ModelParam = 0  |  strides = [4, 4]  |  data = 0, sizeInBytes = 4  |  location = in DRAM  |  dramOffset = 0x3100000b0080  |  "
    }
  }
  attr {
    key: "inputTensor:3"
    value {
      s: "tensor_112_odule/model/12/fused_scaled_dot_product_attention/placeholder/7  |  Sizes = [1]  |  float32  |  expBias = 0, scale = 1  |    |  ModelParam = 0  |  strides = [4, 4]  |  data = 0x55c37c3b0920, sizeInBytes = 4  |  buffer = 16  |  isPersistent  |  location = in DRAM  |  dramOffset = 0x280000000000  |  userMemorySection(type=Persistent, id=40)  |  isStaticParam  |  bufferDtype=float32  |  "
    }
  }
  attr {
    key: "inputTensor:4"
    value {
      s: "tensor_79_id_60546_module/model/12/fused_scaled_dot_product_attention/aten__unsqueeze  |  Sizes = [1,1,1,128,128]  |  bf16  |  expBias = 0, scale = 1  |    |  ModelParam = 0  |  strides = [32768, 32768, 32768, 32768, 256, 2]  |  data = 0, sizeInBytes = 32768  |  isAliased = tensor_73_odule/model/12/fused_scaled_dot_product_attention/placeholder/0, type = alias, offset: 0  |  location = in DRAM  |  "
    }
  }
  attr {
    key: "outputTensor:0"
    value {
      s: "hf8-23_89569_slice_0_0_0_3_0__0__bundle_460_90178  |  Sizes = [1,1,4,128,128]  |  hfloat8  |  expBias = 7, scale = 1  |    |  ModelParam = 0  |  strides = [65536, 65536, 65536, 16384, 128, 1]  |  data = 0, sizeInBytes = 65536  |  location = in SRAM  |  sramOffset = 0x1000fffffd350000  |  "
    }
  }
}
node {
  name: "module/model/12/fused_scaled_dot_product_attention/sdpa_recomp_fwd_hf8/7618_complex/sdpa_recomp_fwd_hf8_153/sdpa_recomp_core_fwd_hf8_76/fp8_gemm_hf8_1227/batch_gemm_24_bundle_460/op_14"
  op: "BatchGemm"
  input: "module/model/12/fused_scaled_dot_product_attention/sdpa_recomp_fwd_hf8/7618_complex/sdpa_recomp_fwd_hf8_153/sdpa_recomp_core_fwd_hf8_76/softmax_fwd_hf8_22_bundle_460/op_9"
  input: "reshape_8_8_bundle_460/op_8"
  attr {
    key: "Bundle_idx"
    value {
      s: "460"
    }
  }
  attr {
    key: "Exec_idx"
    value {
      s: "83"
    }
  }
  attr {
    key: "Op_idx"
    value {
      s: "17"
    }
  }
  attr {
    key: "Parameters"
    value {
      s: "transpose_a=false, transpose_b=false"
    }
  }
  attr {
    key: "fp8BiasIn"
    value {
      s: "11"
    }
  }
  attr {
    key: "fp8BiasIn2"
    value {
      s: "11"
    }
  }
  attr {
    key: "fp8BiasOut"
    value {
      s: "11"
    }
  }
  attr {
    key: "inputTensor:0"
    value {
      s: "hf8-23_89569_slice_0_0_0_2_0__0__bundle_460_90171  |  Sizes = [1,1,4,128,128]  |  hfloat8  |  expBias = 7, scale = 1  |    |  ModelParam = 0  |  strides = [65536, 65536, 65536, 16384, 128, 1]  |  data = 0, sizeInBytes = 65536  |  location = in SRAM  |  sramOffset = 0x1000fffffd340000  |  "
    }
  }
  attr {
    key: "inputTensor:1"
    value {
      s: "tensor_84_id_60544_module/model/12/fused_scaled_dot_product_attention/aten__view_slice_0_0_0_2_0__0__bundle_460_90169  |  Sizes = [1,1,1,128,128]  |  hfloat8  |  expBias = 7, scale = 1  |    |  ModelParam = 0  |  strides = [16384, 16384, 16384, 16384, 128, 1]  |  data = 0, sizeInBytes = 16384  |  location = in SRAM  |  sramOffset = 0x1000fffffd338000  |  "
    }
  }
  attr {
    key: "outputTensor:0"
    value {
      s: "tensor_120_slice_0_0_0_2_0__0__bundle_460_90179  |  Sizes = [1,1,4,128,128]  |  hfloat8  |  expBias = 7, scale = 1  |    |  ModelParam = 0  |  strides = [262144, 262144, 65536, 16384, 128, 1]  |  data = 0, sizeInBytes = 65536  |  isAliased = tensor_120, type = concat, offset: 131072  |  location = in DRAM  |  "
    }
  }
}
node {
  name: "module/model/12/fused_scaled_dot_product_attention/sdpa_recomp_fwd_hf8/7618_complex/sdpa_recomp_fwd_hf8_153/sdpa_recomp_core_fwd_hf8_76/fp8_gemm_hf8_1227/batch_gemm_24_bundle_460/op_15"
  op: "BatchGemm"
  input: "module/model/12/fused_scaled_dot_product_attention/sdpa_recomp_fwd_hf8/7618_complex/sdpa_recomp_fwd_hf8_153/sdpa_recomp_core_fwd_hf8_76/softmax_fwd_hf8_22_bundle_460/op_13"
  input: "reshape_8_8_bundle_460/op_12"
  attr {
    key: "Bundle_idx"
    value {
      s: "460"
    }
  }
  attr {
    key: "Exec_idx"
    value {
      s: "84"
    }
  }
  attr {
    key: "Op_idx"
    value {
      s: "18"
    }
  }
  attr {
    key: "Parameters"
    value {
      s: "transpose_a=false, transpose_b=false"
    }
  }
  attr {
    key: "fp8BiasIn"
    value {
      s: "11"
    }
  }
  attr {
    key: "fp8BiasIn2"
    value {
      s: "11"
    }
  }
  attr {
    key: "fp8BiasOut"
    value {
      s: "11"
    }
  }
  attr {
    key: "inputTensor:0"
    value {
      s: "hf8-23_89569_slice_0_0_0_3_0__0__bundle_460_90178  |  Sizes = [1,1,4,128,128]  |  hfloat8  |  expBias = 7, scale = 1  |    |  ModelParam = 0  |  strides = [65536, 65536, 65536, 16384, 128, 1]  |  data = 0, sizeInBytes = 65536  |  location = in SRAM  |  sramOffset = 0x1000fffffd350000  |  "
    }
  }
  attr {
    key: "inputTensor:1"
    value {
      s: "tensor_84_id_60544_module/model/12/fused_scaled_dot_product_attention/aten__view_slice_0_0_0_3_0__0__bundle_460_90176  |  Sizes = [1,1,1,128,128]  |  hfloat8  |  expBias = 7, scale = 1  |    |  ModelParam = 0  |  strides = [16384, 16384, 16384, 16384, 128, 1]  |  data = 0, sizeInBytes = 16384  |  location = in SRAM  |  sramOffset = 0x1000fffffd33c000  |  "
    }
  }
  attr {
    key: "outputTensor:0"
    value {
      s: "tensor_120_slice_0_0_0_3_0__0__bundle_460_90180  |  Sizes = [1,1,4,128,128]  |  hfloat8  |  expBias = 7, scale = 1  |    |  ModelParam = 0  |  strides = [262144, 262144, 65536, 16384, 128, 1]  |  data = 0, sizeInBytes = 65536  |  isAliased = tensor_120, type = concat, offset: 196608  |  location = in DRAM  |  "
    }
  }
}
node {
  name: "tensor_120_bundle_460/concat_logical_internal/0"
  op: "Concatenate"
  input: "module/model/12/fused_scaled_dot_product_attention/sdpa_recomp_fwd_hf8/7618_complex/sdpa_recomp_fwd_hf8_153/sdpa_recomp_core_fwd_hf8_76/fp8_gemm_hf8_1227/batch_gemm_24_bundle_460/op_6"
  input: "module/model/12/fused_scaled_dot_product_attention/sdpa_recomp_fwd_hf8/7618_complex/sdpa_recomp_fwd_hf8_153/sdpa_recomp_core_fwd_hf8_76/fp8_gemm_hf8_1227/batch_gemm_24_bundle_460/op_10"
  input: "module/model/12/fused_scaled_dot_product_attention/sdpa_recomp_fwd_hf8/7618_complex/sdpa_recomp_fwd_hf8_153/sdpa_recomp_core_fwd_hf8_76/fp8_gemm_hf8_1227/batch_gemm_24_bundle_460/op_14"
  input: "module/model/12/fused_scaled_dot_product_attention/sdpa_recomp_fwd_hf8/7618_complex/sdpa_recomp_fwd_hf8_153/sdpa_recomp_core_fwd_hf8_76/fp8_gemm_hf8_1227/batch_gemm_24_bundle_460/op_15"
  attr {
    key: "Bundle_idx"
    value {
      s: "460"
    }
  }
  attr {
    key: "Exec_idx"
    value {
      s: "85"
    }
  }
  attr {
    key: "Op_idx"
    value {
      s: "19"
    }
  }
  attr {
    key: "inputTensor:0"
    value {
      s: "tensor_120_slice_0_0_0_0_0__0__bundle_460_90165  |  Sizes = [1,1,4,128,128]  |  hfloat8  |  expBias = 7, scale = 1  |    |  ModelParam = 0  |  strides = [262144, 262144, 65536, 16384, 128, 1]  |  data = 0, sizeInBytes = 65536  |  isAliased = tensor_120, type = concat, offset: 0  |  location = in DRAM  |  "
    }
  }
  attr {
    key: "inputTensor:1"
    value {
      s: "tensor_120_slice_0_0_0_1_0__0__bundle_460_90172  |  Sizes = [1,1,4,128,128]  |  hfloat8  |  expBias = 7, scale = 1  |    |  ModelParam = 0  |  strides = [262144, 262144, 65536, 16384, 128, 1]  |  data = 0, sizeInBytes = 65536  |  isAliased = tensor_120, type = concat, offset: 65536  |  location = in DRAM  |  "
    }
  }
  attr {
    key: "inputTensor:2"
    value {
      s: "tensor_120_slice_0_0_0_2_0__0__bundle_460_90179  |  Sizes = [1,1,4,128,128]  |  hfloat8  |  expBias = 7, scale = 1  |    |  ModelParam = 0  |  strides = [262144, 262144, 65536, 16384, 128, 1]  |  data = 0, sizeInBytes = 65536  |  isAliased = tensor_120, type = concat, offset: 131072  |  location = in DRAM  |  "
    }
  }
  attr {
    key: "inputTensor:3"
    value {
      s: "tensor_120_slice_0_0_0_3_0__0__bundle_460_90180  |  Sizes = [1,1,4,128,128]  |  hfloat8  |  expBias = 7, scale = 1  |    |  ModelParam = 0  |  strides = [262144, 262144, 65536, 16384, 128, 1]  |  data = 0, sizeInBytes = 65536  |  isAliased = tensor_120, type = concat, offset: 196608  |  location = in DRAM  |  "
    }
  }
  attr {
    key: "outputTensor:0"
    value {
      s: "tensor_120  |  Sizes = [1,4,4,128,128]  |  hfloat8  |  expBias = 7, scale = 1  |    |  ModelParam = 0  |  strides = [262144, 262144, 65536, 16384, 128, 1]  |  data = 0, sizeInBytes = 262144  |  isAliased = tensor_121_id_60565_module/model/12/fused_scaled_dot_product_attention/dequant_output/aten__view, type = alias, offset: 0  |  location = in DRAM  |  "
    }
  }
}
node {
  name: "module/model/12/fused_scaled_dot_product_attention/dequant_output/reshape/7619"
  op: "Reshape"
  input: "tensor_120_bundle_460/concat_logical_internal/0"
  attr {
    key: "Bundle_idx"
    value {
      s: "N/A"
    }
  }
  attr {
    key: "Exec_idx"
    value {
      s: "86"
    }
  }
  attr {
    key: "Op_idx"
    value {
      s: "N/A"
    }
  }
  attr {
    key: "inputTensor:0"
    value {
      s: "tensor_120  |  Sizes = [1,4,4,128,128]  |  hfloat8  |  expBias = 7, scale = 1  |    |  ModelParam = 0  |  strides = [262144, 262144, 65536, 16384, 128, 1]  |  data = 0, sizeInBytes = 262144  |  isAliased = tensor_121_id_60565_module/model/12/fused_scaled_dot_product_attention/dequant_output/aten__view, type = alias, offset: 0  |  location = in DRAM  |  "
    }
  }
  attr {
    key: "outputTensor:0"
    value {
      s: "tensor_121_id_60565_module/model/12/fused_scaled_dot_product_attention/dequant_output/aten__view  |  Sizes = [1,16,128,128]  |  hfloat8  |  expBias = 7, scale = 1  |    |  ModelParam = 0  |  strides = [262144, 262144, 16384, 128, 1]  |  data = 0, sizeInBytes = 262144  |  location = in DRAM  |  dramOffset = 0x3100000b0100  |  "
    }
  }
}
node {
  name: "module/model/12/transpose/7621_transpose_via_logical"
  op: "LogicalTranspose"
  input: "module/model/12/fused_scaled_dot_product_attention/dequant_output/reshape/7619"
  attr {
    key: "Bundle_idx"
    value {
      s: "N/A"
    }
  }
  attr {
    key: "Exec_idx"
    value {
      s: "87"
    }
  }
  attr {
    key: "Op_idx"
    value {
      s: "N/A"
    }
  }
  attr {
    key: "Parameters"
    value {
      s: "permutation: (0,2,1,3)"
    }
  }
  attr {
    key: "inputTensor:0"
    value {
      s: "tensor_121_id_60565_module/model/12/fused_scaled_dot_product_attention/dequant_output/aten__view  |  Sizes = [1,16,128,128]  |  hfloat8  |  expBias = 7, scale = 1  |    |  ModelParam = 0  |  strides = [262144, 262144, 16384, 128, 1]  |  data = 0, sizeInBytes = 262144  |  location = in DRAM  |  dramOffset = 0x3100000b0100  |  "
    }
  }
  attr {
    key: "outputTensor:0"
    value {
      s: "tensor_125_id_60570_module/model/12/aten__transpose  |  Sizes = [1,128,16,128]  |  hfloat8  |  expBias = 7, scale = 1  |    |  ModelParam = 0  |  strides = [262144, 262144, 128, 16384, 1]  |  data = 0, sizeInBytes = 262144  |  isAliased = tensor_121_id_60565_module/model/12/fused_scaled_dot_product_attention/dequant_output/aten__view, type = alias, offset: 0  |  location = in DRAM  |  isSparseLayout  |  "
    }
  }
}
node {
  name: "tensor_125_id_60570_module/model/12/aten__transpose_memcpy_90185_internal"
  op: "DmaMemcpy"
  input: "module/model/12/transpose/7621_transpose_via_logical"
  attr {
    key: "Bundle_idx"
    value {
      s: "N/A"
    }
  }
  attr {
    key: "Exec_idx"
    value {
      s: "88"
    }
  }
  attr {
    key: "Op_idx"
    value {
      s: "N/A"
    }
  }
  attr {
    key: "inputTensor:0"
    value {
      s: "tensor_125_id_60570_module/model/12/aten__transpose  |  Sizes = [1,128,16,128]  |  hfloat8  |  expBias = 7, scale = 1  |    |  ModelParam = 0  |  strides = [262144, 262144, 128, 16384, 1]  |  data = 0, sizeInBytes = 262144  |  isAliased = tensor_121_id_60565_module/model/12/fused_scaled_dot_product_attention/dequant_output/aten__view, type = alias, offset: 0  |  location = in DRAM  |  isSparseLayout  |  "
    }
  }
  attr {
    key: "outputTensor:0"
    value {
      s: "tensor_125_id_60570_module/model/12/aten__transpose_memcpy_90185  |  Sizes = [1,128,16,128]  |  hfloat8  |  expBias = 7, scale = 1  |    |  ModelParam = 0  |  strides = [262144, 262144, 2048, 128, 1]  |  data = 0, sizeInBytes = 262144  |  location = in DRAM  |  dramOffset = 0x310000000000  |  "
    }
  }
}
node {
  name: "module/model/12/o_proj/quant_input_0/reshape/7623"
  op: "Reshape"
  input: "tensor_125_id_60570_module/model/12/aten__transpose_memcpy_90185_internal"
  attr {
    key: "Bundle_idx"
    value {
      s: "N/A"
    }
  }
  attr {
    key: "Exec_idx"
    value {
      s: "89"
    }
  }
  attr {
    key: "Op_idx"
    value {
      s: "N/A"
    }
  }
  attr {
    key: "inputTensor:0"
    value {
      s: "tensor_125_id_60570_module/model/12/aten__transpose_memcpy_90185  |  Sizes = [1,128,16,128]  |  hfloat8  |  expBias = 7, scale = 1  |    |  ModelParam = 0  |  strides = [262144, 262144, 2048, 128, 1]  |  data = 0, sizeInBytes = 262144  |  location = in DRAM  |  dramOffset = 0x310000000000  |  "
    }
  }
  attr {
    key: "outputTensor:0"
    value {
      s: "tensor_131_c89492  |  Sizes = [1,128,2048]  |  hfloat8  |  expBias = 7, scale = 1  |    |  ModelParam = 0  |  strides = [262144, 262144, 2048, 1]  |  data = 0, sizeInBytes = 262144  |  isAliased = tensor_125_id_60570_module/model/12/aten__transpose_memcpy_90185, type = alias, offset: 0  |  location = in DRAM  |  "
    }
  }
}
node {
  name: "tensor_132_odule/model/12/o_proj/placeholder/1"
  op: "Placeholder"
  attr {
    key: "dtype"
    value {
      type: DT_INVALID
    }
  }
  attr {
    key: "shape"
    value {
      shape {
        dim {
          size: 4096
        }
        dim {
          size: 2048
        }
        dim {
          size: 1
        }
        dim {
          size: 1
        }
        dim {
          size: 1
        }
      }
    }
  }
  attr {
    key: "synDataType"
    value {
      s: "hfloat8"
    }
  }
}
node {
  name: "module/model/12/o_proj/fp8_gemm_bf16/7625_complex/fp8_gemm_bf16_1229/expand_dims_6"
  op: "ExpandDims"
  input: "tensor_132_odule/model/12/o_proj/placeholder/1"
  attr {
    key: "Bundle_idx"
    value {
      s: "N/A"
    }
  }
  attr {
    key: "Exec_idx"
    value {
      s: "90"
    }
  }
  attr {
    key: "Op_idx"
    value {
      s: "N/A"
    }
  }
  attr {
    key: "inputTensor:0"
    value {
      s: "tensor_132_odule/model/12/o_proj/placeholder/1  |  Sizes = [2048,4096]  |  hfloat8  |  expBias = 7, scale = 1  |    |  ModelParam = 0  |  strides = [8388608, 4096, 1]  |  data = 0, sizeInBytes = 8388608  |  isPersistent  |  location = in DRAM  |  dramOffset = 0x2d0000000000  |  userMemorySection(type=Persistent, id=45)  |  "
    }
  }
  attr {
    key: "outputTensor:0"
    value {
      s: "hf8-7_89573  |  Sizes = [1,2048,4096]  |  hfloat8  |  expBias = 7, scale = 1  |    |  ModelParam = 0  |  strides = [8388608, 8388608, 4096, 1]  |  data = 0, sizeInBytes = 8388608  |  isAliased = tensor_132_odule/model/12/o_proj/placeholder/1, type = alias, offset: 0  |  location = in DRAM  |  "
    }
  }
}
node {
  name: "tensor_131_c89492_bundle_461/memcpy/0"
  op: "DmaMemcpy"
  input: "module/model/12/o_proj/quant_input_0/reshape/7623"
  attr {
    key: "Bundle_idx"
    value {
      s: "461"
    }
  }
  attr {
    key: "Exec_idx"
    value {
      s: "91"
    }
  }
  attr {
    key: "Op_idx"
    value {
      s: "0"
    }
  }
  attr {
    key: "inputTensor:0"
    value {
      s: "tensor_131_c89492  |  Sizes = [1,128,2048]  |  hfloat8  |  expBias = 7, scale = 1  |    |  ModelParam = 0  |  strides = [262144, 262144, 2048, 1]  |  data = 0, sizeInBytes = 262144  |  isAliased = tensor_125_id_60570_module/model/12/aten__transpose_memcpy_90185, type = alias, offset: 0  |  location = in DRAM  |  "
    }
  }
  attr {
    key: "outputTensor:0"
    value {
      s: "tensor_131_c89492_slice_0_0_0_0_0__0__bundle_461_90181  |  Sizes = [1,128,2048]  |  hfloat8  |  expBias = 7, scale = 1  |    |  ModelParam = 0  |  strides = [262144, 262144, 2048, 1]  |  data = 0, sizeInBytes = 262144  |  location = in SRAM  |  sramOffset = 0x1000fffffd360000  |  "
    }
  }
}
node {
  name: "module/model/12/o_proj/fp8_gemm_bf16/7625_complex/fp8_gemm_bf16_1229/batch_gemm_8_bundle_461/op_0_gemm"
  op: "GEMM"
  input: "tensor_131_c89492_bundle_461/memcpy/0"
  input: "module/model/12/o_proj/fp8_gemm_bf16/7625_complex/fp8_gemm_bf16_1229/expand_dims_6"
  attr {
    key: "Bundle_idx"
    value {
      s: "461"
    }
  }
  attr {
    key: "Exec_idx"
    value {
      s: "92"
    }
  }
  attr {
    key: "Op_idx"
    value {
      s: "1"
    }
  }
  attr {
    key: "Parameters"
    value {
      s: "transpose_a=false, transpose_b=false"
    }
  }
  attr {
    key: "fp8BiasIn"
    value {
      s: "11"
    }
  }
  attr {
    key: "fp8BiasIn2"
    value {
      s: "15"
    }
  }
  attr {
    key: "fp8BiasOut"
    value {
      s: "0"
    }
  }
  attr {
    key: "inputTensor:0"
    value {
      s: "tensor_131_c89492_slice_0_0_0_0_0__0__bundle_461_90181  |  Sizes = [1,128,2048]  |  hfloat8  |  expBias = 7, scale = 1  |    |  ModelParam = 0  |  strides = [262144, 262144, 2048, 1]  |  data = 0, sizeInBytes = 262144  |  location = in SRAM  |  sramOffset = 0x1000fffffd360000  |  "
    }
  }
  attr {
    key: "inputTensor:1"
    value {
      s: "hf8-7_89573  |  Sizes = [1,2048,4096]  |  hfloat8  |  expBias = 7, scale = 1  |    |  ModelParam = 0  |  strides = [8388608, 8388608, 4096, 1]  |  data = 0, sizeInBytes = 8388608  |  isAliased = tensor_132_odule/model/12/o_proj/placeholder/1, type = alias, offset: 0  |  location = in DRAM  |  "
    }
  }
  attr {
    key: "outputTensor:0"
    value {
      s: "tensor_136  |  Sizes = [1,128,4096]  |  bf16  |  expBias = 0, scale = 1  |    |  ModelParam = 0  |  strides = [1048576, 1048576, 8192, 2]  |  data = 0, sizeInBytes = 1048576  |  isPersistent  |  location = in DRAM  |  dramOffset = 0x310000000000  |  userMemorySection(type=Persistent, id=49)  |  "
    }
  }
}
node {
  name: "tensor_136"
  op: "OutputTensor"
  input: "module/model/12/o_proj/fp8_gemm_bf16/7625_complex/fp8_gemm_bf16_1229/batch_gemm_8_bundle_461/op_0_gemm"
  attr {
    key: "dtype"
    value {
      type: DT_BFLOAT16
    }
  }
  attr {
    key: "shape"
    value {
      shape {
        dim {
          size: 4096
        }
        dim {
          size: 128
        }
        dim {
          size: 1
        }
        dim {
          size: 1
        }
        dim {
          size: 1
        }
      }
    }
  }
  attr {
    key: "synDataType"
    value {
      s: "bf16"
    }
  }
}
