node {
  name: "tensor_12_odule/model/31/up_proj/placeholder/1"
  op: "Placeholder"
  attr {
    key: "dtype"
    value {
      type: DT_INVALID
    }
  }
  attr {
    key: "shape"
    value {
      shape {
        dim {
          size: 7168
        }
        dim {
          size: 4096
        }
        dim {
          size: 1
        }
        dim {
          size: 1
        }
        dim {
          size: 1
        }
      }
    }
  }
  attr {
    key: "synDataType"
    value {
      s: "hfloat8"
    }
  }
}
node {
  name: "module/model/31/up_proj/fp8_gemm_bf16/13313_complex/fp8_gemm_bf16_2563/expand_dims_6"
  op: "ExpandDims"
  input: "tensor_12_odule/model/31/up_proj/placeholder/1"
  attr {
    key: "Bundle_idx"
    value {
      s: "N/A"
    }
  }
  attr {
    key: "Exec_idx"
    value {
      s: "0"
    }
  }
  attr {
    key: "Op_idx"
    value {
      s: "N/A"
    }
  }
  attr {
    key: "inputTensor:0"
    value {
      s: "tensor_12_odule/model/31/up_proj/placeholder/1  |  Sizes = [4096,7168]  |  hfloat8  |  expBias = 7, scale = 1  |    |  ModelParam = 0  |  strides = [29360128, 7168, 1]  |  data = 0, sizeInBytes = 29360128  |  isPersistent  |  location = in DRAM  |  dramOffset = 0x80000000000  |  userMemorySection(type=Persistent, id=8)  |  "
    }
  }
  attr {
    key: "outputTensor:0"
    value {
      s: "hf8-7_185533  |  Sizes = [1,4096,7168]  |  hfloat8  |  expBias = 7, scale = 1  |    |  ModelParam = 0  |  strides = [29360128, 29360128, 7168, 1]  |  data = 0, sizeInBytes = 29360128  |  isAliased = tensor_12_odule/model/31/up_proj/placeholder/1, type = alias, offset: 0  |  location = in DRAM  |  "
    }
  }
}
node {
  name: "tensor_21_odule/model/31/gate_proj/placeholder/1"
  op: "Placeholder"
  attr {
    key: "dtype"
    value {
      type: DT_INVALID
    }
  }
  attr {
    key: "shape"
    value {
      shape {
        dim {
          size: 7168
        }
        dim {
          size: 4096
        }
        dim {
          size: 1
        }
        dim {
          size: 1
        }
        dim {
          size: 1
        }
      }
    }
  }
  attr {
    key: "synDataType"
    value {
      s: "hfloat8"
    }
  }
}
node {
  name: "module/model/31/gate_proj/fp8_gemm_bf16/13315_complex/fp8_gemm_bf16_2565/expand_dims_6"
  op: "ExpandDims"
  input: "tensor_21_odule/model/31/gate_proj/placeholder/1"
  attr {
    key: "Bundle_idx"
    value {
      s: "N/A"
    }
  }
  attr {
    key: "Exec_idx"
    value {
      s: "1"
    }
  }
  attr {
    key: "Op_idx"
    value {
      s: "N/A"
    }
  }
  attr {
    key: "inputTensor:0"
    value {
      s: "tensor_21_odule/model/31/gate_proj/placeholder/1  |  Sizes = [4096,7168]  |  hfloat8  |  expBias = 7, scale = 1  |    |  ModelParam = 0  |  strides = [29360128, 7168, 1]  |  data = 0, sizeInBytes = 29360128  |  isPersistent  |  location = in DRAM  |  dramOffset = 0xc0000000000  |  userMemorySection(type=Persistent, id=12)  |  "
    }
  }
  attr {
    key: "outputTensor:0"
    value {
      s: "hf8-7_185537  |  Sizes = [1,4096,7168]  |  hfloat8  |  expBias = 7, scale = 1  |    |  ModelParam = 0  |  strides = [29360128, 29360128, 7168, 1]  |  data = 0, sizeInBytes = 29360128  |  isAliased = tensor_21_odule/model/31/gate_proj/placeholder/1, type = alias, offset: 0  |  location = in DRAM  |  "
    }
  }
}
node {
  name: "tensor_0_odule/model/31/placeholder/0"
  op: "Placeholder"
  attr {
    key: "dtype"
    value {
      type: DT_BFLOAT16
    }
  }
  attr {
    key: "shape"
    value {
      shape {
        dim {
          size: 4096
        }
        dim {
          size: 32
        }
        dim {
          size: 1
        }
        dim {
          size: 1
        }
        dim {
          size: 1
        }
      }
    }
  }
  attr {
    key: "synDataType"
    value {
      s: "bf16"
    }
  }
}
node {
  name: "tensor_1_odule/model/31/placeholder/1"
  op: "Placeholder"
  attr {
    key: "dtype"
    value {
      type: DT_BFLOAT16
    }
  }
  attr {
    key: "shape"
    value {
      shape {
        dim {
          size: 4096
        }
        dim {
          size: 32
        }
        dim {
          size: 1
        }
        dim {
          size: 1
        }
        dim {
          size: 1
        }
      }
    }
  }
  attr {
    key: "synDataType"
    value {
      s: "bf16"
    }
  }
}
node {
  name: "module/model/31/add_fwd_bf16/13310_complex/add_fwd_bf16_0_bundle_962/op_0"
  op: "add_fwd_bf16"
  input: "tensor_0_odule/model/31/placeholder/0"
  input: "tensor_1_odule/model/31/placeholder/1"
  attr {
    key: "Bundle_idx"
    value {
      s: "962"
    }
  }
  attr {
    key: "Exec_idx"
    value {
      s: "2"
    }
  }
  attr {
    key: "Op_idx"
    value {
      s: "0"
    }
  }
  attr {
    key: "inputTensor:0"
    value {
      s: "tensor_0_odule/model/31/placeholder/0  |  Sizes = [1,32,4096]  |  bf16  |  expBias = 0, scale = 1  |    |  ModelParam = 0  |  strides = [262144, 262144, 8192, 2]  |  data = 0, sizeInBytes = 262144  |  isPersistent  |  location = in DRAM  |  dramOffset = 0x40000000000  |  userMemorySection(type=Persistent, id=4)  |  "
    }
  }
  attr {
    key: "inputTensor:1"
    value {
      s: "tensor_1_odule/model/31/placeholder/1  |  Sizes = [1,32,4096]  |  bf16  |  expBias = 0, scale = 1  |    |  ModelParam = 0  |  strides = [262144, 262144, 8192, 2]  |  data = 0, sizeInBytes = 262144  |  isPersistent  |  location = in DRAM  |  dramOffset = 0x50000000000  |  userMemorySection(type=Persistent, id=5)  |  "
    }
  }
  attr {
    key: "outputTensor:0"
    value {
      s: "tensor_2_slice_0_0_0_0_0__0__bundle_962_185740  |  Sizes = [1,32,4096]  |  bf16  |  expBias = 0, scale = 1  |    |  ModelParam = 0  |  strides = [262144, 262144, 8192, 2]  |  data = 0, sizeInBytes = 262144  |  location = in SRAM  |  sramOffset = 0x1000fffffd050000  |  "
    }
  }
}
node {
  name: "module/model/31/post_attention_layernorm/rms_norm_ex_fwd_bf16/13311_complex/rms_norm_ex_fwd_bf16_647/reshape_4_bundle_962/op_1"
  op: "Reshape"
  input: "module/model/31/add_fwd_bf16/13310_complex/add_fwd_bf16_0_bundle_962/op_0"
  attr {
    key: "Bundle_idx"
    value {
      s: "962"
    }
  }
  attr {
    key: "Exec_idx"
    value {
      s: "3"
    }
  }
  attr {
    key: "Op_idx"
    value {
      s: "1"
    }
  }
  attr {
    key: "inputTensor:0"
    value {
      s: "tensor_2_slice_0_0_0_0_0__0__bundle_962_185740  |  Sizes = [1,32,4096]  |  bf16  |  expBias = 0, scale = 1  |    |  ModelParam = 0  |  strides = [262144, 262144, 8192, 2]  |  data = 0, sizeInBytes = 262144  |  location = in SRAM  |  sramOffset = 0x1000fffffd050000  |  "
    }
  }
  attr {
    key: "outputTensor:0"
    value {
      s: "bf16-5_185527_slice_0_0_0_0_0__0__bundle_962_185741  |  Sizes = [32,4096]  |  bf16  |  expBias = 0, scale = 1  |    |  ModelParam = 0  |  strides = [262144, 8192, 2]  |  data = 0, sizeInBytes = 262144  |  isAliased = tensor_2_slice_0_0_0_0_0__0__bundle_962_185740, type = alias, offset: 0  |  location = in SRAM  |  sramOffset = 0x1000fffffd050000  |  "
    }
  }
}
node {
  name: "tensor_3_odule/model/31/post_attention_layernorm/placeholder/1"
  op: "Placeholder"
  attr {
    key: "dtype"
    value {
      type: DT_BFLOAT16
    }
  }
  attr {
    key: "shape"
    value {
      shape {
        dim {
          size: 4096
        }
        dim {
          size: 1
        }
        dim {
          size: 1
        }
        dim {
          size: 1
        }
        dim {
          size: 1
        }
      }
    }
  }
  attr {
    key: "synDataType"
    value {
      s: "bf16"
    }
  }
}
node {
  name: "module/model/31/post_attention_layernorm/rms_norm_ex_fwd_bf16/13311_complex/rms_norm_ex_fwd_bf16_647/rms_norm_fwd_bf16_6_bundle_962/op_2"
  op: "rms_norm_fwd_bf16"
  input: "module/model/31/post_attention_layernorm/rms_norm_ex_fwd_bf16/13311_complex/rms_norm_ex_fwd_bf16_647/reshape_4_bundle_962/op_1"
  input: "tensor_3_odule/model/31/post_attention_layernorm/placeholder/1"
  attr {
    key: "Bundle_idx"
    value {
      s: "962"
    }
  }
  attr {
    key: "Exec_idx"
    value {
      s: "4"
    }
  }
  attr {
    key: "Op_idx"
    value {
      s: "2"
    }
  }
  attr {
    key: "inputTensor:0"
    value {
      s: "bf16-5_185527_slice_0_0_0_0_0__0__bundle_962_185741  |  Sizes = [32,4096]  |  bf16  |  expBias = 0, scale = 1  |    |  ModelParam = 0  |  strides = [262144, 8192, 2]  |  data = 0, sizeInBytes = 262144  |  isAliased = tensor_2_slice_0_0_0_0_0__0__bundle_962_185740, type = alias, offset: 0  |  location = in SRAM  |  sramOffset = 0x1000fffffd050000  |  "
    }
  }
  attr {
    key: "inputTensor:1"
    value {
      s: "tensor_3_odule/model/31/post_attention_layernorm/placeholder/1  |  Sizes = [4096]  |  bf16  |  expBias = 0, scale = 1  |    |  ModelParam = 0  |  strides = [8192, 2]  |  data = 0, sizeInBytes = 8192  |  isPersistent  |  location = in DRAM  |  dramOffset = 0x60000000000  |  userMemorySection(type=Persistent, id=6)  |  "
    }
  }
  attr {
    key: "outputTensor:0"
    value {
      s: "bf16-7_185528_slice_0_0_0_0_0__0__bundle_962_185743  |  Sizes = [32,4096]  |  bf16  |  expBias = 0, scale = 1  |    |  ModelParam = 0  |  strides = [262144, 8192, 2]  |  data = 0, sizeInBytes = 262144  |  isAliased = tensor-185718_slice_0_0_0_0_0__0__bundle_962_185745, type = alias, offset: 0  |  location = in SRAM  |  sramOffset = 0x1000fffffd090000  |  "
    }
  }
  attr {
    key: "outputTensor:1"
    value {
      s: "f32-8_185529  |  Sizes = [32,1]  |  float32  |  expBias = 0, scale = 1  |    |  ModelParam = 0  |  strides = [128, 4, 4]  |  data = 0, sizeInBytes = 128  |  location = in DRAM  |  dramOffset = 0x140000000000  |  "
    }
  }
}
node {
  name: "f32-8_185529"
  op: "OutputTensor"
  input: "module/model/31/post_attention_layernorm/rms_norm_ex_fwd_bf16/13311_complex/rms_norm_ex_fwd_bf16_647/rms_norm_fwd_bf16_6_bundle_962/op_2"
  attr {
    key: "dtype"
    value {
      type: DT_FLOAT
    }
  }
  attr {
    key: "shape"
    value {
      shape {
        dim {
          size: 1
        }
        dim {
          size: 32
        }
        dim {
          size: 1
        }
        dim {
          size: 1
        }
        dim {
          size: 1
        }
      }
    }
  }
  attr {
    key: "synDataType"
    value {
      s: "float32"
    }
  }
}
node {
  name: "reshape_0_0_bundle_962/op_3"
  op: "Reshape"
  input: "module/model/31/post_attention_layernorm/rms_norm_ex_fwd_bf16/13311_complex/rms_norm_ex_fwd_bf16_647/rms_norm_fwd_bf16_6_bundle_962/op_2"
  attr {
    key: "Bundle_idx"
    value {
      s: "962"
    }
  }
  attr {
    key: "Exec_idx"
    value {
      s: "5"
    }
  }
  attr {
    key: "Op_idx"
    value {
      s: "3"
    }
  }
  attr {
    key: "inputTensor:0"
    value {
      s: "bf16-7_185528_slice_0_0_0_0_0__0__bundle_962_185743  |  Sizes = [32,4096]  |  bf16  |  expBias = 0, scale = 1  |    |  ModelParam = 0  |  strides = [262144, 8192, 2]  |  data = 0, sizeInBytes = 262144  |  isAliased = tensor-185718_slice_0_0_0_0_0__0__bundle_962_185745, type = alias, offset: 0  |  location = in SRAM  |  sramOffset = 0x1000fffffd090000  |  "
    }
  }
  attr {
    key: "outputTensor:0"
    value {
      s: "tensor-185718_slice_0_0_0_0_0__0__bundle_962_185745  |  Sizes = [1,32,4096]  |  bf16  |  expBias = 0, scale = 1  |    |  ModelParam = 0  |  strides = [262144, 262144, 8192, 2]  |  data = 0, sizeInBytes = 262144  |  location = in SRAM  |  sramOffset = 0x1000fffffd090000  |  "
    }
  }
}
node {
  name: "fusedTPCNode_337_0_bundle_962/op_4"
  op: "fused_kernel_0x35C5D2AD_3D1_hf8"
  input: "reshape_0_0_bundle_962/op_3"
  attr {
    key: "Bundle_idx"
    value {
      s: "962"
    }
  }
  attr {
    key: "Exec_idx"
    value {
      s: "6"
    }
  }
  attr {
    key: "Op_idx"
    value {
      s: "4"
    }
  }
  attr {
    key: "inputTensor:0"
    value {
      s: "tensor-185718_slice_0_0_0_0_0__0__bundle_962_185745  |  Sizes = [1,32,4096]  |  bf16  |  expBias = 0, scale = 1  |    |  ModelParam = 0  |  strides = [262144, 262144, 8192, 2]  |  data = 0, sizeInBytes = 262144  |  location = in SRAM  |  sramOffset = 0x1000fffffd090000  |  "
    }
  }
  attr {
    key: "outputTensor:0"
    value {
      s: "tensor_11_slice_0_0_0_0_0__0__bundle_962_185746  |  Sizes = [1,32,4096]  |  hfloat8  |  expBias = 7, scale = 1  |    |  ModelParam = 0  |  strides = [131072, 131072, 4096, 1]  |  data = 0, sizeInBytes = 131072  |  location = in SRAM  |  sramOffset = 0x1000fffffd0d0000  |  "
    }
  }
}
node {
  name: "module/model/31/up_proj/fp8_gemm_bf16/13313_complex/fp8_gemm_bf16_2563/batch_gemm_8_bundle_962/op_5_gemm"
  op: "GEMM"
  input: "fusedTPCNode_337_0_bundle_962/op_4"
  input: "module/model/31/up_proj/fp8_gemm_bf16/13313_complex/fp8_gemm_bf16_2563/expand_dims_6"
  attr {
    key: "Bundle_idx"
    value {
      s: "962"
    }
  }
  attr {
    key: "Exec_idx"
    value {
      s: "7"
    }
  }
  attr {
    key: "Op_idx"
    value {
      s: "5"
    }
  }
  attr {
    key: "Parameters"
    value {
      s: "transpose_a=false, transpose_b=false"
    }
  }
  attr {
    key: "fp8BiasIn"
    value {
      s: "7"
    }
  }
  attr {
    key: "fp8BiasIn2"
    value {
      s: "15"
    }
  }
  attr {
    key: "fp8BiasOut"
    value {
      s: "0"
    }
  }
  attr {
    key: "inputTensor:0"
    value {
      s: "tensor_11_slice_0_0_0_0_0__0__bundle_962_185746  |  Sizes = [1,32,4096]  |  hfloat8  |  expBias = 7, scale = 1  |    |  ModelParam = 0  |  strides = [131072, 131072, 4096, 1]  |  data = 0, sizeInBytes = 131072  |  location = in SRAM  |  sramOffset = 0x1000fffffd0d0000  |  "
    }
  }
  attr {
    key: "inputTensor:1"
    value {
      s: "hf8-7_185533  |  Sizes = [1,4096,7168]  |  hfloat8  |  expBias = 7, scale = 1  |    |  ModelParam = 0  |  strides = [29360128, 29360128, 7168, 1]  |  data = 0, sizeInBytes = 29360128  |  isAliased = tensor_12_odule/model/31/up_proj/placeholder/1, type = alias, offset: 0  |  location = in DRAM  |  "
    }
  }
  attr {
    key: "outputTensor:0"
    value {
      s: "tensor_16  |  Sizes = [1,32,7168]  |  bf16  |  expBias = 0, scale = 1  |    |  ModelParam = 0  |  strides = [458752, 458752, 14336, 2]  |  data = 0, sizeInBytes = 458752  |  location = in DRAM  |  dramOffset = 0x0  |  "
    }
  }
}
node {
  name: "module/model/31/gate_proj/fp8_gemm_bf16/13315_complex/fp8_gemm_bf16_2565/batch_gemm_8_bundle_962/op_6_gemm"
  op: "GEMM"
  input: "fusedTPCNode_337_0_bundle_962/op_4"
  input: "module/model/31/gate_proj/fp8_gemm_bf16/13315_complex/fp8_gemm_bf16_2565/expand_dims_6"
  attr {
    key: "Bundle_idx"
    value {
      s: "962"
    }
  }
  attr {
    key: "Exec_idx"
    value {
      s: "8"
    }
  }
  attr {
    key: "Op_idx"
    value {
      s: "6"
    }
  }
  attr {
    key: "Parameters"
    value {
      s: "transpose_a=false, transpose_b=false"
    }
  }
  attr {
    key: "fp8BiasIn"
    value {
      s: "7"
    }
  }
  attr {
    key: "fp8BiasIn2"
    value {
      s: "11"
    }
  }
  attr {
    key: "fp8BiasOut"
    value {
      s: "0"
    }
  }
  attr {
    key: "inputTensor:0"
    value {
      s: "tensor_11_slice_0_0_0_0_0__0__bundle_962_185746  |  Sizes = [1,32,4096]  |  hfloat8  |  expBias = 7, scale = 1  |    |  ModelParam = 0  |  strides = [131072, 131072, 4096, 1]  |  data = 0, sizeInBytes = 131072  |  location = in SRAM  |  sramOffset = 0x1000fffffd0d0000  |  "
    }
  }
  attr {
    key: "inputTensor:1"
    value {
      s: "hf8-7_185537  |  Sizes = [1,4096,7168]  |  hfloat8  |  expBias = 7, scale = 1  |    |  ModelParam = 0  |  strides = [29360128, 29360128, 7168, 1]  |  data = 0, sizeInBytes = 29360128  |  isAliased = tensor_21_odule/model/31/gate_proj/placeholder/1, type = alias, offset: 0  |  location = in DRAM  |  "
    }
  }
  attr {
    key: "outputTensor:0"
    value {
      s: "tensor_25  |  Sizes = [1,32,7168]  |  bf16  |  expBias = 0, scale = 1  |    |  ModelParam = 0  |  strides = [458752, 458752, 14336, 2]  |  data = 0, sizeInBytes = 458752  |  location = in DRAM  |  dramOffset = 0x70000  |  "
    }
  }
}
node {
  name: "tensor_2_bundle_962/memcpy/0"
  op: "DmaMemcpy"
  input: "module/model/31/add_fwd_bf16/13310_complex/add_fwd_bf16_0_bundle_962/op_0"
  input: "^module/model/31/add_fwd_bf16/13310_complex/add_fwd_bf16_0_bundle_962/op_0"
  attr {
    key: "Bundle_idx"
    value {
      s: "962"
    }
  }
  attr {
    key: "Exec_idx"
    value {
      s: "9"
    }
  }
  attr {
    key: "Op_idx"
    value {
      s: "7"
    }
  }
  attr {
    key: "inputTensor:0"
    value {
      s: "tensor_2_slice_0_0_0_0_0__0__bundle_962_185740  |  Sizes = [1,32,4096]  |  bf16  |  expBias = 0, scale = 1  |    |  ModelParam = 0  |  strides = [262144, 262144, 8192, 2]  |  data = 0, sizeInBytes = 262144  |  location = in SRAM  |  sramOffset = 0x1000fffffd050000  |  "
    }
  }
  attr {
    key: "outputTensor:0"
    value {
      s: "tensor_2  |  Sizes = [1,32,4096]  |  bf16  |  expBias = 0, scale = 1  |    |  ModelParam = 0  |  strides = [262144, 262144, 8192, 2]  |  data = 0, sizeInBytes = 262144  |  isPersistent  |  location = in DRAM  |  dramOffset = 0x40000000000  |  userMemorySection(type=Persistent, id=4)  |  "
    }
  }
}
node {
  name: "tensor_2"
  op: "OutputTensor"
  input: "tensor_2_bundle_962/memcpy/0"
  attr {
    key: "dtype"
    value {
      type: DT_BFLOAT16
    }
  }
  attr {
    key: "shape"
    value {
      shape {
        dim {
          size: 4096
        }
        dim {
          size: 32
        }
        dim {
          size: 1
        }
        dim {
          size: 1
        }
        dim {
          size: 1
        }
      }
    }
  }
  attr {
    key: "synDataType"
    value {
      s: "bf16"
    }
  }
}
node {
  name: "tensor_32_odule/model/31/down_proj/placeholder/1"
  op: "Placeholder"
  attr {
    key: "dtype"
    value {
      type: DT_INVALID
    }
  }
  attr {
    key: "shape"
    value {
      shape {
        dim {
          size: 4096
        }
        dim {
          size: 7168
        }
        dim {
          size: 1
        }
        dim {
          size: 1
        }
        dim {
          size: 1
        }
      }
    }
  }
  attr {
    key: "synDataType"
    value {
      s: "hfloat8"
    }
  }
}
node {
  name: "module/model/31/down_proj/fp8_gemm_bf16/13319_complex/fp8_gemm_bf16_2567/expand_dims_6"
  op: "ExpandDims"
  input: "tensor_32_odule/model/31/down_proj/placeholder/1"
  attr {
    key: "Bundle_idx"
    value {
      s: "N/A"
    }
  }
  attr {
    key: "Exec_idx"
    value {
      s: "10"
    }
  }
  attr {
    key: "Op_idx"
    value {
      s: "N/A"
    }
  }
  attr {
    key: "inputTensor:0"
    value {
      s: "tensor_32_odule/model/31/down_proj/placeholder/1  |  Sizes = [7168,4096]  |  hfloat8  |  expBias = 7, scale = 1  |    |  ModelParam = 0  |  strides = [29360128, 4096, 1]  |  data = 0, sizeInBytes = 29360128  |  isPersistent  |  location = in DRAM  |  dramOffset = 0x100000000000  |  userMemorySection(type=Persistent, id=16)  |  "
    }
  }
  attr {
    key: "outputTensor:0"
    value {
      s: "hf8-7_185546  |  Sizes = [1,7168,4096]  |  hfloat8  |  expBias = 7, scale = 1  |    |  ModelParam = 0  |  strides = [29360128, 29360128, 4096, 1]  |  data = 0, sizeInBytes = 29360128  |  isAliased = tensor_32_odule/model/31/down_proj/placeholder/1, type = alias, offset: 0  |  location = in DRAM  |  "
    }
  }
}
node {
  name: "fusedTPCNode_337_1_bundle_963/op_0"
  op: "fused_kernel_0x3CE8D82C_3D2_bf16"
  input: "module/model/31/gate_proj/fp8_gemm_bf16/13315_complex/fp8_gemm_bf16_2565/batch_gemm_8_bundle_962/op_6_gemm"
  input: "module/model/31/up_proj/fp8_gemm_bf16/13313_complex/fp8_gemm_bf16_2563/batch_gemm_8_bundle_962/op_5_gemm"
  attr {
    key: "Bundle_idx"
    value {
      s: "963"
    }
  }
  attr {
    key: "Exec_idx"
    value {
      s: "11"
    }
  }
  attr {
    key: "Op_idx"
    value {
      s: "0"
    }
  }
  attr {
    key: "inputTensor:0"
    value {
      s: "tensor_25  |  Sizes = [1,32,7168]  |  bf16  |  expBias = 0, scale = 1  |    |  ModelParam = 0  |  strides = [458752, 458752, 14336, 2]  |  data = 0, sizeInBytes = 458752  |  location = in DRAM  |  dramOffset = 0x70000  |  "
    }
  }
  attr {
    key: "inputTensor:1"
    value {
      s: "tensor_16  |  Sizes = [1,32,7168]  |  bf16  |  expBias = 0, scale = 1  |    |  ModelParam = 0  |  strides = [458752, 458752, 14336, 2]  |  data = 0, sizeInBytes = 458752  |  location = in DRAM  |  dramOffset = 0x0  |  "
    }
  }
  attr {
    key: "outputTensor:0"
    value {
      s: "tensor_31_slice_0_0_0_0_0__0__bundle_963_185756  |  Sizes = [1,32,7168]  |  hfloat8  |  expBias = 7, scale = 1  |    |  ModelParam = 0  |  strides = [229376, 229376, 7168, 1]  |  data = 0, sizeInBytes = 229376  |  location = in SRAM  |  sramOffset = 0x1000fffffd0f0000  |  "
    }
  }
}
node {
  name: "module/model/31/down_proj/fp8_gemm_bf16/13319_complex/fp8_gemm_bf16_2567/batch_gemm_8_bundle_963/op_1_gemm"
  op: "GEMM"
  input: "fusedTPCNode_337_1_bundle_963/op_0"
  input: "module/model/31/down_proj/fp8_gemm_bf16/13319_complex/fp8_gemm_bf16_2567/expand_dims_6"
  attr {
    key: "Bundle_idx"
    value {
      s: "963"
    }
  }
  attr {
    key: "Exec_idx"
    value {
      s: "12"
    }
  }
  attr {
    key: "Op_idx"
    value {
      s: "1"
    }
  }
  attr {
    key: "Parameters"
    value {
      s: "transpose_a=false, transpose_b=false"
    }
  }
  attr {
    key: "fp8BiasIn"
    value {
      s: "3"
    }
  }
  attr {
    key: "fp8BiasIn2"
    value {
      s: "11"
    }
  }
  attr {
    key: "fp8BiasOut"
    value {
      s: "0"
    }
  }
  attr {
    key: "inputTensor:0"
    value {
      s: "tensor_31_slice_0_0_0_0_0__0__bundle_963_185756  |  Sizes = [1,32,7168]  |  hfloat8  |  expBias = 7, scale = 1  |    |  ModelParam = 0  |  strides = [229376, 229376, 7168, 1]  |  data = 0, sizeInBytes = 229376  |  location = in SRAM  |  sramOffset = 0x1000fffffd0f0000  |  "
    }
  }
  attr {
    key: "inputTensor:1"
    value {
      s: "hf8-7_185546  |  Sizes = [1,7168,4096]  |  hfloat8  |  expBias = 7, scale = 1  |    |  ModelParam = 0  |  strides = [29360128, 29360128, 4096, 1]  |  data = 0, sizeInBytes = 29360128  |  isAliased = tensor_32_odule/model/31/down_proj/placeholder/1, type = alias, offset: 0  |  location = in DRAM  |  "
    }
  }
  attr {
    key: "outputTensor:0"
    value {
      s: "tensor_36  |  Sizes = [1,32,4096]  |  bf16  |  expBias = 0, scale = 1  |    |  ModelParam = 0  |  strides = [262144, 262144, 8192, 2]  |  data = 0, sizeInBytes = 262144  |  isPersistent  |  location = in DRAM  |  dramOffset = 0x140000000000  |  userMemorySection(type=Persistent, id=20)  |  "
    }
  }
}
node {
  name: "tensor_36"
  op: "OutputTensor"
  input: "module/model/31/down_proj/fp8_gemm_bf16/13319_complex/fp8_gemm_bf16_2567/batch_gemm_8_bundle_963/op_1_gemm"
  attr {
    key: "dtype"
    value {
      type: DT_BFLOAT16
    }
  }
  attr {
    key: "shape"
    value {
      shape {
        dim {
          size: 4096
        }
        dim {
          size: 32
        }
        dim {
          size: 1
        }
        dim {
          size: 1
        }
        dim {
          size: 1
        }
      }
    }
  }
  attr {
    key: "synDataType"
    value {
      s: "bf16"
    }
  }
}
