node {
  name: "tensor_0_odule/model/0/placeholder/0"
  op: "Placeholder"
  attr {
    key: "dtype"
    value {
      type: DT_BFLOAT16
    }
  }
  attr {
    key: "shape"
    value {
      shape {
        dim {
          size: 4096
        }
        dim {
          size: 189
        }
        dim {
          size: 1
        }
        dim {
          size: 1
        }
        dim {
          size: 1
        }
      }
    }
  }
  attr {
    key: "synDataType"
    value {
      s: "bf16"
    }
  }
}
node {
  name: "module/model/0/add_fwd_bf16/4624_complex/add_fwd_bf16_0_reshape_TPC_out1"
  op: "StaticReshape"
  input: "tensor_0_odule/model/0/placeholder/0"
  attr {
    key: "Bundle_idx"
    value {
      s: "N/A"
    }
  }
  attr {
    key: "Exec_idx"
    value {
      s: "0"
    }
  }
  attr {
    key: "Op_idx"
    value {
      s: "N/A"
    }
  }
  attr {
    key: "inputTensor:0"
    value {
      s: "tensor_0_odule/model/0/placeholder/0  |  Sizes = [1,189,4096]  |  bf16  |  expBias = 0, scale = 1  |    |  ModelParam = 0  |  strides = [1548288, 1548288, 8192, 2]  |  data = 0, sizeInBytes = 1548288  |  isPersistent  |  location = in DRAM  |  dramOffset = 0x40000000000  |  userMemorySection(type=Persistent, id=4)  |  "
    }
  }
  attr {
    key: "outputTensor:0"
    value {
      s: "_reshaped_43636  |  Sizes = [1,6048,128]  |  bf16  |  expBias = 0, scale = 1  |    |  ModelParam = 0  |  strides = [1548288, 1548288, 256, 2]  |  data = 0, sizeInBytes = 1548288  |  isAliased = tensor_0_odule/model/0/placeholder/0, type = alias, offset: 0  |  location = in DRAM  |  "
    }
  }
}
node {
  name: "tensor_1_odule/model/0/placeholder/1"
  op: "Placeholder"
  attr {
    key: "dtype"
    value {
      type: DT_BFLOAT16
    }
  }
  attr {
    key: "shape"
    value {
      shape {
        dim {
          size: 4096
        }
        dim {
          size: 189
        }
        dim {
          size: 1
        }
        dim {
          size: 1
        }
        dim {
          size: 1
        }
      }
    }
  }
  attr {
    key: "synDataType"
    value {
      s: "bf16"
    }
  }
}
node {
  name: "module/model/0/add_fwd_bf16/4624_complex/add_fwd_bf16_0_reshape_TPC_in1"
  op: "StaticReshape"
  input: "tensor_1_odule/model/0/placeholder/1"
  attr {
    key: "Bundle_idx"
    value {
      s: "N/A"
    }
  }
  attr {
    key: "Exec_idx"
    value {
      s: "1"
    }
  }
  attr {
    key: "Op_idx"
    value {
      s: "N/A"
    }
  }
  attr {
    key: "inputTensor:0"
    value {
      s: "tensor_1_odule/model/0/placeholder/1  |  Sizes = [1,189,4096]  |  bf16  |  expBias = 0, scale = 1  |    |  ModelParam = 0  |  strides = [1548288, 1548288, 8192, 2]  |  data = 0, sizeInBytes = 1548288  |  isPersistent  |  location = in DRAM  |  dramOffset = 0x50000000000  |  userMemorySection(type=Persistent, id=5)  |  "
    }
  }
  attr {
    key: "outputTensor:0"
    value {
      s: "_reshaped_43637  |  Sizes = [1,6048,128]  |  bf16  |  expBias = 0, scale = 1  |    |  ModelParam = 0  |  strides = [1548288, 1548288, 256, 2]  |  data = 0, sizeInBytes = 1548288  |  isAliased = tensor_1_odule/model/0/placeholder/1, type = alias, offset: 0  |  location = in DRAM  |  "
    }
  }
}
node {
  name: "module/model/0/add_fwd_bf16/4624_complex/add_fwd_bf16_0_optimized"
  op: "add_fwd_bf16"
  input: "module/model/0/add_fwd_bf16/4624_complex/add_fwd_bf16_0_reshape_TPC_out1"
  input: "module/model/0/add_fwd_bf16/4624_complex/add_fwd_bf16_0_reshape_TPC_in1"
  attr {
    key: "Bundle_idx"
    value {
      s: "N/A"
    }
  }
  attr {
    key: "Exec_idx"
    value {
      s: "2"
    }
  }
  attr {
    key: "Op_idx"
    value {
      s: "N/A"
    }
  }
  attr {
    key: "inputTensor:0"
    value {
      s: "_reshaped_43636  |  Sizes = [1,6048,128]  |  bf16  |  expBias = 0, scale = 1  |    |  ModelParam = 0  |  strides = [1548288, 1548288, 256, 2]  |  data = 0, sizeInBytes = 1548288  |  isAliased = tensor_0_odule/model/0/placeholder/0, type = alias, offset: 0  |  location = in DRAM  |  "
    }
  }
  attr {
    key: "inputTensor:1"
    value {
      s: "_reshaped_43637  |  Sizes = [1,6048,128]  |  bf16  |  expBias = 0, scale = 1  |    |  ModelParam = 0  |  strides = [1548288, 1548288, 256, 2]  |  data = 0, sizeInBytes = 1548288  |  isAliased = tensor_1_odule/model/0/placeholder/1, type = alias, offset: 0  |  location = in DRAM  |  "
    }
  }
  attr {
    key: "outputTensor:0"
    value {
      s: "_reshaped_43640  |  Sizes = [1,6048,128]  |  bf16  |  expBias = 0, scale = 1  |    |  ModelParam = 0  |  strides = [1548288, 1548288, 256, 2]  |  data = 0, sizeInBytes = 1548288  |  isAliased = tensor_2, type = alias, offset: 0  |  location = in DRAM  |  "
    }
  }
}
node {
  name: "module/model/0/add_fwd_bf16/4624_complex/add_fwd_bf16_0_reshape_TPC_out0"
  op: "StaticReshape"
  input: "module/model/0/add_fwd_bf16/4624_complex/add_fwd_bf16_0_optimized"
  input: "^module/model/0/add_fwd_bf16/4624_complex/add_fwd_bf16_0_reshape_TPC_out1"
  attr {
    key: "Bundle_idx"
    value {
      s: "N/A"
    }
  }
  attr {
    key: "Exec_idx"
    value {
      s: "3"
    }
  }
  attr {
    key: "Op_idx"
    value {
      s: "N/A"
    }
  }
  attr {
    key: "inputTensor:0"
    value {
      s: "_reshaped_43640  |  Sizes = [1,6048,128]  |  bf16  |  expBias = 0, scale = 1  |    |  ModelParam = 0  |  strides = [1548288, 1548288, 256, 2]  |  data = 0, sizeInBytes = 1548288  |  isAliased = tensor_2, type = alias, offset: 0  |  location = in DRAM  |  "
    }
  }
  attr {
    key: "outputTensor:0"
    value {
      s: "tensor_2  |  Sizes = [1,189,4096]  |  bf16  |  expBias = 0, scale = 1  |    |  ModelParam = 0  |  strides = [1548288, 1548288, 8192, 2]  |  data = 0, sizeInBytes = 1548288  |  isPersistent  |  location = in DRAM  |  dramOffset = 0x40000000000  |  userMemorySection(type=Persistent, id=4)  |  "
    }
  }
}
node {
  name: "tensor_7_odule/model/1/placeholder/0"
  op: "Placeholder"
  attr {
    key: "dtype"
    value {
      type: DT_INT32
    }
  }
  attr {
    key: "shape"
    value {
      shape {
        dim {
          size: 189
        }
        dim {
          size: 1
        }
        dim {
          size: 1
        }
        dim {
          size: 1
        }
        dim {
          size: 1
        }
      }
    }
  }
  attr {
    key: "synDataType"
    value {
      s: "int32"
    }
  }
}
node {
  name: "module/model/1/expand_dims/4626"
  op: "ExpandDims"
  input: "tensor_7_odule/model/1/placeholder/0"
  attr {
    key: "Bundle_idx"
    value {
      s: "N/A"
    }
  }
  attr {
    key: "Exec_idx"
    value {
      s: "4"
    }
  }
  attr {
    key: "Op_idx"
    value {
      s: "N/A"
    }
  }
  attr {
    key: "inputTensor:0"
    value {
      s: "tensor_7_odule/model/1/placeholder/0  |  Sizes = [189]  |  int32  |  expBias = 0, scale = 1  |    |  ModelParam = 0  |  strides = [756, 4]  |  data = 0, sizeInBytes = 756  |  isPersistent  |  location = in DRAM  |  dramOffset = 0x70000000000  |  userMemorySection(type=Persistent, id=7)  |  "
    }
  }
  attr {
    key: "outputTensor:0"
    value {
      s: "tensor_8_id_48224_module/model/1/aten__unsqueeze/1  |  Sizes = [1,189]  |  int32  |  expBias = 0, scale = 1  |    |  ModelParam = 0  |  strides = [756, 756, 4]  |  data = 0, sizeInBytes = 756  |  isAliased = tensor_7_odule/model/1/placeholder/0, type = alias, offset: 0  |  location = in DRAM  |  "
    }
  }
}
node {
  name: "tensor_9_odule/model/1/rotary_emb/placeholder/0"
  op: "Placeholder"
  attr {
    key: "dtype"
    value {
      type: DT_BFLOAT16
    }
  }
  attr {
    key: "shape"
    value {
      shape {
        dim {
          size: 128
        }
        dim {
          size: 131072
        }
        dim {
          size: 1
        }
        dim {
          size: 1
        }
        dim {
          size: 1
        }
      }
    }
  }
  attr {
    key: "synDataType"
    value {
      s: "bf16"
    }
  }
}
node {
  name: "module/model/1/rotary_emb/slice/4627"
  op: "Slice"
  input: "tensor_9_odule/model/1/rotary_emb/placeholder/0"
  attr {
    key: "Bundle_idx"
    value {
      s: "N/A"
    }
  }
  attr {
    key: "Exec_idx"
    value {
      s: "5"
    }
  }
  attr {
    key: "Op_idx"
    value {
      s: "N/A"
    }
  }
  attr {
    key: "inputTensor:0"
    value {
      s: "tensor_9_odule/model/1/rotary_emb/placeholder/0  |  Sizes = [131072,128]  |  bf16  |  expBias = 0, scale = 1  |    |  ModelParam = 0  |  strides = [33554432, 256, 2]  |  data = 0, sizeInBytes = 33554432  |  isPersistent  |  location = in DRAM  |  dramOffset = 0x80000000000  |  userMemorySection(type=Persistent, id=8)  |  "
    }
  }
  attr {
    key: "outputTensor:0"
    value {
      s: "tensor_10_id_48342_module/model/1/rotary_emb/aten__slice  |  Sizes = [189,128]  |  bf16  |  expBias = 0, scale = 1  |    |  ModelParam = 0  |  strides = [33554432, 256, 2]  |  data = 0, sizeInBytes = 48384  |  isAliased = tensor_9_odule/model/1/rotary_emb/placeholder/0, type = slice, offset: 0  |  location = in DRAM  |  "
    }
  }
}
node {
  name: "tensor_11_odule/model/1/rotary_emb/placeholder/1"
  op: "Placeholder"
  attr {
    key: "dtype"
    value {
      type: DT_FLOAT
    }
  }
  attr {
    key: "shape"
    value {
      shape {
        dim {
          size: 1
        }
        dim {
          size: 1
        }
        dim {
          size: 1
        }
        dim {
          size: 1
        }
        dim {
          size: 1
        }
      }
    }
  }
  attr {
    key: "synDataType"
    value {
      s: "float32"
    }
  }
}
node {
  name: "module/model/1/rotary_emb/cast_f32_to_bf16/4628"
  op: "cast_f32_to_bf16"
  input: "tensor_11_odule/model/1/rotary_emb/placeholder/1"
  attr {
    key: "Bundle_idx"
    value {
      s: "N/A"
    }
  }
  attr {
    key: "Exec_idx"
    value {
      s: "6"
    }
  }
  attr {
    key: "Op_idx"
    value {
      s: "N/A"
    }
  }
  attr {
    key: "inputTensor:0"
    value {
      s: "tensor_11_odule/model/1/rotary_emb/placeholder/1  |  Sizes = [1]  |  float32  |  expBias = 0, scale = 1  |    |  ModelParam = 0  |  strides = [4, 4]  |  data = 0, sizeInBytes = 4  |  isPersistent  |  location = in DRAM  |  dramOffset = 0x90000000000  |  userMemorySection(type=Persistent, id=9)  |  "
    }
  }
  attr {
    key: "outputTensor:0"
    value {
      s: "tensor_13  |  Sizes = [1]  |  bf16  |  expBias = 0, scale = 1  |    |  ModelParam = 0  |  strides = [2, 2]  |  data = 0, sizeInBytes = 2  |  location = in DRAM  |  dramOffset = 0x60000000000  |  "
    }
  }
}
node {
  name: "module/model/1/rotary_emb/mult_fwd_bf16/4629_complex/mult_fwd_bf16_0"
  op: "mult_fwd_bf16"
  input: "module/model/1/rotary_emb/slice/4627"
  input: "module/model/1/rotary_emb/cast_f32_to_bf16/4628"
  attr {
    key: "Bundle_idx"
    value {
      s: "N/A"
    }
  }
  attr {
    key: "Exec_idx"
    value {
      s: "7"
    }
  }
  attr {
    key: "Op_idx"
    value {
      s: "N/A"
    }
  }
  attr {
    key: "inputTensor:0"
    value {
      s: "tensor_10_id_48342_module/model/1/rotary_emb/aten__slice  |  Sizes = [189,128]  |  bf16  |  expBias = 0, scale = 1  |    |  ModelParam = 0  |  strides = [33554432, 256, 2]  |  data = 0, sizeInBytes = 48384  |  isAliased = tensor_9_odule/model/1/rotary_emb/placeholder/0, type = slice, offset: 0  |  location = in DRAM  |  "
    }
  }
  attr {
    key: "inputTensor:1"
    value {
      s: "tensor_13  |  Sizes = [1]  |  bf16  |  expBias = 0, scale = 1  |    |  ModelParam = 0  |  strides = [2, 2]  |  data = 0, sizeInBytes = 2  |  location = in DRAM  |  dramOffset = 0x60000000000  |  "
    }
  }
  attr {
    key: "outputTensor:0"
    value {
      s: "tensor_12_id_48344_module/model/1/rotary_emb/aten__mul  |  Sizes = [189,128]  |  bf16  |  expBias = 0, scale = 1  |    |  ModelParam = 0  |  strides = [48384, 256, 2]  |  data = 0, sizeInBytes = 48384  |  location = in DRAM  |  dramOffset = 0x60000000080  |  "
    }
  }
}
node {
  name: "tensor_17_odule/model/1/rotary_emb/placeholder/0"
  op: "Placeholder"
  attr {
    key: "dtype"
    value {
      type: DT_BFLOAT16
    }
  }
  attr {
    key: "shape"
    value {
      shape {
        dim {
          size: 128
        }
        dim {
          size: 131072
        }
        dim {
          size: 1
        }
        dim {
          size: 1
        }
        dim {
          size: 1
        }
      }
    }
  }
  attr {
    key: "synDataType"
    value {
      s: "bf16"
    }
  }
}
node {
  name: "module/model/1/rotary_emb/slice/4633"
  op: "Slice"
  input: "tensor_17_odule/model/1/rotary_emb/placeholder/0"
  attr {
    key: "Bundle_idx"
    value {
      s: "N/A"
    }
  }
  attr {
    key: "Exec_idx"
    value {
      s: "8"
    }
  }
  attr {
    key: "Op_idx"
    value {
      s: "N/A"
    }
  }
  attr {
    key: "inputTensor:0"
    value {
      s: "tensor_17_odule/model/1/rotary_emb/placeholder/0  |  Sizes = [131072,128]  |  bf16  |  expBias = 0, scale = 1  |    |  ModelParam = 0  |  strides = [33554432, 256, 2]  |  data = 0, sizeInBytes = 33554432  |  isPersistent  |  location = in DRAM  |  dramOffset = 0xa0000000000  |  userMemorySection(type=Persistent, id=10)  |  "
    }
  }
  attr {
    key: "outputTensor:0"
    value {
      s: "tensor_18_id_48346_module/model/1/rotary_emb/aten__slice  |  Sizes = [189,128]  |  bf16  |  expBias = 0, scale = 1  |    |  ModelParam = 0  |  strides = [33554432, 256, 2]  |  data = 0, sizeInBytes = 48384  |  isAliased = tensor_17_odule/model/1/rotary_emb/placeholder/0, type = slice, offset: 0  |  location = in DRAM  |  "
    }
  }
}
node {
  name: "module/model/1/rotary_emb/mult_fwd_bf16/4635_complex/mult_fwd_bf16_0"
  op: "mult_fwd_bf16"
  input: "module/model/1/rotary_emb/slice/4633"
  input: "module/model/1/rotary_emb/cast_f32_to_bf16/4628"
  attr {
    key: "Bundle_idx"
    value {
      s: "N/A"
    }
  }
  attr {
    key: "Exec_idx"
    value {
      s: "9"
    }
  }
  attr {
    key: "Op_idx"
    value {
      s: "N/A"
    }
  }
  attr {
    key: "inputTensor:0"
    value {
      s: "tensor_18_id_48346_module/model/1/rotary_emb/aten__slice  |  Sizes = [189,128]  |  bf16  |  expBias = 0, scale = 1  |    |  ModelParam = 0  |  strides = [33554432, 256, 2]  |  data = 0, sizeInBytes = 48384  |  isAliased = tensor_17_odule/model/1/rotary_emb/placeholder/0, type = slice, offset: 0  |  location = in DRAM  |  "
    }
  }
  attr {
    key: "inputTensor:1"
    value {
      s: "tensor_13  |  Sizes = [1]  |  bf16  |  expBias = 0, scale = 1  |    |  ModelParam = 0  |  strides = [2, 2]  |  data = 0, sizeInBytes = 2  |  location = in DRAM  |  dramOffset = 0x60000000000  |  "
    }
  }
  attr {
    key: "outputTensor:0"
    value {
      s: "tensor_19_id_48348_module/model/1/rotary_emb/aten__mul  |  Sizes = [189,128]  |  bf16  |  expBias = 0, scale = 1  |    |  ModelParam = 0  |  strides = [48384, 256, 2]  |  data = 0, sizeInBytes = 48384  |  location = in DRAM  |  dramOffset = 0x130000000000  |  "
    }
  }
}
node {
  name: "module/model/1/input_layernorm/rms_norm_ex_fwd_bf16/4639_complex/rms_norm_ex_fwd_bf16_135/reshape_4"
  op: "Reshape"
  input: "module/model/0/add_fwd_bf16/4624_complex/add_fwd_bf16_0_reshape_TPC_out0"
  attr {
    key: "Bundle_idx"
    value {
      s: "N/A"
    }
  }
  attr {
    key: "Exec_idx"
    value {
      s: "10"
    }
  }
  attr {
    key: "Op_idx"
    value {
      s: "N/A"
    }
  }
  attr {
    key: "inputTensor:0"
    value {
      s: "tensor_2  |  Sizes = [1,189,4096]  |  bf16  |  expBias = 0, scale = 1  |    |  ModelParam = 0  |  strides = [1548288, 1548288, 8192, 2]  |  data = 0, sizeInBytes = 1548288  |  isPersistent  |  location = in DRAM  |  dramOffset = 0x40000000000  |  userMemorySection(type=Persistent, id=4)  |  "
    }
  }
  attr {
    key: "outputTensor:0"
    value {
      s: "bf16-5_43411  |  Sizes = [189,4096]  |  bf16  |  expBias = 0, scale = 1  |    |  ModelParam = 0  |  strides = [1548288, 8192, 2]  |  data = 0, sizeInBytes = 1548288  |  isAliased = tensor_2, type = alias, offset: 0  |  location = in DRAM  |  "
    }
  }
}
node {
  name: "tensor_33_odule/model/1/k_proj/placeholder/1"
  op: "Placeholder"
  attr {
    key: "dtype"
    value {
      type: DT_INVALID
    }
  }
  attr {
    key: "shape"
    value {
      shape {
        dim {
          size: 512
        }
        dim {
          size: 4096
        }
        dim {
          size: 1
        }
        dim {
          size: 1
        }
        dim {
          size: 1
        }
      }
    }
  }
  attr {
    key: "synDataType"
    value {
      s: "hfloat8"
    }
  }
}
node {
  name: "module/model/1/k_proj/fp8_gemm_bf16/4641_complex/fp8_gemm_bf16_531/expand_dims_6"
  op: "ExpandDims"
  input: "tensor_33_odule/model/1/k_proj/placeholder/1"
  attr {
    key: "Bundle_idx"
    value {
      s: "N/A"
    }
  }
  attr {
    key: "Exec_idx"
    value {
      s: "11"
    }
  }
  attr {
    key: "Op_idx"
    value {
      s: "N/A"
    }
  }
  attr {
    key: "inputTensor:0"
    value {
      s: "tensor_33_odule/model/1/k_proj/placeholder/1  |  Sizes = [4096,512]  |  hfloat8  |  expBias = 7, scale = 1  |    |  ModelParam = 0  |  strides = [2097152, 512, 1]  |  data = 0, sizeInBytes = 2097152  |  isPersistent  |  location = in DRAM  |  dramOffset = 0xd0000000000  |  userMemorySection(type=Persistent, id=13)  |  "
    }
  }
  attr {
    key: "outputTensor:0"
    value {
      s: "hf8-7_43417  |  Sizes = [1,4096,512]  |  hfloat8  |  expBias = 7, scale = 1  |    |  ModelParam = 0  |  strides = [2097152, 2097152, 512, 1]  |  data = 0, sizeInBytes = 2097152  |  isAliased = tensor_33_odule/model/1/k_proj/placeholder/1, type = alias, offset: 0  |  location = in DRAM  |  "
    }
  }
}
node {
  name: "module/model/1/rotary_pos_embedding_fwd_bf16/4644_complex/rotary_pos_embedding_fwd_bf16_66/gather_nd_mxnet_fwd_bf16_8"
  op: "gather_nd_mxnet_fwd_bf16"
  input: "module/model/1/rotary_emb/mult_fwd_bf16/4635_complex/mult_fwd_bf16_0"
  input: "module/model/1/expand_dims/4626"
  attr {
    key: "Bundle_idx"
    value {
      s: "N/A"
    }
  }
  attr {
    key: "Exec_idx"
    value {
      s: "12"
    }
  }
  attr {
    key: "Op_idx"
    value {
      s: "N/A"
    }
  }
  attr {
    key: "inputTensor:0"
    value {
      s: "tensor_19_id_48348_module/model/1/rotary_emb/aten__mul  |  Sizes = [189,128]  |  bf16  |  expBias = 0, scale = 1  |    |  ModelParam = 0  |  strides = [48384, 256, 2]  |  data = 0, sizeInBytes = 48384  |  location = in DRAM  |  dramOffset = 0x130000000000  |  "
    }
  }
  attr {
    key: "inputTensor:1"
    value {
      s: "tensor_8_id_48224_module/model/1/aten__unsqueeze/1  |  Sizes = [1,189]  |  int32  |  expBias = 0, scale = 1  |    |  ModelParam = 0  |  strides = [756, 756, 4]  |  data = 0, sizeInBytes = 756  |  isAliased = tensor_7_odule/model/1/placeholder/0, type = alias, offset: 0  |  location = in DRAM  |  "
    }
  }
  attr {
    key: "outputTensor:0"
    value {
      s: "bf16-9_43422  |  Sizes = [189,128]  |  bf16  |  expBias = 0, scale = 1  |    |  ModelParam = 0  |  strides = [48384, 256, 2]  |  data = 0, sizeInBytes = 48384  |  isAliased = bf16-13_43424, type = alias, offset: 0  |  location = in DRAM  |  "
    }
  }
}
node {
  name: "module/model/1/rotary_pos_embedding_fwd_bf16/4644_complex/rotary_pos_embedding_fwd_bf16_66/gather_nd_mxnet_fwd_bf16_10"
  op: "gather_nd_mxnet_fwd_bf16"
  input: "module/model/1/rotary_emb/mult_fwd_bf16/4629_complex/mult_fwd_bf16_0"
  input: "module/model/1/expand_dims/4626"
  attr {
    key: "Bundle_idx"
    value {
      s: "N/A"
    }
  }
  attr {
    key: "Exec_idx"
    value {
      s: "13"
    }
  }
  attr {
    key: "Op_idx"
    value {
      s: "N/A"
    }
  }
  attr {
    key: "inputTensor:0"
    value {
      s: "tensor_12_id_48344_module/model/1/rotary_emb/aten__mul  |  Sizes = [189,128]  |  bf16  |  expBias = 0, scale = 1  |    |  ModelParam = 0  |  strides = [48384, 256, 2]  |  data = 0, sizeInBytes = 48384  |  location = in DRAM  |  dramOffset = 0x60000000080  |  "
    }
  }
  attr {
    key: "inputTensor:1"
    value {
      s: "tensor_8_id_48224_module/model/1/aten__unsqueeze/1  |  Sizes = [1,189]  |  int32  |  expBias = 0, scale = 1  |    |  ModelParam = 0  |  strides = [756, 756, 4]  |  data = 0, sizeInBytes = 756  |  isAliased = tensor_7_odule/model/1/placeholder/0, type = alias, offset: 0  |  location = in DRAM  |  "
    }
  }
  attr {
    key: "outputTensor:0"
    value {
      s: "bf16-11_43423  |  Sizes = [189,128]  |  bf16  |  expBias = 0, scale = 1  |    |  ModelParam = 0  |  strides = [48384, 256, 2]  |  data = 0, sizeInBytes = 48384  |  isAliased = bf16-15_43425, type = alias, offset: 0  |  location = in DRAM  |  "
    }
  }
}
node {
  name: "module/model/1/rotary_pos_embedding_fwd_bf16/4644_complex/rotary_pos_embedding_fwd_bf16_66/expand_dims_12"
  op: "ExpandDims"
  input: "module/model/1/rotary_pos_embedding_fwd_bf16/4644_complex/rotary_pos_embedding_fwd_bf16_66/gather_nd_mxnet_fwd_bf16_8"
  attr {
    key: "Bundle_idx"
    value {
      s: "N/A"
    }
  }
  attr {
    key: "Exec_idx"
    value {
      s: "14"
    }
  }
  attr {
    key: "Op_idx"
    value {
      s: "N/A"
    }
  }
  attr {
    key: "inputTensor:0"
    value {
      s: "bf16-9_43422  |  Sizes = [189,128]  |  bf16  |  expBias = 0, scale = 1  |    |  ModelParam = 0  |  strides = [48384, 256, 2]  |  data = 0, sizeInBytes = 48384  |  isAliased = bf16-13_43424, type = alias, offset: 0  |  location = in DRAM  |  "
    }
  }
  attr {
    key: "outputTensor:0"
    value {
      s: "bf16-13_43424  |  Sizes = [1,189,128]  |  bf16  |  expBias = 0, scale = 1  |    |  ModelParam = 0  |  strides = [48384, 48384, 256, 2]  |  data = 0, sizeInBytes = 48384  |  location = in DRAM  |  dramOffset = 0x140000000000  |  "
    }
  }
}
node {
  name: "module/model/1/rotary_pos_embedding_fwd_bf16/4644_complex/rotary_pos_embedding_fwd_bf16_66/expand_dims_14"
  op: "ExpandDims"
  input: "module/model/1/rotary_pos_embedding_fwd_bf16/4644_complex/rotary_pos_embedding_fwd_bf16_66/gather_nd_mxnet_fwd_bf16_10"
  attr {
    key: "Bundle_idx"
    value {
      s: "N/A"
    }
  }
  attr {
    key: "Exec_idx"
    value {
      s: "15"
    }
  }
  attr {
    key: "Op_idx"
    value {
      s: "N/A"
    }
  }
  attr {
    key: "inputTensor:0"
    value {
      s: "bf16-11_43423  |  Sizes = [189,128]  |  bf16  |  expBias = 0, scale = 1  |    |  ModelParam = 0  |  strides = [48384, 256, 2]  |  data = 0, sizeInBytes = 48384  |  isAliased = bf16-15_43425, type = alias, offset: 0  |  location = in DRAM  |  "
    }
  }
  attr {
    key: "outputTensor:0"
    value {
      s: "bf16-15_43425  |  Sizes = [1,189,128]  |  bf16  |  expBias = 0, scale = 1  |    |  ModelParam = 0  |  strides = [48384, 48384, 256, 2]  |  data = 0, sizeInBytes = 48384  |  location = in DRAM  |  dramOffset = 0x14000000bd00  |  "
    }
  }
}
node {
  name: "tensor_58_odule/model/1/v_proj/placeholder/1"
  op: "Placeholder"
  attr {
    key: "dtype"
    value {
      type: DT_INVALID
    }
  }
  attr {
    key: "shape"
    value {
      shape {
        dim {
          size: 512
        }
        dim {
          size: 4096
        }
        dim {
          size: 1
        }
        dim {
          size: 1
        }
        dim {
          size: 1
        }
      }
    }
  }
  attr {
    key: "synDataType"
    value {
      s: "hfloat8"
    }
  }
}
node {
  name: "module/model/1/v_proj/fp8_gemm_bf16/4650_complex/fp8_gemm_hf8_533/expand_dims_8"
  op: "ExpandDims"
  input: "tensor_58_odule/model/1/v_proj/placeholder/1"
  attr {
    key: "Bundle_idx"
    value {
      s: "N/A"
    }
  }
  attr {
    key: "Exec_idx"
    value {
      s: "16"
    }
  }
  attr {
    key: "Op_idx"
    value {
      s: "N/A"
    }
  }
  attr {
    key: "inputTensor:0"
    value {
      s: "tensor_58_odule/model/1/v_proj/placeholder/1  |  Sizes = [4096,512]  |  hfloat8  |  expBias = 7, scale = 1  |    |  ModelParam = 0  |  strides = [2097152, 512, 1]  |  data = 0, sizeInBytes = 2097152  |  isPersistent  |  location = in DRAM  |  dramOffset = 0x160000000000  |  userMemorySection(type=Persistent, id=22)  |  "
    }
  }
  attr {
    key: "outputTensor:0"
    value {
      s: "hf8-9_43430  |  Sizes = [1,4096,512]  |  hfloat8  |  expBias = 7, scale = 1  |    |  ModelParam = 0  |  strides = [2097152, 2097152, 512, 1]  |  data = 0, sizeInBytes = 2097152  |  isAliased = tensor_58_odule/model/1/v_proj/placeholder/1, type = alias, offset: 0  |  location = in DRAM  |  "
    }
  }
}
node {
  name: "tensor_73_odule/model/1/fused_scaled_dot_product_attention/placeholder/0"
  op: "Placeholder"
  attr {
    key: "dtype"
    value {
      type: DT_BFLOAT16
    }
  }
  attr {
    key: "shape"
    value {
      shape {
        dim {
          size: 189
        }
        dim {
          size: 189
        }
        dim {
          size: 1
        }
        dim {
          size: 1
        }
        dim {
          size: 1
        }
      }
    }
  }
  attr {
    key: "synDataType"
    value {
      s: "bf16"
    }
  }
}
node {
  name: "module/model/1/fused_scaled_dot_product_attention/expand_dims/4661"
  op: "Reshape"
  input: "tensor_73_odule/model/1/fused_scaled_dot_product_attention/placeholder/0"
  attr {
    key: "Bundle_idx"
    value {
      s: "N/A"
    }
  }
  attr {
    key: "Exec_idx"
    value {
      s: "17"
    }
  }
  attr {
    key: "Op_idx"
    value {
      s: "N/A"
    }
  }
  attr {
    key: "inputTensor:0"
    value {
      s: "tensor_73_odule/model/1/fused_scaled_dot_product_attention/placeholder/0  |  Sizes = [189,189]  |  bf16  |  expBias = 0, scale = 1  |    |  ModelParam = 0  |  strides = [71442, 378, 2]  |  data = 0, sizeInBytes = 71442  |  isPersistent  |  location = in DRAM  |  dramOffset = 0x1d0000000000  |  userMemorySection(type=Persistent, id=29)  |  "
    }
  }
  attr {
    key: "outputTensor:0"
    value {
      s: "tensor_79_id_48451_module/model/1/fused_scaled_dot_product_attention/aten__unsqueeze  |  Sizes = [1,1,1,189,189]  |  bf16  |  expBias = 0, scale = 1  |    |  ModelParam = 0  |  strides = [71442, 71442, 71442, 71442, 378, 2]  |  data = 0, sizeInBytes = 71442  |  isAliased = tensor_73_odule/model/1/fused_scaled_dot_product_attention/placeholder/0, type = alias, offset: 0  |  location = in DRAM  |  "
    }
  }
}
node {
  name: "tensor_95_odule/model/1/q_proj/placeholder/1"
  op: "Placeholder"
  attr {
    key: "dtype"
    value {
      type: DT_INVALID
    }
  }
  attr {
    key: "shape"
    value {
      shape {
        dim {
          size: 2048
        }
        dim {
          size: 4096
        }
        dim {
          size: 1
        }
        dim {
          size: 1
        }
        dim {
          size: 1
        }
      }
    }
  }
  attr {
    key: "synDataType"
    value {
      s: "hfloat8"
    }
  }
}
node {
  name: "module/model/1/q_proj/fp8_gemm_bf16/4668_complex/fp8_gemm_bf16_535/expand_dims_6"
  op: "ExpandDims"
  input: "tensor_95_odule/model/1/q_proj/placeholder/1"
  attr {
    key: "Bundle_idx"
    value {
      s: "N/A"
    }
  }
  attr {
    key: "Exec_idx"
    value {
      s: "18"
    }
  }
  attr {
    key: "Op_idx"
    value {
      s: "N/A"
    }
  }
  attr {
    key: "inputTensor:0"
    value {
      s: "tensor_95_odule/model/1/q_proj/placeholder/1  |  Sizes = [4096,2048]  |  hfloat8  |  expBias = 7, scale = 1  |    |  ModelParam = 0  |  strides = [8388608, 2048, 1]  |  data = 0, sizeInBytes = 8388608  |  isPersistent  |  location = in DRAM  |  dramOffset = 0x210000000000  |  userMemorySection(type=Persistent, id=33)  |  "
    }
  }
  attr {
    key: "outputTensor:0"
    value {
      s: "hf8-7_43436  |  Sizes = [1,4096,2048]  |  hfloat8  |  expBias = 7, scale = 1  |    |  ModelParam = 0  |  strides = [8388608, 8388608, 2048, 1]  |  data = 0, sizeInBytes = 8388608  |  isAliased = tensor_95_odule/model/1/q_proj/placeholder/1, type = alias, offset: 0  |  location = in DRAM  |  "
    }
  }
}
node {
  name: "tensor_24_odule/model/1/input_layernorm/placeholder/1"
  op: "Placeholder"
  attr {
    key: "dtype"
    value {
      type: DT_BFLOAT16
    }
  }
  attr {
    key: "shape"
    value {
      shape {
        dim {
          size: 4096
        }
        dim {
          size: 1
        }
        dim {
          size: 1
        }
        dim {
          size: 1
        }
        dim {
          size: 1
        }
      }
    }
  }
  attr {
    key: "synDataType"
    value {
      s: "bf16"
    }
  }
}
node {
  name: "module/model/1/input_layernorm/rms_norm_ex_fwd_bf16/4639_complex/rms_norm_ex_fwd_bf16_135/rms_norm_fwd_bf16_6_bundle_199/op_0"
  op: "rms_norm_fwd_bf16"
  input: "module/model/1/input_layernorm/rms_norm_ex_fwd_bf16/4639_complex/rms_norm_ex_fwd_bf16_135/reshape_4"
  input: "tensor_24_odule/model/1/input_layernorm/placeholder/1"
  attr {
    key: "Bundle_idx"
    value {
      s: "199"
    }
  }
  attr {
    key: "Exec_idx"
    value {
      s: "19"
    }
  }
  attr {
    key: "Op_idx"
    value {
      s: "0"
    }
  }
  attr {
    key: "inputTensor:0"
    value {
      s: "bf16-5_43411  |  Sizes = [189,4096]  |  bf16  |  expBias = 0, scale = 1  |    |  ModelParam = 0  |  strides = [1548288, 8192, 2]  |  data = 0, sizeInBytes = 1548288  |  isAliased = tensor_2, type = alias, offset: 0  |  location = in DRAM  |  "
    }
  }
  attr {
    key: "inputTensor:1"
    value {
      s: "tensor_24_odule/model/1/input_layernorm/placeholder/1  |  Sizes = [4096]  |  bf16  |  expBias = 0, scale = 1  |    |  ModelParam = 0  |  strides = [8192, 2]  |  data = 0, sizeInBytes = 8192  |  isPersistent  |  location = in DRAM  |  dramOffset = 0xb0000000000  |  userMemorySection(type=Persistent, id=11)  |  "
    }
  }
  attr {
    key: "outputTensor:0"
    value {
      s: "bf16-7_43412_slice_0_0_0_0_0__0__bundle_199_43876  |  Sizes = [189,4096]  |  bf16  |  expBias = 0, scale = 1  |    |  ModelParam = 0  |  strides = [1548288, 8192, 2]  |  data = 0, sizeInBytes = 1548288  |  isAliased = tensor-43632_slice_0_0_0_0_0__0__bundle_199_43878, type = alias, offset: 0  |  location = in SRAM  |  sramOffset = 0x1000fffffd050000  |  "
    }
  }
  attr {
    key: "outputTensor:1"
    value {
      s: "f32-8_43413  |  Sizes = [189,1]  |  float32  |  expBias = 0, scale = 1  |    |  ModelParam = 0  |  strides = [756, 4, 4]  |  data = 0, sizeInBytes = 756  |  location = in DRAM  |  dramOffset = 0x6000000bd80  |  "
    }
  }
}
node {
  name: "f32-8_43413"
  op: "OutputTensor"
  input: "module/model/1/input_layernorm/rms_norm_ex_fwd_bf16/4639_complex/rms_norm_ex_fwd_bf16_135/rms_norm_fwd_bf16_6_bundle_199/op_0"
  attr {
    key: "dtype"
    value {
      type: DT_FLOAT
    }
  }
  attr {
    key: "shape"
    value {
      shape {
        dim {
          size: 1
        }
        dim {
          size: 189
        }
        dim {
          size: 1
        }
        dim {
          size: 1
        }
        dim {
          size: 1
        }
      }
    }
  }
  attr {
    key: "synDataType"
    value {
      s: "float32"
    }
  }
}
node {
  name: "reshape_0_0_bundle_199/op_1"
  op: "Reshape"
  input: "module/model/1/input_layernorm/rms_norm_ex_fwd_bf16/4639_complex/rms_norm_ex_fwd_bf16_135/rms_norm_fwd_bf16_6_bundle_199/op_0"
  attr {
    key: "Bundle_idx"
    value {
      s: "199"
    }
  }
  attr {
    key: "Exec_idx"
    value {
      s: "20"
    }
  }
  attr {
    key: "Op_idx"
    value {
      s: "1"
    }
  }
  attr {
    key: "inputTensor:0"
    value {
      s: "bf16-7_43412_slice_0_0_0_0_0__0__bundle_199_43876  |  Sizes = [189,4096]  |  bf16  |  expBias = 0, scale = 1  |    |  ModelParam = 0  |  strides = [1548288, 8192, 2]  |  data = 0, sizeInBytes = 1548288  |  isAliased = tensor-43632_slice_0_0_0_0_0__0__bundle_199_43878, type = alias, offset: 0  |  location = in SRAM  |  sramOffset = 0x1000fffffd050000  |  "
    }
  }
  attr {
    key: "outputTensor:0"
    value {
      s: "tensor-43632_slice_0_0_0_0_0__0__bundle_199_43878  |  Sizes = [1,189,4096]  |  bf16  |  expBias = 0, scale = 1  |    |  ModelParam = 0  |  strides = [1548288, 1548288, 8192, 2]  |  data = 0, sizeInBytes = 1548288  |  location = in SRAM  |  sramOffset = 0x1000fffffd050000  |  "
    }
  }
}
node {
  name: "fusedTPCNode_78_0_bundle_199/op_2"
  op: "fused_kernel_0x69612E63_D4_hf8"
  input: "reshape_0_0_bundle_199/op_1"
  attr {
    key: "Bundle_idx"
    value {
      s: "199"
    }
  }
  attr {
    key: "Exec_idx"
    value {
      s: "21"
    }
  }
  attr {
    key: "Op_idx"
    value {
      s: "2"
    }
  }
  attr {
    key: "inputTensor:0"
    value {
      s: "tensor-43632_slice_0_0_0_0_0__0__bundle_199_43878  |  Sizes = [1,189,4096]  |  bf16  |  expBias = 0, scale = 1  |    |  ModelParam = 0  |  strides = [1548288, 1548288, 8192, 2]  |  data = 0, sizeInBytes = 1548288  |  location = in SRAM  |  sramOffset = 0x1000fffffd050000  |  "
    }
  }
  attr {
    key: "outputTensor:0"
    value {
      s: "tensor_32_slice_0_0_0_0_0__0__bundle_199_43879  |  Sizes = [1,189,4096]  |  hfloat8  |  expBias = 7, scale = 1  |    |  ModelParam = 0  |  strides = [774144, 774144, 4096, 1]  |  data = 0, sizeInBytes = 774144  |  location = in SRAM  |  sramOffset = 0x1000fffffd1ca000  |  "
    }
  }
}
node {
  name: "module/model/1/k_proj/fp8_gemm_bf16/4641_complex/fp8_gemm_bf16_531/batch_gemm_8_bundle_199/op_3_gemm"
  op: "GEMM"
  input: "fusedTPCNode_78_0_bundle_199/op_2"
  input: "module/model/1/k_proj/fp8_gemm_bf16/4641_complex/fp8_gemm_bf16_531/expand_dims_6"
  attr {
    key: "Bundle_idx"
    value {
      s: "199"
    }
  }
  attr {
    key: "Exec_idx"
    value {
      s: "22"
    }
  }
  attr {
    key: "Op_idx"
    value {
      s: "3"
    }
  }
  attr {
    key: "Parameters"
    value {
      s: "transpose_a=false, transpose_b=false"
    }
  }
  attr {
    key: "fp8BiasIn"
    value {
      s: "7"
    }
  }
  attr {
    key: "fp8BiasIn2"
    value {
      s: "15"
    }
  }
  attr {
    key: "fp8BiasOut"
    value {
      s: "0"
    }
  }
  attr {
    key: "inputTensor:0"
    value {
      s: "tensor_32_slice_0_0_0_0_0__0__bundle_199_43879  |  Sizes = [1,189,4096]  |  hfloat8  |  expBias = 7, scale = 1  |    |  ModelParam = 0  |  strides = [774144, 774144, 4096, 1]  |  data = 0, sizeInBytes = 774144  |  location = in SRAM  |  sramOffset = 0x1000fffffd1ca000  |  "
    }
  }
  attr {
    key: "inputTensor:1"
    value {
      s: "hf8-7_43417  |  Sizes = [1,4096,512]  |  hfloat8  |  expBias = 7, scale = 1  |    |  ModelParam = 0  |  strides = [2097152, 2097152, 512, 1]  |  data = 0, sizeInBytes = 2097152  |  isAliased = tensor_33_odule/model/1/k_proj/placeholder/1, type = alias, offset: 0  |  location = in DRAM  |  "
    }
  }
  attr {
    key: "outputTensor:0"
    value {
      s: "tensor_37  |  Sizes = [1,189,512]  |  bf16  |  expBias = 0, scale = 1  |    |  ModelParam = 0  |  strides = [193536, 193536, 1024, 2]  |  data = 0, sizeInBytes = 193536  |  isAliased = tensor_38_id_48334_module/model/1/aten__view, type = alias, offset: 0  |  location = in DRAM  |  "
    }
  }
}
node {
  name: "module/model/1/v_proj/fp8_gemm_bf16/4650_complex/fp8_gemm_hf8_533/batch_gemm_10_bundle_199/op_4_gemm"
  op: "GEMM"
  input: "fusedTPCNode_78_0_bundle_199/op_2"
  input: "module/model/1/v_proj/fp8_gemm_bf16/4650_complex/fp8_gemm_hf8_533/expand_dims_8"
  attr {
    key: "Bundle_idx"
    value {
      s: "199"
    }
  }
  attr {
    key: "Exec_idx"
    value {
      s: "23"
    }
  }
  attr {
    key: "Op_idx"
    value {
      s: "4"
    }
  }
  attr {
    key: "Parameters"
    value {
      s: "transpose_a=false, transpose_b=false"
    }
  }
  attr {
    key: "fp8BiasIn"
    value {
      s: "7"
    }
  }
  attr {
    key: "fp8BiasIn2"
    value {
      s: "15"
    }
  }
  attr {
    key: "fp8BiasOut"
    value {
      s: "11"
    }
  }
  attr {
    key: "inputTensor:0"
    value {
      s: "tensor_32_slice_0_0_0_0_0__0__bundle_199_43879  |  Sizes = [1,189,4096]  |  hfloat8  |  expBias = 7, scale = 1  |    |  ModelParam = 0  |  strides = [774144, 774144, 4096, 1]  |  data = 0, sizeInBytes = 774144  |  location = in SRAM  |  sramOffset = 0x1000fffffd1ca000  |  "
    }
  }
  attr {
    key: "inputTensor:1"
    value {
      s: "hf8-9_43430  |  Sizes = [1,4096,512]  |  hfloat8  |  expBias = 7, scale = 1  |    |  ModelParam = 0  |  strides = [2097152, 2097152, 512, 1]  |  data = 0, sizeInBytes = 2097152  |  isAliased = tensor_58_odule/model/1/v_proj/placeholder/1, type = alias, offset: 0  |  location = in DRAM  |  "
    }
  }
  attr {
    key: "outputTensor:0"
    value {
      s: "tensor_62_c43378  |  Sizes = [1,189,512]  |  hfloat8  |  expBias = 7, scale = 1  |    |  ModelParam = 0  |  strides = [96768, 96768, 512, 1]  |  data = 0, sizeInBytes = 96768  |  isAliased = tensor_63_id_48338_module/model/1/quant_input_0/aten__view_memcpy_43963, type = alias, offset: 0  |  location = in DRAM  |  "
    }
  }
}
node {
  name: "module/model/1/q_proj/fp8_gemm_bf16/4668_complex/fp8_gemm_bf16_535/batch_gemm_8_bundle_199/op_5_gemm"
  op: "GEMM"
  input: "fusedTPCNode_78_0_bundle_199/op_2"
  input: "module/model/1/q_proj/fp8_gemm_bf16/4668_complex/fp8_gemm_bf16_535/expand_dims_6"
  attr {
    key: "Bundle_idx"
    value {
      s: "199"
    }
  }
  attr {
    key: "Exec_idx"
    value {
      s: "24"
    }
  }
  attr {
    key: "Op_idx"
    value {
      s: "5"
    }
  }
  attr {
    key: "Parameters"
    value {
      s: "transpose_a=false, transpose_b=false"
    }
  }
  attr {
    key: "fp8BiasIn"
    value {
      s: "7"
    }
  }
  attr {
    key: "fp8BiasIn2"
    value {
      s: "11"
    }
  }
  attr {
    key: "fp8BiasOut"
    value {
      s: "0"
    }
  }
  attr {
    key: "inputTensor:0"
    value {
      s: "tensor_32_slice_0_0_0_0_0__0__bundle_199_43879  |  Sizes = [1,189,4096]  |  hfloat8  |  expBias = 7, scale = 1  |    |  ModelParam = 0  |  strides = [774144, 774144, 4096, 1]  |  data = 0, sizeInBytes = 774144  |  location = in SRAM  |  sramOffset = 0x1000fffffd1ca000  |  "
    }
  }
  attr {
    key: "inputTensor:1"
    value {
      s: "hf8-7_43436  |  Sizes = [1,4096,2048]  |  hfloat8  |  expBias = 7, scale = 1  |    |  ModelParam = 0  |  strides = [8388608, 8388608, 2048, 1]  |  data = 0, sizeInBytes = 8388608  |  isAliased = tensor_95_odule/model/1/q_proj/placeholder/1, type = alias, offset: 0  |  location = in DRAM  |  "
    }
  }
  attr {
    key: "outputTensor:0"
    value {
      s: "tensor_99  |  Sizes = [1,189,2048]  |  bf16  |  expBias = 0, scale = 1  |    |  ModelParam = 0  |  strides = [774144, 774144, 4096, 2]  |  data = 0, sizeInBytes = 774144  |  isAliased = tensor_100_id_48330_module/model/1/aten__view, type = alias, offset: 0  |  location = in DRAM  |  "
    }
  }
}
node {
  name: "module/model/1/reshape/4642"
  op: "Reshape"
  input: "module/model/1/k_proj/fp8_gemm_bf16/4641_complex/fp8_gemm_bf16_531/batch_gemm_8_bundle_199/op_3_gemm"
  attr {
    key: "Bundle_idx"
    value {
      s: "N/A"
    }
  }
  attr {
    key: "Exec_idx"
    value {
      s: "25"
    }
  }
  attr {
    key: "Op_idx"
    value {
      s: "N/A"
    }
  }
  attr {
    key: "inputTensor:0"
    value {
      s: "tensor_37  |  Sizes = [1,189,512]  |  bf16  |  expBias = 0, scale = 1  |    |  ModelParam = 0  |  strides = [193536, 193536, 1024, 2]  |  data = 0, sizeInBytes = 193536  |  isAliased = tensor_38_id_48334_module/model/1/aten__view, type = alias, offset: 0  |  location = in DRAM  |  "
    }
  }
  attr {
    key: "outputTensor:0"
    value {
      s: "tensor_38_id_48334_module/model/1/aten__view  |  Sizes = [1,189,4,128]  |  bf16  |  expBias = 0, scale = 1  |    |  ModelParam = 0  |  strides = [193536, 193536, 1024, 256, 2]  |  data = 0, sizeInBytes = 193536  |  location = in DRAM  |  dramOffset = 0x1c0000000000  |  "
    }
  }
}
node {
  name: "module/model/1/transpose/4643_transpose_via_logical"
  op: "LogicalTranspose"
  input: "module/model/1/reshape/4642"
  attr {
    key: "Bundle_idx"
    value {
      s: "N/A"
    }
  }
  attr {
    key: "Exec_idx"
    value {
      s: "26"
    }
  }
  attr {
    key: "Op_idx"
    value {
      s: "N/A"
    }
  }
  attr {
    key: "Parameters"
    value {
      s: "permutation: (0,2,1,3)"
    }
  }
  attr {
    key: "inputTensor:0"
    value {
      s: "tensor_38_id_48334_module/model/1/aten__view  |  Sizes = [1,189,4,128]  |  bf16  |  expBias = 0, scale = 1  |    |  ModelParam = 0  |  strides = [193536, 193536, 1024, 256, 2]  |  data = 0, sizeInBytes = 193536  |  location = in DRAM  |  dramOffset = 0x1c0000000000  |  "
    }
  }
  attr {
    key: "outputTensor:0"
    value {
      s: "tensor_39_id_48336_module/model/1/aten__transpose  |  Sizes = [1,4,189,128]  |  bf16  |  expBias = 0, scale = 1  |    |  ModelParam = 0  |  strides = [193536, 193536, 256, 1024, 2]  |  data = 0, sizeInBytes = 193536  |  isAliased = tensor_38_id_48334_module/model/1/aten__view, type = alias, offset: 0  |  location = in DRAM  |  isSparseLayout  |  "
    }
  }
}
node {
  name: "module/model/1/rotary_pos_embedding_fwd_bf16/4644_complex/rotary_pos_embedding_fwd_bf16_66/rope_st2_fwd_bf16_16"
  op: "rope_st2_fwd_bf16"
  input: "module/model/1/transpose/4643_transpose_via_logical"
  input: "module/model/1/rotary_pos_embedding_fwd_bf16/4644_complex/rotary_pos_embedding_fwd_bf16_66/expand_dims_12"
  input: "module/model/1/rotary_pos_embedding_fwd_bf16/4644_complex/rotary_pos_embedding_fwd_bf16_66/expand_dims_14"
  attr {
    key: "Bundle_idx"
    value {
      s: "N/A"
    }
  }
  attr {
    key: "Exec_idx"
    value {
      s: "27"
    }
  }
  attr {
    key: "Op_idx"
    value {
      s: "N/A"
    }
  }
  attr {
    key: "inputTensor:0"
    value {
      s: "tensor_39_id_48336_module/model/1/aten__transpose  |  Sizes = [1,4,189,128]  |  bf16  |  expBias = 0, scale = 1  |    |  ModelParam = 0  |  strides = [193536, 193536, 256, 1024, 2]  |  data = 0, sizeInBytes = 193536  |  isAliased = tensor_38_id_48334_module/model/1/aten__view, type = alias, offset: 0  |  location = in DRAM  |  isSparseLayout  |  "
    }
  }
  attr {
    key: "inputTensor:1"
    value {
      s: "bf16-13_43424  |  Sizes = [1,189,128]  |  bf16  |  expBias = 0, scale = 1  |    |  ModelParam = 0  |  strides = [48384, 48384, 256, 2]  |  data = 0, sizeInBytes = 48384  |  location = in DRAM  |  dramOffset = 0x140000000000  |  "
    }
  }
  attr {
    key: "inputTensor:2"
    value {
      s: "bf16-15_43425  |  Sizes = [1,189,128]  |  bf16  |  expBias = 0, scale = 1  |    |  ModelParam = 0  |  strides = [48384, 48384, 256, 2]  |  data = 0, sizeInBytes = 48384  |  location = in DRAM  |  dramOffset = 0x14000000bd00  |  "
    }
  }
  attr {
    key: "outputTensor:0"
    value {
      s: "tensor_41  |  Sizes = [1,4,189,128]  |  bf16  |  expBias = 0, scale = 1  |    |  ModelParam = 0  |  strides = [193536, 193536, 48384, 256, 2]  |  data = 0, sizeInBytes = 193536  |  location = in DRAM  |  dramOffset = 0x3100000bd000  |  "
    }
  }
}
node {
  name: "module/model/1/quant_input_0/reshape/4651"
  op: "Reshape"
  input: "module/model/1/v_proj/fp8_gemm_bf16/4650_complex/fp8_gemm_hf8_533/batch_gemm_10_bundle_199/op_4_gemm"
  attr {
    key: "Bundle_idx"
    value {
      s: "N/A"
    }
  }
  attr {
    key: "Exec_idx"
    value {
      s: "28"
    }
  }
  attr {
    key: "Op_idx"
    value {
      s: "N/A"
    }
  }
  attr {
    key: "inputTensor:0"
    value {
      s: "tensor_62_c43378  |  Sizes = [1,189,512]  |  hfloat8  |  expBias = 7, scale = 1  |    |  ModelParam = 0  |  strides = [96768, 96768, 512, 1]  |  data = 0, sizeInBytes = 96768  |  isAliased = tensor_63_id_48338_module/model/1/quant_input_0/aten__view_memcpy_43963, type = alias, offset: 0  |  location = in DRAM  |  "
    }
  }
  attr {
    key: "outputTensor:0"
    value {
      s: "tensor_63_id_48338_module/model/1/quant_input_0/aten__view_memcpy_43963  |  Sizes = [1,189,4,128]  |  hfloat8  |  expBias = 7, scale = 1  |    |  ModelParam = 0  |  strides = [96768, 96768, 512, 128, 1]  |  data = 0, sizeInBytes = 96768  |  location = in DRAM  |  dramOffset = 0x13000000bd00  |  "
    }
  }
}
node {
  name: "tensor_63_id_48338_module/model/1/quant_input_0/aten__view_memcpy_43963_internal"
  op: "DmaMemcpy"
  input: "module/model/1/quant_input_0/reshape/4651"
  attr {
    key: "Bundle_idx"
    value {
      s: "N/A"
    }
  }
  attr {
    key: "Exec_idx"
    value {
      s: "29"
    }
  }
  attr {
    key: "Op_idx"
    value {
      s: "N/A"
    }
  }
  attr {
    key: "inputTensor:0"
    value {
      s: "tensor_63_id_48338_module/model/1/quant_input_0/aten__view_memcpy_43963  |  Sizes = [1,189,4,128]  |  hfloat8  |  expBias = 7, scale = 1  |    |  ModelParam = 0  |  strides = [96768, 96768, 512, 128, 1]  |  data = 0, sizeInBytes = 96768  |  location = in DRAM  |  dramOffset = 0x13000000bd00  |  "
    }
  }
  attr {
    key: "outputTensor:0"
    value {
      s: "tensor_63_id_48338_module/model/1/quant_input_0/aten__view  |  Sizes = [1,189,4,128]  |  hfloat8  |  expBias = 7, scale = 1  |    |  ModelParam = 0  |  strides = [96768, 96768, 128, 24192, 1]  |  data = 0, sizeInBytes = 96768  |  isAliased = tensor_69, type = alias, offset: 0  |  location = in DRAM  |  isSparseLayout  |  "
    }
  }
}
node {
  name: "module/model/1/quant_input_0/transpose/4652_transpose_via_logical"
  op: "LogicalTranspose"
  input: "tensor_63_id_48338_module/model/1/quant_input_0/aten__view_memcpy_43963_internal"
  attr {
    key: "Bundle_idx"
    value {
      s: "N/A"
    }
  }
  attr {
    key: "Exec_idx"
    value {
      s: "30"
    }
  }
  attr {
    key: "Op_idx"
    value {
      s: "N/A"
    }
  }
  attr {
    key: "Parameters"
    value {
      s: "permutation: (0,2,1,3)"
    }
  }
  attr {
    key: "inputTensor:0"
    value {
      s: "tensor_63_id_48338_module/model/1/quant_input_0/aten__view  |  Sizes = [1,189,4,128]  |  hfloat8  |  expBias = 7, scale = 1  |    |  ModelParam = 0  |  strides = [96768, 96768, 128, 24192, 1]  |  data = 0, sizeInBytes = 96768  |  isAliased = tensor_69, type = alias, offset: 0  |  location = in DRAM  |  isSparseLayout  |  "
    }
  }
  attr {
    key: "outputTensor:0"
    value {
      s: "tensor_69  |  Sizes = [1,4,189,128]  |  hfloat8  |  expBias = 7, scale = 1  |    |  ModelParam = 0  |  strides = [96768, 96768, 24192, 128, 1]  |  data = 0, sizeInBytes = 96768  |  isPersistent  |  location = in DRAM  |  dramOffset = 0x140000000000  |  userMemorySection(type=Persistent, id=20)  |  "
    }
  }
}
node {
  name: "module/model/1/reshape/4669"
  op: "Reshape"
  input: "module/model/1/q_proj/fp8_gemm_bf16/4668_complex/fp8_gemm_bf16_535/batch_gemm_8_bundle_199/op_5_gemm"
  attr {
    key: "Bundle_idx"
    value {
      s: "N/A"
    }
  }
  attr {
    key: "Exec_idx"
    value {
      s: "31"
    }
  }
  attr {
    key: "Op_idx"
    value {
      s: "N/A"
    }
  }
  attr {
    key: "inputTensor:0"
    value {
      s: "tensor_99  |  Sizes = [1,189,2048]  |  bf16  |  expBias = 0, scale = 1  |    |  ModelParam = 0  |  strides = [774144, 774144, 4096, 2]  |  data = 0, sizeInBytes = 774144  |  isAliased = tensor_100_id_48330_module/model/1/aten__view, type = alias, offset: 0  |  location = in DRAM  |  "
    }
  }
  attr {
    key: "outputTensor:0"
    value {
      s: "tensor_100_id_48330_module/model/1/aten__view  |  Sizes = [1,189,16,128]  |  bf16  |  expBias = 0, scale = 1  |    |  ModelParam = 0  |  strides = [774144, 774144, 4096, 256, 2]  |  data = 0, sizeInBytes = 774144  |  location = in DRAM  |  dramOffset = 0x310000000000  |  "
    }
  }
}
node {
  name: "module/model/1/transpose/4670_transpose_via_logical"
  op: "LogicalTranspose"
  input: "module/model/1/reshape/4669"
  attr {
    key: "Bundle_idx"
    value {
      s: "N/A"
    }
  }
  attr {
    key: "Exec_idx"
    value {
      s: "32"
    }
  }
  attr {
    key: "Op_idx"
    value {
      s: "N/A"
    }
  }
  attr {
    key: "Parameters"
    value {
      s: "permutation: (0,2,1,3)"
    }
  }
  attr {
    key: "inputTensor:0"
    value {
      s: "tensor_100_id_48330_module/model/1/aten__view  |  Sizes = [1,189,16,128]  |  bf16  |  expBias = 0, scale = 1  |    |  ModelParam = 0  |  strides = [774144, 774144, 4096, 256, 2]  |  data = 0, sizeInBytes = 774144  |  location = in DRAM  |  dramOffset = 0x310000000000  |  "
    }
  }
  attr {
    key: "outputTensor:0"
    value {
      s: "tensor_101_id_48332_module/model/1/aten__transpose  |  Sizes = [1,16,189,128]  |  bf16  |  expBias = 0, scale = 1  |    |  ModelParam = 0  |  strides = [774144, 774144, 256, 4096, 2]  |  data = 0, sizeInBytes = 774144  |  isAliased = tensor_100_id_48330_module/model/1/aten__view, type = alias, offset: 0  |  location = in DRAM  |  isSparseLayout  |  "
    }
  }
}
node {
  name: "module/model/1/rotary_pos_embedding_fwd_bf16/4671_complex/rotary_pos_embedding_fwd_bf16_67/gather_nd_mxnet_fwd_bf16_8"
  op: "gather_nd_mxnet_fwd_bf16"
  input: "module/model/1/rotary_emb/mult_fwd_bf16/4635_complex/mult_fwd_bf16_0"
  input: "module/model/1/expand_dims/4626"
  attr {
    key: "Bundle_idx"
    value {
      s: "N/A"
    }
  }
  attr {
    key: "Exec_idx"
    value {
      s: "33"
    }
  }
  attr {
    key: "Op_idx"
    value {
      s: "N/A"
    }
  }
  attr {
    key: "inputTensor:0"
    value {
      s: "tensor_19_id_48348_module/model/1/rotary_emb/aten__mul  |  Sizes = [189,128]  |  bf16  |  expBias = 0, scale = 1  |    |  ModelParam = 0  |  strides = [48384, 256, 2]  |  data = 0, sizeInBytes = 48384  |  location = in DRAM  |  dramOffset = 0x130000000000  |  "
    }
  }
  attr {
    key: "inputTensor:1"
    value {
      s: "tensor_8_id_48224_module/model/1/aten__unsqueeze/1  |  Sizes = [1,189]  |  int32  |  expBias = 0, scale = 1  |    |  ModelParam = 0  |  strides = [756, 756, 4]  |  data = 0, sizeInBytes = 756  |  isAliased = tensor_7_odule/model/1/placeholder/0, type = alias, offset: 0  |  location = in DRAM  |  "
    }
  }
  attr {
    key: "outputTensor:0"
    value {
      s: "bf16-9_43441  |  Sizes = [189,128]  |  bf16  |  expBias = 0, scale = 1  |    |  ModelParam = 0  |  strides = [48384, 256, 2]  |  data = 0, sizeInBytes = 48384  |  isAliased = bf16-13_43443, type = alias, offset: 0  |  location = in DRAM  |  "
    }
  }
}
node {
  name: "module/model/1/rotary_pos_embedding_fwd_bf16/4671_complex/rotary_pos_embedding_fwd_bf16_67/gather_nd_mxnet_fwd_bf16_10"
  op: "gather_nd_mxnet_fwd_bf16"
  input: "module/model/1/rotary_emb/mult_fwd_bf16/4629_complex/mult_fwd_bf16_0"
  input: "module/model/1/expand_dims/4626"
  attr {
    key: "Bundle_idx"
    value {
      s: "N/A"
    }
  }
  attr {
    key: "Exec_idx"
    value {
      s: "34"
    }
  }
  attr {
    key: "Op_idx"
    value {
      s: "N/A"
    }
  }
  attr {
    key: "inputTensor:0"
    value {
      s: "tensor_12_id_48344_module/model/1/rotary_emb/aten__mul  |  Sizes = [189,128]  |  bf16  |  expBias = 0, scale = 1  |    |  ModelParam = 0  |  strides = [48384, 256, 2]  |  data = 0, sizeInBytes = 48384  |  location = in DRAM  |  dramOffset = 0x60000000080  |  "
    }
  }
  attr {
    key: "inputTensor:1"
    value {
      s: "tensor_8_id_48224_module/model/1/aten__unsqueeze/1  |  Sizes = [1,189]  |  int32  |  expBias = 0, scale = 1  |    |  ModelParam = 0  |  strides = [756, 756, 4]  |  data = 0, sizeInBytes = 756  |  isAliased = tensor_7_odule/model/1/placeholder/0, type = alias, offset: 0  |  location = in DRAM  |  "
    }
  }
  attr {
    key: "outputTensor:0"
    value {
      s: "bf16-11_43442  |  Sizes = [189,128]  |  bf16  |  expBias = 0, scale = 1  |    |  ModelParam = 0  |  strides = [48384, 256, 2]  |  data = 0, sizeInBytes = 48384  |  isAliased = bf16-15_43444, type = alias, offset: 0  |  location = in DRAM  |  "
    }
  }
}
node {
  name: "module/model/1/rotary_pos_embedding_fwd_bf16/4671_complex/rotary_pos_embedding_fwd_bf16_67/expand_dims_12"
  op: "ExpandDims"
  input: "module/model/1/rotary_pos_embedding_fwd_bf16/4671_complex/rotary_pos_embedding_fwd_bf16_67/gather_nd_mxnet_fwd_bf16_8"
  attr {
    key: "Bundle_idx"
    value {
      s: "N/A"
    }
  }
  attr {
    key: "Exec_idx"
    value {
      s: "35"
    }
  }
  attr {
    key: "Op_idx"
    value {
      s: "N/A"
    }
  }
  attr {
    key: "inputTensor:0"
    value {
      s: "bf16-9_43441  |  Sizes = [189,128]  |  bf16  |  expBias = 0, scale = 1  |    |  ModelParam = 0  |  strides = [48384, 256, 2]  |  data = 0, sizeInBytes = 48384  |  isAliased = bf16-13_43443, type = alias, offset: 0  |  location = in DRAM  |  "
    }
  }
  attr {
    key: "outputTensor:0"
    value {
      s: "bf16-13_43443  |  Sizes = [1,189,128]  |  bf16  |  expBias = 0, scale = 1  |    |  ModelParam = 0  |  strides = [48384, 48384, 256, 2]  |  data = 0, sizeInBytes = 48384  |  location = in DRAM  |  dramOffset = 0x3100000ec400  |  "
    }
  }
}
node {
  name: "module/model/1/rotary_pos_embedding_fwd_bf16/4671_complex/rotary_pos_embedding_fwd_bf16_67/expand_dims_14"
  op: "ExpandDims"
  input: "module/model/1/rotary_pos_embedding_fwd_bf16/4671_complex/rotary_pos_embedding_fwd_bf16_67/gather_nd_mxnet_fwd_bf16_10"
  attr {
    key: "Bundle_idx"
    value {
      s: "N/A"
    }
  }
  attr {
    key: "Exec_idx"
    value {
      s: "36"
    }
  }
  attr {
    key: "Op_idx"
    value {
      s: "N/A"
    }
  }
  attr {
    key: "inputTensor:0"
    value {
      s: "bf16-11_43442  |  Sizes = [189,128]  |  bf16  |  expBias = 0, scale = 1  |    |  ModelParam = 0  |  strides = [48384, 256, 2]  |  data = 0, sizeInBytes = 48384  |  isAliased = bf16-15_43444, type = alias, offset: 0  |  location = in DRAM  |  "
    }
  }
  attr {
    key: "outputTensor:0"
    value {
      s: "bf16-15_43444  |  Sizes = [1,189,128]  |  bf16  |  expBias = 0, scale = 1  |    |  ModelParam = 0  |  strides = [48384, 48384, 256, 2]  |  data = 0, sizeInBytes = 48384  |  location = in DRAM  |  dramOffset = 0x3100000f8100  |  "
    }
  }
}
node {
  name: "tensor_101_id_48332_module/model/1/aten__transpose_bundle_200/split_internal/0"
  op: "Split"
  input: "module/model/1/transpose/4670_transpose_via_logical"
  attr {
    key: "Bundle_idx"
    value {
      s: "200"
    }
  }
  attr {
    key: "Exec_idx"
    value {
      s: "37"
    }
  }
  attr {
    key: "Op_idx"
    value {
      s: "0"
    }
  }
  attr {
    key: "inputTensor:0"
    value {
      s: "tensor_101_id_48332_module/model/1/aten__transpose  |  Sizes = [1,16,189,128]  |  bf16  |  expBias = 0, scale = 1  |    |  ModelParam = 0  |  strides = [774144, 774144, 256, 4096, 2]  |  data = 0, sizeInBytes = 774144  |  isAliased = tensor_100_id_48330_module/model/1/aten__view, type = alias, offset: 0  |  location = in DRAM  |  isSparseLayout  |  "
    }
  }
  attr {
    key: "outputTensor:0"
    value {
      s: "tensor_101_id_48332_module/model/1/aten__transpose_slice_0_0_0_0_0__0__bundle_200_43891  |  Sizes = [1,4,189,128]  |  bf16  |  expBias = 0, scale = 1  |    |  ModelParam = 0  |  strides = [774144, 774144, 256, 4096, 2]  |  data = 0, sizeInBytes = 193536  |  isAliased = tensor_101_id_48332_module/model/1/aten__transpose, type = concat, offset: 0  |  location = in DRAM  |  isSparseLayout  |  "
    }
  }
  attr {
    key: "outputTensor:1"
    value {
      s: "tensor_101_id_48332_module/model/1/aten__transpose_slice_0_0_1_0_0__0__bundle_200_43902  |  Sizes = [1,4,189,128]  |  bf16  |  expBias = 0, scale = 1  |    |  ModelParam = 0  |  strides = [774144, 774144, 256, 4096, 2]  |  data = 0, sizeInBytes = 193536  |  isAliased = tensor_101_id_48332_module/model/1/aten__transpose, type = concat, offset: 1024  |  location = in DRAM  |  isSparseLayout  |  "
    }
  }
  attr {
    key: "outputTensor:2"
    value {
      s: "tensor_101_id_48332_module/model/1/aten__transpose_slice_0_0_2_0_0__0__bundle_200_43912  |  Sizes = [1,4,189,128]  |  bf16  |  expBias = 0, scale = 1  |    |  ModelParam = 0  |  strides = [774144, 774144, 256, 4096, 2]  |  data = 0, sizeInBytes = 193536  |  isAliased = tensor_101_id_48332_module/model/1/aten__transpose, type = concat, offset: 2048  |  location = in DRAM  |  isSparseLayout  |  "
    }
  }
  attr {
    key: "outputTensor:3"
    value {
      s: "tensor_101_id_48332_module/model/1/aten__transpose_slice_0_0_3_0_0__0__bundle_200_43922  |  Sizes = [1,4,189,128]  |  bf16  |  expBias = 0, scale = 1  |    |  ModelParam = 0  |  strides = [774144, 774144, 256, 4096, 2]  |  data = 0, sizeInBytes = 193536  |  isAliased = tensor_101_id_48332_module/model/1/aten__transpose, type = concat, offset: 3072  |  location = in DRAM  |  isSparseLayout  |  "
    }
  }
}
node {
  name: "tensor_41_bundle_200/split_internal/0"
  op: "Split"
  input: "module/model/1/rotary_pos_embedding_fwd_bf16/4644_complex/rotary_pos_embedding_fwd_bf16_66/rope_st2_fwd_bf16_16"
  attr {
    key: "Bundle_idx"
    value {
      s: "200"
    }
  }
  attr {
    key: "Exec_idx"
    value {
      s: "38"
    }
  }
  attr {
    key: "Op_idx"
    value {
      s: "1"
    }
  }
  attr {
    key: "inputTensor:0"
    value {
      s: "tensor_41  |  Sizes = [1,4,189,128]  |  bf16  |  expBias = 0, scale = 1  |    |  ModelParam = 0  |  strides = [193536, 193536, 48384, 256, 2]  |  data = 0, sizeInBytes = 193536  |  location = in DRAM  |  dramOffset = 0x3100000bd000  |  "
    }
  }
  attr {
    key: "outputTensor:0"
    value {
      s: "tensor_41_slice_0_0_0_0_0__0__bundle_200_43886  |  Sizes = [1,1,189,128]  |  bf16  |  expBias = 0, scale = 1  |    |  ModelParam = 0  |  strides = [193536, 193536, 48384, 256, 2]  |  data = 0, sizeInBytes = 48384  |  isAliased = tensor_41, type = concat, offset: 0  |  location = in DRAM  |  "
    }
  }
  attr {
    key: "outputTensor:1"
    value {
      s: "tensor_41_slice_0_0_1_0_0__0__bundle_200_43897  |  Sizes = [1,1,189,128]  |  bf16  |  expBias = 0, scale = 1  |    |  ModelParam = 0  |  strides = [193536, 193536, 48384, 256, 2]  |  data = 0, sizeInBytes = 48384  |  isAliased = tensor_41, type = concat, offset: 48384  |  location = in DRAM  |  "
    }
  }
  attr {
    key: "outputTensor:2"
    value {
      s: "tensor_41_slice_0_0_2_0_0__0__bundle_200_43907  |  Sizes = [1,1,189,128]  |  bf16  |  expBias = 0, scale = 1  |    |  ModelParam = 0  |  strides = [193536, 193536, 48384, 256, 2]  |  data = 0, sizeInBytes = 48384  |  isAliased = tensor_41, type = concat, offset: 96768  |  location = in DRAM  |  "
    }
  }
  attr {
    key: "outputTensor:3"
    value {
      s: "tensor_41_slice_0_0_3_0_0__0__bundle_200_43917  |  Sizes = [1,1,189,128]  |  bf16  |  expBias = 0, scale = 1  |    |  ModelParam = 0  |  strides = [193536, 193536, 48384, 256, 2]  |  data = 0, sizeInBytes = 48384  |  isAliased = tensor_41, type = concat, offset: 145152  |  location = in DRAM  |  "
    }
  }
}
node {
  name: "module/model/1/rotary_pos_embedding_fwd_bf16/4671_complex/rotary_pos_embedding_fwd_bf16_67/rope_st2_fwd_bf16_16_bundle_200/op_2"
  op: "rope_st2_fwd_bf16"
  input: "tensor_101_id_48332_module/model/1/aten__transpose_bundle_200/split_internal/0"
  input: "module/model/1/rotary_pos_embedding_fwd_bf16/4671_complex/rotary_pos_embedding_fwd_bf16_67/expand_dims_12"
  input: "module/model/1/rotary_pos_embedding_fwd_bf16/4671_complex/rotary_pos_embedding_fwd_bf16_67/expand_dims_14"
  attr {
    key: "Bundle_idx"
    value {
      s: "200"
    }
  }
  attr {
    key: "Exec_idx"
    value {
      s: "39"
    }
  }
  attr {
    key: "Op_idx"
    value {
      s: "2"
    }
  }
  attr {
    key: "inputTensor:0"
    value {
      s: "tensor_101_id_48332_module/model/1/aten__transpose_slice_0_0_0_0_0__0__bundle_200_43891  |  Sizes = [1,4,189,128]  |  bf16  |  expBias = 0, scale = 1  |    |  ModelParam = 0  |  strides = [774144, 774144, 256, 4096, 2]  |  data = 0, sizeInBytes = 193536  |  isAliased = tensor_101_id_48332_module/model/1/aten__transpose, type = concat, offset: 0  |  location = in DRAM  |  isSparseLayout  |  "
    }
  }
  attr {
    key: "inputTensor:1"
    value {
      s: "bf16-13_43443  |  Sizes = [1,189,128]  |  bf16  |  expBias = 0, scale = 1  |    |  ModelParam = 0  |  strides = [48384, 48384, 256, 2]  |  data = 0, sizeInBytes = 48384  |  location = in DRAM  |  dramOffset = 0x3100000ec400  |  "
    }
  }
  attr {
    key: "inputTensor:2"
    value {
      s: "bf16-15_43444  |  Sizes = [1,189,128]  |  bf16  |  expBias = 0, scale = 1  |    |  ModelParam = 0  |  strides = [48384, 48384, 256, 2]  |  data = 0, sizeInBytes = 48384  |  location = in DRAM  |  dramOffset = 0x3100000f8100  |  "
    }
  }
  attr {
    key: "outputTensor:0"
    value {
      s: "tensor_103_slice_0_0_0_0_0__0__bundle_200_43894  |  Sizes = [1,4,189,128]  |  bf16  |  expBias = 0, scale = 1  |    |  ModelParam = 0  |  strides = [193536, 193536, 48384, 256, 2]  |  data = 0, sizeInBytes = 193536  |  location = in SRAM  |  sramOffset = 0x1000fffffd287000  |  "
    }
  }
}
node {
  name: "module/model/1/rotary_pos_embedding_fwd_bf16/4671_complex/rotary_pos_embedding_fwd_bf16_67/rope_st2_fwd_bf16_16_bundle_200/op_7"
  op: "rope_st2_fwd_bf16"
  input: "tensor_101_id_48332_module/model/1/aten__transpose_bundle_200/split_internal/0"
  input: "module/model/1/rotary_pos_embedding_fwd_bf16/4671_complex/rotary_pos_embedding_fwd_bf16_67/expand_dims_12"
  input: "module/model/1/rotary_pos_embedding_fwd_bf16/4671_complex/rotary_pos_embedding_fwd_bf16_67/expand_dims_14"
  attr {
    key: "Bundle_idx"
    value {
      s: "200"
    }
  }
  attr {
    key: "Exec_idx"
    value {
      s: "40"
    }
  }
  attr {
    key: "Op_idx"
    value {
      s: "3"
    }
  }
  attr {
    key: "inputTensor:0"
    value {
      s: "tensor_101_id_48332_module/model/1/aten__transpose_slice_0_0_1_0_0__0__bundle_200_43902  |  Sizes = [1,4,189,128]  |  bf16  |  expBias = 0, scale = 1  |    |  ModelParam = 0  |  strides = [774144, 774144, 256, 4096, 2]  |  data = 0, sizeInBytes = 193536  |  isAliased = tensor_101_id_48332_module/model/1/aten__transpose, type = concat, offset: 1024  |  location = in DRAM  |  isSparseLayout  |  "
    }
  }
  attr {
    key: "inputTensor:1"
    value {
      s: "bf16-13_43443  |  Sizes = [1,189,128]  |  bf16  |  expBias = 0, scale = 1  |    |  ModelParam = 0  |  strides = [48384, 48384, 256, 2]  |  data = 0, sizeInBytes = 48384  |  location = in DRAM  |  dramOffset = 0x3100000ec400  |  "
    }
  }
  attr {
    key: "inputTensor:2"
    value {
      s: "bf16-15_43444  |  Sizes = [1,189,128]  |  bf16  |  expBias = 0, scale = 1  |    |  ModelParam = 0  |  strides = [48384, 48384, 256, 2]  |  data = 0, sizeInBytes = 48384  |  location = in DRAM  |  dramOffset = 0x3100000f8100  |  "
    }
  }
  attr {
    key: "outputTensor:0"
    value {
      s: "tensor_103_slice_0_0_1_0_0__0__bundle_200_43903  |  Sizes = [1,4,189,128]  |  bf16  |  expBias = 0, scale = 1  |    |  ModelParam = 0  |  strides = [193536, 193536, 48384, 256, 2]  |  data = 0, sizeInBytes = 193536  |  location = in SRAM  |  sramOffset = 0x1000fffffd2b6400  |  "
    }
  }
}
node {
  name: "fusedTPCNode_78_1_bundle_200/op_0"
  op: "fused_kernel_0xC8F2E7E1_D5_bf16"
  input: "tensor_41_bundle_200/split_internal/0"
  attr {
    key: "Bundle_idx"
    value {
      s: "200"
    }
  }
  attr {
    key: "Exec_idx"
    value {
      s: "41"
    }
  }
  attr {
    key: "Op_idx"
    value {
      s: "4"
    }
  }
  attr {
    key: "inputTensor:0"
    value {
      s: "tensor_41_slice_0_0_0_0_0__0__bundle_200_43886  |  Sizes = [1,1,189,128]  |  bf16  |  expBias = 0, scale = 1  |    |  ModelParam = 0  |  strides = [193536, 193536, 48384, 256, 2]  |  data = 0, sizeInBytes = 48384  |  isAliased = tensor_41, type = concat, offset: 0  |  location = in DRAM  |  "
    }
  }
  attr {
    key: "outputTensor:0"
    value {
      s: "tensor_46_slice_0_0_0_0_0__0__bundle_200_43887  |  Sizes = [1,1,189,128]  |  hfloat8  |  expBias = 7, scale = 1  |    |  ModelParam = 0  |  strides = [96768, 96768, 24192, 128, 1]  |  data = 0, sizeInBytes = 24192  |  isAliased = tensor_46, type = concat, offset: 0  |  location = in DRAM  |  "
    }
  }
  attr {
    key: "outputTensor:1"
    value {
      s: "tensor_49_slice_0_0_0_0_0__0__bundle_200_43888  |  Sizes = [1,1,189,128]  |  bf16  |  expBias = 0, scale = 1  |    |  ModelParam = 0  |  strides = [193536, 193536, 48384, 256, 2]  |  data = 0, sizeInBytes = 48384  |  isAliased = tensor_49, type = concat, offset: 0  |  location = in DRAM  |  "
    }
  }
  attr {
    key: "outputTensor:2"
    value {
      s: "tensor-43633_slice_0_0_0_0_0__0__bundle_200_43889  |  Sizes = [1,1,189,128]  |  hfloat8  |  expBias = 7, scale = 1  |    |  ModelParam = 0  |  strides = [24192, 24192, 24192, 128, 1]  |  data = 0, sizeInBytes = 24192  |  isAliased = tensor_89_id_48447_module/model/1/fused_scaled_dot_product_attention/aten__view_slice_0_0_0_0_0__0__bundle_200_43890, type = alias, offset: 0  |  location = in SRAM  |  sramOffset = 0x1000fffffd2e5800  |  "
    }
  }
}
node {
  name: "reshape_5_5_bundle_200/op_1"
  op: "Reshape"
  input: "fusedTPCNode_78_1_bundle_200/op_0"
  attr {
    key: "Bundle_idx"
    value {
      s: "200"
    }
  }
  attr {
    key: "Exec_idx"
    value {
      s: "42"
    }
  }
  attr {
    key: "Op_idx"
    value {
      s: "5"
    }
  }
  attr {
    key: "inputTensor:0"
    value {
      s: "tensor-43633_slice_0_0_0_0_0__0__bundle_200_43889  |  Sizes = [1,1,189,128]  |  hfloat8  |  expBias = 7, scale = 1  |    |  ModelParam = 0  |  strides = [24192, 24192, 24192, 128, 1]  |  data = 0, sizeInBytes = 24192  |  isAliased = tensor_89_id_48447_module/model/1/fused_scaled_dot_product_attention/aten__view_slice_0_0_0_0_0__0__bundle_200_43890, type = alias, offset: 0  |  location = in SRAM  |  sramOffset = 0x1000fffffd2e5800  |  "
    }
  }
  attr {
    key: "outputTensor:0"
    value {
      s: "tensor_89_id_48447_module/model/1/fused_scaled_dot_product_attention/aten__view_slice_0_0_0_0_0__0__bundle_200_43890  |  Sizes = [1,1,1,189,128]  |  hfloat8  |  expBias = 7, scale = 1  |    |  ModelParam = 0  |  strides = [24192, 24192, 24192, 24192, 128, 1]  |  data = 0, sizeInBytes = 24192  |  location = in SRAM  |  sramOffset = 0x1000fffffd2e5800  |  "
    }
  }
}
node {
  name: "fusedTPCNode_78_3_bundle_200/op_3"
  op: "fused_kernel_0x95D407AC_D7_hf8"
  input: "module/model/1/rotary_pos_embedding_fwd_bf16/4671_complex/rotary_pos_embedding_fwd_bf16_67/rope_st2_fwd_bf16_16_bundle_200/op_2"
  attr {
    key: "Bundle_idx"
    value {
      s: "200"
    }
  }
  attr {
    key: "Exec_idx"
    value {
      s: "43"
    }
  }
  attr {
    key: "Op_idx"
    value {
      s: "6"
    }
  }
  attr {
    key: "inputTensor:0"
    value {
      s: "tensor_103_slice_0_0_0_0_0__0__bundle_200_43894  |  Sizes = [1,4,189,128]  |  bf16  |  expBias = 0, scale = 1  |    |  ModelParam = 0  |  strides = [193536, 193536, 48384, 256, 2]  |  data = 0, sizeInBytes = 193536  |  location = in SRAM  |  sramOffset = 0x1000fffffd287000  |  "
    }
  }
  attr {
    key: "outputTensor:0"
    value {
      s: "tensor-43635_slice_0_0_0_0_0__0__bundle_200_43895  |  Sizes = [1,4,189,128]  |  hfloat8  |  expBias = 7, scale = 1  |    |  ModelParam = 0  |  strides = [96768, 96768, 24192, 128, 1]  |  data = 0, sizeInBytes = 96768  |  isAliased = tensor_108_id_48445_module/model/1/fused_scaled_dot_product_attention/aten__view_slice_0_0_0_0_0__0__bundle_200_43896, type = alias, offset: 0  |  location = in SRAM  |  sramOffset = 0x1000fffffd2f1500  |  "
    }
  }
}
node {
  name: "reshape_11_11_bundle_200/op_4"
  op: "Reshape"
  input: "fusedTPCNode_78_3_bundle_200/op_3"
  attr {
    key: "Bundle_idx"
    value {
      s: "200"
    }
  }
  attr {
    key: "Exec_idx"
    value {
      s: "44"
    }
  }
  attr {
    key: "Op_idx"
    value {
      s: "7"
    }
  }
  attr {
    key: "inputTensor:0"
    value {
      s: "tensor-43635_slice_0_0_0_0_0__0__bundle_200_43895  |  Sizes = [1,4,189,128]  |  hfloat8  |  expBias = 7, scale = 1  |    |  ModelParam = 0  |  strides = [96768, 96768, 24192, 128, 1]  |  data = 0, sizeInBytes = 96768  |  isAliased = tensor_108_id_48445_module/model/1/fused_scaled_dot_product_attention/aten__view_slice_0_0_0_0_0__0__bundle_200_43896, type = alias, offset: 0  |  location = in SRAM  |  sramOffset = 0x1000fffffd2f1500  |  "
    }
  }
  attr {
    key: "outputTensor:0"
    value {
      s: "tensor_108_id_48445_module/model/1/fused_scaled_dot_product_attention/aten__view_slice_0_0_0_0_0__0__bundle_200_43896  |  Sizes = [1,1,4,189,128]  |  hfloat8  |  expBias = 7, scale = 1  |    |  ModelParam = 0  |  strides = [96768, 96768, 96768, 24192, 128, 1]  |  data = 0, sizeInBytes = 96768  |  location = in SRAM  |  sramOffset = 0x1000fffffd2f1500  |  "
    }
  }
}
node {
  name: "fusedTPCNode_78_1_bundle_200/op_5"
  op: "fused_kernel_0xC8F2E7E1_D5_bf16"
  input: "tensor_41_bundle_200/split_internal/0"
  attr {
    key: "Bundle_idx"
    value {
      s: "200"
    }
  }
  attr {
    key: "Exec_idx"
    value {
      s: "45"
    }
  }
  attr {
    key: "Op_idx"
    value {
      s: "8"
    }
  }
  attr {
    key: "inputTensor:0"
    value {
      s: "tensor_41_slice_0_0_1_0_0__0__bundle_200_43897  |  Sizes = [1,1,189,128]  |  bf16  |  expBias = 0, scale = 1  |    |  ModelParam = 0  |  strides = [193536, 193536, 48384, 256, 2]  |  data = 0, sizeInBytes = 48384  |  isAliased = tensor_41, type = concat, offset: 48384  |  location = in DRAM  |  "
    }
  }
  attr {
    key: "outputTensor:0"
    value {
      s: "tensor_46_slice_0_0_1_0_0__0__bundle_200_43898  |  Sizes = [1,1,189,128]  |  hfloat8  |  expBias = 7, scale = 1  |    |  ModelParam = 0  |  strides = [96768, 96768, 24192, 128, 1]  |  data = 0, sizeInBytes = 24192  |  isAliased = tensor_46, type = concat, offset: 24192  |  location = in DRAM  |  "
    }
  }
  attr {
    key: "outputTensor:1"
    value {
      s: "tensor_49_slice_0_0_1_0_0__0__bundle_200_43899  |  Sizes = [1,1,189,128]  |  bf16  |  expBias = 0, scale = 1  |    |  ModelParam = 0  |  strides = [193536, 193536, 48384, 256, 2]  |  data = 0, sizeInBytes = 48384  |  isAliased = tensor_49, type = concat, offset: 48384  |  location = in DRAM  |  "
    }
  }
  attr {
    key: "outputTensor:2"
    value {
      s: "tensor-43633_slice_0_0_1_0_0__0__bundle_200_43900  |  Sizes = [1,1,189,128]  |  hfloat8  |  expBias = 7, scale = 1  |    |  ModelParam = 0  |  strides = [24192, 24192, 24192, 128, 1]  |  data = 0, sizeInBytes = 24192  |  isAliased = tensor_89_id_48447_module/model/1/fused_scaled_dot_product_attention/aten__view_slice_0_0_0_1_0__0__bundle_200_43901, type = alias, offset: 0  |  location = in SRAM  |  sramOffset = 0x1000fffffd2eb680  |  "
    }
  }
}
node {
  name: "reshape_5_5_bundle_200/op_6"
  op: "Reshape"
  input: "fusedTPCNode_78_1_bundle_200/op_5"
  attr {
    key: "Bundle_idx"
    value {
      s: "200"
    }
  }
  attr {
    key: "Exec_idx"
    value {
      s: "46"
    }
  }
  attr {
    key: "Op_idx"
    value {
      s: "9"
    }
  }
  attr {
    key: "inputTensor:0"
    value {
      s: "tensor-43633_slice_0_0_1_0_0__0__bundle_200_43900  |  Sizes = [1,1,189,128]  |  hfloat8  |  expBias = 7, scale = 1  |    |  ModelParam = 0  |  strides = [24192, 24192, 24192, 128, 1]  |  data = 0, sizeInBytes = 24192  |  isAliased = tensor_89_id_48447_module/model/1/fused_scaled_dot_product_attention/aten__view_slice_0_0_0_1_0__0__bundle_200_43901, type = alias, offset: 0  |  location = in SRAM  |  sramOffset = 0x1000fffffd2eb680  |  "
    }
  }
  attr {
    key: "outputTensor:0"
    value {
      s: "tensor_89_id_48447_module/model/1/fused_scaled_dot_product_attention/aten__view_slice_0_0_0_1_0__0__bundle_200_43901  |  Sizes = [1,1,1,189,128]  |  hfloat8  |  expBias = 7, scale = 1  |    |  ModelParam = 0  |  strides = [24192, 24192, 24192, 24192, 128, 1]  |  data = 0, sizeInBytes = 24192  |  location = in SRAM  |  sramOffset = 0x1000fffffd2eb680  |  "
    }
  }
}
node {
  name: "fusedTPCNode_78_3_bundle_200/op_8"
  op: "fused_kernel_0x95D407AC_D7_hf8"
  input: "module/model/1/rotary_pos_embedding_fwd_bf16/4671_complex/rotary_pos_embedding_fwd_bf16_67/rope_st2_fwd_bf16_16_bundle_200/op_7"
  attr {
    key: "Bundle_idx"
    value {
      s: "200"
    }
  }
  attr {
    key: "Exec_idx"
    value {
      s: "47"
    }
  }
  attr {
    key: "Op_idx"
    value {
      s: "10"
    }
  }
  attr {
    key: "inputTensor:0"
    value {
      s: "tensor_103_slice_0_0_1_0_0__0__bundle_200_43903  |  Sizes = [1,4,189,128]  |  bf16  |  expBias = 0, scale = 1  |    |  ModelParam = 0  |  strides = [193536, 193536, 48384, 256, 2]  |  data = 0, sizeInBytes = 193536  |  location = in SRAM  |  sramOffset = 0x1000fffffd2b6400  |  "
    }
  }
  attr {
    key: "outputTensor:0"
    value {
      s: "tensor-43635_slice_0_0_1_0_0__0__bundle_200_43904  |  Sizes = [1,4,189,128]  |  hfloat8  |  expBias = 7, scale = 1  |    |  ModelParam = 0  |  strides = [96768, 96768, 24192, 128, 1]  |  data = 0, sizeInBytes = 96768  |  isAliased = tensor_108_id_48445_module/model/1/fused_scaled_dot_product_attention/aten__view_slice_0_0_0_1_0__0__bundle_200_43905, type = alias, offset: 0  |  location = in SRAM  |  sramOffset = 0x1000fffffd308f00  |  "
    }
  }
}
node {
  name: "reshape_11_11_bundle_200/op_9"
  op: "Reshape"
  input: "fusedTPCNode_78_3_bundle_200/op_8"
  attr {
    key: "Bundle_idx"
    value {
      s: "200"
    }
  }
  attr {
    key: "Exec_idx"
    value {
      s: "48"
    }
  }
  attr {
    key: "Op_idx"
    value {
      s: "11"
    }
  }
  attr {
    key: "inputTensor:0"
    value {
      s: "tensor-43635_slice_0_0_1_0_0__0__bundle_200_43904  |  Sizes = [1,4,189,128]  |  hfloat8  |  expBias = 7, scale = 1  |    |  ModelParam = 0  |  strides = [96768, 96768, 24192, 128, 1]  |  data = 0, sizeInBytes = 96768  |  isAliased = tensor_108_id_48445_module/model/1/fused_scaled_dot_product_attention/aten__view_slice_0_0_0_1_0__0__bundle_200_43905, type = alias, offset: 0  |  location = in SRAM  |  sramOffset = 0x1000fffffd308f00  |  "
    }
  }
  attr {
    key: "outputTensor:0"
    value {
      s: "tensor_108_id_48445_module/model/1/fused_scaled_dot_product_attention/aten__view_slice_0_0_0_1_0__0__bundle_200_43905  |  Sizes = [1,1,4,189,128]  |  hfloat8  |  expBias = 7, scale = 1  |    |  ModelParam = 0  |  strides = [96768, 96768, 96768, 24192, 128, 1]  |  data = 0, sizeInBytes = 96768  |  location = in SRAM  |  sramOffset = 0x1000fffffd308f00  |  "
    }
  }
}
node {
  name: "module/model/1/fused_scaled_dot_product_attention/sdpa_recomp_fwd_hf8/4674_complex/sdpa_recomp_fwd_hf8_67/sdpa_recomp_core_fwd_hf8_33/fp8_gemm_hf8_536/batch_gemm_16_bundle_200/op_10"
  op: "BatchGemm"
  input: "reshape_11_11_bundle_200/op_4"
  input: "reshape_5_5_bundle_200/op_1"
  attr {
    key: "Bundle_idx"
    value {
      s: "200"
    }
  }
  attr {
    key: "Exec_idx"
    value {
      s: "49"
    }
  }
  attr {
    key: "Op_idx"
    value {
      s: "12"
    }
  }
  attr {
    key: "Parameters"
    value {
      s: "transpose_a=false, transpose_b=true"
    }
  }
  attr {
    key: "fp8BiasIn"
    value {
      s: "7"
    }
  }
  attr {
    key: "fp8BiasIn2"
    value {
      s: "7"
    }
  }
  attr {
    key: "fp8BiasOut"
    value {
      s: "0"
    }
  }
  attr {
    key: "inputTensor:0"
    value {
      s: "tensor_108_id_48445_module/model/1/fused_scaled_dot_product_attention/aten__view_slice_0_0_0_0_0__0__bundle_200_43896  |  Sizes = [1,1,4,189,128]  |  hfloat8  |  expBias = 7, scale = 1  |    |  ModelParam = 0  |  strides = [96768, 96768, 96768, 24192, 128, 1]  |  data = 0, sizeInBytes = 96768  |  location = in SRAM  |  sramOffset = 0x1000fffffd2f1500  |  "
    }
  }
  attr {
    key: "inputTensor:1"
    value {
      s: "tensor_89_id_48447_module/model/1/fused_scaled_dot_product_attention/aten__view_slice_0_0_0_0_0__0__bundle_200_43890  |  Sizes = [1,1,1,189,128]  |  hfloat8  |  expBias = 7, scale = 1  |    |  ModelParam = 0  |  strides = [24192, 24192, 24192, 24192, 128, 1]  |  data = 0, sizeInBytes = 24192  |  location = in SRAM  |  sramOffset = 0x1000fffffd2e5800  |  "
    }
  }
  attr {
    key: "outputTensor:0"
    value {
      s: "bf16-17_43453_slice_0_0_0_0_0__0__bundle_200_43906  |  Sizes = [1,1,4,189,189]  |  bf16  |  expBias = 0, scale = 1  |    |  ModelParam = 0  |  strides = [1143072, 1143072, 285768, 71442, 378, 2]  |  data = 0, sizeInBytes = 285768  |  isAliased = bf16-17_43453, type = concat, offset: 0  |  location = in DRAM  |  "
    }
  }
}
node {
  name: "module/model/1/rotary_pos_embedding_fwd_bf16/4671_complex/rotary_pos_embedding_fwd_bf16_67/rope_st2_fwd_bf16_16_bundle_200/op_13"
  op: "rope_st2_fwd_bf16"
  input: "tensor_101_id_48332_module/model/1/aten__transpose_bundle_200/split_internal/0"
  input: "module/model/1/rotary_pos_embedding_fwd_bf16/4671_complex/rotary_pos_embedding_fwd_bf16_67/expand_dims_12"
  input: "module/model/1/rotary_pos_embedding_fwd_bf16/4671_complex/rotary_pos_embedding_fwd_bf16_67/expand_dims_14"
  attr {
    key: "Bundle_idx"
    value {
      s: "200"
    }
  }
  attr {
    key: "Exec_idx"
    value {
      s: "50"
    }
  }
  attr {
    key: "Op_idx"
    value {
      s: "13"
    }
  }
  attr {
    key: "inputTensor:0"
    value {
      s: "tensor_101_id_48332_module/model/1/aten__transpose_slice_0_0_2_0_0__0__bundle_200_43912  |  Sizes = [1,4,189,128]  |  bf16  |  expBias = 0, scale = 1  |    |  ModelParam = 0  |  strides = [774144, 774144, 256, 4096, 2]  |  data = 0, sizeInBytes = 193536  |  isAliased = tensor_101_id_48332_module/model/1/aten__transpose, type = concat, offset: 2048  |  location = in DRAM  |  isSparseLayout  |  "
    }
  }
  attr {
    key: "inputTensor:1"
    value {
      s: "bf16-13_43443  |  Sizes = [1,189,128]  |  bf16  |  expBias = 0, scale = 1  |    |  ModelParam = 0  |  strides = [48384, 48384, 256, 2]  |  data = 0, sizeInBytes = 48384  |  location = in DRAM  |  dramOffset = 0x3100000ec400  |  "
    }
  }
  attr {
    key: "inputTensor:2"
    value {
      s: "bf16-15_43444  |  Sizes = [1,189,128]  |  bf16  |  expBias = 0, scale = 1  |    |  ModelParam = 0  |  strides = [48384, 48384, 256, 2]  |  data = 0, sizeInBytes = 48384  |  location = in DRAM  |  dramOffset = 0x3100000f8100  |  "
    }
  }
  attr {
    key: "outputTensor:0"
    value {
      s: "tensor_103_slice_0_0_2_0_0__0__bundle_200_43913  |  Sizes = [1,4,189,128]  |  bf16  |  expBias = 0, scale = 1  |    |  ModelParam = 0  |  strides = [193536, 193536, 48384, 256, 2]  |  data = 0, sizeInBytes = 193536  |  location = in SRAM  |  sramOffset = 0x1000fffffd287000  |  "
    }
  }
}
node {
  name: "module/model/1/fused_scaled_dot_product_attention/sdpa_recomp_fwd_hf8/4674_complex/sdpa_recomp_fwd_hf8_67/sdpa_recomp_core_fwd_hf8_33/fp8_gemm_hf8_536/batch_gemm_16_bundle_200/op_16"
  op: "BatchGemm"
  input: "reshape_11_11_bundle_200/op_9"
  input: "reshape_5_5_bundle_200/op_6"
  attr {
    key: "Bundle_idx"
    value {
      s: "200"
    }
  }
  attr {
    key: "Exec_idx"
    value {
      s: "51"
    }
  }
  attr {
    key: "Op_idx"
    value {
      s: "14"
    }
  }
  attr {
    key: "Parameters"
    value {
      s: "transpose_a=false, transpose_b=true"
    }
  }
  attr {
    key: "fp8BiasIn"
    value {
      s: "7"
    }
  }
  attr {
    key: "fp8BiasIn2"
    value {
      s: "7"
    }
  }
  attr {
    key: "fp8BiasOut"
    value {
      s: "0"
    }
  }
  attr {
    key: "inputTensor:0"
    value {
      s: "tensor_108_id_48445_module/model/1/fused_scaled_dot_product_attention/aten__view_slice_0_0_0_1_0__0__bundle_200_43905  |  Sizes = [1,1,4,189,128]  |  hfloat8  |  expBias = 7, scale = 1  |    |  ModelParam = 0  |  strides = [96768, 96768, 96768, 24192, 128, 1]  |  data = 0, sizeInBytes = 96768  |  location = in SRAM  |  sramOffset = 0x1000fffffd308f00  |  "
    }
  }
  attr {
    key: "inputTensor:1"
    value {
      s: "tensor_89_id_48447_module/model/1/fused_scaled_dot_product_attention/aten__view_slice_0_0_0_1_0__0__bundle_200_43901  |  Sizes = [1,1,1,189,128]  |  hfloat8  |  expBias = 7, scale = 1  |    |  ModelParam = 0  |  strides = [24192, 24192, 24192, 24192, 128, 1]  |  data = 0, sizeInBytes = 24192  |  location = in SRAM  |  sramOffset = 0x1000fffffd2eb680  |  "
    }
  }
  attr {
    key: "outputTensor:0"
    value {
      s: "bf16-17_43453_slice_0_0_0_1_0__0__bundle_200_43916  |  Sizes = [1,1,4,189,189]  |  bf16  |  expBias = 0, scale = 1  |    |  ModelParam = 0  |  strides = [1143072, 1143072, 285768, 71442, 378, 2]  |  data = 0, sizeInBytes = 285768  |  isAliased = bf16-17_43453, type = concat, offset: 285768  |  location = in DRAM  |  "
    }
  }
}
node {
  name: "module/model/1/rotary_pos_embedding_fwd_bf16/4671_complex/rotary_pos_embedding_fwd_bf16_67/rope_st2_fwd_bf16_16_bundle_200/op_19"
  op: "rope_st2_fwd_bf16"
  input: "tensor_101_id_48332_module/model/1/aten__transpose_bundle_200/split_internal/0"
  input: "module/model/1/rotary_pos_embedding_fwd_bf16/4671_complex/rotary_pos_embedding_fwd_bf16_67/expand_dims_12"
  input: "module/model/1/rotary_pos_embedding_fwd_bf16/4671_complex/rotary_pos_embedding_fwd_bf16_67/expand_dims_14"
  attr {
    key: "Bundle_idx"
    value {
      s: "200"
    }
  }
  attr {
    key: "Exec_idx"
    value {
      s: "52"
    }
  }
  attr {
    key: "Op_idx"
    value {
      s: "15"
    }
  }
  attr {
    key: "inputTensor:0"
    value {
      s: "tensor_101_id_48332_module/model/1/aten__transpose_slice_0_0_3_0_0__0__bundle_200_43922  |  Sizes = [1,4,189,128]  |  bf16  |  expBias = 0, scale = 1  |    |  ModelParam = 0  |  strides = [774144, 774144, 256, 4096, 2]  |  data = 0, sizeInBytes = 193536  |  isAliased = tensor_101_id_48332_module/model/1/aten__transpose, type = concat, offset: 3072  |  location = in DRAM  |  isSparseLayout  |  "
    }
  }
  attr {
    key: "inputTensor:1"
    value {
      s: "bf16-13_43443  |  Sizes = [1,189,128]  |  bf16  |  expBias = 0, scale = 1  |    |  ModelParam = 0  |  strides = [48384, 48384, 256, 2]  |  data = 0, sizeInBytes = 48384  |  location = in DRAM  |  dramOffset = 0x3100000ec400  |  "
    }
  }
  attr {
    key: "inputTensor:2"
    value {
      s: "bf16-15_43444  |  Sizes = [1,189,128]  |  bf16  |  expBias = 0, scale = 1  |    |  ModelParam = 0  |  strides = [48384, 48384, 256, 2]  |  data = 0, sizeInBytes = 48384  |  location = in DRAM  |  dramOffset = 0x3100000f8100  |  "
    }
  }
  attr {
    key: "outputTensor:0"
    value {
      s: "tensor_103_slice_0_0_3_0_0__0__bundle_200_43923  |  Sizes = [1,4,189,128]  |  bf16  |  expBias = 0, scale = 1  |    |  ModelParam = 0  |  strides = [193536, 193536, 48384, 256, 2]  |  data = 0, sizeInBytes = 193536  |  location = in SRAM  |  sramOffset = 0x1000fffffd2b6400  |  "
    }
  }
}
node {
  name: "fusedTPCNode_78_1_bundle_200/op_11"
  op: "fused_kernel_0xC8F2E7E1_D5_bf16"
  input: "tensor_41_bundle_200/split_internal/0"
  attr {
    key: "Bundle_idx"
    value {
      s: "200"
    }
  }
  attr {
    key: "Exec_idx"
    value {
      s: "53"
    }
  }
  attr {
    key: "Op_idx"
    value {
      s: "16"
    }
  }
  attr {
    key: "inputTensor:0"
    value {
      s: "tensor_41_slice_0_0_2_0_0__0__bundle_200_43907  |  Sizes = [1,1,189,128]  |  bf16  |  expBias = 0, scale = 1  |    |  ModelParam = 0  |  strides = [193536, 193536, 48384, 256, 2]  |  data = 0, sizeInBytes = 48384  |  isAliased = tensor_41, type = concat, offset: 96768  |  location = in DRAM  |  "
    }
  }
  attr {
    key: "outputTensor:0"
    value {
      s: "tensor_46_slice_0_0_2_0_0__0__bundle_200_43908  |  Sizes = [1,1,189,128]  |  hfloat8  |  expBias = 7, scale = 1  |    |  ModelParam = 0  |  strides = [96768, 96768, 24192, 128, 1]  |  data = 0, sizeInBytes = 24192  |  isAliased = tensor_46, type = concat, offset: 48384  |  location = in DRAM  |  "
    }
  }
  attr {
    key: "outputTensor:1"
    value {
      s: "tensor_49_slice_0_0_2_0_0__0__bundle_200_43909  |  Sizes = [1,1,189,128]  |  bf16  |  expBias = 0, scale = 1  |    |  ModelParam = 0  |  strides = [193536, 193536, 48384, 256, 2]  |  data = 0, sizeInBytes = 48384  |  isAliased = tensor_49, type = concat, offset: 96768  |  location = in DRAM  |  "
    }
  }
  attr {
    key: "outputTensor:2"
    value {
      s: "tensor-43633_slice_0_0_2_0_0__0__bundle_200_43910  |  Sizes = [1,1,189,128]  |  hfloat8  |  expBias = 7, scale = 1  |    |  ModelParam = 0  |  strides = [24192, 24192, 24192, 128, 1]  |  data = 0, sizeInBytes = 24192  |  isAliased = tensor_89_id_48447_module/model/1/fused_scaled_dot_product_attention/aten__view_slice_0_0_0_2_0__0__bundle_200_43911, type = alias, offset: 0  |  location = in SRAM  |  sramOffset = 0x1000fffffd2e5800  |  "
    }
  }
}
node {
  name: "reshape_5_5_bundle_200/op_12"
  op: "Reshape"
  input: "fusedTPCNode_78_1_bundle_200/op_11"
  attr {
    key: "Bundle_idx"
    value {
      s: "200"
    }
  }
  attr {
    key: "Exec_idx"
    value {
      s: "54"
    }
  }
  attr {
    key: "Op_idx"
    value {
      s: "17"
    }
  }
  attr {
    key: "inputTensor:0"
    value {
      s: "tensor-43633_slice_0_0_2_0_0__0__bundle_200_43910  |  Sizes = [1,1,189,128]  |  hfloat8  |  expBias = 7, scale = 1  |    |  ModelParam = 0  |  strides = [24192, 24192, 24192, 128, 1]  |  data = 0, sizeInBytes = 24192  |  isAliased = tensor_89_id_48447_module/model/1/fused_scaled_dot_product_attention/aten__view_slice_0_0_0_2_0__0__bundle_200_43911, type = alias, offset: 0  |  location = in SRAM  |  sramOffset = 0x1000fffffd2e5800  |  "
    }
  }
  attr {
    key: "outputTensor:0"
    value {
      s: "tensor_89_id_48447_module/model/1/fused_scaled_dot_product_attention/aten__view_slice_0_0_0_2_0__0__bundle_200_43911  |  Sizes = [1,1,1,189,128]  |  hfloat8  |  expBias = 7, scale = 1  |    |  ModelParam = 0  |  strides = [24192, 24192, 24192, 24192, 128, 1]  |  data = 0, sizeInBytes = 24192  |  location = in SRAM  |  sramOffset = 0x1000fffffd2e5800  |  "
    }
  }
}
node {
  name: "fusedTPCNode_78_3_bundle_200/op_14"
  op: "fused_kernel_0x95D407AC_D7_hf8"
  input: "module/model/1/rotary_pos_embedding_fwd_bf16/4671_complex/rotary_pos_embedding_fwd_bf16_67/rope_st2_fwd_bf16_16_bundle_200/op_13"
  attr {
    key: "Bundle_idx"
    value {
      s: "200"
    }
  }
  attr {
    key: "Exec_idx"
    value {
      s: "55"
    }
  }
  attr {
    key: "Op_idx"
    value {
      s: "18"
    }
  }
  attr {
    key: "inputTensor:0"
    value {
      s: "tensor_103_slice_0_0_2_0_0__0__bundle_200_43913  |  Sizes = [1,4,189,128]  |  bf16  |  expBias = 0, scale = 1  |    |  ModelParam = 0  |  strides = [193536, 193536, 48384, 256, 2]  |  data = 0, sizeInBytes = 193536  |  location = in SRAM  |  sramOffset = 0x1000fffffd287000  |  "
    }
  }
  attr {
    key: "outputTensor:0"
    value {
      s: "tensor-43635_slice_0_0_2_0_0__0__bundle_200_43914  |  Sizes = [1,4,189,128]  |  hfloat8  |  expBias = 7, scale = 1  |    |  ModelParam = 0  |  strides = [96768, 96768, 24192, 128, 1]  |  data = 0, sizeInBytes = 96768  |  isAliased = tensor_108_id_48445_module/model/1/fused_scaled_dot_product_attention/aten__view_slice_0_0_0_2_0__0__bundle_200_43915, type = alias, offset: 0  |  location = in SRAM  |  sramOffset = 0x1000fffffd2f1500  |  "
    }
  }
}
node {
  name: "reshape_11_11_bundle_200/op_15"
  op: "Reshape"
  input: "fusedTPCNode_78_3_bundle_200/op_14"
  attr {
    key: "Bundle_idx"
    value {
      s: "200"
    }
  }
  attr {
    key: "Exec_idx"
    value {
      s: "56"
    }
  }
  attr {
    key: "Op_idx"
    value {
      s: "19"
    }
  }
  attr {
    key: "inputTensor:0"
    value {
      s: "tensor-43635_slice_0_0_2_0_0__0__bundle_200_43914  |  Sizes = [1,4,189,128]  |  hfloat8  |  expBias = 7, scale = 1  |    |  ModelParam = 0  |  strides = [96768, 96768, 24192, 128, 1]  |  data = 0, sizeInBytes = 96768  |  isAliased = tensor_108_id_48445_module/model/1/fused_scaled_dot_product_attention/aten__view_slice_0_0_0_2_0__0__bundle_200_43915, type = alias, offset: 0  |  location = in SRAM  |  sramOffset = 0x1000fffffd2f1500  |  "
    }
  }
  attr {
    key: "outputTensor:0"
    value {
      s: "tensor_108_id_48445_module/model/1/fused_scaled_dot_product_attention/aten__view_slice_0_0_0_2_0__0__bundle_200_43915  |  Sizes = [1,1,4,189,128]  |  hfloat8  |  expBias = 7, scale = 1  |    |  ModelParam = 0  |  strides = [96768, 96768, 96768, 24192, 128, 1]  |  data = 0, sizeInBytes = 96768  |  location = in SRAM  |  sramOffset = 0x1000fffffd2f1500  |  "
    }
  }
}
node {
  name: "fusedTPCNode_78_1_bundle_200/op_17"
  op: "fused_kernel_0xC8F2E7E1_D5_bf16"
  input: "tensor_41_bundle_200/split_internal/0"
  attr {
    key: "Bundle_idx"
    value {
      s: "200"
    }
  }
  attr {
    key: "Exec_idx"
    value {
      s: "57"
    }
  }
  attr {
    key: "Op_idx"
    value {
      s: "20"
    }
  }
  attr {
    key: "inputTensor:0"
    value {
      s: "tensor_41_slice_0_0_3_0_0__0__bundle_200_43917  |  Sizes = [1,1,189,128]  |  bf16  |  expBias = 0, scale = 1  |    |  ModelParam = 0  |  strides = [193536, 193536, 48384, 256, 2]  |  data = 0, sizeInBytes = 48384  |  isAliased = tensor_41, type = concat, offset: 145152  |  location = in DRAM  |  "
    }
  }
  attr {
    key: "outputTensor:0"
    value {
      s: "tensor_46_slice_0_0_3_0_0__0__bundle_200_43918  |  Sizes = [1,1,189,128]  |  hfloat8  |  expBias = 7, scale = 1  |    |  ModelParam = 0  |  strides = [96768, 96768, 24192, 128, 1]  |  data = 0, sizeInBytes = 24192  |  isAliased = tensor_46, type = concat, offset: 72576  |  location = in DRAM  |  "
    }
  }
  attr {
    key: "outputTensor:1"
    value {
      s: "tensor_49_slice_0_0_3_0_0__0__bundle_200_43919  |  Sizes = [1,1,189,128]  |  bf16  |  expBias = 0, scale = 1  |    |  ModelParam = 0  |  strides = [193536, 193536, 48384, 256, 2]  |  data = 0, sizeInBytes = 48384  |  isAliased = tensor_49, type = concat, offset: 145152  |  location = in DRAM  |  "
    }
  }
  attr {
    key: "outputTensor:2"
    value {
      s: "tensor-43633_slice_0_0_3_0_0__0__bundle_200_43920  |  Sizes = [1,1,189,128]  |  hfloat8  |  expBias = 7, scale = 1  |    |  ModelParam = 0  |  strides = [24192, 24192, 24192, 128, 1]  |  data = 0, sizeInBytes = 24192  |  isAliased = tensor_89_id_48447_module/model/1/fused_scaled_dot_product_attention/aten__view_slice_0_0_0_3_0__0__bundle_200_43921, type = alias, offset: 0  |  location = in SRAM  |  sramOffset = 0x1000fffffd2eb680  |  "
    }
  }
}
node {
  name: "reshape_5_5_bundle_200/op_18"
  op: "Reshape"
  input: "fusedTPCNode_78_1_bundle_200/op_17"
  attr {
    key: "Bundle_idx"
    value {
      s: "200"
    }
  }
  attr {
    key: "Exec_idx"
    value {
      s: "58"
    }
  }
  attr {
    key: "Op_idx"
    value {
      s: "21"
    }
  }
  attr {
    key: "inputTensor:0"
    value {
      s: "tensor-43633_slice_0_0_3_0_0__0__bundle_200_43920  |  Sizes = [1,1,189,128]  |  hfloat8  |  expBias = 7, scale = 1  |    |  ModelParam = 0  |  strides = [24192, 24192, 24192, 128, 1]  |  data = 0, sizeInBytes = 24192  |  isAliased = tensor_89_id_48447_module/model/1/fused_scaled_dot_product_attention/aten__view_slice_0_0_0_3_0__0__bundle_200_43921, type = alias, offset: 0  |  location = in SRAM  |  sramOffset = 0x1000fffffd2eb680  |  "
    }
  }
  attr {
    key: "outputTensor:0"
    value {
      s: "tensor_89_id_48447_module/model/1/fused_scaled_dot_product_attention/aten__view_slice_0_0_0_3_0__0__bundle_200_43921  |  Sizes = [1,1,1,189,128]  |  hfloat8  |  expBias = 7, scale = 1  |    |  ModelParam = 0  |  strides = [24192, 24192, 24192, 24192, 128, 1]  |  data = 0, sizeInBytes = 24192  |  location = in SRAM  |  sramOffset = 0x1000fffffd2eb680  |  "
    }
  }
}
node {
  name: "tensor_46_bundle_200/concat_logical_internal/0"
  op: "Concatenate"
  input: "fusedTPCNode_78_1_bundle_200/op_0"
  input: "fusedTPCNode_78_1_bundle_200/op_5"
  input: "fusedTPCNode_78_1_bundle_200/op_11"
  input: "fusedTPCNode_78_1_bundle_200/op_17"
  attr {
    key: "Bundle_idx"
    value {
      s: "200"
    }
  }
  attr {
    key: "Exec_idx"
    value {
      s: "59"
    }
  }
  attr {
    key: "Op_idx"
    value {
      s: "22"
    }
  }
  attr {
    key: "inputTensor:0"
    value {
      s: "tensor_46_slice_0_0_0_0_0__0__bundle_200_43887  |  Sizes = [1,1,189,128]  |  hfloat8  |  expBias = 7, scale = 1  |    |  ModelParam = 0  |  strides = [96768, 96768, 24192, 128, 1]  |  data = 0, sizeInBytes = 24192  |  isAliased = tensor_46, type = concat, offset: 0  |  location = in DRAM  |  "
    }
  }
  attr {
    key: "inputTensor:1"
    value {
      s: "tensor_46_slice_0_0_1_0_0__0__bundle_200_43898  |  Sizes = [1,1,189,128]  |  hfloat8  |  expBias = 7, scale = 1  |    |  ModelParam = 0  |  strides = [96768, 96768, 24192, 128, 1]  |  data = 0, sizeInBytes = 24192  |  isAliased = tensor_46, type = concat, offset: 24192  |  location = in DRAM  |  "
    }
  }
  attr {
    key: "inputTensor:2"
    value {
      s: "tensor_46_slice_0_0_2_0_0__0__bundle_200_43908  |  Sizes = [1,1,189,128]  |  hfloat8  |  expBias = 7, scale = 1  |    |  ModelParam = 0  |  strides = [96768, 96768, 24192, 128, 1]  |  data = 0, sizeInBytes = 24192  |  isAliased = tensor_46, type = concat, offset: 48384  |  location = in DRAM  |  "
    }
  }
  attr {
    key: "inputTensor:3"
    value {
      s: "tensor_46_slice_0_0_3_0_0__0__bundle_200_43918  |  Sizes = [1,1,189,128]  |  hfloat8  |  expBias = 7, scale = 1  |    |  ModelParam = 0  |  strides = [96768, 96768, 24192, 128, 1]  |  data = 0, sizeInBytes = 24192  |  isAliased = tensor_46, type = concat, offset: 72576  |  location = in DRAM  |  "
    }
  }
  attr {
    key: "outputTensor:0"
    value {
      s: "tensor_46  |  Sizes = [1,4,189,128]  |  hfloat8  |  expBias = 7, scale = 1  |    |  ModelParam = 0  |  strides = [96768, 96768, 24192, 128, 1]  |  data = 0, sizeInBytes = 96768  |  isPersistent  |  location = in DRAM  |  dramOffset = 0x60000000000  |  userMemorySection(type=Persistent, id=6)  |  "
    }
  }
}
node {
  name: "tensor_46"
  op: "OutputTensor"
  input: "tensor_46_bundle_200/concat_logical_internal/0"
  attr {
    key: "dtype"
    value {
      type: DT_INVALID
    }
  }
  attr {
    key: "shape"
    value {
      shape {
        dim {
          size: 128
        }
        dim {
          size: 189
        }
        dim {
          size: 4
        }
        dim {
          size: 1
        }
        dim {
          size: 1
        }
      }
    }
  }
  attr {
    key: "synDataType"
    value {
      s: "hfloat8"
    }
  }
}
node {
  name: "tensor_49_bundle_200/concat_logical_internal/0"
  op: "Concatenate"
  input: "fusedTPCNode_78_1_bundle_200/op_0"
  input: "fusedTPCNode_78_1_bundle_200/op_5"
  input: "fusedTPCNode_78_1_bundle_200/op_11"
  input: "fusedTPCNode_78_1_bundle_200/op_17"
  attr {
    key: "Bundle_idx"
    value {
      s: "200"
    }
  }
  attr {
    key: "Exec_idx"
    value {
      s: "60"
    }
  }
  attr {
    key: "Op_idx"
    value {
      s: "23"
    }
  }
  attr {
    key: "inputTensor:0"
    value {
      s: "tensor_49_slice_0_0_0_0_0__0__bundle_200_43888  |  Sizes = [1,1,189,128]  |  bf16  |  expBias = 0, scale = 1  |    |  ModelParam = 0  |  strides = [193536, 193536, 48384, 256, 2]  |  data = 0, sizeInBytes = 48384  |  isAliased = tensor_49, type = concat, offset: 0  |  location = in DRAM  |  "
    }
  }
  attr {
    key: "inputTensor:1"
    value {
      s: "tensor_49_slice_0_0_1_0_0__0__bundle_200_43899  |  Sizes = [1,1,189,128]  |  bf16  |  expBias = 0, scale = 1  |    |  ModelParam = 0  |  strides = [193536, 193536, 48384, 256, 2]  |  data = 0, sizeInBytes = 48384  |  isAliased = tensor_49, type = concat, offset: 48384  |  location = in DRAM  |  "
    }
  }
  attr {
    key: "inputTensor:2"
    value {
      s: "tensor_49_slice_0_0_2_0_0__0__bundle_200_43909  |  Sizes = [1,1,189,128]  |  bf16  |  expBias = 0, scale = 1  |    |  ModelParam = 0  |  strides = [193536, 193536, 48384, 256, 2]  |  data = 0, sizeInBytes = 48384  |  isAliased = tensor_49, type = concat, offset: 96768  |  location = in DRAM  |  "
    }
  }
  attr {
    key: "inputTensor:3"
    value {
      s: "tensor_49_slice_0_0_3_0_0__0__bundle_200_43919  |  Sizes = [1,1,189,128]  |  bf16  |  expBias = 0, scale = 1  |    |  ModelParam = 0  |  strides = [193536, 193536, 48384, 256, 2]  |  data = 0, sizeInBytes = 48384  |  isAliased = tensor_49, type = concat, offset: 145152  |  location = in DRAM  |  "
    }
  }
  attr {
    key: "outputTensor:0"
    value {
      s: "tensor_49  |  Sizes = [1,4,189,128]  |  bf16  |  expBias = 0, scale = 1  |    |  ModelParam = 0  |  strides = [193536, 193536, 48384, 256, 2]  |  data = 0, sizeInBytes = 193536  |  isPersistent  |  location = in DRAM  |  dramOffset = 0x130000000000  |  userMemorySection(type=Persistent, id=19)  |  "
    }
  }
}
node {
  name: "tensor_49"
  op: "OutputTensor"
  input: "tensor_49_bundle_200/concat_logical_internal/0"
  attr {
    key: "dtype"
    value {
      type: DT_BFLOAT16
    }
  }
  attr {
    key: "shape"
    value {
      shape {
        dim {
          size: 128
        }
        dim {
          size: 189
        }
        dim {
          size: 4
        }
        dim {
          size: 1
        }
        dim {
          size: 1
        }
      }
    }
  }
  attr {
    key: "synDataType"
    value {
      s: "bf16"
    }
  }
}
node {
  name: "fusedTPCNode_78_3_bundle_200/op_20"
  op: "fused_kernel_0x95D407AC_D7_hf8"
  input: "module/model/1/rotary_pos_embedding_fwd_bf16/4671_complex/rotary_pos_embedding_fwd_bf16_67/rope_st2_fwd_bf16_16_bundle_200/op_19"
  attr {
    key: "Bundle_idx"
    value {
      s: "200"
    }
  }
  attr {
    key: "Exec_idx"
    value {
      s: "61"
    }
  }
  attr {
    key: "Op_idx"
    value {
      s: "24"
    }
  }
  attr {
    key: "inputTensor:0"
    value {
      s: "tensor_103_slice_0_0_3_0_0__0__bundle_200_43923  |  Sizes = [1,4,189,128]  |  bf16  |  expBias = 0, scale = 1  |    |  ModelParam = 0  |  strides = [193536, 193536, 48384, 256, 2]  |  data = 0, sizeInBytes = 193536  |  location = in SRAM  |  sramOffset = 0x1000fffffd2b6400  |  "
    }
  }
  attr {
    key: "outputTensor:0"
    value {
      s: "tensor-43635_slice_0_0_3_0_0__0__bundle_200_43924  |  Sizes = [1,4,189,128]  |  hfloat8  |  expBias = 7, scale = 1  |    |  ModelParam = 0  |  strides = [96768, 96768, 24192, 128, 1]  |  data = 0, sizeInBytes = 96768  |  isAliased = tensor_108_id_48445_module/model/1/fused_scaled_dot_product_attention/aten__view_slice_0_0_0_3_0__0__bundle_200_43925, type = alias, offset: 0  |  location = in SRAM  |  sramOffset = 0x1000fffffd308f00  |  "
    }
  }
}
node {
  name: "reshape_11_11_bundle_200/op_21"
  op: "Reshape"
  input: "fusedTPCNode_78_3_bundle_200/op_20"
  attr {
    key: "Bundle_idx"
    value {
      s: "200"
    }
  }
  attr {
    key: "Exec_idx"
    value {
      s: "62"
    }
  }
  attr {
    key: "Op_idx"
    value {
      s: "25"
    }
  }
  attr {
    key: "inputTensor:0"
    value {
      s: "tensor-43635_slice_0_0_3_0_0__0__bundle_200_43924  |  Sizes = [1,4,189,128]  |  hfloat8  |  expBias = 7, scale = 1  |    |  ModelParam = 0  |  strides = [96768, 96768, 24192, 128, 1]  |  data = 0, sizeInBytes = 96768  |  isAliased = tensor_108_id_48445_module/model/1/fused_scaled_dot_product_attention/aten__view_slice_0_0_0_3_0__0__bundle_200_43925, type = alias, offset: 0  |  location = in SRAM  |  sramOffset = 0x1000fffffd308f00  |  "
    }
  }
  attr {
    key: "outputTensor:0"
    value {
      s: "tensor_108_id_48445_module/model/1/fused_scaled_dot_product_attention/aten__view_slice_0_0_0_3_0__0__bundle_200_43925  |  Sizes = [1,1,4,189,128]  |  hfloat8  |  expBias = 7, scale = 1  |    |  ModelParam = 0  |  strides = [96768, 96768, 96768, 24192, 128, 1]  |  data = 0, sizeInBytes = 96768  |  location = in SRAM  |  sramOffset = 0x1000fffffd308f00  |  "
    }
  }
}
node {
  name: "module/model/1/fused_scaled_dot_product_attention/sdpa_recomp_fwd_hf8/4674_complex/sdpa_recomp_fwd_hf8_67/sdpa_recomp_core_fwd_hf8_33/fp8_gemm_hf8_536/batch_gemm_16_bundle_200/op_22"
  op: "BatchGemm"
  input: "reshape_11_11_bundle_200/op_15"
  input: "reshape_5_5_bundle_200/op_12"
  attr {
    key: "Bundle_idx"
    value {
      s: "200"
    }
  }
  attr {
    key: "Exec_idx"
    value {
      s: "63"
    }
  }
  attr {
    key: "Op_idx"
    value {
      s: "26"
    }
  }
  attr {
    key: "Parameters"
    value {
      s: "transpose_a=false, transpose_b=true"
    }
  }
  attr {
    key: "fp8BiasIn"
    value {
      s: "7"
    }
  }
  attr {
    key: "fp8BiasIn2"
    value {
      s: "7"
    }
  }
  attr {
    key: "fp8BiasOut"
    value {
      s: "0"
    }
  }
  attr {
    key: "inputTensor:0"
    value {
      s: "tensor_108_id_48445_module/model/1/fused_scaled_dot_product_attention/aten__view_slice_0_0_0_2_0__0__bundle_200_43915  |  Sizes = [1,1,4,189,128]  |  hfloat8  |  expBias = 7, scale = 1  |    |  ModelParam = 0  |  strides = [96768, 96768, 96768, 24192, 128, 1]  |  data = 0, sizeInBytes = 96768  |  location = in SRAM  |  sramOffset = 0x1000fffffd2f1500  |  "
    }
  }
  attr {
    key: "inputTensor:1"
    value {
      s: "tensor_89_id_48447_module/model/1/fused_scaled_dot_product_attention/aten__view_slice_0_0_0_2_0__0__bundle_200_43911  |  Sizes = [1,1,1,189,128]  |  hfloat8  |  expBias = 7, scale = 1  |    |  ModelParam = 0  |  strides = [24192, 24192, 24192, 24192, 128, 1]  |  data = 0, sizeInBytes = 24192  |  location = in SRAM  |  sramOffset = 0x1000fffffd2e5800  |  "
    }
  }
  attr {
    key: "outputTensor:0"
    value {
      s: "bf16-17_43453_slice_0_0_0_2_0__0__bundle_200_43926  |  Sizes = [1,1,4,189,189]  |  bf16  |  expBias = 0, scale = 1  |    |  ModelParam = 0  |  strides = [1143072, 1143072, 285768, 71442, 378, 2]  |  data = 0, sizeInBytes = 285768  |  isAliased = bf16-17_43453, type = concat, offset: 571536  |  location = in DRAM  |  "
    }
  }
}
node {
  name: "module/model/1/fused_scaled_dot_product_attention/sdpa_recomp_fwd_hf8/4674_complex/sdpa_recomp_fwd_hf8_67/sdpa_recomp_core_fwd_hf8_33/fp8_gemm_hf8_536/batch_gemm_16_bundle_200/op_23"
  op: "BatchGemm"
  input: "reshape_11_11_bundle_200/op_21"
  input: "reshape_5_5_bundle_200/op_18"
  attr {
    key: "Bundle_idx"
    value {
      s: "200"
    }
  }
  attr {
    key: "Exec_idx"
    value {
      s: "64"
    }
  }
  attr {
    key: "Op_idx"
    value {
      s: "27"
    }
  }
  attr {
    key: "Parameters"
    value {
      s: "transpose_a=false, transpose_b=true"
    }
  }
  attr {
    key: "fp8BiasIn"
    value {
      s: "7"
    }
  }
  attr {
    key: "fp8BiasIn2"
    value {
      s: "7"
    }
  }
  attr {
    key: "fp8BiasOut"
    value {
      s: "0"
    }
  }
  attr {
    key: "inputTensor:0"
    value {
      s: "tensor_108_id_48445_module/model/1/fused_scaled_dot_product_attention/aten__view_slice_0_0_0_3_0__0__bundle_200_43925  |  Sizes = [1,1,4,189,128]  |  hfloat8  |  expBias = 7, scale = 1  |    |  ModelParam = 0  |  strides = [96768, 96768, 96768, 24192, 128, 1]  |  data = 0, sizeInBytes = 96768  |  location = in SRAM  |  sramOffset = 0x1000fffffd308f00  |  "
    }
  }
  attr {
    key: "inputTensor:1"
    value {
      s: "tensor_89_id_48447_module/model/1/fused_scaled_dot_product_attention/aten__view_slice_0_0_0_3_0__0__bundle_200_43921  |  Sizes = [1,1,1,189,128]  |  hfloat8  |  expBias = 7, scale = 1  |    |  ModelParam = 0  |  strides = [24192, 24192, 24192, 24192, 128, 1]  |  data = 0, sizeInBytes = 24192  |  location = in SRAM  |  sramOffset = 0x1000fffffd2eb680  |  "
    }
  }
  attr {
    key: "outputTensor:0"
    value {
      s: "bf16-17_43453_slice_0_0_0_3_0__0__bundle_200_43927  |  Sizes = [1,1,4,189,189]  |  bf16  |  expBias = 0, scale = 1  |    |  ModelParam = 0  |  strides = [1143072, 1143072, 285768, 71442, 378, 2]  |  data = 0, sizeInBytes = 285768  |  isAliased = bf16-17_43453, type = concat, offset: 857304  |  location = in DRAM  |  "
    }
  }
}
node {
  name: "bf16-17_43453_bundle_200/concat_logical_internal/0"
  op: "Concatenate"
  input: "module/model/1/fused_scaled_dot_product_attention/sdpa_recomp_fwd_hf8/4674_complex/sdpa_recomp_fwd_hf8_67/sdpa_recomp_core_fwd_hf8_33/fp8_gemm_hf8_536/batch_gemm_16_bundle_200/op_10"
  input: "module/model/1/fused_scaled_dot_product_attention/sdpa_recomp_fwd_hf8/4674_complex/sdpa_recomp_fwd_hf8_67/sdpa_recomp_core_fwd_hf8_33/fp8_gemm_hf8_536/batch_gemm_16_bundle_200/op_16"
  input: "module/model/1/fused_scaled_dot_product_attention/sdpa_recomp_fwd_hf8/4674_complex/sdpa_recomp_fwd_hf8_67/sdpa_recomp_core_fwd_hf8_33/fp8_gemm_hf8_536/batch_gemm_16_bundle_200/op_22"
  input: "module/model/1/fused_scaled_dot_product_attention/sdpa_recomp_fwd_hf8/4674_complex/sdpa_recomp_fwd_hf8_67/sdpa_recomp_core_fwd_hf8_33/fp8_gemm_hf8_536/batch_gemm_16_bundle_200/op_23"
  attr {
    key: "Bundle_idx"
    value {
      s: "200"
    }
  }
  attr {
    key: "Exec_idx"
    value {
      s: "65"
    }
  }
  attr {
    key: "Op_idx"
    value {
      s: "28"
    }
  }
  attr {
    key: "inputTensor:0"
    value {
      s: "bf16-17_43453_slice_0_0_0_0_0__0__bundle_200_43906  |  Sizes = [1,1,4,189,189]  |  bf16  |  expBias = 0, scale = 1  |    |  ModelParam = 0  |  strides = [1143072, 1143072, 285768, 71442, 378, 2]  |  data = 0, sizeInBytes = 285768  |  isAliased = bf16-17_43453, type = concat, offset: 0  |  location = in DRAM  |  "
    }
  }
  attr {
    key: "inputTensor:1"
    value {
      s: "bf16-17_43453_slice_0_0_0_1_0__0__bundle_200_43916  |  Sizes = [1,1,4,189,189]  |  bf16  |  expBias = 0, scale = 1  |    |  ModelParam = 0  |  strides = [1143072, 1143072, 285768, 71442, 378, 2]  |  data = 0, sizeInBytes = 285768  |  isAliased = bf16-17_43453, type = concat, offset: 285768  |  location = in DRAM  |  "
    }
  }
  attr {
    key: "inputTensor:2"
    value {
      s: "bf16-17_43453_slice_0_0_0_2_0__0__bundle_200_43926  |  Sizes = [1,1,4,189,189]  |  bf16  |  expBias = 0, scale = 1  |    |  ModelParam = 0  |  strides = [1143072, 1143072, 285768, 71442, 378, 2]  |  data = 0, sizeInBytes = 285768  |  isAliased = bf16-17_43453, type = concat, offset: 571536  |  location = in DRAM  |  "
    }
  }
  attr {
    key: "inputTensor:3"
    value {
      s: "bf16-17_43453_slice_0_0_0_3_0__0__bundle_200_43927  |  Sizes = [1,1,4,189,189]  |  bf16  |  expBias = 0, scale = 1  |    |  ModelParam = 0  |  strides = [1143072, 1143072, 285768, 71442, 378, 2]  |  data = 0, sizeInBytes = 285768  |  isAliased = bf16-17_43453, type = concat, offset: 857304  |  location = in DRAM  |  "
    }
  }
  attr {
    key: "outputTensor:0"
    value {
      s: "bf16-17_43453  |  Sizes = [1,4,4,189,189]  |  bf16  |  expBias = 0, scale = 1  |    |  ModelParam = 0  |  strides = [1143072, 1143072, 285768, 71442, 378, 2]  |  data = 0, sizeInBytes = 1143072  |  location = in DRAM  |  dramOffset = 0x0  |  "
    }
  }
}
node {
  name: "module/model/1/fused_scaled_dot_product_attention/sdpa_recomp_fwd_hf8/4674_complex/sdpa_recomp_fwd_hf8_67/sdpa_recomp_core_fwd_hf8_33/constant_f32_18"
  op: "constant_f32"
  attr {
    key: "Bundle_idx"
    value {
      s: "N/A"
    }
  }
  attr {
    key: "Exec_idx"
    value {
      s: "66"
    }
  }
  attr {
    key: "Op_idx"
    value {
      s: "N/A"
    }
  }
  attr {
    key: "outputTensor:0"
    value {
      s: "f32-19_43454  |  Sizes = [1]  |  float32  |  expBias = 0, scale = 1  |    |  ModelParam = 0  |  strides = [4, 4]  |  data = 0, sizeInBytes = 4  |  location = in DRAM  |  dramOffset = 0x310000103e00  |  "
    }
  }
}
node {
  name: "module/model/1/fused_scaled_dot_product_attention/sdpa_recomp_fwd_hf8/4674_complex/sdpa_recomp_fwd_hf8_67/sdpa_recomp_core_fwd_hf8_33/constant_f32_20"
  op: "constant_f32"
  attr {
    key: "Bundle_idx"
    value {
      s: "N/A"
    }
  }
  attr {
    key: "Exec_idx"
    value {
      s: "67"
    }
  }
  attr {
    key: "Op_idx"
    value {
      s: "N/A"
    }
  }
  attr {
    key: "outputTensor:0"
    value {
      s: "f32-21_43455  |  Sizes = [1]  |  float32  |  expBias = 0, scale = 1  |    |  ModelParam = 0  |  strides = [4, 4]  |  data = 0, sizeInBytes = 4  |  location = in DRAM  |  dramOffset = 0x310000103e80  |  "
    }
  }
}
node {
  name: "tensor_69_bundle_201/split_internal/0"
  op: "Split"
  input: "module/model/1/quant_input_0/transpose/4652_transpose_via_logical"
  attr {
    key: "Bundle_idx"
    value {
      s: "201"
    }
  }
  attr {
    key: "Exec_idx"
    value {
      s: "68"
    }
  }
  attr {
    key: "Op_idx"
    value {
      s: "0"
    }
  }
  attr {
    key: "inputTensor:0"
    value {
      s: "tensor_69  |  Sizes = [1,4,189,128]  |  hfloat8  |  expBias = 7, scale = 1  |    |  ModelParam = 0  |  strides = [96768, 96768, 24192, 128, 1]  |  data = 0, sizeInBytes = 96768  |  isPersistent  |  location = in DRAM  |  dramOffset = 0x140000000000  |  userMemorySection(type=Persistent, id=20)  |  "
    }
  }
  attr {
    key: "outputTensor:0"
    value {
      s: "tensor_69_slice_0_0_0_0_0__0__bundle_201_43928  |  Sizes = [1,1,189,128]  |  hfloat8  |  expBias = 7, scale = 1  |    |  ModelParam = 0  |  strides = [96768, 96768, 24192, 128, 1]  |  data = 0, sizeInBytes = 24192  |  isAliased = tensor_69, type = concat, offset: 0  |  location = in DRAM  |  "
    }
  }
  attr {
    key: "outputTensor:1"
    value {
      s: "tensor_69_slice_0_0_1_0_0__0__bundle_201_43938  |  Sizes = [1,1,189,128]  |  hfloat8  |  expBias = 7, scale = 1  |    |  ModelParam = 0  |  strides = [96768, 96768, 24192, 128, 1]  |  data = 0, sizeInBytes = 24192  |  isAliased = tensor_69, type = concat, offset: 24192  |  location = in DRAM  |  "
    }
  }
  attr {
    key: "outputTensor:2"
    value {
      s: "tensor_69_slice_0_0_2_0_0__0__bundle_201_43945  |  Sizes = [1,1,189,128]  |  hfloat8  |  expBias = 7, scale = 1  |    |  ModelParam = 0  |  strides = [96768, 96768, 24192, 128, 1]  |  data = 0, sizeInBytes = 24192  |  isAliased = tensor_69, type = concat, offset: 48384  |  location = in DRAM  |  "
    }
  }
  attr {
    key: "outputTensor:3"
    value {
      s: "tensor_69_slice_0_0_3_0_0__0__bundle_201_43952  |  Sizes = [1,1,189,128]  |  hfloat8  |  expBias = 7, scale = 1  |    |  ModelParam = 0  |  strides = [96768, 96768, 24192, 128, 1]  |  data = 0, sizeInBytes = 24192  |  isAliased = tensor_69, type = concat, offset: 72576  |  location = in DRAM  |  "
    }
  }
}
node {
  name: "bf16-17_43453_bundle_201/split_internal/0"
  op: "Split"
  input: "bf16-17_43453_bundle_200/concat_logical_internal/0"
  attr {
    key: "Bundle_idx"
    value {
      s: "201"
    }
  }
  attr {
    key: "Exec_idx"
    value {
      s: "69"
    }
  }
  attr {
    key: "Op_idx"
    value {
      s: "1"
    }
  }
  attr {
    key: "inputTensor:0"
    value {
      s: "bf16-17_43453  |  Sizes = [1,4,4,189,189]  |  bf16  |  expBias = 0, scale = 1  |    |  ModelParam = 0  |  strides = [1143072, 1143072, 285768, 71442, 378, 2]  |  data = 0, sizeInBytes = 1143072  |  location = in DRAM  |  dramOffset = 0x0  |  "
    }
  }
  attr {
    key: "outputTensor:0"
    value {
      s: "bf16-17_43453_slice_0_0_0_0_0__0__bundle_201_43932  |  Sizes = [1,1,4,189,189]  |  bf16  |  expBias = 0, scale = 1  |    |  ModelParam = 0  |  strides = [1143072, 1143072, 285768, 71442, 378, 2]  |  data = 0, sizeInBytes = 285768  |  isAliased = bf16-17_43453, type = concat, offset: 0  |  location = in DRAM  |  "
    }
  }
  attr {
    key: "outputTensor:1"
    value {
      s: "bf16-17_43453_slice_0_0_0_1_0__0__bundle_201_43942  |  Sizes = [1,1,4,189,189]  |  bf16  |  expBias = 0, scale = 1  |    |  ModelParam = 0  |  strides = [1143072, 1143072, 285768, 71442, 378, 2]  |  data = 0, sizeInBytes = 285768  |  isAliased = bf16-17_43453, type = concat, offset: 285768  |  location = in DRAM  |  "
    }
  }
  attr {
    key: "outputTensor:2"
    value {
      s: "bf16-17_43453_slice_0_0_0_2_0__0__bundle_201_43949  |  Sizes = [1,1,4,189,189]  |  bf16  |  expBias = 0, scale = 1  |    |  ModelParam = 0  |  strides = [1143072, 1143072, 285768, 71442, 378, 2]  |  data = 0, sizeInBytes = 285768  |  isAliased = bf16-17_43453, type = concat, offset: 571536  |  location = in DRAM  |  "
    }
  }
  attr {
    key: "outputTensor:3"
    value {
      s: "bf16-17_43453_slice_0_0_0_3_0__0__bundle_201_43956  |  Sizes = [1,1,4,189,189]  |  bf16  |  expBias = 0, scale = 1  |    |  ModelParam = 0  |  strides = [1143072, 1143072, 285768, 71442, 378, 2]  |  data = 0, sizeInBytes = 285768  |  isAliased = bf16-17_43453, type = concat, offset: 857304  |  location = in DRAM  |  "
    }
  }
}
node {
  name: "fusedTPCNode_78_2_bundle_201/op_0"
  op: "fused_kernel_0x7840DEC6_D6_bf16"
  input: "tensor_69_bundle_201/split_internal/0"
  attr {
    key: "Bundle_idx"
    value {
      s: "201"
    }
  }
  attr {
    key: "Exec_idx"
    value {
      s: "70"
    }
  }
  attr {
    key: "Op_idx"
    value {
      s: "2"
    }
  }
  attr {
    key: "inputTensor:0"
    value {
      s: "tensor_69_slice_0_0_0_0_0__0__bundle_201_43928  |  Sizes = [1,1,189,128]  |  hfloat8  |  expBias = 7, scale = 1  |    |  ModelParam = 0  |  strides = [96768, 96768, 24192, 128, 1]  |  data = 0, sizeInBytes = 24192  |  isAliased = tensor_69, type = concat, offset: 0  |  location = in DRAM  |  "
    }
  }
  attr {
    key: "outputTensor:0"
    value {
      s: "tensor_72_slice_0_0_0_0_0__0__bundle_201_43929  |  Sizes = [1,1,189,128]  |  bf16  |  expBias = 0, scale = 1  |    |  ModelParam = 0  |  strides = [193536, 193536, 48384, 256, 2]  |  data = 0, sizeInBytes = 48384  |  isAliased = tensor_72, type = concat, offset: 0  |  location = in DRAM  |  "
    }
  }
  attr {
    key: "outputTensor:1"
    value {
      s: "tensor-43634_slice_0_0_0_0_0__0__bundle_201_43930  |  Sizes = [1,1,189,128]  |  hfloat8  |  expBias = 7, scale = 1  |    |  ModelParam = 0  |  strides = [24192, 24192, 24192, 128, 1]  |  data = 0, sizeInBytes = 24192  |  isAliased = tensor_84_id_48449_module/model/1/fused_scaled_dot_product_attention/aten__view_slice_0_0_0_0_0__0__bundle_201_43931, type = alias, offset: 0  |  location = in SRAM  |  sramOffset = 0x1000fffffd320900  |  "
    }
  }
}
node {
  name: "reshape_8_8_bundle_201/op_1"
  op: "Reshape"
  input: "fusedTPCNode_78_2_bundle_201/op_0"
  attr {
    key: "Bundle_idx"
    value {
      s: "201"
    }
  }
  attr {
    key: "Exec_idx"
    value {
      s: "71"
    }
  }
  attr {
    key: "Op_idx"
    value {
      s: "3"
    }
  }
  attr {
    key: "inputTensor:0"
    value {
      s: "tensor-43634_slice_0_0_0_0_0__0__bundle_201_43930  |  Sizes = [1,1,189,128]  |  hfloat8  |  expBias = 7, scale = 1  |    |  ModelParam = 0  |  strides = [24192, 24192, 24192, 128, 1]  |  data = 0, sizeInBytes = 24192  |  isAliased = tensor_84_id_48449_module/model/1/fused_scaled_dot_product_attention/aten__view_slice_0_0_0_0_0__0__bundle_201_43931, type = alias, offset: 0  |  location = in SRAM  |  sramOffset = 0x1000fffffd320900  |  "
    }
  }
  attr {
    key: "outputTensor:0"
    value {
      s: "tensor_84_id_48449_module/model/1/fused_scaled_dot_product_attention/aten__view_slice_0_0_0_0_0__0__bundle_201_43931  |  Sizes = [1,1,1,189,128]  |  hfloat8  |  expBias = 7, scale = 1  |    |  ModelParam = 0  |  strides = [24192, 24192, 24192, 24192, 128, 1]  |  data = 0, sizeInBytes = 24192  |  location = in SRAM  |  sramOffset = 0x1000fffffd320900  |  "
    }
  }
}
node {
  name: "tensor_112_odule/model/1/fused_scaled_dot_product_attention/placeholder/7"
  op: "Placeholder"
  attr {
    key: "dtype"
    value {
      type: DT_FLOAT
    }
  }
  attr {
    key: "shape"
    value {
      shape {
        dim {
          size: 1
        }
        dim {
          size: 1
        }
        dim {
          size: 1
        }
        dim {
          size: 1
        }
        dim {
          size: 1
        }
      }
    }
  }
  attr {
    key: "synDataType"
    value {
      s: "float32"
    }
  }
}
node {
  name: "module/model/1/fused_scaled_dot_product_attention/sdpa_recomp_fwd_hf8/4674_complex/sdpa_recomp_fwd_hf8_67/sdpa_recomp_core_fwd_hf8_33/softmax_fwd_hf8_22_bundle_201/op_2"
  op: "softmax_fwd_hf8"
  input: "bf16-17_43453_bundle_201/split_internal/0"
  input: "module/model/1/fused_scaled_dot_product_attention/sdpa_recomp_fwd_hf8/4674_complex/sdpa_recomp_fwd_hf8_67/sdpa_recomp_core_fwd_hf8_33/constant_f32_18"
  input: "module/model/1/fused_scaled_dot_product_attention/sdpa_recomp_fwd_hf8/4674_complex/sdpa_recomp_fwd_hf8_67/sdpa_recomp_core_fwd_hf8_33/constant_f32_20"
  input: "tensor_112_odule/model/1/fused_scaled_dot_product_attention/placeholder/7"
  input: "module/model/1/fused_scaled_dot_product_attention/expand_dims/4661"
  attr {
    key: "Bundle_idx"
    value {
      s: "201"
    }
  }
  attr {
    key: "Exec_idx"
    value {
      s: "72"
    }
  }
  attr {
    key: "Op_idx"
    value {
      s: "4"
    }
  }
  attr {
    key: "inputTensor:0"
    value {
      s: "bf16-17_43453_slice_0_0_0_0_0__0__bundle_201_43932  |  Sizes = [1,1,4,189,189]  |  bf16  |  expBias = 0, scale = 1  |    |  ModelParam = 0  |  strides = [1143072, 1143072, 285768, 71442, 378, 2]  |  data = 0, sizeInBytes = 285768  |  isAliased = bf16-17_43453, type = concat, offset: 0  |  location = in DRAM  |  "
    }
  }
  attr {
    key: "inputTensor:1"
    value {
      s: "f32-19_43454  |  Sizes = [1]  |  float32  |  expBias = 0, scale = 1  |    |  ModelParam = 0  |  strides = [4, 4]  |  data = 0, sizeInBytes = 4  |  location = in DRAM  |  dramOffset = 0x310000103e00  |  "
    }
  }
  attr {
    key: "inputTensor:2"
    value {
      s: "f32-21_43455  |  Sizes = [1]  |  float32  |  expBias = 0, scale = 1  |    |  ModelParam = 0  |  strides = [4, 4]  |  data = 0, sizeInBytes = 4  |  location = in DRAM  |  dramOffset = 0x310000103e80  |  "
    }
  }
  attr {
    key: "inputTensor:3"
    value {
      s: "tensor_112_odule/model/1/fused_scaled_dot_product_attention/placeholder/7  |  Sizes = [1]  |  float32  |  expBias = 0, scale = 1  |    |  ModelParam = 0  |  strides = [4, 4]  |  data = 0x561d68862a80, sizeInBytes = 4  |  buffer = 16  |  isPersistent  |  location = in DRAM  |  dramOffset = 0x280000000000  |  userMemorySection(type=Persistent, id=40)  |  isStaticParam  |  bufferDtype=float32  |  "
    }
  }
  attr {
    key: "inputTensor:4"
    value {
      s: "tensor_79_id_48451_module/model/1/fused_scaled_dot_product_attention/aten__unsqueeze  |  Sizes = [1,1,1,189,189]  |  bf16  |  expBias = 0, scale = 1  |    |  ModelParam = 0  |  strides = [71442, 71442, 71442, 71442, 378, 2]  |  data = 0, sizeInBytes = 71442  |  isAliased = tensor_73_odule/model/1/fused_scaled_dot_product_attention/placeholder/0, type = alias, offset: 0  |  location = in DRAM  |  "
    }
  }
  attr {
    key: "outputTensor:0"
    value {
      s: "hf8-23_43456_slice_0_0_0_0_0__0__bundle_201_43937  |  Sizes = [1,1,4,189,189]  |  hfloat8  |  expBias = 7, scale = 1  |    |  ModelParam = 0  |  strides = [193536, 193536, 193536, 48384, 256, 1]  |  data = 0, sizeInBytes = 193536  |  location = in SRAM  |  sramOffset = 0x1000fffffd32c600  |  isSparseLayout  |  "
    }
  }
}
node {
  name: "fusedTPCNode_78_2_bundle_201/op_3"
  op: "fused_kernel_0x7840DEC6_D6_bf16"
  input: "tensor_69_bundle_201/split_internal/0"
  attr {
    key: "Bundle_idx"
    value {
      s: "201"
    }
  }
  attr {
    key: "Exec_idx"
    value {
      s: "73"
    }
  }
  attr {
    key: "Op_idx"
    value {
      s: "5"
    }
  }
  attr {
    key: "inputTensor:0"
    value {
      s: "tensor_69_slice_0_0_1_0_0__0__bundle_201_43938  |  Sizes = [1,1,189,128]  |  hfloat8  |  expBias = 7, scale = 1  |    |  ModelParam = 0  |  strides = [96768, 96768, 24192, 128, 1]  |  data = 0, sizeInBytes = 24192  |  isAliased = tensor_69, type = concat, offset: 24192  |  location = in DRAM  |  "
    }
  }
  attr {
    key: "outputTensor:0"
    value {
      s: "tensor_72_slice_0_0_1_0_0__0__bundle_201_43939  |  Sizes = [1,1,189,128]  |  bf16  |  expBias = 0, scale = 1  |    |  ModelParam = 0  |  strides = [193536, 193536, 48384, 256, 2]  |  data = 0, sizeInBytes = 48384  |  isAliased = tensor_72, type = concat, offset: 48384  |  location = in DRAM  |  "
    }
  }
  attr {
    key: "outputTensor:1"
    value {
      s: "tensor-43634_slice_0_0_1_0_0__0__bundle_201_43940  |  Sizes = [1,1,189,128]  |  hfloat8  |  expBias = 7, scale = 1  |    |  ModelParam = 0  |  strides = [24192, 24192, 24192, 128, 1]  |  data = 0, sizeInBytes = 24192  |  isAliased = tensor_84_id_48449_module/model/1/fused_scaled_dot_product_attention/aten__view_slice_0_0_0_1_0__0__bundle_201_43941, type = alias, offset: 0  |  location = in SRAM  |  sramOffset = 0x1000fffffd326780  |  "
    }
  }
}
node {
  name: "reshape_8_8_bundle_201/op_4"
  op: "Reshape"
  input: "fusedTPCNode_78_2_bundle_201/op_3"
  attr {
    key: "Bundle_idx"
    value {
      s: "201"
    }
  }
  attr {
    key: "Exec_idx"
    value {
      s: "74"
    }
  }
  attr {
    key: "Op_idx"
    value {
      s: "6"
    }
  }
  attr {
    key: "inputTensor:0"
    value {
      s: "tensor-43634_slice_0_0_1_0_0__0__bundle_201_43940  |  Sizes = [1,1,189,128]  |  hfloat8  |  expBias = 7, scale = 1  |    |  ModelParam = 0  |  strides = [24192, 24192, 24192, 128, 1]  |  data = 0, sizeInBytes = 24192  |  isAliased = tensor_84_id_48449_module/model/1/fused_scaled_dot_product_attention/aten__view_slice_0_0_0_1_0__0__bundle_201_43941, type = alias, offset: 0  |  location = in SRAM  |  sramOffset = 0x1000fffffd326780  |  "
    }
  }
  attr {
    key: "outputTensor:0"
    value {
      s: "tensor_84_id_48449_module/model/1/fused_scaled_dot_product_attention/aten__view_slice_0_0_0_1_0__0__bundle_201_43941  |  Sizes = [1,1,1,189,128]  |  hfloat8  |  expBias = 7, scale = 1  |    |  ModelParam = 0  |  strides = [24192, 24192, 24192, 24192, 128, 1]  |  data = 0, sizeInBytes = 24192  |  location = in SRAM  |  sramOffset = 0x1000fffffd326780  |  "
    }
  }
}
node {
  name: "module/model/1/fused_scaled_dot_product_attention/sdpa_recomp_fwd_hf8/4674_complex/sdpa_recomp_fwd_hf8_67/sdpa_recomp_core_fwd_hf8_33/softmax_fwd_hf8_22_bundle_201/op_5"
  op: "softmax_fwd_hf8"
  input: "bf16-17_43453_bundle_201/split_internal/0"
  input: "module/model/1/fused_scaled_dot_product_attention/sdpa_recomp_fwd_hf8/4674_complex/sdpa_recomp_fwd_hf8_67/sdpa_recomp_core_fwd_hf8_33/constant_f32_18"
  input: "module/model/1/fused_scaled_dot_product_attention/sdpa_recomp_fwd_hf8/4674_complex/sdpa_recomp_fwd_hf8_67/sdpa_recomp_core_fwd_hf8_33/constant_f32_20"
  input: "tensor_112_odule/model/1/fused_scaled_dot_product_attention/placeholder/7"
  input: "module/model/1/fused_scaled_dot_product_attention/expand_dims/4661"
  attr {
    key: "Bundle_idx"
    value {
      s: "201"
    }
  }
  attr {
    key: "Exec_idx"
    value {
      s: "75"
    }
  }
  attr {
    key: "Op_idx"
    value {
      s: "7"
    }
  }
  attr {
    key: "inputTensor:0"
    value {
      s: "bf16-17_43453_slice_0_0_0_1_0__0__bundle_201_43942  |  Sizes = [1,1,4,189,189]  |  bf16  |  expBias = 0, scale = 1  |    |  ModelParam = 0  |  strides = [1143072, 1143072, 285768, 71442, 378, 2]  |  data = 0, sizeInBytes = 285768  |  isAliased = bf16-17_43453, type = concat, offset: 285768  |  location = in DRAM  |  "
    }
  }
  attr {
    key: "inputTensor:1"
    value {
      s: "f32-19_43454  |  Sizes = [1]  |  float32  |  expBias = 0, scale = 1  |    |  ModelParam = 0  |  strides = [4, 4]  |  data = 0, sizeInBytes = 4  |  location = in DRAM  |  dramOffset = 0x310000103e00  |  "
    }
  }
  attr {
    key: "inputTensor:2"
    value {
      s: "f32-21_43455  |  Sizes = [1]  |  float32  |  expBias = 0, scale = 1  |    |  ModelParam = 0  |  strides = [4, 4]  |  data = 0, sizeInBytes = 4  |  location = in DRAM  |  dramOffset = 0x310000103e80  |  "
    }
  }
  attr {
    key: "inputTensor:3"
    value {
      s: "tensor_112_odule/model/1/fused_scaled_dot_product_attention/placeholder/7  |  Sizes = [1]  |  float32  |  expBias = 0, scale = 1  |    |  ModelParam = 0  |  strides = [4, 4]  |  data = 0x561d68862a80, sizeInBytes = 4  |  buffer = 16  |  isPersistent  |  location = in DRAM  |  dramOffset = 0x280000000000  |  userMemorySection(type=Persistent, id=40)  |  isStaticParam  |  bufferDtype=float32  |  "
    }
  }
  attr {
    key: "inputTensor:4"
    value {
      s: "tensor_79_id_48451_module/model/1/fused_scaled_dot_product_attention/aten__unsqueeze  |  Sizes = [1,1,1,189,189]  |  bf16  |  expBias = 0, scale = 1  |    |  ModelParam = 0  |  strides = [71442, 71442, 71442, 71442, 378, 2]  |  data = 0, sizeInBytes = 71442  |  isAliased = tensor_73_odule/model/1/fused_scaled_dot_product_attention/placeholder/0, type = alias, offset: 0  |  location = in DRAM  |  "
    }
  }
  attr {
    key: "outputTensor:0"
    value {
      s: "hf8-23_43456_slice_0_0_0_1_0__0__bundle_201_43943  |  Sizes = [1,1,4,189,189]  |  hfloat8  |  expBias = 7, scale = 1  |    |  ModelParam = 0  |  strides = [193536, 193536, 193536, 48384, 256, 1]  |  data = 0, sizeInBytes = 193536  |  location = in SRAM  |  sramOffset = 0x1000fffffd35ba00  |  isSparseLayout  |  "
    }
  }
}
node {
  name: "module/model/1/fused_scaled_dot_product_attention/sdpa_recomp_fwd_hf8/4674_complex/sdpa_recomp_fwd_hf8_67/sdpa_recomp_core_fwd_hf8_33/fp8_gemm_hf8_537/batch_gemm_24_bundle_201/op_6"
  op: "BatchGemm"
  input: "module/model/1/fused_scaled_dot_product_attention/sdpa_recomp_fwd_hf8/4674_complex/sdpa_recomp_fwd_hf8_67/sdpa_recomp_core_fwd_hf8_33/softmax_fwd_hf8_22_bundle_201/op_2"
  input: "reshape_8_8_bundle_201/op_1"
  attr {
    key: "Bundle_idx"
    value {
      s: "201"
    }
  }
  attr {
    key: "Exec_idx"
    value {
      s: "76"
    }
  }
  attr {
    key: "Op_idx"
    value {
      s: "8"
    }
  }
  attr {
    key: "Parameters"
    value {
      s: "transpose_a=false, transpose_b=false"
    }
  }
  attr {
    key: "fp8BiasIn"
    value {
      s: "11"
    }
  }
  attr {
    key: "fp8BiasIn2"
    value {
      s: "11"
    }
  }
  attr {
    key: "fp8BiasOut"
    value {
      s: "11"
    }
  }
  attr {
    key: "inputTensor:0"
    value {
      s: "hf8-23_43456_slice_0_0_0_0_0__0__bundle_201_43937  |  Sizes = [1,1,4,189,189]  |  hfloat8  |  expBias = 7, scale = 1  |    |  ModelParam = 0  |  strides = [193536, 193536, 193536, 48384, 256, 1]  |  data = 0, sizeInBytes = 193536  |  location = in SRAM  |  sramOffset = 0x1000fffffd32c600  |  isSparseLayout  |  "
    }
  }
  attr {
    key: "inputTensor:1"
    value {
      s: "tensor_84_id_48449_module/model/1/fused_scaled_dot_product_attention/aten__view_slice_0_0_0_0_0__0__bundle_201_43931  |  Sizes = [1,1,1,189,128]  |  hfloat8  |  expBias = 7, scale = 1  |    |  ModelParam = 0  |  strides = [24192, 24192, 24192, 24192, 128, 1]  |  data = 0, sizeInBytes = 24192  |  location = in SRAM  |  sramOffset = 0x1000fffffd320900  |  "
    }
  }
  attr {
    key: "outputTensor:0"
    value {
      s: "tensor_120_slice_0_0_0_0_0__0__bundle_201_43944  |  Sizes = [1,1,4,189,128]  |  hfloat8  |  expBias = 7, scale = 1  |    |  ModelParam = 0  |  strides = [387072, 387072, 96768, 24192, 128, 1]  |  data = 0, sizeInBytes = 96768  |  isAliased = tensor_120, type = concat, offset: 0  |  location = in DRAM  |  "
    }
  }
}
node {
  name: "module/model/1/fused_scaled_dot_product_attention/sdpa_recomp_fwd_hf8/4674_complex/sdpa_recomp_fwd_hf8_67/sdpa_recomp_core_fwd_hf8_33/fp8_gemm_hf8_537/batch_gemm_24_bundle_201/op_10"
  op: "BatchGemm"
  input: "module/model/1/fused_scaled_dot_product_attention/sdpa_recomp_fwd_hf8/4674_complex/sdpa_recomp_fwd_hf8_67/sdpa_recomp_core_fwd_hf8_33/softmax_fwd_hf8_22_bundle_201/op_5"
  input: "reshape_8_8_bundle_201/op_4"
  attr {
    key: "Bundle_idx"
    value {
      s: "201"
    }
  }
  attr {
    key: "Exec_idx"
    value {
      s: "77"
    }
  }
  attr {
    key: "Op_idx"
    value {
      s: "9"
    }
  }
  attr {
    key: "Parameters"
    value {
      s: "transpose_a=false, transpose_b=false"
    }
  }
  attr {
    key: "fp8BiasIn"
    value {
      s: "11"
    }
  }
  attr {
    key: "fp8BiasIn2"
    value {
      s: "11"
    }
  }
  attr {
    key: "fp8BiasOut"
    value {
      s: "11"
    }
  }
  attr {
    key: "inputTensor:0"
    value {
      s: "hf8-23_43456_slice_0_0_0_1_0__0__bundle_201_43943  |  Sizes = [1,1,4,189,189]  |  hfloat8  |  expBias = 7, scale = 1  |    |  ModelParam = 0  |  strides = [193536, 193536, 193536, 48384, 256, 1]  |  data = 0, sizeInBytes = 193536  |  location = in SRAM  |  sramOffset = 0x1000fffffd35ba00  |  isSparseLayout  |  "
    }
  }
  attr {
    key: "inputTensor:1"
    value {
      s: "tensor_84_id_48449_module/model/1/fused_scaled_dot_product_attention/aten__view_slice_0_0_0_1_0__0__bundle_201_43941  |  Sizes = [1,1,1,189,128]  |  hfloat8  |  expBias = 7, scale = 1  |    |  ModelParam = 0  |  strides = [24192, 24192, 24192, 24192, 128, 1]  |  data = 0, sizeInBytes = 24192  |  location = in SRAM  |  sramOffset = 0x1000fffffd326780  |  "
    }
  }
  attr {
    key: "outputTensor:0"
    value {
      s: "tensor_120_slice_0_0_0_1_0__0__bundle_201_43951  |  Sizes = [1,1,4,189,128]  |  hfloat8  |  expBias = 7, scale = 1  |    |  ModelParam = 0  |  strides = [387072, 387072, 96768, 24192, 128, 1]  |  data = 0, sizeInBytes = 96768  |  isAliased = tensor_120, type = concat, offset: 96768  |  location = in DRAM  |  "
    }
  }
}
node {
  name: "fusedTPCNode_78_2_bundle_201/op_7"
  op: "fused_kernel_0x7840DEC6_D6_bf16"
  input: "tensor_69_bundle_201/split_internal/0"
  attr {
    key: "Bundle_idx"
    value {
      s: "201"
    }
  }
  attr {
    key: "Exec_idx"
    value {
      s: "78"
    }
  }
  attr {
    key: "Op_idx"
    value {
      s: "10"
    }
  }
  attr {
    key: "inputTensor:0"
    value {
      s: "tensor_69_slice_0_0_2_0_0__0__bundle_201_43945  |  Sizes = [1,1,189,128]  |  hfloat8  |  expBias = 7, scale = 1  |    |  ModelParam = 0  |  strides = [96768, 96768, 24192, 128, 1]  |  data = 0, sizeInBytes = 24192  |  isAliased = tensor_69, type = concat, offset: 48384  |  location = in DRAM  |  "
    }
  }
  attr {
    key: "outputTensor:0"
    value {
      s: "tensor_72_slice_0_0_2_0_0__0__bundle_201_43946  |  Sizes = [1,1,189,128]  |  bf16  |  expBias = 0, scale = 1  |    |  ModelParam = 0  |  strides = [193536, 193536, 48384, 256, 2]  |  data = 0, sizeInBytes = 48384  |  isAliased = tensor_72, type = concat, offset: 96768  |  location = in DRAM  |  "
    }
  }
  attr {
    key: "outputTensor:1"
    value {
      s: "tensor-43634_slice_0_0_2_0_0__0__bundle_201_43947  |  Sizes = [1,1,189,128]  |  hfloat8  |  expBias = 7, scale = 1  |    |  ModelParam = 0  |  strides = [24192, 24192, 24192, 128, 1]  |  data = 0, sizeInBytes = 24192  |  isAliased = tensor_84_id_48449_module/model/1/fused_scaled_dot_product_attention/aten__view_slice_0_0_0_2_0__0__bundle_201_43948, type = alias, offset: 0  |  location = in SRAM  |  sramOffset = 0x1000fffffd320900  |  "
    }
  }
}
node {
  name: "reshape_8_8_bundle_201/op_8"
  op: "Reshape"
  input: "fusedTPCNode_78_2_bundle_201/op_7"
  attr {
    key: "Bundle_idx"
    value {
      s: "201"
    }
  }
  attr {
    key: "Exec_idx"
    value {
      s: "79"
    }
  }
  attr {
    key: "Op_idx"
    value {
      s: "11"
    }
  }
  attr {
    key: "inputTensor:0"
    value {
      s: "tensor-43634_slice_0_0_2_0_0__0__bundle_201_43947  |  Sizes = [1,1,189,128]  |  hfloat8  |  expBias = 7, scale = 1  |    |  ModelParam = 0  |  strides = [24192, 24192, 24192, 128, 1]  |  data = 0, sizeInBytes = 24192  |  isAliased = tensor_84_id_48449_module/model/1/fused_scaled_dot_product_attention/aten__view_slice_0_0_0_2_0__0__bundle_201_43948, type = alias, offset: 0  |  location = in SRAM  |  sramOffset = 0x1000fffffd320900  |  "
    }
  }
  attr {
    key: "outputTensor:0"
    value {
      s: "tensor_84_id_48449_module/model/1/fused_scaled_dot_product_attention/aten__view_slice_0_0_0_2_0__0__bundle_201_43948  |  Sizes = [1,1,1,189,128]  |  hfloat8  |  expBias = 7, scale = 1  |    |  ModelParam = 0  |  strides = [24192, 24192, 24192, 24192, 128, 1]  |  data = 0, sizeInBytes = 24192  |  location = in SRAM  |  sramOffset = 0x1000fffffd320900  |  "
    }
  }
}
node {
  name: "module/model/1/fused_scaled_dot_product_attention/sdpa_recomp_fwd_hf8/4674_complex/sdpa_recomp_fwd_hf8_67/sdpa_recomp_core_fwd_hf8_33/softmax_fwd_hf8_22_bundle_201/op_9"
  op: "softmax_fwd_hf8"
  input: "bf16-17_43453_bundle_201/split_internal/0"
  input: "module/model/1/fused_scaled_dot_product_attention/sdpa_recomp_fwd_hf8/4674_complex/sdpa_recomp_fwd_hf8_67/sdpa_recomp_core_fwd_hf8_33/constant_f32_18"
  input: "module/model/1/fused_scaled_dot_product_attention/sdpa_recomp_fwd_hf8/4674_complex/sdpa_recomp_fwd_hf8_67/sdpa_recomp_core_fwd_hf8_33/constant_f32_20"
  input: "tensor_112_odule/model/1/fused_scaled_dot_product_attention/placeholder/7"
  input: "module/model/1/fused_scaled_dot_product_attention/expand_dims/4661"
  attr {
    key: "Bundle_idx"
    value {
      s: "201"
    }
  }
  attr {
    key: "Exec_idx"
    value {
      s: "80"
    }
  }
  attr {
    key: "Op_idx"
    value {
      s: "12"
    }
  }
  attr {
    key: "inputTensor:0"
    value {
      s: "bf16-17_43453_slice_0_0_0_2_0__0__bundle_201_43949  |  Sizes = [1,1,4,189,189]  |  bf16  |  expBias = 0, scale = 1  |    |  ModelParam = 0  |  strides = [1143072, 1143072, 285768, 71442, 378, 2]  |  data = 0, sizeInBytes = 285768  |  isAliased = bf16-17_43453, type = concat, offset: 571536  |  location = in DRAM  |  "
    }
  }
  attr {
    key: "inputTensor:1"
    value {
      s: "f32-19_43454  |  Sizes = [1]  |  float32  |  expBias = 0, scale = 1  |    |  ModelParam = 0  |  strides = [4, 4]  |  data = 0, sizeInBytes = 4  |  location = in DRAM  |  dramOffset = 0x310000103e00  |  "
    }
  }
  attr {
    key: "inputTensor:2"
    value {
      s: "f32-21_43455  |  Sizes = [1]  |  float32  |  expBias = 0, scale = 1  |    |  ModelParam = 0  |  strides = [4, 4]  |  data = 0, sizeInBytes = 4  |  location = in DRAM  |  dramOffset = 0x310000103e80  |  "
    }
  }
  attr {
    key: "inputTensor:3"
    value {
      s: "tensor_112_odule/model/1/fused_scaled_dot_product_attention/placeholder/7  |  Sizes = [1]  |  float32  |  expBias = 0, scale = 1  |    |  ModelParam = 0  |  strides = [4, 4]  |  data = 0x561d68862a80, sizeInBytes = 4  |  buffer = 16  |  isPersistent  |  location = in DRAM  |  dramOffset = 0x280000000000  |  userMemorySection(type=Persistent, id=40)  |  isStaticParam  |  bufferDtype=float32  |  "
    }
  }
  attr {
    key: "inputTensor:4"
    value {
      s: "tensor_79_id_48451_module/model/1/fused_scaled_dot_product_attention/aten__unsqueeze  |  Sizes = [1,1,1,189,189]  |  bf16  |  expBias = 0, scale = 1  |    |  ModelParam = 0  |  strides = [71442, 71442, 71442, 71442, 378, 2]  |  data = 0, sizeInBytes = 71442  |  isAliased = tensor_73_odule/model/1/fused_scaled_dot_product_attention/placeholder/0, type = alias, offset: 0  |  location = in DRAM  |  "
    }
  }
  attr {
    key: "outputTensor:0"
    value {
      s: "hf8-23_43456_slice_0_0_0_2_0__0__bundle_201_43950  |  Sizes = [1,1,4,189,189]  |  hfloat8  |  expBias = 7, scale = 1  |    |  ModelParam = 0  |  strides = [193536, 193536, 193536, 48384, 256, 1]  |  data = 0, sizeInBytes = 193536  |  location = in SRAM  |  sramOffset = 0x1000fffffd32c600  |  isSparseLayout  |  "
    }
  }
}
node {
  name: "fusedTPCNode_78_2_bundle_201/op_11"
  op: "fused_kernel_0x7840DEC6_D6_bf16"
  input: "tensor_69_bundle_201/split_internal/0"
  attr {
    key: "Bundle_idx"
    value {
      s: "201"
    }
  }
  attr {
    key: "Exec_idx"
    value {
      s: "81"
    }
  }
  attr {
    key: "Op_idx"
    value {
      s: "13"
    }
  }
  attr {
    key: "inputTensor:0"
    value {
      s: "tensor_69_slice_0_0_3_0_0__0__bundle_201_43952  |  Sizes = [1,1,189,128]  |  hfloat8  |  expBias = 7, scale = 1  |    |  ModelParam = 0  |  strides = [96768, 96768, 24192, 128, 1]  |  data = 0, sizeInBytes = 24192  |  isAliased = tensor_69, type = concat, offset: 72576  |  location = in DRAM  |  "
    }
  }
  attr {
    key: "outputTensor:0"
    value {
      s: "tensor_72_slice_0_0_3_0_0__0__bundle_201_43953  |  Sizes = [1,1,189,128]  |  bf16  |  expBias = 0, scale = 1  |    |  ModelParam = 0  |  strides = [193536, 193536, 48384, 256, 2]  |  data = 0, sizeInBytes = 48384  |  isAliased = tensor_72, type = concat, offset: 145152  |  location = in DRAM  |  "
    }
  }
  attr {
    key: "outputTensor:1"
    value {
      s: "tensor-43634_slice_0_0_3_0_0__0__bundle_201_43954  |  Sizes = [1,1,189,128]  |  hfloat8  |  expBias = 7, scale = 1  |    |  ModelParam = 0  |  strides = [24192, 24192, 24192, 128, 1]  |  data = 0, sizeInBytes = 24192  |  isAliased = tensor_84_id_48449_module/model/1/fused_scaled_dot_product_attention/aten__view_slice_0_0_0_3_0__0__bundle_201_43955, type = alias, offset: 0  |  location = in SRAM  |  sramOffset = 0x1000fffffd326780  |  "
    }
  }
}
node {
  name: "reshape_8_8_bundle_201/op_12"
  op: "Reshape"
  input: "fusedTPCNode_78_2_bundle_201/op_11"
  attr {
    key: "Bundle_idx"
    value {
      s: "201"
    }
  }
  attr {
    key: "Exec_idx"
    value {
      s: "82"
    }
  }
  attr {
    key: "Op_idx"
    value {
      s: "14"
    }
  }
  attr {
    key: "inputTensor:0"
    value {
      s: "tensor-43634_slice_0_0_3_0_0__0__bundle_201_43954  |  Sizes = [1,1,189,128]  |  hfloat8  |  expBias = 7, scale = 1  |    |  ModelParam = 0  |  strides = [24192, 24192, 24192, 128, 1]  |  data = 0, sizeInBytes = 24192  |  isAliased = tensor_84_id_48449_module/model/1/fused_scaled_dot_product_attention/aten__view_slice_0_0_0_3_0__0__bundle_201_43955, type = alias, offset: 0  |  location = in SRAM  |  sramOffset = 0x1000fffffd326780  |  "
    }
  }
  attr {
    key: "outputTensor:0"
    value {
      s: "tensor_84_id_48449_module/model/1/fused_scaled_dot_product_attention/aten__view_slice_0_0_0_3_0__0__bundle_201_43955  |  Sizes = [1,1,1,189,128]  |  hfloat8  |  expBias = 7, scale = 1  |    |  ModelParam = 0  |  strides = [24192, 24192, 24192, 24192, 128, 1]  |  data = 0, sizeInBytes = 24192  |  location = in SRAM  |  sramOffset = 0x1000fffffd326780  |  "
    }
  }
}
node {
  name: "tensor_72_bundle_201/concat_logical_internal/0"
  op: "Concatenate"
  input: "fusedTPCNode_78_2_bundle_201/op_0"
  input: "fusedTPCNode_78_2_bundle_201/op_3"
  input: "fusedTPCNode_78_2_bundle_201/op_7"
  input: "fusedTPCNode_78_2_bundle_201/op_11"
  attr {
    key: "Bundle_idx"
    value {
      s: "201"
    }
  }
  attr {
    key: "Exec_idx"
    value {
      s: "83"
    }
  }
  attr {
    key: "Op_idx"
    value {
      s: "15"
    }
  }
  attr {
    key: "inputTensor:0"
    value {
      s: "tensor_72_slice_0_0_0_0_0__0__bundle_201_43929  |  Sizes = [1,1,189,128]  |  bf16  |  expBias = 0, scale = 1  |    |  ModelParam = 0  |  strides = [193536, 193536, 48384, 256, 2]  |  data = 0, sizeInBytes = 48384  |  isAliased = tensor_72, type = concat, offset: 0  |  location = in DRAM  |  "
    }
  }
  attr {
    key: "inputTensor:1"
    value {
      s: "tensor_72_slice_0_0_1_0_0__0__bundle_201_43939  |  Sizes = [1,1,189,128]  |  bf16  |  expBias = 0, scale = 1  |    |  ModelParam = 0  |  strides = [193536, 193536, 48384, 256, 2]  |  data = 0, sizeInBytes = 48384  |  isAliased = tensor_72, type = concat, offset: 48384  |  location = in DRAM  |  "
    }
  }
  attr {
    key: "inputTensor:2"
    value {
      s: "tensor_72_slice_0_0_2_0_0__0__bundle_201_43946  |  Sizes = [1,1,189,128]  |  bf16  |  expBias = 0, scale = 1  |    |  ModelParam = 0  |  strides = [193536, 193536, 48384, 256, 2]  |  data = 0, sizeInBytes = 48384  |  isAliased = tensor_72, type = concat, offset: 96768  |  location = in DRAM  |  "
    }
  }
  attr {
    key: "inputTensor:3"
    value {
      s: "tensor_72_slice_0_0_3_0_0__0__bundle_201_43953  |  Sizes = [1,1,189,128]  |  bf16  |  expBias = 0, scale = 1  |    |  ModelParam = 0  |  strides = [193536, 193536, 48384, 256, 2]  |  data = 0, sizeInBytes = 48384  |  isAliased = tensor_72, type = concat, offset: 145152  |  location = in DRAM  |  "
    }
  }
  attr {
    key: "outputTensor:0"
    value {
      s: "tensor_72  |  Sizes = [1,4,189,128]  |  bf16  |  expBias = 0, scale = 1  |    |  ModelParam = 0  |  strides = [193536, 193536, 48384, 256, 2]  |  data = 0, sizeInBytes = 193536  |  isPersistent  |  location = in DRAM  |  dramOffset = 0x1c0000000000  |  userMemorySection(type=Persistent, id=28)  |  "
    }
  }
}
node {
  name: "tensor_72"
  op: "OutputTensor"
  input: "tensor_72_bundle_201/concat_logical_internal/0"
  attr {
    key: "dtype"
    value {
      type: DT_BFLOAT16
    }
  }
  attr {
    key: "shape"
    value {
      shape {
        dim {
          size: 128
        }
        dim {
          size: 189
        }
        dim {
          size: 4
        }
        dim {
          size: 1
        }
        dim {
          size: 1
        }
      }
    }
  }
  attr {
    key: "synDataType"
    value {
      s: "bf16"
    }
  }
}
node {
  name: "module/model/1/fused_scaled_dot_product_attention/sdpa_recomp_fwd_hf8/4674_complex/sdpa_recomp_fwd_hf8_67/sdpa_recomp_core_fwd_hf8_33/softmax_fwd_hf8_22_bundle_201/op_13"
  op: "softmax_fwd_hf8"
  input: "bf16-17_43453_bundle_201/split_internal/0"
  input: "module/model/1/fused_scaled_dot_product_attention/sdpa_recomp_fwd_hf8/4674_complex/sdpa_recomp_fwd_hf8_67/sdpa_recomp_core_fwd_hf8_33/constant_f32_18"
  input: "module/model/1/fused_scaled_dot_product_attention/sdpa_recomp_fwd_hf8/4674_complex/sdpa_recomp_fwd_hf8_67/sdpa_recomp_core_fwd_hf8_33/constant_f32_20"
  input: "tensor_112_odule/model/1/fused_scaled_dot_product_attention/placeholder/7"
  input: "module/model/1/fused_scaled_dot_product_attention/expand_dims/4661"
  attr {
    key: "Bundle_idx"
    value {
      s: "201"
    }
  }
  attr {
    key: "Exec_idx"
    value {
      s: "84"
    }
  }
  attr {
    key: "Op_idx"
    value {
      s: "16"
    }
  }
  attr {
    key: "inputTensor:0"
    value {
      s: "bf16-17_43453_slice_0_0_0_3_0__0__bundle_201_43956  |  Sizes = [1,1,4,189,189]  |  bf16  |  expBias = 0, scale = 1  |    |  ModelParam = 0  |  strides = [1143072, 1143072, 285768, 71442, 378, 2]  |  data = 0, sizeInBytes = 285768  |  isAliased = bf16-17_43453, type = concat, offset: 857304  |  location = in DRAM  |  "
    }
  }
  attr {
    key: "inputTensor:1"
    value {
      s: "f32-19_43454  |  Sizes = [1]  |  float32  |  expBias = 0, scale = 1  |    |  ModelParam = 0  |  strides = [4, 4]  |  data = 0, sizeInBytes = 4  |  location = in DRAM  |  dramOffset = 0x310000103e00  |  "
    }
  }
  attr {
    key: "inputTensor:2"
    value {
      s: "f32-21_43455  |  Sizes = [1]  |  float32  |  expBias = 0, scale = 1  |    |  ModelParam = 0  |  strides = [4, 4]  |  data = 0, sizeInBytes = 4  |  location = in DRAM  |  dramOffset = 0x310000103e80  |  "
    }
  }
  attr {
    key: "inputTensor:3"
    value {
      s: "tensor_112_odule/model/1/fused_scaled_dot_product_attention/placeholder/7  |  Sizes = [1]  |  float32  |  expBias = 0, scale = 1  |    |  ModelParam = 0  |  strides = [4, 4]  |  data = 0x561d68862a80, sizeInBytes = 4  |  buffer = 16  |  isPersistent  |  location = in DRAM  |  dramOffset = 0x280000000000  |  userMemorySection(type=Persistent, id=40)  |  isStaticParam  |  bufferDtype=float32  |  "
    }
  }
  attr {
    key: "inputTensor:4"
    value {
      s: "tensor_79_id_48451_module/model/1/fused_scaled_dot_product_attention/aten__unsqueeze  |  Sizes = [1,1,1,189,189]  |  bf16  |  expBias = 0, scale = 1  |    |  ModelParam = 0  |  strides = [71442, 71442, 71442, 71442, 378, 2]  |  data = 0, sizeInBytes = 71442  |  isAliased = tensor_73_odule/model/1/fused_scaled_dot_product_attention/placeholder/0, type = alias, offset: 0  |  location = in DRAM  |  "
    }
  }
  attr {
    key: "outputTensor:0"
    value {
      s: "hf8-23_43456_slice_0_0_0_3_0__0__bundle_201_43957  |  Sizes = [1,1,4,189,189]  |  hfloat8  |  expBias = 7, scale = 1  |    |  ModelParam = 0  |  strides = [193536, 193536, 193536, 48384, 256, 1]  |  data = 0, sizeInBytes = 193536  |  location = in SRAM  |  sramOffset = 0x1000fffffd35ba00  |  isSparseLayout  |  "
    }
  }
}
node {
  name: "module/model/1/fused_scaled_dot_product_attention/sdpa_recomp_fwd_hf8/4674_complex/sdpa_recomp_fwd_hf8_67/sdpa_recomp_core_fwd_hf8_33/fp8_gemm_hf8_537/batch_gemm_24_bundle_201/op_14"
  op: "BatchGemm"
  input: "module/model/1/fused_scaled_dot_product_attention/sdpa_recomp_fwd_hf8/4674_complex/sdpa_recomp_fwd_hf8_67/sdpa_recomp_core_fwd_hf8_33/softmax_fwd_hf8_22_bundle_201/op_9"
  input: "reshape_8_8_bundle_201/op_8"
  attr {
    key: "Bundle_idx"
    value {
      s: "201"
    }
  }
  attr {
    key: "Exec_idx"
    value {
      s: "85"
    }
  }
  attr {
    key: "Op_idx"
    value {
      s: "17"
    }
  }
  attr {
    key: "Parameters"
    value {
      s: "transpose_a=false, transpose_b=false"
    }
  }
  attr {
    key: "fp8BiasIn"
    value {
      s: "11"
    }
  }
  attr {
    key: "fp8BiasIn2"
    value {
      s: "11"
    }
  }
  attr {
    key: "fp8BiasOut"
    value {
      s: "11"
    }
  }
  attr {
    key: "inputTensor:0"
    value {
      s: "hf8-23_43456_slice_0_0_0_2_0__0__bundle_201_43950  |  Sizes = [1,1,4,189,189]  |  hfloat8  |  expBias = 7, scale = 1  |    |  ModelParam = 0  |  strides = [193536, 193536, 193536, 48384, 256, 1]  |  data = 0, sizeInBytes = 193536  |  location = in SRAM  |  sramOffset = 0x1000fffffd32c600  |  isSparseLayout  |  "
    }
  }
  attr {
    key: "inputTensor:1"
    value {
      s: "tensor_84_id_48449_module/model/1/fused_scaled_dot_product_attention/aten__view_slice_0_0_0_2_0__0__bundle_201_43948  |  Sizes = [1,1,1,189,128]  |  hfloat8  |  expBias = 7, scale = 1  |    |  ModelParam = 0  |  strides = [24192, 24192, 24192, 24192, 128, 1]  |  data = 0, sizeInBytes = 24192  |  location = in SRAM  |  sramOffset = 0x1000fffffd320900  |  "
    }
  }
  attr {
    key: "outputTensor:0"
    value {
      s: "tensor_120_slice_0_0_0_2_0__0__bundle_201_43958  |  Sizes = [1,1,4,189,128]  |  hfloat8  |  expBias = 7, scale = 1  |    |  ModelParam = 0  |  strides = [387072, 387072, 96768, 24192, 128, 1]  |  data = 0, sizeInBytes = 96768  |  isAliased = tensor_120, type = concat, offset: 193536  |  location = in DRAM  |  "
    }
  }
}
node {
  name: "module/model/1/fused_scaled_dot_product_attention/sdpa_recomp_fwd_hf8/4674_complex/sdpa_recomp_fwd_hf8_67/sdpa_recomp_core_fwd_hf8_33/fp8_gemm_hf8_537/batch_gemm_24_bundle_201/op_15"
  op: "BatchGemm"
  input: "module/model/1/fused_scaled_dot_product_attention/sdpa_recomp_fwd_hf8/4674_complex/sdpa_recomp_fwd_hf8_67/sdpa_recomp_core_fwd_hf8_33/softmax_fwd_hf8_22_bundle_201/op_13"
  input: "reshape_8_8_bundle_201/op_12"
  attr {
    key: "Bundle_idx"
    value {
      s: "201"
    }
  }
  attr {
    key: "Exec_idx"
    value {
      s: "86"
    }
  }
  attr {
    key: "Op_idx"
    value {
      s: "18"
    }
  }
  attr {
    key: "Parameters"
    value {
      s: "transpose_a=false, transpose_b=false"
    }
  }
  attr {
    key: "fp8BiasIn"
    value {
      s: "11"
    }
  }
  attr {
    key: "fp8BiasIn2"
    value {
      s: "11"
    }
  }
  attr {
    key: "fp8BiasOut"
    value {
      s: "11"
    }
  }
  attr {
    key: "inputTensor:0"
    value {
      s: "hf8-23_43456_slice_0_0_0_3_0__0__bundle_201_43957  |  Sizes = [1,1,4,189,189]  |  hfloat8  |  expBias = 7, scale = 1  |    |  ModelParam = 0  |  strides = [193536, 193536, 193536, 48384, 256, 1]  |  data = 0, sizeInBytes = 193536  |  location = in SRAM  |  sramOffset = 0x1000fffffd35ba00  |  isSparseLayout  |  "
    }
  }
  attr {
    key: "inputTensor:1"
    value {
      s: "tensor_84_id_48449_module/model/1/fused_scaled_dot_product_attention/aten__view_slice_0_0_0_3_0__0__bundle_201_43955  |  Sizes = [1,1,1,189,128]  |  hfloat8  |  expBias = 7, scale = 1  |    |  ModelParam = 0  |  strides = [24192, 24192, 24192, 24192, 128, 1]  |  data = 0, sizeInBytes = 24192  |  location = in SRAM  |  sramOffset = 0x1000fffffd326780  |  "
    }
  }
  attr {
    key: "outputTensor:0"
    value {
      s: "tensor_120_slice_0_0_0_3_0__0__bundle_201_43959  |  Sizes = [1,1,4,189,128]  |  hfloat8  |  expBias = 7, scale = 1  |    |  ModelParam = 0  |  strides = [387072, 387072, 96768, 24192, 128, 1]  |  data = 0, sizeInBytes = 96768  |  isAliased = tensor_120, type = concat, offset: 290304  |  location = in DRAM  |  "
    }
  }
}
node {
  name: "tensor_120_bundle_201/concat_logical_internal/0"
  op: "Concatenate"
  input: "module/model/1/fused_scaled_dot_product_attention/sdpa_recomp_fwd_hf8/4674_complex/sdpa_recomp_fwd_hf8_67/sdpa_recomp_core_fwd_hf8_33/fp8_gemm_hf8_537/batch_gemm_24_bundle_201/op_6"
  input: "module/model/1/fused_scaled_dot_product_attention/sdpa_recomp_fwd_hf8/4674_complex/sdpa_recomp_fwd_hf8_67/sdpa_recomp_core_fwd_hf8_33/fp8_gemm_hf8_537/batch_gemm_24_bundle_201/op_10"
  input: "module/model/1/fused_scaled_dot_product_attention/sdpa_recomp_fwd_hf8/4674_complex/sdpa_recomp_fwd_hf8_67/sdpa_recomp_core_fwd_hf8_33/fp8_gemm_hf8_537/batch_gemm_24_bundle_201/op_14"
  input: "module/model/1/fused_scaled_dot_product_attention/sdpa_recomp_fwd_hf8/4674_complex/sdpa_recomp_fwd_hf8_67/sdpa_recomp_core_fwd_hf8_33/fp8_gemm_hf8_537/batch_gemm_24_bundle_201/op_15"
  attr {
    key: "Bundle_idx"
    value {
      s: "201"
    }
  }
  attr {
    key: "Exec_idx"
    value {
      s: "87"
    }
  }
  attr {
    key: "Op_idx"
    value {
      s: "19"
    }
  }
  attr {
    key: "inputTensor:0"
    value {
      s: "tensor_120_slice_0_0_0_0_0__0__bundle_201_43944  |  Sizes = [1,1,4,189,128]  |  hfloat8  |  expBias = 7, scale = 1  |    |  ModelParam = 0  |  strides = [387072, 387072, 96768, 24192, 128, 1]  |  data = 0, sizeInBytes = 96768  |  isAliased = tensor_120, type = concat, offset: 0  |  location = in DRAM  |  "
    }
  }
  attr {
    key: "inputTensor:1"
    value {
      s: "tensor_120_slice_0_0_0_1_0__0__bundle_201_43951  |  Sizes = [1,1,4,189,128]  |  hfloat8  |  expBias = 7, scale = 1  |    |  ModelParam = 0  |  strides = [387072, 387072, 96768, 24192, 128, 1]  |  data = 0, sizeInBytes = 96768  |  isAliased = tensor_120, type = concat, offset: 96768  |  location = in DRAM  |  "
    }
  }
  attr {
    key: "inputTensor:2"
    value {
      s: "tensor_120_slice_0_0_0_2_0__0__bundle_201_43958  |  Sizes = [1,1,4,189,128]  |  hfloat8  |  expBias = 7, scale = 1  |    |  ModelParam = 0  |  strides = [387072, 387072, 96768, 24192, 128, 1]  |  data = 0, sizeInBytes = 96768  |  isAliased = tensor_120, type = concat, offset: 193536  |  location = in DRAM  |  "
    }
  }
  attr {
    key: "inputTensor:3"
    value {
      s: "tensor_120_slice_0_0_0_3_0__0__bundle_201_43959  |  Sizes = [1,1,4,189,128]  |  hfloat8  |  expBias = 7, scale = 1  |    |  ModelParam = 0  |  strides = [387072, 387072, 96768, 24192, 128, 1]  |  data = 0, sizeInBytes = 96768  |  isAliased = tensor_120, type = concat, offset: 290304  |  location = in DRAM  |  "
    }
  }
  attr {
    key: "outputTensor:0"
    value {
      s: "tensor_120  |  Sizes = [1,4,4,189,128]  |  hfloat8  |  expBias = 7, scale = 1  |    |  ModelParam = 0  |  strides = [387072, 387072, 96768, 24192, 128, 1]  |  data = 0, sizeInBytes = 387072  |  isAliased = tensor_121_id_48470_module/model/1/fused_scaled_dot_product_attention/dequant_output/aten__view, type = alias, offset: 0  |  location = in DRAM  |  "
    }
  }
}
node {
  name: "module/model/1/fused_scaled_dot_product_attention/dequant_output/reshape/4675"
  op: "Reshape"
  input: "tensor_120_bundle_201/concat_logical_internal/0"
  attr {
    key: "Bundle_idx"
    value {
      s: "N/A"
    }
  }
  attr {
    key: "Exec_idx"
    value {
      s: "88"
    }
  }
  attr {
    key: "Op_idx"
    value {
      s: "N/A"
    }
  }
  attr {
    key: "inputTensor:0"
    value {
      s: "tensor_120  |  Sizes = [1,4,4,189,128]  |  hfloat8  |  expBias = 7, scale = 1  |    |  ModelParam = 0  |  strides = [387072, 387072, 96768, 24192, 128, 1]  |  data = 0, sizeInBytes = 387072  |  isAliased = tensor_121_id_48470_module/model/1/fused_scaled_dot_product_attention/dequant_output/aten__view, type = alias, offset: 0  |  location = in DRAM  |  "
    }
  }
  attr {
    key: "outputTensor:0"
    value {
      s: "tensor_121_id_48470_module/model/1/fused_scaled_dot_product_attention/dequant_output/aten__view  |  Sizes = [1,16,189,128]  |  hfloat8  |  expBias = 7, scale = 1  |    |  ModelParam = 0  |  strides = [387072, 387072, 24192, 128, 1]  |  data = 0, sizeInBytes = 387072  |  location = in DRAM  |  dramOffset = 0x310000103f00  |  "
    }
  }
}
node {
  name: "module/model/1/transpose/4677_transpose_via_logical"
  op: "LogicalTranspose"
  input: "module/model/1/fused_scaled_dot_product_attention/dequant_output/reshape/4675"
  attr {
    key: "Bundle_idx"
    value {
      s: "N/A"
    }
  }
  attr {
    key: "Exec_idx"
    value {
      s: "89"
    }
  }
  attr {
    key: "Op_idx"
    value {
      s: "N/A"
    }
  }
  attr {
    key: "Parameters"
    value {
      s: "permutation: (0,2,1,3)"
    }
  }
  attr {
    key: "inputTensor:0"
    value {
      s: "tensor_121_id_48470_module/model/1/fused_scaled_dot_product_attention/dequant_output/aten__view  |  Sizes = [1,16,189,128]  |  hfloat8  |  expBias = 7, scale = 1  |    |  ModelParam = 0  |  strides = [387072, 387072, 24192, 128, 1]  |  data = 0, sizeInBytes = 387072  |  location = in DRAM  |  dramOffset = 0x310000103f00  |  "
    }
  }
  attr {
    key: "outputTensor:0"
    value {
      s: "tensor_125_id_48475_module/model/1/aten__transpose  |  Sizes = [1,189,16,128]  |  hfloat8  |  expBias = 7, scale = 1  |    |  ModelParam = 0  |  strides = [387072, 387072, 128, 24192, 1]  |  data = 0, sizeInBytes = 387072  |  isAliased = tensor_121_id_48470_module/model/1/fused_scaled_dot_product_attention/dequant_output/aten__view, type = alias, offset: 0  |  location = in DRAM  |  isSparseLayout  |  "
    }
  }
}
node {
  name: "tensor_125_id_48475_module/model/1/aten__transpose_memcpy_43964_internal"
  op: "DmaMemcpy"
  input: "module/model/1/transpose/4677_transpose_via_logical"
  attr {
    key: "Bundle_idx"
    value {
      s: "N/A"
    }
  }
  attr {
    key: "Exec_idx"
    value {
      s: "90"
    }
  }
  attr {
    key: "Op_idx"
    value {
      s: "N/A"
    }
  }
  attr {
    key: "inputTensor:0"
    value {
      s: "tensor_125_id_48475_module/model/1/aten__transpose  |  Sizes = [1,189,16,128]  |  hfloat8  |  expBias = 7, scale = 1  |    |  ModelParam = 0  |  strides = [387072, 387072, 128, 24192, 1]  |  data = 0, sizeInBytes = 387072  |  isAliased = tensor_121_id_48470_module/model/1/fused_scaled_dot_product_attention/dequant_output/aten__view, type = alias, offset: 0  |  location = in DRAM  |  isSparseLayout  |  "
    }
  }
  attr {
    key: "outputTensor:0"
    value {
      s: "tensor_125_id_48475_module/model/1/aten__transpose_memcpy_43964  |  Sizes = [1,189,16,128]  |  hfloat8  |  expBias = 7, scale = 1  |    |  ModelParam = 0  |  strides = [387072, 387072, 2048, 128, 1]  |  data = 0, sizeInBytes = 387072  |  location = in DRAM  |  dramOffset = 0x310000000000  |  "
    }
  }
}
node {
  name: "module/model/1/o_proj/quant_input_0/reshape/4679"
  op: "Reshape"
  input: "tensor_125_id_48475_module/model/1/aten__transpose_memcpy_43964_internal"
  attr {
    key: "Bundle_idx"
    value {
      s: "N/A"
    }
  }
  attr {
    key: "Exec_idx"
    value {
      s: "91"
    }
  }
  attr {
    key: "Op_idx"
    value {
      s: "N/A"
    }
  }
  attr {
    key: "inputTensor:0"
    value {
      s: "tensor_125_id_48475_module/model/1/aten__transpose_memcpy_43964  |  Sizes = [1,189,16,128]  |  hfloat8  |  expBias = 7, scale = 1  |    |  ModelParam = 0  |  strides = [387072, 387072, 2048, 128, 1]  |  data = 0, sizeInBytes = 387072  |  location = in DRAM  |  dramOffset = 0x310000000000  |  "
    }
  }
  attr {
    key: "outputTensor:0"
    value {
      s: "tensor_131_c43379  |  Sizes = [1,189,2048]  |  hfloat8  |  expBias = 7, scale = 1  |    |  ModelParam = 0  |  strides = [387072, 387072, 2048, 1]  |  data = 0, sizeInBytes = 387072  |  isAliased = tensor_125_id_48475_module/model/1/aten__transpose_memcpy_43964, type = alias, offset: 0  |  location = in DRAM  |  "
    }
  }
}
node {
  name: "tensor_132_odule/model/1/o_proj/placeholder/1"
  op: "Placeholder"
  attr {
    key: "dtype"
    value {
      type: DT_INVALID
    }
  }
  attr {
    key: "shape"
    value {
      shape {
        dim {
          size: 4096
        }
        dim {
          size: 2048
        }
        dim {
          size: 1
        }
        dim {
          size: 1
        }
        dim {
          size: 1
        }
      }
    }
  }
  attr {
    key: "synDataType"
    value {
      s: "hfloat8"
    }
  }
}
node {
  name: "module/model/1/o_proj/fp8_gemm_bf16/4681_complex/fp8_gemm_bf16_539/expand_dims_6"
  op: "ExpandDims"
  input: "tensor_132_odule/model/1/o_proj/placeholder/1"
  attr {
    key: "Bundle_idx"
    value {
      s: "N/A"
    }
  }
  attr {
    key: "Exec_idx"
    value {
      s: "92"
    }
  }
  attr {
    key: "Op_idx"
    value {
      s: "N/A"
    }
  }
  attr {
    key: "inputTensor:0"
    value {
      s: "tensor_132_odule/model/1/o_proj/placeholder/1  |  Sizes = [2048,4096]  |  hfloat8  |  expBias = 7, scale = 1  |    |  ModelParam = 0  |  strides = [8388608, 4096, 1]  |  data = 0, sizeInBytes = 8388608  |  isPersistent  |  location = in DRAM  |  dramOffset = 0x2d0000000000  |  userMemorySection(type=Persistent, id=45)  |  "
    }
  }
  attr {
    key: "outputTensor:0"
    value {
      s: "hf8-7_43460  |  Sizes = [1,2048,4096]  |  hfloat8  |  expBias = 7, scale = 1  |    |  ModelParam = 0  |  strides = [8388608, 8388608, 4096, 1]  |  data = 0, sizeInBytes = 8388608  |  isAliased = tensor_132_odule/model/1/o_proj/placeholder/1, type = alias, offset: 0  |  location = in DRAM  |  "
    }
  }
}
node {
  name: "tensor_131_c43379_bundle_202/memcpy/0"
  op: "DmaMemcpy"
  input: "module/model/1/o_proj/quant_input_0/reshape/4679"
  attr {
    key: "Bundle_idx"
    value {
      s: "202"
    }
  }
  attr {
    key: "Exec_idx"
    value {
      s: "93"
    }
  }
  attr {
    key: "Op_idx"
    value {
      s: "0"
    }
  }
  attr {
    key: "inputTensor:0"
    value {
      s: "tensor_131_c43379  |  Sizes = [1,189,2048]  |  hfloat8  |  expBias = 7, scale = 1  |    |  ModelParam = 0  |  strides = [387072, 387072, 2048, 1]  |  data = 0, sizeInBytes = 387072  |  isAliased = tensor_125_id_48475_module/model/1/aten__transpose_memcpy_43964, type = alias, offset: 0  |  location = in DRAM  |  "
    }
  }
  attr {
    key: "outputTensor:0"
    value {
      s: "tensor_131_c43379_slice_0_0_0_0_0__0__bundle_202_43960  |  Sizes = [1,189,2048]  |  hfloat8  |  expBias = 7, scale = 1  |    |  ModelParam = 0  |  strides = [387072, 387072, 2048, 1]  |  data = 0, sizeInBytes = 387072  |  location = in SRAM  |  sramOffset = 0x1000fffffd38ae00  |  "
    }
  }
}
node {
  name: "module/model/1/o_proj/fp8_gemm_bf16/4681_complex/fp8_gemm_bf16_539/batch_gemm_8_bundle_202/op_0_gemm"
  op: "GEMM"
  input: "tensor_131_c43379_bundle_202/memcpy/0"
  input: "module/model/1/o_proj/fp8_gemm_bf16/4681_complex/fp8_gemm_bf16_539/expand_dims_6"
  attr {
    key: "Bundle_idx"
    value {
      s: "202"
    }
  }
  attr {
    key: "Exec_idx"
    value {
      s: "94"
    }
  }
  attr {
    key: "Op_idx"
    value {
      s: "1"
    }
  }
  attr {
    key: "Parameters"
    value {
      s: "transpose_a=false, transpose_b=false"
    }
  }
  attr {
    key: "fp8BiasIn"
    value {
      s: "11"
    }
  }
  attr {
    key: "fp8BiasIn2"
    value {
      s: "15"
    }
  }
  attr {
    key: "fp8BiasOut"
    value {
      s: "0"
    }
  }
  attr {
    key: "inputTensor:0"
    value {
      s: "tensor_131_c43379_slice_0_0_0_0_0__0__bundle_202_43960  |  Sizes = [1,189,2048]  |  hfloat8  |  expBias = 7, scale = 1  |    |  ModelParam = 0  |  strides = [387072, 387072, 2048, 1]  |  data = 0, sizeInBytes = 387072  |  location = in SRAM  |  sramOffset = 0x1000fffffd38ae00  |  "
    }
  }
  attr {
    key: "inputTensor:1"
    value {
      s: "hf8-7_43460  |  Sizes = [1,2048,4096]  |  hfloat8  |  expBias = 7, scale = 1  |    |  ModelParam = 0  |  strides = [8388608, 8388608, 4096, 1]  |  data = 0, sizeInBytes = 8388608  |  isAliased = tensor_132_odule/model/1/o_proj/placeholder/1, type = alias, offset: 0  |  location = in DRAM  |  "
    }
  }
  attr {
    key: "outputTensor:0"
    value {
      s: "tensor_136  |  Sizes = [1,189,4096]  |  bf16  |  expBias = 0, scale = 1  |    |  ModelParam = 0  |  strides = [1548288, 1548288, 8192, 2]  |  data = 0, sizeInBytes = 1548288  |  isPersistent  |  location = in DRAM  |  dramOffset = 0x310000000000  |  userMemorySection(type=Persistent, id=49)  |  "
    }
  }
}
node {
  name: "tensor_136"
  op: "OutputTensor"
  input: "module/model/1/o_proj/fp8_gemm_bf16/4681_complex/fp8_gemm_bf16_539/batch_gemm_8_bundle_202/op_0_gemm"
  attr {
    key: "dtype"
    value {
      type: DT_BFLOAT16
    }
  }
  attr {
    key: "shape"
    value {
      shape {
        dim {
          size: 4096
        }
        dim {
          size: 189
        }
        dim {
          size: 1
        }
        dim {
          size: 1
        }
        dim {
          size: 1
        }
      }
    }
  }
  attr {
    key: "synDataType"
    value {
      s: "bf16"
    }
  }
}
