node {
  name: "tensor_7_odule/model/31/placeholder/0"
  op: "Placeholder"
  attr {
    key: "dtype"
    value {
      type: DT_INT32
    }
  }
  attr {
    key: "shape"
    value {
      shape {
        dim {
          size: 16
        }
        dim {
          size: 1
        }
        dim {
          size: 1
        }
        dim {
          size: 1
        }
        dim {
          size: 1
        }
      }
    }
  }
  attr {
    key: "synDataType"
    value {
      s: "int32"
    }
  }
}
node {
  name: "module/model/31/expand_dims/13779"
  op: "ExpandDims"
  input: "tensor_7_odule/model/31/placeholder/0"
  attr {
    key: "Bundle_idx"
    value {
      s: "N/A"
    }
  }
  attr {
    key: "Exec_idx"
    value {
      s: "0"
    }
  }
  attr {
    key: "Op_idx"
    value {
      s: "N/A"
    }
  }
  attr {
    key: "inputTensor:0"
    value {
      s: "tensor_7_odule/model/31/placeholder/0  |  Sizes = [16]  |  int32  |  expBias = 0, scale = 1  |    |  ModelParam = 0  |  strides = [64, 4]  |  data = 0, sizeInBytes = 64  |  isPersistent  |  userMemorySection(type=Persistent, id=7)  |  "
    }
  }
  attr {
    key: "outputTensor:0"
    value {
      s: "tensor_8_id_125687_module/model/31/aten__unsqueeze/1  |  Sizes = [1,16]  |  int32  |  expBias = 0, scale = 1  |    |  ModelParam = 0  |  strides = [64, 64, 4]  |  data = 0, sizeInBytes = 64  |  "
    }
  }
}
node {
  name: "tensor_73_odule/model/31/fused_scaled_dot_product_attention/placeholder/0"
  op: "Placeholder"
  attr {
    key: "dtype"
    value {
      type: DT_BFLOAT16
    }
  }
  attr {
    key: "shape"
    value {
      shape {
        dim {
          size: 16
        }
        dim {
          size: 16
        }
        dim {
          size: 1
        }
        dim {
          size: 1
        }
        dim {
          size: 1
        }
      }
    }
  }
  attr {
    key: "synDataType"
    value {
      s: "bf16"
    }
  }
}
node {
  name: "module/model/31/fused_scaled_dot_product_attention/expand_dims/13809"
  op: "ExpandDims"
  input: "tensor_73_odule/model/31/fused_scaled_dot_product_attention/placeholder/0"
  attr {
    key: "Bundle_idx"
    value {
      s: "N/A"
    }
  }
  attr {
    key: "Exec_idx"
    value {
      s: "1"
    }
  }
  attr {
    key: "Op_idx"
    value {
      s: "N/A"
    }
  }
  attr {
    key: "inputTensor:0"
    value {
      s: "tensor_73_odule/model/31/fused_scaled_dot_product_attention/placeholder/0  |  Sizes = [16,16]  |  bf16  |  expBias = 0, scale = 1  |    |  ModelParam = 0  |  strides = [512, 32, 2]  |  data = 0, sizeInBytes = 512  |  isPersistent  |  userMemorySection(type=Persistent, id=29)  |  "
    }
  }
  attr {
    key: "outputTensor:0"
    value {
      s: "tensor_74_id_125688_module/model/31/fused_scaled_dot_product_attention/aten__unsqueeze  |  Sizes = [1,16,16]  |  bf16  |  expBias = 0, scale = 1  |    |  ModelParam = 0  |  strides = [512, 512, 32, 2]  |  data = 0, sizeInBytes = 512  |  "
    }
  }
}
node {
  name: "module/model/31/fused_scaled_dot_product_attention/expand_dims/13810"
  op: "ExpandDims"
  input: "module/model/31/fused_scaled_dot_product_attention/expand_dims/13809"
  attr {
    key: "Bundle_idx"
    value {
      s: "N/A"
    }
  }
  attr {
    key: "Exec_idx"
    value {
      s: "2"
    }
  }
  attr {
    key: "Op_idx"
    value {
      s: "N/A"
    }
  }
  attr {
    key: "inputTensor:0"
    value {
      s: "tensor_74_id_125688_module/model/31/fused_scaled_dot_product_attention/aten__unsqueeze  |  Sizes = [1,16,16]  |  bf16  |  expBias = 0, scale = 1  |    |  ModelParam = 0  |  strides = [512, 512, 32, 2]  |  data = 0, sizeInBytes = 512  |  "
    }
  }
  attr {
    key: "outputTensor:0"
    value {
      s: "tensor_75_id_125689_module/model/31/fused_scaled_dot_product_attention/aten__unsqueeze  |  Sizes = [1,1,16,16]  |  bf16  |  expBias = 0, scale = 1  |    |  ModelParam = 0  |  strides = [512, 512, 512, 32, 2]  |  data = 0, sizeInBytes = 512  |  "
    }
  }
}
node {
  name: "module/model/31/expand_dims/13819"
  op: "ExpandDims"
  input: "tensor_7_odule/model/31/placeholder/0"
  attr {
    key: "Bundle_idx"
    value {
      s: "N/A"
    }
  }
  attr {
    key: "Exec_idx"
    value {
      s: "3"
    }
  }
  attr {
    key: "Op_idx"
    value {
      s: "N/A"
    }
  }
  attr {
    key: "inputTensor:0"
    value {
      s: "tensor_7_odule/model/31/placeholder/0  |  Sizes = [16]  |  int32  |  expBias = 0, scale = 1  |    |  ModelParam = 0  |  strides = [64, 4]  |  data = 0, sizeInBytes = 64  |  isPersistent  |  userMemorySection(type=Persistent, id=7)  |  "
    }
  }
  attr {
    key: "outputTensor:0"
    value {
      s: "tensor_90_id_125687_module/model/31/aten__unsqueeze  |  Sizes = [1,16]  |  int32  |  expBias = 0, scale = 1  |    |  ModelParam = 0  |  strides = [64, 64, 4]  |  data = 0, sizeInBytes = 64  |  "
    }
  }
}
node {
  name: "tensor_0_odule/model/30/placeholder/0"
  op: "Placeholder"
  attr {
    key: "dtype"
    value {
      type: DT_BFLOAT16
    }
  }
  attr {
    key: "shape"
    value {
      shape {
        dim {
          size: 4096
        }
        dim {
          size: 16
        }
        dim {
          size: 1
        }
        dim {
          size: 1
        }
        dim {
          size: 1
        }
      }
    }
  }
  attr {
    key: "synDataType"
    value {
      s: "bf16"
    }
  }
}
node {
  name: "tensor_1_odule/model/30/placeholder/1"
  op: "Placeholder"
  attr {
    key: "dtype"
    value {
      type: DT_BFLOAT16
    }
  }
  attr {
    key: "shape"
    value {
      shape {
        dim {
          size: 4096
        }
        dim {
          size: 16
        }
        dim {
          size: 1
        }
        dim {
          size: 1
        }
        dim {
          size: 1
        }
      }
    }
  }
  attr {
    key: "synDataType"
    value {
      s: "bf16"
    }
  }
}
node {
  name: "module/model/30/add_fwd_bf16/13777"
  op: "add_fwd_bf16"
  input: "tensor_0_odule/model/30/placeholder/0"
  input: "tensor_1_odule/model/30/placeholder/1"
  attr {
    key: "Bundle_idx"
    value {
      s: "N/A"
    }
  }
  attr {
    key: "Exec_idx"
    value {
      s: "4"
    }
  }
  attr {
    key: "Op_idx"
    value {
      s: "N/A"
    }
  }
  attr {
    key: "inputTensor:0"
    value {
      s: "tensor_0_odule/model/30/placeholder/0  |  Sizes = [1,16,4096]  |  bf16  |  expBias = 0, scale = 1  |    |  ModelParam = 0  |  strides = [131072, 131072, 8192, 2]  |  data = 0, sizeInBytes = 131072  |  isPersistent  |  userMemorySection(type=Persistent, id=4)  |  "
    }
  }
  attr {
    key: "inputTensor:1"
    value {
      s: "tensor_1_odule/model/30/placeholder/1  |  Sizes = [1,16,4096]  |  bf16  |  expBias = 0, scale = 1  |    |  ModelParam = 0  |  strides = [131072, 131072, 8192, 2]  |  data = 0, sizeInBytes = 131072  |  isPersistent  |  userMemorySection(type=Persistent, id=5)  |  "
    }
  }
  attr {
    key: "outputTensor:0"
    value {
      s: "tensor_2  |  Sizes = [1,16,4096]  |  bf16  |  expBias = 0, scale = 1  |    |  ModelParam = 0  |  strides = [131072, 131072, 8192, 2]  |  data = 0, sizeInBytes = 131072  |  isPersistent  |  userMemorySection(type=Persistent, id=4)  |  "
    }
  }
}
node {
  name: "tensor_24_odule/model/31/input_layernorm/placeholder/1"
  op: "Placeholder"
  attr {
    key: "dtype"
    value {
      type: DT_BFLOAT16
    }
  }
  attr {
    key: "shape"
    value {
      shape {
        dim {
          size: 4096
        }
        dim {
          size: 1
        }
        dim {
          size: 1
        }
        dim {
          size: 1
        }
        dim {
          size: 1
        }
      }
    }
  }
  attr {
    key: "synDataType"
    value {
      s: "bf16"
    }
  }
}
node {
  name: "module/model/31/input_layernorm/rms_norm_ex_fwd_bf16/13792"
  op: "rms_norm_ex_fwd_bf16"
  input: "module/model/30/add_fwd_bf16/13777"
  input: "tensor_24_odule/model/31/input_layernorm/placeholder/1"
  attr {
    key: "Bundle_idx"
    value {
      s: "N/A"
    }
  }
  attr {
    key: "Exec_idx"
    value {
      s: "5"
    }
  }
  attr {
    key: "Op_idx"
    value {
      s: "N/A"
    }
  }
  attr {
    key: "inputTensor:0"
    value {
      s: "tensor_2  |  Sizes = [1,16,4096]  |  bf16  |  expBias = 0, scale = 1  |    |  ModelParam = 0  |  strides = [131072, 131072, 8192, 2]  |  data = 0, sizeInBytes = 131072  |  isPersistent  |  userMemorySection(type=Persistent, id=4)  |  "
    }
  }
  attr {
    key: "inputTensor:1"
    value {
      s: "tensor_24_odule/model/31/input_layernorm/placeholder/1  |  Sizes = [4096]  |  bf16  |  expBias = 0, scale = 1  |    |  ModelParam = 0  |  strides = [8192, 2]  |  data = 0, sizeInBytes = 8192  |  isPersistent  |  userMemorySection(type=Persistent, id=11)  |  "
    }
  }
  attr {
    key: "outputTensor:0"
    value {
      s: "tensor_27  |  Sizes = [1,16,4096]  |  bf16  |  expBias = 0, scale = 1  |    |  ModelParam = 0  |  strides = [131072, 131072, 8192, 2]  |  data = 0, sizeInBytes = 131072  |  "
    }
  }
  attr {
    key: "outputTensor:1"
    value {
      s: "tensor_28  |  Sizes = [1,16,1]  |  float32  |  expBias = 0, scale = 1  |    |  ModelParam = 0  |  strides = [64, 64, 4, 4]  |  data = 0, sizeInBytes = 64  |  "
    }
  }
}
node {
  name: "tensor_28"
  op: "OutputTensor"
  input: "module/model/31/input_layernorm/rms_norm_ex_fwd_bf16/13792"
  attr {
    key: "dtype"
    value {
      type: DT_FLOAT
    }
  }
  attr {
    key: "shape"
    value {
      shape {
        dim {
          size: 1
        }
        dim {
          size: 16
        }
        dim {
          size: 1
        }
        dim {
          size: 1
        }
        dim {
          size: 1
        }
      }
    }
  }
  attr {
    key: "synDataType"
    value {
      s: "float32"
    }
  }
}
node {
  name: "tensor_29_odule/model/31/k_proj/quant_input_0/placeholder/1"
  op: "Placeholder"
  attr {
    key: "dtype"
    value {
      type: DT_BFLOAT16
    }
  }
  attr {
    key: "shape"
    value {
      shape {
        dim {
          size: 1
        }
        dim {
          size: 1
        }
        dim {
          size: 1
        }
        dim {
          size: 1
        }
        dim {
          size: 1
        }
      }
    }
  }
  attr {
    key: "synDataType"
    value {
      s: "bf16"
    }
  }
}
node {
  name: "module/model/31/k_proj/quant_input_0/convert_to_fp8_bf16/13793"
  op: "convert_to_fp8_bf16"
  input: "module/model/31/input_layernorm/rms_norm_ex_fwd_bf16/13792"
  input: "tensor_29_odule/model/31/k_proj/quant_input_0/placeholder/1"
  attr {
    key: "Bundle_idx"
    value {
      s: "N/A"
    }
  }
  attr {
    key: "Exec_idx"
    value {
      s: "6"
    }
  }
  attr {
    key: "Op_idx"
    value {
      s: "N/A"
    }
  }
  attr {
    key: "inputTensor:0"
    value {
      s: "tensor_27  |  Sizes = [1,16,4096]  |  bf16  |  expBias = 0, scale = 1  |    |  ModelParam = 0  |  strides = [131072, 131072, 8192, 2]  |  data = 0, sizeInBytes = 131072  |  "
    }
  }
  attr {
    key: "inputTensor:1"
    value {
      s: "tensor_29_odule/model/31/k_proj/quant_input_0/placeholder/1  |  Sizes = [1]  |  bf16  |  expBias = 0, scale = 1  |    |  ModelParam = 0  |  strides = [2, 2]  |  data = 0x5566cd6c65a0, sizeInBytes = 2  |  buffer = 1  |  isPersistent  |  userMemorySection(type=Persistent, id=12)  |  isStaticParam  |  bufferDtype=bf16  |  "
    }
  }
  attr {
    key: "outputTensor:0"
    value {
      s: "tensor_32  |  Sizes = [1,16,4096]  |  hfloat8  |  expBias = 7, scale = 1  |    |  ModelParam = 0  |  strides = [65536, 65536, 4096, 1]  |  data = 0, sizeInBytes = 65536  |  "
    }
  }
}
node {
  name: "tensor_9_odule/model/31/rotary_emb/placeholder/0"
  op: "Placeholder"
  attr {
    key: "dtype"
    value {
      type: DT_BFLOAT16
    }
  }
  attr {
    key: "shape"
    value {
      shape {
        dim {
          size: 128
        }
        dim {
          size: 131072
        }
        dim {
          size: 1
        }
        dim {
          size: 1
        }
        dim {
          size: 1
        }
      }
    }
  }
  attr {
    key: "synDataType"
    value {
      s: "bf16"
    }
  }
}
node {
  name: "module/model/31/rotary_emb/slice/13780"
  op: "Slice"
  input: "tensor_9_odule/model/31/rotary_emb/placeholder/0"
  attr {
    key: "Bundle_idx"
    value {
      s: "N/A"
    }
  }
  attr {
    key: "Exec_idx"
    value {
      s: "7"
    }
  }
  attr {
    key: "Op_idx"
    value {
      s: "N/A"
    }
  }
  attr {
    key: "inputTensor:0"
    value {
      s: "tensor_9_odule/model/31/rotary_emb/placeholder/0  |  Sizes = [131072,128]  |  bf16  |  expBias = 0, scale = 1  |    |  ModelParam = 0  |  strides = [33554432, 256, 2]  |  data = 0, sizeInBytes = 33554432  |  isPersistent  |  userMemorySection(type=Persistent, id=8)  |  "
    }
  }
  attr {
    key: "outputTensor:0"
    value {
      s: "tensor_10_id_125805_module/model/31/rotary_emb/aten__slice  |  Sizes = [16,128]  |  bf16  |  expBias = 0, scale = 1  |    |  ModelParam = 0  |  strides = [4096, 256, 2]  |  data = 0, sizeInBytes = 4096  |  "
    }
  }
}
node {
  name: "tensor_11_odule/model/31/rotary_emb/placeholder/1"
  op: "Placeholder"
  attr {
    key: "dtype"
    value {
      type: DT_FLOAT
    }
  }
  attr {
    key: "shape"
    value {
      shape {
        dim {
          size: 1
        }
        dim {
          size: 1
        }
        dim {
          size: 1
        }
        dim {
          size: 1
        }
        dim {
          size: 1
        }
      }
    }
  }
  attr {
    key: "synDataType"
    value {
      s: "float32"
    }
  }
}
node {
  name: "module/model/31/rotary_emb/cast_f32_to_bf16/13781"
  op: "cast_f32_to_bf16"
  input: "tensor_11_odule/model/31/rotary_emb/placeholder/1"
  attr {
    key: "Bundle_idx"
    value {
      s: "N/A"
    }
  }
  attr {
    key: "Exec_idx"
    value {
      s: "8"
    }
  }
  attr {
    key: "Op_idx"
    value {
      s: "N/A"
    }
  }
  attr {
    key: "inputTensor:0"
    value {
      s: "tensor_11_odule/model/31/rotary_emb/placeholder/1  |  Sizes = [1]  |  float32  |  expBias = 0, scale = 1  |    |  ModelParam = 0  |  strides = [4, 4]  |  data = 0, sizeInBytes = 4  |  isPersistent  |  userMemorySection(type=Persistent, id=9)  |  "
    }
  }
  attr {
    key: "outputTensor:0"
    value {
      s: "tensor_13  |  Sizes = [1]  |  bf16  |  expBias = 0, scale = 1  |    |  ModelParam = 0  |  strides = [2, 2]  |  data = 0, sizeInBytes = 2  |  "
    }
  }
}
node {
  name: "tensor_17_odule/model/31/rotary_emb/placeholder/0"
  op: "Placeholder"
  attr {
    key: "dtype"
    value {
      type: DT_BFLOAT16
    }
  }
  attr {
    key: "shape"
    value {
      shape {
        dim {
          size: 128
        }
        dim {
          size: 131072
        }
        dim {
          size: 1
        }
        dim {
          size: 1
        }
        dim {
          size: 1
        }
      }
    }
  }
  attr {
    key: "synDataType"
    value {
      s: "bf16"
    }
  }
}
node {
  name: "module/model/31/rotary_emb/slice/13786"
  op: "Slice"
  input: "tensor_17_odule/model/31/rotary_emb/placeholder/0"
  attr {
    key: "Bundle_idx"
    value {
      s: "N/A"
    }
  }
  attr {
    key: "Exec_idx"
    value {
      s: "9"
    }
  }
  attr {
    key: "Op_idx"
    value {
      s: "N/A"
    }
  }
  attr {
    key: "inputTensor:0"
    value {
      s: "tensor_17_odule/model/31/rotary_emb/placeholder/0  |  Sizes = [131072,128]  |  bf16  |  expBias = 0, scale = 1  |    |  ModelParam = 0  |  strides = [33554432, 256, 2]  |  data = 0, sizeInBytes = 33554432  |  isPersistent  |  userMemorySection(type=Persistent, id=10)  |  "
    }
  }
  attr {
    key: "outputTensor:0"
    value {
      s: "tensor_18_id_125809_module/model/31/rotary_emb/aten__slice  |  Sizes = [16,128]  |  bf16  |  expBias = 0, scale = 1  |    |  ModelParam = 0  |  strides = [4096, 256, 2]  |  data = 0, sizeInBytes = 4096  |  "
    }
  }
}
node {
  name: "module/model/31/rotary_emb/cast_f32_to_bf16/13787"
  op: "cast_f32_to_bf16"
  input: "tensor_11_odule/model/31/rotary_emb/placeholder/1"
  attr {
    key: "Bundle_idx"
    value {
      s: "N/A"
    }
  }
  attr {
    key: "Exec_idx"
    value {
      s: "10"
    }
  }
  attr {
    key: "Op_idx"
    value {
      s: "N/A"
    }
  }
  attr {
    key: "inputTensor:0"
    value {
      s: "tensor_11_odule/model/31/rotary_emb/placeholder/1  |  Sizes = [1]  |  float32  |  expBias = 0, scale = 1  |    |  ModelParam = 0  |  strides = [4, 4]  |  data = 0, sizeInBytes = 4  |  isPersistent  |  userMemorySection(type=Persistent, id=9)  |  "
    }
  }
  attr {
    key: "outputTensor:0"
    value {
      s: "tensor_20  |  Sizes = [1]  |  bf16  |  expBias = 0, scale = 1  |    |  ModelParam = 0  |  strides = [2, 2]  |  data = 0, sizeInBytes = 2  |  "
    }
  }
}
node {
  name: "tensor_33_odule/model/31/k_proj/placeholder/1"
  op: "Placeholder"
  attr {
    key: "dtype"
    value {
      type: DT_INVALID
    }
  }
  attr {
    key: "shape"
    value {
      shape {
        dim {
          size: 512
        }
        dim {
          size: 4096
        }
        dim {
          size: 1
        }
        dim {
          size: 1
        }
        dim {
          size: 1
        }
      }
    }
  }
  attr {
    key: "synDataType"
    value {
      s: "hfloat8"
    }
  }
}
node {
  name: "tensor_34_odule/model/31/k_proj/placeholder/2"
  op: "Placeholder"
  attr {
    key: "dtype"
    value {
      type: DT_BFLOAT16
    }
  }
  attr {
    key: "shape"
    value {
      shape {
        dim {
          size: 1
        }
        dim {
          size: 1
        }
        dim {
          size: 1
        }
        dim {
          size: 1
        }
        dim {
          size: 1
        }
      }
    }
  }
  attr {
    key: "synDataType"
    value {
      s: "bf16"
    }
  }
}
node {
  name: "tensor_35_odule/model/31/k_proj/placeholder/3"
  op: "Placeholder"
  attr {
    key: "dtype"
    value {
      type: DT_BFLOAT16
    }
  }
  attr {
    key: "shape"
    value {
      shape {
        dim {
          size: 1
        }
        dim {
          size: 1
        }
        dim {
          size: 1
        }
        dim {
          size: 1
        }
        dim {
          size: 1
        }
      }
    }
  }
  attr {
    key: "synDataType"
    value {
      s: "bf16"
    }
  }
}
node {
  name: "module/model/31/k_proj/fp8_gemm_bf16/13794"
  op: "fp8_gemm_bf16"
  input: "module/model/31/k_proj/quant_input_0/convert_to_fp8_bf16/13793"
  input: "tensor_33_odule/model/31/k_proj/placeholder/1"
  input: "tensor_34_odule/model/31/k_proj/placeholder/2"
  input: "tensor_35_odule/model/31/k_proj/placeholder/3"
  input: "unused_port"
  input: "unused_port"
  input: "unused_port"
  attr {
    key: "Bundle_idx"
    value {
      s: "N/A"
    }
  }
  attr {
    key: "Exec_idx"
    value {
      s: "11"
    }
  }
  attr {
    key: "Op_idx"
    value {
      s: "N/A"
    }
  }
  attr {
    key: "inputTensor:0"
    value {
      s: "tensor_32  |  Sizes = [1,16,4096]  |  hfloat8  |  expBias = 7, scale = 1  |    |  ModelParam = 0  |  strides = [65536, 65536, 4096, 1]  |  data = 0, sizeInBytes = 65536  |  "
    }
  }
  attr {
    key: "inputTensor:1"
    value {
      s: "tensor_33_odule/model/31/k_proj/placeholder/1  |  Sizes = [4096,512]  |  hfloat8  |  expBias = 7, scale = 1  |    |  ModelParam = 0  |  strides = [2097152, 512, 1]  |  data = 0, sizeInBytes = 2097152  |  isPersistent  |  userMemorySection(type=Persistent, id=13)  |  "
    }
  }
  attr {
    key: "inputTensor:2"
    value {
      s: "tensor_34_odule/model/31/k_proj/placeholder/2  |  Sizes = [1]  |  bf16  |  expBias = 0, scale = 1  |    |  ModelParam = 0  |  strides = [2, 2]  |  data = 0x5566cd6c6530, sizeInBytes = 2  |  buffer = 1  |  isPersistent  |  userMemorySection(type=Persistent, id=14)  |  isStaticParam  |  bufferDtype=bf16  |  "
    }
  }
  attr {
    key: "inputTensor:3"
    value {
      s: "tensor_35_odule/model/31/k_proj/placeholder/3  |  Sizes = [1]  |  bf16  |  expBias = 0, scale = 1  |    |  ModelParam = 0  |  strides = [2, 2]  |  data = 0x5566cd6c6568, sizeInBytes = 2  |  buffer = 0.00390625  |  isPersistent  |  userMemorySection(type=Persistent, id=15)  |  isStaticParam  |  bufferDtype=bf16  |  "
    }
  }
  attr {
    key: "outputTensor:0"
    value {
      s: "tensor_37  |  Sizes = [1,16,512]  |  bf16  |  expBias = 0, scale = 1  |    |  ModelParam = 0  |  strides = [16384, 16384, 1024, 2]  |  data = 0, sizeInBytes = 16384  |  "
    }
  }
}
node {
  name: "module/model/31/reshape/13795"
  op: "Reshape"
  input: "module/model/31/k_proj/fp8_gemm_bf16/13794"
  attr {
    key: "Bundle_idx"
    value {
      s: "N/A"
    }
  }
  attr {
    key: "Exec_idx"
    value {
      s: "12"
    }
  }
  attr {
    key: "Op_idx"
    value {
      s: "N/A"
    }
  }
  attr {
    key: "inputTensor:0"
    value {
      s: "tensor_37  |  Sizes = [1,16,512]  |  bf16  |  expBias = 0, scale = 1  |    |  ModelParam = 0  |  strides = [16384, 16384, 1024, 2]  |  data = 0, sizeInBytes = 16384  |  "
    }
  }
  attr {
    key: "outputTensor:0"
    value {
      s: "tensor_38_id_125797_module/model/31/aten__view  |  Sizes = [1,16,4,128]  |  bf16  |  expBias = 0, scale = 1  |    |  ModelParam = 0  |  strides = [16384, 16384, 1024, 256, 2]  |  data = 0, sizeInBytes = 16384  |  "
    }
  }
}
node {
  name: "tensor_54_odule/model/31/v_proj/quant_input_0/placeholder/1"
  op: "Placeholder"
  attr {
    key: "dtype"
    value {
      type: DT_BFLOAT16
    }
  }
  attr {
    key: "shape"
    value {
      shape {
        dim {
          size: 1
        }
        dim {
          size: 1
        }
        dim {
          size: 1
        }
        dim {
          size: 1
        }
        dim {
          size: 1
        }
      }
    }
  }
  attr {
    key: "synDataType"
    value {
      s: "bf16"
    }
  }
}
node {
  name: "module/model/31/v_proj/quant_input_0/convert_to_fp8_bf16/13802"
  op: "convert_to_fp8_bf16"
  input: "module/model/31/input_layernorm/rms_norm_ex_fwd_bf16/13792"
  input: "tensor_54_odule/model/31/v_proj/quant_input_0/placeholder/1"
  attr {
    key: "Bundle_idx"
    value {
      s: "N/A"
    }
  }
  attr {
    key: "Exec_idx"
    value {
      s: "13"
    }
  }
  attr {
    key: "Op_idx"
    value {
      s: "N/A"
    }
  }
  attr {
    key: "inputTensor:0"
    value {
      s: "tensor_27  |  Sizes = [1,16,4096]  |  bf16  |  expBias = 0, scale = 1  |    |  ModelParam = 0  |  strides = [131072, 131072, 8192, 2]  |  data = 0, sizeInBytes = 131072  |  "
    }
  }
  attr {
    key: "inputTensor:1"
    value {
      s: "tensor_54_odule/model/31/v_proj/quant_input_0/placeholder/1  |  Sizes = [1]  |  bf16  |  expBias = 0, scale = 1  |    |  ModelParam = 0  |  strides = [2, 2]  |  data = 0x5566cd6c6370, sizeInBytes = 2  |  buffer = 1  |  isPersistent  |  userMemorySection(type=Persistent, id=21)  |  isStaticParam  |  bufferDtype=bf16  |  "
    }
  }
  attr {
    key: "outputTensor:0"
    value {
      s: "tensor_57  |  Sizes = [1,16,4096]  |  hfloat8  |  expBias = 7, scale = 1  |    |  ModelParam = 0  |  strides = [65536, 65536, 4096, 1]  |  data = 0, sizeInBytes = 65536  |  "
    }
  }
}
node {
  name: "module/model/31/rotary_emb/mult_fwd_bf16/13782"
  op: "mult_fwd_bf16"
  input: "module/model/31/rotary_emb/slice/13780"
  input: "module/model/31/rotary_emb/cast_f32_to_bf16/13781"
  attr {
    key: "Bundle_idx"
    value {
      s: "N/A"
    }
  }
  attr {
    key: "Exec_idx"
    value {
      s: "14"
    }
  }
  attr {
    key: "Op_idx"
    value {
      s: "N/A"
    }
  }
  attr {
    key: "inputTensor:0"
    value {
      s: "tensor_10_id_125805_module/model/31/rotary_emb/aten__slice  |  Sizes = [16,128]  |  bf16  |  expBias = 0, scale = 1  |    |  ModelParam = 0  |  strides = [4096, 256, 2]  |  data = 0, sizeInBytes = 4096  |  "
    }
  }
  attr {
    key: "inputTensor:1"
    value {
      s: "tensor_13  |  Sizes = [1]  |  bf16  |  expBias = 0, scale = 1  |    |  ModelParam = 0  |  strides = [2, 2]  |  data = 0, sizeInBytes = 2  |  "
    }
  }
  attr {
    key: "outputTensor:0"
    value {
      s: "tensor_12_id_125807_module/model/31/rotary_emb/aten__mul  |  Sizes = [16,128]  |  bf16  |  expBias = 0, scale = 1  |    |  ModelParam = 0  |  strides = [4096, 256, 2]  |  data = 0, sizeInBytes = 4096  |  "
    }
  }
}
node {
  name: "module/model/31/expand_dims/13783"
  op: "ExpandDims"
  input: "module/model/31/rotary_emb/mult_fwd_bf16/13782"
  attr {
    key: "Bundle_idx"
    value {
      s: "N/A"
    }
  }
  attr {
    key: "Exec_idx"
    value {
      s: "15"
    }
  }
  attr {
    key: "Op_idx"
    value {
      s: "N/A"
    }
  }
  attr {
    key: "inputTensor:0"
    value {
      s: "tensor_12_id_125807_module/model/31/rotary_emb/aten__mul  |  Sizes = [16,128]  |  bf16  |  expBias = 0, scale = 1  |    |  ModelParam = 0  |  strides = [4096, 256, 2]  |  data = 0, sizeInBytes = 4096  |  "
    }
  }
  attr {
    key: "outputTensor:0"
    value {
      s: "tensor_14_id_125829_module/model/31/aten__unsqueeze  |  Sizes = [1,16,128]  |  bf16  |  expBias = 0, scale = 1  |    |  ModelParam = 0  |  strides = [4096, 4096, 256, 2]  |  data = 0, sizeInBytes = 4096  |  "
    }
  }
}
node {
  name: "module/model/31/expand_dims/13784"
  op: "ExpandDims"
  input: "module/model/31/expand_dims/13783"
  attr {
    key: "Bundle_idx"
    value {
      s: "N/A"
    }
  }
  attr {
    key: "Exec_idx"
    value {
      s: "16"
    }
  }
  attr {
    key: "Op_idx"
    value {
      s: "N/A"
    }
  }
  attr {
    key: "inputTensor:0"
    value {
      s: "tensor_14_id_125829_module/model/31/aten__unsqueeze  |  Sizes = [1,16,128]  |  bf16  |  expBias = 0, scale = 1  |    |  ModelParam = 0  |  strides = [4096, 4096, 256, 2]  |  data = 0, sizeInBytes = 4096  |  "
    }
  }
  attr {
    key: "outputTensor:0"
    value {
      s: "tensor_15_id_125831_module/model/31/aten__unsqueeze  |  Sizes = [1,1,16,128]  |  bf16  |  expBias = 0, scale = 1  |    |  ModelParam = 0  |  strides = [4096, 4096, 4096, 256, 2]  |  data = 0, sizeInBytes = 4096  |  "
    }
  }
}
node {
  name: "module/model/31/identity/13785"
  op: "Identity"
  input: "module/model/31/expand_dims/13784"
  attr {
    key: "Bundle_idx"
    value {
      s: "N/A"
    }
  }
  attr {
    key: "Exec_idx"
    value {
      s: "17"
    }
  }
  attr {
    key: "Op_idx"
    value {
      s: "N/A"
    }
  }
  attr {
    key: "inputTensor:0"
    value {
      s: "tensor_15_id_125831_module/model/31/aten__unsqueeze  |  Sizes = [1,1,16,128]  |  bf16  |  expBias = 0, scale = 1  |    |  ModelParam = 0  |  strides = [4096, 4096, 4096, 256, 2]  |  data = 0, sizeInBytes = 4096  |  "
    }
  }
  attr {
    key: "outputTensor:0"
    value {
      s: "tensor_16_id_125833_module/model/31/aten__clone  |  Sizes = [1,1,16,128]  |  bf16  |  expBias = 0, scale = 1  |    |  ModelParam = 0  |  strides = [4096, 4096, 4096, 256, 2]  |  data = 0, sizeInBytes = 4096  |  "
    }
  }
}
node {
  name: "module/model/31/rotary_emb/mult_fwd_bf16/13788"
  op: "mult_fwd_bf16"
  input: "module/model/31/rotary_emb/slice/13786"
  input: "module/model/31/rotary_emb/cast_f32_to_bf16/13787"
  attr {
    key: "Bundle_idx"
    value {
      s: "N/A"
    }
  }
  attr {
    key: "Exec_idx"
    value {
      s: "18"
    }
  }
  attr {
    key: "Op_idx"
    value {
      s: "N/A"
    }
  }
  attr {
    key: "inputTensor:0"
    value {
      s: "tensor_18_id_125809_module/model/31/rotary_emb/aten__slice  |  Sizes = [16,128]  |  bf16  |  expBias = 0, scale = 1  |    |  ModelParam = 0  |  strides = [4096, 256, 2]  |  data = 0, sizeInBytes = 4096  |  "
    }
  }
  attr {
    key: "inputTensor:1"
    value {
      s: "tensor_20  |  Sizes = [1]  |  bf16  |  expBias = 0, scale = 1  |    |  ModelParam = 0  |  strides = [2, 2]  |  data = 0, sizeInBytes = 2  |  "
    }
  }
  attr {
    key: "outputTensor:0"
    value {
      s: "tensor_19_id_125811_module/model/31/rotary_emb/aten__mul  |  Sizes = [16,128]  |  bf16  |  expBias = 0, scale = 1  |    |  ModelParam = 0  |  strides = [4096, 256, 2]  |  data = 0, sizeInBytes = 4096  |  "
    }
  }
}
node {
  name: "module/model/31/expand_dims/13789"
  op: "ExpandDims"
  input: "module/model/31/rotary_emb/mult_fwd_bf16/13788"
  attr {
    key: "Bundle_idx"
    value {
      s: "N/A"
    }
  }
  attr {
    key: "Exec_idx"
    value {
      s: "19"
    }
  }
  attr {
    key: "Op_idx"
    value {
      s: "N/A"
    }
  }
  attr {
    key: "inputTensor:0"
    value {
      s: "tensor_19_id_125811_module/model/31/rotary_emb/aten__mul  |  Sizes = [16,128]  |  bf16  |  expBias = 0, scale = 1  |    |  ModelParam = 0  |  strides = [4096, 256, 2]  |  data = 0, sizeInBytes = 4096  |  "
    }
  }
  attr {
    key: "outputTensor:0"
    value {
      s: "tensor_21_id_125835_module/model/31/aten__unsqueeze  |  Sizes = [1,16,128]  |  bf16  |  expBias = 0, scale = 1  |    |  ModelParam = 0  |  strides = [4096, 4096, 256, 2]  |  data = 0, sizeInBytes = 4096  |  "
    }
  }
}
node {
  name: "module/model/31/expand_dims/13790"
  op: "ExpandDims"
  input: "module/model/31/expand_dims/13789"
  attr {
    key: "Bundle_idx"
    value {
      s: "N/A"
    }
  }
  attr {
    key: "Exec_idx"
    value {
      s: "20"
    }
  }
  attr {
    key: "Op_idx"
    value {
      s: "N/A"
    }
  }
  attr {
    key: "inputTensor:0"
    value {
      s: "tensor_21_id_125835_module/model/31/aten__unsqueeze  |  Sizes = [1,16,128]  |  bf16  |  expBias = 0, scale = 1  |    |  ModelParam = 0  |  strides = [4096, 4096, 256, 2]  |  data = 0, sizeInBytes = 4096  |  "
    }
  }
  attr {
    key: "outputTensor:0"
    value {
      s: "tensor_22_id_125837_module/model/31/aten__unsqueeze  |  Sizes = [1,1,16,128]  |  bf16  |  expBias = 0, scale = 1  |    |  ModelParam = 0  |  strides = [4096, 4096, 4096, 256, 2]  |  data = 0, sizeInBytes = 4096  |  "
    }
  }
}
node {
  name: "module/model/31/identity/13791"
  op: "Identity"
  input: "module/model/31/expand_dims/13790"
  attr {
    key: "Bundle_idx"
    value {
      s: "N/A"
    }
  }
  attr {
    key: "Exec_idx"
    value {
      s: "21"
    }
  }
  attr {
    key: "Op_idx"
    value {
      s: "N/A"
    }
  }
  attr {
    key: "inputTensor:0"
    value {
      s: "tensor_22_id_125837_module/model/31/aten__unsqueeze  |  Sizes = [1,1,16,128]  |  bf16  |  expBias = 0, scale = 1  |    |  ModelParam = 0  |  strides = [4096, 4096, 4096, 256, 2]  |  data = 0, sizeInBytes = 4096  |  "
    }
  }
  attr {
    key: "outputTensor:0"
    value {
      s: "tensor_23_id_125839_module/model/31/aten__clone  |  Sizes = [1,1,16,128]  |  bf16  |  expBias = 0, scale = 1  |    |  ModelParam = 0  |  strides = [4096, 4096, 4096, 256, 2]  |  data = 0, sizeInBytes = 4096  |  "
    }
  }
}
node {
  name: "module/model/31/transpose/13796"
  op: "Transpose"
  input: "module/model/31/reshape/13795"
  attr {
    key: "Bundle_idx"
    value {
      s: "N/A"
    }
  }
  attr {
    key: "Exec_idx"
    value {
      s: "22"
    }
  }
  attr {
    key: "Op_idx"
    value {
      s: "N/A"
    }
  }
  attr {
    key: "Parameters"
    value {
      s: "permutation: (0,2,1,3)"
    }
  }
  attr {
    key: "inputTensor:0"
    value {
      s: "tensor_38_id_125797_module/model/31/aten__view  |  Sizes = [1,16,4,128]  |  bf16  |  expBias = 0, scale = 1  |    |  ModelParam = 0  |  strides = [16384, 16384, 1024, 256, 2]  |  data = 0, sizeInBytes = 16384  |  "
    }
  }
  attr {
    key: "outputTensor:0"
    value {
      s: "tensor_39_id_125799_module/model/31/aten__transpose  |  Sizes = [1,4,16,128]  |  bf16  |  expBias = 0, scale = 1  |    |  ModelParam = 0  |  strides = [16384, 16384, 4096, 256, 2]  |  data = 0, sizeInBytes = 16384  |  "
    }
  }
}
node {
  name: "tensor_58_odule/model/31/v_proj/placeholder/1"
  op: "Placeholder"
  attr {
    key: "dtype"
    value {
      type: DT_INVALID
    }
  }
  attr {
    key: "shape"
    value {
      shape {
        dim {
          size: 512
        }
        dim {
          size: 4096
        }
        dim {
          size: 1
        }
        dim {
          size: 1
        }
        dim {
          size: 1
        }
      }
    }
  }
  attr {
    key: "synDataType"
    value {
      s: "hfloat8"
    }
  }
}
node {
  name: "tensor_59_odule/model/31/v_proj/placeholder/2"
  op: "Placeholder"
  attr {
    key: "dtype"
    value {
      type: DT_BFLOAT16
    }
  }
  attr {
    key: "shape"
    value {
      shape {
        dim {
          size: 1
        }
        dim {
          size: 1
        }
        dim {
          size: 1
        }
        dim {
          size: 1
        }
        dim {
          size: 1
        }
      }
    }
  }
  attr {
    key: "synDataType"
    value {
      s: "bf16"
    }
  }
}
node {
  name: "tensor_60_odule/model/31/v_proj/placeholder/3"
  op: "Placeholder"
  attr {
    key: "dtype"
    value {
      type: DT_BFLOAT16
    }
  }
  attr {
    key: "shape"
    value {
      shape {
        dim {
          size: 1
        }
        dim {
          size: 1
        }
        dim {
          size: 1
        }
        dim {
          size: 1
        }
        dim {
          size: 1
        }
      }
    }
  }
  attr {
    key: "synDataType"
    value {
      s: "bf16"
    }
  }
}
node {
  name: "module/model/31/v_proj/fp8_gemm_bf16/13803"
  op: "fp8_gemm_bf16"
  input: "module/model/31/v_proj/quant_input_0/convert_to_fp8_bf16/13802"
  input: "tensor_58_odule/model/31/v_proj/placeholder/1"
  input: "tensor_59_odule/model/31/v_proj/placeholder/2"
  input: "tensor_60_odule/model/31/v_proj/placeholder/3"
  input: "unused_port"
  input: "unused_port"
  input: "unused_port"
  attr {
    key: "Bundle_idx"
    value {
      s: "N/A"
    }
  }
  attr {
    key: "Exec_idx"
    value {
      s: "23"
    }
  }
  attr {
    key: "Op_idx"
    value {
      s: "N/A"
    }
  }
  attr {
    key: "inputTensor:0"
    value {
      s: "tensor_57  |  Sizes = [1,16,4096]  |  hfloat8  |  expBias = 7, scale = 1  |    |  ModelParam = 0  |  strides = [65536, 65536, 4096, 1]  |  data = 0, sizeInBytes = 65536  |  "
    }
  }
  attr {
    key: "inputTensor:1"
    value {
      s: "tensor_58_odule/model/31/v_proj/placeholder/1  |  Sizes = [4096,512]  |  hfloat8  |  expBias = 7, scale = 1  |    |  ModelParam = 0  |  strides = [2097152, 512, 1]  |  data = 0, sizeInBytes = 2097152  |  isPersistent  |  userMemorySection(type=Persistent, id=22)  |  "
    }
  }
  attr {
    key: "inputTensor:2"
    value {
      s: "tensor_59_odule/model/31/v_proj/placeholder/2  |  Sizes = [1]  |  bf16  |  expBias = 0, scale = 1  |    |  ModelParam = 0  |  strides = [2, 2]  |  data = 0x5566cd6c63a0, sizeInBytes = 2  |  buffer = 1  |  isPersistent  |  userMemorySection(type=Persistent, id=23)  |  isStaticParam  |  bufferDtype=bf16  |  "
    }
  }
  attr {
    key: "inputTensor:3"
    value {
      s: "tensor_60_odule/model/31/v_proj/placeholder/3  |  Sizes = [1]  |  bf16  |  expBias = 0, scale = 1  |    |  ModelParam = 0  |  strides = [2, 2]  |  data = 0x5566cd6c6388, sizeInBytes = 2  |  buffer = 0.00390625  |  isPersistent  |  userMemorySection(type=Persistent, id=24)  |  isStaticParam  |  bufferDtype=bf16  |  "
    }
  }
  attr {
    key: "outputTensor:0"
    value {
      s: "tensor_62  |  Sizes = [1,16,512]  |  bf16  |  expBias = 0, scale = 1  |    |  ModelParam = 0  |  strides = [16384, 16384, 1024, 2]  |  data = 0, sizeInBytes = 16384  |  "
    }
  }
}
node {
  name: "module/model/31/quant_input_0/reshape/13804"
  op: "Reshape"
  input: "module/model/31/v_proj/fp8_gemm_bf16/13803"
  attr {
    key: "Bundle_idx"
    value {
      s: "N/A"
    }
  }
  attr {
    key: "Exec_idx"
    value {
      s: "24"
    }
  }
  attr {
    key: "Op_idx"
    value {
      s: "N/A"
    }
  }
  attr {
    key: "inputTensor:0"
    value {
      s: "tensor_62  |  Sizes = [1,16,512]  |  bf16  |  expBias = 0, scale = 1  |    |  ModelParam = 0  |  strides = [16384, 16384, 1024, 2]  |  data = 0, sizeInBytes = 16384  |  "
    }
  }
  attr {
    key: "outputTensor:0"
    value {
      s: "tensor_63_id_125801_module/model/31/quant_input_0/aten__view  |  Sizes = [1,16,4,128]  |  bf16  |  expBias = 0, scale = 1  |    |  ModelParam = 0  |  strides = [16384, 16384, 1024, 256, 2]  |  data = 0, sizeInBytes = 16384  |  "
    }
  }
}
node {
  name: "tensor_91_odule/model/31/q_proj/quant_input_0/placeholder/1"
  op: "Placeholder"
  attr {
    key: "dtype"
    value {
      type: DT_BFLOAT16
    }
  }
  attr {
    key: "shape"
    value {
      shape {
        dim {
          size: 1
        }
        dim {
          size: 1
        }
        dim {
          size: 1
        }
        dim {
          size: 1
        }
        dim {
          size: 1
        }
      }
    }
  }
  attr {
    key: "synDataType"
    value {
      s: "bf16"
    }
  }
}
node {
  name: "module/model/31/q_proj/quant_input_0/convert_to_fp8_bf16/13820"
  op: "convert_to_fp8_bf16"
  input: "module/model/31/input_layernorm/rms_norm_ex_fwd_bf16/13792"
  input: "tensor_91_odule/model/31/q_proj/quant_input_0/placeholder/1"
  attr {
    key: "Bundle_idx"
    value {
      s: "N/A"
    }
  }
  attr {
    key: "Exec_idx"
    value {
      s: "25"
    }
  }
  attr {
    key: "Op_idx"
    value {
      s: "N/A"
    }
  }
  attr {
    key: "inputTensor:0"
    value {
      s: "tensor_27  |  Sizes = [1,16,4096]  |  bf16  |  expBias = 0, scale = 1  |    |  ModelParam = 0  |  strides = [131072, 131072, 8192, 2]  |  data = 0, sizeInBytes = 131072  |  "
    }
  }
  attr {
    key: "inputTensor:1"
    value {
      s: "tensor_91_odule/model/31/q_proj/quant_input_0/placeholder/1  |  Sizes = [1]  |  bf16  |  expBias = 0, scale = 1  |    |  ModelParam = 0  |  strides = [2, 2]  |  data = 0x5566ccc61ff0, sizeInBytes = 2  |  buffer = 1  |  isPersistent  |  userMemorySection(type=Persistent, id=32)  |  isStaticParam  |  bufferDtype=bf16  |  "
    }
  }
  attr {
    key: "outputTensor:0"
    value {
      s: "tensor_94  |  Sizes = [1,16,4096]  |  hfloat8  |  expBias = 7, scale = 1  |    |  ModelParam = 0  |  strides = [65536, 65536, 4096, 1]  |  data = 0, sizeInBytes = 65536  |  "
    }
  }
}
node {
  name: "module/model/31/rotary_pos_embedding_fwd_bf16/13797"
  op: "rotary_pos_embedding_fwd_bf16"
  input: "module/model/31/transpose/13796"
  input: "module/model/31/identity/13791"
  input: "module/model/31/identity/13785"
  input: "module/model/31/expand_dims/13779"
  attr {
    key: "Bundle_idx"
    value {
      s: "N/A"
    }
  }
  attr {
    key: "Exec_idx"
    value {
      s: "26"
    }
  }
  attr {
    key: "Op_idx"
    value {
      s: "N/A"
    }
  }
  attr {
    key: "inputTensor:0"
    value {
      s: "tensor_39_id_125799_module/model/31/aten__transpose  |  Sizes = [1,4,16,128]  |  bf16  |  expBias = 0, scale = 1  |    |  ModelParam = 0  |  strides = [16384, 16384, 4096, 256, 2]  |  data = 0, sizeInBytes = 16384  |  "
    }
  }
  attr {
    key: "inputTensor:1"
    value {
      s: "tensor_23_id_125839_module/model/31/aten__clone  |  Sizes = [1,1,16,128]  |  bf16  |  expBias = 0, scale = 1  |    |  ModelParam = 0  |  strides = [4096, 4096, 4096, 256, 2]  |  data = 0, sizeInBytes = 4096  |  "
    }
  }
  attr {
    key: "inputTensor:2"
    value {
      s: "tensor_16_id_125833_module/model/31/aten__clone  |  Sizes = [1,1,16,128]  |  bf16  |  expBias = 0, scale = 1  |    |  ModelParam = 0  |  strides = [4096, 4096, 4096, 256, 2]  |  data = 0, sizeInBytes = 4096  |  "
    }
  }
  attr {
    key: "inputTensor:3"
    value {
      s: "tensor_8_id_125687_module/model/31/aten__unsqueeze/1  |  Sizes = [1,16]  |  int32  |  expBias = 0, scale = 1  |    |  ModelParam = 0  |  strides = [64, 64, 4]  |  data = 0, sizeInBytes = 64  |  "
    }
  }
  attr {
    key: "outputTensor:0"
    value {
      s: "tensor_41  |  Sizes = [1,4,16,128]  |  bf16  |  expBias = 0, scale = 1  |    |  ModelParam = 0  |  strides = [16384, 16384, 4096, 256, 2]  |  data = 0, sizeInBytes = 16384  |  "
    }
  }
}
node {
  name: "module/model/31/quant_input_0/transpose/13805"
  op: "Transpose"
  input: "module/model/31/quant_input_0/reshape/13804"
  attr {
    key: "Bundle_idx"
    value {
      s: "N/A"
    }
  }
  attr {
    key: "Exec_idx"
    value {
      s: "27"
    }
  }
  attr {
    key: "Op_idx"
    value {
      s: "N/A"
    }
  }
  attr {
    key: "Parameters"
    value {
      s: "permutation: (0,2,1,3)"
    }
  }
  attr {
    key: "inputTensor:0"
    value {
      s: "tensor_63_id_125801_module/model/31/quant_input_0/aten__view  |  Sizes = [1,16,4,128]  |  bf16  |  expBias = 0, scale = 1  |    |  ModelParam = 0  |  strides = [16384, 16384, 1024, 256, 2]  |  data = 0, sizeInBytes = 16384  |  "
    }
  }
  attr {
    key: "outputTensor:0"
    value {
      s: "tensor_64_id_125803_module/model/31/quant_input_0/aten__transpose  |  Sizes = [1,4,16,128]  |  bf16  |  expBias = 0, scale = 1  |    |  ModelParam = 0  |  strides = [16384, 16384, 4096, 256, 2]  |  data = 0, sizeInBytes = 16384  |  "
    }
  }
}
node {
  name: "tensor_95_odule/model/31/q_proj/placeholder/1"
  op: "Placeholder"
  attr {
    key: "dtype"
    value {
      type: DT_INVALID
    }
  }
  attr {
    key: "shape"
    value {
      shape {
        dim {
          size: 2048
        }
        dim {
          size: 4096
        }
        dim {
          size: 1
        }
        dim {
          size: 1
        }
        dim {
          size: 1
        }
      }
    }
  }
  attr {
    key: "synDataType"
    value {
      s: "hfloat8"
    }
  }
}
node {
  name: "tensor_96_odule/model/31/q_proj/placeholder/2"
  op: "Placeholder"
  attr {
    key: "dtype"
    value {
      type: DT_BFLOAT16
    }
  }
  attr {
    key: "shape"
    value {
      shape {
        dim {
          size: 1
        }
        dim {
          size: 1
        }
        dim {
          size: 1
        }
        dim {
          size: 1
        }
        dim {
          size: 1
        }
      }
    }
  }
  attr {
    key: "synDataType"
    value {
      s: "bf16"
    }
  }
}
node {
  name: "tensor_97_odule/model/31/q_proj/placeholder/3"
  op: "Placeholder"
  attr {
    key: "dtype"
    value {
      type: DT_BFLOAT16
    }
  }
  attr {
    key: "shape"
    value {
      shape {
        dim {
          size: 1
        }
        dim {
          size: 1
        }
        dim {
          size: 1
        }
        dim {
          size: 1
        }
        dim {
          size: 1
        }
      }
    }
  }
  attr {
    key: "synDataType"
    value {
      s: "bf16"
    }
  }
}
node {
  name: "module/model/31/q_proj/fp8_gemm_bf16/13821"
  op: "fp8_gemm_bf16"
  input: "module/model/31/q_proj/quant_input_0/convert_to_fp8_bf16/13820"
  input: "tensor_95_odule/model/31/q_proj/placeholder/1"
  input: "tensor_96_odule/model/31/q_proj/placeholder/2"
  input: "tensor_97_odule/model/31/q_proj/placeholder/3"
  input: "unused_port"
  input: "unused_port"
  input: "unused_port"
  attr {
    key: "Bundle_idx"
    value {
      s: "N/A"
    }
  }
  attr {
    key: "Exec_idx"
    value {
      s: "28"
    }
  }
  attr {
    key: "Op_idx"
    value {
      s: "N/A"
    }
  }
  attr {
    key: "inputTensor:0"
    value {
      s: "tensor_94  |  Sizes = [1,16,4096]  |  hfloat8  |  expBias = 7, scale = 1  |    |  ModelParam = 0  |  strides = [65536, 65536, 4096, 1]  |  data = 0, sizeInBytes = 65536  |  "
    }
  }
  attr {
    key: "inputTensor:1"
    value {
      s: "tensor_95_odule/model/31/q_proj/placeholder/1  |  Sizes = [4096,2048]  |  hfloat8  |  expBias = 7, scale = 1  |    |  ModelParam = 0  |  strides = [8388608, 2048, 1]  |  data = 0, sizeInBytes = 8388608  |  isPersistent  |  userMemorySection(type=Persistent, id=33)  |  "
    }
  }
  attr {
    key: "inputTensor:2"
    value {
      s: "tensor_96_odule/model/31/q_proj/placeholder/2  |  Sizes = [1]  |  bf16  |  expBias = 0, scale = 1  |    |  ModelParam = 0  |  strides = [2, 2]  |  data = 0x5566ccc61918, sizeInBytes = 2  |  buffer = 1  |  isPersistent  |  userMemorySection(type=Persistent, id=34)  |  isStaticParam  |  bufferDtype=bf16  |  "
    }
  }
  attr {
    key: "inputTensor:3"
    value {
      s: "tensor_97_odule/model/31/q_proj/placeholder/3  |  Sizes = [1]  |  bf16  |  expBias = 0, scale = 1  |    |  ModelParam = 0  |  strides = [2, 2]  |  data = 0x5566ccc61548, sizeInBytes = 2  |  buffer = 0.00390625  |  isPersistent  |  userMemorySection(type=Persistent, id=35)  |  isStaticParam  |  bufferDtype=bf16  |  "
    }
  }
  attr {
    key: "outputTensor:0"
    value {
      s: "tensor_99  |  Sizes = [1,16,2048]  |  bf16  |  expBias = 0, scale = 1  |    |  ModelParam = 0  |  strides = [65536, 65536, 4096, 2]  |  data = 0, sizeInBytes = 65536  |  "
    }
  }
}
node {
  name: "module/model/31/reshape/13822"
  op: "Reshape"
  input: "module/model/31/q_proj/fp8_gemm_bf16/13821"
  attr {
    key: "Bundle_idx"
    value {
      s: "N/A"
    }
  }
  attr {
    key: "Exec_idx"
    value {
      s: "29"
    }
  }
  attr {
    key: "Op_idx"
    value {
      s: "N/A"
    }
  }
  attr {
    key: "inputTensor:0"
    value {
      s: "tensor_99  |  Sizes = [1,16,2048]  |  bf16  |  expBias = 0, scale = 1  |    |  ModelParam = 0  |  strides = [65536, 65536, 4096, 2]  |  data = 0, sizeInBytes = 65536  |  "
    }
  }
  attr {
    key: "outputTensor:0"
    value {
      s: "tensor_100_id_125793_module/model/31/aten__view  |  Sizes = [1,16,16,128]  |  bf16  |  expBias = 0, scale = 1  |    |  ModelParam = 0  |  strides = [65536, 65536, 4096, 256, 2]  |  data = 0, sizeInBytes = 65536  |  "
    }
  }
}
node {
  name: "tensor_42_odule/model/31/quant_input_0/placeholder/1"
  op: "Placeholder"
  attr {
    key: "dtype"
    value {
      type: DT_BFLOAT16
    }
  }
  attr {
    key: "shape"
    value {
      shape {
        dim {
          size: 1
        }
        dim {
          size: 1
        }
        dim {
          size: 1
        }
        dim {
          size: 1
        }
        dim {
          size: 1
        }
      }
    }
  }
  attr {
    key: "synDataType"
    value {
      s: "bf16"
    }
  }
}
node {
  name: "module/model/31/quant_input_0/convert_to_fp8_bf16/13798"
  op: "convert_to_fp8_bf16"
  input: "module/model/31/rotary_pos_embedding_fwd_bf16/13797"
  input: "tensor_42_odule/model/31/quant_input_0/placeholder/1"
  attr {
    key: "Bundle_idx"
    value {
      s: "N/A"
    }
  }
  attr {
    key: "Exec_idx"
    value {
      s: "30"
    }
  }
  attr {
    key: "Op_idx"
    value {
      s: "N/A"
    }
  }
  attr {
    key: "inputTensor:0"
    value {
      s: "tensor_41  |  Sizes = [1,4,16,128]  |  bf16  |  expBias = 0, scale = 1  |    |  ModelParam = 0  |  strides = [16384, 16384, 4096, 256, 2]  |  data = 0, sizeInBytes = 16384  |  "
    }
  }
  attr {
    key: "inputTensor:1"
    value {
      s: "tensor_42_odule/model/31/quant_input_0/placeholder/1  |  Sizes = [1]  |  bf16  |  expBias = 0, scale = 1  |    |  ModelParam = 0  |  strides = [2, 2]  |  data = 0x5566cd6c6460, sizeInBytes = 2  |  buffer = 1  |  isPersistent  |  userMemorySection(type=Persistent, id=16)  |  isStaticParam  |  bufferDtype=bf16  |  "
    }
  }
  attr {
    key: "outputTensor:0"
    value {
      s: "tensor_45  |  Sizes = [1,4,16,128]  |  hfloat8  |  expBias = 7, scale = 1  |    |  ModelParam = 0  |  strides = [8192, 8192, 2048, 128, 1]  |  data = 0, sizeInBytes = 8192  |  "
    }
  }
}
node {
  name: "tensor_65_odule/model/31/quant_input_0/placeholder/1"
  op: "Placeholder"
  attr {
    key: "dtype"
    value {
      type: DT_BFLOAT16
    }
  }
  attr {
    key: "shape"
    value {
      shape {
        dim {
          size: 1
        }
        dim {
          size: 1
        }
        dim {
          size: 1
        }
        dim {
          size: 1
        }
        dim {
          size: 1
        }
      }
    }
  }
  attr {
    key: "synDataType"
    value {
      s: "bf16"
    }
  }
}
node {
  name: "module/model/31/quant_input_0/convert_to_fp8_bf16/13806"
  op: "convert_to_fp8_bf16"
  input: "module/model/31/quant_input_0/transpose/13805"
  input: "tensor_65_odule/model/31/quant_input_0/placeholder/1"
  attr {
    key: "Bundle_idx"
    value {
      s: "N/A"
    }
  }
  attr {
    key: "Exec_idx"
    value {
      s: "31"
    }
  }
  attr {
    key: "Op_idx"
    value {
      s: "N/A"
    }
  }
  attr {
    key: "inputTensor:0"
    value {
      s: "tensor_64_id_125803_module/model/31/quant_input_0/aten__transpose  |  Sizes = [1,4,16,128]  |  bf16  |  expBias = 0, scale = 1  |    |  ModelParam = 0  |  strides = [16384, 16384, 4096, 256, 2]  |  data = 0, sizeInBytes = 16384  |  "
    }
  }
  attr {
    key: "inputTensor:1"
    value {
      s: "tensor_65_odule/model/31/quant_input_0/placeholder/1  |  Sizes = [1]  |  bf16  |  expBias = 0, scale = 1  |    |  ModelParam = 0  |  strides = [2, 2]  |  data = 0x5566cd6c63f8, sizeInBytes = 2  |  buffer = 1  |  isPersistent  |  userMemorySection(type=Persistent, id=25)  |  isStaticParam  |  bufferDtype=bf16  |  "
    }
  }
  attr {
    key: "outputTensor:0"
    value {
      s: "tensor_68  |  Sizes = [1,4,16,128]  |  hfloat8  |  expBias = 7, scale = 1  |    |  ModelParam = 0  |  strides = [8192, 8192, 2048, 128, 1]  |  data = 0, sizeInBytes = 8192  |  "
    }
  }
}
node {
  name: "module/model/31/fused_scaled_dot_product_attention/slice/13811"
  op: "Slice"
  input: "module/model/31/fused_scaled_dot_product_attention/expand_dims/13810"
  attr {
    key: "Bundle_idx"
    value {
      s: "N/A"
    }
  }
  attr {
    key: "Exec_idx"
    value {
      s: "32"
    }
  }
  attr {
    key: "Op_idx"
    value {
      s: "N/A"
    }
  }
  attr {
    key: "inputTensor:0"
    value {
      s: "tensor_75_id_125689_module/model/31/fused_scaled_dot_product_attention/aten__unsqueeze  |  Sizes = [1,1,16,16]  |  bf16  |  expBias = 0, scale = 1  |    |  ModelParam = 0  |  strides = [512, 512, 512, 32, 2]  |  data = 0, sizeInBytes = 512  |  "
    }
  }
  attr {
    key: "outputTensor:0"
    value {
      s: "tensor_76_id_125690_module/model/31/fused_scaled_dot_product_attention/aten__slice  |  Sizes = [1,1,16,16]  |  bf16  |  expBias = 0, scale = 1  |    |  ModelParam = 0  |  strides = [512, 512, 512, 32, 2]  |  data = 0, sizeInBytes = 512  |  "
    }
  }
}
node {
  name: "module/model/31/transpose/13823"
  op: "Transpose"
  input: "module/model/31/reshape/13822"
  attr {
    key: "Bundle_idx"
    value {
      s: "N/A"
    }
  }
  attr {
    key: "Exec_idx"
    value {
      s: "33"
    }
  }
  attr {
    key: "Op_idx"
    value {
      s: "N/A"
    }
  }
  attr {
    key: "Parameters"
    value {
      s: "permutation: (0,2,1,3)"
    }
  }
  attr {
    key: "inputTensor:0"
    value {
      s: "tensor_100_id_125793_module/model/31/aten__view  |  Sizes = [1,16,16,128]  |  bf16  |  expBias = 0, scale = 1  |    |  ModelParam = 0  |  strides = [65536, 65536, 4096, 256, 2]  |  data = 0, sizeInBytes = 65536  |  "
    }
  }
  attr {
    key: "outputTensor:0"
    value {
      s: "tensor_101_id_125795_module/model/31/aten__transpose  |  Sizes = [1,16,16,128]  |  bf16  |  expBias = 0, scale = 1  |    |  ModelParam = 0  |  strides = [65536, 65536, 4096, 256, 2]  |  data = 0, sizeInBytes = 65536  |  "
    }
  }
}
node {
  name: "tensor_47_odule/model/31/quant_output/placeholder/1"
  op: "Placeholder"
  attr {
    key: "dtype"
    value {
      type: DT_BFLOAT16
    }
  }
  attr {
    key: "shape"
    value {
      shape {
        dim {
          size: 1
        }
        dim {
          size: 1
        }
        dim {
          size: 1
        }
        dim {
          size: 1
        }
        dim {
          size: 1
        }
      }
    }
  }
  attr {
    key: "synDataType"
    value {
      s: "bf16"
    }
  }
}
node {
  name: "module/model/31/quant_output/convert_from_fp8_bf16/13800"
  op: "convert_from_fp8_bf16"
  input: "module/model/31/quant_input_0/convert_to_fp8_bf16/13798"
  input: "tensor_47_odule/model/31/quant_output/placeholder/1"
  attr {
    key: "Bundle_idx"
    value {
      s: "N/A"
    }
  }
  attr {
    key: "Exec_idx"
    value {
      s: "34"
    }
  }
  attr {
    key: "Op_idx"
    value {
      s: "N/A"
    }
  }
  attr {
    key: "inputTensor:0"
    value {
      s: "tensor_45  |  Sizes = [1,4,16,128]  |  hfloat8  |  expBias = 7, scale = 1  |    |  ModelParam = 0  |  strides = [8192, 8192, 2048, 128, 1]  |  data = 0, sizeInBytes = 8192  |  "
    }
  }
  attr {
    key: "inputTensor:1"
    value {
      s: "tensor_47_odule/model/31/quant_output/placeholder/1  |  Sizes = [1]  |  bf16  |  expBias = 0, scale = 1  |    |  ModelParam = 0  |  strides = [2, 2]  |  data = 0x5566cd6c6000, sizeInBytes = 2  |  buffer = 1  |  isPersistent  |  userMemorySection(type=Persistent, id=17)  |  isStaticParam  |  bufferDtype=bf16  |  "
    }
  }
  attr {
    key: "outputTensor:0"
    value {
      s: "tensor_49  |  Sizes = [1,4,16,128]  |  bf16  |  expBias = 0, scale = 1  |    |  ModelParam = 0  |  strides = [16384, 16384, 4096, 256, 2]  |  data = 0, sizeInBytes = 16384  |  isPersistent  |  userMemorySection(type=Persistent, id=19)  |  "
    }
  }
}
node {
  name: "tensor_70_odule/model/31/quant_output/placeholder/1"
  op: "Placeholder"
  attr {
    key: "dtype"
    value {
      type: DT_BFLOAT16
    }
  }
  attr {
    key: "shape"
    value {
      shape {
        dim {
          size: 1
        }
        dim {
          size: 1
        }
        dim {
          size: 1
        }
        dim {
          size: 1
        }
        dim {
          size: 1
        }
      }
    }
  }
  attr {
    key: "synDataType"
    value {
      s: "bf16"
    }
  }
}
node {
  name: "module/model/31/quant_output/convert_from_fp8_bf16/13808"
  op: "convert_from_fp8_bf16"
  input: "module/model/31/quant_input_0/convert_to_fp8_bf16/13806"
  input: "tensor_70_odule/model/31/quant_output/placeholder/1"
  attr {
    key: "Bundle_idx"
    value {
      s: "N/A"
    }
  }
  attr {
    key: "Exec_idx"
    value {
      s: "35"
    }
  }
  attr {
    key: "Op_idx"
    value {
      s: "N/A"
    }
  }
  attr {
    key: "inputTensor:0"
    value {
      s: "tensor_68  |  Sizes = [1,4,16,128]  |  hfloat8  |  expBias = 7, scale = 1  |    |  ModelParam = 0  |  strides = [8192, 8192, 2048, 128, 1]  |  data = 0, sizeInBytes = 8192  |  "
    }
  }
  attr {
    key: "inputTensor:1"
    value {
      s: "tensor_70_odule/model/31/quant_output/placeholder/1  |  Sizes = [1]  |  bf16  |  expBias = 0, scale = 1  |    |  ModelParam = 0  |  strides = [2, 2]  |  data = 0x5566cd4331a0, sizeInBytes = 2  |  buffer = 1  |  isPersistent  |  userMemorySection(type=Persistent, id=26)  |  isStaticParam  |  bufferDtype=bf16  |  "
    }
  }
  attr {
    key: "outputTensor:0"
    value {
      s: "tensor_72  |  Sizes = [1,4,16,128]  |  bf16  |  expBias = 0, scale = 1  |    |  ModelParam = 0  |  strides = [16384, 16384, 4096, 256, 2]  |  data = 0, sizeInBytes = 16384  |  isPersistent  |  userMemorySection(type=Persistent, id=28)  |  "
    }
  }
}
node {
  name: "module/model/31/fused_scaled_dot_product_attention/slice/13812"
  op: "Slice"
  input: "module/model/31/fused_scaled_dot_product_attention/slice/13811"
  attr {
    key: "Bundle_idx"
    value {
      s: "N/A"
    }
  }
  attr {
    key: "Exec_idx"
    value {
      s: "36"
    }
  }
  attr {
    key: "Op_idx"
    value {
      s: "N/A"
    }
  }
  attr {
    key: "inputTensor:0"
    value {
      s: "tensor_76_id_125690_module/model/31/fused_scaled_dot_product_attention/aten__slice  |  Sizes = [1,1,16,16]  |  bf16  |  expBias = 0, scale = 1  |    |  ModelParam = 0  |  strides = [512, 512, 512, 32, 2]  |  data = 0, sizeInBytes = 512  |  "
    }
  }
  attr {
    key: "outputTensor:0"
    value {
      s: "tensor_77_id_125691_module/model/31/fused_scaled_dot_product_attention/aten__slice  |  Sizes = [1,1,16,16]  |  bf16  |  expBias = 0, scale = 1  |    |  ModelParam = 0  |  strides = [512, 512, 512, 32, 2]  |  data = 0, sizeInBytes = 512  |  "
    }
  }
}
node {
  name: "module/model/31/rotary_pos_embedding_fwd_bf16/13824"
  op: "rotary_pos_embedding_fwd_bf16"
  input: "module/model/31/transpose/13823"
  input: "module/model/31/identity/13791"
  input: "module/model/31/identity/13785"
  input: "module/model/31/expand_dims/13819"
  attr {
    key: "Bundle_idx"
    value {
      s: "N/A"
    }
  }
  attr {
    key: "Exec_idx"
    value {
      s: "37"
    }
  }
  attr {
    key: "Op_idx"
    value {
      s: "N/A"
    }
  }
  attr {
    key: "inputTensor:0"
    value {
      s: "tensor_101_id_125795_module/model/31/aten__transpose  |  Sizes = [1,16,16,128]  |  bf16  |  expBias = 0, scale = 1  |    |  ModelParam = 0  |  strides = [65536, 65536, 4096, 256, 2]  |  data = 0, sizeInBytes = 65536  |  "
    }
  }
  attr {
    key: "inputTensor:1"
    value {
      s: "tensor_23_id_125839_module/model/31/aten__clone  |  Sizes = [1,1,16,128]  |  bf16  |  expBias = 0, scale = 1  |    |  ModelParam = 0  |  strides = [4096, 4096, 4096, 256, 2]  |  data = 0, sizeInBytes = 4096  |  "
    }
  }
  attr {
    key: "inputTensor:2"
    value {
      s: "tensor_16_id_125833_module/model/31/aten__clone  |  Sizes = [1,1,16,128]  |  bf16  |  expBias = 0, scale = 1  |    |  ModelParam = 0  |  strides = [4096, 4096, 4096, 256, 2]  |  data = 0, sizeInBytes = 4096  |  "
    }
  }
  attr {
    key: "inputTensor:3"
    value {
      s: "tensor_90_id_125687_module/model/31/aten__unsqueeze  |  Sizes = [1,16]  |  int32  |  expBias = 0, scale = 1  |    |  ModelParam = 0  |  strides = [64, 64, 4]  |  data = 0, sizeInBytes = 64  |  "
    }
  }
  attr {
    key: "outputTensor:0"
    value {
      s: "tensor_103  |  Sizes = [1,16,16,128]  |  bf16  |  expBias = 0, scale = 1  |    |  ModelParam = 0  |  strides = [65536, 65536, 4096, 256, 2]  |  data = 0, sizeInBytes = 65536  |  "
    }
  }
}
node {
  name: "module/model/31/fused_scaled_dot_product_attention/broadcast/13813"
  op: "Broadcast"
  input: "module/model/31/fused_scaled_dot_product_attention/slice/13812"
  attr {
    key: "Bundle_idx"
    value {
      s: "N/A"
    }
  }
  attr {
    key: "Exec_idx"
    value {
      s: "38"
    }
  }
  attr {
    key: "Op_idx"
    value {
      s: "N/A"
    }
  }
  attr {
    key: "inputTensor:0"
    value {
      s: "tensor_77_id_125691_module/model/31/fused_scaled_dot_product_attention/aten__slice  |  Sizes = [1,1,16,16]  |  bf16  |  expBias = 0, scale = 1  |    |  ModelParam = 0  |  strides = [512, 512, 512, 32, 2]  |  data = 0, sizeInBytes = 512  |  "
    }
  }
  attr {
    key: "outputTensor:0"
    value {
      s: "tensor_78_id_125692_module/model/31/fused_scaled_dot_product_attention/hpu__expand  |  Sizes = [1,1,16,16]  |  bf16  |  expBias = 0, scale = 1  |    |  ModelParam = 0  |  strides = [512, 512, 512, 32, 2]  |  data = 0, sizeInBytes = 512  |  "
    }
  }
}
node {
  name: "module/model/31/fused_scaled_dot_product_attention/expand_dims/13814"
  op: "ExpandDims"
  input: "module/model/31/fused_scaled_dot_product_attention/broadcast/13813"
  attr {
    key: "Bundle_idx"
    value {
      s: "N/A"
    }
  }
  attr {
    key: "Exec_idx"
    value {
      s: "39"
    }
  }
  attr {
    key: "Op_idx"
    value {
      s: "N/A"
    }
  }
  attr {
    key: "inputTensor:0"
    value {
      s: "tensor_78_id_125692_module/model/31/fused_scaled_dot_product_attention/hpu__expand  |  Sizes = [1,1,16,16]  |  bf16  |  expBias = 0, scale = 1  |    |  ModelParam = 0  |  strides = [512, 512, 512, 32, 2]  |  data = 0, sizeInBytes = 512  |  "
    }
  }
  attr {
    key: "outputTensor:0"
    value {
      s: "tensor_79_id_125914_module/model/31/fused_scaled_dot_product_attention/aten__unsqueeze  |  Sizes = [1,1,1,16,16]  |  bf16  |  expBias = 0, scale = 1  |    |  ModelParam = 0  |  strides = [512, 512, 512, 512, 32, 2]  |  data = 0, sizeInBytes = 512  |  "
    }
  }
}
node {
  name: "tensor_80_odule/model/31/fused_scaled_dot_product_attention/quant_v/placeholder/1"
  op: "Placeholder"
  attr {
    key: "dtype"
    value {
      type: DT_BFLOAT16
    }
  }
  attr {
    key: "shape"
    value {
      shape {
        dim {
          size: 1
        }
        dim {
          size: 1
        }
        dim {
          size: 1
        }
        dim {
          size: 1
        }
        dim {
          size: 1
        }
      }
    }
  }
  attr {
    key: "synDataType"
    value {
      s: "bf16"
    }
  }
}
node {
  name: "module/model/31/fused_scaled_dot_product_attention/quant_v/convert_to_fp8_bf16/13815"
  op: "convert_to_fp8_bf16"
  input: "module/model/31/quant_output/convert_from_fp8_bf16/13808"
  input: "tensor_80_odule/model/31/fused_scaled_dot_product_attention/quant_v/placeholder/1"
  attr {
    key: "Bundle_idx"
    value {
      s: "N/A"
    }
  }
  attr {
    key: "Exec_idx"
    value {
      s: "40"
    }
  }
  attr {
    key: "Op_idx"
    value {
      s: "N/A"
    }
  }
  attr {
    key: "inputTensor:0"
    value {
      s: "tensor_72  |  Sizes = [1,4,16,128]  |  bf16  |  expBias = 0, scale = 1  |    |  ModelParam = 0  |  strides = [16384, 16384, 4096, 256, 2]  |  data = 0, sizeInBytes = 16384  |  isPersistent  |  userMemorySection(type=Persistent, id=28)  |  "
    }
  }
  attr {
    key: "inputTensor:1"
    value {
      s: "tensor_80_odule/model/31/fused_scaled_dot_product_attention/quant_v/placeholder/1  |  Sizes = [1]  |  bf16  |  expBias = 0, scale = 1  |    |  ModelParam = 0  |  strides = [2, 2]  |  data = 0x5566cd433380, sizeInBytes = 2  |  buffer = 1  |  isPersistent  |  userMemorySection(type=Persistent, id=30)  |  isStaticParam  |  bufferDtype=bf16  |  "
    }
  }
  attr {
    key: "outputTensor:0"
    value {
      s: "tensor_83  |  Sizes = [1,4,16,128]  |  hfloat8  |  expBias = 7, scale = 1  |    |  ModelParam = 0  |  strides = [8192, 8192, 2048, 128, 1]  |  data = 0, sizeInBytes = 8192  |  "
    }
  }
}
node {
  name: "module/model/31/fused_scaled_dot_product_attention/reshape/13816"
  op: "Reshape"
  input: "module/model/31/fused_scaled_dot_product_attention/quant_v/convert_to_fp8_bf16/13815"
  attr {
    key: "Bundle_idx"
    value {
      s: "N/A"
    }
  }
  attr {
    key: "Exec_idx"
    value {
      s: "41"
    }
  }
  attr {
    key: "Op_idx"
    value {
      s: "N/A"
    }
  }
  attr {
    key: "inputTensor:0"
    value {
      s: "tensor_83  |  Sizes = [1,4,16,128]  |  hfloat8  |  expBias = 7, scale = 1  |    |  ModelParam = 0  |  strides = [8192, 8192, 2048, 128, 1]  |  data = 0, sizeInBytes = 8192  |  "
    }
  }
  attr {
    key: "outputTensor:0"
    value {
      s: "tensor_84_id_125912_module/model/31/fused_scaled_dot_product_attention/aten__view  |  Sizes = [1,4,1,16,128]  |  hfloat8  |  expBias = 7, scale = 1  |    |  ModelParam = 0  |  strides = [8192, 8192, 2048, 2048, 128, 1]  |  data = 0, sizeInBytes = 8192  |  "
    }
  }
}
node {
  name: "tensor_85_odule/model/31/fused_scaled_dot_product_attention/quant_k/placeholder/1"
  op: "Placeholder"
  attr {
    key: "dtype"
    value {
      type: DT_BFLOAT16
    }
  }
  attr {
    key: "shape"
    value {
      shape {
        dim {
          size: 1
        }
        dim {
          size: 1
        }
        dim {
          size: 1
        }
        dim {
          size: 1
        }
        dim {
          size: 1
        }
      }
    }
  }
  attr {
    key: "synDataType"
    value {
      s: "bf16"
    }
  }
}
node {
  name: "module/model/31/fused_scaled_dot_product_attention/quant_k/convert_to_fp8_bf16/13817"
  op: "convert_to_fp8_bf16"
  input: "module/model/31/quant_output/convert_from_fp8_bf16/13800"
  input: "tensor_85_odule/model/31/fused_scaled_dot_product_attention/quant_k/placeholder/1"
  attr {
    key: "Bundle_idx"
    value {
      s: "N/A"
    }
  }
  attr {
    key: "Exec_idx"
    value {
      s: "42"
    }
  }
  attr {
    key: "Op_idx"
    value {
      s: "N/A"
    }
  }
  attr {
    key: "inputTensor:0"
    value {
      s: "tensor_49  |  Sizes = [1,4,16,128]  |  bf16  |  expBias = 0, scale = 1  |    |  ModelParam = 0  |  strides = [16384, 16384, 4096, 256, 2]  |  data = 0, sizeInBytes = 16384  |  isPersistent  |  userMemorySection(type=Persistent, id=19)  |  "
    }
  }
  attr {
    key: "inputTensor:1"
    value {
      s: "tensor_85_odule/model/31/fused_scaled_dot_product_attention/quant_k/placeholder/1  |  Sizes = [1]  |  bf16  |  expBias = 0, scale = 1  |    |  ModelParam = 0  |  strides = [2, 2]  |  data = 0x5566cd432498, sizeInBytes = 2  |  buffer = 1  |  isPersistent  |  userMemorySection(type=Persistent, id=31)  |  isStaticParam  |  bufferDtype=bf16  |  "
    }
  }
  attr {
    key: "outputTensor:0"
    value {
      s: "tensor_88  |  Sizes = [1,4,16,128]  |  hfloat8  |  expBias = 7, scale = 1  |    |  ModelParam = 0  |  strides = [8192, 8192, 2048, 128, 1]  |  data = 0, sizeInBytes = 8192  |  "
    }
  }
}
node {
  name: "module/model/31/fused_scaled_dot_product_attention/reshape/13818"
  op: "Reshape"
  input: "module/model/31/fused_scaled_dot_product_attention/quant_k/convert_to_fp8_bf16/13817"
  attr {
    key: "Bundle_idx"
    value {
      s: "N/A"
    }
  }
  attr {
    key: "Exec_idx"
    value {
      s: "43"
    }
  }
  attr {
    key: "Op_idx"
    value {
      s: "N/A"
    }
  }
  attr {
    key: "inputTensor:0"
    value {
      s: "tensor_88  |  Sizes = [1,4,16,128]  |  hfloat8  |  expBias = 7, scale = 1  |    |  ModelParam = 0  |  strides = [8192, 8192, 2048, 128, 1]  |  data = 0, sizeInBytes = 8192  |  "
    }
  }
  attr {
    key: "outputTensor:0"
    value {
      s: "tensor_89_id_125910_module/model/31/fused_scaled_dot_product_attention/aten__view  |  Sizes = [1,4,1,16,128]  |  hfloat8  |  expBias = 7, scale = 1  |    |  ModelParam = 0  |  strides = [8192, 8192, 2048, 2048, 128, 1]  |  data = 0, sizeInBytes = 8192  |  "
    }
  }
}
node {
  name: "tensor_104_odule/model/31/fused_scaled_dot_product_attention/quant_q/placeholder/1"
  op: "Placeholder"
  attr {
    key: "dtype"
    value {
      type: DT_BFLOAT16
    }
  }
  attr {
    key: "shape"
    value {
      shape {
        dim {
          size: 1
        }
        dim {
          size: 1
        }
        dim {
          size: 1
        }
        dim {
          size: 1
        }
        dim {
          size: 1
        }
      }
    }
  }
  attr {
    key: "synDataType"
    value {
      s: "bf16"
    }
  }
}
node {
  name: "module/model/31/fused_scaled_dot_product_attention/quant_q/convert_to_fp8_bf16/13825"
  op: "convert_to_fp8_bf16"
  input: "module/model/31/rotary_pos_embedding_fwd_bf16/13824"
  input: "tensor_104_odule/model/31/fused_scaled_dot_product_attention/quant_q/placeholder/1"
  attr {
    key: "Bundle_idx"
    value {
      s: "N/A"
    }
  }
  attr {
    key: "Exec_idx"
    value {
      s: "44"
    }
  }
  attr {
    key: "Op_idx"
    value {
      s: "N/A"
    }
  }
  attr {
    key: "inputTensor:0"
    value {
      s: "tensor_103  |  Sizes = [1,16,16,128]  |  bf16  |  expBias = 0, scale = 1  |    |  ModelParam = 0  |  strides = [65536, 65536, 4096, 256, 2]  |  data = 0, sizeInBytes = 65536  |  "
    }
  }
  attr {
    key: "inputTensor:1"
    value {
      s: "tensor_104_odule/model/31/fused_scaled_dot_product_attention/quant_q/placeholder/1  |  Sizes = [1]  |  bf16  |  expBias = 0, scale = 1  |    |  ModelParam = 0  |  strides = [2, 2]  |  data = 0x5566cd30b2c0, sizeInBytes = 2  |  buffer = 1  |  isPersistent  |  userMemorySection(type=Persistent, id=36)  |  isStaticParam  |  bufferDtype=bf16  |  "
    }
  }
  attr {
    key: "outputTensor:0"
    value {
      s: "tensor_107  |  Sizes = [1,16,16,128]  |  hfloat8  |  expBias = 7, scale = 1  |    |  ModelParam = 0  |  strides = [32768, 32768, 2048, 128, 1]  |  data = 0, sizeInBytes = 32768  |  "
    }
  }
}
node {
  name: "module/model/31/fused_scaled_dot_product_attention/reshape/13826"
  op: "Reshape"
  input: "module/model/31/fused_scaled_dot_product_attention/quant_q/convert_to_fp8_bf16/13825"
  attr {
    key: "Bundle_idx"
    value {
      s: "N/A"
    }
  }
  attr {
    key: "Exec_idx"
    value {
      s: "45"
    }
  }
  attr {
    key: "Op_idx"
    value {
      s: "N/A"
    }
  }
  attr {
    key: "inputTensor:0"
    value {
      s: "tensor_107  |  Sizes = [1,16,16,128]  |  hfloat8  |  expBias = 7, scale = 1  |    |  ModelParam = 0  |  strides = [32768, 32768, 2048, 128, 1]  |  data = 0, sizeInBytes = 32768  |  "
    }
  }
  attr {
    key: "outputTensor:0"
    value {
      s: "tensor_108_id_125908_module/model/31/fused_scaled_dot_product_attention/aten__view  |  Sizes = [1,4,4,16,128]  |  hfloat8  |  expBias = 7, scale = 1  |    |  ModelParam = 0  |  strides = [32768, 32768, 8192, 2048, 128, 1]  |  data = 0, sizeInBytes = 32768  |  "
    }
  }
}
node {
  name: "tensor_109_odule/model/31/fused_scaled_dot_product_attention/placeholder/4"
  op: "Placeholder"
  attr {
    key: "dtype"
    value {
      type: DT_FLOAT
    }
  }
  attr {
    key: "shape"
    value {
      shape {
        dim {
          size: 1
        }
        dim {
          size: 1
        }
        dim {
          size: 1
        }
        dim {
          size: 1
        }
        dim {
          size: 1
        }
      }
    }
  }
  attr {
    key: "synDataType"
    value {
      s: "float32"
    }
  }
}
node {
  name: "tensor_110_odule/model/31/fused_scaled_dot_product_attention/placeholder/5"
  op: "Placeholder"
  attr {
    key: "dtype"
    value {
      type: DT_FLOAT
    }
  }
  attr {
    key: "shape"
    value {
      shape {
        dim {
          size: 1
        }
        dim {
          size: 1
        }
        dim {
          size: 1
        }
        dim {
          size: 1
        }
        dim {
          size: 1
        }
      }
    }
  }
  attr {
    key: "synDataType"
    value {
      s: "float32"
    }
  }
}
node {
  name: "tensor_111_odule/model/31/fused_scaled_dot_product_attention/placeholder/6"
  op: "Placeholder"
  attr {
    key: "dtype"
    value {
      type: DT_FLOAT
    }
  }
  attr {
    key: "shape"
    value {
      shape {
        dim {
          size: 1
        }
        dim {
          size: 1
        }
        dim {
          size: 1
        }
        dim {
          size: 1
        }
        dim {
          size: 1
        }
      }
    }
  }
  attr {
    key: "synDataType"
    value {
      s: "float32"
    }
  }
}
node {
  name: "tensor_112_odule/model/31/fused_scaled_dot_product_attention/placeholder/7"
  op: "Placeholder"
  attr {
    key: "dtype"
    value {
      type: DT_FLOAT
    }
  }
  attr {
    key: "shape"
    value {
      shape {
        dim {
          size: 1
        }
        dim {
          size: 1
        }
        dim {
          size: 1
        }
        dim {
          size: 1
        }
        dim {
          size: 1
        }
      }
    }
  }
  attr {
    key: "synDataType"
    value {
      s: "float32"
    }
  }
}
node {
  name: "tensor_113_odule/model/31/fused_scaled_dot_product_attention/placeholder/8"
  op: "Placeholder"
  attr {
    key: "dtype"
    value {
      type: DT_FLOAT
    }
  }
  attr {
    key: "shape"
    value {
      shape {
        dim {
          size: 1
        }
        dim {
          size: 1
        }
        dim {
          size: 1
        }
        dim {
          size: 1
        }
        dim {
          size: 1
        }
      }
    }
  }
  attr {
    key: "synDataType"
    value {
      s: "float32"
    }
  }
}
node {
  name: "tensor_114_odule/model/31/fused_scaled_dot_product_attention/placeholder/9"
  op: "Placeholder"
  attr {
    key: "dtype"
    value {
      type: DT_FLOAT
    }
  }
  attr {
    key: "shape"
    value {
      shape {
        dim {
          size: 1
        }
        dim {
          size: 1
        }
        dim {
          size: 1
        }
        dim {
          size: 1
        }
        dim {
          size: 1
        }
      }
    }
  }
  attr {
    key: "synDataType"
    value {
      s: "float32"
    }
  }
}
node {
  name: "module/model/31/fused_scaled_dot_product_attention/sdpa_recomp_fwd_hf8/13827"
  op: "sdpa_recomp_fwd_hf8"
  input: "module/model/31/fused_scaled_dot_product_attention/reshape/13826"
  input: "module/model/31/fused_scaled_dot_product_attention/reshape/13818"
  input: "module/model/31/fused_scaled_dot_product_attention/reshape/13816"
  input: "module/model/31/fused_scaled_dot_product_attention/expand_dims/13814"
  input: "unused_port"
  input: "tensor_109_odule/model/31/fused_scaled_dot_product_attention/placeholder/4"
  input: "tensor_110_odule/model/31/fused_scaled_dot_product_attention/placeholder/5"
  input: "tensor_111_odule/model/31/fused_scaled_dot_product_attention/placeholder/6"
  input: "tensor_112_odule/model/31/fused_scaled_dot_product_attention/placeholder/7"
  input: "tensor_113_odule/model/31/fused_scaled_dot_product_attention/placeholder/8"
  input: "tensor_114_odule/model/31/fused_scaled_dot_product_attention/placeholder/9"
  attr {
    key: "Bundle_idx"
    value {
      s: "N/A"
    }
  }
  attr {
    key: "Exec_idx"
    value {
      s: "46"
    }
  }
  attr {
    key: "Op_idx"
    value {
      s: "N/A"
    }
  }
  attr {
    key: "inputTensor:00"
    value {
      s: "tensor_108_id_125908_module/model/31/fused_scaled_dot_product_attention/aten__view  |  Sizes = [1,4,4,16,128]  |  hfloat8  |  expBias = 7, scale = 1  |    |  ModelParam = 0  |  strides = [32768, 32768, 8192, 2048, 128, 1]  |  data = 0, sizeInBytes = 32768  |  "
    }
  }
  attr {
    key: "inputTensor:01"
    value {
      s: "tensor_89_id_125910_module/model/31/fused_scaled_dot_product_attention/aten__view  |  Sizes = [1,4,1,16,128]  |  hfloat8  |  expBias = 7, scale = 1  |    |  ModelParam = 0  |  strides = [8192, 8192, 2048, 2048, 128, 1]  |  data = 0, sizeInBytes = 8192  |  "
    }
  }
  attr {
    key: "inputTensor:02"
    value {
      s: "tensor_84_id_125912_module/model/31/fused_scaled_dot_product_attention/aten__view  |  Sizes = [1,4,1,16,128]  |  hfloat8  |  expBias = 7, scale = 1  |    |  ModelParam = 0  |  strides = [8192, 8192, 2048, 2048, 128, 1]  |  data = 0, sizeInBytes = 8192  |  "
    }
  }
  attr {
    key: "inputTensor:03"
    value {
      s: "tensor_79_id_125914_module/model/31/fused_scaled_dot_product_attention/aten__unsqueeze  |  Sizes = [1,1,1,16,16]  |  bf16  |  expBias = 0, scale = 1  |    |  ModelParam = 0  |  strides = [512, 512, 512, 512, 32, 2]  |  data = 0, sizeInBytes = 512  |  "
    }
  }
  attr {
    key: "inputTensor:05"
    value {
      s: "tensor_109_odule/model/31/fused_scaled_dot_product_attention/placeholder/4  |  Sizes = [1]  |  float32  |  expBias = 0, scale = 1  |    |  ModelParam = 0  |  strides = [4, 4]  |  data = 0x5566ccc61810, sizeInBytes = 4  |  buffer = 1  |  isPersistent  |  userMemorySection(type=Persistent, id=37)  |  isStaticParam  |  bufferDtype=float32  |  "
    }
  }
  attr {
    key: "inputTensor:06"
    value {
      s: "tensor_110_odule/model/31/fused_scaled_dot_product_attention/placeholder/5  |  Sizes = [1]  |  float32  |  expBias = 0, scale = 1  |    |  ModelParam = 0  |  strides = [4, 4]  |  data = 0x5566cd6c6950, sizeInBytes = 4  |  buffer = 1  |  isPersistent  |  userMemorySection(type=Persistent, id=38)  |  isStaticParam  |  bufferDtype=float32  |  "
    }
  }
  attr {
    key: "inputTensor:07"
    value {
      s: "tensor_111_odule/model/31/fused_scaled_dot_product_attention/placeholder/6  |  Sizes = [1]  |  float32  |  expBias = 0, scale = 1  |    |  ModelParam = 0  |  strides = [4, 4]  |  data = 0x5566cd6c6948, sizeInBytes = 4  |  buffer = 1  |  isPersistent  |  userMemorySection(type=Persistent, id=39)  |  isStaticParam  |  bufferDtype=float32  |  "
    }
  }
  attr {
    key: "inputTensor:08"
    value {
      s: "tensor_112_odule/model/31/fused_scaled_dot_product_attention/placeholder/7  |  Sizes = [1]  |  float32  |  expBias = 0, scale = 1  |    |  ModelParam = 0  |  strides = [4, 4]  |  data = 0x5566cd6c6958, sizeInBytes = 4  |  buffer = 16  |  isPersistent  |  userMemorySection(type=Persistent, id=40)  |  isStaticParam  |  bufferDtype=float32  |  "
    }
  }
  attr {
    key: "inputTensor:09"
    value {
      s: "tensor_113_odule/model/31/fused_scaled_dot_product_attention/placeholder/8  |  Sizes = [1]  |  float32  |  expBias = 0, scale = 1  |    |  ModelParam = 0  |  strides = [4, 4]  |  data = 0x5566cd6c6960, sizeInBytes = 4  |  buffer = 1  |  isPersistent  |  userMemorySection(type=Persistent, id=41)  |  isStaticParam  |  bufferDtype=float32  |  "
    }
  }
  attr {
    key: "inputTensor:10"
    value {
      s: "tensor_114_odule/model/31/fused_scaled_dot_product_attention/placeholder/9  |  Sizes = [1]  |  float32  |  expBias = 0, scale = 1  |    |  ModelParam = 0  |  strides = [4, 4]  |  data = 0x5566cd6c6968, sizeInBytes = 4  |  buffer = 0.0625  |  isPersistent  |  userMemorySection(type=Persistent, id=42)  |  isStaticParam  |  bufferDtype=float32  |  "
    }
  }
  attr {
    key: "outputTensor:0"
    value {
      s: "tensor_120  |  Sizes = [1,4,4,16,128]  |  hfloat8  |  expBias = 7, scale = 1  |    |  ModelParam = 0  |  strides = [32768, 32768, 8192, 2048, 128, 1]  |  data = 0, sizeInBytes = 32768  |  "
    }
  }
}
node {
  name: "module/model/31/fused_scaled_dot_product_attention/dequant_output/reshape/13828"
  op: "Reshape"
  input: "module/model/31/fused_scaled_dot_product_attention/sdpa_recomp_fwd_hf8/13827"
  attr {
    key: "Bundle_idx"
    value {
      s: "N/A"
    }
  }
  attr {
    key: "Exec_idx"
    value {
      s: "47"
    }
  }
  attr {
    key: "Op_idx"
    value {
      s: "N/A"
    }
  }
  attr {
    key: "inputTensor:0"
    value {
      s: "tensor_120  |  Sizes = [1,4,4,16,128]  |  hfloat8  |  expBias = 7, scale = 1  |    |  ModelParam = 0  |  strides = [32768, 32768, 8192, 2048, 128, 1]  |  data = 0, sizeInBytes = 32768  |  "
    }
  }
  attr {
    key: "outputTensor:0"
    value {
      s: "tensor_121_id_125933_module/model/31/fused_scaled_dot_product_attention/dequant_output/aten__view  |  Sizes = [1,16,16,128]  |  hfloat8  |  expBias = 7, scale = 1  |    |  ModelParam = 0  |  strides = [32768, 32768, 2048, 128, 1]  |  data = 0, sizeInBytes = 32768  |  "
    }
  }
}
node {
  name: "tensor_122_odule/model/31/fused_scaled_dot_product_attention/dequant_output/placeholder/1"
  op: "Placeholder"
  attr {
    key: "dtype"
    value {
      type: DT_BFLOAT16
    }
  }
  attr {
    key: "shape"
    value {
      shape {
        dim {
          size: 1
        }
        dim {
          size: 1
        }
        dim {
          size: 1
        }
        dim {
          size: 1
        }
        dim {
          size: 1
        }
      }
    }
  }
  attr {
    key: "synDataType"
    value {
      s: "bf16"
    }
  }
}
node {
  name: "module/model/31/fused_scaled_dot_product_attention/dequant_output/convert_from_fp8_bf16/13829"
  op: "convert_from_fp8_bf16"
  input: "module/model/31/fused_scaled_dot_product_attention/dequant_output/reshape/13828"
  input: "tensor_122_odule/model/31/fused_scaled_dot_product_attention/dequant_output/placeholder/1"
  attr {
    key: "Bundle_idx"
    value {
      s: "N/A"
    }
  }
  attr {
    key: "Exec_idx"
    value {
      s: "48"
    }
  }
  attr {
    key: "Op_idx"
    value {
      s: "N/A"
    }
  }
  attr {
    key: "inputTensor:0"
    value {
      s: "tensor_121_id_125933_module/model/31/fused_scaled_dot_product_attention/dequant_output/aten__view  |  Sizes = [1,16,16,128]  |  hfloat8  |  expBias = 7, scale = 1  |    |  ModelParam = 0  |  strides = [32768, 32768, 2048, 128, 1]  |  data = 0, sizeInBytes = 32768  |  "
    }
  }
  attr {
    key: "inputTensor:1"
    value {
      s: "tensor_122_odule/model/31/fused_scaled_dot_product_attention/dequant_output/placeholder/1  |  Sizes = [1]  |  bf16  |  expBias = 0, scale = 1  |    |  ModelParam = 0  |  strides = [2, 2]  |  data = 0x5566cd6c6978, sizeInBytes = 2  |  buffer = 1  |  isPersistent  |  userMemorySection(type=Persistent, id=43)  |  isStaticParam  |  bufferDtype=bf16  |  "
    }
  }
  attr {
    key: "outputTensor:0"
    value {
      s: "tensor_124  |  Sizes = [1,16,16,128]  |  bf16  |  expBias = 0, scale = 1  |    |  ModelParam = 0  |  strides = [65536, 65536, 4096, 256, 2]  |  data = 0, sizeInBytes = 65536  |  "
    }
  }
}
node {
  name: "module/model/31/transpose/13830"
  op: "Transpose"
  input: "module/model/31/fused_scaled_dot_product_attention/dequant_output/convert_from_fp8_bf16/13829"
  attr {
    key: "Bundle_idx"
    value {
      s: "N/A"
    }
  }
  attr {
    key: "Exec_idx"
    value {
      s: "49"
    }
  }
  attr {
    key: "Op_idx"
    value {
      s: "N/A"
    }
  }
  attr {
    key: "Parameters"
    value {
      s: "permutation: (0,2,1,3)"
    }
  }
  attr {
    key: "inputTensor:0"
    value {
      s: "tensor_124  |  Sizes = [1,16,16,128]  |  bf16  |  expBias = 0, scale = 1  |    |  ModelParam = 0  |  strides = [65536, 65536, 4096, 256, 2]  |  data = 0, sizeInBytes = 65536  |  "
    }
  }
  attr {
    key: "outputTensor:0"
    value {
      s: "tensor_125_id_125938_module/model/31/aten__transpose  |  Sizes = [1,16,16,128]  |  bf16  |  expBias = 0, scale = 1  |    |  ModelParam = 0  |  strides = [65536, 65536, 4096, 256, 2]  |  data = 0, sizeInBytes = 65536  |  "
    }
  }
}
node {
  name: "module/model/31/identity/13831"
  op: "Identity"
  input: "module/model/31/transpose/13830"
  attr {
    key: "Bundle_idx"
    value {
      s: "N/A"
    }
  }
  attr {
    key: "Exec_idx"
    value {
      s: "50"
    }
  }
  attr {
    key: "Op_idx"
    value {
      s: "N/A"
    }
  }
  attr {
    key: "inputTensor:0"
    value {
      s: "tensor_125_id_125938_module/model/31/aten__transpose  |  Sizes = [1,16,16,128]  |  bf16  |  expBias = 0, scale = 1  |    |  ModelParam = 0  |  strides = [65536, 65536, 4096, 256, 2]  |  data = 0, sizeInBytes = 65536  |  "
    }
  }
  attr {
    key: "outputTensor:0"
    value {
      s: "tensor_126_id_125940_module/model/31/aten__clone  |  Sizes = [1,16,16,128]  |  bf16  |  expBias = 0, scale = 1  |    |  ModelParam = 0  |  strides = [65536, 65536, 4096, 256, 2]  |  data = 0, sizeInBytes = 65536  |  "
    }
  }
}
node {
  name: "module/model/31/o_proj/quant_input_0/reshape/13832"
  op: "Reshape"
  input: "module/model/31/identity/13831"
  attr {
    key: "Bundle_idx"
    value {
      s: "N/A"
    }
  }
  attr {
    key: "Exec_idx"
    value {
      s: "51"
    }
  }
  attr {
    key: "Op_idx"
    value {
      s: "N/A"
    }
  }
  attr {
    key: "inputTensor:0"
    value {
      s: "tensor_126_id_125940_module/model/31/aten__clone  |  Sizes = [1,16,16,128]  |  bf16  |  expBias = 0, scale = 1  |    |  ModelParam = 0  |  strides = [65536, 65536, 4096, 256, 2]  |  data = 0, sizeInBytes = 65536  |  "
    }
  }
  attr {
    key: "outputTensor:0"
    value {
      s: "tensor_127_id_125943_module/model/31/o_proj/quant_input_0/aten__view  |  Sizes = [1,16,2048]  |  bf16  |  expBias = 0, scale = 1  |    |  ModelParam = 0  |  strides = [65536, 65536, 4096, 2]  |  data = 0, sizeInBytes = 65536  |  "
    }
  }
}
node {
  name: "module/model/31/constant_hf8/13778"
  op: "constant_hf8"
  attr {
    key: "Bundle_idx"
    value {
      s: "N/A"
    }
  }
  attr {
    key: "Exec_idx"
    value {
      s: "52"
    }
  }
  attr {
    key: "Op_idx"
    value {
      s: "N/A"
    }
  }
  attr {
    key: "outputTensor:0"
    value {
      s: "tensor_5  |  Sizes = [1,4,16,128]  |  hfloat8  |  expBias = 7, scale = 1  |    |  ModelParam = 0  |  strides = [8192, 8192, 2048, 128, 1]  |  data = 0, sizeInBytes = 8192  |  isPersistent  |  userMemorySection(type=Persistent, id=6)  |  "
    }
  }
}
node {
  name: "tensor_5"
  op: "OutputTensor"
  input: "module/model/31/constant_hf8/13778"
  attr {
    key: "dtype"
    value {
      type: DT_INVALID
    }
  }
  attr {
    key: "shape"
    value {
      shape {
        dim {
          size: 128
        }
        dim {
          size: 16
        }
        dim {
          size: 4
        }
        dim {
          size: 1
        }
        dim {
          size: 1
        }
      }
    }
  }
  attr {
    key: "synDataType"
    value {
      s: "hfloat8"
    }
  }
}
node {
  name: "module/model/31/constant_hf8/13801"
  op: "constant_hf8"
  attr {
    key: "Bundle_idx"
    value {
      s: "N/A"
    }
  }
  attr {
    key: "Exec_idx"
    value {
      s: "53"
    }
  }
  attr {
    key: "Op_idx"
    value {
      s: "N/A"
    }
  }
  attr {
    key: "outputTensor:0"
    value {
      s: "tensor_52  |  Sizes = [1,4,16,128]  |  hfloat8  |  expBias = 7, scale = 1  |    |  ModelParam = 0  |  strides = [8192, 8192, 2048, 128, 1]  |  data = 0, sizeInBytes = 8192  |  isPersistent  |  userMemorySection(type=Persistent, id=20)  |  "
    }
  }
}
node {
  name: "tensor_52"
  op: "OutputTensor"
  input: "module/model/31/constant_hf8/13801"
  attr {
    key: "dtype"
    value {
      type: DT_INVALID
    }
  }
  attr {
    key: "shape"
    value {
      shape {
        dim {
          size: 128
        }
        dim {
          size: 16
        }
        dim {
          size: 4
        }
        dim {
          size: 1
        }
        dim {
          size: 1
        }
      }
    }
  }
  attr {
    key: "synDataType"
    value {
      s: "hfloat8"
    }
  }
}
node {
  name: "tensor_128_odule/model/31/o_proj/quant_input_0/placeholder/1"
  op: "Placeholder"
  attr {
    key: "dtype"
    value {
      type: DT_BFLOAT16
    }
  }
  attr {
    key: "shape"
    value {
      shape {
        dim {
          size: 1
        }
        dim {
          size: 1
        }
        dim {
          size: 1
        }
        dim {
          size: 1
        }
        dim {
          size: 1
        }
      }
    }
  }
  attr {
    key: "synDataType"
    value {
      s: "bf16"
    }
  }
}
node {
  name: "module/model/31/o_proj/quant_input_0/convert_to_fp8_bf16/13833"
  op: "convert_to_fp8_bf16"
  input: "module/model/31/o_proj/quant_input_0/reshape/13832"
  input: "tensor_128_odule/model/31/o_proj/quant_input_0/placeholder/1"
  attr {
    key: "Bundle_idx"
    value {
      s: "N/A"
    }
  }
  attr {
    key: "Exec_idx"
    value {
      s: "54"
    }
  }
  attr {
    key: "Op_idx"
    value {
      s: "N/A"
    }
  }
  attr {
    key: "inputTensor:0"
    value {
      s: "tensor_127_id_125943_module/model/31/o_proj/quant_input_0/aten__view  |  Sizes = [1,16,2048]  |  bf16  |  expBias = 0, scale = 1  |    |  ModelParam = 0  |  strides = [65536, 65536, 4096, 2]  |  data = 0, sizeInBytes = 65536  |  "
    }
  }
  attr {
    key: "inputTensor:1"
    value {
      s: "tensor_128_odule/model/31/o_proj/quant_input_0/placeholder/1  |  Sizes = [1]  |  bf16  |  expBias = 0, scale = 1  |    |  ModelParam = 0  |  strides = [2, 2]  |  data = 0x5566cd6c69f0, sizeInBytes = 2  |  buffer = 1  |  isPersistent  |  userMemorySection(type=Persistent, id=44)  |  isStaticParam  |  bufferDtype=bf16  |  "
    }
  }
  attr {
    key: "outputTensor:0"
    value {
      s: "tensor_131  |  Sizes = [1,16,2048]  |  hfloat8  |  expBias = 7, scale = 1  |    |  ModelParam = 0  |  strides = [32768, 32768, 2048, 1]  |  data = 0, sizeInBytes = 32768  |  "
    }
  }
}
node {
  name: "module/model/31/memcpy/13799"
  op: "Memcpy"
  input: "module/model/31/quant_input_0/convert_to_fp8_bf16/13798"
  input: "^module/model/31/constant_hf8/13778"
  attr {
    key: "Bundle_idx"
    value {
      s: "N/A"
    }
  }
  attr {
    key: "Exec_idx"
    value {
      s: "55"
    }
  }
  attr {
    key: "Op_idx"
    value {
      s: "N/A"
    }
  }
  attr {
    key: "inputTensor:0"
    value {
      s: "tensor_45  |  Sizes = [1,4,16,128]  |  hfloat8  |  expBias = 7, scale = 1  |    |  ModelParam = 0  |  strides = [8192, 8192, 2048, 128, 1]  |  data = 0, sizeInBytes = 8192  |  "
    }
  }
  attr {
    key: "outputTensor:0"
    value {
      s: "tensor_46  |  Sizes = [1,4,16,128]  |  hfloat8  |  expBias = 7, scale = 1  |    |  ModelParam = 0  |  strides = [8192, 8192, 2048, 128, 1]  |  data = 0, sizeInBytes = 8192  |  isPersistent  |  userMemorySection(type=Persistent, id=6)  |  "
    }
  }
}
node {
  name: "tensor_46"
  op: "OutputTensor"
  input: "module/model/31/memcpy/13799"
  attr {
    key: "dtype"
    value {
      type: DT_INVALID
    }
  }
  attr {
    key: "shape"
    value {
      shape {
        dim {
          size: 128
        }
        dim {
          size: 16
        }
        dim {
          size: 4
        }
        dim {
          size: 1
        }
        dim {
          size: 1
        }
      }
    }
  }
  attr {
    key: "synDataType"
    value {
      s: "hfloat8"
    }
  }
}
node {
  name: "module/model/31/memcpy/13807"
  op: "Memcpy"
  input: "module/model/31/quant_input_0/convert_to_fp8_bf16/13806"
  input: "^module/model/31/constant_hf8/13801"
  attr {
    key: "Bundle_idx"
    value {
      s: "N/A"
    }
  }
  attr {
    key: "Exec_idx"
    value {
      s: "56"
    }
  }
  attr {
    key: "Op_idx"
    value {
      s: "N/A"
    }
  }
  attr {
    key: "inputTensor:0"
    value {
      s: "tensor_68  |  Sizes = [1,4,16,128]  |  hfloat8  |  expBias = 7, scale = 1  |    |  ModelParam = 0  |  strides = [8192, 8192, 2048, 128, 1]  |  data = 0, sizeInBytes = 8192  |  "
    }
  }
  attr {
    key: "outputTensor:0"
    value {
      s: "tensor_69  |  Sizes = [1,4,16,128]  |  hfloat8  |  expBias = 7, scale = 1  |    |  ModelParam = 0  |  strides = [8192, 8192, 2048, 128, 1]  |  data = 0, sizeInBytes = 8192  |  isPersistent  |  userMemorySection(type=Persistent, id=20)  |  "
    }
  }
}
node {
  name: "tensor_69"
  op: "OutputTensor"
  input: "module/model/31/memcpy/13807"
  attr {
    key: "dtype"
    value {
      type: DT_INVALID
    }
  }
  attr {
    key: "shape"
    value {
      shape {
        dim {
          size: 128
        }
        dim {
          size: 16
        }
        dim {
          size: 4
        }
        dim {
          size: 1
        }
        dim {
          size: 1
        }
      }
    }
  }
  attr {
    key: "synDataType"
    value {
      s: "hfloat8"
    }
  }
}
node {
  name: "tensor_132_odule/model/31/o_proj/placeholder/1"
  op: "Placeholder"
  attr {
    key: "dtype"
    value {
      type: DT_INVALID
    }
  }
  attr {
    key: "shape"
    value {
      shape {
        dim {
          size: 4096
        }
        dim {
          size: 2048
        }
        dim {
          size: 1
        }
        dim {
          size: 1
        }
        dim {
          size: 1
        }
      }
    }
  }
  attr {
    key: "synDataType"
    value {
      s: "hfloat8"
    }
  }
}
node {
  name: "tensor_133_odule/model/31/o_proj/placeholder/2"
  op: "Placeholder"
  attr {
    key: "dtype"
    value {
      type: DT_BFLOAT16
    }
  }
  attr {
    key: "shape"
    value {
      shape {
        dim {
          size: 1
        }
        dim {
          size: 1
        }
        dim {
          size: 1
        }
        dim {
          size: 1
        }
        dim {
          size: 1
        }
      }
    }
  }
  attr {
    key: "synDataType"
    value {
      s: "bf16"
    }
  }
}
node {
  name: "tensor_134_odule/model/31/o_proj/placeholder/3"
  op: "Placeholder"
  attr {
    key: "dtype"
    value {
      type: DT_BFLOAT16
    }
  }
  attr {
    key: "shape"
    value {
      shape {
        dim {
          size: 1
        }
        dim {
          size: 1
        }
        dim {
          size: 1
        }
        dim {
          size: 1
        }
        dim {
          size: 1
        }
      }
    }
  }
  attr {
    key: "synDataType"
    value {
      s: "bf16"
    }
  }
}
node {
  name: "module/model/31/o_proj/fp8_gemm_bf16/13834"
  op: "fp8_gemm_bf16"
  input: "module/model/31/o_proj/quant_input_0/convert_to_fp8_bf16/13833"
  input: "tensor_132_odule/model/31/o_proj/placeholder/1"
  input: "tensor_133_odule/model/31/o_proj/placeholder/2"
  input: "tensor_134_odule/model/31/o_proj/placeholder/3"
  input: "unused_port"
  input: "unused_port"
  input: "unused_port"
  attr {
    key: "Bundle_idx"
    value {
      s: "N/A"
    }
  }
  attr {
    key: "Exec_idx"
    value {
      s: "57"
    }
  }
  attr {
    key: "Op_idx"
    value {
      s: "N/A"
    }
  }
  attr {
    key: "inputTensor:0"
    value {
      s: "tensor_131  |  Sizes = [1,16,2048]  |  hfloat8  |  expBias = 7, scale = 1  |    |  ModelParam = 0  |  strides = [32768, 32768, 2048, 1]  |  data = 0, sizeInBytes = 32768  |  "
    }
  }
  attr {
    key: "inputTensor:1"
    value {
      s: "tensor_132_odule/model/31/o_proj/placeholder/1  |  Sizes = [2048,4096]  |  hfloat8  |  expBias = 7, scale = 1  |    |  ModelParam = 0  |  strides = [8388608, 4096, 1]  |  data = 0, sizeInBytes = 8388608  |  isPersistent  |  userMemorySection(type=Persistent, id=45)  |  "
    }
  }
  attr {
    key: "inputTensor:2"
    value {
      s: "tensor_133_odule/model/31/o_proj/placeholder/2  |  Sizes = [1]  |  bf16  |  expBias = 0, scale = 1  |    |  ModelParam = 0  |  strides = [2, 2]  |  data = 0x5566cd6c6a20, sizeInBytes = 2  |  buffer = 1  |  isPersistent  |  userMemorySection(type=Persistent, id=46)  |  isStaticParam  |  bufferDtype=bf16  |  "
    }
  }
  attr {
    key: "inputTensor:3"
    value {
      s: "tensor_134_odule/model/31/o_proj/placeholder/3  |  Sizes = [1]  |  bf16  |  expBias = 0, scale = 1  |    |  ModelParam = 0  |  strides = [2, 2]  |  data = 0x5566cd6c6a18, sizeInBytes = 2  |  buffer = 0.00390625  |  isPersistent  |  userMemorySection(type=Persistent, id=47)  |  isStaticParam  |  bufferDtype=bf16  |  "
    }
  }
  attr {
    key: "outputTensor:0"
    value {
      s: "tensor_136  |  Sizes = [1,16,4096]  |  bf16  |  expBias = 0, scale = 1  |    |  ModelParam = 0  |  strides = [131072, 131072, 8192, 2]  |  data = 0, sizeInBytes = 131072  |  isPersistent  |  userMemorySection(type=Persistent, id=49)  |  "
    }
  }
}
node {
  name: "tensor_136"
  op: "OutputTensor"
  input: "module/model/31/o_proj/fp8_gemm_bf16/13834"
  attr {
    key: "dtype"
    value {
      type: DT_BFLOAT16
    }
  }
  attr {
    key: "shape"
    value {
      shape {
        dim {
          size: 4096
        }
        dim {
          size: 16
        }
        dim {
          size: 1
        }
        dim {
          size: 1
        }
        dim {
          size: 1
        }
      }
    }
  }
  attr {
    key: "synDataType"
    value {
      s: "bf16"
    }
  }
}
