node {
  name: "tensor_1_odule/model/embed_tokens/placeholder/1"
  op: "Placeholder"
  attr {
    key: "dtype"
    value {
      type: DT_INT32
    }
  }
  attr {
    key: "shape"
    value {
      shape {
        dim {
          size: 64
        }
        dim {
          size: 1
        }
        dim {
          size: 1
        }
        dim {
          size: 1
        }
        dim {
          size: 1
        }
      }
    }
  }
  attr {
    key: "synDataType"
    value {
      s: "int32"
    }
  }
}
node {
  name: "module/model/embed_tokens/embedding_pt_fwd_bf16/8936_complex/reshape_0"
  op: "Reshape"
  input: "tensor_1_odule/model/embed_tokens/placeholder/1"
  attr {
    key: "Bundle_idx"
    value {
      s: "N/A"
    }
  }
  attr {
    key: "Exec_idx"
    value {
      s: "0"
    }
  }
  attr {
    key: "Op_idx"
    value {
      s: "N/A"
    }
  }
  attr {
    key: "inputTensor:0"
    value {
      s: "tensor_1_odule/model/embed_tokens/placeholder/1  |  Sizes = [1,64]  |  int32  |  expBias = 0, scale = 1  |    |  ModelParam = 0  |  strides = [256, 256, 4]  |  data = 0, sizeInBytes = 256  |  isPersistent  |  location = in DRAM  |  dramOffset = 0x50000000000  |  userMemorySection(type=Persistent, id=5)  |  "
    }
  }
  attr {
    key: "outputTensor:0"
    value {
      s: "i32-1_112449  |  Sizes = [64]  |  int32  |  expBias = 0, scale = 1  |    |  ModelParam = 0  |  strides = [256, 4]  |  data = 0, sizeInBytes = 256  |  isAliased = tensor_1_odule/model/embed_tokens/placeholder/1, type = alias, offset: 0  |  location = in DRAM  |  "
    }
  }
}
node {
  name: "module/model/range_i32/8937"
  op: "range_i32"
  attr {
    key: "Bundle_idx"
    value {
      s: "N/A"
    }
  }
  attr {
    key: "Exec_idx"
    value {
      s: "1"
    }
  }
  attr {
    key: "Op_idx"
    value {
      s: "N/A"
    }
  }
  attr {
    key: "outputTensor:0"
    value {
      s: "tensor_3_id_66011_module/model/aten__arange  |  Sizes = [64]  |  int32  |  expBias = 0, scale = 1  |    |  ModelParam = 0  |  strides = [256, 4]  |  data = 0, sizeInBytes = 256  |  isPersistent  |  location = in DRAM  |  dramOffset = 0x70000000000  |  userMemorySection(type=Persistent, id=7)  |  "
    }
  }
}
node {
  name: "tensor_4_odule/model/placeholder/0"
  op: "Placeholder"
  attr {
    key: "dtype"
    value {
      type: DT_INT32
    }
  }
  attr {
    key: "shape"
    value {
      shape {
        dim {
          size: 1
        }
        dim {
          size: 1
        }
        dim {
          size: 1
        }
        dim {
          size: 1
        }
        dim {
          size: 1
        }
      }
    }
  }
  attr {
    key: "synDataType"
    value {
      s: "int32"
    }
  }
}
node {
  name: "fusedTPCNode_207_0"
  op: "fused_kernel_0xA2FDF656_250_i32"
  input: "module/model/range_i32/8937"
  input: "tensor_4_odule/model/placeholder/0"
  attr {
    key: "Bundle_idx"
    value {
      s: "N/A"
    }
  }
  attr {
    key: "Exec_idx"
    value {
      s: "2"
    }
  }
  attr {
    key: "Op_idx"
    value {
      s: "N/A"
    }
  }
  attr {
    key: "inputTensor:0"
    value {
      s: "tensor_3_id_66011_module/model/aten__arange  |  Sizes = [64]  |  int32  |  expBias = 0, scale = 1  |    |  ModelParam = 0  |  strides = [256, 4]  |  data = 0, sizeInBytes = 256  |  isPersistent  |  location = in DRAM  |  dramOffset = 0x70000000000  |  userMemorySection(type=Persistent, id=7)  |  "
    }
  }
  attr {
    key: "inputTensor:1"
    value {
      s: "tensor_4_odule/model/placeholder/0  |  Sizes = [1]  |  int32  |  expBias = 0, scale = 1  |    |  ModelParam = 0  |  strides = [4, 4]  |  data = 0, sizeInBytes = 4  |  isPersistent  |  location = in DRAM  |  dramOffset = 0x80000000000  |  userMemorySection(type=Persistent, id=8)  |  "
    }
  }
  attr {
    key: "outputTensor:0"
    value {
      s: "tensor-112622  |  Sizes = [64]  |  int32  |  expBias = 0, scale = 1  |    |  ModelParam = 0  |  strides = [256, 4]  |  data = 0, sizeInBytes = 256  |  isAliased = tensor_11_id_66036_module/model/aten__view, type = alias, offset: 0  |  location = in DRAM  |  "
    }
  }
}
node {
  name: "reshape_2_2"
  op: "Reshape"
  input: "fusedTPCNode_207_0"
  attr {
    key: "Bundle_idx"
    value {
      s: "N/A"
    }
  }
  attr {
    key: "Exec_idx"
    value {
      s: "3"
    }
  }
  attr {
    key: "Op_idx"
    value {
      s: "N/A"
    }
  }
  attr {
    key: "inputTensor:0"
    value {
      s: "tensor-112622  |  Sizes = [64]  |  int32  |  expBias = 0, scale = 1  |    |  ModelParam = 0  |  strides = [256, 4]  |  data = 0, sizeInBytes = 256  |  isAliased = tensor_11_id_66036_module/model/aten__view, type = alias, offset: 0  |  location = in DRAM  |  "
    }
  }
  attr {
    key: "outputTensor:0"
    value {
      s: "tensor_11_id_66036_module/model/aten__view  |  Sizes = [64,1]  |  int32  |  expBias = 0, scale = 1  |    |  ModelParam = 0  |  strides = [256, 4, 4]  |  data = 0, sizeInBytes = 256  |  location = in DRAM  |  dramOffset = 0xa0000000000  |  "
    }
  }
}
node {
  name: "module/model/less_fwd_i32/8943_complex/less_fwd_i32_0"
  op: "less_fwd_i32"
  input: "module/model/range_i32/8937"
  input: "reshape_2_2"
  attr {
    key: "Bundle_idx"
    value {
      s: "N/A"
    }
  }
  attr {
    key: "Exec_idx"
    value {
      s: "4"
    }
  }
  attr {
    key: "Op_idx"
    value {
      s: "N/A"
    }
  }
  attr {
    key: "inputTensor:0"
    value {
      s: "tensor_3_id_66011_module/model/aten__arange  |  Sizes = [64]  |  int32  |  expBias = 0, scale = 1  |    |  ModelParam = 0  |  strides = [256, 4]  |  data = 0, sizeInBytes = 256  |  isPersistent  |  location = in DRAM  |  dramOffset = 0x70000000000  |  userMemorySection(type=Persistent, id=7)  |  "
    }
  }
  attr {
    key: "inputTensor:1"
    value {
      s: "tensor_11_id_66036_module/model/aten__view  |  Sizes = [64,1]  |  int32  |  expBias = 0, scale = 1  |    |  ModelParam = 0  |  strides = [256, 4, 4]  |  data = 0, sizeInBytes = 256  |  location = in DRAM  |  dramOffset = 0xa0000000000  |  "
    }
  }
  attr {
    key: "outputTensor:0"
    value {
      s: "tensor_12_id_66038_module/model/aten__lt  |  Sizes = [64,64]  |  int8  |  expBias = 0, scale = 1  |    |  ModelParam = 0  |  strides = [4096, 64, 1]  |  data = 0, sizeInBytes = 4096  |  isAliased = tensor-112623, type = alias, offset: 0  |  location = in DRAM  |  "
    }
  }
}
node {
  name: "reshape_3_3"
  op: "Reshape"
  input: "module/model/less_fwd_i32/8943_complex/less_fwd_i32_0"
  attr {
    key: "Bundle_idx"
    value {
      s: "N/A"
    }
  }
  attr {
    key: "Exec_idx"
    value {
      s: "5"
    }
  }
  attr {
    key: "Op_idx"
    value {
      s: "N/A"
    }
  }
  attr {
    key: "inputTensor:0"
    value {
      s: "tensor_12_id_66038_module/model/aten__lt  |  Sizes = [64,64]  |  int8  |  expBias = 0, scale = 1  |    |  ModelParam = 0  |  strides = [4096, 64, 1]  |  data = 0, sizeInBytes = 4096  |  isAliased = tensor-112623, type = alias, offset: 0  |  location = in DRAM  |  "
    }
  }
  attr {
    key: "outputTensor:0"
    value {
      s: "tensor-112623  |  Sizes = [2,2048]  |  int8  |  expBias = 0, scale = 1  |    |  ModelParam = 0  |  strides = [4096, 2048, 1]  |  data = 0, sizeInBytes = 4096  |  location = in DRAM  |  dramOffset = 0x0  |  "
    }
  }
}
node {
  name: "module/model/constant_i32/8945"
  op: "constant_i32"
  attr {
    key: "Bundle_idx"
    value {
      s: "N/A"
    }
  }
  attr {
    key: "Exec_idx"
    value {
      s: "6"
    }
  }
  attr {
    key: "Op_idx"
    value {
      s: "N/A"
    }
  }
  attr {
    key: "outputTensor:0"
    value {
      s: "tensor_15  |  Sizes = [1]  |  int32  |  expBias = 0, scale = 1  |    |  ModelParam = 0  |  strides = [4, 4]  |  data = 0, sizeInBytes = 4  |  location = in DRAM  |  dramOffset = 0x1000  |  "
    }
  }
}
node {
  name: "tensor_0_odule/model/embed_tokens/placeholder/0"
  op: "Placeholder"
  attr {
    key: "dtype"
    value {
      type: DT_BFLOAT16
    }
  }
  attr {
    key: "shape"
    value {
      shape {
        dim {
          size: 4096
        }
        dim {
          size: 128256
        }
        dim {
          size: 1
        }
        dim {
          size: 1
        }
        dim {
          size: 1
        }
      }
    }
  }
  attr {
    key: "synDataType"
    value {
      s: "bf16"
    }
  }
}
node {
  name: "module/model/embed_tokens/embedding_pt_fwd_bf16/8936_complex/gather_bf16_2"
  op: "gather_bf16"
  input: "tensor_0_odule/model/embed_tokens/placeholder/0"
  input: "module/model/embed_tokens/embedding_pt_fwd_bf16/8936_complex/reshape_0"
  attr {
    key: "Bundle_idx"
    value {
      s: "N/A"
    }
  }
  attr {
    key: "Exec_idx"
    value {
      s: "7"
    }
  }
  attr {
    key: "Op_idx"
    value {
      s: "N/A"
    }
  }
  attr {
    key: "inputTensor:0"
    value {
      s: "tensor_0_odule/model/embed_tokens/placeholder/0  |  Sizes = [128256,4096]  |  bf16  |  expBias = 0, scale = 1  |    |  ModelParam = 0  |  strides = [1050673152, 8192, 2]  |  data = 0, sizeInBytes = 1050673152  |  isPersistent  |  location = in DRAM  |  dramOffset = 0x40000000000  |  userMemorySection(type=Persistent, id=4)  |  "
    }
  }
  attr {
    key: "inputTensor:1"
    value {
      s: "i32-1_112449  |  Sizes = [64]  |  int32  |  expBias = 0, scale = 1  |    |  ModelParam = 0  |  strides = [256, 4]  |  data = 0, sizeInBytes = 256  |  isAliased = tensor_1_odule/model/embed_tokens/placeholder/1, type = alias, offset: 0  |  location = in DRAM  |  "
    }
  }
  attr {
    key: "outputTensor:0"
    value {
      s: "bf16-3_112450  |  Sizes = [64,4096]  |  bf16  |  expBias = 0, scale = 1  |    |  ModelParam = 0  |  strides = [524288, 8192, 2]  |  data = 0, sizeInBytes = 524288  |  isAliased = tensor_2_id_66006_module/model/embed_tokens/aten__embedding, type = alias, offset: 0  |  location = in DRAM  |  "
    }
  }
}
node {
  name: "module/model/embed_tokens/embedding_pt_fwd_bf16/8936_complex/reshape_4"
  op: "Reshape"
  input: "module/model/embed_tokens/embedding_pt_fwd_bf16/8936_complex/gather_bf16_2"
  attr {
    key: "Bundle_idx"
    value {
      s: "N/A"
    }
  }
  attr {
    key: "Exec_idx"
    value {
      s: "8"
    }
  }
  attr {
    key: "Op_idx"
    value {
      s: "N/A"
    }
  }
  attr {
    key: "inputTensor:0"
    value {
      s: "bf16-3_112450  |  Sizes = [64,4096]  |  bf16  |  expBias = 0, scale = 1  |    |  ModelParam = 0  |  strides = [524288, 8192, 2]  |  data = 0, sizeInBytes = 524288  |  isAliased = tensor_2_id_66006_module/model/embed_tokens/aten__embedding, type = alias, offset: 0  |  location = in DRAM  |  "
    }
  }
  attr {
    key: "outputTensor:0"
    value {
      s: "tensor_2_id_66006_module/model/embed_tokens/aten__embedding  |  Sizes = [1,64,4096]  |  bf16  |  expBias = 0, scale = 1  |    |  ModelParam = 0  |  strides = [524288, 524288, 8192, 2]  |  data = 0, sizeInBytes = 524288  |  isPersistent  |  location = in DRAM  |  dramOffset = 0x60000000000  |  userMemorySection(type=Persistent, id=6)  |  "
    }
  }
}
node {
  name: "tensor_2_id_66006_module/model/embed_tokens/aten__embedding"
  op: "OutputTensor"
  input: "module/model/embed_tokens/embedding_pt_fwd_bf16/8936_complex/reshape_4"
  attr {
    key: "dtype"
    value {
      type: DT_BFLOAT16
    }
  }
  attr {
    key: "shape"
    value {
      shape {
        dim {
          size: 4096
        }
        dim {
          size: 64
        }
        dim {
          size: 1
        }
        dim {
          size: 1
        }
        dim {
          size: 1
        }
      }
    }
  }
  attr {
    key: "synDataType"
    value {
      s: "bf16"
    }
  }
}
node {
  name: "fusedTPCNode_207_1"
  op: "fused_kernel_0xCE86D488_251_f32"
  input: "module/model/constant_i32/8945"
  input: "reshape_3_3"
  attr {
    key: "Bundle_idx"
    value {
      s: "N/A"
    }
  }
  attr {
    key: "Exec_idx"
    value {
      s: "9"
    }
  }
  attr {
    key: "Op_idx"
    value {
      s: "N/A"
    }
  }
  attr {
    key: "inputTensor:0"
    value {
      s: "tensor_15  |  Sizes = [1]  |  int32  |  expBias = 0, scale = 1  |    |  ModelParam = 0  |  strides = [4, 4]  |  data = 0, sizeInBytes = 4  |  location = in DRAM  |  dramOffset = 0x1000  |  "
    }
  }
  attr {
    key: "inputTensor:1"
    value {
      s: "tensor-112623  |  Sizes = [2,2048]  |  int8  |  expBias = 0, scale = 1  |    |  ModelParam = 0  |  strides = [4096, 2048, 1]  |  data = 0, sizeInBytes = 4096  |  location = in DRAM  |  dramOffset = 0x0  |  "
    }
  }
  attr {
    key: "outputTensor:0"
    value {
      s: "tensor-112624  |  Sizes = [2,2048]  |  bf16  |  expBias = 0, scale = 1  |    |  ModelParam = 0  |  strides = [8192, 4096, 2]  |  data = 0, sizeInBytes = 8192  |  isAliased = tensor_18, type = alias, offset: 0  |  location = in DRAM  |  "
    }
  }
}
node {
  name: "reshape_7_7"
  op: "Reshape"
  input: "fusedTPCNode_207_1"
  attr {
    key: "Bundle_idx"
    value {
      s: "N/A"
    }
  }
  attr {
    key: "Exec_idx"
    value {
      s: "10"
    }
  }
  attr {
    key: "Op_idx"
    value {
      s: "N/A"
    }
  }
  attr {
    key: "inputTensor:0"
    value {
      s: "tensor-112624  |  Sizes = [2,2048]  |  bf16  |  expBias = 0, scale = 1  |    |  ModelParam = 0  |  strides = [8192, 4096, 2]  |  data = 0, sizeInBytes = 8192  |  isAliased = tensor_18, type = alias, offset: 0  |  location = in DRAM  |  "
    }
  }
  attr {
    key: "outputTensor:0"
    value {
      s: "tensor_18  |  Sizes = [64,64]  |  bf16  |  expBias = 0, scale = 1  |    |  ModelParam = 0  |  strides = [8192, 128, 2]  |  data = 0, sizeInBytes = 8192  |  isPersistent  |  location = in DRAM  |  dramOffset = 0xa0000000000  |  userMemorySection(type=Persistent, id=10)  |  "
    }
  }
}
node {
  name: "tensor_18"
  op: "OutputTensor"
  input: "reshape_7_7"
  attr {
    key: "dtype"
    value {
      type: DT_BFLOAT16
    }
  }
  attr {
    key: "shape"
    value {
      shape {
        dim {
          size: 64
        }
        dim {
          size: 64
        }
        dim {
          size: 1
        }
        dim {
          size: 1
        }
        dim {
          size: 1
        }
      }
    }
  }
  attr {
    key: "synDataType"
    value {
      s: "bf16"
    }
  }
}
