node {
  name: "tensor_4_odule/model/6/placeholder/0"
  op: "Placeholder"
  attr {
    key: "dtype"
    value {
      type: DT_INT32
    }
  }
  attr {
    key: "shape"
    value {
      shape {
        dim {
          size: 128
        }
        dim {
          size: 1
        }
        dim {
          size: 1
        }
        dim {
          size: 1
        }
        dim {
          size: 1
        }
      }
    }
  }
  attr {
    key: "synDataType"
    value {
      s: "int32"
    }
  }
}
node {
  name: "module/model/6/expand_dims/5437"
  op: "ExpandDims"
  input: "tensor_4_odule/model/6/placeholder/0"
  attr {
    key: "Bundle_idx"
    value {
      s: "N/A"
    }
  }
  attr {
    key: "Exec_idx"
    value {
      s: "0"
    }
  }
  attr {
    key: "Op_idx"
    value {
      s: "N/A"
    }
  }
  attr {
    key: "inputTensor:0"
    value {
      s: "tensor_4_odule/model/6/placeholder/0  |  Sizes = [128]  |  int32  |  expBias = 0, scale = 1  |    |  ModelParam = 0  |  strides = [512, 4]  |  data = 0, sizeInBytes = 512  |  isPersistent  |  userMemorySection(type=Persistent, id=5)  |  "
    }
  }
  attr {
    key: "outputTensor:0"
    value {
      s: "tensor_5_id_91088_module/model/6/aten__unsqueeze/1  |  Sizes = [1,128]  |  int32  |  expBias = 0, scale = 1  |    |  ModelParam = 0  |  strides = [512, 512, 4]  |  data = 0, sizeInBytes = 512  |  "
    }
  }
}
node {
  name: "tensor_71_odule/model/6/fused_scaled_dot_product_attention/placeholder/0"
  op: "Placeholder"
  attr {
    key: "dtype"
    value {
      type: DT_BFLOAT16
    }
  }
  attr {
    key: "shape"
    value {
      shape {
        dim {
          size: 128
        }
        dim {
          size: 128
        }
        dim {
          size: 1
        }
        dim {
          size: 1
        }
        dim {
          size: 1
        }
      }
    }
  }
  attr {
    key: "synDataType"
    value {
      s: "bf16"
    }
  }
}
node {
  name: "module/model/6/fused_scaled_dot_product_attention/expand_dims/5467"
  op: "ExpandDims"
  input: "tensor_71_odule/model/6/fused_scaled_dot_product_attention/placeholder/0"
  attr {
    key: "Bundle_idx"
    value {
      s: "N/A"
    }
  }
  attr {
    key: "Exec_idx"
    value {
      s: "1"
    }
  }
  attr {
    key: "Op_idx"
    value {
      s: "N/A"
    }
  }
  attr {
    key: "inputTensor:0"
    value {
      s: "tensor_71_odule/model/6/fused_scaled_dot_product_attention/placeholder/0  |  Sizes = [128,128]  |  bf16  |  expBias = 0, scale = 1  |    |  ModelParam = 0  |  strides = [32768, 256, 2]  |  data = 0, sizeInBytes = 32768  |  isPersistent  |  userMemorySection(type=Persistent, id=28)  |  "
    }
  }
  attr {
    key: "outputTensor:0"
    value {
      s: "tensor_72_id_91089_module/model/6/fused_scaled_dot_product_attention/aten__unsqueeze  |  Sizes = [1,128,128]  |  bf16  |  expBias = 0, scale = 1  |    |  ModelParam = 0  |  strides = [32768, 32768, 256, 2]  |  data = 0, sizeInBytes = 32768  |  "
    }
  }
}
node {
  name: "module/model/6/fused_scaled_dot_product_attention/expand_dims/5468"
  op: "ExpandDims"
  input: "module/model/6/fused_scaled_dot_product_attention/expand_dims/5467"
  attr {
    key: "Bundle_idx"
    value {
      s: "N/A"
    }
  }
  attr {
    key: "Exec_idx"
    value {
      s: "2"
    }
  }
  attr {
    key: "Op_idx"
    value {
      s: "N/A"
    }
  }
  attr {
    key: "inputTensor:0"
    value {
      s: "tensor_72_id_91089_module/model/6/fused_scaled_dot_product_attention/aten__unsqueeze  |  Sizes = [1,128,128]  |  bf16  |  expBias = 0, scale = 1  |    |  ModelParam = 0  |  strides = [32768, 32768, 256, 2]  |  data = 0, sizeInBytes = 32768  |  "
    }
  }
  attr {
    key: "outputTensor:0"
    value {
      s: "tensor_73_id_91090_module/model/6/fused_scaled_dot_product_attention/aten__unsqueeze  |  Sizes = [1,1,128,128]  |  bf16  |  expBias = 0, scale = 1  |    |  ModelParam = 0  |  strides = [32768, 32768, 32768, 256, 2]  |  data = 0, sizeInBytes = 32768  |  "
    }
  }
}
node {
  name: "module/model/6/expand_dims/5477"
  op: "ExpandDims"
  input: "tensor_4_odule/model/6/placeholder/0"
  attr {
    key: "Bundle_idx"
    value {
      s: "N/A"
    }
  }
  attr {
    key: "Exec_idx"
    value {
      s: "3"
    }
  }
  attr {
    key: "Op_idx"
    value {
      s: "N/A"
    }
  }
  attr {
    key: "inputTensor:0"
    value {
      s: "tensor_4_odule/model/6/placeholder/0  |  Sizes = [128]  |  int32  |  expBias = 0, scale = 1  |    |  ModelParam = 0  |  strides = [512, 4]  |  data = 0, sizeInBytes = 512  |  isPersistent  |  userMemorySection(type=Persistent, id=5)  |  "
    }
  }
  attr {
    key: "outputTensor:0"
    value {
      s: "tensor_88_id_91088_module/model/6/aten__unsqueeze  |  Sizes = [1,128]  |  int32  |  expBias = 0, scale = 1  |    |  ModelParam = 0  |  strides = [512, 512, 4]  |  data = 0, sizeInBytes = 512  |  "
    }
  }
}
node {
  name: "tensor_21_odule/model/6/input_layernorm/placeholder/0"
  op: "Placeholder"
  attr {
    key: "dtype"
    value {
      type: DT_BFLOAT16
    }
  }
  attr {
    key: "shape"
    value {
      shape {
        dim {
          size: 4096
        }
        dim {
          size: 128
        }
        dim {
          size: 1
        }
        dim {
          size: 1
        }
        dim {
          size: 1
        }
      }
    }
  }
  attr {
    key: "synDataType"
    value {
      s: "bf16"
    }
  }
}
node {
  name: "tensor_22_odule/model/6/input_layernorm/placeholder/1"
  op: "Placeholder"
  attr {
    key: "dtype"
    value {
      type: DT_BFLOAT16
    }
  }
  attr {
    key: "shape"
    value {
      shape {
        dim {
          size: 4096
        }
        dim {
          size: 1
        }
        dim {
          size: 1
        }
        dim {
          size: 1
        }
        dim {
          size: 1
        }
      }
    }
  }
  attr {
    key: "synDataType"
    value {
      s: "bf16"
    }
  }
}
node {
  name: "module/model/6/input_layernorm/rms_norm_ex_fwd_bf16/5450"
  op: "rms_norm_ex_fwd_bf16"
  input: "tensor_21_odule/model/6/input_layernorm/placeholder/0"
  input: "tensor_22_odule/model/6/input_layernorm/placeholder/1"
  attr {
    key: "Bundle_idx"
    value {
      s: "N/A"
    }
  }
  attr {
    key: "Exec_idx"
    value {
      s: "4"
    }
  }
  attr {
    key: "Op_idx"
    value {
      s: "N/A"
    }
  }
  attr {
    key: "inputTensor:0"
    value {
      s: "tensor_21_odule/model/6/input_layernorm/placeholder/0  |  Sizes = [1,128,4096]  |  bf16  |  expBias = 0, scale = 1  |    |  ModelParam = 0  |  strides = [1048576, 1048576, 8192, 2]  |  data = 0, sizeInBytes = 1048576  |  isPersistent  |  userMemorySection(type=Persistent, id=9)  |  "
    }
  }
  attr {
    key: "inputTensor:1"
    value {
      s: "tensor_22_odule/model/6/input_layernorm/placeholder/1  |  Sizes = [4096]  |  bf16  |  expBias = 0, scale = 1  |    |  ModelParam = 0  |  strides = [8192, 2]  |  data = 0, sizeInBytes = 8192  |  isPersistent  |  userMemorySection(type=Persistent, id=10)  |  "
    }
  }
  attr {
    key: "outputTensor:0"
    value {
      s: "tensor_25  |  Sizes = [1,128,4096]  |  bf16  |  expBias = 0, scale = 1  |    |  ModelParam = 0  |  strides = [1048576, 1048576, 8192, 2]  |  data = 0, sizeInBytes = 1048576  |  "
    }
  }
  attr {
    key: "outputTensor:1"
    value {
      s: "tensor_26  |  Sizes = [1,128,1]  |  float32  |  expBias = 0, scale = 1  |    |  ModelParam = 0  |  strides = [512, 512, 4, 4]  |  data = 0, sizeInBytes = 512  |  "
    }
  }
}
node {
  name: "tensor_26"
  op: "OutputTensor"
  input: "module/model/6/input_layernorm/rms_norm_ex_fwd_bf16/5450"
  attr {
    key: "dtype"
    value {
      type: DT_FLOAT
    }
  }
  attr {
    key: "shape"
    value {
      shape {
        dim {
          size: 1
        }
        dim {
          size: 128
        }
        dim {
          size: 1
        }
        dim {
          size: 1
        }
        dim {
          size: 1
        }
      }
    }
  }
  attr {
    key: "synDataType"
    value {
      s: "float32"
    }
  }
}
node {
  name: "tensor_27_odule/model/6/k_proj/quant_input_0/placeholder/1"
  op: "Placeholder"
  attr {
    key: "dtype"
    value {
      type: DT_BFLOAT16
    }
  }
  attr {
    key: "shape"
    value {
      shape {
        dim {
          size: 1
        }
        dim {
          size: 1
        }
        dim {
          size: 1
        }
        dim {
          size: 1
        }
        dim {
          size: 1
        }
      }
    }
  }
  attr {
    key: "synDataType"
    value {
      s: "bf16"
    }
  }
}
node {
  name: "module/model/6/k_proj/quant_input_0/convert_to_fp8_bf16/5451"
  op: "convert_to_fp8_bf16"
  input: "module/model/6/input_layernorm/rms_norm_ex_fwd_bf16/5450"
  input: "tensor_27_odule/model/6/k_proj/quant_input_0/placeholder/1"
  attr {
    key: "Bundle_idx"
    value {
      s: "N/A"
    }
  }
  attr {
    key: "Exec_idx"
    value {
      s: "5"
    }
  }
  attr {
    key: "Op_idx"
    value {
      s: "N/A"
    }
  }
  attr {
    key: "inputTensor:0"
    value {
      s: "tensor_25  |  Sizes = [1,128,4096]  |  bf16  |  expBias = 0, scale = 1  |    |  ModelParam = 0  |  strides = [1048576, 1048576, 8192, 2]  |  data = 0, sizeInBytes = 1048576  |  "
    }
  }
  attr {
    key: "inputTensor:1"
    value {
      s: "tensor_27_odule/model/6/k_proj/quant_input_0/placeholder/1  |  Sizes = [1]  |  bf16  |  expBias = 0, scale = 1  |    |  ModelParam = 0  |  strides = [2, 2]  |  data = 0x56464b4f4c80, sizeInBytes = 2  |  buffer = 1  |  isPersistent  |  userMemorySection(type=Persistent, id=11)  |  isStaticParam  |  bufferDtype=bf16  |  "
    }
  }
  attr {
    key: "outputTensor:0"
    value {
      s: "tensor_30  |  Sizes = [1,128,4096]  |  hfloat8  |  expBias = 7, scale = 1  |    |  ModelParam = 0  |  strides = [524288, 524288, 4096, 1]  |  data = 0, sizeInBytes = 524288  |  "
    }
  }
}
node {
  name: "tensor_6_odule/model/6/rotary_emb/placeholder/0"
  op: "Placeholder"
  attr {
    key: "dtype"
    value {
      type: DT_BFLOAT16
    }
  }
  attr {
    key: "shape"
    value {
      shape {
        dim {
          size: 128
        }
        dim {
          size: 131072
        }
        dim {
          size: 1
        }
        dim {
          size: 1
        }
        dim {
          size: 1
        }
      }
    }
  }
  attr {
    key: "synDataType"
    value {
      s: "bf16"
    }
  }
}
node {
  name: "module/model/6/rotary_emb/slice/5438"
  op: "Slice"
  input: "tensor_6_odule/model/6/rotary_emb/placeholder/0"
  attr {
    key: "Bundle_idx"
    value {
      s: "N/A"
    }
  }
  attr {
    key: "Exec_idx"
    value {
      s: "6"
    }
  }
  attr {
    key: "Op_idx"
    value {
      s: "N/A"
    }
  }
  attr {
    key: "inputTensor:0"
    value {
      s: "tensor_6_odule/model/6/rotary_emb/placeholder/0  |  Sizes = [131072,128]  |  bf16  |  expBias = 0, scale = 1  |    |  ModelParam = 0  |  strides = [33554432, 256, 2]  |  data = 0, sizeInBytes = 33554432  |  isPersistent  |  userMemorySection(type=Persistent, id=6)  |  "
    }
  }
  attr {
    key: "outputTensor:0"
    value {
      s: "tensor_7_id_91151_module/model/6/rotary_emb/aten__slice  |  Sizes = [128,128]  |  bf16  |  expBias = 0, scale = 1  |    |  ModelParam = 0  |  strides = [32768, 256, 2]  |  data = 0, sizeInBytes = 32768  |  "
    }
  }
}
node {
  name: "tensor_8_odule/model/6/rotary_emb/placeholder/1"
  op: "Placeholder"
  attr {
    key: "dtype"
    value {
      type: DT_FLOAT
    }
  }
  attr {
    key: "shape"
    value {
      shape {
        dim {
          size: 1
        }
        dim {
          size: 1
        }
        dim {
          size: 1
        }
        dim {
          size: 1
        }
        dim {
          size: 1
        }
      }
    }
  }
  attr {
    key: "synDataType"
    value {
      s: "float32"
    }
  }
}
node {
  name: "module/model/6/rotary_emb/cast_f32_to_bf16/5439"
  op: "cast_f32_to_bf16"
  input: "tensor_8_odule/model/6/rotary_emb/placeholder/1"
  attr {
    key: "Bundle_idx"
    value {
      s: "N/A"
    }
  }
  attr {
    key: "Exec_idx"
    value {
      s: "7"
    }
  }
  attr {
    key: "Op_idx"
    value {
      s: "N/A"
    }
  }
  attr {
    key: "inputTensor:0"
    value {
      s: "tensor_8_odule/model/6/rotary_emb/placeholder/1  |  Sizes = [1]  |  float32  |  expBias = 0, scale = 1  |    |  ModelParam = 0  |  strides = [4, 4]  |  data = 0, sizeInBytes = 4  |  isPersistent  |  userMemorySection(type=Persistent, id=7)  |  "
    }
  }
  attr {
    key: "outputTensor:0"
    value {
      s: "tensor_10  |  Sizes = [1]  |  bf16  |  expBias = 0, scale = 1  |    |  ModelParam = 0  |  strides = [2, 2]  |  data = 0, sizeInBytes = 2  |  "
    }
  }
}
node {
  name: "tensor_14_odule/model/6/rotary_emb/placeholder/0"
  op: "Placeholder"
  attr {
    key: "dtype"
    value {
      type: DT_BFLOAT16
    }
  }
  attr {
    key: "shape"
    value {
      shape {
        dim {
          size: 128
        }
        dim {
          size: 131072
        }
        dim {
          size: 1
        }
        dim {
          size: 1
        }
        dim {
          size: 1
        }
      }
    }
  }
  attr {
    key: "synDataType"
    value {
      s: "bf16"
    }
  }
}
node {
  name: "module/model/6/rotary_emb/slice/5444"
  op: "Slice"
  input: "tensor_14_odule/model/6/rotary_emb/placeholder/0"
  attr {
    key: "Bundle_idx"
    value {
      s: "N/A"
    }
  }
  attr {
    key: "Exec_idx"
    value {
      s: "8"
    }
  }
  attr {
    key: "Op_idx"
    value {
      s: "N/A"
    }
  }
  attr {
    key: "inputTensor:0"
    value {
      s: "tensor_14_odule/model/6/rotary_emb/placeholder/0  |  Sizes = [131072,128]  |  bf16  |  expBias = 0, scale = 1  |    |  ModelParam = 0  |  strides = [33554432, 256, 2]  |  data = 0, sizeInBytes = 33554432  |  isPersistent  |  userMemorySection(type=Persistent, id=8)  |  "
    }
  }
  attr {
    key: "outputTensor:0"
    value {
      s: "tensor_15_id_91155_module/model/6/rotary_emb/aten__slice  |  Sizes = [128,128]  |  bf16  |  expBias = 0, scale = 1  |    |  ModelParam = 0  |  strides = [32768, 256, 2]  |  data = 0, sizeInBytes = 32768  |  "
    }
  }
}
node {
  name: "module/model/6/rotary_emb/cast_f32_to_bf16/5445"
  op: "cast_f32_to_bf16"
  input: "tensor_8_odule/model/6/rotary_emb/placeholder/1"
  attr {
    key: "Bundle_idx"
    value {
      s: "N/A"
    }
  }
  attr {
    key: "Exec_idx"
    value {
      s: "9"
    }
  }
  attr {
    key: "Op_idx"
    value {
      s: "N/A"
    }
  }
  attr {
    key: "inputTensor:0"
    value {
      s: "tensor_8_odule/model/6/rotary_emb/placeholder/1  |  Sizes = [1]  |  float32  |  expBias = 0, scale = 1  |    |  ModelParam = 0  |  strides = [4, 4]  |  data = 0, sizeInBytes = 4  |  isPersistent  |  userMemorySection(type=Persistent, id=7)  |  "
    }
  }
  attr {
    key: "outputTensor:0"
    value {
      s: "tensor_17  |  Sizes = [1]  |  bf16  |  expBias = 0, scale = 1  |    |  ModelParam = 0  |  strides = [2, 2]  |  data = 0, sizeInBytes = 2  |  "
    }
  }
}
node {
  name: "tensor_31_odule/model/6/k_proj/placeholder/1"
  op: "Placeholder"
  attr {
    key: "dtype"
    value {
      type: DT_INVALID
    }
  }
  attr {
    key: "shape"
    value {
      shape {
        dim {
          size: 1024
        }
        dim {
          size: 4096
        }
        dim {
          size: 1
        }
        dim {
          size: 1
        }
        dim {
          size: 1
        }
      }
    }
  }
  attr {
    key: "synDataType"
    value {
      s: "hfloat8"
    }
  }
}
node {
  name: "tensor_32_odule/model/6/k_proj/placeholder/2"
  op: "Placeholder"
  attr {
    key: "dtype"
    value {
      type: DT_BFLOAT16
    }
  }
  attr {
    key: "shape"
    value {
      shape {
        dim {
          size: 1
        }
        dim {
          size: 1
        }
        dim {
          size: 1
        }
        dim {
          size: 1
        }
        dim {
          size: 1
        }
      }
    }
  }
  attr {
    key: "synDataType"
    value {
      s: "bf16"
    }
  }
}
node {
  name: "tensor_33_odule/model/6/k_proj/placeholder/3"
  op: "Placeholder"
  attr {
    key: "dtype"
    value {
      type: DT_BFLOAT16
    }
  }
  attr {
    key: "shape"
    value {
      shape {
        dim {
          size: 1
        }
        dim {
          size: 1
        }
        dim {
          size: 1
        }
        dim {
          size: 1
        }
        dim {
          size: 1
        }
      }
    }
  }
  attr {
    key: "synDataType"
    value {
      s: "bf16"
    }
  }
}
node {
  name: "module/model/6/k_proj/fp8_gemm_bf16/5452"
  op: "fp8_gemm_bf16"
  input: "module/model/6/k_proj/quant_input_0/convert_to_fp8_bf16/5451"
  input: "tensor_31_odule/model/6/k_proj/placeholder/1"
  input: "tensor_32_odule/model/6/k_proj/placeholder/2"
  input: "tensor_33_odule/model/6/k_proj/placeholder/3"
  input: "unused_port"
  input: "unused_port"
  input: "unused_port"
  attr {
    key: "Bundle_idx"
    value {
      s: "N/A"
    }
  }
  attr {
    key: "Exec_idx"
    value {
      s: "10"
    }
  }
  attr {
    key: "Op_idx"
    value {
      s: "N/A"
    }
  }
  attr {
    key: "inputTensor:0"
    value {
      s: "tensor_30  |  Sizes = [1,128,4096]  |  hfloat8  |  expBias = 7, scale = 1  |    |  ModelParam = 0  |  strides = [524288, 524288, 4096, 1]  |  data = 0, sizeInBytes = 524288  |  "
    }
  }
  attr {
    key: "inputTensor:1"
    value {
      s: "tensor_31_odule/model/6/k_proj/placeholder/1  |  Sizes = [4096,1024]  |  hfloat8  |  expBias = 7, scale = 1  |    |  ModelParam = 0  |  strides = [4194304, 1024, 1]  |  data = 0, sizeInBytes = 4194304  |  isPersistent  |  userMemorySection(type=Persistent, id=12)  |  "
    }
  }
  attr {
    key: "inputTensor:2"
    value {
      s: "tensor_32_odule/model/6/k_proj/placeholder/2  |  Sizes = [1]  |  bf16  |  expBias = 0, scale = 1  |    |  ModelParam = 0  |  strides = [2, 2]  |  data = 0x56464ad0a9a0, sizeInBytes = 2  |  buffer = 1  |  isPersistent  |  userMemorySection(type=Persistent, id=13)  |  isStaticParam  |  bufferDtype=bf16  |  "
    }
  }
  attr {
    key: "inputTensor:3"
    value {
      s: "tensor_33_odule/model/6/k_proj/placeholder/3  |  Sizes = [1]  |  bf16  |  expBias = 0, scale = 1  |    |  ModelParam = 0  |  strides = [2, 2]  |  data = 0x56464e4634a8, sizeInBytes = 2  |  buffer = 0.00390625  |  isPersistent  |  userMemorySection(type=Persistent, id=14)  |  isStaticParam  |  bufferDtype=bf16  |  "
    }
  }
  attr {
    key: "outputTensor:0"
    value {
      s: "tensor_35  |  Sizes = [1,128,1024]  |  bf16  |  expBias = 0, scale = 1  |    |  ModelParam = 0  |  strides = [262144, 262144, 2048, 2]  |  data = 0, sizeInBytes = 262144  |  "
    }
  }
}
node {
  name: "module/model/6/reshape/5453"
  op: "Reshape"
  input: "module/model/6/k_proj/fp8_gemm_bf16/5452"
  attr {
    key: "Bundle_idx"
    value {
      s: "N/A"
    }
  }
  attr {
    key: "Exec_idx"
    value {
      s: "11"
    }
  }
  attr {
    key: "Op_idx"
    value {
      s: "N/A"
    }
  }
  attr {
    key: "inputTensor:0"
    value {
      s: "tensor_35  |  Sizes = [1,128,1024]  |  bf16  |  expBias = 0, scale = 1  |    |  ModelParam = 0  |  strides = [262144, 262144, 2048, 2]  |  data = 0, sizeInBytes = 262144  |  "
    }
  }
  attr {
    key: "outputTensor:0"
    value {
      s: "tensor_36_id_91143_module/model/6/aten__view  |  Sizes = [1,128,8,128]  |  bf16  |  expBias = 0, scale = 1  |    |  ModelParam = 0  |  strides = [262144, 262144, 2048, 256, 2]  |  data = 0, sizeInBytes = 262144  |  "
    }
  }
}
node {
  name: "tensor_52_odule/model/6/v_proj/quant_input_0/placeholder/1"
  op: "Placeholder"
  attr {
    key: "dtype"
    value {
      type: DT_BFLOAT16
    }
  }
  attr {
    key: "shape"
    value {
      shape {
        dim {
          size: 1
        }
        dim {
          size: 1
        }
        dim {
          size: 1
        }
        dim {
          size: 1
        }
        dim {
          size: 1
        }
      }
    }
  }
  attr {
    key: "synDataType"
    value {
      s: "bf16"
    }
  }
}
node {
  name: "module/model/6/v_proj/quant_input_0/convert_to_fp8_bf16/5460"
  op: "convert_to_fp8_bf16"
  input: "module/model/6/input_layernorm/rms_norm_ex_fwd_bf16/5450"
  input: "tensor_52_odule/model/6/v_proj/quant_input_0/placeholder/1"
  attr {
    key: "Bundle_idx"
    value {
      s: "N/A"
    }
  }
  attr {
    key: "Exec_idx"
    value {
      s: "12"
    }
  }
  attr {
    key: "Op_idx"
    value {
      s: "N/A"
    }
  }
  attr {
    key: "inputTensor:0"
    value {
      s: "tensor_25  |  Sizes = [1,128,4096]  |  bf16  |  expBias = 0, scale = 1  |    |  ModelParam = 0  |  strides = [1048576, 1048576, 8192, 2]  |  data = 0, sizeInBytes = 1048576  |  "
    }
  }
  attr {
    key: "inputTensor:1"
    value {
      s: "tensor_52_odule/model/6/v_proj/quant_input_0/placeholder/1  |  Sizes = [1]  |  bf16  |  expBias = 0, scale = 1  |    |  ModelParam = 0  |  strides = [2, 2]  |  data = 0x56472f8e3678, sizeInBytes = 2  |  buffer = 1  |  isPersistent  |  userMemorySection(type=Persistent, id=20)  |  isStaticParam  |  bufferDtype=bf16  |  "
    }
  }
  attr {
    key: "outputTensor:0"
    value {
      s: "tensor_55  |  Sizes = [1,128,4096]  |  hfloat8  |  expBias = 7, scale = 1  |    |  ModelParam = 0  |  strides = [524288, 524288, 4096, 1]  |  data = 0, sizeInBytes = 524288  |  "
    }
  }
}
node {
  name: "module/model/6/rotary_emb/mult_fwd_bf16/5440"
  op: "mult_fwd_bf16"
  input: "module/model/6/rotary_emb/slice/5438"
  input: "module/model/6/rotary_emb/cast_f32_to_bf16/5439"
  attr {
    key: "Bundle_idx"
    value {
      s: "N/A"
    }
  }
  attr {
    key: "Exec_idx"
    value {
      s: "13"
    }
  }
  attr {
    key: "Op_idx"
    value {
      s: "N/A"
    }
  }
  attr {
    key: "inputTensor:0"
    value {
      s: "tensor_7_id_91151_module/model/6/rotary_emb/aten__slice  |  Sizes = [128,128]  |  bf16  |  expBias = 0, scale = 1  |    |  ModelParam = 0  |  strides = [32768, 256, 2]  |  data = 0, sizeInBytes = 32768  |  "
    }
  }
  attr {
    key: "inputTensor:1"
    value {
      s: "tensor_10  |  Sizes = [1]  |  bf16  |  expBias = 0, scale = 1  |    |  ModelParam = 0  |  strides = [2, 2]  |  data = 0, sizeInBytes = 2  |  "
    }
  }
  attr {
    key: "outputTensor:0"
    value {
      s: "tensor_9_id_91153_module/model/6/rotary_emb/aten__mul  |  Sizes = [128,128]  |  bf16  |  expBias = 0, scale = 1  |    |  ModelParam = 0  |  strides = [32768, 256, 2]  |  data = 0, sizeInBytes = 32768  |  "
    }
  }
}
node {
  name: "module/model/6/expand_dims/5441"
  op: "ExpandDims"
  input: "module/model/6/rotary_emb/mult_fwd_bf16/5440"
  attr {
    key: "Bundle_idx"
    value {
      s: "N/A"
    }
  }
  attr {
    key: "Exec_idx"
    value {
      s: "14"
    }
  }
  attr {
    key: "Op_idx"
    value {
      s: "N/A"
    }
  }
  attr {
    key: "inputTensor:0"
    value {
      s: "tensor_9_id_91153_module/model/6/rotary_emb/aten__mul  |  Sizes = [128,128]  |  bf16  |  expBias = 0, scale = 1  |    |  ModelParam = 0  |  strides = [32768, 256, 2]  |  data = 0, sizeInBytes = 32768  |  "
    }
  }
  attr {
    key: "outputTensor:0"
    value {
      s: "tensor_11_id_91175_module/model/6/aten__unsqueeze  |  Sizes = [1,128,128]  |  bf16  |  expBias = 0, scale = 1  |    |  ModelParam = 0  |  strides = [32768, 32768, 256, 2]  |  data = 0, sizeInBytes = 32768  |  "
    }
  }
}
node {
  name: "module/model/6/expand_dims/5442"
  op: "ExpandDims"
  input: "module/model/6/expand_dims/5441"
  attr {
    key: "Bundle_idx"
    value {
      s: "N/A"
    }
  }
  attr {
    key: "Exec_idx"
    value {
      s: "15"
    }
  }
  attr {
    key: "Op_idx"
    value {
      s: "N/A"
    }
  }
  attr {
    key: "inputTensor:0"
    value {
      s: "tensor_11_id_91175_module/model/6/aten__unsqueeze  |  Sizes = [1,128,128]  |  bf16  |  expBias = 0, scale = 1  |    |  ModelParam = 0  |  strides = [32768, 32768, 256, 2]  |  data = 0, sizeInBytes = 32768  |  "
    }
  }
  attr {
    key: "outputTensor:0"
    value {
      s: "tensor_12_id_91177_module/model/6/aten__unsqueeze  |  Sizes = [1,1,128,128]  |  bf16  |  expBias = 0, scale = 1  |    |  ModelParam = 0  |  strides = [32768, 32768, 32768, 256, 2]  |  data = 0, sizeInBytes = 32768  |  "
    }
  }
}
node {
  name: "module/model/6/identity/5443"
  op: "Identity"
  input: "module/model/6/expand_dims/5442"
  attr {
    key: "Bundle_idx"
    value {
      s: "N/A"
    }
  }
  attr {
    key: "Exec_idx"
    value {
      s: "16"
    }
  }
  attr {
    key: "Op_idx"
    value {
      s: "N/A"
    }
  }
  attr {
    key: "inputTensor:0"
    value {
      s: "tensor_12_id_91177_module/model/6/aten__unsqueeze  |  Sizes = [1,1,128,128]  |  bf16  |  expBias = 0, scale = 1  |    |  ModelParam = 0  |  strides = [32768, 32768, 32768, 256, 2]  |  data = 0, sizeInBytes = 32768  |  "
    }
  }
  attr {
    key: "outputTensor:0"
    value {
      s: "tensor_13_id_91179_module/model/6/aten__clone  |  Sizes = [1,1,128,128]  |  bf16  |  expBias = 0, scale = 1  |    |  ModelParam = 0  |  strides = [32768, 32768, 32768, 256, 2]  |  data = 0, sizeInBytes = 32768  |  "
    }
  }
}
node {
  name: "module/model/6/rotary_emb/mult_fwd_bf16/5446"
  op: "mult_fwd_bf16"
  input: "module/model/6/rotary_emb/slice/5444"
  input: "module/model/6/rotary_emb/cast_f32_to_bf16/5445"
  attr {
    key: "Bundle_idx"
    value {
      s: "N/A"
    }
  }
  attr {
    key: "Exec_idx"
    value {
      s: "17"
    }
  }
  attr {
    key: "Op_idx"
    value {
      s: "N/A"
    }
  }
  attr {
    key: "inputTensor:0"
    value {
      s: "tensor_15_id_91155_module/model/6/rotary_emb/aten__slice  |  Sizes = [128,128]  |  bf16  |  expBias = 0, scale = 1  |    |  ModelParam = 0  |  strides = [32768, 256, 2]  |  data = 0, sizeInBytes = 32768  |  "
    }
  }
  attr {
    key: "inputTensor:1"
    value {
      s: "tensor_17  |  Sizes = [1]  |  bf16  |  expBias = 0, scale = 1  |    |  ModelParam = 0  |  strides = [2, 2]  |  data = 0, sizeInBytes = 2  |  "
    }
  }
  attr {
    key: "outputTensor:0"
    value {
      s: "tensor_16_id_91157_module/model/6/rotary_emb/aten__mul  |  Sizes = [128,128]  |  bf16  |  expBias = 0, scale = 1  |    |  ModelParam = 0  |  strides = [32768, 256, 2]  |  data = 0, sizeInBytes = 32768  |  "
    }
  }
}
node {
  name: "module/model/6/expand_dims/5447"
  op: "ExpandDims"
  input: "module/model/6/rotary_emb/mult_fwd_bf16/5446"
  attr {
    key: "Bundle_idx"
    value {
      s: "N/A"
    }
  }
  attr {
    key: "Exec_idx"
    value {
      s: "18"
    }
  }
  attr {
    key: "Op_idx"
    value {
      s: "N/A"
    }
  }
  attr {
    key: "inputTensor:0"
    value {
      s: "tensor_16_id_91157_module/model/6/rotary_emb/aten__mul  |  Sizes = [128,128]  |  bf16  |  expBias = 0, scale = 1  |    |  ModelParam = 0  |  strides = [32768, 256, 2]  |  data = 0, sizeInBytes = 32768  |  "
    }
  }
  attr {
    key: "outputTensor:0"
    value {
      s: "tensor_18_id_91181_module/model/6/aten__unsqueeze  |  Sizes = [1,128,128]  |  bf16  |  expBias = 0, scale = 1  |    |  ModelParam = 0  |  strides = [32768, 32768, 256, 2]  |  data = 0, sizeInBytes = 32768  |  "
    }
  }
}
node {
  name: "module/model/6/expand_dims/5448"
  op: "ExpandDims"
  input: "module/model/6/expand_dims/5447"
  attr {
    key: "Bundle_idx"
    value {
      s: "N/A"
    }
  }
  attr {
    key: "Exec_idx"
    value {
      s: "19"
    }
  }
  attr {
    key: "Op_idx"
    value {
      s: "N/A"
    }
  }
  attr {
    key: "inputTensor:0"
    value {
      s: "tensor_18_id_91181_module/model/6/aten__unsqueeze  |  Sizes = [1,128,128]  |  bf16  |  expBias = 0, scale = 1  |    |  ModelParam = 0  |  strides = [32768, 32768, 256, 2]  |  data = 0, sizeInBytes = 32768  |  "
    }
  }
  attr {
    key: "outputTensor:0"
    value {
      s: "tensor_19_id_91183_module/model/6/aten__unsqueeze  |  Sizes = [1,1,128,128]  |  bf16  |  expBias = 0, scale = 1  |    |  ModelParam = 0  |  strides = [32768, 32768, 32768, 256, 2]  |  data = 0, sizeInBytes = 32768  |  "
    }
  }
}
node {
  name: "module/model/6/identity/5449"
  op: "Identity"
  input: "module/model/6/expand_dims/5448"
  attr {
    key: "Bundle_idx"
    value {
      s: "N/A"
    }
  }
  attr {
    key: "Exec_idx"
    value {
      s: "20"
    }
  }
  attr {
    key: "Op_idx"
    value {
      s: "N/A"
    }
  }
  attr {
    key: "inputTensor:0"
    value {
      s: "tensor_19_id_91183_module/model/6/aten__unsqueeze  |  Sizes = [1,1,128,128]  |  bf16  |  expBias = 0, scale = 1  |    |  ModelParam = 0  |  strides = [32768, 32768, 32768, 256, 2]  |  data = 0, sizeInBytes = 32768  |  "
    }
  }
  attr {
    key: "outputTensor:0"
    value {
      s: "tensor_20_id_91185_module/model/6/aten__clone  |  Sizes = [1,1,128,128]  |  bf16  |  expBias = 0, scale = 1  |    |  ModelParam = 0  |  strides = [32768, 32768, 32768, 256, 2]  |  data = 0, sizeInBytes = 32768  |  "
    }
  }
}
node {
  name: "module/model/6/transpose/5454"
  op: "Transpose"
  input: "module/model/6/reshape/5453"
  attr {
    key: "Bundle_idx"
    value {
      s: "N/A"
    }
  }
  attr {
    key: "Exec_idx"
    value {
      s: "21"
    }
  }
  attr {
    key: "Op_idx"
    value {
      s: "N/A"
    }
  }
  attr {
    key: "Parameters"
    value {
      s: "permutation: (0,2,1,3)"
    }
  }
  attr {
    key: "inputTensor:0"
    value {
      s: "tensor_36_id_91143_module/model/6/aten__view  |  Sizes = [1,128,8,128]  |  bf16  |  expBias = 0, scale = 1  |    |  ModelParam = 0  |  strides = [262144, 262144, 2048, 256, 2]  |  data = 0, sizeInBytes = 262144  |  "
    }
  }
  attr {
    key: "outputTensor:0"
    value {
      s: "tensor_37_id_91145_module/model/6/aten__transpose  |  Sizes = [1,8,128,128]  |  bf16  |  expBias = 0, scale = 1  |    |  ModelParam = 0  |  strides = [262144, 262144, 32768, 256, 2]  |  data = 0, sizeInBytes = 262144  |  "
    }
  }
}
node {
  name: "tensor_56_odule/model/6/v_proj/placeholder/1"
  op: "Placeholder"
  attr {
    key: "dtype"
    value {
      type: DT_INVALID
    }
  }
  attr {
    key: "shape"
    value {
      shape {
        dim {
          size: 1024
        }
        dim {
          size: 4096
        }
        dim {
          size: 1
        }
        dim {
          size: 1
        }
        dim {
          size: 1
        }
      }
    }
  }
  attr {
    key: "synDataType"
    value {
      s: "hfloat8"
    }
  }
}
node {
  name: "tensor_57_odule/model/6/v_proj/placeholder/2"
  op: "Placeholder"
  attr {
    key: "dtype"
    value {
      type: DT_BFLOAT16
    }
  }
  attr {
    key: "shape"
    value {
      shape {
        dim {
          size: 1
        }
        dim {
          size: 1
        }
        dim {
          size: 1
        }
        dim {
          size: 1
        }
        dim {
          size: 1
        }
      }
    }
  }
  attr {
    key: "synDataType"
    value {
      s: "bf16"
    }
  }
}
node {
  name: "tensor_58_odule/model/6/v_proj/placeholder/3"
  op: "Placeholder"
  attr {
    key: "dtype"
    value {
      type: DT_BFLOAT16
    }
  }
  attr {
    key: "shape"
    value {
      shape {
        dim {
          size: 1
        }
        dim {
          size: 1
        }
        dim {
          size: 1
        }
        dim {
          size: 1
        }
        dim {
          size: 1
        }
      }
    }
  }
  attr {
    key: "synDataType"
    value {
      s: "bf16"
    }
  }
}
node {
  name: "module/model/6/v_proj/fp8_gemm_bf16/5461"
  op: "fp8_gemm_bf16"
  input: "module/model/6/v_proj/quant_input_0/convert_to_fp8_bf16/5460"
  input: "tensor_56_odule/model/6/v_proj/placeholder/1"
  input: "tensor_57_odule/model/6/v_proj/placeholder/2"
  input: "tensor_58_odule/model/6/v_proj/placeholder/3"
  input: "unused_port"
  input: "unused_port"
  input: "unused_port"
  attr {
    key: "Bundle_idx"
    value {
      s: "N/A"
    }
  }
  attr {
    key: "Exec_idx"
    value {
      s: "22"
    }
  }
  attr {
    key: "Op_idx"
    value {
      s: "N/A"
    }
  }
  attr {
    key: "inputTensor:0"
    value {
      s: "tensor_55  |  Sizes = [1,128,4096]  |  hfloat8  |  expBias = 7, scale = 1  |    |  ModelParam = 0  |  strides = [524288, 524288, 4096, 1]  |  data = 0, sizeInBytes = 524288  |  "
    }
  }
  attr {
    key: "inputTensor:1"
    value {
      s: "tensor_56_odule/model/6/v_proj/placeholder/1  |  Sizes = [4096,1024]  |  hfloat8  |  expBias = 7, scale = 1  |    |  ModelParam = 0  |  strides = [4194304, 1024, 1]  |  data = 0, sizeInBytes = 4194304  |  isPersistent  |  userMemorySection(type=Persistent, id=21)  |  "
    }
  }
  attr {
    key: "inputTensor:2"
    value {
      s: "tensor_57_odule/model/6/v_proj/placeholder/2  |  Sizes = [1]  |  bf16  |  expBias = 0, scale = 1  |    |  ModelParam = 0  |  strides = [2, 2]  |  data = 0x56472f8e3730, sizeInBytes = 2  |  buffer = 1  |  isPersistent  |  userMemorySection(type=Persistent, id=22)  |  isStaticParam  |  bufferDtype=bf16  |  "
    }
  }
  attr {
    key: "inputTensor:3"
    value {
      s: "tensor_58_odule/model/6/v_proj/placeholder/3  |  Sizes = [1]  |  bf16  |  expBias = 0, scale = 1  |    |  ModelParam = 0  |  strides = [2, 2]  |  data = 0x56464bd07b60, sizeInBytes = 2  |  buffer = 0.00390625  |  isPersistent  |  userMemorySection(type=Persistent, id=23)  |  isStaticParam  |  bufferDtype=bf16  |  "
    }
  }
  attr {
    key: "outputTensor:0"
    value {
      s: "tensor_60  |  Sizes = [1,128,1024]  |  bf16  |  expBias = 0, scale = 1  |    |  ModelParam = 0  |  strides = [262144, 262144, 2048, 2]  |  data = 0, sizeInBytes = 262144  |  "
    }
  }
}
node {
  name: "module/model/6/quant_input_0/reshape/5462"
  op: "Reshape"
  input: "module/model/6/v_proj/fp8_gemm_bf16/5461"
  attr {
    key: "Bundle_idx"
    value {
      s: "N/A"
    }
  }
  attr {
    key: "Exec_idx"
    value {
      s: "23"
    }
  }
  attr {
    key: "Op_idx"
    value {
      s: "N/A"
    }
  }
  attr {
    key: "inputTensor:0"
    value {
      s: "tensor_60  |  Sizes = [1,128,1024]  |  bf16  |  expBias = 0, scale = 1  |    |  ModelParam = 0  |  strides = [262144, 262144, 2048, 2]  |  data = 0, sizeInBytes = 262144  |  "
    }
  }
  attr {
    key: "outputTensor:0"
    value {
      s: "tensor_61_id_91147_module/model/6/quant_input_0/aten__view  |  Sizes = [1,128,8,128]  |  bf16  |  expBias = 0, scale = 1  |    |  ModelParam = 0  |  strides = [262144, 262144, 2048, 256, 2]  |  data = 0, sizeInBytes = 262144  |  "
    }
  }
}
node {
  name: "tensor_89_odule/model/6/q_proj/quant_input_0/placeholder/1"
  op: "Placeholder"
  attr {
    key: "dtype"
    value {
      type: DT_BFLOAT16
    }
  }
  attr {
    key: "shape"
    value {
      shape {
        dim {
          size: 1
        }
        dim {
          size: 1
        }
        dim {
          size: 1
        }
        dim {
          size: 1
        }
        dim {
          size: 1
        }
      }
    }
  }
  attr {
    key: "synDataType"
    value {
      s: "bf16"
    }
  }
}
node {
  name: "module/model/6/q_proj/quant_input_0/convert_to_fp8_bf16/5478"
  op: "convert_to_fp8_bf16"
  input: "module/model/6/input_layernorm/rms_norm_ex_fwd_bf16/5450"
  input: "tensor_89_odule/model/6/q_proj/quant_input_0/placeholder/1"
  attr {
    key: "Bundle_idx"
    value {
      s: "N/A"
    }
  }
  attr {
    key: "Exec_idx"
    value {
      s: "24"
    }
  }
  attr {
    key: "Op_idx"
    value {
      s: "N/A"
    }
  }
  attr {
    key: "inputTensor:0"
    value {
      s: "tensor_25  |  Sizes = [1,128,4096]  |  bf16  |  expBias = 0, scale = 1  |    |  ModelParam = 0  |  strides = [1048576, 1048576, 8192, 2]  |  data = 0, sizeInBytes = 1048576  |  "
    }
  }
  attr {
    key: "inputTensor:1"
    value {
      s: "tensor_89_odule/model/6/q_proj/quant_input_0/placeholder/1  |  Sizes = [1]  |  bf16  |  expBias = 0, scale = 1  |    |  ModelParam = 0  |  strides = [2, 2]  |  data = 0x56464ba550e8, sizeInBytes = 2  |  buffer = 1  |  isPersistent  |  userMemorySection(type=Persistent, id=31)  |  isStaticParam  |  bufferDtype=bf16  |  "
    }
  }
  attr {
    key: "outputTensor:0"
    value {
      s: "tensor_92  |  Sizes = [1,128,4096]  |  hfloat8  |  expBias = 7, scale = 1  |    |  ModelParam = 0  |  strides = [524288, 524288, 4096, 1]  |  data = 0, sizeInBytes = 524288  |  "
    }
  }
}
node {
  name: "module/model/6/rotary_pos_embedding_fwd_bf16/5455"
  op: "rotary_pos_embedding_fwd_bf16"
  input: "module/model/6/transpose/5454"
  input: "module/model/6/identity/5449"
  input: "module/model/6/identity/5443"
  input: "module/model/6/expand_dims/5437"
  attr {
    key: "Bundle_idx"
    value {
      s: "N/A"
    }
  }
  attr {
    key: "Exec_idx"
    value {
      s: "25"
    }
  }
  attr {
    key: "Op_idx"
    value {
      s: "N/A"
    }
  }
  attr {
    key: "inputTensor:0"
    value {
      s: "tensor_37_id_91145_module/model/6/aten__transpose  |  Sizes = [1,8,128,128]  |  bf16  |  expBias = 0, scale = 1  |    |  ModelParam = 0  |  strides = [262144, 262144, 32768, 256, 2]  |  data = 0, sizeInBytes = 262144  |  "
    }
  }
  attr {
    key: "inputTensor:1"
    value {
      s: "tensor_20_id_91185_module/model/6/aten__clone  |  Sizes = [1,1,128,128]  |  bf16  |  expBias = 0, scale = 1  |    |  ModelParam = 0  |  strides = [32768, 32768, 32768, 256, 2]  |  data = 0, sizeInBytes = 32768  |  "
    }
  }
  attr {
    key: "inputTensor:2"
    value {
      s: "tensor_13_id_91179_module/model/6/aten__clone  |  Sizes = [1,1,128,128]  |  bf16  |  expBias = 0, scale = 1  |    |  ModelParam = 0  |  strides = [32768, 32768, 32768, 256, 2]  |  data = 0, sizeInBytes = 32768  |  "
    }
  }
  attr {
    key: "inputTensor:3"
    value {
      s: "tensor_5_id_91088_module/model/6/aten__unsqueeze/1  |  Sizes = [1,128]  |  int32  |  expBias = 0, scale = 1  |    |  ModelParam = 0  |  strides = [512, 512, 4]  |  data = 0, sizeInBytes = 512  |  "
    }
  }
  attr {
    key: "outputTensor:0"
    value {
      s: "tensor_39  |  Sizes = [1,8,128,128]  |  bf16  |  expBias = 0, scale = 1  |    |  ModelParam = 0  |  strides = [262144, 262144, 32768, 256, 2]  |  data = 0, sizeInBytes = 262144  |  "
    }
  }
}
node {
  name: "module/model/6/quant_input_0/transpose/5463"
  op: "Transpose"
  input: "module/model/6/quant_input_0/reshape/5462"
  attr {
    key: "Bundle_idx"
    value {
      s: "N/A"
    }
  }
  attr {
    key: "Exec_idx"
    value {
      s: "26"
    }
  }
  attr {
    key: "Op_idx"
    value {
      s: "N/A"
    }
  }
  attr {
    key: "Parameters"
    value {
      s: "permutation: (0,2,1,3)"
    }
  }
  attr {
    key: "inputTensor:0"
    value {
      s: "tensor_61_id_91147_module/model/6/quant_input_0/aten__view  |  Sizes = [1,128,8,128]  |  bf16  |  expBias = 0, scale = 1  |    |  ModelParam = 0  |  strides = [262144, 262144, 2048, 256, 2]  |  data = 0, sizeInBytes = 262144  |  "
    }
  }
  attr {
    key: "outputTensor:0"
    value {
      s: "tensor_62_id_91149_module/model/6/quant_input_0/aten__transpose  |  Sizes = [1,8,128,128]  |  bf16  |  expBias = 0, scale = 1  |    |  ModelParam = 0  |  strides = [262144, 262144, 32768, 256, 2]  |  data = 0, sizeInBytes = 262144  |  "
    }
  }
}
node {
  name: "tensor_93_odule/model/6/q_proj/placeholder/1"
  op: "Placeholder"
  attr {
    key: "dtype"
    value {
      type: DT_INVALID
    }
  }
  attr {
    key: "shape"
    value {
      shape {
        dim {
          size: 4096
        }
        dim {
          size: 4096
        }
        dim {
          size: 1
        }
        dim {
          size: 1
        }
        dim {
          size: 1
        }
      }
    }
  }
  attr {
    key: "synDataType"
    value {
      s: "hfloat8"
    }
  }
}
node {
  name: "tensor_94_odule/model/6/q_proj/placeholder/2"
  op: "Placeholder"
  attr {
    key: "dtype"
    value {
      type: DT_BFLOAT16
    }
  }
  attr {
    key: "shape"
    value {
      shape {
        dim {
          size: 1
        }
        dim {
          size: 1
        }
        dim {
          size: 1
        }
        dim {
          size: 1
        }
        dim {
          size: 1
        }
      }
    }
  }
  attr {
    key: "synDataType"
    value {
      s: "bf16"
    }
  }
}
node {
  name: "tensor_95_odule/model/6/q_proj/placeholder/3"
  op: "Placeholder"
  attr {
    key: "dtype"
    value {
      type: DT_BFLOAT16
    }
  }
  attr {
    key: "shape"
    value {
      shape {
        dim {
          size: 1
        }
        dim {
          size: 1
        }
        dim {
          size: 1
        }
        dim {
          size: 1
        }
        dim {
          size: 1
        }
      }
    }
  }
  attr {
    key: "synDataType"
    value {
      s: "bf16"
    }
  }
}
node {
  name: "module/model/6/q_proj/fp8_gemm_bf16/5479"
  op: "fp8_gemm_bf16"
  input: "module/model/6/q_proj/quant_input_0/convert_to_fp8_bf16/5478"
  input: "tensor_93_odule/model/6/q_proj/placeholder/1"
  input: "tensor_94_odule/model/6/q_proj/placeholder/2"
  input: "tensor_95_odule/model/6/q_proj/placeholder/3"
  input: "unused_port"
  input: "unused_port"
  input: "unused_port"
  attr {
    key: "Bundle_idx"
    value {
      s: "N/A"
    }
  }
  attr {
    key: "Exec_idx"
    value {
      s: "27"
    }
  }
  attr {
    key: "Op_idx"
    value {
      s: "N/A"
    }
  }
  attr {
    key: "inputTensor:0"
    value {
      s: "tensor_92  |  Sizes = [1,128,4096]  |  hfloat8  |  expBias = 7, scale = 1  |    |  ModelParam = 0  |  strides = [524288, 524288, 4096, 1]  |  data = 0, sizeInBytes = 524288  |  "
    }
  }
  attr {
    key: "inputTensor:1"
    value {
      s: "tensor_93_odule/model/6/q_proj/placeholder/1  |  Sizes = [4096,4096]  |  hfloat8  |  expBias = 7, scale = 1  |    |  ModelParam = 0  |  strides = [16777216, 4096, 1]  |  data = 0, sizeInBytes = 16777216  |  isPersistent  |  userMemorySection(type=Persistent, id=32)  |  "
    }
  }
  attr {
    key: "inputTensor:2"
    value {
      s: "tensor_94_odule/model/6/q_proj/placeholder/2  |  Sizes = [1]  |  bf16  |  expBias = 0, scale = 1  |    |  ModelParam = 0  |  strides = [2, 2]  |  data = 0x56464be83940, sizeInBytes = 2  |  buffer = 1  |  isPersistent  |  userMemorySection(type=Persistent, id=33)  |  isStaticParam  |  bufferDtype=bf16  |  "
    }
  }
  attr {
    key: "inputTensor:3"
    value {
      s: "tensor_95_odule/model/6/q_proj/placeholder/3  |  Sizes = [1]  |  bf16  |  expBias = 0, scale = 1  |    |  ModelParam = 0  |  strides = [2, 2]  |  data = 0x56464ca56820, sizeInBytes = 2  |  buffer = 0.00390625  |  isPersistent  |  userMemorySection(type=Persistent, id=34)  |  isStaticParam  |  bufferDtype=bf16  |  "
    }
  }
  attr {
    key: "outputTensor:0"
    value {
      s: "tensor_97  |  Sizes = [1,128,4096]  |  bf16  |  expBias = 0, scale = 1  |    |  ModelParam = 0  |  strides = [1048576, 1048576, 8192, 2]  |  data = 0, sizeInBytes = 1048576  |  "
    }
  }
}
node {
  name: "module/model/6/reshape/5480"
  op: "Reshape"
  input: "module/model/6/q_proj/fp8_gemm_bf16/5479"
  attr {
    key: "Bundle_idx"
    value {
      s: "N/A"
    }
  }
  attr {
    key: "Exec_idx"
    value {
      s: "28"
    }
  }
  attr {
    key: "Op_idx"
    value {
      s: "N/A"
    }
  }
  attr {
    key: "inputTensor:0"
    value {
      s: "tensor_97  |  Sizes = [1,128,4096]  |  bf16  |  expBias = 0, scale = 1  |    |  ModelParam = 0  |  strides = [1048576, 1048576, 8192, 2]  |  data = 0, sizeInBytes = 1048576  |  "
    }
  }
  attr {
    key: "outputTensor:0"
    value {
      s: "tensor_98_id_91139_module/model/6/aten__view  |  Sizes = [1,128,32,128]  |  bf16  |  expBias = 0, scale = 1  |    |  ModelParam = 0  |  strides = [1048576, 1048576, 8192, 256, 2]  |  data = 0, sizeInBytes = 1048576  |  "
    }
  }
}
node {
  name: "tensor_40_odule/model/6/quant_input_0/placeholder/1"
  op: "Placeholder"
  attr {
    key: "dtype"
    value {
      type: DT_BFLOAT16
    }
  }
  attr {
    key: "shape"
    value {
      shape {
        dim {
          size: 1
        }
        dim {
          size: 1
        }
        dim {
          size: 1
        }
        dim {
          size: 1
        }
        dim {
          size: 1
        }
      }
    }
  }
  attr {
    key: "synDataType"
    value {
      s: "bf16"
    }
  }
}
node {
  name: "module/model/6/quant_input_0/convert_to_fp8_bf16/5456"
  op: "convert_to_fp8_bf16"
  input: "module/model/6/rotary_pos_embedding_fwd_bf16/5455"
  input: "tensor_40_odule/model/6/quant_input_0/placeholder/1"
  attr {
    key: "Bundle_idx"
    value {
      s: "N/A"
    }
  }
  attr {
    key: "Exec_idx"
    value {
      s: "29"
    }
  }
  attr {
    key: "Op_idx"
    value {
      s: "N/A"
    }
  }
  attr {
    key: "inputTensor:0"
    value {
      s: "tensor_39  |  Sizes = [1,8,128,128]  |  bf16  |  expBias = 0, scale = 1  |    |  ModelParam = 0  |  strides = [262144, 262144, 32768, 256, 2]  |  data = 0, sizeInBytes = 262144  |  "
    }
  }
  attr {
    key: "inputTensor:1"
    value {
      s: "tensor_40_odule/model/6/quant_input_0/placeholder/1  |  Sizes = [1]  |  bf16  |  expBias = 0, scale = 1  |    |  ModelParam = 0  |  strides = [2, 2]  |  data = 0x56464e463ae8, sizeInBytes = 2  |  buffer = 1  |  isPersistent  |  userMemorySection(type=Persistent, id=15)  |  isStaticParam  |  bufferDtype=bf16  |  "
    }
  }
  attr {
    key: "outputTensor:0"
    value {
      s: "tensor_43  |  Sizes = [1,8,128,128]  |  hfloat8  |  expBias = 7, scale = 1  |    |  ModelParam = 0  |  strides = [131072, 131072, 16384, 128, 1]  |  data = 0, sizeInBytes = 131072  |  "
    }
  }
}
node {
  name: "tensor_63_odule/model/6/quant_input_0/placeholder/1"
  op: "Placeholder"
  attr {
    key: "dtype"
    value {
      type: DT_BFLOAT16
    }
  }
  attr {
    key: "shape"
    value {
      shape {
        dim {
          size: 1
        }
        dim {
          size: 1
        }
        dim {
          size: 1
        }
        dim {
          size: 1
        }
        dim {
          size: 1
        }
      }
    }
  }
  attr {
    key: "synDataType"
    value {
      s: "bf16"
    }
  }
}
node {
  name: "module/model/6/quant_input_0/convert_to_fp8_bf16/5464"
  op: "convert_to_fp8_bf16"
  input: "module/model/6/quant_input_0/transpose/5463"
  input: "tensor_63_odule/model/6/quant_input_0/placeholder/1"
  attr {
    key: "Bundle_idx"
    value {
      s: "N/A"
    }
  }
  attr {
    key: "Exec_idx"
    value {
      s: "30"
    }
  }
  attr {
    key: "Op_idx"
    value {
      s: "N/A"
    }
  }
  attr {
    key: "inputTensor:0"
    value {
      s: "tensor_62_id_91149_module/model/6/quant_input_0/aten__transpose  |  Sizes = [1,8,128,128]  |  bf16  |  expBias = 0, scale = 1  |    |  ModelParam = 0  |  strides = [262144, 262144, 32768, 256, 2]  |  data = 0, sizeInBytes = 262144  |  "
    }
  }
  attr {
    key: "inputTensor:1"
    value {
      s: "tensor_63_odule/model/6/quant_input_0/placeholder/1  |  Sizes = [1]  |  bf16  |  expBias = 0, scale = 1  |    |  ModelParam = 0  |  strides = [2, 2]  |  data = 0x56464be831b0, sizeInBytes = 2  |  buffer = 16  |  isPersistent  |  userMemorySection(type=Persistent, id=24)  |  isStaticParam  |  bufferDtype=bf16  |  "
    }
  }
  attr {
    key: "outputTensor:0"
    value {
      s: "tensor_66  |  Sizes = [1,8,128,128]  |  hfloat8  |  expBias = 7, scale = 1  |    |  ModelParam = 0  |  strides = [131072, 131072, 16384, 128, 1]  |  data = 0, sizeInBytes = 131072  |  "
    }
  }
}
node {
  name: "module/model/6/fused_scaled_dot_product_attention/slice/5469"
  op: "Slice"
  input: "module/model/6/fused_scaled_dot_product_attention/expand_dims/5468"
  attr {
    key: "Bundle_idx"
    value {
      s: "N/A"
    }
  }
  attr {
    key: "Exec_idx"
    value {
      s: "31"
    }
  }
  attr {
    key: "Op_idx"
    value {
      s: "N/A"
    }
  }
  attr {
    key: "inputTensor:0"
    value {
      s: "tensor_73_id_91090_module/model/6/fused_scaled_dot_product_attention/aten__unsqueeze  |  Sizes = [1,1,128,128]  |  bf16  |  expBias = 0, scale = 1  |    |  ModelParam = 0  |  strides = [32768, 32768, 32768, 256, 2]  |  data = 0, sizeInBytes = 32768  |  "
    }
  }
  attr {
    key: "outputTensor:0"
    value {
      s: "tensor_74_id_91091_module/model/6/fused_scaled_dot_product_attention/aten__slice  |  Sizes = [1,1,128,128]  |  bf16  |  expBias = 0, scale = 1  |    |  ModelParam = 0  |  strides = [32768, 32768, 32768, 256, 2]  |  data = 0, sizeInBytes = 32768  |  "
    }
  }
}
node {
  name: "module/model/6/transpose/5481"
  op: "Transpose"
  input: "module/model/6/reshape/5480"
  attr {
    key: "Bundle_idx"
    value {
      s: "N/A"
    }
  }
  attr {
    key: "Exec_idx"
    value {
      s: "32"
    }
  }
  attr {
    key: "Op_idx"
    value {
      s: "N/A"
    }
  }
  attr {
    key: "Parameters"
    value {
      s: "permutation: (0,2,1,3)"
    }
  }
  attr {
    key: "inputTensor:0"
    value {
      s: "tensor_98_id_91139_module/model/6/aten__view  |  Sizes = [1,128,32,128]  |  bf16  |  expBias = 0, scale = 1  |    |  ModelParam = 0  |  strides = [1048576, 1048576, 8192, 256, 2]  |  data = 0, sizeInBytes = 1048576  |  "
    }
  }
  attr {
    key: "outputTensor:0"
    value {
      s: "tensor_99_id_91141_module/model/6/aten__transpose  |  Sizes = [1,32,128,128]  |  bf16  |  expBias = 0, scale = 1  |    |  ModelParam = 0  |  strides = [1048576, 1048576, 32768, 256, 2]  |  data = 0, sizeInBytes = 1048576  |  "
    }
  }
}
node {
  name: "tensor_45_odule/model/6/quant_output/placeholder/1"
  op: "Placeholder"
  attr {
    key: "dtype"
    value {
      type: DT_BFLOAT16
    }
  }
  attr {
    key: "shape"
    value {
      shape {
        dim {
          size: 1
        }
        dim {
          size: 1
        }
        dim {
          size: 1
        }
        dim {
          size: 1
        }
        dim {
          size: 1
        }
      }
    }
  }
  attr {
    key: "synDataType"
    value {
      s: "bf16"
    }
  }
}
node {
  name: "module/model/6/quant_output/convert_from_fp8_bf16/5458"
  op: "convert_from_fp8_bf16"
  input: "module/model/6/quant_input_0/convert_to_fp8_bf16/5456"
  input: "tensor_45_odule/model/6/quant_output/placeholder/1"
  attr {
    key: "Bundle_idx"
    value {
      s: "N/A"
    }
  }
  attr {
    key: "Exec_idx"
    value {
      s: "33"
    }
  }
  attr {
    key: "Op_idx"
    value {
      s: "N/A"
    }
  }
  attr {
    key: "inputTensor:0"
    value {
      s: "tensor_43  |  Sizes = [1,8,128,128]  |  hfloat8  |  expBias = 7, scale = 1  |    |  ModelParam = 0  |  strides = [131072, 131072, 16384, 128, 1]  |  data = 0, sizeInBytes = 131072  |  "
    }
  }
  attr {
    key: "inputTensor:1"
    value {
      s: "tensor_45_odule/model/6/quant_output/placeholder/1  |  Sizes = [1]  |  bf16  |  expBias = 0, scale = 1  |    |  ModelParam = 0  |  strides = [2, 2]  |  data = 0x56472edb8810, sizeInBytes = 2  |  buffer = 1  |  isPersistent  |  userMemorySection(type=Persistent, id=16)  |  isStaticParam  |  bufferDtype=bf16  |  "
    }
  }
  attr {
    key: "outputTensor:0"
    value {
      s: "tensor_47  |  Sizes = [1,8,128,128]  |  bf16  |  expBias = 0, scale = 1  |    |  ModelParam = 0  |  strides = [262144, 262144, 32768, 256, 2]  |  data = 0, sizeInBytes = 262144  |  isPersistent  |  userMemorySection(type=Persistent, id=18)  |  "
    }
  }
}
node {
  name: "tensor_68_odule/model/6/quant_output/placeholder/1"
  op: "Placeholder"
  attr {
    key: "dtype"
    value {
      type: DT_BFLOAT16
    }
  }
  attr {
    key: "shape"
    value {
      shape {
        dim {
          size: 1
        }
        dim {
          size: 1
        }
        dim {
          size: 1
        }
        dim {
          size: 1
        }
        dim {
          size: 1
        }
      }
    }
  }
  attr {
    key: "synDataType"
    value {
      s: "bf16"
    }
  }
}
node {
  name: "module/model/6/quant_output/convert_from_fp8_bf16/5466"
  op: "convert_from_fp8_bf16"
  input: "module/model/6/quant_input_0/convert_to_fp8_bf16/5464"
  input: "tensor_68_odule/model/6/quant_output/placeholder/1"
  attr {
    key: "Bundle_idx"
    value {
      s: "N/A"
    }
  }
  attr {
    key: "Exec_idx"
    value {
      s: "34"
    }
  }
  attr {
    key: "Op_idx"
    value {
      s: "N/A"
    }
  }
  attr {
    key: "inputTensor:0"
    value {
      s: "tensor_66  |  Sizes = [1,8,128,128]  |  hfloat8  |  expBias = 7, scale = 1  |    |  ModelParam = 0  |  strides = [131072, 131072, 16384, 128, 1]  |  data = 0, sizeInBytes = 131072  |  "
    }
  }
  attr {
    key: "inputTensor:1"
    value {
      s: "tensor_68_odule/model/6/quant_output/placeholder/1  |  Sizes = [1]  |  bf16  |  expBias = 0, scale = 1  |    |  ModelParam = 0  |  strides = [2, 2]  |  data = 0x56472f8e37a8, sizeInBytes = 2  |  buffer = 0.0625  |  isPersistent  |  userMemorySection(type=Persistent, id=25)  |  isStaticParam  |  bufferDtype=bf16  |  "
    }
  }
  attr {
    key: "outputTensor:0"
    value {
      s: "tensor_70  |  Sizes = [1,8,128,128]  |  bf16  |  expBias = 0, scale = 1  |    |  ModelParam = 0  |  strides = [262144, 262144, 32768, 256, 2]  |  data = 0, sizeInBytes = 262144  |  isPersistent  |  userMemorySection(type=Persistent, id=27)  |  "
    }
  }
}
node {
  name: "module/model/6/fused_scaled_dot_product_attention/slice/5470"
  op: "Slice"
  input: "module/model/6/fused_scaled_dot_product_attention/slice/5469"
  attr {
    key: "Bundle_idx"
    value {
      s: "N/A"
    }
  }
  attr {
    key: "Exec_idx"
    value {
      s: "35"
    }
  }
  attr {
    key: "Op_idx"
    value {
      s: "N/A"
    }
  }
  attr {
    key: "inputTensor:0"
    value {
      s: "tensor_74_id_91091_module/model/6/fused_scaled_dot_product_attention/aten__slice  |  Sizes = [1,1,128,128]  |  bf16  |  expBias = 0, scale = 1  |    |  ModelParam = 0  |  strides = [32768, 32768, 32768, 256, 2]  |  data = 0, sizeInBytes = 32768  |  "
    }
  }
  attr {
    key: "outputTensor:0"
    value {
      s: "tensor_75_id_91092_module/model/6/fused_scaled_dot_product_attention/aten__slice  |  Sizes = [1,1,128,128]  |  bf16  |  expBias = 0, scale = 1  |    |  ModelParam = 0  |  strides = [32768, 32768, 32768, 256, 2]  |  data = 0, sizeInBytes = 32768  |  "
    }
  }
}
node {
  name: "module/model/6/rotary_pos_embedding_fwd_bf16/5482"
  op: "rotary_pos_embedding_fwd_bf16"
  input: "module/model/6/transpose/5481"
  input: "module/model/6/identity/5449"
  input: "module/model/6/identity/5443"
  input: "module/model/6/expand_dims/5477"
  attr {
    key: "Bundle_idx"
    value {
      s: "N/A"
    }
  }
  attr {
    key: "Exec_idx"
    value {
      s: "36"
    }
  }
  attr {
    key: "Op_idx"
    value {
      s: "N/A"
    }
  }
  attr {
    key: "inputTensor:0"
    value {
      s: "tensor_99_id_91141_module/model/6/aten__transpose  |  Sizes = [1,32,128,128]  |  bf16  |  expBias = 0, scale = 1  |    |  ModelParam = 0  |  strides = [1048576, 1048576, 32768, 256, 2]  |  data = 0, sizeInBytes = 1048576  |  "
    }
  }
  attr {
    key: "inputTensor:1"
    value {
      s: "tensor_20_id_91185_module/model/6/aten__clone  |  Sizes = [1,1,128,128]  |  bf16  |  expBias = 0, scale = 1  |    |  ModelParam = 0  |  strides = [32768, 32768, 32768, 256, 2]  |  data = 0, sizeInBytes = 32768  |  "
    }
  }
  attr {
    key: "inputTensor:2"
    value {
      s: "tensor_13_id_91179_module/model/6/aten__clone  |  Sizes = [1,1,128,128]  |  bf16  |  expBias = 0, scale = 1  |    |  ModelParam = 0  |  strides = [32768, 32768, 32768, 256, 2]  |  data = 0, sizeInBytes = 32768  |  "
    }
  }
  attr {
    key: "inputTensor:3"
    value {
      s: "tensor_88_id_91088_module/model/6/aten__unsqueeze  |  Sizes = [1,128]  |  int32  |  expBias = 0, scale = 1  |    |  ModelParam = 0  |  strides = [512, 512, 4]  |  data = 0, sizeInBytes = 512  |  "
    }
  }
  attr {
    key: "outputTensor:0"
    value {
      s: "tensor_101  |  Sizes = [1,32,128,128]  |  bf16  |  expBias = 0, scale = 1  |    |  ModelParam = 0  |  strides = [1048576, 1048576, 32768, 256, 2]  |  data = 0, sizeInBytes = 1048576  |  "
    }
  }
}
node {
  name: "module/model/6/fused_scaled_dot_product_attention/broadcast/5471"
  op: "Broadcast"
  input: "module/model/6/fused_scaled_dot_product_attention/slice/5470"
  attr {
    key: "Bundle_idx"
    value {
      s: "N/A"
    }
  }
  attr {
    key: "Exec_idx"
    value {
      s: "37"
    }
  }
  attr {
    key: "Op_idx"
    value {
      s: "N/A"
    }
  }
  attr {
    key: "inputTensor:0"
    value {
      s: "tensor_75_id_91092_module/model/6/fused_scaled_dot_product_attention/aten__slice  |  Sizes = [1,1,128,128]  |  bf16  |  expBias = 0, scale = 1  |    |  ModelParam = 0  |  strides = [32768, 32768, 32768, 256, 2]  |  data = 0, sizeInBytes = 32768  |  "
    }
  }
  attr {
    key: "outputTensor:0"
    value {
      s: "tensor_76_id_91093_module/model/6/fused_scaled_dot_product_attention/hpu__expand  |  Sizes = [1,1,128,128]  |  bf16  |  expBias = 0, scale = 1  |    |  ModelParam = 0  |  strides = [32768, 32768, 32768, 256, 2]  |  data = 0, sizeInBytes = 32768  |  "
    }
  }
}
node {
  name: "module/model/6/fused_scaled_dot_product_attention/expand_dims/5472"
  op: "ExpandDims"
  input: "module/model/6/fused_scaled_dot_product_attention/broadcast/5471"
  attr {
    key: "Bundle_idx"
    value {
      s: "N/A"
    }
  }
  attr {
    key: "Exec_idx"
    value {
      s: "38"
    }
  }
  attr {
    key: "Op_idx"
    value {
      s: "N/A"
    }
  }
  attr {
    key: "inputTensor:0"
    value {
      s: "tensor_76_id_91093_module/model/6/fused_scaled_dot_product_attention/hpu__expand  |  Sizes = [1,1,128,128]  |  bf16  |  expBias = 0, scale = 1  |    |  ModelParam = 0  |  strides = [32768, 32768, 32768, 256, 2]  |  data = 0, sizeInBytes = 32768  |  "
    }
  }
  attr {
    key: "outputTensor:0"
    value {
      s: "tensor_77_id_91260_module/model/6/fused_scaled_dot_product_attention/aten__unsqueeze  |  Sizes = [1,1,1,128,128]  |  bf16  |  expBias = 0, scale = 1  |    |  ModelParam = 0  |  strides = [32768, 32768, 32768, 32768, 256, 2]  |  data = 0, sizeInBytes = 32768  |  "
    }
  }
}
node {
  name: "tensor_78_odule/model/6/fused_scaled_dot_product_attention/quant_v/placeholder/1"
  op: "Placeholder"
  attr {
    key: "dtype"
    value {
      type: DT_BFLOAT16
    }
  }
  attr {
    key: "shape"
    value {
      shape {
        dim {
          size: 1
        }
        dim {
          size: 1
        }
        dim {
          size: 1
        }
        dim {
          size: 1
        }
        dim {
          size: 1
        }
      }
    }
  }
  attr {
    key: "synDataType"
    value {
      s: "bf16"
    }
  }
}
node {
  name: "module/model/6/fused_scaled_dot_product_attention/quant_v/convert_to_fp8_bf16/5473"
  op: "convert_to_fp8_bf16"
  input: "module/model/6/quant_output/convert_from_fp8_bf16/5466"
  input: "tensor_78_odule/model/6/fused_scaled_dot_product_attention/quant_v/placeholder/1"
  attr {
    key: "Bundle_idx"
    value {
      s: "N/A"
    }
  }
  attr {
    key: "Exec_idx"
    value {
      s: "39"
    }
  }
  attr {
    key: "Op_idx"
    value {
      s: "N/A"
    }
  }
  attr {
    key: "inputTensor:0"
    value {
      s: "tensor_70  |  Sizes = [1,8,128,128]  |  bf16  |  expBias = 0, scale = 1  |    |  ModelParam = 0  |  strides = [262144, 262144, 32768, 256, 2]  |  data = 0, sizeInBytes = 262144  |  isPersistent  |  userMemorySection(type=Persistent, id=27)  |  "
    }
  }
  attr {
    key: "inputTensor:1"
    value {
      s: "tensor_78_odule/model/6/fused_scaled_dot_product_attention/quant_v/placeholder/1  |  Sizes = [1]  |  bf16  |  expBias = 0, scale = 1  |    |  ModelParam = 0  |  strides = [2, 2]  |  data = 0x56464af41898, sizeInBytes = 2  |  buffer = 16  |  isPersistent  |  userMemorySection(type=Persistent, id=29)  |  isStaticParam  |  bufferDtype=bf16  |  "
    }
  }
  attr {
    key: "outputTensor:0"
    value {
      s: "tensor_81  |  Sizes = [1,8,128,128]  |  hfloat8  |  expBias = 7, scale = 1  |    |  ModelParam = 0  |  strides = [131072, 131072, 16384, 128, 1]  |  data = 0, sizeInBytes = 131072  |  "
    }
  }
}
node {
  name: "module/model/6/fused_scaled_dot_product_attention/reshape/5474"
  op: "Reshape"
  input: "module/model/6/fused_scaled_dot_product_attention/quant_v/convert_to_fp8_bf16/5473"
  attr {
    key: "Bundle_idx"
    value {
      s: "N/A"
    }
  }
  attr {
    key: "Exec_idx"
    value {
      s: "40"
    }
  }
  attr {
    key: "Op_idx"
    value {
      s: "N/A"
    }
  }
  attr {
    key: "inputTensor:0"
    value {
      s: "tensor_81  |  Sizes = [1,8,128,128]  |  hfloat8  |  expBias = 7, scale = 1  |    |  ModelParam = 0  |  strides = [131072, 131072, 16384, 128, 1]  |  data = 0, sizeInBytes = 131072  |  "
    }
  }
  attr {
    key: "outputTensor:0"
    value {
      s: "tensor_82_id_91258_module/model/6/fused_scaled_dot_product_attention/aten__view  |  Sizes = [1,8,1,128,128]  |  hfloat8  |  expBias = 7, scale = 1  |    |  ModelParam = 0  |  strides = [131072, 131072, 16384, 16384, 128, 1]  |  data = 0, sizeInBytes = 131072  |  "
    }
  }
}
node {
  name: "tensor_83_odule/model/6/fused_scaled_dot_product_attention/quant_k/placeholder/1"
  op: "Placeholder"
  attr {
    key: "dtype"
    value {
      type: DT_BFLOAT16
    }
  }
  attr {
    key: "shape"
    value {
      shape {
        dim {
          size: 1
        }
        dim {
          size: 1
        }
        dim {
          size: 1
        }
        dim {
          size: 1
        }
        dim {
          size: 1
        }
      }
    }
  }
  attr {
    key: "synDataType"
    value {
      s: "bf16"
    }
  }
}
node {
  name: "module/model/6/fused_scaled_dot_product_attention/quant_k/convert_to_fp8_bf16/5475"
  op: "convert_to_fp8_bf16"
  input: "module/model/6/quant_output/convert_from_fp8_bf16/5458"
  input: "tensor_83_odule/model/6/fused_scaled_dot_product_attention/quant_k/placeholder/1"
  attr {
    key: "Bundle_idx"
    value {
      s: "N/A"
    }
  }
  attr {
    key: "Exec_idx"
    value {
      s: "41"
    }
  }
  attr {
    key: "Op_idx"
    value {
      s: "N/A"
    }
  }
  attr {
    key: "inputTensor:0"
    value {
      s: "tensor_47  |  Sizes = [1,8,128,128]  |  bf16  |  expBias = 0, scale = 1  |    |  ModelParam = 0  |  strides = [262144, 262144, 32768, 256, 2]  |  data = 0, sizeInBytes = 262144  |  isPersistent  |  userMemorySection(type=Persistent, id=18)  |  "
    }
  }
  attr {
    key: "inputTensor:1"
    value {
      s: "tensor_83_odule/model/6/fused_scaled_dot_product_attention/quant_k/placeholder/1  |  Sizes = [1]  |  bf16  |  expBias = 0, scale = 1  |    |  ModelParam = 0  |  strides = [2, 2]  |  data = 0x56472f8e23a8, sizeInBytes = 2  |  buffer = 1  |  isPersistent  |  userMemorySection(type=Persistent, id=30)  |  isStaticParam  |  bufferDtype=bf16  |  "
    }
  }
  attr {
    key: "outputTensor:0"
    value {
      s: "tensor_86  |  Sizes = [1,8,128,128]  |  hfloat8  |  expBias = 7, scale = 1  |    |  ModelParam = 0  |  strides = [131072, 131072, 16384, 128, 1]  |  data = 0, sizeInBytes = 131072  |  "
    }
  }
}
node {
  name: "module/model/6/fused_scaled_dot_product_attention/reshape/5476"
  op: "Reshape"
  input: "module/model/6/fused_scaled_dot_product_attention/quant_k/convert_to_fp8_bf16/5475"
  attr {
    key: "Bundle_idx"
    value {
      s: "N/A"
    }
  }
  attr {
    key: "Exec_idx"
    value {
      s: "42"
    }
  }
  attr {
    key: "Op_idx"
    value {
      s: "N/A"
    }
  }
  attr {
    key: "inputTensor:0"
    value {
      s: "tensor_86  |  Sizes = [1,8,128,128]  |  hfloat8  |  expBias = 7, scale = 1  |    |  ModelParam = 0  |  strides = [131072, 131072, 16384, 128, 1]  |  data = 0, sizeInBytes = 131072  |  "
    }
  }
  attr {
    key: "outputTensor:0"
    value {
      s: "tensor_87_id_91256_module/model/6/fused_scaled_dot_product_attention/aten__view  |  Sizes = [1,8,1,128,128]  |  hfloat8  |  expBias = 7, scale = 1  |    |  ModelParam = 0  |  strides = [131072, 131072, 16384, 16384, 128, 1]  |  data = 0, sizeInBytes = 131072  |  "
    }
  }
}
node {
  name: "tensor_102_odule/model/6/fused_scaled_dot_product_attention/quant_q/placeholder/1"
  op: "Placeholder"
  attr {
    key: "dtype"
    value {
      type: DT_BFLOAT16
    }
  }
  attr {
    key: "shape"
    value {
      shape {
        dim {
          size: 1
        }
        dim {
          size: 1
        }
        dim {
          size: 1
        }
        dim {
          size: 1
        }
        dim {
          size: 1
        }
      }
    }
  }
  attr {
    key: "synDataType"
    value {
      s: "bf16"
    }
  }
}
node {
  name: "module/model/6/fused_scaled_dot_product_attention/quant_q/convert_to_fp8_bf16/5483"
  op: "convert_to_fp8_bf16"
  input: "module/model/6/rotary_pos_embedding_fwd_bf16/5482"
  input: "tensor_102_odule/model/6/fused_scaled_dot_product_attention/quant_q/placeholder/1"
  attr {
    key: "Bundle_idx"
    value {
      s: "N/A"
    }
  }
  attr {
    key: "Exec_idx"
    value {
      s: "43"
    }
  }
  attr {
    key: "Op_idx"
    value {
      s: "N/A"
    }
  }
  attr {
    key: "inputTensor:0"
    value {
      s: "tensor_101  |  Sizes = [1,32,128,128]  |  bf16  |  expBias = 0, scale = 1  |    |  ModelParam = 0  |  strides = [1048576, 1048576, 32768, 256, 2]  |  data = 0, sizeInBytes = 1048576  |  "
    }
  }
  attr {
    key: "inputTensor:1"
    value {
      s: "tensor_102_odule/model/6/fused_scaled_dot_product_attention/quant_q/placeholder/1  |  Sizes = [1]  |  bf16  |  expBias = 0, scale = 1  |    |  ModelParam = 0  |  strides = [2, 2]  |  data = 0x56472f8e2330, sizeInBytes = 2  |  buffer = 1  |  isPersistent  |  userMemorySection(type=Persistent, id=35)  |  isStaticParam  |  bufferDtype=bf16  |  "
    }
  }
  attr {
    key: "outputTensor:0"
    value {
      s: "tensor_105  |  Sizes = [1,32,128,128]  |  hfloat8  |  expBias = 7, scale = 1  |    |  ModelParam = 0  |  strides = [524288, 524288, 16384, 128, 1]  |  data = 0, sizeInBytes = 524288  |  "
    }
  }
}
node {
  name: "module/model/6/fused_scaled_dot_product_attention/reshape/5484"
  op: "Reshape"
  input: "module/model/6/fused_scaled_dot_product_attention/quant_q/convert_to_fp8_bf16/5483"
  attr {
    key: "Bundle_idx"
    value {
      s: "N/A"
    }
  }
  attr {
    key: "Exec_idx"
    value {
      s: "44"
    }
  }
  attr {
    key: "Op_idx"
    value {
      s: "N/A"
    }
  }
  attr {
    key: "inputTensor:0"
    value {
      s: "tensor_105  |  Sizes = [1,32,128,128]  |  hfloat8  |  expBias = 7, scale = 1  |    |  ModelParam = 0  |  strides = [524288, 524288, 16384, 128, 1]  |  data = 0, sizeInBytes = 524288  |  "
    }
  }
  attr {
    key: "outputTensor:0"
    value {
      s: "tensor_106_id_91254_module/model/6/fused_scaled_dot_product_attention/aten__view  |  Sizes = [1,8,4,128,128]  |  hfloat8  |  expBias = 7, scale = 1  |    |  ModelParam = 0  |  strides = [524288, 524288, 65536, 16384, 128, 1]  |  data = 0, sizeInBytes = 524288  |  "
    }
  }
}
node {
  name: "tensor_107_odule/model/6/fused_scaled_dot_product_attention/placeholder/4"
  op: "Placeholder"
  attr {
    key: "dtype"
    value {
      type: DT_FLOAT
    }
  }
  attr {
    key: "shape"
    value {
      shape {
        dim {
          size: 1
        }
        dim {
          size: 1
        }
        dim {
          size: 1
        }
        dim {
          size: 1
        }
        dim {
          size: 1
        }
      }
    }
  }
  attr {
    key: "synDataType"
    value {
      s: "float32"
    }
  }
}
node {
  name: "tensor_108_odule/model/6/fused_scaled_dot_product_attention/placeholder/5"
  op: "Placeholder"
  attr {
    key: "dtype"
    value {
      type: DT_FLOAT
    }
  }
  attr {
    key: "shape"
    value {
      shape {
        dim {
          size: 1
        }
        dim {
          size: 1
        }
        dim {
          size: 1
        }
        dim {
          size: 1
        }
        dim {
          size: 1
        }
      }
    }
  }
  attr {
    key: "synDataType"
    value {
      s: "float32"
    }
  }
}
node {
  name: "tensor_109_odule/model/6/fused_scaled_dot_product_attention/placeholder/6"
  op: "Placeholder"
  attr {
    key: "dtype"
    value {
      type: DT_FLOAT
    }
  }
  attr {
    key: "shape"
    value {
      shape {
        dim {
          size: 1
        }
        dim {
          size: 1
        }
        dim {
          size: 1
        }
        dim {
          size: 1
        }
        dim {
          size: 1
        }
      }
    }
  }
  attr {
    key: "synDataType"
    value {
      s: "float32"
    }
  }
}
node {
  name: "tensor_110_odule/model/6/fused_scaled_dot_product_attention/placeholder/7"
  op: "Placeholder"
  attr {
    key: "dtype"
    value {
      type: DT_FLOAT
    }
  }
  attr {
    key: "shape"
    value {
      shape {
        dim {
          size: 1
        }
        dim {
          size: 1
        }
        dim {
          size: 1
        }
        dim {
          size: 1
        }
        dim {
          size: 1
        }
      }
    }
  }
  attr {
    key: "synDataType"
    value {
      s: "float32"
    }
  }
}
node {
  name: "tensor_111_odule/model/6/fused_scaled_dot_product_attention/placeholder/8"
  op: "Placeholder"
  attr {
    key: "dtype"
    value {
      type: DT_FLOAT
    }
  }
  attr {
    key: "shape"
    value {
      shape {
        dim {
          size: 1
        }
        dim {
          size: 1
        }
        dim {
          size: 1
        }
        dim {
          size: 1
        }
        dim {
          size: 1
        }
      }
    }
  }
  attr {
    key: "synDataType"
    value {
      s: "float32"
    }
  }
}
node {
  name: "tensor_112_odule/model/6/fused_scaled_dot_product_attention/placeholder/9"
  op: "Placeholder"
  attr {
    key: "dtype"
    value {
      type: DT_FLOAT
    }
  }
  attr {
    key: "shape"
    value {
      shape {
        dim {
          size: 1
        }
        dim {
          size: 1
        }
        dim {
          size: 1
        }
        dim {
          size: 1
        }
        dim {
          size: 1
        }
      }
    }
  }
  attr {
    key: "synDataType"
    value {
      s: "float32"
    }
  }
}
node {
  name: "module/model/6/fused_scaled_dot_product_attention/sdpa_recomp_fwd_hf8/5485"
  op: "sdpa_recomp_fwd_hf8"
  input: "module/model/6/fused_scaled_dot_product_attention/reshape/5484"
  input: "module/model/6/fused_scaled_dot_product_attention/reshape/5476"
  input: "module/model/6/fused_scaled_dot_product_attention/reshape/5474"
  input: "module/model/6/fused_scaled_dot_product_attention/expand_dims/5472"
  input: "unused_port"
  input: "tensor_107_odule/model/6/fused_scaled_dot_product_attention/placeholder/4"
  input: "tensor_108_odule/model/6/fused_scaled_dot_product_attention/placeholder/5"
  input: "tensor_109_odule/model/6/fused_scaled_dot_product_attention/placeholder/6"
  input: "tensor_110_odule/model/6/fused_scaled_dot_product_attention/placeholder/7"
  input: "tensor_111_odule/model/6/fused_scaled_dot_product_attention/placeholder/8"
  input: "tensor_112_odule/model/6/fused_scaled_dot_product_attention/placeholder/9"
  attr {
    key: "Bundle_idx"
    value {
      s: "N/A"
    }
  }
  attr {
    key: "Exec_idx"
    value {
      s: "45"
    }
  }
  attr {
    key: "Op_idx"
    value {
      s: "N/A"
    }
  }
  attr {
    key: "inputTensor:00"
    value {
      s: "tensor_106_id_91254_module/model/6/fused_scaled_dot_product_attention/aten__view  |  Sizes = [1,8,4,128,128]  |  hfloat8  |  expBias = 7, scale = 1  |    |  ModelParam = 0  |  strides = [524288, 524288, 65536, 16384, 128, 1]  |  data = 0, sizeInBytes = 524288  |  "
    }
  }
  attr {
    key: "inputTensor:01"
    value {
      s: "tensor_87_id_91256_module/model/6/fused_scaled_dot_product_attention/aten__view  |  Sizes = [1,8,1,128,128]  |  hfloat8  |  expBias = 7, scale = 1  |    |  ModelParam = 0  |  strides = [131072, 131072, 16384, 16384, 128, 1]  |  data = 0, sizeInBytes = 131072  |  "
    }
  }
  attr {
    key: "inputTensor:02"
    value {
      s: "tensor_82_id_91258_module/model/6/fused_scaled_dot_product_attention/aten__view  |  Sizes = [1,8,1,128,128]  |  hfloat8  |  expBias = 7, scale = 1  |    |  ModelParam = 0  |  strides = [131072, 131072, 16384, 16384, 128, 1]  |  data = 0, sizeInBytes = 131072  |  "
    }
  }
  attr {
    key: "inputTensor:03"
    value {
      s: "tensor_77_id_91260_module/model/6/fused_scaled_dot_product_attention/aten__unsqueeze  |  Sizes = [1,1,1,128,128]  |  bf16  |  expBias = 0, scale = 1  |    |  ModelParam = 0  |  strides = [32768, 32768, 32768, 32768, 256, 2]  |  data = 0, sizeInBytes = 32768  |  "
    }
  }
  attr {
    key: "inputTensor:05"
    value {
      s: "tensor_107_odule/model/6/fused_scaled_dot_product_attention/placeholder/4  |  Sizes = [1]  |  float32  |  expBias = 0, scale = 1  |    |  ModelParam = 0  |  strides = [4, 4]  |  data = 0x56464b6ac710, sizeInBytes = 4  |  buffer = 1  |  isPersistent  |  userMemorySection(type=Persistent, id=36)  |  isStaticParam  |  bufferDtype=float32  |  "
    }
  }
  attr {
    key: "inputTensor:06"
    value {
      s: "tensor_108_odule/model/6/fused_scaled_dot_product_attention/placeholder/5  |  Sizes = [1]  |  float32  |  expBias = 0, scale = 1  |    |  ModelParam = 0  |  strides = [4, 4]  |  data = 0x56464be82608, sizeInBytes = 4  |  buffer = 1  |  isPersistent  |  userMemorySection(type=Persistent, id=37)  |  isStaticParam  |  bufferDtype=float32  |  "
    }
  }
  attr {
    key: "inputTensor:07"
    value {
      s: "tensor_109_odule/model/6/fused_scaled_dot_product_attention/placeholder/6  |  Sizes = [1]  |  float32  |  expBias = 0, scale = 1  |    |  ModelParam = 0  |  strides = [4, 4]  |  data = 0x56464af41310, sizeInBytes = 4  |  buffer = 0.0625  |  isPersistent  |  userMemorySection(type=Persistent, id=38)  |  isStaticParam  |  bufferDtype=float32  |  "
    }
  }
  attr {
    key: "inputTensor:08"
    value {
      s: "tensor_110_odule/model/6/fused_scaled_dot_product_attention/placeholder/7  |  Sizes = [1]  |  float32  |  expBias = 0, scale = 1  |    |  ModelParam = 0  |  strides = [4, 4]  |  data = 0x56464be83190, sizeInBytes = 4  |  buffer = 16  |  isPersistent  |  userMemorySection(type=Persistent, id=39)  |  isStaticParam  |  bufferDtype=float32  |  "
    }
  }
  attr {
    key: "inputTensor:09"
    value {
      s: "tensor_111_odule/model/6/fused_scaled_dot_product_attention/placeholder/8  |  Sizes = [1]  |  float32  |  expBias = 0, scale = 1  |    |  ModelParam = 0  |  strides = [4, 4]  |  data = 0x56464ba54e48, sizeInBytes = 4  |  buffer = 16  |  isPersistent  |  userMemorySection(type=Persistent, id=40)  |  isStaticParam  |  bufferDtype=float32  |  "
    }
  }
  attr {
    key: "inputTensor:10"
    value {
      s: "tensor_112_odule/model/6/fused_scaled_dot_product_attention/placeholder/9  |  Sizes = [1]  |  float32  |  expBias = 0, scale = 1  |    |  ModelParam = 0  |  strides = [4, 4]  |  data = 0x56464e462f30, sizeInBytes = 4  |  buffer = 0.0625  |  isPersistent  |  userMemorySection(type=Persistent, id=41)  |  isStaticParam  |  bufferDtype=float32  |  "
    }
  }
  attr {
    key: "outputTensor:0"
    value {
      s: "tensor_118  |  Sizes = [1,8,4,128,128]  |  hfloat8  |  expBias = 7, scale = 1  |    |  ModelParam = 0  |  strides = [524288, 524288, 65536, 16384, 128, 1]  |  data = 0, sizeInBytes = 524288  |  "
    }
  }
}
node {
  name: "module/model/6/fused_scaled_dot_product_attention/dequant_output/reshape/5486"
  op: "Reshape"
  input: "module/model/6/fused_scaled_dot_product_attention/sdpa_recomp_fwd_hf8/5485"
  attr {
    key: "Bundle_idx"
    value {
      s: "N/A"
    }
  }
  attr {
    key: "Exec_idx"
    value {
      s: "46"
    }
  }
  attr {
    key: "Op_idx"
    value {
      s: "N/A"
    }
  }
  attr {
    key: "inputTensor:0"
    value {
      s: "tensor_118  |  Sizes = [1,8,4,128,128]  |  hfloat8  |  expBias = 7, scale = 1  |    |  ModelParam = 0  |  strides = [524288, 524288, 65536, 16384, 128, 1]  |  data = 0, sizeInBytes = 524288  |  "
    }
  }
  attr {
    key: "outputTensor:0"
    value {
      s: "tensor_119_id_91279_module/model/6/fused_scaled_dot_product_attention/dequant_output/aten__view  |  Sizes = [1,32,128,128]  |  hfloat8  |  expBias = 7, scale = 1  |    |  ModelParam = 0  |  strides = [524288, 524288, 16384, 128, 1]  |  data = 0, sizeInBytes = 524288  |  "
    }
  }
}
node {
  name: "tensor_120_odule/model/6/fused_scaled_dot_product_attention/dequant_output/placeholder/1"
  op: "Placeholder"
  attr {
    key: "dtype"
    value {
      type: DT_BFLOAT16
    }
  }
  attr {
    key: "shape"
    value {
      shape {
        dim {
          size: 1
        }
        dim {
          size: 1
        }
        dim {
          size: 1
        }
        dim {
          size: 1
        }
        dim {
          size: 1
        }
      }
    }
  }
  attr {
    key: "synDataType"
    value {
      s: "bf16"
    }
  }
}
node {
  name: "module/model/6/fused_scaled_dot_product_attention/dequant_output/convert_from_fp8_bf16/5487"
  op: "convert_from_fp8_bf16"
  input: "module/model/6/fused_scaled_dot_product_attention/dequant_output/reshape/5486"
  input: "tensor_120_odule/model/6/fused_scaled_dot_product_attention/dequant_output/placeholder/1"
  attr {
    key: "Bundle_idx"
    value {
      s: "N/A"
    }
  }
  attr {
    key: "Exec_idx"
    value {
      s: "47"
    }
  }
  attr {
    key: "Op_idx"
    value {
      s: "N/A"
    }
  }
  attr {
    key: "inputTensor:0"
    value {
      s: "tensor_119_id_91279_module/model/6/fused_scaled_dot_product_attention/dequant_output/aten__view  |  Sizes = [1,32,128,128]  |  hfloat8  |  expBias = 7, scale = 1  |    |  ModelParam = 0  |  strides = [524288, 524288, 16384, 128, 1]  |  data = 0, sizeInBytes = 524288  |  "
    }
  }
  attr {
    key: "inputTensor:1"
    value {
      s: "tensor_120_odule/model/6/fused_scaled_dot_product_attention/dequant_output/placeholder/1  |  Sizes = [1]  |  bf16  |  expBias = 0, scale = 1  |    |  ModelParam = 0  |  strides = [2, 2]  |  data = 0x56464c986f40, sizeInBytes = 2  |  buffer = 0.0625  |  isPersistent  |  userMemorySection(type=Persistent, id=42)  |  isStaticParam  |  bufferDtype=bf16  |  "
    }
  }
  attr {
    key: "outputTensor:0"
    value {
      s: "tensor_122  |  Sizes = [1,32,128,128]  |  bf16  |  expBias = 0, scale = 1  |    |  ModelParam = 0  |  strides = [1048576, 1048576, 32768, 256, 2]  |  data = 0, sizeInBytes = 1048576  |  "
    }
  }
}
node {
  name: "module/model/6/transpose/5488"
  op: "Transpose"
  input: "module/model/6/fused_scaled_dot_product_attention/dequant_output/convert_from_fp8_bf16/5487"
  attr {
    key: "Bundle_idx"
    value {
      s: "N/A"
    }
  }
  attr {
    key: "Exec_idx"
    value {
      s: "48"
    }
  }
  attr {
    key: "Op_idx"
    value {
      s: "N/A"
    }
  }
  attr {
    key: "Parameters"
    value {
      s: "permutation: (0,2,1,3)"
    }
  }
  attr {
    key: "inputTensor:0"
    value {
      s: "tensor_122  |  Sizes = [1,32,128,128]  |  bf16  |  expBias = 0, scale = 1  |    |  ModelParam = 0  |  strides = [1048576, 1048576, 32768, 256, 2]  |  data = 0, sizeInBytes = 1048576  |  "
    }
  }
  attr {
    key: "outputTensor:0"
    value {
      s: "tensor_123_id_91284_module/model/6/aten__transpose  |  Sizes = [1,128,32,128]  |  bf16  |  expBias = 0, scale = 1  |    |  ModelParam = 0  |  strides = [1048576, 1048576, 8192, 256, 2]  |  data = 0, sizeInBytes = 1048576  |  "
    }
  }
}
node {
  name: "module/model/6/identity/5489"
  op: "Identity"
  input: "module/model/6/transpose/5488"
  attr {
    key: "Bundle_idx"
    value {
      s: "N/A"
    }
  }
  attr {
    key: "Exec_idx"
    value {
      s: "49"
    }
  }
  attr {
    key: "Op_idx"
    value {
      s: "N/A"
    }
  }
  attr {
    key: "inputTensor:0"
    value {
      s: "tensor_123_id_91284_module/model/6/aten__transpose  |  Sizes = [1,128,32,128]  |  bf16  |  expBias = 0, scale = 1  |    |  ModelParam = 0  |  strides = [1048576, 1048576, 8192, 256, 2]  |  data = 0, sizeInBytes = 1048576  |  "
    }
  }
  attr {
    key: "outputTensor:0"
    value {
      s: "tensor_124_id_91286_module/model/6/aten__clone  |  Sizes = [1,128,32,128]  |  bf16  |  expBias = 0, scale = 1  |    |  ModelParam = 0  |  strides = [1048576, 1048576, 8192, 256, 2]  |  data = 0, sizeInBytes = 1048576  |  "
    }
  }
}
node {
  name: "module/model/6/o_proj/quant_input_0/reshape/5490"
  op: "Reshape"
  input: "module/model/6/identity/5489"
  attr {
    key: "Bundle_idx"
    value {
      s: "N/A"
    }
  }
  attr {
    key: "Exec_idx"
    value {
      s: "50"
    }
  }
  attr {
    key: "Op_idx"
    value {
      s: "N/A"
    }
  }
  attr {
    key: "inputTensor:0"
    value {
      s: "tensor_124_id_91286_module/model/6/aten__clone  |  Sizes = [1,128,32,128]  |  bf16  |  expBias = 0, scale = 1  |    |  ModelParam = 0  |  strides = [1048576, 1048576, 8192, 256, 2]  |  data = 0, sizeInBytes = 1048576  |  "
    }
  }
  attr {
    key: "outputTensor:0"
    value {
      s: "tensor_125_id_91289_module/model/6/o_proj/quant_input_0/aten__view  |  Sizes = [1,128,4096]  |  bf16  |  expBias = 0, scale = 1  |    |  ModelParam = 0  |  strides = [1048576, 1048576, 8192, 2]  |  data = 0, sizeInBytes = 1048576  |  "
    }
  }
}
node {
  name: "tensor_126_odule/model/6/o_proj/quant_input_0/placeholder/1"
  op: "Placeholder"
  attr {
    key: "dtype"
    value {
      type: DT_BFLOAT16
    }
  }
  attr {
    key: "shape"
    value {
      shape {
        dim {
          size: 1
        }
        dim {
          size: 1
        }
        dim {
          size: 1
        }
        dim {
          size: 1
        }
        dim {
          size: 1
        }
      }
    }
  }
  attr {
    key: "synDataType"
    value {
      s: "bf16"
    }
  }
}
node {
  name: "module/model/6/o_proj/quant_input_0/convert_to_fp8_bf16/5491"
  op: "convert_to_fp8_bf16"
  input: "module/model/6/o_proj/quant_input_0/reshape/5490"
  input: "tensor_126_odule/model/6/o_proj/quant_input_0/placeholder/1"
  attr {
    key: "Bundle_idx"
    value {
      s: "N/A"
    }
  }
  attr {
    key: "Exec_idx"
    value {
      s: "51"
    }
  }
  attr {
    key: "Op_idx"
    value {
      s: "N/A"
    }
  }
  attr {
    key: "inputTensor:0"
    value {
      s: "tensor_125_id_91289_module/model/6/o_proj/quant_input_0/aten__view  |  Sizes = [1,128,4096]  |  bf16  |  expBias = 0, scale = 1  |    |  ModelParam = 0  |  strides = [1048576, 1048576, 8192, 2]  |  data = 0, sizeInBytes = 1048576  |  "
    }
  }
  attr {
    key: "inputTensor:1"
    value {
      s: "tensor_126_odule/model/6/o_proj/quant_input_0/placeholder/1  |  Sizes = [1]  |  bf16  |  expBias = 0, scale = 1  |    |  ModelParam = 0  |  strides = [2, 2]  |  data = 0x56464b26b260, sizeInBytes = 2  |  buffer = 16  |  isPersistent  |  userMemorySection(type=Persistent, id=43)  |  isStaticParam  |  bufferDtype=bf16  |  "
    }
  }
  attr {
    key: "outputTensor:0"
    value {
      s: "tensor_129  |  Sizes = [1,128,4096]  |  hfloat8  |  expBias = 7, scale = 1  |    |  ModelParam = 0  |  strides = [524288, 524288, 4096, 1]  |  data = 0, sizeInBytes = 524288  |  "
    }
  }
}
node {
  name: "tensor_130_odule/model/6/o_proj/placeholder/1"
  op: "Placeholder"
  attr {
    key: "dtype"
    value {
      type: DT_INVALID
    }
  }
  attr {
    key: "shape"
    value {
      shape {
        dim {
          size: 4096
        }
        dim {
          size: 4096
        }
        dim {
          size: 1
        }
        dim {
          size: 1
        }
        dim {
          size: 1
        }
      }
    }
  }
  attr {
    key: "synDataType"
    value {
      s: "hfloat8"
    }
  }
}
node {
  name: "tensor_131_odule/model/6/o_proj/placeholder/2"
  op: "Placeholder"
  attr {
    key: "dtype"
    value {
      type: DT_BFLOAT16
    }
  }
  attr {
    key: "shape"
    value {
      shape {
        dim {
          size: 1
        }
        dim {
          size: 1
        }
        dim {
          size: 1
        }
        dim {
          size: 1
        }
        dim {
          size: 1
        }
      }
    }
  }
  attr {
    key: "synDataType"
    value {
      s: "bf16"
    }
  }
}
node {
  name: "tensor_132_odule/model/6/o_proj/placeholder/3"
  op: "Placeholder"
  attr {
    key: "dtype"
    value {
      type: DT_BFLOAT16
    }
  }
  attr {
    key: "shape"
    value {
      shape {
        dim {
          size: 1
        }
        dim {
          size: 1
        }
        dim {
          size: 1
        }
        dim {
          size: 1
        }
        dim {
          size: 1
        }
      }
    }
  }
  attr {
    key: "synDataType"
    value {
      s: "bf16"
    }
  }
}
node {
  name: "module/model/6/o_proj/fp8_gemm_bf16/5492"
  op: "fp8_gemm_bf16"
  input: "module/model/6/o_proj/quant_input_0/convert_to_fp8_bf16/5491"
  input: "tensor_130_odule/model/6/o_proj/placeholder/1"
  input: "tensor_131_odule/model/6/o_proj/placeholder/2"
  input: "tensor_132_odule/model/6/o_proj/placeholder/3"
  input: "unused_port"
  input: "unused_port"
  input: "unused_port"
  attr {
    key: "Bundle_idx"
    value {
      s: "N/A"
    }
  }
  attr {
    key: "Exec_idx"
    value {
      s: "52"
    }
  }
  attr {
    key: "Op_idx"
    value {
      s: "N/A"
    }
  }
  attr {
    key: "inputTensor:0"
    value {
      s: "tensor_129  |  Sizes = [1,128,4096]  |  hfloat8  |  expBias = 7, scale = 1  |    |  ModelParam = 0  |  strides = [524288, 524288, 4096, 1]  |  data = 0, sizeInBytes = 524288  |  "
    }
  }
  attr {
    key: "inputTensor:1"
    value {
      s: "tensor_130_odule/model/6/o_proj/placeholder/1  |  Sizes = [4096,4096]  |  hfloat8  |  expBias = 7, scale = 1  |    |  ModelParam = 0  |  strides = [16777216, 4096, 1]  |  data = 0, sizeInBytes = 16777216  |  isPersistent  |  userMemorySection(type=Persistent, id=44)  |  "
    }
  }
  attr {
    key: "inputTensor:2"
    value {
      s: "tensor_131_odule/model/6/o_proj/placeholder/2  |  Sizes = [1]  |  bf16  |  expBias = 0, scale = 1  |    |  ModelParam = 0  |  strides = [2, 2]  |  data = 0x56464bd06fb8, sizeInBytes = 2  |  buffer = 0.0625  |  isPersistent  |  userMemorySection(type=Persistent, id=45)  |  isStaticParam  |  bufferDtype=bf16  |  "
    }
  }
  attr {
    key: "inputTensor:3"
    value {
      s: "tensor_132_odule/model/6/o_proj/placeholder/3  |  Sizes = [1]  |  bf16  |  expBias = 0, scale = 1  |    |  ModelParam = 0  |  strides = [2, 2]  |  data = 0x56464be83b00, sizeInBytes = 2  |  buffer = 0.0625  |  isPersistent  |  userMemorySection(type=Persistent, id=46)  |  isStaticParam  |  bufferDtype=bf16  |  "
    }
  }
  attr {
    key: "outputTensor:0"
    value {
      s: "tensor_134  |  Sizes = [1,128,4096]  |  bf16  |  expBias = 0, scale = 1  |    |  ModelParam = 0  |  strides = [1048576, 1048576, 8192, 2]  |  data = 0, sizeInBytes = 1048576  |  "
    }
  }
}
node {
  name: "module/model/6/add_fwd_bf16/5493"
  op: "add_fwd_bf16"
  input: "tensor_21_odule/model/6/input_layernorm/placeholder/0"
  input: "module/model/6/o_proj/fp8_gemm_bf16/5492"
  input: "^module/model/6/input_layernorm/rms_norm_ex_fwd_bf16/5450"
  attr {
    key: "Bundle_idx"
    value {
      s: "N/A"
    }
  }
  attr {
    key: "Exec_idx"
    value {
      s: "53"
    }
  }
  attr {
    key: "Op_idx"
    value {
      s: "N/A"
    }
  }
  attr {
    key: "inputTensor:0"
    value {
      s: "tensor_21_odule/model/6/input_layernorm/placeholder/0  |  Sizes = [1,128,4096]  |  bf16  |  expBias = 0, scale = 1  |    |  ModelParam = 0  |  strides = [1048576, 1048576, 8192, 2]  |  data = 0, sizeInBytes = 1048576  |  isPersistent  |  userMemorySection(type=Persistent, id=9)  |  "
    }
  }
  attr {
    key: "inputTensor:1"
    value {
      s: "tensor_134  |  Sizes = [1,128,4096]  |  bf16  |  expBias = 0, scale = 1  |    |  ModelParam = 0  |  strides = [1048576, 1048576, 8192, 2]  |  data = 0, sizeInBytes = 1048576  |  "
    }
  }
  attr {
    key: "outputTensor:0"
    value {
      s: "tensor_135  |  Sizes = [1,128,4096]  |  bf16  |  expBias = 0, scale = 1  |    |  ModelParam = 0  |  strides = [1048576, 1048576, 8192, 2]  |  data = 0, sizeInBytes = 1048576  |  isPersistent  |  userMemorySection(type=Persistent, id=9)  |  "
    }
  }
}
node {
  name: "tensor_136_odule/model/6/post_attention_layernorm/placeholder/1"
  op: "Placeholder"
  attr {
    key: "dtype"
    value {
      type: DT_BFLOAT16
    }
  }
  attr {
    key: "shape"
    value {
      shape {
        dim {
          size: 4096
        }
        dim {
          size: 1
        }
        dim {
          size: 1
        }
        dim {
          size: 1
        }
        dim {
          size: 1
        }
      }
    }
  }
  attr {
    key: "synDataType"
    value {
      s: "bf16"
    }
  }
}
node {
  name: "module/model/6/post_attention_layernorm/rms_norm_ex_fwd_bf16/5494"
  op: "rms_norm_ex_fwd_bf16"
  input: "module/model/6/add_fwd_bf16/5493"
  input: "tensor_136_odule/model/6/post_attention_layernorm/placeholder/1"
  attr {
    key: "Bundle_idx"
    value {
      s: "N/A"
    }
  }
  attr {
    key: "Exec_idx"
    value {
      s: "54"
    }
  }
  attr {
    key: "Op_idx"
    value {
      s: "N/A"
    }
  }
  attr {
    key: "inputTensor:0"
    value {
      s: "tensor_135  |  Sizes = [1,128,4096]  |  bf16  |  expBias = 0, scale = 1  |    |  ModelParam = 0  |  strides = [1048576, 1048576, 8192, 2]  |  data = 0, sizeInBytes = 1048576  |  isPersistent  |  userMemorySection(type=Persistent, id=9)  |  "
    }
  }
  attr {
    key: "inputTensor:1"
    value {
      s: "tensor_136_odule/model/6/post_attention_layernorm/placeholder/1  |  Sizes = [4096]  |  bf16  |  expBias = 0, scale = 1  |    |  ModelParam = 0  |  strides = [8192, 2]  |  data = 0, sizeInBytes = 8192  |  isPersistent  |  userMemorySection(type=Persistent, id=47)  |  "
    }
  }
  attr {
    key: "outputTensor:0"
    value {
      s: "tensor_139  |  Sizes = [1,128,4096]  |  bf16  |  expBias = 0, scale = 1  |    |  ModelParam = 0  |  strides = [1048576, 1048576, 8192, 2]  |  data = 0, sizeInBytes = 1048576  |  "
    }
  }
  attr {
    key: "outputTensor:1"
    value {
      s: "tensor_140  |  Sizes = [1,128,1]  |  float32  |  expBias = 0, scale = 1  |    |  ModelParam = 0  |  strides = [512, 512, 4, 4]  |  data = 0, sizeInBytes = 512  |  "
    }
  }
}
node {
  name: "tensor_140"
  op: "OutputTensor"
  input: "module/model/6/post_attention_layernorm/rms_norm_ex_fwd_bf16/5494"
  attr {
    key: "dtype"
    value {
      type: DT_FLOAT
    }
  }
  attr {
    key: "shape"
    value {
      shape {
        dim {
          size: 1
        }
        dim {
          size: 128
        }
        dim {
          size: 1
        }
        dim {
          size: 1
        }
        dim {
          size: 1
        }
      }
    }
  }
  attr {
    key: "synDataType"
    value {
      s: "float32"
    }
  }
}
node {
  name: "tensor_150_odule/model/6/gate_proj/quant_input_0/placeholder/1"
  op: "Placeholder"
  attr {
    key: "dtype"
    value {
      type: DT_BFLOAT16
    }
  }
  attr {
    key: "shape"
    value {
      shape {
        dim {
          size: 1
        }
        dim {
          size: 1
        }
        dim {
          size: 1
        }
        dim {
          size: 1
        }
        dim {
          size: 1
        }
      }
    }
  }
  attr {
    key: "synDataType"
    value {
      s: "bf16"
    }
  }
}
node {
  name: "module/model/6/gate_proj/quant_input_0/convert_to_fp8_bf16/5497"
  op: "convert_to_fp8_bf16"
  input: "module/model/6/post_attention_layernorm/rms_norm_ex_fwd_bf16/5494"
  input: "tensor_150_odule/model/6/gate_proj/quant_input_0/placeholder/1"
  attr {
    key: "Bundle_idx"
    value {
      s: "N/A"
    }
  }
  attr {
    key: "Exec_idx"
    value {
      s: "55"
    }
  }
  attr {
    key: "Op_idx"
    value {
      s: "N/A"
    }
  }
  attr {
    key: "inputTensor:0"
    value {
      s: "tensor_139  |  Sizes = [1,128,4096]  |  bf16  |  expBias = 0, scale = 1  |    |  ModelParam = 0  |  strides = [1048576, 1048576, 8192, 2]  |  data = 0, sizeInBytes = 1048576  |  "
    }
  }
  attr {
    key: "inputTensor:1"
    value {
      s: "tensor_150_odule/model/6/gate_proj/quant_input_0/placeholder/1  |  Sizes = [1]  |  bf16  |  expBias = 0, scale = 1  |    |  ModelParam = 0  |  strides = [2, 2]  |  data = 0x56464adb2018, sizeInBytes = 2  |  buffer = 1  |  isPersistent  |  userMemorySection(type=Persistent, id=52)  |  isStaticParam  |  bufferDtype=bf16  |  "
    }
  }
  attr {
    key: "outputTensor:0"
    value {
      s: "tensor_153  |  Sizes = [1,128,4096]  |  hfloat8  |  expBias = 7, scale = 1  |    |  ModelParam = 0  |  strides = [524288, 524288, 4096, 1]  |  data = 0, sizeInBytes = 524288  |  "
    }
  }
}
node {
  name: "tensor_141_odule/model/6/up_proj/quant_input_0/placeholder/1"
  op: "Placeholder"
  attr {
    key: "dtype"
    value {
      type: DT_BFLOAT16
    }
  }
  attr {
    key: "shape"
    value {
      shape {
        dim {
          size: 1
        }
        dim {
          size: 1
        }
        dim {
          size: 1
        }
        dim {
          size: 1
        }
        dim {
          size: 1
        }
      }
    }
  }
  attr {
    key: "synDataType"
    value {
      s: "bf16"
    }
  }
}
node {
  name: "module/model/6/up_proj/quant_input_0/convert_to_fp8_bf16/5495"
  op: "convert_to_fp8_bf16"
  input: "module/model/6/post_attention_layernorm/rms_norm_ex_fwd_bf16/5494"
  input: "tensor_141_odule/model/6/up_proj/quant_input_0/placeholder/1"
  attr {
    key: "Bundle_idx"
    value {
      s: "N/A"
    }
  }
  attr {
    key: "Exec_idx"
    value {
      s: "56"
    }
  }
  attr {
    key: "Op_idx"
    value {
      s: "N/A"
    }
  }
  attr {
    key: "inputTensor:0"
    value {
      s: "tensor_139  |  Sizes = [1,128,4096]  |  bf16  |  expBias = 0, scale = 1  |    |  ModelParam = 0  |  strides = [1048576, 1048576, 8192, 2]  |  data = 0, sizeInBytes = 1048576  |  "
    }
  }
  attr {
    key: "inputTensor:1"
    value {
      s: "tensor_141_odule/model/6/up_proj/quant_input_0/placeholder/1  |  Sizes = [1]  |  bf16  |  expBias = 0, scale = 1  |    |  ModelParam = 0  |  strides = [2, 2]  |  data = 0x56464c9e18b8, sizeInBytes = 2  |  buffer = 1  |  isPersistent  |  userMemorySection(type=Persistent, id=48)  |  isStaticParam  |  bufferDtype=bf16  |  "
    }
  }
  attr {
    key: "outputTensor:0"
    value {
      s: "tensor_144  |  Sizes = [1,128,4096]  |  hfloat8  |  expBias = 7, scale = 1  |    |  ModelParam = 0  |  strides = [524288, 524288, 4096, 1]  |  data = 0, sizeInBytes = 524288  |  "
    }
  }
}
node {
  name: "tensor_154_odule/model/6/gate_proj/placeholder/1"
  op: "Placeholder"
  attr {
    key: "dtype"
    value {
      type: DT_INVALID
    }
  }
  attr {
    key: "shape"
    value {
      shape {
        dim {
          size: 14336
        }
        dim {
          size: 4096
        }
        dim {
          size: 1
        }
        dim {
          size: 1
        }
        dim {
          size: 1
        }
      }
    }
  }
  attr {
    key: "synDataType"
    value {
      s: "hfloat8"
    }
  }
}
node {
  name: "tensor_155_odule/model/6/gate_proj/placeholder/2"
  op: "Placeholder"
  attr {
    key: "dtype"
    value {
      type: DT_BFLOAT16
    }
  }
  attr {
    key: "shape"
    value {
      shape {
        dim {
          size: 1
        }
        dim {
          size: 1
        }
        dim {
          size: 1
        }
        dim {
          size: 1
        }
        dim {
          size: 1
        }
      }
    }
  }
  attr {
    key: "synDataType"
    value {
      s: "bf16"
    }
  }
}
node {
  name: "tensor_156_odule/model/6/gate_proj/placeholder/3"
  op: "Placeholder"
  attr {
    key: "dtype"
    value {
      type: DT_BFLOAT16
    }
  }
  attr {
    key: "shape"
    value {
      shape {
        dim {
          size: 1
        }
        dim {
          size: 1
        }
        dim {
          size: 1
        }
        dim {
          size: 1
        }
        dim {
          size: 1
        }
      }
    }
  }
  attr {
    key: "synDataType"
    value {
      s: "bf16"
    }
  }
}
node {
  name: "module/model/6/gate_proj/fp8_gemm_bf16/5498"
  op: "fp8_gemm_bf16"
  input: "module/model/6/gate_proj/quant_input_0/convert_to_fp8_bf16/5497"
  input: "tensor_154_odule/model/6/gate_proj/placeholder/1"
  input: "tensor_155_odule/model/6/gate_proj/placeholder/2"
  input: "tensor_156_odule/model/6/gate_proj/placeholder/3"
  input: "unused_port"
  input: "unused_port"
  input: "unused_port"
  attr {
    key: "Bundle_idx"
    value {
      s: "N/A"
    }
  }
  attr {
    key: "Exec_idx"
    value {
      s: "57"
    }
  }
  attr {
    key: "Op_idx"
    value {
      s: "N/A"
    }
  }
  attr {
    key: "inputTensor:0"
    value {
      s: "tensor_153  |  Sizes = [1,128,4096]  |  hfloat8  |  expBias = 7, scale = 1  |    |  ModelParam = 0  |  strides = [524288, 524288, 4096, 1]  |  data = 0, sizeInBytes = 524288  |  "
    }
  }
  attr {
    key: "inputTensor:1"
    value {
      s: "tensor_154_odule/model/6/gate_proj/placeholder/1  |  Sizes = [4096,14336]  |  hfloat8  |  expBias = 7, scale = 1  |    |  ModelParam = 0  |  strides = [58720256, 14336, 1]  |  data = 0, sizeInBytes = 58720256  |  isPersistent  |  userMemorySection(type=Persistent, id=53)  |  "
    }
  }
  attr {
    key: "inputTensor:2"
    value {
      s: "tensor_155_odule/model/6/gate_proj/placeholder/2  |  Sizes = [1]  |  bf16  |  expBias = 0, scale = 1  |    |  ModelParam = 0  |  strides = [2, 2]  |  data = 0x56464adb2048, sizeInBytes = 2  |  buffer = 1  |  isPersistent  |  userMemorySection(type=Persistent, id=54)  |  isStaticParam  |  bufferDtype=bf16  |  "
    }
  }
  attr {
    key: "inputTensor:3"
    value {
      s: "tensor_156_odule/model/6/gate_proj/placeholder/3  |  Sizes = [1]  |  bf16  |  expBias = 0, scale = 1  |    |  ModelParam = 0  |  strides = [2, 2]  |  data = 0x56464adb2040, sizeInBytes = 2  |  buffer = 0.00390625  |  isPersistent  |  userMemorySection(type=Persistent, id=55)  |  isStaticParam  |  bufferDtype=bf16  |  "
    }
  }
  attr {
    key: "outputTensor:0"
    value {
      s: "tensor_158  |  Sizes = [1,128,14336]  |  bf16  |  expBias = 0, scale = 1  |    |  ModelParam = 0  |  strides = [3670016, 3670016, 28672, 2]  |  data = 0, sizeInBytes = 3670016  |  "
    }
  }
}
node {
  name: "tensor_145_odule/model/6/up_proj/placeholder/1"
  op: "Placeholder"
  attr {
    key: "dtype"
    value {
      type: DT_INVALID
    }
  }
  attr {
    key: "shape"
    value {
      shape {
        dim {
          size: 14336
        }
        dim {
          size: 4096
        }
        dim {
          size: 1
        }
        dim {
          size: 1
        }
        dim {
          size: 1
        }
      }
    }
  }
  attr {
    key: "synDataType"
    value {
      s: "hfloat8"
    }
  }
}
node {
  name: "tensor_146_odule/model/6/up_proj/placeholder/2"
  op: "Placeholder"
  attr {
    key: "dtype"
    value {
      type: DT_BFLOAT16
    }
  }
  attr {
    key: "shape"
    value {
      shape {
        dim {
          size: 1
        }
        dim {
          size: 1
        }
        dim {
          size: 1
        }
        dim {
          size: 1
        }
        dim {
          size: 1
        }
      }
    }
  }
  attr {
    key: "synDataType"
    value {
      s: "bf16"
    }
  }
}
node {
  name: "tensor_147_odule/model/6/up_proj/placeholder/3"
  op: "Placeholder"
  attr {
    key: "dtype"
    value {
      type: DT_BFLOAT16
    }
  }
  attr {
    key: "shape"
    value {
      shape {
        dim {
          size: 1
        }
        dim {
          size: 1
        }
        dim {
          size: 1
        }
        dim {
          size: 1
        }
        dim {
          size: 1
        }
      }
    }
  }
  attr {
    key: "synDataType"
    value {
      s: "bf16"
    }
  }
}
node {
  name: "module/model/6/up_proj/fp8_gemm_bf16/5496"
  op: "fp8_gemm_bf16"
  input: "module/model/6/up_proj/quant_input_0/convert_to_fp8_bf16/5495"
  input: "tensor_145_odule/model/6/up_proj/placeholder/1"
  input: "tensor_146_odule/model/6/up_proj/placeholder/2"
  input: "tensor_147_odule/model/6/up_proj/placeholder/3"
  input: "unused_port"
  input: "unused_port"
  input: "unused_port"
  attr {
    key: "Bundle_idx"
    value {
      s: "N/A"
    }
  }
  attr {
    key: "Exec_idx"
    value {
      s: "58"
    }
  }
  attr {
    key: "Op_idx"
    value {
      s: "N/A"
    }
  }
  attr {
    key: "inputTensor:0"
    value {
      s: "tensor_144  |  Sizes = [1,128,4096]  |  hfloat8  |  expBias = 7, scale = 1  |    |  ModelParam = 0  |  strides = [524288, 524288, 4096, 1]  |  data = 0, sizeInBytes = 524288  |  "
    }
  }
  attr {
    key: "inputTensor:1"
    value {
      s: "tensor_145_odule/model/6/up_proj/placeholder/1  |  Sizes = [4096,14336]  |  hfloat8  |  expBias = 7, scale = 1  |    |  ModelParam = 0  |  strides = [58720256, 14336, 1]  |  data = 0, sizeInBytes = 58720256  |  isPersistent  |  userMemorySection(type=Persistent, id=49)  |  "
    }
  }
  attr {
    key: "inputTensor:2"
    value {
      s: "tensor_146_odule/model/6/up_proj/placeholder/2  |  Sizes = [1]  |  bf16  |  expBias = 0, scale = 1  |    |  ModelParam = 0  |  strides = [2, 2]  |  data = 0x56472edb9b60, sizeInBytes = 2  |  buffer = 1  |  isPersistent  |  userMemorySection(type=Persistent, id=50)  |  isStaticParam  |  bufferDtype=bf16  |  "
    }
  }
  attr {
    key: "inputTensor:3"
    value {
      s: "tensor_147_odule/model/6/up_proj/placeholder/3  |  Sizes = [1]  |  bf16  |  expBias = 0, scale = 1  |    |  ModelParam = 0  |  strides = [2, 2]  |  data = 0x56472f8e3568, sizeInBytes = 2  |  buffer = 0.00390625  |  isPersistent  |  userMemorySection(type=Persistent, id=51)  |  isStaticParam  |  bufferDtype=bf16  |  "
    }
  }
  attr {
    key: "outputTensor:0"
    value {
      s: "tensor_149  |  Sizes = [1,128,14336]  |  bf16  |  expBias = 0, scale = 1  |    |  ModelParam = 0  |  strides = [3670016, 3670016, 28672, 2]  |  data = 0, sizeInBytes = 3670016  |  "
    }
  }
}
node {
  name: "module/model/6/act_fn/silu_fwd_bf16/5499"
  op: "silu_fwd_bf16"
  input: "module/model/6/gate_proj/fp8_gemm_bf16/5498"
  attr {
    key: "Bundle_idx"
    value {
      s: "N/A"
    }
  }
  attr {
    key: "Exec_idx"
    value {
      s: "59"
    }
  }
  attr {
    key: "Op_idx"
    value {
      s: "N/A"
    }
  }
  attr {
    key: "inputTensor:0"
    value {
      s: "tensor_158  |  Sizes = [1,128,14336]  |  bf16  |  expBias = 0, scale = 1  |    |  ModelParam = 0  |  strides = [3670016, 3670016, 28672, 2]  |  data = 0, sizeInBytes = 3670016  |  "
    }
  }
  attr {
    key: "outputTensor:0"
    value {
      s: "tensor_159_id_91323_module/model/6/act_fn/aten__silu  |  Sizes = [1,128,14336]  |  bf16  |  expBias = 0, scale = 1  |    |  ModelParam = 0  |  strides = [3670016, 3670016, 28672, 2]  |  data = 0, sizeInBytes = 3670016  |  "
    }
  }
}
node {
  name: "module/model/6/mult_fwd_bf16/5500"
  op: "mult_fwd_bf16"
  input: "module/model/6/act_fn/silu_fwd_bf16/5499"
  input: "module/model/6/up_proj/fp8_gemm_bf16/5496"
  attr {
    key: "Bundle_idx"
    value {
      s: "N/A"
    }
  }
  attr {
    key: "Exec_idx"
    value {
      s: "60"
    }
  }
  attr {
    key: "Op_idx"
    value {
      s: "N/A"
    }
  }
  attr {
    key: "inputTensor:0"
    value {
      s: "tensor_159_id_91323_module/model/6/act_fn/aten__silu  |  Sizes = [1,128,14336]  |  bf16  |  expBias = 0, scale = 1  |    |  ModelParam = 0  |  strides = [3670016, 3670016, 28672, 2]  |  data = 0, sizeInBytes = 3670016  |  "
    }
  }
  attr {
    key: "inputTensor:1"
    value {
      s: "tensor_149  |  Sizes = [1,128,14336]  |  bf16  |  expBias = 0, scale = 1  |    |  ModelParam = 0  |  strides = [3670016, 3670016, 28672, 2]  |  data = 0, sizeInBytes = 3670016  |  "
    }
  }
  attr {
    key: "outputTensor:0"
    value {
      s: "tensor_160_id_91338_module/model/6/aten__mul  |  Sizes = [1,128,14336]  |  bf16  |  expBias = 0, scale = 1  |    |  ModelParam = 0  |  strides = [3670016, 3670016, 28672, 2]  |  data = 0, sizeInBytes = 3670016  |  "
    }
  }
}
node {
  name: "tensor_161_odule/model/6/down_proj/quant_input_0/placeholder/1"
  op: "Placeholder"
  attr {
    key: "dtype"
    value {
      type: DT_BFLOAT16
    }
  }
  attr {
    key: "shape"
    value {
      shape {
        dim {
          size: 1
        }
        dim {
          size: 1
        }
        dim {
          size: 1
        }
        dim {
          size: 1
        }
        dim {
          size: 1
        }
      }
    }
  }
  attr {
    key: "synDataType"
    value {
      s: "bf16"
    }
  }
}
node {
  name: "module/model/6/down_proj/quant_input_0/convert_to_fp8_bf16/5501"
  op: "convert_to_fp8_bf16"
  input: "module/model/6/mult_fwd_bf16/5500"
  input: "tensor_161_odule/model/6/down_proj/quant_input_0/placeholder/1"
  attr {
    key: "Bundle_idx"
    value {
      s: "N/A"
    }
  }
  attr {
    key: "Exec_idx"
    value {
      s: "61"
    }
  }
  attr {
    key: "Op_idx"
    value {
      s: "N/A"
    }
  }
  attr {
    key: "inputTensor:0"
    value {
      s: "tensor_160_id_91338_module/model/6/aten__mul  |  Sizes = [1,128,14336]  |  bf16  |  expBias = 0, scale = 1  |    |  ModelParam = 0  |  strides = [3670016, 3670016, 28672, 2]  |  data = 0, sizeInBytes = 3670016  |  "
    }
  }
  attr {
    key: "inputTensor:1"
    value {
      s: "tensor_161_odule/model/6/down_proj/quant_input_0/placeholder/1  |  Sizes = [1]  |  bf16  |  expBias = 0, scale = 1  |    |  ModelParam = 0  |  strides = [2, 2]  |  data = 0x56464adb20b0, sizeInBytes = 2  |  buffer = 1  |  isPersistent  |  userMemorySection(type=Persistent, id=56)  |  isStaticParam  |  bufferDtype=bf16  |  "
    }
  }
  attr {
    key: "outputTensor:0"
    value {
      s: "tensor_164  |  Sizes = [1,128,14336]  |  hfloat8  |  expBias = 7, scale = 1  |    |  ModelParam = 0  |  strides = [1835008, 1835008, 14336, 1]  |  data = 0, sizeInBytes = 1835008  |  "
    }
  }
}
node {
  name: "module/model/6/constant_hf8/5436"
  op: "constant_hf8"
  attr {
    key: "Bundle_idx"
    value {
      s: "N/A"
    }
  }
  attr {
    key: "Exec_idx"
    value {
      s: "62"
    }
  }
  attr {
    key: "Op_idx"
    value {
      s: "N/A"
    }
  }
  attr {
    key: "outputTensor:0"
    value {
      s: "tensor_2  |  Sizes = [1,8,128,128]  |  hfloat8  |  expBias = 7, scale = 1  |    |  ModelParam = 0  |  strides = [131072, 131072, 16384, 128, 1]  |  data = 0, sizeInBytes = 131072  |  isPersistent  |  userMemorySection(type=Persistent, id=4)  |  "
    }
  }
}
node {
  name: "tensor_2"
  op: "OutputTensor"
  input: "module/model/6/constant_hf8/5436"
  attr {
    key: "dtype"
    value {
      type: DT_INVALID
    }
  }
  attr {
    key: "shape"
    value {
      shape {
        dim {
          size: 128
        }
        dim {
          size: 128
        }
        dim {
          size: 8
        }
        dim {
          size: 1
        }
        dim {
          size: 1
        }
      }
    }
  }
  attr {
    key: "synDataType"
    value {
      s: "hfloat8"
    }
  }
}
node {
  name: "module/model/6/constant_hf8/5459"
  op: "constant_hf8"
  attr {
    key: "Bundle_idx"
    value {
      s: "N/A"
    }
  }
  attr {
    key: "Exec_idx"
    value {
      s: "63"
    }
  }
  attr {
    key: "Op_idx"
    value {
      s: "N/A"
    }
  }
  attr {
    key: "outputTensor:0"
    value {
      s: "tensor_50  |  Sizes = [1,8,128,128]  |  hfloat8  |  expBias = 7, scale = 1  |    |  ModelParam = 0  |  strides = [131072, 131072, 16384, 128, 1]  |  data = 0, sizeInBytes = 131072  |  isPersistent  |  userMemorySection(type=Persistent, id=19)  |  "
    }
  }
}
node {
  name: "tensor_50"
  op: "OutputTensor"
  input: "module/model/6/constant_hf8/5459"
  attr {
    key: "dtype"
    value {
      type: DT_INVALID
    }
  }
  attr {
    key: "shape"
    value {
      shape {
        dim {
          size: 128
        }
        dim {
          size: 128
        }
        dim {
          size: 8
        }
        dim {
          size: 1
        }
        dim {
          size: 1
        }
      }
    }
  }
  attr {
    key: "synDataType"
    value {
      s: "hfloat8"
    }
  }
}
node {
  name: "tensor_165_odule/model/6/down_proj/placeholder/1"
  op: "Placeholder"
  attr {
    key: "dtype"
    value {
      type: DT_INVALID
    }
  }
  attr {
    key: "shape"
    value {
      shape {
        dim {
          size: 4096
        }
        dim {
          size: 14336
        }
        dim {
          size: 1
        }
        dim {
          size: 1
        }
        dim {
          size: 1
        }
      }
    }
  }
  attr {
    key: "synDataType"
    value {
      s: "hfloat8"
    }
  }
}
node {
  name: "tensor_166_odule/model/6/down_proj/placeholder/2"
  op: "Placeholder"
  attr {
    key: "dtype"
    value {
      type: DT_BFLOAT16
    }
  }
  attr {
    key: "shape"
    value {
      shape {
        dim {
          size: 1
        }
        dim {
          size: 1
        }
        dim {
          size: 1
        }
        dim {
          size: 1
        }
        dim {
          size: 1
        }
      }
    }
  }
  attr {
    key: "synDataType"
    value {
      s: "bf16"
    }
  }
}
node {
  name: "tensor_167_odule/model/6/down_proj/placeholder/3"
  op: "Placeholder"
  attr {
    key: "dtype"
    value {
      type: DT_BFLOAT16
    }
  }
  attr {
    key: "shape"
    value {
      shape {
        dim {
          size: 1
        }
        dim {
          size: 1
        }
        dim {
          size: 1
        }
        dim {
          size: 1
        }
        dim {
          size: 1
        }
      }
    }
  }
  attr {
    key: "synDataType"
    value {
      s: "bf16"
    }
  }
}
node {
  name: "module/model/6/down_proj/fp8_gemm_bf16/5502"
  op: "fp8_gemm_bf16"
  input: "module/model/6/down_proj/quant_input_0/convert_to_fp8_bf16/5501"
  input: "tensor_165_odule/model/6/down_proj/placeholder/1"
  input: "tensor_166_odule/model/6/down_proj/placeholder/2"
  input: "tensor_167_odule/model/6/down_proj/placeholder/3"
  input: "unused_port"
  input: "unused_port"
  input: "unused_port"
  attr {
    key: "Bundle_idx"
    value {
      s: "N/A"
    }
  }
  attr {
    key: "Exec_idx"
    value {
      s: "64"
    }
  }
  attr {
    key: "Op_idx"
    value {
      s: "N/A"
    }
  }
  attr {
    key: "inputTensor:0"
    value {
      s: "tensor_164  |  Sizes = [1,128,14336]  |  hfloat8  |  expBias = 7, scale = 1  |    |  ModelParam = 0  |  strides = [1835008, 1835008, 14336, 1]  |  data = 0, sizeInBytes = 1835008  |  "
    }
  }
  attr {
    key: "inputTensor:1"
    value {
      s: "tensor_165_odule/model/6/down_proj/placeholder/1  |  Sizes = [14336,4096]  |  hfloat8  |  expBias = 7, scale = 1  |    |  ModelParam = 0  |  strides = [58720256, 4096, 1]  |  data = 0, sizeInBytes = 58720256  |  isPersistent  |  userMemorySection(type=Persistent, id=57)  |  "
    }
  }
  attr {
    key: "inputTensor:2"
    value {
      s: "tensor_166_odule/model/6/down_proj/placeholder/2  |  Sizes = [1]  |  bf16  |  expBias = 0, scale = 1  |    |  ModelParam = 0  |  strides = [2, 2]  |  data = 0x56464adb20e0, sizeInBytes = 2  |  buffer = 1  |  isPersistent  |  userMemorySection(type=Persistent, id=58)  |  isStaticParam  |  bufferDtype=bf16  |  "
    }
  }
  attr {
    key: "inputTensor:3"
    value {
      s: "tensor_167_odule/model/6/down_proj/placeholder/3  |  Sizes = [1]  |  bf16  |  expBias = 0, scale = 1  |    |  ModelParam = 0  |  strides = [2, 2]  |  data = 0x56464adb20d8, sizeInBytes = 2  |  buffer = 0.0625  |  isPersistent  |  userMemorySection(type=Persistent, id=59)  |  isStaticParam  |  bufferDtype=bf16  |  "
    }
  }
  attr {
    key: "outputTensor:0"
    value {
      s: "tensor_169  |  Sizes = [1,128,4096]  |  bf16  |  expBias = 0, scale = 1  |    |  ModelParam = 0  |  strides = [1048576, 1048576, 8192, 2]  |  data = 0, sizeInBytes = 1048576  |  "
    }
  }
}
node {
  name: "module/model/6/memcpy/5457"
  op: "Memcpy"
  input: "module/model/6/quant_input_0/convert_to_fp8_bf16/5456"
  input: "^module/model/6/constant_hf8/5436"
  attr {
    key: "Bundle_idx"
    value {
      s: "N/A"
    }
  }
  attr {
    key: "Exec_idx"
    value {
      s: "65"
    }
  }
  attr {
    key: "Op_idx"
    value {
      s: "N/A"
    }
  }
  attr {
    key: "inputTensor:0"
    value {
      s: "tensor_43  |  Sizes = [1,8,128,128]  |  hfloat8  |  expBias = 7, scale = 1  |    |  ModelParam = 0  |  strides = [131072, 131072, 16384, 128, 1]  |  data = 0, sizeInBytes = 131072  |  "
    }
  }
  attr {
    key: "outputTensor:0"
    value {
      s: "tensor_44  |  Sizes = [1,8,128,128]  |  hfloat8  |  expBias = 7, scale = 1  |    |  ModelParam = 0  |  strides = [131072, 131072, 16384, 128, 1]  |  data = 0, sizeInBytes = 131072  |  isPersistent  |  userMemorySection(type=Persistent, id=4)  |  "
    }
  }
}
node {
  name: "tensor_44"
  op: "OutputTensor"
  input: "module/model/6/memcpy/5457"
  attr {
    key: "dtype"
    value {
      type: DT_INVALID
    }
  }
  attr {
    key: "shape"
    value {
      shape {
        dim {
          size: 128
        }
        dim {
          size: 128
        }
        dim {
          size: 8
        }
        dim {
          size: 1
        }
        dim {
          size: 1
        }
      }
    }
  }
  attr {
    key: "synDataType"
    value {
      s: "hfloat8"
    }
  }
}
node {
  name: "module/model/6/memcpy/5465"
  op: "Memcpy"
  input: "module/model/6/quant_input_0/convert_to_fp8_bf16/5464"
  input: "^module/model/6/constant_hf8/5459"
  attr {
    key: "Bundle_idx"
    value {
      s: "N/A"
    }
  }
  attr {
    key: "Exec_idx"
    value {
      s: "66"
    }
  }
  attr {
    key: "Op_idx"
    value {
      s: "N/A"
    }
  }
  attr {
    key: "inputTensor:0"
    value {
      s: "tensor_66  |  Sizes = [1,8,128,128]  |  hfloat8  |  expBias = 7, scale = 1  |    |  ModelParam = 0  |  strides = [131072, 131072, 16384, 128, 1]  |  data = 0, sizeInBytes = 131072  |  "
    }
  }
  attr {
    key: "outputTensor:0"
    value {
      s: "tensor_67  |  Sizes = [1,8,128,128]  |  hfloat8  |  expBias = 7, scale = 1  |    |  ModelParam = 0  |  strides = [131072, 131072, 16384, 128, 1]  |  data = 0, sizeInBytes = 131072  |  isPersistent  |  userMemorySection(type=Persistent, id=19)  |  "
    }
  }
}
node {
  name: "tensor_67"
  op: "OutputTensor"
  input: "module/model/6/memcpy/5465"
  attr {
    key: "dtype"
    value {
      type: DT_INVALID
    }
  }
  attr {
    key: "shape"
    value {
      shape {
        dim {
          size: 128
        }
        dim {
          size: 128
        }
        dim {
          size: 8
        }
        dim {
          size: 1
        }
        dim {
          size: 1
        }
      }
    }
  }
  attr {
    key: "synDataType"
    value {
      s: "hfloat8"
    }
  }
}
node {
  name: "module/model/6/add_fwd_bf16/5503"
  op: "add_fwd_bf16"
  input: "module/model/6/add_fwd_bf16/5493"
  input: "module/model/6/down_proj/fp8_gemm_bf16/5502"
  input: "^module/model/6/post_attention_layernorm/rms_norm_ex_fwd_bf16/5494"
  attr {
    key: "Bundle_idx"
    value {
      s: "N/A"
    }
  }
  attr {
    key: "Exec_idx"
    value {
      s: "67"
    }
  }
  attr {
    key: "Op_idx"
    value {
      s: "N/A"
    }
  }
  attr {
    key: "inputTensor:0"
    value {
      s: "tensor_135  |  Sizes = [1,128,4096]  |  bf16  |  expBias = 0, scale = 1  |    |  ModelParam = 0  |  strides = [1048576, 1048576, 8192, 2]  |  data = 0, sizeInBytes = 1048576  |  isPersistent  |  userMemorySection(type=Persistent, id=9)  |  "
    }
  }
  attr {
    key: "inputTensor:1"
    value {
      s: "tensor_169  |  Sizes = [1,128,4096]  |  bf16  |  expBias = 0, scale = 1  |    |  ModelParam = 0  |  strides = [1048576, 1048576, 8192, 2]  |  data = 0, sizeInBytes = 1048576  |  "
    }
  }
  attr {
    key: "outputTensor:0"
    value {
      s: "tensor_170  |  Sizes = [1,128,4096]  |  bf16  |  expBias = 0, scale = 1  |    |  ModelParam = 0  |  strides = [1048576, 1048576, 8192, 2]  |  data = 0, sizeInBytes = 1048576  |  isPersistent  |  userMemorySection(type=Persistent, id=9)  |  "
    }
  }
}
node {
  name: "tensor_170"
  op: "OutputTensor"
  input: "module/model/6/add_fwd_bf16/5503"
  attr {
    key: "dtype"
    value {
      type: DT_BFLOAT16
    }
  }
  attr {
    key: "shape"
    value {
      shape {
        dim {
          size: 4096
        }
        dim {
          size: 128
        }
        dim {
          size: 1
        }
        dim {
          size: 1
        }
        dim {
          size: 1
        }
      }
    }
  }
  attr {
    key: "synDataType"
    value {
      s: "bf16"
    }
  }
}
