node {
  name: "tensor_4_odule/model/2/placeholder/0"
  op: "Placeholder"
  attr {
    key: "dtype"
    value {
      type: DT_INT32
    }
  }
  attr {
    key: "shape"
    value {
      shape {
        dim {
          size: 32
        }
        dim {
          size: 1
        }
        dim {
          size: 1
        }
        dim {
          size: 1
        }
        dim {
          size: 1
        }
      }
    }
  }
  attr {
    key: "synDataType"
    value {
      s: "int32"
    }
  }
}
node {
  name: "module/model/2/expand_dims/9555"
  op: "ExpandDims"
  input: "tensor_4_odule/model/2/placeholder/0"
  attr {
    key: "Bundle_idx"
    value {
      s: "N/A"
    }
  }
  attr {
    key: "Exec_idx"
    value {
      s: "0"
    }
  }
  attr {
    key: "Op_idx"
    value {
      s: "N/A"
    }
  }
  attr {
    key: "inputTensor:0"
    value {
      s: "tensor_4_odule/model/2/placeholder/0  |  Sizes = [32]  |  int32  |  expBias = 0, scale = 1  |    |  ModelParam = 0  |  strides = [128, 4]  |  data = 0, sizeInBytes = 128  |  isPersistent  |  userMemorySection(type=Persistent, id=5)  |  "
    }
  }
  attr {
    key: "outputTensor:0"
    value {
      s: "tensor_5_id_107510_module/model/2/aten__unsqueeze/1  |  Sizes = [1,32]  |  int32  |  expBias = 0, scale = 1  |    |  ModelParam = 0  |  strides = [128, 128, 4]  |  data = 0, sizeInBytes = 128  |  "
    }
  }
}
node {
  name: "tensor_71_odule/model/2/fused_scaled_dot_product_attention/placeholder/0"
  op: "Placeholder"
  attr {
    key: "dtype"
    value {
      type: DT_BFLOAT16
    }
  }
  attr {
    key: "shape"
    value {
      shape {
        dim {
          size: 32
        }
        dim {
          size: 32
        }
        dim {
          size: 1
        }
        dim {
          size: 1
        }
        dim {
          size: 1
        }
      }
    }
  }
  attr {
    key: "synDataType"
    value {
      s: "bf16"
    }
  }
}
node {
  name: "module/model/2/fused_scaled_dot_product_attention/expand_dims/9585"
  op: "ExpandDims"
  input: "tensor_71_odule/model/2/fused_scaled_dot_product_attention/placeholder/0"
  attr {
    key: "Bundle_idx"
    value {
      s: "N/A"
    }
  }
  attr {
    key: "Exec_idx"
    value {
      s: "1"
    }
  }
  attr {
    key: "Op_idx"
    value {
      s: "N/A"
    }
  }
  attr {
    key: "inputTensor:0"
    value {
      s: "tensor_71_odule/model/2/fused_scaled_dot_product_attention/placeholder/0  |  Sizes = [32,32]  |  bf16  |  expBias = 0, scale = 1  |    |  ModelParam = 0  |  strides = [2048, 64, 2]  |  data = 0, sizeInBytes = 2048  |  isPersistent  |  userMemorySection(type=Persistent, id=28)  |  "
    }
  }
  attr {
    key: "outputTensor:0"
    value {
      s: "tensor_72_id_107511_module/model/2/fused_scaled_dot_product_attention/aten__unsqueeze  |  Sizes = [1,32,32]  |  bf16  |  expBias = 0, scale = 1  |    |  ModelParam = 0  |  strides = [2048, 2048, 64, 2]  |  data = 0, sizeInBytes = 2048  |  "
    }
  }
}
node {
  name: "module/model/2/fused_scaled_dot_product_attention/expand_dims/9586"
  op: "ExpandDims"
  input: "module/model/2/fused_scaled_dot_product_attention/expand_dims/9585"
  attr {
    key: "Bundle_idx"
    value {
      s: "N/A"
    }
  }
  attr {
    key: "Exec_idx"
    value {
      s: "2"
    }
  }
  attr {
    key: "Op_idx"
    value {
      s: "N/A"
    }
  }
  attr {
    key: "inputTensor:0"
    value {
      s: "tensor_72_id_107511_module/model/2/fused_scaled_dot_product_attention/aten__unsqueeze  |  Sizes = [1,32,32]  |  bf16  |  expBias = 0, scale = 1  |    |  ModelParam = 0  |  strides = [2048, 2048, 64, 2]  |  data = 0, sizeInBytes = 2048  |  "
    }
  }
  attr {
    key: "outputTensor:0"
    value {
      s: "tensor_73_id_107512_module/model/2/fused_scaled_dot_product_attention/aten__unsqueeze  |  Sizes = [1,1,32,32]  |  bf16  |  expBias = 0, scale = 1  |    |  ModelParam = 0  |  strides = [2048, 2048, 2048, 64, 2]  |  data = 0, sizeInBytes = 2048  |  "
    }
  }
}
node {
  name: "module/model/2/expand_dims/9595"
  op: "ExpandDims"
  input: "tensor_4_odule/model/2/placeholder/0"
  attr {
    key: "Bundle_idx"
    value {
      s: "N/A"
    }
  }
  attr {
    key: "Exec_idx"
    value {
      s: "3"
    }
  }
  attr {
    key: "Op_idx"
    value {
      s: "N/A"
    }
  }
  attr {
    key: "inputTensor:0"
    value {
      s: "tensor_4_odule/model/2/placeholder/0  |  Sizes = [32]  |  int32  |  expBias = 0, scale = 1  |    |  ModelParam = 0  |  strides = [128, 4]  |  data = 0, sizeInBytes = 128  |  isPersistent  |  userMemorySection(type=Persistent, id=5)  |  "
    }
  }
  attr {
    key: "outputTensor:0"
    value {
      s: "tensor_88_id_107510_module/model/2/aten__unsqueeze  |  Sizes = [1,32]  |  int32  |  expBias = 0, scale = 1  |    |  ModelParam = 0  |  strides = [128, 128, 4]  |  data = 0, sizeInBytes = 128  |  "
    }
  }
}
node {
  name: "tensor_21_odule/model/2/input_layernorm/placeholder/0"
  op: "Placeholder"
  attr {
    key: "dtype"
    value {
      type: DT_BFLOAT16
    }
  }
  attr {
    key: "shape"
    value {
      shape {
        dim {
          size: 4096
        }
        dim {
          size: 32
        }
        dim {
          size: 1
        }
        dim {
          size: 1
        }
        dim {
          size: 1
        }
      }
    }
  }
  attr {
    key: "synDataType"
    value {
      s: "bf16"
    }
  }
}
node {
  name: "tensor_22_odule/model/2/input_layernorm/placeholder/1"
  op: "Placeholder"
  attr {
    key: "dtype"
    value {
      type: DT_BFLOAT16
    }
  }
  attr {
    key: "shape"
    value {
      shape {
        dim {
          size: 4096
        }
        dim {
          size: 1
        }
        dim {
          size: 1
        }
        dim {
          size: 1
        }
        dim {
          size: 1
        }
      }
    }
  }
  attr {
    key: "synDataType"
    value {
      s: "bf16"
    }
  }
}
node {
  name: "module/model/2/input_layernorm/rms_norm_ex_fwd_bf16/9568"
  op: "rms_norm_ex_fwd_bf16"
  input: "tensor_21_odule/model/2/input_layernorm/placeholder/0"
  input: "tensor_22_odule/model/2/input_layernorm/placeholder/1"
  attr {
    key: "Bundle_idx"
    value {
      s: "N/A"
    }
  }
  attr {
    key: "Exec_idx"
    value {
      s: "4"
    }
  }
  attr {
    key: "Op_idx"
    value {
      s: "N/A"
    }
  }
  attr {
    key: "inputTensor:0"
    value {
      s: "tensor_21_odule/model/2/input_layernorm/placeholder/0  |  Sizes = [1,32,4096]  |  bf16  |  expBias = 0, scale = 1  |    |  ModelParam = 0  |  strides = [262144, 262144, 8192, 2]  |  data = 0, sizeInBytes = 262144  |  isPersistent  |  userMemorySection(type=Persistent, id=9)  |  "
    }
  }
  attr {
    key: "inputTensor:1"
    value {
      s: "tensor_22_odule/model/2/input_layernorm/placeholder/1  |  Sizes = [4096]  |  bf16  |  expBias = 0, scale = 1  |    |  ModelParam = 0  |  strides = [8192, 2]  |  data = 0, sizeInBytes = 8192  |  isPersistent  |  userMemorySection(type=Persistent, id=10)  |  "
    }
  }
  attr {
    key: "outputTensor:0"
    value {
      s: "tensor_25  |  Sizes = [1,32,4096]  |  bf16  |  expBias = 0, scale = 1  |    |  ModelParam = 0  |  strides = [262144, 262144, 8192, 2]  |  data = 0, sizeInBytes = 262144  |  "
    }
  }
  attr {
    key: "outputTensor:1"
    value {
      s: "tensor_26  |  Sizes = [1,32,1]  |  float32  |  expBias = 0, scale = 1  |    |  ModelParam = 0  |  strides = [128, 128, 4, 4]  |  data = 0, sizeInBytes = 128  |  "
    }
  }
}
node {
  name: "tensor_26"
  op: "OutputTensor"
  input: "module/model/2/input_layernorm/rms_norm_ex_fwd_bf16/9568"
  attr {
    key: "dtype"
    value {
      type: DT_FLOAT
    }
  }
  attr {
    key: "shape"
    value {
      shape {
        dim {
          size: 1
        }
        dim {
          size: 32
        }
        dim {
          size: 1
        }
        dim {
          size: 1
        }
        dim {
          size: 1
        }
      }
    }
  }
  attr {
    key: "synDataType"
    value {
      s: "float32"
    }
  }
}
node {
  name: "tensor_27_odule/model/2/k_proj/quant_input_0/placeholder/1"
  op: "Placeholder"
  attr {
    key: "dtype"
    value {
      type: DT_BFLOAT16
    }
  }
  attr {
    key: "shape"
    value {
      shape {
        dim {
          size: 1
        }
        dim {
          size: 1
        }
        dim {
          size: 1
        }
        dim {
          size: 1
        }
        dim {
          size: 1
        }
      }
    }
  }
  attr {
    key: "synDataType"
    value {
      s: "bf16"
    }
  }
}
node {
  name: "module/model/2/k_proj/quant_input_0/convert_to_fp8_bf16/9569"
  op: "convert_to_fp8_bf16"
  input: "module/model/2/input_layernorm/rms_norm_ex_fwd_bf16/9568"
  input: "tensor_27_odule/model/2/k_proj/quant_input_0/placeholder/1"
  attr {
    key: "Bundle_idx"
    value {
      s: "N/A"
    }
  }
  attr {
    key: "Exec_idx"
    value {
      s: "5"
    }
  }
  attr {
    key: "Op_idx"
    value {
      s: "N/A"
    }
  }
  attr {
    key: "inputTensor:0"
    value {
      s: "tensor_25  |  Sizes = [1,32,4096]  |  bf16  |  expBias = 0, scale = 1  |    |  ModelParam = 0  |  strides = [262144, 262144, 8192, 2]  |  data = 0, sizeInBytes = 262144  |  "
    }
  }
  attr {
    key: "inputTensor:1"
    value {
      s: "tensor_27_odule/model/2/k_proj/quant_input_0/placeholder/1  |  Sizes = [1]  |  bf16  |  expBias = 0, scale = 1  |    |  ModelParam = 0  |  strides = [2, 2]  |  data = 0x564733dd1df8, sizeInBytes = 2  |  buffer = 1  |  isPersistent  |  userMemorySection(type=Persistent, id=11)  |  isStaticParam  |  bufferDtype=bf16  |  "
    }
  }
  attr {
    key: "outputTensor:0"
    value {
      s: "tensor_30  |  Sizes = [1,32,4096]  |  hfloat8  |  expBias = 7, scale = 1  |    |  ModelParam = 0  |  strides = [131072, 131072, 4096, 1]  |  data = 0, sizeInBytes = 131072  |  "
    }
  }
}
node {
  name: "tensor_6_odule/model/2/rotary_emb/placeholder/0"
  op: "Placeholder"
  attr {
    key: "dtype"
    value {
      type: DT_BFLOAT16
    }
  }
  attr {
    key: "shape"
    value {
      shape {
        dim {
          size: 128
        }
        dim {
          size: 131072
        }
        dim {
          size: 1
        }
        dim {
          size: 1
        }
        dim {
          size: 1
        }
      }
    }
  }
  attr {
    key: "synDataType"
    value {
      s: "bf16"
    }
  }
}
node {
  name: "module/model/2/rotary_emb/slice/9556"
  op: "Slice"
  input: "tensor_6_odule/model/2/rotary_emb/placeholder/0"
  attr {
    key: "Bundle_idx"
    value {
      s: "N/A"
    }
  }
  attr {
    key: "Exec_idx"
    value {
      s: "6"
    }
  }
  attr {
    key: "Op_idx"
    value {
      s: "N/A"
    }
  }
  attr {
    key: "inputTensor:0"
    value {
      s: "tensor_6_odule/model/2/rotary_emb/placeholder/0  |  Sizes = [131072,128]  |  bf16  |  expBias = 0, scale = 1  |    |  ModelParam = 0  |  strides = [33554432, 256, 2]  |  data = 0, sizeInBytes = 33554432  |  isPersistent  |  userMemorySection(type=Persistent, id=6)  |  "
    }
  }
  attr {
    key: "outputTensor:0"
    value {
      s: "tensor_7_id_107573_module/model/2/rotary_emb/aten__slice  |  Sizes = [32,128]  |  bf16  |  expBias = 0, scale = 1  |    |  ModelParam = 0  |  strides = [8192, 256, 2]  |  data = 0, sizeInBytes = 8192  |  "
    }
  }
}
node {
  name: "tensor_8_odule/model/2/rotary_emb/placeholder/1"
  op: "Placeholder"
  attr {
    key: "dtype"
    value {
      type: DT_FLOAT
    }
  }
  attr {
    key: "shape"
    value {
      shape {
        dim {
          size: 1
        }
        dim {
          size: 1
        }
        dim {
          size: 1
        }
        dim {
          size: 1
        }
        dim {
          size: 1
        }
      }
    }
  }
  attr {
    key: "synDataType"
    value {
      s: "float32"
    }
  }
}
node {
  name: "module/model/2/rotary_emb/cast_f32_to_bf16/9557"
  op: "cast_f32_to_bf16"
  input: "tensor_8_odule/model/2/rotary_emb/placeholder/1"
  attr {
    key: "Bundle_idx"
    value {
      s: "N/A"
    }
  }
  attr {
    key: "Exec_idx"
    value {
      s: "7"
    }
  }
  attr {
    key: "Op_idx"
    value {
      s: "N/A"
    }
  }
  attr {
    key: "inputTensor:0"
    value {
      s: "tensor_8_odule/model/2/rotary_emb/placeholder/1  |  Sizes = [1]  |  float32  |  expBias = 0, scale = 1  |    |  ModelParam = 0  |  strides = [4, 4]  |  data = 0, sizeInBytes = 4  |  isPersistent  |  userMemorySection(type=Persistent, id=7)  |  "
    }
  }
  attr {
    key: "outputTensor:0"
    value {
      s: "tensor_10  |  Sizes = [1]  |  bf16  |  expBias = 0, scale = 1  |    |  ModelParam = 0  |  strides = [2, 2]  |  data = 0, sizeInBytes = 2  |  "
    }
  }
}
node {
  name: "tensor_14_odule/model/2/rotary_emb/placeholder/0"
  op: "Placeholder"
  attr {
    key: "dtype"
    value {
      type: DT_BFLOAT16
    }
  }
  attr {
    key: "shape"
    value {
      shape {
        dim {
          size: 128
        }
        dim {
          size: 131072
        }
        dim {
          size: 1
        }
        dim {
          size: 1
        }
        dim {
          size: 1
        }
      }
    }
  }
  attr {
    key: "synDataType"
    value {
      s: "bf16"
    }
  }
}
node {
  name: "module/model/2/rotary_emb/slice/9562"
  op: "Slice"
  input: "tensor_14_odule/model/2/rotary_emb/placeholder/0"
  attr {
    key: "Bundle_idx"
    value {
      s: "N/A"
    }
  }
  attr {
    key: "Exec_idx"
    value {
      s: "8"
    }
  }
  attr {
    key: "Op_idx"
    value {
      s: "N/A"
    }
  }
  attr {
    key: "inputTensor:0"
    value {
      s: "tensor_14_odule/model/2/rotary_emb/placeholder/0  |  Sizes = [131072,128]  |  bf16  |  expBias = 0, scale = 1  |    |  ModelParam = 0  |  strides = [33554432, 256, 2]  |  data = 0, sizeInBytes = 33554432  |  isPersistent  |  userMemorySection(type=Persistent, id=8)  |  "
    }
  }
  attr {
    key: "outputTensor:0"
    value {
      s: "tensor_15_id_107577_module/model/2/rotary_emb/aten__slice  |  Sizes = [32,128]  |  bf16  |  expBias = 0, scale = 1  |    |  ModelParam = 0  |  strides = [8192, 256, 2]  |  data = 0, sizeInBytes = 8192  |  "
    }
  }
}
node {
  name: "module/model/2/rotary_emb/cast_f32_to_bf16/9563"
  op: "cast_f32_to_bf16"
  input: "tensor_8_odule/model/2/rotary_emb/placeholder/1"
  attr {
    key: "Bundle_idx"
    value {
      s: "N/A"
    }
  }
  attr {
    key: "Exec_idx"
    value {
      s: "9"
    }
  }
  attr {
    key: "Op_idx"
    value {
      s: "N/A"
    }
  }
  attr {
    key: "inputTensor:0"
    value {
      s: "tensor_8_odule/model/2/rotary_emb/placeholder/1  |  Sizes = [1]  |  float32  |  expBias = 0, scale = 1  |    |  ModelParam = 0  |  strides = [4, 4]  |  data = 0, sizeInBytes = 4  |  isPersistent  |  userMemorySection(type=Persistent, id=7)  |  "
    }
  }
  attr {
    key: "outputTensor:0"
    value {
      s: "tensor_17  |  Sizes = [1]  |  bf16  |  expBias = 0, scale = 1  |    |  ModelParam = 0  |  strides = [2, 2]  |  data = 0, sizeInBytes = 2  |  "
    }
  }
}
node {
  name: "tensor_31_odule/model/2/k_proj/placeholder/1"
  op: "Placeholder"
  attr {
    key: "dtype"
    value {
      type: DT_INVALID
    }
  }
  attr {
    key: "shape"
    value {
      shape {
        dim {
          size: 1024
        }
        dim {
          size: 4096
        }
        dim {
          size: 1
        }
        dim {
          size: 1
        }
        dim {
          size: 1
        }
      }
    }
  }
  attr {
    key: "synDataType"
    value {
      s: "hfloat8"
    }
  }
}
node {
  name: "tensor_32_odule/model/2/k_proj/placeholder/2"
  op: "Placeholder"
  attr {
    key: "dtype"
    value {
      type: DT_BFLOAT16
    }
  }
  attr {
    key: "shape"
    value {
      shape {
        dim {
          size: 1
        }
        dim {
          size: 1
        }
        dim {
          size: 1
        }
        dim {
          size: 1
        }
        dim {
          size: 1
        }
      }
    }
  }
  attr {
    key: "synDataType"
    value {
      s: "bf16"
    }
  }
}
node {
  name: "tensor_33_odule/model/2/k_proj/placeholder/3"
  op: "Placeholder"
  attr {
    key: "dtype"
    value {
      type: DT_BFLOAT16
    }
  }
  attr {
    key: "shape"
    value {
      shape {
        dim {
          size: 1
        }
        dim {
          size: 1
        }
        dim {
          size: 1
        }
        dim {
          size: 1
        }
        dim {
          size: 1
        }
      }
    }
  }
  attr {
    key: "synDataType"
    value {
      s: "bf16"
    }
  }
}
node {
  name: "module/model/2/k_proj/fp8_gemm_bf16/9570"
  op: "fp8_gemm_bf16"
  input: "module/model/2/k_proj/quant_input_0/convert_to_fp8_bf16/9569"
  input: "tensor_31_odule/model/2/k_proj/placeholder/1"
  input: "tensor_32_odule/model/2/k_proj/placeholder/2"
  input: "tensor_33_odule/model/2/k_proj/placeholder/3"
  input: "unused_port"
  input: "unused_port"
  input: "unused_port"
  attr {
    key: "Bundle_idx"
    value {
      s: "N/A"
    }
  }
  attr {
    key: "Exec_idx"
    value {
      s: "10"
    }
  }
  attr {
    key: "Op_idx"
    value {
      s: "N/A"
    }
  }
  attr {
    key: "inputTensor:0"
    value {
      s: "tensor_30  |  Sizes = [1,32,4096]  |  hfloat8  |  expBias = 7, scale = 1  |    |  ModelParam = 0  |  strides = [131072, 131072, 4096, 1]  |  data = 0, sizeInBytes = 131072  |  "
    }
  }
  attr {
    key: "inputTensor:1"
    value {
      s: "tensor_31_odule/model/2/k_proj/placeholder/1  |  Sizes = [4096,1024]  |  hfloat8  |  expBias = 7, scale = 1  |    |  ModelParam = 0  |  strides = [4194304, 1024, 1]  |  data = 0, sizeInBytes = 4194304  |  isPersistent  |  userMemorySection(type=Persistent, id=12)  |  "
    }
  }
  attr {
    key: "inputTensor:2"
    value {
      s: "tensor_32_odule/model/2/k_proj/placeholder/2  |  Sizes = [1]  |  bf16  |  expBias = 0, scale = 1  |    |  ModelParam = 0  |  strides = [2, 2]  |  data = 0x56464cdf3a68, sizeInBytes = 2  |  buffer = 1  |  isPersistent  |  userMemorySection(type=Persistent, id=13)  |  isStaticParam  |  bufferDtype=bf16  |  "
    }
  }
  attr {
    key: "inputTensor:3"
    value {
      s: "tensor_33_odule/model/2/k_proj/placeholder/3  |  Sizes = [1]  |  bf16  |  expBias = 0, scale = 1  |    |  ModelParam = 0  |  strides = [2, 2]  |  data = 0x56464cdf3a88, sizeInBytes = 2  |  buffer = 0.00390625  |  isPersistent  |  userMemorySection(type=Persistent, id=14)  |  isStaticParam  |  bufferDtype=bf16  |  "
    }
  }
  attr {
    key: "outputTensor:0"
    value {
      s: "tensor_35  |  Sizes = [1,32,1024]  |  bf16  |  expBias = 0, scale = 1  |    |  ModelParam = 0  |  strides = [65536, 65536, 2048, 2]  |  data = 0, sizeInBytes = 65536  |  "
    }
  }
}
node {
  name: "module/model/2/reshape/9571"
  op: "Reshape"
  input: "module/model/2/k_proj/fp8_gemm_bf16/9570"
  attr {
    key: "Bundle_idx"
    value {
      s: "N/A"
    }
  }
  attr {
    key: "Exec_idx"
    value {
      s: "11"
    }
  }
  attr {
    key: "Op_idx"
    value {
      s: "N/A"
    }
  }
  attr {
    key: "inputTensor:0"
    value {
      s: "tensor_35  |  Sizes = [1,32,1024]  |  bf16  |  expBias = 0, scale = 1  |    |  ModelParam = 0  |  strides = [65536, 65536, 2048, 2]  |  data = 0, sizeInBytes = 65536  |  "
    }
  }
  attr {
    key: "outputTensor:0"
    value {
      s: "tensor_36_id_107565_module/model/2/aten__view  |  Sizes = [1,32,8,128]  |  bf16  |  expBias = 0, scale = 1  |    |  ModelParam = 0  |  strides = [65536, 65536, 2048, 256, 2]  |  data = 0, sizeInBytes = 65536  |  "
    }
  }
}
node {
  name: "tensor_52_odule/model/2/v_proj/quant_input_0/placeholder/1"
  op: "Placeholder"
  attr {
    key: "dtype"
    value {
      type: DT_BFLOAT16
    }
  }
  attr {
    key: "shape"
    value {
      shape {
        dim {
          size: 1
        }
        dim {
          size: 1
        }
        dim {
          size: 1
        }
        dim {
          size: 1
        }
        dim {
          size: 1
        }
      }
    }
  }
  attr {
    key: "synDataType"
    value {
      s: "bf16"
    }
  }
}
node {
  name: "module/model/2/v_proj/quant_input_0/convert_to_fp8_bf16/9578"
  op: "convert_to_fp8_bf16"
  input: "module/model/2/input_layernorm/rms_norm_ex_fwd_bf16/9568"
  input: "tensor_52_odule/model/2/v_proj/quant_input_0/placeholder/1"
  attr {
    key: "Bundle_idx"
    value {
      s: "N/A"
    }
  }
  attr {
    key: "Exec_idx"
    value {
      s: "12"
    }
  }
  attr {
    key: "Op_idx"
    value {
      s: "N/A"
    }
  }
  attr {
    key: "inputTensor:0"
    value {
      s: "tensor_25  |  Sizes = [1,32,4096]  |  bf16  |  expBias = 0, scale = 1  |    |  ModelParam = 0  |  strides = [262144, 262144, 8192, 2]  |  data = 0, sizeInBytes = 262144  |  "
    }
  }
  attr {
    key: "inputTensor:1"
    value {
      s: "tensor_52_odule/model/2/v_proj/quant_input_0/placeholder/1  |  Sizes = [1]  |  bf16  |  expBias = 0, scale = 1  |    |  ModelParam = 0  |  strides = [2, 2]  |  data = 0x5647347c3ef0, sizeInBytes = 2  |  buffer = 1  |  isPersistent  |  userMemorySection(type=Persistent, id=20)  |  isStaticParam  |  bufferDtype=bf16  |  "
    }
  }
  attr {
    key: "outputTensor:0"
    value {
      s: "tensor_55  |  Sizes = [1,32,4096]  |  hfloat8  |  expBias = 7, scale = 1  |    |  ModelParam = 0  |  strides = [131072, 131072, 4096, 1]  |  data = 0, sizeInBytes = 131072  |  "
    }
  }
}
node {
  name: "module/model/2/rotary_emb/mult_fwd_bf16/9558"
  op: "mult_fwd_bf16"
  input: "module/model/2/rotary_emb/slice/9556"
  input: "module/model/2/rotary_emb/cast_f32_to_bf16/9557"
  attr {
    key: "Bundle_idx"
    value {
      s: "N/A"
    }
  }
  attr {
    key: "Exec_idx"
    value {
      s: "13"
    }
  }
  attr {
    key: "Op_idx"
    value {
      s: "N/A"
    }
  }
  attr {
    key: "inputTensor:0"
    value {
      s: "tensor_7_id_107573_module/model/2/rotary_emb/aten__slice  |  Sizes = [32,128]  |  bf16  |  expBias = 0, scale = 1  |    |  ModelParam = 0  |  strides = [8192, 256, 2]  |  data = 0, sizeInBytes = 8192  |  "
    }
  }
  attr {
    key: "inputTensor:1"
    value {
      s: "tensor_10  |  Sizes = [1]  |  bf16  |  expBias = 0, scale = 1  |    |  ModelParam = 0  |  strides = [2, 2]  |  data = 0, sizeInBytes = 2  |  "
    }
  }
  attr {
    key: "outputTensor:0"
    value {
      s: "tensor_9_id_107575_module/model/2/rotary_emb/aten__mul  |  Sizes = [32,128]  |  bf16  |  expBias = 0, scale = 1  |    |  ModelParam = 0  |  strides = [8192, 256, 2]  |  data = 0, sizeInBytes = 8192  |  "
    }
  }
}
node {
  name: "module/model/2/expand_dims/9559"
  op: "ExpandDims"
  input: "module/model/2/rotary_emb/mult_fwd_bf16/9558"
  attr {
    key: "Bundle_idx"
    value {
      s: "N/A"
    }
  }
  attr {
    key: "Exec_idx"
    value {
      s: "14"
    }
  }
  attr {
    key: "Op_idx"
    value {
      s: "N/A"
    }
  }
  attr {
    key: "inputTensor:0"
    value {
      s: "tensor_9_id_107575_module/model/2/rotary_emb/aten__mul  |  Sizes = [32,128]  |  bf16  |  expBias = 0, scale = 1  |    |  ModelParam = 0  |  strides = [8192, 256, 2]  |  data = 0, sizeInBytes = 8192  |  "
    }
  }
  attr {
    key: "outputTensor:0"
    value {
      s: "tensor_11_id_107597_module/model/2/aten__unsqueeze  |  Sizes = [1,32,128]  |  bf16  |  expBias = 0, scale = 1  |    |  ModelParam = 0  |  strides = [8192, 8192, 256, 2]  |  data = 0, sizeInBytes = 8192  |  "
    }
  }
}
node {
  name: "module/model/2/expand_dims/9560"
  op: "ExpandDims"
  input: "module/model/2/expand_dims/9559"
  attr {
    key: "Bundle_idx"
    value {
      s: "N/A"
    }
  }
  attr {
    key: "Exec_idx"
    value {
      s: "15"
    }
  }
  attr {
    key: "Op_idx"
    value {
      s: "N/A"
    }
  }
  attr {
    key: "inputTensor:0"
    value {
      s: "tensor_11_id_107597_module/model/2/aten__unsqueeze  |  Sizes = [1,32,128]  |  bf16  |  expBias = 0, scale = 1  |    |  ModelParam = 0  |  strides = [8192, 8192, 256, 2]  |  data = 0, sizeInBytes = 8192  |  "
    }
  }
  attr {
    key: "outputTensor:0"
    value {
      s: "tensor_12_id_107599_module/model/2/aten__unsqueeze  |  Sizes = [1,1,32,128]  |  bf16  |  expBias = 0, scale = 1  |    |  ModelParam = 0  |  strides = [8192, 8192, 8192, 256, 2]  |  data = 0, sizeInBytes = 8192  |  "
    }
  }
}
node {
  name: "module/model/2/identity/9561"
  op: "Identity"
  input: "module/model/2/expand_dims/9560"
  attr {
    key: "Bundle_idx"
    value {
      s: "N/A"
    }
  }
  attr {
    key: "Exec_idx"
    value {
      s: "16"
    }
  }
  attr {
    key: "Op_idx"
    value {
      s: "N/A"
    }
  }
  attr {
    key: "inputTensor:0"
    value {
      s: "tensor_12_id_107599_module/model/2/aten__unsqueeze  |  Sizes = [1,1,32,128]  |  bf16  |  expBias = 0, scale = 1  |    |  ModelParam = 0  |  strides = [8192, 8192, 8192, 256, 2]  |  data = 0, sizeInBytes = 8192  |  "
    }
  }
  attr {
    key: "outputTensor:0"
    value {
      s: "tensor_13_id_107601_module/model/2/aten__clone  |  Sizes = [1,1,32,128]  |  bf16  |  expBias = 0, scale = 1  |    |  ModelParam = 0  |  strides = [8192, 8192, 8192, 256, 2]  |  data = 0, sizeInBytes = 8192  |  "
    }
  }
}
node {
  name: "module/model/2/rotary_emb/mult_fwd_bf16/9564"
  op: "mult_fwd_bf16"
  input: "module/model/2/rotary_emb/slice/9562"
  input: "module/model/2/rotary_emb/cast_f32_to_bf16/9563"
  attr {
    key: "Bundle_idx"
    value {
      s: "N/A"
    }
  }
  attr {
    key: "Exec_idx"
    value {
      s: "17"
    }
  }
  attr {
    key: "Op_idx"
    value {
      s: "N/A"
    }
  }
  attr {
    key: "inputTensor:0"
    value {
      s: "tensor_15_id_107577_module/model/2/rotary_emb/aten__slice  |  Sizes = [32,128]  |  bf16  |  expBias = 0, scale = 1  |    |  ModelParam = 0  |  strides = [8192, 256, 2]  |  data = 0, sizeInBytes = 8192  |  "
    }
  }
  attr {
    key: "inputTensor:1"
    value {
      s: "tensor_17  |  Sizes = [1]  |  bf16  |  expBias = 0, scale = 1  |    |  ModelParam = 0  |  strides = [2, 2]  |  data = 0, sizeInBytes = 2  |  "
    }
  }
  attr {
    key: "outputTensor:0"
    value {
      s: "tensor_16_id_107579_module/model/2/rotary_emb/aten__mul  |  Sizes = [32,128]  |  bf16  |  expBias = 0, scale = 1  |    |  ModelParam = 0  |  strides = [8192, 256, 2]  |  data = 0, sizeInBytes = 8192  |  "
    }
  }
}
node {
  name: "module/model/2/expand_dims/9565"
  op: "ExpandDims"
  input: "module/model/2/rotary_emb/mult_fwd_bf16/9564"
  attr {
    key: "Bundle_idx"
    value {
      s: "N/A"
    }
  }
  attr {
    key: "Exec_idx"
    value {
      s: "18"
    }
  }
  attr {
    key: "Op_idx"
    value {
      s: "N/A"
    }
  }
  attr {
    key: "inputTensor:0"
    value {
      s: "tensor_16_id_107579_module/model/2/rotary_emb/aten__mul  |  Sizes = [32,128]  |  bf16  |  expBias = 0, scale = 1  |    |  ModelParam = 0  |  strides = [8192, 256, 2]  |  data = 0, sizeInBytes = 8192  |  "
    }
  }
  attr {
    key: "outputTensor:0"
    value {
      s: "tensor_18_id_107603_module/model/2/aten__unsqueeze  |  Sizes = [1,32,128]  |  bf16  |  expBias = 0, scale = 1  |    |  ModelParam = 0  |  strides = [8192, 8192, 256, 2]  |  data = 0, sizeInBytes = 8192  |  "
    }
  }
}
node {
  name: "module/model/2/expand_dims/9566"
  op: "ExpandDims"
  input: "module/model/2/expand_dims/9565"
  attr {
    key: "Bundle_idx"
    value {
      s: "N/A"
    }
  }
  attr {
    key: "Exec_idx"
    value {
      s: "19"
    }
  }
  attr {
    key: "Op_idx"
    value {
      s: "N/A"
    }
  }
  attr {
    key: "inputTensor:0"
    value {
      s: "tensor_18_id_107603_module/model/2/aten__unsqueeze  |  Sizes = [1,32,128]  |  bf16  |  expBias = 0, scale = 1  |    |  ModelParam = 0  |  strides = [8192, 8192, 256, 2]  |  data = 0, sizeInBytes = 8192  |  "
    }
  }
  attr {
    key: "outputTensor:0"
    value {
      s: "tensor_19_id_107605_module/model/2/aten__unsqueeze  |  Sizes = [1,1,32,128]  |  bf16  |  expBias = 0, scale = 1  |    |  ModelParam = 0  |  strides = [8192, 8192, 8192, 256, 2]  |  data = 0, sizeInBytes = 8192  |  "
    }
  }
}
node {
  name: "module/model/2/identity/9567"
  op: "Identity"
  input: "module/model/2/expand_dims/9566"
  attr {
    key: "Bundle_idx"
    value {
      s: "N/A"
    }
  }
  attr {
    key: "Exec_idx"
    value {
      s: "20"
    }
  }
  attr {
    key: "Op_idx"
    value {
      s: "N/A"
    }
  }
  attr {
    key: "inputTensor:0"
    value {
      s: "tensor_19_id_107605_module/model/2/aten__unsqueeze  |  Sizes = [1,1,32,128]  |  bf16  |  expBias = 0, scale = 1  |    |  ModelParam = 0  |  strides = [8192, 8192, 8192, 256, 2]  |  data = 0, sizeInBytes = 8192  |  "
    }
  }
  attr {
    key: "outputTensor:0"
    value {
      s: "tensor_20_id_107607_module/model/2/aten__clone  |  Sizes = [1,1,32,128]  |  bf16  |  expBias = 0, scale = 1  |    |  ModelParam = 0  |  strides = [8192, 8192, 8192, 256, 2]  |  data = 0, sizeInBytes = 8192  |  "
    }
  }
}
node {
  name: "module/model/2/transpose/9572"
  op: "Transpose"
  input: "module/model/2/reshape/9571"
  attr {
    key: "Bundle_idx"
    value {
      s: "N/A"
    }
  }
  attr {
    key: "Exec_idx"
    value {
      s: "21"
    }
  }
  attr {
    key: "Op_idx"
    value {
      s: "N/A"
    }
  }
  attr {
    key: "Parameters"
    value {
      s: "permutation: (0,2,1,3)"
    }
  }
  attr {
    key: "inputTensor:0"
    value {
      s: "tensor_36_id_107565_module/model/2/aten__view  |  Sizes = [1,32,8,128]  |  bf16  |  expBias = 0, scale = 1  |    |  ModelParam = 0  |  strides = [65536, 65536, 2048, 256, 2]  |  data = 0, sizeInBytes = 65536  |  "
    }
  }
  attr {
    key: "outputTensor:0"
    value {
      s: "tensor_37_id_107567_module/model/2/aten__transpose  |  Sizes = [1,8,32,128]  |  bf16  |  expBias = 0, scale = 1  |    |  ModelParam = 0  |  strides = [65536, 65536, 8192, 256, 2]  |  data = 0, sizeInBytes = 65536  |  "
    }
  }
}
node {
  name: "tensor_56_odule/model/2/v_proj/placeholder/1"
  op: "Placeholder"
  attr {
    key: "dtype"
    value {
      type: DT_INVALID
    }
  }
  attr {
    key: "shape"
    value {
      shape {
        dim {
          size: 1024
        }
        dim {
          size: 4096
        }
        dim {
          size: 1
        }
        dim {
          size: 1
        }
        dim {
          size: 1
        }
      }
    }
  }
  attr {
    key: "synDataType"
    value {
      s: "hfloat8"
    }
  }
}
node {
  name: "tensor_57_odule/model/2/v_proj/placeholder/2"
  op: "Placeholder"
  attr {
    key: "dtype"
    value {
      type: DT_BFLOAT16
    }
  }
  attr {
    key: "shape"
    value {
      shape {
        dim {
          size: 1
        }
        dim {
          size: 1
        }
        dim {
          size: 1
        }
        dim {
          size: 1
        }
        dim {
          size: 1
        }
      }
    }
  }
  attr {
    key: "synDataType"
    value {
      s: "bf16"
    }
  }
}
node {
  name: "tensor_58_odule/model/2/v_proj/placeholder/3"
  op: "Placeholder"
  attr {
    key: "dtype"
    value {
      type: DT_BFLOAT16
    }
  }
  attr {
    key: "shape"
    value {
      shape {
        dim {
          size: 1
        }
        dim {
          size: 1
        }
        dim {
          size: 1
        }
        dim {
          size: 1
        }
        dim {
          size: 1
        }
      }
    }
  }
  attr {
    key: "synDataType"
    value {
      s: "bf16"
    }
  }
}
node {
  name: "module/model/2/v_proj/fp8_gemm_bf16/9579"
  op: "fp8_gemm_bf16"
  input: "module/model/2/v_proj/quant_input_0/convert_to_fp8_bf16/9578"
  input: "tensor_56_odule/model/2/v_proj/placeholder/1"
  input: "tensor_57_odule/model/2/v_proj/placeholder/2"
  input: "tensor_58_odule/model/2/v_proj/placeholder/3"
  input: "unused_port"
  input: "unused_port"
  input: "unused_port"
  attr {
    key: "Bundle_idx"
    value {
      s: "N/A"
    }
  }
  attr {
    key: "Exec_idx"
    value {
      s: "22"
    }
  }
  attr {
    key: "Op_idx"
    value {
      s: "N/A"
    }
  }
  attr {
    key: "inputTensor:0"
    value {
      s: "tensor_55  |  Sizes = [1,32,4096]  |  hfloat8  |  expBias = 7, scale = 1  |    |  ModelParam = 0  |  strides = [131072, 131072, 4096, 1]  |  data = 0, sizeInBytes = 131072  |  "
    }
  }
  attr {
    key: "inputTensor:1"
    value {
      s: "tensor_56_odule/model/2/v_proj/placeholder/1  |  Sizes = [4096,1024]  |  hfloat8  |  expBias = 7, scale = 1  |    |  ModelParam = 0  |  strides = [4194304, 1024, 1]  |  data = 0, sizeInBytes = 4194304  |  isPersistent  |  userMemorySection(type=Persistent, id=21)  |  "
    }
  }
  attr {
    key: "inputTensor:2"
    value {
      s: "tensor_57_odule/model/2/v_proj/placeholder/2  |  Sizes = [1]  |  bf16  |  expBias = 0, scale = 1  |    |  ModelParam = 0  |  strides = [2, 2]  |  data = 0x5647347c3980, sizeInBytes = 2  |  buffer = 1  |  isPersistent  |  userMemorySection(type=Persistent, id=22)  |  isStaticParam  |  bufferDtype=bf16  |  "
    }
  }
  attr {
    key: "inputTensor:3"
    value {
      s: "tensor_58_odule/model/2/v_proj/placeholder/3  |  Sizes = [1]  |  bf16  |  expBias = 0, scale = 1  |    |  ModelParam = 0  |  strides = [2, 2]  |  data = 0x5647347c3718, sizeInBytes = 2  |  buffer = 0.00390625  |  isPersistent  |  userMemorySection(type=Persistent, id=23)  |  isStaticParam  |  bufferDtype=bf16  |  "
    }
  }
  attr {
    key: "outputTensor:0"
    value {
      s: "tensor_60  |  Sizes = [1,32,1024]  |  bf16  |  expBias = 0, scale = 1  |    |  ModelParam = 0  |  strides = [65536, 65536, 2048, 2]  |  data = 0, sizeInBytes = 65536  |  "
    }
  }
}
node {
  name: "module/model/2/quant_input_0/reshape/9580"
  op: "Reshape"
  input: "module/model/2/v_proj/fp8_gemm_bf16/9579"
  attr {
    key: "Bundle_idx"
    value {
      s: "N/A"
    }
  }
  attr {
    key: "Exec_idx"
    value {
      s: "23"
    }
  }
  attr {
    key: "Op_idx"
    value {
      s: "N/A"
    }
  }
  attr {
    key: "inputTensor:0"
    value {
      s: "tensor_60  |  Sizes = [1,32,1024]  |  bf16  |  expBias = 0, scale = 1  |    |  ModelParam = 0  |  strides = [65536, 65536, 2048, 2]  |  data = 0, sizeInBytes = 65536  |  "
    }
  }
  attr {
    key: "outputTensor:0"
    value {
      s: "tensor_61_id_107569_module/model/2/quant_input_0/aten__view  |  Sizes = [1,32,8,128]  |  bf16  |  expBias = 0, scale = 1  |    |  ModelParam = 0  |  strides = [65536, 65536, 2048, 256, 2]  |  data = 0, sizeInBytes = 65536  |  "
    }
  }
}
node {
  name: "tensor_89_odule/model/2/q_proj/quant_input_0/placeholder/1"
  op: "Placeholder"
  attr {
    key: "dtype"
    value {
      type: DT_BFLOAT16
    }
  }
  attr {
    key: "shape"
    value {
      shape {
        dim {
          size: 1
        }
        dim {
          size: 1
        }
        dim {
          size: 1
        }
        dim {
          size: 1
        }
        dim {
          size: 1
        }
      }
    }
  }
  attr {
    key: "synDataType"
    value {
      s: "bf16"
    }
  }
}
node {
  name: "module/model/2/q_proj/quant_input_0/convert_to_fp8_bf16/9596"
  op: "convert_to_fp8_bf16"
  input: "module/model/2/input_layernorm/rms_norm_ex_fwd_bf16/9568"
  input: "tensor_89_odule/model/2/q_proj/quant_input_0/placeholder/1"
  attr {
    key: "Bundle_idx"
    value {
      s: "N/A"
    }
  }
  attr {
    key: "Exec_idx"
    value {
      s: "24"
    }
  }
  attr {
    key: "Op_idx"
    value {
      s: "N/A"
    }
  }
  attr {
    key: "inputTensor:0"
    value {
      s: "tensor_25  |  Sizes = [1,32,4096]  |  bf16  |  expBias = 0, scale = 1  |    |  ModelParam = 0  |  strides = [262144, 262144, 8192, 2]  |  data = 0, sizeInBytes = 262144  |  "
    }
  }
  attr {
    key: "inputTensor:1"
    value {
      s: "tensor_89_odule/model/2/q_proj/quant_input_0/placeholder/1  |  Sizes = [1]  |  bf16  |  expBias = 0, scale = 1  |    |  ModelParam = 0  |  strides = [2, 2]  |  data = 0x564733b89658, sizeInBytes = 2  |  buffer = 1  |  isPersistent  |  userMemorySection(type=Persistent, id=31)  |  isStaticParam  |  bufferDtype=bf16  |  "
    }
  }
  attr {
    key: "outputTensor:0"
    value {
      s: "tensor_92  |  Sizes = [1,32,4096]  |  hfloat8  |  expBias = 7, scale = 1  |    |  ModelParam = 0  |  strides = [131072, 131072, 4096, 1]  |  data = 0, sizeInBytes = 131072  |  "
    }
  }
}
node {
  name: "module/model/2/rotary_pos_embedding_fwd_bf16/9573"
  op: "rotary_pos_embedding_fwd_bf16"
  input: "module/model/2/transpose/9572"
  input: "module/model/2/identity/9567"
  input: "module/model/2/identity/9561"
  input: "module/model/2/expand_dims/9555"
  attr {
    key: "Bundle_idx"
    value {
      s: "N/A"
    }
  }
  attr {
    key: "Exec_idx"
    value {
      s: "25"
    }
  }
  attr {
    key: "Op_idx"
    value {
      s: "N/A"
    }
  }
  attr {
    key: "inputTensor:0"
    value {
      s: "tensor_37_id_107567_module/model/2/aten__transpose  |  Sizes = [1,8,32,128]  |  bf16  |  expBias = 0, scale = 1  |    |  ModelParam = 0  |  strides = [65536, 65536, 8192, 256, 2]  |  data = 0, sizeInBytes = 65536  |  "
    }
  }
  attr {
    key: "inputTensor:1"
    value {
      s: "tensor_20_id_107607_module/model/2/aten__clone  |  Sizes = [1,1,32,128]  |  bf16  |  expBias = 0, scale = 1  |    |  ModelParam = 0  |  strides = [8192, 8192, 8192, 256, 2]  |  data = 0, sizeInBytes = 8192  |  "
    }
  }
  attr {
    key: "inputTensor:2"
    value {
      s: "tensor_13_id_107601_module/model/2/aten__clone  |  Sizes = [1,1,32,128]  |  bf16  |  expBias = 0, scale = 1  |    |  ModelParam = 0  |  strides = [8192, 8192, 8192, 256, 2]  |  data = 0, sizeInBytes = 8192  |  "
    }
  }
  attr {
    key: "inputTensor:3"
    value {
      s: "tensor_5_id_107510_module/model/2/aten__unsqueeze/1  |  Sizes = [1,32]  |  int32  |  expBias = 0, scale = 1  |    |  ModelParam = 0  |  strides = [128, 128, 4]  |  data = 0, sizeInBytes = 128  |  "
    }
  }
  attr {
    key: "outputTensor:0"
    value {
      s: "tensor_39  |  Sizes = [1,8,32,128]  |  bf16  |  expBias = 0, scale = 1  |    |  ModelParam = 0  |  strides = [65536, 65536, 8192, 256, 2]  |  data = 0, sizeInBytes = 65536  |  "
    }
  }
}
node {
  name: "module/model/2/quant_input_0/transpose/9581"
  op: "Transpose"
  input: "module/model/2/quant_input_0/reshape/9580"
  attr {
    key: "Bundle_idx"
    value {
      s: "N/A"
    }
  }
  attr {
    key: "Exec_idx"
    value {
      s: "26"
    }
  }
  attr {
    key: "Op_idx"
    value {
      s: "N/A"
    }
  }
  attr {
    key: "Parameters"
    value {
      s: "permutation: (0,2,1,3)"
    }
  }
  attr {
    key: "inputTensor:0"
    value {
      s: "tensor_61_id_107569_module/model/2/quant_input_0/aten__view  |  Sizes = [1,32,8,128]  |  bf16  |  expBias = 0, scale = 1  |    |  ModelParam = 0  |  strides = [65536, 65536, 2048, 256, 2]  |  data = 0, sizeInBytes = 65536  |  "
    }
  }
  attr {
    key: "outputTensor:0"
    value {
      s: "tensor_62_id_107571_module/model/2/quant_input_0/aten__transpose  |  Sizes = [1,8,32,128]  |  bf16  |  expBias = 0, scale = 1  |    |  ModelParam = 0  |  strides = [65536, 65536, 8192, 256, 2]  |  data = 0, sizeInBytes = 65536  |  "
    }
  }
}
node {
  name: "tensor_93_odule/model/2/q_proj/placeholder/1"
  op: "Placeholder"
  attr {
    key: "dtype"
    value {
      type: DT_INVALID
    }
  }
  attr {
    key: "shape"
    value {
      shape {
        dim {
          size: 4096
        }
        dim {
          size: 4096
        }
        dim {
          size: 1
        }
        dim {
          size: 1
        }
        dim {
          size: 1
        }
      }
    }
  }
  attr {
    key: "synDataType"
    value {
      s: "hfloat8"
    }
  }
}
node {
  name: "tensor_94_odule/model/2/q_proj/placeholder/2"
  op: "Placeholder"
  attr {
    key: "dtype"
    value {
      type: DT_BFLOAT16
    }
  }
  attr {
    key: "shape"
    value {
      shape {
        dim {
          size: 1
        }
        dim {
          size: 1
        }
        dim {
          size: 1
        }
        dim {
          size: 1
        }
        dim {
          size: 1
        }
      }
    }
  }
  attr {
    key: "synDataType"
    value {
      s: "bf16"
    }
  }
}
node {
  name: "tensor_95_odule/model/2/q_proj/placeholder/3"
  op: "Placeholder"
  attr {
    key: "dtype"
    value {
      type: DT_BFLOAT16
    }
  }
  attr {
    key: "shape"
    value {
      shape {
        dim {
          size: 1
        }
        dim {
          size: 1
        }
        dim {
          size: 1
        }
        dim {
          size: 1
        }
        dim {
          size: 1
        }
      }
    }
  }
  attr {
    key: "synDataType"
    value {
      s: "bf16"
    }
  }
}
node {
  name: "module/model/2/q_proj/fp8_gemm_bf16/9597"
  op: "fp8_gemm_bf16"
  input: "module/model/2/q_proj/quant_input_0/convert_to_fp8_bf16/9596"
  input: "tensor_93_odule/model/2/q_proj/placeholder/1"
  input: "tensor_94_odule/model/2/q_proj/placeholder/2"
  input: "tensor_95_odule/model/2/q_proj/placeholder/3"
  input: "unused_port"
  input: "unused_port"
  input: "unused_port"
  attr {
    key: "Bundle_idx"
    value {
      s: "N/A"
    }
  }
  attr {
    key: "Exec_idx"
    value {
      s: "27"
    }
  }
  attr {
    key: "Op_idx"
    value {
      s: "N/A"
    }
  }
  attr {
    key: "inputTensor:0"
    value {
      s: "tensor_92  |  Sizes = [1,32,4096]  |  hfloat8  |  expBias = 7, scale = 1  |    |  ModelParam = 0  |  strides = [131072, 131072, 4096, 1]  |  data = 0, sizeInBytes = 131072  |  "
    }
  }
  attr {
    key: "inputTensor:1"
    value {
      s: "tensor_93_odule/model/2/q_proj/placeholder/1  |  Sizes = [4096,4096]  |  hfloat8  |  expBias = 7, scale = 1  |    |  ModelParam = 0  |  strides = [16777216, 4096, 1]  |  data = 0, sizeInBytes = 16777216  |  isPersistent  |  userMemorySection(type=Persistent, id=32)  |  "
    }
  }
  attr {
    key: "inputTensor:2"
    value {
      s: "tensor_94_odule/model/2/q_proj/placeholder/2  |  Sizes = [1]  |  bf16  |  expBias = 0, scale = 1  |    |  ModelParam = 0  |  strides = [2, 2]  |  data = 0x5647347c36e0, sizeInBytes = 2  |  buffer = 1  |  isPersistent  |  userMemorySection(type=Persistent, id=33)  |  isStaticParam  |  bufferDtype=bf16  |  "
    }
  }
  attr {
    key: "inputTensor:3"
    value {
      s: "tensor_95_odule/model/2/q_proj/placeholder/3  |  Sizes = [1]  |  bf16  |  expBias = 0, scale = 1  |    |  ModelParam = 0  |  strides = [2, 2]  |  data = 0x564734354410, sizeInBytes = 2  |  buffer = 0.00390625  |  isPersistent  |  userMemorySection(type=Persistent, id=34)  |  isStaticParam  |  bufferDtype=bf16  |  "
    }
  }
  attr {
    key: "outputTensor:0"
    value {
      s: "tensor_97  |  Sizes = [1,32,4096]  |  bf16  |  expBias = 0, scale = 1  |    |  ModelParam = 0  |  strides = [262144, 262144, 8192, 2]  |  data = 0, sizeInBytes = 262144  |  "
    }
  }
}
node {
  name: "module/model/2/reshape/9598"
  op: "Reshape"
  input: "module/model/2/q_proj/fp8_gemm_bf16/9597"
  attr {
    key: "Bundle_idx"
    value {
      s: "N/A"
    }
  }
  attr {
    key: "Exec_idx"
    value {
      s: "28"
    }
  }
  attr {
    key: "Op_idx"
    value {
      s: "N/A"
    }
  }
  attr {
    key: "inputTensor:0"
    value {
      s: "tensor_97  |  Sizes = [1,32,4096]  |  bf16  |  expBias = 0, scale = 1  |    |  ModelParam = 0  |  strides = [262144, 262144, 8192, 2]  |  data = 0, sizeInBytes = 262144  |  "
    }
  }
  attr {
    key: "outputTensor:0"
    value {
      s: "tensor_98_id_107561_module/model/2/aten__view  |  Sizes = [1,32,32,128]  |  bf16  |  expBias = 0, scale = 1  |    |  ModelParam = 0  |  strides = [262144, 262144, 8192, 256, 2]  |  data = 0, sizeInBytes = 262144  |  "
    }
  }
}
node {
  name: "tensor_40_odule/model/2/quant_input_0/placeholder/1"
  op: "Placeholder"
  attr {
    key: "dtype"
    value {
      type: DT_BFLOAT16
    }
  }
  attr {
    key: "shape"
    value {
      shape {
        dim {
          size: 1
        }
        dim {
          size: 1
        }
        dim {
          size: 1
        }
        dim {
          size: 1
        }
        dim {
          size: 1
        }
      }
    }
  }
  attr {
    key: "synDataType"
    value {
      s: "bf16"
    }
  }
}
node {
  name: "module/model/2/quant_input_0/convert_to_fp8_bf16/9574"
  op: "convert_to_fp8_bf16"
  input: "module/model/2/rotary_pos_embedding_fwd_bf16/9573"
  input: "tensor_40_odule/model/2/quant_input_0/placeholder/1"
  attr {
    key: "Bundle_idx"
    value {
      s: "N/A"
    }
  }
  attr {
    key: "Exec_idx"
    value {
      s: "29"
    }
  }
  attr {
    key: "Op_idx"
    value {
      s: "N/A"
    }
  }
  attr {
    key: "inputTensor:0"
    value {
      s: "tensor_39  |  Sizes = [1,8,32,128]  |  bf16  |  expBias = 0, scale = 1  |    |  ModelParam = 0  |  strides = [65536, 65536, 8192, 256, 2]  |  data = 0, sizeInBytes = 65536  |  "
    }
  }
  attr {
    key: "inputTensor:1"
    value {
      s: "tensor_40_odule/model/2/quant_input_0/placeholder/1  |  Sizes = [1]  |  bf16  |  expBias = 0, scale = 1  |    |  ModelParam = 0  |  strides = [2, 2]  |  data = 0x564734354d78, sizeInBytes = 2  |  buffer = 1  |  isPersistent  |  userMemorySection(type=Persistent, id=15)  |  isStaticParam  |  bufferDtype=bf16  |  "
    }
  }
  attr {
    key: "outputTensor:0"
    value {
      s: "tensor_43  |  Sizes = [1,8,32,128]  |  hfloat8  |  expBias = 7, scale = 1  |    |  ModelParam = 0  |  strides = [32768, 32768, 4096, 128, 1]  |  data = 0, sizeInBytes = 32768  |  "
    }
  }
}
node {
  name: "tensor_63_odule/model/2/quant_input_0/placeholder/1"
  op: "Placeholder"
  attr {
    key: "dtype"
    value {
      type: DT_BFLOAT16
    }
  }
  attr {
    key: "shape"
    value {
      shape {
        dim {
          size: 1
        }
        dim {
          size: 1
        }
        dim {
          size: 1
        }
        dim {
          size: 1
        }
        dim {
          size: 1
        }
      }
    }
  }
  attr {
    key: "synDataType"
    value {
      s: "bf16"
    }
  }
}
node {
  name: "module/model/2/quant_input_0/convert_to_fp8_bf16/9582"
  op: "convert_to_fp8_bf16"
  input: "module/model/2/quant_input_0/transpose/9581"
  input: "tensor_63_odule/model/2/quant_input_0/placeholder/1"
  attr {
    key: "Bundle_idx"
    value {
      s: "N/A"
    }
  }
  attr {
    key: "Exec_idx"
    value {
      s: "30"
    }
  }
  attr {
    key: "Op_idx"
    value {
      s: "N/A"
    }
  }
  attr {
    key: "inputTensor:0"
    value {
      s: "tensor_62_id_107571_module/model/2/quant_input_0/aten__transpose  |  Sizes = [1,8,32,128]  |  bf16  |  expBias = 0, scale = 1  |    |  ModelParam = 0  |  strides = [65536, 65536, 8192, 256, 2]  |  data = 0, sizeInBytes = 65536  |  "
    }
  }
  attr {
    key: "inputTensor:1"
    value {
      s: "tensor_63_odule/model/2/quant_input_0/placeholder/1  |  Sizes = [1]  |  bf16  |  expBias = 0, scale = 1  |    |  ModelParam = 0  |  strides = [2, 2]  |  data = 0x5647347c29b8, sizeInBytes = 2  |  buffer = 16  |  isPersistent  |  userMemorySection(type=Persistent, id=24)  |  isStaticParam  |  bufferDtype=bf16  |  "
    }
  }
  attr {
    key: "outputTensor:0"
    value {
      s: "tensor_66  |  Sizes = [1,8,32,128]  |  hfloat8  |  expBias = 7, scale = 1  |    |  ModelParam = 0  |  strides = [32768, 32768, 4096, 128, 1]  |  data = 0, sizeInBytes = 32768  |  "
    }
  }
}
node {
  name: "module/model/2/fused_scaled_dot_product_attention/slice/9587"
  op: "Slice"
  input: "module/model/2/fused_scaled_dot_product_attention/expand_dims/9586"
  attr {
    key: "Bundle_idx"
    value {
      s: "N/A"
    }
  }
  attr {
    key: "Exec_idx"
    value {
      s: "31"
    }
  }
  attr {
    key: "Op_idx"
    value {
      s: "N/A"
    }
  }
  attr {
    key: "inputTensor:0"
    value {
      s: "tensor_73_id_107512_module/model/2/fused_scaled_dot_product_attention/aten__unsqueeze  |  Sizes = [1,1,32,32]  |  bf16  |  expBias = 0, scale = 1  |    |  ModelParam = 0  |  strides = [2048, 2048, 2048, 64, 2]  |  data = 0, sizeInBytes = 2048  |  "
    }
  }
  attr {
    key: "outputTensor:0"
    value {
      s: "tensor_74_id_107513_module/model/2/fused_scaled_dot_product_attention/aten__slice  |  Sizes = [1,1,32,32]  |  bf16  |  expBias = 0, scale = 1  |    |  ModelParam = 0  |  strides = [2048, 2048, 2048, 64, 2]  |  data = 0, sizeInBytes = 2048  |  "
    }
  }
}
node {
  name: "module/model/2/transpose/9599"
  op: "Transpose"
  input: "module/model/2/reshape/9598"
  attr {
    key: "Bundle_idx"
    value {
      s: "N/A"
    }
  }
  attr {
    key: "Exec_idx"
    value {
      s: "32"
    }
  }
  attr {
    key: "Op_idx"
    value {
      s: "N/A"
    }
  }
  attr {
    key: "Parameters"
    value {
      s: "permutation: (0,2,1,3)"
    }
  }
  attr {
    key: "inputTensor:0"
    value {
      s: "tensor_98_id_107561_module/model/2/aten__view  |  Sizes = [1,32,32,128]  |  bf16  |  expBias = 0, scale = 1  |    |  ModelParam = 0  |  strides = [262144, 262144, 8192, 256, 2]  |  data = 0, sizeInBytes = 262144  |  "
    }
  }
  attr {
    key: "outputTensor:0"
    value {
      s: "tensor_99_id_107563_module/model/2/aten__transpose  |  Sizes = [1,32,32,128]  |  bf16  |  expBias = 0, scale = 1  |    |  ModelParam = 0  |  strides = [262144, 262144, 8192, 256, 2]  |  data = 0, sizeInBytes = 262144  |  "
    }
  }
}
node {
  name: "tensor_45_odule/model/2/quant_output/placeholder/1"
  op: "Placeholder"
  attr {
    key: "dtype"
    value {
      type: DT_BFLOAT16
    }
  }
  attr {
    key: "shape"
    value {
      shape {
        dim {
          size: 1
        }
        dim {
          size: 1
        }
        dim {
          size: 1
        }
        dim {
          size: 1
        }
        dim {
          size: 1
        }
      }
    }
  }
  attr {
    key: "synDataType"
    value {
      s: "bf16"
    }
  }
}
node {
  name: "module/model/2/quant_output/convert_from_fp8_bf16/9576"
  op: "convert_from_fp8_bf16"
  input: "module/model/2/quant_input_0/convert_to_fp8_bf16/9574"
  input: "tensor_45_odule/model/2/quant_output/placeholder/1"
  attr {
    key: "Bundle_idx"
    value {
      s: "N/A"
    }
  }
  attr {
    key: "Exec_idx"
    value {
      s: "33"
    }
  }
  attr {
    key: "Op_idx"
    value {
      s: "N/A"
    }
  }
  attr {
    key: "inputTensor:0"
    value {
      s: "tensor_43  |  Sizes = [1,8,32,128]  |  hfloat8  |  expBias = 7, scale = 1  |    |  ModelParam = 0  |  strides = [32768, 32768, 4096, 128, 1]  |  data = 0, sizeInBytes = 32768  |  "
    }
  }
  attr {
    key: "inputTensor:1"
    value {
      s: "tensor_45_odule/model/2/quant_output/placeholder/1  |  Sizes = [1]  |  bf16  |  expBias = 0, scale = 1  |    |  ModelParam = 0  |  strides = [2, 2]  |  data = 0x564734354c48, sizeInBytes = 2  |  buffer = 1  |  isPersistent  |  userMemorySection(type=Persistent, id=16)  |  isStaticParam  |  bufferDtype=bf16  |  "
    }
  }
  attr {
    key: "outputTensor:0"
    value {
      s: "tensor_47  |  Sizes = [1,8,32,128]  |  bf16  |  expBias = 0, scale = 1  |    |  ModelParam = 0  |  strides = [65536, 65536, 8192, 256, 2]  |  data = 0, sizeInBytes = 65536  |  isPersistent  |  userMemorySection(type=Persistent, id=18)  |  "
    }
  }
}
node {
  name: "tensor_68_odule/model/2/quant_output/placeholder/1"
  op: "Placeholder"
  attr {
    key: "dtype"
    value {
      type: DT_BFLOAT16
    }
  }
  attr {
    key: "shape"
    value {
      shape {
        dim {
          size: 1
        }
        dim {
          size: 1
        }
        dim {
          size: 1
        }
        dim {
          size: 1
        }
        dim {
          size: 1
        }
      }
    }
  }
  attr {
    key: "synDataType"
    value {
      s: "bf16"
    }
  }
}
node {
  name: "module/model/2/quant_output/convert_from_fp8_bf16/9584"
  op: "convert_from_fp8_bf16"
  input: "module/model/2/quant_input_0/convert_to_fp8_bf16/9582"
  input: "tensor_68_odule/model/2/quant_output/placeholder/1"
  attr {
    key: "Bundle_idx"
    value {
      s: "N/A"
    }
  }
  attr {
    key: "Exec_idx"
    value {
      s: "34"
    }
  }
  attr {
    key: "Op_idx"
    value {
      s: "N/A"
    }
  }
  attr {
    key: "inputTensor:0"
    value {
      s: "tensor_66  |  Sizes = [1,8,32,128]  |  hfloat8  |  expBias = 7, scale = 1  |    |  ModelParam = 0  |  strides = [32768, 32768, 4096, 128, 1]  |  data = 0, sizeInBytes = 32768  |  "
    }
  }
  attr {
    key: "inputTensor:1"
    value {
      s: "tensor_68_odule/model/2/quant_output/placeholder/1  |  Sizes = [1]  |  bf16  |  expBias = 0, scale = 1  |    |  ModelParam = 0  |  strides = [2, 2]  |  data = 0x564734354630, sizeInBytes = 2  |  buffer = 0.0625  |  isPersistent  |  userMemorySection(type=Persistent, id=25)  |  isStaticParam  |  bufferDtype=bf16  |  "
    }
  }
  attr {
    key: "outputTensor:0"
    value {
      s: "tensor_70  |  Sizes = [1,8,32,128]  |  bf16  |  expBias = 0, scale = 1  |    |  ModelParam = 0  |  strides = [65536, 65536, 8192, 256, 2]  |  data = 0, sizeInBytes = 65536  |  isPersistent  |  userMemorySection(type=Persistent, id=27)  |  "
    }
  }
}
node {
  name: "module/model/2/fused_scaled_dot_product_attention/slice/9588"
  op: "Slice"
  input: "module/model/2/fused_scaled_dot_product_attention/slice/9587"
  attr {
    key: "Bundle_idx"
    value {
      s: "N/A"
    }
  }
  attr {
    key: "Exec_idx"
    value {
      s: "35"
    }
  }
  attr {
    key: "Op_idx"
    value {
      s: "N/A"
    }
  }
  attr {
    key: "inputTensor:0"
    value {
      s: "tensor_74_id_107513_module/model/2/fused_scaled_dot_product_attention/aten__slice  |  Sizes = [1,1,32,32]  |  bf16  |  expBias = 0, scale = 1  |    |  ModelParam = 0  |  strides = [2048, 2048, 2048, 64, 2]  |  data = 0, sizeInBytes = 2048  |  "
    }
  }
  attr {
    key: "outputTensor:0"
    value {
      s: "tensor_75_id_107514_module/model/2/fused_scaled_dot_product_attention/aten__slice  |  Sizes = [1,1,32,32]  |  bf16  |  expBias = 0, scale = 1  |    |  ModelParam = 0  |  strides = [2048, 2048, 2048, 64, 2]  |  data = 0, sizeInBytes = 2048  |  "
    }
  }
}
node {
  name: "module/model/2/rotary_pos_embedding_fwd_bf16/9600"
  op: "rotary_pos_embedding_fwd_bf16"
  input: "module/model/2/transpose/9599"
  input: "module/model/2/identity/9567"
  input: "module/model/2/identity/9561"
  input: "module/model/2/expand_dims/9595"
  attr {
    key: "Bundle_idx"
    value {
      s: "N/A"
    }
  }
  attr {
    key: "Exec_idx"
    value {
      s: "36"
    }
  }
  attr {
    key: "Op_idx"
    value {
      s: "N/A"
    }
  }
  attr {
    key: "inputTensor:0"
    value {
      s: "tensor_99_id_107563_module/model/2/aten__transpose  |  Sizes = [1,32,32,128]  |  bf16  |  expBias = 0, scale = 1  |    |  ModelParam = 0  |  strides = [262144, 262144, 8192, 256, 2]  |  data = 0, sizeInBytes = 262144  |  "
    }
  }
  attr {
    key: "inputTensor:1"
    value {
      s: "tensor_20_id_107607_module/model/2/aten__clone  |  Sizes = [1,1,32,128]  |  bf16  |  expBias = 0, scale = 1  |    |  ModelParam = 0  |  strides = [8192, 8192, 8192, 256, 2]  |  data = 0, sizeInBytes = 8192  |  "
    }
  }
  attr {
    key: "inputTensor:2"
    value {
      s: "tensor_13_id_107601_module/model/2/aten__clone  |  Sizes = [1,1,32,128]  |  bf16  |  expBias = 0, scale = 1  |    |  ModelParam = 0  |  strides = [8192, 8192, 8192, 256, 2]  |  data = 0, sizeInBytes = 8192  |  "
    }
  }
  attr {
    key: "inputTensor:3"
    value {
      s: "tensor_88_id_107510_module/model/2/aten__unsqueeze  |  Sizes = [1,32]  |  int32  |  expBias = 0, scale = 1  |    |  ModelParam = 0  |  strides = [128, 128, 4]  |  data = 0, sizeInBytes = 128  |  "
    }
  }
  attr {
    key: "outputTensor:0"
    value {
      s: "tensor_101  |  Sizes = [1,32,32,128]  |  bf16  |  expBias = 0, scale = 1  |    |  ModelParam = 0  |  strides = [262144, 262144, 8192, 256, 2]  |  data = 0, sizeInBytes = 262144  |  "
    }
  }
}
node {
  name: "module/model/2/fused_scaled_dot_product_attention/broadcast/9589"
  op: "Broadcast"
  input: "module/model/2/fused_scaled_dot_product_attention/slice/9588"
  attr {
    key: "Bundle_idx"
    value {
      s: "N/A"
    }
  }
  attr {
    key: "Exec_idx"
    value {
      s: "37"
    }
  }
  attr {
    key: "Op_idx"
    value {
      s: "N/A"
    }
  }
  attr {
    key: "inputTensor:0"
    value {
      s: "tensor_75_id_107514_module/model/2/fused_scaled_dot_product_attention/aten__slice  |  Sizes = [1,1,32,32]  |  bf16  |  expBias = 0, scale = 1  |    |  ModelParam = 0  |  strides = [2048, 2048, 2048, 64, 2]  |  data = 0, sizeInBytes = 2048  |  "
    }
  }
  attr {
    key: "outputTensor:0"
    value {
      s: "tensor_76_id_107515_module/model/2/fused_scaled_dot_product_attention/hpu__expand  |  Sizes = [1,1,32,32]  |  bf16  |  expBias = 0, scale = 1  |    |  ModelParam = 0  |  strides = [2048, 2048, 2048, 64, 2]  |  data = 0, sizeInBytes = 2048  |  "
    }
  }
}
node {
  name: "module/model/2/fused_scaled_dot_product_attention/expand_dims/9590"
  op: "ExpandDims"
  input: "module/model/2/fused_scaled_dot_product_attention/broadcast/9589"
  attr {
    key: "Bundle_idx"
    value {
      s: "N/A"
    }
  }
  attr {
    key: "Exec_idx"
    value {
      s: "38"
    }
  }
  attr {
    key: "Op_idx"
    value {
      s: "N/A"
    }
  }
  attr {
    key: "inputTensor:0"
    value {
      s: "tensor_76_id_107515_module/model/2/fused_scaled_dot_product_attention/hpu__expand  |  Sizes = [1,1,32,32]  |  bf16  |  expBias = 0, scale = 1  |    |  ModelParam = 0  |  strides = [2048, 2048, 2048, 64, 2]  |  data = 0, sizeInBytes = 2048  |  "
    }
  }
  attr {
    key: "outputTensor:0"
    value {
      s: "tensor_77_id_107682_module/model/2/fused_scaled_dot_product_attention/aten__unsqueeze  |  Sizes = [1,1,1,32,32]  |  bf16  |  expBias = 0, scale = 1  |    |  ModelParam = 0  |  strides = [2048, 2048, 2048, 2048, 64, 2]  |  data = 0, sizeInBytes = 2048  |  "
    }
  }
}
node {
  name: "tensor_78_odule/model/2/fused_scaled_dot_product_attention/quant_v/placeholder/1"
  op: "Placeholder"
  attr {
    key: "dtype"
    value {
      type: DT_BFLOAT16
    }
  }
  attr {
    key: "shape"
    value {
      shape {
        dim {
          size: 1
        }
        dim {
          size: 1
        }
        dim {
          size: 1
        }
        dim {
          size: 1
        }
        dim {
          size: 1
        }
      }
    }
  }
  attr {
    key: "synDataType"
    value {
      s: "bf16"
    }
  }
}
node {
  name: "module/model/2/fused_scaled_dot_product_attention/quant_v/convert_to_fp8_bf16/9591"
  op: "convert_to_fp8_bf16"
  input: "module/model/2/quant_output/convert_from_fp8_bf16/9584"
  input: "tensor_78_odule/model/2/fused_scaled_dot_product_attention/quant_v/placeholder/1"
  attr {
    key: "Bundle_idx"
    value {
      s: "N/A"
    }
  }
  attr {
    key: "Exec_idx"
    value {
      s: "39"
    }
  }
  attr {
    key: "Op_idx"
    value {
      s: "N/A"
    }
  }
  attr {
    key: "inputTensor:0"
    value {
      s: "tensor_70  |  Sizes = [1,8,32,128]  |  bf16  |  expBias = 0, scale = 1  |    |  ModelParam = 0  |  strides = [65536, 65536, 8192, 256, 2]  |  data = 0, sizeInBytes = 65536  |  isPersistent  |  userMemorySection(type=Persistent, id=27)  |  "
    }
  }
  attr {
    key: "inputTensor:1"
    value {
      s: "tensor_78_odule/model/2/fused_scaled_dot_product_attention/quant_v/placeholder/1  |  Sizes = [1]  |  bf16  |  expBias = 0, scale = 1  |    |  ModelParam = 0  |  strides = [2, 2]  |  data = 0x564734354f70, sizeInBytes = 2  |  buffer = 16  |  isPersistent  |  userMemorySection(type=Persistent, id=29)  |  isStaticParam  |  bufferDtype=bf16  |  "
    }
  }
  attr {
    key: "outputTensor:0"
    value {
      s: "tensor_81  |  Sizes = [1,8,32,128]  |  hfloat8  |  expBias = 7, scale = 1  |    |  ModelParam = 0  |  strides = [32768, 32768, 4096, 128, 1]  |  data = 0, sizeInBytes = 32768  |  "
    }
  }
}
node {
  name: "module/model/2/fused_scaled_dot_product_attention/reshape/9592"
  op: "Reshape"
  input: "module/model/2/fused_scaled_dot_product_attention/quant_v/convert_to_fp8_bf16/9591"
  attr {
    key: "Bundle_idx"
    value {
      s: "N/A"
    }
  }
  attr {
    key: "Exec_idx"
    value {
      s: "40"
    }
  }
  attr {
    key: "Op_idx"
    value {
      s: "N/A"
    }
  }
  attr {
    key: "inputTensor:0"
    value {
      s: "tensor_81  |  Sizes = [1,8,32,128]  |  hfloat8  |  expBias = 7, scale = 1  |    |  ModelParam = 0  |  strides = [32768, 32768, 4096, 128, 1]  |  data = 0, sizeInBytes = 32768  |  "
    }
  }
  attr {
    key: "outputTensor:0"
    value {
      s: "tensor_82_id_107680_module/model/2/fused_scaled_dot_product_attention/aten__view  |  Sizes = [1,8,1,32,128]  |  hfloat8  |  expBias = 7, scale = 1  |    |  ModelParam = 0  |  strides = [32768, 32768, 4096, 4096, 128, 1]  |  data = 0, sizeInBytes = 32768  |  "
    }
  }
}
node {
  name: "tensor_83_odule/model/2/fused_scaled_dot_product_attention/quant_k/placeholder/1"
  op: "Placeholder"
  attr {
    key: "dtype"
    value {
      type: DT_BFLOAT16
    }
  }
  attr {
    key: "shape"
    value {
      shape {
        dim {
          size: 1
        }
        dim {
          size: 1
        }
        dim {
          size: 1
        }
        dim {
          size: 1
        }
        dim {
          size: 1
        }
      }
    }
  }
  attr {
    key: "synDataType"
    value {
      s: "bf16"
    }
  }
}
node {
  name: "module/model/2/fused_scaled_dot_product_attention/quant_k/convert_to_fp8_bf16/9593"
  op: "convert_to_fp8_bf16"
  input: "module/model/2/quant_output/convert_from_fp8_bf16/9576"
  input: "tensor_83_odule/model/2/fused_scaled_dot_product_attention/quant_k/placeholder/1"
  attr {
    key: "Bundle_idx"
    value {
      s: "N/A"
    }
  }
  attr {
    key: "Exec_idx"
    value {
      s: "41"
    }
  }
  attr {
    key: "Op_idx"
    value {
      s: "N/A"
    }
  }
  attr {
    key: "inputTensor:0"
    value {
      s: "tensor_47  |  Sizes = [1,8,32,128]  |  bf16  |  expBias = 0, scale = 1  |    |  ModelParam = 0  |  strides = [65536, 65536, 8192, 256, 2]  |  data = 0, sizeInBytes = 65536  |  isPersistent  |  userMemorySection(type=Persistent, id=18)  |  "
    }
  }
  attr {
    key: "inputTensor:1"
    value {
      s: "tensor_83_odule/model/2/fused_scaled_dot_product_attention/quant_k/placeholder/1  |  Sizes = [1]  |  bf16  |  expBias = 0, scale = 1  |    |  ModelParam = 0  |  strides = [2, 2]  |  data = 0x5647338078e8, sizeInBytes = 2  |  buffer = 1  |  isPersistent  |  userMemorySection(type=Persistent, id=30)  |  isStaticParam  |  bufferDtype=bf16  |  "
    }
  }
  attr {
    key: "outputTensor:0"
    value {
      s: "tensor_86  |  Sizes = [1,8,32,128]  |  hfloat8  |  expBias = 7, scale = 1  |    |  ModelParam = 0  |  strides = [32768, 32768, 4096, 128, 1]  |  data = 0, sizeInBytes = 32768  |  "
    }
  }
}
node {
  name: "module/model/2/fused_scaled_dot_product_attention/reshape/9594"
  op: "Reshape"
  input: "module/model/2/fused_scaled_dot_product_attention/quant_k/convert_to_fp8_bf16/9593"
  attr {
    key: "Bundle_idx"
    value {
      s: "N/A"
    }
  }
  attr {
    key: "Exec_idx"
    value {
      s: "42"
    }
  }
  attr {
    key: "Op_idx"
    value {
      s: "N/A"
    }
  }
  attr {
    key: "inputTensor:0"
    value {
      s: "tensor_86  |  Sizes = [1,8,32,128]  |  hfloat8  |  expBias = 7, scale = 1  |    |  ModelParam = 0  |  strides = [32768, 32768, 4096, 128, 1]  |  data = 0, sizeInBytes = 32768  |  "
    }
  }
  attr {
    key: "outputTensor:0"
    value {
      s: "tensor_87_id_107678_module/model/2/fused_scaled_dot_product_attention/aten__view  |  Sizes = [1,8,1,32,128]  |  hfloat8  |  expBias = 7, scale = 1  |    |  ModelParam = 0  |  strides = [32768, 32768, 4096, 4096, 128, 1]  |  data = 0, sizeInBytes = 32768  |  "
    }
  }
}
node {
  name: "tensor_102_odule/model/2/fused_scaled_dot_product_attention/quant_q/placeholder/1"
  op: "Placeholder"
  attr {
    key: "dtype"
    value {
      type: DT_BFLOAT16
    }
  }
  attr {
    key: "shape"
    value {
      shape {
        dim {
          size: 1
        }
        dim {
          size: 1
        }
        dim {
          size: 1
        }
        dim {
          size: 1
        }
        dim {
          size: 1
        }
      }
    }
  }
  attr {
    key: "synDataType"
    value {
      s: "bf16"
    }
  }
}
node {
  name: "module/model/2/fused_scaled_dot_product_attention/quant_q/convert_to_fp8_bf16/9601"
  op: "convert_to_fp8_bf16"
  input: "module/model/2/rotary_pos_embedding_fwd_bf16/9600"
  input: "tensor_102_odule/model/2/fused_scaled_dot_product_attention/quant_q/placeholder/1"
  attr {
    key: "Bundle_idx"
    value {
      s: "N/A"
    }
  }
  attr {
    key: "Exec_idx"
    value {
      s: "43"
    }
  }
  attr {
    key: "Op_idx"
    value {
      s: "N/A"
    }
  }
  attr {
    key: "inputTensor:0"
    value {
      s: "tensor_101  |  Sizes = [1,32,32,128]  |  bf16  |  expBias = 0, scale = 1  |    |  ModelParam = 0  |  strides = [262144, 262144, 8192, 256, 2]  |  data = 0, sizeInBytes = 262144  |  "
    }
  }
  attr {
    key: "inputTensor:1"
    value {
      s: "tensor_102_odule/model/2/fused_scaled_dot_product_attention/quant_q/placeholder/1  |  Sizes = [1]  |  bf16  |  expBias = 0, scale = 1  |    |  ModelParam = 0  |  strides = [2, 2]  |  data = 0x564734354ed0, sizeInBytes = 2  |  buffer = 1  |  isPersistent  |  userMemorySection(type=Persistent, id=35)  |  isStaticParam  |  bufferDtype=bf16  |  "
    }
  }
  attr {
    key: "outputTensor:0"
    value {
      s: "tensor_105  |  Sizes = [1,32,32,128]  |  hfloat8  |  expBias = 7, scale = 1  |    |  ModelParam = 0  |  strides = [131072, 131072, 4096, 128, 1]  |  data = 0, sizeInBytes = 131072  |  "
    }
  }
}
node {
  name: "module/model/2/fused_scaled_dot_product_attention/reshape/9602"
  op: "Reshape"
  input: "module/model/2/fused_scaled_dot_product_attention/quant_q/convert_to_fp8_bf16/9601"
  attr {
    key: "Bundle_idx"
    value {
      s: "N/A"
    }
  }
  attr {
    key: "Exec_idx"
    value {
      s: "44"
    }
  }
  attr {
    key: "Op_idx"
    value {
      s: "N/A"
    }
  }
  attr {
    key: "inputTensor:0"
    value {
      s: "tensor_105  |  Sizes = [1,32,32,128]  |  hfloat8  |  expBias = 7, scale = 1  |    |  ModelParam = 0  |  strides = [131072, 131072, 4096, 128, 1]  |  data = 0, sizeInBytes = 131072  |  "
    }
  }
  attr {
    key: "outputTensor:0"
    value {
      s: "tensor_106_id_107676_module/model/2/fused_scaled_dot_product_attention/aten__view  |  Sizes = [1,8,4,32,128]  |  hfloat8  |  expBias = 7, scale = 1  |    |  ModelParam = 0  |  strides = [131072, 131072, 16384, 4096, 128, 1]  |  data = 0, sizeInBytes = 131072  |  "
    }
  }
}
node {
  name: "tensor_107_odule/model/2/fused_scaled_dot_product_attention/placeholder/4"
  op: "Placeholder"
  attr {
    key: "dtype"
    value {
      type: DT_FLOAT
    }
  }
  attr {
    key: "shape"
    value {
      shape {
        dim {
          size: 1
        }
        dim {
          size: 1
        }
        dim {
          size: 1
        }
        dim {
          size: 1
        }
        dim {
          size: 1
        }
      }
    }
  }
  attr {
    key: "synDataType"
    value {
      s: "float32"
    }
  }
}
node {
  name: "tensor_108_odule/model/2/fused_scaled_dot_product_attention/placeholder/5"
  op: "Placeholder"
  attr {
    key: "dtype"
    value {
      type: DT_FLOAT
    }
  }
  attr {
    key: "shape"
    value {
      shape {
        dim {
          size: 1
        }
        dim {
          size: 1
        }
        dim {
          size: 1
        }
        dim {
          size: 1
        }
        dim {
          size: 1
        }
      }
    }
  }
  attr {
    key: "synDataType"
    value {
      s: "float32"
    }
  }
}
node {
  name: "tensor_109_odule/model/2/fused_scaled_dot_product_attention/placeholder/6"
  op: "Placeholder"
  attr {
    key: "dtype"
    value {
      type: DT_FLOAT
    }
  }
  attr {
    key: "shape"
    value {
      shape {
        dim {
          size: 1
        }
        dim {
          size: 1
        }
        dim {
          size: 1
        }
        dim {
          size: 1
        }
        dim {
          size: 1
        }
      }
    }
  }
  attr {
    key: "synDataType"
    value {
      s: "float32"
    }
  }
}
node {
  name: "tensor_110_odule/model/2/fused_scaled_dot_product_attention/placeholder/7"
  op: "Placeholder"
  attr {
    key: "dtype"
    value {
      type: DT_FLOAT
    }
  }
  attr {
    key: "shape"
    value {
      shape {
        dim {
          size: 1
        }
        dim {
          size: 1
        }
        dim {
          size: 1
        }
        dim {
          size: 1
        }
        dim {
          size: 1
        }
      }
    }
  }
  attr {
    key: "synDataType"
    value {
      s: "float32"
    }
  }
}
node {
  name: "tensor_111_odule/model/2/fused_scaled_dot_product_attention/placeholder/8"
  op: "Placeholder"
  attr {
    key: "dtype"
    value {
      type: DT_FLOAT
    }
  }
  attr {
    key: "shape"
    value {
      shape {
        dim {
          size: 1
        }
        dim {
          size: 1
        }
        dim {
          size: 1
        }
        dim {
          size: 1
        }
        dim {
          size: 1
        }
      }
    }
  }
  attr {
    key: "synDataType"
    value {
      s: "float32"
    }
  }
}
node {
  name: "tensor_112_odule/model/2/fused_scaled_dot_product_attention/placeholder/9"
  op: "Placeholder"
  attr {
    key: "dtype"
    value {
      type: DT_FLOAT
    }
  }
  attr {
    key: "shape"
    value {
      shape {
        dim {
          size: 1
        }
        dim {
          size: 1
        }
        dim {
          size: 1
        }
        dim {
          size: 1
        }
        dim {
          size: 1
        }
      }
    }
  }
  attr {
    key: "synDataType"
    value {
      s: "float32"
    }
  }
}
node {
  name: "module/model/2/fused_scaled_dot_product_attention/sdpa_recomp_fwd_hf8/9603"
  op: "sdpa_recomp_fwd_hf8"
  input: "module/model/2/fused_scaled_dot_product_attention/reshape/9602"
  input: "module/model/2/fused_scaled_dot_product_attention/reshape/9594"
  input: "module/model/2/fused_scaled_dot_product_attention/reshape/9592"
  input: "module/model/2/fused_scaled_dot_product_attention/expand_dims/9590"
  input: "unused_port"
  input: "tensor_107_odule/model/2/fused_scaled_dot_product_attention/placeholder/4"
  input: "tensor_108_odule/model/2/fused_scaled_dot_product_attention/placeholder/5"
  input: "tensor_109_odule/model/2/fused_scaled_dot_product_attention/placeholder/6"
  input: "tensor_110_odule/model/2/fused_scaled_dot_product_attention/placeholder/7"
  input: "tensor_111_odule/model/2/fused_scaled_dot_product_attention/placeholder/8"
  input: "tensor_112_odule/model/2/fused_scaled_dot_product_attention/placeholder/9"
  attr {
    key: "Bundle_idx"
    value {
      s: "N/A"
    }
  }
  attr {
    key: "Exec_idx"
    value {
      s: "45"
    }
  }
  attr {
    key: "Op_idx"
    value {
      s: "N/A"
    }
  }
  attr {
    key: "inputTensor:00"
    value {
      s: "tensor_106_id_107676_module/model/2/fused_scaled_dot_product_attention/aten__view  |  Sizes = [1,8,4,32,128]  |  hfloat8  |  expBias = 7, scale = 1  |    |  ModelParam = 0  |  strides = [131072, 131072, 16384, 4096, 128, 1]  |  data = 0, sizeInBytes = 131072  |  "
    }
  }
  attr {
    key: "inputTensor:01"
    value {
      s: "tensor_87_id_107678_module/model/2/fused_scaled_dot_product_attention/aten__view  |  Sizes = [1,8,1,32,128]  |  hfloat8  |  expBias = 7, scale = 1  |    |  ModelParam = 0  |  strides = [32768, 32768, 4096, 4096, 128, 1]  |  data = 0, sizeInBytes = 32768  |  "
    }
  }
  attr {
    key: "inputTensor:02"
    value {
      s: "tensor_82_id_107680_module/model/2/fused_scaled_dot_product_attention/aten__view  |  Sizes = [1,8,1,32,128]  |  hfloat8  |  expBias = 7, scale = 1  |    |  ModelParam = 0  |  strides = [32768, 32768, 4096, 4096, 128, 1]  |  data = 0, sizeInBytes = 32768  |  "
    }
  }
  attr {
    key: "inputTensor:03"
    value {
      s: "tensor_77_id_107682_module/model/2/fused_scaled_dot_product_attention/aten__unsqueeze  |  Sizes = [1,1,1,32,32]  |  bf16  |  expBias = 0, scale = 1  |    |  ModelParam = 0  |  strides = [2048, 2048, 2048, 2048, 64, 2]  |  data = 0, sizeInBytes = 2048  |  "
    }
  }
  attr {
    key: "inputTensor:05"
    value {
      s: "tensor_107_odule/model/2/fused_scaled_dot_product_attention/placeholder/4  |  Sizes = [1]  |  float32  |  expBias = 0, scale = 1  |    |  ModelParam = 0  |  strides = [4, 4]  |  data = 0x56472fd6d098, sizeInBytes = 4  |  buffer = 1  |  isPersistent  |  userMemorySection(type=Persistent, id=36)  |  isStaticParam  |  bufferDtype=float32  |  "
    }
  }
  attr {
    key: "inputTensor:06"
    value {
      s: "tensor_108_odule/model/2/fused_scaled_dot_product_attention/placeholder/5  |  Sizes = [1]  |  float32  |  expBias = 0, scale = 1  |    |  ModelParam = 0  |  strides = [4, 4]  |  data = 0x564733dd0688, sizeInBytes = 4  |  buffer = 1  |  isPersistent  |  userMemorySection(type=Persistent, id=37)  |  isStaticParam  |  bufferDtype=float32  |  "
    }
  }
  attr {
    key: "inputTensor:07"
    value {
      s: "tensor_109_odule/model/2/fused_scaled_dot_product_attention/placeholder/6  |  Sizes = [1]  |  float32  |  expBias = 0, scale = 1  |    |  ModelParam = 0  |  strides = [4, 4]  |  data = 0x56464686e3b0, sizeInBytes = 4  |  buffer = 0.0625  |  isPersistent  |  userMemorySection(type=Persistent, id=38)  |  isStaticParam  |  bufferDtype=float32  |  "
    }
  }
  attr {
    key: "inputTensor:08"
    value {
      s: "tensor_110_odule/model/2/fused_scaled_dot_product_attention/placeholder/7  |  Sizes = [1]  |  float32  |  expBias = 0, scale = 1  |    |  ModelParam = 0  |  strides = [4, 4]  |  data = 0x564734354f48, sizeInBytes = 4  |  buffer = 16  |  isPersistent  |  userMemorySection(type=Persistent, id=39)  |  isStaticParam  |  bufferDtype=float32  |  "
    }
  }
  attr {
    key: "inputTensor:09"
    value {
      s: "tensor_111_odule/model/2/fused_scaled_dot_product_attention/placeholder/8  |  Sizes = [1]  |  float32  |  expBias = 0, scale = 1  |    |  ModelParam = 0  |  strides = [4, 4]  |  data = 0x5647347c3f88, sizeInBytes = 4  |  buffer = 16  |  isPersistent  |  userMemorySection(type=Persistent, id=40)  |  isStaticParam  |  bufferDtype=float32  |  "
    }
  }
  attr {
    key: "inputTensor:10"
    value {
      s: "tensor_112_odule/model/2/fused_scaled_dot_product_attention/placeholder/9  |  Sizes = [1]  |  float32  |  expBias = 0, scale = 1  |    |  ModelParam = 0  |  strides = [4, 4]  |  data = 0x564734354d30, sizeInBytes = 4  |  buffer = 0.0625  |  isPersistent  |  userMemorySection(type=Persistent, id=41)  |  isStaticParam  |  bufferDtype=float32  |  "
    }
  }
  attr {
    key: "outputTensor:0"
    value {
      s: "tensor_118  |  Sizes = [1,8,4,32,128]  |  hfloat8  |  expBias = 7, scale = 1  |    |  ModelParam = 0  |  strides = [131072, 131072, 16384, 4096, 128, 1]  |  data = 0, sizeInBytes = 131072  |  "
    }
  }
}
node {
  name: "module/model/2/fused_scaled_dot_product_attention/dequant_output/reshape/9604"
  op: "Reshape"
  input: "module/model/2/fused_scaled_dot_product_attention/sdpa_recomp_fwd_hf8/9603"
  attr {
    key: "Bundle_idx"
    value {
      s: "N/A"
    }
  }
  attr {
    key: "Exec_idx"
    value {
      s: "46"
    }
  }
  attr {
    key: "Op_idx"
    value {
      s: "N/A"
    }
  }
  attr {
    key: "inputTensor:0"
    value {
      s: "tensor_118  |  Sizes = [1,8,4,32,128]  |  hfloat8  |  expBias = 7, scale = 1  |    |  ModelParam = 0  |  strides = [131072, 131072, 16384, 4096, 128, 1]  |  data = 0, sizeInBytes = 131072  |  "
    }
  }
  attr {
    key: "outputTensor:0"
    value {
      s: "tensor_119_id_107701_module/model/2/fused_scaled_dot_product_attention/dequant_output/aten__view  |  Sizes = [1,32,32,128]  |  hfloat8  |  expBias = 7, scale = 1  |    |  ModelParam = 0  |  strides = [131072, 131072, 4096, 128, 1]  |  data = 0, sizeInBytes = 131072  |  "
    }
  }
}
node {
  name: "tensor_120_odule/model/2/fused_scaled_dot_product_attention/dequant_output/placeholder/1"
  op: "Placeholder"
  attr {
    key: "dtype"
    value {
      type: DT_BFLOAT16
    }
  }
  attr {
    key: "shape"
    value {
      shape {
        dim {
          size: 1
        }
        dim {
          size: 1
        }
        dim {
          size: 1
        }
        dim {
          size: 1
        }
        dim {
          size: 1
        }
      }
    }
  }
  attr {
    key: "synDataType"
    value {
      s: "bf16"
    }
  }
}
node {
  name: "module/model/2/fused_scaled_dot_product_attention/dequant_output/convert_from_fp8_bf16/9605"
  op: "convert_from_fp8_bf16"
  input: "module/model/2/fused_scaled_dot_product_attention/dequant_output/reshape/9604"
  input: "tensor_120_odule/model/2/fused_scaled_dot_product_attention/dequant_output/placeholder/1"
  attr {
    key: "Bundle_idx"
    value {
      s: "N/A"
    }
  }
  attr {
    key: "Exec_idx"
    value {
      s: "47"
    }
  }
  attr {
    key: "Op_idx"
    value {
      s: "N/A"
    }
  }
  attr {
    key: "inputTensor:0"
    value {
      s: "tensor_119_id_107701_module/model/2/fused_scaled_dot_product_attention/dequant_output/aten__view  |  Sizes = [1,32,32,128]  |  hfloat8  |  expBias = 7, scale = 1  |    |  ModelParam = 0  |  strides = [131072, 131072, 4096, 128, 1]  |  data = 0, sizeInBytes = 131072  |  "
    }
  }
  attr {
    key: "inputTensor:1"
    value {
      s: "tensor_120_odule/model/2/fused_scaled_dot_product_attention/dequant_output/placeholder/1  |  Sizes = [1]  |  bf16  |  expBias = 0, scale = 1  |    |  ModelParam = 0  |  strides = [2, 2]  |  data = 0x564734354ef0, sizeInBytes = 2  |  buffer = 0.0625  |  isPersistent  |  userMemorySection(type=Persistent, id=42)  |  isStaticParam  |  bufferDtype=bf16  |  "
    }
  }
  attr {
    key: "outputTensor:0"
    value {
      s: "tensor_122  |  Sizes = [1,32,32,128]  |  bf16  |  expBias = 0, scale = 1  |    |  ModelParam = 0  |  strides = [262144, 262144, 8192, 256, 2]  |  data = 0, sizeInBytes = 262144  |  "
    }
  }
}
node {
  name: "module/model/2/transpose/9606"
  op: "Transpose"
  input: "module/model/2/fused_scaled_dot_product_attention/dequant_output/convert_from_fp8_bf16/9605"
  attr {
    key: "Bundle_idx"
    value {
      s: "N/A"
    }
  }
  attr {
    key: "Exec_idx"
    value {
      s: "48"
    }
  }
  attr {
    key: "Op_idx"
    value {
      s: "N/A"
    }
  }
  attr {
    key: "Parameters"
    value {
      s: "permutation: (0,2,1,3)"
    }
  }
  attr {
    key: "inputTensor:0"
    value {
      s: "tensor_122  |  Sizes = [1,32,32,128]  |  bf16  |  expBias = 0, scale = 1  |    |  ModelParam = 0  |  strides = [262144, 262144, 8192, 256, 2]  |  data = 0, sizeInBytes = 262144  |  "
    }
  }
  attr {
    key: "outputTensor:0"
    value {
      s: "tensor_123_id_107706_module/model/2/aten__transpose  |  Sizes = [1,32,32,128]  |  bf16  |  expBias = 0, scale = 1  |    |  ModelParam = 0  |  strides = [262144, 262144, 8192, 256, 2]  |  data = 0, sizeInBytes = 262144  |  "
    }
  }
}
node {
  name: "module/model/2/identity/9607"
  op: "Identity"
  input: "module/model/2/transpose/9606"
  attr {
    key: "Bundle_idx"
    value {
      s: "N/A"
    }
  }
  attr {
    key: "Exec_idx"
    value {
      s: "49"
    }
  }
  attr {
    key: "Op_idx"
    value {
      s: "N/A"
    }
  }
  attr {
    key: "inputTensor:0"
    value {
      s: "tensor_123_id_107706_module/model/2/aten__transpose  |  Sizes = [1,32,32,128]  |  bf16  |  expBias = 0, scale = 1  |    |  ModelParam = 0  |  strides = [262144, 262144, 8192, 256, 2]  |  data = 0, sizeInBytes = 262144  |  "
    }
  }
  attr {
    key: "outputTensor:0"
    value {
      s: "tensor_124_id_107708_module/model/2/aten__clone  |  Sizes = [1,32,32,128]  |  bf16  |  expBias = 0, scale = 1  |    |  ModelParam = 0  |  strides = [262144, 262144, 8192, 256, 2]  |  data = 0, sizeInBytes = 262144  |  "
    }
  }
}
node {
  name: "module/model/2/o_proj/quant_input_0/reshape/9608"
  op: "Reshape"
  input: "module/model/2/identity/9607"
  attr {
    key: "Bundle_idx"
    value {
      s: "N/A"
    }
  }
  attr {
    key: "Exec_idx"
    value {
      s: "50"
    }
  }
  attr {
    key: "Op_idx"
    value {
      s: "N/A"
    }
  }
  attr {
    key: "inputTensor:0"
    value {
      s: "tensor_124_id_107708_module/model/2/aten__clone  |  Sizes = [1,32,32,128]  |  bf16  |  expBias = 0, scale = 1  |    |  ModelParam = 0  |  strides = [262144, 262144, 8192, 256, 2]  |  data = 0, sizeInBytes = 262144  |  "
    }
  }
  attr {
    key: "outputTensor:0"
    value {
      s: "tensor_125_id_107711_module/model/2/o_proj/quant_input_0/aten__view  |  Sizes = [1,32,4096]  |  bf16  |  expBias = 0, scale = 1  |    |  ModelParam = 0  |  strides = [262144, 262144, 8192, 2]  |  data = 0, sizeInBytes = 262144  |  "
    }
  }
}
node {
  name: "tensor_126_odule/model/2/o_proj/quant_input_0/placeholder/1"
  op: "Placeholder"
  attr {
    key: "dtype"
    value {
      type: DT_BFLOAT16
    }
  }
  attr {
    key: "shape"
    value {
      shape {
        dim {
          size: 1
        }
        dim {
          size: 1
        }
        dim {
          size: 1
        }
        dim {
          size: 1
        }
        dim {
          size: 1
        }
      }
    }
  }
  attr {
    key: "synDataType"
    value {
      s: "bf16"
    }
  }
}
node {
  name: "module/model/2/o_proj/quant_input_0/convert_to_fp8_bf16/9609"
  op: "convert_to_fp8_bf16"
  input: "module/model/2/o_proj/quant_input_0/reshape/9608"
  input: "tensor_126_odule/model/2/o_proj/quant_input_0/placeholder/1"
  attr {
    key: "Bundle_idx"
    value {
      s: "N/A"
    }
  }
  attr {
    key: "Exec_idx"
    value {
      s: "51"
    }
  }
  attr {
    key: "Op_idx"
    value {
      s: "N/A"
    }
  }
  attr {
    key: "inputTensor:0"
    value {
      s: "tensor_125_id_107711_module/model/2/o_proj/quant_input_0/aten__view  |  Sizes = [1,32,4096]  |  bf16  |  expBias = 0, scale = 1  |    |  ModelParam = 0  |  strides = [262144, 262144, 8192, 2]  |  data = 0, sizeInBytes = 262144  |  "
    }
  }
  attr {
    key: "inputTensor:1"
    value {
      s: "tensor_126_odule/model/2/o_proj/quant_input_0/placeholder/1  |  Sizes = [1]  |  bf16  |  expBias = 0, scale = 1  |    |  ModelParam = 0  |  strides = [2, 2]  |  data = 0x56473172bbb0, sizeInBytes = 2  |  buffer = 16  |  isPersistent  |  userMemorySection(type=Persistent, id=43)  |  isStaticParam  |  bufferDtype=bf16  |  "
    }
  }
  attr {
    key: "outputTensor:0"
    value {
      s: "tensor_129  |  Sizes = [1,32,4096]  |  hfloat8  |  expBias = 7, scale = 1  |    |  ModelParam = 0  |  strides = [131072, 131072, 4096, 1]  |  data = 0, sizeInBytes = 131072  |  "
    }
  }
}
node {
  name: "tensor_130_odule/model/2/o_proj/placeholder/1"
  op: "Placeholder"
  attr {
    key: "dtype"
    value {
      type: DT_INVALID
    }
  }
  attr {
    key: "shape"
    value {
      shape {
        dim {
          size: 4096
        }
        dim {
          size: 4096
        }
        dim {
          size: 1
        }
        dim {
          size: 1
        }
        dim {
          size: 1
        }
      }
    }
  }
  attr {
    key: "synDataType"
    value {
      s: "hfloat8"
    }
  }
}
node {
  name: "tensor_131_odule/model/2/o_proj/placeholder/2"
  op: "Placeholder"
  attr {
    key: "dtype"
    value {
      type: DT_BFLOAT16
    }
  }
  attr {
    key: "shape"
    value {
      shape {
        dim {
          size: 1
        }
        dim {
          size: 1
        }
        dim {
          size: 1
        }
        dim {
          size: 1
        }
        dim {
          size: 1
        }
      }
    }
  }
  attr {
    key: "synDataType"
    value {
      s: "bf16"
    }
  }
}
node {
  name: "tensor_132_odule/model/2/o_proj/placeholder/3"
  op: "Placeholder"
  attr {
    key: "dtype"
    value {
      type: DT_BFLOAT16
    }
  }
  attr {
    key: "shape"
    value {
      shape {
        dim {
          size: 1
        }
        dim {
          size: 1
        }
        dim {
          size: 1
        }
        dim {
          size: 1
        }
        dim {
          size: 1
        }
      }
    }
  }
  attr {
    key: "synDataType"
    value {
      s: "bf16"
    }
  }
}
node {
  name: "module/model/2/o_proj/fp8_gemm_bf16/9610"
  op: "fp8_gemm_bf16"
  input: "module/model/2/o_proj/quant_input_0/convert_to_fp8_bf16/9609"
  input: "tensor_130_odule/model/2/o_proj/placeholder/1"
  input: "tensor_131_odule/model/2/o_proj/placeholder/2"
  input: "tensor_132_odule/model/2/o_proj/placeholder/3"
  input: "unused_port"
  input: "unused_port"
  input: "unused_port"
  attr {
    key: "Bundle_idx"
    value {
      s: "N/A"
    }
  }
  attr {
    key: "Exec_idx"
    value {
      s: "52"
    }
  }
  attr {
    key: "Op_idx"
    value {
      s: "N/A"
    }
  }
  attr {
    key: "inputTensor:0"
    value {
      s: "tensor_129  |  Sizes = [1,32,4096]  |  hfloat8  |  expBias = 7, scale = 1  |    |  ModelParam = 0  |  strides = [131072, 131072, 4096, 1]  |  data = 0, sizeInBytes = 131072  |  "
    }
  }
  attr {
    key: "inputTensor:1"
    value {
      s: "tensor_130_odule/model/2/o_proj/placeholder/1  |  Sizes = [4096,4096]  |  hfloat8  |  expBias = 7, scale = 1  |    |  ModelParam = 0  |  strides = [16777216, 4096, 1]  |  data = 0, sizeInBytes = 16777216  |  isPersistent  |  userMemorySection(type=Persistent, id=44)  |  "
    }
  }
  attr {
    key: "inputTensor:2"
    value {
      s: "tensor_131_odule/model/2/o_proj/placeholder/2  |  Sizes = [1]  |  bf16  |  expBias = 0, scale = 1  |    |  ModelParam = 0  |  strides = [2, 2]  |  data = 0x5647317dea90, sizeInBytes = 2  |  buffer = 0.0625  |  isPersistent  |  userMemorySection(type=Persistent, id=45)  |  isStaticParam  |  bufferDtype=bf16  |  "
    }
  }
  attr {
    key: "inputTensor:3"
    value {
      s: "tensor_132_odule/model/2/o_proj/placeholder/3  |  Sizes = [1]  |  bf16  |  expBias = 0, scale = 1  |    |  ModelParam = 0  |  strides = [2, 2]  |  data = 0x5647347c3680, sizeInBytes = 2  |  buffer = 0.00390625  |  isPersistent  |  userMemorySection(type=Persistent, id=46)  |  isStaticParam  |  bufferDtype=bf16  |  "
    }
  }
  attr {
    key: "outputTensor:0"
    value {
      s: "tensor_134  |  Sizes = [1,32,4096]  |  bf16  |  expBias = 0, scale = 1  |    |  ModelParam = 0  |  strides = [262144, 262144, 8192, 2]  |  data = 0, sizeInBytes = 262144  |  "
    }
  }
}
node {
  name: "module/model/2/add_fwd_bf16/9611"
  op: "add_fwd_bf16"
  input: "tensor_21_odule/model/2/input_layernorm/placeholder/0"
  input: "module/model/2/o_proj/fp8_gemm_bf16/9610"
  input: "^module/model/2/input_layernorm/rms_norm_ex_fwd_bf16/9568"
  attr {
    key: "Bundle_idx"
    value {
      s: "N/A"
    }
  }
  attr {
    key: "Exec_idx"
    value {
      s: "53"
    }
  }
  attr {
    key: "Op_idx"
    value {
      s: "N/A"
    }
  }
  attr {
    key: "inputTensor:0"
    value {
      s: "tensor_21_odule/model/2/input_layernorm/placeholder/0  |  Sizes = [1,32,4096]  |  bf16  |  expBias = 0, scale = 1  |    |  ModelParam = 0  |  strides = [262144, 262144, 8192, 2]  |  data = 0, sizeInBytes = 262144  |  isPersistent  |  userMemorySection(type=Persistent, id=9)  |  "
    }
  }
  attr {
    key: "inputTensor:1"
    value {
      s: "tensor_134  |  Sizes = [1,32,4096]  |  bf16  |  expBias = 0, scale = 1  |    |  ModelParam = 0  |  strides = [262144, 262144, 8192, 2]  |  data = 0, sizeInBytes = 262144  |  "
    }
  }
  attr {
    key: "outputTensor:0"
    value {
      s: "tensor_135  |  Sizes = [1,32,4096]  |  bf16  |  expBias = 0, scale = 1  |    |  ModelParam = 0  |  strides = [262144, 262144, 8192, 2]  |  data = 0, sizeInBytes = 262144  |  isPersistent  |  userMemorySection(type=Persistent, id=9)  |  "
    }
  }
}
node {
  name: "tensor_136_odule/model/2/post_attention_layernorm/placeholder/1"
  op: "Placeholder"
  attr {
    key: "dtype"
    value {
      type: DT_BFLOAT16
    }
  }
  attr {
    key: "shape"
    value {
      shape {
        dim {
          size: 4096
        }
        dim {
          size: 1
        }
        dim {
          size: 1
        }
        dim {
          size: 1
        }
        dim {
          size: 1
        }
      }
    }
  }
  attr {
    key: "synDataType"
    value {
      s: "bf16"
    }
  }
}
node {
  name: "module/model/2/post_attention_layernorm/rms_norm_ex_fwd_bf16/9612"
  op: "rms_norm_ex_fwd_bf16"
  input: "module/model/2/add_fwd_bf16/9611"
  input: "tensor_136_odule/model/2/post_attention_layernorm/placeholder/1"
  attr {
    key: "Bundle_idx"
    value {
      s: "N/A"
    }
  }
  attr {
    key: "Exec_idx"
    value {
      s: "54"
    }
  }
  attr {
    key: "Op_idx"
    value {
      s: "N/A"
    }
  }
  attr {
    key: "inputTensor:0"
    value {
      s: "tensor_135  |  Sizes = [1,32,4096]  |  bf16  |  expBias = 0, scale = 1  |    |  ModelParam = 0  |  strides = [262144, 262144, 8192, 2]  |  data = 0, sizeInBytes = 262144  |  isPersistent  |  userMemorySection(type=Persistent, id=9)  |  "
    }
  }
  attr {
    key: "inputTensor:1"
    value {
      s: "tensor_136_odule/model/2/post_attention_layernorm/placeholder/1  |  Sizes = [4096]  |  bf16  |  expBias = 0, scale = 1  |    |  ModelParam = 0  |  strides = [8192, 2]  |  data = 0, sizeInBytes = 8192  |  isPersistent  |  userMemorySection(type=Persistent, id=47)  |  "
    }
  }
  attr {
    key: "outputTensor:0"
    value {
      s: "tensor_139  |  Sizes = [1,32,4096]  |  bf16  |  expBias = 0, scale = 1  |    |  ModelParam = 0  |  strides = [262144, 262144, 8192, 2]  |  data = 0, sizeInBytes = 262144  |  "
    }
  }
  attr {
    key: "outputTensor:1"
    value {
      s: "tensor_140  |  Sizes = [1,32,1]  |  float32  |  expBias = 0, scale = 1  |    |  ModelParam = 0  |  strides = [128, 128, 4, 4]  |  data = 0, sizeInBytes = 128  |  "
    }
  }
}
node {
  name: "tensor_140"
  op: "OutputTensor"
  input: "module/model/2/post_attention_layernorm/rms_norm_ex_fwd_bf16/9612"
  attr {
    key: "dtype"
    value {
      type: DT_FLOAT
    }
  }
  attr {
    key: "shape"
    value {
      shape {
        dim {
          size: 1
        }
        dim {
          size: 32
        }
        dim {
          size: 1
        }
        dim {
          size: 1
        }
        dim {
          size: 1
        }
      }
    }
  }
  attr {
    key: "synDataType"
    value {
      s: "float32"
    }
  }
}
node {
  name: "tensor_150_odule/model/2/gate_proj/quant_input_0/placeholder/1"
  op: "Placeholder"
  attr {
    key: "dtype"
    value {
      type: DT_BFLOAT16
    }
  }
  attr {
    key: "shape"
    value {
      shape {
        dim {
          size: 1
        }
        dim {
          size: 1
        }
        dim {
          size: 1
        }
        dim {
          size: 1
        }
        dim {
          size: 1
        }
      }
    }
  }
  attr {
    key: "synDataType"
    value {
      s: "bf16"
    }
  }
}
node {
  name: "module/model/2/gate_proj/quant_input_0/convert_to_fp8_bf16/9615"
  op: "convert_to_fp8_bf16"
  input: "module/model/2/post_attention_layernorm/rms_norm_ex_fwd_bf16/9612"
  input: "tensor_150_odule/model/2/gate_proj/quant_input_0/placeholder/1"
  attr {
    key: "Bundle_idx"
    value {
      s: "N/A"
    }
  }
  attr {
    key: "Exec_idx"
    value {
      s: "55"
    }
  }
  attr {
    key: "Op_idx"
    value {
      s: "N/A"
    }
  }
  attr {
    key: "inputTensor:0"
    value {
      s: "tensor_139  |  Sizes = [1,32,4096]  |  bf16  |  expBias = 0, scale = 1  |    |  ModelParam = 0  |  strides = [262144, 262144, 8192, 2]  |  data = 0, sizeInBytes = 262144  |  "
    }
  }
  attr {
    key: "inputTensor:1"
    value {
      s: "tensor_150_odule/model/2/gate_proj/quant_input_0/placeholder/1  |  Sizes = [1]  |  bf16  |  expBias = 0, scale = 1  |    |  ModelParam = 0  |  strides = [2, 2]  |  data = 0x564734355158, sizeInBytes = 2  |  buffer = 1  |  isPersistent  |  userMemorySection(type=Persistent, id=52)  |  isStaticParam  |  bufferDtype=bf16  |  "
    }
  }
  attr {
    key: "outputTensor:0"
    value {
      s: "tensor_153  |  Sizes = [1,32,4096]  |  hfloat8  |  expBias = 7, scale = 1  |    |  ModelParam = 0  |  strides = [131072, 131072, 4096, 1]  |  data = 0, sizeInBytes = 131072  |  "
    }
  }
}
node {
  name: "tensor_141_odule/model/2/up_proj/quant_input_0/placeholder/1"
  op: "Placeholder"
  attr {
    key: "dtype"
    value {
      type: DT_BFLOAT16
    }
  }
  attr {
    key: "shape"
    value {
      shape {
        dim {
          size: 1
        }
        dim {
          size: 1
        }
        dim {
          size: 1
        }
        dim {
          size: 1
        }
        dim {
          size: 1
        }
      }
    }
  }
  attr {
    key: "synDataType"
    value {
      s: "bf16"
    }
  }
}
node {
  name: "module/model/2/up_proj/quant_input_0/convert_to_fp8_bf16/9613"
  op: "convert_to_fp8_bf16"
  input: "module/model/2/post_attention_layernorm/rms_norm_ex_fwd_bf16/9612"
  input: "tensor_141_odule/model/2/up_proj/quant_input_0/placeholder/1"
  attr {
    key: "Bundle_idx"
    value {
      s: "N/A"
    }
  }
  attr {
    key: "Exec_idx"
    value {
      s: "56"
    }
  }
  attr {
    key: "Op_idx"
    value {
      s: "N/A"
    }
  }
  attr {
    key: "inputTensor:0"
    value {
      s: "tensor_139  |  Sizes = [1,32,4096]  |  bf16  |  expBias = 0, scale = 1  |    |  ModelParam = 0  |  strides = [262144, 262144, 8192, 2]  |  data = 0, sizeInBytes = 262144  |  "
    }
  }
  attr {
    key: "inputTensor:1"
    value {
      s: "tensor_141_odule/model/2/up_proj/quant_input_0/placeholder/1  |  Sizes = [1]  |  bf16  |  expBias = 0, scale = 1  |    |  ModelParam = 0  |  strides = [2, 2]  |  data = 0x564734354e08, sizeInBytes = 2  |  buffer = 1  |  isPersistent  |  userMemorySection(type=Persistent, id=48)  |  isStaticParam  |  bufferDtype=bf16  |  "
    }
  }
  attr {
    key: "outputTensor:0"
    value {
      s: "tensor_144  |  Sizes = [1,32,4096]  |  hfloat8  |  expBias = 7, scale = 1  |    |  ModelParam = 0  |  strides = [131072, 131072, 4096, 1]  |  data = 0, sizeInBytes = 131072  |  "
    }
  }
}
node {
  name: "tensor_154_odule/model/2/gate_proj/placeholder/1"
  op: "Placeholder"
  attr {
    key: "dtype"
    value {
      type: DT_INVALID
    }
  }
  attr {
    key: "shape"
    value {
      shape {
        dim {
          size: 14336
        }
        dim {
          size: 4096
        }
        dim {
          size: 1
        }
        dim {
          size: 1
        }
        dim {
          size: 1
        }
      }
    }
  }
  attr {
    key: "synDataType"
    value {
      s: "hfloat8"
    }
  }
}
node {
  name: "tensor_155_odule/model/2/gate_proj/placeholder/2"
  op: "Placeholder"
  attr {
    key: "dtype"
    value {
      type: DT_BFLOAT16
    }
  }
  attr {
    key: "shape"
    value {
      shape {
        dim {
          size: 1
        }
        dim {
          size: 1
        }
        dim {
          size: 1
        }
        dim {
          size: 1
        }
        dim {
          size: 1
        }
      }
    }
  }
  attr {
    key: "synDataType"
    value {
      s: "bf16"
    }
  }
}
node {
  name: "tensor_156_odule/model/2/gate_proj/placeholder/3"
  op: "Placeholder"
  attr {
    key: "dtype"
    value {
      type: DT_BFLOAT16
    }
  }
  attr {
    key: "shape"
    value {
      shape {
        dim {
          size: 1
        }
        dim {
          size: 1
        }
        dim {
          size: 1
        }
        dim {
          size: 1
        }
        dim {
          size: 1
        }
      }
    }
  }
  attr {
    key: "synDataType"
    value {
      s: "bf16"
    }
  }
}
node {
  name: "module/model/2/gate_proj/fp8_gemm_bf16/9616"
  op: "fp8_gemm_bf16"
  input: "module/model/2/gate_proj/quant_input_0/convert_to_fp8_bf16/9615"
  input: "tensor_154_odule/model/2/gate_proj/placeholder/1"
  input: "tensor_155_odule/model/2/gate_proj/placeholder/2"
  input: "tensor_156_odule/model/2/gate_proj/placeholder/3"
  input: "unused_port"
  input: "unused_port"
  input: "unused_port"
  attr {
    key: "Bundle_idx"
    value {
      s: "N/A"
    }
  }
  attr {
    key: "Exec_idx"
    value {
      s: "57"
    }
  }
  attr {
    key: "Op_idx"
    value {
      s: "N/A"
    }
  }
  attr {
    key: "inputTensor:0"
    value {
      s: "tensor_153  |  Sizes = [1,32,4096]  |  hfloat8  |  expBias = 7, scale = 1  |    |  ModelParam = 0  |  strides = [131072, 131072, 4096, 1]  |  data = 0, sizeInBytes = 131072  |  "
    }
  }
  attr {
    key: "inputTensor:1"
    value {
      s: "tensor_154_odule/model/2/gate_proj/placeholder/1  |  Sizes = [4096,14336]  |  hfloat8  |  expBias = 7, scale = 1  |    |  ModelParam = 0  |  strides = [58720256, 14336, 1]  |  data = 0, sizeInBytes = 58720256  |  isPersistent  |  userMemorySection(type=Persistent, id=53)  |  "
    }
  }
  attr {
    key: "inputTensor:2"
    value {
      s: "tensor_155_odule/model/2/gate_proj/placeholder/2  |  Sizes = [1]  |  bf16  |  expBias = 0, scale = 1  |    |  ModelParam = 0  |  strides = [2, 2]  |  data = 0x564734355188, sizeInBytes = 2  |  buffer = 1  |  isPersistent  |  userMemorySection(type=Persistent, id=54)  |  isStaticParam  |  bufferDtype=bf16  |  "
    }
  }
  attr {
    key: "inputTensor:3"
    value {
      s: "tensor_156_odule/model/2/gate_proj/placeholder/3  |  Sizes = [1]  |  bf16  |  expBias = 0, scale = 1  |    |  ModelParam = 0  |  strides = [2, 2]  |  data = 0x564734355180, sizeInBytes = 2  |  buffer = 0.00390625  |  isPersistent  |  userMemorySection(type=Persistent, id=55)  |  isStaticParam  |  bufferDtype=bf16  |  "
    }
  }
  attr {
    key: "outputTensor:0"
    value {
      s: "tensor_158  |  Sizes = [1,32,14336]  |  bf16  |  expBias = 0, scale = 1  |    |  ModelParam = 0  |  strides = [917504, 917504, 28672, 2]  |  data = 0, sizeInBytes = 917504  |  "
    }
  }
}
node {
  name: "tensor_145_odule/model/2/up_proj/placeholder/1"
  op: "Placeholder"
  attr {
    key: "dtype"
    value {
      type: DT_INVALID
    }
  }
  attr {
    key: "shape"
    value {
      shape {
        dim {
          size: 14336
        }
        dim {
          size: 4096
        }
        dim {
          size: 1
        }
        dim {
          size: 1
        }
        dim {
          size: 1
        }
      }
    }
  }
  attr {
    key: "synDataType"
    value {
      s: "hfloat8"
    }
  }
}
node {
  name: "tensor_146_odule/model/2/up_proj/placeholder/2"
  op: "Placeholder"
  attr {
    key: "dtype"
    value {
      type: DT_BFLOAT16
    }
  }
  attr {
    key: "shape"
    value {
      shape {
        dim {
          size: 1
        }
        dim {
          size: 1
        }
        dim {
          size: 1
        }
        dim {
          size: 1
        }
        dim {
          size: 1
        }
      }
    }
  }
  attr {
    key: "synDataType"
    value {
      s: "bf16"
    }
  }
}
node {
  name: "tensor_147_odule/model/2/up_proj/placeholder/3"
  op: "Placeholder"
  attr {
    key: "dtype"
    value {
      type: DT_BFLOAT16
    }
  }
  attr {
    key: "shape"
    value {
      shape {
        dim {
          size: 1
        }
        dim {
          size: 1
        }
        dim {
          size: 1
        }
        dim {
          size: 1
        }
        dim {
          size: 1
        }
      }
    }
  }
  attr {
    key: "synDataType"
    value {
      s: "bf16"
    }
  }
}
node {
  name: "module/model/2/up_proj/fp8_gemm_bf16/9614"
  op: "fp8_gemm_bf16"
  input: "module/model/2/up_proj/quant_input_0/convert_to_fp8_bf16/9613"
  input: "tensor_145_odule/model/2/up_proj/placeholder/1"
  input: "tensor_146_odule/model/2/up_proj/placeholder/2"
  input: "tensor_147_odule/model/2/up_proj/placeholder/3"
  input: "unused_port"
  input: "unused_port"
  input: "unused_port"
  attr {
    key: "Bundle_idx"
    value {
      s: "N/A"
    }
  }
  attr {
    key: "Exec_idx"
    value {
      s: "58"
    }
  }
  attr {
    key: "Op_idx"
    value {
      s: "N/A"
    }
  }
  attr {
    key: "inputTensor:0"
    value {
      s: "tensor_144  |  Sizes = [1,32,4096]  |  hfloat8  |  expBias = 7, scale = 1  |    |  ModelParam = 0  |  strides = [131072, 131072, 4096, 1]  |  data = 0, sizeInBytes = 131072  |  "
    }
  }
  attr {
    key: "inputTensor:1"
    value {
      s: "tensor_145_odule/model/2/up_proj/placeholder/1  |  Sizes = [4096,14336]  |  hfloat8  |  expBias = 7, scale = 1  |    |  ModelParam = 0  |  strides = [58720256, 14336, 1]  |  data = 0, sizeInBytes = 58720256  |  isPersistent  |  userMemorySection(type=Persistent, id=49)  |  "
    }
  }
  attr {
    key: "inputTensor:2"
    value {
      s: "tensor_146_odule/model/2/up_proj/placeholder/2  |  Sizes = [1]  |  bf16  |  expBias = 0, scale = 1  |    |  ModelParam = 0  |  strides = [2, 2]  |  data = 0x5647322a67d8, sizeInBytes = 2  |  buffer = 1  |  isPersistent  |  userMemorySection(type=Persistent, id=50)  |  isStaticParam  |  bufferDtype=bf16  |  "
    }
  }
  attr {
    key: "inputTensor:3"
    value {
      s: "tensor_147_odule/model/2/up_proj/placeholder/3  |  Sizes = [1]  |  bf16  |  expBias = 0, scale = 1  |    |  ModelParam = 0  |  strides = [2, 2]  |  data = 0x56472fd08300, sizeInBytes = 2  |  buffer = 0.00390625  |  isPersistent  |  userMemorySection(type=Persistent, id=51)  |  isStaticParam  |  bufferDtype=bf16  |  "
    }
  }
  attr {
    key: "outputTensor:0"
    value {
      s: "tensor_149  |  Sizes = [1,32,14336]  |  bf16  |  expBias = 0, scale = 1  |    |  ModelParam = 0  |  strides = [917504, 917504, 28672, 2]  |  data = 0, sizeInBytes = 917504  |  "
    }
  }
}
node {
  name: "module/model/2/act_fn/silu_fwd_bf16/9617"
  op: "silu_fwd_bf16"
  input: "module/model/2/gate_proj/fp8_gemm_bf16/9616"
  attr {
    key: "Bundle_idx"
    value {
      s: "N/A"
    }
  }
  attr {
    key: "Exec_idx"
    value {
      s: "59"
    }
  }
  attr {
    key: "Op_idx"
    value {
      s: "N/A"
    }
  }
  attr {
    key: "inputTensor:0"
    value {
      s: "tensor_158  |  Sizes = [1,32,14336]  |  bf16  |  expBias = 0, scale = 1  |    |  ModelParam = 0  |  strides = [917504, 917504, 28672, 2]  |  data = 0, sizeInBytes = 917504  |  "
    }
  }
  attr {
    key: "outputTensor:0"
    value {
      s: "tensor_159_id_107745_module/model/2/act_fn/aten__silu  |  Sizes = [1,32,14336]  |  bf16  |  expBias = 0, scale = 1  |    |  ModelParam = 0  |  strides = [917504, 917504, 28672, 2]  |  data = 0, sizeInBytes = 917504  |  "
    }
  }
}
node {
  name: "module/model/2/mult_fwd_bf16/9618"
  op: "mult_fwd_bf16"
  input: "module/model/2/act_fn/silu_fwd_bf16/9617"
  input: "module/model/2/up_proj/fp8_gemm_bf16/9614"
  attr {
    key: "Bundle_idx"
    value {
      s: "N/A"
    }
  }
  attr {
    key: "Exec_idx"
    value {
      s: "60"
    }
  }
  attr {
    key: "Op_idx"
    value {
      s: "N/A"
    }
  }
  attr {
    key: "inputTensor:0"
    value {
      s: "tensor_159_id_107745_module/model/2/act_fn/aten__silu  |  Sizes = [1,32,14336]  |  bf16  |  expBias = 0, scale = 1  |    |  ModelParam = 0  |  strides = [917504, 917504, 28672, 2]  |  data = 0, sizeInBytes = 917504  |  "
    }
  }
  attr {
    key: "inputTensor:1"
    value {
      s: "tensor_149  |  Sizes = [1,32,14336]  |  bf16  |  expBias = 0, scale = 1  |    |  ModelParam = 0  |  strides = [917504, 917504, 28672, 2]  |  data = 0, sizeInBytes = 917504  |  "
    }
  }
  attr {
    key: "outputTensor:0"
    value {
      s: "tensor_160_id_107760_module/model/2/aten__mul  |  Sizes = [1,32,14336]  |  bf16  |  expBias = 0, scale = 1  |    |  ModelParam = 0  |  strides = [917504, 917504, 28672, 2]  |  data = 0, sizeInBytes = 917504  |  "
    }
  }
}
node {
  name: "tensor_161_odule/model/2/down_proj/quant_input_0/placeholder/1"
  op: "Placeholder"
  attr {
    key: "dtype"
    value {
      type: DT_BFLOAT16
    }
  }
  attr {
    key: "shape"
    value {
      shape {
        dim {
          size: 1
        }
        dim {
          size: 1
        }
        dim {
          size: 1
        }
        dim {
          size: 1
        }
        dim {
          size: 1
        }
      }
    }
  }
  attr {
    key: "synDataType"
    value {
      s: "bf16"
    }
  }
}
node {
  name: "module/model/2/down_proj/quant_input_0/convert_to_fp8_bf16/9619"
  op: "convert_to_fp8_bf16"
  input: "module/model/2/mult_fwd_bf16/9618"
  input: "tensor_161_odule/model/2/down_proj/quant_input_0/placeholder/1"
  attr {
    key: "Bundle_idx"
    value {
      s: "N/A"
    }
  }
  attr {
    key: "Exec_idx"
    value {
      s: "61"
    }
  }
  attr {
    key: "Op_idx"
    value {
      s: "N/A"
    }
  }
  attr {
    key: "inputTensor:0"
    value {
      s: "tensor_160_id_107760_module/model/2/aten__mul  |  Sizes = [1,32,14336]  |  bf16  |  expBias = 0, scale = 1  |    |  ModelParam = 0  |  strides = [917504, 917504, 28672, 2]  |  data = 0, sizeInBytes = 917504  |  "
    }
  }
  attr {
    key: "inputTensor:1"
    value {
      s: "tensor_161_odule/model/2/down_proj/quant_input_0/placeholder/1  |  Sizes = [1]  |  bf16  |  expBias = 0, scale = 1  |    |  ModelParam = 0  |  strides = [2, 2]  |  data = 0x5647343551f0, sizeInBytes = 2  |  buffer = 16  |  isPersistent  |  userMemorySection(type=Persistent, id=56)  |  isStaticParam  |  bufferDtype=bf16  |  "
    }
  }
  attr {
    key: "outputTensor:0"
    value {
      s: "tensor_164  |  Sizes = [1,32,14336]  |  hfloat8  |  expBias = 7, scale = 1  |    |  ModelParam = 0  |  strides = [458752, 458752, 14336, 1]  |  data = 0, sizeInBytes = 458752  |  "
    }
  }
}
node {
  name: "module/model/2/constant_hf8/9554"
  op: "constant_hf8"
  attr {
    key: "Bundle_idx"
    value {
      s: "N/A"
    }
  }
  attr {
    key: "Exec_idx"
    value {
      s: "62"
    }
  }
  attr {
    key: "Op_idx"
    value {
      s: "N/A"
    }
  }
  attr {
    key: "outputTensor:0"
    value {
      s: "tensor_2  |  Sizes = [1,8,32,128]  |  hfloat8  |  expBias = 7, scale = 1  |    |  ModelParam = 0  |  strides = [32768, 32768, 4096, 128, 1]  |  data = 0, sizeInBytes = 32768  |  isPersistent  |  userMemorySection(type=Persistent, id=4)  |  "
    }
  }
}
node {
  name: "tensor_2"
  op: "OutputTensor"
  input: "module/model/2/constant_hf8/9554"
  attr {
    key: "dtype"
    value {
      type: DT_INVALID
    }
  }
  attr {
    key: "shape"
    value {
      shape {
        dim {
          size: 128
        }
        dim {
          size: 32
        }
        dim {
          size: 8
        }
        dim {
          size: 1
        }
        dim {
          size: 1
        }
      }
    }
  }
  attr {
    key: "synDataType"
    value {
      s: "hfloat8"
    }
  }
}
node {
  name: "module/model/2/constant_hf8/9577"
  op: "constant_hf8"
  attr {
    key: "Bundle_idx"
    value {
      s: "N/A"
    }
  }
  attr {
    key: "Exec_idx"
    value {
      s: "63"
    }
  }
  attr {
    key: "Op_idx"
    value {
      s: "N/A"
    }
  }
  attr {
    key: "outputTensor:0"
    value {
      s: "tensor_50  |  Sizes = [1,8,32,128]  |  hfloat8  |  expBias = 7, scale = 1  |    |  ModelParam = 0  |  strides = [32768, 32768, 4096, 128, 1]  |  data = 0, sizeInBytes = 32768  |  isPersistent  |  userMemorySection(type=Persistent, id=19)  |  "
    }
  }
}
node {
  name: "tensor_50"
  op: "OutputTensor"
  input: "module/model/2/constant_hf8/9577"
  attr {
    key: "dtype"
    value {
      type: DT_INVALID
    }
  }
  attr {
    key: "shape"
    value {
      shape {
        dim {
          size: 128
        }
        dim {
          size: 32
        }
        dim {
          size: 8
        }
        dim {
          size: 1
        }
        dim {
          size: 1
        }
      }
    }
  }
  attr {
    key: "synDataType"
    value {
      s: "hfloat8"
    }
  }
}
node {
  name: "tensor_165_odule/model/2/down_proj/placeholder/1"
  op: "Placeholder"
  attr {
    key: "dtype"
    value {
      type: DT_INVALID
    }
  }
  attr {
    key: "shape"
    value {
      shape {
        dim {
          size: 4096
        }
        dim {
          size: 14336
        }
        dim {
          size: 1
        }
        dim {
          size: 1
        }
        dim {
          size: 1
        }
      }
    }
  }
  attr {
    key: "synDataType"
    value {
      s: "hfloat8"
    }
  }
}
node {
  name: "tensor_166_odule/model/2/down_proj/placeholder/2"
  op: "Placeholder"
  attr {
    key: "dtype"
    value {
      type: DT_BFLOAT16
    }
  }
  attr {
    key: "shape"
    value {
      shape {
        dim {
          size: 1
        }
        dim {
          size: 1
        }
        dim {
          size: 1
        }
        dim {
          size: 1
        }
        dim {
          size: 1
        }
      }
    }
  }
  attr {
    key: "synDataType"
    value {
      s: "bf16"
    }
  }
}
node {
  name: "tensor_167_odule/model/2/down_proj/placeholder/3"
  op: "Placeholder"
  attr {
    key: "dtype"
    value {
      type: DT_BFLOAT16
    }
  }
  attr {
    key: "shape"
    value {
      shape {
        dim {
          size: 1
        }
        dim {
          size: 1
        }
        dim {
          size: 1
        }
        dim {
          size: 1
        }
        dim {
          size: 1
        }
      }
    }
  }
  attr {
    key: "synDataType"
    value {
      s: "bf16"
    }
  }
}
node {
  name: "module/model/2/down_proj/fp8_gemm_bf16/9620"
  op: "fp8_gemm_bf16"
  input: "module/model/2/down_proj/quant_input_0/convert_to_fp8_bf16/9619"
  input: "tensor_165_odule/model/2/down_proj/placeholder/1"
  input: "tensor_166_odule/model/2/down_proj/placeholder/2"
  input: "tensor_167_odule/model/2/down_proj/placeholder/3"
  input: "unused_port"
  input: "unused_port"
  input: "unused_port"
  attr {
    key: "Bundle_idx"
    value {
      s: "N/A"
    }
  }
  attr {
    key: "Exec_idx"
    value {
      s: "64"
    }
  }
  attr {
    key: "Op_idx"
    value {
      s: "N/A"
    }
  }
  attr {
    key: "inputTensor:0"
    value {
      s: "tensor_164  |  Sizes = [1,32,14336]  |  hfloat8  |  expBias = 7, scale = 1  |    |  ModelParam = 0  |  strides = [458752, 458752, 14336, 1]  |  data = 0, sizeInBytes = 458752  |  "
    }
  }
  attr {
    key: "inputTensor:1"
    value {
      s: "tensor_165_odule/model/2/down_proj/placeholder/1  |  Sizes = [14336,4096]  |  hfloat8  |  expBias = 7, scale = 1  |    |  ModelParam = 0  |  strides = [58720256, 4096, 1]  |  data = 0, sizeInBytes = 58720256  |  isPersistent  |  userMemorySection(type=Persistent, id=57)  |  "
    }
  }
  attr {
    key: "inputTensor:2"
    value {
      s: "tensor_166_odule/model/2/down_proj/placeholder/2  |  Sizes = [1]  |  bf16  |  expBias = 0, scale = 1  |    |  ModelParam = 0  |  strides = [2, 2]  |  data = 0x564734355220, sizeInBytes = 2  |  buffer = 0.0625  |  isPersistent  |  userMemorySection(type=Persistent, id=58)  |  isStaticParam  |  bufferDtype=bf16  |  "
    }
  }
  attr {
    key: "inputTensor:3"
    value {
      s: "tensor_167_odule/model/2/down_proj/placeholder/3  |  Sizes = [1]  |  bf16  |  expBias = 0, scale = 1  |    |  ModelParam = 0  |  strides = [2, 2]  |  data = 0x564734355218, sizeInBytes = 2  |  buffer = 0.0625  |  isPersistent  |  userMemorySection(type=Persistent, id=59)  |  isStaticParam  |  bufferDtype=bf16  |  "
    }
  }
  attr {
    key: "outputTensor:0"
    value {
      s: "tensor_169  |  Sizes = [1,32,4096]  |  bf16  |  expBias = 0, scale = 1  |    |  ModelParam = 0  |  strides = [262144, 262144, 8192, 2]  |  data = 0, sizeInBytes = 262144  |  "
    }
  }
}
node {
  name: "module/model/2/memcpy/9575"
  op: "Memcpy"
  input: "module/model/2/quant_input_0/convert_to_fp8_bf16/9574"
  input: "^module/model/2/constant_hf8/9554"
  attr {
    key: "Bundle_idx"
    value {
      s: "N/A"
    }
  }
  attr {
    key: "Exec_idx"
    value {
      s: "65"
    }
  }
  attr {
    key: "Op_idx"
    value {
      s: "N/A"
    }
  }
  attr {
    key: "inputTensor:0"
    value {
      s: "tensor_43  |  Sizes = [1,8,32,128]  |  hfloat8  |  expBias = 7, scale = 1  |    |  ModelParam = 0  |  strides = [32768, 32768, 4096, 128, 1]  |  data = 0, sizeInBytes = 32768  |  "
    }
  }
  attr {
    key: "outputTensor:0"
    value {
      s: "tensor_44  |  Sizes = [1,8,32,128]  |  hfloat8  |  expBias = 7, scale = 1  |    |  ModelParam = 0  |  strides = [32768, 32768, 4096, 128, 1]  |  data = 0, sizeInBytes = 32768  |  isPersistent  |  userMemorySection(type=Persistent, id=4)  |  "
    }
  }
}
node {
  name: "tensor_44"
  op: "OutputTensor"
  input: "module/model/2/memcpy/9575"
  attr {
    key: "dtype"
    value {
      type: DT_INVALID
    }
  }
  attr {
    key: "shape"
    value {
      shape {
        dim {
          size: 128
        }
        dim {
          size: 32
        }
        dim {
          size: 8
        }
        dim {
          size: 1
        }
        dim {
          size: 1
        }
      }
    }
  }
  attr {
    key: "synDataType"
    value {
      s: "hfloat8"
    }
  }
}
node {
  name: "module/model/2/memcpy/9583"
  op: "Memcpy"
  input: "module/model/2/quant_input_0/convert_to_fp8_bf16/9582"
  input: "^module/model/2/constant_hf8/9577"
  attr {
    key: "Bundle_idx"
    value {
      s: "N/A"
    }
  }
  attr {
    key: "Exec_idx"
    value {
      s: "66"
    }
  }
  attr {
    key: "Op_idx"
    value {
      s: "N/A"
    }
  }
  attr {
    key: "inputTensor:0"
    value {
      s: "tensor_66  |  Sizes = [1,8,32,128]  |  hfloat8  |  expBias = 7, scale = 1  |    |  ModelParam = 0  |  strides = [32768, 32768, 4096, 128, 1]  |  data = 0, sizeInBytes = 32768  |  "
    }
  }
  attr {
    key: "outputTensor:0"
    value {
      s: "tensor_67  |  Sizes = [1,8,32,128]  |  hfloat8  |  expBias = 7, scale = 1  |    |  ModelParam = 0  |  strides = [32768, 32768, 4096, 128, 1]  |  data = 0, sizeInBytes = 32768  |  isPersistent  |  userMemorySection(type=Persistent, id=19)  |  "
    }
  }
}
node {
  name: "tensor_67"
  op: "OutputTensor"
  input: "module/model/2/memcpy/9583"
  attr {
    key: "dtype"
    value {
      type: DT_INVALID
    }
  }
  attr {
    key: "shape"
    value {
      shape {
        dim {
          size: 128
        }
        dim {
          size: 32
        }
        dim {
          size: 8
        }
        dim {
          size: 1
        }
        dim {
          size: 1
        }
      }
    }
  }
  attr {
    key: "synDataType"
    value {
      s: "hfloat8"
    }
  }
}
node {
  name: "module/model/2/add_fwd_bf16/9621"
  op: "add_fwd_bf16"
  input: "module/model/2/add_fwd_bf16/9611"
  input: "module/model/2/down_proj/fp8_gemm_bf16/9620"
  input: "^module/model/2/post_attention_layernorm/rms_norm_ex_fwd_bf16/9612"
  attr {
    key: "Bundle_idx"
    value {
      s: "N/A"
    }
  }
  attr {
    key: "Exec_idx"
    value {
      s: "67"
    }
  }
  attr {
    key: "Op_idx"
    value {
      s: "N/A"
    }
  }
  attr {
    key: "inputTensor:0"
    value {
      s: "tensor_135  |  Sizes = [1,32,4096]  |  bf16  |  expBias = 0, scale = 1  |    |  ModelParam = 0  |  strides = [262144, 262144, 8192, 2]  |  data = 0, sizeInBytes = 262144  |  isPersistent  |  userMemorySection(type=Persistent, id=9)  |  "
    }
  }
  attr {
    key: "inputTensor:1"
    value {
      s: "tensor_169  |  Sizes = [1,32,4096]  |  bf16  |  expBias = 0, scale = 1  |    |  ModelParam = 0  |  strides = [262144, 262144, 8192, 2]  |  data = 0, sizeInBytes = 262144  |  "
    }
  }
  attr {
    key: "outputTensor:0"
    value {
      s: "tensor_170  |  Sizes = [1,32,4096]  |  bf16  |  expBias = 0, scale = 1  |    |  ModelParam = 0  |  strides = [262144, 262144, 8192, 2]  |  data = 0, sizeInBytes = 262144  |  isPersistent  |  userMemorySection(type=Persistent, id=9)  |  "
    }
  }
}
node {
  name: "tensor_170"
  op: "OutputTensor"
  input: "module/model/2/add_fwd_bf16/9621"
  attr {
    key: "dtype"
    value {
      type: DT_BFLOAT16
    }
  }
  attr {
    key: "shape"
    value {
      shape {
        dim {
          size: 4096
        }
        dim {
          size: 32
        }
        dim {
          size: 1
        }
        dim {
          size: 1
        }
        dim {
          size: 1
        }
      }
    }
  }
  attr {
    key: "synDataType"
    value {
      s: "bf16"
    }
  }
}
