node {
  name: "tensor_7_odule/model/40/placeholder/0"
  op: "Placeholder"
  attr {
    key: "dtype"
    value {
      type: DT_INT32
    }
  }
  attr {
    key: "shape"
    value {
      shape {
        dim {
          size: 128
        }
        dim {
          size: 1
        }
        dim {
          size: 1
        }
        dim {
          size: 1
        }
        dim {
          size: 1
        }
      }
    }
  }
  attr {
    key: "synDataType"
    value {
      s: "int32"
    }
  }
}
node {
  name: "module/model/40/expand_dims/14331"
  op: "ExpandDims"
  input: "tensor_7_odule/model/40/placeholder/0"
  attr {
    key: "Bundle_idx"
    value {
      s: "N/A"
    }
  }
  attr {
    key: "Exec_idx"
    value {
      s: "0"
    }
  }
  attr {
    key: "Op_idx"
    value {
      s: "N/A"
    }
  }
  attr {
    key: "inputTensor:0"
    value {
      s: "tensor_7_odule/model/40/placeholder/0  |  Sizes = [128]  |  int32  |  expBias = 0, scale = 1  |    |  ModelParam = 0  |  strides = [512, 4]  |  data = 0, sizeInBytes = 512  |  isPersistent  |  location = in DRAM  |  dramOffset = 0x70000000000  |  userMemorySection(type=Persistent, id=7)  |  "
    }
  }
  attr {
    key: "outputTensor:0"
    value {
      s: "tensor_8_id_235376_module/model/40/aten__unsqueeze/1  |  Sizes = [1,128]  |  int32  |  expBias = 0, scale = 1  |    |  ModelParam = 0  |  strides = [512, 512, 4]  |  data = 0, sizeInBytes = 512  |  isAliased = tensor_7_odule/model/40/placeholder/0, type = alias, offset: 0  |  location = in DRAM  |  "
    }
  }
}
node {
  name: "tensor_9_odule/model/40/rotary_emb/placeholder/0"
  op: "Placeholder"
  attr {
    key: "dtype"
    value {
      type: DT_BFLOAT16
    }
  }
  attr {
    key: "shape"
    value {
      shape {
        dim {
          size: 128
        }
        dim {
          size: 131072
        }
        dim {
          size: 1
        }
        dim {
          size: 1
        }
        dim {
          size: 1
        }
      }
    }
  }
  attr {
    key: "synDataType"
    value {
      s: "bf16"
    }
  }
}
node {
  name: "module/model/40/rotary_emb/slice/14332"
  op: "Slice"
  input: "tensor_9_odule/model/40/rotary_emb/placeholder/0"
  attr {
    key: "Bundle_idx"
    value {
      s: "N/A"
    }
  }
  attr {
    key: "Exec_idx"
    value {
      s: "1"
    }
  }
  attr {
    key: "Op_idx"
    value {
      s: "N/A"
    }
  }
  attr {
    key: "inputTensor:0"
    value {
      s: "tensor_9_odule/model/40/rotary_emb/placeholder/0  |  Sizes = [131072,128]  |  bf16  |  expBias = 0, scale = 1  |    |  ModelParam = 0  |  strides = [33554432, 256, 2]  |  data = 0, sizeInBytes = 33554432  |  isPersistent  |  location = in DRAM  |  dramOffset = 0x80000000000  |  userMemorySection(type=Persistent, id=8)  |  "
    }
  }
  attr {
    key: "outputTensor:0"
    value {
      s: "tensor_10_id_235494_module/model/40/rotary_emb/aten__slice  |  Sizes = [128,128]  |  bf16  |  expBias = 0, scale = 1  |    |  ModelParam = 0  |  strides = [33554432, 256, 2]  |  data = 0, sizeInBytes = 32768  |  isAliased = tensor_9_odule/model/40/rotary_emb/placeholder/0, type = slice, offset: 0  |  location = in DRAM  |  "
    }
  }
}
node {
  name: "tensor_11_odule/model/40/rotary_emb/placeholder/1"
  op: "Placeholder"
  attr {
    key: "dtype"
    value {
      type: DT_FLOAT
    }
  }
  attr {
    key: "shape"
    value {
      shape {
        dim {
          size: 1
        }
        dim {
          size: 1
        }
        dim {
          size: 1
        }
        dim {
          size: 1
        }
        dim {
          size: 1
        }
      }
    }
  }
  attr {
    key: "synDataType"
    value {
      s: "float32"
    }
  }
}
node {
  name: "module/model/40/rotary_emb/cast_f32_to_bf16/14333"
  op: "cast_f32_to_bf16"
  input: "tensor_11_odule/model/40/rotary_emb/placeholder/1"
  attr {
    key: "Bundle_idx"
    value {
      s: "N/A"
    }
  }
  attr {
    key: "Exec_idx"
    value {
      s: "2"
    }
  }
  attr {
    key: "Op_idx"
    value {
      s: "N/A"
    }
  }
  attr {
    key: "inputTensor:0"
    value {
      s: "tensor_11_odule/model/40/rotary_emb/placeholder/1  |  Sizes = [1]  |  float32  |  expBias = 0, scale = 1  |    |  ModelParam = 0  |  strides = [4, 4]  |  data = 0, sizeInBytes = 4  |  isPersistent  |  location = in DRAM  |  dramOffset = 0x90000000000  |  userMemorySection(type=Persistent, id=9)  |  "
    }
  }
  attr {
    key: "outputTensor:0"
    value {
      s: "tensor_13  |  Sizes = [1]  |  bf16  |  expBias = 0, scale = 1  |    |  ModelParam = 0  |  strides = [2, 2]  |  data = 0, sizeInBytes = 2  |  location = in DRAM  |  dramOffset = 0x60000000000  |  "
    }
  }
}
node {
  name: "module/model/40/rotary_emb/mult_fwd_bf16/14334_complex/mult_fwd_bf16_0"
  op: "mult_fwd_bf16"
  input: "module/model/40/rotary_emb/slice/14332"
  input: "module/model/40/rotary_emb/cast_f32_to_bf16/14333"
  attr {
    key: "Bundle_idx"
    value {
      s: "N/A"
    }
  }
  attr {
    key: "Exec_idx"
    value {
      s: "3"
    }
  }
  attr {
    key: "Op_idx"
    value {
      s: "N/A"
    }
  }
  attr {
    key: "inputTensor:0"
    value {
      s: "tensor_10_id_235494_module/model/40/rotary_emb/aten__slice  |  Sizes = [128,128]  |  bf16  |  expBias = 0, scale = 1  |    |  ModelParam = 0  |  strides = [33554432, 256, 2]  |  data = 0, sizeInBytes = 32768  |  isAliased = tensor_9_odule/model/40/rotary_emb/placeholder/0, type = slice, offset: 0  |  location = in DRAM  |  "
    }
  }
  attr {
    key: "inputTensor:1"
    value {
      s: "tensor_13  |  Sizes = [1]  |  bf16  |  expBias = 0, scale = 1  |    |  ModelParam = 0  |  strides = [2, 2]  |  data = 0, sizeInBytes = 2  |  location = in DRAM  |  dramOffset = 0x60000000000  |  "
    }
  }
  attr {
    key: "outputTensor:0"
    value {
      s: "tensor_12_id_235496_module/model/40/rotary_emb/aten__mul  |  Sizes = [128,128]  |  bf16  |  expBias = 0, scale = 1  |    |  ModelParam = 0  |  strides = [32768, 256, 2]  |  data = 0, sizeInBytes = 32768  |  location = in DRAM  |  dramOffset = 0x130000000000  |  "
    }
  }
}
node {
  name: "tensor_17_odule/model/40/rotary_emb/placeholder/0"
  op: "Placeholder"
  attr {
    key: "dtype"
    value {
      type: DT_BFLOAT16
    }
  }
  attr {
    key: "shape"
    value {
      shape {
        dim {
          size: 128
        }
        dim {
          size: 131072
        }
        dim {
          size: 1
        }
        dim {
          size: 1
        }
        dim {
          size: 1
        }
      }
    }
  }
  attr {
    key: "synDataType"
    value {
      s: "bf16"
    }
  }
}
node {
  name: "module/model/40/rotary_emb/slice/14338"
  op: "Slice"
  input: "tensor_17_odule/model/40/rotary_emb/placeholder/0"
  attr {
    key: "Bundle_idx"
    value {
      s: "N/A"
    }
  }
  attr {
    key: "Exec_idx"
    value {
      s: "4"
    }
  }
  attr {
    key: "Op_idx"
    value {
      s: "N/A"
    }
  }
  attr {
    key: "inputTensor:0"
    value {
      s: "tensor_17_odule/model/40/rotary_emb/placeholder/0  |  Sizes = [131072,128]  |  bf16  |  expBias = 0, scale = 1  |    |  ModelParam = 0  |  strides = [33554432, 256, 2]  |  data = 0, sizeInBytes = 33554432  |  isPersistent  |  location = in DRAM  |  dramOffset = 0xa0000000000  |  userMemorySection(type=Persistent, id=10)  |  "
    }
  }
  attr {
    key: "outputTensor:0"
    value {
      s: "tensor_18_id_235498_module/model/40/rotary_emb/aten__slice  |  Sizes = [128,128]  |  bf16  |  expBias = 0, scale = 1  |    |  ModelParam = 0  |  strides = [33554432, 256, 2]  |  data = 0, sizeInBytes = 32768  |  isAliased = tensor_17_odule/model/40/rotary_emb/placeholder/0, type = slice, offset: 0  |  location = in DRAM  |  "
    }
  }
}
node {
  name: "module/model/40/rotary_emb/mult_fwd_bf16/14340_complex/mult_fwd_bf16_0"
  op: "mult_fwd_bf16"
  input: "module/model/40/rotary_emb/slice/14338"
  input: "module/model/40/rotary_emb/cast_f32_to_bf16/14333"
  attr {
    key: "Bundle_idx"
    value {
      s: "N/A"
    }
  }
  attr {
    key: "Exec_idx"
    value {
      s: "5"
    }
  }
  attr {
    key: "Op_idx"
    value {
      s: "N/A"
    }
  }
  attr {
    key: "inputTensor:0"
    value {
      s: "tensor_18_id_235498_module/model/40/rotary_emb/aten__slice  |  Sizes = [128,128]  |  bf16  |  expBias = 0, scale = 1  |    |  ModelParam = 0  |  strides = [33554432, 256, 2]  |  data = 0, sizeInBytes = 32768  |  isAliased = tensor_17_odule/model/40/rotary_emb/placeholder/0, type = slice, offset: 0  |  location = in DRAM  |  "
    }
  }
  attr {
    key: "inputTensor:1"
    value {
      s: "tensor_13  |  Sizes = [1]  |  bf16  |  expBias = 0, scale = 1  |    |  ModelParam = 0  |  strides = [2, 2]  |  data = 0, sizeInBytes = 2  |  location = in DRAM  |  dramOffset = 0x60000000000  |  "
    }
  }
  attr {
    key: "outputTensor:0"
    value {
      s: "tensor_19_id_235500_module/model/40/rotary_emb/aten__mul  |  Sizes = [128,128]  |  bf16  |  expBias = 0, scale = 1  |    |  ModelParam = 0  |  strides = [32768, 256, 2]  |  data = 0, sizeInBytes = 32768  |  location = in DRAM  |  dramOffset = 0x130000008000  |  "
    }
  }
}
node {
  name: "tensor_33_odule/model/40/k_proj/placeholder/1"
  op: "Placeholder"
  attr {
    key: "dtype"
    value {
      type: DT_INVALID
    }
  }
  attr {
    key: "shape"
    value {
      shape {
        dim {
          size: 256
        }
        dim {
          size: 8192
        }
        dim {
          size: 1
        }
        dim {
          size: 1
        }
        dim {
          size: 1
        }
      }
    }
  }
  attr {
    key: "synDataType"
    value {
      s: "hfloat8"
    }
  }
}
node {
  name: "module/model/40/k_proj/fp8_gemm_bf16/14346_complex/fp8_gemm_bf16_3205/expand_dims_6"
  op: "ExpandDims"
  input: "tensor_33_odule/model/40/k_proj/placeholder/1"
  attr {
    key: "Bundle_idx"
    value {
      s: "N/A"
    }
  }
  attr {
    key: "Exec_idx"
    value {
      s: "6"
    }
  }
  attr {
    key: "Op_idx"
    value {
      s: "N/A"
    }
  }
  attr {
    key: "inputTensor:0"
    value {
      s: "tensor_33_odule/model/40/k_proj/placeholder/1  |  Sizes = [8192,256]  |  hfloat8  |  expBias = 7, scale = 1  |    |  ModelParam = 0  |  strides = [2097152, 256, 1]  |  data = 0, sizeInBytes = 2097152  |  isPersistent  |  location = in DRAM  |  dramOffset = 0xd0000000000  |  userMemorySection(type=Persistent, id=13)  |  "
    }
  }
  attr {
    key: "outputTensor:0"
    value {
      s: "hf8-7_213225  |  Sizes = [1,8192,256]  |  hfloat8  |  expBias = 7, scale = 1  |    |  ModelParam = 0  |  strides = [2097152, 2097152, 256, 1]  |  data = 0, sizeInBytes = 2097152  |  isAliased = tensor_33_odule/model/40/k_proj/placeholder/1, type = alias, offset: 0  |  location = in DRAM  |  "
    }
  }
}
node {
  name: "module/model/40/rotary_pos_embedding_fwd_bf16/14349_complex/rotary_pos_embedding_fwd_bf16_400/gather_nd_mxnet_fwd_bf16_8"
  op: "gather_nd_mxnet_fwd_bf16"
  input: "module/model/40/rotary_emb/mult_fwd_bf16/14340_complex/mult_fwd_bf16_0"
  input: "module/model/40/expand_dims/14331"
  attr {
    key: "Bundle_idx"
    value {
      s: "N/A"
    }
  }
  attr {
    key: "Exec_idx"
    value {
      s: "7"
    }
  }
  attr {
    key: "Op_idx"
    value {
      s: "N/A"
    }
  }
  attr {
    key: "inputTensor:0"
    value {
      s: "tensor_19_id_235500_module/model/40/rotary_emb/aten__mul  |  Sizes = [128,128]  |  bf16  |  expBias = 0, scale = 1  |    |  ModelParam = 0  |  strides = [32768, 256, 2]  |  data = 0, sizeInBytes = 32768  |  location = in DRAM  |  dramOffset = 0x130000008000  |  "
    }
  }
  attr {
    key: "inputTensor:1"
    value {
      s: "tensor_8_id_235376_module/model/40/aten__unsqueeze/1  |  Sizes = [1,128]  |  int32  |  expBias = 0, scale = 1  |    |  ModelParam = 0  |  strides = [512, 512, 4]  |  data = 0, sizeInBytes = 512  |  isAliased = tensor_7_odule/model/40/placeholder/0, type = alias, offset: 0  |  location = in DRAM  |  "
    }
  }
  attr {
    key: "outputTensor:0"
    value {
      s: "bf16-9_213230  |  Sizes = [128,128]  |  bf16  |  expBias = 0, scale = 1  |    |  ModelParam = 0  |  strides = [32768, 256, 2]  |  data = 0, sizeInBytes = 32768  |  isAliased = bf16-13_213232, type = alias, offset: 0  |  location = in DRAM  |  "
    }
  }
}
node {
  name: "module/model/40/rotary_pos_embedding_fwd_bf16/14349_complex/rotary_pos_embedding_fwd_bf16_400/gather_nd_mxnet_fwd_bf16_10"
  op: "gather_nd_mxnet_fwd_bf16"
  input: "module/model/40/rotary_emb/mult_fwd_bf16/14334_complex/mult_fwd_bf16_0"
  input: "module/model/40/expand_dims/14331"
  attr {
    key: "Bundle_idx"
    value {
      s: "N/A"
    }
  }
  attr {
    key: "Exec_idx"
    value {
      s: "8"
    }
  }
  attr {
    key: "Op_idx"
    value {
      s: "N/A"
    }
  }
  attr {
    key: "inputTensor:0"
    value {
      s: "tensor_12_id_235496_module/model/40/rotary_emb/aten__mul  |  Sizes = [128,128]  |  bf16  |  expBias = 0, scale = 1  |    |  ModelParam = 0  |  strides = [32768, 256, 2]  |  data = 0, sizeInBytes = 32768  |  location = in DRAM  |  dramOffset = 0x130000000000  |  "
    }
  }
  attr {
    key: "inputTensor:1"
    value {
      s: "tensor_8_id_235376_module/model/40/aten__unsqueeze/1  |  Sizes = [1,128]  |  int32  |  expBias = 0, scale = 1  |    |  ModelParam = 0  |  strides = [512, 512, 4]  |  data = 0, sizeInBytes = 512  |  isAliased = tensor_7_odule/model/40/placeholder/0, type = alias, offset: 0  |  location = in DRAM  |  "
    }
  }
  attr {
    key: "outputTensor:0"
    value {
      s: "bf16-11_213231  |  Sizes = [128,128]  |  bf16  |  expBias = 0, scale = 1  |    |  ModelParam = 0  |  strides = [32768, 256, 2]  |  data = 0, sizeInBytes = 32768  |  isAliased = bf16-15_213233, type = alias, offset: 0  |  location = in DRAM  |  "
    }
  }
}
node {
  name: "module/model/40/rotary_pos_embedding_fwd_bf16/14349_complex/rotary_pos_embedding_fwd_bf16_400/expand_dims_12"
  op: "ExpandDims"
  input: "module/model/40/rotary_pos_embedding_fwd_bf16/14349_complex/rotary_pos_embedding_fwd_bf16_400/gather_nd_mxnet_fwd_bf16_8"
  attr {
    key: "Bundle_idx"
    value {
      s: "N/A"
    }
  }
  attr {
    key: "Exec_idx"
    value {
      s: "9"
    }
  }
  attr {
    key: "Op_idx"
    value {
      s: "N/A"
    }
  }
  attr {
    key: "inputTensor:0"
    value {
      s: "bf16-9_213230  |  Sizes = [128,128]  |  bf16  |  expBias = 0, scale = 1  |    |  ModelParam = 0  |  strides = [32768, 256, 2]  |  data = 0, sizeInBytes = 32768  |  isAliased = bf16-13_213232, type = alias, offset: 0  |  location = in DRAM  |  "
    }
  }
  attr {
    key: "outputTensor:0"
    value {
      s: "bf16-13_213232  |  Sizes = [1,128,128]  |  bf16  |  expBias = 0, scale = 1  |    |  ModelParam = 0  |  strides = [32768, 32768, 256, 2]  |  data = 0, sizeInBytes = 32768  |  location = in DRAM  |  dramOffset = 0x140000000000  |  "
    }
  }
}
node {
  name: "module/model/40/rotary_pos_embedding_fwd_bf16/14349_complex/rotary_pos_embedding_fwd_bf16_400/expand_dims_14"
  op: "ExpandDims"
  input: "module/model/40/rotary_pos_embedding_fwd_bf16/14349_complex/rotary_pos_embedding_fwd_bf16_400/gather_nd_mxnet_fwd_bf16_10"
  attr {
    key: "Bundle_idx"
    value {
      s: "N/A"
    }
  }
  attr {
    key: "Exec_idx"
    value {
      s: "10"
    }
  }
  attr {
    key: "Op_idx"
    value {
      s: "N/A"
    }
  }
  attr {
    key: "inputTensor:0"
    value {
      s: "bf16-11_213231  |  Sizes = [128,128]  |  bf16  |  expBias = 0, scale = 1  |    |  ModelParam = 0  |  strides = [32768, 256, 2]  |  data = 0, sizeInBytes = 32768  |  isAliased = bf16-15_213233, type = alias, offset: 0  |  location = in DRAM  |  "
    }
  }
  attr {
    key: "outputTensor:0"
    value {
      s: "bf16-15_213233  |  Sizes = [1,128,128]  |  bf16  |  expBias = 0, scale = 1  |    |  ModelParam = 0  |  strides = [32768, 32768, 256, 2]  |  data = 0, sizeInBytes = 32768  |  location = in DRAM  |  dramOffset = 0x1c0000000000  |  "
    }
  }
}
node {
  name: "tensor_58_odule/model/40/v_proj/placeholder/1"
  op: "Placeholder"
  attr {
    key: "dtype"
    value {
      type: DT_INVALID
    }
  }
  attr {
    key: "shape"
    value {
      shape {
        dim {
          size: 256
        }
        dim {
          size: 8192
        }
        dim {
          size: 1
        }
        dim {
          size: 1
        }
        dim {
          size: 1
        }
      }
    }
  }
  attr {
    key: "synDataType"
    value {
      s: "hfloat8"
    }
  }
}
node {
  name: "module/model/40/v_proj/fp8_gemm_bf16/14355_complex/fp8_gemm_hf8_3207/expand_dims_8"
  op: "ExpandDims"
  input: "tensor_58_odule/model/40/v_proj/placeholder/1"
  attr {
    key: "Bundle_idx"
    value {
      s: "N/A"
    }
  }
  attr {
    key: "Exec_idx"
    value {
      s: "11"
    }
  }
  attr {
    key: "Op_idx"
    value {
      s: "N/A"
    }
  }
  attr {
    key: "inputTensor:0"
    value {
      s: "tensor_58_odule/model/40/v_proj/placeholder/1  |  Sizes = [8192,256]  |  hfloat8  |  expBias = 7, scale = 1  |    |  ModelParam = 0  |  strides = [2097152, 256, 1]  |  data = 0, sizeInBytes = 2097152  |  isPersistent  |  location = in DRAM  |  dramOffset = 0x160000000000  |  userMemorySection(type=Persistent, id=22)  |  "
    }
  }
  attr {
    key: "outputTensor:0"
    value {
      s: "hf8-9_213238  |  Sizes = [1,8192,256]  |  hfloat8  |  expBias = 7, scale = 1  |    |  ModelParam = 0  |  strides = [2097152, 2097152, 256, 1]  |  data = 0, sizeInBytes = 2097152  |  isAliased = tensor_58_odule/model/40/v_proj/placeholder/1, type = alias, offset: 0  |  location = in DRAM  |  "
    }
  }
}
node {
  name: "tensor_73_odule/model/40/fused_scaled_dot_product_attention/placeholder/0"
  op: "Placeholder"
  attr {
    key: "dtype"
    value {
      type: DT_BFLOAT16
    }
  }
  attr {
    key: "shape"
    value {
      shape {
        dim {
          size: 128
        }
        dim {
          size: 128
        }
        dim {
          size: 1
        }
        dim {
          size: 1
        }
        dim {
          size: 1
        }
      }
    }
  }
  attr {
    key: "synDataType"
    value {
      s: "bf16"
    }
  }
}
node {
  name: "module/model/40/fused_scaled_dot_product_attention/expand_dims/14366"
  op: "Reshape"
  input: "tensor_73_odule/model/40/fused_scaled_dot_product_attention/placeholder/0"
  attr {
    key: "Bundle_idx"
    value {
      s: "N/A"
    }
  }
  attr {
    key: "Exec_idx"
    value {
      s: "12"
    }
  }
  attr {
    key: "Op_idx"
    value {
      s: "N/A"
    }
  }
  attr {
    key: "inputTensor:0"
    value {
      s: "tensor_73_odule/model/40/fused_scaled_dot_product_attention/placeholder/0  |  Sizes = [128,128]  |  bf16  |  expBias = 0, scale = 1  |    |  ModelParam = 0  |  strides = [32768, 256, 2]  |  data = 0, sizeInBytes = 32768  |  isPersistent  |  location = in DRAM  |  dramOffset = 0x1d0000000000  |  userMemorySection(type=Persistent, id=29)  |  "
    }
  }
  attr {
    key: "outputTensor:0"
    value {
      s: "tensor_79_id_235603_module/model/40/fused_scaled_dot_product_attention/aten__unsqueeze  |  Sizes = [1,1,1,128,128]  |  bf16  |  expBias = 0, scale = 1  |    |  ModelParam = 0  |  strides = [32768, 32768, 32768, 32768, 256, 2]  |  data = 0, sizeInBytes = 32768  |  isAliased = tensor_73_odule/model/40/fused_scaled_dot_product_attention/placeholder/0, type = alias, offset: 0  |  location = in DRAM  |  "
    }
  }
}
node {
  name: "tensor_95_odule/model/40/q_proj/placeholder/1"
  op: "Placeholder"
  attr {
    key: "dtype"
    value {
      type: DT_INVALID
    }
  }
  attr {
    key: "shape"
    value {
      shape {
        dim {
          size: 2048
        }
        dim {
          size: 8192
        }
        dim {
          size: 1
        }
        dim {
          size: 1
        }
        dim {
          size: 1
        }
      }
    }
  }
  attr {
    key: "synDataType"
    value {
      s: "hfloat8"
    }
  }
}
node {
  name: "module/model/40/q_proj/fp8_gemm_bf16/14373_complex/fp8_gemm_bf16_3209/expand_dims_6"
  op: "ExpandDims"
  input: "tensor_95_odule/model/40/q_proj/placeholder/1"
  attr {
    key: "Bundle_idx"
    value {
      s: "N/A"
    }
  }
  attr {
    key: "Exec_idx"
    value {
      s: "13"
    }
  }
  attr {
    key: "Op_idx"
    value {
      s: "N/A"
    }
  }
  attr {
    key: "inputTensor:0"
    value {
      s: "tensor_95_odule/model/40/q_proj/placeholder/1  |  Sizes = [8192,2048]  |  hfloat8  |  expBias = 7, scale = 1  |    |  ModelParam = 0  |  strides = [16777216, 2048, 1]  |  data = 0, sizeInBytes = 16777216  |  isPersistent  |  location = in DRAM  |  dramOffset = 0x210000000000  |  userMemorySection(type=Persistent, id=33)  |  "
    }
  }
  attr {
    key: "outputTensor:0"
    value {
      s: "hf8-7_213244  |  Sizes = [1,8192,2048]  |  hfloat8  |  expBias = 7, scale = 1  |    |  ModelParam = 0  |  strides = [16777216, 16777216, 2048, 1]  |  data = 0, sizeInBytes = 16777216  |  isAliased = tensor_95_odule/model/40/q_proj/placeholder/1, type = alias, offset: 0  |  location = in DRAM  |  "
    }
  }
}
node {
  name: "tensor_0_odule/model/39/placeholder/0"
  op: "Placeholder"
  attr {
    key: "dtype"
    value {
      type: DT_BFLOAT16
    }
  }
  attr {
    key: "shape"
    value {
      shape {
        dim {
          size: 8192
        }
        dim {
          size: 128
        }
        dim {
          size: 1
        }
        dim {
          size: 1
        }
        dim {
          size: 1
        }
      }
    }
  }
  attr {
    key: "synDataType"
    value {
      s: "bf16"
    }
  }
}
node {
  name: "tensor_1_odule/model/39/placeholder/1"
  op: "Placeholder"
  attr {
    key: "dtype"
    value {
      type: DT_BFLOAT16
    }
  }
  attr {
    key: "shape"
    value {
      shape {
        dim {
          size: 8192
        }
        dim {
          size: 128
        }
        dim {
          size: 1
        }
        dim {
          size: 1
        }
        dim {
          size: 1
        }
      }
    }
  }
  attr {
    key: "synDataType"
    value {
      s: "bf16"
    }
  }
}
node {
  name: "module/model/39/add_fwd_bf16/14329_complex/add_fwd_bf16_0_bundle_1202/op_0"
  op: "add_fwd_bf16"
  input: "tensor_0_odule/model/39/placeholder/0"
  input: "tensor_1_odule/model/39/placeholder/1"
  attr {
    key: "Bundle_idx"
    value {
      s: "1202"
    }
  }
  attr {
    key: "Exec_idx"
    value {
      s: "14"
    }
  }
  attr {
    key: "Op_idx"
    value {
      s: "0"
    }
  }
  attr {
    key: "inputTensor:0"
    value {
      s: "tensor_0_odule/model/39/placeholder/0  |  Sizes = [1,128,8192]  |  bf16  |  expBias = 0, scale = 1  |    |  ModelParam = 0  |  strides = [2097152, 2097152, 16384, 2]  |  data = 0, sizeInBytes = 2097152  |  isPersistent  |  location = in DRAM  |  dramOffset = 0x40000000000  |  userMemorySection(type=Persistent, id=4)  |  "
    }
  }
  attr {
    key: "inputTensor:1"
    value {
      s: "tensor_1_odule/model/39/placeholder/1  |  Sizes = [1,128,8192]  |  bf16  |  expBias = 0, scale = 1  |    |  ModelParam = 0  |  strides = [2097152, 2097152, 16384, 2]  |  data = 0, sizeInBytes = 2097152  |  isPersistent  |  location = in DRAM  |  dramOffset = 0x50000000000  |  userMemorySection(type=Persistent, id=5)  |  "
    }
  }
  attr {
    key: "outputTensor:0"
    value {
      s: "tensor_2_slice_0_0_0_0_0__0__bundle_1202_213792  |  Sizes = [1,128,8192]  |  bf16  |  expBias = 0, scale = 1  |    |  ModelParam = 0  |  strides = [2097152, 2097152, 16384, 2]  |  data = 0, sizeInBytes = 2097152  |  location = in SRAM  |  sramOffset = 0x1000fffffd050000  |  "
    }
  }
}
node {
  name: "module/model/40/input_layernorm/rms_norm_ex_fwd_bf16/14344_complex/rms_norm_ex_fwd_bf16_805/reshape_4_bundle_1202/op_1"
  op: "Reshape"
  input: "module/model/39/add_fwd_bf16/14329_complex/add_fwd_bf16_0_bundle_1202/op_0"
  attr {
    key: "Bundle_idx"
    value {
      s: "1202"
    }
  }
  attr {
    key: "Exec_idx"
    value {
      s: "15"
    }
  }
  attr {
    key: "Op_idx"
    value {
      s: "1"
    }
  }
  attr {
    key: "inputTensor:0"
    value {
      s: "tensor_2_slice_0_0_0_0_0__0__bundle_1202_213792  |  Sizes = [1,128,8192]  |  bf16  |  expBias = 0, scale = 1  |    |  ModelParam = 0  |  strides = [2097152, 2097152, 16384, 2]  |  data = 0, sizeInBytes = 2097152  |  location = in SRAM  |  sramOffset = 0x1000fffffd050000  |  "
    }
  }
  attr {
    key: "outputTensor:0"
    value {
      s: "bf16-5_213219_slice_0_0_0_0_0__0__bundle_1202_213793  |  Sizes = [128,8192]  |  bf16  |  expBias = 0, scale = 1  |    |  ModelParam = 0  |  strides = [2097152, 16384, 2]  |  data = 0, sizeInBytes = 2097152  |  isAliased = tensor_2_slice_0_0_0_0_0__0__bundle_1202_213792, type = alias, offset: 0  |  location = in SRAM  |  sramOffset = 0x1000fffffd050000  |  "
    }
  }
}
node {
  name: "tensor_24_odule/model/40/input_layernorm/placeholder/1"
  op: "Placeholder"
  attr {
    key: "dtype"
    value {
      type: DT_BFLOAT16
    }
  }
  attr {
    key: "shape"
    value {
      shape {
        dim {
          size: 8192
        }
        dim {
          size: 1
        }
        dim {
          size: 1
        }
        dim {
          size: 1
        }
        dim {
          size: 1
        }
      }
    }
  }
  attr {
    key: "synDataType"
    value {
      s: "bf16"
    }
  }
}
node {
  name: "module/model/40/input_layernorm/rms_norm_ex_fwd_bf16/14344_complex/rms_norm_ex_fwd_bf16_805/rms_norm_fwd_bf16_6_bundle_1202/op_2"
  op: "rms_norm_fwd_bf16"
  input: "module/model/40/input_layernorm/rms_norm_ex_fwd_bf16/14344_complex/rms_norm_ex_fwd_bf16_805/reshape_4_bundle_1202/op_1"
  input: "tensor_24_odule/model/40/input_layernorm/placeholder/1"
  attr {
    key: "Bundle_idx"
    value {
      s: "1202"
    }
  }
  attr {
    key: "Exec_idx"
    value {
      s: "16"
    }
  }
  attr {
    key: "Op_idx"
    value {
      s: "2"
    }
  }
  attr {
    key: "inputTensor:0"
    value {
      s: "bf16-5_213219_slice_0_0_0_0_0__0__bundle_1202_213793  |  Sizes = [128,8192]  |  bf16  |  expBias = 0, scale = 1  |    |  ModelParam = 0  |  strides = [2097152, 16384, 2]  |  data = 0, sizeInBytes = 2097152  |  isAliased = tensor_2_slice_0_0_0_0_0__0__bundle_1202_213792, type = alias, offset: 0  |  location = in SRAM  |  sramOffset = 0x1000fffffd050000  |  "
    }
  }
  attr {
    key: "inputTensor:1"
    value {
      s: "tensor_24_odule/model/40/input_layernorm/placeholder/1  |  Sizes = [8192]  |  bf16  |  expBias = 0, scale = 1  |    |  ModelParam = 0  |  strides = [16384, 2]  |  data = 0, sizeInBytes = 16384  |  isPersistent  |  location = in DRAM  |  dramOffset = 0xb0000000000  |  userMemorySection(type=Persistent, id=11)  |  "
    }
  }
  attr {
    key: "outputTensor:0"
    value {
      s: "bf16-7_213220_slice_0_0_0_0_0__0__bundle_1202_213795  |  Sizes = [128,8192]  |  bf16  |  expBias = 0, scale = 1  |    |  ModelParam = 0  |  strides = [2097152, 16384, 2]  |  data = 0, sizeInBytes = 2097152  |  isAliased = tensor-213440_slice_0_0_0_0_0__0__bundle_1202_213797, type = alias, offset: 0  |  location = in SRAM  |  sramOffset = 0x1000fffffd250000  |  "
    }
  }
  attr {
    key: "outputTensor:1"
    value {
      s: "f32-8_213221  |  Sizes = [128,1]  |  float32  |  expBias = 0, scale = 1  |    |  ModelParam = 0  |  strides = [512, 4, 4]  |  data = 0, sizeInBytes = 512  |  location = in DRAM  |  dramOffset = 0x60000000080  |  "
    }
  }
}
node {
  name: "f32-8_213221"
  op: "OutputTensor"
  input: "module/model/40/input_layernorm/rms_norm_ex_fwd_bf16/14344_complex/rms_norm_ex_fwd_bf16_805/rms_norm_fwd_bf16_6_bundle_1202/op_2"
  attr {
    key: "dtype"
    value {
      type: DT_FLOAT
    }
  }
  attr {
    key: "shape"
    value {
      shape {
        dim {
          size: 1
        }
        dim {
          size: 128
        }
        dim {
          size: 1
        }
        dim {
          size: 1
        }
        dim {
          size: 1
        }
      }
    }
  }
  attr {
    key: "synDataType"
    value {
      s: "float32"
    }
  }
}
node {
  name: "reshape_0_0_bundle_1202/op_3"
  op: "Reshape"
  input: "module/model/40/input_layernorm/rms_norm_ex_fwd_bf16/14344_complex/rms_norm_ex_fwd_bf16_805/rms_norm_fwd_bf16_6_bundle_1202/op_2"
  attr {
    key: "Bundle_idx"
    value {
      s: "1202"
    }
  }
  attr {
    key: "Exec_idx"
    value {
      s: "17"
    }
  }
  attr {
    key: "Op_idx"
    value {
      s: "3"
    }
  }
  attr {
    key: "inputTensor:0"
    value {
      s: "bf16-7_213220_slice_0_0_0_0_0__0__bundle_1202_213795  |  Sizes = [128,8192]  |  bf16  |  expBias = 0, scale = 1  |    |  ModelParam = 0  |  strides = [2097152, 16384, 2]  |  data = 0, sizeInBytes = 2097152  |  isAliased = tensor-213440_slice_0_0_0_0_0__0__bundle_1202_213797, type = alias, offset: 0  |  location = in SRAM  |  sramOffset = 0x1000fffffd250000  |  "
    }
  }
  attr {
    key: "outputTensor:0"
    value {
      s: "tensor-213440_slice_0_0_0_0_0__0__bundle_1202_213797  |  Sizes = [1,128,8192]  |  bf16  |  expBias = 0, scale = 1  |    |  ModelParam = 0  |  strides = [2097152, 2097152, 16384, 2]  |  data = 0, sizeInBytes = 2097152  |  location = in SRAM  |  sramOffset = 0x1000fffffd250000  |  "
    }
  }
}
node {
  name: "fusedTPCNode_426_0_bundle_1202/op_4"
  op: "fused_kernel_0xF762EE51_4CA_hf8"
  input: "reshape_0_0_bundle_1202/op_3"
  attr {
    key: "Bundle_idx"
    value {
      s: "1202"
    }
  }
  attr {
    key: "Exec_idx"
    value {
      s: "18"
    }
  }
  attr {
    key: "Op_idx"
    value {
      s: "4"
    }
  }
  attr {
    key: "inputTensor:0"
    value {
      s: "tensor-213440_slice_0_0_0_0_0__0__bundle_1202_213797  |  Sizes = [1,128,8192]  |  bf16  |  expBias = 0, scale = 1  |    |  ModelParam = 0  |  strides = [2097152, 2097152, 16384, 2]  |  data = 0, sizeInBytes = 2097152  |  location = in SRAM  |  sramOffset = 0x1000fffffd250000  |  "
    }
  }
  attr {
    key: "outputTensor:0"
    value {
      s: "tensor_32_slice_0_0_0_0_0__0__bundle_1202_213798  |  Sizes = [1,128,8192]  |  hfloat8  |  expBias = 7, scale = 1  |    |  ModelParam = 0  |  strides = [1048576, 1048576, 8192, 1]  |  data = 0, sizeInBytes = 1048576  |  location = in SRAM  |  sramOffset = 0x1000fffffd450000  |  "
    }
  }
}
node {
  name: "module/model/40/k_proj/fp8_gemm_bf16/14346_complex/fp8_gemm_bf16_3205/batch_gemm_8_bundle_1202/op_5_gemm"
  op: "GEMM"
  input: "fusedTPCNode_426_0_bundle_1202/op_4"
  input: "module/model/40/k_proj/fp8_gemm_bf16/14346_complex/fp8_gemm_bf16_3205/expand_dims_6"
  attr {
    key: "Bundle_idx"
    value {
      s: "1202"
    }
  }
  attr {
    key: "Exec_idx"
    value {
      s: "19"
    }
  }
  attr {
    key: "Op_idx"
    value {
      s: "5"
    }
  }
  attr {
    key: "Parameters"
    value {
      s: "transpose_a=false, transpose_b=false"
    }
  }
  attr {
    key: "fp8BiasIn"
    value {
      s: "7"
    }
  }
  attr {
    key: "fp8BiasIn2"
    value {
      s: "15"
    }
  }
  attr {
    key: "fp8BiasOut"
    value {
      s: "0"
    }
  }
  attr {
    key: "inputTensor:0"
    value {
      s: "tensor_32_slice_0_0_0_0_0__0__bundle_1202_213798  |  Sizes = [1,128,8192]  |  hfloat8  |  expBias = 7, scale = 1  |    |  ModelParam = 0  |  strides = [1048576, 1048576, 8192, 1]  |  data = 0, sizeInBytes = 1048576  |  location = in SRAM  |  sramOffset = 0x1000fffffd450000  |  "
    }
  }
  attr {
    key: "inputTensor:1"
    value {
      s: "hf8-7_213225  |  Sizes = [1,8192,256]  |  hfloat8  |  expBias = 7, scale = 1  |    |  ModelParam = 0  |  strides = [2097152, 2097152, 256, 1]  |  data = 0, sizeInBytes = 2097152  |  isAliased = tensor_33_odule/model/40/k_proj/placeholder/1, type = alias, offset: 0  |  location = in DRAM  |  "
    }
  }
  attr {
    key: "outputTensor:0"
    value {
      s: "tensor_37  |  Sizes = [1,128,256]  |  bf16  |  expBias = 0, scale = 1  |    |  ModelParam = 0  |  strides = [65536, 65536, 512, 2]  |  data = 0, sizeInBytes = 65536  |  isAliased = tensor_38_id_235486_module/model/40/aten__view, type = alias, offset: 0  |  location = in DRAM  |  "
    }
  }
}
node {
  name: "module/model/40/v_proj/fp8_gemm_bf16/14355_complex/fp8_gemm_hf8_3207/batch_gemm_10_bundle_1202/op_6_gemm"
  op: "GEMM"
  input: "fusedTPCNode_426_0_bundle_1202/op_4"
  input: "module/model/40/v_proj/fp8_gemm_bf16/14355_complex/fp8_gemm_hf8_3207/expand_dims_8"
  attr {
    key: "Bundle_idx"
    value {
      s: "1202"
    }
  }
  attr {
    key: "Exec_idx"
    value {
      s: "20"
    }
  }
  attr {
    key: "Op_idx"
    value {
      s: "6"
    }
  }
  attr {
    key: "Parameters"
    value {
      s: "transpose_a=false, transpose_b=false"
    }
  }
  attr {
    key: "fp8BiasIn"
    value {
      s: "7"
    }
  }
  attr {
    key: "fp8BiasIn2"
    value {
      s: "15"
    }
  }
  attr {
    key: "fp8BiasOut"
    value {
      s: "11"
    }
  }
  attr {
    key: "inputTensor:0"
    value {
      s: "tensor_32_slice_0_0_0_0_0__0__bundle_1202_213798  |  Sizes = [1,128,8192]  |  hfloat8  |  expBias = 7, scale = 1  |    |  ModelParam = 0  |  strides = [1048576, 1048576, 8192, 1]  |  data = 0, sizeInBytes = 1048576  |  location = in SRAM  |  sramOffset = 0x1000fffffd450000  |  "
    }
  }
  attr {
    key: "inputTensor:1"
    value {
      s: "hf8-9_213238  |  Sizes = [1,8192,256]  |  hfloat8  |  expBias = 7, scale = 1  |    |  ModelParam = 0  |  strides = [2097152, 2097152, 256, 1]  |  data = 0, sizeInBytes = 2097152  |  isAliased = tensor_58_odule/model/40/v_proj/placeholder/1, type = alias, offset: 0  |  location = in DRAM  |  "
    }
  }
  attr {
    key: "outputTensor:0"
    value {
      s: "tensor_62_c213186  |  Sizes = [1,128,256]  |  hfloat8  |  expBias = 7, scale = 1  |    |  ModelParam = 0  |  strides = [32768, 32768, 256, 1]  |  data = 0, sizeInBytes = 32768  |  isAliased = tensor_63_id_235490_module/model/40/quant_input_0/aten__view_memcpy_213851, type = alias, offset: 0  |  location = in DRAM  |  "
    }
  }
}
node {
  name: "module/model/40/q_proj/fp8_gemm_bf16/14373_complex/fp8_gemm_bf16_3209/batch_gemm_8_bundle_1202/op_7_gemm"
  op: "GEMM"
  input: "fusedTPCNode_426_0_bundle_1202/op_4"
  input: "module/model/40/q_proj/fp8_gemm_bf16/14373_complex/fp8_gemm_bf16_3209/expand_dims_6"
  attr {
    key: "Bundle_idx"
    value {
      s: "1202"
    }
  }
  attr {
    key: "Exec_idx"
    value {
      s: "21"
    }
  }
  attr {
    key: "Op_idx"
    value {
      s: "7"
    }
  }
  attr {
    key: "Parameters"
    value {
      s: "transpose_a=false, transpose_b=false"
    }
  }
  attr {
    key: "fp8BiasIn"
    value {
      s: "7"
    }
  }
  attr {
    key: "fp8BiasIn2"
    value {
      s: "15"
    }
  }
  attr {
    key: "fp8BiasOut"
    value {
      s: "0"
    }
  }
  attr {
    key: "inputTensor:0"
    value {
      s: "tensor_32_slice_0_0_0_0_0__0__bundle_1202_213798  |  Sizes = [1,128,8192]  |  hfloat8  |  expBias = 7, scale = 1  |    |  ModelParam = 0  |  strides = [1048576, 1048576, 8192, 1]  |  data = 0, sizeInBytes = 1048576  |  location = in SRAM  |  sramOffset = 0x1000fffffd450000  |  "
    }
  }
  attr {
    key: "inputTensor:1"
    value {
      s: "hf8-7_213244  |  Sizes = [1,8192,2048]  |  hfloat8  |  expBias = 7, scale = 1  |    |  ModelParam = 0  |  strides = [16777216, 16777216, 2048, 1]  |  data = 0, sizeInBytes = 16777216  |  isAliased = tensor_95_odule/model/40/q_proj/placeholder/1, type = alias, offset: 0  |  location = in DRAM  |  "
    }
  }
  attr {
    key: "outputTensor:0"
    value {
      s: "tensor_99  |  Sizes = [1,128,2048]  |  bf16  |  expBias = 0, scale = 1  |    |  ModelParam = 0  |  strides = [524288, 524288, 4096, 2]  |  data = 0, sizeInBytes = 524288  |  isAliased = tensor_100_id_235482_module/model/40/aten__view, type = alias, offset: 0  |  location = in DRAM  |  "
    }
  }
}
node {
  name: "tensor_2_bundle_1202/memcpy/0"
  op: "DmaMemcpy"
  input: "module/model/39/add_fwd_bf16/14329_complex/add_fwd_bf16_0_bundle_1202/op_0"
  input: "^module/model/39/add_fwd_bf16/14329_complex/add_fwd_bf16_0_bundle_1202/op_0"
  attr {
    key: "Bundle_idx"
    value {
      s: "1202"
    }
  }
  attr {
    key: "Exec_idx"
    value {
      s: "22"
    }
  }
  attr {
    key: "Op_idx"
    value {
      s: "8"
    }
  }
  attr {
    key: "inputTensor:0"
    value {
      s: "tensor_2_slice_0_0_0_0_0__0__bundle_1202_213792  |  Sizes = [1,128,8192]  |  bf16  |  expBias = 0, scale = 1  |    |  ModelParam = 0  |  strides = [2097152, 2097152, 16384, 2]  |  data = 0, sizeInBytes = 2097152  |  location = in SRAM  |  sramOffset = 0x1000fffffd050000  |  "
    }
  }
  attr {
    key: "outputTensor:0"
    value {
      s: "tensor_2  |  Sizes = [1,128,8192]  |  bf16  |  expBias = 0, scale = 1  |    |  ModelParam = 0  |  strides = [2097152, 2097152, 16384, 2]  |  data = 0, sizeInBytes = 2097152  |  isPersistent  |  location = in DRAM  |  dramOffset = 0x40000000000  |  userMemorySection(type=Persistent, id=4)  |  "
    }
  }
}
node {
  name: "tensor_2"
  op: "OutputTensor"
  input: "tensor_2_bundle_1202/memcpy/0"
  attr {
    key: "dtype"
    value {
      type: DT_BFLOAT16
    }
  }
  attr {
    key: "shape"
    value {
      shape {
        dim {
          size: 8192
        }
        dim {
          size: 128
        }
        dim {
          size: 1
        }
        dim {
          size: 1
        }
        dim {
          size: 1
        }
      }
    }
  }
  attr {
    key: "synDataType"
    value {
      s: "bf16"
    }
  }
}
node {
  name: "module/model/40/reshape/14347"
  op: "Reshape"
  input: "module/model/40/k_proj/fp8_gemm_bf16/14346_complex/fp8_gemm_bf16_3205/batch_gemm_8_bundle_1202/op_5_gemm"
  attr {
    key: "Bundle_idx"
    value {
      s: "N/A"
    }
  }
  attr {
    key: "Exec_idx"
    value {
      s: "23"
    }
  }
  attr {
    key: "Op_idx"
    value {
      s: "N/A"
    }
  }
  attr {
    key: "inputTensor:0"
    value {
      s: "tensor_37  |  Sizes = [1,128,256]  |  bf16  |  expBias = 0, scale = 1  |    |  ModelParam = 0  |  strides = [65536, 65536, 512, 2]  |  data = 0, sizeInBytes = 65536  |  isAliased = tensor_38_id_235486_module/model/40/aten__view, type = alias, offset: 0  |  location = in DRAM  |  "
    }
  }
  attr {
    key: "outputTensor:0"
    value {
      s: "tensor_38_id_235486_module/model/40/aten__view  |  Sizes = [1,128,2,128]  |  bf16  |  expBias = 0, scale = 1  |    |  ModelParam = 0  |  strides = [65536, 65536, 512, 256, 2]  |  data = 0, sizeInBytes = 65536  |  location = in DRAM  |  dramOffset = 0x310000000000  |  "
    }
  }
}
node {
  name: "module/model/40/transpose/14348_transpose_via_logical"
  op: "LogicalTranspose"
  input: "module/model/40/reshape/14347"
  attr {
    key: "Bundle_idx"
    value {
      s: "N/A"
    }
  }
  attr {
    key: "Exec_idx"
    value {
      s: "24"
    }
  }
  attr {
    key: "Op_idx"
    value {
      s: "N/A"
    }
  }
  attr {
    key: "Parameters"
    value {
      s: "permutation: (0,2,1,3)"
    }
  }
  attr {
    key: "inputTensor:0"
    value {
      s: "tensor_38_id_235486_module/model/40/aten__view  |  Sizes = [1,128,2,128]  |  bf16  |  expBias = 0, scale = 1  |    |  ModelParam = 0  |  strides = [65536, 65536, 512, 256, 2]  |  data = 0, sizeInBytes = 65536  |  location = in DRAM  |  dramOffset = 0x310000000000  |  "
    }
  }
  attr {
    key: "outputTensor:0"
    value {
      s: "tensor_39_id_235488_module/model/40/aten__transpose  |  Sizes = [1,2,128,128]  |  bf16  |  expBias = 0, scale = 1  |    |  ModelParam = 0  |  strides = [65536, 65536, 256, 512, 2]  |  data = 0, sizeInBytes = 65536  |  isAliased = tensor_38_id_235486_module/model/40/aten__view, type = alias, offset: 0  |  location = in DRAM  |  isSparseLayout  |  "
    }
  }
}
node {
  name: "module/model/40/rotary_pos_embedding_fwd_bf16/14349_complex/rotary_pos_embedding_fwd_bf16_400/rope_st2_fwd_bf16_16"
  op: "rope_st2_fwd_bf16"
  input: "module/model/40/transpose/14348_transpose_via_logical"
  input: "module/model/40/rotary_pos_embedding_fwd_bf16/14349_complex/rotary_pos_embedding_fwd_bf16_400/expand_dims_12"
  input: "module/model/40/rotary_pos_embedding_fwd_bf16/14349_complex/rotary_pos_embedding_fwd_bf16_400/expand_dims_14"
  attr {
    key: "Bundle_idx"
    value {
      s: "N/A"
    }
  }
  attr {
    key: "Exec_idx"
    value {
      s: "25"
    }
  }
  attr {
    key: "Op_idx"
    value {
      s: "N/A"
    }
  }
  attr {
    key: "inputTensor:0"
    value {
      s: "tensor_39_id_235488_module/model/40/aten__transpose  |  Sizes = [1,2,128,128]  |  bf16  |  expBias = 0, scale = 1  |    |  ModelParam = 0  |  strides = [65536, 65536, 256, 512, 2]  |  data = 0, sizeInBytes = 65536  |  isAliased = tensor_38_id_235486_module/model/40/aten__view, type = alias, offset: 0  |  location = in DRAM  |  isSparseLayout  |  "
    }
  }
  attr {
    key: "inputTensor:1"
    value {
      s: "bf16-13_213232  |  Sizes = [1,128,128]  |  bf16  |  expBias = 0, scale = 1  |    |  ModelParam = 0  |  strides = [32768, 32768, 256, 2]  |  data = 0, sizeInBytes = 32768  |  location = in DRAM  |  dramOffset = 0x140000000000  |  "
    }
  }
  attr {
    key: "inputTensor:2"
    value {
      s: "bf16-15_213233  |  Sizes = [1,128,128]  |  bf16  |  expBias = 0, scale = 1  |    |  ModelParam = 0  |  strides = [32768, 32768, 256, 2]  |  data = 0, sizeInBytes = 32768  |  location = in DRAM  |  dramOffset = 0x1c0000000000  |  "
    }
  }
  attr {
    key: "outputTensor:0"
    value {
      s: "tensor_41  |  Sizes = [1,2,128,128]  |  bf16  |  expBias = 0, scale = 1  |    |  ModelParam = 0  |  strides = [65536, 65536, 32768, 256, 2]  |  data = 0, sizeInBytes = 65536  |  location = in DRAM  |  dramOffset = 0x310000090000  |  "
    }
  }
}
node {
  name: "module/model/40/quant_input_0/reshape/14356"
  op: "Reshape"
  input: "module/model/40/v_proj/fp8_gemm_bf16/14355_complex/fp8_gemm_hf8_3207/batch_gemm_10_bundle_1202/op_6_gemm"
  attr {
    key: "Bundle_idx"
    value {
      s: "N/A"
    }
  }
  attr {
    key: "Exec_idx"
    value {
      s: "26"
    }
  }
  attr {
    key: "Op_idx"
    value {
      s: "N/A"
    }
  }
  attr {
    key: "inputTensor:0"
    value {
      s: "tensor_62_c213186  |  Sizes = [1,128,256]  |  hfloat8  |  expBias = 7, scale = 1  |    |  ModelParam = 0  |  strides = [32768, 32768, 256, 1]  |  data = 0, sizeInBytes = 32768  |  isAliased = tensor_63_id_235490_module/model/40/quant_input_0/aten__view_memcpy_213851, type = alias, offset: 0  |  location = in DRAM  |  "
    }
  }
  attr {
    key: "outputTensor:0"
    value {
      s: "tensor_63_id_235490_module/model/40/quant_input_0/aten__view_memcpy_213851  |  Sizes = [1,128,2,128]  |  hfloat8  |  expBias = 7, scale = 1  |    |  ModelParam = 0  |  strides = [32768, 32768, 256, 128, 1]  |  data = 0, sizeInBytes = 32768  |  location = in DRAM  |  dramOffset = 0x1c0000008000  |  "
    }
  }
}
node {
  name: "tensor_63_id_235490_module/model/40/quant_input_0/aten__view_memcpy_213851_internal"
  op: "DmaMemcpy"
  input: "module/model/40/quant_input_0/reshape/14356"
  attr {
    key: "Bundle_idx"
    value {
      s: "N/A"
    }
  }
  attr {
    key: "Exec_idx"
    value {
      s: "27"
    }
  }
  attr {
    key: "Op_idx"
    value {
      s: "N/A"
    }
  }
  attr {
    key: "inputTensor:0"
    value {
      s: "tensor_63_id_235490_module/model/40/quant_input_0/aten__view_memcpy_213851  |  Sizes = [1,128,2,128]  |  hfloat8  |  expBias = 7, scale = 1  |    |  ModelParam = 0  |  strides = [32768, 32768, 256, 128, 1]  |  data = 0, sizeInBytes = 32768  |  location = in DRAM  |  dramOffset = 0x1c0000008000  |  "
    }
  }
  attr {
    key: "outputTensor:0"
    value {
      s: "tensor_63_id_235490_module/model/40/quant_input_0/aten__view  |  Sizes = [1,128,2,128]  |  hfloat8  |  expBias = 7, scale = 1  |    |  ModelParam = 0  |  strides = [32768, 32768, 128, 16384, 1]  |  data = 0, sizeInBytes = 32768  |  isAliased = tensor_69, type = alias, offset: 0  |  location = in DRAM  |  isSparseLayout  |  "
    }
  }
}
node {
  name: "module/model/40/quant_input_0/transpose/14357_transpose_via_logical"
  op: "LogicalTranspose"
  input: "tensor_63_id_235490_module/model/40/quant_input_0/aten__view_memcpy_213851_internal"
  attr {
    key: "Bundle_idx"
    value {
      s: "N/A"
    }
  }
  attr {
    key: "Exec_idx"
    value {
      s: "28"
    }
  }
  attr {
    key: "Op_idx"
    value {
      s: "N/A"
    }
  }
  attr {
    key: "Parameters"
    value {
      s: "permutation: (0,2,1,3)"
    }
  }
  attr {
    key: "inputTensor:0"
    value {
      s: "tensor_63_id_235490_module/model/40/quant_input_0/aten__view  |  Sizes = [1,128,2,128]  |  hfloat8  |  expBias = 7, scale = 1  |    |  ModelParam = 0  |  strides = [32768, 32768, 128, 16384, 1]  |  data = 0, sizeInBytes = 32768  |  isAliased = tensor_69, type = alias, offset: 0  |  location = in DRAM  |  isSparseLayout  |  "
    }
  }
  attr {
    key: "outputTensor:0"
    value {
      s: "tensor_69  |  Sizes = [1,2,128,128]  |  hfloat8  |  expBias = 7, scale = 1  |    |  ModelParam = 0  |  strides = [32768, 32768, 16384, 128, 1]  |  data = 0, sizeInBytes = 32768  |  isPersistent  |  location = in DRAM  |  dramOffset = 0x140000000000  |  userMemorySection(type=Persistent, id=20)  |  "
    }
  }
}
node {
  name: "module/model/40/reshape/14374"
  op: "Reshape"
  input: "module/model/40/q_proj/fp8_gemm_bf16/14373_complex/fp8_gemm_bf16_3209/batch_gemm_8_bundle_1202/op_7_gemm"
  attr {
    key: "Bundle_idx"
    value {
      s: "N/A"
    }
  }
  attr {
    key: "Exec_idx"
    value {
      s: "29"
    }
  }
  attr {
    key: "Op_idx"
    value {
      s: "N/A"
    }
  }
  attr {
    key: "inputTensor:0"
    value {
      s: "tensor_99  |  Sizes = [1,128,2048]  |  bf16  |  expBias = 0, scale = 1  |    |  ModelParam = 0  |  strides = [524288, 524288, 4096, 2]  |  data = 0, sizeInBytes = 524288  |  isAliased = tensor_100_id_235482_module/model/40/aten__view, type = alias, offset: 0  |  location = in DRAM  |  "
    }
  }
  attr {
    key: "outputTensor:0"
    value {
      s: "tensor_100_id_235482_module/model/40/aten__view  |  Sizes = [1,128,16,128]  |  bf16  |  expBias = 0, scale = 1  |    |  ModelParam = 0  |  strides = [524288, 524288, 4096, 256, 2]  |  data = 0, sizeInBytes = 524288  |  location = in DRAM  |  dramOffset = 0x310000010000  |  "
    }
  }
}
node {
  name: "module/model/40/transpose/14375_transpose_via_logical"
  op: "LogicalTranspose"
  input: "module/model/40/reshape/14374"
  attr {
    key: "Bundle_idx"
    value {
      s: "N/A"
    }
  }
  attr {
    key: "Exec_idx"
    value {
      s: "30"
    }
  }
  attr {
    key: "Op_idx"
    value {
      s: "N/A"
    }
  }
  attr {
    key: "Parameters"
    value {
      s: "permutation: (0,2,1,3)"
    }
  }
  attr {
    key: "inputTensor:0"
    value {
      s: "tensor_100_id_235482_module/model/40/aten__view  |  Sizes = [1,128,16,128]  |  bf16  |  expBias = 0, scale = 1  |    |  ModelParam = 0  |  strides = [524288, 524288, 4096, 256, 2]  |  data = 0, sizeInBytes = 524288  |  location = in DRAM  |  dramOffset = 0x310000010000  |  "
    }
  }
  attr {
    key: "outputTensor:0"
    value {
      s: "tensor_101_id_235484_module/model/40/aten__transpose  |  Sizes = [1,16,128,128]  |  bf16  |  expBias = 0, scale = 1  |    |  ModelParam = 0  |  strides = [524288, 524288, 256, 4096, 2]  |  data = 0, sizeInBytes = 524288  |  isAliased = tensor_100_id_235482_module/model/40/aten__view, type = alias, offset: 0  |  location = in DRAM  |  isSparseLayout  |  "
    }
  }
}
node {
  name: "module/model/40/rotary_pos_embedding_fwd_bf16/14376_complex/rotary_pos_embedding_fwd_bf16_401/gather_nd_mxnet_fwd_bf16_8"
  op: "gather_nd_mxnet_fwd_bf16"
  input: "module/model/40/rotary_emb/mult_fwd_bf16/14340_complex/mult_fwd_bf16_0"
  input: "module/model/40/expand_dims/14331"
  attr {
    key: "Bundle_idx"
    value {
      s: "N/A"
    }
  }
  attr {
    key: "Exec_idx"
    value {
      s: "31"
    }
  }
  attr {
    key: "Op_idx"
    value {
      s: "N/A"
    }
  }
  attr {
    key: "inputTensor:0"
    value {
      s: "tensor_19_id_235500_module/model/40/rotary_emb/aten__mul  |  Sizes = [128,128]  |  bf16  |  expBias = 0, scale = 1  |    |  ModelParam = 0  |  strides = [32768, 256, 2]  |  data = 0, sizeInBytes = 32768  |  location = in DRAM  |  dramOffset = 0x130000008000  |  "
    }
  }
  attr {
    key: "inputTensor:1"
    value {
      s: "tensor_8_id_235376_module/model/40/aten__unsqueeze/1  |  Sizes = [1,128]  |  int32  |  expBias = 0, scale = 1  |    |  ModelParam = 0  |  strides = [512, 512, 4]  |  data = 0, sizeInBytes = 512  |  isAliased = tensor_7_odule/model/40/placeholder/0, type = alias, offset: 0  |  location = in DRAM  |  "
    }
  }
  attr {
    key: "outputTensor:0"
    value {
      s: "bf16-9_213249  |  Sizes = [128,128]  |  bf16  |  expBias = 0, scale = 1  |    |  ModelParam = 0  |  strides = [32768, 256, 2]  |  data = 0, sizeInBytes = 32768  |  isAliased = bf16-13_213251, type = alias, offset: 0  |  location = in DRAM  |  "
    }
  }
}
node {
  name: "module/model/40/rotary_pos_embedding_fwd_bf16/14376_complex/rotary_pos_embedding_fwd_bf16_401/gather_nd_mxnet_fwd_bf16_10"
  op: "gather_nd_mxnet_fwd_bf16"
  input: "module/model/40/rotary_emb/mult_fwd_bf16/14334_complex/mult_fwd_bf16_0"
  input: "module/model/40/expand_dims/14331"
  attr {
    key: "Bundle_idx"
    value {
      s: "N/A"
    }
  }
  attr {
    key: "Exec_idx"
    value {
      s: "32"
    }
  }
  attr {
    key: "Op_idx"
    value {
      s: "N/A"
    }
  }
  attr {
    key: "inputTensor:0"
    value {
      s: "tensor_12_id_235496_module/model/40/rotary_emb/aten__mul  |  Sizes = [128,128]  |  bf16  |  expBias = 0, scale = 1  |    |  ModelParam = 0  |  strides = [32768, 256, 2]  |  data = 0, sizeInBytes = 32768  |  location = in DRAM  |  dramOffset = 0x130000000000  |  "
    }
  }
  attr {
    key: "inputTensor:1"
    value {
      s: "tensor_8_id_235376_module/model/40/aten__unsqueeze/1  |  Sizes = [1,128]  |  int32  |  expBias = 0, scale = 1  |    |  ModelParam = 0  |  strides = [512, 512, 4]  |  data = 0, sizeInBytes = 512  |  isAliased = tensor_7_odule/model/40/placeholder/0, type = alias, offset: 0  |  location = in DRAM  |  "
    }
  }
  attr {
    key: "outputTensor:0"
    value {
      s: "bf16-11_213250  |  Sizes = [128,128]  |  bf16  |  expBias = 0, scale = 1  |    |  ModelParam = 0  |  strides = [32768, 256, 2]  |  data = 0, sizeInBytes = 32768  |  isAliased = bf16-15_213252, type = alias, offset: 0  |  location = in DRAM  |  "
    }
  }
}
node {
  name: "module/model/40/rotary_pos_embedding_fwd_bf16/14376_complex/rotary_pos_embedding_fwd_bf16_401/expand_dims_12"
  op: "ExpandDims"
  input: "module/model/40/rotary_pos_embedding_fwd_bf16/14376_complex/rotary_pos_embedding_fwd_bf16_401/gather_nd_mxnet_fwd_bf16_8"
  attr {
    key: "Bundle_idx"
    value {
      s: "N/A"
    }
  }
  attr {
    key: "Exec_idx"
    value {
      s: "33"
    }
  }
  attr {
    key: "Op_idx"
    value {
      s: "N/A"
    }
  }
  attr {
    key: "inputTensor:0"
    value {
      s: "bf16-9_213249  |  Sizes = [128,128]  |  bf16  |  expBias = 0, scale = 1  |    |  ModelParam = 0  |  strides = [32768, 256, 2]  |  data = 0, sizeInBytes = 32768  |  isAliased = bf16-13_213251, type = alias, offset: 0  |  location = in DRAM  |  "
    }
  }
  attr {
    key: "outputTensor:0"
    value {
      s: "bf16-13_213251  |  Sizes = [1,128,128]  |  bf16  |  expBias = 0, scale = 1  |    |  ModelParam = 0  |  strides = [32768, 32768, 256, 2]  |  data = 0, sizeInBytes = 32768  |  location = in DRAM  |  dramOffset = 0x3100000a0000  |  "
    }
  }
}
node {
  name: "module/model/40/rotary_pos_embedding_fwd_bf16/14376_complex/rotary_pos_embedding_fwd_bf16_401/expand_dims_14"
  op: "ExpandDims"
  input: "module/model/40/rotary_pos_embedding_fwd_bf16/14376_complex/rotary_pos_embedding_fwd_bf16_401/gather_nd_mxnet_fwd_bf16_10"
  attr {
    key: "Bundle_idx"
    value {
      s: "N/A"
    }
  }
  attr {
    key: "Exec_idx"
    value {
      s: "34"
    }
  }
  attr {
    key: "Op_idx"
    value {
      s: "N/A"
    }
  }
  attr {
    key: "inputTensor:0"
    value {
      s: "bf16-11_213250  |  Sizes = [128,128]  |  bf16  |  expBias = 0, scale = 1  |    |  ModelParam = 0  |  strides = [32768, 256, 2]  |  data = 0, sizeInBytes = 32768  |  isAliased = bf16-15_213252, type = alias, offset: 0  |  location = in DRAM  |  "
    }
  }
  attr {
    key: "outputTensor:0"
    value {
      s: "bf16-15_213252  |  Sizes = [1,128,128]  |  bf16  |  expBias = 0, scale = 1  |    |  ModelParam = 0  |  strides = [32768, 32768, 256, 2]  |  data = 0, sizeInBytes = 32768  |  location = in DRAM  |  dramOffset = 0x60000000000  |  "
    }
  }
}
node {
  name: "tensor_101_id_235484_module/model/40/aten__transpose_bundle_1203/split_internal/0"
  op: "Split"
  input: "module/model/40/transpose/14375_transpose_via_logical"
  attr {
    key: "Bundle_idx"
    value {
      s: "1203"
    }
  }
  attr {
    key: "Exec_idx"
    value {
      s: "35"
    }
  }
  attr {
    key: "Op_idx"
    value {
      s: "0"
    }
  }
  attr {
    key: "inputTensor:0"
    value {
      s: "tensor_101_id_235484_module/model/40/aten__transpose  |  Sizes = [1,16,128,128]  |  bf16  |  expBias = 0, scale = 1  |    |  ModelParam = 0  |  strides = [524288, 524288, 256, 4096, 2]  |  data = 0, sizeInBytes = 524288  |  isAliased = tensor_100_id_235482_module/model/40/aten__view, type = alias, offset: 0  |  location = in DRAM  |  isSparseLayout  |  "
    }
  }
  attr {
    key: "outputTensor:0"
    value {
      s: "tensor_101_id_235484_module/model/40/aten__transpose_slice_0_0_0_0_0__0__bundle_1203_213813  |  Sizes = [1,8,128,128]  |  bf16  |  expBias = 0, scale = 1  |    |  ModelParam = 0  |  strides = [524288, 524288, 256, 4096, 2]  |  data = 0, sizeInBytes = 262144  |  isAliased = tensor_101_id_235484_module/model/40/aten__transpose, type = concat, offset: 0  |  location = in DRAM  |  isSparseLayout  |  "
    }
  }
  attr {
    key: "outputTensor:1"
    value {
      s: "tensor_101_id_235484_module/model/40/aten__transpose_slice_0_0_1_0_0__0__bundle_1203_213824  |  Sizes = [1,8,128,128]  |  bf16  |  expBias = 0, scale = 1  |    |  ModelParam = 0  |  strides = [524288, 524288, 256, 4096, 2]  |  data = 0, sizeInBytes = 262144  |  isAliased = tensor_101_id_235484_module/model/40/aten__transpose, type = concat, offset: 2048  |  location = in DRAM  |  isSparseLayout  |  "
    }
  }
}
node {
  name: "tensor_41_bundle_1203/split_internal/0"
  op: "Split"
  input: "module/model/40/rotary_pos_embedding_fwd_bf16/14349_complex/rotary_pos_embedding_fwd_bf16_400/rope_st2_fwd_bf16_16"
  attr {
    key: "Bundle_idx"
    value {
      s: "1203"
    }
  }
  attr {
    key: "Exec_idx"
    value {
      s: "36"
    }
  }
  attr {
    key: "Op_idx"
    value {
      s: "1"
    }
  }
  attr {
    key: "inputTensor:0"
    value {
      s: "tensor_41  |  Sizes = [1,2,128,128]  |  bf16  |  expBias = 0, scale = 1  |    |  ModelParam = 0  |  strides = [65536, 65536, 32768, 256, 2]  |  data = 0, sizeInBytes = 65536  |  location = in DRAM  |  dramOffset = 0x310000090000  |  "
    }
  }
  attr {
    key: "outputTensor:0"
    value {
      s: "tensor_41_slice_0_0_0_0_0__0__bundle_1203_213808  |  Sizes = [1,1,128,128]  |  bf16  |  expBias = 0, scale = 1  |    |  ModelParam = 0  |  strides = [65536, 65536, 32768, 256, 2]  |  data = 0, sizeInBytes = 32768  |  isAliased = tensor_41, type = concat, offset: 0  |  location = in DRAM  |  "
    }
  }
  attr {
    key: "outputTensor:1"
    value {
      s: "tensor_41_slice_0_0_1_0_0__0__bundle_1203_213819  |  Sizes = [1,1,128,128]  |  bf16  |  expBias = 0, scale = 1  |    |  ModelParam = 0  |  strides = [65536, 65536, 32768, 256, 2]  |  data = 0, sizeInBytes = 32768  |  isAliased = tensor_41, type = concat, offset: 32768  |  location = in DRAM  |  "
    }
  }
}
node {
  name: "module/model/40/rotary_pos_embedding_fwd_bf16/14376_complex/rotary_pos_embedding_fwd_bf16_401/rope_st2_fwd_bf16_16_bundle_1203/op_2"
  op: "rope_st2_fwd_bf16"
  input: "tensor_101_id_235484_module/model/40/aten__transpose_bundle_1203/split_internal/0"
  input: "module/model/40/rotary_pos_embedding_fwd_bf16/14376_complex/rotary_pos_embedding_fwd_bf16_401/expand_dims_12"
  input: "module/model/40/rotary_pos_embedding_fwd_bf16/14376_complex/rotary_pos_embedding_fwd_bf16_401/expand_dims_14"
  attr {
    key: "Bundle_idx"
    value {
      s: "1203"
    }
  }
  attr {
    key: "Exec_idx"
    value {
      s: "37"
    }
  }
  attr {
    key: "Op_idx"
    value {
      s: "2"
    }
  }
  attr {
    key: "inputTensor:0"
    value {
      s: "tensor_101_id_235484_module/model/40/aten__transpose_slice_0_0_0_0_0__0__bundle_1203_213813  |  Sizes = [1,8,128,128]  |  bf16  |  expBias = 0, scale = 1  |    |  ModelParam = 0  |  strides = [524288, 524288, 256, 4096, 2]  |  data = 0, sizeInBytes = 262144  |  isAliased = tensor_101_id_235484_module/model/40/aten__transpose, type = concat, offset: 0  |  location = in DRAM  |  isSparseLayout  |  "
    }
  }
  attr {
    key: "inputTensor:1"
    value {
      s: "bf16-13_213251  |  Sizes = [1,128,128]  |  bf16  |  expBias = 0, scale = 1  |    |  ModelParam = 0  |  strides = [32768, 32768, 256, 2]  |  data = 0, sizeInBytes = 32768  |  location = in DRAM  |  dramOffset = 0x3100000a0000  |  "
    }
  }
  attr {
    key: "inputTensor:2"
    value {
      s: "bf16-15_213252  |  Sizes = [1,128,128]  |  bf16  |  expBias = 0, scale = 1  |    |  ModelParam = 0  |  strides = [32768, 32768, 256, 2]  |  data = 0, sizeInBytes = 32768  |  location = in DRAM  |  dramOffset = 0x60000000000  |  "
    }
  }
  attr {
    key: "outputTensor:0"
    value {
      s: "tensor_103_slice_0_0_0_0_0__0__bundle_1203_213816  |  Sizes = [1,8,128,128]  |  bf16  |  expBias = 0, scale = 1  |    |  ModelParam = 0  |  strides = [262144, 262144, 32768, 256, 2]  |  data = 0, sizeInBytes = 262144  |  location = in SRAM  |  sramOffset = 0x1000fffffd550000  |  "
    }
  }
}
node {
  name: "module/model/40/rotary_pos_embedding_fwd_bf16/14376_complex/rotary_pos_embedding_fwd_bf16_401/rope_st2_fwd_bf16_16_bundle_1203/op_7"
  op: "rope_st2_fwd_bf16"
  input: "tensor_101_id_235484_module/model/40/aten__transpose_bundle_1203/split_internal/0"
  input: "module/model/40/rotary_pos_embedding_fwd_bf16/14376_complex/rotary_pos_embedding_fwd_bf16_401/expand_dims_12"
  input: "module/model/40/rotary_pos_embedding_fwd_bf16/14376_complex/rotary_pos_embedding_fwd_bf16_401/expand_dims_14"
  attr {
    key: "Bundle_idx"
    value {
      s: "1203"
    }
  }
  attr {
    key: "Exec_idx"
    value {
      s: "38"
    }
  }
  attr {
    key: "Op_idx"
    value {
      s: "3"
    }
  }
  attr {
    key: "inputTensor:0"
    value {
      s: "tensor_101_id_235484_module/model/40/aten__transpose_slice_0_0_1_0_0__0__bundle_1203_213824  |  Sizes = [1,8,128,128]  |  bf16  |  expBias = 0, scale = 1  |    |  ModelParam = 0  |  strides = [524288, 524288, 256, 4096, 2]  |  data = 0, sizeInBytes = 262144  |  isAliased = tensor_101_id_235484_module/model/40/aten__transpose, type = concat, offset: 2048  |  location = in DRAM  |  isSparseLayout  |  "
    }
  }
  attr {
    key: "inputTensor:1"
    value {
      s: "bf16-13_213251  |  Sizes = [1,128,128]  |  bf16  |  expBias = 0, scale = 1  |    |  ModelParam = 0  |  strides = [32768, 32768, 256, 2]  |  data = 0, sizeInBytes = 32768  |  location = in DRAM  |  dramOffset = 0x3100000a0000  |  "
    }
  }
  attr {
    key: "inputTensor:2"
    value {
      s: "bf16-15_213252  |  Sizes = [1,128,128]  |  bf16  |  expBias = 0, scale = 1  |    |  ModelParam = 0  |  strides = [32768, 32768, 256, 2]  |  data = 0, sizeInBytes = 32768  |  location = in DRAM  |  dramOffset = 0x60000000000  |  "
    }
  }
  attr {
    key: "outputTensor:0"
    value {
      s: "tensor_103_slice_0_0_1_0_0__0__bundle_1203_213825  |  Sizes = [1,8,128,128]  |  bf16  |  expBias = 0, scale = 1  |    |  ModelParam = 0  |  strides = [262144, 262144, 32768, 256, 2]  |  data = 0, sizeInBytes = 262144  |  location = in SRAM  |  sramOffset = 0x1000fffffd590000  |  "
    }
  }
}
node {
  name: "fusedTPCNode_426_1_bundle_1203/op_0"
  op: "fused_kernel_0x142962FF_4CB_bf16"
  input: "tensor_41_bundle_1203/split_internal/0"
  attr {
    key: "Bundle_idx"
    value {
      s: "1203"
    }
  }
  attr {
    key: "Exec_idx"
    value {
      s: "39"
    }
  }
  attr {
    key: "Op_idx"
    value {
      s: "4"
    }
  }
  attr {
    key: "inputTensor:0"
    value {
      s: "tensor_41_slice_0_0_0_0_0__0__bundle_1203_213808  |  Sizes = [1,1,128,128]  |  bf16  |  expBias = 0, scale = 1  |    |  ModelParam = 0  |  strides = [65536, 65536, 32768, 256, 2]  |  data = 0, sizeInBytes = 32768  |  isAliased = tensor_41, type = concat, offset: 0  |  location = in DRAM  |  "
    }
  }
  attr {
    key: "outputTensor:0"
    value {
      s: "tensor_46_slice_0_0_0_0_0__0__bundle_1203_213809  |  Sizes = [1,1,128,128]  |  hfloat8  |  expBias = 7, scale = 1  |    |  ModelParam = 0  |  strides = [32768, 32768, 16384, 128, 1]  |  data = 0, sizeInBytes = 16384  |  isAliased = tensor_46, type = concat, offset: 0  |  location = in DRAM  |  "
    }
  }
  attr {
    key: "outputTensor:1"
    value {
      s: "tensor_49_slice_0_0_0_0_0__0__bundle_1203_213810  |  Sizes = [1,1,128,128]  |  bf16  |  expBias = 0, scale = 1  |    |  ModelParam = 0  |  strides = [65536, 65536, 32768, 256, 2]  |  data = 0, sizeInBytes = 32768  |  isAliased = tensor_49, type = concat, offset: 0  |  location = in DRAM  |  "
    }
  }
  attr {
    key: "outputTensor:2"
    value {
      s: "tensor-213441_slice_0_0_0_0_0__0__bundle_1203_213811  |  Sizes = [1,1,128,128]  |  hfloat8  |  expBias = 7, scale = 1  |    |  ModelParam = 0  |  strides = [16384, 16384, 16384, 128, 1]  |  data = 0, sizeInBytes = 16384  |  isAliased = tensor_89_id_235599_module/model/40/fused_scaled_dot_product_attention/aten__view_slice_0_0_0_0_0__0__bundle_1203_213812, type = alias, offset: 0  |  location = in SRAM  |  sramOffset = 0x1000fffffd5d0000  |  "
    }
  }
}
node {
  name: "reshape_5_5_bundle_1203/op_1"
  op: "Reshape"
  input: "fusedTPCNode_426_1_bundle_1203/op_0"
  attr {
    key: "Bundle_idx"
    value {
      s: "1203"
    }
  }
  attr {
    key: "Exec_idx"
    value {
      s: "40"
    }
  }
  attr {
    key: "Op_idx"
    value {
      s: "5"
    }
  }
  attr {
    key: "inputTensor:0"
    value {
      s: "tensor-213441_slice_0_0_0_0_0__0__bundle_1203_213811  |  Sizes = [1,1,128,128]  |  hfloat8  |  expBias = 7, scale = 1  |    |  ModelParam = 0  |  strides = [16384, 16384, 16384, 128, 1]  |  data = 0, sizeInBytes = 16384  |  isAliased = tensor_89_id_235599_module/model/40/fused_scaled_dot_product_attention/aten__view_slice_0_0_0_0_0__0__bundle_1203_213812, type = alias, offset: 0  |  location = in SRAM  |  sramOffset = 0x1000fffffd5d0000  |  "
    }
  }
  attr {
    key: "outputTensor:0"
    value {
      s: "tensor_89_id_235599_module/model/40/fused_scaled_dot_product_attention/aten__view_slice_0_0_0_0_0__0__bundle_1203_213812  |  Sizes = [1,1,1,128,128]  |  hfloat8  |  expBias = 7, scale = 1  |    |  ModelParam = 0  |  strides = [16384, 16384, 16384, 16384, 128, 1]  |  data = 0, sizeInBytes = 16384  |  location = in SRAM  |  sramOffset = 0x1000fffffd5d0000  |  "
    }
  }
}
node {
  name: "fusedTPCNode_426_3_bundle_1203/op_3"
  op: "fused_kernel_0xED25F608_4CD_hf8"
  input: "module/model/40/rotary_pos_embedding_fwd_bf16/14376_complex/rotary_pos_embedding_fwd_bf16_401/rope_st2_fwd_bf16_16_bundle_1203/op_2"
  attr {
    key: "Bundle_idx"
    value {
      s: "1203"
    }
  }
  attr {
    key: "Exec_idx"
    value {
      s: "41"
    }
  }
  attr {
    key: "Op_idx"
    value {
      s: "6"
    }
  }
  attr {
    key: "inputTensor:0"
    value {
      s: "tensor_103_slice_0_0_0_0_0__0__bundle_1203_213816  |  Sizes = [1,8,128,128]  |  bf16  |  expBias = 0, scale = 1  |    |  ModelParam = 0  |  strides = [262144, 262144, 32768, 256, 2]  |  data = 0, sizeInBytes = 262144  |  location = in SRAM  |  sramOffset = 0x1000fffffd550000  |  "
    }
  }
  attr {
    key: "outputTensor:0"
    value {
      s: "tensor-213443_slice_0_0_0_0_0__0__bundle_1203_213817  |  Sizes = [1,8,128,128]  |  hfloat8  |  expBias = 7, scale = 1  |    |  ModelParam = 0  |  strides = [131072, 131072, 16384, 128, 1]  |  data = 0, sizeInBytes = 131072  |  isAliased = tensor_108_id_235597_module/model/40/fused_scaled_dot_product_attention/aten__view_slice_0_0_0_0_0__0__bundle_1203_213818, type = alias, offset: 0  |  location = in SRAM  |  sramOffset = 0x1000fffffd5d8000  |  "
    }
  }
}
node {
  name: "reshape_11_11_bundle_1203/op_4"
  op: "Reshape"
  input: "fusedTPCNode_426_3_bundle_1203/op_3"
  attr {
    key: "Bundle_idx"
    value {
      s: "1203"
    }
  }
  attr {
    key: "Exec_idx"
    value {
      s: "42"
    }
  }
  attr {
    key: "Op_idx"
    value {
      s: "7"
    }
  }
  attr {
    key: "inputTensor:0"
    value {
      s: "tensor-213443_slice_0_0_0_0_0__0__bundle_1203_213817  |  Sizes = [1,8,128,128]  |  hfloat8  |  expBias = 7, scale = 1  |    |  ModelParam = 0  |  strides = [131072, 131072, 16384, 128, 1]  |  data = 0, sizeInBytes = 131072  |  isAliased = tensor_108_id_235597_module/model/40/fused_scaled_dot_product_attention/aten__view_slice_0_0_0_0_0__0__bundle_1203_213818, type = alias, offset: 0  |  location = in SRAM  |  sramOffset = 0x1000fffffd5d8000  |  "
    }
  }
  attr {
    key: "outputTensor:0"
    value {
      s: "tensor_108_id_235597_module/model/40/fused_scaled_dot_product_attention/aten__view_slice_0_0_0_0_0__0__bundle_1203_213818  |  Sizes = [1,1,8,128,128]  |  hfloat8  |  expBias = 7, scale = 1  |    |  ModelParam = 0  |  strides = [131072, 131072, 131072, 16384, 128, 1]  |  data = 0, sizeInBytes = 131072  |  location = in SRAM  |  sramOffset = 0x1000fffffd5d8000  |  "
    }
  }
}
node {
  name: "fusedTPCNode_426_1_bundle_1203/op_5"
  op: "fused_kernel_0x142962FF_4CB_bf16"
  input: "tensor_41_bundle_1203/split_internal/0"
  attr {
    key: "Bundle_idx"
    value {
      s: "1203"
    }
  }
  attr {
    key: "Exec_idx"
    value {
      s: "43"
    }
  }
  attr {
    key: "Op_idx"
    value {
      s: "8"
    }
  }
  attr {
    key: "inputTensor:0"
    value {
      s: "tensor_41_slice_0_0_1_0_0__0__bundle_1203_213819  |  Sizes = [1,1,128,128]  |  bf16  |  expBias = 0, scale = 1  |    |  ModelParam = 0  |  strides = [65536, 65536, 32768, 256, 2]  |  data = 0, sizeInBytes = 32768  |  isAliased = tensor_41, type = concat, offset: 32768  |  location = in DRAM  |  "
    }
  }
  attr {
    key: "outputTensor:0"
    value {
      s: "tensor_46_slice_0_0_1_0_0__0__bundle_1203_213820  |  Sizes = [1,1,128,128]  |  hfloat8  |  expBias = 7, scale = 1  |    |  ModelParam = 0  |  strides = [32768, 32768, 16384, 128, 1]  |  data = 0, sizeInBytes = 16384  |  isAliased = tensor_46, type = concat, offset: 16384  |  location = in DRAM  |  "
    }
  }
  attr {
    key: "outputTensor:1"
    value {
      s: "tensor_49_slice_0_0_1_0_0__0__bundle_1203_213821  |  Sizes = [1,1,128,128]  |  bf16  |  expBias = 0, scale = 1  |    |  ModelParam = 0  |  strides = [65536, 65536, 32768, 256, 2]  |  data = 0, sizeInBytes = 32768  |  isAliased = tensor_49, type = concat, offset: 32768  |  location = in DRAM  |  "
    }
  }
  attr {
    key: "outputTensor:2"
    value {
      s: "tensor-213441_slice_0_0_1_0_0__0__bundle_1203_213822  |  Sizes = [1,1,128,128]  |  hfloat8  |  expBias = 7, scale = 1  |    |  ModelParam = 0  |  strides = [16384, 16384, 16384, 128, 1]  |  data = 0, sizeInBytes = 16384  |  isAliased = tensor_89_id_235599_module/model/40/fused_scaled_dot_product_attention/aten__view_slice_0_0_0_1_0__0__bundle_1203_213823, type = alias, offset: 0  |  location = in SRAM  |  sramOffset = 0x1000fffffd5d4000  |  "
    }
  }
}
node {
  name: "reshape_5_5_bundle_1203/op_6"
  op: "Reshape"
  input: "fusedTPCNode_426_1_bundle_1203/op_5"
  attr {
    key: "Bundle_idx"
    value {
      s: "1203"
    }
  }
  attr {
    key: "Exec_idx"
    value {
      s: "44"
    }
  }
  attr {
    key: "Op_idx"
    value {
      s: "9"
    }
  }
  attr {
    key: "inputTensor:0"
    value {
      s: "tensor-213441_slice_0_0_1_0_0__0__bundle_1203_213822  |  Sizes = [1,1,128,128]  |  hfloat8  |  expBias = 7, scale = 1  |    |  ModelParam = 0  |  strides = [16384, 16384, 16384, 128, 1]  |  data = 0, sizeInBytes = 16384  |  isAliased = tensor_89_id_235599_module/model/40/fused_scaled_dot_product_attention/aten__view_slice_0_0_0_1_0__0__bundle_1203_213823, type = alias, offset: 0  |  location = in SRAM  |  sramOffset = 0x1000fffffd5d4000  |  "
    }
  }
  attr {
    key: "outputTensor:0"
    value {
      s: "tensor_89_id_235599_module/model/40/fused_scaled_dot_product_attention/aten__view_slice_0_0_0_1_0__0__bundle_1203_213823  |  Sizes = [1,1,1,128,128]  |  hfloat8  |  expBias = 7, scale = 1  |    |  ModelParam = 0  |  strides = [16384, 16384, 16384, 16384, 128, 1]  |  data = 0, sizeInBytes = 16384  |  location = in SRAM  |  sramOffset = 0x1000fffffd5d4000  |  "
    }
  }
}
node {
  name: "tensor_46_bundle_1203/concat_logical_internal/0"
  op: "Concatenate"
  input: "fusedTPCNode_426_1_bundle_1203/op_0"
  input: "fusedTPCNode_426_1_bundle_1203/op_5"
  attr {
    key: "Bundle_idx"
    value {
      s: "1203"
    }
  }
  attr {
    key: "Exec_idx"
    value {
      s: "45"
    }
  }
  attr {
    key: "Op_idx"
    value {
      s: "10"
    }
  }
  attr {
    key: "inputTensor:0"
    value {
      s: "tensor_46_slice_0_0_0_0_0__0__bundle_1203_213809  |  Sizes = [1,1,128,128]  |  hfloat8  |  expBias = 7, scale = 1  |    |  ModelParam = 0  |  strides = [32768, 32768, 16384, 128, 1]  |  data = 0, sizeInBytes = 16384  |  isAliased = tensor_46, type = concat, offset: 0  |  location = in DRAM  |  "
    }
  }
  attr {
    key: "inputTensor:1"
    value {
      s: "tensor_46_slice_0_0_1_0_0__0__bundle_1203_213820  |  Sizes = [1,1,128,128]  |  hfloat8  |  expBias = 7, scale = 1  |    |  ModelParam = 0  |  strides = [32768, 32768, 16384, 128, 1]  |  data = 0, sizeInBytes = 16384  |  isAliased = tensor_46, type = concat, offset: 16384  |  location = in DRAM  |  "
    }
  }
  attr {
    key: "outputTensor:0"
    value {
      s: "tensor_46  |  Sizes = [1,2,128,128]  |  hfloat8  |  expBias = 7, scale = 1  |    |  ModelParam = 0  |  strides = [32768, 32768, 16384, 128, 1]  |  data = 0, sizeInBytes = 32768  |  isPersistent  |  location = in DRAM  |  dramOffset = 0x60000000000  |  userMemorySection(type=Persistent, id=6)  |  "
    }
  }
}
node {
  name: "tensor_46"
  op: "OutputTensor"
  input: "tensor_46_bundle_1203/concat_logical_internal/0"
  attr {
    key: "dtype"
    value {
      type: DT_INVALID
    }
  }
  attr {
    key: "shape"
    value {
      shape {
        dim {
          size: 128
        }
        dim {
          size: 128
        }
        dim {
          size: 2
        }
        dim {
          size: 1
        }
        dim {
          size: 1
        }
      }
    }
  }
  attr {
    key: "synDataType"
    value {
      s: "hfloat8"
    }
  }
}
node {
  name: "tensor_49_bundle_1203/concat_logical_internal/0"
  op: "Concatenate"
  input: "fusedTPCNode_426_1_bundle_1203/op_0"
  input: "fusedTPCNode_426_1_bundle_1203/op_5"
  attr {
    key: "Bundle_idx"
    value {
      s: "1203"
    }
  }
  attr {
    key: "Exec_idx"
    value {
      s: "46"
    }
  }
  attr {
    key: "Op_idx"
    value {
      s: "11"
    }
  }
  attr {
    key: "inputTensor:0"
    value {
      s: "tensor_49_slice_0_0_0_0_0__0__bundle_1203_213810  |  Sizes = [1,1,128,128]  |  bf16  |  expBias = 0, scale = 1  |    |  ModelParam = 0  |  strides = [65536, 65536, 32768, 256, 2]  |  data = 0, sizeInBytes = 32768  |  isAliased = tensor_49, type = concat, offset: 0  |  location = in DRAM  |  "
    }
  }
  attr {
    key: "inputTensor:1"
    value {
      s: "tensor_49_slice_0_0_1_0_0__0__bundle_1203_213821  |  Sizes = [1,1,128,128]  |  bf16  |  expBias = 0, scale = 1  |    |  ModelParam = 0  |  strides = [65536, 65536, 32768, 256, 2]  |  data = 0, sizeInBytes = 32768  |  isAliased = tensor_49, type = concat, offset: 32768  |  location = in DRAM  |  "
    }
  }
  attr {
    key: "outputTensor:0"
    value {
      s: "tensor_49  |  Sizes = [1,2,128,128]  |  bf16  |  expBias = 0, scale = 1  |    |  ModelParam = 0  |  strides = [65536, 65536, 32768, 256, 2]  |  data = 0, sizeInBytes = 65536  |  isPersistent  |  location = in DRAM  |  dramOffset = 0x130000000000  |  userMemorySection(type=Persistent, id=19)  |  "
    }
  }
}
node {
  name: "tensor_49"
  op: "OutputTensor"
  input: "tensor_49_bundle_1203/concat_logical_internal/0"
  attr {
    key: "dtype"
    value {
      type: DT_BFLOAT16
    }
  }
  attr {
    key: "shape"
    value {
      shape {
        dim {
          size: 128
        }
        dim {
          size: 128
        }
        dim {
          size: 2
        }
        dim {
          size: 1
        }
        dim {
          size: 1
        }
      }
    }
  }
  attr {
    key: "synDataType"
    value {
      s: "bf16"
    }
  }
}
node {
  name: "fusedTPCNode_426_3_bundle_1203/op_8"
  op: "fused_kernel_0xED25F608_4CD_hf8"
  input: "module/model/40/rotary_pos_embedding_fwd_bf16/14376_complex/rotary_pos_embedding_fwd_bf16_401/rope_st2_fwd_bf16_16_bundle_1203/op_7"
  attr {
    key: "Bundle_idx"
    value {
      s: "1203"
    }
  }
  attr {
    key: "Exec_idx"
    value {
      s: "47"
    }
  }
  attr {
    key: "Op_idx"
    value {
      s: "12"
    }
  }
  attr {
    key: "inputTensor:0"
    value {
      s: "tensor_103_slice_0_0_1_0_0__0__bundle_1203_213825  |  Sizes = [1,8,128,128]  |  bf16  |  expBias = 0, scale = 1  |    |  ModelParam = 0  |  strides = [262144, 262144, 32768, 256, 2]  |  data = 0, sizeInBytes = 262144  |  location = in SRAM  |  sramOffset = 0x1000fffffd590000  |  "
    }
  }
  attr {
    key: "outputTensor:0"
    value {
      s: "tensor-213443_slice_0_0_1_0_0__0__bundle_1203_213826  |  Sizes = [1,8,128,128]  |  hfloat8  |  expBias = 7, scale = 1  |    |  ModelParam = 0  |  strides = [131072, 131072, 16384, 128, 1]  |  data = 0, sizeInBytes = 131072  |  isAliased = tensor_108_id_235597_module/model/40/fused_scaled_dot_product_attention/aten__view_slice_0_0_0_1_0__0__bundle_1203_213827, type = alias, offset: 0  |  location = in SRAM  |  sramOffset = 0x1000fffffd5f8000  |  "
    }
  }
}
node {
  name: "reshape_11_11_bundle_1203/op_9"
  op: "Reshape"
  input: "fusedTPCNode_426_3_bundle_1203/op_8"
  attr {
    key: "Bundle_idx"
    value {
      s: "1203"
    }
  }
  attr {
    key: "Exec_idx"
    value {
      s: "48"
    }
  }
  attr {
    key: "Op_idx"
    value {
      s: "13"
    }
  }
  attr {
    key: "inputTensor:0"
    value {
      s: "tensor-213443_slice_0_0_1_0_0__0__bundle_1203_213826  |  Sizes = [1,8,128,128]  |  hfloat8  |  expBias = 7, scale = 1  |    |  ModelParam = 0  |  strides = [131072, 131072, 16384, 128, 1]  |  data = 0, sizeInBytes = 131072  |  isAliased = tensor_108_id_235597_module/model/40/fused_scaled_dot_product_attention/aten__view_slice_0_0_0_1_0__0__bundle_1203_213827, type = alias, offset: 0  |  location = in SRAM  |  sramOffset = 0x1000fffffd5f8000  |  "
    }
  }
  attr {
    key: "outputTensor:0"
    value {
      s: "tensor_108_id_235597_module/model/40/fused_scaled_dot_product_attention/aten__view_slice_0_0_0_1_0__0__bundle_1203_213827  |  Sizes = [1,1,8,128,128]  |  hfloat8  |  expBias = 7, scale = 1  |    |  ModelParam = 0  |  strides = [131072, 131072, 131072, 16384, 128, 1]  |  data = 0, sizeInBytes = 131072  |  location = in SRAM  |  sramOffset = 0x1000fffffd5f8000  |  "
    }
  }
}
node {
  name: "module/model/40/fused_scaled_dot_product_attention/sdpa_recomp_fwd_hf8/14379_complex/sdpa_recomp_fwd_hf8_401/sdpa_recomp_core_fwd_hf8_200/fp8_gemm_hf8_3210/batch_gemm_16_bundle_1203/op_10"
  op: "BatchGemm"
  input: "reshape_11_11_bundle_1203/op_4"
  input: "reshape_5_5_bundle_1203/op_1"
  attr {
    key: "Bundle_idx"
    value {
      s: "1203"
    }
  }
  attr {
    key: "Exec_idx"
    value {
      s: "49"
    }
  }
  attr {
    key: "Op_idx"
    value {
      s: "14"
    }
  }
  attr {
    key: "Parameters"
    value {
      s: "transpose_a=false, transpose_b=true"
    }
  }
  attr {
    key: "fp8BiasIn"
    value {
      s: "7"
    }
  }
  attr {
    key: "fp8BiasIn2"
    value {
      s: "7"
    }
  }
  attr {
    key: "fp8BiasOut"
    value {
      s: "0"
    }
  }
  attr {
    key: "inputTensor:0"
    value {
      s: "tensor_108_id_235597_module/model/40/fused_scaled_dot_product_attention/aten__view_slice_0_0_0_0_0__0__bundle_1203_213818  |  Sizes = [1,1,8,128,128]  |  hfloat8  |  expBias = 7, scale = 1  |    |  ModelParam = 0  |  strides = [131072, 131072, 131072, 16384, 128, 1]  |  data = 0, sizeInBytes = 131072  |  location = in SRAM  |  sramOffset = 0x1000fffffd5d8000  |  "
    }
  }
  attr {
    key: "inputTensor:1"
    value {
      s: "tensor_89_id_235599_module/model/40/fused_scaled_dot_product_attention/aten__view_slice_0_0_0_0_0__0__bundle_1203_213812  |  Sizes = [1,1,1,128,128]  |  hfloat8  |  expBias = 7, scale = 1  |    |  ModelParam = 0  |  strides = [16384, 16384, 16384, 16384, 128, 1]  |  data = 0, sizeInBytes = 16384  |  location = in SRAM  |  sramOffset = 0x1000fffffd5d0000  |  "
    }
  }
  attr {
    key: "outputTensor:0"
    value {
      s: "bf16-17_213261_slice_0_0_0_0_0__0__bundle_1203_213828  |  Sizes = [1,1,8,128,128]  |  bf16  |  expBias = 0, scale = 1  |    |  ModelParam = 0  |  strides = [524288, 524288, 262144, 32768, 256, 2]  |  data = 0, sizeInBytes = 262144  |  isAliased = bf16-17_213261, type = concat, offset: 0  |  location = in DRAM  |  "
    }
  }
}
node {
  name: "module/model/40/fused_scaled_dot_product_attention/sdpa_recomp_fwd_hf8/14379_complex/sdpa_recomp_fwd_hf8_401/sdpa_recomp_core_fwd_hf8_200/fp8_gemm_hf8_3210/batch_gemm_16_bundle_1203/op_11"
  op: "BatchGemm"
  input: "reshape_11_11_bundle_1203/op_9"
  input: "reshape_5_5_bundle_1203/op_6"
  attr {
    key: "Bundle_idx"
    value {
      s: "1203"
    }
  }
  attr {
    key: "Exec_idx"
    value {
      s: "50"
    }
  }
  attr {
    key: "Op_idx"
    value {
      s: "15"
    }
  }
  attr {
    key: "Parameters"
    value {
      s: "transpose_a=false, transpose_b=true"
    }
  }
  attr {
    key: "fp8BiasIn"
    value {
      s: "7"
    }
  }
  attr {
    key: "fp8BiasIn2"
    value {
      s: "7"
    }
  }
  attr {
    key: "fp8BiasOut"
    value {
      s: "0"
    }
  }
  attr {
    key: "inputTensor:0"
    value {
      s: "tensor_108_id_235597_module/model/40/fused_scaled_dot_product_attention/aten__view_slice_0_0_0_1_0__0__bundle_1203_213827  |  Sizes = [1,1,8,128,128]  |  hfloat8  |  expBias = 7, scale = 1  |    |  ModelParam = 0  |  strides = [131072, 131072, 131072, 16384, 128, 1]  |  data = 0, sizeInBytes = 131072  |  location = in SRAM  |  sramOffset = 0x1000fffffd5f8000  |  "
    }
  }
  attr {
    key: "inputTensor:1"
    value {
      s: "tensor_89_id_235599_module/model/40/fused_scaled_dot_product_attention/aten__view_slice_0_0_0_1_0__0__bundle_1203_213823  |  Sizes = [1,1,1,128,128]  |  hfloat8  |  expBias = 7, scale = 1  |    |  ModelParam = 0  |  strides = [16384, 16384, 16384, 16384, 128, 1]  |  data = 0, sizeInBytes = 16384  |  location = in SRAM  |  sramOffset = 0x1000fffffd5d4000  |  "
    }
  }
  attr {
    key: "outputTensor:0"
    value {
      s: "bf16-17_213261_slice_0_0_0_1_0__0__bundle_1203_213829  |  Sizes = [1,1,8,128,128]  |  bf16  |  expBias = 0, scale = 1  |    |  ModelParam = 0  |  strides = [524288, 524288, 262144, 32768, 256, 2]  |  data = 0, sizeInBytes = 262144  |  isAliased = bf16-17_213261, type = concat, offset: 262144  |  location = in DRAM  |  "
    }
  }
}
node {
  name: "bf16-17_213261_bundle_1203/concat_logical_internal/0"
  op: "Concatenate"
  input: "module/model/40/fused_scaled_dot_product_attention/sdpa_recomp_fwd_hf8/14379_complex/sdpa_recomp_fwd_hf8_401/sdpa_recomp_core_fwd_hf8_200/fp8_gemm_hf8_3210/batch_gemm_16_bundle_1203/op_10"
  input: "module/model/40/fused_scaled_dot_product_attention/sdpa_recomp_fwd_hf8/14379_complex/sdpa_recomp_fwd_hf8_401/sdpa_recomp_core_fwd_hf8_200/fp8_gemm_hf8_3210/batch_gemm_16_bundle_1203/op_11"
  attr {
    key: "Bundle_idx"
    value {
      s: "1203"
    }
  }
  attr {
    key: "Exec_idx"
    value {
      s: "51"
    }
  }
  attr {
    key: "Op_idx"
    value {
      s: "16"
    }
  }
  attr {
    key: "inputTensor:0"
    value {
      s: "bf16-17_213261_slice_0_0_0_0_0__0__bundle_1203_213828  |  Sizes = [1,1,8,128,128]  |  bf16  |  expBias = 0, scale = 1  |    |  ModelParam = 0  |  strides = [524288, 524288, 262144, 32768, 256, 2]  |  data = 0, sizeInBytes = 262144  |  isAliased = bf16-17_213261, type = concat, offset: 0  |  location = in DRAM  |  "
    }
  }
  attr {
    key: "inputTensor:1"
    value {
      s: "bf16-17_213261_slice_0_0_0_1_0__0__bundle_1203_213829  |  Sizes = [1,1,8,128,128]  |  bf16  |  expBias = 0, scale = 1  |    |  ModelParam = 0  |  strides = [524288, 524288, 262144, 32768, 256, 2]  |  data = 0, sizeInBytes = 262144  |  isAliased = bf16-17_213261, type = concat, offset: 262144  |  location = in DRAM  |  "
    }
  }
  attr {
    key: "outputTensor:0"
    value {
      s: "bf16-17_213261  |  Sizes = [1,2,8,128,128]  |  bf16  |  expBias = 0, scale = 1  |    |  ModelParam = 0  |  strides = [524288, 524288, 262144, 32768, 256, 2]  |  data = 0, sizeInBytes = 524288  |  location = in DRAM  |  dramOffset = 0x3100000a8000  |  "
    }
  }
}
node {
  name: "module/model/40/fused_scaled_dot_product_attention/sdpa_recomp_fwd_hf8/14379_complex/sdpa_recomp_fwd_hf8_401/sdpa_recomp_core_fwd_hf8_200/constant_f32_18"
  op: "constant_f32"
  attr {
    key: "Bundle_idx"
    value {
      s: "N/A"
    }
  }
  attr {
    key: "Exec_idx"
    value {
      s: "52"
    }
  }
  attr {
    key: "Op_idx"
    value {
      s: "N/A"
    }
  }
  attr {
    key: "outputTensor:0"
    value {
      s: "f32-19_213262  |  Sizes = [1]  |  float32  |  expBias = 0, scale = 1  |    |  ModelParam = 0  |  strides = [4, 4]  |  data = 0, sizeInBytes = 4  |  location = in DRAM  |  dramOffset = 0x310000000000  |  "
    }
  }
}
node {
  name: "module/model/40/fused_scaled_dot_product_attention/sdpa_recomp_fwd_hf8/14379_complex/sdpa_recomp_fwd_hf8_401/sdpa_recomp_core_fwd_hf8_200/constant_f32_20"
  op: "constant_f32"
  attr {
    key: "Bundle_idx"
    value {
      s: "N/A"
    }
  }
  attr {
    key: "Exec_idx"
    value {
      s: "53"
    }
  }
  attr {
    key: "Op_idx"
    value {
      s: "N/A"
    }
  }
  attr {
    key: "outputTensor:0"
    value {
      s: "f32-21_213263  |  Sizes = [1]  |  float32  |  expBias = 0, scale = 1  |    |  ModelParam = 0  |  strides = [4, 4]  |  data = 0, sizeInBytes = 4  |  location = in DRAM  |  dramOffset = 0x310000000080  |  "
    }
  }
}
node {
  name: "tensor_69_bundle_1204/split_internal/0"
  op: "Split"
  input: "module/model/40/quant_input_0/transpose/14357_transpose_via_logical"
  attr {
    key: "Bundle_idx"
    value {
      s: "1204"
    }
  }
  attr {
    key: "Exec_idx"
    value {
      s: "54"
    }
  }
  attr {
    key: "Op_idx"
    value {
      s: "0"
    }
  }
  attr {
    key: "inputTensor:0"
    value {
      s: "tensor_69  |  Sizes = [1,2,128,128]  |  hfloat8  |  expBias = 7, scale = 1  |    |  ModelParam = 0  |  strides = [32768, 32768, 16384, 128, 1]  |  data = 0, sizeInBytes = 32768  |  isPersistent  |  location = in DRAM  |  dramOffset = 0x140000000000  |  userMemorySection(type=Persistent, id=20)  |  "
    }
  }
  attr {
    key: "outputTensor:0"
    value {
      s: "tensor_69_slice_0_0_0_0_0__0__bundle_1204_213830  |  Sizes = [1,1,128,128]  |  hfloat8  |  expBias = 7, scale = 1  |    |  ModelParam = 0  |  strides = [32768, 32768, 16384, 128, 1]  |  data = 0, sizeInBytes = 16384  |  isAliased = tensor_69, type = concat, offset: 0  |  location = in DRAM  |  "
    }
  }
  attr {
    key: "outputTensor:1"
    value {
      s: "tensor_69_slice_0_0_1_0_0__0__bundle_1204_213840  |  Sizes = [1,1,128,128]  |  hfloat8  |  expBias = 7, scale = 1  |    |  ModelParam = 0  |  strides = [32768, 32768, 16384, 128, 1]  |  data = 0, sizeInBytes = 16384  |  isAliased = tensor_69, type = concat, offset: 16384  |  location = in DRAM  |  "
    }
  }
}
node {
  name: "bf16-17_213261_bundle_1204/split_internal/0"
  op: "Split"
  input: "bf16-17_213261_bundle_1203/concat_logical_internal/0"
  attr {
    key: "Bundle_idx"
    value {
      s: "1204"
    }
  }
  attr {
    key: "Exec_idx"
    value {
      s: "55"
    }
  }
  attr {
    key: "Op_idx"
    value {
      s: "1"
    }
  }
  attr {
    key: "inputTensor:0"
    value {
      s: "bf16-17_213261  |  Sizes = [1,2,8,128,128]  |  bf16  |  expBias = 0, scale = 1  |    |  ModelParam = 0  |  strides = [524288, 524288, 262144, 32768, 256, 2]  |  data = 0, sizeInBytes = 524288  |  location = in DRAM  |  dramOffset = 0x3100000a8000  |  "
    }
  }
  attr {
    key: "outputTensor:0"
    value {
      s: "bf16-17_213261_slice_0_0_0_0_0__0__bundle_1204_213834  |  Sizes = [1,1,8,128,128]  |  bf16  |  expBias = 0, scale = 1  |    |  ModelParam = 0  |  strides = [524288, 524288, 262144, 32768, 256, 2]  |  data = 0, sizeInBytes = 262144  |  isAliased = bf16-17_213261, type = concat, offset: 0  |  location = in DRAM  |  "
    }
  }
  attr {
    key: "outputTensor:1"
    value {
      s: "bf16-17_213261_slice_0_0_0_1_0__0__bundle_1204_213844  |  Sizes = [1,1,8,128,128]  |  bf16  |  expBias = 0, scale = 1  |    |  ModelParam = 0  |  strides = [524288, 524288, 262144, 32768, 256, 2]  |  data = 0, sizeInBytes = 262144  |  isAliased = bf16-17_213261, type = concat, offset: 262144  |  location = in DRAM  |  "
    }
  }
}
node {
  name: "fusedTPCNode_426_2_bundle_1204/op_0"
  op: "fused_kernel_0x5153A275_4CC_bf16"
  input: "tensor_69_bundle_1204/split_internal/0"
  attr {
    key: "Bundle_idx"
    value {
      s: "1204"
    }
  }
  attr {
    key: "Exec_idx"
    value {
      s: "56"
    }
  }
  attr {
    key: "Op_idx"
    value {
      s: "2"
    }
  }
  attr {
    key: "inputTensor:0"
    value {
      s: "tensor_69_slice_0_0_0_0_0__0__bundle_1204_213830  |  Sizes = [1,1,128,128]  |  hfloat8  |  expBias = 7, scale = 1  |    |  ModelParam = 0  |  strides = [32768, 32768, 16384, 128, 1]  |  data = 0, sizeInBytes = 16384  |  isAliased = tensor_69, type = concat, offset: 0  |  location = in DRAM  |  "
    }
  }
  attr {
    key: "outputTensor:0"
    value {
      s: "tensor_72_slice_0_0_0_0_0__0__bundle_1204_213831  |  Sizes = [1,1,128,128]  |  bf16  |  expBias = 0, scale = 1  |    |  ModelParam = 0  |  strides = [65536, 65536, 32768, 256, 2]  |  data = 0, sizeInBytes = 32768  |  isAliased = tensor_72, type = concat, offset: 0  |  location = in DRAM  |  "
    }
  }
  attr {
    key: "outputTensor:1"
    value {
      s: "tensor-213442_slice_0_0_0_0_0__0__bundle_1204_213832  |  Sizes = [1,1,128,128]  |  hfloat8  |  expBias = 7, scale = 1  |    |  ModelParam = 0  |  strides = [16384, 16384, 16384, 128, 1]  |  data = 0, sizeInBytes = 16384  |  isAliased = tensor_84_id_235601_module/model/40/fused_scaled_dot_product_attention/aten__view_slice_0_0_0_0_0__0__bundle_1204_213833, type = alias, offset: 0  |  location = in SRAM  |  sramOffset = 0x1000fffffd618000  |  "
    }
  }
}
node {
  name: "reshape_8_8_bundle_1204/op_1"
  op: "Reshape"
  input: "fusedTPCNode_426_2_bundle_1204/op_0"
  attr {
    key: "Bundle_idx"
    value {
      s: "1204"
    }
  }
  attr {
    key: "Exec_idx"
    value {
      s: "57"
    }
  }
  attr {
    key: "Op_idx"
    value {
      s: "3"
    }
  }
  attr {
    key: "inputTensor:0"
    value {
      s: "tensor-213442_slice_0_0_0_0_0__0__bundle_1204_213832  |  Sizes = [1,1,128,128]  |  hfloat8  |  expBias = 7, scale = 1  |    |  ModelParam = 0  |  strides = [16384, 16384, 16384, 128, 1]  |  data = 0, sizeInBytes = 16384  |  isAliased = tensor_84_id_235601_module/model/40/fused_scaled_dot_product_attention/aten__view_slice_0_0_0_0_0__0__bundle_1204_213833, type = alias, offset: 0  |  location = in SRAM  |  sramOffset = 0x1000fffffd618000  |  "
    }
  }
  attr {
    key: "outputTensor:0"
    value {
      s: "tensor_84_id_235601_module/model/40/fused_scaled_dot_product_attention/aten__view_slice_0_0_0_0_0__0__bundle_1204_213833  |  Sizes = [1,1,1,128,128]  |  hfloat8  |  expBias = 7, scale = 1  |    |  ModelParam = 0  |  strides = [16384, 16384, 16384, 16384, 128, 1]  |  data = 0, sizeInBytes = 16384  |  location = in SRAM  |  sramOffset = 0x1000fffffd618000  |  "
    }
  }
}
node {
  name: "tensor_112_odule/model/40/fused_scaled_dot_product_attention/placeholder/7"
  op: "Placeholder"
  attr {
    key: "dtype"
    value {
      type: DT_FLOAT
    }
  }
  attr {
    key: "shape"
    value {
      shape {
        dim {
          size: 1
        }
        dim {
          size: 1
        }
        dim {
          size: 1
        }
        dim {
          size: 1
        }
        dim {
          size: 1
        }
      }
    }
  }
  attr {
    key: "synDataType"
    value {
      s: "float32"
    }
  }
}
node {
  name: "module/model/40/fused_scaled_dot_product_attention/sdpa_recomp_fwd_hf8/14379_complex/sdpa_recomp_fwd_hf8_401/sdpa_recomp_core_fwd_hf8_200/softmax_fwd_hf8_22_bundle_1204/op_2"
  op: "softmax_fwd_hf8"
  input: "bf16-17_213261_bundle_1204/split_internal/0"
  input: "module/model/40/fused_scaled_dot_product_attention/sdpa_recomp_fwd_hf8/14379_complex/sdpa_recomp_fwd_hf8_401/sdpa_recomp_core_fwd_hf8_200/constant_f32_18"
  input: "module/model/40/fused_scaled_dot_product_attention/sdpa_recomp_fwd_hf8/14379_complex/sdpa_recomp_fwd_hf8_401/sdpa_recomp_core_fwd_hf8_200/constant_f32_20"
  input: "tensor_112_odule/model/40/fused_scaled_dot_product_attention/placeholder/7"
  input: "module/model/40/fused_scaled_dot_product_attention/expand_dims/14366"
  attr {
    key: "Bundle_idx"
    value {
      s: "1204"
    }
  }
  attr {
    key: "Exec_idx"
    value {
      s: "58"
    }
  }
  attr {
    key: "Op_idx"
    value {
      s: "4"
    }
  }
  attr {
    key: "inputTensor:0"
    value {
      s: "bf16-17_213261_slice_0_0_0_0_0__0__bundle_1204_213834  |  Sizes = [1,1,8,128,128]  |  bf16  |  expBias = 0, scale = 1  |    |  ModelParam = 0  |  strides = [524288, 524288, 262144, 32768, 256, 2]  |  data = 0, sizeInBytes = 262144  |  isAliased = bf16-17_213261, type = concat, offset: 0  |  location = in DRAM  |  "
    }
  }
  attr {
    key: "inputTensor:1"
    value {
      s: "f32-19_213262  |  Sizes = [1]  |  float32  |  expBias = 0, scale = 1  |    |  ModelParam = 0  |  strides = [4, 4]  |  data = 0, sizeInBytes = 4  |  location = in DRAM  |  dramOffset = 0x310000000000  |  "
    }
  }
  attr {
    key: "inputTensor:2"
    value {
      s: "f32-21_213263  |  Sizes = [1]  |  float32  |  expBias = 0, scale = 1  |    |  ModelParam = 0  |  strides = [4, 4]  |  data = 0, sizeInBytes = 4  |  location = in DRAM  |  dramOffset = 0x310000000080  |  "
    }
  }
  attr {
    key: "inputTensor:3"
    value {
      s: "tensor_112_odule/model/40/fused_scaled_dot_product_attention/placeholder/7  |  Sizes = [1]  |  float32  |  expBias = 0, scale = 1  |    |  ModelParam = 0  |  strides = [4, 4]  |  data = 0x55afd557f498, sizeInBytes = 4  |  buffer = 16  |  isPersistent  |  location = in DRAM  |  dramOffset = 0x280000000000  |  userMemorySection(type=Persistent, id=40)  |  isStaticParam  |  bufferDtype=float32  |  "
    }
  }
  attr {
    key: "inputTensor:4"
    value {
      s: "tensor_79_id_235603_module/model/40/fused_scaled_dot_product_attention/aten__unsqueeze  |  Sizes = [1,1,1,128,128]  |  bf16  |  expBias = 0, scale = 1  |    |  ModelParam = 0  |  strides = [32768, 32768, 32768, 32768, 256, 2]  |  data = 0, sizeInBytes = 32768  |  isAliased = tensor_73_odule/model/40/fused_scaled_dot_product_attention/placeholder/0, type = alias, offset: 0  |  location = in DRAM  |  "
    }
  }
  attr {
    key: "outputTensor:0"
    value {
      s: "hf8-23_213264_slice_0_0_0_0_0__0__bundle_1204_213839  |  Sizes = [1,1,8,128,128]  |  hfloat8  |  expBias = 7, scale = 1  |    |  ModelParam = 0  |  strides = [131072, 131072, 131072, 16384, 128, 1]  |  data = 0, sizeInBytes = 131072  |  location = in SRAM  |  sramOffset = 0x1000fffffd620000  |  "
    }
  }
}
node {
  name: "fusedTPCNode_426_2_bundle_1204/op_3"
  op: "fused_kernel_0x5153A275_4CC_bf16"
  input: "tensor_69_bundle_1204/split_internal/0"
  attr {
    key: "Bundle_idx"
    value {
      s: "1204"
    }
  }
  attr {
    key: "Exec_idx"
    value {
      s: "59"
    }
  }
  attr {
    key: "Op_idx"
    value {
      s: "5"
    }
  }
  attr {
    key: "inputTensor:0"
    value {
      s: "tensor_69_slice_0_0_1_0_0__0__bundle_1204_213840  |  Sizes = [1,1,128,128]  |  hfloat8  |  expBias = 7, scale = 1  |    |  ModelParam = 0  |  strides = [32768, 32768, 16384, 128, 1]  |  data = 0, sizeInBytes = 16384  |  isAliased = tensor_69, type = concat, offset: 16384  |  location = in DRAM  |  "
    }
  }
  attr {
    key: "outputTensor:0"
    value {
      s: "tensor_72_slice_0_0_1_0_0__0__bundle_1204_213841  |  Sizes = [1,1,128,128]  |  bf16  |  expBias = 0, scale = 1  |    |  ModelParam = 0  |  strides = [65536, 65536, 32768, 256, 2]  |  data = 0, sizeInBytes = 32768  |  isAliased = tensor_72, type = concat, offset: 32768  |  location = in DRAM  |  "
    }
  }
  attr {
    key: "outputTensor:1"
    value {
      s: "tensor-213442_slice_0_0_1_0_0__0__bundle_1204_213842  |  Sizes = [1,1,128,128]  |  hfloat8  |  expBias = 7, scale = 1  |    |  ModelParam = 0  |  strides = [16384, 16384, 16384, 128, 1]  |  data = 0, sizeInBytes = 16384  |  isAliased = tensor_84_id_235601_module/model/40/fused_scaled_dot_product_attention/aten__view_slice_0_0_0_1_0__0__bundle_1204_213843, type = alias, offset: 0  |  location = in SRAM  |  sramOffset = 0x1000fffffd61c000  |  "
    }
  }
}
node {
  name: "reshape_8_8_bundle_1204/op_4"
  op: "Reshape"
  input: "fusedTPCNode_426_2_bundle_1204/op_3"
  attr {
    key: "Bundle_idx"
    value {
      s: "1204"
    }
  }
  attr {
    key: "Exec_idx"
    value {
      s: "60"
    }
  }
  attr {
    key: "Op_idx"
    value {
      s: "6"
    }
  }
  attr {
    key: "inputTensor:0"
    value {
      s: "tensor-213442_slice_0_0_1_0_0__0__bundle_1204_213842  |  Sizes = [1,1,128,128]  |  hfloat8  |  expBias = 7, scale = 1  |    |  ModelParam = 0  |  strides = [16384, 16384, 16384, 128, 1]  |  data = 0, sizeInBytes = 16384  |  isAliased = tensor_84_id_235601_module/model/40/fused_scaled_dot_product_attention/aten__view_slice_0_0_0_1_0__0__bundle_1204_213843, type = alias, offset: 0  |  location = in SRAM  |  sramOffset = 0x1000fffffd61c000  |  "
    }
  }
  attr {
    key: "outputTensor:0"
    value {
      s: "tensor_84_id_235601_module/model/40/fused_scaled_dot_product_attention/aten__view_slice_0_0_0_1_0__0__bundle_1204_213843  |  Sizes = [1,1,1,128,128]  |  hfloat8  |  expBias = 7, scale = 1  |    |  ModelParam = 0  |  strides = [16384, 16384, 16384, 16384, 128, 1]  |  data = 0, sizeInBytes = 16384  |  location = in SRAM  |  sramOffset = 0x1000fffffd61c000  |  "
    }
  }
}
node {
  name: "tensor_72_bundle_1204/concat_logical_internal/0"
  op: "Concatenate"
  input: "fusedTPCNode_426_2_bundle_1204/op_0"
  input: "fusedTPCNode_426_2_bundle_1204/op_3"
  attr {
    key: "Bundle_idx"
    value {
      s: "1204"
    }
  }
  attr {
    key: "Exec_idx"
    value {
      s: "61"
    }
  }
  attr {
    key: "Op_idx"
    value {
      s: "7"
    }
  }
  attr {
    key: "inputTensor:0"
    value {
      s: "tensor_72_slice_0_0_0_0_0__0__bundle_1204_213831  |  Sizes = [1,1,128,128]  |  bf16  |  expBias = 0, scale = 1  |    |  ModelParam = 0  |  strides = [65536, 65536, 32768, 256, 2]  |  data = 0, sizeInBytes = 32768  |  isAliased = tensor_72, type = concat, offset: 0  |  location = in DRAM  |  "
    }
  }
  attr {
    key: "inputTensor:1"
    value {
      s: "tensor_72_slice_0_0_1_0_0__0__bundle_1204_213841  |  Sizes = [1,1,128,128]  |  bf16  |  expBias = 0, scale = 1  |    |  ModelParam = 0  |  strides = [65536, 65536, 32768, 256, 2]  |  data = 0, sizeInBytes = 32768  |  isAliased = tensor_72, type = concat, offset: 32768  |  location = in DRAM  |  "
    }
  }
  attr {
    key: "outputTensor:0"
    value {
      s: "tensor_72  |  Sizes = [1,2,128,128]  |  bf16  |  expBias = 0, scale = 1  |    |  ModelParam = 0  |  strides = [65536, 65536, 32768, 256, 2]  |  data = 0, sizeInBytes = 65536  |  isPersistent  |  location = in DRAM  |  dramOffset = 0x1c0000000000  |  userMemorySection(type=Persistent, id=28)  |  "
    }
  }
}
node {
  name: "tensor_72"
  op: "OutputTensor"
  input: "tensor_72_bundle_1204/concat_logical_internal/0"
  attr {
    key: "dtype"
    value {
      type: DT_BFLOAT16
    }
  }
  attr {
    key: "shape"
    value {
      shape {
        dim {
          size: 128
        }
        dim {
          size: 128
        }
        dim {
          size: 2
        }
        dim {
          size: 1
        }
        dim {
          size: 1
        }
      }
    }
  }
  attr {
    key: "synDataType"
    value {
      s: "bf16"
    }
  }
}
node {
  name: "module/model/40/fused_scaled_dot_product_attention/sdpa_recomp_fwd_hf8/14379_complex/sdpa_recomp_fwd_hf8_401/sdpa_recomp_core_fwd_hf8_200/softmax_fwd_hf8_22_bundle_1204/op_5"
  op: "softmax_fwd_hf8"
  input: "bf16-17_213261_bundle_1204/split_internal/0"
  input: "module/model/40/fused_scaled_dot_product_attention/sdpa_recomp_fwd_hf8/14379_complex/sdpa_recomp_fwd_hf8_401/sdpa_recomp_core_fwd_hf8_200/constant_f32_18"
  input: "module/model/40/fused_scaled_dot_product_attention/sdpa_recomp_fwd_hf8/14379_complex/sdpa_recomp_fwd_hf8_401/sdpa_recomp_core_fwd_hf8_200/constant_f32_20"
  input: "tensor_112_odule/model/40/fused_scaled_dot_product_attention/placeholder/7"
  input: "module/model/40/fused_scaled_dot_product_attention/expand_dims/14366"
  attr {
    key: "Bundle_idx"
    value {
      s: "1204"
    }
  }
  attr {
    key: "Exec_idx"
    value {
      s: "62"
    }
  }
  attr {
    key: "Op_idx"
    value {
      s: "8"
    }
  }
  attr {
    key: "inputTensor:0"
    value {
      s: "bf16-17_213261_slice_0_0_0_1_0__0__bundle_1204_213844  |  Sizes = [1,1,8,128,128]  |  bf16  |  expBias = 0, scale = 1  |    |  ModelParam = 0  |  strides = [524288, 524288, 262144, 32768, 256, 2]  |  data = 0, sizeInBytes = 262144  |  isAliased = bf16-17_213261, type = concat, offset: 262144  |  location = in DRAM  |  "
    }
  }
  attr {
    key: "inputTensor:1"
    value {
      s: "f32-19_213262  |  Sizes = [1]  |  float32  |  expBias = 0, scale = 1  |    |  ModelParam = 0  |  strides = [4, 4]  |  data = 0, sizeInBytes = 4  |  location = in DRAM  |  dramOffset = 0x310000000000  |  "
    }
  }
  attr {
    key: "inputTensor:2"
    value {
      s: "f32-21_213263  |  Sizes = [1]  |  float32  |  expBias = 0, scale = 1  |    |  ModelParam = 0  |  strides = [4, 4]  |  data = 0, sizeInBytes = 4  |  location = in DRAM  |  dramOffset = 0x310000000080  |  "
    }
  }
  attr {
    key: "inputTensor:3"
    value {
      s: "tensor_112_odule/model/40/fused_scaled_dot_product_attention/placeholder/7  |  Sizes = [1]  |  float32  |  expBias = 0, scale = 1  |    |  ModelParam = 0  |  strides = [4, 4]  |  data = 0x55afd557f498, sizeInBytes = 4  |  buffer = 16  |  isPersistent  |  location = in DRAM  |  dramOffset = 0x280000000000  |  userMemorySection(type=Persistent, id=40)  |  isStaticParam  |  bufferDtype=float32  |  "
    }
  }
  attr {
    key: "inputTensor:4"
    value {
      s: "tensor_79_id_235603_module/model/40/fused_scaled_dot_product_attention/aten__unsqueeze  |  Sizes = [1,1,1,128,128]  |  bf16  |  expBias = 0, scale = 1  |    |  ModelParam = 0  |  strides = [32768, 32768, 32768, 32768, 256, 2]  |  data = 0, sizeInBytes = 32768  |  isAliased = tensor_73_odule/model/40/fused_scaled_dot_product_attention/placeholder/0, type = alias, offset: 0  |  location = in DRAM  |  "
    }
  }
  attr {
    key: "outputTensor:0"
    value {
      s: "hf8-23_213264_slice_0_0_0_1_0__0__bundle_1204_213845  |  Sizes = [1,1,8,128,128]  |  hfloat8  |  expBias = 7, scale = 1  |    |  ModelParam = 0  |  strides = [131072, 131072, 131072, 16384, 128, 1]  |  data = 0, sizeInBytes = 131072  |  location = in SRAM  |  sramOffset = 0x1000fffffd640000  |  "
    }
  }
}
node {
  name: "module/model/40/fused_scaled_dot_product_attention/sdpa_recomp_fwd_hf8/14379_complex/sdpa_recomp_fwd_hf8_401/sdpa_recomp_core_fwd_hf8_200/fp8_gemm_hf8_3211/batch_gemm_24_bundle_1204/op_6"
  op: "BatchGemm"
  input: "module/model/40/fused_scaled_dot_product_attention/sdpa_recomp_fwd_hf8/14379_complex/sdpa_recomp_fwd_hf8_401/sdpa_recomp_core_fwd_hf8_200/softmax_fwd_hf8_22_bundle_1204/op_2"
  input: "reshape_8_8_bundle_1204/op_1"
  attr {
    key: "Bundle_idx"
    value {
      s: "1204"
    }
  }
  attr {
    key: "Exec_idx"
    value {
      s: "63"
    }
  }
  attr {
    key: "Op_idx"
    value {
      s: "9"
    }
  }
  attr {
    key: "Parameters"
    value {
      s: "transpose_a=false, transpose_b=false"
    }
  }
  attr {
    key: "fp8BiasIn"
    value {
      s: "11"
    }
  }
  attr {
    key: "fp8BiasIn2"
    value {
      s: "11"
    }
  }
  attr {
    key: "fp8BiasOut"
    value {
      s: "11"
    }
  }
  attr {
    key: "inputTensor:0"
    value {
      s: "hf8-23_213264_slice_0_0_0_0_0__0__bundle_1204_213839  |  Sizes = [1,1,8,128,128]  |  hfloat8  |  expBias = 7, scale = 1  |    |  ModelParam = 0  |  strides = [131072, 131072, 131072, 16384, 128, 1]  |  data = 0, sizeInBytes = 131072  |  location = in SRAM  |  sramOffset = 0x1000fffffd620000  |  "
    }
  }
  attr {
    key: "inputTensor:1"
    value {
      s: "tensor_84_id_235601_module/model/40/fused_scaled_dot_product_attention/aten__view_slice_0_0_0_0_0__0__bundle_1204_213833  |  Sizes = [1,1,1,128,128]  |  hfloat8  |  expBias = 7, scale = 1  |    |  ModelParam = 0  |  strides = [16384, 16384, 16384, 16384, 128, 1]  |  data = 0, sizeInBytes = 16384  |  location = in SRAM  |  sramOffset = 0x1000fffffd618000  |  "
    }
  }
  attr {
    key: "outputTensor:0"
    value {
      s: "tensor_120_slice_0_0_0_0_0__0__bundle_1204_213846  |  Sizes = [1,1,8,128,128]  |  hfloat8  |  expBias = 7, scale = 1  |    |  ModelParam = 0  |  strides = [262144, 262144, 131072, 16384, 128, 1]  |  data = 0, sizeInBytes = 131072  |  isAliased = tensor_120, type = concat, offset: 0  |  location = in DRAM  |  "
    }
  }
}
node {
  name: "module/model/40/fused_scaled_dot_product_attention/sdpa_recomp_fwd_hf8/14379_complex/sdpa_recomp_fwd_hf8_401/sdpa_recomp_core_fwd_hf8_200/fp8_gemm_hf8_3211/batch_gemm_24_bundle_1204/op_7"
  op: "BatchGemm"
  input: "module/model/40/fused_scaled_dot_product_attention/sdpa_recomp_fwd_hf8/14379_complex/sdpa_recomp_fwd_hf8_401/sdpa_recomp_core_fwd_hf8_200/softmax_fwd_hf8_22_bundle_1204/op_5"
  input: "reshape_8_8_bundle_1204/op_4"
  attr {
    key: "Bundle_idx"
    value {
      s: "1204"
    }
  }
  attr {
    key: "Exec_idx"
    value {
      s: "64"
    }
  }
  attr {
    key: "Op_idx"
    value {
      s: "10"
    }
  }
  attr {
    key: "Parameters"
    value {
      s: "transpose_a=false, transpose_b=false"
    }
  }
  attr {
    key: "fp8BiasIn"
    value {
      s: "11"
    }
  }
  attr {
    key: "fp8BiasIn2"
    value {
      s: "11"
    }
  }
  attr {
    key: "fp8BiasOut"
    value {
      s: "11"
    }
  }
  attr {
    key: "inputTensor:0"
    value {
      s: "hf8-23_213264_slice_0_0_0_1_0__0__bundle_1204_213845  |  Sizes = [1,1,8,128,128]  |  hfloat8  |  expBias = 7, scale = 1  |    |  ModelParam = 0  |  strides = [131072, 131072, 131072, 16384, 128, 1]  |  data = 0, sizeInBytes = 131072  |  location = in SRAM  |  sramOffset = 0x1000fffffd640000  |  "
    }
  }
  attr {
    key: "inputTensor:1"
    value {
      s: "tensor_84_id_235601_module/model/40/fused_scaled_dot_product_attention/aten__view_slice_0_0_0_1_0__0__bundle_1204_213843  |  Sizes = [1,1,1,128,128]  |  hfloat8  |  expBias = 7, scale = 1  |    |  ModelParam = 0  |  strides = [16384, 16384, 16384, 16384, 128, 1]  |  data = 0, sizeInBytes = 16384  |  location = in SRAM  |  sramOffset = 0x1000fffffd61c000  |  "
    }
  }
  attr {
    key: "outputTensor:0"
    value {
      s: "tensor_120_slice_0_0_0_1_0__0__bundle_1204_213847  |  Sizes = [1,1,8,128,128]  |  hfloat8  |  expBias = 7, scale = 1  |    |  ModelParam = 0  |  strides = [262144, 262144, 131072, 16384, 128, 1]  |  data = 0, sizeInBytes = 131072  |  isAliased = tensor_120, type = concat, offset: 131072  |  location = in DRAM  |  "
    }
  }
}
node {
  name: "tensor_120_bundle_1204/concat_logical_internal/0"
  op: "Concatenate"
  input: "module/model/40/fused_scaled_dot_product_attention/sdpa_recomp_fwd_hf8/14379_complex/sdpa_recomp_fwd_hf8_401/sdpa_recomp_core_fwd_hf8_200/fp8_gemm_hf8_3211/batch_gemm_24_bundle_1204/op_6"
  input: "module/model/40/fused_scaled_dot_product_attention/sdpa_recomp_fwd_hf8/14379_complex/sdpa_recomp_fwd_hf8_401/sdpa_recomp_core_fwd_hf8_200/fp8_gemm_hf8_3211/batch_gemm_24_bundle_1204/op_7"
  attr {
    key: "Bundle_idx"
    value {
      s: "1204"
    }
  }
  attr {
    key: "Exec_idx"
    value {
      s: "65"
    }
  }
  attr {
    key: "Op_idx"
    value {
      s: "11"
    }
  }
  attr {
    key: "inputTensor:0"
    value {
      s: "tensor_120_slice_0_0_0_0_0__0__bundle_1204_213846  |  Sizes = [1,1,8,128,128]  |  hfloat8  |  expBias = 7, scale = 1  |    |  ModelParam = 0  |  strides = [262144, 262144, 131072, 16384, 128, 1]  |  data = 0, sizeInBytes = 131072  |  isAliased = tensor_120, type = concat, offset: 0  |  location = in DRAM  |  "
    }
  }
  attr {
    key: "inputTensor:1"
    value {
      s: "tensor_120_slice_0_0_0_1_0__0__bundle_1204_213847  |  Sizes = [1,1,8,128,128]  |  hfloat8  |  expBias = 7, scale = 1  |    |  ModelParam = 0  |  strides = [262144, 262144, 131072, 16384, 128, 1]  |  data = 0, sizeInBytes = 131072  |  isAliased = tensor_120, type = concat, offset: 131072  |  location = in DRAM  |  "
    }
  }
  attr {
    key: "outputTensor:0"
    value {
      s: "tensor_120  |  Sizes = [1,2,8,128,128]  |  hfloat8  |  expBias = 7, scale = 1  |    |  ModelParam = 0  |  strides = [262144, 262144, 131072, 16384, 128, 1]  |  data = 0, sizeInBytes = 262144  |  isAliased = tensor_121_id_235622_module/model/40/fused_scaled_dot_product_attention/dequant_output/aten__view, type = alias, offset: 0  |  location = in DRAM  |  "
    }
  }
}
node {
  name: "module/model/40/fused_scaled_dot_product_attention/dequant_output/reshape/14380"
  op: "Reshape"
  input: "tensor_120_bundle_1204/concat_logical_internal/0"
  attr {
    key: "Bundle_idx"
    value {
      s: "N/A"
    }
  }
  attr {
    key: "Exec_idx"
    value {
      s: "66"
    }
  }
  attr {
    key: "Op_idx"
    value {
      s: "N/A"
    }
  }
  attr {
    key: "inputTensor:0"
    value {
      s: "tensor_120  |  Sizes = [1,2,8,128,128]  |  hfloat8  |  expBias = 7, scale = 1  |    |  ModelParam = 0  |  strides = [262144, 262144, 131072, 16384, 128, 1]  |  data = 0, sizeInBytes = 262144  |  isAliased = tensor_121_id_235622_module/model/40/fused_scaled_dot_product_attention/dequant_output/aten__view, type = alias, offset: 0  |  location = in DRAM  |  "
    }
  }
  attr {
    key: "outputTensor:0"
    value {
      s: "tensor_121_id_235622_module/model/40/fused_scaled_dot_product_attention/dequant_output/aten__view  |  Sizes = [1,16,128,128]  |  hfloat8  |  expBias = 7, scale = 1  |    |  ModelParam = 0  |  strides = [262144, 262144, 16384, 128, 1]  |  data = 0, sizeInBytes = 262144  |  location = in DRAM  |  dramOffset = 0x310000000100  |  "
    }
  }
}
node {
  name: "module/model/40/transpose/14382_transpose_via_logical"
  op: "LogicalTranspose"
  input: "module/model/40/fused_scaled_dot_product_attention/dequant_output/reshape/14380"
  attr {
    key: "Bundle_idx"
    value {
      s: "N/A"
    }
  }
  attr {
    key: "Exec_idx"
    value {
      s: "67"
    }
  }
  attr {
    key: "Op_idx"
    value {
      s: "N/A"
    }
  }
  attr {
    key: "Parameters"
    value {
      s: "permutation: (0,2,1,3)"
    }
  }
  attr {
    key: "inputTensor:0"
    value {
      s: "tensor_121_id_235622_module/model/40/fused_scaled_dot_product_attention/dequant_output/aten__view  |  Sizes = [1,16,128,128]  |  hfloat8  |  expBias = 7, scale = 1  |    |  ModelParam = 0  |  strides = [262144, 262144, 16384, 128, 1]  |  data = 0, sizeInBytes = 262144  |  location = in DRAM  |  dramOffset = 0x310000000100  |  "
    }
  }
  attr {
    key: "outputTensor:0"
    value {
      s: "tensor_125_id_235627_module/model/40/aten__transpose  |  Sizes = [1,128,16,128]  |  hfloat8  |  expBias = 7, scale = 1  |    |  ModelParam = 0  |  strides = [262144, 262144, 128, 16384, 1]  |  data = 0, sizeInBytes = 262144  |  isAliased = tensor_121_id_235622_module/model/40/fused_scaled_dot_product_attention/dequant_output/aten__view, type = alias, offset: 0  |  location = in DRAM  |  isSparseLayout  |  "
    }
  }
}
node {
  name: "tensor_125_id_235627_module/model/40/aten__transpose_memcpy_213852_internal"
  op: "DmaMemcpy"
  input: "module/model/40/transpose/14382_transpose_via_logical"
  attr {
    key: "Bundle_idx"
    value {
      s: "N/A"
    }
  }
  attr {
    key: "Exec_idx"
    value {
      s: "68"
    }
  }
  attr {
    key: "Op_idx"
    value {
      s: "N/A"
    }
  }
  attr {
    key: "inputTensor:0"
    value {
      s: "tensor_125_id_235627_module/model/40/aten__transpose  |  Sizes = [1,128,16,128]  |  hfloat8  |  expBias = 7, scale = 1  |    |  ModelParam = 0  |  strides = [262144, 262144, 128, 16384, 1]  |  data = 0, sizeInBytes = 262144  |  isAliased = tensor_121_id_235622_module/model/40/fused_scaled_dot_product_attention/dequant_output/aten__view, type = alias, offset: 0  |  location = in DRAM  |  isSparseLayout  |  "
    }
  }
  attr {
    key: "outputTensor:0"
    value {
      s: "tensor_125_id_235627_module/model/40/aten__transpose_memcpy_213852  |  Sizes = [1,128,16,128]  |  hfloat8  |  expBias = 7, scale = 1  |    |  ModelParam = 0  |  strides = [262144, 262144, 2048, 128, 1]  |  data = 0, sizeInBytes = 262144  |  location = in DRAM  |  dramOffset = 0x310000040100  |  "
    }
  }
}
node {
  name: "module/model/40/o_proj/quant_input_0/reshape/14384"
  op: "Reshape"
  input: "tensor_125_id_235627_module/model/40/aten__transpose_memcpy_213852_internal"
  attr {
    key: "Bundle_idx"
    value {
      s: "N/A"
    }
  }
  attr {
    key: "Exec_idx"
    value {
      s: "69"
    }
  }
  attr {
    key: "Op_idx"
    value {
      s: "N/A"
    }
  }
  attr {
    key: "inputTensor:0"
    value {
      s: "tensor_125_id_235627_module/model/40/aten__transpose_memcpy_213852  |  Sizes = [1,128,16,128]  |  hfloat8  |  expBias = 7, scale = 1  |    |  ModelParam = 0  |  strides = [262144, 262144, 2048, 128, 1]  |  data = 0, sizeInBytes = 262144  |  location = in DRAM  |  dramOffset = 0x310000040100  |  "
    }
  }
  attr {
    key: "outputTensor:0"
    value {
      s: "tensor_131_c213187  |  Sizes = [1,128,2048]  |  hfloat8  |  expBias = 7, scale = 1  |    |  ModelParam = 0  |  strides = [262144, 262144, 2048, 1]  |  data = 0, sizeInBytes = 262144  |  isAliased = tensor_125_id_235627_module/model/40/aten__transpose_memcpy_213852, type = alias, offset: 0  |  location = in DRAM  |  "
    }
  }
}
node {
  name: "tensor_132_odule/model/40/o_proj/placeholder/1"
  op: "Placeholder"
  attr {
    key: "dtype"
    value {
      type: DT_INVALID
    }
  }
  attr {
    key: "shape"
    value {
      shape {
        dim {
          size: 8192
        }
        dim {
          size: 2048
        }
        dim {
          size: 1
        }
        dim {
          size: 1
        }
        dim {
          size: 1
        }
      }
    }
  }
  attr {
    key: "synDataType"
    value {
      s: "hfloat8"
    }
  }
}
node {
  name: "module/model/40/o_proj/fp8_gemm_bf16/14386_complex/fp8_gemm_bf16_3213/expand_dims_6"
  op: "ExpandDims"
  input: "tensor_132_odule/model/40/o_proj/placeholder/1"
  attr {
    key: "Bundle_idx"
    value {
      s: "N/A"
    }
  }
  attr {
    key: "Exec_idx"
    value {
      s: "70"
    }
  }
  attr {
    key: "Op_idx"
    value {
      s: "N/A"
    }
  }
  attr {
    key: "inputTensor:0"
    value {
      s: "tensor_132_odule/model/40/o_proj/placeholder/1  |  Sizes = [2048,8192]  |  hfloat8  |  expBias = 7, scale = 1  |    |  ModelParam = 0  |  strides = [16777216, 8192, 1]  |  data = 0, sizeInBytes = 16777216  |  isPersistent  |  location = in DRAM  |  dramOffset = 0x2d0000000000  |  userMemorySection(type=Persistent, id=45)  |  "
    }
  }
  attr {
    key: "outputTensor:0"
    value {
      s: "hf8-7_213268  |  Sizes = [1,2048,8192]  |  hfloat8  |  expBias = 7, scale = 1  |    |  ModelParam = 0  |  strides = [16777216, 16777216, 8192, 1]  |  data = 0, sizeInBytes = 16777216  |  isAliased = tensor_132_odule/model/40/o_proj/placeholder/1, type = alias, offset: 0  |  location = in DRAM  |  "
    }
  }
}
node {
  name: "tensor_131_c213187_bundle_1205/memcpy/0"
  op: "DmaMemcpy"
  input: "module/model/40/o_proj/quant_input_0/reshape/14384"
  attr {
    key: "Bundle_idx"
    value {
      s: "1205"
    }
  }
  attr {
    key: "Exec_idx"
    value {
      s: "71"
    }
  }
  attr {
    key: "Op_idx"
    value {
      s: "0"
    }
  }
  attr {
    key: "inputTensor:0"
    value {
      s: "tensor_131_c213187  |  Sizes = [1,128,2048]  |  hfloat8  |  expBias = 7, scale = 1  |    |  ModelParam = 0  |  strides = [262144, 262144, 2048, 1]  |  data = 0, sizeInBytes = 262144  |  isAliased = tensor_125_id_235627_module/model/40/aten__transpose_memcpy_213852, type = alias, offset: 0  |  location = in DRAM  |  "
    }
  }
  attr {
    key: "outputTensor:0"
    value {
      s: "tensor_131_c213187_slice_0_0_0_0_0__0__bundle_1205_213848  |  Sizes = [1,128,2048]  |  hfloat8  |  expBias = 7, scale = 1  |    |  ModelParam = 0  |  strides = [262144, 262144, 2048, 1]  |  data = 0, sizeInBytes = 262144  |  location = in SRAM  |  sramOffset = 0x1000fffffd660000  |  "
    }
  }
}
node {
  name: "module/model/40/o_proj/fp8_gemm_bf16/14386_complex/fp8_gemm_bf16_3213/batch_gemm_8_bundle_1205/op_0_gemm"
  op: "GEMM"
  input: "tensor_131_c213187_bundle_1205/memcpy/0"
  input: "module/model/40/o_proj/fp8_gemm_bf16/14386_complex/fp8_gemm_bf16_3213/expand_dims_6"
  attr {
    key: "Bundle_idx"
    value {
      s: "1205"
    }
  }
  attr {
    key: "Exec_idx"
    value {
      s: "72"
    }
  }
  attr {
    key: "Op_idx"
    value {
      s: "1"
    }
  }
  attr {
    key: "Parameters"
    value {
      s: "transpose_a=false, transpose_b=false"
    }
  }
  attr {
    key: "fp8BiasIn"
    value {
      s: "11"
    }
  }
  attr {
    key: "fp8BiasIn2"
    value {
      s: "11"
    }
  }
  attr {
    key: "fp8BiasOut"
    value {
      s: "0"
    }
  }
  attr {
    key: "inputTensor:0"
    value {
      s: "tensor_131_c213187_slice_0_0_0_0_0__0__bundle_1205_213848  |  Sizes = [1,128,2048]  |  hfloat8  |  expBias = 7, scale = 1  |    |  ModelParam = 0  |  strides = [262144, 262144, 2048, 1]  |  data = 0, sizeInBytes = 262144  |  location = in SRAM  |  sramOffset = 0x1000fffffd660000  |  "
    }
  }
  attr {
    key: "inputTensor:1"
    value {
      s: "hf8-7_213268  |  Sizes = [1,2048,8192]  |  hfloat8  |  expBias = 7, scale = 1  |    |  ModelParam = 0  |  strides = [16777216, 16777216, 8192, 1]  |  data = 0, sizeInBytes = 16777216  |  isAliased = tensor_132_odule/model/40/o_proj/placeholder/1, type = alias, offset: 0  |  location = in DRAM  |  "
    }
  }
  attr {
    key: "outputTensor:0"
    value {
      s: "tensor_136  |  Sizes = [1,128,8192]  |  bf16  |  expBias = 0, scale = 1  |    |  ModelParam = 0  |  strides = [2097152, 2097152, 16384, 2]  |  data = 0, sizeInBytes = 2097152  |  isPersistent  |  location = in DRAM  |  dramOffset = 0x310000000000  |  userMemorySection(type=Persistent, id=49)  |  "
    }
  }
}
node {
  name: "tensor_136"
  op: "OutputTensor"
  input: "module/model/40/o_proj/fp8_gemm_bf16/14386_complex/fp8_gemm_bf16_3213/batch_gemm_8_bundle_1205/op_0_gemm"
  attr {
    key: "dtype"
    value {
      type: DT_BFLOAT16
    }
  }
  attr {
    key: "shape"
    value {
      shape {
        dim {
          size: 8192
        }
        dim {
          size: 128
        }
        dim {
          size: 1
        }
        dim {
          size: 1
        }
        dim {
          size: 1
        }
      }
    }
  }
  attr {
    key: "synDataType"
    value {
      s: "bf16"
    }
  }
}
