node {
  name: "tensor_7_odule/model/60/placeholder/0"
  op: "Placeholder"
  attr {
    key: "dtype"
    value {
      type: DT_INT32
    }
  }
  attr {
    key: "shape"
    value {
      shape {
        dim {
          size: 284
        }
        dim {
          size: 1
        }
        dim {
          size: 1
        }
        dim {
          size: 1
        }
        dim {
          size: 1
        }
      }
    }
  }
  attr {
    key: "synDataType"
    value {
      s: "int32"
    }
  }
}
node {
  name: "module/model/60/expand_dims/4771"
  op: "ExpandDims"
  input: "tensor_7_odule/model/60/placeholder/0"
  attr {
    key: "Bundle_idx"
    value {
      s: "N/A"
    }
  }
  attr {
    key: "Exec_idx"
    value {
      s: "0"
    }
  }
  attr {
    key: "Op_idx"
    value {
      s: "N/A"
    }
  }
  attr {
    key: "inputTensor:0"
    value {
      s: "tensor_7_odule/model/60/placeholder/0  |  Sizes = [284]  |  int32  |  expBias = 0, scale = 1  |    |  ModelParam = 0  |  strides = [1136, 4]  |  data = 0, sizeInBytes = 1136  |  isPersistent  |  userMemorySection(type=Persistent, id=7)  |  "
    }
  }
  attr {
    key: "outputTensor:0"
    value {
      s: "tensor_8_id_196120_module/model/60/aten__unsqueeze/1  |  Sizes = [1,284]  |  int32  |  expBias = 0, scale = 1  |    |  ModelParam = 0  |  strides = [1136, 1136, 4]  |  data = 0, sizeInBytes = 1136  |  "
    }
  }
}
node {
  name: "tensor_73_odule/model/60/fused_scaled_dot_product_attention/placeholder/0"
  op: "Placeholder"
  attr {
    key: "dtype"
    value {
      type: DT_BFLOAT16
    }
  }
  attr {
    key: "shape"
    value {
      shape {
        dim {
          size: 284
        }
        dim {
          size: 284
        }
        dim {
          size: 1
        }
        dim {
          size: 1
        }
        dim {
          size: 1
        }
      }
    }
  }
  attr {
    key: "synDataType"
    value {
      s: "bf16"
    }
  }
}
node {
  name: "module/model/60/fused_scaled_dot_product_attention/expand_dims/4801"
  op: "ExpandDims"
  input: "tensor_73_odule/model/60/fused_scaled_dot_product_attention/placeholder/0"
  attr {
    key: "Bundle_idx"
    value {
      s: "N/A"
    }
  }
  attr {
    key: "Exec_idx"
    value {
      s: "1"
    }
  }
  attr {
    key: "Op_idx"
    value {
      s: "N/A"
    }
  }
  attr {
    key: "inputTensor:0"
    value {
      s: "tensor_73_odule/model/60/fused_scaled_dot_product_attention/placeholder/0  |  Sizes = [284,284]  |  bf16  |  expBias = 0, scale = 1  |    |  ModelParam = 0  |  strides = [161312, 568, 2]  |  data = 0, sizeInBytes = 161312  |  isPersistent  |  userMemorySection(type=Persistent, id=29)  |  "
    }
  }
  attr {
    key: "outputTensor:0"
    value {
      s: "tensor_74_id_196121_module/model/60/fused_scaled_dot_product_attention/aten__unsqueeze  |  Sizes = [1,284,284]  |  bf16  |  expBias = 0, scale = 1  |    |  ModelParam = 0  |  strides = [161312, 161312, 568, 2]  |  data = 0, sizeInBytes = 161312  |  "
    }
  }
}
node {
  name: "module/model/60/fused_scaled_dot_product_attention/expand_dims/4802"
  op: "ExpandDims"
  input: "module/model/60/fused_scaled_dot_product_attention/expand_dims/4801"
  attr {
    key: "Bundle_idx"
    value {
      s: "N/A"
    }
  }
  attr {
    key: "Exec_idx"
    value {
      s: "2"
    }
  }
  attr {
    key: "Op_idx"
    value {
      s: "N/A"
    }
  }
  attr {
    key: "inputTensor:0"
    value {
      s: "tensor_74_id_196121_module/model/60/fused_scaled_dot_product_attention/aten__unsqueeze  |  Sizes = [1,284,284]  |  bf16  |  expBias = 0, scale = 1  |    |  ModelParam = 0  |  strides = [161312, 161312, 568, 2]  |  data = 0, sizeInBytes = 161312  |  "
    }
  }
  attr {
    key: "outputTensor:0"
    value {
      s: "tensor_75_id_196122_module/model/60/fused_scaled_dot_product_attention/aten__unsqueeze  |  Sizes = [1,1,284,284]  |  bf16  |  expBias = 0, scale = 1  |    |  ModelParam = 0  |  strides = [161312, 161312, 161312, 568, 2]  |  data = 0, sizeInBytes = 161312  |  "
    }
  }
}
node {
  name: "module/model/60/expand_dims/4811"
  op: "ExpandDims"
  input: "tensor_7_odule/model/60/placeholder/0"
  attr {
    key: "Bundle_idx"
    value {
      s: "N/A"
    }
  }
  attr {
    key: "Exec_idx"
    value {
      s: "3"
    }
  }
  attr {
    key: "Op_idx"
    value {
      s: "N/A"
    }
  }
  attr {
    key: "inputTensor:0"
    value {
      s: "tensor_7_odule/model/60/placeholder/0  |  Sizes = [284]  |  int32  |  expBias = 0, scale = 1  |    |  ModelParam = 0  |  strides = [1136, 4]  |  data = 0, sizeInBytes = 1136  |  isPersistent  |  userMemorySection(type=Persistent, id=7)  |  "
    }
  }
  attr {
    key: "outputTensor:0"
    value {
      s: "tensor_90_id_196120_module/model/60/aten__unsqueeze  |  Sizes = [1,284]  |  int32  |  expBias = 0, scale = 1  |    |  ModelParam = 0  |  strides = [1136, 1136, 4]  |  data = 0, sizeInBytes = 1136  |  "
    }
  }
}
node {
  name: "tensor_0_odule/model/59/placeholder/0"
  op: "Placeholder"
  attr {
    key: "dtype"
    value {
      type: DT_BFLOAT16
    }
  }
  attr {
    key: "shape"
    value {
      shape {
        dim {
          size: 8192
        }
        dim {
          size: 284
        }
        dim {
          size: 1
        }
        dim {
          size: 1
        }
        dim {
          size: 1
        }
      }
    }
  }
  attr {
    key: "synDataType"
    value {
      s: "bf16"
    }
  }
}
node {
  name: "tensor_1_odule/model/59/placeholder/1"
  op: "Placeholder"
  attr {
    key: "dtype"
    value {
      type: DT_BFLOAT16
    }
  }
  attr {
    key: "shape"
    value {
      shape {
        dim {
          size: 8192
        }
        dim {
          size: 284
        }
        dim {
          size: 1
        }
        dim {
          size: 1
        }
        dim {
          size: 1
        }
      }
    }
  }
  attr {
    key: "synDataType"
    value {
      s: "bf16"
    }
  }
}
node {
  name: "module/model/59/add_fwd_bf16/4769"
  op: "add_fwd_bf16"
  input: "tensor_0_odule/model/59/placeholder/0"
  input: "tensor_1_odule/model/59/placeholder/1"
  attr {
    key: "Bundle_idx"
    value {
      s: "N/A"
    }
  }
  attr {
    key: "Exec_idx"
    value {
      s: "4"
    }
  }
  attr {
    key: "Op_idx"
    value {
      s: "N/A"
    }
  }
  attr {
    key: "inputTensor:0"
    value {
      s: "tensor_0_odule/model/59/placeholder/0  |  Sizes = [1,284,8192]  |  bf16  |  expBias = 0, scale = 1  |    |  ModelParam = 0  |  strides = [4653056, 4653056, 16384, 2]  |  data = 0, sizeInBytes = 4653056  |  isPersistent  |  userMemorySection(type=Persistent, id=4)  |  "
    }
  }
  attr {
    key: "inputTensor:1"
    value {
      s: "tensor_1_odule/model/59/placeholder/1  |  Sizes = [1,284,8192]  |  bf16  |  expBias = 0, scale = 1  |    |  ModelParam = 0  |  strides = [4653056, 4653056, 16384, 2]  |  data = 0, sizeInBytes = 4653056  |  isPersistent  |  userMemorySection(type=Persistent, id=5)  |  "
    }
  }
  attr {
    key: "outputTensor:0"
    value {
      s: "tensor_2  |  Sizes = [1,284,8192]  |  bf16  |  expBias = 0, scale = 1  |    |  ModelParam = 0  |  strides = [4653056, 4653056, 16384, 2]  |  data = 0, sizeInBytes = 4653056  |  isPersistent  |  userMemorySection(type=Persistent, id=4)  |  "
    }
  }
}
node {
  name: "tensor_24_odule/model/60/input_layernorm/placeholder/1"
  op: "Placeholder"
  attr {
    key: "dtype"
    value {
      type: DT_BFLOAT16
    }
  }
  attr {
    key: "shape"
    value {
      shape {
        dim {
          size: 8192
        }
        dim {
          size: 1
        }
        dim {
          size: 1
        }
        dim {
          size: 1
        }
        dim {
          size: 1
        }
      }
    }
  }
  attr {
    key: "synDataType"
    value {
      s: "bf16"
    }
  }
}
node {
  name: "module/model/60/input_layernorm/rms_norm_ex_fwd_bf16/4784"
  op: "rms_norm_ex_fwd_bf16"
  input: "module/model/59/add_fwd_bf16/4769"
  input: "tensor_24_odule/model/60/input_layernorm/placeholder/1"
  attr {
    key: "Bundle_idx"
    value {
      s: "N/A"
    }
  }
  attr {
    key: "Exec_idx"
    value {
      s: "5"
    }
  }
  attr {
    key: "Op_idx"
    value {
      s: "N/A"
    }
  }
  attr {
    key: "inputTensor:0"
    value {
      s: "tensor_2  |  Sizes = [1,284,8192]  |  bf16  |  expBias = 0, scale = 1  |    |  ModelParam = 0  |  strides = [4653056, 4653056, 16384, 2]  |  data = 0, sizeInBytes = 4653056  |  isPersistent  |  userMemorySection(type=Persistent, id=4)  |  "
    }
  }
  attr {
    key: "inputTensor:1"
    value {
      s: "tensor_24_odule/model/60/input_layernorm/placeholder/1  |  Sizes = [8192]  |  bf16  |  expBias = 0, scale = 1  |    |  ModelParam = 0  |  strides = [16384, 2]  |  data = 0, sizeInBytes = 16384  |  isPersistent  |  userMemorySection(type=Persistent, id=11)  |  "
    }
  }
  attr {
    key: "outputTensor:0"
    value {
      s: "tensor_27  |  Sizes = [1,284,8192]  |  bf16  |  expBias = 0, scale = 1  |    |  ModelParam = 0  |  strides = [4653056, 4653056, 16384, 2]  |  data = 0, sizeInBytes = 4653056  |  "
    }
  }
  attr {
    key: "outputTensor:1"
    value {
      s: "tensor_28  |  Sizes = [1,284,1]  |  float32  |  expBias = 0, scale = 1  |    |  ModelParam = 0  |  strides = [1136, 1136, 4, 4]  |  data = 0, sizeInBytes = 1136  |  "
    }
  }
}
node {
  name: "tensor_28"
  op: "OutputTensor"
  input: "module/model/60/input_layernorm/rms_norm_ex_fwd_bf16/4784"
  attr {
    key: "dtype"
    value {
      type: DT_FLOAT
    }
  }
  attr {
    key: "shape"
    value {
      shape {
        dim {
          size: 1
        }
        dim {
          size: 284
        }
        dim {
          size: 1
        }
        dim {
          size: 1
        }
        dim {
          size: 1
        }
      }
    }
  }
  attr {
    key: "synDataType"
    value {
      s: "float32"
    }
  }
}
node {
  name: "tensor_29_odule/model/60/k_proj/quant_input_0/placeholder/1"
  op: "Placeholder"
  attr {
    key: "dtype"
    value {
      type: DT_BFLOAT16
    }
  }
  attr {
    key: "shape"
    value {
      shape {
        dim {
          size: 1
        }
        dim {
          size: 1
        }
        dim {
          size: 1
        }
        dim {
          size: 1
        }
        dim {
          size: 1
        }
      }
    }
  }
  attr {
    key: "synDataType"
    value {
      s: "bf16"
    }
  }
}
node {
  name: "module/model/60/k_proj/quant_input_0/convert_to_fp8_bf16/4785"
  op: "convert_to_fp8_bf16"
  input: "module/model/60/input_layernorm/rms_norm_ex_fwd_bf16/4784"
  input: "tensor_29_odule/model/60/k_proj/quant_input_0/placeholder/1"
  attr {
    key: "Bundle_idx"
    value {
      s: "N/A"
    }
  }
  attr {
    key: "Exec_idx"
    value {
      s: "6"
    }
  }
  attr {
    key: "Op_idx"
    value {
      s: "N/A"
    }
  }
  attr {
    key: "inputTensor:0"
    value {
      s: "tensor_27  |  Sizes = [1,284,8192]  |  bf16  |  expBias = 0, scale = 1  |    |  ModelParam = 0  |  strides = [4653056, 4653056, 16384, 2]  |  data = 0, sizeInBytes = 4653056  |  "
    }
  }
  attr {
    key: "inputTensor:1"
    value {
      s: "tensor_29_odule/model/60/k_proj/quant_input_0/placeholder/1  |  Sizes = [1]  |  bf16  |  expBias = 0, scale = 1  |    |  ModelParam = 0  |  strides = [2, 2]  |  data = 0x55afc59d2c08, sizeInBytes = 2  |  buffer = 1  |  isPersistent  |  userMemorySection(type=Persistent, id=12)  |  isStaticParam  |  bufferDtype=bf16  |  "
    }
  }
  attr {
    key: "outputTensor:0"
    value {
      s: "tensor_32  |  Sizes = [1,284,8192]  |  hfloat8  |  expBias = 7, scale = 1  |    |  ModelParam = 0  |  strides = [2326528, 2326528, 8192, 1]  |  data = 0, sizeInBytes = 2326528  |  "
    }
  }
}
node {
  name: "tensor_9_odule/model/60/rotary_emb/placeholder/0"
  op: "Placeholder"
  attr {
    key: "dtype"
    value {
      type: DT_BFLOAT16
    }
  }
  attr {
    key: "shape"
    value {
      shape {
        dim {
          size: 128
        }
        dim {
          size: 131072
        }
        dim {
          size: 1
        }
        dim {
          size: 1
        }
        dim {
          size: 1
        }
      }
    }
  }
  attr {
    key: "synDataType"
    value {
      s: "bf16"
    }
  }
}
node {
  name: "module/model/60/rotary_emb/slice/4772"
  op: "Slice"
  input: "tensor_9_odule/model/60/rotary_emb/placeholder/0"
  attr {
    key: "Bundle_idx"
    value {
      s: "N/A"
    }
  }
  attr {
    key: "Exec_idx"
    value {
      s: "7"
    }
  }
  attr {
    key: "Op_idx"
    value {
      s: "N/A"
    }
  }
  attr {
    key: "inputTensor:0"
    value {
      s: "tensor_9_odule/model/60/rotary_emb/placeholder/0  |  Sizes = [131072,128]  |  bf16  |  expBias = 0, scale = 1  |    |  ModelParam = 0  |  strides = [33554432, 256, 2]  |  data = 0, sizeInBytes = 33554432  |  isPersistent  |  userMemorySection(type=Persistent, id=8)  |  "
    }
  }
  attr {
    key: "outputTensor:0"
    value {
      s: "tensor_10_id_196238_module/model/60/rotary_emb/aten__slice  |  Sizes = [284,128]  |  bf16  |  expBias = 0, scale = 1  |    |  ModelParam = 0  |  strides = [72704, 256, 2]  |  data = 0, sizeInBytes = 72704  |  "
    }
  }
}
node {
  name: "tensor_11_odule/model/60/rotary_emb/placeholder/1"
  op: "Placeholder"
  attr {
    key: "dtype"
    value {
      type: DT_FLOAT
    }
  }
  attr {
    key: "shape"
    value {
      shape {
        dim {
          size: 1
        }
        dim {
          size: 1
        }
        dim {
          size: 1
        }
        dim {
          size: 1
        }
        dim {
          size: 1
        }
      }
    }
  }
  attr {
    key: "synDataType"
    value {
      s: "float32"
    }
  }
}
node {
  name: "module/model/60/rotary_emb/cast_f32_to_bf16/4773"
  op: "cast_f32_to_bf16"
  input: "tensor_11_odule/model/60/rotary_emb/placeholder/1"
  attr {
    key: "Bundle_idx"
    value {
      s: "N/A"
    }
  }
  attr {
    key: "Exec_idx"
    value {
      s: "8"
    }
  }
  attr {
    key: "Op_idx"
    value {
      s: "N/A"
    }
  }
  attr {
    key: "inputTensor:0"
    value {
      s: "tensor_11_odule/model/60/rotary_emb/placeholder/1  |  Sizes = [1]  |  float32  |  expBias = 0, scale = 1  |    |  ModelParam = 0  |  strides = [4, 4]  |  data = 0, sizeInBytes = 4  |  isPersistent  |  userMemorySection(type=Persistent, id=9)  |  "
    }
  }
  attr {
    key: "outputTensor:0"
    value {
      s: "tensor_13  |  Sizes = [1]  |  bf16  |  expBias = 0, scale = 1  |    |  ModelParam = 0  |  strides = [2, 2]  |  data = 0, sizeInBytes = 2  |  "
    }
  }
}
node {
  name: "tensor_17_odule/model/60/rotary_emb/placeholder/0"
  op: "Placeholder"
  attr {
    key: "dtype"
    value {
      type: DT_BFLOAT16
    }
  }
  attr {
    key: "shape"
    value {
      shape {
        dim {
          size: 128
        }
        dim {
          size: 131072
        }
        dim {
          size: 1
        }
        dim {
          size: 1
        }
        dim {
          size: 1
        }
      }
    }
  }
  attr {
    key: "synDataType"
    value {
      s: "bf16"
    }
  }
}
node {
  name: "module/model/60/rotary_emb/slice/4778"
  op: "Slice"
  input: "tensor_17_odule/model/60/rotary_emb/placeholder/0"
  attr {
    key: "Bundle_idx"
    value {
      s: "N/A"
    }
  }
  attr {
    key: "Exec_idx"
    value {
      s: "9"
    }
  }
  attr {
    key: "Op_idx"
    value {
      s: "N/A"
    }
  }
  attr {
    key: "inputTensor:0"
    value {
      s: "tensor_17_odule/model/60/rotary_emb/placeholder/0  |  Sizes = [131072,128]  |  bf16  |  expBias = 0, scale = 1  |    |  ModelParam = 0  |  strides = [33554432, 256, 2]  |  data = 0, sizeInBytes = 33554432  |  isPersistent  |  userMemorySection(type=Persistent, id=10)  |  "
    }
  }
  attr {
    key: "outputTensor:0"
    value {
      s: "tensor_18_id_196242_module/model/60/rotary_emb/aten__slice  |  Sizes = [284,128]  |  bf16  |  expBias = 0, scale = 1  |    |  ModelParam = 0  |  strides = [72704, 256, 2]  |  data = 0, sizeInBytes = 72704  |  "
    }
  }
}
node {
  name: "module/model/60/rotary_emb/cast_f32_to_bf16/4779"
  op: "cast_f32_to_bf16"
  input: "tensor_11_odule/model/60/rotary_emb/placeholder/1"
  attr {
    key: "Bundle_idx"
    value {
      s: "N/A"
    }
  }
  attr {
    key: "Exec_idx"
    value {
      s: "10"
    }
  }
  attr {
    key: "Op_idx"
    value {
      s: "N/A"
    }
  }
  attr {
    key: "inputTensor:0"
    value {
      s: "tensor_11_odule/model/60/rotary_emb/placeholder/1  |  Sizes = [1]  |  float32  |  expBias = 0, scale = 1  |    |  ModelParam = 0  |  strides = [4, 4]  |  data = 0, sizeInBytes = 4  |  isPersistent  |  userMemorySection(type=Persistent, id=9)  |  "
    }
  }
  attr {
    key: "outputTensor:0"
    value {
      s: "tensor_20  |  Sizes = [1]  |  bf16  |  expBias = 0, scale = 1  |    |  ModelParam = 0  |  strides = [2, 2]  |  data = 0, sizeInBytes = 2  |  "
    }
  }
}
node {
  name: "tensor_33_odule/model/60/k_proj/placeholder/1"
  op: "Placeholder"
  attr {
    key: "dtype"
    value {
      type: DT_INVALID
    }
  }
  attr {
    key: "shape"
    value {
      shape {
        dim {
          size: 256
        }
        dim {
          size: 8192
        }
        dim {
          size: 1
        }
        dim {
          size: 1
        }
        dim {
          size: 1
        }
      }
    }
  }
  attr {
    key: "synDataType"
    value {
      s: "hfloat8"
    }
  }
}
node {
  name: "tensor_34_odule/model/60/k_proj/placeholder/2"
  op: "Placeholder"
  attr {
    key: "dtype"
    value {
      type: DT_BFLOAT16
    }
  }
  attr {
    key: "shape"
    value {
      shape {
        dim {
          size: 1
        }
        dim {
          size: 1
        }
        dim {
          size: 1
        }
        dim {
          size: 1
        }
        dim {
          size: 1
        }
      }
    }
  }
  attr {
    key: "synDataType"
    value {
      s: "bf16"
    }
  }
}
node {
  name: "tensor_35_odule/model/60/k_proj/placeholder/3"
  op: "Placeholder"
  attr {
    key: "dtype"
    value {
      type: DT_BFLOAT16
    }
  }
  attr {
    key: "shape"
    value {
      shape {
        dim {
          size: 1
        }
        dim {
          size: 1
        }
        dim {
          size: 1
        }
        dim {
          size: 1
        }
        dim {
          size: 1
        }
      }
    }
  }
  attr {
    key: "synDataType"
    value {
      s: "bf16"
    }
  }
}
node {
  name: "module/model/60/k_proj/fp8_gemm_bf16/4786"
  op: "fp8_gemm_bf16"
  input: "module/model/60/k_proj/quant_input_0/convert_to_fp8_bf16/4785"
  input: "tensor_33_odule/model/60/k_proj/placeholder/1"
  input: "tensor_34_odule/model/60/k_proj/placeholder/2"
  input: "tensor_35_odule/model/60/k_proj/placeholder/3"
  input: "unused_port"
  input: "unused_port"
  input: "unused_port"
  attr {
    key: "Bundle_idx"
    value {
      s: "N/A"
    }
  }
  attr {
    key: "Exec_idx"
    value {
      s: "11"
    }
  }
  attr {
    key: "Op_idx"
    value {
      s: "N/A"
    }
  }
  attr {
    key: "inputTensor:0"
    value {
      s: "tensor_32  |  Sizes = [1,284,8192]  |  hfloat8  |  expBias = 7, scale = 1  |    |  ModelParam = 0  |  strides = [2326528, 2326528, 8192, 1]  |  data = 0, sizeInBytes = 2326528  |  "
    }
  }
  attr {
    key: "inputTensor:1"
    value {
      s: "tensor_33_odule/model/60/k_proj/placeholder/1  |  Sizes = [8192,256]  |  hfloat8  |  expBias = 7, scale = 1  |    |  ModelParam = 0  |  strides = [2097152, 256, 1]  |  data = 0, sizeInBytes = 2097152  |  isPersistent  |  userMemorySection(type=Persistent, id=13)  |  "
    }
  }
  attr {
    key: "inputTensor:2"
    value {
      s: "tensor_34_odule/model/60/k_proj/placeholder/2  |  Sizes = [1]  |  bf16  |  expBias = 0, scale = 1  |    |  ModelParam = 0  |  strides = [2, 2]  |  data = 0x55afc4b71598, sizeInBytes = 2  |  buffer = 1  |  isPersistent  |  userMemorySection(type=Persistent, id=14)  |  isStaticParam  |  bufferDtype=bf16  |  "
    }
  }
  attr {
    key: "inputTensor:3"
    value {
      s: "tensor_35_odule/model/60/k_proj/placeholder/3  |  Sizes = [1]  |  bf16  |  expBias = 0, scale = 1  |    |  ModelParam = 0  |  strides = [2, 2]  |  data = 0x55afcc9c1ea8, sizeInBytes = 2  |  buffer = 0.00390625  |  isPersistent  |  userMemorySection(type=Persistent, id=15)  |  isStaticParam  |  bufferDtype=bf16  |  "
    }
  }
  attr {
    key: "outputTensor:0"
    value {
      s: "tensor_37  |  Sizes = [1,284,256]  |  bf16  |  expBias = 0, scale = 1  |    |  ModelParam = 0  |  strides = [145408, 145408, 512, 2]  |  data = 0, sizeInBytes = 145408  |  "
    }
  }
}
node {
  name: "module/model/60/reshape/4787"
  op: "Reshape"
  input: "module/model/60/k_proj/fp8_gemm_bf16/4786"
  attr {
    key: "Bundle_idx"
    value {
      s: "N/A"
    }
  }
  attr {
    key: "Exec_idx"
    value {
      s: "12"
    }
  }
  attr {
    key: "Op_idx"
    value {
      s: "N/A"
    }
  }
  attr {
    key: "inputTensor:0"
    value {
      s: "tensor_37  |  Sizes = [1,284,256]  |  bf16  |  expBias = 0, scale = 1  |    |  ModelParam = 0  |  strides = [145408, 145408, 512, 2]  |  data = 0, sizeInBytes = 145408  |  "
    }
  }
  attr {
    key: "outputTensor:0"
    value {
      s: "tensor_38_id_196230_module/model/60/aten__view  |  Sizes = [1,284,2,128]  |  bf16  |  expBias = 0, scale = 1  |    |  ModelParam = 0  |  strides = [145408, 145408, 512, 256, 2]  |  data = 0, sizeInBytes = 145408  |  "
    }
  }
}
node {
  name: "tensor_54_odule/model/60/v_proj/quant_input_0/placeholder/1"
  op: "Placeholder"
  attr {
    key: "dtype"
    value {
      type: DT_BFLOAT16
    }
  }
  attr {
    key: "shape"
    value {
      shape {
        dim {
          size: 1
        }
        dim {
          size: 1
        }
        dim {
          size: 1
        }
        dim {
          size: 1
        }
        dim {
          size: 1
        }
      }
    }
  }
  attr {
    key: "synDataType"
    value {
      s: "bf16"
    }
  }
}
node {
  name: "module/model/60/v_proj/quant_input_0/convert_to_fp8_bf16/4794"
  op: "convert_to_fp8_bf16"
  input: "module/model/60/input_layernorm/rms_norm_ex_fwd_bf16/4784"
  input: "tensor_54_odule/model/60/v_proj/quant_input_0/placeholder/1"
  attr {
    key: "Bundle_idx"
    value {
      s: "N/A"
    }
  }
  attr {
    key: "Exec_idx"
    value {
      s: "13"
    }
  }
  attr {
    key: "Op_idx"
    value {
      s: "N/A"
    }
  }
  attr {
    key: "inputTensor:0"
    value {
      s: "tensor_27  |  Sizes = [1,284,8192]  |  bf16  |  expBias = 0, scale = 1  |    |  ModelParam = 0  |  strides = [4653056, 4653056, 16384, 2]  |  data = 0, sizeInBytes = 4653056  |  "
    }
  }
  attr {
    key: "inputTensor:1"
    value {
      s: "tensor_54_odule/model/60/v_proj/quant_input_0/placeholder/1  |  Sizes = [1]  |  bf16  |  expBias = 0, scale = 1  |    |  ModelParam = 0  |  strides = [2, 2]  |  data = 0x55afc60b0170, sizeInBytes = 2  |  buffer = 1  |  isPersistent  |  userMemorySection(type=Persistent, id=21)  |  isStaticParam  |  bufferDtype=bf16  |  "
    }
  }
  attr {
    key: "outputTensor:0"
    value {
      s: "tensor_57  |  Sizes = [1,284,8192]  |  hfloat8  |  expBias = 7, scale = 1  |    |  ModelParam = 0  |  strides = [2326528, 2326528, 8192, 1]  |  data = 0, sizeInBytes = 2326528  |  "
    }
  }
}
node {
  name: "module/model/60/rotary_emb/mult_fwd_bf16/4774"
  op: "mult_fwd_bf16"
  input: "module/model/60/rotary_emb/slice/4772"
  input: "module/model/60/rotary_emb/cast_f32_to_bf16/4773"
  attr {
    key: "Bundle_idx"
    value {
      s: "N/A"
    }
  }
  attr {
    key: "Exec_idx"
    value {
      s: "14"
    }
  }
  attr {
    key: "Op_idx"
    value {
      s: "N/A"
    }
  }
  attr {
    key: "inputTensor:0"
    value {
      s: "tensor_10_id_196238_module/model/60/rotary_emb/aten__slice  |  Sizes = [284,128]  |  bf16  |  expBias = 0, scale = 1  |    |  ModelParam = 0  |  strides = [72704, 256, 2]  |  data = 0, sizeInBytes = 72704  |  "
    }
  }
  attr {
    key: "inputTensor:1"
    value {
      s: "tensor_13  |  Sizes = [1]  |  bf16  |  expBias = 0, scale = 1  |    |  ModelParam = 0  |  strides = [2, 2]  |  data = 0, sizeInBytes = 2  |  "
    }
  }
  attr {
    key: "outputTensor:0"
    value {
      s: "tensor_12_id_196240_module/model/60/rotary_emb/aten__mul  |  Sizes = [284,128]  |  bf16  |  expBias = 0, scale = 1  |    |  ModelParam = 0  |  strides = [72704, 256, 2]  |  data = 0, sizeInBytes = 72704  |  "
    }
  }
}
node {
  name: "module/model/60/expand_dims/4775"
  op: "ExpandDims"
  input: "module/model/60/rotary_emb/mult_fwd_bf16/4774"
  attr {
    key: "Bundle_idx"
    value {
      s: "N/A"
    }
  }
  attr {
    key: "Exec_idx"
    value {
      s: "15"
    }
  }
  attr {
    key: "Op_idx"
    value {
      s: "N/A"
    }
  }
  attr {
    key: "inputTensor:0"
    value {
      s: "tensor_12_id_196240_module/model/60/rotary_emb/aten__mul  |  Sizes = [284,128]  |  bf16  |  expBias = 0, scale = 1  |    |  ModelParam = 0  |  strides = [72704, 256, 2]  |  data = 0, sizeInBytes = 72704  |  "
    }
  }
  attr {
    key: "outputTensor:0"
    value {
      s: "tensor_14_id_196262_module/model/60/aten__unsqueeze  |  Sizes = [1,284,128]  |  bf16  |  expBias = 0, scale = 1  |    |  ModelParam = 0  |  strides = [72704, 72704, 256, 2]  |  data = 0, sizeInBytes = 72704  |  "
    }
  }
}
node {
  name: "module/model/60/expand_dims/4776"
  op: "ExpandDims"
  input: "module/model/60/expand_dims/4775"
  attr {
    key: "Bundle_idx"
    value {
      s: "N/A"
    }
  }
  attr {
    key: "Exec_idx"
    value {
      s: "16"
    }
  }
  attr {
    key: "Op_idx"
    value {
      s: "N/A"
    }
  }
  attr {
    key: "inputTensor:0"
    value {
      s: "tensor_14_id_196262_module/model/60/aten__unsqueeze  |  Sizes = [1,284,128]  |  bf16  |  expBias = 0, scale = 1  |    |  ModelParam = 0  |  strides = [72704, 72704, 256, 2]  |  data = 0, sizeInBytes = 72704  |  "
    }
  }
  attr {
    key: "outputTensor:0"
    value {
      s: "tensor_15_id_196264_module/model/60/aten__unsqueeze  |  Sizes = [1,1,284,128]  |  bf16  |  expBias = 0, scale = 1  |    |  ModelParam = 0  |  strides = [72704, 72704, 72704, 256, 2]  |  data = 0, sizeInBytes = 72704  |  "
    }
  }
}
node {
  name: "module/model/60/identity/4777"
  op: "Identity"
  input: "module/model/60/expand_dims/4776"
  attr {
    key: "Bundle_idx"
    value {
      s: "N/A"
    }
  }
  attr {
    key: "Exec_idx"
    value {
      s: "17"
    }
  }
  attr {
    key: "Op_idx"
    value {
      s: "N/A"
    }
  }
  attr {
    key: "inputTensor:0"
    value {
      s: "tensor_15_id_196264_module/model/60/aten__unsqueeze  |  Sizes = [1,1,284,128]  |  bf16  |  expBias = 0, scale = 1  |    |  ModelParam = 0  |  strides = [72704, 72704, 72704, 256, 2]  |  data = 0, sizeInBytes = 72704  |  "
    }
  }
  attr {
    key: "outputTensor:0"
    value {
      s: "tensor_16_id_196266_module/model/60/aten__clone  |  Sizes = [1,1,284,128]  |  bf16  |  expBias = 0, scale = 1  |    |  ModelParam = 0  |  strides = [72704, 72704, 72704, 256, 2]  |  data = 0, sizeInBytes = 72704  |  "
    }
  }
}
node {
  name: "module/model/60/rotary_emb/mult_fwd_bf16/4780"
  op: "mult_fwd_bf16"
  input: "module/model/60/rotary_emb/slice/4778"
  input: "module/model/60/rotary_emb/cast_f32_to_bf16/4779"
  attr {
    key: "Bundle_idx"
    value {
      s: "N/A"
    }
  }
  attr {
    key: "Exec_idx"
    value {
      s: "18"
    }
  }
  attr {
    key: "Op_idx"
    value {
      s: "N/A"
    }
  }
  attr {
    key: "inputTensor:0"
    value {
      s: "tensor_18_id_196242_module/model/60/rotary_emb/aten__slice  |  Sizes = [284,128]  |  bf16  |  expBias = 0, scale = 1  |    |  ModelParam = 0  |  strides = [72704, 256, 2]  |  data = 0, sizeInBytes = 72704  |  "
    }
  }
  attr {
    key: "inputTensor:1"
    value {
      s: "tensor_20  |  Sizes = [1]  |  bf16  |  expBias = 0, scale = 1  |    |  ModelParam = 0  |  strides = [2, 2]  |  data = 0, sizeInBytes = 2  |  "
    }
  }
  attr {
    key: "outputTensor:0"
    value {
      s: "tensor_19_id_196244_module/model/60/rotary_emb/aten__mul  |  Sizes = [284,128]  |  bf16  |  expBias = 0, scale = 1  |    |  ModelParam = 0  |  strides = [72704, 256, 2]  |  data = 0, sizeInBytes = 72704  |  "
    }
  }
}
node {
  name: "module/model/60/expand_dims/4781"
  op: "ExpandDims"
  input: "module/model/60/rotary_emb/mult_fwd_bf16/4780"
  attr {
    key: "Bundle_idx"
    value {
      s: "N/A"
    }
  }
  attr {
    key: "Exec_idx"
    value {
      s: "19"
    }
  }
  attr {
    key: "Op_idx"
    value {
      s: "N/A"
    }
  }
  attr {
    key: "inputTensor:0"
    value {
      s: "tensor_19_id_196244_module/model/60/rotary_emb/aten__mul  |  Sizes = [284,128]  |  bf16  |  expBias = 0, scale = 1  |    |  ModelParam = 0  |  strides = [72704, 256, 2]  |  data = 0, sizeInBytes = 72704  |  "
    }
  }
  attr {
    key: "outputTensor:0"
    value {
      s: "tensor_21_id_196268_module/model/60/aten__unsqueeze  |  Sizes = [1,284,128]  |  bf16  |  expBias = 0, scale = 1  |    |  ModelParam = 0  |  strides = [72704, 72704, 256, 2]  |  data = 0, sizeInBytes = 72704  |  "
    }
  }
}
node {
  name: "module/model/60/expand_dims/4782"
  op: "ExpandDims"
  input: "module/model/60/expand_dims/4781"
  attr {
    key: "Bundle_idx"
    value {
      s: "N/A"
    }
  }
  attr {
    key: "Exec_idx"
    value {
      s: "20"
    }
  }
  attr {
    key: "Op_idx"
    value {
      s: "N/A"
    }
  }
  attr {
    key: "inputTensor:0"
    value {
      s: "tensor_21_id_196268_module/model/60/aten__unsqueeze  |  Sizes = [1,284,128]  |  bf16  |  expBias = 0, scale = 1  |    |  ModelParam = 0  |  strides = [72704, 72704, 256, 2]  |  data = 0, sizeInBytes = 72704  |  "
    }
  }
  attr {
    key: "outputTensor:0"
    value {
      s: "tensor_22_id_196270_module/model/60/aten__unsqueeze  |  Sizes = [1,1,284,128]  |  bf16  |  expBias = 0, scale = 1  |    |  ModelParam = 0  |  strides = [72704, 72704, 72704, 256, 2]  |  data = 0, sizeInBytes = 72704  |  "
    }
  }
}
node {
  name: "module/model/60/identity/4783"
  op: "Identity"
  input: "module/model/60/expand_dims/4782"
  attr {
    key: "Bundle_idx"
    value {
      s: "N/A"
    }
  }
  attr {
    key: "Exec_idx"
    value {
      s: "21"
    }
  }
  attr {
    key: "Op_idx"
    value {
      s: "N/A"
    }
  }
  attr {
    key: "inputTensor:0"
    value {
      s: "tensor_22_id_196270_module/model/60/aten__unsqueeze  |  Sizes = [1,1,284,128]  |  bf16  |  expBias = 0, scale = 1  |    |  ModelParam = 0  |  strides = [72704, 72704, 72704, 256, 2]  |  data = 0, sizeInBytes = 72704  |  "
    }
  }
  attr {
    key: "outputTensor:0"
    value {
      s: "tensor_23_id_196272_module/model/60/aten__clone  |  Sizes = [1,1,284,128]  |  bf16  |  expBias = 0, scale = 1  |    |  ModelParam = 0  |  strides = [72704, 72704, 72704, 256, 2]  |  data = 0, sizeInBytes = 72704  |  "
    }
  }
}
node {
  name: "module/model/60/transpose/4788"
  op: "Transpose"
  input: "module/model/60/reshape/4787"
  attr {
    key: "Bundle_idx"
    value {
      s: "N/A"
    }
  }
  attr {
    key: "Exec_idx"
    value {
      s: "22"
    }
  }
  attr {
    key: "Op_idx"
    value {
      s: "N/A"
    }
  }
  attr {
    key: "Parameters"
    value {
      s: "permutation: (0,2,1,3)"
    }
  }
  attr {
    key: "inputTensor:0"
    value {
      s: "tensor_38_id_196230_module/model/60/aten__view  |  Sizes = [1,284,2,128]  |  bf16  |  expBias = 0, scale = 1  |    |  ModelParam = 0  |  strides = [145408, 145408, 512, 256, 2]  |  data = 0, sizeInBytes = 145408  |  "
    }
  }
  attr {
    key: "outputTensor:0"
    value {
      s: "tensor_39_id_196232_module/model/60/aten__transpose  |  Sizes = [1,2,284,128]  |  bf16  |  expBias = 0, scale = 1  |    |  ModelParam = 0  |  strides = [145408, 145408, 72704, 256, 2]  |  data = 0, sizeInBytes = 145408  |  "
    }
  }
}
node {
  name: "tensor_58_odule/model/60/v_proj/placeholder/1"
  op: "Placeholder"
  attr {
    key: "dtype"
    value {
      type: DT_INVALID
    }
  }
  attr {
    key: "shape"
    value {
      shape {
        dim {
          size: 256
        }
        dim {
          size: 8192
        }
        dim {
          size: 1
        }
        dim {
          size: 1
        }
        dim {
          size: 1
        }
      }
    }
  }
  attr {
    key: "synDataType"
    value {
      s: "hfloat8"
    }
  }
}
node {
  name: "tensor_59_odule/model/60/v_proj/placeholder/2"
  op: "Placeholder"
  attr {
    key: "dtype"
    value {
      type: DT_BFLOAT16
    }
  }
  attr {
    key: "shape"
    value {
      shape {
        dim {
          size: 1
        }
        dim {
          size: 1
        }
        dim {
          size: 1
        }
        dim {
          size: 1
        }
        dim {
          size: 1
        }
      }
    }
  }
  attr {
    key: "synDataType"
    value {
      s: "bf16"
    }
  }
}
node {
  name: "tensor_60_odule/model/60/v_proj/placeholder/3"
  op: "Placeholder"
  attr {
    key: "dtype"
    value {
      type: DT_BFLOAT16
    }
  }
  attr {
    key: "shape"
    value {
      shape {
        dim {
          size: 1
        }
        dim {
          size: 1
        }
        dim {
          size: 1
        }
        dim {
          size: 1
        }
        dim {
          size: 1
        }
      }
    }
  }
  attr {
    key: "synDataType"
    value {
      s: "bf16"
    }
  }
}
node {
  name: "module/model/60/v_proj/fp8_gemm_bf16/4795"
  op: "fp8_gemm_bf16"
  input: "module/model/60/v_proj/quant_input_0/convert_to_fp8_bf16/4794"
  input: "tensor_58_odule/model/60/v_proj/placeholder/1"
  input: "tensor_59_odule/model/60/v_proj/placeholder/2"
  input: "tensor_60_odule/model/60/v_proj/placeholder/3"
  input: "unused_port"
  input: "unused_port"
  input: "unused_port"
  attr {
    key: "Bundle_idx"
    value {
      s: "N/A"
    }
  }
  attr {
    key: "Exec_idx"
    value {
      s: "23"
    }
  }
  attr {
    key: "Op_idx"
    value {
      s: "N/A"
    }
  }
  attr {
    key: "inputTensor:0"
    value {
      s: "tensor_57  |  Sizes = [1,284,8192]  |  hfloat8  |  expBias = 7, scale = 1  |    |  ModelParam = 0  |  strides = [2326528, 2326528, 8192, 1]  |  data = 0, sizeInBytes = 2326528  |  "
    }
  }
  attr {
    key: "inputTensor:1"
    value {
      s: "tensor_58_odule/model/60/v_proj/placeholder/1  |  Sizes = [8192,256]  |  hfloat8  |  expBias = 7, scale = 1  |    |  ModelParam = 0  |  strides = [2097152, 256, 1]  |  data = 0, sizeInBytes = 2097152  |  isPersistent  |  userMemorySection(type=Persistent, id=22)  |  "
    }
  }
  attr {
    key: "inputTensor:2"
    value {
      s: "tensor_59_odule/model/60/v_proj/placeholder/2  |  Sizes = [1]  |  bf16  |  expBias = 0, scale = 1  |    |  ModelParam = 0  |  strides = [2, 2]  |  data = 0x55afc56c7bc8, sizeInBytes = 2  |  buffer = 1  |  isPersistent  |  userMemorySection(type=Persistent, id=23)  |  isStaticParam  |  bufferDtype=bf16  |  "
    }
  }
  attr {
    key: "inputTensor:3"
    value {
      s: "tensor_60_odule/model/60/v_proj/placeholder/3  |  Sizes = [1]  |  bf16  |  expBias = 0, scale = 1  |    |  ModelParam = 0  |  strides = [2, 2]  |  data = 0x55afbc118220, sizeInBytes = 2  |  buffer = 0.00390625  |  isPersistent  |  userMemorySection(type=Persistent, id=24)  |  isStaticParam  |  bufferDtype=bf16  |  "
    }
  }
  attr {
    key: "outputTensor:0"
    value {
      s: "tensor_62  |  Sizes = [1,284,256]  |  bf16  |  expBias = 0, scale = 1  |    |  ModelParam = 0  |  strides = [145408, 145408, 512, 2]  |  data = 0, sizeInBytes = 145408  |  "
    }
  }
}
node {
  name: "module/model/60/quant_input_0/reshape/4796"
  op: "Reshape"
  input: "module/model/60/v_proj/fp8_gemm_bf16/4795"
  attr {
    key: "Bundle_idx"
    value {
      s: "N/A"
    }
  }
  attr {
    key: "Exec_idx"
    value {
      s: "24"
    }
  }
  attr {
    key: "Op_idx"
    value {
      s: "N/A"
    }
  }
  attr {
    key: "inputTensor:0"
    value {
      s: "tensor_62  |  Sizes = [1,284,256]  |  bf16  |  expBias = 0, scale = 1  |    |  ModelParam = 0  |  strides = [145408, 145408, 512, 2]  |  data = 0, sizeInBytes = 145408  |  "
    }
  }
  attr {
    key: "outputTensor:0"
    value {
      s: "tensor_63_id_196234_module/model/60/quant_input_0/aten__view  |  Sizes = [1,284,2,128]  |  bf16  |  expBias = 0, scale = 1  |    |  ModelParam = 0  |  strides = [145408, 145408, 512, 256, 2]  |  data = 0, sizeInBytes = 145408  |  "
    }
  }
}
node {
  name: "tensor_91_odule/model/60/q_proj/quant_input_0/placeholder/1"
  op: "Placeholder"
  attr {
    key: "dtype"
    value {
      type: DT_BFLOAT16
    }
  }
  attr {
    key: "shape"
    value {
      shape {
        dim {
          size: 1
        }
        dim {
          size: 1
        }
        dim {
          size: 1
        }
        dim {
          size: 1
        }
        dim {
          size: 1
        }
      }
    }
  }
  attr {
    key: "synDataType"
    value {
      s: "bf16"
    }
  }
}
node {
  name: "module/model/60/q_proj/quant_input_0/convert_to_fp8_bf16/4812"
  op: "convert_to_fp8_bf16"
  input: "module/model/60/input_layernorm/rms_norm_ex_fwd_bf16/4784"
  input: "tensor_91_odule/model/60/q_proj/quant_input_0/placeholder/1"
  attr {
    key: "Bundle_idx"
    value {
      s: "N/A"
    }
  }
  attr {
    key: "Exec_idx"
    value {
      s: "25"
    }
  }
  attr {
    key: "Op_idx"
    value {
      s: "N/A"
    }
  }
  attr {
    key: "inputTensor:0"
    value {
      s: "tensor_27  |  Sizes = [1,284,8192]  |  bf16  |  expBias = 0, scale = 1  |    |  ModelParam = 0  |  strides = [4653056, 4653056, 16384, 2]  |  data = 0, sizeInBytes = 4653056  |  "
    }
  }
  attr {
    key: "inputTensor:1"
    value {
      s: "tensor_91_odule/model/60/q_proj/quant_input_0/placeholder/1  |  Sizes = [1]  |  bf16  |  expBias = 0, scale = 1  |    |  ModelParam = 0  |  strides = [2, 2]  |  data = 0x55afc56c6790, sizeInBytes = 2  |  buffer = 1  |  isPersistent  |  userMemorySection(type=Persistent, id=32)  |  isStaticParam  |  bufferDtype=bf16  |  "
    }
  }
  attr {
    key: "outputTensor:0"
    value {
      s: "tensor_94  |  Sizes = [1,284,8192]  |  hfloat8  |  expBias = 7, scale = 1  |    |  ModelParam = 0  |  strides = [2326528, 2326528, 8192, 1]  |  data = 0, sizeInBytes = 2326528  |  "
    }
  }
}
node {
  name: "module/model/60/rotary_pos_embedding_fwd_bf16/4789"
  op: "rotary_pos_embedding_fwd_bf16"
  input: "module/model/60/transpose/4788"
  input: "module/model/60/identity/4783"
  input: "module/model/60/identity/4777"
  input: "module/model/60/expand_dims/4771"
  attr {
    key: "Bundle_idx"
    value {
      s: "N/A"
    }
  }
  attr {
    key: "Exec_idx"
    value {
      s: "26"
    }
  }
  attr {
    key: "Op_idx"
    value {
      s: "N/A"
    }
  }
  attr {
    key: "inputTensor:0"
    value {
      s: "tensor_39_id_196232_module/model/60/aten__transpose  |  Sizes = [1,2,284,128]  |  bf16  |  expBias = 0, scale = 1  |    |  ModelParam = 0  |  strides = [145408, 145408, 72704, 256, 2]  |  data = 0, sizeInBytes = 145408  |  "
    }
  }
  attr {
    key: "inputTensor:1"
    value {
      s: "tensor_23_id_196272_module/model/60/aten__clone  |  Sizes = [1,1,284,128]  |  bf16  |  expBias = 0, scale = 1  |    |  ModelParam = 0  |  strides = [72704, 72704, 72704, 256, 2]  |  data = 0, sizeInBytes = 72704  |  "
    }
  }
  attr {
    key: "inputTensor:2"
    value {
      s: "tensor_16_id_196266_module/model/60/aten__clone  |  Sizes = [1,1,284,128]  |  bf16  |  expBias = 0, scale = 1  |    |  ModelParam = 0  |  strides = [72704, 72704, 72704, 256, 2]  |  data = 0, sizeInBytes = 72704  |  "
    }
  }
  attr {
    key: "inputTensor:3"
    value {
      s: "tensor_8_id_196120_module/model/60/aten__unsqueeze/1  |  Sizes = [1,284]  |  int32  |  expBias = 0, scale = 1  |    |  ModelParam = 0  |  strides = [1136, 1136, 4]  |  data = 0, sizeInBytes = 1136  |  "
    }
  }
  attr {
    key: "outputTensor:0"
    value {
      s: "tensor_41  |  Sizes = [1,2,284,128]  |  bf16  |  expBias = 0, scale = 1  |    |  ModelParam = 0  |  strides = [145408, 145408, 72704, 256, 2]  |  data = 0, sizeInBytes = 145408  |  "
    }
  }
}
node {
  name: "module/model/60/quant_input_0/transpose/4797"
  op: "Transpose"
  input: "module/model/60/quant_input_0/reshape/4796"
  attr {
    key: "Bundle_idx"
    value {
      s: "N/A"
    }
  }
  attr {
    key: "Exec_idx"
    value {
      s: "27"
    }
  }
  attr {
    key: "Op_idx"
    value {
      s: "N/A"
    }
  }
  attr {
    key: "Parameters"
    value {
      s: "permutation: (0,2,1,3)"
    }
  }
  attr {
    key: "inputTensor:0"
    value {
      s: "tensor_63_id_196234_module/model/60/quant_input_0/aten__view  |  Sizes = [1,284,2,128]  |  bf16  |  expBias = 0, scale = 1  |    |  ModelParam = 0  |  strides = [145408, 145408, 512, 256, 2]  |  data = 0, sizeInBytes = 145408  |  "
    }
  }
  attr {
    key: "outputTensor:0"
    value {
      s: "tensor_64_id_196236_module/model/60/quant_input_0/aten__transpose  |  Sizes = [1,2,284,128]  |  bf16  |  expBias = 0, scale = 1  |    |  ModelParam = 0  |  strides = [145408, 145408, 72704, 256, 2]  |  data = 0, sizeInBytes = 145408  |  "
    }
  }
}
node {
  name: "tensor_95_odule/model/60/q_proj/placeholder/1"
  op: "Placeholder"
  attr {
    key: "dtype"
    value {
      type: DT_INVALID
    }
  }
  attr {
    key: "shape"
    value {
      shape {
        dim {
          size: 2048
        }
        dim {
          size: 8192
        }
        dim {
          size: 1
        }
        dim {
          size: 1
        }
        dim {
          size: 1
        }
      }
    }
  }
  attr {
    key: "synDataType"
    value {
      s: "hfloat8"
    }
  }
}
node {
  name: "tensor_96_odule/model/60/q_proj/placeholder/2"
  op: "Placeholder"
  attr {
    key: "dtype"
    value {
      type: DT_BFLOAT16
    }
  }
  attr {
    key: "shape"
    value {
      shape {
        dim {
          size: 1
        }
        dim {
          size: 1
        }
        dim {
          size: 1
        }
        dim {
          size: 1
        }
        dim {
          size: 1
        }
      }
    }
  }
  attr {
    key: "synDataType"
    value {
      s: "bf16"
    }
  }
}
node {
  name: "tensor_97_odule/model/60/q_proj/placeholder/3"
  op: "Placeholder"
  attr {
    key: "dtype"
    value {
      type: DT_BFLOAT16
    }
  }
  attr {
    key: "shape"
    value {
      shape {
        dim {
          size: 1
        }
        dim {
          size: 1
        }
        dim {
          size: 1
        }
        dim {
          size: 1
        }
        dim {
          size: 1
        }
      }
    }
  }
  attr {
    key: "synDataType"
    value {
      s: "bf16"
    }
  }
}
node {
  name: "module/model/60/q_proj/fp8_gemm_bf16/4813"
  op: "fp8_gemm_bf16"
  input: "module/model/60/q_proj/quant_input_0/convert_to_fp8_bf16/4812"
  input: "tensor_95_odule/model/60/q_proj/placeholder/1"
  input: "tensor_96_odule/model/60/q_proj/placeholder/2"
  input: "tensor_97_odule/model/60/q_proj/placeholder/3"
  input: "unused_port"
  input: "unused_port"
  input: "unused_port"
  attr {
    key: "Bundle_idx"
    value {
      s: "N/A"
    }
  }
  attr {
    key: "Exec_idx"
    value {
      s: "28"
    }
  }
  attr {
    key: "Op_idx"
    value {
      s: "N/A"
    }
  }
  attr {
    key: "inputTensor:0"
    value {
      s: "tensor_94  |  Sizes = [1,284,8192]  |  hfloat8  |  expBias = 7, scale = 1  |    |  ModelParam = 0  |  strides = [2326528, 2326528, 8192, 1]  |  data = 0, sizeInBytes = 2326528  |  "
    }
  }
  attr {
    key: "inputTensor:1"
    value {
      s: "tensor_95_odule/model/60/q_proj/placeholder/1  |  Sizes = [8192,2048]  |  hfloat8  |  expBias = 7, scale = 1  |    |  ModelParam = 0  |  strides = [16777216, 2048, 1]  |  data = 0, sizeInBytes = 16777216  |  isPersistent  |  userMemorySection(type=Persistent, id=33)  |  "
    }
  }
  attr {
    key: "inputTensor:2"
    value {
      s: "tensor_96_odule/model/60/q_proj/placeholder/2  |  Sizes = [1]  |  bf16  |  expBias = 0, scale = 1  |    |  ModelParam = 0  |  strides = [2, 2]  |  data = 0x55afc5e198a0, sizeInBytes = 2  |  buffer = 1  |  isPersistent  |  userMemorySection(type=Persistent, id=34)  |  isStaticParam  |  bufferDtype=bf16  |  "
    }
  }
  attr {
    key: "inputTensor:3"
    value {
      s: "tensor_97_odule/model/60/q_proj/placeholder/3  |  Sizes = [1]  |  bf16  |  expBias = 0, scale = 1  |    |  ModelParam = 0  |  strides = [2, 2]  |  data = 0x55afc2741678, sizeInBytes = 2  |  buffer = 0.00390625  |  isPersistent  |  userMemorySection(type=Persistent, id=35)  |  isStaticParam  |  bufferDtype=bf16  |  "
    }
  }
  attr {
    key: "outputTensor:0"
    value {
      s: "tensor_99  |  Sizes = [1,284,2048]  |  bf16  |  expBias = 0, scale = 1  |    |  ModelParam = 0  |  strides = [1163264, 1163264, 4096, 2]  |  data = 0, sizeInBytes = 1163264  |  "
    }
  }
}
node {
  name: "module/model/60/reshape/4814"
  op: "Reshape"
  input: "module/model/60/q_proj/fp8_gemm_bf16/4813"
  attr {
    key: "Bundle_idx"
    value {
      s: "N/A"
    }
  }
  attr {
    key: "Exec_idx"
    value {
      s: "29"
    }
  }
  attr {
    key: "Op_idx"
    value {
      s: "N/A"
    }
  }
  attr {
    key: "inputTensor:0"
    value {
      s: "tensor_99  |  Sizes = [1,284,2048]  |  bf16  |  expBias = 0, scale = 1  |    |  ModelParam = 0  |  strides = [1163264, 1163264, 4096, 2]  |  data = 0, sizeInBytes = 1163264  |  "
    }
  }
  attr {
    key: "outputTensor:0"
    value {
      s: "tensor_100_id_196226_module/model/60/aten__view  |  Sizes = [1,284,16,128]  |  bf16  |  expBias = 0, scale = 1  |    |  ModelParam = 0  |  strides = [1163264, 1163264, 4096, 256, 2]  |  data = 0, sizeInBytes = 1163264  |  "
    }
  }
}
node {
  name: "tensor_42_odule/model/60/quant_input_0/placeholder/1"
  op: "Placeholder"
  attr {
    key: "dtype"
    value {
      type: DT_BFLOAT16
    }
  }
  attr {
    key: "shape"
    value {
      shape {
        dim {
          size: 1
        }
        dim {
          size: 1
        }
        dim {
          size: 1
        }
        dim {
          size: 1
        }
        dim {
          size: 1
        }
      }
    }
  }
  attr {
    key: "synDataType"
    value {
      s: "bf16"
    }
  }
}
node {
  name: "module/model/60/quant_input_0/convert_to_fp8_bf16/4790"
  op: "convert_to_fp8_bf16"
  input: "module/model/60/rotary_pos_embedding_fwd_bf16/4789"
  input: "tensor_42_odule/model/60/quant_input_0/placeholder/1"
  attr {
    key: "Bundle_idx"
    value {
      s: "N/A"
    }
  }
  attr {
    key: "Exec_idx"
    value {
      s: "30"
    }
  }
  attr {
    key: "Op_idx"
    value {
      s: "N/A"
    }
  }
  attr {
    key: "inputTensor:0"
    value {
      s: "tensor_41  |  Sizes = [1,2,284,128]  |  bf16  |  expBias = 0, scale = 1  |    |  ModelParam = 0  |  strides = [145408, 145408, 72704, 256, 2]  |  data = 0, sizeInBytes = 145408  |  "
    }
  }
  attr {
    key: "inputTensor:1"
    value {
      s: "tensor_42_odule/model/60/quant_input_0/placeholder/1  |  Sizes = [1]  |  bf16  |  expBias = 0, scale = 1  |    |  ModelParam = 0  |  strides = [2, 2]  |  data = 0x55afcc957670, sizeInBytes = 2  |  buffer = 1  |  isPersistent  |  userMemorySection(type=Persistent, id=16)  |  isStaticParam  |  bufferDtype=bf16  |  "
    }
  }
  attr {
    key: "outputTensor:0"
    value {
      s: "tensor_45  |  Sizes = [1,2,284,128]  |  hfloat8  |  expBias = 7, scale = 1  |    |  ModelParam = 0  |  strides = [72704, 72704, 36352, 128, 1]  |  data = 0, sizeInBytes = 72704  |  "
    }
  }
}
node {
  name: "tensor_65_odule/model/60/quant_input_0/placeholder/1"
  op: "Placeholder"
  attr {
    key: "dtype"
    value {
      type: DT_BFLOAT16
    }
  }
  attr {
    key: "shape"
    value {
      shape {
        dim {
          size: 1
        }
        dim {
          size: 1
        }
        dim {
          size: 1
        }
        dim {
          size: 1
        }
        dim {
          size: 1
        }
      }
    }
  }
  attr {
    key: "synDataType"
    value {
      s: "bf16"
    }
  }
}
node {
  name: "module/model/60/quant_input_0/convert_to_fp8_bf16/4798"
  op: "convert_to_fp8_bf16"
  input: "module/model/60/quant_input_0/transpose/4797"
  input: "tensor_65_odule/model/60/quant_input_0/placeholder/1"
  attr {
    key: "Bundle_idx"
    value {
      s: "N/A"
    }
  }
  attr {
    key: "Exec_idx"
    value {
      s: "31"
    }
  }
  attr {
    key: "Op_idx"
    value {
      s: "N/A"
    }
  }
  attr {
    key: "inputTensor:0"
    value {
      s: "tensor_64_id_196236_module/model/60/quant_input_0/aten__transpose  |  Sizes = [1,2,284,128]  |  bf16  |  expBias = 0, scale = 1  |    |  ModelParam = 0  |  strides = [145408, 145408, 72704, 256, 2]  |  data = 0, sizeInBytes = 145408  |  "
    }
  }
  attr {
    key: "inputTensor:1"
    value {
      s: "tensor_65_odule/model/60/quant_input_0/placeholder/1  |  Sizes = [1]  |  bf16  |  expBias = 0, scale = 1  |    |  ModelParam = 0  |  strides = [2, 2]  |  data = 0x55afcd383e58, sizeInBytes = 2  |  buffer = 16  |  isPersistent  |  userMemorySection(type=Persistent, id=25)  |  isStaticParam  |  bufferDtype=bf16  |  "
    }
  }
  attr {
    key: "outputTensor:0"
    value {
      s: "tensor_68  |  Sizes = [1,2,284,128]  |  hfloat8  |  expBias = 7, scale = 1  |    |  ModelParam = 0  |  strides = [72704, 72704, 36352, 128, 1]  |  data = 0, sizeInBytes = 72704  |  "
    }
  }
}
node {
  name: "module/model/60/fused_scaled_dot_product_attention/slice/4803"
  op: "Slice"
  input: "module/model/60/fused_scaled_dot_product_attention/expand_dims/4802"
  attr {
    key: "Bundle_idx"
    value {
      s: "N/A"
    }
  }
  attr {
    key: "Exec_idx"
    value {
      s: "32"
    }
  }
  attr {
    key: "Op_idx"
    value {
      s: "N/A"
    }
  }
  attr {
    key: "inputTensor:0"
    value {
      s: "tensor_75_id_196122_module/model/60/fused_scaled_dot_product_attention/aten__unsqueeze  |  Sizes = [1,1,284,284]  |  bf16  |  expBias = 0, scale = 1  |    |  ModelParam = 0  |  strides = [161312, 161312, 161312, 568, 2]  |  data = 0, sizeInBytes = 161312  |  "
    }
  }
  attr {
    key: "outputTensor:0"
    value {
      s: "tensor_76_id_196123_module/model/60/fused_scaled_dot_product_attention/aten__slice  |  Sizes = [1,1,284,284]  |  bf16  |  expBias = 0, scale = 1  |    |  ModelParam = 0  |  strides = [161312, 161312, 161312, 568, 2]  |  data = 0, sizeInBytes = 161312  |  "
    }
  }
}
node {
  name: "module/model/60/transpose/4815"
  op: "Transpose"
  input: "module/model/60/reshape/4814"
  attr {
    key: "Bundle_idx"
    value {
      s: "N/A"
    }
  }
  attr {
    key: "Exec_idx"
    value {
      s: "33"
    }
  }
  attr {
    key: "Op_idx"
    value {
      s: "N/A"
    }
  }
  attr {
    key: "Parameters"
    value {
      s: "permutation: (0,2,1,3)"
    }
  }
  attr {
    key: "inputTensor:0"
    value {
      s: "tensor_100_id_196226_module/model/60/aten__view  |  Sizes = [1,284,16,128]  |  bf16  |  expBias = 0, scale = 1  |    |  ModelParam = 0  |  strides = [1163264, 1163264, 4096, 256, 2]  |  data = 0, sizeInBytes = 1163264  |  "
    }
  }
  attr {
    key: "outputTensor:0"
    value {
      s: "tensor_101_id_196228_module/model/60/aten__transpose  |  Sizes = [1,16,284,128]  |  bf16  |  expBias = 0, scale = 1  |    |  ModelParam = 0  |  strides = [1163264, 1163264, 72704, 256, 2]  |  data = 0, sizeInBytes = 1163264  |  "
    }
  }
}
node {
  name: "tensor_47_odule/model/60/quant_output/placeholder/1"
  op: "Placeholder"
  attr {
    key: "dtype"
    value {
      type: DT_BFLOAT16
    }
  }
  attr {
    key: "shape"
    value {
      shape {
        dim {
          size: 1
        }
        dim {
          size: 1
        }
        dim {
          size: 1
        }
        dim {
          size: 1
        }
        dim {
          size: 1
        }
      }
    }
  }
  attr {
    key: "synDataType"
    value {
      s: "bf16"
    }
  }
}
node {
  name: "module/model/60/quant_output/convert_from_fp8_bf16/4792"
  op: "convert_from_fp8_bf16"
  input: "module/model/60/quant_input_0/convert_to_fp8_bf16/4790"
  input: "tensor_47_odule/model/60/quant_output/placeholder/1"
  attr {
    key: "Bundle_idx"
    value {
      s: "N/A"
    }
  }
  attr {
    key: "Exec_idx"
    value {
      s: "34"
    }
  }
  attr {
    key: "Op_idx"
    value {
      s: "N/A"
    }
  }
  attr {
    key: "inputTensor:0"
    value {
      s: "tensor_45  |  Sizes = [1,2,284,128]  |  hfloat8  |  expBias = 7, scale = 1  |    |  ModelParam = 0  |  strides = [72704, 72704, 36352, 128, 1]  |  data = 0, sizeInBytes = 72704  |  "
    }
  }
  attr {
    key: "inputTensor:1"
    value {
      s: "tensor_47_odule/model/60/quant_output/placeholder/1  |  Sizes = [1]  |  bf16  |  expBias = 0, scale = 1  |    |  ModelParam = 0  |  strides = [2, 2]  |  data = 0x55afcd383ef0, sizeInBytes = 2  |  buffer = 1  |  isPersistent  |  userMemorySection(type=Persistent, id=17)  |  isStaticParam  |  bufferDtype=bf16  |  "
    }
  }
  attr {
    key: "outputTensor:0"
    value {
      s: "tensor_49  |  Sizes = [1,2,284,128]  |  bf16  |  expBias = 0, scale = 1  |    |  ModelParam = 0  |  strides = [145408, 145408, 72704, 256, 2]  |  data = 0, sizeInBytes = 145408  |  isPersistent  |  userMemorySection(type=Persistent, id=19)  |  "
    }
  }
}
node {
  name: "tensor_70_odule/model/60/quant_output/placeholder/1"
  op: "Placeholder"
  attr {
    key: "dtype"
    value {
      type: DT_BFLOAT16
    }
  }
  attr {
    key: "shape"
    value {
      shape {
        dim {
          size: 1
        }
        dim {
          size: 1
        }
        dim {
          size: 1
        }
        dim {
          size: 1
        }
        dim {
          size: 1
        }
      }
    }
  }
  attr {
    key: "synDataType"
    value {
      s: "bf16"
    }
  }
}
node {
  name: "module/model/60/quant_output/convert_from_fp8_bf16/4800"
  op: "convert_from_fp8_bf16"
  input: "module/model/60/quant_input_0/convert_to_fp8_bf16/4798"
  input: "tensor_70_odule/model/60/quant_output/placeholder/1"
  attr {
    key: "Bundle_idx"
    value {
      s: "N/A"
    }
  }
  attr {
    key: "Exec_idx"
    value {
      s: "35"
    }
  }
  attr {
    key: "Op_idx"
    value {
      s: "N/A"
    }
  }
  attr {
    key: "inputTensor:0"
    value {
      s: "tensor_68  |  Sizes = [1,2,284,128]  |  hfloat8  |  expBias = 7, scale = 1  |    |  ModelParam = 0  |  strides = [72704, 72704, 36352, 128, 1]  |  data = 0, sizeInBytes = 72704  |  "
    }
  }
  attr {
    key: "inputTensor:1"
    value {
      s: "tensor_70_odule/model/60/quant_output/placeholder/1  |  Sizes = [1]  |  bf16  |  expBias = 0, scale = 1  |    |  ModelParam = 0  |  strides = [2, 2]  |  data = 0x55afcc9c03b0, sizeInBytes = 2  |  buffer = 0.0625  |  isPersistent  |  userMemorySection(type=Persistent, id=26)  |  isStaticParam  |  bufferDtype=bf16  |  "
    }
  }
  attr {
    key: "outputTensor:0"
    value {
      s: "tensor_72  |  Sizes = [1,2,284,128]  |  bf16  |  expBias = 0, scale = 1  |    |  ModelParam = 0  |  strides = [145408, 145408, 72704, 256, 2]  |  data = 0, sizeInBytes = 145408  |  isPersistent  |  userMemorySection(type=Persistent, id=28)  |  "
    }
  }
}
node {
  name: "module/model/60/fused_scaled_dot_product_attention/slice/4804"
  op: "Slice"
  input: "module/model/60/fused_scaled_dot_product_attention/slice/4803"
  attr {
    key: "Bundle_idx"
    value {
      s: "N/A"
    }
  }
  attr {
    key: "Exec_idx"
    value {
      s: "36"
    }
  }
  attr {
    key: "Op_idx"
    value {
      s: "N/A"
    }
  }
  attr {
    key: "inputTensor:0"
    value {
      s: "tensor_76_id_196123_module/model/60/fused_scaled_dot_product_attention/aten__slice  |  Sizes = [1,1,284,284]  |  bf16  |  expBias = 0, scale = 1  |    |  ModelParam = 0  |  strides = [161312, 161312, 161312, 568, 2]  |  data = 0, sizeInBytes = 161312  |  "
    }
  }
  attr {
    key: "outputTensor:0"
    value {
      s: "tensor_77_id_196124_module/model/60/fused_scaled_dot_product_attention/aten__slice  |  Sizes = [1,1,284,284]  |  bf16  |  expBias = 0, scale = 1  |    |  ModelParam = 0  |  strides = [161312, 161312, 161312, 568, 2]  |  data = 0, sizeInBytes = 161312  |  "
    }
  }
}
node {
  name: "module/model/60/rotary_pos_embedding_fwd_bf16/4816"
  op: "rotary_pos_embedding_fwd_bf16"
  input: "module/model/60/transpose/4815"
  input: "module/model/60/identity/4783"
  input: "module/model/60/identity/4777"
  input: "module/model/60/expand_dims/4811"
  attr {
    key: "Bundle_idx"
    value {
      s: "N/A"
    }
  }
  attr {
    key: "Exec_idx"
    value {
      s: "37"
    }
  }
  attr {
    key: "Op_idx"
    value {
      s: "N/A"
    }
  }
  attr {
    key: "inputTensor:0"
    value {
      s: "tensor_101_id_196228_module/model/60/aten__transpose  |  Sizes = [1,16,284,128]  |  bf16  |  expBias = 0, scale = 1  |    |  ModelParam = 0  |  strides = [1163264, 1163264, 72704, 256, 2]  |  data = 0, sizeInBytes = 1163264  |  "
    }
  }
  attr {
    key: "inputTensor:1"
    value {
      s: "tensor_23_id_196272_module/model/60/aten__clone  |  Sizes = [1,1,284,128]  |  bf16  |  expBias = 0, scale = 1  |    |  ModelParam = 0  |  strides = [72704, 72704, 72704, 256, 2]  |  data = 0, sizeInBytes = 72704  |  "
    }
  }
  attr {
    key: "inputTensor:2"
    value {
      s: "tensor_16_id_196266_module/model/60/aten__clone  |  Sizes = [1,1,284,128]  |  bf16  |  expBias = 0, scale = 1  |    |  ModelParam = 0  |  strides = [72704, 72704, 72704, 256, 2]  |  data = 0, sizeInBytes = 72704  |  "
    }
  }
  attr {
    key: "inputTensor:3"
    value {
      s: "tensor_90_id_196120_module/model/60/aten__unsqueeze  |  Sizes = [1,284]  |  int32  |  expBias = 0, scale = 1  |    |  ModelParam = 0  |  strides = [1136, 1136, 4]  |  data = 0, sizeInBytes = 1136  |  "
    }
  }
  attr {
    key: "outputTensor:0"
    value {
      s: "tensor_103  |  Sizes = [1,16,284,128]  |  bf16  |  expBias = 0, scale = 1  |    |  ModelParam = 0  |  strides = [1163264, 1163264, 72704, 256, 2]  |  data = 0, sizeInBytes = 1163264  |  "
    }
  }
}
node {
  name: "module/model/60/fused_scaled_dot_product_attention/broadcast/4805"
  op: "Broadcast"
  input: "module/model/60/fused_scaled_dot_product_attention/slice/4804"
  attr {
    key: "Bundle_idx"
    value {
      s: "N/A"
    }
  }
  attr {
    key: "Exec_idx"
    value {
      s: "38"
    }
  }
  attr {
    key: "Op_idx"
    value {
      s: "N/A"
    }
  }
  attr {
    key: "inputTensor:0"
    value {
      s: "tensor_77_id_196124_module/model/60/fused_scaled_dot_product_attention/aten__slice  |  Sizes = [1,1,284,284]  |  bf16  |  expBias = 0, scale = 1  |    |  ModelParam = 0  |  strides = [161312, 161312, 161312, 568, 2]  |  data = 0, sizeInBytes = 161312  |  "
    }
  }
  attr {
    key: "outputTensor:0"
    value {
      s: "tensor_78_id_196125_module/model/60/fused_scaled_dot_product_attention/hpu__expand  |  Sizes = [1,1,284,284]  |  bf16  |  expBias = 0, scale = 1  |    |  ModelParam = 0  |  strides = [161312, 161312, 161312, 568, 2]  |  data = 0, sizeInBytes = 161312  |  "
    }
  }
}
node {
  name: "module/model/60/fused_scaled_dot_product_attention/expand_dims/4806"
  op: "ExpandDims"
  input: "module/model/60/fused_scaled_dot_product_attention/broadcast/4805"
  attr {
    key: "Bundle_idx"
    value {
      s: "N/A"
    }
  }
  attr {
    key: "Exec_idx"
    value {
      s: "39"
    }
  }
  attr {
    key: "Op_idx"
    value {
      s: "N/A"
    }
  }
  attr {
    key: "inputTensor:0"
    value {
      s: "tensor_78_id_196125_module/model/60/fused_scaled_dot_product_attention/hpu__expand  |  Sizes = [1,1,284,284]  |  bf16  |  expBias = 0, scale = 1  |    |  ModelParam = 0  |  strides = [161312, 161312, 161312, 568, 2]  |  data = 0, sizeInBytes = 161312  |  "
    }
  }
  attr {
    key: "outputTensor:0"
    value {
      s: "tensor_79_id_196347_module/model/60/fused_scaled_dot_product_attention/aten__unsqueeze  |  Sizes = [1,1,1,284,284]  |  bf16  |  expBias = 0, scale = 1  |    |  ModelParam = 0  |  strides = [161312, 161312, 161312, 161312, 568, 2]  |  data = 0, sizeInBytes = 161312  |  "
    }
  }
}
node {
  name: "tensor_80_odule/model/60/fused_scaled_dot_product_attention/quant_v/placeholder/1"
  op: "Placeholder"
  attr {
    key: "dtype"
    value {
      type: DT_BFLOAT16
    }
  }
  attr {
    key: "shape"
    value {
      shape {
        dim {
          size: 1
        }
        dim {
          size: 1
        }
        dim {
          size: 1
        }
        dim {
          size: 1
        }
        dim {
          size: 1
        }
      }
    }
  }
  attr {
    key: "synDataType"
    value {
      s: "bf16"
    }
  }
}
node {
  name: "module/model/60/fused_scaled_dot_product_attention/quant_v/convert_to_fp8_bf16/4807"
  op: "convert_to_fp8_bf16"
  input: "module/model/60/quant_output/convert_from_fp8_bf16/4800"
  input: "tensor_80_odule/model/60/fused_scaled_dot_product_attention/quant_v/placeholder/1"
  attr {
    key: "Bundle_idx"
    value {
      s: "N/A"
    }
  }
  attr {
    key: "Exec_idx"
    value {
      s: "40"
    }
  }
  attr {
    key: "Op_idx"
    value {
      s: "N/A"
    }
  }
  attr {
    key: "inputTensor:0"
    value {
      s: "tensor_72  |  Sizes = [1,2,284,128]  |  bf16  |  expBias = 0, scale = 1  |    |  ModelParam = 0  |  strides = [145408, 145408, 72704, 256, 2]  |  data = 0, sizeInBytes = 145408  |  isPersistent  |  userMemorySection(type=Persistent, id=28)  |  "
    }
  }
  attr {
    key: "inputTensor:1"
    value {
      s: "tensor_80_odule/model/60/fused_scaled_dot_product_attention/quant_v/placeholder/1  |  Sizes = [1]  |  bf16  |  expBias = 0, scale = 1  |    |  ModelParam = 0  |  strides = [2, 2]  |  data = 0x55afc41285d8, sizeInBytes = 2  |  buffer = 16  |  isPersistent  |  userMemorySection(type=Persistent, id=30)  |  isStaticParam  |  bufferDtype=bf16  |  "
    }
  }
  attr {
    key: "outputTensor:0"
    value {
      s: "tensor_83  |  Sizes = [1,2,284,128]  |  hfloat8  |  expBias = 7, scale = 1  |    |  ModelParam = 0  |  strides = [72704, 72704, 36352, 128, 1]  |  data = 0, sizeInBytes = 72704  |  "
    }
  }
}
node {
  name: "module/model/60/fused_scaled_dot_product_attention/reshape/4808"
  op: "Reshape"
  input: "module/model/60/fused_scaled_dot_product_attention/quant_v/convert_to_fp8_bf16/4807"
  attr {
    key: "Bundle_idx"
    value {
      s: "N/A"
    }
  }
  attr {
    key: "Exec_idx"
    value {
      s: "41"
    }
  }
  attr {
    key: "Op_idx"
    value {
      s: "N/A"
    }
  }
  attr {
    key: "inputTensor:0"
    value {
      s: "tensor_83  |  Sizes = [1,2,284,128]  |  hfloat8  |  expBias = 7, scale = 1  |    |  ModelParam = 0  |  strides = [72704, 72704, 36352, 128, 1]  |  data = 0, sizeInBytes = 72704  |  "
    }
  }
  attr {
    key: "outputTensor:0"
    value {
      s: "tensor_84_id_196345_module/model/60/fused_scaled_dot_product_attention/aten__view  |  Sizes = [1,2,1,284,128]  |  hfloat8  |  expBias = 7, scale = 1  |    |  ModelParam = 0  |  strides = [72704, 72704, 36352, 36352, 128, 1]  |  data = 0, sizeInBytes = 72704  |  "
    }
  }
}
node {
  name: "tensor_85_odule/model/60/fused_scaled_dot_product_attention/quant_k/placeholder/1"
  op: "Placeholder"
  attr {
    key: "dtype"
    value {
      type: DT_BFLOAT16
    }
  }
  attr {
    key: "shape"
    value {
      shape {
        dim {
          size: 1
        }
        dim {
          size: 1
        }
        dim {
          size: 1
        }
        dim {
          size: 1
        }
        dim {
          size: 1
        }
      }
    }
  }
  attr {
    key: "synDataType"
    value {
      s: "bf16"
    }
  }
}
node {
  name: "module/model/60/fused_scaled_dot_product_attention/quant_k/convert_to_fp8_bf16/4809"
  op: "convert_to_fp8_bf16"
  input: "module/model/60/quant_output/convert_from_fp8_bf16/4792"
  input: "tensor_85_odule/model/60/fused_scaled_dot_product_attention/quant_k/placeholder/1"
  attr {
    key: "Bundle_idx"
    value {
      s: "N/A"
    }
  }
  attr {
    key: "Exec_idx"
    value {
      s: "42"
    }
  }
  attr {
    key: "Op_idx"
    value {
      s: "N/A"
    }
  }
  attr {
    key: "inputTensor:0"
    value {
      s: "tensor_49  |  Sizes = [1,2,284,128]  |  bf16  |  expBias = 0, scale = 1  |    |  ModelParam = 0  |  strides = [145408, 145408, 72704, 256, 2]  |  data = 0, sizeInBytes = 145408  |  isPersistent  |  userMemorySection(type=Persistent, id=19)  |  "
    }
  }
  attr {
    key: "inputTensor:1"
    value {
      s: "tensor_85_odule/model/60/fused_scaled_dot_product_attention/quant_k/placeholder/1  |  Sizes = [1]  |  bf16  |  expBias = 0, scale = 1  |    |  ModelParam = 0  |  strides = [2, 2]  |  data = 0x55afc4129e20, sizeInBytes = 2  |  buffer = 1  |  isPersistent  |  userMemorySection(type=Persistent, id=31)  |  isStaticParam  |  bufferDtype=bf16  |  "
    }
  }
  attr {
    key: "outputTensor:0"
    value {
      s: "tensor_88  |  Sizes = [1,2,284,128]  |  hfloat8  |  expBias = 7, scale = 1  |    |  ModelParam = 0  |  strides = [72704, 72704, 36352, 128, 1]  |  data = 0, sizeInBytes = 72704  |  "
    }
  }
}
node {
  name: "module/model/60/fused_scaled_dot_product_attention/reshape/4810"
  op: "Reshape"
  input: "module/model/60/fused_scaled_dot_product_attention/quant_k/convert_to_fp8_bf16/4809"
  attr {
    key: "Bundle_idx"
    value {
      s: "N/A"
    }
  }
  attr {
    key: "Exec_idx"
    value {
      s: "43"
    }
  }
  attr {
    key: "Op_idx"
    value {
      s: "N/A"
    }
  }
  attr {
    key: "inputTensor:0"
    value {
      s: "tensor_88  |  Sizes = [1,2,284,128]  |  hfloat8  |  expBias = 7, scale = 1  |    |  ModelParam = 0  |  strides = [72704, 72704, 36352, 128, 1]  |  data = 0, sizeInBytes = 72704  |  "
    }
  }
  attr {
    key: "outputTensor:0"
    value {
      s: "tensor_89_id_196343_module/model/60/fused_scaled_dot_product_attention/aten__view  |  Sizes = [1,2,1,284,128]  |  hfloat8  |  expBias = 7, scale = 1  |    |  ModelParam = 0  |  strides = [72704, 72704, 36352, 36352, 128, 1]  |  data = 0, sizeInBytes = 72704  |  "
    }
  }
}
node {
  name: "tensor_104_odule/model/60/fused_scaled_dot_product_attention/quant_q/placeholder/1"
  op: "Placeholder"
  attr {
    key: "dtype"
    value {
      type: DT_BFLOAT16
    }
  }
  attr {
    key: "shape"
    value {
      shape {
        dim {
          size: 1
        }
        dim {
          size: 1
        }
        dim {
          size: 1
        }
        dim {
          size: 1
        }
        dim {
          size: 1
        }
      }
    }
  }
  attr {
    key: "synDataType"
    value {
      s: "bf16"
    }
  }
}
node {
  name: "module/model/60/fused_scaled_dot_product_attention/quant_q/convert_to_fp8_bf16/4817"
  op: "convert_to_fp8_bf16"
  input: "module/model/60/rotary_pos_embedding_fwd_bf16/4816"
  input: "tensor_104_odule/model/60/fused_scaled_dot_product_attention/quant_q/placeholder/1"
  attr {
    key: "Bundle_idx"
    value {
      s: "N/A"
    }
  }
  attr {
    key: "Exec_idx"
    value {
      s: "44"
    }
  }
  attr {
    key: "Op_idx"
    value {
      s: "N/A"
    }
  }
  attr {
    key: "inputTensor:0"
    value {
      s: "tensor_103  |  Sizes = [1,16,284,128]  |  bf16  |  expBias = 0, scale = 1  |    |  ModelParam = 0  |  strides = [1163264, 1163264, 72704, 256, 2]  |  data = 0, sizeInBytes = 1163264  |  "
    }
  }
  attr {
    key: "inputTensor:1"
    value {
      s: "tensor_104_odule/model/60/fused_scaled_dot_product_attention/quant_q/placeholder/1  |  Sizes = [1]  |  bf16  |  expBias = 0, scale = 1  |    |  ModelParam = 0  |  strides = [2, 2]  |  data = 0x55afcc868f50, sizeInBytes = 2  |  buffer = 1  |  isPersistent  |  userMemorySection(type=Persistent, id=36)  |  isStaticParam  |  bufferDtype=bf16  |  "
    }
  }
  attr {
    key: "outputTensor:0"
    value {
      s: "tensor_107  |  Sizes = [1,16,284,128]  |  hfloat8  |  expBias = 7, scale = 1  |    |  ModelParam = 0  |  strides = [581632, 581632, 36352, 128, 1]  |  data = 0, sizeInBytes = 581632  |  "
    }
  }
}
node {
  name: "module/model/60/fused_scaled_dot_product_attention/reshape/4818"
  op: "Reshape"
  input: "module/model/60/fused_scaled_dot_product_attention/quant_q/convert_to_fp8_bf16/4817"
  attr {
    key: "Bundle_idx"
    value {
      s: "N/A"
    }
  }
  attr {
    key: "Exec_idx"
    value {
      s: "45"
    }
  }
  attr {
    key: "Op_idx"
    value {
      s: "N/A"
    }
  }
  attr {
    key: "inputTensor:0"
    value {
      s: "tensor_107  |  Sizes = [1,16,284,128]  |  hfloat8  |  expBias = 7, scale = 1  |    |  ModelParam = 0  |  strides = [581632, 581632, 36352, 128, 1]  |  data = 0, sizeInBytes = 581632  |  "
    }
  }
  attr {
    key: "outputTensor:0"
    value {
      s: "tensor_108_id_196341_module/model/60/fused_scaled_dot_product_attention/aten__view  |  Sizes = [1,2,8,284,128]  |  hfloat8  |  expBias = 7, scale = 1  |    |  ModelParam = 0  |  strides = [581632, 581632, 290816, 36352, 128, 1]  |  data = 0, sizeInBytes = 581632  |  "
    }
  }
}
node {
  name: "tensor_109_odule/model/60/fused_scaled_dot_product_attention/placeholder/4"
  op: "Placeholder"
  attr {
    key: "dtype"
    value {
      type: DT_FLOAT
    }
  }
  attr {
    key: "shape"
    value {
      shape {
        dim {
          size: 1
        }
        dim {
          size: 1
        }
        dim {
          size: 1
        }
        dim {
          size: 1
        }
        dim {
          size: 1
        }
      }
    }
  }
  attr {
    key: "synDataType"
    value {
      s: "float32"
    }
  }
}
node {
  name: "tensor_110_odule/model/60/fused_scaled_dot_product_attention/placeholder/5"
  op: "Placeholder"
  attr {
    key: "dtype"
    value {
      type: DT_FLOAT
    }
  }
  attr {
    key: "shape"
    value {
      shape {
        dim {
          size: 1
        }
        dim {
          size: 1
        }
        dim {
          size: 1
        }
        dim {
          size: 1
        }
        dim {
          size: 1
        }
      }
    }
  }
  attr {
    key: "synDataType"
    value {
      s: "float32"
    }
  }
}
node {
  name: "tensor_111_odule/model/60/fused_scaled_dot_product_attention/placeholder/6"
  op: "Placeholder"
  attr {
    key: "dtype"
    value {
      type: DT_FLOAT
    }
  }
  attr {
    key: "shape"
    value {
      shape {
        dim {
          size: 1
        }
        dim {
          size: 1
        }
        dim {
          size: 1
        }
        dim {
          size: 1
        }
        dim {
          size: 1
        }
      }
    }
  }
  attr {
    key: "synDataType"
    value {
      s: "float32"
    }
  }
}
node {
  name: "tensor_112_odule/model/60/fused_scaled_dot_product_attention/placeholder/7"
  op: "Placeholder"
  attr {
    key: "dtype"
    value {
      type: DT_FLOAT
    }
  }
  attr {
    key: "shape"
    value {
      shape {
        dim {
          size: 1
        }
        dim {
          size: 1
        }
        dim {
          size: 1
        }
        dim {
          size: 1
        }
        dim {
          size: 1
        }
      }
    }
  }
  attr {
    key: "synDataType"
    value {
      s: "float32"
    }
  }
}
node {
  name: "tensor_113_odule/model/60/fused_scaled_dot_product_attention/placeholder/8"
  op: "Placeholder"
  attr {
    key: "dtype"
    value {
      type: DT_FLOAT
    }
  }
  attr {
    key: "shape"
    value {
      shape {
        dim {
          size: 1
        }
        dim {
          size: 1
        }
        dim {
          size: 1
        }
        dim {
          size: 1
        }
        dim {
          size: 1
        }
      }
    }
  }
  attr {
    key: "synDataType"
    value {
      s: "float32"
    }
  }
}
node {
  name: "tensor_114_odule/model/60/fused_scaled_dot_product_attention/placeholder/9"
  op: "Placeholder"
  attr {
    key: "dtype"
    value {
      type: DT_FLOAT
    }
  }
  attr {
    key: "shape"
    value {
      shape {
        dim {
          size: 1
        }
        dim {
          size: 1
        }
        dim {
          size: 1
        }
        dim {
          size: 1
        }
        dim {
          size: 1
        }
      }
    }
  }
  attr {
    key: "synDataType"
    value {
      s: "float32"
    }
  }
}
node {
  name: "module/model/60/fused_scaled_dot_product_attention/sdpa_recomp_fwd_hf8/4819"
  op: "sdpa_recomp_fwd_hf8"
  input: "module/model/60/fused_scaled_dot_product_attention/reshape/4818"
  input: "module/model/60/fused_scaled_dot_product_attention/reshape/4810"
  input: "module/model/60/fused_scaled_dot_product_attention/reshape/4808"
  input: "module/model/60/fused_scaled_dot_product_attention/expand_dims/4806"
  input: "unused_port"
  input: "tensor_109_odule/model/60/fused_scaled_dot_product_attention/placeholder/4"
  input: "tensor_110_odule/model/60/fused_scaled_dot_product_attention/placeholder/5"
  input: "tensor_111_odule/model/60/fused_scaled_dot_product_attention/placeholder/6"
  input: "tensor_112_odule/model/60/fused_scaled_dot_product_attention/placeholder/7"
  input: "tensor_113_odule/model/60/fused_scaled_dot_product_attention/placeholder/8"
  input: "tensor_114_odule/model/60/fused_scaled_dot_product_attention/placeholder/9"
  attr {
    key: "Bundle_idx"
    value {
      s: "N/A"
    }
  }
  attr {
    key: "Exec_idx"
    value {
      s: "46"
    }
  }
  attr {
    key: "Op_idx"
    value {
      s: "N/A"
    }
  }
  attr {
    key: "inputTensor:00"
    value {
      s: "tensor_108_id_196341_module/model/60/fused_scaled_dot_product_attention/aten__view  |  Sizes = [1,2,8,284,128]  |  hfloat8  |  expBias = 7, scale = 1  |    |  ModelParam = 0  |  strides = [581632, 581632, 290816, 36352, 128, 1]  |  data = 0, sizeInBytes = 581632  |  "
    }
  }
  attr {
    key: "inputTensor:01"
    value {
      s: "tensor_89_id_196343_module/model/60/fused_scaled_dot_product_attention/aten__view  |  Sizes = [1,2,1,284,128]  |  hfloat8  |  expBias = 7, scale = 1  |    |  ModelParam = 0  |  strides = [72704, 72704, 36352, 36352, 128, 1]  |  data = 0, sizeInBytes = 72704  |  "
    }
  }
  attr {
    key: "inputTensor:02"
    value {
      s: "tensor_84_id_196345_module/model/60/fused_scaled_dot_product_attention/aten__view  |  Sizes = [1,2,1,284,128]  |  hfloat8  |  expBias = 7, scale = 1  |    |  ModelParam = 0  |  strides = [72704, 72704, 36352, 36352, 128, 1]  |  data = 0, sizeInBytes = 72704  |  "
    }
  }
  attr {
    key: "inputTensor:03"
    value {
      s: "tensor_79_id_196347_module/model/60/fused_scaled_dot_product_attention/aten__unsqueeze  |  Sizes = [1,1,1,284,284]  |  bf16  |  expBias = 0, scale = 1  |    |  ModelParam = 0  |  strides = [161312, 161312, 161312, 161312, 568, 2]  |  data = 0, sizeInBytes = 161312  |  "
    }
  }
  attr {
    key: "inputTensor:05"
    value {
      s: "tensor_109_odule/model/60/fused_scaled_dot_product_attention/placeholder/4  |  Sizes = [1]  |  float32  |  expBias = 0, scale = 1  |    |  ModelParam = 0  |  strides = [4, 4]  |  data = 0x55afcc868430, sizeInBytes = 4  |  buffer = 1  |  isPersistent  |  userMemorySection(type=Persistent, id=37)  |  isStaticParam  |  bufferDtype=float32  |  "
    }
  }
  attr {
    key: "inputTensor:06"
    value {
      s: "tensor_110_odule/model/60/fused_scaled_dot_product_attention/placeholder/5  |  Sizes = [1]  |  float32  |  expBias = 0, scale = 1  |    |  ModelParam = 0  |  strides = [4, 4]  |  data = 0x55afcc869f50, sizeInBytes = 4  |  buffer = 1  |  isPersistent  |  userMemorySection(type=Persistent, id=38)  |  isStaticParam  |  bufferDtype=float32  |  "
    }
  }
  attr {
    key: "inputTensor:07"
    value {
      s: "tensor_111_odule/model/60/fused_scaled_dot_product_attention/placeholder/6  |  Sizes = [1]  |  float32  |  expBias = 0, scale = 1  |    |  ModelParam = 0  |  strides = [4, 4]  |  data = 0x55afcc869300, sizeInBytes = 4  |  buffer = 0.0625  |  isPersistent  |  userMemorySection(type=Persistent, id=39)  |  isStaticParam  |  bufferDtype=float32  |  "
    }
  }
  attr {
    key: "inputTensor:08"
    value {
      s: "tensor_112_odule/model/60/fused_scaled_dot_product_attention/placeholder/7  |  Sizes = [1]  |  float32  |  expBias = 0, scale = 1  |    |  ModelParam = 0  |  strides = [4, 4]  |  data = 0x55afcc868758, sizeInBytes = 4  |  buffer = 16  |  isPersistent  |  userMemorySection(type=Persistent, id=40)  |  isStaticParam  |  bufferDtype=float32  |  "
    }
  }
  attr {
    key: "inputTensor:09"
    value {
      s: "tensor_113_odule/model/60/fused_scaled_dot_product_attention/placeholder/8  |  Sizes = [1]  |  float32  |  expBias = 0, scale = 1  |    |  ModelParam = 0  |  strides = [4, 4]  |  data = 0x55afcc869a78, sizeInBytes = 4  |  buffer = 16  |  isPersistent  |  userMemorySection(type=Persistent, id=41)  |  isStaticParam  |  bufferDtype=float32  |  "
    }
  }
  attr {
    key: "inputTensor:10"
    value {
      s: "tensor_114_odule/model/60/fused_scaled_dot_product_attention/placeholder/9  |  Sizes = [1]  |  float32  |  expBias = 0, scale = 1  |    |  ModelParam = 0  |  strides = [4, 4]  |  data = 0x55afcc8686f0, sizeInBytes = 4  |  buffer = 0.0625  |  isPersistent  |  userMemorySection(type=Persistent, id=42)  |  isStaticParam  |  bufferDtype=float32  |  "
    }
  }
  attr {
    key: "outputTensor:0"
    value {
      s: "tensor_120  |  Sizes = [1,2,8,284,128]  |  hfloat8  |  expBias = 7, scale = 1  |    |  ModelParam = 0  |  strides = [581632, 581632, 290816, 36352, 128, 1]  |  data = 0, sizeInBytes = 581632  |  "
    }
  }
}
node {
  name: "module/model/60/fused_scaled_dot_product_attention/dequant_output/reshape/4820"
  op: "Reshape"
  input: "module/model/60/fused_scaled_dot_product_attention/sdpa_recomp_fwd_hf8/4819"
  attr {
    key: "Bundle_idx"
    value {
      s: "N/A"
    }
  }
  attr {
    key: "Exec_idx"
    value {
      s: "47"
    }
  }
  attr {
    key: "Op_idx"
    value {
      s: "N/A"
    }
  }
  attr {
    key: "inputTensor:0"
    value {
      s: "tensor_120  |  Sizes = [1,2,8,284,128]  |  hfloat8  |  expBias = 7, scale = 1  |    |  ModelParam = 0  |  strides = [581632, 581632, 290816, 36352, 128, 1]  |  data = 0, sizeInBytes = 581632  |  "
    }
  }
  attr {
    key: "outputTensor:0"
    value {
      s: "tensor_121_id_196366_module/model/60/fused_scaled_dot_product_attention/dequant_output/aten__view  |  Sizes = [1,16,284,128]  |  hfloat8  |  expBias = 7, scale = 1  |    |  ModelParam = 0  |  strides = [581632, 581632, 36352, 128, 1]  |  data = 0, sizeInBytes = 581632  |  "
    }
  }
}
node {
  name: "tensor_122_odule/model/60/fused_scaled_dot_product_attention/dequant_output/placeholder/1"
  op: "Placeholder"
  attr {
    key: "dtype"
    value {
      type: DT_BFLOAT16
    }
  }
  attr {
    key: "shape"
    value {
      shape {
        dim {
          size: 1
        }
        dim {
          size: 1
        }
        dim {
          size: 1
        }
        dim {
          size: 1
        }
        dim {
          size: 1
        }
      }
    }
  }
  attr {
    key: "synDataType"
    value {
      s: "bf16"
    }
  }
}
node {
  name: "module/model/60/fused_scaled_dot_product_attention/dequant_output/convert_from_fp8_bf16/4821"
  op: "convert_from_fp8_bf16"
  input: "module/model/60/fused_scaled_dot_product_attention/dequant_output/reshape/4820"
  input: "tensor_122_odule/model/60/fused_scaled_dot_product_attention/dequant_output/placeholder/1"
  attr {
    key: "Bundle_idx"
    value {
      s: "N/A"
    }
  }
  attr {
    key: "Exec_idx"
    value {
      s: "48"
    }
  }
  attr {
    key: "Op_idx"
    value {
      s: "N/A"
    }
  }
  attr {
    key: "inputTensor:0"
    value {
      s: "tensor_121_id_196366_module/model/60/fused_scaled_dot_product_attention/dequant_output/aten__view  |  Sizes = [1,16,284,128]  |  hfloat8  |  expBias = 7, scale = 1  |    |  ModelParam = 0  |  strides = [581632, 581632, 36352, 128, 1]  |  data = 0, sizeInBytes = 581632  |  "
    }
  }
  attr {
    key: "inputTensor:1"
    value {
      s: "tensor_122_odule/model/60/fused_scaled_dot_product_attention/dequant_output/placeholder/1  |  Sizes = [1]  |  bf16  |  expBias = 0, scale = 1  |    |  ModelParam = 0  |  strides = [2, 2]  |  data = 0x55afcc868da8, sizeInBytes = 2  |  buffer = 0.0625  |  isPersistent  |  userMemorySection(type=Persistent, id=43)  |  isStaticParam  |  bufferDtype=bf16  |  "
    }
  }
  attr {
    key: "outputTensor:0"
    value {
      s: "tensor_124  |  Sizes = [1,16,284,128]  |  bf16  |  expBias = 0, scale = 1  |    |  ModelParam = 0  |  strides = [1163264, 1163264, 72704, 256, 2]  |  data = 0, sizeInBytes = 1163264  |  "
    }
  }
}
node {
  name: "module/model/60/transpose/4822"
  op: "Transpose"
  input: "module/model/60/fused_scaled_dot_product_attention/dequant_output/convert_from_fp8_bf16/4821"
  attr {
    key: "Bundle_idx"
    value {
      s: "N/A"
    }
  }
  attr {
    key: "Exec_idx"
    value {
      s: "49"
    }
  }
  attr {
    key: "Op_idx"
    value {
      s: "N/A"
    }
  }
  attr {
    key: "Parameters"
    value {
      s: "permutation: (0,2,1,3)"
    }
  }
  attr {
    key: "inputTensor:0"
    value {
      s: "tensor_124  |  Sizes = [1,16,284,128]  |  bf16  |  expBias = 0, scale = 1  |    |  ModelParam = 0  |  strides = [1163264, 1163264, 72704, 256, 2]  |  data = 0, sizeInBytes = 1163264  |  "
    }
  }
  attr {
    key: "outputTensor:0"
    value {
      s: "tensor_125_id_196371_module/model/60/aten__transpose  |  Sizes = [1,284,16,128]  |  bf16  |  expBias = 0, scale = 1  |    |  ModelParam = 0  |  strides = [1163264, 1163264, 4096, 256, 2]  |  data = 0, sizeInBytes = 1163264  |  "
    }
  }
}
node {
  name: "module/model/60/identity/4823"
  op: "Identity"
  input: "module/model/60/transpose/4822"
  attr {
    key: "Bundle_idx"
    value {
      s: "N/A"
    }
  }
  attr {
    key: "Exec_idx"
    value {
      s: "50"
    }
  }
  attr {
    key: "Op_idx"
    value {
      s: "N/A"
    }
  }
  attr {
    key: "inputTensor:0"
    value {
      s: "tensor_125_id_196371_module/model/60/aten__transpose  |  Sizes = [1,284,16,128]  |  bf16  |  expBias = 0, scale = 1  |    |  ModelParam = 0  |  strides = [1163264, 1163264, 4096, 256, 2]  |  data = 0, sizeInBytes = 1163264  |  "
    }
  }
  attr {
    key: "outputTensor:0"
    value {
      s: "tensor_126_id_196373_module/model/60/aten__clone  |  Sizes = [1,284,16,128]  |  bf16  |  expBias = 0, scale = 1  |    |  ModelParam = 0  |  strides = [1163264, 1163264, 4096, 256, 2]  |  data = 0, sizeInBytes = 1163264  |  "
    }
  }
}
node {
  name: "module/model/60/o_proj/quant_input_0/reshape/4824"
  op: "Reshape"
  input: "module/model/60/identity/4823"
  attr {
    key: "Bundle_idx"
    value {
      s: "N/A"
    }
  }
  attr {
    key: "Exec_idx"
    value {
      s: "51"
    }
  }
  attr {
    key: "Op_idx"
    value {
      s: "N/A"
    }
  }
  attr {
    key: "inputTensor:0"
    value {
      s: "tensor_126_id_196373_module/model/60/aten__clone  |  Sizes = [1,284,16,128]  |  bf16  |  expBias = 0, scale = 1  |    |  ModelParam = 0  |  strides = [1163264, 1163264, 4096, 256, 2]  |  data = 0, sizeInBytes = 1163264  |  "
    }
  }
  attr {
    key: "outputTensor:0"
    value {
      s: "tensor_127_id_196376_module/model/60/o_proj/quant_input_0/aten__view  |  Sizes = [1,284,2048]  |  bf16  |  expBias = 0, scale = 1  |    |  ModelParam = 0  |  strides = [1163264, 1163264, 4096, 2]  |  data = 0, sizeInBytes = 1163264  |  "
    }
  }
}
node {
  name: "module/model/60/constant_hf8/4770"
  op: "constant_hf8"
  attr {
    key: "Bundle_idx"
    value {
      s: "N/A"
    }
  }
  attr {
    key: "Exec_idx"
    value {
      s: "52"
    }
  }
  attr {
    key: "Op_idx"
    value {
      s: "N/A"
    }
  }
  attr {
    key: "outputTensor:0"
    value {
      s: "tensor_5  |  Sizes = [1,2,284,128]  |  hfloat8  |  expBias = 7, scale = 1  |    |  ModelParam = 0  |  strides = [72704, 72704, 36352, 128, 1]  |  data = 0, sizeInBytes = 72704  |  isPersistent  |  userMemorySection(type=Persistent, id=6)  |  "
    }
  }
}
node {
  name: "tensor_5"
  op: "OutputTensor"
  input: "module/model/60/constant_hf8/4770"
  attr {
    key: "dtype"
    value {
      type: DT_INVALID
    }
  }
  attr {
    key: "shape"
    value {
      shape {
        dim {
          size: 128
        }
        dim {
          size: 284
        }
        dim {
          size: 2
        }
        dim {
          size: 1
        }
        dim {
          size: 1
        }
      }
    }
  }
  attr {
    key: "synDataType"
    value {
      s: "hfloat8"
    }
  }
}
node {
  name: "module/model/60/constant_hf8/4793"
  op: "constant_hf8"
  attr {
    key: "Bundle_idx"
    value {
      s: "N/A"
    }
  }
  attr {
    key: "Exec_idx"
    value {
      s: "53"
    }
  }
  attr {
    key: "Op_idx"
    value {
      s: "N/A"
    }
  }
  attr {
    key: "outputTensor:0"
    value {
      s: "tensor_52  |  Sizes = [1,2,284,128]  |  hfloat8  |  expBias = 7, scale = 1  |    |  ModelParam = 0  |  strides = [72704, 72704, 36352, 128, 1]  |  data = 0, sizeInBytes = 72704  |  isPersistent  |  userMemorySection(type=Persistent, id=20)  |  "
    }
  }
}
node {
  name: "tensor_52"
  op: "OutputTensor"
  input: "module/model/60/constant_hf8/4793"
  attr {
    key: "dtype"
    value {
      type: DT_INVALID
    }
  }
  attr {
    key: "shape"
    value {
      shape {
        dim {
          size: 128
        }
        dim {
          size: 284
        }
        dim {
          size: 2
        }
        dim {
          size: 1
        }
        dim {
          size: 1
        }
      }
    }
  }
  attr {
    key: "synDataType"
    value {
      s: "hfloat8"
    }
  }
}
node {
  name: "tensor_128_odule/model/60/o_proj/quant_input_0/placeholder/1"
  op: "Placeholder"
  attr {
    key: "dtype"
    value {
      type: DT_BFLOAT16
    }
  }
  attr {
    key: "shape"
    value {
      shape {
        dim {
          size: 1
        }
        dim {
          size: 1
        }
        dim {
          size: 1
        }
        dim {
          size: 1
        }
        dim {
          size: 1
        }
      }
    }
  }
  attr {
    key: "synDataType"
    value {
      s: "bf16"
    }
  }
}
node {
  name: "module/model/60/o_proj/quant_input_0/convert_to_fp8_bf16/4825"
  op: "convert_to_fp8_bf16"
  input: "module/model/60/o_proj/quant_input_0/reshape/4824"
  input: "tensor_128_odule/model/60/o_proj/quant_input_0/placeholder/1"
  attr {
    key: "Bundle_idx"
    value {
      s: "N/A"
    }
  }
  attr {
    key: "Exec_idx"
    value {
      s: "54"
    }
  }
  attr {
    key: "Op_idx"
    value {
      s: "N/A"
    }
  }
  attr {
    key: "inputTensor:0"
    value {
      s: "tensor_127_id_196376_module/model/60/o_proj/quant_input_0/aten__view  |  Sizes = [1,284,2048]  |  bf16  |  expBias = 0, scale = 1  |    |  ModelParam = 0  |  strides = [1163264, 1163264, 4096, 2]  |  data = 0, sizeInBytes = 1163264  |  "
    }
  }
  attr {
    key: "inputTensor:1"
    value {
      s: "tensor_128_odule/model/60/o_proj/quant_input_0/placeholder/1  |  Sizes = [1]  |  bf16  |  expBias = 0, scale = 1  |    |  ModelParam = 0  |  strides = [2, 2]  |  data = 0x55afcc9563a0, sizeInBytes = 2  |  buffer = 16  |  isPersistent  |  userMemorySection(type=Persistent, id=44)  |  isStaticParam  |  bufferDtype=bf16  |  "
    }
  }
  attr {
    key: "outputTensor:0"
    value {
      s: "tensor_131  |  Sizes = [1,284,2048]  |  hfloat8  |  expBias = 7, scale = 1  |    |  ModelParam = 0  |  strides = [581632, 581632, 2048, 1]  |  data = 0, sizeInBytes = 581632  |  "
    }
  }
}
node {
  name: "module/model/60/memcpy/4791"
  op: "Memcpy"
  input: "module/model/60/quant_input_0/convert_to_fp8_bf16/4790"
  input: "^module/model/60/constant_hf8/4770"
  attr {
    key: "Bundle_idx"
    value {
      s: "N/A"
    }
  }
  attr {
    key: "Exec_idx"
    value {
      s: "55"
    }
  }
  attr {
    key: "Op_idx"
    value {
      s: "N/A"
    }
  }
  attr {
    key: "inputTensor:0"
    value {
      s: "tensor_45  |  Sizes = [1,2,284,128]  |  hfloat8  |  expBias = 7, scale = 1  |    |  ModelParam = 0  |  strides = [72704, 72704, 36352, 128, 1]  |  data = 0, sizeInBytes = 72704  |  "
    }
  }
  attr {
    key: "outputTensor:0"
    value {
      s: "tensor_46  |  Sizes = [1,2,284,128]  |  hfloat8  |  expBias = 7, scale = 1  |    |  ModelParam = 0  |  strides = [72704, 72704, 36352, 128, 1]  |  data = 0, sizeInBytes = 72704  |  isPersistent  |  userMemorySection(type=Persistent, id=6)  |  "
    }
  }
}
node {
  name: "tensor_46"
  op: "OutputTensor"
  input: "module/model/60/memcpy/4791"
  attr {
    key: "dtype"
    value {
      type: DT_INVALID
    }
  }
  attr {
    key: "shape"
    value {
      shape {
        dim {
          size: 128
        }
        dim {
          size: 284
        }
        dim {
          size: 2
        }
        dim {
          size: 1
        }
        dim {
          size: 1
        }
      }
    }
  }
  attr {
    key: "synDataType"
    value {
      s: "hfloat8"
    }
  }
}
node {
  name: "module/model/60/memcpy/4799"
  op: "Memcpy"
  input: "module/model/60/quant_input_0/convert_to_fp8_bf16/4798"
  input: "^module/model/60/constant_hf8/4793"
  attr {
    key: "Bundle_idx"
    value {
      s: "N/A"
    }
  }
  attr {
    key: "Exec_idx"
    value {
      s: "56"
    }
  }
  attr {
    key: "Op_idx"
    value {
      s: "N/A"
    }
  }
  attr {
    key: "inputTensor:0"
    value {
      s: "tensor_68  |  Sizes = [1,2,284,128]  |  hfloat8  |  expBias = 7, scale = 1  |    |  ModelParam = 0  |  strides = [72704, 72704, 36352, 128, 1]  |  data = 0, sizeInBytes = 72704  |  "
    }
  }
  attr {
    key: "outputTensor:0"
    value {
      s: "tensor_69  |  Sizes = [1,2,284,128]  |  hfloat8  |  expBias = 7, scale = 1  |    |  ModelParam = 0  |  strides = [72704, 72704, 36352, 128, 1]  |  data = 0, sizeInBytes = 72704  |  isPersistent  |  userMemorySection(type=Persistent, id=20)  |  "
    }
  }
}
node {
  name: "tensor_69"
  op: "OutputTensor"
  input: "module/model/60/memcpy/4799"
  attr {
    key: "dtype"
    value {
      type: DT_INVALID
    }
  }
  attr {
    key: "shape"
    value {
      shape {
        dim {
          size: 128
        }
        dim {
          size: 284
        }
        dim {
          size: 2
        }
        dim {
          size: 1
        }
        dim {
          size: 1
        }
      }
    }
  }
  attr {
    key: "synDataType"
    value {
      s: "hfloat8"
    }
  }
}
node {
  name: "tensor_132_odule/model/60/o_proj/placeholder/1"
  op: "Placeholder"
  attr {
    key: "dtype"
    value {
      type: DT_INVALID
    }
  }
  attr {
    key: "shape"
    value {
      shape {
        dim {
          size: 8192
        }
        dim {
          size: 2048
        }
        dim {
          size: 1
        }
        dim {
          size: 1
        }
        dim {
          size: 1
        }
      }
    }
  }
  attr {
    key: "synDataType"
    value {
      s: "hfloat8"
    }
  }
}
node {
  name: "tensor_133_odule/model/60/o_proj/placeholder/2"
  op: "Placeholder"
  attr {
    key: "dtype"
    value {
      type: DT_BFLOAT16
    }
  }
  attr {
    key: "shape"
    value {
      shape {
        dim {
          size: 1
        }
        dim {
          size: 1
        }
        dim {
          size: 1
        }
        dim {
          size: 1
        }
        dim {
          size: 1
        }
      }
    }
  }
  attr {
    key: "synDataType"
    value {
      s: "bf16"
    }
  }
}
node {
  name: "tensor_134_odule/model/60/o_proj/placeholder/3"
  op: "Placeholder"
  attr {
    key: "dtype"
    value {
      type: DT_BFLOAT16
    }
  }
  attr {
    key: "shape"
    value {
      shape {
        dim {
          size: 1
        }
        dim {
          size: 1
        }
        dim {
          size: 1
        }
        dim {
          size: 1
        }
        dim {
          size: 1
        }
      }
    }
  }
  attr {
    key: "synDataType"
    value {
      s: "bf16"
    }
  }
}
node {
  name: "module/model/60/o_proj/fp8_gemm_bf16/4826"
  op: "fp8_gemm_bf16"
  input: "module/model/60/o_proj/quant_input_0/convert_to_fp8_bf16/4825"
  input: "tensor_132_odule/model/60/o_proj/placeholder/1"
  input: "tensor_133_odule/model/60/o_proj/placeholder/2"
  input: "tensor_134_odule/model/60/o_proj/placeholder/3"
  input: "unused_port"
  input: "unused_port"
  input: "unused_port"
  attr {
    key: "Bundle_idx"
    value {
      s: "N/A"
    }
  }
  attr {
    key: "Exec_idx"
    value {
      s: "57"
    }
  }
  attr {
    key: "Op_idx"
    value {
      s: "N/A"
    }
  }
  attr {
    key: "inputTensor:0"
    value {
      s: "tensor_131  |  Sizes = [1,284,2048]  |  hfloat8  |  expBias = 7, scale = 1  |    |  ModelParam = 0  |  strides = [581632, 581632, 2048, 1]  |  data = 0, sizeInBytes = 581632  |  "
    }
  }
  attr {
    key: "inputTensor:1"
    value {
      s: "tensor_132_odule/model/60/o_proj/placeholder/1  |  Sizes = [2048,8192]  |  hfloat8  |  expBias = 7, scale = 1  |    |  ModelParam = 0  |  strides = [16777216, 8192, 1]  |  data = 0, sizeInBytes = 16777216  |  isPersistent  |  userMemorySection(type=Persistent, id=45)  |  "
    }
  }
  attr {
    key: "inputTensor:2"
    value {
      s: "tensor_133_odule/model/60/o_proj/placeholder/2  |  Sizes = [1]  |  bf16  |  expBias = 0, scale = 1  |    |  ModelParam = 0  |  strides = [2, 2]  |  data = 0x55afcc956fb8, sizeInBytes = 2  |  buffer = 0.0625  |  isPersistent  |  userMemorySection(type=Persistent, id=46)  |  isStaticParam  |  bufferDtype=bf16  |  "
    }
  }
  attr {
    key: "inputTensor:3"
    value {
      s: "tensor_134_odule/model/60/o_proj/placeholder/3  |  Sizes = [1]  |  bf16  |  expBias = 0, scale = 1  |    |  ModelParam = 0  |  strides = [2, 2]  |  data = 0x55afcc957680, sizeInBytes = 2  |  buffer = 0.00390625  |  isPersistent  |  userMemorySection(type=Persistent, id=47)  |  isStaticParam  |  bufferDtype=bf16  |  "
    }
  }
  attr {
    key: "outputTensor:0"
    value {
      s: "tensor_136  |  Sizes = [1,284,8192]  |  bf16  |  expBias = 0, scale = 1  |    |  ModelParam = 0  |  strides = [4653056, 4653056, 16384, 2]  |  data = 0, sizeInBytes = 4653056  |  isPersistent  |  userMemorySection(type=Persistent, id=49)  |  "
    }
  }
}
node {
  name: "tensor_136"
  op: "OutputTensor"
  input: "module/model/60/o_proj/fp8_gemm_bf16/4826"
  attr {
    key: "dtype"
    value {
      type: DT_BFLOAT16
    }
  }
  attr {
    key: "shape"
    value {
      shape {
        dim {
          size: 8192
        }
        dim {
          size: 284
        }
        dim {
          size: 1
        }
        dim {
          size: 1
        }
        dim {
          size: 1
        }
      }
    }
  }
  attr {
    key: "synDataType"
    value {
      s: "bf16"
    }
  }
}
