node {
  name: "tensor_12_odule/model/31/up_proj/placeholder/1"
  op: "Placeholder"
  attr {
    key: "dtype"
    value {
      type: DT_INVALID
    }
  }
  attr {
    key: "shape"
    value {
      shape {
        dim {
          size: 7168
        }
        dim {
          size: 8192
        }
        dim {
          size: 1
        }
        dim {
          size: 1
        }
        dim {
          size: 1
        }
      }
    }
  }
  attr {
    key: "synDataType"
    value {
      s: "hfloat8"
    }
  }
}
node {
  name: "module/model/31/up_proj/fp8_gemm_bf16/24365_complex/fp8_gemm_bf16_4353/expand_dims_6"
  op: "ExpandDims"
  input: "tensor_12_odule/model/31/up_proj/placeholder/1"
  attr {
    key: "Bundle_idx"
    value {
      s: "N/A"
    }
  }
  attr {
    key: "Exec_idx"
    value {
      s: "0"
    }
  }
  attr {
    key: "Op_idx"
    value {
      s: "N/A"
    }
  }
  attr {
    key: "inputTensor:0"
    value {
      s: "tensor_12_odule/model/31/up_proj/placeholder/1  |  Sizes = [8192,7168]  |  hfloat8  |  expBias = 7, scale = 1  |    |  ModelParam = 0  |  strides = [58720256, 7168, 1]  |  data = 0, sizeInBytes = 58720256  |  isPersistent  |  location = in DRAM  |  dramOffset = 0x80000000000  |  userMemorySection(type=Persistent, id=8)  |  "
    }
  }
  attr {
    key: "outputTensor:0"
    value {
      s: "hf8-7_303265  |  Sizes = [1,8192,7168]  |  hfloat8  |  expBias = 7, scale = 1  |    |  ModelParam = 0  |  strides = [58720256, 58720256, 7168, 1]  |  data = 0, sizeInBytes = 58720256  |  isAliased = tensor_12_odule/model/31/up_proj/placeholder/1, type = alias, offset: 0  |  location = in DRAM  |  "
    }
  }
}
node {
  name: "tensor_21_odule/model/31/gate_proj/placeholder/1"
  op: "Placeholder"
  attr {
    key: "dtype"
    value {
      type: DT_INVALID
    }
  }
  attr {
    key: "shape"
    value {
      shape {
        dim {
          size: 7168
        }
        dim {
          size: 8192
        }
        dim {
          size: 1
        }
        dim {
          size: 1
        }
        dim {
          size: 1
        }
      }
    }
  }
  attr {
    key: "synDataType"
    value {
      s: "hfloat8"
    }
  }
}
node {
  name: "module/model/31/gate_proj/fp8_gemm_bf16/24367_complex/fp8_gemm_bf16_4355/expand_dims_6"
  op: "ExpandDims"
  input: "tensor_21_odule/model/31/gate_proj/placeholder/1"
  attr {
    key: "Bundle_idx"
    value {
      s: "N/A"
    }
  }
  attr {
    key: "Exec_idx"
    value {
      s: "1"
    }
  }
  attr {
    key: "Op_idx"
    value {
      s: "N/A"
    }
  }
  attr {
    key: "inputTensor:0"
    value {
      s: "tensor_21_odule/model/31/gate_proj/placeholder/1  |  Sizes = [8192,7168]  |  hfloat8  |  expBias = 7, scale = 1  |    |  ModelParam = 0  |  strides = [58720256, 7168, 1]  |  data = 0, sizeInBytes = 58720256  |  isPersistent  |  location = in DRAM  |  dramOffset = 0xc0000000000  |  userMemorySection(type=Persistent, id=12)  |  "
    }
  }
  attr {
    key: "outputTensor:0"
    value {
      s: "hf8-7_303269  |  Sizes = [1,8192,7168]  |  hfloat8  |  expBias = 7, scale = 1  |    |  ModelParam = 0  |  strides = [58720256, 58720256, 7168, 1]  |  data = 0, sizeInBytes = 58720256  |  isAliased = tensor_21_odule/model/31/gate_proj/placeholder/1, type = alias, offset: 0  |  location = in DRAM  |  "
    }
  }
}
node {
  name: "tensor_0_odule/model/31/placeholder/0"
  op: "Placeholder"
  attr {
    key: "dtype"
    value {
      type: DT_BFLOAT16
    }
  }
  attr {
    key: "shape"
    value {
      shape {
        dim {
          size: 8192
        }
        dim {
          size: 64
        }
        dim {
          size: 1
        }
        dim {
          size: 1
        }
        dim {
          size: 1
        }
      }
    }
  }
  attr {
    key: "synDataType"
    value {
      s: "bf16"
    }
  }
}
node {
  name: "tensor_1_odule/model/31/placeholder/1"
  op: "Placeholder"
  attr {
    key: "dtype"
    value {
      type: DT_BFLOAT16
    }
  }
  attr {
    key: "shape"
    value {
      shape {
        dim {
          size: 8192
        }
        dim {
          size: 64
        }
        dim {
          size: 1
        }
        dim {
          size: 1
        }
        dim {
          size: 1
        }
      }
    }
  }
  attr {
    key: "synDataType"
    value {
      s: "bf16"
    }
  }
}
node {
  name: "module/model/31/add_fwd_bf16/24362_complex/add_fwd_bf16_0_bundle_1633/op_0"
  op: "add_fwd_bf16"
  input: "tensor_0_odule/model/31/placeholder/0"
  input: "tensor_1_odule/model/31/placeholder/1"
  attr {
    key: "Bundle_idx"
    value {
      s: "1633"
    }
  }
  attr {
    key: "Exec_idx"
    value {
      s: "2"
    }
  }
  attr {
    key: "Op_idx"
    value {
      s: "0"
    }
  }
  attr {
    key: "inputTensor:0"
    value {
      s: "tensor_0_odule/model/31/placeholder/0  |  Sizes = [1,64,8192]  |  bf16  |  expBias = 0, scale = 1  |    |  ModelParam = 0  |  strides = [1048576, 1048576, 16384, 2]  |  data = 0, sizeInBytes = 1048576  |  isPersistent  |  location = in DRAM  |  dramOffset = 0x40000000000  |  userMemorySection(type=Persistent, id=4)  |  "
    }
  }
  attr {
    key: "inputTensor:1"
    value {
      s: "tensor_1_odule/model/31/placeholder/1  |  Sizes = [1,64,8192]  |  bf16  |  expBias = 0, scale = 1  |    |  ModelParam = 0  |  strides = [1048576, 1048576, 16384, 2]  |  data = 0, sizeInBytes = 1048576  |  isPersistent  |  location = in DRAM  |  dramOffset = 0x50000000000  |  userMemorySection(type=Persistent, id=5)  |  "
    }
  }
  attr {
    key: "outputTensor:0"
    value {
      s: "tensor_2_slice_0_0_0_0_0__0__bundle_1633_303471  |  Sizes = [1,64,8192]  |  bf16  |  expBias = 0, scale = 1  |    |  ModelParam = 0  |  strides = [1048576, 1048576, 16384, 2]  |  data = 0, sizeInBytes = 1048576  |  location = in SRAM  |  sramOffset = 0x1000fffffd050000  |  "
    }
  }
}
node {
  name: "module/model/31/post_attention_layernorm/rms_norm_ex_fwd_bf16/24363_complex/rms_norm_ex_fwd_bf16_1093/reshape_4_bundle_1633/op_1"
  op: "Reshape"
  input: "module/model/31/add_fwd_bf16/24362_complex/add_fwd_bf16_0_bundle_1633/op_0"
  attr {
    key: "Bundle_idx"
    value {
      s: "1633"
    }
  }
  attr {
    key: "Exec_idx"
    value {
      s: "3"
    }
  }
  attr {
    key: "Op_idx"
    value {
      s: "1"
    }
  }
  attr {
    key: "inputTensor:0"
    value {
      s: "tensor_2_slice_0_0_0_0_0__0__bundle_1633_303471  |  Sizes = [1,64,8192]  |  bf16  |  expBias = 0, scale = 1  |    |  ModelParam = 0  |  strides = [1048576, 1048576, 16384, 2]  |  data = 0, sizeInBytes = 1048576  |  location = in SRAM  |  sramOffset = 0x1000fffffd050000  |  "
    }
  }
  attr {
    key: "outputTensor:0"
    value {
      s: "bf16-5_303259_slice_0_0_0_0_0__0__bundle_1633_303472  |  Sizes = [64,8192]  |  bf16  |  expBias = 0, scale = 1  |    |  ModelParam = 0  |  strides = [1048576, 16384, 2]  |  data = 0, sizeInBytes = 1048576  |  isAliased = tensor_2_slice_0_0_0_0_0__0__bundle_1633_303471, type = alias, offset: 0  |  location = in SRAM  |  sramOffset = 0x1000fffffd050000  |  "
    }
  }
}
node {
  name: "tensor_3_odule/model/31/post_attention_layernorm/placeholder/1"
  op: "Placeholder"
  attr {
    key: "dtype"
    value {
      type: DT_BFLOAT16
    }
  }
  attr {
    key: "shape"
    value {
      shape {
        dim {
          size: 8192
        }
        dim {
          size: 1
        }
        dim {
          size: 1
        }
        dim {
          size: 1
        }
        dim {
          size: 1
        }
      }
    }
  }
  attr {
    key: "synDataType"
    value {
      s: "bf16"
    }
  }
}
node {
  name: "module/model/31/post_attention_layernorm/rms_norm_ex_fwd_bf16/24363_complex/rms_norm_ex_fwd_bf16_1093/rms_norm_fwd_bf16_6_bundle_1633/op_2"
  op: "rms_norm_fwd_bf16"
  input: "module/model/31/post_attention_layernorm/rms_norm_ex_fwd_bf16/24363_complex/rms_norm_ex_fwd_bf16_1093/reshape_4_bundle_1633/op_1"
  input: "tensor_3_odule/model/31/post_attention_layernorm/placeholder/1"
  attr {
    key: "Bundle_idx"
    value {
      s: "1633"
    }
  }
  attr {
    key: "Exec_idx"
    value {
      s: "4"
    }
  }
  attr {
    key: "Op_idx"
    value {
      s: "2"
    }
  }
  attr {
    key: "inputTensor:0"
    value {
      s: "bf16-5_303259_slice_0_0_0_0_0__0__bundle_1633_303472  |  Sizes = [64,8192]  |  bf16  |  expBias = 0, scale = 1  |    |  ModelParam = 0  |  strides = [1048576, 16384, 2]  |  data = 0, sizeInBytes = 1048576  |  isAliased = tensor_2_slice_0_0_0_0_0__0__bundle_1633_303471, type = alias, offset: 0  |  location = in SRAM  |  sramOffset = 0x1000fffffd050000  |  "
    }
  }
  attr {
    key: "inputTensor:1"
    value {
      s: "tensor_3_odule/model/31/post_attention_layernorm/placeholder/1  |  Sizes = [8192]  |  bf16  |  expBias = 0, scale = 1  |    |  ModelParam = 0  |  strides = [16384, 2]  |  data = 0, sizeInBytes = 16384  |  isPersistent  |  location = in DRAM  |  dramOffset = 0x60000000000  |  userMemorySection(type=Persistent, id=6)  |  "
    }
  }
  attr {
    key: "outputTensor:0"
    value {
      s: "bf16-7_303260_slice_0_0_0_0_0__0__bundle_1633_303474  |  Sizes = [64,8192]  |  bf16  |  expBias = 0, scale = 1  |    |  ModelParam = 0  |  strides = [1048576, 16384, 2]  |  data = 0, sizeInBytes = 1048576  |  isAliased = tensor-303449_slice_0_0_0_0_0__0__bundle_1633_303476, type = alias, offset: 0  |  location = in SRAM  |  sramOffset = 0x1000fffffd150000  |  "
    }
  }
  attr {
    key: "outputTensor:1"
    value {
      s: "f32-8_303261  |  Sizes = [64,1]  |  float32  |  expBias = 0, scale = 1  |    |  ModelParam = 0  |  strides = [256, 4, 4]  |  data = 0, sizeInBytes = 256  |  location = in DRAM  |  dramOffset = 0x140000000000  |  "
    }
  }
}
node {
  name: "f32-8_303261"
  op: "OutputTensor"
  input: "module/model/31/post_attention_layernorm/rms_norm_ex_fwd_bf16/24363_complex/rms_norm_ex_fwd_bf16_1093/rms_norm_fwd_bf16_6_bundle_1633/op_2"
  attr {
    key: "dtype"
    value {
      type: DT_FLOAT
    }
  }
  attr {
    key: "shape"
    value {
      shape {
        dim {
          size: 1
        }
        dim {
          size: 64
        }
        dim {
          size: 1
        }
        dim {
          size: 1
        }
        dim {
          size: 1
        }
      }
    }
  }
  attr {
    key: "synDataType"
    value {
      s: "float32"
    }
  }
}
node {
  name: "reshape_0_0_bundle_1633/op_3"
  op: "Reshape"
  input: "module/model/31/post_attention_layernorm/rms_norm_ex_fwd_bf16/24363_complex/rms_norm_ex_fwd_bf16_1093/rms_norm_fwd_bf16_6_bundle_1633/op_2"
  attr {
    key: "Bundle_idx"
    value {
      s: "1633"
    }
  }
  attr {
    key: "Exec_idx"
    value {
      s: "5"
    }
  }
  attr {
    key: "Op_idx"
    value {
      s: "3"
    }
  }
  attr {
    key: "inputTensor:0"
    value {
      s: "bf16-7_303260_slice_0_0_0_0_0__0__bundle_1633_303474  |  Sizes = [64,8192]  |  bf16  |  expBias = 0, scale = 1  |    |  ModelParam = 0  |  strides = [1048576, 16384, 2]  |  data = 0, sizeInBytes = 1048576  |  isAliased = tensor-303449_slice_0_0_0_0_0__0__bundle_1633_303476, type = alias, offset: 0  |  location = in SRAM  |  sramOffset = 0x1000fffffd150000  |  "
    }
  }
  attr {
    key: "outputTensor:0"
    value {
      s: "tensor-303449_slice_0_0_0_0_0__0__bundle_1633_303476  |  Sizes = [1,64,8192]  |  bf16  |  expBias = 0, scale = 1  |    |  ModelParam = 0  |  strides = [1048576, 1048576, 16384, 2]  |  data = 0, sizeInBytes = 1048576  |  location = in SRAM  |  sramOffset = 0x1000fffffd150000  |  "
    }
  }
}
node {
  name: "fusedTPCNode_559_0_bundle_1633/op_4"
  op: "fused_kernel_0xFC3E1CCF_673_hf8"
  input: "reshape_0_0_bundle_1633/op_3"
  attr {
    key: "Bundle_idx"
    value {
      s: "1633"
    }
  }
  attr {
    key: "Exec_idx"
    value {
      s: "6"
    }
  }
  attr {
    key: "Op_idx"
    value {
      s: "4"
    }
  }
  attr {
    key: "inputTensor:0"
    value {
      s: "tensor-303449_slice_0_0_0_0_0__0__bundle_1633_303476  |  Sizes = [1,64,8192]  |  bf16  |  expBias = 0, scale = 1  |    |  ModelParam = 0  |  strides = [1048576, 1048576, 16384, 2]  |  data = 0, sizeInBytes = 1048576  |  location = in SRAM  |  sramOffset = 0x1000fffffd150000  |  "
    }
  }
  attr {
    key: "outputTensor:0"
    value {
      s: "tensor_11_slice_0_0_0_0_0__0__bundle_1633_303477  |  Sizes = [1,64,8192]  |  hfloat8  |  expBias = 7, scale = 1  |    |  ModelParam = 0  |  strides = [524288, 524288, 8192, 1]  |  data = 0, sizeInBytes = 524288  |  location = in SRAM  |  sramOffset = 0x1000fffffd250000  |  "
    }
  }
}
node {
  name: "module/model/31/up_proj/fp8_gemm_bf16/24365_complex/fp8_gemm_bf16_4353/batch_gemm_8_bundle_1633/op_5_gemm"
  op: "GEMM"
  input: "fusedTPCNode_559_0_bundle_1633/op_4"
  input: "module/model/31/up_proj/fp8_gemm_bf16/24365_complex/fp8_gemm_bf16_4353/expand_dims_6"
  attr {
    key: "Bundle_idx"
    value {
      s: "1633"
    }
  }
  attr {
    key: "Exec_idx"
    value {
      s: "7"
    }
  }
  attr {
    key: "Op_idx"
    value {
      s: "5"
    }
  }
  attr {
    key: "Parameters"
    value {
      s: "transpose_a=false, transpose_b=false"
    }
  }
  attr {
    key: "fp8BiasIn"
    value {
      s: "7"
    }
  }
  attr {
    key: "fp8BiasIn2"
    value {
      s: "15"
    }
  }
  attr {
    key: "fp8BiasOut"
    value {
      s: "0"
    }
  }
  attr {
    key: "inputTensor:0"
    value {
      s: "tensor_11_slice_0_0_0_0_0__0__bundle_1633_303477  |  Sizes = [1,64,8192]  |  hfloat8  |  expBias = 7, scale = 1  |    |  ModelParam = 0  |  strides = [524288, 524288, 8192, 1]  |  data = 0, sizeInBytes = 524288  |  location = in SRAM  |  sramOffset = 0x1000fffffd250000  |  "
    }
  }
  attr {
    key: "inputTensor:1"
    value {
      s: "hf8-7_303265  |  Sizes = [1,8192,7168]  |  hfloat8  |  expBias = 7, scale = 1  |    |  ModelParam = 0  |  strides = [58720256, 58720256, 7168, 1]  |  data = 0, sizeInBytes = 58720256  |  isAliased = tensor_12_odule/model/31/up_proj/placeholder/1, type = alias, offset: 0  |  location = in DRAM  |  "
    }
  }
  attr {
    key: "outputTensor:0"
    value {
      s: "tensor_16  |  Sizes = [1,64,7168]  |  bf16  |  expBias = 0, scale = 1  |    |  ModelParam = 0  |  strides = [917504, 917504, 14336, 2]  |  data = 0, sizeInBytes = 917504  |  location = in DRAM  |  dramOffset = 0x140000000100  |  "
    }
  }
}
node {
  name: "module/model/31/gate_proj/fp8_gemm_bf16/24367_complex/fp8_gemm_bf16_4355/batch_gemm_8_bundle_1633/op_6_gemm"
  op: "GEMM"
  input: "fusedTPCNode_559_0_bundle_1633/op_4"
  input: "module/model/31/gate_proj/fp8_gemm_bf16/24367_complex/fp8_gemm_bf16_4355/expand_dims_6"
  attr {
    key: "Bundle_idx"
    value {
      s: "1633"
    }
  }
  attr {
    key: "Exec_idx"
    value {
      s: "8"
    }
  }
  attr {
    key: "Op_idx"
    value {
      s: "6"
    }
  }
  attr {
    key: "Parameters"
    value {
      s: "transpose_a=false, transpose_b=false"
    }
  }
  attr {
    key: "fp8BiasIn"
    value {
      s: "7"
    }
  }
  attr {
    key: "fp8BiasIn2"
    value {
      s: "15"
    }
  }
  attr {
    key: "fp8BiasOut"
    value {
      s: "0"
    }
  }
  attr {
    key: "inputTensor:0"
    value {
      s: "tensor_11_slice_0_0_0_0_0__0__bundle_1633_303477  |  Sizes = [1,64,8192]  |  hfloat8  |  expBias = 7, scale = 1  |    |  ModelParam = 0  |  strides = [524288, 524288, 8192, 1]  |  data = 0, sizeInBytes = 524288  |  location = in SRAM  |  sramOffset = 0x1000fffffd250000  |  "
    }
  }
  attr {
    key: "inputTensor:1"
    value {
      s: "hf8-7_303269  |  Sizes = [1,8192,7168]  |  hfloat8  |  expBias = 7, scale = 1  |    |  ModelParam = 0  |  strides = [58720256, 58720256, 7168, 1]  |  data = 0, sizeInBytes = 58720256  |  isAliased = tensor_21_odule/model/31/gate_proj/placeholder/1, type = alias, offset: 0  |  location = in DRAM  |  "
    }
  }
  attr {
    key: "outputTensor:0"
    value {
      s: "tensor_25  |  Sizes = [1,64,7168]  |  bf16  |  expBias = 0, scale = 1  |    |  ModelParam = 0  |  strides = [917504, 917504, 14336, 2]  |  data = 0, sizeInBytes = 917504  |  location = in DRAM  |  dramOffset = 0x0  |  "
    }
  }
}
node {
  name: "tensor_2_bundle_1633/memcpy/0"
  op: "DmaMemcpy"
  input: "module/model/31/add_fwd_bf16/24362_complex/add_fwd_bf16_0_bundle_1633/op_0"
  input: "^module/model/31/add_fwd_bf16/24362_complex/add_fwd_bf16_0_bundle_1633/op_0"
  attr {
    key: "Bundle_idx"
    value {
      s: "1633"
    }
  }
  attr {
    key: "Exec_idx"
    value {
      s: "9"
    }
  }
  attr {
    key: "Op_idx"
    value {
      s: "7"
    }
  }
  attr {
    key: "inputTensor:0"
    value {
      s: "tensor_2_slice_0_0_0_0_0__0__bundle_1633_303471  |  Sizes = [1,64,8192]  |  bf16  |  expBias = 0, scale = 1  |    |  ModelParam = 0  |  strides = [1048576, 1048576, 16384, 2]  |  data = 0, sizeInBytes = 1048576  |  location = in SRAM  |  sramOffset = 0x1000fffffd050000  |  "
    }
  }
  attr {
    key: "outputTensor:0"
    value {
      s: "tensor_2  |  Sizes = [1,64,8192]  |  bf16  |  expBias = 0, scale = 1  |    |  ModelParam = 0  |  strides = [1048576, 1048576, 16384, 2]  |  data = 0, sizeInBytes = 1048576  |  isPersistent  |  location = in DRAM  |  dramOffset = 0x40000000000  |  userMemorySection(type=Persistent, id=4)  |  "
    }
  }
}
node {
  name: "tensor_2"
  op: "OutputTensor"
  input: "tensor_2_bundle_1633/memcpy/0"
  attr {
    key: "dtype"
    value {
      type: DT_BFLOAT16
    }
  }
  attr {
    key: "shape"
    value {
      shape {
        dim {
          size: 8192
        }
        dim {
          size: 64
        }
        dim {
          size: 1
        }
        dim {
          size: 1
        }
        dim {
          size: 1
        }
      }
    }
  }
  attr {
    key: "synDataType"
    value {
      s: "bf16"
    }
  }
}
node {
  name: "tensor_32_odule/model/31/down_proj/placeholder/1"
  op: "Placeholder"
  attr {
    key: "dtype"
    value {
      type: DT_INVALID
    }
  }
  attr {
    key: "shape"
    value {
      shape {
        dim {
          size: 8192
        }
        dim {
          size: 7168
        }
        dim {
          size: 1
        }
        dim {
          size: 1
        }
        dim {
          size: 1
        }
      }
    }
  }
  attr {
    key: "synDataType"
    value {
      s: "hfloat8"
    }
  }
}
node {
  name: "module/model/31/down_proj/fp8_gemm_bf16/24371_complex/fp8_gemm_bf16_4357/expand_dims_6"
  op: "ExpandDims"
  input: "tensor_32_odule/model/31/down_proj/placeholder/1"
  attr {
    key: "Bundle_idx"
    value {
      s: "N/A"
    }
  }
  attr {
    key: "Exec_idx"
    value {
      s: "10"
    }
  }
  attr {
    key: "Op_idx"
    value {
      s: "N/A"
    }
  }
  attr {
    key: "inputTensor:0"
    value {
      s: "tensor_32_odule/model/31/down_proj/placeholder/1  |  Sizes = [7168,8192]  |  hfloat8  |  expBias = 7, scale = 1  |    |  ModelParam = 0  |  strides = [58720256, 8192, 1]  |  data = 0, sizeInBytes = 58720256  |  isPersistent  |  location = in DRAM  |  dramOffset = 0x100000000000  |  userMemorySection(type=Persistent, id=16)  |  "
    }
  }
  attr {
    key: "outputTensor:0"
    value {
      s: "hf8-7_303277  |  Sizes = [1,7168,8192]  |  hfloat8  |  expBias = 7, scale = 1  |    |  ModelParam = 0  |  strides = [58720256, 58720256, 8192, 1]  |  data = 0, sizeInBytes = 58720256  |  isAliased = tensor_32_odule/model/31/down_proj/placeholder/1, type = alias, offset: 0  |  location = in DRAM  |  "
    }
  }
}
node {
  name: "fusedTPCNode_559_1_bundle_1634/op_0"
  op: "fused_kernel_0xE4486941_674_bf16"
  input: "module/model/31/gate_proj/fp8_gemm_bf16/24367_complex/fp8_gemm_bf16_4355/batch_gemm_8_bundle_1633/op_6_gemm"
  input: "module/model/31/up_proj/fp8_gemm_bf16/24365_complex/fp8_gemm_bf16_4353/batch_gemm_8_bundle_1633/op_5_gemm"
  attr {
    key: "Bundle_idx"
    value {
      s: "1634"
    }
  }
  attr {
    key: "Exec_idx"
    value {
      s: "11"
    }
  }
  attr {
    key: "Op_idx"
    value {
      s: "0"
    }
  }
  attr {
    key: "inputTensor:0"
    value {
      s: "tensor_25  |  Sizes = [1,64,7168]  |  bf16  |  expBias = 0, scale = 1  |    |  ModelParam = 0  |  strides = [917504, 917504, 14336, 2]  |  data = 0, sizeInBytes = 917504  |  location = in DRAM  |  dramOffset = 0x0  |  "
    }
  }
  attr {
    key: "inputTensor:1"
    value {
      s: "tensor_16  |  Sizes = [1,64,7168]  |  bf16  |  expBias = 0, scale = 1  |    |  ModelParam = 0  |  strides = [917504, 917504, 14336, 2]  |  data = 0, sizeInBytes = 917504  |  location = in DRAM  |  dramOffset = 0x140000000100  |  "
    }
  }
  attr {
    key: "outputTensor:0"
    value {
      s: "tensor_31_slice_0_0_0_0_0__0__bundle_1634_303487  |  Sizes = [1,64,7168]  |  hfloat8  |  expBias = 7, scale = 1  |    |  ModelParam = 0  |  strides = [458752, 458752, 7168, 1]  |  data = 0, sizeInBytes = 458752  |  location = in SRAM  |  sramOffset = 0x1000fffffd2d0000  |  "
    }
  }
}
node {
  name: "module/model/31/down_proj/fp8_gemm_bf16/24371_complex/fp8_gemm_bf16_4357/batch_gemm_8_bundle_1634/op_1_gemm"
  op: "GEMM"
  input: "fusedTPCNode_559_1_bundle_1634/op_0"
  input: "module/model/31/down_proj/fp8_gemm_bf16/24371_complex/fp8_gemm_bf16_4357/expand_dims_6"
  attr {
    key: "Bundle_idx"
    value {
      s: "1634"
    }
  }
  attr {
    key: "Exec_idx"
    value {
      s: "12"
    }
  }
  attr {
    key: "Op_idx"
    value {
      s: "1"
    }
  }
  attr {
    key: "Parameters"
    value {
      s: "transpose_a=false, transpose_b=false"
    }
  }
  attr {
    key: "fp8BiasIn"
    value {
      s: "7"
    }
  }
  attr {
    key: "fp8BiasIn2"
    value {
      s: "11"
    }
  }
  attr {
    key: "fp8BiasOut"
    value {
      s: "0"
    }
  }
  attr {
    key: "inputTensor:0"
    value {
      s: "tensor_31_slice_0_0_0_0_0__0__bundle_1634_303487  |  Sizes = [1,64,7168]  |  hfloat8  |  expBias = 7, scale = 1  |    |  ModelParam = 0  |  strides = [458752, 458752, 7168, 1]  |  data = 0, sizeInBytes = 458752  |  location = in SRAM  |  sramOffset = 0x1000fffffd2d0000  |  "
    }
  }
  attr {
    key: "inputTensor:1"
    value {
      s: "hf8-7_303277  |  Sizes = [1,7168,8192]  |  hfloat8  |  expBias = 7, scale = 1  |    |  ModelParam = 0  |  strides = [58720256, 58720256, 8192, 1]  |  data = 0, sizeInBytes = 58720256  |  isAliased = tensor_32_odule/model/31/down_proj/placeholder/1, type = alias, offset: 0  |  location = in DRAM  |  "
    }
  }
  attr {
    key: "outputTensor:0"
    value {
      s: "tensor_36  |  Sizes = [1,64,8192]  |  bf16  |  expBias = 0, scale = 1  |    |  ModelParam = 0  |  strides = [1048576, 1048576, 16384, 2]  |  data = 0, sizeInBytes = 1048576  |  isPersistent  |  location = in DRAM  |  dramOffset = 0x140000000000  |  userMemorySection(type=Persistent, id=20)  |  "
    }
  }
}
node {
  name: "tensor_36"
  op: "OutputTensor"
  input: "module/model/31/down_proj/fp8_gemm_bf16/24371_complex/fp8_gemm_bf16_4357/batch_gemm_8_bundle_1634/op_1_gemm"
  attr {
    key: "dtype"
    value {
      type: DT_BFLOAT16
    }
  }
  attr {
    key: "shape"
    value {
      shape {
        dim {
          size: 8192
        }
        dim {
          size: 64
        }
        dim {
          size: 1
        }
        dim {
          size: 1
        }
        dim {
          size: 1
        }
      }
    }
  }
  attr {
    key: "synDataType"
    value {
      s: "bf16"
    }
  }
}
