node {
  name: "tensor_7_odule/model/51/placeholder/0"
  op: "Placeholder"
  attr {
    key: "dtype"
    value {
      type: DT_INT32
    }
  }
  attr {
    key: "shape"
    value {
      shape {
        dim {
          size: 284
        }
        dim {
          size: 1
        }
        dim {
          size: 1
        }
        dim {
          size: 1
        }
        dim {
          size: 1
        }
      }
    }
  }
  attr {
    key: "synDataType"
    value {
      s: "int32"
    }
  }
}
node {
  name: "module/model/51/expand_dims/9286"
  op: "ExpandDims"
  input: "tensor_7_odule/model/51/placeholder/0"
  attr {
    key: "Bundle_idx"
    value {
      s: "N/A"
    }
  }
  attr {
    key: "Exec_idx"
    value {
      s: "0"
    }
  }
  attr {
    key: "Op_idx"
    value {
      s: "N/A"
    }
  }
  attr {
    key: "inputTensor:0"
    value {
      s: "tensor_7_odule/model/51/placeholder/0  |  Sizes = [284]  |  int32  |  expBias = 0, scale = 1  |    |  ModelParam = 0  |  strides = [1136, 4]  |  data = 0, sizeInBytes = 1136  |  isPersistent  |  userMemorySection(type=Persistent, id=7)  |  "
    }
  }
  attr {
    key: "outputTensor:0"
    value {
      s: "tensor_8_id_111276_module/model/51/aten__unsqueeze/1  |  Sizes = [1,284]  |  int32  |  expBias = 0, scale = 1  |    |  ModelParam = 0  |  strides = [1136, 1136, 4]  |  data = 0, sizeInBytes = 1136  |  "
    }
  }
}
node {
  name: "tensor_73_odule/model/51/fused_scaled_dot_product_attention/placeholder/0"
  op: "Placeholder"
  attr {
    key: "dtype"
    value {
      type: DT_BFLOAT16
    }
  }
  attr {
    key: "shape"
    value {
      shape {
        dim {
          size: 284
        }
        dim {
          size: 284
        }
        dim {
          size: 1
        }
        dim {
          size: 1
        }
        dim {
          size: 1
        }
      }
    }
  }
  attr {
    key: "synDataType"
    value {
      s: "bf16"
    }
  }
}
node {
  name: "module/model/51/fused_scaled_dot_product_attention/expand_dims/9316"
  op: "ExpandDims"
  input: "tensor_73_odule/model/51/fused_scaled_dot_product_attention/placeholder/0"
  attr {
    key: "Bundle_idx"
    value {
      s: "N/A"
    }
  }
  attr {
    key: "Exec_idx"
    value {
      s: "1"
    }
  }
  attr {
    key: "Op_idx"
    value {
      s: "N/A"
    }
  }
  attr {
    key: "inputTensor:0"
    value {
      s: "tensor_73_odule/model/51/fused_scaled_dot_product_attention/placeholder/0  |  Sizes = [284,284]  |  bf16  |  expBias = 0, scale = 1  |    |  ModelParam = 0  |  strides = [161312, 568, 2]  |  data = 0, sizeInBytes = 161312  |  isPersistent  |  userMemorySection(type=Persistent, id=29)  |  "
    }
  }
  attr {
    key: "outputTensor:0"
    value {
      s: "tensor_74_id_111277_module/model/51/fused_scaled_dot_product_attention/aten__unsqueeze  |  Sizes = [1,284,284]  |  bf16  |  expBias = 0, scale = 1  |    |  ModelParam = 0  |  strides = [161312, 161312, 568, 2]  |  data = 0, sizeInBytes = 161312  |  "
    }
  }
}
node {
  name: "module/model/51/fused_scaled_dot_product_attention/expand_dims/9317"
  op: "ExpandDims"
  input: "module/model/51/fused_scaled_dot_product_attention/expand_dims/9316"
  attr {
    key: "Bundle_idx"
    value {
      s: "N/A"
    }
  }
  attr {
    key: "Exec_idx"
    value {
      s: "2"
    }
  }
  attr {
    key: "Op_idx"
    value {
      s: "N/A"
    }
  }
  attr {
    key: "inputTensor:0"
    value {
      s: "tensor_74_id_111277_module/model/51/fused_scaled_dot_product_attention/aten__unsqueeze  |  Sizes = [1,284,284]  |  bf16  |  expBias = 0, scale = 1  |    |  ModelParam = 0  |  strides = [161312, 161312, 568, 2]  |  data = 0, sizeInBytes = 161312  |  "
    }
  }
  attr {
    key: "outputTensor:0"
    value {
      s: "tensor_75_id_111278_module/model/51/fused_scaled_dot_product_attention/aten__unsqueeze  |  Sizes = [1,1,284,284]  |  bf16  |  expBias = 0, scale = 1  |    |  ModelParam = 0  |  strides = [161312, 161312, 161312, 568, 2]  |  data = 0, sizeInBytes = 161312  |  "
    }
  }
}
node {
  name: "module/model/51/expand_dims/9326"
  op: "ExpandDims"
  input: "tensor_7_odule/model/51/placeholder/0"
  attr {
    key: "Bundle_idx"
    value {
      s: "N/A"
    }
  }
  attr {
    key: "Exec_idx"
    value {
      s: "3"
    }
  }
  attr {
    key: "Op_idx"
    value {
      s: "N/A"
    }
  }
  attr {
    key: "inputTensor:0"
    value {
      s: "tensor_7_odule/model/51/placeholder/0  |  Sizes = [284]  |  int32  |  expBias = 0, scale = 1  |    |  ModelParam = 0  |  strides = [1136, 4]  |  data = 0, sizeInBytes = 1136  |  isPersistent  |  userMemorySection(type=Persistent, id=7)  |  "
    }
  }
  attr {
    key: "outputTensor:0"
    value {
      s: "tensor_90_id_111276_module/model/51/aten__unsqueeze  |  Sizes = [1,284]  |  int32  |  expBias = 0, scale = 1  |    |  ModelParam = 0  |  strides = [1136, 1136, 4]  |  data = 0, sizeInBytes = 1136  |  "
    }
  }
}
node {
  name: "tensor_0_odule/model/50/placeholder/0"
  op: "Placeholder"
  attr {
    key: "dtype"
    value {
      type: DT_BFLOAT16
    }
  }
  attr {
    key: "shape"
    value {
      shape {
        dim {
          size: 8192
        }
        dim {
          size: 284
        }
        dim {
          size: 1
        }
        dim {
          size: 1
        }
        dim {
          size: 1
        }
      }
    }
  }
  attr {
    key: "synDataType"
    value {
      s: "bf16"
    }
  }
}
node {
  name: "tensor_1_odule/model/50/placeholder/1"
  op: "Placeholder"
  attr {
    key: "dtype"
    value {
      type: DT_BFLOAT16
    }
  }
  attr {
    key: "shape"
    value {
      shape {
        dim {
          size: 8192
        }
        dim {
          size: 284
        }
        dim {
          size: 1
        }
        dim {
          size: 1
        }
        dim {
          size: 1
        }
      }
    }
  }
  attr {
    key: "synDataType"
    value {
      s: "bf16"
    }
  }
}
node {
  name: "module/model/50/add_fwd_bf16/9284"
  op: "add_fwd_bf16"
  input: "tensor_0_odule/model/50/placeholder/0"
  input: "tensor_1_odule/model/50/placeholder/1"
  attr {
    key: "Bundle_idx"
    value {
      s: "N/A"
    }
  }
  attr {
    key: "Exec_idx"
    value {
      s: "4"
    }
  }
  attr {
    key: "Op_idx"
    value {
      s: "N/A"
    }
  }
  attr {
    key: "inputTensor:0"
    value {
      s: "tensor_0_odule/model/50/placeholder/0  |  Sizes = [1,284,8192]  |  bf16  |  expBias = 0, scale = 1  |    |  ModelParam = 0  |  strides = [4653056, 4653056, 16384, 2]  |  data = 0, sizeInBytes = 4653056  |  isPersistent  |  userMemorySection(type=Persistent, id=4)  |  "
    }
  }
  attr {
    key: "inputTensor:1"
    value {
      s: "tensor_1_odule/model/50/placeholder/1  |  Sizes = [1,284,8192]  |  bf16  |  expBias = 0, scale = 1  |    |  ModelParam = 0  |  strides = [4653056, 4653056, 16384, 2]  |  data = 0, sizeInBytes = 4653056  |  isPersistent  |  userMemorySection(type=Persistent, id=5)  |  "
    }
  }
  attr {
    key: "outputTensor:0"
    value {
      s: "tensor_2  |  Sizes = [1,284,8192]  |  bf16  |  expBias = 0, scale = 1  |    |  ModelParam = 0  |  strides = [4653056, 4653056, 16384, 2]  |  data = 0, sizeInBytes = 4653056  |  isPersistent  |  userMemorySection(type=Persistent, id=4)  |  "
    }
  }
}
node {
  name: "tensor_24_odule/model/51/input_layernorm/placeholder/1"
  op: "Placeholder"
  attr {
    key: "dtype"
    value {
      type: DT_BFLOAT16
    }
  }
  attr {
    key: "shape"
    value {
      shape {
        dim {
          size: 8192
        }
        dim {
          size: 1
        }
        dim {
          size: 1
        }
        dim {
          size: 1
        }
        dim {
          size: 1
        }
      }
    }
  }
  attr {
    key: "synDataType"
    value {
      s: "bf16"
    }
  }
}
node {
  name: "module/model/51/input_layernorm/rms_norm_ex_fwd_bf16/9299"
  op: "rms_norm_ex_fwd_bf16"
  input: "module/model/50/add_fwd_bf16/9284"
  input: "tensor_24_odule/model/51/input_layernorm/placeholder/1"
  attr {
    key: "Bundle_idx"
    value {
      s: "N/A"
    }
  }
  attr {
    key: "Exec_idx"
    value {
      s: "5"
    }
  }
  attr {
    key: "Op_idx"
    value {
      s: "N/A"
    }
  }
  attr {
    key: "inputTensor:0"
    value {
      s: "tensor_2  |  Sizes = [1,284,8192]  |  bf16  |  expBias = 0, scale = 1  |    |  ModelParam = 0  |  strides = [4653056, 4653056, 16384, 2]  |  data = 0, sizeInBytes = 4653056  |  isPersistent  |  userMemorySection(type=Persistent, id=4)  |  "
    }
  }
  attr {
    key: "inputTensor:1"
    value {
      s: "tensor_24_odule/model/51/input_layernorm/placeholder/1  |  Sizes = [8192]  |  bf16  |  expBias = 0, scale = 1  |    |  ModelParam = 0  |  strides = [16384, 2]  |  data = 0, sizeInBytes = 16384  |  isPersistent  |  userMemorySection(type=Persistent, id=11)  |  "
    }
  }
  attr {
    key: "outputTensor:0"
    value {
      s: "tensor_27  |  Sizes = [1,284,8192]  |  bf16  |  expBias = 0, scale = 1  |    |  ModelParam = 0  |  strides = [4653056, 4653056, 16384, 2]  |  data = 0, sizeInBytes = 4653056  |  "
    }
  }
  attr {
    key: "outputTensor:1"
    value {
      s: "tensor_28  |  Sizes = [1,284,1]  |  float32  |  expBias = 0, scale = 1  |    |  ModelParam = 0  |  strides = [1136, 1136, 4, 4]  |  data = 0, sizeInBytes = 1136  |  "
    }
  }
}
node {
  name: "tensor_28"
  op: "OutputTensor"
  input: "module/model/51/input_layernorm/rms_norm_ex_fwd_bf16/9299"
  attr {
    key: "dtype"
    value {
      type: DT_FLOAT
    }
  }
  attr {
    key: "shape"
    value {
      shape {
        dim {
          size: 1
        }
        dim {
          size: 284
        }
        dim {
          size: 1
        }
        dim {
          size: 1
        }
        dim {
          size: 1
        }
      }
    }
  }
  attr {
    key: "synDataType"
    value {
      s: "float32"
    }
  }
}
node {
  name: "tensor_29_odule/model/51/k_proj/quant_input_0/placeholder/1"
  op: "Placeholder"
  attr {
    key: "dtype"
    value {
      type: DT_BFLOAT16
    }
  }
  attr {
    key: "shape"
    value {
      shape {
        dim {
          size: 1
        }
        dim {
          size: 1
        }
        dim {
          size: 1
        }
        dim {
          size: 1
        }
        dim {
          size: 1
        }
      }
    }
  }
  attr {
    key: "synDataType"
    value {
      s: "bf16"
    }
  }
}
node {
  name: "module/model/51/k_proj/quant_input_0/convert_to_fp8_bf16/9300"
  op: "convert_to_fp8_bf16"
  input: "module/model/51/input_layernorm/rms_norm_ex_fwd_bf16/9299"
  input: "tensor_29_odule/model/51/k_proj/quant_input_0/placeholder/1"
  attr {
    key: "Bundle_idx"
    value {
      s: "N/A"
    }
  }
  attr {
    key: "Exec_idx"
    value {
      s: "6"
    }
  }
  attr {
    key: "Op_idx"
    value {
      s: "N/A"
    }
  }
  attr {
    key: "inputTensor:0"
    value {
      s: "tensor_27  |  Sizes = [1,284,8192]  |  bf16  |  expBias = 0, scale = 1  |    |  ModelParam = 0  |  strides = [4653056, 4653056, 16384, 2]  |  data = 0, sizeInBytes = 4653056  |  "
    }
  }
  attr {
    key: "inputTensor:1"
    value {
      s: "tensor_29_odule/model/51/k_proj/quant_input_0/placeholder/1  |  Sizes = [1]  |  bf16  |  expBias = 0, scale = 1  |    |  ModelParam = 0  |  strides = [2, 2]  |  data = 0x55db76aa6670, sizeInBytes = 2  |  buffer = 1  |  isPersistent  |  userMemorySection(type=Persistent, id=12)  |  isStaticParam  |  bufferDtype=bf16  |  "
    }
  }
  attr {
    key: "outputTensor:0"
    value {
      s: "tensor_32  |  Sizes = [1,284,8192]  |  hfloat8  |  expBias = 7, scale = 1  |    |  ModelParam = 0  |  strides = [2326528, 2326528, 8192, 1]  |  data = 0, sizeInBytes = 2326528  |  "
    }
  }
}
node {
  name: "tensor_9_odule/model/51/rotary_emb/placeholder/0"
  op: "Placeholder"
  attr {
    key: "dtype"
    value {
      type: DT_BFLOAT16
    }
  }
  attr {
    key: "shape"
    value {
      shape {
        dim {
          size: 128
        }
        dim {
          size: 131072
        }
        dim {
          size: 1
        }
        dim {
          size: 1
        }
        dim {
          size: 1
        }
      }
    }
  }
  attr {
    key: "synDataType"
    value {
      s: "bf16"
    }
  }
}
node {
  name: "module/model/51/rotary_emb/slice/9287"
  op: "Slice"
  input: "tensor_9_odule/model/51/rotary_emb/placeholder/0"
  attr {
    key: "Bundle_idx"
    value {
      s: "N/A"
    }
  }
  attr {
    key: "Exec_idx"
    value {
      s: "7"
    }
  }
  attr {
    key: "Op_idx"
    value {
      s: "N/A"
    }
  }
  attr {
    key: "inputTensor:0"
    value {
      s: "tensor_9_odule/model/51/rotary_emb/placeholder/0  |  Sizes = [131072,128]  |  bf16  |  expBias = 0, scale = 1  |    |  ModelParam = 0  |  strides = [33554432, 256, 2]  |  data = 0, sizeInBytes = 33554432  |  isPersistent  |  userMemorySection(type=Persistent, id=8)  |  "
    }
  }
  attr {
    key: "outputTensor:0"
    value {
      s: "tensor_10_id_111394_module/model/51/rotary_emb/aten__slice  |  Sizes = [284,128]  |  bf16  |  expBias = 0, scale = 1  |    |  ModelParam = 0  |  strides = [72704, 256, 2]  |  data = 0, sizeInBytes = 72704  |  "
    }
  }
}
node {
  name: "tensor_11_odule/model/51/rotary_emb/placeholder/1"
  op: "Placeholder"
  attr {
    key: "dtype"
    value {
      type: DT_FLOAT
    }
  }
  attr {
    key: "shape"
    value {
      shape {
        dim {
          size: 1
        }
        dim {
          size: 1
        }
        dim {
          size: 1
        }
        dim {
          size: 1
        }
        dim {
          size: 1
        }
      }
    }
  }
  attr {
    key: "synDataType"
    value {
      s: "float32"
    }
  }
}
node {
  name: "module/model/51/rotary_emb/cast_f32_to_bf16/9288"
  op: "cast_f32_to_bf16"
  input: "tensor_11_odule/model/51/rotary_emb/placeholder/1"
  attr {
    key: "Bundle_idx"
    value {
      s: "N/A"
    }
  }
  attr {
    key: "Exec_idx"
    value {
      s: "8"
    }
  }
  attr {
    key: "Op_idx"
    value {
      s: "N/A"
    }
  }
  attr {
    key: "inputTensor:0"
    value {
      s: "tensor_11_odule/model/51/rotary_emb/placeholder/1  |  Sizes = [1]  |  float32  |  expBias = 0, scale = 1  |    |  ModelParam = 0  |  strides = [4, 4]  |  data = 0, sizeInBytes = 4  |  isPersistent  |  userMemorySection(type=Persistent, id=9)  |  "
    }
  }
  attr {
    key: "outputTensor:0"
    value {
      s: "tensor_13  |  Sizes = [1]  |  bf16  |  expBias = 0, scale = 1  |    |  ModelParam = 0  |  strides = [2, 2]  |  data = 0, sizeInBytes = 2  |  "
    }
  }
}
node {
  name: "tensor_17_odule/model/51/rotary_emb/placeholder/0"
  op: "Placeholder"
  attr {
    key: "dtype"
    value {
      type: DT_BFLOAT16
    }
  }
  attr {
    key: "shape"
    value {
      shape {
        dim {
          size: 128
        }
        dim {
          size: 131072
        }
        dim {
          size: 1
        }
        dim {
          size: 1
        }
        dim {
          size: 1
        }
      }
    }
  }
  attr {
    key: "synDataType"
    value {
      s: "bf16"
    }
  }
}
node {
  name: "module/model/51/rotary_emb/slice/9293"
  op: "Slice"
  input: "tensor_17_odule/model/51/rotary_emb/placeholder/0"
  attr {
    key: "Bundle_idx"
    value {
      s: "N/A"
    }
  }
  attr {
    key: "Exec_idx"
    value {
      s: "9"
    }
  }
  attr {
    key: "Op_idx"
    value {
      s: "N/A"
    }
  }
  attr {
    key: "inputTensor:0"
    value {
      s: "tensor_17_odule/model/51/rotary_emb/placeholder/0  |  Sizes = [131072,128]  |  bf16  |  expBias = 0, scale = 1  |    |  ModelParam = 0  |  strides = [33554432, 256, 2]  |  data = 0, sizeInBytes = 33554432  |  isPersistent  |  userMemorySection(type=Persistent, id=10)  |  "
    }
  }
  attr {
    key: "outputTensor:0"
    value {
      s: "tensor_18_id_111398_module/model/51/rotary_emb/aten__slice  |  Sizes = [284,128]  |  bf16  |  expBias = 0, scale = 1  |    |  ModelParam = 0  |  strides = [72704, 256, 2]  |  data = 0, sizeInBytes = 72704  |  "
    }
  }
}
node {
  name: "module/model/51/rotary_emb/cast_f32_to_bf16/9294"
  op: "cast_f32_to_bf16"
  input: "tensor_11_odule/model/51/rotary_emb/placeholder/1"
  attr {
    key: "Bundle_idx"
    value {
      s: "N/A"
    }
  }
  attr {
    key: "Exec_idx"
    value {
      s: "10"
    }
  }
  attr {
    key: "Op_idx"
    value {
      s: "N/A"
    }
  }
  attr {
    key: "inputTensor:0"
    value {
      s: "tensor_11_odule/model/51/rotary_emb/placeholder/1  |  Sizes = [1]  |  float32  |  expBias = 0, scale = 1  |    |  ModelParam = 0  |  strides = [4, 4]  |  data = 0, sizeInBytes = 4  |  isPersistent  |  userMemorySection(type=Persistent, id=9)  |  "
    }
  }
  attr {
    key: "outputTensor:0"
    value {
      s: "tensor_20  |  Sizes = [1]  |  bf16  |  expBias = 0, scale = 1  |    |  ModelParam = 0  |  strides = [2, 2]  |  data = 0, sizeInBytes = 2  |  "
    }
  }
}
node {
  name: "tensor_33_odule/model/51/k_proj/placeholder/1"
  op: "Placeholder"
  attr {
    key: "dtype"
    value {
      type: DT_INVALID
    }
  }
  attr {
    key: "shape"
    value {
      shape {
        dim {
          size: 256
        }
        dim {
          size: 8192
        }
        dim {
          size: 1
        }
        dim {
          size: 1
        }
        dim {
          size: 1
        }
      }
    }
  }
  attr {
    key: "synDataType"
    value {
      s: "hfloat8"
    }
  }
}
node {
  name: "tensor_34_odule/model/51/k_proj/placeholder/2"
  op: "Placeholder"
  attr {
    key: "dtype"
    value {
      type: DT_BFLOAT16
    }
  }
  attr {
    key: "shape"
    value {
      shape {
        dim {
          size: 1
        }
        dim {
          size: 1
        }
        dim {
          size: 1
        }
        dim {
          size: 1
        }
        dim {
          size: 1
        }
      }
    }
  }
  attr {
    key: "synDataType"
    value {
      s: "bf16"
    }
  }
}
node {
  name: "tensor_35_odule/model/51/k_proj/placeholder/3"
  op: "Placeholder"
  attr {
    key: "dtype"
    value {
      type: DT_BFLOAT16
    }
  }
  attr {
    key: "shape"
    value {
      shape {
        dim {
          size: 1
        }
        dim {
          size: 1
        }
        dim {
          size: 1
        }
        dim {
          size: 1
        }
        dim {
          size: 1
        }
      }
    }
  }
  attr {
    key: "synDataType"
    value {
      s: "bf16"
    }
  }
}
node {
  name: "module/model/51/k_proj/fp8_gemm_bf16/9301"
  op: "fp8_gemm_bf16"
  input: "module/model/51/k_proj/quant_input_0/convert_to_fp8_bf16/9300"
  input: "tensor_33_odule/model/51/k_proj/placeholder/1"
  input: "tensor_34_odule/model/51/k_proj/placeholder/2"
  input: "tensor_35_odule/model/51/k_proj/placeholder/3"
  input: "unused_port"
  input: "unused_port"
  input: "unused_port"
  attr {
    key: "Bundle_idx"
    value {
      s: "N/A"
    }
  }
  attr {
    key: "Exec_idx"
    value {
      s: "11"
    }
  }
  attr {
    key: "Op_idx"
    value {
      s: "N/A"
    }
  }
  attr {
    key: "inputTensor:0"
    value {
      s: "tensor_32  |  Sizes = [1,284,8192]  |  hfloat8  |  expBias = 7, scale = 1  |    |  ModelParam = 0  |  strides = [2326528, 2326528, 8192, 1]  |  data = 0, sizeInBytes = 2326528  |  "
    }
  }
  attr {
    key: "inputTensor:1"
    value {
      s: "tensor_33_odule/model/51/k_proj/placeholder/1  |  Sizes = [8192,256]  |  hfloat8  |  expBias = 7, scale = 1  |    |  ModelParam = 0  |  strides = [2097152, 256, 1]  |  data = 0, sizeInBytes = 2097152  |  isPersistent  |  userMemorySection(type=Persistent, id=13)  |  "
    }
  }
  attr {
    key: "inputTensor:2"
    value {
      s: "tensor_34_odule/model/51/k_proj/placeholder/2  |  Sizes = [1]  |  bf16  |  expBias = 0, scale = 1  |    |  ModelParam = 0  |  strides = [2, 2]  |  data = 0x55db85d03fa8, sizeInBytes = 2  |  buffer = 1  |  isPersistent  |  userMemorySection(type=Persistent, id=14)  |  isStaticParam  |  bufferDtype=bf16  |  "
    }
  }
  attr {
    key: "inputTensor:3"
    value {
      s: "tensor_35_odule/model/51/k_proj/placeholder/3  |  Sizes = [1]  |  bf16  |  expBias = 0, scale = 1  |    |  ModelParam = 0  |  strides = [2, 2]  |  data = 0x55db85d031d8, sizeInBytes = 2  |  buffer = 0.00390625  |  isPersistent  |  userMemorySection(type=Persistent, id=15)  |  isStaticParam  |  bufferDtype=bf16  |  "
    }
  }
  attr {
    key: "outputTensor:0"
    value {
      s: "tensor_37  |  Sizes = [1,284,256]  |  bf16  |  expBias = 0, scale = 1  |    |  ModelParam = 0  |  strides = [145408, 145408, 512, 2]  |  data = 0, sizeInBytes = 145408  |  "
    }
  }
}
node {
  name: "module/model/51/reshape/9302"
  op: "Reshape"
  input: "module/model/51/k_proj/fp8_gemm_bf16/9301"
  attr {
    key: "Bundle_idx"
    value {
      s: "N/A"
    }
  }
  attr {
    key: "Exec_idx"
    value {
      s: "12"
    }
  }
  attr {
    key: "Op_idx"
    value {
      s: "N/A"
    }
  }
  attr {
    key: "inputTensor:0"
    value {
      s: "tensor_37  |  Sizes = [1,284,256]  |  bf16  |  expBias = 0, scale = 1  |    |  ModelParam = 0  |  strides = [145408, 145408, 512, 2]  |  data = 0, sizeInBytes = 145408  |  "
    }
  }
  attr {
    key: "outputTensor:0"
    value {
      s: "tensor_38_id_111386_module/model/51/aten__view  |  Sizes = [1,284,2,128]  |  bf16  |  expBias = 0, scale = 1  |    |  ModelParam = 0  |  strides = [145408, 145408, 512, 256, 2]  |  data = 0, sizeInBytes = 145408  |  "
    }
  }
}
node {
  name: "tensor_54_odule/model/51/v_proj/quant_input_0/placeholder/1"
  op: "Placeholder"
  attr {
    key: "dtype"
    value {
      type: DT_BFLOAT16
    }
  }
  attr {
    key: "shape"
    value {
      shape {
        dim {
          size: 1
        }
        dim {
          size: 1
        }
        dim {
          size: 1
        }
        dim {
          size: 1
        }
        dim {
          size: 1
        }
      }
    }
  }
  attr {
    key: "synDataType"
    value {
      s: "bf16"
    }
  }
}
node {
  name: "module/model/51/v_proj/quant_input_0/convert_to_fp8_bf16/9309"
  op: "convert_to_fp8_bf16"
  input: "module/model/51/input_layernorm/rms_norm_ex_fwd_bf16/9299"
  input: "tensor_54_odule/model/51/v_proj/quant_input_0/placeholder/1"
  attr {
    key: "Bundle_idx"
    value {
      s: "N/A"
    }
  }
  attr {
    key: "Exec_idx"
    value {
      s: "13"
    }
  }
  attr {
    key: "Op_idx"
    value {
      s: "N/A"
    }
  }
  attr {
    key: "inputTensor:0"
    value {
      s: "tensor_27  |  Sizes = [1,284,8192]  |  bf16  |  expBias = 0, scale = 1  |    |  ModelParam = 0  |  strides = [4653056, 4653056, 16384, 2]  |  data = 0, sizeInBytes = 4653056  |  "
    }
  }
  attr {
    key: "inputTensor:1"
    value {
      s: "tensor_54_odule/model/51/v_proj/quant_input_0/placeholder/1  |  Sizes = [1]  |  bf16  |  expBias = 0, scale = 1  |    |  ModelParam = 0  |  strides = [2, 2]  |  data = 0x55db5f7cee90, sizeInBytes = 2  |  buffer = 1  |  isPersistent  |  userMemorySection(type=Persistent, id=21)  |  isStaticParam  |  bufferDtype=bf16  |  "
    }
  }
  attr {
    key: "outputTensor:0"
    value {
      s: "tensor_57  |  Sizes = [1,284,8192]  |  hfloat8  |  expBias = 7, scale = 1  |    |  ModelParam = 0  |  strides = [2326528, 2326528, 8192, 1]  |  data = 0, sizeInBytes = 2326528  |  "
    }
  }
}
node {
  name: "module/model/51/rotary_emb/mult_fwd_bf16/9289"
  op: "mult_fwd_bf16"
  input: "module/model/51/rotary_emb/slice/9287"
  input: "module/model/51/rotary_emb/cast_f32_to_bf16/9288"
  attr {
    key: "Bundle_idx"
    value {
      s: "N/A"
    }
  }
  attr {
    key: "Exec_idx"
    value {
      s: "14"
    }
  }
  attr {
    key: "Op_idx"
    value {
      s: "N/A"
    }
  }
  attr {
    key: "inputTensor:0"
    value {
      s: "tensor_10_id_111394_module/model/51/rotary_emb/aten__slice  |  Sizes = [284,128]  |  bf16  |  expBias = 0, scale = 1  |    |  ModelParam = 0  |  strides = [72704, 256, 2]  |  data = 0, sizeInBytes = 72704  |  "
    }
  }
  attr {
    key: "inputTensor:1"
    value {
      s: "tensor_13  |  Sizes = [1]  |  bf16  |  expBias = 0, scale = 1  |    |  ModelParam = 0  |  strides = [2, 2]  |  data = 0, sizeInBytes = 2  |  "
    }
  }
  attr {
    key: "outputTensor:0"
    value {
      s: "tensor_12_id_111396_module/model/51/rotary_emb/aten__mul  |  Sizes = [284,128]  |  bf16  |  expBias = 0, scale = 1  |    |  ModelParam = 0  |  strides = [72704, 256, 2]  |  data = 0, sizeInBytes = 72704  |  "
    }
  }
}
node {
  name: "module/model/51/expand_dims/9290"
  op: "ExpandDims"
  input: "module/model/51/rotary_emb/mult_fwd_bf16/9289"
  attr {
    key: "Bundle_idx"
    value {
      s: "N/A"
    }
  }
  attr {
    key: "Exec_idx"
    value {
      s: "15"
    }
  }
  attr {
    key: "Op_idx"
    value {
      s: "N/A"
    }
  }
  attr {
    key: "inputTensor:0"
    value {
      s: "tensor_12_id_111396_module/model/51/rotary_emb/aten__mul  |  Sizes = [284,128]  |  bf16  |  expBias = 0, scale = 1  |    |  ModelParam = 0  |  strides = [72704, 256, 2]  |  data = 0, sizeInBytes = 72704  |  "
    }
  }
  attr {
    key: "outputTensor:0"
    value {
      s: "tensor_14_id_111418_module/model/51/aten__unsqueeze  |  Sizes = [1,284,128]  |  bf16  |  expBias = 0, scale = 1  |    |  ModelParam = 0  |  strides = [72704, 72704, 256, 2]  |  data = 0, sizeInBytes = 72704  |  "
    }
  }
}
node {
  name: "module/model/51/expand_dims/9291"
  op: "ExpandDims"
  input: "module/model/51/expand_dims/9290"
  attr {
    key: "Bundle_idx"
    value {
      s: "N/A"
    }
  }
  attr {
    key: "Exec_idx"
    value {
      s: "16"
    }
  }
  attr {
    key: "Op_idx"
    value {
      s: "N/A"
    }
  }
  attr {
    key: "inputTensor:0"
    value {
      s: "tensor_14_id_111418_module/model/51/aten__unsqueeze  |  Sizes = [1,284,128]  |  bf16  |  expBias = 0, scale = 1  |    |  ModelParam = 0  |  strides = [72704, 72704, 256, 2]  |  data = 0, sizeInBytes = 72704  |  "
    }
  }
  attr {
    key: "outputTensor:0"
    value {
      s: "tensor_15_id_111420_module/model/51/aten__unsqueeze  |  Sizes = [1,1,284,128]  |  bf16  |  expBias = 0, scale = 1  |    |  ModelParam = 0  |  strides = [72704, 72704, 72704, 256, 2]  |  data = 0, sizeInBytes = 72704  |  "
    }
  }
}
node {
  name: "module/model/51/identity/9292"
  op: "Identity"
  input: "module/model/51/expand_dims/9291"
  attr {
    key: "Bundle_idx"
    value {
      s: "N/A"
    }
  }
  attr {
    key: "Exec_idx"
    value {
      s: "17"
    }
  }
  attr {
    key: "Op_idx"
    value {
      s: "N/A"
    }
  }
  attr {
    key: "inputTensor:0"
    value {
      s: "tensor_15_id_111420_module/model/51/aten__unsqueeze  |  Sizes = [1,1,284,128]  |  bf16  |  expBias = 0, scale = 1  |    |  ModelParam = 0  |  strides = [72704, 72704, 72704, 256, 2]  |  data = 0, sizeInBytes = 72704  |  "
    }
  }
  attr {
    key: "outputTensor:0"
    value {
      s: "tensor_16_id_111422_module/model/51/aten__clone  |  Sizes = [1,1,284,128]  |  bf16  |  expBias = 0, scale = 1  |    |  ModelParam = 0  |  strides = [72704, 72704, 72704, 256, 2]  |  data = 0, sizeInBytes = 72704  |  "
    }
  }
}
node {
  name: "module/model/51/rotary_emb/mult_fwd_bf16/9295"
  op: "mult_fwd_bf16"
  input: "module/model/51/rotary_emb/slice/9293"
  input: "module/model/51/rotary_emb/cast_f32_to_bf16/9294"
  attr {
    key: "Bundle_idx"
    value {
      s: "N/A"
    }
  }
  attr {
    key: "Exec_idx"
    value {
      s: "18"
    }
  }
  attr {
    key: "Op_idx"
    value {
      s: "N/A"
    }
  }
  attr {
    key: "inputTensor:0"
    value {
      s: "tensor_18_id_111398_module/model/51/rotary_emb/aten__slice  |  Sizes = [284,128]  |  bf16  |  expBias = 0, scale = 1  |    |  ModelParam = 0  |  strides = [72704, 256, 2]  |  data = 0, sizeInBytes = 72704  |  "
    }
  }
  attr {
    key: "inputTensor:1"
    value {
      s: "tensor_20  |  Sizes = [1]  |  bf16  |  expBias = 0, scale = 1  |    |  ModelParam = 0  |  strides = [2, 2]  |  data = 0, sizeInBytes = 2  |  "
    }
  }
  attr {
    key: "outputTensor:0"
    value {
      s: "tensor_19_id_111400_module/model/51/rotary_emb/aten__mul  |  Sizes = [284,128]  |  bf16  |  expBias = 0, scale = 1  |    |  ModelParam = 0  |  strides = [72704, 256, 2]  |  data = 0, sizeInBytes = 72704  |  "
    }
  }
}
node {
  name: "module/model/51/expand_dims/9296"
  op: "ExpandDims"
  input: "module/model/51/rotary_emb/mult_fwd_bf16/9295"
  attr {
    key: "Bundle_idx"
    value {
      s: "N/A"
    }
  }
  attr {
    key: "Exec_idx"
    value {
      s: "19"
    }
  }
  attr {
    key: "Op_idx"
    value {
      s: "N/A"
    }
  }
  attr {
    key: "inputTensor:0"
    value {
      s: "tensor_19_id_111400_module/model/51/rotary_emb/aten__mul  |  Sizes = [284,128]  |  bf16  |  expBias = 0, scale = 1  |    |  ModelParam = 0  |  strides = [72704, 256, 2]  |  data = 0, sizeInBytes = 72704  |  "
    }
  }
  attr {
    key: "outputTensor:0"
    value {
      s: "tensor_21_id_111424_module/model/51/aten__unsqueeze  |  Sizes = [1,284,128]  |  bf16  |  expBias = 0, scale = 1  |    |  ModelParam = 0  |  strides = [72704, 72704, 256, 2]  |  data = 0, sizeInBytes = 72704  |  "
    }
  }
}
node {
  name: "module/model/51/expand_dims/9297"
  op: "ExpandDims"
  input: "module/model/51/expand_dims/9296"
  attr {
    key: "Bundle_idx"
    value {
      s: "N/A"
    }
  }
  attr {
    key: "Exec_idx"
    value {
      s: "20"
    }
  }
  attr {
    key: "Op_idx"
    value {
      s: "N/A"
    }
  }
  attr {
    key: "inputTensor:0"
    value {
      s: "tensor_21_id_111424_module/model/51/aten__unsqueeze  |  Sizes = [1,284,128]  |  bf16  |  expBias = 0, scale = 1  |    |  ModelParam = 0  |  strides = [72704, 72704, 256, 2]  |  data = 0, sizeInBytes = 72704  |  "
    }
  }
  attr {
    key: "outputTensor:0"
    value {
      s: "tensor_22_id_111426_module/model/51/aten__unsqueeze  |  Sizes = [1,1,284,128]  |  bf16  |  expBias = 0, scale = 1  |    |  ModelParam = 0  |  strides = [72704, 72704, 72704, 256, 2]  |  data = 0, sizeInBytes = 72704  |  "
    }
  }
}
node {
  name: "module/model/51/identity/9298"
  op: "Identity"
  input: "module/model/51/expand_dims/9297"
  attr {
    key: "Bundle_idx"
    value {
      s: "N/A"
    }
  }
  attr {
    key: "Exec_idx"
    value {
      s: "21"
    }
  }
  attr {
    key: "Op_idx"
    value {
      s: "N/A"
    }
  }
  attr {
    key: "inputTensor:0"
    value {
      s: "tensor_22_id_111426_module/model/51/aten__unsqueeze  |  Sizes = [1,1,284,128]  |  bf16  |  expBias = 0, scale = 1  |    |  ModelParam = 0  |  strides = [72704, 72704, 72704, 256, 2]  |  data = 0, sizeInBytes = 72704  |  "
    }
  }
  attr {
    key: "outputTensor:0"
    value {
      s: "tensor_23_id_111428_module/model/51/aten__clone  |  Sizes = [1,1,284,128]  |  bf16  |  expBias = 0, scale = 1  |    |  ModelParam = 0  |  strides = [72704, 72704, 72704, 256, 2]  |  data = 0, sizeInBytes = 72704  |  "
    }
  }
}
node {
  name: "module/model/51/transpose/9303"
  op: "Transpose"
  input: "module/model/51/reshape/9302"
  attr {
    key: "Bundle_idx"
    value {
      s: "N/A"
    }
  }
  attr {
    key: "Exec_idx"
    value {
      s: "22"
    }
  }
  attr {
    key: "Op_idx"
    value {
      s: "N/A"
    }
  }
  attr {
    key: "Parameters"
    value {
      s: "permutation: (0,2,1,3)"
    }
  }
  attr {
    key: "inputTensor:0"
    value {
      s: "tensor_38_id_111386_module/model/51/aten__view  |  Sizes = [1,284,2,128]  |  bf16  |  expBias = 0, scale = 1  |    |  ModelParam = 0  |  strides = [145408, 145408, 512, 256, 2]  |  data = 0, sizeInBytes = 145408  |  "
    }
  }
  attr {
    key: "outputTensor:0"
    value {
      s: "tensor_39_id_111388_module/model/51/aten__transpose  |  Sizes = [1,2,284,128]  |  bf16  |  expBias = 0, scale = 1  |    |  ModelParam = 0  |  strides = [145408, 145408, 72704, 256, 2]  |  data = 0, sizeInBytes = 145408  |  "
    }
  }
}
node {
  name: "tensor_58_odule/model/51/v_proj/placeholder/1"
  op: "Placeholder"
  attr {
    key: "dtype"
    value {
      type: DT_INVALID
    }
  }
  attr {
    key: "shape"
    value {
      shape {
        dim {
          size: 256
        }
        dim {
          size: 8192
        }
        dim {
          size: 1
        }
        dim {
          size: 1
        }
        dim {
          size: 1
        }
      }
    }
  }
  attr {
    key: "synDataType"
    value {
      s: "hfloat8"
    }
  }
}
node {
  name: "tensor_59_odule/model/51/v_proj/placeholder/2"
  op: "Placeholder"
  attr {
    key: "dtype"
    value {
      type: DT_BFLOAT16
    }
  }
  attr {
    key: "shape"
    value {
      shape {
        dim {
          size: 1
        }
        dim {
          size: 1
        }
        dim {
          size: 1
        }
        dim {
          size: 1
        }
        dim {
          size: 1
        }
      }
    }
  }
  attr {
    key: "synDataType"
    value {
      s: "bf16"
    }
  }
}
node {
  name: "tensor_60_odule/model/51/v_proj/placeholder/3"
  op: "Placeholder"
  attr {
    key: "dtype"
    value {
      type: DT_BFLOAT16
    }
  }
  attr {
    key: "shape"
    value {
      shape {
        dim {
          size: 1
        }
        dim {
          size: 1
        }
        dim {
          size: 1
        }
        dim {
          size: 1
        }
        dim {
          size: 1
        }
      }
    }
  }
  attr {
    key: "synDataType"
    value {
      s: "bf16"
    }
  }
}
node {
  name: "module/model/51/v_proj/fp8_gemm_bf16/9310"
  op: "fp8_gemm_bf16"
  input: "module/model/51/v_proj/quant_input_0/convert_to_fp8_bf16/9309"
  input: "tensor_58_odule/model/51/v_proj/placeholder/1"
  input: "tensor_59_odule/model/51/v_proj/placeholder/2"
  input: "tensor_60_odule/model/51/v_proj/placeholder/3"
  input: "unused_port"
  input: "unused_port"
  input: "unused_port"
  attr {
    key: "Bundle_idx"
    value {
      s: "N/A"
    }
  }
  attr {
    key: "Exec_idx"
    value {
      s: "23"
    }
  }
  attr {
    key: "Op_idx"
    value {
      s: "N/A"
    }
  }
  attr {
    key: "inputTensor:0"
    value {
      s: "tensor_57  |  Sizes = [1,284,8192]  |  hfloat8  |  expBias = 7, scale = 1  |    |  ModelParam = 0  |  strides = [2326528, 2326528, 8192, 1]  |  data = 0, sizeInBytes = 2326528  |  "
    }
  }
  attr {
    key: "inputTensor:1"
    value {
      s: "tensor_58_odule/model/51/v_proj/placeholder/1  |  Sizes = [8192,256]  |  hfloat8  |  expBias = 7, scale = 1  |    |  ModelParam = 0  |  strides = [2097152, 256, 1]  |  data = 0, sizeInBytes = 2097152  |  isPersistent  |  userMemorySection(type=Persistent, id=22)  |  "
    }
  }
  attr {
    key: "inputTensor:2"
    value {
      s: "tensor_59_odule/model/51/v_proj/placeholder/2  |  Sizes = [1]  |  bf16  |  expBias = 0, scale = 1  |    |  ModelParam = 0  |  strides = [2, 2]  |  data = 0x55db67b37798, sizeInBytes = 2  |  buffer = 1  |  isPersistent  |  userMemorySection(type=Persistent, id=23)  |  isStaticParam  |  bufferDtype=bf16  |  "
    }
  }
  attr {
    key: "inputTensor:3"
    value {
      s: "tensor_60_odule/model/51/v_proj/placeholder/3  |  Sizes = [1]  |  bf16  |  expBias = 0, scale = 1  |    |  ModelParam = 0  |  strides = [2, 2]  |  data = 0x55db75f177e0, sizeInBytes = 2  |  buffer = 0.00390625  |  isPersistent  |  userMemorySection(type=Persistent, id=24)  |  isStaticParam  |  bufferDtype=bf16  |  "
    }
  }
  attr {
    key: "outputTensor:0"
    value {
      s: "tensor_62  |  Sizes = [1,284,256]  |  bf16  |  expBias = 0, scale = 1  |    |  ModelParam = 0  |  strides = [145408, 145408, 512, 2]  |  data = 0, sizeInBytes = 145408  |  "
    }
  }
}
node {
  name: "module/model/51/quant_input_0/reshape/9311"
  op: "Reshape"
  input: "module/model/51/v_proj/fp8_gemm_bf16/9310"
  attr {
    key: "Bundle_idx"
    value {
      s: "N/A"
    }
  }
  attr {
    key: "Exec_idx"
    value {
      s: "24"
    }
  }
  attr {
    key: "Op_idx"
    value {
      s: "N/A"
    }
  }
  attr {
    key: "inputTensor:0"
    value {
      s: "tensor_62  |  Sizes = [1,284,256]  |  bf16  |  expBias = 0, scale = 1  |    |  ModelParam = 0  |  strides = [145408, 145408, 512, 2]  |  data = 0, sizeInBytes = 145408  |  "
    }
  }
  attr {
    key: "outputTensor:0"
    value {
      s: "tensor_63_id_111390_module/model/51/quant_input_0/aten__view  |  Sizes = [1,284,2,128]  |  bf16  |  expBias = 0, scale = 1  |    |  ModelParam = 0  |  strides = [145408, 145408, 512, 256, 2]  |  data = 0, sizeInBytes = 145408  |  "
    }
  }
}
node {
  name: "tensor_91_odule/model/51/q_proj/quant_input_0/placeholder/1"
  op: "Placeholder"
  attr {
    key: "dtype"
    value {
      type: DT_BFLOAT16
    }
  }
  attr {
    key: "shape"
    value {
      shape {
        dim {
          size: 1
        }
        dim {
          size: 1
        }
        dim {
          size: 1
        }
        dim {
          size: 1
        }
        dim {
          size: 1
        }
      }
    }
  }
  attr {
    key: "synDataType"
    value {
      s: "bf16"
    }
  }
}
node {
  name: "module/model/51/q_proj/quant_input_0/convert_to_fp8_bf16/9327"
  op: "convert_to_fp8_bf16"
  input: "module/model/51/input_layernorm/rms_norm_ex_fwd_bf16/9299"
  input: "tensor_91_odule/model/51/q_proj/quant_input_0/placeholder/1"
  attr {
    key: "Bundle_idx"
    value {
      s: "N/A"
    }
  }
  attr {
    key: "Exec_idx"
    value {
      s: "25"
    }
  }
  attr {
    key: "Op_idx"
    value {
      s: "N/A"
    }
  }
  attr {
    key: "inputTensor:0"
    value {
      s: "tensor_27  |  Sizes = [1,284,8192]  |  bf16  |  expBias = 0, scale = 1  |    |  ModelParam = 0  |  strides = [4653056, 4653056, 16384, 2]  |  data = 0, sizeInBytes = 4653056  |  "
    }
  }
  attr {
    key: "inputTensor:1"
    value {
      s: "tensor_91_odule/model/51/q_proj/quant_input_0/placeholder/1  |  Sizes = [1]  |  bf16  |  expBias = 0, scale = 1  |    |  ModelParam = 0  |  strides = [2, 2]  |  data = 0x55db76aa72d0, sizeInBytes = 2  |  buffer = 1  |  isPersistent  |  userMemorySection(type=Persistent, id=32)  |  isStaticParam  |  bufferDtype=bf16  |  "
    }
  }
  attr {
    key: "outputTensor:0"
    value {
      s: "tensor_94  |  Sizes = [1,284,8192]  |  hfloat8  |  expBias = 7, scale = 1  |    |  ModelParam = 0  |  strides = [2326528, 2326528, 8192, 1]  |  data = 0, sizeInBytes = 2326528  |  "
    }
  }
}
node {
  name: "module/model/51/rotary_pos_embedding_fwd_bf16/9304"
  op: "rotary_pos_embedding_fwd_bf16"
  input: "module/model/51/transpose/9303"
  input: "module/model/51/identity/9298"
  input: "module/model/51/identity/9292"
  input: "module/model/51/expand_dims/9286"
  attr {
    key: "Bundle_idx"
    value {
      s: "N/A"
    }
  }
  attr {
    key: "Exec_idx"
    value {
      s: "26"
    }
  }
  attr {
    key: "Op_idx"
    value {
      s: "N/A"
    }
  }
  attr {
    key: "inputTensor:0"
    value {
      s: "tensor_39_id_111388_module/model/51/aten__transpose  |  Sizes = [1,2,284,128]  |  bf16  |  expBias = 0, scale = 1  |    |  ModelParam = 0  |  strides = [145408, 145408, 72704, 256, 2]  |  data = 0, sizeInBytes = 145408  |  "
    }
  }
  attr {
    key: "inputTensor:1"
    value {
      s: "tensor_23_id_111428_module/model/51/aten__clone  |  Sizes = [1,1,284,128]  |  bf16  |  expBias = 0, scale = 1  |    |  ModelParam = 0  |  strides = [72704, 72704, 72704, 256, 2]  |  data = 0, sizeInBytes = 72704  |  "
    }
  }
  attr {
    key: "inputTensor:2"
    value {
      s: "tensor_16_id_111422_module/model/51/aten__clone  |  Sizes = [1,1,284,128]  |  bf16  |  expBias = 0, scale = 1  |    |  ModelParam = 0  |  strides = [72704, 72704, 72704, 256, 2]  |  data = 0, sizeInBytes = 72704  |  "
    }
  }
  attr {
    key: "inputTensor:3"
    value {
      s: "tensor_8_id_111276_module/model/51/aten__unsqueeze/1  |  Sizes = [1,284]  |  int32  |  expBias = 0, scale = 1  |    |  ModelParam = 0  |  strides = [1136, 1136, 4]  |  data = 0, sizeInBytes = 1136  |  "
    }
  }
  attr {
    key: "outputTensor:0"
    value {
      s: "tensor_41  |  Sizes = [1,2,284,128]  |  bf16  |  expBias = 0, scale = 1  |    |  ModelParam = 0  |  strides = [145408, 145408, 72704, 256, 2]  |  data = 0, sizeInBytes = 145408  |  "
    }
  }
}
node {
  name: "module/model/51/quant_input_0/transpose/9312"
  op: "Transpose"
  input: "module/model/51/quant_input_0/reshape/9311"
  attr {
    key: "Bundle_idx"
    value {
      s: "N/A"
    }
  }
  attr {
    key: "Exec_idx"
    value {
      s: "27"
    }
  }
  attr {
    key: "Op_idx"
    value {
      s: "N/A"
    }
  }
  attr {
    key: "Parameters"
    value {
      s: "permutation: (0,2,1,3)"
    }
  }
  attr {
    key: "inputTensor:0"
    value {
      s: "tensor_63_id_111390_module/model/51/quant_input_0/aten__view  |  Sizes = [1,284,2,128]  |  bf16  |  expBias = 0, scale = 1  |    |  ModelParam = 0  |  strides = [145408, 145408, 512, 256, 2]  |  data = 0, sizeInBytes = 145408  |  "
    }
  }
  attr {
    key: "outputTensor:0"
    value {
      s: "tensor_64_id_111392_module/model/51/quant_input_0/aten__transpose  |  Sizes = [1,2,284,128]  |  bf16  |  expBias = 0, scale = 1  |    |  ModelParam = 0  |  strides = [145408, 145408, 72704, 256, 2]  |  data = 0, sizeInBytes = 145408  |  "
    }
  }
}
node {
  name: "tensor_95_odule/model/51/q_proj/placeholder/1"
  op: "Placeholder"
  attr {
    key: "dtype"
    value {
      type: DT_INVALID
    }
  }
  attr {
    key: "shape"
    value {
      shape {
        dim {
          size: 2048
        }
        dim {
          size: 8192
        }
        dim {
          size: 1
        }
        dim {
          size: 1
        }
        dim {
          size: 1
        }
      }
    }
  }
  attr {
    key: "synDataType"
    value {
      s: "hfloat8"
    }
  }
}
node {
  name: "tensor_96_odule/model/51/q_proj/placeholder/2"
  op: "Placeholder"
  attr {
    key: "dtype"
    value {
      type: DT_BFLOAT16
    }
  }
  attr {
    key: "shape"
    value {
      shape {
        dim {
          size: 1
        }
        dim {
          size: 1
        }
        dim {
          size: 1
        }
        dim {
          size: 1
        }
        dim {
          size: 1
        }
      }
    }
  }
  attr {
    key: "synDataType"
    value {
      s: "bf16"
    }
  }
}
node {
  name: "tensor_97_odule/model/51/q_proj/placeholder/3"
  op: "Placeholder"
  attr {
    key: "dtype"
    value {
      type: DT_BFLOAT16
    }
  }
  attr {
    key: "shape"
    value {
      shape {
        dim {
          size: 1
        }
        dim {
          size: 1
        }
        dim {
          size: 1
        }
        dim {
          size: 1
        }
        dim {
          size: 1
        }
      }
    }
  }
  attr {
    key: "synDataType"
    value {
      s: "bf16"
    }
  }
}
node {
  name: "module/model/51/q_proj/fp8_gemm_bf16/9328"
  op: "fp8_gemm_bf16"
  input: "module/model/51/q_proj/quant_input_0/convert_to_fp8_bf16/9327"
  input: "tensor_95_odule/model/51/q_proj/placeholder/1"
  input: "tensor_96_odule/model/51/q_proj/placeholder/2"
  input: "tensor_97_odule/model/51/q_proj/placeholder/3"
  input: "unused_port"
  input: "unused_port"
  input: "unused_port"
  attr {
    key: "Bundle_idx"
    value {
      s: "N/A"
    }
  }
  attr {
    key: "Exec_idx"
    value {
      s: "28"
    }
  }
  attr {
    key: "Op_idx"
    value {
      s: "N/A"
    }
  }
  attr {
    key: "inputTensor:0"
    value {
      s: "tensor_94  |  Sizes = [1,284,8192]  |  hfloat8  |  expBias = 7, scale = 1  |    |  ModelParam = 0  |  strides = [2326528, 2326528, 8192, 1]  |  data = 0, sizeInBytes = 2326528  |  "
    }
  }
  attr {
    key: "inputTensor:1"
    value {
      s: "tensor_95_odule/model/51/q_proj/placeholder/1  |  Sizes = [8192,2048]  |  hfloat8  |  expBias = 7, scale = 1  |    |  ModelParam = 0  |  strides = [16777216, 2048, 1]  |  data = 0, sizeInBytes = 16777216  |  isPersistent  |  userMemorySection(type=Persistent, id=33)  |  "
    }
  }
  attr {
    key: "inputTensor:2"
    value {
      s: "tensor_96_odule/model/51/q_proj/placeholder/2  |  Sizes = [1]  |  bf16  |  expBias = 0, scale = 1  |    |  ModelParam = 0  |  strides = [2, 2]  |  data = 0x55db76aa7300, sizeInBytes = 2  |  buffer = 1  |  isPersistent  |  userMemorySection(type=Persistent, id=34)  |  isStaticParam  |  bufferDtype=bf16  |  "
    }
  }
  attr {
    key: "inputTensor:3"
    value {
      s: "tensor_97_odule/model/51/q_proj/placeholder/3  |  Sizes = [1]  |  bf16  |  expBias = 0, scale = 1  |    |  ModelParam = 0  |  strides = [2, 2]  |  data = 0x55db76aa7308, sizeInBytes = 2  |  buffer = 0.00390625  |  isPersistent  |  userMemorySection(type=Persistent, id=35)  |  isStaticParam  |  bufferDtype=bf16  |  "
    }
  }
  attr {
    key: "outputTensor:0"
    value {
      s: "tensor_99  |  Sizes = [1,284,2048]  |  bf16  |  expBias = 0, scale = 1  |    |  ModelParam = 0  |  strides = [1163264, 1163264, 4096, 2]  |  data = 0, sizeInBytes = 1163264  |  "
    }
  }
}
node {
  name: "module/model/51/reshape/9329"
  op: "Reshape"
  input: "module/model/51/q_proj/fp8_gemm_bf16/9328"
  attr {
    key: "Bundle_idx"
    value {
      s: "N/A"
    }
  }
  attr {
    key: "Exec_idx"
    value {
      s: "29"
    }
  }
  attr {
    key: "Op_idx"
    value {
      s: "N/A"
    }
  }
  attr {
    key: "inputTensor:0"
    value {
      s: "tensor_99  |  Sizes = [1,284,2048]  |  bf16  |  expBias = 0, scale = 1  |    |  ModelParam = 0  |  strides = [1163264, 1163264, 4096, 2]  |  data = 0, sizeInBytes = 1163264  |  "
    }
  }
  attr {
    key: "outputTensor:0"
    value {
      s: "tensor_100_id_111382_module/model/51/aten__view  |  Sizes = [1,284,16,128]  |  bf16  |  expBias = 0, scale = 1  |    |  ModelParam = 0  |  strides = [1163264, 1163264, 4096, 256, 2]  |  data = 0, sizeInBytes = 1163264  |  "
    }
  }
}
node {
  name: "tensor_42_odule/model/51/quant_input_0/placeholder/1"
  op: "Placeholder"
  attr {
    key: "dtype"
    value {
      type: DT_BFLOAT16
    }
  }
  attr {
    key: "shape"
    value {
      shape {
        dim {
          size: 1
        }
        dim {
          size: 1
        }
        dim {
          size: 1
        }
        dim {
          size: 1
        }
        dim {
          size: 1
        }
      }
    }
  }
  attr {
    key: "synDataType"
    value {
      s: "bf16"
    }
  }
}
node {
  name: "module/model/51/quant_input_0/convert_to_fp8_bf16/9305"
  op: "convert_to_fp8_bf16"
  input: "module/model/51/rotary_pos_embedding_fwd_bf16/9304"
  input: "tensor_42_odule/model/51/quant_input_0/placeholder/1"
  attr {
    key: "Bundle_idx"
    value {
      s: "N/A"
    }
  }
  attr {
    key: "Exec_idx"
    value {
      s: "30"
    }
  }
  attr {
    key: "Op_idx"
    value {
      s: "N/A"
    }
  }
  attr {
    key: "inputTensor:0"
    value {
      s: "tensor_41  |  Sizes = [1,2,284,128]  |  bf16  |  expBias = 0, scale = 1  |    |  ModelParam = 0  |  strides = [145408, 145408, 72704, 256, 2]  |  data = 0, sizeInBytes = 145408  |  "
    }
  }
  attr {
    key: "inputTensor:1"
    value {
      s: "tensor_42_odule/model/51/quant_input_0/placeholder/1  |  Sizes = [1]  |  bf16  |  expBias = 0, scale = 1  |    |  ModelParam = 0  |  strides = [2, 2]  |  data = 0x55db76aa6410, sizeInBytes = 2  |  buffer = 1  |  isPersistent  |  userMemorySection(type=Persistent, id=16)  |  isStaticParam  |  bufferDtype=bf16  |  "
    }
  }
  attr {
    key: "outputTensor:0"
    value {
      s: "tensor_45  |  Sizes = [1,2,284,128]  |  hfloat8  |  expBias = 7, scale = 1  |    |  ModelParam = 0  |  strides = [72704, 72704, 36352, 128, 1]  |  data = 0, sizeInBytes = 72704  |  "
    }
  }
}
node {
  name: "tensor_65_odule/model/51/quant_input_0/placeholder/1"
  op: "Placeholder"
  attr {
    key: "dtype"
    value {
      type: DT_BFLOAT16
    }
  }
  attr {
    key: "shape"
    value {
      shape {
        dim {
          size: 1
        }
        dim {
          size: 1
        }
        dim {
          size: 1
        }
        dim {
          size: 1
        }
        dim {
          size: 1
        }
      }
    }
  }
  attr {
    key: "synDataType"
    value {
      s: "bf16"
    }
  }
}
node {
  name: "module/model/51/quant_input_0/convert_to_fp8_bf16/9313"
  op: "convert_to_fp8_bf16"
  input: "module/model/51/quant_input_0/transpose/9312"
  input: "tensor_65_odule/model/51/quant_input_0/placeholder/1"
  attr {
    key: "Bundle_idx"
    value {
      s: "N/A"
    }
  }
  attr {
    key: "Exec_idx"
    value {
      s: "31"
    }
  }
  attr {
    key: "Op_idx"
    value {
      s: "N/A"
    }
  }
  attr {
    key: "inputTensor:0"
    value {
      s: "tensor_64_id_111392_module/model/51/quant_input_0/aten__transpose  |  Sizes = [1,2,284,128]  |  bf16  |  expBias = 0, scale = 1  |    |  ModelParam = 0  |  strides = [145408, 145408, 72704, 256, 2]  |  data = 0, sizeInBytes = 145408  |  "
    }
  }
  attr {
    key: "inputTensor:1"
    value {
      s: "tensor_65_odule/model/51/quant_input_0/placeholder/1  |  Sizes = [1]  |  bf16  |  expBias = 0, scale = 1  |    |  ModelParam = 0  |  strides = [2, 2]  |  data = 0x55db76aa6750, sizeInBytes = 2  |  buffer = 16  |  isPersistent  |  userMemorySection(type=Persistent, id=25)  |  isStaticParam  |  bufferDtype=bf16  |  "
    }
  }
  attr {
    key: "outputTensor:0"
    value {
      s: "tensor_68  |  Sizes = [1,2,284,128]  |  hfloat8  |  expBias = 7, scale = 1  |    |  ModelParam = 0  |  strides = [72704, 72704, 36352, 128, 1]  |  data = 0, sizeInBytes = 72704  |  "
    }
  }
}
node {
  name: "module/model/51/fused_scaled_dot_product_attention/slice/9318"
  op: "Slice"
  input: "module/model/51/fused_scaled_dot_product_attention/expand_dims/9317"
  attr {
    key: "Bundle_idx"
    value {
      s: "N/A"
    }
  }
  attr {
    key: "Exec_idx"
    value {
      s: "32"
    }
  }
  attr {
    key: "Op_idx"
    value {
      s: "N/A"
    }
  }
  attr {
    key: "inputTensor:0"
    value {
      s: "tensor_75_id_111278_module/model/51/fused_scaled_dot_product_attention/aten__unsqueeze  |  Sizes = [1,1,284,284]  |  bf16  |  expBias = 0, scale = 1  |    |  ModelParam = 0  |  strides = [161312, 161312, 161312, 568, 2]  |  data = 0, sizeInBytes = 161312  |  "
    }
  }
  attr {
    key: "outputTensor:0"
    value {
      s: "tensor_76_id_111279_module/model/51/fused_scaled_dot_product_attention/aten__slice  |  Sizes = [1,1,284,284]  |  bf16  |  expBias = 0, scale = 1  |    |  ModelParam = 0  |  strides = [161312, 161312, 161312, 568, 2]  |  data = 0, sizeInBytes = 161312  |  "
    }
  }
}
node {
  name: "module/model/51/transpose/9330"
  op: "Transpose"
  input: "module/model/51/reshape/9329"
  attr {
    key: "Bundle_idx"
    value {
      s: "N/A"
    }
  }
  attr {
    key: "Exec_idx"
    value {
      s: "33"
    }
  }
  attr {
    key: "Op_idx"
    value {
      s: "N/A"
    }
  }
  attr {
    key: "Parameters"
    value {
      s: "permutation: (0,2,1,3)"
    }
  }
  attr {
    key: "inputTensor:0"
    value {
      s: "tensor_100_id_111382_module/model/51/aten__view  |  Sizes = [1,284,16,128]  |  bf16  |  expBias = 0, scale = 1  |    |  ModelParam = 0  |  strides = [1163264, 1163264, 4096, 256, 2]  |  data = 0, sizeInBytes = 1163264  |  "
    }
  }
  attr {
    key: "outputTensor:0"
    value {
      s: "tensor_101_id_111384_module/model/51/aten__transpose  |  Sizes = [1,16,284,128]  |  bf16  |  expBias = 0, scale = 1  |    |  ModelParam = 0  |  strides = [1163264, 1163264, 72704, 256, 2]  |  data = 0, sizeInBytes = 1163264  |  "
    }
  }
}
node {
  name: "tensor_47_odule/model/51/quant_output/placeholder/1"
  op: "Placeholder"
  attr {
    key: "dtype"
    value {
      type: DT_BFLOAT16
    }
  }
  attr {
    key: "shape"
    value {
      shape {
        dim {
          size: 1
        }
        dim {
          size: 1
        }
        dim {
          size: 1
        }
        dim {
          size: 1
        }
        dim {
          size: 1
        }
      }
    }
  }
  attr {
    key: "synDataType"
    value {
      s: "bf16"
    }
  }
}
node {
  name: "module/model/51/quant_output/convert_from_fp8_bf16/9307"
  op: "convert_from_fp8_bf16"
  input: "module/model/51/quant_input_0/convert_to_fp8_bf16/9305"
  input: "tensor_47_odule/model/51/quant_output/placeholder/1"
  attr {
    key: "Bundle_idx"
    value {
      s: "N/A"
    }
  }
  attr {
    key: "Exec_idx"
    value {
      s: "34"
    }
  }
  attr {
    key: "Op_idx"
    value {
      s: "N/A"
    }
  }
  attr {
    key: "inputTensor:0"
    value {
      s: "tensor_45  |  Sizes = [1,2,284,128]  |  hfloat8  |  expBias = 7, scale = 1  |    |  ModelParam = 0  |  strides = [72704, 72704, 36352, 128, 1]  |  data = 0, sizeInBytes = 72704  |  "
    }
  }
  attr {
    key: "inputTensor:1"
    value {
      s: "tensor_47_odule/model/51/quant_output/placeholder/1  |  Sizes = [1]  |  bf16  |  expBias = 0, scale = 1  |    |  ModelParam = 0  |  strides = [2, 2]  |  data = 0x55db7407bb88, sizeInBytes = 2  |  buffer = 1  |  isPersistent  |  userMemorySection(type=Persistent, id=17)  |  isStaticParam  |  bufferDtype=bf16  |  "
    }
  }
  attr {
    key: "outputTensor:0"
    value {
      s: "tensor_49  |  Sizes = [1,2,284,128]  |  bf16  |  expBias = 0, scale = 1  |    |  ModelParam = 0  |  strides = [145408, 145408, 72704, 256, 2]  |  data = 0, sizeInBytes = 145408  |  isPersistent  |  userMemorySection(type=Persistent, id=19)  |  "
    }
  }
}
node {
  name: "tensor_70_odule/model/51/quant_output/placeholder/1"
  op: "Placeholder"
  attr {
    key: "dtype"
    value {
      type: DT_BFLOAT16
    }
  }
  attr {
    key: "shape"
    value {
      shape {
        dim {
          size: 1
        }
        dim {
          size: 1
        }
        dim {
          size: 1
        }
        dim {
          size: 1
        }
        dim {
          size: 1
        }
      }
    }
  }
  attr {
    key: "synDataType"
    value {
      s: "bf16"
    }
  }
}
node {
  name: "module/model/51/quant_output/convert_from_fp8_bf16/9315"
  op: "convert_from_fp8_bf16"
  input: "module/model/51/quant_input_0/convert_to_fp8_bf16/9313"
  input: "tensor_70_odule/model/51/quant_output/placeholder/1"
  attr {
    key: "Bundle_idx"
    value {
      s: "N/A"
    }
  }
  attr {
    key: "Exec_idx"
    value {
      s: "35"
    }
  }
  attr {
    key: "Op_idx"
    value {
      s: "N/A"
    }
  }
  attr {
    key: "inputTensor:0"
    value {
      s: "tensor_68  |  Sizes = [1,2,284,128]  |  hfloat8  |  expBias = 7, scale = 1  |    |  ModelParam = 0  |  strides = [72704, 72704, 36352, 128, 1]  |  data = 0, sizeInBytes = 72704  |  "
    }
  }
  attr {
    key: "inputTensor:1"
    value {
      s: "tensor_70_odule/model/51/quant_output/placeholder/1  |  Sizes = [1]  |  bf16  |  expBias = 0, scale = 1  |    |  ModelParam = 0  |  strides = [2, 2]  |  data = 0x55db76aa6d48, sizeInBytes = 2  |  buffer = 0.0625  |  isPersistent  |  userMemorySection(type=Persistent, id=26)  |  isStaticParam  |  bufferDtype=bf16  |  "
    }
  }
  attr {
    key: "outputTensor:0"
    value {
      s: "tensor_72  |  Sizes = [1,2,284,128]  |  bf16  |  expBias = 0, scale = 1  |    |  ModelParam = 0  |  strides = [145408, 145408, 72704, 256, 2]  |  data = 0, sizeInBytes = 145408  |  isPersistent  |  userMemorySection(type=Persistent, id=28)  |  "
    }
  }
}
node {
  name: "module/model/51/fused_scaled_dot_product_attention/slice/9319"
  op: "Slice"
  input: "module/model/51/fused_scaled_dot_product_attention/slice/9318"
  attr {
    key: "Bundle_idx"
    value {
      s: "N/A"
    }
  }
  attr {
    key: "Exec_idx"
    value {
      s: "36"
    }
  }
  attr {
    key: "Op_idx"
    value {
      s: "N/A"
    }
  }
  attr {
    key: "inputTensor:0"
    value {
      s: "tensor_76_id_111279_module/model/51/fused_scaled_dot_product_attention/aten__slice  |  Sizes = [1,1,284,284]  |  bf16  |  expBias = 0, scale = 1  |    |  ModelParam = 0  |  strides = [161312, 161312, 161312, 568, 2]  |  data = 0, sizeInBytes = 161312  |  "
    }
  }
  attr {
    key: "outputTensor:0"
    value {
      s: "tensor_77_id_111280_module/model/51/fused_scaled_dot_product_attention/aten__slice  |  Sizes = [1,1,284,284]  |  bf16  |  expBias = 0, scale = 1  |    |  ModelParam = 0  |  strides = [161312, 161312, 161312, 568, 2]  |  data = 0, sizeInBytes = 161312  |  "
    }
  }
}
node {
  name: "module/model/51/rotary_pos_embedding_fwd_bf16/9331"
  op: "rotary_pos_embedding_fwd_bf16"
  input: "module/model/51/transpose/9330"
  input: "module/model/51/identity/9298"
  input: "module/model/51/identity/9292"
  input: "module/model/51/expand_dims/9326"
  attr {
    key: "Bundle_idx"
    value {
      s: "N/A"
    }
  }
  attr {
    key: "Exec_idx"
    value {
      s: "37"
    }
  }
  attr {
    key: "Op_idx"
    value {
      s: "N/A"
    }
  }
  attr {
    key: "inputTensor:0"
    value {
      s: "tensor_101_id_111384_module/model/51/aten__transpose  |  Sizes = [1,16,284,128]  |  bf16  |  expBias = 0, scale = 1  |    |  ModelParam = 0  |  strides = [1163264, 1163264, 72704, 256, 2]  |  data = 0, sizeInBytes = 1163264  |  "
    }
  }
  attr {
    key: "inputTensor:1"
    value {
      s: "tensor_23_id_111428_module/model/51/aten__clone  |  Sizes = [1,1,284,128]  |  bf16  |  expBias = 0, scale = 1  |    |  ModelParam = 0  |  strides = [72704, 72704, 72704, 256, 2]  |  data = 0, sizeInBytes = 72704  |  "
    }
  }
  attr {
    key: "inputTensor:2"
    value {
      s: "tensor_16_id_111422_module/model/51/aten__clone  |  Sizes = [1,1,284,128]  |  bf16  |  expBias = 0, scale = 1  |    |  ModelParam = 0  |  strides = [72704, 72704, 72704, 256, 2]  |  data = 0, sizeInBytes = 72704  |  "
    }
  }
  attr {
    key: "inputTensor:3"
    value {
      s: "tensor_90_id_111276_module/model/51/aten__unsqueeze  |  Sizes = [1,284]  |  int32  |  expBias = 0, scale = 1  |    |  ModelParam = 0  |  strides = [1136, 1136, 4]  |  data = 0, sizeInBytes = 1136  |  "
    }
  }
  attr {
    key: "outputTensor:0"
    value {
      s: "tensor_103  |  Sizes = [1,16,284,128]  |  bf16  |  expBias = 0, scale = 1  |    |  ModelParam = 0  |  strides = [1163264, 1163264, 72704, 256, 2]  |  data = 0, sizeInBytes = 1163264  |  "
    }
  }
}
node {
  name: "module/model/51/fused_scaled_dot_product_attention/broadcast/9320"
  op: "Broadcast"
  input: "module/model/51/fused_scaled_dot_product_attention/slice/9319"
  attr {
    key: "Bundle_idx"
    value {
      s: "N/A"
    }
  }
  attr {
    key: "Exec_idx"
    value {
      s: "38"
    }
  }
  attr {
    key: "Op_idx"
    value {
      s: "N/A"
    }
  }
  attr {
    key: "inputTensor:0"
    value {
      s: "tensor_77_id_111280_module/model/51/fused_scaled_dot_product_attention/aten__slice  |  Sizes = [1,1,284,284]  |  bf16  |  expBias = 0, scale = 1  |    |  ModelParam = 0  |  strides = [161312, 161312, 161312, 568, 2]  |  data = 0, sizeInBytes = 161312  |  "
    }
  }
  attr {
    key: "outputTensor:0"
    value {
      s: "tensor_78_id_111281_module/model/51/fused_scaled_dot_product_attention/hpu__expand  |  Sizes = [1,1,284,284]  |  bf16  |  expBias = 0, scale = 1  |    |  ModelParam = 0  |  strides = [161312, 161312, 161312, 568, 2]  |  data = 0, sizeInBytes = 161312  |  "
    }
  }
}
node {
  name: "module/model/51/fused_scaled_dot_product_attention/expand_dims/9321"
  op: "ExpandDims"
  input: "module/model/51/fused_scaled_dot_product_attention/broadcast/9320"
  attr {
    key: "Bundle_idx"
    value {
      s: "N/A"
    }
  }
  attr {
    key: "Exec_idx"
    value {
      s: "39"
    }
  }
  attr {
    key: "Op_idx"
    value {
      s: "N/A"
    }
  }
  attr {
    key: "inputTensor:0"
    value {
      s: "tensor_78_id_111281_module/model/51/fused_scaled_dot_product_attention/hpu__expand  |  Sizes = [1,1,284,284]  |  bf16  |  expBias = 0, scale = 1  |    |  ModelParam = 0  |  strides = [161312, 161312, 161312, 568, 2]  |  data = 0, sizeInBytes = 161312  |  "
    }
  }
  attr {
    key: "outputTensor:0"
    value {
      s: "tensor_79_id_111503_module/model/51/fused_scaled_dot_product_attention/aten__unsqueeze  |  Sizes = [1,1,1,284,284]  |  bf16  |  expBias = 0, scale = 1  |    |  ModelParam = 0  |  strides = [161312, 161312, 161312, 161312, 568, 2]  |  data = 0, sizeInBytes = 161312  |  "
    }
  }
}
node {
  name: "tensor_80_odule/model/51/fused_scaled_dot_product_attention/quant_v/placeholder/1"
  op: "Placeholder"
  attr {
    key: "dtype"
    value {
      type: DT_BFLOAT16
    }
  }
  attr {
    key: "shape"
    value {
      shape {
        dim {
          size: 1
        }
        dim {
          size: 1
        }
        dim {
          size: 1
        }
        dim {
          size: 1
        }
        dim {
          size: 1
        }
      }
    }
  }
  attr {
    key: "synDataType"
    value {
      s: "bf16"
    }
  }
}
node {
  name: "module/model/51/fused_scaled_dot_product_attention/quant_v/convert_to_fp8_bf16/9322"
  op: "convert_to_fp8_bf16"
  input: "module/model/51/quant_output/convert_from_fp8_bf16/9315"
  input: "tensor_80_odule/model/51/fused_scaled_dot_product_attention/quant_v/placeholder/1"
  attr {
    key: "Bundle_idx"
    value {
      s: "N/A"
    }
  }
  attr {
    key: "Exec_idx"
    value {
      s: "40"
    }
  }
  attr {
    key: "Op_idx"
    value {
      s: "N/A"
    }
  }
  attr {
    key: "inputTensor:0"
    value {
      s: "tensor_72  |  Sizes = [1,2,284,128]  |  bf16  |  expBias = 0, scale = 1  |    |  ModelParam = 0  |  strides = [145408, 145408, 72704, 256, 2]  |  data = 0, sizeInBytes = 145408  |  isPersistent  |  userMemorySection(type=Persistent, id=28)  |  "
    }
  }
  attr {
    key: "inputTensor:1"
    value {
      s: "tensor_80_odule/model/51/fused_scaled_dot_product_attention/quant_v/placeholder/1  |  Sizes = [1]  |  bf16  |  expBias = 0, scale = 1  |    |  ModelParam = 0  |  strides = [2, 2]  |  data = 0x55db76aa7530, sizeInBytes = 2  |  buffer = 16  |  isPersistent  |  userMemorySection(type=Persistent, id=30)  |  isStaticParam  |  bufferDtype=bf16  |  "
    }
  }
  attr {
    key: "outputTensor:0"
    value {
      s: "tensor_83  |  Sizes = [1,2,284,128]  |  hfloat8  |  expBias = 7, scale = 1  |    |  ModelParam = 0  |  strides = [72704, 72704, 36352, 128, 1]  |  data = 0, sizeInBytes = 72704  |  "
    }
  }
}
node {
  name: "module/model/51/fused_scaled_dot_product_attention/reshape/9323"
  op: "Reshape"
  input: "module/model/51/fused_scaled_dot_product_attention/quant_v/convert_to_fp8_bf16/9322"
  attr {
    key: "Bundle_idx"
    value {
      s: "N/A"
    }
  }
  attr {
    key: "Exec_idx"
    value {
      s: "41"
    }
  }
  attr {
    key: "Op_idx"
    value {
      s: "N/A"
    }
  }
  attr {
    key: "inputTensor:0"
    value {
      s: "tensor_83  |  Sizes = [1,2,284,128]  |  hfloat8  |  expBias = 7, scale = 1  |    |  ModelParam = 0  |  strides = [72704, 72704, 36352, 128, 1]  |  data = 0, sizeInBytes = 72704  |  "
    }
  }
  attr {
    key: "outputTensor:0"
    value {
      s: "tensor_84_id_111501_module/model/51/fused_scaled_dot_product_attention/aten__view  |  Sizes = [1,2,1,284,128]  |  hfloat8  |  expBias = 7, scale = 1  |    |  ModelParam = 0  |  strides = [72704, 72704, 36352, 36352, 128, 1]  |  data = 0, sizeInBytes = 72704  |  "
    }
  }
}
node {
  name: "tensor_85_odule/model/51/fused_scaled_dot_product_attention/quant_k/placeholder/1"
  op: "Placeholder"
  attr {
    key: "dtype"
    value {
      type: DT_BFLOAT16
    }
  }
  attr {
    key: "shape"
    value {
      shape {
        dim {
          size: 1
        }
        dim {
          size: 1
        }
        dim {
          size: 1
        }
        dim {
          size: 1
        }
        dim {
          size: 1
        }
      }
    }
  }
  attr {
    key: "synDataType"
    value {
      s: "bf16"
    }
  }
}
node {
  name: "module/model/51/fused_scaled_dot_product_attention/quant_k/convert_to_fp8_bf16/9324"
  op: "convert_to_fp8_bf16"
  input: "module/model/51/quant_output/convert_from_fp8_bf16/9307"
  input: "tensor_85_odule/model/51/fused_scaled_dot_product_attention/quant_k/placeholder/1"
  attr {
    key: "Bundle_idx"
    value {
      s: "N/A"
    }
  }
  attr {
    key: "Exec_idx"
    value {
      s: "42"
    }
  }
  attr {
    key: "Op_idx"
    value {
      s: "N/A"
    }
  }
  attr {
    key: "inputTensor:0"
    value {
      s: "tensor_49  |  Sizes = [1,2,284,128]  |  bf16  |  expBias = 0, scale = 1  |    |  ModelParam = 0  |  strides = [145408, 145408, 72704, 256, 2]  |  data = 0, sizeInBytes = 145408  |  isPersistent  |  userMemorySection(type=Persistent, id=19)  |  "
    }
  }
  attr {
    key: "inputTensor:1"
    value {
      s: "tensor_85_odule/model/51/fused_scaled_dot_product_attention/quant_k/placeholder/1  |  Sizes = [1]  |  bf16  |  expBias = 0, scale = 1  |    |  ModelParam = 0  |  strides = [2, 2]  |  data = 0x55db76aa7578, sizeInBytes = 2  |  buffer = 1  |  isPersistent  |  userMemorySection(type=Persistent, id=31)  |  isStaticParam  |  bufferDtype=bf16  |  "
    }
  }
  attr {
    key: "outputTensor:0"
    value {
      s: "tensor_88  |  Sizes = [1,2,284,128]  |  hfloat8  |  expBias = 7, scale = 1  |    |  ModelParam = 0  |  strides = [72704, 72704, 36352, 128, 1]  |  data = 0, sizeInBytes = 72704  |  "
    }
  }
}
node {
  name: "module/model/51/fused_scaled_dot_product_attention/reshape/9325"
  op: "Reshape"
  input: "module/model/51/fused_scaled_dot_product_attention/quant_k/convert_to_fp8_bf16/9324"
  attr {
    key: "Bundle_idx"
    value {
      s: "N/A"
    }
  }
  attr {
    key: "Exec_idx"
    value {
      s: "43"
    }
  }
  attr {
    key: "Op_idx"
    value {
      s: "N/A"
    }
  }
  attr {
    key: "inputTensor:0"
    value {
      s: "tensor_88  |  Sizes = [1,2,284,128]  |  hfloat8  |  expBias = 7, scale = 1  |    |  ModelParam = 0  |  strides = [72704, 72704, 36352, 128, 1]  |  data = 0, sizeInBytes = 72704  |  "
    }
  }
  attr {
    key: "outputTensor:0"
    value {
      s: "tensor_89_id_111499_module/model/51/fused_scaled_dot_product_attention/aten__view  |  Sizes = [1,2,1,284,128]  |  hfloat8  |  expBias = 7, scale = 1  |    |  ModelParam = 0  |  strides = [72704, 72704, 36352, 36352, 128, 1]  |  data = 0, sizeInBytes = 72704  |  "
    }
  }
}
node {
  name: "tensor_104_odule/model/51/fused_scaled_dot_product_attention/quant_q/placeholder/1"
  op: "Placeholder"
  attr {
    key: "dtype"
    value {
      type: DT_BFLOAT16
    }
  }
  attr {
    key: "shape"
    value {
      shape {
        dim {
          size: 1
        }
        dim {
          size: 1
        }
        dim {
          size: 1
        }
        dim {
          size: 1
        }
        dim {
          size: 1
        }
      }
    }
  }
  attr {
    key: "synDataType"
    value {
      s: "bf16"
    }
  }
}
node {
  name: "module/model/51/fused_scaled_dot_product_attention/quant_q/convert_to_fp8_bf16/9332"
  op: "convert_to_fp8_bf16"
  input: "module/model/51/rotary_pos_embedding_fwd_bf16/9331"
  input: "tensor_104_odule/model/51/fused_scaled_dot_product_attention/quant_q/placeholder/1"
  attr {
    key: "Bundle_idx"
    value {
      s: "N/A"
    }
  }
  attr {
    key: "Exec_idx"
    value {
      s: "44"
    }
  }
  attr {
    key: "Op_idx"
    value {
      s: "N/A"
    }
  }
  attr {
    key: "inputTensor:0"
    value {
      s: "tensor_103  |  Sizes = [1,16,284,128]  |  bf16  |  expBias = 0, scale = 1  |    |  ModelParam = 0  |  strides = [1163264, 1163264, 72704, 256, 2]  |  data = 0, sizeInBytes = 1163264  |  "
    }
  }
  attr {
    key: "inputTensor:1"
    value {
      s: "tensor_104_odule/model/51/fused_scaled_dot_product_attention/quant_q/placeholder/1  |  Sizes = [1]  |  bf16  |  expBias = 0, scale = 1  |    |  ModelParam = 0  |  strides = [2, 2]  |  data = 0x55db76aa7478, sizeInBytes = 2  |  buffer = 1  |  isPersistent  |  userMemorySection(type=Persistent, id=36)  |  isStaticParam  |  bufferDtype=bf16  |  "
    }
  }
  attr {
    key: "outputTensor:0"
    value {
      s: "tensor_107  |  Sizes = [1,16,284,128]  |  hfloat8  |  expBias = 7, scale = 1  |    |  ModelParam = 0  |  strides = [581632, 581632, 36352, 128, 1]  |  data = 0, sizeInBytes = 581632  |  "
    }
  }
}
node {
  name: "module/model/51/fused_scaled_dot_product_attention/reshape/9333"
  op: "Reshape"
  input: "module/model/51/fused_scaled_dot_product_attention/quant_q/convert_to_fp8_bf16/9332"
  attr {
    key: "Bundle_idx"
    value {
      s: "N/A"
    }
  }
  attr {
    key: "Exec_idx"
    value {
      s: "45"
    }
  }
  attr {
    key: "Op_idx"
    value {
      s: "N/A"
    }
  }
  attr {
    key: "inputTensor:0"
    value {
      s: "tensor_107  |  Sizes = [1,16,284,128]  |  hfloat8  |  expBias = 7, scale = 1  |    |  ModelParam = 0  |  strides = [581632, 581632, 36352, 128, 1]  |  data = 0, sizeInBytes = 581632  |  "
    }
  }
  attr {
    key: "outputTensor:0"
    value {
      s: "tensor_108_id_111497_module/model/51/fused_scaled_dot_product_attention/aten__view  |  Sizes = [1,2,8,284,128]  |  hfloat8  |  expBias = 7, scale = 1  |    |  ModelParam = 0  |  strides = [581632, 581632, 290816, 36352, 128, 1]  |  data = 0, sizeInBytes = 581632  |  "
    }
  }
}
node {
  name: "tensor_109_odule/model/51/fused_scaled_dot_product_attention/placeholder/4"
  op: "Placeholder"
  attr {
    key: "dtype"
    value {
      type: DT_FLOAT
    }
  }
  attr {
    key: "shape"
    value {
      shape {
        dim {
          size: 1
        }
        dim {
          size: 1
        }
        dim {
          size: 1
        }
        dim {
          size: 1
        }
        dim {
          size: 1
        }
      }
    }
  }
  attr {
    key: "synDataType"
    value {
      s: "float32"
    }
  }
}
node {
  name: "tensor_110_odule/model/51/fused_scaled_dot_product_attention/placeholder/5"
  op: "Placeholder"
  attr {
    key: "dtype"
    value {
      type: DT_FLOAT
    }
  }
  attr {
    key: "shape"
    value {
      shape {
        dim {
          size: 1
        }
        dim {
          size: 1
        }
        dim {
          size: 1
        }
        dim {
          size: 1
        }
        dim {
          size: 1
        }
      }
    }
  }
  attr {
    key: "synDataType"
    value {
      s: "float32"
    }
  }
}
node {
  name: "tensor_111_odule/model/51/fused_scaled_dot_product_attention/placeholder/6"
  op: "Placeholder"
  attr {
    key: "dtype"
    value {
      type: DT_FLOAT
    }
  }
  attr {
    key: "shape"
    value {
      shape {
        dim {
          size: 1
        }
        dim {
          size: 1
        }
        dim {
          size: 1
        }
        dim {
          size: 1
        }
        dim {
          size: 1
        }
      }
    }
  }
  attr {
    key: "synDataType"
    value {
      s: "float32"
    }
  }
}
node {
  name: "tensor_112_odule/model/51/fused_scaled_dot_product_attention/placeholder/7"
  op: "Placeholder"
  attr {
    key: "dtype"
    value {
      type: DT_FLOAT
    }
  }
  attr {
    key: "shape"
    value {
      shape {
        dim {
          size: 1
        }
        dim {
          size: 1
        }
        dim {
          size: 1
        }
        dim {
          size: 1
        }
        dim {
          size: 1
        }
      }
    }
  }
  attr {
    key: "synDataType"
    value {
      s: "float32"
    }
  }
}
node {
  name: "tensor_113_odule/model/51/fused_scaled_dot_product_attention/placeholder/8"
  op: "Placeholder"
  attr {
    key: "dtype"
    value {
      type: DT_FLOAT
    }
  }
  attr {
    key: "shape"
    value {
      shape {
        dim {
          size: 1
        }
        dim {
          size: 1
        }
        dim {
          size: 1
        }
        dim {
          size: 1
        }
        dim {
          size: 1
        }
      }
    }
  }
  attr {
    key: "synDataType"
    value {
      s: "float32"
    }
  }
}
node {
  name: "tensor_114_odule/model/51/fused_scaled_dot_product_attention/placeholder/9"
  op: "Placeholder"
  attr {
    key: "dtype"
    value {
      type: DT_FLOAT
    }
  }
  attr {
    key: "shape"
    value {
      shape {
        dim {
          size: 1
        }
        dim {
          size: 1
        }
        dim {
          size: 1
        }
        dim {
          size: 1
        }
        dim {
          size: 1
        }
      }
    }
  }
  attr {
    key: "synDataType"
    value {
      s: "float32"
    }
  }
}
node {
  name: "module/model/51/fused_scaled_dot_product_attention/sdpa_recomp_fwd_hf8/9334"
  op: "sdpa_recomp_fwd_hf8"
  input: "module/model/51/fused_scaled_dot_product_attention/reshape/9333"
  input: "module/model/51/fused_scaled_dot_product_attention/reshape/9325"
  input: "module/model/51/fused_scaled_dot_product_attention/reshape/9323"
  input: "module/model/51/fused_scaled_dot_product_attention/expand_dims/9321"
  input: "unused_port"
  input: "tensor_109_odule/model/51/fused_scaled_dot_product_attention/placeholder/4"
  input: "tensor_110_odule/model/51/fused_scaled_dot_product_attention/placeholder/5"
  input: "tensor_111_odule/model/51/fused_scaled_dot_product_attention/placeholder/6"
  input: "tensor_112_odule/model/51/fused_scaled_dot_product_attention/placeholder/7"
  input: "tensor_113_odule/model/51/fused_scaled_dot_product_attention/placeholder/8"
  input: "tensor_114_odule/model/51/fused_scaled_dot_product_attention/placeholder/9"
  attr {
    key: "Bundle_idx"
    value {
      s: "N/A"
    }
  }
  attr {
    key: "Exec_idx"
    value {
      s: "46"
    }
  }
  attr {
    key: "Op_idx"
    value {
      s: "N/A"
    }
  }
  attr {
    key: "inputTensor:00"
    value {
      s: "tensor_108_id_111497_module/model/51/fused_scaled_dot_product_attention/aten__view  |  Sizes = [1,2,8,284,128]  |  hfloat8  |  expBias = 7, scale = 1  |    |  ModelParam = 0  |  strides = [581632, 581632, 290816, 36352, 128, 1]  |  data = 0, sizeInBytes = 581632  |  "
    }
  }
  attr {
    key: "inputTensor:01"
    value {
      s: "tensor_89_id_111499_module/model/51/fused_scaled_dot_product_attention/aten__view  |  Sizes = [1,2,1,284,128]  |  hfloat8  |  expBias = 7, scale = 1  |    |  ModelParam = 0  |  strides = [72704, 72704, 36352, 36352, 128, 1]  |  data = 0, sizeInBytes = 72704  |  "
    }
  }
  attr {
    key: "inputTensor:02"
    value {
      s: "tensor_84_id_111501_module/model/51/fused_scaled_dot_product_attention/aten__view  |  Sizes = [1,2,1,284,128]  |  hfloat8  |  expBias = 7, scale = 1  |    |  ModelParam = 0  |  strides = [72704, 72704, 36352, 36352, 128, 1]  |  data = 0, sizeInBytes = 72704  |  "
    }
  }
  attr {
    key: "inputTensor:03"
    value {
      s: "tensor_79_id_111503_module/model/51/fused_scaled_dot_product_attention/aten__unsqueeze  |  Sizes = [1,1,1,284,284]  |  bf16  |  expBias = 0, scale = 1  |    |  ModelParam = 0  |  strides = [161312, 161312, 161312, 161312, 568, 2]  |  data = 0, sizeInBytes = 161312  |  "
    }
  }
  attr {
    key: "inputTensor:05"
    value {
      s: "tensor_109_odule/model/51/fused_scaled_dot_product_attention/placeholder/4  |  Sizes = [1]  |  float32  |  expBias = 0, scale = 1  |    |  ModelParam = 0  |  strides = [4, 4]  |  data = 0x55db6b34ede0, sizeInBytes = 4  |  buffer = 1  |  isPersistent  |  userMemorySection(type=Persistent, id=37)  |  isStaticParam  |  bufferDtype=float32  |  "
    }
  }
  attr {
    key: "inputTensor:06"
    value {
      s: "tensor_110_odule/model/51/fused_scaled_dot_product_attention/placeholder/5  |  Sizes = [1]  |  float32  |  expBias = 0, scale = 1  |    |  ModelParam = 0  |  strides = [4, 4]  |  data = 0x55db76aa75d8, sizeInBytes = 4  |  buffer = 1  |  isPersistent  |  userMemorySection(type=Persistent, id=38)  |  isStaticParam  |  bufferDtype=float32  |  "
    }
  }
  attr {
    key: "inputTensor:07"
    value {
      s: "tensor_111_odule/model/51/fused_scaled_dot_product_attention/placeholder/6  |  Sizes = [1]  |  float32  |  expBias = 0, scale = 1  |    |  ModelParam = 0  |  strides = [4, 4]  |  data = 0x55db76aa75d0, sizeInBytes = 4  |  buffer = 0.0625  |  isPersistent  |  userMemorySection(type=Persistent, id=39)  |  isStaticParam  |  bufferDtype=float32  |  "
    }
  }
  attr {
    key: "inputTensor:08"
    value {
      s: "tensor_112_odule/model/51/fused_scaled_dot_product_attention/placeholder/7  |  Sizes = [1]  |  float32  |  expBias = 0, scale = 1  |    |  ModelParam = 0  |  strides = [4, 4]  |  data = 0x55db76aa75e0, sizeInBytes = 4  |  buffer = 16  |  isPersistent  |  userMemorySection(type=Persistent, id=40)  |  isStaticParam  |  bufferDtype=float32  |  "
    }
  }
  attr {
    key: "inputTensor:09"
    value {
      s: "tensor_113_odule/model/51/fused_scaled_dot_product_attention/placeholder/8  |  Sizes = [1]  |  float32  |  expBias = 0, scale = 1  |    |  ModelParam = 0  |  strides = [4, 4]  |  data = 0x55db76aa75e8, sizeInBytes = 4  |  buffer = 16  |  isPersistent  |  userMemorySection(type=Persistent, id=41)  |  isStaticParam  |  bufferDtype=float32  |  "
    }
  }
  attr {
    key: "inputTensor:10"
    value {
      s: "tensor_114_odule/model/51/fused_scaled_dot_product_attention/placeholder/9  |  Sizes = [1]  |  float32  |  expBias = 0, scale = 1  |    |  ModelParam = 0  |  strides = [4, 4]  |  data = 0x55db76aa75f0, sizeInBytes = 4  |  buffer = 0.0625  |  isPersistent  |  userMemorySection(type=Persistent, id=42)  |  isStaticParam  |  bufferDtype=float32  |  "
    }
  }
  attr {
    key: "outputTensor:0"
    value {
      s: "tensor_120  |  Sizes = [1,2,8,284,128]  |  hfloat8  |  expBias = 7, scale = 1  |    |  ModelParam = 0  |  strides = [581632, 581632, 290816, 36352, 128, 1]  |  data = 0, sizeInBytes = 581632  |  "
    }
  }
}
node {
  name: "module/model/51/fused_scaled_dot_product_attention/dequant_output/reshape/9335"
  op: "Reshape"
  input: "module/model/51/fused_scaled_dot_product_attention/sdpa_recomp_fwd_hf8/9334"
  attr {
    key: "Bundle_idx"
    value {
      s: "N/A"
    }
  }
  attr {
    key: "Exec_idx"
    value {
      s: "47"
    }
  }
  attr {
    key: "Op_idx"
    value {
      s: "N/A"
    }
  }
  attr {
    key: "inputTensor:0"
    value {
      s: "tensor_120  |  Sizes = [1,2,8,284,128]  |  hfloat8  |  expBias = 7, scale = 1  |    |  ModelParam = 0  |  strides = [581632, 581632, 290816, 36352, 128, 1]  |  data = 0, sizeInBytes = 581632  |  "
    }
  }
  attr {
    key: "outputTensor:0"
    value {
      s: "tensor_121_id_111522_module/model/51/fused_scaled_dot_product_attention/dequant_output/aten__view  |  Sizes = [1,16,284,128]  |  hfloat8  |  expBias = 7, scale = 1  |    |  ModelParam = 0  |  strides = [581632, 581632, 36352, 128, 1]  |  data = 0, sizeInBytes = 581632  |  "
    }
  }
}
node {
  name: "tensor_122_odule/model/51/fused_scaled_dot_product_attention/dequant_output/placeholder/1"
  op: "Placeholder"
  attr {
    key: "dtype"
    value {
      type: DT_BFLOAT16
    }
  }
  attr {
    key: "shape"
    value {
      shape {
        dim {
          size: 1
        }
        dim {
          size: 1
        }
        dim {
          size: 1
        }
        dim {
          size: 1
        }
        dim {
          size: 1
        }
      }
    }
  }
  attr {
    key: "synDataType"
    value {
      s: "bf16"
    }
  }
}
node {
  name: "module/model/51/fused_scaled_dot_product_attention/dequant_output/convert_from_fp8_bf16/9336"
  op: "convert_from_fp8_bf16"
  input: "module/model/51/fused_scaled_dot_product_attention/dequant_output/reshape/9335"
  input: "tensor_122_odule/model/51/fused_scaled_dot_product_attention/dequant_output/placeholder/1"
  attr {
    key: "Bundle_idx"
    value {
      s: "N/A"
    }
  }
  attr {
    key: "Exec_idx"
    value {
      s: "48"
    }
  }
  attr {
    key: "Op_idx"
    value {
      s: "N/A"
    }
  }
  attr {
    key: "inputTensor:0"
    value {
      s: "tensor_121_id_111522_module/model/51/fused_scaled_dot_product_attention/dequant_output/aten__view  |  Sizes = [1,16,284,128]  |  hfloat8  |  expBias = 7, scale = 1  |    |  ModelParam = 0  |  strides = [581632, 581632, 36352, 128, 1]  |  data = 0, sizeInBytes = 581632  |  "
    }
  }
  attr {
    key: "inputTensor:1"
    value {
      s: "tensor_122_odule/model/51/fused_scaled_dot_product_attention/dequant_output/placeholder/1  |  Sizes = [1]  |  bf16  |  expBias = 0, scale = 1  |    |  ModelParam = 0  |  strides = [2, 2]  |  data = 0x55db76aa7600, sizeInBytes = 2  |  buffer = 0.0625  |  isPersistent  |  userMemorySection(type=Persistent, id=43)  |  isStaticParam  |  bufferDtype=bf16  |  "
    }
  }
  attr {
    key: "outputTensor:0"
    value {
      s: "tensor_124  |  Sizes = [1,16,284,128]  |  bf16  |  expBias = 0, scale = 1  |    |  ModelParam = 0  |  strides = [1163264, 1163264, 72704, 256, 2]  |  data = 0, sizeInBytes = 1163264  |  "
    }
  }
}
node {
  name: "module/model/51/transpose/9337"
  op: "Transpose"
  input: "module/model/51/fused_scaled_dot_product_attention/dequant_output/convert_from_fp8_bf16/9336"
  attr {
    key: "Bundle_idx"
    value {
      s: "N/A"
    }
  }
  attr {
    key: "Exec_idx"
    value {
      s: "49"
    }
  }
  attr {
    key: "Op_idx"
    value {
      s: "N/A"
    }
  }
  attr {
    key: "Parameters"
    value {
      s: "permutation: (0,2,1,3)"
    }
  }
  attr {
    key: "inputTensor:0"
    value {
      s: "tensor_124  |  Sizes = [1,16,284,128]  |  bf16  |  expBias = 0, scale = 1  |    |  ModelParam = 0  |  strides = [1163264, 1163264, 72704, 256, 2]  |  data = 0, sizeInBytes = 1163264  |  "
    }
  }
  attr {
    key: "outputTensor:0"
    value {
      s: "tensor_125_id_111527_module/model/51/aten__transpose  |  Sizes = [1,284,16,128]  |  bf16  |  expBias = 0, scale = 1  |    |  ModelParam = 0  |  strides = [1163264, 1163264, 4096, 256, 2]  |  data = 0, sizeInBytes = 1163264  |  "
    }
  }
}
node {
  name: "module/model/51/identity/9338"
  op: "Identity"
  input: "module/model/51/transpose/9337"
  attr {
    key: "Bundle_idx"
    value {
      s: "N/A"
    }
  }
  attr {
    key: "Exec_idx"
    value {
      s: "50"
    }
  }
  attr {
    key: "Op_idx"
    value {
      s: "N/A"
    }
  }
  attr {
    key: "inputTensor:0"
    value {
      s: "tensor_125_id_111527_module/model/51/aten__transpose  |  Sizes = [1,284,16,128]  |  bf16  |  expBias = 0, scale = 1  |    |  ModelParam = 0  |  strides = [1163264, 1163264, 4096, 256, 2]  |  data = 0, sizeInBytes = 1163264  |  "
    }
  }
  attr {
    key: "outputTensor:0"
    value {
      s: "tensor_126_id_111529_module/model/51/aten__clone  |  Sizes = [1,284,16,128]  |  bf16  |  expBias = 0, scale = 1  |    |  ModelParam = 0  |  strides = [1163264, 1163264, 4096, 256, 2]  |  data = 0, sizeInBytes = 1163264  |  "
    }
  }
}
node {
  name: "module/model/51/o_proj/quant_input_0/reshape/9339"
  op: "Reshape"
  input: "module/model/51/identity/9338"
  attr {
    key: "Bundle_idx"
    value {
      s: "N/A"
    }
  }
  attr {
    key: "Exec_idx"
    value {
      s: "51"
    }
  }
  attr {
    key: "Op_idx"
    value {
      s: "N/A"
    }
  }
  attr {
    key: "inputTensor:0"
    value {
      s: "tensor_126_id_111529_module/model/51/aten__clone  |  Sizes = [1,284,16,128]  |  bf16  |  expBias = 0, scale = 1  |    |  ModelParam = 0  |  strides = [1163264, 1163264, 4096, 256, 2]  |  data = 0, sizeInBytes = 1163264  |  "
    }
  }
  attr {
    key: "outputTensor:0"
    value {
      s: "tensor_127_id_111532_module/model/51/o_proj/quant_input_0/aten__view  |  Sizes = [1,284,2048]  |  bf16  |  expBias = 0, scale = 1  |    |  ModelParam = 0  |  strides = [1163264, 1163264, 4096, 2]  |  data = 0, sizeInBytes = 1163264  |  "
    }
  }
}
node {
  name: "module/model/51/constant_hf8/9285"
  op: "constant_hf8"
  attr {
    key: "Bundle_idx"
    value {
      s: "N/A"
    }
  }
  attr {
    key: "Exec_idx"
    value {
      s: "52"
    }
  }
  attr {
    key: "Op_idx"
    value {
      s: "N/A"
    }
  }
  attr {
    key: "outputTensor:0"
    value {
      s: "tensor_5  |  Sizes = [1,2,284,128]  |  hfloat8  |  expBias = 7, scale = 1  |    |  ModelParam = 0  |  strides = [72704, 72704, 36352, 128, 1]  |  data = 0, sizeInBytes = 72704  |  isPersistent  |  userMemorySection(type=Persistent, id=6)  |  "
    }
  }
}
node {
  name: "tensor_5"
  op: "OutputTensor"
  input: "module/model/51/constant_hf8/9285"
  attr {
    key: "dtype"
    value {
      type: DT_INVALID
    }
  }
  attr {
    key: "shape"
    value {
      shape {
        dim {
          size: 128
        }
        dim {
          size: 284
        }
        dim {
          size: 2
        }
        dim {
          size: 1
        }
        dim {
          size: 1
        }
      }
    }
  }
  attr {
    key: "synDataType"
    value {
      s: "hfloat8"
    }
  }
}
node {
  name: "module/model/51/constant_hf8/9308"
  op: "constant_hf8"
  attr {
    key: "Bundle_idx"
    value {
      s: "N/A"
    }
  }
  attr {
    key: "Exec_idx"
    value {
      s: "53"
    }
  }
  attr {
    key: "Op_idx"
    value {
      s: "N/A"
    }
  }
  attr {
    key: "outputTensor:0"
    value {
      s: "tensor_52  |  Sizes = [1,2,284,128]  |  hfloat8  |  expBias = 7, scale = 1  |    |  ModelParam = 0  |  strides = [72704, 72704, 36352, 128, 1]  |  data = 0, sizeInBytes = 72704  |  isPersistent  |  userMemorySection(type=Persistent, id=20)  |  "
    }
  }
}
node {
  name: "tensor_52"
  op: "OutputTensor"
  input: "module/model/51/constant_hf8/9308"
  attr {
    key: "dtype"
    value {
      type: DT_INVALID
    }
  }
  attr {
    key: "shape"
    value {
      shape {
        dim {
          size: 128
        }
        dim {
          size: 284
        }
        dim {
          size: 2
        }
        dim {
          size: 1
        }
        dim {
          size: 1
        }
      }
    }
  }
  attr {
    key: "synDataType"
    value {
      s: "hfloat8"
    }
  }
}
node {
  name: "tensor_128_odule/model/51/o_proj/quant_input_0/placeholder/1"
  op: "Placeholder"
  attr {
    key: "dtype"
    value {
      type: DT_BFLOAT16
    }
  }
  attr {
    key: "shape"
    value {
      shape {
        dim {
          size: 1
        }
        dim {
          size: 1
        }
        dim {
          size: 1
        }
        dim {
          size: 1
        }
        dim {
          size: 1
        }
      }
    }
  }
  attr {
    key: "synDataType"
    value {
      s: "bf16"
    }
  }
}
node {
  name: "module/model/51/o_proj/quant_input_0/convert_to_fp8_bf16/9340"
  op: "convert_to_fp8_bf16"
  input: "module/model/51/o_proj/quant_input_0/reshape/9339"
  input: "tensor_128_odule/model/51/o_proj/quant_input_0/placeholder/1"
  attr {
    key: "Bundle_idx"
    value {
      s: "N/A"
    }
  }
  attr {
    key: "Exec_idx"
    value {
      s: "54"
    }
  }
  attr {
    key: "Op_idx"
    value {
      s: "N/A"
    }
  }
  attr {
    key: "inputTensor:0"
    value {
      s: "tensor_127_id_111532_module/model/51/o_proj/quant_input_0/aten__view  |  Sizes = [1,284,2048]  |  bf16  |  expBias = 0, scale = 1  |    |  ModelParam = 0  |  strides = [1163264, 1163264, 4096, 2]  |  data = 0, sizeInBytes = 1163264  |  "
    }
  }
  attr {
    key: "inputTensor:1"
    value {
      s: "tensor_128_odule/model/51/o_proj/quant_input_0/placeholder/1  |  Sizes = [1]  |  bf16  |  expBias = 0, scale = 1  |    |  ModelParam = 0  |  strides = [2, 2]  |  data = 0x55db76aa7678, sizeInBytes = 2  |  buffer = 16  |  isPersistent  |  userMemorySection(type=Persistent, id=44)  |  isStaticParam  |  bufferDtype=bf16  |  "
    }
  }
  attr {
    key: "outputTensor:0"
    value {
      s: "tensor_131  |  Sizes = [1,284,2048]  |  hfloat8  |  expBias = 7, scale = 1  |    |  ModelParam = 0  |  strides = [581632, 581632, 2048, 1]  |  data = 0, sizeInBytes = 581632  |  "
    }
  }
}
node {
  name: "module/model/51/memcpy/9306"
  op: "Memcpy"
  input: "module/model/51/quant_input_0/convert_to_fp8_bf16/9305"
  input: "^module/model/51/constant_hf8/9285"
  attr {
    key: "Bundle_idx"
    value {
      s: "N/A"
    }
  }
  attr {
    key: "Exec_idx"
    value {
      s: "55"
    }
  }
  attr {
    key: "Op_idx"
    value {
      s: "N/A"
    }
  }
  attr {
    key: "inputTensor:0"
    value {
      s: "tensor_45  |  Sizes = [1,2,284,128]  |  hfloat8  |  expBias = 7, scale = 1  |    |  ModelParam = 0  |  strides = [72704, 72704, 36352, 128, 1]  |  data = 0, sizeInBytes = 72704  |  "
    }
  }
  attr {
    key: "outputTensor:0"
    value {
      s: "tensor_46  |  Sizes = [1,2,284,128]  |  hfloat8  |  expBias = 7, scale = 1  |    |  ModelParam = 0  |  strides = [72704, 72704, 36352, 128, 1]  |  data = 0, sizeInBytes = 72704  |  isPersistent  |  userMemorySection(type=Persistent, id=6)  |  "
    }
  }
}
node {
  name: "tensor_46"
  op: "OutputTensor"
  input: "module/model/51/memcpy/9306"
  attr {
    key: "dtype"
    value {
      type: DT_INVALID
    }
  }
  attr {
    key: "shape"
    value {
      shape {
        dim {
          size: 128
        }
        dim {
          size: 284
        }
        dim {
          size: 2
        }
        dim {
          size: 1
        }
        dim {
          size: 1
        }
      }
    }
  }
  attr {
    key: "synDataType"
    value {
      s: "hfloat8"
    }
  }
}
node {
  name: "module/model/51/memcpy/9314"
  op: "Memcpy"
  input: "module/model/51/quant_input_0/convert_to_fp8_bf16/9313"
  input: "^module/model/51/constant_hf8/9308"
  attr {
    key: "Bundle_idx"
    value {
      s: "N/A"
    }
  }
  attr {
    key: "Exec_idx"
    value {
      s: "56"
    }
  }
  attr {
    key: "Op_idx"
    value {
      s: "N/A"
    }
  }
  attr {
    key: "inputTensor:0"
    value {
      s: "tensor_68  |  Sizes = [1,2,284,128]  |  hfloat8  |  expBias = 7, scale = 1  |    |  ModelParam = 0  |  strides = [72704, 72704, 36352, 128, 1]  |  data = 0, sizeInBytes = 72704  |  "
    }
  }
  attr {
    key: "outputTensor:0"
    value {
      s: "tensor_69  |  Sizes = [1,2,284,128]  |  hfloat8  |  expBias = 7, scale = 1  |    |  ModelParam = 0  |  strides = [72704, 72704, 36352, 128, 1]  |  data = 0, sizeInBytes = 72704  |  isPersistent  |  userMemorySection(type=Persistent, id=20)  |  "
    }
  }
}
node {
  name: "tensor_69"
  op: "OutputTensor"
  input: "module/model/51/memcpy/9314"
  attr {
    key: "dtype"
    value {
      type: DT_INVALID
    }
  }
  attr {
    key: "shape"
    value {
      shape {
        dim {
          size: 128
        }
        dim {
          size: 284
        }
        dim {
          size: 2
        }
        dim {
          size: 1
        }
        dim {
          size: 1
        }
      }
    }
  }
  attr {
    key: "synDataType"
    value {
      s: "hfloat8"
    }
  }
}
node {
  name: "tensor_132_odule/model/51/o_proj/placeholder/1"
  op: "Placeholder"
  attr {
    key: "dtype"
    value {
      type: DT_INVALID
    }
  }
  attr {
    key: "shape"
    value {
      shape {
        dim {
          size: 8192
        }
        dim {
          size: 2048
        }
        dim {
          size: 1
        }
        dim {
          size: 1
        }
        dim {
          size: 1
        }
      }
    }
  }
  attr {
    key: "synDataType"
    value {
      s: "hfloat8"
    }
  }
}
node {
  name: "tensor_133_odule/model/51/o_proj/placeholder/2"
  op: "Placeholder"
  attr {
    key: "dtype"
    value {
      type: DT_BFLOAT16
    }
  }
  attr {
    key: "shape"
    value {
      shape {
        dim {
          size: 1
        }
        dim {
          size: 1
        }
        dim {
          size: 1
        }
        dim {
          size: 1
        }
        dim {
          size: 1
        }
      }
    }
  }
  attr {
    key: "synDataType"
    value {
      s: "bf16"
    }
  }
}
node {
  name: "tensor_134_odule/model/51/o_proj/placeholder/3"
  op: "Placeholder"
  attr {
    key: "dtype"
    value {
      type: DT_BFLOAT16
    }
  }
  attr {
    key: "shape"
    value {
      shape {
        dim {
          size: 1
        }
        dim {
          size: 1
        }
        dim {
          size: 1
        }
        dim {
          size: 1
        }
        dim {
          size: 1
        }
      }
    }
  }
  attr {
    key: "synDataType"
    value {
      s: "bf16"
    }
  }
}
node {
  name: "module/model/51/o_proj/fp8_gemm_bf16/9341"
  op: "fp8_gemm_bf16"
  input: "module/model/51/o_proj/quant_input_0/convert_to_fp8_bf16/9340"
  input: "tensor_132_odule/model/51/o_proj/placeholder/1"
  input: "tensor_133_odule/model/51/o_proj/placeholder/2"
  input: "tensor_134_odule/model/51/o_proj/placeholder/3"
  input: "unused_port"
  input: "unused_port"
  input: "unused_port"
  attr {
    key: "Bundle_idx"
    value {
      s: "N/A"
    }
  }
  attr {
    key: "Exec_idx"
    value {
      s: "57"
    }
  }
  attr {
    key: "Op_idx"
    value {
      s: "N/A"
    }
  }
  attr {
    key: "inputTensor:0"
    value {
      s: "tensor_131  |  Sizes = [1,284,2048]  |  hfloat8  |  expBias = 7, scale = 1  |    |  ModelParam = 0  |  strides = [581632, 581632, 2048, 1]  |  data = 0, sizeInBytes = 581632  |  "
    }
  }
  attr {
    key: "inputTensor:1"
    value {
      s: "tensor_132_odule/model/51/o_proj/placeholder/1  |  Sizes = [2048,8192]  |  hfloat8  |  expBias = 7, scale = 1  |    |  ModelParam = 0  |  strides = [16777216, 8192, 1]  |  data = 0, sizeInBytes = 16777216  |  isPersistent  |  userMemorySection(type=Persistent, id=45)  |  "
    }
  }
  attr {
    key: "inputTensor:2"
    value {
      s: "tensor_133_odule/model/51/o_proj/placeholder/2  |  Sizes = [1]  |  bf16  |  expBias = 0, scale = 1  |    |  ModelParam = 0  |  strides = [2, 2]  |  data = 0x55db76aa76a8, sizeInBytes = 2  |  buffer = 0.0625  |  isPersistent  |  userMemorySection(type=Persistent, id=46)  |  isStaticParam  |  bufferDtype=bf16  |  "
    }
  }
  attr {
    key: "inputTensor:3"
    value {
      s: "tensor_134_odule/model/51/o_proj/placeholder/3  |  Sizes = [1]  |  bf16  |  expBias = 0, scale = 1  |    |  ModelParam = 0  |  strides = [2, 2]  |  data = 0x55db76aa76a0, sizeInBytes = 2  |  buffer = 0.00390625  |  isPersistent  |  userMemorySection(type=Persistent, id=47)  |  isStaticParam  |  bufferDtype=bf16  |  "
    }
  }
  attr {
    key: "outputTensor:0"
    value {
      s: "tensor_136  |  Sizes = [1,284,8192]  |  bf16  |  expBias = 0, scale = 1  |    |  ModelParam = 0  |  strides = [4653056, 4653056, 16384, 2]  |  data = 0, sizeInBytes = 4653056  |  isPersistent  |  userMemorySection(type=Persistent, id=49)  |  "
    }
  }
}
node {
  name: "tensor_136"
  op: "OutputTensor"
  input: "module/model/51/o_proj/fp8_gemm_bf16/9341"
  attr {
    key: "dtype"
    value {
      type: DT_BFLOAT16
    }
  }
  attr {
    key: "shape"
    value {
      shape {
        dim {
          size: 8192
        }
        dim {
          size: 284
        }
        dim {
          size: 1
        }
        dim {
          size: 1
        }
        dim {
          size: 1
        }
      }
    }
  }
  attr {
    key: "synDataType"
    value {
      s: "bf16"
    }
  }
}
